Zadanie3/srcV2/models/VEP_exp_prob_03_exploration_100/actor_network.pth (torch, 507007 bytes, 10 tensors)

fc1.weight f4 [400, 8]
0	0x3cf66f0a	0.030082244
1	0x3de87ca2	0.11351897
2	0x3e939194	0.28822005
3	0xbd9637a1	-0.07334829
4	0x3e32db4a	0.17466465
5	0xbe2f9a9b	-0.17148821
6	0x3ba43f83	0.005012454
7	0x3e1124c7	0.14174186
8	0x3e2911b4	0.1651066
9	0x3e446c22	0.19181874
10	0xbc3f3945	-0.011671369
11	0xbddff2ba	-0.10934968
12	0x3e554891	0.20828463
13	0x3ddda121	0.108217485
14	0x3d8d9586	0.06913285
15	0x3e1c5a66	0.1526886
16	0xbbfa3fcf	-0.007637001
17	0x3e051ae9	0.12998547
18	0x3e00499f	0.12528084
19	0xbde07ea5	-0.109616555
20	0xbe916033	-0.28393707
21	0x3d239440	0.039936304
22	0xbe8b4657	-0.27202103
23	0x3da63961	0.08116413
24	0x3d5bb003	0.053634655
25	0x3e3b1461	0.18269493
26	0xbce97e26	-0.028502535
27	0xbe505c46	-0.203477
28	0xbdf07ba2	-0.11742331
29	0xbdc01306	-0.093786284
30	0x3e1bdd55	0.1522115
31	0x3d617f2e	0.05505293
32	0xbc219494	-0.009862084
33	0x3e8c6b7b	0.2742575
34	0x3dd61d25	0.10454778
35	0xbe5614d9	-0.2090639
36	0xbded0219	-0.11572666
37	0x3ceeb475	0.029138783
38	0x3e358a4e	0.1772854
39	0x3e3d673f	0.18496417
40	0x3dd437e6	0.10362224
41	0x3e0e1c2e	0.13877937
42	0x3e1a8ec5	0.15093525
43	0xbe2dab49	-0.16959871
44	0xbe93e1ca	-0.288832
45	0xbe0168fa	-0.12637702
46	0xbe54cb83	-0.20780759
47	0x3e4d49ad	0.20047636
48	0x3d5fbf1d	0.05462562
49	0x3e43bedb	0.19115774
50	0x3d0cfb7b	0.034419518
51	0xbeb31a2a	-0.349809
52	0xbd3a5841	-0.04549432
53	0xbd7c2cd2	-0.06156618
54	0xbe955acd	-0.29170838
55	0xbdf1151e	-0.11771606
56	0x3e0d91a5	0.1382509
57	0x3e23c929	0.15994705
58	0x3af4b9ec	0.0018671132
59	0x3bf288b9	0.0074015525
60	0x3d8cf870	0.06883323
61	0x3da98d30	0.082788825
62	0x3dc027d1	0.093825944
63	0x3e436313	0.19080763
64	0x3e003b8e	0.12522718
65	0x3e12e6ab	0.14345805
66	0x3bb76b36	0.0055974973
67	0xbcc3a570	-0.023882598
68	0x3e8f4668	0.27983403
69	0x3e3161a3	0.17322402
70	0xbd64e863	-0.055885684
71	0xbd435ee1	-0.047697905
72	0x3cadaf75	0.021201828
73	0x3e5182da	0.20460072
74	0xbd13c765	-0.03607883
75	0xbd07989e	-0.03310453
76	0x3c38ddd3	0.011283356
77	0x3d9aea10	0.07564175
78	0x3d2a5d78	0.041593045
79	0x3dde5385	0.10855774
80	0xbd9ee5ab	-0.077586494
81	0x3dfd9247	0.12381416
82	0xbe0579e2	-0.13034776
83	0xbe137907	-0.14401637
84	0xbe036149	-0.1283008
85	0xbe500229	-0.20313324
86	0xbe757399	-0.23969878
87	0xbd9068db	-0.070512496
88	0x3ea4ecd8	0.32211947
89	0x3f055791	0.5208674
90	0x3ce044b9	0.02737652
91	0xbefb06f9	-0.49028757
92	0xbd406141	-0.04696775
93	0xbd921490	-0.07132828
94	0x3deab48a	0.11460216
95	0x3e9ea4ee	0.30985206
96	0x3e02e2de	0.12781855
97	0x3e5f4267	0.21802674
98	0x3dcccf47	0.100004725
99	0xbdc63557	-0.096781425
100	0xbe496825	-0.19668634
101	0xbdcc52f7	-0.09976762
102	0xbe64f49f	-0.2235894
103	0x3e05cea5	0.1306711
104	0x3cdf5e3d	0.027266616
105	0x3e1d672c	0.15371388
106	0x3db97a3c	0.090565175
107	0xbe314edd	-0.1731524
108	0x3cd946dc	0.026523046
109	0x3e0f366e	0.13985607
110	0xbd6a2218	-0.05716142
111	0x3e2572eb	0.16157119
112	0xbca05e8c	-0.019576333
113	0x3df6eb8b	0.12056645
114	0xbdd95ff0	-0.10614002
115	0xbe34311a	-0.17596856
116	0xbd7f4dae	-0.06232994
117	0xbd957330	-0.07297361
118	0xbd35d2b2	-0.044390388
119	0x3ce47945	0.027889857
120	0xbb81d983	-0.003962697
121	0x3e1e4ee3	0.1545978
122	0xbd68d906	-0.056847595
123	0x3d55f9e4	0.052240267
124	0xbc2876a4	-0.010282192
125	0xbd801b35	-0.06255189
126	0xbe3f587f	-0.18686102
127	0x3e54d256	0.20783362
128	0x3c0b59a7	0.0085052615
129	0x3e155375	0.14582618
130	0x3d2e52b7	0.04255935
131	0xbcb5d0df	-0.022194324
132	0x3cea768e	0.028620984
133	0x3e1666d0	0.14687657
134	0x3e0835e4	0.13301808
135	0x3e6172bb	0.22016422
136	0x3dba5c68	0.09099656
137	0x3e9231d8	0.28553653
138	0xbc414f1b	-0.011798645
139	0xbe4a77c2	-0.19772246
140	0xbe109c5c	-0.14122146
141	0x3e2dabef	0.16960119
142	0xbd523474	-0.051319554
143	0x3e214887	0.15750323
144	0xbd1231fd	-0.035692204
145	0x3db1e4f5	0.08686248
146	0xbdb41254	-0.08792558
147	0xbdddd9ca	-0.108325556
148	0x3e3fe525	0.18739755
149	0x3e71eb05	0.23624809
150	0x3eb6a2aa	0.35670978
151	0x3cf7e817	0.030262036
152	0x3d9cc37c	0.07654473
153	0x3e6f6cfd	0.2338142
154	0xbcfefa5e	-0.031125244
155	0xbe882929	-0.26593903
156	0xbe124c54	-0.1428693
157	0x3d8a76f9	0.067609735
158	0x3db6e32c	0.08930048
159	0x3dee6af4	0.116414934
160	0xbcf156a4	-0.029460259
161	0x3e3af078	0.18255794
162	0xbdb783c5	-0.0896068
163	0xbcfc25e8	-0.030779794
164	0x3e7443bb	0.23853962
165	0x3e4be18d	0.1991026
166	0xbda26bd0	-0.0793072
167	0xbd08d9db	-0.03341089
168	0x3df89e4d	0.121395685
169	0xbcde852e	-0.027163114
170	0x3d9377b2	0.072005644
171	0xbea32724	-0.318658
172	0xbe6d2867	-0.23159944
173	0xbe5902da	-0.21192494
174	0x3e194bb6	0.14970288
175	0x3ea680a9	0.32520035
176	0x3da2c42f	0.07947575
177	0x3e5e1523	0.2168775
178	0xbd04947c	-0.03236817
179	0xbd9beb11	-0.07613195
180	0xbc483449	-0.012219497
181	0x3d6493cd	0.055805016
182	0xbd8363b5	-0.06415502
183	0x3e3ec368	0.18629229
184	0x3db02351	0.08600486
185	0x3da036aa	0.07822926
186	0xbd25fee9	-0.040526304
187	0xbed100ad	-0.40820828
188	0xbd8aede6	-0.06783657
189	0xbd32de29	-0.0436689
190	0xbae1a37e	-0.0017214862
191	0xbe37ac26	-0.17936763
192	0xbd42d5af	-0.047567066
193	0x3df9bebc	0.12194583
194	0x3d30e423	0.043186318
195	0x3e7d2cea	0.24724165
196	0xbe3632d1	-0.17792822
197	0xbe2c6f3a	-0.16839305
198	0xbe2e0a85	-0.169962
199	0xbcf9c89c	-0.030491166
200	0x3e3337f7	0.17501818
201	0x3e793455	0.2433637
202	0xbd6d865e	-0.05798947
203	0xbe556705	-0.2084008
204	0x3e1ec53c	0.15504926
205	0x3d738c18	0.059459776
206	0x3ddcc129	0.1077903
207	0x3e295a25	0.16538294
208	0x3d747c55	0.059688885
209	0x3e71da83	0.23618512
210	0xbc2c4e85	-0.010516767
211	0xbe89b25c	-0.2689389
212	0xbe0f4643	-0.13991646
213	0x3d3e00d5	0.046387512
214	0xbd8e28fc	-0.06941411
215	0x3eb3500d	0.3502201
216	0x3cfa9dee	0.030592885
217	0x3e5a3079	0.21307553
218	0x3d9a46e6	0.07533054
219	0xbd890d5f	-0.066920035
220	0xbcc65230	-0.024209112
221	0x3cac25f9	0.0210142
222	0x3dff098c	0.12452993
223	0x3dab0d13	0.08352103
224	0x3dd79a0e	0.105274305
225	0x3e6abfed	0.22924776
226	0xbcce57ee	-0.025188413
227	0xbe1f1505	-0.15535362
228	0xbe14b033	-0.1452034
229	0x3dd43a90	0.103627324
230	0xbdc74f99	-0.09731979
231	0x3ed1c46b	0.40970168
232	0x3d11df93	0.035613608
233	0x3e65083e	0.22366425
234	0x3cf9e01d	0.030502373
235	0xbe87108d	-0.26379815
236	0xbdb0e759	-0.08637876
237	0xbe091fa3	-0.13390975
238	0xbc33e0bf	-0.010978877
239	0xbd0a3bec	-0.033748552
240	0x3dd2080a	0.102554396
241	0xbd560873	-0.05225415
242	0x3d04d186	0.03242638
243	0xbe36337f	-0.17793082
244	0x3e058ac7	0.1304122
245	0xbe3c8a61	-0.18412162
246	0x3e392514	0.1808055
247	0x3e1421b0	0.14465976
248	0x3e029766	0.12753066
249	0x3e42259c	0.1895966
250	0x3be9d34a	0.0071357833
251	0xbd8355c9	-0.064128466
252	0xbe2cea2f	-0.16886209
253	0xbd805cf2	-0.06267728
254	0xbe7db802	-0.24777225
255	0x3cd96652	0.026538048

fc1.bias f4 [400]
0	0x3cff72f0	0.031182736
1	0x3e8d5c4c	0.2760948
2	0x3e82b5d3	0.25529346
3	0x3e239bd5	0.15977414
4	0x3ea2cec6	0.3179838
5	0x3d61c77c	0.055121884
6	0x3e5b71f4	0.21430188
7	0x3e70eb7c	0.2352733
8	0x3e773a4e	0.24143335
9	0x3e888e08	0.2667086
10	0x3e242a7e	0.16031834
11	0x3f370f76	0.71507967
12	0x3e51fd3c	0.20506757
13	0x3e73776b	0.23776023
14	0x3e4c9e68	0.19982302
15	0x3e5094e4	0.20369297
16	0x3e603a2b	0.2189719
17	0x3ea0f229	0.31434754
18	0x3dbc9c76	0.0920953
19	0x3e8345df	0.25639245
20	0x3d9fd879	0.07804961
21	0xbc597019	-0.013271355
22	0x3e80b6f9	0.25139597
23	0x3e2b43ee	0.16725132
24	0x3e18d870	0.14926314
25	0x3e9e1a39	0.3087938
26	0x3e701b13	0.23447828
27	0x3e841466	0.25796813
28	0x3e92d4f5	0.28678098
29	0x3e80da6a	0.25166637
30	0x3c77e6d4	0.015130717
31	0x3d9f0d02	0.07766153
32	0x3e90a8f8	0.28253913
33	0x3e7bf7e5	0.24606283
34	0x3e8432ed	0.25820103
35	0x3d98ab3f	0.074545376
36	0x3e9c948a	0.30582076
37	0x3f48a06e	0.78369796
38	0x3e81ef77	0.2537801
39	0x3e2c96c5	0.16854389
40	0x3f5f988c	0.87342143
41	0x3e8ba9e4	0.27278054
42	0x3ed954bc	0.4244746
43	0x3dac0748	0.08399826
44	0x3f2a7c8b	0.6659629
45	0x3d10d6ab	0.035360973
46	0x3e8e6053	0.27807865
47	0x3e12b49c	0.1432671
48	0x3e31af73	0.17352085
49	0x3eac3a92	0.33638436
50	0x3e0e3751	0.13888289
51	0xba73cada	-0.00092999416
52	0x3d03e1c6	0.032197736
53	0x3dc931ee	0.098239765
54	0x3e2310b2	0.15924338
55	0x3e039d47	0.12852965
56	0x3e2715f6	0.16316971
57	0x3e1645a4	0.14675003
58	0x3e82a715	0.25518098
59	0x3dc661f1	0.096866496
60	0x3e00f2b9	0.12592591
61	0x3de0f92e	0.10985027
62	0x3e78a3eb	0.2428128
63	0x3e39fc32	0.18162611
64	0x3e982d6d	0.29722157
65	0x3d830eb4	0.06399289
66	0x3e8e2f21	0.27770332
67	0x3e8f4089	0.27978924
68	0x3de8dc3a	0.1137013
69	0x3e5f7ddb	0.21825354
70	0x3e001f6e	0.1251199
71	0x3e319a06	0.17343912
72	0x3df6157f	0.12015819
73	0x3f81cdae	1.0140893
74	0x3e63e39b	0.22254793
75	0x3e3d3ab2	0.18479422
76	0x3e008356	0.125501
77	0x3e601c1a	0.2188572
78	0x3e53d9d0	0.20688558
79	0x3e8641fc	0.26222217
80	0x3ea25b94	0.31710494
81	0x3e44b695	0.19210275
82	0x3e14a1e2	0.14514878
83	0x3e3f034e	0.18653604
84	0x3e7b8035	0.24560626
85	0x3de5cf6b	0.112212025
86	0x3ec60fb7	0.38683864
87	0x3e9200e5	0.28516307
88	0x3ecc70b6	0.39929742
89	0x3e573220	0.21015215
90	0x3e56aa50	0.20963407
91	0x3ea94e5b	0.33067593
92	0x3e284b75	0.16435035
93	0x3d6e7147	0.0582135
94	0x3e9d9dbd	0.30784407
95	0x3e8882be	0.26662248
96	0x3ddb4c0d	0.10707865
97	0x3e90be6a	0.28270274
98	0x3b163179	0.0022917672
99	0x3e7de3c9	0.24793924
100	0x3e8a81cb	0.2705215
101	0x3e3e5d46	0.18590268
102	0x3d830c47	0.06398826
103	0x3e153080	0.14569283
104	0x3ddfd1e2	0.10928704
105	0x3e30c945	0.17264278
106	0x3d72b414	0.059253767
107	0x3e1aa61b	0.15102427
108	0x3e4139f1	0.18869759
109	0x3df12386	0.11774354
110	0x3e63ea83	0.22257428
111	0x3e1522bb	0.1456403
112	0x3eb6c4bf	0.3569698
113	0x3e274bba	0.16337481
114	0x3e72f6bf	0.23726939
115	0x3e3bb5bf	0.1833105
116	0x3e96c198	0.29444575
117	0x3e2820dd	0.16418786
118	0x3ef547ef	0.47906443
119	0x3e3bf7e0	0.18356276
120	0x3e5f2967	0.21793137
121	0x3df6f323	0.120580934
122	0x3e182bbf	0.14860438
123	0x3e6601de	0.2246165
124	0x3da92d63	0.0826061
125	0x3e07a98e	0.13248274
126	0x3d8a352e	0.067484245
127	0x3e06e035	0.13171466
128	0x3e7674bf	0.24067973
129	0x3e752507	0.23939906
130	0x3e7214ee	0.23640797
131	0x3e94afbd	0.29040328
132	0x3e3bef6b	0.1835305
133	0x3e97a066	0.29614562
134	0x3e2afa71	0.16697098
135	0xbda13af1	-0.0787257
136	0x3e2176b7	0.15767942
137	0x3d335174	0.04377885
138	0x3e67fa24	0.22654015
139	0x3ed14cee	0.40879005
140	0x3e745a43	0.23862557
141	0x3df78aa5	0.12086991
142	0x3e1b0794	0.1513961
143	0x3dcd1a1d	0.10014746
144	0x3e8b373a	0.27190572
145	0x3e650133	0.22363739
146	0x3e0e6a2f	0.13907693
147	0x3e8a8791	0.27056554
148	0x3e90a063	0.28247365
149	0x3e01bacf	0.12668918
150	0x3d987574	0.074442774
151	0x3ccb29cc	0.024800204
152	0x3eb29651	0.34880307
153	0x3dfd4886	0.123673484
154	0xbde60ad3	-0.11232533
155	0x3d5fec06	0.05466845
156	0x3e56c7cc	0.20974654
157	0x3ea505d2	0.32231003
158	0x3eb45d57	0.35227463
159	0x3dbdd119	0.09268398
160	0x3de6f72a	0.112776116
161	0x3e51cb3b	0.20487683
162	0x3e907c4d	0.28219834
163	0x3e2d9119	0.16949882
164	0x3e734b95	0.23759301
165	0x3e350dde	0.17681071
166	0x3ea7e7b2	0.32793957
167	0x3e9f4191	0.3110471
168	0x3e6a5b9a	0.22886506
169	0x3e4bab6b	0.1988961
170	0x3e7b5e5c	0.24547714
171	0x3e3c427c	0.18384737
172	0x3e5aab08	0.21354306
173	0x3e4c6a12	0.19962338
174	0x3eae141a	0.3399971
175	0x3e854faa	0.2603734
176	0x3da1c0cb	0.078981005
177	0x3e8bb3d4	0.27285635
178	0x3e8abb27	0.2709591
179	0x3e3ced97	0.18450008
180	0x3ea543b0	0.32278204
181	0x3e2d26d7	0.16909347
182	0x3e88ceef	0.26720378
183	0x3e26f85b	0.16305678
184	0x3e3de3ce	0.18543932
185	0x3e52e959	0.20596828
186	0x3e1aac1f	0.15104721
187	0x3e73655f	0.23769139
188	0x3eb608b8	0.35553527
189	0x3ebb46ae	0.36577362
190	0xbd5ec1af	-0.05438393
191	0x3e8bc508	0.2729876
192	0x3e9edf2b	0.3102964
193	0x3e478883	0.19485669
194	0x3de0abaf	0.10970246
195	0x3e4fd128	0.2029463
196	0x3e53a7df	0.20669506
197	0x3eb7f9b4	0.35932696
198	0x3e2628c3	0.16226487
199	0x3e3347f5	0.17507918
200	0x3e278003	0.16357426
201	0x3e2aee76	0.16692528
202	0x3e3a8138	0.18213356
203	0x3e345048	0.1760875
204	0x3e18140d	0.14851399
205	0x3e961280	0.2931099
206	0x3e634311	0.22193553
207	0x3db137c9	0.08653218
208	0x3d941541	0.07230616
209	0x3f84313b	1.0327524
210	0x3e428658	0.1899656
211	0x3e29fded	0.16600771
212	0x3e901b4e	0.28145832
213	0x3e91a08c	0.284428
214	0x3e71ade5	0.23601492
215	0x3e13ee6e	0.14446422
216	0x3bdc8e1d	0.0067308084
217	0x3e04de1d	0.12975354
218	0x3d666076	0.056244336
219	0x3e87bc50	0.2651086
220	0x3e34635c	0.17616028
221	0x3e88125f	0.26576516
222	0x3e9a8d10	0.30185747
223	0x3e155ccc	0.1458618
224	0x3e168ee5	0.14702947
225	0x3d63b39a	0.055591203
226	0x3e4aa7a4	0.19790512
227	0x3e60c924	0.21951729
228	0x3e2c0561	0.16798927
229	0x3e53ea68	0.20694888
230	0x3e0131d8	0.1261667
231	0x3e68b8cd	0.22726746
232	0x3e34b507	0.17647181
233	0x3e3159f4	0.1731947
234	0x3e9bb0c3	0.30408296
235	0x3e09e4d8	0.13466203
236	0x3c7c9c13	0.01541807
237	0x3e218bd6	0.15776
238	0x3e798fa9	0.24371208
239	0x3db18182	0.0866728
240	0x3e982c6f	0.297214
241	0x3da0bda4	0.07848671
242	0x3e889515	0.2667624
243	0x3f3fdd26	0.7494682
244	0x3e214d37	0.15752111
245	0xbd69af29	-0.05705181
246	0x3db380cf	0.08764803
247	0x3dc4c63e	0.09608124
248	0x3e6aa337	0.22913824
249	0x3e218a34	0.15775377
250	0x3dfc3ab8	0.12315887
251	0x3dbca218	0.092106044
252	0x3c1be251	0.009514407
253	0x3ebba80f	0.36651656
254	0x3e478da4	0.19487625
255	0x3e192d5b	0.14958708

bn1.weight f4 [400]
0	0x3fbdba65	1.4822508
1	0x3f3e374f	0.74303144
2	0x3f4cd644	0.80014443
3	0x3f71818e	0.9433831
4	0x3f28c2c7	0.65922207
5	0x3f98571d	1.1901585
6	0x3f723933	0.9461853
7	0x3f56f7db	0.8397195
8	0x3f8390d2	1.0278571
9	0x3f3a4528	0.72761774
10	0x3f7ab62a	0.9793421
11	0x3e701d7d	0.23448749
12	0x3f4ebe93	0.80759543
13	0x3f5722fa	0.84037745
14	0x3f8e340f	1.1109637
15	0x3f6b54aa	0.9192606
16	0x3f7de583	0.9917833
17	0x3f046da6	0.5172981
18	0x3fb05dba	1.3778603
19	0x3f29cc0d	0.6632698
20	0x3fa98021	1.3242227
21	0x3fe6c35c	1.8028369
22	0x3f3d0822	0.73840535
23	0x3f978344	1.1836934
24	0x3fa23cc0	1.267479
25	0x3f181d86	0.5942005
26	0x3f39365f	0.7234859
27	0x3f44a245	0.76810104
28	0x3f2c2010	0.67236423
29	0x3f62f3c9	0.88653237
30	0x3fb364db	1.4015154
31	0x3fb7bdc9	1.4354793
32	0x3f2f0479	0.683662
33	0x3f1fadb4	0.62374425
34	0x3f62f3a5	0.8865302
35	0x3fb8dde7	1.4442719
36	0x3f1dbf08	0.61619616
37	0x3e2e5652	0.17025116
38	0x3f3d6e63	0.7399656
39	0x3f614c01	0.880066
40	0x3e161e0a	0.14659896
41	0x3f1b6741	0.6070443
42	0x3ec862bc	0.39137828
43	0x3fb12df5	1.384215
44	0x3e3f0754	0.18655139
45	0x3fdeae73	1.7396988
46	0x3f2c49ac	0.67299914
47	0x3f9cfe52	1.2265112
48	0x3f84560a	1.0338757
49	0x3f1067d1	0.5640841
50	0x3f9e4ed7	1.236781
51	0x3fe80efb	1.8129572
52	0x3fc31a01	1.5242311
53	0x3fa703d8	1.3048048
54	0x3fa39f8a	1.2783062
55	0x3f8d8fb9	1.1059486
56	0x3f8a6902	1.0813296
57	0x3f88d844	1.0690999
58	0x3f4443dd	0.7666605
59	0x3faa0cd2	1.3285162
60	0x3fb47736	1.409888
61	0x3f8153fb	1.0103754
62	0x3f62bcc6	0.88569295
63	0x3f6cdb69	0.92522293
64	0x3f0ffd77	0.5624613
65	0x3f9f4a63	1.2444576
66	0x3f87dfca	1.061517
67	0x3f39c81b	0.7257096
68	0x3f93e934	1.1555543
69	0x3f6919c0	0.91054916
70	0x3f816e65	1.0111815
71	0x3f5561e9	0.83352524
72	0x3f8ef892	1.1169608
73	0x3e03d5e7	0.12874566
74	0x3f3ae822	0.73010457
75	0x3f9bf774	1.2184892
76	0x3f93156e	1.1490915
77	0x3f70b15c	0.9402063
78	0x3f8ba0cf	1.090845
79	0x3f33e177	0.7026591
80	0x3f343247	0.7038922
81	0x3f5f533b	0.87236375
82	0x3f9159e9	1.1355563
83	0x3f81e137	1.0146855
84	0x3f3daf00	0.74095154
85	0x3f9527ea	1.1652806
86	0x3ee28068	0.4423859
87	0x3f506622	0.8140584
88	0x3ecbbc50	0.3979211
89	0x3f641e2d	0.89108545
90	0x3f53850a	0.82624876
91	0x3f2f523f	0.6848487
92	0x3f56b1f1	0.8386527
93	0x3fbbbab1	1.4666349
94	0x3f1c2f32	0.61009514
95	0x3f60eac9	0.87858254
96	0x3fa053e3	1.25256
97	0x3f24c4e8	0.64362955
98	0x3fcc89f5	1.5979601
99	0x3f3701b8	0.71487
100	0x3f47725b	0.7790887
101	0x3f67320e	0.9031075
102	0x3fa2f9c0	1.2732468
103	0x3f9d6061	1.2295038
104	0x3fa9a84d	1.3254486
105	0x3f887b6e	1.0662668
106	0x3fbc032c	1.4688468
107	0x3fa20d8c	1.2660384
108	0x3f7c8c8a	0.98651946
109	0x3f835da6	1.0262954
110	0x3f4b3389	0.7937551
111	0x3f8ea6de	1.1144674
112	0x3eea88fd	0.4580764
113	0x3f816cdf	1.011135
114	0x3f52ff01	0.82420355
115	0x3f8f2d40	1.1185684
116	0x3f303af6	0.6883997
117	0x3fa9f6da	1.3278458
118	0x3eceb0c1	0.40369228
119	0x3f696fba	0.91186106
120	0x3f89ba99	1.076007
121	0x3fa380d9	1.2773696
122	0x3f8e33e1	1.1109582
123	0x3f5c8b9d	0.8615053
124	0x3fafe610	1.3742085
125	0x3f8e1df8	1.1102896
126	0x3fa38956	1.2776287
127	0x3f968060	1.1757927
128	0x3f683bbd	0.90716153
129	0x3f4dda5d	0.8041132
130	0x3f6022d0	0.8755312
131	0x3f2686bd	0.65049344
132	0x3f60f676	0.8787607
133	0x3f2d0ec4	0.67600656
134	0x3fd038b6	1.6267307
135	0x3fcac693	1.584185
136	0x3fab6386	1.3389747
137	0x3fae3f6c	1.3613105
138	0x3f146f46	0.5798229
139	0x3ef15608	0.4713595
140	0x3f6900c7	0.9101681
141	0x3fb321c7	1.3994683
142	0x3f9671c9	1.1753474
143	0x3f915ea1	1.1357003
144	0x3f349602	0.70541394
145	0x3f90ee74	1.132277
146	0x3f85406c	1.0410285
147	0x3f314303	0.69242877
148	0x3f80df0b	1.0068067
149	0x3f9b8fdc	1.2153277
150	0x3f9bb899	1.216571
151	0x3fa0c2a1	1.2559396
152	0x3f1d9f1b	0.615709
153	0x3f7d3fd8	0.9892554
154	0x3fdb3a24	1.7127118
155	0x3fc4072d	1.531469
156	0x3f8d76b0	1.1051846
157	0x3f4d2bec	0.80145144
158	0x3efa7002	0.4891358
159	0x3f829111	1.0200521
160	0x3fa5af91	1.2944204
161	0x3f20bf5a	0.6279198
162	0x3f342750	0.70372486
163	0x3f8afd89	1.0858623
164	0x3f41100c	0.7541511
165	0x3f60b161	0.8777066
166	0x3edbe83c	0.42950618
167	0x3f0c9bb3	0.5492508
168	0x3f540ff4	0.8283684
169	0x3f813361	1.0093805
170	0x3f42fbdb	0.7616555
171	0x3fa6867f	1.3009795
172	0x3f62d7cf	0.8861055
173	0x3f8d15c9	1.1022273
174	0x3f20cffe	0.6281737
175	0x3f52abb6	0.8229326
176	0x3f9d7574	1.2301469
177	0x3f8a815d	1.0820729
178	0x3f50702c	0.8142116
179	0x3f2cecee	0.67549026
180	0x3f0855cc	0.53255916
181	0x3f9d02d6	1.226649
182	0x3f2eb35e	0.6824244
183	0x3f9c0120	1.2187843
184	0x3f848001	1.0351564
185	0x3f7074be	0.93928134
186	0x3f866b93	1.0501579
187	0x3f63e498	0.8902068
188	0x3f035517	0.5130171
189	0x3f100b07	0.56266826
190	0x3fe215e2	1.7662928
191	0x3f1dee1b	0.61691445
192	0x3f59cbe3	0.8507673
193	0x3f82d9d9	1.0222732
194	0x3f9b1df1	1.2118512
195	0x3f878fbc	1.0590739
196	0x3f612e58	0.8796134
197	0x3eff1b1c	0.4982537
198	0x3fa4a257	1.2862042
199	0x3f908854	1.1291604
200	0x3f6fab10	0.93620396
201	0x3f984487	1.1895913
202	0x3f8a7b6b	1.0818914
203	0x3f6d0ac9	0.9259458
204	0x3fc457f5	1.5339342
205	0x3f686ce2	0.9079114
206	0x3f551725	0.8323844
207	0x3f97f5c1	1.1871873
208	0x3fbdd1c9	1.4829646
209	0x3dfd511a	0.123689845
210	0x3f6b6e5e	0.9196528
211	0x3f7ab741	0.97935873
212	0x3f74554d	0.9544266
213	0x3f2387e8	0.6387925
214	0x3f74772b	0.95494336
215	0x3f7a109b	0.9768159
216	0x3fd46040	1.6591873
217	0x3f8bf698	1.093463
218	0x3fa05f98	1.2529173
219	0x3f72ee8e	0.94895256
220	0x3f671e1e	0.9028033
221	0x3f2f46bc	0.6846731
222	0x3f1e4cba	0.61835825
223	0x3fb982df	1.4493064
224	0x3fa808f7	1.3127736
225	0x3fbc7492	1.4723074
226	0x3f8de686	1.1085975
227	0x3f7d6fb3	0.98998564
228	0x3f9c41e8	1.2207613
229	0x3f7eb602	0.9949647
230	0x3fa859d4	1.3152413
231	0x3f3b7d9d	0.73238546
232	0x3f9e7b41	1.2381364
233	0x3f9632e1	1.1734277
234	0x3f078aee	0.52946365
235	0x3f92c3ff	1.1466063
236	0x3fb85441	1.4400712
237	0x3f99fd79	1.2030479
238	0x3f451071	0.7697821
239	0x3f9db498	1.2320738
240	0x3f07ea19	0.5309158
241	0x3fc0688a	1.5031903
242	0x3f440502	0.7657014
243	0x3e551ffe	0.20812985
244	0x3f769e96	0.9633573
245	0x3fd4a6aa	1.6613362
246	0x3fa3f7d5	1.2810007
247	0x3fa2e53f	1.272621
248	0x3f693485	0.91095763
249	0x3f9e28f8	1.2356253
250	0x3f9c9d7b	1.2235559
251	0x3fa872dc	1.3160052
252	0x3fa01368	1.2505922
253	0x3f18a5cb	0.5962798
254	0x3f6a7f6f	0.916007
255	0x3f7f061a	0.99618685

bn1.bias f4 [400]
0	0xbe69f84f	-0.22848628
1	0xbea27536	-0.3173005
2	0xbea2c08f	-0.31787536
3	0xbe5db975	-0.21652777
4	0xbf0a5df8	-0.54049635
5	0xbe473cc8	-0.1945678
6	0xbe9af0f3	-0.30261955
7	0xbea2c848	-0.31793427
8	0xbe6556fb	-0.22396462
9	0xbede1fd3	-0.43383655
10	0xbe704987	-0.23465548
11	0xbf46d09f	-0.7766208
12	0xbec7c745	-0.39019218
13	0xbebf5c19	-0.37374952
14	0xbe52b298	-0.2057594
15	0xbe9bcd84	-0.30430233
16	0xbe7961ca	-0.2435371
17	0xbf143ec3	-0.57908267
18	0x3cc1562c	0.02360066
19	0xbeed0374	-0.46291697
20	0xbca87081	-0.020561459
21	0x3dc76f70	0.09738052
22	0xbed2dbf6	-0.41183442
23	0xbdb9ce07	-0.090725
24	0xbe288791	-0.16457964
25	0xbeeef841	-0.46673778
26	0xbeedd429	-0.46450928
27	0xbed257da	-0.4108265
28	0xbf01d1f8	-0.5071101
29	0xbea4da4a	-0.3219779
30	0xbdd71b0d	-0.105032064
31	0xbea56f3f	-0.32311437
32	0xbef0fae4	-0.47066414
33	0xbf00bb17	-0.50285476
34	0xbea724dc	-0.3264531
35	0xbe2dd898	-0.16977155
36	0xbeff1d85	-0.4982721
37	0xbf54ca84	-0.83121514
38	0xbf08721a	-0.53299105
39	0xbe99d11e	-0.30042356
40	0xbf5a5c02	-0.8529664
41	0xbf06f386	-0.5271534
42	0xbf2ec035	-0.68262035
43	0x3d2ee669	0.042700205
44	0xbf54ec27	-0.8317284
45	0x3be5807b	0.0070038415
46	0xbef17329	-0.47158173
47	0xbe20533b	-0.1565675
48	0xbe8396df	-0.25701043
49	0xbf0b9ba8	-0.5453439
50	0xbd71c6af	-0.05902737
51	0xbca8d5e4	-0.020609803
52	0xbd0bdaa5	-0.034144063
53	0xbcb8f212	-0.022576366
54	0xbdf41cfe	-0.11919592
55	0xbe238ce5	-0.15971716
56	0xbe0a60d6	-0.13513502
57	0xbe712ca7	-0.2355219
58	0xbed52acc	-0.41634214
59	0xbd6aaa9b	-0.05729161
60	0xbe57e781	-0.21084405
61	0xbd8473ac	-0.06467375
62	0xbeb30941	-0.34967998
63	0xbe9d8e7e	-0.30772775
64	0xbf0a7947	-0.54091305
65	0xbe3851ff	-0.18000029
66	0xbe3a94be	-0.18220803
67	0xbee7463f	-0.4517078
68	0xbd9bd5fd	-0.076091744
69	0xbea9ec5c	-0.3318814
70	0xbea0b5bd	-0.31388655
71	0xbebb51fd	-0.3658599
72	0xbe7d46f3	-0.24734096
73	0xbf607b55	-0.8768819
74	0xbed8bce8	-0.42331624
75	0xbe0eed3a	-0.13957682
76	0xbe83bcfd	-0.25730124
77	0xbe94cf06	-0.29064196
78	0xbe850ba2	-0.25985438
79	0xbef1201c	-0.4709481
80	0xbee45d1f	-0.44602296
81	0xbeab8ed3	-0.33507404
82	0xbdb246ad	-0.087048866
83	0xbe7a58bc	-0.24447912
84	0xbecf9773	-0.40545234
85	0xbe06c8b9	-0.13162507
86	0xbf265518	-0.6497359
87	0xbeca4df0	-0.39512587
88	0xbf2277d2	-0.6346408
89	0xbe928fe0	-0.28625393
90	0xbeb313fa	-0.34976178
91	0xbed3993c	-0.41327846
92	0xbee32ee1	-0.44371703
93	0xbdf23955	-0.118273415
94	0xbef3d884	-0.47626126
95	0xbe6185fc	-0.22023767
96	0xbd989701	-0.07450677
97	0xbf01d556	-0.5071615
98	0xbc80e741	-0.01573527
99	0xbeac9ed7	-0.33714935
100	0xbedfa9d5	-0.4368426
101	0xbea142ea	-0.31496364
102	0xbe21e193	-0.15808706
103	0xbcc31977	-0.023815854
104	0xbc1e9bc8	-0.009680696
105	0xbea7490e	-0.32672924
106	0x3c819fc7	0.015823258
107	0xbec0958a	-0.3761409
108	0xbe4f67af	-0.20254396
109	0xbe70183f	-0.23446749
110	0xbe894479	-0.26810053
111	0xbe7677f6	-0.24069199
112	0xbf2145cd	-0.6299713
113	0xbe5d8095	-0.21631081
114	0xbe918cf8	-0.28427863
115	0xbe1fb137	-0.15594946
116	0xbef351f7	-0.47523472
117	0x3d4c0348	0.049807817
118	0xbf27436b	-0.65337247
119	0xbe8c7abe	-0.27437395
120	0xbe7ea943	-0.24869256
121	0x3d85e540	0.065378666
122	0xbd281835	-0.04103871
123	0xbed10925	-0.4082729
124	0xbda02ec7	-0.07821422
125	0xbe771f6e	-0.24133083
126	0xbe4559af	-0.19272493
127	0xbe3778c0	-0.17917156
128	0xbea1a4a3	-0.3157092
129	0xbeba97d5	-0.36443964
130	0xbea134e7	-0.31485674
131	0xbeec0d06	-0.46103686
132	0xbe2c95de	-0.16854045
133	0xbee9263c	-0.45536983
134	0xbd7083d0	-0.058719456
135	0x3d19f902	0.037590988
136	0x3dbe360b	0.09287652
137	0x3e034d25	0.12822397
138	0xbf0e67ca	-0.5562712
139	0xbf1fff28	-0.6249871
140	0xbe4a135c	-0.19733948
141	0xbe8b8661	-0.2725096
142	0xbe652bf2	-0.22380045
143	0xbe288ef9	-0.1646079
144	0xbef038f2	-0.46918446
145	0xbe2ca74d	-0.16860695
146	0xbe67ebd1	-0.2264855
147	0xbefdcaba	-0.4956873
148	0xbe8244ec	-0.25443208
149	0xbe061a98	-0.13096082
150	0xbe58582c	-0.21127385
151	0xbe1da71e	-0.15395781
152	0xbf007be8	-0.50189066
153	0xbe4c9a41	-0.19980718
154	0xbcd1fd01	-0.025633337
155	0x3dde48cc	0.10853729
156	0xbe8a764e	-0.27043384
157	0xbeb2e5af	-0.3494086
158	0xbf1a45f4	-0.6026299
159	0xbe7bd779	-0.24593915
160	0xbcce9777	-0.025218708
161	0xbef31660	-0.47478008
162	0xbed0d698	-0.40788722
163	0xbe45b35c	-0.19306701
164	0xbec182e2	-0.37795168
165	0xbe899769	-0.2687333
166	0xbf3063d7	-0.68902344
167	0xbf09324b	-0.53592366
168	0xbeb61466	-0.35562438
169	0xbebcc130	-0.3686614
170	0xbeafcc5d	-0.34335604
171	0xbd5d9c15	-0.05410393
172	0xbe84a11c	-0.25904167
173	0xbe24a937	-0.16080175
174	0xbed690de	-0.419074
175	0xbeb0e80e	-0.34552044
176	0xbe31f6e8	-0.17379344
177	0xbe27ab75	-0.16374
178	0xbec6ccbe	-0.3882808
179	0xbedb3122	-0.42810923
180	0xbf103cf8	-0.5634303
181	0xbd403656	-0.04692682
182	0xbeef7076	-0.46765488
183	0xbd770a08	-0.0603123
184	0xbe958faa	-0.2921117
185	0xbe8e0274	-0.27736247
186	0xbe31656e	-0.17323849
187	0xbea3ee57	-0.32017776
188	0xbf1a1dad	-0.6020153
189	0xbf1781bc	-0.59182334
190	0x3ba45804	0.005015375
191	0xbeea9bc6	-0.4582197
192	0xbea82352	-0.32839447
193	0xbe87d40d	-0.2652897
194	0xbe4b66f9	-0.198635
195	0xbe764ad8	-0.24051988
196	0xbe71575d	-0.23568483
197	0xbf1526a8	-0.5826211
198	0xbe1ebbc9	-0.15501322
199	0xbd2f3a67	-0.042780306
200	0xbe5e0c6f	-0.2168443
201	0xbe16a57b	-0.14711563
202	0xbe83af82	-0.2571984
203	0xbe7b4459	-0.24537791
204	0x3c17a4a5	0.009255563
205	0xbe6b4d3b	-0.2297868
206	0xbeaaaab0	-0.3333335
207	0xbe11298d	-0.14176007
208	0x3d9acb2b	0.075582825
209	0xbf6578f6	-0.89637697
210	0xbe377734	-0.17916566
211	0xbea14645	-0.31498924
212	0xbe732d71	-0.23747803
213	0xbf034828	-0.51281977
214	0xbe7e1b79	-0.24815167
215	0xbe0b9fa7	-0.13635121
216	0xbcae20ee	-0.021255936
217	0xbe46e6f0	-0.19424033
218	0xbd5c3462	-0.053760894
219	0xbea2ee53	-0.31822452
220	0xbead4fb5	-0.33849874
221	0xbef14244	-0.4712087
222	0xbefccb91	-0.4937406
223	0xbe265b7d	-0.16245838
224	0xbe0f2142	-0.1397753
225	0x3d8629b3	0.06550922
226	0xbe1606a8	-0.14650977
227	0xbeb0f9fc	-0.34565723
228	0xbdf60090	-0.12011826
229	0xbe27b84d	-0.16378899
230	0xbdcba9c4	-0.099444896
231	0xbeefe6c5	-0.4685575
232	0xbe6db59e	-0.23213813
233	0xbc648328	-0.013947286
234	0xbf1cde4e	-0.6127671
235	0xbe0f052f	-0.13966821
236	0x3c1d3427	0.009594954
237	0xbe0ae40a	-0.13563552
238	0xbe979fed	-0.296142
239	0xbe518627	-0.20461331
240	0xbf158715	-0.58409244
241	0xbe2e7eaa	-0.17040506
242	0xbeac1ced	-0.3361582
243	0xbf4ec377	-0.80767006
244	0xbea1d1b3	-0.316053
245	0xbc87b9da	-0.016568113
246	0xbe626c32	-0.22111586
247	0xbe7a14da	-0.24422017
248	0xbeb9dcc0	-0.3630123
249	0xbe87073a	-0.263727
250	0xbe0706c8	-0.1318618
251	0xbe2a27b6	-0.16616711
252	0xbe65d757	-0.22445427
253	0xbefbb92c	-0.49164712
254	0xbe53dcb1	-0.20689656
255	0xbe6e1e56	-0.2325376

fc2.weight f4 [300, 400]
0	0x3e47275e	0.19448611
1	0x3d446bb5	0.04795428
2	0x3e130e6b	0.14360969
3	0x3e9d5c2b	0.3073438
4	0xbd9c3271	-0.076268084
5	0x3e2a4ec5	0.1663161
6	0xbdcd5a73	-0.100270174
7	0xbd39c6d7	-0.045355644
8	0x3ca7d333	0.02048645
9	0x3e4e3ef8	0.20141208
10	0xbeb1d845	-0.34735313
11	0xbdc60d35	-0.09670488
12	0x3e8291eb	0.25501952
13	0x3d16d0fc	0.036820397
14	0xbd7d9822	-0.061912663
15	0xbd84a5e3	-0.06476953
16	0x3d21d1ca	0.03950671
17	0xbe025400	-0.12727356
18	0xbe0aa1af	-0.1353824
19	0x3e0a9f98	0.13537443
20	0x3dea2087	0.11431985
21	0x3ec5b45f	0.38614175
22	0x3d8f49fa	0.06996532
23	0x3c89aeae	0.016806927
24	0x3da0b808	0.07847601
25	0xbd2e6f6a	-0.04258672
26	0xbc6e9243	-0.014561239
27	0x3e08c71f	0.13357209
28	0xbc900b6c	-0.017583571
29	0x3e03a344	0.1285525
30	0xbdcbc00e	-0.09948741
31	0xbd9ae2fc	-0.07562825
32	0xbc8fce26	-0.017554354
33	0xbd7421ee	-0.05960267
34	0x3d16ff48	0.03686455
35	0x3e4a8465	0.19777067
36	0xbe2899dc	-0.16464943
37	0xbd3fd04f	-0.046829518
38	0x3ed76e43	0.4207631
39	0xbe2be3fd	-0.1678619
40	0xbc8f6953	-0.017506277
41	0x3e8ada9a	0.27119905
42	0xbd4fcab2	-0.050730415
43	0xbeb03f15	-0.34423128
44	0xbded8faf	-0.11599671
45	0x3dc45f4a	0.095884874
46	0x3dca668f	0.09882843
47	0xbe9c7066	-0.30554503
48	0xbd6bbaab	-0.057551067
49	0xbdc07044	-0.09396413
50	0x3ca3bf29	0.019988613
51	0x3ce5a1e2	0.028031293
52	0xb7ac3c66	-2.0532123e-05
53	0x3e3beedb	0.18352835
54	0xbe77607c	-0.241579
55	0x3e879e90	0.2648816
56	0x3d2f73ad	0.042834926
57	0x3d1809c2	0.03711868
58	0xbd743b24	-0.059626713
59	0xbc6daba5	-0.014506255
60	0xbb8c0574	-0.004273111
61	0xbdadc551	-0.08484901
62	0x3da6ab59	0.08138151
63	0xbd970193	-0.07373347
64	0xbd1523fe	-0.036411278
65	0x3dfef852	0.12449707
66	0xbd9752e1	-0.07388855
67	0x3e7f29af	0.24918245
68	0x3defe9de	0.117145285
69	0xbd611612	-0.05495269
70	0xbe0805de	-0.13283488
71	0x3eae63b3	0.3406044
72	0xbeb80971	-0.35944703
73	0x3d2acf9a	0.04170189
74	0xbd96cab1	-0.07362879
75	0xbd2b1e83	-0.041777145
76	0xbe25f454	-0.16206485
77	0x3c78ffd6	0.015197715
78	0x3df95b58	0.121756256
79	0xba92e586	-0.0011207319
80	0xbd4bc15b	-0.049744945
81	0xbcb53f0c	-0.02212479
82	0x3e962eda	0.2933262
83	0x3ca816af	0.020518629
84	0xbe5cba6a	-0.21555486
85	0xbc9d99b1	-0.019238325
86	0x3d240ecd	0.040053178
87	0x3c9b015d	0.018921549
88	0x3c0e499c	0.008684542
89	0x3d751bf9	0.05984113
90	0xbdaff94e	-0.08592473
91	0xbd86daab	-0.06584676
92	0x3e353cf4	0.17699033
93	0xbc860862	-0.01636142
94	0xbd5f7df2	-0.05456347
95	0xbe5277f0	-0.20553565
96	0x3dbe9e35	0.09307519
97	0xbd867db6	-0.06566946
98	0x3a329b65	0.0006813317
99	0x3d0818c0	0.03322673
100	0xbd9b76aa	-0.07590993
101	0x3e18a71a	0.14907494
102	0xbc84f121	-0.01622826
103	0x3e43be51	0.19115569
104	0xbb0eebc4	-0.0021808008
105	0xbb777392	-0.0037758094
106	0x3d6b2189	0.05740503
107	0x3e069d4d	0.13145943
108	0xbe282c2b	-0.16423099
109	0xbbc6ca2d	-0.0060665817
110	0xbd5850ac	-0.05281131
111	0xbe35a40f	-0.17738365
112	0x3cb48a7d	0.022038693
113	0x3a72ee2b	0.0009267057
114	0x3dbd23d3	0.092353486
115	0x3d93ad60	0.07210803
116	0x3e20a048	0.15686142
117	0xbc62523b	-0.013813551
118	0x3da48c40	0.08034563
119	0xbdece9fe	-0.11568068
120	0xbd51a142	-0.051179178
121	0xbe995ff6	-0.29956025
122	0x3d1d279e	0.03836786
123	0xbe88436e	-0.26613945
124	0x3ca435a4	0.02004511
125	0x3d90a28f	0.070622556
126	0xbd88ce15	-0.06679932
127	0xbceca425	-0.028886864
128	0xbde8f55c	-0.113749236
129	0x3e44fd4f	0.19237255
130	0x3e9d4d87	0.3072321
131	0x3c102cab	0.008799712
132	0x3e167d6b	0.1469628
133	0x3db905cf	0.09034311
134	0xbde60d4a	-0.112330034
135	0xbdcc9f5f	-0.09991335
136	0x3d78da9a	0.06075535
137	0xbe502be6	-0.20329246
138	0xbcfab5af	-0.030604212
139	0x3dd91d94	0.10601345
140	0xbb4ea025	-0.003152856
141	0xbed4822a	-0.41505557
142	0xbe07a365	-0.13245924
143	0xbd899072	-0.06717004
144	0xbccab89c	-0.024746232
145	0x3cef685b	0.029224565
146	0xbe597541	-0.21236135
147	0x3d23bf78	0.03997752
148	0xbdaadbe6	-0.083427235
149	0x3e2766a3	0.16347747
150	0x3d6a20f2	0.057160325
151	0x3e49a9e7	0.19693719
152	0x3d84fdff	0.064937584
153	0xbdcf28fb	-0.10115238
154	0x3e7c0d07	0.24614345
155	0xbe92342a	-0.28555423
156	0x3e171870	0.14755416
157	0xbe366b87	-0.17814456
158	0x3e074dd2	0.1321328
159	0x3d9d27dc	0.07673618
160	0xbe1c8e68	-0.15288699
161	0xbe97e8b5	-0.2966973
162	0xbe925f53	-0.28588352
163	0x3e24af92	0.160826
164	0x3daefb89	0.0854407
165	0x3cf29714	0.029613055
166	0x3e053839	0.13009728
167	0xbdee3491	-0.1163112
168	0xbd495a92	-0.04915864
169	0x3dc25b88	0.094901145
170	0x3df2e3c5	0.1185985
171	0xbdc7d293	-0.09756961
172	0x3cab3ec8	0.02090396
173	0x3c6ea1fa	0.014564985
174	0x3c7190e5	0.014744018
175	0xbbfb2f3a	-0.007665542
176	0x3d754785	0.05988266
177	0xbcdbbd45	-0.02682365
178	0x3cc7743c	0.024347417
179	0x3e349de1	0.17638351
180	0xbde9f171	-0.114230044
181	0x3e01c409	0.12672438
182	0x3cc91166	0.024544429
183	0x3dfbc126	0.122926995
184	0x3dc7340a	0.097267225
185	0x3c08d711	0.008352057
186	0xbd964b3f	-0.07338571
187	0x3b5a60fd	0.003332197
188	0xbd6f7377	-0.058459725
189	0xbe06b68c	-0.13155574
190	0x3eb0a748	0.34502625
191	0xbd5df7af	-0.054191288
192	0xbe085f6e	-0.13317654
193	0x3ea4cdc3	0.32188234
194	0x3c23bfc8	0.009994455
195	0xbe26ab08	-0.1627618
196	0x3d9fa7d5	0.07795683
197	0x3d838a45	0.06422857
198	0x3e27b801	0.16378786
199	0xbd32254e	-0.043492608
200	0x3cbe05c1	0.023196103
201	0x3dbbc8de	0.09169172
202	0x3e2fc314	0.1716426
203	0xbdc8df0c	-0.09808168
204	0xbe4c48b9	-0.19949616
205	0x3d06eb76	0.032939397
206	0x3d3f8a59	0.046762798
207	0x3e901b09	0.28145626
208	0x3e00f8c0	0.1259489
209	0x3cb6ee71	0.022330495
210	0xbe212dbb	-0.15740101
211	0xbd8fc932	-0.07020797
212	0xbd99fe5d	-0.07519219
213	0x3e4b54e3	0.198566
214	0xbe071ea6	-0.13195285
215	0x3e0264e0	0.12733793
216	0x3dfb304f	0.122650735
217	0x389daaed	7.518181e-05
218	0x3e19f3b2	0.15034369
219	0x3dc3b035	0.09555093
220	0x3cec0dc5	0.02881516
221	0xbdd25c9c	-0.1027157
222	0x3d15518d	0.036454726
223	0x3d16c8a0	0.036812425
224	0x3d950022	0.07275416
225	0x3c0f010b	0.008728276
226	0x3d3a9bbf	0.045558687
227	0x3d217077	0.039413895
228	0x3cd0f64d	0.02550807
229	0xbdbded3c	-0.092737645
230	0x3cfa9abc	0.030591361
231	0x3dd45944	0.103685886
232	0xbd8e6f5f	-0.06954836
233	0xbdf58cac	-0.11989722
234	0x3da0f874	0.07859889
235	0xbe22d058	-0.1589979
236	0x3d73ba3b	0.059503775
237	0xbdd7405b	-0.10510322
238	0x3d9d916f	0.07693755
239	0x3e99954d	0.2999672
240	0x3e2bb0fb	0.16766731
241	0xbdc29fee	-0.095031604
242	0xbd312e31	-0.043256942
243	0x3d55e696	0.052221857
244	0x3e5ab422	0.21357778
245	0xbc810270	-0.015748233
246	0x3c5cee41	0.0134845385
247	0x3ea9ee4f	0.33189628
248	0x3e2a6286	0.16639146
249	0x3cdabf0a	0.026702423
250	0x3e2219b1	0.15830113
251	0xbe8f2220	-0.27955723
252	0x3e4f7976	0.20261177
253	0x3c14abea	0.009074191
254	0xbd6d5718	-0.057944387
255	0xbd84caf2	-0.06484021

fc2.bias f4 [300]
0	0x3d597d11	0.05309779
1	0x3b944d16	0.004525791
2	0xbe11113d	-0.14166732
3	0xbd32932e	-0.043597393
4	0x3c8e256f	0.017351834
5	0xba939497	-0.0011259493
6	0xbd4dc066	-0.050232314
7	0xbb30eda4	-0.0026997114
8	0x3c9e859c	0.01935082
9	0x3bbe738d	0.0058121146
10	0x3dd31a19	0.10307712
11	0xbc9a43fb	-0.018831244
12	0xbcd5a782	-0.02608085
13	0xbc55df6e	-0.013053758
14	0x3cb8de97	0.022567077
15	0x3cbba663	0.022906488
16	0xbc6f9482	-0.014622809
17	0xbd0a12da	-0.033709385
18	0x3bf3061f	0.007416501
19	0x3e0714e9	0.1319157
20	0x3e32d696	0.1746467
21	0x3da2fa58	0.079579055
22	0x3cb54ed3	0.022132313
23	0xbdb7f381	-0.089819916
24	0x3c37b038	0.011211447
25	0xbce68833	-0.028141117
26	0xbdaea8a2	-0.08528258
27	0xbc9b1e6c	-0.018935405
28	0x3c1a20b8	0.009407215
29	0xbd245dd3	-0.04012854
30	0xbc289bdc	-0.010291066
31	0xbc537638	-0.0129066035
32	0x3d3943ea	0.045230784
33	0x3d303d9a	0.043027498
34	0x3d4d286b	0.050087374
35	0xbc7eff9a	-0.01556387
36	0xbc43d741	-0.011953176
37	0xbd953ff2	-0.07287587
38	0xbc3af445	-0.011410777
39	0x3cda9ed3	0.026687061
40	0xbd248e19	-0.040174577
41	0x3c69abe1	0.0142621705
42	0xbc770c35	-0.015078594
43	0xbdbe6500	-0.09296608
44	0xbd88e1ef	-0.066837184
45	0x3b1a4ec6	0.0023545488
46	0x3d8adc3b	0.06780287
47	0xbbb2ed20	-0.0054603964
48	0x3d080a98	0.033213228
49	0x3d57036d	0.0524935
50	0xbd809929	-0.06279213
51	0x3cecfd3a	0.028929342
52	0x3d21b336	0.03947755
53	0x3b2dcbee	0.0026519257
54	0xbc861658	-0.016368076
55	0xbca77e71	-0.020446034
56	0xbd396b54	-0.04526837
57	0xbd035559	-0.032063816
58	0xbca91d27	-0.020643784
59	0x3d29581e	0.0413438
60	0x3d645416	0.055744253
61	0xbbd0fa51	-0.0063774963
62	0x3d48de16	0.049039923
63	0xbd46c9e2	-0.048532374
64	0xbc9571da	-0.018242765
65	0xbcec20c3	-0.028824216
66	0xbde15c68	-0.11003953
67	0x3cc3ffdd	0.023925716
68	0x3c08a90f	0.008341088
69	0x3e685c91	0.22691561
70	0xbd96ff7b	-0.07372948
71	0x3b5500cc	0.0032501696
72	0xbc697948	-0.014250107
73	0xbd265249	-0.040605817
74	0xbd7ce4a2	-0.06174148
75	0x383ab69c	4.4515924e-05
76	0xbc31d1b3	-0.010853219
77	0xbbfb1cfd	-0.007663368
78	0x3d3d06ad	0.046148945
79	0xbd16e1af	-0.036836322
80	0xbc90fa9e	-0.017697629
81	0x3cd90e43	0.026496058
82	0x3bc0b56b	0.0058810017
83	0xbcc5883e	-0.024112817
84	0x3cbaffde	0.022827085
85	0xbdd71b9f	-0.10503315
86	0x3e0c4d8d	0.13701458
87	0x3dce7bf0	0.10082233
88	0x3d4a49b5	0.0493867
89	0x3b0b326a	0.0021239766
90	0x3cfac0d1	0.03060952
91	0xbd19df6f	-0.0375666
92	0x3b8587b3	0.0040750145
93	0xbc976096	-0.018478673
94	0xbd9e3442	-0.07724811
95	0xbb9cbec8	-0.004783485
96	0x3ce6d93c	0.028179757
97	0xbca359e6	-0.019940328
98	0xbcdcb1d9	-0.026940273
99	0xbd96a9b9	-0.07356591
100	0x3c8dcaf1	0.017308684
101	0x3cf5a450	0.029985577
102	0xbc19490a	-0.009355793
103	0xbe944bad	-0.28963986
104	0xbc4894e0	-0.012242526
105	0xbd3b02b6	-0.045656882
106	0xbd49ca5e	-0.049265258
107	0x3d4cd1fa	0.050004937
108	0x3d0444dc	0.032292232
109	0x3cb14dd3	0.021643555
110	0xbce2c346	-0.027681004
111	0x3e107535	0.14107211
112	0x3d5c2ca6	0.053753518
113	0xbdb2a577	-0.08722966
114	0x3d75db7f	0.06002378
115	0xbcd23ac7	-0.025662793
116	0xbc4c2ac4	-0.012461368
117	0x3ccf8973	0.025334096
118	0x3d147202	0.03624154
119	0x3a8c5336	0.0010705951
120	0xbd72950f	-0.059224185
121	0x392776d8	0.00015970634
122	0x3d5a5db5	0.053312022
123	0xbd15c59f	-0.03656542
124	0xbd0d2f52	-0.034468956
125	0x3cd15021	0.025550904
126	0xbcfe577e	-0.031047579
127	0x3bbf0fd9	0.0058307466
128	0x3bb03b1c	0.00537814
129	0xbc1d53a3	-0.00960246
130	0xbdd72e2e	-0.10506855
131	0xbc3778fa	-0.011198277
132	0xbd77ac3e	-0.060466997
133	0xbc81f9cd	-0.015866185
134	0xbd359c15	-0.044338305
135	0xbd3f2c81	-0.0466733
136	0xbd8a68dc	-0.067582816
137	0xbd90d65c	-0.07072136
138	0xbd4088a9	-0.04700533
139	0xbd540630	-0.051763713
140	0x3c3ecff7	0.011646262
141	0xbd26e43f	-0.040745016
142	0x3cdf52b1	0.02726111
143	0x3d16c9dd	0.036813606
144	0xbd930ace	-0.07179795
145	0xbd8e70c2	-0.069551006
146	0x3d86306f	0.06552207
147	0xbc2079b8	-0.009794645
148	0x3cc55967	0.024090482
149	0x3c6c4ea8	0.01442305
150	0xbc6f7e26	-0.0146174785
151	0xbd7266ae	-0.059179954
152	0xbc4f0d8c	-0.012637507
153	0x3d445ad9	0.0479382
154	0x3cc2f27b	0.023797264
155	0xbe0ba34d	-0.13636513
156	0x3cc60a2b	0.02417477
157	0xbc86458a	-0.01639058
158	0xbc8e65d6	-0.017382544
159	0x3d18c91b	0.037301164
160	0xbc913871	-0.017727109
161	0xbb214e4c	-0.002461332
162	0x3e6616c5	0.22469623
163	0x3dd287ec	0.10279831
164	0x3b01a764	0.001978361
165	0x3d02163d	0.03175949
166	0xbca46b9c	-0.020070843
167	0xbd5cd310	-0.053912222
168	0xbd69a42c	-0.057041332
169	0xbd4b6843	-0.04965998
170	0x3d3cd06c	0.046097204
171	0xbe695dd4	-0.22789699
172	0x3d44621a	0.04794512
173	0xbda02d92	-0.07821192
174	0x3e80a5ce	0.251265
175	0x3d0e7913	0.034783434
176	0xbb59741f	-0.0033180786
177	0xbd38c0d5	-0.045105774
178	0x3bb70383	0.0055851354
179	0xbdd61924	-0.10454014
180	0xbd22b702	-0.03972531
181	0x3cfa42df	0.030549465
182	0xbd6d75bd	-0.057973612
183	0xbcf0cb45	-0.029393801
184	0x3b9b172d	0.0047329874
185	0xbb642f6c	-0.0034818305
186	0xbdc0ce21	-0.09414316
187	0xbd242662	-0.040075667
188	0x3d6fdae8	0.058558375
189	0x3d3c8c9f	0.046032544
190	0xbdf80f15	-0.12112252
191	0x3d6b0371	0.05737633
192	0x3ca2cd80	0.01987338
193	0xbd9eb81b	-0.07749959
194	0xbcaa82ac	-0.020814262
195	0xbd85c4c2	-0.06531669
196	0x3da0c5bc	0.07850215
197	0x3ca70dca	0.020392317
198	0xbda4174a	-0.080122545
199	0x3d6af93e	0.057366602
200	0x3dac5942	0.08415462
201	0x3bcf3ded	0.006324521
202	0xbb9461ef	-0.004528276
203	0xbd18b36d	-0.03728049
204	0xbd9b32aa	-0.07578023
205	0xbd571ed4	-0.052519634
206	0xbd8d6303	-0.069036506
207	0x3ce57ef8	0.028014645
208	0x3dbdeda9	0.09273846
209	0x3cd85396	0.026407044
210	0x3da912c9	0.08255536
211	0xbd8d2058	-0.06890935
212	0xbb33c271	-0.0027429129
213	0x3c9ef026	0.019401621
214	0xbc669ac4	-0.014074985
215	0x3d0d8277	0.03454825
216	0xbd8789b7	-0.06618064
217	0xbc2837c2	-0.0102672
218	0x3ccf40bf	0.025299428
219	0x3c088437	0.008332304
220	0x3e658194	0.22412711
221	0xbd810fdf	-0.06301855
222	0xbd6c8216	-0.057741247
223	0x3cd4c7e9	0.02597423
224	0xbc0039fb	-0.007826324
225	0xba64f6f7	-0.00087343104
226	0xbd3f389b	-0.046684843
227	0xbcc3ded7	-0.02390997
228	0xbd196308	-0.03744796
229	0x3caebeab	0.021331152
230	0x3b156d1e	0.0022800635
231	0xbd591ba7	-0.053004887
232	0x3bf05777	0.0073346454
233	0xbd916dd7	-0.071010284
234	0xbcf8842e	-0.030336466
235	0xbd05661c	-0.032568082
236	0x3cc143d1	0.023591908
237	0x3d5dd1e1	0.054155234
238	0xbcb9be06	-0.022673618
239	0x3cbec49d	0.023287112
240	0x3b907530	0.004408501
241	0xbbb7a7c2	-0.005604715
242	0xbca34777	-0.019931538
243	0x3bff7850	0.007796325
244	0x3e071556	0.13191733
245	0xbcc12899	-0.023578929
246	0xbd419871	-0.04726452
247	0xbde7ee63	-0.113247655
248	0xbd880e60	-0.06643367
249	0x3d10d1c2	0.03535629
250	0x3c85ddc8	0.016341105
251	0xbcc4e054	-0.02403275
252	0x3d2206fe	0.03955745
253	0x3dfa53a9	0.12222988
254	0x3dbc66e6	0.09199314
255	0xbd9397da	-0.07206698

bn2.weight f4 [300]
0	0x3e5afecf	0.21386264
1	0x3ea8a3fd	0.32937613
2	0x3db1d244	0.08682683
3	0x3f106e30	0.5641813
4	0x3e84b4af	0.259191
5	0x3ea4ecf0	0.3221202
6	0x3eb7acc8	0.3587401
7	0x3ef6b148	0.4818213
8	0xbb3dfff2	-0.0028991667
9	0x3ecdd6b9	0.40202883
10	0x3e722eee	0.23650715
11	0x3e036e4f	0.12835048
12	0x3f558399	0.8340393
13	0x3ebf8661	0.3740721
14	0x3ec4aaa0	0.38411427
15	0x3ceefd59	0.02917354
16	0x3ee836ee	0.45354408
17	0x3f443d96	0.7665647
18	0x3e9f4ac4	0.3111173
19	0x3ddb4d90	0.10708153
20	0x3d2fb448	0.04289654
21	0x3ecf4f43	0.4049016
22	0x3f0f7d3b	0.5605046
23	0x3df875e2	0.12131859
24	0x3ec5622f	0.3855147
25	0x3dd1d384	0.102454215
26	0x3e1944ca	0.14967647
27	0x3da5d4d4	0.08097234
28	0x3eff6dd2	0.49888474
29	0x3e13210f	0.1436808
30	0x3f0c53d3	0.54815406
31	0x3efb56d6	0.49089688
32	0x3ecfacd1	0.40561536
33	0x3e161e13	0.1465991
34	0x3e0d49a6	0.13797626
35	0x3ed4d8b1	0.41571572
36	0x3ea9a793	0.3313566
37	0x3eaa35d4	0.33244193
38	0x3f8836ee	1.0641763
39	0x3de05194	0.1095306
40	0x3eb6223a	0.35572988
41	0x3efdd04e	0.49572986
42	0x3e5a0a8b	0.21293084
43	0x3efc0766	0.49224395
44	0x3dbbbf8a	0.091673926
45	0x3e85723a	0.2606371
46	0x3e1d232f	0.15345453
47	0x3e969b5e	0.2941541
48	0x3e851459	0.25992087
49	0x3f524193	0.8213131
50	0x3ed906ee	0.423881
51	0x3c5b719b	0.013393785
52	0x3e93c281	0.28859332
53	0x3e27ce0f	0.16387199
54	0x3eb26e9e	0.3485002
55	0xbd44d84e	-0.048057847
56	0x3e40c714	0.18825942
57	0x3f099a23	0.5375082
58	0x3f7d14f7	0.98860115
59	0x3e5a3c36	0.21312031
60	0x3ed4dbf2	0.41574055
61	0x3eba05ae	0.36332458
62	0x3ea781c0	0.3271618
63	0x3e08238f	0.13294815
64	0x3ea0f171	0.31434205
65	0x3ee339e0	0.44380093
66	0x3d9ed0f1	0.07754696
67	0x3ea9d342	0.3316899
68	0x3f193d8d	0.59859544
69	0x3dbcd54f	0.09220373
70	0x3e32143c	0.17390531
71	0x3ebf77b1	0.37396005
72	0x3f054829	0.5206323
73	0x3ec5ea8b	0.38655505
74	0x3f8ad1a4	1.0845227
75	0x3cf57afd	0.029965872
76	0x3e91b716	0.28459996
77	0x3e75466d	0.23952647
78	0x3e0b1f96	0.13586268
79	0x3e809138	0.25110793
80	0x3e60c68e	0.21950743
81	0x3e9d8757	0.3076732
82	0x3ee2d0dd	0.44299975
83	0x3f93fb34	1.1561036
84	0x3f4facad	0.8112286
85	0x3eca0116	0.39453954
86	0x3e1def99	0.1542343
87	0x3c4e30a2	0.012584837
88	0x3db1d9ae	0.08684097
89	0x3eb54582	0.35404593
90	0x3f023864	0.50867295
91	0x3ecd8930	0.40143728
92	0x3ea7eb8f	0.32796904
93	0x3e032e27	0.12810574
94	0x3e851add	0.25997058
95	0x3e1ec1f4	0.15503675
96	0x3f287f27	0.6581902
97	0x3edeaadf	0.4348974
98	0x3ed61f1e	0.41820616
99	0x3dee417b	0.11633583
100	0x3f11fae1	0.57023436
101	0x3eabc023	0.33545026
102	0x3eaf0752	0.34185272
103	0x3dbc86d1	0.09205402
104	0x3e357d32	0.1772354
105	0x3ecf75d1	0.40519574
106	0x3e417f2d	0.1889617
107	0x3ddf1bed	0.10893998
108	0x3e7a562c	0.24446934
109	0x3f0909f5	0.5353082
110	0x3f16b8b1	0.58875567
111	0xbd894b4a	-0.067038134
112	0x3da6f8dd	0.08152936
113	0x3f1b08b0	0.6056013
114	0x39f9d9e2	0.00047655316
115	0x3e91963d	0.28434935
116	0x3e94fae4	0.29097664
117	0x3e278b5e	0.16361758
118	0x3f3f4a69	0.74722916
119	0x3eef273e	0.46709627
120	0x3ebb3dd4	0.3657061
121	0x3e4f5e31	0.20250775
122	0x3e82ae8f	0.25523803
123	0x3ec1e02f	0.3786635
124	0x3edcc82b	0.43121466
125	0x3ea23614	0.31681883
126	0x3edcea62	0.4314757
127	0x3ed4158a	0.41422683
128	0x3d66f413	0.05638511
129	0x3f125f20	0.571764
130	0x3e46185f	0.19345234
131	0x3ea97fd3	0.33105335
132	0x3e1720b9	0.14758576
133	0x3e961d46	0.2931921
134	0x3e26ad17	0.16276966
135	0x3e9a9f5a	0.301997
136	0x3f628616	0.8848585
137	0xbb5462b8	-0.0032407474
138	0x3f02e8fb	0.5113675
139	0x3e49d97e	0.19711873
140	0x3e36a30e	0.17835638
141	0x3e0f2fdc	0.139831
142	0x3ebec81d	0.3726205
143	0x3eab531f	0.33461854
144	0x3e80c916	0.25153416
145	0x3ee39b27	0.4445431
146	0x3f56d303	0.8391573
147	0x3e7c74a2	0.24653867
148	0x3e26be68	0.16283572
149	0x3edafc1f	0.42770478
150	0x3f022a2d	0.50845605
151	0x3db09df7	0.086238794
152	0x3e860e34	0.2618271
153	0x3ec51e0d	0.3849949
154	0x3dbce46d	0.09223256
155	0x3e246c92	0.16057041
156	0x3ec9ea70	0.39436674
157	0x3e4b10a5	0.19830568
158	0x3f1e801f	0.6191425
159	0x3eadc230	0.33937216
160	0x3e0a7708	0.1352197
161	0x3eaedb9b	0.3415192
162	0x3e121669	0.14266361
163	0x3cc9cdf6	0.024634343
164	0x3efc1672	0.49235874
165	0x3ecf6183	0.40504083
166	0x3e1480dc	0.14502281
167	0x3ee9cbcb	0.45663294
168	0x3e6eb028	0.23309386
169	0x3d5ea9e0	0.054361224
170	0x3ed2fafb	0.41207108
171	0x3d8f3c81	0.06993962
172	0x3f0eaf8d	0.5573662
173	0x3e437fc8	0.19091713
174	0x3dc432de	0.09580015
175	0x3f8374ef	1.027006
176	0x3f0ce6f3	0.550399
177	0x3f12bf38	0.57323027
178	0x3e2edba1	0.1707597
179	0x3e2fcdfc	0.1716842
180	0x3f30eefd	0.6911467
181	0x3e96c21a	0.29444963
182	0x3f7fa121	0.9985524
183	0x3e988735	0.29790655
184	0x3ee495d6	0.44645566
185	0x3f0df291	0.5544825
186	0x3e5a383a	0.21310511
187	0x3f4435c3	0.76644534
188	0x3ed03de0	0.40672207
189	0x3e148d48	0.1450702
190	0x3e471367	0.19440995
191	0x3e5eff39	0.21777047
192	0x3e8c3741	0.27385905
193	0x3e285d38	0.1644181
194	0x3e8a26a8	0.26982617
195	0x3e907947	0.28217527
196	0x3e222109	0.15832914
197	0x3eb4c2a8	0.3530476
198	0x3c7a0f1e	0.015262393
199	0x3e61eb69	0.22062458
200	0x3d975713	0.07389655
201	0x3d937bc3	0.0720134
202	0x3ea99c4b	0.33127055
203	0x3e575abc	0.21030706
204	0x3f0e3304	0.55546594
205	0x3eb9e34c	0.36306226
206	0x3e81f029	0.2537854
207	0x3e7c5f71	0.24645783
208	0x3dd8291e	0.105547175
209	0x3eac5987	0.33662054
210	0x3e9b8eb8	0.30382323
211	0x3ee0e619	0.4392555
212	0x3cdccad6	0.026952188
213	0x3de4ed1a	0.11178036
214	0x3eec72ca	0.46181327
215	0x3e02518a	0.12726417
216	0x3e37bd80	0.17943382
217	0x3cf3ba98	0.02975206
218	0x3ed6b0f7	0.41931888
219	0x3ed8ac0d	0.42318764
220	0x3ddd7dfc	0.10815045
221	0x3e9fc731	0.31206658
222	0x3ece7ebe	0.40331072
223	0x3dd6132a	0.10452874
224	0x3eabb18f	0.33533904
225	0x3e8ac7eb	0.2710565
226	0x3e6f0e0c	0.23345202
227	0x3dcf7ca0	0.10131192
228	0x3e4d1442	0.20027259
229	0x3e90d1a8	0.28284955
230	0x3e39cb9c	0.18144077
231	0x3eb0511f	0.3443689
232	0x3ec4e734	0.38457644
233	0x3e9d703b	0.30749688
234	0x3f9976dc	1.1989398
235	0x3e6941a5	0.22778948
236	0x3ecfd80c	0.40594518
237	0x3e8e43a7	0.2778599
238	0x3e94dc8f	0.29074523
239	0x3e5af218	0.21381414
240	0x3e8d5b2e	0.27608627
241	0x3d341d53	0.04397328
242	0x3eb98cc9	0.36240223
243	0x3ef7c7c6	0.48394603
244	0x3dee09da	0.11622973
245	0x3d9ba831	0.07600439
246	0x3e70faed	0.2353322
247	0xbadbef4f	-0.0016779694
248	0x3eb1acf2	0.3470226
249	0x3ea3ce12	0.31993157
250	0x3e164ea3	0.14678435
251	0x3f012fcb	0.5046355
252	0x3d96f670	0.07371223
253	0xbca0660f	-0.019579915
254	0x3ca61721	0.0202747
255	0x3da2b6e5	0.079450406
