Zadanie3/srcV2/models/VEP_exp_prob_03_exploration_100/target_critic_network.pth (torch, 509903 bytes, 11 tensors)

fc1.weight f4 [400, 8]
0.44618723 0.31001395 0.18619135 -0.47724608 -0.24994026 -0.60492736 1.131793 0.80363697
-0.3632443 0.07361729 0.0441513 -0.29853076 0.22735427 -0.3543133 0.9938281 0.32078132
-0.016529186 0.21927497 0.1706388 -0.40274075 -0.22788458 -0.45612472 0.39058283 0.20226802
-0.06569914 0.24970132 0.42958105 -0.29160643 0.107322685 -0.92979467 0.9235123 0.19332676
-0.01748609 0.34318623 0.43876314 -0.33012083 -0.11679653 -0.38653877 0.9946027 0.77274865
0.12714246 0.43026894 -0.13062589 0.070916936 -0.09571614 0.05829699 -0.3222226 0.08418896
0.11025895 0.3247092 0.37669998 -0.20222819 -0.118552014 -0.741151 1.1559228 0.35608944
0.28333881 -0.1758405 -0.043962173 0.68600446 -0.3532988 0.042113803 0.53666574 0.5565721
-0.04641571 -0.23315895 -0.3015693 -0.17685832 0.22751175 0.7852202 0.64060247 -0.17038107
0.19255087 0.37837592 0.30525875 -0.44867703 -0.044306025 -0.45312536 1.0851797 0.8514113
-0.41843864 -0.18699673 -0.026983982 -0.38118434 -0.12891506 -0.97770715 -0.42888218 0.697462
0.25818276 0.2643428 -0.38816276 0.38170496 0.5711041 0.5297436 0.18944351 0.06369659
0.05731983 -0.44521916 0.24227488 0.054861423 0.074816085 -0.13977654 0.23629516 -0.12790807
0.293643 0.12029507 0.31162816 -0.030132616 0.10280925 0.34867242 0.95794207 0.43815717
-0.44045055 -0.23590471 -0.54267246 -0.040779907 -0.030207867 -0.5599409 -0.6747479 -0.52807266
0.30987206 -0.1032498 0.20140819 0.14746638 -0.10757761 0.026906287 0.20903738 0.06745739
0.2460902 0.42571485 0.1614113 -0.3502789 -0.148505 -0.4821971 0.97169715 0.70900863
0.14820929 0.22843061 -0.3095647 0.24335228 0.17808913 0.37371036 0.56120276 0.76319975
0.36956024 -0.1301075 0.57509995 1.3108655 0.021278111 -0.5822028 0.46726778 -0.14674115
-0.101786755 -0.036736205 0.10624554 -0.099285096 0.7167559 -0.28740627 1.056581 0.00061962096
0.38406268 0.38273412 0.43918845 -0.497554 -0.32878706 -0.69966966 1.089491 0.8129773
0.1552764 -0.5954865 0.005432051 0.35162368 0.8587955 -0.6509816 0.42412177 0.6045893
0.04541772 0.12728766 0.22736044 0.40614006 0.29188618 -0.12623404 0.7426951 0.9907706
0.19957823 -1.116058 -0.45068815 -0.43229294 -0.24591517 0.2633566 -0.43581647 0.027102953
0.51847154 0.020371966 0.4000001 -0.096279286 -0.6451628 -0.6524022 -0.22379187 0.7051227
0.02015543 0.21602887 0.40694916 -0.4729481 0.25123957 -0.8598732 0.94316775 0.37530875
0.41021168 0.37664515 0.022149153 -0.18036255 -0.19616637 -0.24252278 1.2190988 0.9169567
-0.5303361 0.2811456 -0.20655128 0.51215196 -0.11439698 -0.84416485 0.22499873 -0.15136747
0.5478404 -0.11208828 0.27667668 0.8572377 0.9350538 0.2206462 -0.1385146 0.3818579
0.06544235 0.33339384 0.108120404 -0.20737167 0.24107634 0.9804405 0.8393676 -0.46126795
-0.49441454 -0.57723755 -0.130157 -0.19740954 0.5767441 -0.09159967 0.9374585 -0.9034443
0.48887703 0.25978634 0.21304654 0.55284506 -0.002327061 -0.17567365 0.67512447 0.4273684
00000000: a772 e43e 26ba 9e3e f2a8 3e3e 9959 f4be
00000010: 57f0 7fbe 85dc 1abf 98de 903f 27bb 4d3f
00000020: 28fb b9be a9c4 963d fed7 343d 06d9 98be
00000030: 8fcf 683e 8e68 b5be 856b 7e3f 733d a43e
00000040: 3768 87bc 9e89 603e f0bb 2e3e 0934 cebe
00000050: 935a 69be 2e89 e9be 79fa c73e 591f 4f3e
00000060: 458d 86bd b4b1 7f3e 0cf2 db3e 704d 95be
00000070: ffcb db3d 0607 6ebf 4d6b 6c3f 73f7 453e
00000080: fd3e 8fbc 1bb6 af3e 90a5 e03e 9905 a9be
00000090: 0533 efbd 69e8 c5be 489e 7e3f dbd2 453f
000000a0: a231 023e 364c dc3e cbc2 05be e63c 913d
000000b0: d306 c4bd d3c8 6e3d 5cfa a4be 436b ac3d
000000c0: 72cf e13d 4940 a63e d2de c03e e814 4fbe
000000d0: 66cb f2bd 12bc 3dbf 47f5 933f 5b51 b63e
000000e0: c911 913e 880f 34be ae11 34bd fd9d 2f3f
000000f0: 95e3 b4be 867f 2c3d ed62 093f 827b 0e3f
00000100: 661e 3ebd 38c1 6ebe 4b67 9abe 591a 35be
00000110: d7f8 683e 3104 493f 86fe 233f 6078 2ebe
00000120: 0e2c 453e 7dba c13e e04a 9c3e ffb8 e5be
00000130: 3c7a 35bd 0c00 e8be 2be7 8a3f 17f6 593f
00000140: 973d d6be 127c 3fbe 830d ddbc 982a c3be
00000150: 4f02 04be 044b 7abf 7296 dbbe df8c 323f
00000160: 8830 843e f157 873e 45bd c6be d56e c33e
00000170: e133 123f 479d 073f 7bfd 413e 5c73 823d
00000180: 33c8 6a3d c4f3 e3be e816 783e 5fb6 603d
00000190: 2d39 993d 9521 0fbe 5cf7 713e 55fa 02be
000001a0: 6058 963e 435d f63d ba8d 9f3e add8 f6bc
000001b0: a88d d23d 3185 b23e b13b 753f 2356 e03e
000001c0: bc82 e1be 0191 71be 95ec 0abf d508 27bd
000001d0: 7d76 f7bc 4958 0fbf 47bc 2cbf c52f 07bf
000001e0: 8da7 9e3e a274 d3bd f33d 4e3e 6d01 173e
000001f0: a651 dcbd 936a dc3c e50d 563e 1a27 8a3d
00000200: 12ff 7b3e 4cf7 d93e 0149 253e c257 b3be
00000210: b211 18be 8ae2 f6be 25c1 783f 9781 353f
00000220: 2dc4 173e b7e9 693e 447f 9ebe 5731 793e
00000230: ff5c 363e f756 bf3e fcaa 0f3f 0f61 433f
00000240: 0037 bd3e e73a 05be c039 133f 71ca a73f
00000250: 6f4f ae3c 3e0b 15bf b93d ef3e 5043 16be
00000260: 9375 d0bd b478 16bd 4397 d93d fc55 cbbd
00000270: 517d 373f ea26 93be 0c3e 873f 0f6e 223a
00000280: dda3 c43e baf5 c33e 4fdd e03e 66bf febe
00000290: c756 a8be 8d1d 33bf 7174 8b3f 481f 503f
000002a0: c700 1f3e ce71 18bf 59ff b13b 0508 b43e
000002b0: 06da 5b3f bba6 26bf 7d26 d93e 5dc6 1a3f
000002c0: ee07 3a3d b257 023e 2dd1 683e 97f1 cf3e
000002d0: 1b72 953e 7f43 01be 4421 3e3f 24a3 7d3f
000002e0: 3c5e 4c3e fdda 8ebf 99c0 e6be 8055 ddbe
000002f0: 30d1 7bbe add6 863e 5623 dfbe 0307 de3c
00000300: 8dba 043f 1ce3 a63c d0cc cc3e 132e c5bd
00000310: 6429 25bf d503 27bf b229 65be ec82 343f
00000320: 001d a53c ac36 5d3e a45b d03e 4126 f2be
00000330: 79a2 803e a620 5cbf 7173 713f 7828 c03e
00000340: 4407 d23e a2d7 c03e 2472 b53c f6b0 38be
00000350: d6df 48be e457 78be 6e0b 9c3f adbd 6a3f
00000360: 1bc4 07bf 51f2 8f3e 2e82 53be 641c 033f
00000370: f748 eabd 301b 58bf 1166 663e 1300 1bbe
00000380: 453f 0c3f 8a8e e5bd 91a8 8d3e ee73 5b3f
00000390: b05f 6f3f 14f1 613e c5d6 0dbe e182 c33e
000003a0: a406 863d 99b2 aa3e 3b6e dd3d 3d59 54be
000003b0: b7dc 763e 26fe 7a3f cce0 563f 502b ecbe
000003c0: e723 fdbe d7c5 13bf e047 05be ba25 4abe
000003d0: 80a5 133f 9c98 bbbd 48fd 6f3f 2048 67bf
000003e0: 174e fa3e b702 853e df28 5a3e 4187 0d3f
000003f0: 9b81 18bb cbe3 33be f5d4 2c3f 08d0 da3e

fc1.bias f4 [400]
0.35133886 0.08617564 -0.15725808 0.2537262 0.32900167 0.59273803 0.31425178 0.8505435
-0.124846324 0.29673678 -0.35081393 -0.2504606 0.59611887 0.23068921 0.20455225 0.35227758
0.21982723 0.25535908 -0.43553105 0.22766508 0.30855933 0.42307067 0.56548804 0.28289768
-0.42036474 0.27500844 0.3663303 0.3030139 0.71548945 0.17544894 0.3143698 -0.2692683
-0.062086448 0.25640383 -0.6441391 0.34910226 0.14663514 -0.18904422 0.25691327 0.386634
-0.55155927 -0.4095496 0.67501575 -0.022395391 -0.262473 -0.26406693 0.2303406 0.11676556
-0.44237533 0.7778819 0.20138207 0.73124224 -0.60080355 0.23992333 0.21489938 -0.38039052
-0.5756359 0.20420294 0.15452448 0.02494992 -0.104062386 0.009845471 0.11167346 0.11777869
0.20211372 0.3565034 0.05727319 -0.21141043 -0.33101368 -0.33334655 -0.2027302 0.39155996
0.0017704144 0.8432116 0.11909683 0.2480329 0.3559354 0.1653866 0.31604564 0.2861411
0.6537378 0.10155084 0.07420618 0.50456 0.14360006 -0.3623075 -0.07504683 -0.08058313
-0.64630836 -0.25321326 -0.5730667 0.10207861 0.293867 -0.26833233 0.524563 0.5079956
0.2950057 -0.22332318 -0.14757632 0.5420845 -0.21797769 0.25885704 0.019482082 0.07845853
-0.5744875 0.06412826 0.06501007 0.46563977 0.16984566 0.121133335 0.7605679 0.12304213
0.007295525 -0.5078476 0.3939593 0.2214574 0.23485391 -0.38931572 -0.16732103 -0.13678455
-0.06665454 0.2820461 -0.31272903 -0.41472727 0.4569798 -0.20819588 0.061642278 0.58095455
0.19361837 0.009511838 -0.65591305 -0.33708593 0.24112432 0.29499274 -0.28915876 -0.015446304
0.3174274 -0.5525573 0.25360826 0.02978765 0.21155055 0.040042263 -0.25478557 -0.21214439
-0.6749146 -0.040232167 0.27756408 0.30391526 0.23768815 -0.10225606 0.16439882 -0.037380047
0.52849567 0.5523689 -0.05288202 0.13485447 -0.70869553 0.2640263 0.026137976 0.25967288
0.33363426 0.286196 0.7428191 0.24911033 0.60729325 0.15120092 0.3068225 0.16321282
0.06813037 -0.39098224 -0.13678375 -0.27700314 0.24935861 0.5773707 0.08619602 0.26188853
-0.3416827 -0.28996387 0.3462762 -0.28073826 0.19938807 0.36551708 -0.090205826 -0.034564346
0.5077569 0.19276202 0.67943174 -0.50858074 -0.24313268 0.0680275 -0.12881052 -0.45513842
0.20124748 0.28319553 0.14892614 0.1446006 0.21392043 0.23843107 -0.18820229 0.051304415
-0.0019806765 0.024857366 0.23703071 -0.18801172 -0.38064164 0.73497295 -0.009832294 -0.02810198
-0.50833803 -0.5780456 0.3067371 0.72092897 0.038763303 0.041943945 -0.035505544 0.027236843
0.06047511 -0.04042481 0.24308741 0.3594852 0.31514272 -0.42572019 0.42590404 -0.22670758
-0.1003598 0.46343958 -0.056924134 0.30539984 0.06279153 0.16863507 0.27897486 0.73707217
0.26356205 0.25474355 0.47234538 0.36650866 0.058235873 -0.03522579 0.6500762 -0.33247188
-0.04440781 -0.12941022 0.41070917 0.63066936 -0.30396488 0.5297012 0.20575821 -0.13823195
0.4673481 0.20808843 -0.57387745 0.085385956 -0.047419824 -0.44478515 0.13063642 -0.60498405
00000000: b0e2 b33e db7c b03d 4308 21be 67e8 813e
00000010: e872 a83e aebd 173f 9ce5 a03e 38bd 593f
00000020: 6eaf ffbd e2ed 973e e29d b3be 5f3c 80be
00000030: 3f9b 183f cb39 6c3e 2576 513e ba5d b43e
00000040: 641a 613e 6dbe 823e edfd debe 0921 693e
00000050: 7dfb 9d3e b89c d83e d3c3 103f f7d7 903e
00000060: 0c3a d7be e8cd 8c3e a58f bb3e a324 9b3e
00000070: 512a 373f e3a8 333e 14f5 a03e 89dd 89be
00000080: 5c4e 7ebd 5d47 833e 4de6 24bf 88bd b23e
00000090: 8627 163e cf94 41be 238a 833e e4f4 c53e
000000a0: fd32 0dbf 7cb0 d1be d5cd 2c3f 8a76 b7bc
000000b0: dc62 86be c833 87be 68de 6b3e c822 ef3d
000000c0: 057f e2be 4523 473f 1a37 4e3e b132 3b3f
000000d0: 43ce 19bf 76ae 753e 950e 5c3e 8cc2 c2be
000000e0: e05c 13bf 931a 513e aa3b 1e3e c663 cc3c
000000f0: a91e d5bd e64e 213c 0eb5 e43d f435 f13d
00000100: e6f6 4e3e 9d87 b63e 4b97 6a3d fa7b 58be
00000110: a07a a9be 66ac aabe 8198 4fbe 8c7a c83e
00000120: 400d e83a b7dc 573f 0ae9 f33d 56fc 7d3e
00000130: 2a3d b63e 1b5b 293e bcd0 a13e 1681 923e
00000140: 5c5b 273f e3f9 cf3d 69f9 973d d82a 013f
00000150: e50b 133e 5e80 b9be 27b2 99bd c508 a5bd
00000160: 7774 25bf 2ba5 81be 80b4 12bf 970e d13d
00000170: bc75 963e db62 89be c349 063f 000c 023f
00000180: fd0a 973e d5ae 64be 3f1e 17be 0dc6 0a3f
00000190: 8b35 5fbe e988 843e e398 9f3c deae a03d
000001a0: 9d11 13bf ad55 833d 0024 853d 5668 ee3e
000001b0: 05ec 2d3e c114 f83d 94b4 423f 83fd fb3d
000001c0: 4d0f ef3b 4d02 02bf 09b5 c93e bbc5 623e
000001d0: 8b7d 703e 6454 c7be 3456 2bbe 4011 0cbe
000001e0: 2d82 88bd 5968 903e 051e a0be 2257 d4be
000001f0: 42f9 e93e 4d31 55be 9d7c 7c3d 70b9 143f
00000200: e543 463e 8ad7 1b3c ebe9 27bf 8796 acbe
00000210: 4be9 763e 4a09 973e 9e0c 94be 7f12 7dbc
00000220: d885 a23e 6574 0dbf f1d8 813e 3b05 f43c
00000230: b5a0 583e 5b03 243d 4173 82be 613c 59be
00000240: 34c7 2cbf 7cca 24bd e11c 8e3e c89a 9b3e
00000250: 8664 733e a06b d1bd 2a58 283e d21b 19bd
00000260: 7e4b 073f 0c68 0d3f d19a 58bd 4a17 0a3e
00000270: 126d 35bf 752e 873e 4f1f d63c d8f3 843e
00000280: 1cd2 aa3e 4888 923e 6429 3e3f c716 7f3e
00000290: 9277 1b3f 6ad4 1a3e d717 9d3e 4321 273e
000002a0: ef87 8b3d d32e c8be 0a11 0cbe 5bd3 8dbe
000002b0: dd57 7f3e 91ce 133f 8a87 b03d 4116 863e
000002c0: 09f1 aebe 2576 94be 1d4b b13e edbc 8fbe
000002d0: 632c 4c3e 0e25 bb3e d5bd b8bd 5893 0dbd
000002e0: 5bfc 013f 6863 453e 3def 2d3f 5932 02bf
000002f0: c6f7 78be 0052 8b3d e8e6 03be e707 e9be
00000300: d213 4e3e 01ff 903e 1880 183e 2e12 143e
00000310: f50d 5b3e 4627 743e 1ab8 40be 9424 523d
00000320: 3dce 01bb ada1 cb3c 2eb8 723e 2586 40be
00000330: 76e3 c2be 3027 3c3f a117 21bc 2036 e6bc
00000340: 7122 02bf ccfa 13bf a50c 9d3e cd8e 383f
00000350: 45c6 1e3d 6acd 2b3d 436e 11bd cd1f df3c
00000360: c0b4 773d 7c94 25bd e8eb 783e 720e b83e
00000370: 635a a13e fff7 d9be 1810 da3e 0826 68be
00000380: 7089 cdbd f447 ed3e 4829 69bd 5e5d 9c3e
00000390: d898 803d acae 2c3e cbd5 8e3e c3b0 3c3f
000003a0: 9bf1 863e bf6d 823e 41d7 f13e 06a7 bb3e
000003b0: bd88 6e3d eb48 10bd 656b 263f c139 aabe
000003c0: f7e4 35bd 1d84 04be 7948 d23e 8c73 213f
000003d0: 49a1 9bbe 7f9a 073f 48b2 523e ad8c 0dbe
000003e0: 4048 ef3e 2215 553e a2e9 12bf d5de ae3d
000003f0: 4a3b 42bd e1ba e3be 8ec5 053e 3ce0 1abf

bn1.weight f4 [400]
0.21775533 0.63739616 0.4492138 0.3963921 0.31221834 0.9327762 0.34344524 1.0631319
0.8187914 0.31749934 1.4837259 1.3803347 0.79536194 0.41880944 0.99865824 0.492939
0.32739967 0.62319463 1.3394972 0.78963256 0.23192635 1.3210766 0.49996716 1.9741955
1.149135 0.40520763 0.3277871 0.8271551 1.5647584 0.7318253 1.5190383 0.58340484
0.87629765 1.2903051 2.1256163 0.83193606 0.6807188 1.5295976 0.3575537 0.90953696
2.0927305 0.9159006 1.1952126 1.2798377 1.4801761 0.9171214 0.24892561 0.62423503
2.236455 1.583819 0.47173187 1.035281 1.2563479 0.58408546 0.38760638 1.580439
1.3223358 0.73941606 1.3958036 1.1300411 0.85170925 0.62596637 0.89595467 1.0019729
0.36872956 0.519393 1.1227508 1.132992 1.2878182 1.3794411 0.9964255 1.0295446
1.0134932 1.1104918 0.5535367 1.0561692 0.36306712 0.6389721 1.1498598 1.8810741
1.120201 0.60021335 1.6074476 1.0294626 0.3527138 2.2974386 1.7115536 0.43853036
1.7738838 1.375405 2.2640216 0.62644774 1.0115223 1.6869642 1.0303608 0.91951984
0.38244462 0.58123606 1.6522824 1.0459636 0.95808864 0.7664004 1.0653015 0.76971954
1.8203418 0.9183773 1.6103315 1.0630635 0.3964994 1.091316 1.2640566 0.6707235
0.66748315 1.7335341 0.8187883 0.62083626 0.91300994 1.6476146 0.66709083 1.5466233
0.7363132 0.8530486 2.0620182 0.7161501 0.7508247 1.5708516 0.41802862 0.9840374
1.8039042 1.3865541 1.5073609 1.5944893 1.2033997 0.8105803 0.7016523 0.8405917
0.23683779 1.6301401 0.4726887 0.58677286 0.60776466 0.45739236 1.965272 0.7018738
1.8302944 0.78483367 0.78407633 0.28524128 0.42571166 1.2965871 0.43625426 0.60398537
1.5124049 1.1161534 1.261664 0.98323226 1.1577463 0.26538098 0.49090323 0.6052609
1.4179841 0.6543276 1.2302805 0.35150382 1.3757836 0.42830768 0.5099311 0.55562216
0.43731073 0.7427155 1.3932357 1.4207095 0.6324272 1.3133385 0.9020538 0.33012956
0.8226612 1.6659502 1.0502421 0.87780315 0.37189457 1.1016792 0.6459684 0.69245595
1.0013422 0.92312866 0.89658296 1.6500655 1.4365801 0.73917943 0.9048778 2.3125422
0.8457192 0.35076472 0.93151003 0.7246852 0.6932296 0.88694507 0.89533216 0.6098101
0.50386834 1.0857455 0.42093256 0.79239345 1.8335197 1.0921941 0.9962696 0.7302563
0.83365774 1.6434313 0.33977956 1.063515 0.7772552 0.98621356 0.5468172 1.0425593
0.75351524 0.93548125 0.36802027 0.7405677 0.7504996 1.1735458 0.57655 1.4666005
1.5115244 0.73079693 1.5194902 0.84612584 0.91714853 0.4540324 0.34295648 1.6461874
0.40083268 0.53543353 1.319658 1.1142019 1.15752 1.1098362 1.0335242 1.3077197
0.42628327 1.3211749 1.1483797 1.4097598 1.6812979 0.7998715 0.3628585 2.5055437
1.0589582 1.2251536 1.2082016 1.2208647 2.1565218 0.81122744 0.5680269 2.1022503
00000000: 41fb 5e3e 652c 233f 5aff e53e e8f3 ca3e
00000010: 15db 9f3e 6cca 6e3f 0ed8 af3e b514 883f
00000020: 509c 513f 468f a23e bbea bd3f cfae b03f
00000030: d79c 4b3f 316e d63e 11a8 7f3f 8062 fc3e
00000040: eea0 a73e af89 1f3f a574 ab3f 5c25 4a3f
00000050: 1a7e 6d3e 0a19 a93f b2fb ff3e 70b2 fc3f
00000060: db16 933f 6077 cf3e b6d3 a73e 70c0 533f
00000070: 014a c83f e758 3b3f d96f c23f 055a 153f
00000080: 0b55 603f b828 a53f 190a 0840 c3f9 543f
00000090: 9643 2e3f dbc9 c33f 4711 b73e 6ad7 683f
000000a0: 4cef 0540 7678 6a3f bafc 983f b9d1 a33f
000000b0: 6976 bd3f 78c8 6a3f 5be6 7e3e decd 1f3f
000000c0: 1422 0f40 95ba ca3f d786 f13e 1684 843f
000000d0: 02d0 a03f a086 153f 5874 c63e d34b ca3f
000000e0: 4d42 a93f 5f4a 3d3f b1a9 b23f 30a5 903f
000000f0: 9e09 5a3f 553f 203f 495d 653f a640 803f
00000100: 1fca bc3e f1f6 043f 4cb6 8f3f e205 913f
00000110: 3ad7 a43f 8791 b03f be15 7f3f 1ec8 833f
00000120: 25ba 813f 9824 8e3f 95b4 0d3f 8d30 873f
00000130: efe3 b93e ad93 233f 9b2e 933f 09c7 f03f
00000140: bf62 8f3f 95a7 193f d8c0 cd3f 6ec5 833f
00000150: e796 b43e 3c09 1340 3014 db3f 0d87 e03e
00000160: a00e e33f 450d b03f bbe5 1040 e15e 203f
00000170: 9079 813f 71ee d73f dde2 833f a765 6b3f
00000180: c8cf c33e e3cb 143f fd7d d33f 23e2 853f
00000190: 4c45 753f d132 443f cd5b 883f 570c 453f
000001a0: f600 e93f c61a 6b3f 581f ce3f 7712 883f
000001b0: f801 cb3e 3eb0 8b3f 9bcc a13f 89b4 2b3f
000001c0: 2de0 2a3f 72e4 dd3f 1c9c 513f 20ef 1e3f
000001d0: 05bb 693f 09e5 d23f 77c6 2a3f c1f7 c53f
000001e0: 067f 3c3f 6561 5a3f 1bf8 0340 9d55 373f
000001f0: 0c36 403f aa11 c93f d907 d63e e0e9 7b3f
00000200: 55e6 e63f 9b7a b13f 34f1 c03f 3a18 cc3f
00000210: 0009 9a3f 3182 4f3f 7c9f 333f 0531 573f
00000220: 9b85 723e 6ea8 d03f 4104 f23e bf36 163f
00000230: 7796 1b3f 552f ea3e 088e fb3f 00ae 333f
00000240: 1647 ea3f dcea 483f 3ab9 483f 250b 923e
00000250: e1f6 d93e 91f6 a53f b85c df3e c99e 1a3f
00000260: 7c96 c13f 1dde 8e3f 357e a13f 1cb5 7b3f
00000270: 0831 943f 04e0 873e ab57 fb3e 61f2 1a3f
00000280: 8180 b53f 0382 273f d579 9d3f 4ff8 b33e
00000290: ad19 b03f 254b db3e d88a 023f 413d 0e3f
000002a0: 31e7 df3e 9a22 3e3f 8c55 b23f cfd9 b53f
000002b0: c0e6 213f 7a1b a83f ffec 663f be06 a93e
000002c0: ed99 523f db3d d53f 556e 863f b5b7 603f
000002d0: f768 be3e d303 8d3f 2f5e 253f cb44 313f
000002e0: fb2b 803f 2952 6c3f 7686 653f 5935 d33f
000002f0: dbe1 b73f dd3a 3d3f 12a6 673f b100 1440
00000300: 0e81 583f 6f97 b33e 7177 6e3f f884 393f
00000310: 7f77 313f d50e 633f 7d34 653f 841c 1c3f
00000320: 84fd 003f b5f9 8a3f 7984 d73e 4cda 4a3f
00000330: c6b0 ea3f 04cd 8b3f 860b 7f3f 14f2 3a3f
00000340: 986a 553f f55b d23f 96f7 ad3e 4221 883f
00000350: 32fa 463f 7e78 7c3f 36fc 0b3f 9572 853f
00000360: 60e6 403f b37b 6f3f 276d bc3e d895 3d3f
00000370: be20 403f c036 963f c898 133f 91b9 bb3f
00000380: a279 c13f 8215 3b3f a87e c23f b49b 583f
00000390: 3fca 6a3f ef76 e83e fe97 af3e 45b6 d23f
000003a0: f139 cd3e 2c12 093f 8eea a83f 2b9e 8e3f
000003b0: 9e29 943f 1d0f 8e3f 854a 843f 5c63 a73f
000003c0: cd41 da3e 421c a93f 1bfe 923f 0273 b43f
000003d0: c534 d73f 61c4 4c3f 97c8 b93e d45a 2040
000003e0: f18b 873f d5d1 9c3f 5aa6 9a3f 4b45 9c3f
000003f0: 7404 0a40 9aac 4f3f 366a 113f 458b 0640

bn1.bias f4 [400]
-0.71117353 -0.60377085 -0.47867644 -0.84530795 -0.6710834 -0.24874382 -0.800211 -0.26259565
0.1479113 -0.68852377 0.1306277 -0.29332495 -0.5190412 -0.6807632 -0.022105096 -0.58470327
-0.5926794 -0.39859462 -0.33791015 -0.47715792 -0.8158394 -0.15509407 -0.61602587 0.3162609
0.17252387 -0.86882794 -0.75642544 -0.46578676 -0.17107444 -0.44347352 -0.09977145 -0.7024832
-0.14233951 -0.3157473 0.28217608 -0.48236725 -0.4648909 0.15220036 -0.79317766 -0.34992388
0.07140427 -0.51253766 -0.10412612 -0.6546397 0.092829876 0.11512774 -0.606913 -0.6797092
0.21389593 -0.3147004 -0.86998147 -0.40563637 -0.22305878 -0.5778425 -0.83916867 -0.26281014
-0.17524631 -0.25239003 -0.07331451 -0.40130207 0.009917795 -0.6221029 -0.51373076 0.16654456
-0.7636257 -0.76482415 -0.30503738 -0.46732074 0.029313715 -0.20890287 -0.16413487 -0.4256027
-0.27834907 -0.20267983 -0.4274232 -0.2280156 -0.62531894 -0.64356166 -0.14469558 0.21366617
-0.16996026 -0.46987283 -0.40444076 -0.27184096 -0.59049785 0.108477004 0.15284207 -0.19298106
0.008541233 0.14508544 -0.0040720073 -0.7216392 -0.45603192 0.124274395 -0.119044 -0.17017984
-0.65653986 -0.36857492 -0.08979324 -0.26554525 -0.6049397 -0.70066726 -0.49622458 -0.559168
-0.001960271 -0.4008496 -0.18979329 0.026294945 -0.7528611 -0.06509022 -0.2717416 -0.6883353
-0.4778856 -0.15852393 -0.30448 -0.20301387 -0.33181903 0.14957272 -0.49475464 0.05170435
-0.49516162 -0.37980852 0.1922494 -0.016313346 -0.5760036 0.1416801 -0.7050462 -0.0602688
0.08571628 0.08843695 -0.03898972 -0.2728977 -0.038040422 -0.42122117 -0.10414659 -0.4196838
-0.7048912 -0.04154977 -0.57431877 -0.4471164 -0.48845074 -0.48719245 0.25631526 -0.1663289
0.031651463 -0.53498375 0.19751859 -0.45797572 -0.7742234 -0.041045714 -0.5904016 -0.59042716
0.28913257 -0.34586486 0.3355543 -0.9313908 -0.28805777 -0.7469959 -0.39370054 -0.60489476
-0.3028804 -0.18792415 -0.13362104 -0.7299967 -0.21239974 -0.73134315 -0.5636151 -0.8095575
-0.74979734 -0.11824394 0.04360106 -0.024996039 -0.39553407 0.061561547 0.036428083 -0.6403274
-0.15462358 -0.07666173 -0.50020236 0.02395305 -0.5670017 -0.34005195 -0.224191 -0.39161986
-0.3336812 0.15758099 -0.14260882 0.027638031 -0.37785032 -0.77827364 -0.67552584 0.13603844
-0.5263678 -0.7523008 -0.40971637 -0.4954295 -0.53533596 -0.552075 -0.40707535 -0.5214024
-0.6486005 -0.022120524 0.14193568 -0.18139191 -0.049480118 -0.15538257 -0.5985543 -0.53353006
-0.45413393 -0.17738 -0.8897373 -0.30246133 -0.8483445 -0.6200201 -0.21054807 -0.1652822
-0.5521556 -0.6476344 -0.7157035 -0.59545356 -0.6158651 -0.15630436 -0.5016934 -0.02435151
-0.23510592 -0.41515082 0.1110252 -0.38020334 -0.3676254 -0.4632544 -0.82474434 -0.09910558
-0.7956691 -0.5399798 0.19631697 -0.31566718 -0.35863137 -0.35980704 -0.20234314 -0.23902684
-0.44605142 -0.063323915 -0.027331272 0.062656984 0.15395801 -0.46612695 -0.8148142 0.18172538
-0.04697727 -0.44181633 -0.0070836297 -0.2661679 0.5610335 -0.43166754 -0.6833142 0.09176767
00000000: 780f 36bf ba90 1abf 1415 f5be 1a66 58bf
00000010: 1fcc 2bbf b3b6 7ebe a1da 4cbf f072 86be
00000020: 0f76 173e 1843 30bf 45c3 053e b02e 96be
00000030: e2df 04bf 7f46 2ebf bf15 b5bc 1daf 15bf
00000040: d6b9 17bf 9814 ccbe 8f02 adbe 0b4e f4be
00000050: dada 50bf fbd0 1ebe dfb3 1dbf f3ec a13e
00000060: 19aa 303e 826b 5ebf 19a5 41bf 9a7b eebe
00000070: 232e 2fbe f60e e3be f954 ccbd f0d5 33bf
00000080: 73c1 11be a1a9 a1be 6279 903e d7f8 f6be
00000090: 2e06 eebe 69da 1b3e b10d 4bbf 3929 b3be
000000a0: 673c 923d ab35 03bf 1340 d5bd 7896 27bf
000000b0: 971d be3d 18c8 eb3d a65e 1bbf 6c01 2ebf
000000c0: 8907 5b3e 6920 a1be 1bb7 5ebf 92af cfbe
000000d0: 8569 64be 7ced 13bf c2d3 56bf 0d8f 86be
000000e0: c573 33be 4439 81be eb25 96bd 7777 cdbe
000000f0: 3f7e 223c 2342 1fbf dc83 03bf a88a 2a3e
00000100: f97c 43bf 84cb 43bf dc2d 9cbe aa44 efbe
00000110: 5123 f03c a2ea 55be f912 28be 99e8 d9be
00000120: c583 8ebe 4d8b 4fbe 37d7 dabe ec7c 69be
00000130: e714 20bf 75c0 24bf 142b 14be 4ecb 5a3e
00000140: 100a 2ebe 2c93 f0be dc12 cfbe bd2e 8bbe
00000150: de2a 17bf 3129 de3d a282 1c3e d49c 45be
00000160: 87f0 0b3c 4791 143e 796e 85bb 59bd 38bf
00000170: 047d e9be 9383 fe3d 57cd f3bd a043 2ebe
00000180: ff12 28bf dab5 bcbe 85e5 b7bd 8cf5 87be
00000190: 54dd 1abf ee5e 33bf 2611 febe a225 0fbf
000001a0: e477 00bb 293c cdbe 2c59 42be 7f68 d73c
000001b0: 81bb 40bf 054e 85bd b721 8bbe be36 30bf
000001c0: 6cad f4be 1954 22be cde4 9bbe dee2 4fbe
000001d0: 2fe4 a9be 9729 193e 7b50 fdbe f1c7 533d
000001e0: d385 fdbe 4376 c2be 07dd 443e 91a3 85bc
000001f0: f974 13bf 9714 113e e87d 34bf 6bdc 76bd
00000200: 048c af3d 6f1e b53d afb3 1fbd 3fb9 8bbe
00000210: 46d0 1bbd 4daa d7be cf4a d5bd cce0 d6be
00000220: c073 34bf 1730 2abd 8e06 13bf 71ec e4be
00000230: 3716 fabe 4a71 f9be c13b 833e 2052 2abe
00000240: f7a4 013d b2f4 08bf 5042 4a3e cb7b eabe
00000250: 8133 46bf 8d1f 28bd 8f24 17bf 3c26 17bf
00000260: 2f09 943e 3315 b1be c6cd ab3e a16f 6ebf
00000270: 4f7c 93be 203b 3fbf 1e93 c9be 62da 1abf
00000280: 2413 9bbe 306f 40be f4d3 08be 10e1 3abf
00000290: 517f 59be 4e39 3bbf 1449 10bf 293f 4fbf
000002a0: b8f2 3fbf e129 f2bd 0697 323d 7ec4 ccbc
000002b0: 7183 cabe f627 7c3d 9d35 153d 7fec 23bf
000002c0: a555 1ebe d300 9dbd 430d 00bf 3039 c43c
000002d0: 0627 11bf 4a1b aebe 5392 65be 6682 c8be
000002e0: 43d8 aabe e95c 213e 0c08 12be 2769 e23c
000002f0: 9975 c1be f13c 47bf 43ef 2cbf a94d 0b3e
00000300: 0ac0 06bf c996 40bf 58c6 d1be efa8 fdbe
00000310: c70b 09bf ca54 0dbf 2e6c d0be a17a 05bf
00000320: af0a 26bf 1a36 b5bc 9657 113e cdbe 39be
00000330: aaab 4abd 9c1c 1fbe db3a 19bf 6d95 08bf
00000340: 3e84 e8be 1aa3 35be d3c5 63bf 36dc 9abe
00000350: 1b2d 59bf a3b9 1ebf ea99 57be bd3f 29be
00000360: 125a 0dbf 5ecb 25bf 5838 37bf a56f 18bf
00000370: 56a9 1dbf 400e 20be fb6e 00bf d17c c7bc
00000380: 9bbf 70be a68e d4be 2e61 e33d 03aa c2be
00000390: 6539 bcbe ae2f edbe 7222 53bf def7 cabd
000003a0: f8b0 4bbf 1e3c 0abf 5107 493e 219f a1be
000003b0: 889e b7be a138 b8be 0a33 4fbe 74c3 74be
000003c0: da60 e4be f8af 81bd d5e5 dfbc 4e52 803d
000003d0: 2ba7 1d3e 31a8 eebe aa97 50bf 3816 3a3e
000003e0: 3d6b 40bd c035 e2be cb1d e8bb 2947 88be
000003f0: e49f 0f3f 8703 ddbe aeed 2ebf b0f0 bb3d

fc2.weight f4 [300, 400]
-0.11227067 0.3797133 -0.060099047 0.37666896 -0.2103137 -0.022753807 0.43091518 -0.077680565
-0.33946392 -0.15939638 -0.84499246 0.1609061 -0.5082797 -0.18172131 -0.30825335 0.0580261
-0.39254165 -0.009419709 -0.26543716 0.013120722 -0.052811626 0.054437347 -0.21904317 -0.6095217
-0.9995918 0.09106033 -0.037821047 0.2988149 -0.5782512 0.05689215 -0.1868919 -0.44671637
-0.5308823 0.25386453 -0.22199629 -0.11991324 -0.37833965 0.09483459 0.3294024 -0.0912804
-0.53244966 -0.7765529 -0.040466763 -0.45733055 -0.66948926 0.14409001 0.0042080455 -0.50780714
0.42378306 -0.6448977 0.40048996 -0.038398694 -0.35540608 -0.11519972 0.3959093 -0.653964
-0.30224365 -0.3319154 -0.037512403 -0.3112957 -0.4414621 -0.1275692 -0.13815029 -0.7478178
0.18002258 0.4129385 -0.12715067 0.6119644 0.3061394 0.100041896 -0.09189433 -0.0908743
-0.4653189 -0.24791744 -0.09047805 -0.2498126 -0.18192099 -0.36042577 -0.72029364 -0.21826719
-0.03780267 -0.22045247 0.006194778 -0.42933407 0.3892634 0.42239413 -0.114913635 -0.26781258
-0.25551686 -0.47397843 -0.21253525 -0.1330513 -0.088072605 -0.10551068 0.032168284 -0.0306556
0.028567975 -0.2940731 -0.40028998 0.14318293 0.23222384 0.33370218 -0.694247 -0.4849818
-1.2149364 -0.39632878 -0.121887945 -0.20593931 0.049436513 -0.038653146 -0.46491784 0.40487334
-0.15856826 -0.8691901 0.13693763 -0.14389485 0.39997578 -0.2001111 -0.10477104 -0.20829551
-0.006084755 -0.30658698 -0.44013813 -0.3653168 0.06918092 -0.2705378 -0.113035105 -0.27635327
-0.23236372 -0.41601542 -1.0208219 -0.021983905 -0.20802292 -0.08355175 -0.053893648 -0.05141998
0.10165358 -1.0047493 0.72280216 -0.17075694 1.0804075 0.47726917 -0.17275025 -0.13867894
-1.0854263 -0.008671739 0.10261436 -0.40736923 0.18547344 -0.5858651 -0.39231417 0.66827625
-0.4257895 -0.6881101 -0.16419037 -0.6642598 -0.08547711 0.06925247 0.18622212 0.5991476
-0.2892887 -0.13510057 -0.028940426 -0.1372294 -0.70248336 -0.17585641 0.2563224 0.5318631
-0.22772422 -0.09501395 -0.66100734 -0.07178973 -0.1605841 -0.69408965 -0.06982083 -0.12630387
0.0049619884 -0.42425603 -0.3136813 0.14897637 -0.36523077 -0.5525068 -0.07684508 -0.43123874
-0.23563145 0.20958866 -0.13711177 -0.0344813 -0.35495272 0.43419218 -0.0978676 -0.9407529
-0.46382686 -0.2562317 -0.3349641 -0.13059962 -0.48978177 -0.32078344 -0.07406921 -0.4725479
-0.2290564 -0.22335039 0.061550997 -0.6038102 0.32972547 -0.06795582 -0.34235185 -0.14282176
-0.06969181 -0.09276884 -0.27493563 -0.08824229 -0.2970569 -0.24070032 -0.33310625 -0.041206207
-0.3101324 0.11901449 -0.28019273 0.7288107 -0.23624052 -0.13502738 0.28460404 -0.051334344
-0.10203906 -0.23732089 -0.47876158 -0.34341893 0.28458437 -0.662497 -0.35131904 -0.45916077
0.26007617 0.067315474 -0.3743213 -0.30309317 -0.17347261 -0.39427108 0.022590348 -0.66029686
0.035510536 -0.5735762 -0.84776825 -0.7391734 -0.764393 -0.3242856 -0.5638784 0.19657205
-0.5033632 -0.19203311 -0.30916047 -0.84423876 0.2537198 -0.40037483 -0.51596814 -0.8869328
00000000: 2aee e5bd c869 c23e 6b2a 76bd c1da c03e
00000010: 795c 57be 3166 babc eaa0 dc3e fd16 9fbd
00000020: 37ce adbe ce38 23be 6d51 58bf 92c4 243e
00000030: 9e1e 02bf 2715 3abe 62d3 9dbe c7ac 6d3d
00000040: 38fb c8be 2055 1abc 61e7 87be 4cf8 563c
00000050: 0151 58bd b2f9 5e3d da4c 60be 9d09 1cbf
00000060: 40e5 7fbf d77d ba3d 3eea 1abd 44fe 983e
00000070: 4508 14bf be07 693d 9760 3fbe 02b8 e4be
00000080: e7e7 07bf 88fa 813e ff52 63be 1395 f5bd
00000090: bcb5 c1be a338 c23d 6ea7 a83e 38f1 babd
000000a0: 9f4e 08bf 2ccc 46bf 7ac0 25bd 3b27 eabe
000000b0: a663 2bbf 558c 133e a5e3 893b a6ff 01bf
000000c0: 18fa d83e 0418 25bf 050d cd3e f347 1dbd
000000d0: c9f7 b5be d5ed ebbd a0b4 ca3e 2f6a 27bf
000000e0: aebf 9abe d1f0 a9be 9ba6 19bd 2662 9fbe
000000f0: 5207 e2be 80a1 02be 4577 0dbe fd70 3fbf
00000100: d757 383e ad6c d33e c933 02be b3a9 1c3f
00000110: 4ebe 9c3e c4e2 cc3d 1833 bcbd 4e1c babd
00000120: 473e eebe 12de 7dbe 8e4c b9bd e0ce 7fbe
00000130: 7f49 3abe ba89 b8be 2a65 38bf 6f81 5fbe
00000140: f9d6 1abd 4bbe 61be 90fd ca3b add1 dbbe
00000150: 884d c73e 0b44 d83e d757 ebbd bb1e 89be
00000160: 1bd3 82be 4dad f2be d7a2 59be 9a3e 08be
00000170: 695f b4bd fc15 d8bd e4c2 033d 7421 fbbc
00000180: 6307 ea3c c090 96be cff2 ccbe 8c9e 123e
00000190: 16cc 6d3e 03db aa3e 2cba 31bf 894f f8be
000001a0: 0983 9bbf 9beb cabe 63a0 f9bd c1e1 52be
000001b0: f17d 4a3d c352 1ebd b609 eebe 8f4b cf3e
000001c0: b85f 22be 3e83 5ebf 6139 0c3e 2c59 13be
000001d0: a0c9 cc3e ede9 4cbe 3392 d6bd 6b4b 55be
000001e0: a062 c7bb f8f8 9cbe c959 e1be ce0a bbbe
000001f0: baae 8d3d ee83 8abe f37e e7bd 2d7e 8dbe
00000200: c1f0 6dbe f9ff d4be 4baa 82bf 9717 b4bc
00000210: f603 55be 2e1d abbd 96bf 5cbd c29d 52bd
00000220: c12f d03d a09b 80bf 9009 393f e8da 2ebe
00000230: cb4a 8a3f a05c f43e 71e5 30be da01 0ebe
00000240: 40ef 8abf e913 0ebc 7a27 d23d b392 d0be
00000250: c0ec 3d3e 41fb 15bf 67dd c8be 2714 2b3f
00000260: 1501 dabe fc27 30bf 8521 28be ee0c 2abf
00000270: a00e afbd 3dd4 8d3d 03b1 3e3e bd61 193f
00000280: a61d 94be ce57 0abe 7914 edbc dd85 0cbe
00000290: f3d5 33bf b413 34be b13c 833e 2e28 083f
000002a0: 8a30 69be ac96 c2bd c737 29bf 7e06 93bd
000002b0: 2970 24be dcaf 31bf 39fe 8ebd cd55 01be
000002c0: 2d98 a23b 1638 d9be d69a a0be 438d 183e
000002d0: 87ff babe 1671 0dbf f460 9dbd 53cb dcbe
000002e0: 5f49 71be 699e 563e 0767 0cbe 433c 0dbd
000002f0: 5dbc b5be 704e de3e cf6e c8bd 2fd5 70bf
00000300: b77a edbe cd30 83be 6a80 abbe e8bb 05be
00000310: adc4 fabe ba3d a4be 99b1 97bd ccf1 f1be
00000320: c38d 6abe f7b5 64be e61c 7c3d 4e93 1abf
00000330: c7d1 a83e 6c2c 8bbd be48 afbe de3f 12be
00000340: 94ba 8ebd 97fd bdbd 5dc4 8cbe 60b8 b4bd
00000350: d817 98be 257a 76be e78c aabe d7c7 28bd
00000360: adc9 9ebe debd f33d 6c75 8fbe 5793 3a3f
00000370: 09e9 71be 9e44 0abe 9fb7 913e f643 52bd
00000380: dbf9 d0bd 3f04 73be 3d20 f5be 9bd4 afbe
00000390: 0bb5 913e 6799 29bf 17e0 b3be 1f17 ebbe
000003a0: b428 853e b2dc 893d 0ba7 bfbe 072f 9bbe
000003b0: cea2 31be e6dd c9be 650f b93c 3709 29bf
000003c0: 7f73 113d e4d5 12bf 5707 59bf 783a 3dbf
000003d0: 42af 43bf c308 a6be 565a 10bf 2f4a 493e
000003e0: 69dc 00bf 54a4 44be 484a 9ebe 0820 58bf
000003f0: 90e7 813e eefd ccbe 7d16 04bf 070e 63bf

fc2.bias f4 [300]
-0.08154739 -0.25446776 -0.33081552 -0.11111073 -0.14812037 -0.50852096 -0.11603133 -0.24603137
0.64446026 0.5063274 -0.3162124 0.8242053 -0.09889732 -0.47870874 0.58491707 -0.24131621
-0.3779219 -0.011701606 0.49443784 0.87040234 0.63648266 0.112621896 -0.27636486 -0.3696218
-0.46814418 -0.12846407 0.9564292 -0.38359877 0.59582937 0.8546799 -0.38270468 -0.3605445
0.8271809 -0.18846267 0.7487799 -0.27136433 0.89833784 -0.07612007 -0.13493367 0.955869
-0.23094583 0.90699714 -0.18556722 0.44379288 0.4036463 -0.44159004 0.116049625 -0.38096473
-0.24018098 -0.057098314 1.0501356 -0.18600373 -0.28694725 0.8821083 0.8060561 0.82943803
0.26828733 -0.35649428 0.83600754 0.9650993 -0.27951694 -0.1332841 -0.48747724 0.07840168
0.35789073 0.9656908 -0.38321865 0.4918651 0.25200713 0.09528695 -0.40033966 -0.06060362
-0.13739498 -0.08142717 -0.38459262 0.09534854 0.75381064 -0.28021985 -0.4200331 -0.0044763307
1.0075396 0.87311053 0.034145065 -0.49284026 -0.4534055 -0.11250283 0.76042217 -0.21984734
0.028000219 0.23729405 -0.26173794 -0.38936952 0.74708027 0.33337027 0.5498129 0.73283684
-0.22580124 -0.19150981 0.84881705 0.031686068 0.29947066 0.8681625 -0.39111263 0.09539012
-0.11944496 1.0813162 0.24446285 0.76382434 -0.3111243 0.34855795 0.87591213 -0.48730627
-0.50912994 0.9526596 0.6298816 -0.0762527 -0.1633738 -0.1676628 -0.106321864 0.049616985
-0.04831494 0.4124696 -0.30040878 -0.21857291 -0.4635661 0.2577883 0.020464998 -0.36901867
-0.36148614 1.1152623 -0.48618692 -0.39192924 -0.04744809 0.8144278 -0.15689583 1.0715245
0.0036192667 0.7127489 -0.33365443 -0.38412476 -0.17106926 -0.22837426 -0.08760777 -0.37069723
0.7650499 0.89422375 -0.42437866 0.10624133 -0.19741102 0.34074408 -0.36396256 -0.3284277
0.92340237 -0.5308749 0.2971087 0.6606951 0.7280639 0.13593213 -0.44043195 -0.052995116
-0.36574334 -0.16715808 -0.4195191 -0.4203694 -0.4274906 -0.2785535 -0.106344104 -0.25830185
0.72966594 0.30287194 -0.53809214 -0.33673677 0.9003706 -0.4823995 -0.55456847 -0.37554622
-0.0616671 -0.123907946 -0.42468613 0.7167865 0.883727 -0.11980993 0.41571194 -0.40041834
-0.38754943 -0.23682171 0.15155077 0.41824725 -0.2708826 0.9738101 -0.3714827 0.59691226
-0.10196028 0.9040041 0.72318757 -0.35710078 0.7247007 0.61927646 -0.32396433 0.93570536
-0.12131351 -0.297696 0.10095647 -0.21345906 0.114772975 -0.45525584 -0.3605203 -0.22714065
-0.23769826 0.45672253 0.93262583 0.3335019 -0.3535045 -0.3732077 0.8577086 -0.29746744
-0.39380774 -0.5167784 0.6406559 0.9461552 0.5679881 -0.5685193 -0.02365122 0.9231235
1.3542085 0.9188402 0.88740826 0.4746653 -0.43155977 -0.36935326 -0.21362996 0.7142371
0.33925503 0.03785638 0.84584355 0.3534025 -0.5626147 -0.11873214 0.7963424 -0.3862248
0.027589725 -0.22287206 0.8508034 1.0210121 -0.49429837 -0.32828647 -0.14016634 0.7401778
-0.3821295 -0.07100601 0.7942982 -0.3043702 0.5684714 -0.4328762 -0.36887786 -0.16337255
00000000: 5102 a7bd 9949 82be a760 a9be 068e e3bd
00000010: deac 17be 6e2e 02bf d5a1 edbd a6ef 7bbe
00000020: 59fb 243f ac9e 013f 97e6 a1be 1eff 523f
00000030: ae8a cabd 5019 f5be 20bd 153f 991b 77be
00000040: fb7e c1be 18b8 3fbc f526 fd3e b0d2 5e3f
00000050: 87f0 223f 4fa6 e63d b27f 8dbe 123f bdbe
00000060: 98b0 efbe 168c 03be 8bd8 743f 0f67 c4be
00000070: 4688 183f 4dcc 5a3f def1 c3be 4a99 b8be
00000080: 21c2 533f 5cfc 40be 0ab0 3f3f 44f0 8abe
00000090: 78f9 653f d7e4 9bbd 0d2c 0abe d5b3 743f
000000a0: 107d 6cbe f730 683f 5505 3ebe d238 e33e
000000b0: baaa ce3e 1718 e2be 6dab ed3d cf0d c3be
000000c0: 01f2 75be ecdf 69bd d86a 863f c377 3ebe
000000d0: c0ea 92be d9d1 613f b159 4e3f 0d56 543f
000000e0: f55c 893e 6b86 b6be 9704 563f bf10 773f
000000f0: d81c 8fbe a17b 08be 9e96 f9be 0f91 a03d
00000100: 743d b73e 8337 773f 3c35 c4be bed5 fb3e
00000110: 1407 813e ce25 c33d 52f9 ccbe 803b 78bd
00000120: 45b1 0cbe 4ac3 a6bd 53e9 c4be 1846 c33d
00000130: bcf9 403f fa78 8fbe 940e d7be 2fae 92bb
00000140: 0ff7 803f 2c84 5f3f b2db 0b3d 8f55 fcbe
00000150: c424 e8be e267 e6bd 07ab 423f a91f 61be
00000160: b760 e53c 36fd 723e 8402 86be 715b c7be
00000170: a740 3f3f 82af aa3e 8ac0 0c3f 329b 3b3f
00000180: 7138 67be 261b 44be 134c 593f 40c9 013d
00000190: 3854 993e e63f 5e3f ea3f c8be e55b c33d
000001a0: 8f9f f4bd 9268 8a3f 7854 7a3e fe89 433f
000001b0: af4b 9fbe 3076 b23e c73b 603f 3580 f9be
000001c0: 5756 02bf 80e1 733f ec3f 213f 602a 9cbd
000001d0: 764b 27be ccaf 2bbe 47bf d9bd 2e3b 4b3d
000001e0: e3e5 45bd 372f d33e 2ecf 99be 94d1 5fbe
000001f0: 8958 edbe d4fc 833e 36a6 a73c 04f0 bcbe
00000200: b614 b9be eac0 8e3f 7eed f8be f3aa c8be
00000210: ee58 42bd 577e 503f 4da9 20be b727 893f
00000220: 3831 6d3b b676 363f c1d4 aabe 00ac c4be
00000230: c82c 2fbe f1da 69be b46b b3bd 07cc bdbe
00000240: 4fda 433f d9eb 643f 2948 d9be 0e95 d93d
00000250: 1d26 4abe 0276 ae3e 4d59 babe ad27 a8be
00000260: 1964 6c3f 6be7 07bf a21e 983e 5023 293f
00000270: 6562 3a3f cb31 0b3e 4c80 e1be 6811 59bd
00000280: b642 bbbe 7d2b 2bbe 35cb d6be a83a d7be
00000290: 0ce0 dabe 909e 8ebe f0ca d9bd 2440 84be
000002a0: 63cb 3a3f 0812 9b3e 68c0 09bf c368 acbe
000002b0: b07e 663f 11fd f6be 33f8 0dbf 9847 c0be
000002c0: a496 7cbd 73c3 fdbd 7670 d9be 527f 373f
000002d0: ef3b 623f e95e f5bd 32d8 d43e a203 cdbe
000002e0: e16c c6be 6481 72be 2030 1b3e 8124 d63e
000002f0: 20b1 8abe 9e4b 793f fb32 bebe 3ecf 183f
00000300: 8dd0 d0bd d06c 673f d222 393f ead5 b6be
00000310: fc85 393f e788 1e3f a7de a5be 638a 6f3f
00000320: 3873 f8bd 9c6b 98be 44c2 ce3d 0395 5abe
00000330: 180e eb3d 4b17 e9be 1e96 b8be 8f97 68be
00000340: 2c67 73be 89d7 e93e 91c0 6e3f c3c0 aa3e
00000350: 8bfe b4be 1415 bfbe ca92 5b3f a74d 98be
00000360: 2ba1 c9be 974b 04bf 0602 243f 3a37 723f
00000370: ab67 113f 7b8a 11bf 34c0 c1bc d251 6c3f
00000380: b456 ad3f 1d39 6b3f 302d 633f 5507 f33e
00000390: 67f5 dcbe df1b bdbe d0c1 5abe 3ed8 363f
000003a0: d6b2 ad3e 4b0f 1b3d 3489 583f 2cf1 b43e
000003b0: 8407 10bf d629 f3bd 18dd 4b3f 42bf c5be
000003c0: d903 e23c 9338 64be 40ce 593f 86b0 823f
000003d0: ad14 fdbe 2a15 a8be c487 0fbe 4b7c 3d3f
000003e0: 7aa6 c3be 996b 91bd 2057 4b3f 69d6 9bbe
000003f0: 5787 113f f3a1 ddbe 8fdd bcbe 224b 27be

bn2.weight f4 [300]
1.6635315 0.91593206 1.1023651 1.1052022 1.2108591 1.5092611 1.920508 1.1425388
1.1355486 0.96404546 1.2333025 1.1625961 1.536404 1.1318815 1.059306 1.0778863
1.0996948 1.1246895 1.9967524 1.1758235 1.0247715 1.6948116 1.2863911 1.1048447
1.1037718 1.7797915 1.147762 1.7622046 1.0464927 1.1595213 1.0664355 1.390611
1.163243 1.2723745 1.1026186 1.3604583 1.1404963 1.2693131 1.7101184 1.1182517
0.833077 1.1374617 1.1401905 1.0086296 0.9638118 1.2313961 0.61450434 1.1429679
0.8800932 1.5466678 1.1269199 1.8606799 1.4376775 1.1007243 1.0906699 1.1498839
1.1934912 1.1622083 1.1489204 1.130099 1.156081 1.4994009 1.0053765 1.3622015
0.959814 1.1533071 1.0005304 1.0014068 1.0352067 1.76969 1.4314058 1.7349687
1.9977648 1.0838813 0.9387681 1.986177 1.0785975 1.0286461 1.5204682 1.0963484
1.1692188 1.1262305 1.5303508 1.0333906 1.1969697 1.818456 1.1077756 0.9155333
1.4745452 1.3000906 1.5033203 1.0090958 1.1357692 0.964365 1.0287452 1.1279576
1.3237132 1.3732059 1.1636474 1.8916351 0.9597567 1.1294478 1.0537993 1.17205
0.88334763 1.1636183 1.5530034 1.1489558 1.0947118 0.98112583 1.0781897 1.5628473
0.9649822 1.1963046 1.0956913 1.3198779 1.3435972 1.4747515 1.0668645 1.2704039
1.9993013 1.0446272 1.1944187 1.8537644 1.1436592 1.8894099 1.0408388 1.148475
1.0688196 1.1791717 1.6199826 1.1297357 1.7345177 1.1567647 1.2996787 1.1830926
1.2827944 1.140393 1.2937478 0.9684512 1.1183068 1.5791788 1.0613928 1.3135983
1.0416495 1.1389436 1.0880839 2.02924 1.1144248 1.0057353 1.1400591 1.0404955
1.1920394 0.8904082 0.981094 1.0656382 1.1107684 1.1657714 1.2418694 1.4074594
1.68627 1.2744277 1.1719595 0.99087447 1.2966764 1.226676 1.2323575 1.3005421
1.1451802 1.2147738 0.99689454 1.4361515 1.1444597 1.2561363 1.0079991 0.9445916
1.5671605 1.5329256 0.97949004 1.1252016 1.1471897 1.4170427 1.0229369 1.1029373
1.0590084 1.3319672 1.2656348 0.9885282 0.9974668 1.1771024 1.3662825 1.0856793
1.7790375 1.1197867 1.0178696 1.0614048 1.1192259 1.0203815 1.0182736 1.1333886
1.5376701 1.1154298 1.0160824 1.1825222 1.2833467 1.1433971 2.0832942 1.7281505
1.474656 1.069348 1.1402786 0.9923045 1.6031145 1.0986049 1.158852 1.9251424
1.1797558 1.0858666 1.0628653 1.1357183 0.9883392 1.3401402 1.3745602 1.118214
1.2519156 1.1637076 1.1541402 1.0548477 0.97969264 1.1490713 1.0342728 1.0547053
0.9512568 1.306071 1.1134055 0.7803468 1.5540421 1.4976196 1.12702 1.2404333
1.7571162 1.089872 1.1438895 1.1100614 1.1411798 1.0767828 1.3082159 1.0186609
1.1250865 1.3911182 1.1410033 0.9721892 1.0358207 0.95082015 1.5804664 1.7801684
00000000: 9aee d43f 867a 6a3f 4d1a 8d3f 4477 8d3f
00000010: 6efd 9a3f 782f c13f 35d3 f53f b63e 923f
00000020: a859 913f afcb 763f dbdc 9d3f f3cf 943f
00000030: e3a8 c43f 7ee1 903f 5797 873f 2ef8 893f
00000040: cdc2 8c3f d3f5 8f3f 9595 ff3f 6281 963f
00000050: b62b 833f 96ef d83f 77a8 a43f 8d6b 8d3f
00000060: 6548 8d3f 35d0 e33f dde9 923f ec8f e13f
00000070: 79f3 853f 326b 943f f580 883f 8bff b13f
00000080: 26e5 943f 2bdd a23f 9b22 8d3f 7f23 ae3f
00000090: c8fb 913f da78 a23f 29e5 da3f df22 8f3f
000000a0: 8944 553f 5898 913f c3f1 913f c61a 813f
000000b0: 5fbc 763f 639e 9d3f 2850 1d3f c64c 923f
000000c0: ca4d 613f 36f9 c53f e93e 903f c22a ee3f
000000d0: d105 b83f 89e4 8c3f 129b 8b3f 652f 933f
000000e0: 52c4 983f 3ec3 943f d30f 933f 16a7 903f
000000f0: 76fa 933f 5eec bf3f 2db0 803f 9e5c ae3f
00000100: 5fb6 753f 919f 933f 6111 803f 192e 803f
00000110: a781 843f 3485 e23f 4e38 b73f 7413 de3f
00000120: c2b6 ff3f 9fbc 8a3f 1b53 703f 0c3b fe3f
00000130: 7c0f 8a3f adaa 833f b49e c23f 2555 8c3f
00000140: f6a8 953f 5228 903f 89e2 c33f 2546 843f
00000150: 4e36 993f 2bc3 e83f 97cb 8d3f 6460 6a3f
00000160: e6bd bc3f 5e69 a63f cd6c c03f 0d2a 813f
00000170: e360 913f a0e0 763f ecad 833f ea60 903f
00000180: 6f6f a93f 36c5 af3f 66f2 943f 1921 f23f
00000190: 9db2 753f bf91 903f e5e2 863f bc05 963f
000001a0: 1223 623f 72f1 943f d1c8 c63f fc10 933f
000001b0: 841f 8c3f 102b 7b3f 1f02 8a3f 610b c83f
000001c0: 1309 773f 8220 993f 9d3f 8c3f c2f1 a83f
000001d0: fefa ab3f a8c4 bc3f 048f 883f 989c a23f
000001e0: 1be9 ff3f 58b6 853f b6e2 983f 2748 ed3f
000001f0: 6d63 923f 2fd8 f13f 353a 853f 3b01 933f
00000200: 15cf 883f 19ef 963f 975b cf3f 2e9b 903f
00000210: ad04 de3f de10 943f df5b a63f 946f 973f
00000220: 9b32 a43f 66f8 913f 8799 a53f 6bec 773f
00000230: ad24 8f3f 8822 ca3f b8db 873f fd23 a83f
00000240: c554 853f e7c8 913f 5546 8b3f 11df 0140
00000250: 79a5 8e3f efbb 803f 75ed 913f f52e 853f
00000260: bf94 983f cbf1 633f fa28 7b3f d566 883f
00000270: a92d 8e3f ff37 953f 94f5 9e3f a127 b43f
00000280: b2d7 d73f 7220 a33f c502 963f f3a9 7d3f
00000290: 7ef9 a53f b803 9d3f e4bd 9d3f 2a78 a63f
000002a0: 4495 923f b57d 9b3f 7b34 7f3f d0d3 b73f
000002b0: a87d 923f 13c9 a03f 1d06 813f c1d0 713f
000002c0: b798 c83f e836 c43f dcbf 7a3f 9b06 903f
000002d0: 1dd7 923f a861 b53f 99ef 823f 0d2d 8d3f
000002e0: 968d 873f e77d aa3f 5200 a23f 2f10 7d3f
000002f0: fc59 7f3f 4bab 963f 58e2 ae3f 8af7 8a3f
00000300: 80b7 e33f 2c55 8f3f 8d49 823f 1ddc 873f
00000310: cb42 8f3f dc9b 823f ca56 823f e112 913f
00000320: 60d2 c43f 67c6 8e3f fd0e 823f e35c 973f
00000330: b444 a43f d65a 923f b154 0540 0934 dd3f
00000340: 87c1 bc3f 65e0 883f a6f4 913f ab07 7e3f
00000350: db32 cd3f 169f 8c3f 4355 943f 116b f63f
00000360: 3d02 973f adfd 8a3f f80b 883f 385f 913f
00000370: cc03 7d3f b789 ab3f 97f1 af3f a321 8f3f
00000380: c53e a03f 5ff4 943f deba 933f 4005 873f
00000390: 23cd 7a3f c514 933f 0d63 843f 9500 873f
000003a0: 9185 733f 562d a73f 1284 8e3f cfc4 473f
000003b0: daea c63f 00b2 bf3f 3142 903f 85c6 9e3f
000003c0: 2fe9 e03f ed80 8b3f f96a 923f 7e16 8e3f
000003d0: 2e12 923f 05d4 893f 9e73 a73f 7b63 823f
000003e0: d602 903f 2910 b23f 650c 923f 64e1 783f
000003f0: c695 843f f368 733f b94c ca3f 8fdc e33f

bn2.bias f4 [300]
0.10712082 -0.12270447 -0.14961526 -0.3068778 -0.40008748 -0.39122817 -0.31397215 -0.1300083
0.12765971 0.076016024 0.025668196 0.13936277 0.23337938 -0.006030645 0.10258269 0.32829306
-0.2066212 0.056211185 0.18809131 0.14353031 0.08799902 0.067480795 0.21737164 -0.0059615416
-0.04468602 0.113028504 0.13079946 -0.50547177 0.0970765 0.13519272 0.0018316455 0.0041644834
0.1391194 -0.22354281 0.1130908 -0.08740138 0.12806657 0.2143245 -0.13133748 0.11926158
-0.025307225 0.12925024 -0.050679047 0.07950005 0.06273651 -0.13506581 0.034749646 -0.17448533
-0.21156839 0.118000716 0.12336479 -0.015113238 -0.1892674 0.113266855 0.11161144 0.13542603
0.14406793 -0.15198454 0.13121067 0.12559606 -0.22643082 0.07310419 -0.054541655 -0.068108015
0.09171444 0.13130529 0.0018376294 0.07645183 0.09295115 0.076358855 -0.22264698 -0.1179542
0.061680533 0.10939213 -0.05833326 -0.27151242 0.10882729 -0.042081293 -0.19174474 0.12333275
0.13673243 0.13313632 0.15506609 0.03072343 -0.14581248 -0.36181545 0.111204244 0.3165996
0.11525732 0.00919012 0.26142016 -0.06005062 0.12746282 0.06802061 0.08782605 0.12326863
0.115314975 0.15526114 0.14036044 0.034225233 0.057611324 0.1262966 0.024640398 0.044652283
-0.72199774 0.1364687 0.27714464 0.15680347 -0.057538282 0.057972774 0.10252594 -0.22607617
-0.037642233 0.1497099 0.11127306 -0.042898845 -0.1439707 0.30272928 -0.1394914 -0.061408404
0.08864279 0.09179383 0.18291043 0.014301882 0.08792811 0.13487636 0.35492402 -0.6535105
-0.07056825 0.14320846 -0.10702 -0.0053131534 0.04745976 0.13344982 0.07382746 0.14553915
0.17930618 0.12860267 0.10470872 -0.17864573 -0.046602327 0.022096138 -0.08193459 -0.17707634
0.09045746 0.12975879 -0.05972056 -0.27111307 -0.2729449 0.08301223 -0.16134845 -0.06865493
0.19087872 -0.055502772 0.09201829 0.09690361 0.11746096 0.14861868 -0.029246744 0.014695754
-0.38887987 0.13852164 -0.17431843 -0.03365766 -0.35695767 -0.09964466 -0.30854195 0.18534485
0.1302228 0.1847624 -0.003128432 -0.32246444 0.13267171 -0.116450004 0.020659177 -0.032175615
-0.23009393 -0.15954839 -0.10694052 0.12179163 0.13195576 0.15165257 0.08477469 -0.004771496
-0.19976026 0.12217829 -0.020251647 0.07747606 0.03947955 0.14195584 -0.06088186 0.10858306
-0.15359786 0.12128578 0.089653626 0.050177097 0.12243177 0.08465172 0.2541639 0.12587416
-0.44848666 0.036814786 0.061119583 -0.0140698785 0.20293808 -0.08138501 -0.4701554 -0.13259344
-0.10055686 0.10233516 0.1288978 0.08777444 -0.03331184 -0.20138922 0.13305718 0.18365309
0.1164728 -0.08412533 0.10229738 0.12565912 0.08409998 -0.11327054 0.04957661 0.124846436
0.227426 0.13803427 0.1348937 0.100119084 -0.0658103 -0.57808816 -0.09252363 0.10067375
0.062837414 0.043827865 0.11760407 0.04864075 -0.45025206 -0.08435547 0.124896266 -0.21497479
0.16727978 0.14460844 0.1312751 0.11930866 -0.046208173 -0.04014116 -0.24306053 0.08816736
0.10871823 0.11059803 0.1285076 -0.1170681 0.0930548 0.14876291 -0.5851215 -0.21898471
00000000: 2962 db3d 7b4c fbbd be34 19be 161f 9dbe
00000010: 44d8 ccbe 0f4f c8be f5c0 a0be e520 05be
00000020: 3ab9 023e 4aae 9b3d 1c46 d23c 1db5 0e3e
00000030: 01fb 6e3e b89c c5bb e016 d23d 0716 a83e
00000040: 8294 53be b33d 663d 029b 403e 9cf9 123e
00000050: d538 b43d 5f33 8a3d ac96 5e3e 0959 c3bb
00000060: b008 37bd 7d7b e73d 4bf0 053e 9966 01bf
00000070: 0bd0 c63d f66f 0a3e d313 f03a 3876 883b
00000080: 5175 0e3e 68e8 64be 269c e73d 7fff b2bd
00000090: e223 033e e277 5b3e 557d 06be 6a3f f43d
000000a0: 1951 cfbc 2d5a 043e d594 4fbd ecd0 a23d
000000b0: 007c 803d b14e 0abe a555 0e3d 48ac 32be
000000c0: 62a5 58be 5caa f13d aea6 fc3d 849d 77bc
000000d0: 50cf 41be 74f8 e73d 8a94 e43d 1fad 0a3e
000000e0: 8b86 133e d6a1 1bbe 175c 063e 419c 003e
000000f0: 7bdd 67be a6b7 953d 1267 5fbd 377c 8bbd
00000100: c8d4 bb3d e574 063e 9cdc f03a c792 9c3d
00000110: 2c5d be3d 0862 9c3d 92fd 63be f991 f1bd
00000120: baa4 7c3d fb08 e03d dbee 6ebd ad03 8bbe
00000130: d8e0 de3d 6f5d 2cbd bc58 44be e195 fc3d
00000140: 9603 0c3e e354 083e a5c9 1e3e b4af fb3c
00000150: de4f 15be e03f b9be 0dbf e33d 5819 a23e
00000160: 080c ec3d 2892 163c ddd8 853e a4f7 75bd
00000170: 9d85 023e 644e 8b3d 25de b33d 4374 fc3d
00000180: 422a ec3d c7fc 1e3e a6ba 0f3e c22f 0c3d
00000190: daf9 6b3d e553 013e a9da c93c 50e5 363d
000001a0: d8d4 38bf 73be 0b3e e7e5 8d3e 1791 203e
000001b0: 43ad 6bbd dc74 6d3d 1ff9 d13d 8380 67be
000001c0: be2e 1abd 8d4d 193e 21e3 e33d b3b6 2fbd
000001d0: 0e6d 13be 55ff 9a3e d5d6 0ebe 6187 7bbd
000001e0: 5a8a b53d 67fe bb3d df4c 3b3e 7152 6a3c
000001f0: a713 b43d 071d 0a3e 9ab8 b53e 774c 27bf
00000200: 1686 90bd 3da5 123e 4d2d dbbd f619 aebb
00000210: 2a65 423d 12a7 083e da32 973d 3708 153e
00000220: 0a9c 373e 6bb0 033e 8771 d63d e8ee 36be
00000230: 15e2 3ebd f602 b53c 53cd a7bd 8053 35be
00000240: c341 b93d 7ddf 043e 8c9d 74bd 55cf 8abe
00000250: 6fbf 8bbe 5102 aa3d 8738 25be f59a 8cbd
00000260: b675 433e e056 63bd 1674 bc3d 6675 c63d
00000270: 5f8f f03d 7f2f 183e de96 efbc 76c6 703c
00000280: 431b c7be 9ed8 0d3e 8880 32be 9ddc 09bd
00000290: 28c3 b6be 8012 ccbd 36f9 9dbe 0acb 3d3e
000002a0: 2059 053e 5b32 3d3e 6106 4dbb 0f1a a5be
000002b0: 18db 073e 577d eebd 6f3d a93c 94ca 03bd
000002c0: be9d 6bbe a760 23be a203 dbbd e46d f93d
000002d0: 691f 073e d04a 1b3e 5a9e ad3d 365a 9cbb
000002e0: f48d 4cbe 9c38 fa3d c8e6 a5bc c5ab 9e3d
000002f0: 4fb5 213d df5c 113e 425f 79bd cc60 de3d
00000300: c248 1dbe ae64 f83d 529c b73d 8086 4d3d
00000310: 82bd fa3d e25d ad3d c521 823e 28e5 003e
00000320: 0ba0 e5be 1acb 163d 8758 7a3d 5985 66bc
00000330: 00cf 4f3e 2fad a6bd 35b8 f0be 93c6 07be
00000340: c1f0 cdbd 1995 d13d c9fd 033e 16c3 b33d
00000350: ff71 08bd fa38 4ebe 2440 083e 8e0f 3c3e
00000360: 4b89 ee3d e749 acbd 4a81 d13d c9ac 003e
00000370: 9c3c ac3d 63fa e7bd d810 4b3d 7daf ff3d
00000380: 5de2 683e db58 0d3e 9321 0a3e 3c0b cd3d
00000390: 8dc7 86bd 96fd 13bf 077d bdbd 0a2e ce3d
000003a0: e7b0 803d d984 333d 67da f03d 863b 473d
000003b0: 7087 e6be 90c2 acbd 9dc9 ff3d 5a22 5cbe
000003c0: 644b 2b3e 3c14 143e fb6c 063e 1958 f43d
000003d0: c844 3dbd 0f6b 24bd dce4 78be 1791 b43d
000003e0: aaa7 de3d 3881 e23d 7f97 033e 66c1 efbd
000003f0: 8493 be3d 4e55 183e 86ca 15bf 873d 60be
