Zadanie3/srcV2/models/VEP_exp_prob_03_exploration_100/target_actor_network.pth (torch, 507007 bytes, 10 tensors)

fc1.weight f4 [400, 8]
00000000: 2eef 043d 22fc ec3d f5ff 943e c88c 99bd
00000010: 3714 333e 6852 2ebe 6fe1 b53b ec0f 133e
00000020: 8030 2a3e 8835 453e 0486 17bc 3d78 e2bd
00000030: a482 543e 9cea df3d 880c 973d 3e93 1e3e
00000040: 7d21 ddbb 223f 003e e0cf f53d 3c6e d2bd
00000050: d38b 8ebe 3162 1a3d 361a 8dbe 7fbe 9c3d
00000060: a7ca 5e3d d09d 3b3e 809b ddbc b769 50be
00000070: 959e f3bd 55ad bdbd c967 1a3e 07a9 5e3d
00000080: 103a 17bc 6e44 8d3e 52d8 d43d 7e4c 57be
00000090: 9594 ebbd 5869 d43c 840f 343e 6a4a 3b3e
000000a0: fe21 da3d 7ea4 0c3e 4a77 1b3e 3347 2bbe
000000b0: d5c7 92be 907b 03be 44a6 54be 6249 523e
000000c0: ae95 5b3d dde3 413e 2ecb 163d 4c4c b2be
000000d0: 7b41 43bd 289a 7bbd efe5 96be e4d3 f3bd
000000e0: ee4a 0f3e f584 253e 5c72 243b 34cc f23b
000000f0: e3a9 8d3d 156e a63d 7dfc c83d 5686 463e
00000100: e763 013e c0aa 133e e5d8 e53b 732a cdbc
00000110: 9df7 8e3e c5ad 333e b2ea 5dbd aaa4 41bd
00000120: f0cc a33c aae9 533e 4da8 18bd 46a9 06bd
00000130: 66a0 203c 3433 9b3d 78e1 1e3d b890 d53d
00000140: f173 88bd e2c3 ea3d 0e82 f4bd 4aef 09be
00000150: da11 ffbd 4d6a 4bbe 612a 78be 56c1 9abd
00000160: 96f7 a53e ad0b 063f 6316 ed3c 4b41 fdbe
00000170: 3fda 4cbd 5f8b 93bd 3646 e43d 40fc 9d3e
00000180: 5f01 043e a278 613e f756 d03d 8dbd cabd
00000190: bee8 4abe 38d8 cebd 5884 66be 557d 0a3e
000001a0: 4187 ed3c 09fa 1f3e 189e bc3d 3fd6 33be
000001b0: 3ad1 c93c 377a 113e dc50 74bd 0009 253e
000001c0: bbe4 67bc 78ae f23d cf16 cfbd d89b 31be
000001d0: 972e 72bd 06cb 8ebd 16d7 3bbd 923a ca3c
000001e0: f261 bbba 7e88 1d3e 50d6 58bd 4dc9 563d
000001f0: 74ff 3ebc d3ef 74bd 2aec 42be 4499 563e
00000200: 2b81 083c 2543 173e fe59 313d 2cee bcbc
00000210: a63f d43c 2334 163e 9f51 043e 2f6b 5f3e
00000220: 8a4d bd3d 5eb8 923e 31fe febb 4643 4bbe
00000230: e1c7 12be abbd 2e3e 3005 60bd af19 1c3e
00000240: a325 0bbd 858c b53d e0f0 afbd b217 dbbd
00000250: 325f 3c3e 932b 723e d865 b43e 90df db3c
00000260: 4515 993d 117f 6d3e 2464 13bd 8be7 86be
00000270: 986e 0cbe a6a3 853d 25ee b13d 4480 e43d
00000280: 9d5e 0bbd 6064 3d3e d248 c2bd 7b8d 01bd
00000290: cec2 743e 5690 483e df45 a5bd 2650 0bbd
000002a0: e3cd f93d eb04 ddbc 6b58 903d d338 a2be
000002b0: c2c6 6bbe 7ea3 59be e9b1 163e 218a a63e
000002c0: 0abc a83d dbb7 5e3e cf27 edbc c34e 9dbd
000002d0: 09cc 72bc d3c1 663d 187e 8abd 24d0 3d3e
000002e0: e17c b03d ac37 9f3d aae1 1ebd 0d20 d1be
000002f0: a55c 8dbd da7e 2fbd 946e d7ba 8a9f 37be
00000300: e21e 47bd bf11 fc3d 2fc3 313d 1897 7b3e
00000310: cb68 39be 4627 2ebe 6786 2ebe fe64 00bd
00000320: 0f96 333e 5b0d 7a3e f41c 6cbd 1a4b 56be
00000330: 0c19 1f3e b516 723d c941 dc3d bfdc 263e
00000340: ee50 5e3d 8b1e 733e c5a7 81bc c4a0 8abe
00000350: 3c13 0dbe b438 333d fabf 88bd a4eb b23e
00000360: b768 fc3c d29c 5a3e 514f 9b3d 72fe 8abd
00000370: 2376 debc 53f4 ad3c 351a f83d 99db a63d
00000380: 44c5 d43d ba71 6b3e 8fc3 c5bc c447 1fbe
00000390: 3afc 14be 2250 d63d e26c ccbd 4e73 cf3e
000003a0: 69fd 193d afe5 5f3e 948d f53c f146 84be
000003b0: 7153 aabd 6f50 04be 4125 2abc badc 15bd
000003c0: 8753 d43d 7c49 4cbd 01b7 073d c7b2 36be
000003d0: 7bd3 073e 83a3 3ebe 5be2 3c3e 15db 183e
000003e0: b09c 033e ba3f 443e 6fce e13b 0d81 87bd
000003f0: 3722 2dbe d1f1 7abd b0b9 80be 54a4 b33c
0.032454662 0.11571528 0.2910153 -0.07497555 0.1748818 -0.17023623 0.0055505554 0.14361542
0.16620064 0.19258702 -0.00924826 -0.1105809 0.2075296 0.1093342 0.07375437 0.15485856
-0.006748377 0.12524083 0.1200254 -0.10274932 -0.27841052 0.0376913 -0.2755906 0.07653522
0.054392483 0.1832192 -0.027051687 -0.20352827 -0.118954815 -0.09261576 0.15078653 0.054360416
-0.009230152 0.2759127 0.10392822 -0.21025273 -0.11502949 0.025929138 0.17584044 0.18290105
0.10651015 0.13734624 0.15182224 -0.16726379 -0.28668085 -0.12840104 -0.2076655 0.20535806
0.053609543 0.18934579 0.03681486 -0.34823835 -0.04766987 -0.06142631 -0.294723 -0.11905649
0.13993427 0.16164 0.0025092578 0.007409597 0.06917169 0.08126465 0.09813783 0.19387183
0.12635766 0.14420605 0.0070143812 -0.025044655 0.2792329 0.17546757 -0.0541789 -0.047276177
0.019995183 0.20694605 -0.03726988 -0.032876275 0.009803867 0.075781256 0.038789243 0.104279935
-0.06662739 0.11463143 -0.119388685 -0.13470188 -0.12454577 -0.1986477 -0.24234916 -0.07556407
0.32415456 0.52361566 0.028941339 -0.49463877 -0.050012823 -0.07204317 0.11146204 0.30856514
0.12891148 0.22018674 0.10172837 -0.09899435 -0.19815347 -0.10099834 -0.22511423 0.13524373
0.028995158 0.15622725 0.092098415 -0.17562197 0.0246359 0.14206778 -0.059647426 0.16116714
-0.014153655 0.118496835 -0.10111772 -0.17344606 -0.059126463 -0.069723174 -0.04585942 0.024686132
-0.0014296158 0.15384099 -0.05293876 0.05243807 -0.011657584 -0.059799027 -0.19035402 0.20956904
0.008331577 0.14771707 0.043298714 -0.023062788 0.025909256 0.14668326 0.12921761 0.21818231
0.09243305 0.28656286 -0.007781767 -0.19849882 -0.1433406 0.1706454 -0.054692447 0.15244173
-0.03397144 0.088646926 -0.08590865 -0.10697879 0.18395689 0.23649435 0.3523395 0.026840001
0.0747476 0.23193003 -0.035984173 -0.26348528 -0.13714063 0.06525354 0.086880006 0.11157277
-0.034025777 0.18495321 -0.094865456 -0.031629067 0.23902437 0.1958631 -0.080699675 -0.034011982
0.12197473 -0.026979884 0.070481144 -0.31683978 -0.23025039 -0.21253774 0.14716305 0.3252726
0.082389906 0.21749823 -0.028949646 -0.07681038 -0.014819154 0.05633719 -0.06762332 0.1853643
0.08617569 0.077742904 -0.03878943 -0.40844765 -0.06902436 -0.042845584 -0.0016436153 -0.17931953
-0.048613437 0.12308072 0.043399032 0.24569356 -0.18106382 -0.17007169 -0.17043458 -0.031346314
0.17537712 0.24419157 -0.0576448 -0.20927086 0.15536898 0.059103686 0.10754735 0.16295145
0.0542764 0.2374212 -0.015827069 -0.2707578 -0.13776869 0.04375525 -0.066772416 0.34945405
0.03081165 0.21348885 0.07583488 -0.06786813 -0.027155941 0.021234667 0.121143736 0.08147354
0.10389188 0.22992602 -0.024141101 -0.1555472 -0.14549342 0.10464503 -0.09981705 0.40517658
0.037595186 0.21864961 0.029974736 -0.25835374 -0.083166964 -0.12921308 -0.010384859 -0.036587454
0.10367494 -0.049874768 0.03313351 -0.17841636 0.13264267 -0.18617062 0.18445723 0.14927323
0.1285274 0.19164935 0.006891064 -0.06616411 -0.16907583 -0.06126577 -0.25141668 0.021928944

fc1.bias f4 [400]
00000000: ef56 0b3d a229 8e3e 4d09 803e e464 233e
00000010: 9a47 a33e 7fbc 5f3d bffa 5a3e 8143 733e
00000020: aaf4 773e 88a2 893e 29be 183e 16b8 373f
00000030: 3842 533e c307 753e b7a3 483e b43e 4f3e
00000040: 5acb 5f3e 9a72 a13e 878e b43d 829c 823e
00000050: a885 a73d b127 66bc 5dac 803e 1be4 2b3e
00000060: c8d1 193e 91aa 9e3e 7264 723e 20e5 833e
00000070: 0267 923e ebba 7c3e f4a9 9f3c 21e3 9f3d
00000080: a696 913e 5cc3 7b3e 6985 843e 9c48 973d
00000090: 6f81 9d3e e89b 483f db25 823e 2a66 2d3e
000000a0: e095 5f3f 93e8 8a3e ef3a da3e f7c3 b03d
000000b0: 1975 2a3f 8e9a 253d 68b3 8d3e ca9c 0d3e
000000c0: c333 333e eefd ae3e fdd1 0f3e c0d7 faba
000000d0: fe26 0a3d 4b2f c93d bc96 1e3e 6e47 063e
000000e0: f511 233e 9f7a 183e 94ae 833e dba7 ce3d
000000f0: ddba 033e fef6 df3d 7f70 773e 92db 3b3e
00000100: 466c 983e 4867 723d 4f6a 8e3e dec9 8e3e
00000110: 5038 f23d ece7 603e dd64 003e ede8 323e
00000120: 8990 f13d 5fcc 813f 91e5 653e d8d4 3b3e
00000130: 640c 013e 3fc2 603e 708a 523e acc9 853e
00000140: 8eac a33e 9af5 443e f2df 143e 1329 3f3e
00000150: b442 7c3e 2687 e23d 8649 c63e ad25 913e
00000160: 7bb2 cc3e 084e 563e b785 4f3e 3469 a93e
00000170: 4a4b 283e 056b 673d 6463 9f3e 6712 8a3e
00000180: 9bba dd3d 2d35 913e cd99 60b8 7181 7f3e
00000190: 5dd0 873e 4d56 3f3e 38f5 753d 98e6 173e
000001a0: 70d7 e73d d499 313e 6caa 663d 04b9 173e
000001b0: 6cf4 3f3e 8ae8 f23d 2779 643e 4bd9 163e
000001c0: 3aea b63e 0a14 293e 4339 733e 103d 3a3e
000001d0: a7ee 983e 9980 293e e212 f23e 710b 403e
000001e0: 0a98 5d3e 82ee f73d 87ce 163e e29f 663e
000001f0: 33f8 a63d 1826 013e 3326 7d3d 9270 053e
00000200: 5f66 763e 8040 743e 3f01 703e e943 953e
00000210: f093 3e3e 1e0e 983e 88c5 223e a9e6 a0bd
00000220: 8c55 223e dd07 363d 8c4b 673e c57d d13e
00000230: d6a3 743e d36e ea3d 954d 183e b52a ca3d
00000240: 9f2a 8d3e 8544 603e fad6 103e 592b 8c3e
00000250: f7ec 903e 5605 023e ee5e 973d 10d2 cf3c
00000260: 1f44 b33e 3d3d 013e 68f7 e4bd dab7 693d
00000270: d248 593e e2a6 a63e 8ec9 b63e 2627 c23d
00000280: fe9f ea3d 3ed4 523e 979c 913e 3cd1 2e3e
00000290: 7111 763e ae1d 363e 6970 a63e c26f 9f3e
000002a0: 1298 653e a777 493e 7b1d 7d3e 04c4 3c3e
000002b0: 80f4 5b3e 2d50 4d3e 857a ae3e f124 863e
000002c0: 86e1 9a3d f069 8c3e 9dee 8a3e a95f 3e3e
000002d0: b2a1 a53e b890 303e 97af 893e 38ac 223e
000002e0: fd4a 3e3e dc51 503e ec47 1c3e 0b79 723e
000002f0: 1f72 b63e 531c b83e 2320 58bd b84d 8c3e
00000300: 25d0 9e3e 1e23 443e 8537 e63d 92bc 503e
00000310: 70bb 533e af41 b83e 9505 283e 5284 353e
00000320: 5fb0 243e 38d8 2c3e 413c 383e ea1d 323e
00000330: 8fdc 173e 8bec 973e 1bd3 643e b6cd bb3d
00000340: f51c 913d d02c 843f a285 3f3e 4ea6 2a3e
00000350: 0684 903e d33f 923e 19e6 723e d7c1 143e
00000360: ee06 c23b 4696 063e 0d2b 743d d793 863e
00000370: 9349 363e d6fb 863e 4715 9a3e 3730 143e
00000380: 69b3 133e 1c79 663d 8e5b 4d3e db43 603e
00000390: 6cfe 2e3e 45b1 543e 061a 023e 7709 693e
000003a0: 2988 373e 2a59 313e 6be4 9b3e 3338 0c3e
000003b0: 0ccd a03c 1297 223e e342 793e 65f5 af3d
000003c0: 1d53 993e 15bf 9c3d 5d47 893e f9e1 3f3f
000003d0: 22cc 223e f919 64bd 8e7d b83d c8ce c73d
000003e0: 2a9c 673e c0f5 203e 2b21 013e 2815 b33d
000003f0: ce0d 413c df07 ba3e 0c90 463e 6d20 153e
0.034018453 0.27766138 0.25007096 0.15956455 0.31890565 0.054623123 0.21384715 0.2375622
0.24214426 0.26881814 0.1491629 0.7176527 0.20630729 0.23928742 0.19593702 0.20238763
0.21854916 0.31532747 0.088162474 0.2551003 0.0817979 -0.014047549 0.25131503 0.16786234
0.15021431 0.30989507 0.2367113 0.25760746 0.28594214 0.24680679 0.01949022 0.07806993
0.28435248 0.24586242 0.25883034 0.07386896 0.30762812 0.78362894 0.25419506 0.16933504
0.87338066 0.27130565 0.42623088 0.08631127 0.66584927 0.040430598 0.2767594 0.13829342
0.17500214 0.34178108 0.14044948 -0.0019137785 0.033728592 0.098234735 0.15487188 0.13113186
0.15924819 0.14890526 0.2571913 0.1009061 0.12864251 0.10935782 0.24164008 0.18345478
0.29770106 0.059180528 0.27815482 0.27888387 0.11827147 0.21963471 0.12538476 0.17471667
0.11795146 1.0140494 0.22450854 0.18342912 0.12602383 0.21949099 0.20560622 0.26130426
0.31967586 0.19234315 0.14538553 0.18668012 0.2463482 0.11060934 0.3872797 0.28349057
0.3997992 0.20928204 0.20265852 0.33088076 0.1643497 0.056498546 0.31130517 0.26967165
0.10826608 0.28360882 -5.3549e-05 0.24951722 0.26526156 0.18685265 0.060048312 0.14834058
0.11320388 0.17343837 0.05631487 0.14816672 0.18745583 0.118607596 0.22311841 0.14731328
0.35725576 0.1651155 0.23752312 0.18187356 0.29869577 0.16552962 0.4728003 0.18754365
0.2164003 0.12106039 0.14727221 0.22521928 0.08152809 0.12612188 0.061804008 0.13031223
0.24062489 0.2385273 0.23437975 0.29153374 0.18611121 0.2969827 0.15895665 -0.07856495
0.15852946 0.044441093 0.22587413 0.40916267 0.23890623 0.11446919 0.14873345 0.09871427
0.2757158 0.21901138 0.14144507 0.27376822 0.2830579 0.12697348 0.07391153 0.02536872
0.3501291 0.12621017 -0.111800015 0.0570601 0.21219185 0.32549196 0.3570065 0.09480123
0.11456297 0.20588776 0.2843978 0.17072004 0.24030091 0.1778476 0.32507637 0.31139952
0.22421291 0.1967455 0.24718277 0.18434149 0.21479988 0.20050116 0.3407785 0.2620006
0.075625464 0.27424574 0.27135172 0.18591179 0.32349926 0.17242706 0.26891777 0.15886009
0.18583293 0.20343727 0.15261811 0.23678987 0.35633942 0.3595911 -0.052765023 0.27403045
0.31018177 0.19154021 0.11241058 0.20384434 0.2067697 0.35987613 0.1640838 0.17726257
0.16082905 0.16879356 0.17991735 0.17394224 0.1483023 0.29672655 0.22346155 0.091700956
0.07085601 1.0326176 0.1870332 0.16665003 0.28225726 0.2856432 0.23720588 0.14527069
0.0059212362 0.13143262 0.05961137 0.26284668 0.17801504 0.2636401 0.30094358 0.14471518
0.14423908 0.056267843 0.20054457 0.21900885 0.17089242 0.20770748 0.1270524 0.22757517
0.17923035 0.1731917 0.30447707 0.13693313 0.019629024 0.15877941 0.24341922 0.08591727
0.29946223 0.076536335 0.26812258 0.7495418 0.15898183 -0.055688832 0.09008323 0.09756237
0.22618166 0.15718746 0.12610309 0.087442696 0.011783076 0.3633413 0.19390887 0.1456315

bn1.weight f4 [400]
00000000: fb09 be3f e996 3e3f 7d62 4b3f 406e 713f
00000010: 6403 293f 4a5c 983f 54f2 713f 63e0 573f
00000020: baa3 833f a8bb 3a3f b39d 773f 3ddb 723e
00000030: a931 4f3f 3a88 573f 4974 8d3f 71d6 6a3f
00000040: 404b 7d3f 16be 043f 16b3 af3f ff21 293f
00000050: acde a93f 3e74 e63f d8d4 3c3f 6095 973f
00000060: 0d6a a23f 085b 183f 4054 393f 5762 443f
00000070: f7bb 2b3f 32af 613f 95e4 b33f 2e8a b73f
00000080: 9edd 2f3f 4759 1f3f 1e1e 633f 4b88 b83f
00000090: 3a42 1e3f 344e 2e3e e855 3d3f e682 613f
000000a0: 1d1e 163e 5e82 1a3f 7631 c93e 7f8c b13f
000000b0: 9a0a 3f3e 6df2 de3f 40d3 2b3f 3249 9c3f
000000c0: 9790 843f 05d9 113f caa9 9e3f f712 e83f
000000d0: 1957 c33f eee3 a63f efd0 a23f 27d1 8d3f
000000e0: 27d4 893f dd10 893f d1dc 443f c7a2 aa3f
000000f0: e7d8 b43f f235 813f df36 623f 96eb 6c3f
00000100: 3102 103f 418e 9e3f a9ec 873f 0724 393f
00000110: bc87 943f 0b6f 693f e05d 813f 29af 553f
00000120: 2fce 8e3f 6cd6 033e b6e3 3b3f e872 9b3f
00000130: b416 933f 86dc 703f e052 8b3f 4e76 333f
00000140: efe9 343f 387a 5f3f 1b6c 913f 06e4 813f
00000150: 68c9 3d3f 6adc 943f feaf e23e 8001 503f
00000160: 0263 cc3e 97bc 633f f5a8 513f 7473 2f3f
00000170: b68b 563f b609 bb3f fe3a 1d3f 6acb 613f
00000180: 78d7 9f3f 2504 253f 3768 cc3f 3150 373f
00000190: c0f0 453f 575c 673f ee84 a23f 4778 9d3f
000001a0: 216a aa3f 2c8c 883f 52a3 bb3f 88b1 a13f
000001b0: de16 7c3f 9e65 833f df36 4b3f 63e3 8e3f
000001c0: 55e7 ea3e 32a0 813f fe01 533f 0fd8 8e3f
000001d0: 5776 313f 99ec a93f e3f8 cb3e e8b2 6a3f
000001e0: 1b79 893f 5bb8 a33f 120a 8e3f 6b76 5c3f
000001f0: dfb1 af3f 790b 8d3f 5eda a23f 881d 963f
00000200: 2cc1 673f c97e 4d3f 04d0 5f3f 3ec4 263f
00000210: 9da3 613f 0a96 2d3f 45ce ce3f 1997 ca3f
00000220: be94 ab3f a467 ae3f 520c 143f 7289 f13e
00000230: 0929 693f 2f1d b23f b5f1 953f 8626 913f
00000240: 318a 353f 2e3c 903f 8f78 853f 2639 323f
00000250: a601 813f 71a0 9b3f 378f 9b3f e3af a03f
00000260: 7300 1e3f f4e1 7d3f 8923 db3f 63d5 c43f
00000270: a2be 8d3f 6813 4e3f 1bdc fb3e f0db 823f
00000280: afc0 a53f 5b04 213f 78ca 343f be26 8b3f
00000290: 5ef0 413f 03ae 603f 2f17 da3e 55ab 0c3f
000002a0: f9c5 523f 90ca 803f 6f95 433f d7b4 a63f
000002b0: 972e 633f a240 8d3f 6515 213f a2d8 523f
000002c0: 1807 9d3f e9b5 8a3f 7ab1 503f 662e 2d3f
000002d0: ff8d 083f f469 9d3f b43c 2f3f da4f 9b3f
000002e0: f388 843f dfc1 6f3f 5c6b 863f 099a 633f
000002f0: 8c6d 033f ff29 0e3f aad5 e13f 2318 1e3f
00000300: 74c7 593f 7b66 823f 017e 9b3f b78e 873f
00000310: 29f2 603f 3d0c 003f cbdd a43f d8c6 903f
00000320: 479b 6e3f cb65 983f bd34 8a3f 0c55 6c3f
00000330: da65 c43f bc37 693f 695d 553f 997c 983f
00000340: bed6 bd3f ab51 fd3d 0d66 6a3f 23ab 7a3f
00000350: 90a0 743f 92ca 233f 92b6 743f bd48 7a3f
00000360: 9b32 d43f ec1a 8c3f a6bb a03f 9746 723f
00000370: ba87 673f 3e2d 2e3f f811 1e3f 7050 b93f
00000380: eec4 a73f b6a0 bc3f 30ee 8d3f 0acc 7c3f
00000390: 17a4 9c3f 35ec 7e3f 0a70 a83f f870 3b3f
000003a0: eeda 9e3f f53e 963f c59c 073f dff6 923f
000003b0: 67a9 b83f b327 9a3f f8e1 443f e79b 9d3f
000003c0: 8166 083f 98f4 bf3f 4575 443f 821a 553e
000003d0: 27ce 763f 028f d43f e74e a43f f6fa a23f
000003e0: a15d 683f f4fe 9d3f c82a 9d3f fc84 a73f
000003f0: 0855 a03f 82e7 173f 331b 6a3f 0189 7d3f
1.4846796 0.7444902 0.79447156 0.94308853 0.660208 1.1903164 0.9451039 0.8432676
1.028434 0.7294259 0.96725005 0.23716445 0.8093515 0.8419224 1.1051112 0.9173346
0.9894295 0.5185255 1.3726528 0.660675 1.3271079 1.8004224 0.73762274 1.1842461
1.2688614 0.595139 0.7239418 0.76712555 0.67083687 0.8815795 1.4054133 1.4339044
0.68697536 0.622456 0.8871783 1.4416593 0.61819804 0.1702202 0.7395921 0.8809036
0.14659925 0.60355175 0.39295548 1.3871001 0.18656388 1.7417732 0.67119217 1.2209837
1.0356625 0.5697177 1.2395566 1.8130788 1.5260955 1.3038309 1.2720011 1.1079453
1.0767869 1.0708271 0.7689944 1.3330926 1.4128693 1.0094588 0.88364977 0.92546976
0.56253344 1.2387162 1.0619098 0.723206 1.1603923 0.91185063 1.0106773 0.834704
1.1156672 0.12874764 0.73394334 1.2144442 1.1491303 0.9408649 1.0884666 0.70102394
0.70669454 0.87295866 1.1361116 1.0147712 0.74135447 1.1629765 0.44274896 0.8125229
0.39919287 0.8895964 0.8189843 0.6853554 0.8380693 1.4612339 0.6141814 0.8820101
1.2487631 0.6445945 1.5969304 0.7160674 0.7732048 0.90375274 1.2696817 1.2302331
1.3313638 1.0667777 1.4659216 1.2632303 0.9847239 1.0265386 0.793806 1.1163143
0.45879617 1.0127013 0.82424915 1.1159686 0.693212 1.3275329 0.39838323 0.9167924
1.0740083 1.2790636 1.1096823 0.8611819 1.3726157 1.1019126 1.272289 1.1727762
0.9052913 0.80271584 0.8742678 0.6514319 0.8814028 0.67807066 1.6156698 1.5827361
1.3404768 1.3625379 0.578313 0.47175175 0.9107824 1.3915156 1.1714388 1.1339881
0.7091399 1.1268365 1.0427417 0.6961845 1.0078628 1.2158338 1.2153081 1.2553676
0.61719435 0.991729 1.712022 1.537762 1.1073802 0.8049836 0.49191365 1.022337
1.2949427 0.6289727 0.7062144 1.0871198 0.75757396 0.8776552 0.42595813 0.5494893
0.8233333 1.0061817 0.7639989 1.3023938 0.88742965 1.1035349 0.6292327 0.82361805
1.226779 1.0836765 0.8152081 0.67648923 0.5334167 1.2297959 0.68452 1.2133744
1.0354294 0.936552 1.0501513 0.88906914 0.5133903 0.5553283 1.764333 0.6175558
0.85069966 1.0187525 1.2147828 1.0590428 0.8786951 0.50018674 1.2880186 1.1310682
0.93205684 1.1906065 1.0797344 0.9231727 1.5343583 0.9110067 0.8334566 1.1913024
1.4831159 0.123690926 0.9156197 0.97917384 0.955575 0.6398097 0.9559108 0.9776724
1.6577944 1.0945716 1.2557266 0.9463896 0.9044148 0.68037784 0.6174617 1.4477673
1.3106973 1.4736545 1.1088314 0.9874884 1.2237576 0.99579173 1.3159192 0.7321925
1.2410562 1.1737963 0.52973586 1.1481589 1.4426697 1.2043365 0.769073 1.2313203
0.5328141 1.4996519 0.7674144 0.20810893 0.96408314 1.6606143 1.2836579 1.2732837
0.90767866 1.234343 1.2278681 1.3087459 1.252595 0.5933763 0.9144775 0.99037176

bn1.bias f4 [400]
00000000: 4c6f 67be 75b2 a1be 82b6 a5be 8209 5ebe
00000010: 9711 0abf 7534 48be b285 9bbe dc62 a1be
00000020: ec59 64be 4c28 ddbe f651 7bbe db1d 46bf
00000030: 08e3 c6be b987 bebe 7740 56be cc9a 9cbe
00000040: aef6 7abe 35e9 13bf 65b9 a03c ab34 eebe
00000050: a334 8dbc b9a9 c43d ff41 d3be 844b b9bd
00000060: 5159 27be c974 eebe 0720 edbe cac3 d2be
00000070: f11e 02bf 6675 a7be 63a4 cebd 43ce a5be
00000080: 9e86 efbe 77d8 00bf 76d5 a6be cc5f 2fbe
00000090: b901 febe 3dcc 54bf 6d82 08bf 7569 99be
000000a0: aa5b 5abf 80c4 07bf f859 2ebf e4f6 363d
000000b0: 02eb 54bf 5be3 413c 5560 f2be 5561 25be
000000c0: e60a 83be 0632 0abf b6d8 6abd 0560 aebc
000000d0: e88c 07bd 70c2 bebc 4c95 fcbd a33f 21be
000000e0: d471 0ebe 7f21 6fbe 41fe d3be 8844 58bd
000000f0: c32e 55be 095c 86bd a570 b4be 9645 9dbe
00000100: a574 0abf 1ed5 3cbe bffe 39be 7113 e8be
00000110: 342f 92bd 673b a9be 3ff5 a0be 6ab6 babe
00000120: cefd 7fbe db7a 60bf 6e4a d7be 637a 11be
00000130: 318f 83be 6196 94be f6ff 85be 77f1 f1be
00000140: 6ee4 e2be fc5b abbe d4c0 b2bd 68d1 79be
00000150: 0150 cfbe 4adf 08be 393e 26bf 1922 cbbe
00000160: b922 22bf 533e 93be 7f58 b7be 4815 d3be
00000170: c268 e3be 94ed f7bd fbb9 f1be ea33 5ebe
00000180: 26ae 96bd f494 01bf a1f1 94bc 5908 acbe
00000190: 539b e2be a6f7 a0be f5c3 25be 3439 b7bc
000001a0: fec8 cebb 8312 a7be 816e 533c 4068 c2be
000001b0: 31fb 50be d998 6fbe 7b4b 89be 93bb 74be
000001c0: 6917 21bf 6cf8 5bbe d98e 91be 1900 22be
000001d0: 6bbf f0be d844 513d 349b 28bf 154e 8abe
000001e0: 1463 80be d286 863d bcac 2fbd 7f00 d1be
000001f0: 0d63 a2bd 0750 7ebe ae04 4bbe 0ae5 39be
00000200: a10e a2be e837 bbbe 42f2 a1be 4d82 ebbe
00000210: 3107 2abe bf82 e8be 81ed 88bd 484a 183d
00000220: fd44 bf3d 5a76 033e 0dc2 0ebf f6e5 1fbf
00000230: f4d2 49be ccff 8ebe 50da 68be e057 2abe
00000240: 1160 eebe 2f57 31be 613e 66be b802 fcbe
00000250: d1d0 81be 67fa 05be f99e 59be b479 1dbe
00000260: 8e21 00bf a0bb 49be e5ed cabc 5f75 e23d
00000270: cb4f 89be 7510 b1be e781 19bf dcdf 79be
00000280: d6f5 bdbc 258d f2be 5490 cfbe 1c63 44be
00000290: 8bf2 bfbe 8eac 89be 5044 31bf b723 09bf
000002a0: 259e b8be ed57 bebe 6ed1 aebe 8fec 5bbd
000002b0: 1b33 84be a399 23be 79fa d5be e151 b0be
000002c0: f77f 35be 45ee 25be 0e4f c6be 90be dabe
000002d0: bd05 10bf 82d1 34bd 4a7e eebe bf63 84bd
000002e0: ad79 95be b26a 8fbe c47d 30be 398e a4be
000002f0: b503 1abf 1c5f 19bf 6c2a cb3b bc47 eabe
00000300: e02b a8be 4a95 89be 0bc3 48be 0bdf 75be
00000310: a3ce 71be 89a9 14bf 14b7 1cbe 4c0d 26bd
00000320: cb02 61be 24c6 14be daa9 84be f0ed 7dbe
00000330: f3e3 103c c268 67be 0603 aabe 1ff7 0bbe
00000340: 7ec6 963d fb78 65bf 0de9 3abe e841 a1be
00000350: 003e 72be 0502 03bf eaca 7cbe 04e4 0abe
00000360: 7012 bfbc 6f6a 45be 3961 4ebd 6b3c a4be
00000370: 2981 acbe 005e f3be 073c fdbe 8ff9 27be
00000380: 7048 12be 5897 863d 504b 13be adbf b1be
00000390: d0a5 f0bd 9c34 27be 81a1 cabd 1aff efbe
000003a0: 371b 6bbe 3128 70bc 6dcd 1cbf e6d9 0cbe
000003b0: bc30 603c 3835 0abe 9a13 98be cc01 53be
000003c0: 3807 15bf f2e4 31be 835a abbe ddc4 4ebf
000003d0: 72a6 a1be 64f0 7ebc ce00 60be 0453 79be
000003e0: df78 bbbe 6990 87be c3f9 03be 0db2 2ebe
000003f0: b0d3 63be 4a2f fdbe 4e63 55be 113e 73be
-0.2260105 -0.31581464 -0.32365805 -0.21683314 -0.5393309 -0.19551261 -0.3037544 -0.31520736
-0.22299927 -0.43194807 -0.24542984 -0.77389306 -0.38845086 -0.37212923 -0.20923029 -0.3058685
-0.24508163 -0.5777772 0.019619653 -0.46524557 -0.017237013 0.096026845 -0.4126129 -0.090476066
-0.16342665 -0.46573475 -0.46313497 -0.41165 -0.5082846 -0.32706755 -0.10089948 -0.32383928
-0.46782392 -0.503303 -0.32584733 -0.17126387 -0.4961069 -0.8312414 -0.53324014 -0.2996327
-0.8529612 -0.5303421 -0.6810603 0.044669047 -0.83171093 0.011833991 -0.4733912 -0.1615041
-0.25594252 -0.5398258 -0.057335578 -0.02128602 -0.033093363 -0.023286074 -0.123331636 -0.15746932
-0.1391061 -0.23352621 -0.41404918 -0.05279973 -0.2081862 -0.06560523 -0.3524219 -0.30717152
-0.54084235 -0.18440673 -0.18163584 -0.45327333 -0.071379095 -0.33053133 -0.31437108 -0.36467296
-0.24999163 -0.8768746 -0.42048973 -0.14206843 -0.25695184 -0.2902098 -0.26171845 -0.47254536
-0.44314903 -0.33468616 -0.08728185 -0.24396288 -0.40490726 -0.13366428 -0.64938694 -0.39674452
-0.6333423 -0.28758487 -0.35809705 -0.41227174 -0.4441586 -0.12105861 -0.47212204 -0.21699491
-0.07357435 -0.5061791 -0.018181624 -0.3360012 -0.44259128 -0.3143894 -0.16188033 -0.022366144
-0.006310581 -0.3263131 0.012904764 -0.3797016 -0.20408322 -0.2339815 -0.268154 -0.23899679
-0.62926346 -0.21481484 -0.28429297 -0.1582035 -0.4702104 0.051091045 -0.6586182 -0.27012697
-0.2507559 0.06568684 -0.04288934 -0.4082069 -0.07929049 -0.24835216 -0.19826004 -0.18153778
-0.31651786 -0.3656609 -0.3163014 -0.4599785 -0.16604306 -0.4541225 -0.06685925 0.037180215
0.0933933 0.12838116 -0.5576485 -0.6246027 -0.19709378 -0.27929533 -0.2273953 -0.16635084
-0.46557668 -0.17318414 -0.22484733 -0.49220824 -0.25354627 -0.13083802 -0.2125205 -0.15378457
-0.500512 -0.1970048 -0.02477164 0.11057543 -0.2681869 -0.34582868 -0.5996384 -0.24401802
-0.023188513 -0.4737331 -0.405398 -0.19178432 -0.37489733 -0.2688946 -0.6924486 -0.5357012
-0.36058155 -0.37176457 -0.34144157 -0.053692397 -0.2582024 -0.15976577 -0.41792658 -0.3443747
-0.17724596 -0.16204174 -0.3873219 -0.42723513 -0.56258756 -0.044145115 -0.46580726 -0.064643376
-0.29194394 -0.2801109 -0.17235476 -0.32139757 -0.60161906 -0.5991075 0.0062001254 -0.45757854
-0.32845974 -0.2687171 -0.19605653 -0.24010865 -0.23613982 -0.5807119 -0.15304214 -0.040540025
-0.21973722 -0.1452871 -0.25910836 -0.24797797 0.00884341 -0.22598556 -0.33205432 -0.13668488
0.07362078 -0.89637727 -0.18252964 -0.31495595 -0.23656464 -0.51174957 -0.2468678 -0.13563544
-0.023324221 -0.19278882 -0.050385688 -0.32077345 -0.3369229 -0.47532654 -0.4945986 -0.16403793
-0.14285445 0.06571835 -0.14384198 -0.3471655 -0.11750376 -0.16328663 -0.09894086 -0.46874315
-0.229596 -0.01465802 -0.61250955 -0.13754997 0.013683494 -0.13496864 -0.29702455 -0.20606154
-0.5821414 -0.17372492 -0.33467492 -0.8076914 -0.315723 -0.015560243 -0.21875307 -0.24348074
-0.36615655 -0.26477364 -0.12888245 -0.17060108 -0.22248721 -0.4945014 -0.20838663 -0.23754145

fc2.weight f4 [300, 400]
00000000: 421c 453e 3935 3f3d 4139 0e3e c109 9d3e
00000010: 1781 a5bd a7e4 263e 1676 d2bd 7140 39bd
00000020: dd44 a83c 4ef4 4e3e e2d2 adbe 5a32 cdbd
00000030: b36a 803e 806e 113d 2074 7bbd 8d24 84bd
00000040: d0cc 163d 3ba5 02be 1390 0dbe a342 083e
00000050: 8d15 e93d 8d53 c43e c5fb 8c3d 328d 553c
00000060: 130e a23d 59b6 35bd 69b9 65bc c9e2 073e
00000070: 2c03 70bc 728b 013e cc40 d2bd 8d5b 95bd
00000080: bdf1 6dbc 9461 71bd de51 123d 1356 483e
00000090: 8407 22be 26ec 3fbd fc5f d63e d20c 30be
000000a0: ed68 8fbc 7889 873e bfc0 4dbd bfbc b1be
000000b0: d68d edbd caa7 c23d e32d cc3d c28b 9bbe
000000c0: 636a 72bd 093a c7bd 07fb 753c f3a9 d23c
000000d0: e2a2 98ba 591d 393e bc3c 76be fbae 863e
000000e0: 6c1a 303d 3c49 093d deff 77bd d03e 82bc
000000f0: d9ca c5bb dec0 acbd b67e ab3d 3154 98bd
00000100: 0104 15bd 11a1 f43d 0397 99bd 6eb1 803e
00000110: 5276 e63d 7e50 5fbd 3ab3 08be 05b1 ac3e
00000120: 5c99 b5be c6cf 2a3d 2b35 a2bd af27 24bd
00000130: 4a15 28be b48d 5b3c d897 f73d c798 9739
00000140: 41e4 51bd 4b93 bdbc 58be 953e b09a a43c
00000150: 19dd 5cbe 1b90 8bbc d840 243d 8997 8b3c
00000160: b8b5 0d3c e29d 783d 2928 b9bd 3420 8ebd
00000170: ce8b 313e 6765 8bbc 6abe 62bd 2042 54be
00000180: ae74 b33d 6f56 89bd 1401 97ba 724a 083d
00000190: e843 a7bd 4bf7 173e f948 9abc b0e7 423e
000001a0: 6359 3bbb b2a3 95bb 8580 5f3d 8ac4 073e
000001b0: 6f7d 27be 5110 00bc a2d9 55bd 0d22 38be
000001c0: 9eef b73c f414 8dba 0231 bd3d 8b90 923d
000001d0: 2183 203e f350 80bc d297 9c3d 6462 eebd
000001e0: 09b2 54bd 71a0 9abe 5fea 223d 0b00 89be
000001f0: 8bc4 8d3c 33a0 873d 2e7b 8ebd 009f d3bc
00000200: dcd5 e0bd 13c7 443e 6127 9b3e 34d0 ef3b
00000210: ffed 183e 914a b03d a51c dfbd 83a0 cfbd
00000220: ef70 7c3d 29fd 53be e0b0 01bd d038 d83d
00000230: 55d3 5abb be8b d1be 134e 04be 73e7 8cbd
00000240: c29c d3bc 30da d83c a501 5bbe 9eb2 1b3d
00000250: 9862 adbd dc2b 243e e562 643d ba9b 4a3e
00000260: bb96 813d ab7d d2bd 614d 7c3e 7e64 92be
00000270: 0a61 173e 0466 3abe 1533 0d3e 7110 963d
00000280: f9f3 21be 7f29 98be d751 93be 772d 213e
00000290: aa8d b63d 327a f23c eb51 013e 91b3 eebd
000002a0: e50f 41bd 3691 bc3d bd73 f23d 21d9 cbbd
000002b0: b090 9f3c 9389 3e3c 3b10 2d3c 55a9 11bc
000002c0: 17d7 6b3d 9928 dfbc 9683 cb3c 5f13 353e
000002d0: 99f3 e8bd dda4 fd3d d2ae b73c 2880 f13d
000002e0: e768 c13d 8db1 123c e23e 98bd e81b d13b
000002f0: 0496 73bd eabf 09be d5e5 b03e 56c6 59bd
00000300: f838 0abe 8001 a53e aa79 8c3b a135 27be
00000310: e5b0 9a3d 25df 803d 71b0 233e 6e61 40bd
00000320: 632c a43c bbac b13d b4d7 2f3e a4a6 c4bd
00000330: 0e17 50be f989 f63c f4af 423d be18 8f3e
00000340: 7ffd f93d 20ee b63c 9bc3 21be 9f03 93bd
00000350: 23b4 99bd 668a 483e e6d1 06be da1e 023e
00000360: 71ce f93d fac7 0a3a 920b 153e c56e bf3d
00000370: a7cb d43c 358f d3bd 7cb2 0d3d 5c36 103d
00000380: dd3a 913d b934 d03b 5a15 353d abfd 253d
00000390: 232f b63c b941 bfbd e135 003d e229 cf3d
000003a0: 1e7c 94bd 7b67 fdbd 2b4e a23d 4dce 22be
000003b0: fa78 613d 7563 dbbd 1916 9c3d 6984 9a3e
000003c0: 00f1 2a3e 675c c8bd 8106 34bd c8bb 443d
000003d0: 5538 5c3e f60d 87bc 0352 2d3c c3a0 a83e
000003e0: c819 283e afa7 c33c b760 203e f7dc 8dbe
000003f0: 3a3c 4e3e 8ff1 b43b f2b7 68bd f3be 8abd
0.19249061 0.046681616 0.13889028 0.30671504 -0.080812626 0.16298161 -0.10276429 -0.04522747
0.02054065 0.20210382 -0.33949953 -0.100193694 0.25081405 0.03550577 -0.061390042 -0.06452284
0.03681642 -0.12758343 -0.13824491 0.1330667 0.113810636 0.38344994 0.06883959 0.013034152
0.07912841 -0.044363353 -0.014021256 0.13270105 -0.014649194 0.1265085 -0.10266265 -0.072928526
-0.014522967 -0.05893095 0.035722606 0.19564085 -0.1582318 -0.046856068 0.41870105 -0.1719239
-0.017506087 0.26472068 -0.050232645 -0.34714314 -0.11599319 0.095046595 0.0996969 -0.30380064
-0.05918349 -0.09727866 0.015013463 0.025715804 -0.0011645223 0.18077601 -0.24046606 0.26305375
0.042993948 0.033517107 -0.06054675 -0.015899092 -0.006036144 -0.08435224 0.083737776 -0.07437933
-0.03638077 0.119447835 -0.07499506 0.25135368 0.112530366 -0.054520123 -0.1334962 0.33728805
-0.35468566 0.041702054 -0.07920297 -0.040076908 -0.16414371 0.013400484 0.12089509 0.00028914792
-0.05124307 -0.023141524 0.29246783 0.020093292 -0.21568717 -0.017036488 0.040100902 0.017040031
0.008649282 0.060697444 -0.09040863 -0.06939736 0.17338488 -0.017016126 -0.055357374 -0.2072835
0.08762489 -0.06705939 -0.0011520707 0.03327412 -0.08167249 0.14840429 -0.018833624 0.19033694
-0.0028587214 -0.004566633 0.054565925 0.13258567 -0.16356443 -0.00781639 -0.052209504 -0.1798174
0.022453126 -0.0010763691 0.09237863 0.07156476 0.15675022 -0.0156636 0.07646145 -0.1163986
-0.0519276 -0.30200532 0.039774295 -0.26757845 0.017305633 0.066223525 -0.069570884 -0.025832653
-0.109782904 0.19216566 0.3030348 0.007318521 0.14934538 0.086079724 -0.108941354 -0.10138037
0.06163114 -0.20702042 -0.03166282 0.10557711 -0.0033390124 -0.40926927 -0.12920408 -0.06880083
-0.025831584 0.026471227 -0.21387346 0.03801214 -0.08466071 0.16032356 0.055758376 0.19785967
0.06327578 -0.102778755 0.24638893 -0.28592294 0.14783111 -0.18202978 0.13789017 0.07327355
-0.15815724 -0.2971916 -0.28773376 0.1574 0.08913739 0.029599283 0.12628905 -0.11655343
-0.0471343 0.09207384 0.118384816 -0.099535234 0.019478172 0.01162948 0.010562952 -0.00889047
0.057578173 -0.027241038 0.024843019 0.1768317 -0.113745876 0.12384961 0.022422228 0.11792022
0.09443837 0.008953464 -0.07433869 0.0063815005 -0.059469238 -0.13452116 0.34550348 -0.053167664
-0.13498294 0.32227707 0.0042869644 -0.16329052 0.07553271 0.062925614 0.15985276 -0.046967916
0.020040696 0.08675524 0.17172128 -0.09602097 -0.20321295 0.030095087 0.047531083 0.27948564
0.12206554 0.022330344 -0.15797274 -0.07178425 -0.075050615 0.19584045 -0.13166007 0.12707081
0.12197579 0.0005294081 0.14555195 0.093472995 0.025976015 -0.10330049 0.034594044 0.03520809
0.070913054 0.0063539413 0.044209816 0.04052512 0.022239273 -0.093387075 0.031301383 0.101154104
-0.07250236 -0.12373253 0.079250656 -0.1589901 0.055047013 -0.10712329 0.07621402 0.30179146
0.16693497 -0.09783249 -0.043951515 0.048030645 0.21505864 -0.01648615 0.010578635 0.3293515
0.16416085 0.023883669 0.15661894 -0.27707645 0.20140162 0.00552196 -0.05681605 -0.06774702

fc2.bias f4 [300]
00000000: 77c6 4b3d a7e6 df3b 5cfb 0fbe c9c8 3bbd
00000010: 66ce 853c c042 65bb ffbc 51bd 7da4 08bb
00000020: e6bf a73c dd62 ec3b a2c1 d13d 2fbd b0bc
00000030: 7806 fdbc bbd4 64bc 555d b63c f16c b03c
00000040: 8c0f 27bc fd39 1abd 5a38 d43b fac2 073e
00000050: 0efe 343e 68d2 a63d 55be 8e3c 8008 b7bd
00000060: e740 643c 1fc8 e0bc f6a9 adbd 0533 8ebc
00000070: 2ba3 e43b 26f7 1cbd 671a bdbb 5b7a 55bc
00000080: d735 3a3d b037 2d3d 328f 603d 81ef 89bc
00000090: 86c4 3cbc 9cbe 8bbd d8df 8fbc b8f9 e03c
000000a0: 4988 20bd 25fd 643c 9b12 51bc 12fd b6bd
000000b0: ac35 87bd c0b2 2335 e05d 863d 2740 2ebb
000000c0: 8feb 033d 5ef8 573d 2117 85bd 7d4b fb3c
000000d0: 2a89 153d c915 073b 23c1 8abc 42fc afbc
000000e0: e3c4 30bd 8dca 05bd c079 6fbc 999a 1f3d
000000f0: bff3 633d 2fe3 edbb e185 413d e506 40bd
00000100: f137 a6bc a4c1 c7bc 092e dfbd 9eb4 b53c
00000110: 86a0 223c 947c 6a3e 7396 95bd 9ddd 773b
00000120: 0ec7 36bc 00cf 30bd 3d8e 82bd 0965 a0ba
00000130: d629 37bc 9eb3 35bc fcaa 3d3d 386a 14bd
00000140: 8f22 87bc 5a45 c03c 7ff7 ab3b 4ab9 f4bc
00000150: 7e1c e53c b452 e0bd 6fb1 0a3e f9ea d13d
00000160: d401 473d c8ed 90ba e6ea f33c f42b 25bd
00000170: 3554 843b 03dd 90bc 6f54 aabd b273 e1bb
00000180: 53c3 d33c e8ec 97bc eb82 eabc 4f91 93bd
00000190: 2736 813c cb52 e23c ee8b 22bc ed65 95be
000001a0: 361c 34bc b136 4bbd 2535 4fbd 606f 483d
000001b0: 12b9 013d 5d20 8d3c 7d6d b8bc 03a5 133e
000001c0: b3f8 563d 2bd4 acbd 1377 7f3d c307 dcbc
000001d0: 8043 09bc 84d2 e43c 0b68 183d 9b86 bcba
000001e0: 0ca5 73bd 8b8c f23a d5d1 513d 3af2 14bd
000001f0: 4885 0fbd 578c d93c ba0c febc 00d8 e83b
00000200: aab7 f83b b6e6 76bc c77a d6bd 8dbf 37bc
00000210: 4395 6fbd abbf a0bc 3836 3cbd 8288 48bd
00000220: 0ec3 95bd 9589 94bd c01a 4cbd 3177 4fbd
00000230: 5213 473c 71b0 20bd da05 f13c 1851 123d
00000240: 636b 98bd 1dd1 8cbd dc3b 8e3d a460 46bc
00000250: c5ad a73c 37d6 643c f11b 49bc c7df 70bd
00000260: 21a9 77bc 77c3 303d 764e bf3c 7f5f 0cbe
00000270: 9efe 9b3c e000 95bc ac74 9ebc 908e 043d
00000280: c097 8fbc 8c30 fd3a d994 663e 012c d13d
00000290: 4959 543b 0c2d e53c 7d17 a4bc b3c3 4dbd
000002a0: 4e14 6dbd eb40 4abd b16c 403d 7830 6abe
000002b0: 28ea 413d d919 a4bd ef08 813e 32f8 263d
000002c0: 98dc c4bb 321f 2dbd e413 e03a 931a d0bd
000002d0: dc92 2dbd 2591 fe3c 0119 65bd 3afa 0dbd
000002e0: c631 393b 8c4c cabb e4e4 c1bd 5cd0 27bd
000002f0: 6ec6 5a3d 6b53 363d a7c2 fabd 04b0 643d
00000300: dbc5 a23c 2a61 9abd a37f c9bc 7978 8bbd
00000310: 472d 9b3d a224 523c b189 a9bd 11bd 5b3d
00000320: 0483 a63d b760 6c3b cb55 33bb 8229 1ebd
00000330: 803a 95bd b6e7 5dbd cff2 87bd 39c7 b73c
00000340: eeb7 bd3d 6149 c33c e0ce a03d 90cc 8dbd
00000350: 77dd 87bb 2ae6 973c ba8d 53bc c9bd 0a3d
00000360: 86f0 8fbd c73a 3dbc 42b2 e33c 263b e43b
00000370: 2f39 673e 169c 7ebd 1d7d 7cbd 4077 bd3c
00000380: a3f0 ffbb 5372 693a a54b 3ebd 00af b4bc
00000390: 0afa 19bd d5e7 9b3c 120b 293b d235 5bbd
000003a0: f281 0f3c cb72 86bd 057e c9bc 4348 11bd
000003b0: f6be a33c 36a8 553d f0fb d1bc ee52 bb3c
000003c0: 0f3d 0f3b 6df6 8abb 7a30 c0bc 9516 613c
000003d0: 56d4 053e 0606 b6bc 87ec 52bd 3074 ecbd
000003e0: 2539 8abd 70b4 1e3d 2b75 6b3c d5c7 90bc
000003f0: 45e8 1d3d 6616 003e 3c6d bf3d f4a5 94bd
0.049749818 0.006832916 -0.1406073 -0.04584578 0.01633377 -0.0034982413 -0.05120563 -0.0020849996
0.020477246 0.007213934 0.10242011 -0.021574585 -0.030886874 -0.0139667345 0.022261301 0.021536322
-0.010196578 -0.03765296 0.006476444 0.13257971 0.17675039 0.081456006 0.017424742 -0.08937168
0.01393149 -0.027439175 -0.08479683 -0.017358312 0.006977459 -0.038321637 -0.0057709697 -0.01302966
0.045461502 0.042289436 0.05482406 -0.016837837 -0.011521464 -0.06823465 -0.017562792 0.027462825
-0.03919247 0.01397637 -0.012760784 -0.08934988 -0.06602034 6.098235e-07 0.06560874 -0.002658853
0.032207068 0.052727096 -0.06498552 0.030675644 0.036507763 0.002061235 -0.016937798 -0.02148259
-0.043156516 -0.03266387 -0.01461643 0.038965795 0.055652376 -0.0072597484 0.047246817 -0.046881575
-0.020290347 -0.024384327 -0.108974524 0.022180852 0.009925967 0.22899085 -0.073040865 0.00378213
-0.011155857 -0.04316616 -0.06374786 -0.0012237142 -0.011179408 -0.011090187 0.04630564 -0.03623411
-0.016495971 0.02347057 0.0052480097 -0.029873509 0.027967688 -0.10953274 0.13544248 0.102498956
0.048585728 -0.0011057192 0.029775094 -0.04032512 0.0040383586 -0.017683512 -0.08316886 -0.006880247
0.025849974 -0.018545583 -0.02862688 -0.0720545 0.015772892 0.02762737 -0.009921057 -0.29179326
-0.010993054 -0.049612705 -0.050587792 0.04893434 0.031670637 0.017227346 -0.022513146 0.14418416
0.05248327 -0.08438905 0.062369417 -0.02685917 -0.00837791 0.027932413 0.037208598 -0.0014383377
-0.059483573 0.001850502 0.051225502 -0.036363818 -0.035039216 0.026556177 -0.031011928 0.0071058273
0.007590254 -0.015069654 -0.10472637 -0.011215103 -0.058491956 -0.019622644 -0.045950145 -0.04895831
-0.07312594 -0.07252804 -0.0498302 -0.05065078 0.012150602 -0.039230768 0.029421736 0.03572187
-0.074423574 -0.06875823 0.06945011 -0.012108002 0.020468602 0.013967088 -0.012274728 -0.05880716
-0.015116007 0.04315516 0.023352843 -0.13708304 0.01904231 -0.018188894 -0.019342743 0.03236252
-0.017528415 0.0019316836 0.22517718 0.10213471 0.003240185 0.027975582 -0.020030731 -0.05023546
-0.057880692 -0.049378317 0.046978656 -0.22870052 0.04734245 -0.080127425 0.25202128 0.04076404
-0.006007742 -0.04226608 0.0017095772 -0.10161319 -0.042376384 0.03107507 -0.05593205 -0.034662463
0.0028258427 -0.006173676 -0.094674855 -0.04097019 0.053411894 0.044513147 -0.12244158 0.055831924
0.019869735 -0.07538064 -0.024596995 -0.06810088 0.07576995 0.012826117 -0.08278216 0.053647105
0.08130458 0.0036068389 -0.002736437 -0.038613804 -0.072865486 -0.054176055 -0.06638109 0.022433864
0.092635974 0.0238387 0.07851958 -0.06923783 -0.0041462737 0.018542368 -0.012912208 0.0338724
-0.07028298 -0.011549658 0.02779496 0.006965059 0.22580408 -0.062160574 -0.061642755 0.023128152
-0.0078106686 0.000890528 -0.04645886 -0.022056103 -0.03759197 0.019031445 0.0025793952 -0.053518124
0.008759009 -0.06564864 -0.024596224 -0.035469305 0.019988518 0.05216237 -0.025632828 0.022866692
0.0021856462 -0.004240802 -0.023460615 0.013738294 0.13069281 -0.02221967 -0.0514951 -0.115455985
-0.06749181 0.038746297 0.014371197 -0.017673412 0.038551588 0.12508544 0.09347007 -0.072582155

bn2.weight f4 [300]
00000000: d93d 5a3e 1fde a93e ca81 ad3d 67eb 103f
00000010: b570 863e 019b a33e 8e58 b83e b5a4 f63e
00000020: b560 9fbb 39f3 ce3e 0443 6f3e 2a1c 043e
00000030: a9e7 543f c727 c23e 2780 c53e b5d4 0b3d
00000040: 7e7b ea3e 1e8c 443f 9191 9f3e 3990 df3d
00000050: e07a 303d 333a d13e 6d29 113f 7120 fd3d
00000060: a9a5 c63e cab6 d33d 955a 1b3e 4fec a53d
00000070: 5c43 003f 0282 143e 218c 0c3f 52f6 fa3e
00000080: af01 d03e cab4 153e 1e34 0c3e 0e2e d63e
00000090: 1e1d a93e 8407 ab3e f4bb 873f 420b e43d
000000a0: d11d b73e 5453 fe3e 21b8 5b3e df47 fc3e
000000b0: 24ae bd3d 752e 853e b02e 233e 6d26 993e
000000c0: 3325 863e 528c 523f 4ef2 d73e 0a4d 823c
000000d0: 611b 953e 4a52 2b3e a191 b33e c62d 44bd
000000e0: ddd1 3f3e 04d1 093f 2e1b 7c3f 0962 593e
000000f0: 10df d53e d767 ba3e c8a8 a63e c47f 083e
00000100: 1707 a23e 862a e23e fdd8 993d a781 ac3e
00000110: 7354 1a3f d3c3 bd3d b400 323e 30ec bf3e
00000120: e5b5 053f 71cb c73e 88c5 8a3f 122d 063d
00000130: 2d09 933e 3e73 733e 5f33 0d3e 450a 833e
00000140: 86eb 613e cbe7 9e3e f454 e33e f84b 943f
00000150: b91d 4f3f fd26 cb3e 9096 1c3e a53d 993c
00000160: 5c56 b93d 6a68 b73e 4a17 033f b16c cd3e
00000170: cc81 a73e 7a07 043e 58c8 843e f344 1c3e
00000180: 96c9 293f 681c de3e 856d d53e 4456 ef3d
00000190: 544c 113f c3c4 ac3e fe4f af3e d923 bc3d
000001a0: c200 393e 1042 ce3e 95cb 443e 0d6e e13d
000001b0: 6301 793e c3f0 083f 27a8 183f 5301 91bd
000001c0: 67b9 aa3d 6dea 1a3f fba8 66b9 239f 913e
000001d0: a3ac 993e 9ac5 253e 3ce1 3f3f 3270 f13e
000001e0: 7863 bc3e 15da 503e 3e53 823e 4d10 c33e
000001f0: 4312 df3e 0f40 a13e d332 de3e 4f6e d73e
00000200: 89f6 5d3d 8d54 133f e899 453e 2b0b aa3e
00000210: a136 173e 0ccc 953e 9d93 273e 9cff 9a3e
00000220: 021d 623f 8052 c23a e7eb 023f 2c37 493e
00000230: 6621 3c3e 5c35 143e 6235 c03e 643f ad3e
00000240: bf5b 813e bbe7 e33e e3d9 563f b4a6 803e
00000250: e3a8 233e 6be3 da3e afc3 013f b6cf b53d
00000260: 7b83 873e cc8e c83e f779 c33d 47ac 253e
00000270: 6cb1 cb3e 9869 4d3e b925 1f3f 047a b03e
00000280: 90c7 093e a4ed ad3e 93b6 0f3e e75a d33c
00000290: c6e8 fc3e 787c cf3e dd3a 173e 1144 ea3e
000002a0: f2e0 713e caff 613d 1236 d23e a8a6 8c3d
000002b0: a431 0f3f 67ab 453e 53b5 c33d 136d 833f
000002c0: 5f39 0d3f 2742 123f 317b 303e 9760 2d3e
000002d0: 4c3f 313f f438 993e d6b0 7f3f 9548 963e
000002e0: 3fea e53e 3225 0f3f 6930 5b3e bba0 443f
000002f0: 3467 d13e 3565 143e 77cc 463e 0e1c 603e
00000300: 1861 8c3e 2547 283e 1897 8a3e e675 923e
00000310: 57c9 1f3e 43ad b63e 8725 803c 5bbf 5e3e
00000320: 6649 973d adfa 8e3d 9280 aa3e dee2 593e
00000330: b03e 0e3f a841 b83e 4796 843e bcf5 7a3e
00000340: 647b d63d b53f ac3e 82e7 9c3e 1f20 e23e
00000350: bb51 fb3c 13f5 e73d b58b ec3e ed24 023e
00000360: 4701 383e c843 0a3d 8ef6 d53e b7b3 da3e
00000370: 8917 df3d e6dc 9e3e 57e7 ce3e 4a32 d33d
00000380: ed23 ab3e 3c57 8c3e e0d2 6f3e bf0e ce3d
00000390: 1a47 503e b139 913e a8e2 393e 6884 b03e
000003a0: f7bf c53e 72c4 9e3e dda1 993f a2b4 6b3e
000003b0: f05b cf3e 5e22 8f3e 760b 963e 1493 5a3e
000003c0: 22d0 8f3e 386b 2c3d 0971 b93e 0699 f83e
000003d0: 04d3 f33d 55c9 9c3d bd76 703e 4926 9cb8
000003e0: 35d1 b03e d2f6 a33e 89de 173e 856a 023f
000003f0: 3a63 933d 7c0d 04ba 5be4 b23c cb04 a43d
0.21312656 0.33177277 0.08472021 0.56609195 0.26257864 0.31954196 0.36005062 0.48172536
-0.0048638233 0.4041994 0.23365408 0.12901369 0.83165985 0.37920973 0.38574335 0.0341384
0.45797342 0.767763 0.31165746 0.1091618 0.043085933 0.40864715 0.56703836 0.12359703
0.38798264 0.103375986 0.15171273 0.08101713 0.5010278 0.14502719 0.5490132 0.49016052
0.40626284 0.14619747 0.13691756 0.41832012 0.33030027 0.3340417 1.0604234 0.1113496
0.35764936 0.4967295 0.21456958 0.49273583 0.0926173 0.26012006 0.15935779 0.2991213
0.26200256 0.8224536 0.4217705 0.015905876 0.2912245 0.1673061 0.35072044 -0.047895215
0.187324 0.5383456 0.9847897 0.21228804 0.41771746 0.3640735 0.32550645 0.13329989
0.31646034 0.44173068 0.0751209 0.33692667 0.6028511 0.09265866 0.1738308 0.37484884
0.52230674 0.390224 1.0841532 0.032757826 0.28717938 0.2377443 0.13789128 0.25593773
0.22062501 0.3103622 0.44400752 1.1585684 0.8090473 0.39678183 0.1529181 0.018706152
0.09049675 0.3582185 0.5120741 0.40121987 0.32716215 0.12893477 0.259341 0.15260677
0.6632322 0.43381047 0.4168512 0.11686376 0.5675709 0.33743867 0.34240717 0.09186525
0.18066695 0.40284777 0.19218285 0.11007319 0.24316935 0.53492373 0.5963158 -0.07080331
0.08336144 0.60513955 -0.0002199746 0.28441724 0.30014524 0.1618866 0.74953055 0.4715591
0.3679464 0.20395692 0.25454134 0.38098374 0.4356862 0.31494185 0.4339815 0.42076346
0.054190192 0.5755089 0.19296992 0.33211645 0.14766933 0.29257238 0.16364904 0.3027314
0.8832551 0.0014825612 0.5114121 0.19649953 0.18372115 0.1447348 0.37540728 0.33837426
0.2526531 0.44512734 0.8392622 0.25127184 0.15982394 0.4275163 0.50689214 0.08877508
0.264675 0.39171445 0.09544747 0.16179 0.397838 0.20059812 0.62166935 0.3446809
0.13455033 0.33970368 0.1403449 0.025800182 0.49396342 0.4052465 0.14768548 0.45755056
0.23620966 0.05517558 0.41056877 0.06867725 0.5593512 0.19303666 0.09556069 1.0267662
0.55165666 0.5713219 0.17234494 0.16931377 0.6923721 0.29926264 0.99879205 0.2935225
0.44905278 0.5591613 0.21405186 0.76807755 0.4089905 0.14491732 0.19413935 0.21885702
0.27417827 0.1643339 0.270684 0.28605574 0.15604149 0.35679063 0.015642894 0.21752684
0.073870465 0.06981406 0.33301216 0.21277949 0.55564404 0.35987592 0.25895903 0.24507803
0.10472754 0.33642355 0.30645376 0.4416513 0.03067862 0.11326041 0.46200338 0.12709399
0.17969237 0.033756047 0.4178967 0.42715237 0.10893161 0.31027907 0.40410873 0.10312326
0.33425847 0.27410305 0.23420286 0.10061406 0.20339623 0.28364328 0.18152869 0.34476018
0.3862302 0.3100925 1.2002522 0.23018125 0.4049983 0.27955908 0.2930562 0.21345168
0.2808848 0.04209444 0.3621905 0.48554248 0.119054824 0.076555885 0.23482795 -7.445791e-05
0.34534612 0.32024246 0.14830984 0.50943786 0.0719666 -0.000503741 0.021837404 0.08008727

bn2.bias f4 [300]
00000000: dbe8 dabd 97bb 7ebd a5b8 4c3e f48f 1f3d
00000010: 8d24 e33d 5701 d33c a925 abbd 7e56 e6bb
00000020: 62fb 94bb a211 0a3e b351 87be c21d b13c
00000030: eec8 5dbd a7c8 9b3d e01f 99bd f877 fdbb
00000040: c01e 82be ce10 2d3e 8f0a 2a3e bdb9 4abe
00000050: 1c8c 0bbe 8faf e3be 4163 093e 9968 3e3e
00000060: 6efb 27be caa7 d33d 643e 8e3e ae7b 703d
00000070: b45f 78bd cba4 d33d 18da 46be 3382 ad3d
00000080: 6308 3cbe 5cdd 40be cb2f 1d3d bf31 35be
00000090: 6afe 943e 41fe 593e 4988 8fbd 31bd 05bc
000000a0: f972 373d 6461 7d3e 86dc 053e d935 4b3e
000000b0: 58dd b43d 4da8 473e 8494 82bd 8781 3f3d
000000c0: 42d3 82bd bbbe f9bd ea0e 583e b2f2 bfbb
000000d0: 8116 b03b 332d e3bc 172d 5d3e 3edf f93c
000000e0: c0f1 0e3e f14e 543e 4d18 963d 2003 463e
000000f0: dd0a c0be 57ca 04be 35b8 4dbe 617a b53d
00000100: e1fb 783c b5e7 1d3c 2e21 f83d 911e dcbd
00000110: 6678 65be 2f22 acbe 3974 683e 6075 1b3e
00000120: 75aa 18be 95e3 dd3c ecae c33d da1a dcb9
00000130: 1b4c 1d3e 4eba 4a3e 8c85 fa3c b597 1c3b
00000140: e656 133e 4e59 193d a3a4 04be 6f74 b4bd
00000150: 0de4 963d 1042 a23e 25ed 89be 3cc1 6dbd
00000160: 1c43 683c 0411 503e cc2d 873d c703 babd
00000170: 2601 4abe 4b66 c53d 063c 0a3e 6ed5 923d
00000180: 0392 c23d cb72 d03d b683 1c3e 5da0 b93d
00000190: c281 8cbd 4c53 b0bd 630e f73d 15e0 963e
000001a0: 5c69 69bd cf6e 90bd 6b0b aebd 6d87 4abe
000001b0: a1ac 34be 6829 14bd 0425 0ebd b20c 44bb
000001c0: 5770 2fbe 43e8 113e ab43 17ba 68d0 0dbe
000001d0: b4d2 dfbd acb6 bdbd fd72 5b3d 1f66 4a3e
000001e0: 81ab b0bd b7dc bd3d e647 243e 9206 533e
000001f0: 24cb eb3d 7609 df3d 0010 7cbc 2cd0 37be
00000200: 861e d8bb a67a 913d 210a a33e 33c2 053c
00000210: 2f73 943d 60e2 973e 0941 60bd 438f 7d3e
00000220: ee6f 0ebd a848 043c c9c2 483e c26f 523e
00000230: c03d 93bc dc94 80bd 5394 d63d b356 6fbd
00000240: 74c3 3f3e 3d4a 22be 5469 8ebc 350f e63d
00000250: 70a2 9dbd 2cbd adbc f486 863d 66b1 1bbc
00000260: b452 9cbd 64eb fd3d 375a ba3c 3420 573e
00000270: f419 323e 6535 dbbd ea9a 39bd 154f 993c
00000280: 085d 4c3d d799 1c3e c740 a0be 797b febc
00000290: 41b9 4a3e 46a1 7b3a 3216 c3bd 3a84 b43d
000002a0: 321a 7dbd c527 8d3d b957 47be 798b 4d3e
000002b0: 80cf b2bd a1f0 fc3b 3f2a 83be 19b8 a73d
000002c0: 3501 3b3e 5ca8 a83d 71b7 73bd 0ac0 b03e
000002d0: e18b e8bc c169 3bbc c772 093e d1c2 3c3e
000002e0: c09d 103d ab69 ba3d e4be 8e3d c225 b33d
000002f0: 90ce de3c 036b 32be b5f3 a93d 1bed 1dbe
00000300: d88e 2b3d e6f7 3e3e c4de 103c 790c 0fbc
00000310: 0a79 5cbe 3dea 2f3e d406 923c 1d4f 40be
00000320: cdc4 2ebd 5203 0bbd fdca 8e3d 0ad4 1ebd
00000330: 20e4 2f3e c9f5 b43d e704 dbbd e295 ab3c
00000340: bf24 1ebe ecdc 2dbe 21e0 1e3e 6979 d63e
00000350: b544 9ebc a1f5 f1bc cb42 b73d 1ef4 f4bd
00000360: 2c6f 96bc 3bb1 b43b 297d 35be caa9 1d3e
00000370: cbe1 c2be 4a25 903e 55cf 79bd 2705 80bd
00000380: 4ea3 a8bc ca96 20bd d1d4 593d a2c5 563c
00000390: 8468 acbc 54bc 67be 8858 4cbe b49b bfbd
000003a0: 65b3 3ebe cb15 15bc 455d de3d 1e63 a8bc
000003b0: ed1f edbd fd58 00be 47cb 3dbd c283 84be
000003c0: 59e8 cdbc 312f d13c 38d8 083e 410f ddbd
000003d0: 3a71 8dbe 3154 5c3c d772 d7bc c411 acb9
000003e0: bf21 45bc e431 60bd b4db c1bd 3dd3 6a3b
000003f0: 5a32 d8bd 1231 f43a 8e3f cbbb 8062 033e
-0.10688945 -0.06219062 0.19992311 0.038955644 0.11090956 0.025757475 -0.083567925 -0.0070293536
-0.0045465687 0.13483289 -0.2642952 0.021620635 -0.0541467 0.07606631 -0.07476783 -0.0077352487
-0.25414085 0.16900942 0.1660559 -0.19797416 -0.13627666 -0.44469878 0.13416769 0.18594588
-0.16404507 0.103347376 0.27781975 0.0587117 -0.060638145 0.10334166 -0.19419134 0.08472099
-0.18362574 -0.18834442 0.038375657 -0.17694758 0.29100353 0.21288396 -0.07008416 -0.0081627825
0.04478738 0.24744183 0.13072404 0.1984476 0.088312805 0.19497795 -0.06375983 0.046754386
-0.063879505 -0.12194582 0.2109944 -0.005857789 0.0053737764 -0.027731514 0.21599232 0.030501958
0.13959408 0.20733239 0.07328854 0.1933713 -0.37508288 -0.12967812 -0.200898 0.088612325
0.015196771 0.009637763 0.121157035 -0.107480176 -0.2240921 -0.3361983 0.22700585 0.15181494
-0.14908774 0.027086059 0.09554848 -0.00041981676 0.15361063 0.19797632 0.030581258 0.0023894135
0.14388618 0.037438683 -0.12953429 -0.088112704 0.07367716 0.31691027 -0.2693874 -0.05804561
0.014176156 0.20318991 0.06600532 -0.09082752 -0.19727 0.096386515 0.1349946 0.07169615
0.09500506 0.10178145 0.15284619 0.0906379 -0.06860687 -0.086096376 0.12063291 0.29467836
-0.056985244 -0.07052385 -0.084982716 -0.19778223 -0.17643978 -0.0361723 -0.03470327 -0.0029914794
-0.17132698 0.14248757 -0.0005770276 -0.13849032 -0.1092886 -0.092633575 0.05357646 0.19765519
-0.08626462 0.09270614 0.16043052 0.20607975 0.115133554 0.108904764 -0.015384674 -0.17950505
-0.0065954356 0.071034715 0.31843665 0.0081639765 0.07248532 0.29664898 -0.054749522 0.24761681
-0.034774713 0.008073963 0.19605555 0.20550445 -0.01797378 -0.06278393 0.10477509 -0.058432292
0.18726903 -0.15848632 -0.017384209 0.11233369 -0.07696998 -0.021208368 0.06568709 -0.009502744
-0.07632962 0.12398413 0.022748096 0.21008378 0.17392713 -0.107035436 -0.045313753 0.018714467
0.04989341 0.1529306 -0.3129942 -0.031064736 0.19797231 0.0009598922 -0.09525718 0.08814283
-0.06179256 0.06892351 -0.19467057 0.20072736 -0.08730984 0.007719115 -0.2561817 0.08189411
0.18262179 0.08235237 -0.059501115 0.34521514 -0.028387012 -0.011438788 0.1342269 0.18433692
0.035306692 0.09102186 0.06970003 0.08747436 0.027198106 -0.17423634 0.082984366 -0.1542248
0.041884273 0.18649253 0.008842174 -0.008731001 -0.21530548 0.17179199 0.017825522 -0.1878018
-0.042668153 -0.033938713 0.06972311 -0.038776435 0.17176867 0.08835942 -0.106942944 0.020945493
-0.15443705 -0.16978806 0.15515186 0.41889504 -0.019319871 -0.02953607 0.089482866 -0.11960624
-0.018363558 0.0055142916 -0.17723526 0.153968 -0.3806289 0.2815345 -0.060988743 -0.06250983
-0.020585682 -0.039206304 0.053181473 0.013108643 -0.02104593 -0.22630435 -0.19955647 -0.0935587
-0.18623121 -0.009099434 0.108576335 -0.020555075 -0.11578355 -0.12533946 -0.04633644 -0.25881773
-0.025135206 0.025535198 0.13363731 -0.10793925 -0.27625448 0.013447807 -0.026299877 -0.00032819633
-0.0120319715 -0.05473508 -0.09465733 0.0035831474 -0.10556479 0.0018630347 -0.0062026447 0.12830544
