Zadanie3/srcV2/models/VEP_threshold_100/target_actor_network.pth (torch, 507007 bytes, 10 tensors)

fc1.weight f4 [400, 8]
0	0xbe2bf362	-0.16792062
1	0x3ed7fd51	0.42185453
2	0xbe346fd2	-0.17620781
3	0xbe8d6ada	-0.27620584
4	0x3e3b7f50	0.18310285
5	0x3dfe9d88	0.124323905
6	0x3dfedd7d	0.12444589
7	0x3e452121	0.19250919
8	0xbe4e4d9a	-0.2014679
9	0x3ecabfb4	0.39599383
10	0xbe770e30	-0.24126506
11	0xbec45228	-0.3834393
12	0x3e985249	0.2975028
13	0x3eb3c390	0.3511014
14	0x3d6df622	0.05809606
15	0xbe221c4f	-0.15831111
16	0xbe428070	-0.18994308
17	0x3f16a5fe	0.58847034
18	0xbe72701e	-0.23675582
19	0xbf207df9	-0.6269222
20	0x3e238312	0.15967968
21	0x3d283d08	0.04107383
22	0x3e60bb61	0.2194648
23	0x3eb7cb07	0.35897085
24	0xbe0ee129	-0.1395308
25	0x3ec718e8	0.3888619
26	0xbda46b28	-0.08028251
27	0xbe100610	-0.14064813
28	0xbbbfa796	-0.005848835
29	0xbe2a935e	-0.16657779
30	0x3cacf2c7	0.021111859
31	0x3cff96d9	0.03119986
32	0xbe5260d8	-0.20544755
33	0x3eefc93e	0.46833223
34	0xbe3affbb	-0.18261616
35	0xbf210721	-0.629015
36	0xbe1738ef	-0.14767812
37	0x3e4e49de	0.20145366
38	0x3de81c66	0.113335416
39	0x3e8d3c56	0.27585095
40	0xbe39c222	-0.18140462
41	0x3ee3e1f5	0.4450833
42	0xbe521c57	-0.20518623
43	0xbe69d93f	-0.22836779
44	0x3e8bd2fb	0.27309403
45	0x3dc91929	0.09819252
46	0x3e41ca88	0.18924916
47	0x3d5fd827	0.0546495
48	0xbef83e7d	-0.48485175
49	0x3f5c4a65	0.8605102
50	0xbee29a40	-0.44258308
51	0xbf9ce478	-1.2257223
52	0x3f1e2131	0.61769396
53	0x3e92ec8c	0.28696096
54	0x3ec35c60	0.38156414
55	0x3f0d4a27	0.5519127
56	0xbe3debc6	-0.18546972
57	0x3ee1d37f	0.4410667
58	0xbe0a2922	-0.13492253
59	0xbeb8338d	-0.3597683
60	0x3e076ef7	0.13225923
61	0xbd779650	-0.060446084
62	0x3e1a649f	0.15077446
63	0x3e3615d7	0.17781769
64	0xbde52f6d	-0.111906864
65	0x3ec41c4d	0.38302842
66	0xbe429e47	-0.1900569
67	0xbe21059d	-0.15724798
68	0x3e3f891b	0.18704645
69	0x3d9ed8cd	0.07756195
70	0x3e613a36	0.21994862
71	0x3e354b98	0.17704618
72	0xbe3d6428	-0.18495238
73	0x3eb7c503	0.35892496
74	0xbe7e5461	-0.24836875
75	0xbe4db5be	-0.2008886
76	0x3e4a0f41	0.19732381
77	0x3e69bb41	0.22825338
78	0x3dd480f7	0.103761606
79	0x3bfdd767	0.007746625
80	0xbde7de00	-0.1132164
81	0x3eb604d1	0.3555055
82	0x3c3daab9	0.011576348
83	0xbe783299	-0.24238051
84	0xba177383	-0.00057774055
85	0xbe7fe7f5	-0.24990828
86	0x3de258a4	0.11052063
87	0xbd96077b	-0.073256455
88	0xbe13bc62	-0.14427331
89	0x3ebd2c97	0.36948082
90	0xbd2e3606	-0.04253199
91	0xbdd20809	-0.10255439
92	0x3b8747e5	0.0041284435
93	0xbe424cbd	-0.18974586
94	0xbd7b8298	-0.06140384
95	0x3c17920e	0.009251131
96	0xbe82e990	-0.2556882
97	0x3f0f296a	0.5592257
98	0xbe0aef58	-0.13567865
99	0xbf190242	-0.5976907
100	0x3e54c318	0.20777547
101	0x3dc59eac	0.09649405
102	0x3e03070b	0.12795655
103	0x3ecc125a	0.3985775
104	0xbe1066c7	-0.14101706
105	0x3ecb1e5d	0.39671603
106	0xbebc0f59	-0.3673046
107	0x3d8e2726	0.06941061
108	0x3ee396ef	0.4445109
109	0x3e229e7f	0.15880774
110	0xbd504eab	-0.050856274
111	0x3de82d6e	0.1133679
112	0xbcaad38a	-0.020852823
113	0x3ebb7486	0.36612338
114	0xbe708bdd	-0.23490854
115	0xbe4a461e	-0.1975331
116	0x3e0af72e	0.13570854
117	0xbd990234	-0.07471123
118	0x3d83d936	0.06437914
119	0x3db47a03	0.088123344
120	0xbe82bff0	-0.25537062
121	0x3f167674	0.58774495
122	0xbe83c951	-0.2573953
123	0xbf23b0fb	-0.63941926
124	0x3e056999	0.13028564
125	0x3dbec94b	0.09315737
126	0x3e4049d1	0.18778159
127	0x3ebcef07	0.36901113
128	0xbe3b342f	-0.18281625
129	0x3eccd543	0.40006456
130	0xbd4e8989	-0.050424132
131	0xbf04657f	-0.5171737
132	0xbce80d6a	-0.028326709
133	0xbcb86bd4	-0.022512354
134	0x3c4e6b4c	0.012598824
135	0x3eb984bb	0.36234078
136	0xbe3f1064	-0.18658596
137	0x3ed2fecc	0.4121002
138	0xbdabb320	-0.08383775
139	0xbec9d87f	-0.39422986
140	0x3c62c7b4	0.013841558
141	0xbd9bd323	-0.076086305
142	0x3d5e55e7	0.05428114
143	0x3dc37dd2	0.09545483
144	0xbe486e81	-0.19573404
145	0x3edc8e20	0.43077183
146	0xbe801f45	-0.25023857
147	0xbe9d1cc1	-0.30686
148	0x3e9ff86c	0.31244218
149	0x3df4bba3	0.11949851
150	0x3d8da630	0.069164634
151	0x3e0df24f	0.13861965
152	0xbe0fc836	-0.14041218
153	0x3ef92d73	0.48667488
154	0xbdf764d7	-0.120797805
155	0xbf0b0768	-0.54308176
156	0x3e28c82b	0.16482608
157	0x3c0860ae	0.0083238315
158	0x3e0aacc6	0.1354247
159	0x3eb70a64	0.35750115
160	0xbe0610fc	-0.13092417
161	0x3edc05bb	0.42973122
162	0xbe45bb14	-0.19309646
163	0xbed5cfd0	-0.4176011
164	0x3e3c5c5b	0.18394606
165	0x3cfcb552	0.030848179
166	0x3d58d54a	0.052937783
167	0x3e943f0f	0.2895436
168	0x3e0a362c	0.13497227
169	0x3e4bd243	0.19904427
170	0x3d9f731e	0.07785629
171	0xbeeea296	-0.46608418
172	0x3d6182c1	0.055056337
173	0xbdc4428d	-0.09583006
174	0xbec8bfc2	-0.392088
175	0xbe5a58ef	-0.21322988
176	0xbea45ab6	-0.32100457
177	0x3f28650d	0.6577919
178	0xbea54a4f	-0.32283255
179	0xbf802c0d	-1.0013443
180	0x3ecd0c70	0.40048552
181	0x3e4ab74e	0.19796488
182	0x3e80c93f	0.2515354
183	0x3ed61529	0.4181302
184	0xbd6a4da0	-0.057202935
185	0x3ecad115	0.39612642
186	0xbdc3914c	-0.095491976
187	0xbed7d76c	-0.4215654
188	0x3cd640b1	0.026153894
189	0xbdb08ffd	-0.086212136
190	0x3dfcaac3	0.12337258
191	0x3e82e7b1	0.25567392
192	0xbe38b228	-0.18036711
193	0x3ec7d426	0.39029044
194	0xbe07fcba	-0.13280001
195	0xbde70d9c	-0.11281893
196	0x3c35a74c	0.01108725
197	0xbe6a668f	-0.22890685
198	0x3cbb4a29	0.02286251
199	0xbc67b177	-0.014141432
200	0xbdfa0160	-0.122072935
201	0x3ee3842f	0.44436786
202	0xbe3e7b8a	-0.18601814
203	0xbed49430	-0.41519308
204	0x3e451238	0.19245231
205	0x3c8a2975	0.016865471
206	0x3db31fb3	0.087462805
207	0x3e934daf	0.28770205
208	0xbd9a8799	-0.075453945
209	0x3eaaf0ef	0.33386943
210	0x3d94f273	0.07272806
211	0xbd018687	-0.031622436
212	0xbd0a0a42	-0.03370119
213	0xbe2170e7	-0.15765725
214	0x3ea799e7	0.32734606
215	0x3d6b7fcc	0.057494923
216	0xbe0f649d	-0.14003225
217	0x3e945a3e	0.289751
218	0xbe06355e	-0.13106295
219	0xbf312845	-0.6920207
220	0xbe0692c5	-0.13141926
221	0x3db10945	0.08644346
222	0xbedffff5	-0.43749967
223	0xbded367b	-0.11582657
224	0xbea36015	-0.31909242
225	0x3f366c52	0.71259034
226	0xbe8f0075	-0.27930036
227	0xbf475150	-0.7785845
228	0x3eb0fd6d	0.3456835
229	0x3e144fa4	0.14483505
230	0x3e8faba2	0.28060633
231	0x3ee8e0d9	0.45484045
232	0xbe866d38	-0.26255202
233	0x3ea76957	0.32697555
234	0xbe3c18af	-0.18368791
235	0xbf006a9b	-0.5016267
236	0x3ecdc969	0.40192726
237	0x3f0bcede	0.5461253
238	0x3e4e5c95	0.20152505
239	0x3df30986	0.11867051
240	0xbdf081d2	-0.11743511
241	0x3e216142	0.15759757
242	0xbe033c83	-0.12816052
243	0xbf1dff39	-0.61717564
244	0x3ec17c80	0.37790298
245	0x3f068ec2	0.5256158
246	0xbdca76e2	-0.09885956
247	0x3e753520	0.23946047
248	0xbe609f42	-0.21935752
249	0x3e8ad59c	0.27116096
250	0xbe180344	-0.14844996
251	0xbf01752c	-0.50569415
252	0x3e2eaae8	0.17057383
253	0x3cf778fa	0.030209053
254	0x3ec72f61	0.38903335
255	0x3db0bf16	0.08630197

fc1.bias f4 [400]
0	0x3ecc10f0	0.39856672
1	0x3eb19946	0.3468725
2	0x3f23da18	0.6400466
3	0x3ec30f70	0.38097715
4	0x3ee6da26	0.4508831
5	0x3ee27f02	0.44237524
6	0x3f55a37a	0.8345257
7	0x3ee496fe	0.44646448
8	0x3ea32320	0.31862736
9	0x3e85fa8f	0.26167724
10	0x3eba4760	0.3638258
11	0x3ec6d71e	0.38835996
12	0x3f1de01b	0.6167008
13	0x3e410f32	0.18853453
14	0x3ea85392	0.3287626
15	0x3f167115	0.587663
16	0x3ed70c4d	0.42001572
17	0x3edd8077	0.43262073
18	0x3ed15037	0.40881512
19	0x3f000c0b	0.50018376
20	0x3effafcf	0.4993882
21	0x3e8830d1	0.26599744
22	0x3f4238be	0.7586783
23	0x3ed45550	0.41471338
24	0x3eae14f3	0.34000358
25	0x3ef7de9a	0.4841202
26	0x3ea77741	0.3270817
27	0x3ea41ff6	0.32055634
28	0x3f40c8f7	0.7530665
29	0x3e86a8cc	0.26300657
30	0x3e8cfe0a	0.27537566
31	0x3eabbd93	0.3354307
32	0x3edeed3d	0.43540373
33	0x3ef6fac5	0.48238197
34	0x3ec241ae	0.37940735
35	0x3ee8167e	0.4532966
36	0x3f0c5e39	0.5483127
37	0x3ecc83d7	0.39944336
38	0x3f054d1f	0.520708
39	0x3f1c56a3	0.610697
40	0x3e96bab9	0.29439333
41	0x3efb11c3	0.4903699
42	0x3ee703fb	0.45120224
43	0x3e8fefaa	0.28112537
44	0x3f058c49	0.52167183
45	0x3eab1d3a	0.33420736
46	0x3ea905cb	0.33012232
47	0x3f02f2d6	0.5115179
48	0x3ee2f9cf	0.44331214
49	0x3f04a62f	0.51816076
50	0x3eb6851d	0.35648432
51	0x3f05b64e	0.522313
52	0x3ebc0259	0.3672054
53	0x3e9efcb6	0.31052178
54	0x3e62654c	0.22108954
55	0x3ea7b47e	0.32754892
56	0x3ef52e8e	0.4788708
57	0x3ed98b34	0.42489016
58	0x3f0bd721	0.54625136
59	0x3e989538	0.29801345
60	0x3e9cc53f	0.30619237
61	0x3eb3c5c0	0.3511181
62	0x3ebf408b	0.3735393
63	0x3f2be90a	0.67152464
64	0x3eef857c	0.46781528
65	0x3e7b8c73	0.24565296
66	0x3edf821f	0.43653962
67	0x3f00d277	0.50321144
68	0x3e87fed5	0.2656161
69	0x3ebfada8	0.37437177
70	0x3eee3679	0.46525934
71	0x3e609a9c	0.21933979
72	0x3ec2dddf	0.380599
73	0x3ed65291	0.41859868
74	0x3ed8c558	0.4233806
75	0x3e939bf0	0.28829908
76	0x3f0bdce5	0.54633933
77	0x3ef871e5	0.48524395
78	0x3e9ad8f9	0.30243662
79	0x3f6bfc18	0.9218154
80	0x3f89cd54	1.0765786
81	0x3e82a3c8	0.2551558
82	0x3f1b0381	0.6055222
83	0x3f1fdfdb	0.6245095
84	0x3e8076cc	0.25090635
85	0x3ea01b12	0.31270653
86	0x3ec9218e	0.39283413
87	0x3f2868f3	0.6578514
88	0x3ea6ada2	0.32554346
89	0x3e8de95f	0.2771711
90	0x3ed6294e	0.41828388
91	0x3e9cba8d	0.30611077
92	0x3e93f6b5	0.2889916
93	0x3e62783b	0.22116177
94	0x3eed527e	0.46352
95	0x3eece368	0.46267247
96	0x3e8c202d	0.27368298
97	0x3f13a8e6	0.57679594
98	0x3f00c5b9	0.503017
99	0x3e9a9d7d	0.3019828
100	0x3ec2a5bd	0.38017073
101	0x3ece0927	0.40241358
102	0x3f06f0d5	0.5271123
103	0x3ec8d4b5	0.39224783
104	0x3eac33d7	0.336333
105	0x3ed06cdc	0.40708053
106	0x3ea62b6c	0.32455003
107	0x3e8a00d2	0.2695375
108	0x3ebcbbc9	0.3686202
109	0x3f0a5759	0.5403953
110	0x3e8f746a	0.28018504
111	0x3ee73d08	0.4516375
112	0x3ef35cad	0.47531644
113	0x3eaef4b1	0.3417106
114	0x3ec549db	0.3853291
115	0x3e1ad9cc	0.15122145
116	0x3f0184aa	0.50593054
117	0x3ea7b4d1	0.3275514
118	0x3e9a2193	0.3010374
119	0x3f0a2fc1	0.53979117
120	0x3f0292e4	0.5100539
121	0x3ecdb9cd	0.40180817
122	0x3eda7ef7	0.4267499
123	0x3ec0580b	0.3756717
124	0x3ea35407	0.31900045
125	0x3ec82266	0.39088744
126	0x3ed9b3c7	0.42519972
127	0x3ea76e1e	0.327012
128	0x3ec2e7b7	0.3806741
129	0x3ec302ca	0.38088065
130	0x3eb7b0d2	0.3587709
131	0x3eda546b	0.4264253
132	0x3ea47c0d	0.32125893
133	0x3eea5657	0.45768997
134	0x3e795c75	0.24351676
135	0x3e6b5be2	0.2298427
136	0x3e947e60	0.29002666
137	0x3ef341d2	0.47511154
138	0x3ea7d33c	0.32778347
139	0x3e836fe6	0.2567131
140	0x3e2118e4	0.15732151
141	0x3ea40801	0.32037356
142	0x3ea82124	0.32837784
143	0x3e685fb1	0.22692753
144	0x3e6e01cf	0.23242877
145	0x3f3f6ea7	0.7477822
146	0x3ee90191	0.45509008
147	0x3ed360fc	0.4128493
148	0x3ebd5135	0.3697602
149	0x3e85c7da	0.26129037
150	0x3ec3796c	0.38178575
151	0x3e801ec4	0.25023472
152	0x3ed1b171	0.4095569
153	0x3ea74bfc	0.3267516
154	0x3ea5b5db	0.32365307
155	0xbc922a56	-0.017842453
156	0x3e9f87a8	0.31158185
157	0x3f33a2af	0.7017011
158	0x3e6f9669	0.2339722
159	0x3f060229	0.52347046
160	0x3eaef449	0.3417075
161	0x3ef672c7	0.48134443
162	0x3eea1f68	0.45727086
163	0x3eccad53	0.39975986
164	0x3f168dca	0.588101
165	0x3e8cacdb	0.27475628
166	0x3eb8febf	0.36131856
167	0x3ee11ec3	0.43968782
168	0x3f1004fe	0.5625762
169	0x3e7bc417	0.24586521
170	0x3f4c0bc8	0.79705477
171	0x3e80dc37	0.2516801
172	0x3ee773d6	0.45205563
173	0x3ef1b7d5	0.47210565
174	0x3ec63e7b	0.38719544
175	0x3e5148e4	0.20437962
176	0x3e7b325f	0.24530934
177	0x3e8d8dc6	0.27647227
178	0x3ee5f843	0.4491597
179	0x3e90e14e	0.28296894
180	0x3edc7dce	0.4306473
181	0x3e8f96ae	0.28044647
182	0x3eba18a7	0.36346933
183	0x3f0195af	0.50619024
184	0x3ed161f2	0.4089504
185	0x3e698025	0.2280279
186	0x3edd84d5	0.43265405
187	0x3e653d98	0.22386777
188	0x3ecf41fb	0.40480027
189	0x3f2a72f4	0.66581655
190	0x3e329a6d	0.17441721
191	0x3f0f0db7	0.558803
192	0x3ee904f2	0.45511585
193	0x3e981b42	0.29708296
194	0x3ee1aee2	0.44078737
195	0x3ebeaa88	0.3723948
196	0x3ea85f27	0.32885095
197	0x3da46543	0.08027127
198	0x3e9073c8	0.28213334
199	0x3ee74501	0.45169833
200	0x3ef4a75e	0.4778394
201	0x3ead21d4	0.3381487
202	0x3ea65232	0.32484585
203	0x3ee1ddda	0.44114572
204	0x3ec18c92	0.3780256
205	0xbdefbd81	-0.11706067
206	0x3f120a86	0.5704731
207	0x3ef9e7fd	0.48809806
208	0x3eb2dda8	0.34934735
209	0x3ee2b9a4	0.44282258
210	0x3f0cbd86	0.5497669
211	0x3ed95b70	0.42452574
212	0x3ed4071a	0.41411668
213	0x3ebecfef	0.37268016
214	0x3e9b7710	0.30364275
215	0x3f0f82cd	0.5605896
216	0x3e46edae	0.19426605
217	0x3e979434	0.29605258
218	0x3eae6b6e	0.34066337
219	0x3f03d2d3	0.5149357
220	0x3ef0dacb	0.47041926
221	0x3ef608a3	0.48053464
222	0x3e7ca35d	0.24671693
223	0x3e898b67	0.26864168
224	0x3dc2ab67	0.09505349
225	0x3e50f49e	0.20405814
226	0x3ec9461c	0.39311302
227	0x3ed05ebc	0.40697277
228	0x3ea13b3f	0.31490514
229	0x3ec45d9e	0.38352674
230	0x3e94b74c	0.29046094
231	0x3f01e1a3	0.5073492
232	0x3e94efe9	0.29089287
233	0x3ea01fc9	0.3127425
234	0x3eb2225d	0.34791842
235	0x3ea2d541	0.31803325
236	0x3eb84c73	0.35995826
237	0x3e9ea2a9	0.30983475
238	0x3ea26b6f	0.3172259
239	0x3e918352	0.28420502
240	0x3f108ca0	0.56464577
241	0x3ea22e16	0.31675786
242	0x3e9386a3	0.28813657
243	0x3ee5e5ac	0.44901788
244	0x3ebb15cf	0.36540076
245	0x3ee9b6ca	0.4564727
246	0x3ee14150	0.43995142
247	0x3f0fda33	0.5619232
248	0x3ecb2a82	0.39680868
249	0x3ec247fe	0.3794555
250	0x3eaba7f5	0.3352658
251	0x3ec0bb45	0.37642875
252	0x3f2210dc	0.63306975
253	0x3e9922cd	0.29909363
254	0x3eea84ed	0.4580454
255	0x3e884dec	0.2662195

bn1.weight f4 [400]
0	0x3f812710	1.0090046
1	0x3fa04936	1.2522342
2	0x3ed50ae8	0.41609883
3	0x3f90dc91	1.1317312
4	0x3f0d4ba5	0.5519355
5	0x3f78caa3	0.971842
6	0x3e720a38	0.2363671
7	0x3f3ebcef	0.7450704
8	0x3fb2fc9e	1.3983343
9	0x3fad7520	1.3551369
10	0x3f8cea1e	1.1008947
11	0x3f99658e	1.1984117
12	0x3ef61863	0.4806548
13	0x40044c65	2.0671628
14	0x3fa6f66e	1.3043954
15	0x3ed7489b	0.4204758
16	0x3f417588	0.75569963
17	0x3f58f312	0.84745896
18	0x3f6cd9b5	0.92519695
19	0x3f0b08ba	0.5431019
20	0x3f321728	0.69566584
21	0x3fb28922	1.39481
22	0x3ea728a0	0.32648182
23	0x3f490ccf	0.7853517
24	0x3fa641f0	1.2988873
25	0x3f30b2ee	0.69023025
26	0x3fad5be7	1.3543671
27	0x3fd520f0	1.6650677
28	0x3ea24395	0.31692186
29	0x3fc376f5	1.5270678
30	0x3fc3dba8	1.5301409
31	0x3f9b235c	1.2120166
32	0x3f2d791b	0.6776292
33	0x3f18463a	0.5948216
34	0x3f5102de	0.81645
35	0x3f401c8b	0.75043553
36	0x3f0ee3de	0.5581645
37	0x3f4bd83b	0.79626817
38	0x3f02c7db	0.51086205
39	0x3edd0601	0.43168643
40	0x3fa8e393	1.319445
41	0x3f3424a4	0.7036841
42	0x3f26cd8b	0.65157384
43	0x3fb877f6	1.4411609
44	0x3f0a69c9	0.54067665
45	0x3f9a4084	1.2050939
46	0x3fb83a0d	1.4392716
47	0x3f3be866	0.73401487
48	0x3f28be5f	0.65915483
49	0x3f1b8e0f	0.6076364
50	0x3f796aa3	0.9742834
51	0x3f14ad34	0.58076787
52	0x3f94e90e	1.1633623
53	0x3fbb0635	1.4611269
54	0x3fd0b794	1.6306024
55	0x3f93233b	1.1495126
56	0x3f2cd4bb	0.675121
57	0x3f58505c	0.8449762
58	0x3f3717d8	0.7152076
59	0x3fa241f1	1.2676374
60	0x3fb04f81	1.3774263
61	0x3f62bf0d	0.8857277
62	0x3f9654ab	1.1744589
63	0x3ee120d5	0.4397036
64	0x3f11a735	0.5689576
65	0x3fc6a75a	1.5519822
66	0x3f33a4c0	0.70173264
67	0x3f32cf1a	0.6984726
68	0x3fb2ec1b	1.3978304
69	0x3f93214c	1.1494536
70	0x3f27ba83	0.6551897
71	0x3fe13576	1.759444
72	0x3f9efeb5	1.242148
73	0x3fab1079	1.3364402
74	0x3f4d3de7	0.8017258
75	0x3f82a56d	1.0206734
76	0x3f0a0d37	0.53926414
77	0x3f4ea40d	0.8071907
78	0x3fab6190	1.3389149
79	0x3e8aa864	0.27081597
80	0x3e0f963c	0.14022154
81	0x3fc3e83f	1.5305251
82	0x3efc999a	0.4933594
83	0x3ee97893	0.45599803
84	0x3fa32ff1	1.2749006
85	0x3fa1e885	1.2649084
86	0x3f735674	0.9505379
87	0x3ed7e11e	0.42163938
88	0x3f9b4b3b	1.2132334
89	0x3f862181	1.0478975
90	0x3f962322	1.1729472
91	0x3fd19f9b	1.6376833
92	0x3f90d86a	1.1316044
93	0x3fe84b51	1.8147985
94	0x3f27a14b	0.6548049
95	0x3f352f80	0.70775604
96	0x3fe4e4c9	1.788232
97	0x3f089c2d	0.53363305
98	0x3f03bd9b	0.5146119
99	0x3fac33ea	1.3453343
100	0x3f8f30f7	1.1186818
101	0x3f93ade4	1.1537442
102	0x3f1f197c	0.6214826
103	0x3f594dec	0.84884524
104	0x3f84eccb	1.0384763
105	0x3f56ffe8	0.8398423
106	0x3fa78e1b	1.3090242
107	0x3fa7e2c7	1.3116082
108	0x3f72c785	0.9483569
109	0x3efd2afd	0.4944686
110	0x3f869afe	1.051605
111	0x3f27d44b	0.6555831
112	0x3f0dd561	0.55403715
113	0x3fb6e266	1.4287841
114	0x3f9e7d9e	1.2382085
115	0x3fdb12be	1.7115095
116	0x3f1d64b9	0.61481816
117	0x3f951363	1.1646541
118	0x3fa2de02	1.2724001
119	0x3f038bba	0.5138508
120	0x3f19934c	0.5999038
121	0x3f4f5e45	0.8100322
122	0x3f3fca8e	0.7491845
123	0x3fb0711c	1.3784518
124	0x3fc98808	1.5744638
125	0x3f5434f7	0.8289332
126	0x3f66f406	0.902161
127	0x3f7c1b1a	0.98478854
128	0x3f904e43	1.1273884
129	0x3f748bf3	0.95526046
130	0x3fa52a32	1.2903502
131	0x3f6cac13	0.92450064
132	0x3fc0da2e	1.5066583
133	0x3f2902a2	0.6601964
134	0x3fc96ab3	1.5735687
135	0x3fc77a7f	1.5584258
136	0x3ff642d1	1.9239141
137	0x3f15657c	0.5835798
138	0x3f905172	1.1274855
139	0x3fd4b776	1.6618488
140	0x3fc6768f	1.5504931
141	0x3f750f6a	0.95726645
142	0x3f81e8b2	1.0149138
143	0x3fb5d601	1.4205934
144	0x3facd118	1.350131
145	0x3ebc79a1	0.36811545
146	0x3f438f3c	0.76390433
147	0x3f2f9f67	0.68602604
148	0x3f88a0af	1.0674037
149	0x3fc13c1d	1.509647
150	0x3f8fd564	1.1236997
151	0x3f9b7c4a	1.2147305
152	0x3f511f4c	0.8168838
153	0x3f989b8a	1.1922467
154	0x3f920ccd	1.1410156
155	0x3fdec45b	1.7403673
156	0x3fb1d4bc	1.3893046
157	0x3e906ccb	0.28208002
158	0x3fbcd15e	1.4751394
159	0x3f1bedc7	0.60909694
160	0x3f9d2304	1.2276311
161	0x3f37a279	0.7173229
162	0x3f332b71	0.6998816
163	0x3f90918a	1.1294415
164	0x3ef24c23	0.47323713
165	0x3ff555de	1.916683
166	0x3f8976c7	1.0739373
167	0x3f403097	0.7507414
168	0x3f185fd1	0.59521204
169	0x3f9f81ef	1.2461528
170	0x3e8b4fdc	0.27209365
171	0x3fe91b04	1.821137
172	0x3f402ff6	0.7507318
173	0x3f2a30c9	0.6648069
174	0x3f960b8f	1.1722277
175	0x3fbb9d9e	1.4657476
176	0x3fdaceea	1.7094395
177	0x3fcbc1fa	1.5918572
178	0x3f2b2bba	0.66863596
179	0x3f83a44f	1.0284518
180	0x3f46038e	0.77349174
181	0x3fcfa013	1.6220726
182	0x3f7c54cf	0.9856691
183	0x3f2bcdea	0.67111075
184	0x3f616602	0.88046277
185	0x3fe8d175	1.8188921
186	0x3f50c33a	0.8154789
187	0x3fcfba07	1.6228646
188	0x3f4fb58e	0.81136405
189	0x3ec7f2cf	0.39052436
190	0x3fd997be	1.6999433
191	0x3eeadb13	0.45870265
192	0x3f43513f	0.76295847
193	0x3fa6b194	1.3022943
194	0x3f553be3	0.83294505
195	0x3f88fddf	1.0702475
196	0x3fcbc37a	1.591903
197	0x40098902	2.1489873
198	0x3fdfb9ba	1.7478554
199	0x3f26b477	0.6511912
200	0x3f1293de	0.5725688
201	0x3fac90e5	1.3481718
202	0x3f9820a0	1.1884956
203	0x3f2cabe2	0.6744977
204	0x3f9b9c62	1.2157099
205	0x4027bd5e	2.620933
206	0x3f14e412	0.5816051
207	0x3f2a5771	0.66539675
208	0x3f6b1cac	0.91840625
209	0x3f764402	0.9619752
210	0x3f02d44f	0.5110521
211	0x3f86362a	1.048528
212	0x3f61bff7	0.8818354
213	0x3f66ac2a	0.9010645
214	0x3fc9b7ac	1.5759177
215	0x3ed97fc0	0.42480278
216	0x4004e64e	2.0765567
217	0x3fa7cbfa	1.3109124
218	0x3f9cfe6f	1.2265147
219	0x3f0ff348	0.5623059
220	0x3f3269ef	0.6969289
221	0x3f1b99e6	0.60781705
222	0x3f97a0eb	1.1845983
223	0x3f816f9c	1.0112185
224	0x40042aab	2.0651042
225	0x3fb4f916	1.4138515
226	0x3f76ec97	0.9645476
227	0x3f5353a3	0.82549495
228	0x3fa6b179	1.302291
229	0x3f8e6a91	1.1126271
230	0x3faee10b	1.3662428
231	0x3f32d16b	0.69850796
232	0x3faeb08d	1.3647629
233	0x3fa2a0f9	1.2705375
234	0x3f72a62c	0.9478481
235	0x3fa53f9a	1.2910035
236	0x3f8079be	1.0037153
237	0x3f99de0a	1.2020886
238	0x3fa4a14d	1.2861725
239	0x3fbd2cbf	1.477928
240	0x3efe3b4b	0.49654612
241	0x3f6fd8b1	0.9369002
242	0x3fb4021c	1.4063144
243	0x3f45615b	0.7710168
244	0x3f65343b	0.8953282
245	0x3f43788c	0.76355815
246	0x3f4b3c30	0.79388714
247	0x3f1fdce6	0.6244644
248	0x3f5c90f4	0.8615868
249	0x3f730d0f	0.949418
250	0x3fb6daf5	1.428557
251	0x3f84df88	1.0380716
252	0x3eca6129	0.39527252
253	0x3fdbfde3	1.7186855
254	0x3f21af40	0.63158035
255	0x3feda623	1.8566326

bn1.bias f4 [400]
0	0xbe105d95	-0.14098199
1	0xbe340905	-0.17581566
2	0xbf2f3e8f	-0.6845483
3	0xbe8e043c	-0.27737606
4	0xbf038ccd	-0.5138672
5	0xbe5712e9	-0.21003307
6	0xbf57ac20	-0.84247017
7	0xbeda2711	-0.4260793
8	0xbddab232	-0.10678519
9	0xbdb804be	-0.089852795
10	0xbe42c3ab	-0.19019954
11	0xbe966eaa	-0.29381305
12	0xbf22c883	-0.63587207
13	0xbdc55382	-0.096350685
14	0xbe1dc78d	-0.15408154
15	0xbf32b87f	-0.6981277
16	0xbeced8fe	-0.40399927
17	0xbebdb752	-0.37053925
18	0xbe2d33f0	-0.16914344
19	0xbf133fe8	-0.5751939
20	0xbed696d4	-0.41911948
21	0x3c667ae6	0.014067387
22	0xbf367cf4	-0.71284413
23	0xbed2ebe0	-0.41195583
24	0xbd7bbe11	-0.06146056
25	0xbefad3d9	-0.48989752
26	0xbdd0c80a	-0.101944044
27	0x3e36b9a3	0.17844252
28	0xbf38df8a	-0.72216094
29	0x3d2320fb	0.039826375
30	0x3dbdae1b	0.092617236
31	0xbe14a74e	-0.14516947
32	0xbee67d56	-0.450175
33	0xbefb31c3	-0.49061403
34	0xbeb79df6	-0.35862702
35	0xbec88a7a	-0.3916815
36	0xbf0ebd77	-0.5575785
37	0xbeb8b3c6	-0.36074656
38	0xbf1b9c0e	-0.60784996
39	0xbf1a5861	-0.60291106
40	0xbe044cf0	-0.12919974
41	0xbef08283	-0.46974573
42	0xbedaeadf	-0.42757317
43	0xbdb1132b	-0.08646234
44	0xbf0b43f5	-0.5440057
45	0xbe332c88	-0.17497456
46	0xbe25b982	-0.16184047
47	0xbec3e97c	-0.38264072
48	0xbeff113f	-0.49817845
49	0xbf06e5f8	-0.52694654
50	0xbe979f60	-0.2961378
51	0xbf12df48	-0.5737195
52	0xbe21c02a	-0.15795961
53	0x3d57c783	0.052680504
54	0x3d9bf615	0.07615296
55	0xbe28e105	-0.16492088
56	0xbf00ae53	-0.50266
57	0xbeb47dc6	-0.35252208
58	0xbec1e330	-0.37868643
59	0xbe1e6c79	-0.15471067
60	0x3d53ba2f	0.05169123
61	0xbe99703d	-0.29968444
62	0xbd529d93	-0.051419806
63	0xbf26c9a9	-0.6515146
64	0xbf0edb77	-0.55803627
65	0x38cc77c6	9.7497876e-05
66	0xbec78842	-0.38971144
67	0xbed5c990	-0.41755342
68	0xbd3b378f	-0.04570728
69	0xbe8c2ee8	-0.27379537
70	0xbeea9776	-0.4581868
71	0xbde4d2c6	-0.11173014
72	0xbe21ecb6	-0.15812954
73	0xbe1a2b38	-0.15055549
74	0xbee4fcfa	-0.44724256
75	0xbde87d14	-0.11351982
76	0xbf253852	-0.6453906
77	0xbeb410f0	-0.35169172
78	0xbda97d43	-0.08275845
79	0xbf47296b	-0.77797574
80	0xbf634293	-0.8877346
81	0xbd0a9c02	-0.033840187
82	0xbf198380	-0.5996628
83	0xbf21bcba	-0.631786
84	0xbe0ca199	-0.1373352
85	0xbe546725	-0.20742472
86	0xbe35ad0c	-0.17741793
87	0xbf252488	-0.6450887
88	0xbe41f3c1	-0.18940641
89	0x3da451a5	0.08023385
90	0xbe2343ac	-0.15943784
91	0x3bbd5314	0.005777726
92	0xbe5e6e8b	-0.21721856
93	0xbb49055c	-0.003067336
94	0xbef3f6a3	-0.47649106
95	0xbec45870	-0.38348722
96	0x3db3a84e	0.08772336
97	0xbf0b27d3	-0.5435764
98	0xbf2773e4	-0.6541121
99	0xbdd16fef	-0.10226428
100	0xbe5da8ac	-0.21646374
101	0xbe9f5e2a	-0.3112653
102	0xbefc82aa	-0.4931844
103	0xbe96295c	-0.2932843
104	0xbe21fd05	-0.15819176
105	0xbe979b58	-0.29610705
106	0xbd9c9c79	-0.07647032
107	0x3c88ca18	0.016697928
108	0xbe5b8da2	-0.21440747
109	0xbf15156c	-0.5823581
110	0xbe7aab2d	-0.24479361
111	0xbeeefc87	-0.46677038
112	0xbf09e112	-0.53859055
113	0xbd2c6249	-0.04208592
114	0xbe922e1f	-0.28550813
115	0x3e02ae48	0.12761796
116	0xbef8489c	-0.48492897
117	0xbda354af	-0.079751365
118	0xbd3317ae	-0.043723755
119	0xbf12338d	-0.5710991
120	0xbf0b74df	-0.54475206
121	0xbebc6d7a	-0.36802274
122	0xbeaa0a76	-0.33211106
123	0xbc0709e3	-0.008242103
124	0xbdea82d9	-0.114507385
125	0xbec45f55	-0.38353983
126	0xbe867a50	-0.26265192
127	0xbe986985	-0.29768005
128	0xbeaa6dc7	-0.33286878
129	0xbe6f659c	-0.23378605
130	0xbd95202f	-0.07281529
131	0xbebf8956	-0.37409467
132	0x3c0f6513	0.008752125
133	0xbedc12e4	-0.42983162
134	0x3d6caac5	0.057780046
135	0xbcf91ab0	-0.030408233
136	0x3c8b03e5	0.01696963
137	0xbf12c02c	-0.5732448
138	0xbdb9c3ec	-0.09070572
139	0x3ddcde3d	0.10784576
140	0xbdd838fd	-0.10557745
141	0xbe794a5b	-0.2434477
142	0xbe8adf9c	-0.27123725
143	0xbe469b18	-0.19395101
144	0xbddaef40	-0.106901646
145	0xbf34a9ea	-0.7057177
146	0xbed1cfaf	-0.40978763
147	0xbf0051fa	-0.50125086
148	0xbe331d2b	-0.17491595
149	0xbd6401cc	-0.055665776
150	0xbe71288a	-0.2355062
151	0xbe0d8eeb	-0.1382405
152	0xbebd7451	-0.37002805
153	0xbe4c24c6	-0.19935903
154	0xbd76c9a8	-0.060250908
155	0x3d5f0e60	0.05445707
156	0xbdc04b42	-0.09389354
157	0xbf41848b	-0.7559287
158	0x3d9d5511	0.07682241
159	0xbefdaf1b	-0.49547657
160	0xbe2d6987	-0.16934787
161	0xbee7809f	-0.45215318
162	0xbee04009	-0.43798855
163	0xbe868c69	-0.26279
164	0xbf154ca9	-0.583201
165	0x3e455655	0.19271214
166	0xbde81519	-0.11332149
167	0xbec8a588	-0.3918879
168	0xbf09b4c9	-0.5379148
169	0xbe18d1ad	-0.14923735
170	0xbf4cdcc6	-0.80024374
171	0xbb9b13b5	-0.004732574
172	0xbecda20e	-0.401627
173	0xbed54c66	-0.4165985
174	0xbeb22ebe	-0.34801286
175	0x3db67748	0.0890947
176	0xbe0669a3	-0.13126235
177	0xbc65246e	-0.013985736
178	0xbedea581	-0.43485644
179	0xbe3e0c97	-0.1855949
180	0xbea4bd9e	-0.32175916
181	0xbcb07647	-0.021540774
182	0xbe81afd8	-0.2532947
183	0xbee1c202	-0.4409333
184	0xbe704567	-0.23463975
185	0xbbb86f3e	-0.0056284955
186	0xbec99cea	-0.39377528
187	0xbd96e7a0	-0.07368398
188	0xbec20af9	-0.37898996
189	0xbf3c3c66	-0.7352966
190	0x3da9da1f	0.082935564
191	0xbf1fd40c	-0.6243293
192	0xbee59f97	-0.4484832
193	0xbe85b7fb	-0.26116928
194	0xbed39ee0	-0.4133215
195	0xbe92dccf	-0.2868409
196	0xbe0b029e	-0.13575217
197	0x3edc8fb5	0.4307839
198	0xbd10a95c	-0.035317764
199	0xbef89344	-0.48549855
200	0xbf073744	-0.52818704
201	0xbdbe971f	-0.09306168
202	0xbdb65415	-0.08902756
203	0xbee29e36	-0.4426133
204	0xbe1aee99	-0.1513008
205	0x3ef9d085	0.487919
206	0xbefd1559	-0.4943035
207	0xbee1e61e	-0.44120878
208	0xbeadf96d	-0.3397936
209	0xbe91e38d	-0.2849392
210	0xbf14727c	-0.5798719
211	0xbea810db	-0.3282536
212	0xbea982c1	-0.3310757
213	0xbe68c816	-0.22732577
214	0x3b59ff80	0.0033263862
215	0xbf37047e	-0.7149123
216	0x3d07b48d	0.03313117
217	0xbd1549ac	-0.036447212
218	0xbe26dc5f	-0.16295002
219	0xbf1f0cbc	-0.62128806
220	0xbedde2dc	-0.43337142
221	0xbf0bea5b	-0.54654473
222	0xbe285726	-0.16439494
223	0xbe7202ca	-0.23633876
224	0x3d997d10	0.07494557
225	0xbd9c3c89	-0.07628734
226	0xbe65cf25	-0.224423
227	0xbeb0d301	-0.34535983
228	0xbe1be7df	-0.1522517
229	0xbe2a8878	-0.16653621
230	0xbc257b4a	-0.010100195
231	0xbee228c4	-0.44171727
232	0xbc6e698a	-0.01455153
233	0x3c85821d	0.016297394
234	0xbdec4eba	-0.115384534
235	0xbe46c2ab	-0.19410197
236	0xbe90b06c	-0.282596
237	0xbdfa8f5c	-0.12234375
238	0xbe66654b	-0.22499578
239	0x3d9b776b	0.075911365
240	0xbf1886c0	-0.5958061
241	0xbe882d02	-0.26596838
242	0xbe41d673	-0.18929462
243	0xbece7883	-0.40326318
244	0xbeb4eade	-0.3533544
245	0xbef727e3	-0.4827262
246	0xbec68af8	-0.387779
247	0xbef73f7b	-0.4829062
248	0xbea6ddb3	-0.32591018
249	0xbe9770a0	-0.29578114
250	0xbe307248	-0.17231095
251	0xbe4d625a	-0.2005705
252	0xbf308ac0	-0.68961716
253	0xbd3c88fa	-0.04602907
254	0xbf109680	-0.56479645
255	0x3d246569	0.040135775

fc2.weight f4 [300, 400]
0	0xbd379795	-0.044822294
1	0x3e802b06	0.25032824
2	0x3da9f5ea	0.082988575
3	0xbc7d9942	-0.015478434
4	0xbd12aa1c	-0.03580676
5	0x3df5d810	0.12004101
6	0xbcfe1bb4	-0.03101907
7	0x3bfd3e4e	0.0077283746
8	0x3d48ac10	0.048992217
9	0x3d6d8a51	0.057993237
10	0xbe00565d	-0.12532945
11	0x3bda1994	0.006655881
12	0x3e2dee61	0.16985466
13	0xbed8ab50	-0.423182
14	0x3d9b082b	0.07569917
15	0x3d9e5475	0.07730953
16	0xbdd2e3d6	-0.102973625
17	0xbea0c60b	-0.31401095
18	0xbd670146	-0.0563977
19	0x3da2292f	0.079180114
20	0x3e308935	0.1723984
21	0x3dd454c7	0.103677325
22	0xbd31adef	-0.043378767
23	0xbcdcbbed	-0.026945079
24	0xbe1a463b	-0.15065853
25	0x3e3bd49a	0.1834282
26	0xbd86a4ac	-0.065743774
27	0xbe59a255	-0.21253331
28	0x3d72f225	0.05931296
29	0x3d255eee	0.040373735
30	0xbe894dc8	-0.26817155
31	0x3e563d66	0.20921859
32	0xbd9dfe83	-0.0771456
33	0x3b70e8c2	0.0036759828
34	0xbe156d90	-0.14592576
35	0xbdc81359	-0.09769315
36	0x3cc81560	0.024424255
37	0x3e2a648d	0.1663992
38	0x3d8d566e	0.06901251
39	0x3e1e50be	0.15460488
40	0x3dd7bb26	0.105337426
41	0x3de60adc	0.1123254
42	0xbe19be55	-0.15014012
43	0x3df74ebc	0.12075564
44	0xbe567959	-0.20944728
45	0xbea2ab89	-0.31771496
46	0x3d8c251e	0.06843017
47	0xbe4c34b9	-0.19941987
48	0x3d80414d	0.06262455
49	0x3e4ead99	0.2018341
50	0x3d6d7cb9	0.057980273
51	0xbd82c03a	-0.063843206
52	0xbe826995	-0.25471178
53	0x3e352052	0.1768811
54	0xbe3b88a3	-0.18313842
55	0xbcc6acb9	-0.024252282
56	0xbe173a03	-0.14768223
57	0x3e840781	0.25786975
58	0x3ba01819	0.004885685
59	0x3dbcc9a8	0.092181504
60	0x3e2fc37c	0.17164415
61	0xbd9a523c	-0.07535216
62	0xbe293a22	-0.16526082
63	0xbe20087f	-0.15628241
64	0x3dc36d9d	0.095423914
65	0xbda0f818	-0.0785982
66	0xbc531f06	-0.0128858145
67	0x3df6caf7	0.12050431
68	0x3dcf09d2	0.10109295
69	0xbdecad3c	-0.11556479
70	0x3cc6137d	0.024179215
71	0xbe6547c7	-0.22390662
72	0x3ee7b874	0.45257914
73	0xbe4c50e1	-0.19952728
74	0xbd21b68a	-0.039480723
75	0xbc3cf027	-0.011531866
76	0x3cf4bae2	0.029874269
77	0x3d19c47d	0.0375409
78	0x3e8050d6	0.25061673
79	0xbe006d68	-0.12541735
80	0xbd24908e	-0.04017692
81	0xbd52b117	-0.051438417
82	0x3de80787	0.11329561
83	0x3b494be3	0.0030715398
84	0xbda6a90b	-0.08137711
85	0x3e228531	0.15871121
86	0xbe3c9e22	-0.18419698
87	0xbde7076a	-0.11280711
88	0xbde36a7e	-0.11104296
89	0xbc800fdf	-0.015632568
90	0x3bff8491	0.0077977856
91	0x3e3a37f3	0.18185405
92	0xbea5878f	-0.32329985
93	0xbeb4a0af	-0.35278842
94	0x3e9faf14	0.31188262
95	0x3e15bf9f	0.14623879
96	0x3de9adf3	0.11410131
97	0xbbf5bc9a	-0.0074992897
98	0x3d801d00	0.06255531
99	0x3e907b0e	0.28218883
100	0x3e7c0463	0.24611048
101	0x3e442eb5	0.19158442
102	0x3d855831	0.06510962
103	0x3dd7ec1a	0.1054308
104	0x3d30103d	0.042984236
105	0x3e50aecf	0.20379184
106	0xbe35fbbd	-0.17771812
107	0x3cd8ecf4	0.026480176
108	0xbdcf266f	-0.101147525
109	0x3de90475	0.11377803
110	0xbe059cee	-0.13048145
111	0xbe04e7b3	-0.12979011
112	0xbe18167a	-0.14852324
113	0xbe0a222e	-0.13489601
114	0x3d282285	0.041048545
115	0x3eac143c	0.33609188
116	0xbd690a6f	-0.056894716
117	0x3ddaec4c	0.10689601
118	0x3b731511	0.0037091414
119	0x3e3edcdc	0.18638939
120	0x3da758f1	0.08171261
121	0xbe7c8558	-0.24660242
122	0xbdd6a8cd	-0.10481415
123	0xbcf81801	-0.030284883
124	0xbd2a22a5	-0.041536946
125	0xbc96f722	-0.018428389
126	0x3da83a3d	0.08214233
127	0xbd9dff28	-0.07714683
128	0x3da9f600	0.08298874
129	0x3cbd07d0	0.023075014
130	0xbdc95276	-0.09830181
131	0xbebd68fa	-0.36994153
132	0xbd0e0132	-0.03466911
133	0xbd46a4ad	-0.04849689
134	0xbd8f073d	-0.069838025
135	0xbe94abb6	-0.29037255
136	0x3e8b6da7	0.27232096
137	0xbe295ec3	-0.16540055
138	0x3dfe6457	0.12421482
139	0x3e909105	0.2823564
140	0xbe177af0	-0.1479299
141	0xbdcb67e7	-0.09931927
142	0xbe05043e	-0.129899
143	0xbef785a6	-0.48344153
144	0xbe333f94	-0.17504722
145	0xbd889249	-0.06668527
146	0x3e220f6e	0.15826198
147	0x3e905058	0.28186297
148	0x3e2daba6	0.1696001
149	0x3d3d9073	0.046280336
150	0x3f0222d9	0.50834423
151	0xbeb0ed87	-0.3455622
152	0xbd06ddae	-0.032926254
153	0x3e8670e9	0.2625802
154	0x3d05dae8	0.03267947
155	0x3e30d960	0.17270422
156	0xbc944827	-0.018100811
157	0xbe74ad9a	-0.23894349
158	0xbd0bd36b	-0.03413717
159	0xbd5a2c8e	-0.053265147
160	0xbe254799	-0.16140594
161	0x3e833121	0.2562342
162	0x3e1e0603	0.15431981
163	0x3da51e12	0.08062376
164	0xbd1060f1	-0.0352487
165	0x3dad6e11	0.08468259
166	0x3d6c4757	0.057685222
167	0x3d9186e0	0.071058035
168	0xbdc9d89c	-0.09855768
169	0xbdf9014d	-0.12158451
170	0x3e06d379	0.13166608
171	0x3e9b527d	0.3033637
172	0x3dd57716	0.104231045
173	0x3da66f34	0.08126679
174	0xbdb3b726	-0.08775167
175	0x3d39de31	0.045377914
176	0xbe69206a	-0.22766271
177	0x3e9dab69	0.30794838
178	0xbe079474	-0.13240224
179	0xbeae1cfa	-0.34006482
180	0x3bc1418e	0.0058977073
181	0x3ead42b1	0.33839944
182	0x3dbd2c22	0.09236933
183	0xbcb7c9b2	-0.022435043
184	0x3d57cc27	0.05268493
185	0xbf17ea4d	-0.5934189
186	0xbd48bf7c	-0.04901074
187	0x3e7ce465	0.246965
188	0x3d56af6d	0.052413393
189	0x3dcc2878	0.09968656
190	0x3eb27713	0.3485647
191	0x3d92fde8	0.07177335
192	0x3da2e361	0.07953525
193	0xbdb5b0a6	-0.08871584
194	0x3e16bfe2	0.14721635
195	0xbdefa1bf	-0.117007725
196	0x3daec59a	0.08533783
197	0x3d8f47c8	0.06996113
198	0x3c3bdd2a	0.011466304
199	0xbd3df649	-0.046377454
200	0xbc10225a	-0.008797253
201	0x3e4ae6dd	0.1981463
202	0xba49c3d8	-0.00076967245
203	0x3dadc6b0	0.08485162
204	0xba489e99	-0.00076530274
205	0xbf496959	-0.7867637
206	0xbe5fd02f	-0.2185676
207	0xbe2f0fbd	-0.17095847
208	0xbcd82d3d	-0.026388759
209	0xbec6eb17	-0.38851234
210	0xbd8f0f9f	-0.06985401
211	0xbe3c1b3d	-0.18369766
212	0xbc054f1e	-0.008136539
213	0xbe3193a1	-0.17341472
214	0x3e9b4e49	0.30333164
215	0xbe485728	-0.19564497
216	0xbcef3f01	-0.029204847
217	0xbe500b99	-0.20316924
218	0xbe4c53e3	-0.19953875
219	0x3e166211	0.14685847
220	0xbbbf7e31	-0.0058439006
221	0x3e45ce07	0.19316874
222	0xbddbd29f	-0.10733532
223	0x3e5bfaab	0.21482341
224	0xbda382a7	-0.07983904
225	0xbe4f97d2	-0.20272759
226	0xbe970853	-0.29498538
227	0xbe0ade4f	-0.13561366
228	0xbe431cf9	-0.19054021
229	0x3ea5cfd1	0.32385114
230	0xbd9be08e	-0.0761119
231	0xbe180c5e	-0.14848468
232	0x3de16604	0.11005786
233	0xbdc6703a	-0.09689374
234	0x3df8e104	0.12152293
235	0x3d8c974d	0.06864796
236	0xbd6076e9	-0.0548009
237	0xbe9dad50	-0.3079629
238	0x3e1cc422	0.15309194
239	0xbe815604	-0.25260937
240	0xbe2898df	-0.16464566
241	0xbca0d4cc	-0.01963272
242	0xbdc1fc1f	-0.094719164
243	0x3d079204	0.033098236
244	0x3d9a43bc	0.075324506
245	0x3e14b968	0.14523852
246	0xbddf0977	-0.10890477
247	0x3dbefe4d	0.09325848
248	0xbe2a1f0b	-0.16613404
249	0xbe83ab45	-0.25716606
250	0x3e0e10d2	0.13873604
251	0xbecbeb89	-0.39828137
252	0xbba87ab1	-0.005141579
253	0x3e50b7bc	0.20382589
254	0xbeab99ac	-0.3351568
255	0x3dff77e7	0.124740414

fc2.bias f4 [300]
0	0xbc6c193b	-0.014410312
1	0x3c32bd31	0.010909365
2	0xbc62f5ef	-0.01385258
3	0x3dca3ca5	0.09874848
4	0xbd6f3e19	-0.05840883
5	0x3cdd1d6c	0.026991569
6	0xbca205dc	-0.019778185
7	0xbd1fa6c8	-0.038977414
8	0x3c0cfce5	0.008605217
9	0x3dcc7cec	0.099847645
10	0x3d9fd153	0.07803597
11	0x3d8dfd21	0.06933046
12	0xbc5bad09	-0.013407954
13	0x3d3580f5	0.044312436
14	0xbc891207	-0.016732229
15	0xbda0f7fe	-0.07859801
16	0xbd4f76ce	-0.05065041
17	0x3da15250	0.07877028
18	0x3d0b9305	0.034075756
19	0x3d42eb93	0.047587942
20	0x3d706df6	0.058698617
21	0xbd0f136b	-0.034930628
22	0xbcc39cbe	-0.023878451
23	0x3d60ed27	0.054913666
24	0xbd614ca7	-0.055004742
25	0x3d39c104	0.04535009
26	0x3d4062a5	0.046969075
27	0x3d9b16e2	0.07572724
28	0x3d67b042	0.056564577
29	0xb83c3902	-4.4875786e-05
30	0xbb81023b	-0.0039370335
31	0xbd83c6cf	-0.06434404
32	0xbd9a1a72	-0.07524575
33	0x3db2506a	0.08706744
34	0x3c7bad11	0.015361086
35	0xbd069c6a	-0.03286401
36	0x3d2bfd63	0.041989695
37	0xbbe359fe	-0.006938218
38	0x3b87c310	0.0041431263
39	0x3cd77116	0.02629904
40	0x3cd65273	0.026162362
41	0x3d13a2fe	0.036044113
42	0x3cb3d44f	0.021951823
43	0x3b69d4db	0.003567985
44	0xbcaa50f9	-0.020790564
45	0x3a8ed58e	0.0010897384
46	0xbcee8977	-0.029118283
47	0xbc2ec7aa	-0.010667721
48	0x3d85d29c	0.06534311
49	0xbc79e9ef	-0.015253528
50	0xbd6af8a0	-0.057366014
51	0x3a6a9336	0.0008948328
52	0x3d0bd42e	0.034137897
53	0x3c0e0fdd	0.008670774
54	0x3da288b1	0.07936228
55	0xbd8fc1e4	-0.070194036
56	0xbd81c273	-0.06335916
57	0xbd979ceb	-0.074029766
58	0xbd35c533	-0.044377517
59	0x3d6d6fed	0.05796807
60	0xbda3200d	-0.079650976
61	0xbcaec3fd	-0.021333689
62	0x3d193ca6	0.037411354
63	0x3c9d9224	0.019234724
64	0xbd98b640	-0.074566364
65	0x3ce215db	0.027598312
66	0xbc950d33	-0.01819477
67	0x3c9e6810	0.01933673
68	0xbc712f71	-0.014720784
69	0xbcd829f9	-0.026387202
70	0xbc5c5911	-0.013448969
71	0xbc12e5d4	-0.008965928
72	0x3d15d7e4	0.036582842
73	0x3d21abec	0.039470598
74	0x3b49184a	0.0030684643
75	0x3d211596	0.039327227
76	0xbd96bfc7	-0.073607974
77	0xbd1af4e0	-0.037831187
78	0xbd7fb604	-0.062429443
79	0x3c84f347	0.016229285
80	0x3d52f2cd	0.051501084
81	0x3d446f63	0.04795779
82	0x3bb72757	0.0055894065
83	0x3d4f71a8	0.0506455
84	0xbd98cbee	-0.074607715
85	0x3c8011e5	0.015633533
86	0x3d515177	0.05110308
87	0x3cabd687	0.020976318
88	0xbd76383b	-0.06011222
89	0x3c667c26	0.014067685
90	0x3d977773	0.0739583
91	0x3cdacef9	0.02671002
92	0x3d888c7d	0.06667421
93	0x3c911572	0.017710421
94	0xbc9963db	-0.018724373
95	0x3d01260c	0.031530425
96	0x3d80239d	0.06256793
97	0xbc30011f	-0.010742455
98	0xbc5a6473	-0.013329613
99	0xb9dfb234	-0.00042666646
100	0x3b14aedb	0.002268723
101	0xbce95136	-0.028481107
102	0x3d0f2e0c	0.034956023
103	0x3db13caf	0.086541526
104	0x3a2fa9bc	0.00067010126
105	0xbd501ce5	-0.050808806
106	0x3d342a33	0.043985557
107	0xbd8d4bfe	-0.0689926
108	0xbd289ee9	-0.041167174
109	0x3c4af363	0.0123871295
110	0xbd5efb1e	-0.054438703
111	0xbd166415	-0.03671654
112	0xbd2b4f80	-0.041823864
113	0xbaf110c9	-0.0018391843
114	0x3ccd3e44	0.025054105
115	0x3d6ac8fd	0.057320584
116	0x3d73c2f2	0.059512086
117	0xbd79d0ac	-0.06099002
118	0xbc3ac6fb	-0.01139998
119	0xbc7933ea	-0.015210131
120	0x3d1806dc	0.037115917
121	0x3d0bacb3	0.034100246
122	0xbc66ee8e	-0.014094962
123	0x3cc34bc7	0.023839844
124	0xbdbec26c	-0.09314427
125	0x3d261ef4	0.040556863
126	0x39e33f8d	0.00043344163
127	0x3d4f7cf4	0.050656274
128	0x3b829cf1	0.003985994
129	0xbd36322f	-0.044481453
130	0x3d6a4a39	0.05719969
131	0xbd4c4ae9	-0.049876127
132	0xbd026022	-0.03182996
133	0xbc8be72f	-0.01707801
134	0x3bc14ba3	0.005898909
135	0xbd9b0c4b	-0.07570704
136	0x3d24f22d	0.04027002
137	0x3c950330	0.018189996
138	0x3b175201	0.002308965
139	0xbc4c0f52	-0.0124548245
140	0xbd186701	-0.037207607
141	0x3d0ed72e	0.03487318
142	0x3d527652	0.05138237
143	0xbcfe24d7	-0.031023426
144	0x3d1d2e66	0.038374327
145	0x3d143184	0.036180034
146	0x3cbc942f	0.023019878
147	0x3c222985	0.009897594
148	0xbd626719	-0.055274103
149	0x3df25d7d	0.11834238
150	0xbcf3b37a	-0.029748667
151	0xbd86739e	-0.06565021
152	0x3c8bb6c8	0.01705493
153	0x3d113f0b	0.035460513
154	0xbb9c542a	-0.0047707753
155	0xba717069	-0.0009210171
156	0x3cf056af	0.029338209
157	0xbd7c0a93	-0.06153352
158	0x3d60bf19	0.054869745
159	0x3c4822a1	0.012215287
160	0xbd17a346	-0.037020944
161	0xbc47fd94	-0.012206454
162	0x3d2672ba	0.040636756
163	0xb8c1e0f3	-9.244857e-05
164	0xbca28a36	-0.019841295
165	0x3d05efe7	0.03269949
166	0x3c97a798	0.018512532
167	0x3d737dac	0.059446022
168	0x3d688774	0.056769803
169	0x3d6fc260	0.05853498
170	0xbd85b6f1	-0.06529034
171	0x3ae16acc	0.0017197966
172	0x3d796b73	0.060893487
173	0xbd124cb0	-0.035717666
174	0xbad7e4e8	-0.0016471418
175	0x3cf5809c	0.029968552
176	0x3d878035	0.066162504
177	0x3ce6ae72	0.028159354
178	0xbc22ff55	-0.009948571
179	0x3bc45d6b	0.0059925816
180	0xbce1f2cd	-0.027581597
181	0xbc4301db	-0.011902298
182	0xbd67af38	-0.056563586
183	0x3c0f0b85	0.008730774
184	0xbd085bff	-0.03329086
185	0x3d99e73f	0.0751481
186	0x3ca11fa5	0.01966841
187	0x3d9bf242	0.076145664
188	0x3d3662ff	0.044528004
189	0xbd490fdd	-0.049087394
190	0xbd8d1c33	-0.06890144
191	0xbd90a75e	-0.07063173
192	0x3ca8ec1e	0.020620402
193	0x3d03cd4a	0.0321782
194	0xbd1eb9d7	-0.03875145
195	0x3d031614	0.032003477
196	0xbcf84633	-0.030306911
197	0xbc5ae5bb	-0.013360436
198	0xbc5285a1	-0.012849242
199	0xbd5a679f	-0.053321477
200	0x3d418b41	0.047251943
201	0xbd91b9bf	-0.071155064
202	0x3d879f7e	0.066222176
203	0xbd015905	-0.031579036
204	0x3d807c51	0.062737115
205	0xbd0d7c9c	-0.034542665
206	0x3cba8af5	0.022771338
207	0xbd11b1ee	-0.035570078
208	0x3c8b51a8	0.01700671
209	0xbd5624e8	-0.05228129
210	0x3d81fdab	0.063472115
211	0x3d8ff053	0.0702826
212	0xbc8e84c3	-0.01739729
213	0xb951ca91	-0.00020007255
214	0x3d064d61	0.032788638
215	0x3d4c575e	0.049888007
216	0x3d809f14	0.06280342
217	0x3c8c6e92	0.017142568
218	0xbd919095	-0.07107655
219	0x3d512ddb	0.05106912
220	0x3d529785	0.05141403
221	0xbd564bd1	-0.052318398
222	0xbd408b36	-0.047007762
223	0xbd0641fb	-0.032777768
224	0xbcb6b242	-0.022301797
225	0xbc155223	-0.009113821
226	0xbc875aa5	-0.016522715
227	0xbc8e9398	-0.017404363
228	0x3c447710	0.011991277
229	0x3bca7a55	0.006179134
230	0xbbfc752d	-0.007704398
231	0xbd45d77e	-0.048301212
232	0xbc5ab23e	-0.01334816
233	0x3be0e39c	0.0068630707
234	0xbc860e03	-0.016364103
235	0x3d21ed32	0.039532848
236	0x3d3302a0	0.043703675
237	0x3d2d6647	0.042333867
238	0xbd091dab	-0.03347556
239	0x3c9c1839	0.019054519
240	0xbc43452a	-0.0119183455
241	0xbc9e93db	-0.019357612
242	0xbd039d80	-0.032132626
243	0xbd4a6473	-0.049412202
244	0xbda36a88	-0.079793036
245	0x3d444ebd	0.047926653
246	0x3d1fb419	0.038990114
247	0x3d851f0b	0.065000616
248	0xbdb01daa	-0.08599408
249	0x3ba22301	0.0049480204
250	0xbbb07622	-0.0053851763
251	0x3cb9d5cc	0.022684954
252	0x3d6206ec	0.055182382
253	0x3d6e299f	0.05814516
254	0xbcf64376	-0.030061465
255	0x3d6b7527	0.057484772

bn2.weight f4 [300]
0	0x3e8cd116	0.2750327
1	0x3e83f00e	0.25769085
2	0x3e7ab9fd	0.24485011
3	0x3e65fb97	0.22459255
4	0x3e8daa55	0.27669016
5	0x3eaf0536	0.34183663
6	0x3d03d594	0.032186106
7	0x3ccedbdb	0.02525132
8	0x3e06a771	0.13149811
9	0x3e5c959b	0.21541445
10	0x3cf657c9	0.030071156
11	0xbcac1562	-0.02100629
12	0x3e124427	0.1428381
13	0x3e9b9b82	0.3039208
14	0x3ead3ebc	0.33836925
15	0x3e08db0e	0.13364813
16	0x3e8a0323	0.26955518
17	0x3e847ce7	0.25876543
18	0x3e80bfc2	0.251463
19	0x3f5188bb	0.8184926
20	0x3daa88a6	0.08326845
21	0x3ee50337	0.44729015
22	0x3e4256eb	0.18978469
23	0x3dbc560f	0.09196102
24	0x3e55f636	0.20894703
25	0x3e58d779	0.21175946
26	0x3e323a76	0.17405114
27	0x3ceac0b5	0.028656343
28	0x3e8682d3	0.26271686
29	0x3ed3887d	0.4131507
30	0x3e884128	0.2661221
31	0x3ecd1ac9	0.40059498
32	0x3d8864ff	0.066598885
33	0x3dcf5df7	0.10125344
34	0x3eb88284	0.36037076
35	0x3e68b860	0.22726583
36	0x3e90ffe6	0.28320235
37	0x3f02ab16	0.51042306
38	0x3e774a83	0.24149518
39	0x3d904aea	0.07045539
40	0x3cf0babd	0.029385919
41	0x3ec5f5a8	0.38663983
42	0x3d487d7e	0.048947804
43	0x3e2f5a6a	0.17124334
44	0x3e48fbeb	0.19627349
45	0x3e475d96	0.19469294
46	0x3d6ad14e	0.057328515
47	0x3e8d3ba4	0.27584565
48	0x3dd8eddb	0.10592242
49	0x3e62545a	0.2210249
50	0x3db73454	0.08945528
51	0x3ebe68f1	0.3718944
52	0x3e5f1207	0.2178422
53	0x3eecc126	0.4624111
54	0xbd018857	-0.031624164
55	0x3ea0a51f	0.31375977
56	0x3db36757	0.08759945
57	0x3dd75d8c	0.105158895
58	0x3dcc065d	0.09962151
59	0x3f214fd3	0.6301243
60	0x3f4e37b6	0.8055376
61	0x3e628744	0.22121912
62	0x3cb7cd80	0.022436857
63	0x3e667584	0.22505766
64	0xbd008314	-0.031375006
65	0x3d9d5241	0.07681704
66	0x3e7239a7	0.23654805
67	0x3de5e568	0.112253964
68	0x3e606f1f	0.2191739
69	0x3f4073f0	0.75176907
70	0x3ee0372a	0.43792087
71	0x3e71616f	0.23572324
72	0x3e6b8509	0.22999968
73	0x3d22f51f	0.039784547
74	0x3e01f3a3	0.12690596
75	0x3e7c05d8	0.24611604
76	0x3c9e1537	0.019297225
77	0x3e4fa980	0.20279503
78	0x3d52e701	0.051489834
79	0x3d300071	0.04296917
80	0x3f12d4df	0.57356066
81	0x3e878692	0.26469857
82	0x3d432176	0.047639333
83	0x3e8ca78e	0.27471584
84	0x3e876622	0.2644511
85	0x3b424d0f	0.0029647981
86	0x3ce9c795	0.028537551
87	0x3e3dbdde	0.1852946
88	0x3dc53ed1	0.09631122
89	0x3d997b07	0.07494169
90	0x3e76f8d9	0.24118365
91	0x3e23464b	0.15944783
92	0x3e9ab63d	0.30217162
93	0x3e282620	0.16420794
94	0x3e39428f	0.18091796
95	0x3e1180b3	0.14209251
96	0xbaf7c8e7	-0.0018904478
97	0x3e507229	0.20356049
98	0x3d25c679	0.04047248
99	0x3e39ff9f	0.18163918
100	0x3d69a7b6	0.057044707
101	0x3dc695ee	0.096965656
102	0xbdb03451	-0.086037286
103	0x3dc428ef	0.0957812
104	0x3d32ddd4	0.043668583
105	0x3e9f37ca	0.3109725
106	0xbd2e6186	-0.042573474
107	0x3db0b9b1	0.08629168
108	0x3d09b40d	0.033618975
109	0x3dfe623f	0.12421083
110	0x3e84d045	0.25940147
111	0x3e3fd9f0	0.1873548
112	0x3e275f21	0.16344883
113	0x3d0e990c	0.034813926
114	0x3e1c54b9	0.15266694
115	0x3e98d151	0.29847196
116	0x3d231f4c	0.03982477
117	0x3d8b9f79	0.06817526
118	0x3e6f342a	0.23359743
119	0x3e590f7f	0.21197318
120	0xbda6e676	-0.08149426
121	0x3e8f03df	0.2793264
122	0x3ec977d6	0.3934924
123	0x3d976e2a	0.07394059
124	0x3e1dc839	0.1540841
125	0x3d60b525	0.054860253
126	0x3eb52713	0.35381374
127	0x3d7bc1ad	0.061464
128	0x3eaeb8e8	0.34125447
129	0xbca79344	-0.020455964
130	0x3dc5289c	0.09626886
131	0x3e596731	0.2123077
132	0x3eab8ba1	0.33504966
133	0x3c1dabc1	0.009623469
134	0x3e798f26	0.24371013
135	0x3ec6ea71	0.3885074
136	0x3e88ec7e	0.2674293
137	0x3e91813c	0.2841891
138	0x3e3794bc	0.17927831
139	0x3d6036e8	0.054739863
140	0xbd63e094	-0.055634096
141	0x3dc7fbc9	0.09764821
142	0x3e8b9ae9	0.27266625
143	0xbd5891e4	-0.052873507
144	0x3e275faa	0.16345087
145	0x3e4d1eb4	0.20031244
146	0xbdeff4fb	-0.11716648
147	0x3e56f955	0.2099355
148	0x3db1884f	0.08668577
149	0x3db9ba5c	0.09068748
150	0x3e405573	0.18782596
151	0x3e6ae57e	0.22939107
152	0x3e82803d	0.25488463
153	0x3ebc2807	0.36749288
154	0x3e829d96	0.25510854
155	0x3e12b705	0.14327629
156	0x3e38681b	0.18008463
157	0x3e0f1e2b	0.13976352
158	0x3e2641c9	0.16236033
159	0x3dc0bec6	0.09411387
160	0x3e4cddda	0.20006505
161	0x3e733004	0.23748785
162	0x3d142ff1	0.036178533
163	0x3d779c45	0.060451765
164	0x3e1553f6	0.1458281
165	0x3dc2a4d0	0.09504092
166	0x3e72186c	0.23642129
167	0x3ea67f34	0.32518923
168	0x3dba0586	0.09083085
169	0x3f21eb52	0.63249695
170	0x3d1d4c6b	0.038402956
171	0x3d4b5b9a	0.049647905
172	0x3de770fc	0.11300847
173	0x3e390623	0.18068747
174	0x3dc57695	0.09641758
175	0x3ec40764	0.3828689
176	0x3e089c8d	0.1334097
177	0x3e113fa0	0.14184427
178	0x3e8fca9e	0.28084272
179	0x3d3fb008	0.046798736
180	0x3e4d2337	0.20032965
181	0x3e0642f4	0.13111478
182	0x3acbc46b	0.0015546208
183	0x3dc19788	0.094527304
184	0x3ea38fe3	0.31945714
185	0x3ca03dbd	0.01956069
186	0x3de2e467	0.110787205
187	0x3ce0ce63	0.027442163
188	0x3e3d3eae	0.18480942
189	0x3df27fd4	0.118407875
190	0x3d7faf11	0.062422816
191	0x3e0b611c	0.13611263
192	0x3e9eda76	0.31026047
193	0x3db97e3b	0.0905728
194	0x3da27d62	0.07934071
195	0x3e85982e	0.26092666
196	0x3e9cb3cc	0.30605924
197	0x3e97a31d	0.29616633
198	0x3e74622c	0.23865575
199	0x3e4e5bb6	0.20152172
200	0x3e361bb2	0.17784002
201	0x3f62f082	0.88648236
202	0x3df30855	0.118668236
203	0x3ce97485	0.028497944
204	0xbd972e08	-0.07381827
205	0x3e9b6f0a	0.30358154
206	0x3e0adfde	0.13561961
207	0x3db1ccb3	0.086816214
208	0x3e74c154	0.23901874
209	0xbd4ef45e	-0.050526015
210	0xbd90700c	-0.07052621
211	0x3edfe1d3	0.43726978
212	0x3e6bf124	0.23041207
213	0x3d347100	0.044053078
214	0x3e7a992e	0.24472496
215	0x3e7eb043	0.24871926
216	0x3ece1c34	0.40255892
217	0x3c6ee701	0.014581443
218	0x3e15f646	0.14644727
219	0x3ecb2c3a	0.3968218
220	0x3b5b5c05	0.0033471596
221	0x3e4255a3	0.1897798
222	0x3e6ce392	0.23133686
223	0xbdcb7714	-0.09934822
224	0x3ea0bcd7	0.31394073
225	0x3cd6e78a	0.026233453
226	0x3ec7fcb4	0.39059985
227	0x3e9a7c64	0.30173028
228	0x3f034ff3	0.5129387
229	0x3e74d032	0.23907545
230	0x3e53d352	0.20686081
231	0x3dcf8c75	0.10134212
232	0x3ea4cc13	0.32186946
233	0x3eb0fbfe	0.34567255
234	0x3e2b342b	0.16719119
235	0x3dec3d31	0.11535109
236	0x3f326795	0.69689304
237	0x3e6e1d40	0.23253345
238	0x3d405f4e	0.04696589
239	0x3e020bc0	0.12699795
240	0x3d3fff5c	0.04687439
241	0x3b20547f	0.0024464426
242	0x3e557251	0.2084439
243	0x3ec2f0bf	0.380743
244	0x3dfcda96	0.123463795
245	0x3e43df3f	0.1912813
246	0x3d1af0e4	0.037827387
247	0x3e33f363	0.17573313
248	0x3e4cc83c	0.19998258
249	0x3e84b266	0.25917357
250	0x3d8e4824	0.069473535
251	0x3e3a20a9	0.18176521
252	0x3eb7cca5	0.3589832
253	0x3d492d77	0.049115624
254	0x3e5786f9	0.21047582
255	0x3dff5ab0	0.12468469
