Zadanie3/srcV2/models/Zadanie 3/actor_network.pth (torch, 507007 bytes, 10 tensors)

fc1.weight f4 [400, 8]
00000000: 64e2 44be 19ae e43d 3bd1 efbd 0777 163e
00000010: 54a4 12bd 18a1 763d 3ed2 3e3e ea7f 63bd
00000020: 4a7e ebbd 97fb bc3e e94b 03be fcc6 1fbe
00000030: 8da9 873b 396a 0d3e 5481 913d 9e68 2a3e
00000040: b1a9 0c3c ab58 913e 2863 8b3d 045c b9be
00000050: 0a64 b9bd 2532 5ebb 9d57 18be c9d1 413e
00000060: 7560 26be 6790 aa3e aeaa 3dbe 1241 47be
00000070: 6a9d 9d3e e14d bd3e 0362 c8be 5f32 fd3c
00000080: a3c9 3d3d 7124 ba3e 7a11 07bc 944a d5be
00000090: 55d3 0c3c 342f 93be bdf4 2c3e aa4c b1bd
000000a0: 746b bcbd e74b 1f3f aec5 8c3c 59bc efbe
000000b0: 7370 4a3e d708 2cbe 9615 073f 752b f03e
000000c0: 6bbf 9cbd 7a7f cd3e 9fcd 26be cf2f 89be
000000d0: 1d8e af3e a180 a53e 9d91 5c3c 8c8e 9a3d
000000e0: 8557 1c3e c76b 9f3e 9486 583d 2495 9a3e
000000f0: 410f 8abe 194e cdbd 7532 f23b 80b7 4a3e
00000100: b696 d1bd 8949 8a3e 9e73 01be 3adc 783e
00000110: aa3d eabd b538 c1bd e8c7 203e a9d6 9a3d
00000120: c335 d9bd 1dc8 d63e 3a11 48bd b96f 3abe
00000130: 5efe 823d e0ba 4fbd 9a8f 9c3e fa5b 923e
00000140: ef0b 6f3b 79dc ab3e f22b 07be a4a1 e4bd
00000150: b735 043d e1c8 2a3e a139 293e ab7f be3d
00000160: 491f 7abd 5cea 4e3e e6a2 bcbd 12a2 8bbe
00000170: efa0 903e 7d86 993e 3e5c cabd 704a 35be
00000180: 2c98 75be 2399 143f b6b7 5a3d 1f30 abbe
00000190: 185e 403e b01c 8b3d be4b 1b3f 49d0 d73e
000001a0: 5813 67bd ce69 c33e 999f d73d 318e bb3d
000001b0: f620 2fbe 5801 203c f27e 7d3e a8fc 443e
000001c0: f40b 003e 9a1f 2d3e 54bf 02be 72ca babe
000001d0: c572 a2be 6e84 26bd 3475 fc3d 2708 55be
000001e0: 8292 34bd 1d08 c03e 7b51 4f3d 4e32 a23e
000001f0: c033 fabd 1d23 82bd 3778 373e 8006 263d
00000200: 4924 23be f6b4 c43e f791 a33c d797 0cbe
00000210: 3214 dbbd b91a 8d3d 75e8 ab3e ff92 613e
00000220: b2e2 10be fa0e ce3e 94bc 3bbe b3f4 88be
00000230: 07df 6a3e ab21 c03d 12e1 ff3d 5968 e53d
00000240: 4aef 8bbd 163b 773e 4710 29be 6e3c a7be
00000250: f85f 9e3e 6951 c13e d261 efbd 7163 1fbe
00000260: e3b6 b0bc 9f0f 8e3e 420f 9e3c 5aaa 4c3e
00000270: 5f8c d33d 4c41 2e3d 8457 ca3d 40d0 033e
00000280: be17 10be 8b93 a93e 0d76 22be d7e2 4bbe
00000290: 1df1 f53d b6a9 2a3e 2c96 2ebe 2e14 36be
000002a0: 8a04 f63d 9b59 053f 413f ecbc 3653 a6be
000002b0: 8dde a43d efa9 dbbb 79e2 d03e bc86 b43e
000002c0: 1ef7 32be 33a8 ab3e d192 42be b3e2 123c
000002d0: fc36 763e 6d2f 663e 474f b7bd f30f b53e
000002e0: 9416 f83d aa65 fb3e 4170 d0bc 1aa2 8bbe
000002f0: 1423 3d3e e569 babb 73c1 f73e 2030 8c3e
00000300: 0893 3b3e d0d2 973e 0487 ec3d aef6 2cbe
00000310: 2def 75be c389 0f3e d04e d3bc d44e 4e3e
00000320: 461f 2ebe d02e 5a3e fab7 23be 0ca0 96bd
00000330: ee25 2e3d 75ea 423e 425e 5dbe 7f48 4f3e
00000340: 0995 f43d c05e a33e ee76 9e3a 3230 5dbd
00000350: b016 12be e2b7 a9be 53b6 183a 637b 143e
00000360: c05a 42be c623 ae3d f8e7 b3bd d7a0 b6be
00000370: 7544 663e 56db 77be 0963 673d f0d1 63be
00000380: 0bc1 28be 5423 c73e 8438 b0bd 1aec 213d
00000390: c6a4 003e 1b48 3b3e 9cc0 30bc 8f1a a23e
000003a0: 17c7 2bbe aa4d a83e 0baa 3d3c e669 0ebe
000003b0: fd17 933e cf74 1f3e 2c84 b03e c5a9 8a3e
000003c0: 2c7b 07be 8f3a 0e3f 9bf4 04be 055f a3be
000003d0: 5438 5d3e 5806 583d 71f1 da3e 5b43 c13e
000003e0: 2a18 2abe 23ae 9e3e 1781 16bd c1ac 70be
000003f0: e3da 553e e8b4 b9bb 89d4 403e 8656 a53e
-0.19226986 0.11166019 -0.117098294 0.14693843 -0.035801247 0.060212225 0.18634889 -0.05554191
-0.11498697 0.36910698 -0.12821926 -0.1560325 0.004140085 0.13810052 0.071047455 0.16641471
0.008585379 0.2838796 0.06806022 -0.36203015 -0.09052284 -0.00339044 -0.14877172 0.18927683
-0.16247733 0.33313295 -0.1852214 -0.19458416 0.3078416 0.3697348 -0.39137277 0.030907808
0.046334874 0.36355928 -0.008243913 -0.4165846 0.008595307 -0.2874695 0.16890235 -0.08657201
-0.092001826 0.6222519 0.017184105 -0.46823385 0.19769458 -0.16800247 0.5276731 0.46908155
-0.076536976 0.4013632 -0.16289376 -0.26794288 0.3428811 0.323247 0.013462451 0.0754672
0.15267761 0.31136915 0.05286272 0.3019191 -0.26964763 -0.100246616 0.007391269 0.19796562
-0.10233824 0.27009228 -0.1264176 0.2430276 -0.11437543 -0.09434644 0.15701258 0.075604744
-0.10605957 0.4194955 -0.048844554 -0.18206681 0.06396173 -0.050715327 0.3057831 0.28585798
0.0036475619 0.33566645 -0.13200358 -0.11163643 0.03227779 0.16678192 0.1652589 0.093016945
-0.061064992 0.20206589 -0.09210758 -0.27272087 0.28247783 0.2998542 -0.09880875 -0.17704177
-0.2398383 0.5804617 0.053397857 -0.3343515 0.18785894 0.06792581 0.6066245 0.42151096
-0.056414932 0.3816666 0.10528488 0.0915798 -0.17102417 0.009765945 0.24755457 0.19237006
0.1250456 0.16906586 -0.12768298 -0.3648258 -0.31728187 -0.04065364 0.12327042 -0.20803891
-0.044085033 0.3750619 0.050614815 0.31679004 -0.12216902 -0.063543536 0.17916952 0.040533543
-0.1593181 0.38419312 0.019967062 -0.13729797 -0.10697211 0.068898626 0.33575788 0.22028731
-0.14148977 0.402458 -0.18333656 -0.2674919 0.2293664 0.09381422 0.12494101 0.11201543
-0.0683275 0.24143633 -0.16510116 -0.32663292 0.30932593 0.37757424 -0.116885796 -0.15565278
-0.021571582 0.27746293 0.019294385 0.19986859 0.10329508 0.04254274 0.098799735 0.1287241
-0.14071557 0.3312038 -0.15865345 -0.19910751 0.12008879 0.16666302 -0.17049474 -0.17781135
0.120125845 0.5208985 -0.028838756 -0.3248536 0.08050261 -0.0067036073 0.40797785 0.35259044
-0.1747708 0.33526763 -0.19001319 0.008965182 0.24044412 0.22479029 -0.08950668 0.3536373
0.121136814 0.49101 -0.025444152 -0.2727211 0.18470412 -0.005688893 0.48389778 0.27380466
0.18317807 0.29653025 0.1154919 -0.16890976 -0.2401702 0.14017396 -0.025794417 0.20147258
-0.17004117 0.2130692 -0.1598815 -0.07354745 0.04251664 0.19034751 -0.21617988 0.20242499
0.11942489 0.31908226 0.0012089887 -0.05400104 -0.14266467 -0.33148104 0.0005825508 0.14500193
-0.18979931 0.08502917 -0.08784479 -0.35669586 0.22487052 -0.24204764 0.05649093 -0.22248054
-0.1647989 0.3889414 -0.086045295 0.039531805 0.12562856 0.18289225 -0.010788109 0.31660888
-0.16775165 0.32871753 0.011576186 -0.13907585 0.2872924 0.15571903 0.3447584 0.2708265
-0.1323058 0.55558103 -0.12983935 -0.31908432 0.21603519 0.052740425 0.4276233 0.377467
-0.1661078 0.3099223 -0.036744203 -0.235034 0.2088428 -0.0056673177 0.18831076 0.32292575

fc1.bias f4 [400]
00000000: e145 ad3e f13d cb3e 3740 503e 3333 423e
00000010: 5728 803e b991 5b3f 644b a93e dbe7 a3bc
00000020: d31c 2d3e 9b35 ce3e 06cc 883e 721e 8c3e
00000030: 1d15 443f 2d79 283e 43d7 193e 82dd 643e
00000040: 7229 033f d163 ce3e 31f3 1c3e 5173 9a3e
00000050: 68a0 af3e 4151 2b3f 09e1 4b3e e551 123f
00000060: 13ec 293d fd47 4f3e 99d5 c43d 0873 2a3e
00000070: b289 cf3e ae46 923e 4459 4b3f 3f8a de3e
00000080: 63a9 c43e dcfe 9f3e ec05 c43e 49fc 683e
00000090: 709a 1c3e 7ac5 843e 6365 9b3e 574d ac3e
000000a0: e325 af3e acad b13e dfa4 923e 8592 c33e
000000b0: 681b 933e c6a3 103e 530d 493e 4612 a73e
000000c0: 26ce be3e 17e8 b63e e81e 413e 9222 963e
000000d0: fc08 df3e 5843 c93e 2ec6 873e 2314 8f3c
000000e0: 6488 503e 1fb2 1a3e c563 753d b9a3 783d
000000f0: b8b9 9e3e 4e21 443e 338a 813e d06c 583e
00000100: 29e2 003e ae1d 5f3f 6bfa bf3e 4935 c03e
00000110: ed3b a43e 570a 7d3e db8f b63f 650d 2c3e
00000120: eb3a 563e 0e99 d23e 3411 8d3e 9984 a83e
00000130: fa4b b13e 0c00 a33e 8c2f bc3e 4e64 ef3e
00000140: 0773 e53e 73e3 d23e 4267 073f b40c e23e
00000150: a3cb 733e 7382 4e3e a839 893d 3dd6 fe3e
00000160: 5166 a33e bb70 d73e 6624 623e b058 cf3e
00000170: 54d0 f03e aec6 e1bc ee5f 743e 7164 9c3e
00000180: 2279 093f f6be cd3e c640 cb3e 520c 4c3f
00000190: 24d0 963e 0345 9f3e afaa 933e 71e4 7c3e
000001a0: ff8b 243f fa33 883e 978b b63e 15b0 593e
000001b0: d082 4c3e 0278 39be 4972 b53e 6f74 673e
000001c0: 8f43 633e 8907 f13e d800 a43e 1b6a 583e
000001d0: 5f3b 8c3e 0f1b 593e 40fb 9e3e bf9b 8c3e
000001e0: 4dcd 113f 04cd 963e 2c78 833e 283a 553e
000001f0: 520c f03e 6faa 853e adae 753e 3073 633e
00000200: cc70 ce3e 89c4 a73e 8468 ae3e 3ffd 033f
00000210: c4e8 a83e ce53 983e 255c a83e 12af 753e
00000220: 2b0b a23e e47e 443e d24e 643e 7397 da3e
00000230: 9944 833e 16b4 403e 11df 593e f6dd 863e
00000240: b54c ef3e 7548 163f 06fe 8e3e 354c 433e
00000250: 13af a23e ddda 8dbc 1d8b 5a3e e08a 8a3d
00000260: ff04 a23e 71ec 9c3e c860 9d3e b42e 3d3e
00000270: c34b 5e3e 82ab 953e b705 793e d583 8e3e
00000280: bb08 093f ef3e 363e abb0 cb3e 905f 863e
00000290: 988e 6a3e 8c47 803e fbbe 183e 8aac 263f
000002a0: 328d 883e be0f e83e 736d 1f3e a402 a83d
000002b0: 7be2 813e 1380 503e 612d 653e 4fa1 813e
000002c0: 0328 c73e 9698 8b3e 94c8 f93e 0f88 2c3e
000002d0: 6818 813e 807b 7f3e 036d 123e b42b d83e
000002e0: a769 933e 79fc 6d3f 033e 643e a837 ae3e
000002f0: 4229 b13e 950f 9c3e d50e a43e 3ed0 fa3e
00000300: 8924 b03e d7b7 9c3e 3aad d53e 3828 b63e
00000310: 4a0b b83e 1ca7 7b3e b5d8 b63e 14db a33f
00000320: 6941 a73e f12e a43e c076 803e 38db 433e
00000330: 9063 9e3e 2e31 6a3e 5d21 6e3e 6ad2 073f
00000340: b883 923e 9dd6 693e 97c1 8f3e 98c5 793e
00000350: 94c9 673e 6d24 c43e bab0 c13e 6519 db3e
00000360: 1702 0b3f c49e 473e fb34 513f b2d7 2f3e
00000370: a3a2 f13e 0467 913e 4aa0 7a3e 0f54 a33e
00000380: e4a4 843e 6730 013f f9b3 863e fada ab3f
00000390: 9092 9f3e 71bc a23e 0c38 983e c59b a23e
000003a0: 2545 6c3e 9e1e a93e 89e7 953e 3881 a13e
000003b0: 7346 773e 9d85 623e 9b67 6e3e db6b 2b3e
000003c0: 4445 523e 6396 de3e e593 9d3d ac65 ab3f
000003d0: eea1 0c3f 5789 e03e d06c 3f3e a15b de3e
000003e0: c837 103f 9f9a f23d 6a3b 323f 74f0 693e
000003f0: 633b d93e d817 6b3e fcfe f53e d988 5f3e
0.33842376 0.39695695 0.20336996 0.18964843 0.25030777 0.8576923 0.3306533 -0.020008018
0.16905527 0.40275273 0.26718158 0.27366978 0.76594716 0.16452475 0.15023522 0.22350124
0.51235116 0.4031053 0.15327145 0.30166104 0.34302068 0.6692086 0.19910063 0.5715621
0.041484904 0.20242305 0.09611053 0.16645443 0.4053474 0.2856955 0.79433084 0.43464848
0.38410482 0.3124913 0.38285768 0.22752489 0.15293288 0.25931913 0.3035079 0.33652756
0.34208593 0.34702814 0.28641412 0.38197723 0.28731847 0.14124975 0.19633989 0.3263113
0.37266654 0.35723945 0.18859446 0.2932325 0.43561542 0.39309192 0.26518387 0.017465657
0.20364529 0.1510701 0.0599096 0.060703013 0.31001067 0.1915333 0.2530075 0.21135259
0.12586273 0.8715466 0.3749574 0.37540653 0.3207697 0.24710976 1.4262651 0.16801985
0.20920913 0.41132396 0.27552187 0.32913664 0.34628278 0.31835973 0.36755025 0.46756214
0.4481432 0.41189155 0.52891934 0.44150317 0.2380815 0.2016695 0.0670045 0.49772826
0.31914 0.42078194 0.22084197 0.4049735 0.47033942 -0.027560558 0.2386472 0.3054538
0.5370046 0.40184754 0.39697856 0.797063 0.29455674 0.3110734 0.2884116 0.24696518
0.6427612 0.26602155 0.35653374 0.21258576 0.19971776 -0.18112186 0.35438755 0.2260301
0.2219374 0.4707606 0.32031894 0.21134226 0.27389047 0.21201728 0.31051064 0.27462575
0.5695389 0.2945329 0.2567762 0.20822966 0.468844 0.26106593 0.23992415 0.2221191
0.40320432 0.32767132 0.34064114 0.515583 0.32990086 0.29751438 0.328828 0.23992565
0.31649145 0.1918903 0.22295693 0.42693672 0.25638273 0.18818697 0.212765 0.26341218
0.4673821 0.5870431 0.2792818 0.1907204 0.31774196 -0.017316276 0.2134213 0.067647696
0.31644437 0.3064914 0.307379 0.18474847 0.21708588 0.29232413 0.24318586 0.27834955
0.53528947 0.17797445 0.39783224 0.26244783 0.22905958 0.25054586 0.14916603 0.65107024
0.26670223 0.4532451 0.15569095 0.08203629 0.25368103 0.20361356 0.22380592 0.2531838
0.38897714 0.2726485 0.4878584 0.16848777 0.25213933 0.24949455 0.14299397 0.42220843
0.28791544 0.9296337 0.2228928 0.34026837 0.3460179 0.30480638 0.32042566 0.48987
0.34402874 0.3060901 0.41733724 0.3557756 0.35946113 0.24575466 0.3571221 1.2801232
0.3266709 0.32067063 0.250906 0.19126594 0.30935335 0.22870323 0.23254915 0.5305544
0.28616118 0.22835775 0.28077385 0.24391782 0.2263549 0.3830904 0.37830144 0.42792812
0.54300064 0.19494158 0.81721467 0.17172125 0.47194394 0.28398907 0.24475208 0.3190007
0.25907052 0.5046448 0.26309183 1.3426201 0.31166506 0.31784394 0.2973026 0.31759468
0.23073252 0.33031172 0.2927821 0.315439 0.24147968 0.22121282 0.2328171 0.16740362
0.20534235 0.4347411 0.07694224 1.3390403 0.54934585 0.43854782 0.18693852 0.43429282
0.56335115 0.11845898 0.6962191 0.22845632 0.4242812 0.22958314 0.480461 0.21829547

bn1.weight f4 [400]
00000000: 7603 643f 4b4e 693f 6050 5b3f 809e 853f
00000010: 562c 7d3f d23d 903e 3b2d 563f 5617 db3f
00000020: 65d6 a43f 59e2 453f 4976 8c3f 0eab b63f
00000030: 1593 9e3e abe7 b73f dd89 b83f 8f42 a13f
00000040: ea60 0a3f 4acd 433f 7e8e ed3f 88d0 8a3f
00000050: aa2c 4a3f ac45 ca3e 6cab 763f 071f e23e
00000060: 9faa a33f 6692 8d3f fdf9 b93f 8e94 a63f
00000070: a80d 333f cb5d 683f 44ef a03e 8091 4d3f
00000080: da3a 583f 99e6 3d3f aca4 733f 8e6b 8f3f
00000090: e494 bd3f 84f0 923f e13d 953f eaf6 593f
000000a0: cf79 b63f 600c 7c3f d7d2 913f 424c 503f
000000b0: 203c 793f cd14 cd3f 4190 7b3f fd33 7f3f
000000c0: 6d7a 5d3f 3ecb 4a3f 100e b13f f79e 9b3f
000000d0: 1d42 373f 08ff 373f f622 623f 60a0 bd3f
000000e0: f3d5 bc3f c63c 993f d691 b43f 5616 fd3f
000000f0: a967 823f 313e ab3f 8db1 6b3f b4ef a93f
00000100: 5ab6 bd3f 8737 8d3e 4094 3f3f 4b68 423f
00000110: 581d 473f bc34 993f 88b5 023e b423 913f
00000120: 317e 9a3f c6fb 513f 08fc 8c3f aa21 693f
00000130: ffe8 793f 3f28 6f3f 3334 453f fcde f83e
00000140: f29c 143f 37af 343f 1300 0e3f d051 293f
00000150: 82f5 913f 10e7 973f fd30 af3f 539d 0f3f
00000160: 5412 723f bd2e 3e3f 23d7 6c3f d5cd 393f
00000170: 961b 173f 972c d03f e05f a13f b39c b73f
00000180: d44a 0b3f 7339 223f 92e7 313f d1a0 983e
00000190: c443 aa3f 5b4f 7c3f adb0 6a3f 7175 7e3f
000001a0: 6199 d43e b771 653f 7046 703f 28df 873f
000001b0: c7a5 a33f d2fb 0f40 2619 653f 799d 963f
000001c0: d0e9 a53f f851 1f3f 569b 6f3f b8bd 9b3f
000001d0: 88f1 863f 2e6f 923f c72f 813f 4d35 793f
000001e0: 1aee f73e 91f9 5e3f 9116 b83f 6b03 af3f
000001f0: 9a60 113f 7115 893f a3fa 9c3f 58f5 903f
00000200: 1263 813f 7a2e 703f 4a24 513f 0086 063f
00000210: 3224 533f 0511 803f 1163 823f 08f2 8b3f
00000220: 8229 823f afb5 cc3f bbbb 593f 945e 313f
00000230: 7488 be3f 0941 953f 2173 893f 00c0 9c3f
00000240: 58ba 103f 3813 073f 9868 8d3f afde af3f
00000250: 10ae 833f 009c bc3f 04d9 9d3f 5222 d23f
00000260: 5155 9b3f 158d 763f fe9b 593f b8e8 dc3f
00000270: 540b c93f 4f84 873f 90e0 7b3f 693e 7a3f
00000280: 82d3 173f bd18 833f 2025 663f c9ca 8c3f
00000290: 6456 843f 8681 8c3f 4b8f ca3f 4559 d43e
000002a0: ca87 883f ebe5 243f d96c 793f 4309 f33f
000002b0: d085 9f3f f393 b43f 1a99 663f 3675 863f
000002c0: 7fa8 4d3f 4dbe 603f b592 053f a153 993f
000002d0: ca8d 9c3f 495d 803f e4f0 a53f 87e1 573f
000002e0: 2892 843f 862d 843e a374 af3f 79cf 6f3f
000002f0: a99a 3e3f c24e 813f d4f9 5e3f 8de6 293f
00000300: 03eb 863f 9751 8c3f 22a6 1e3f 0beb 663f
00000310: c11a 4c3f 1ca8 8d3f 1aed 493f 1629 3b3e
00000320: 7ed2 883f d504 613f 0a23 a83f 52c1 9d3f
00000330: fda6 8e3f 2924 8e3f 06fa 863f f0a3 e93e
00000340: 4b0e b93f 53d1 803f 56a3 943f fe43 a13f
00000350: 040b a73f ad6c 443f f4f4 533f 99ac 5a3f
00000360: e518 fa3e 8789 753f cd51 8d3e e32d 9a3f
00000370: 0f7e 243f 4497 883f 2921 783f 4409 353f
00000380: a8aa a73f d7c6 173f 5638 893f d1a1 183e
00000390: bbc1 553f be21 8f3f 5f21 953f ae8b 7e3f
000003a0: b763 993f e7e9 863f e5f3 853f 5f26 833f
000003b0: 3eaf 793f 4e68 a13f 641b a53f 0799 a13f
000003c0: ce31 a23f c22f 293f 9636 c93f 5abb 213e
000003d0: a942 083f 23c4 153f cf34 9a3f cc2b 5c3f
000003e0: cd82 0b3f 7c24 ba3f 45e6 b93e cb47 b13f
000003f0: 4709 613f 420e 903f 201e 1d3f 9d22 a63f
0.8906778 0.9113509 0.8566952 1.0438995 0.98895776 0.28172165 0.83662766 1.7116497
1.2877928 0.77298504 1.0973598 1.4270952 0.3097159 1.4367574 1.4417073 1.2598437
0.5405413 0.7648512 1.855911 1.0844889 0.789744 0.3950628 0.9635532 0.44164297
1.2786444 1.1060302 1.4529415 1.3014085 0.6994271 0.90768117 0.31432545 0.8030014
0.844648 0.7417999 0.95173144 1.1204698 1.4811063 1.147965 1.1659509 0.85142386
1.4255923 0.9845638 1.1392468 0.8136636 0.9735737 1.6021973 0.9826699 0.996887
0.8651493 0.7921637 1.3832417 1.2157887 0.71585256 0.7187352 0.88334596 1.4814568
1.4752792 1.1971672 1.4107006 1.9772441 1.0187885 1.3378354 0.92067796 1.3276277
1.4821274 0.27581427 0.74835587 0.7594039 0.7777915 1.1969218 0.12764561 1.1339021
1.206976 0.820248 1.1014414 0.9106699 0.9762115 0.93420786 0.77032775 0.48607624
0.5805198 0.70579857 0.55468863 0.6614046 1.1403048 1.186739 1.3686825 0.5609943
0.94559216 0.74290067 0.9251577 0.725797 0.5902647 1.6263608 1.2607384 1.4344696
0.54411054 0.6336891 0.69493973 0.29810193 1.330193 0.98558587 0.91675836 0.9939795
0.4152327 0.8962664 0.9385748 1.0614977 1.2784966 2.249745 0.894915 1.1766807
1.2961979 0.6223445 0.935964 1.2167273 1.054246 1.1440179 1.0092705 0.97346956
0.48423845 0.8709956 1.4381887 1.3672918 0.5678803 1.0709668 1.2263988 1.1324873
1.0108359 0.9382092 0.81696 0.5254822 0.82477105 1.0005194 1.0186483 1.0933237
1.0168917 1.5992945 0.8505208 0.6928494 1.4885392 1.1660472 1.073826 1.2246094
0.5653434 0.527637 1.1047544 1.3739833 1.0287495 1.4735107 1.2331853 1.6416724
1.2135412 0.96309024 0.8500365 1.725852 1.5706582 1.0587252 0.9838953 0.9775148
0.5930711 1.0241925 0.899004 1.0999385 1.0338864 1.0977027 1.582498 0.41474357
1.066644 0.64413327 0.97431713 1.8987201 1.2462711 1.410765 0.90077364 1.050452
0.8033523 0.87790376 0.5217698 1.1978647 1.223077 1.0028468 1.2964139 0.843285
1.0357103 0.25815982 1.370747 0.93675953 0.7445474 1.010216 0.8709996 0.6636742
1.054047 1.0962399 0.6197225 0.902024 0.79728323 1.1066928 0.78877413 0.18277392
1.0689237 0.87898 1.3135693 1.2324622 1.1144711 1.1104785 1.0545051 0.45632887
1.4457487 1.0063881 1.1612346 1.2598875 1.3050237 0.76728326 0.82795644 0.85419613
0.48847118 0.95912975 0.27601472 1.2045254 0.6425485 1.0671163 0.969256 0.70717263
1.3098955 0.5928778 1.0720317 0.14905478 0.83498734 1.1182172 1.1650809 0.99431884
1.1983556 1.0540131 1.0465056 1.0246085 0.97533023 1.2609956 1.2898984 1.2624825
1.2671449 0.660885 1.5719783 0.15794125 0.53226715 0.58502406 1.2047366 0.8600433
0.5449646 1.4542384 0.36308494 1.3850034 0.8790478 1.1254351 0.6137409 1.2979313

bn1.bias f4 [400]
00000000: a9fe 1fbe 854f ebbe 79e1 edbe 0c8f 54be
00000010: 21bb 35bc 1bd8 43bf 6d18 b7be e7ab 90be
00000020: 41d6 3bbe 4697 01bf ac20 3bbe 2d1e 69bd
00000030: b4ba 4ebf 675e 5ebe c105 3e3e 797e e8bd
00000040: a835 0abf d1fd 02bf 5da4 b53d abdd fcbe
00000050: e240 bebe 2c22 35bf 88ea 9fbe 9c8d 2dbf
00000060: fe27 e4bc 62bc 68be 1764 91be 62d2 9abd
00000070: a6e9 f5be 9a46 aabe b1ff 3cbf 290e edbe
00000080: fa93 01bf e0d2 cebe 516e 7bbe 942f 32be
00000090: 495f 33be 5180 1ebe 52a7 20be 1c84 a4be
000000a0: c476 c5bd ac6d b1be 1996 92be 9070 b6be
000000b0: 1acd 71be f101 8b3d f6bd 0abd 6d11 a9be
000000c0: eee1 c7be 09cf cfbe d46b 48be 5558 8cbe
000000d0: f28c d3be 04ae c3be f4d1 dcbe 50dc 94bd
000000e0: df36 ecbd 4604 8dbe c728 8bbd 8161 0abe
000000f0: 8764 74be 48b9 c9bb dcb5 e7bc f2d4 b3be
00000100: 6710 89be 6c33 47bf 07b3 acbe a6f8 f8be
00000110: c250 c6be 31f3 67be e3e6 64bf 4319 82be
00000120: 1a86 ebbe afb0 c8be a3ea 71be b0f2 61be
00000130: 1e0c 8dbe a23a 6fbe c0f0 d7be 0f54 29bf
00000140: 21ca 09bf b1a2 d5be 292e 13bf baf3 dabe
00000150: c8b0 08be bbcd 61be 09e4 5bbe 62d2 18bf
00000160: 3b02 71be 7f65 eabe 3f43 23be 1d76 c4be
00000170: 0199 dcbe 7dbd 303e 6879 4dbe d119 18be
00000180: a836 23bf b465 00bf d77e dbbe 8365 4cbf
00000190: f92f b83c 7fb8 1abe 8298 e5be bd3d 4bbe
000001a0: 9783 38bf 9cbb ecbe f53b aabe 3cc7 a9be
000001b0: f475 30be cc4a 883d c3c8 92be 35d1 68be
000001c0: 2711 5abe be0e 08bf 2e98 c2be aeec 48be
000001d0: 27ea 90be 72cf babd 9600 94be 8a6f 9bbe
000001e0: f29a 24bf 5ece bebe 8170 cbbd 0b13 eabd
000001f0: c68c 0abf 7de4 61be 6e42 7bbe e73e 95be
00000200: 048f 55be 9ed4 9bbe eb72 91be e717 0fbf
00000210: 88ed eebe 5b94 91be e8a6 4abe 9f3b 24be
00000220: 10ae 1bbe b418 833c afb8 a8be b873 e2be
00000230: 04a9 6abd 3894 d2be 8f88 b4be ed7a 6ebe
00000240: 3b59 04bf 6767 16bf 08fb 56be 3b9a 243d
00000250: c4cc a2be 8d6c 06bb 6e50 62be 6f26 c13d
00000260: c4ee 32be 74c8 88be c013 d7be 1da2 ac3b
00000270: fb5a a23d c0bc 9bbd fba4 30be c7ad a7be
00000280: 8484 12bf 8974 75be 6728 70be 97ab 9dbe
00000290: 4e27 75be eb3c 7bbe 9e58 9fbd 031b 2ebf
000002a0: 76c1 43be c1da 03bf ee82 7bbe 953c e0bc
000002b0: 71b3 acbe 8576 0dbe 8dab 99be 3225 cabe
000002c0: 18d1 e5be 62ed b8be e672 1cbf 3bc7 3dbe
000002d0: e91c 863d eb06 5bbe c7cd 44be 4c26 82be
000002e0: dd65 8fbe b140 51bf 77bf 3ebe d966 a1be
000002f0: 50fc cabe dcb8 84be fcce 49be 0725 08bf
00000300: 29bc d2be 3c74 8abd 07f8 fbbe c0c7 bfbe
00000310: f6d4 d9be 656a a6be aafe cebe 6641 70bf
00000320: 8252 90be 0cd8 aabe a3f3 edbd 8a11 debd
00000330: 6f12 68be 5114 c1bd 1d59 3ebe 2767 0dbf
00000340: e3d7 ca3c f2af 47be 9051 86be 06ef 1bbe
00000350: 3018 59be 669b debe 95fb ddbe 9999 cabe
00000360: 88dd 1cbf c247 55be 85c6 48bf f5db 84be
00000370: 9951 fbbe 6f4c babe 306c 60be 71ef d2be
00000380: 5148 37be 9f71 f4be 089a 58be 8db9 5bbf
00000390: 8a87 aebe ba9a 80be 0699 54bd 6779 95be
000003a0: c4f4 6ebe 8fb2 98be b56d 88be becf 17be
000003b0: 50ea 7dbe 9568 98bd fe61 13be 365e 0abe
000003c0: c7bf 20be 608c ddbe c700 81be c4ab 63bf
000003d0: 629e 27bf 8cd1 12bf 5665 2abe cc7e c8be
000003e0: cf05 31bf cf45 70bd 2f9a 3fbf 780f 2b3d
000003f0: 1560 96be 6a04 7cbe 94d0 f9be 9dda 10bd
-0.15624489 -0.45959106 -0.46461084 -0.20757693 -0.011091978 -0.76501626 -0.35760823 -0.2825615
-0.1834345 -0.5062145 -0.18274182 -0.056913543 -0.80753636 -0.21715699 0.18556882 -0.11352248
-0.5398812 -0.51168543 0.088692404 -0.4938787 -0.37158877 -0.7075527 -0.3123362 -0.67794204
-0.027851101 -0.22728112 -0.28396675 -0.075596586 -0.48029822 -0.3325699 -0.73827654 -0.46299866
-0.5061642 -0.4039526 -0.24553801 -0.17400962 -0.17516817 -0.15478636 -0.15688828 -0.3213204
-0.09641793 -0.34653986 -0.2863014 -0.35632753 -0.23613396 0.0678748 -0.033872567 -0.33021107
-0.39039558 -0.40587643 -0.19572383 -0.27411142 -0.4131847 -0.382187 -0.43128932 -0.07268584
-0.11533903 -0.27542323 -0.06794887 -0.13513757 -0.23866473 -0.0061561204 -0.02828496 -0.35123402
-0.26770326 -0.7781284 -0.33730337 -0.48627204 -0.38733488 -0.22651364 -0.89414805 -0.25409898
-0.4600075 -0.391973 -0.23624663 -0.22065234 -0.27548307 -0.2336221 -0.42175865 -0.6614389
-0.5382405 -0.41725686 -0.5749231 -0.42764074 -0.13348687 -0.22051136 -0.21473707 -0.5969602
-0.23536007 -0.4578056 -0.15943621 -0.38371363 -0.43085483 0.17259784 -0.20065844 -0.14853598
-0.63755274 -0.50155187 -0.4287021 -0.79842395 0.022483813 -0.15109442 -0.44842917 -0.1984777
-0.7207579 -0.46236885 -0.3324887 -0.33159816 -0.17232496 0.06654891 -0.28668794 -0.22736056
-0.21295606 -0.53147495 -0.3800673 -0.19621536 -0.28303644 -0.09121598 -0.28906697 -0.30358535
-0.6429893 -0.3726682 -0.09933568 -0.114294134 -0.54121053 -0.22059818 -0.2453706 -0.29149553
-0.20855337 -0.30435652 -0.28407988 -0.5589585 -0.46665597 -0.284335 -0.19790232 -0.16038369
-0.15203118 0.01600299 -0.32953402 -0.4422891 -0.057290092 -0.41128707 -0.35260436 -0.2328908
-0.51698655 -0.5875153 -0.20994198 0.040186148 -0.3179685 -0.0020511479 -0.22100994 0.09431159
-0.17473894 -0.26715434 -0.42007256 0.005268349 0.079275094 -0.076043606 -0.17250435 -0.3274977
-0.5723345 -0.23970236 -0.23452912 -0.30794975 -0.23940775 -0.24534957 -0.07780574 -0.68009967
-0.19116768 -0.51505667 -0.24561664 -0.027372638 -0.33730653 -0.13814743 -0.30013695 -0.39481503
-0.44886088 -0.3611861 -0.6111282 -0.18533032 0.06548483 -0.21389358 -0.19219123 -0.25419843
-0.28007403 -0.81739336 -0.18627726 -0.3152378 -0.39645624 -0.25922287 -0.19707865 -0.531815
-0.4115918 -0.06760451 -0.49212667 -0.37457085 -0.4254529 -0.32503048 -0.40428668 -0.9384979
-0.28187948 -0.33367956 -0.11618736 -0.10843189 -0.22663282 -0.09427703 -0.18588682 -0.55235523
0.024761146 -0.19500712 -0.26234102 -0.15227899 -0.21200633 -0.43477935 -0.43356004 -0.3957031
-0.6127553 -0.20828155 -0.78427917 -0.25949064 -0.49085692 -0.3638644 -0.2191627 -0.41198304
-0.1789868 -0.47742936 -0.21152508 -0.85830003 -0.34087783 -0.25118047 -0.051903747 -0.29194185
-0.23335558 -0.2982373 -0.266462 -0.14825341 -0.24796414 -0.074418224 -0.1439285 -0.13512501
-0.15698157 -0.4327116 -0.25195906 -0.8893397 -0.6547605 -0.57350993 -0.16640219 -0.39159238
-0.6914949 -0.058660325 -0.7484464 0.0417628 -0.2937018 -0.24611059 -0.48791945 -0.035364736

fc2.weight f4 [300, 400]
00000000: 1fd0 eebd f5cd 283f da24 02be 29bb f43e
00000010: e6e7 f0bd f976 da3d 7964 323f 6263 4e3e
00000020: eae0 2cbe 0358 263d 8579 5f3d f8a0 00bf
00000030: aa5f 12bd d5e1 5abe 45fc 663d df69 aebe
00000040: 5738 ac3c 05d5 353f 6075 1fbf 6237 b83d
00000050: d286 d13e a5a6 e6bd c13a c3bd 4c42 01be
00000060: ce5d e53d 9418 103f d2e1 333f 949f d7be
00000070: 10ad 47be 5509 6e3d 7f8c 073e 6397 9c3d
00000080: 0845 22bd 0abb 1cbe 2b33 f8bd dc35 d33e
00000090: 69dd 273d c61b adbd f887 2ebd 422f cbbd
000000a0: 17b2 10be 2240 403e 4487 2cbe f2f4 7b3e
000000b0: c31c 7dbe 69d8 f83d 6686 1bbe dce5 0a3f
000000c0: b3a6 913d 6323 d2bc a0c0 a1be 008d c6bd
000000d0: ac53 00bd a1bf c8bc 047d a7bd 8b94 803e
000000e0: 866b e1be 7aac 743e 2b45 aa3e 2cea febe
000000f0: b834 243e 29ef 11be 7104 253c b288 e1bd
00000100: 81ac 103f 46d2 693c 6da7 8bbe 1653 2b3f
00000110: 8b8b 4b3e 424b 6fbe da7a 553d 8535 8b3e
00000120: 2b69 ff3e b990 e03d 3ac1 b43e 01c1 ae3d
00000130: afa7 83bd 667d 29be 6a8b 173e 251e 9a3d
00000140: b53f c53c 0a13 d8bd 88c4 b2bc e483 a4bd
00000150: a23e 30bd 5238 72be 7672 113f 0a5a 9b3d
00000160: a831 1dbe 3567 023e 167e 71be a918 f93d
00000170: 05f7 44be 455f 9bbb 8666 d7be b070 4bbe
00000180: e017 9cbd 9f13 2e3f 3fe6 9d3e 6596 73bd
00000190: 59b3 82be 5f99 04be e250 ac3e 20d6 90bd
000001a0: ddc0 51be f47e 973e c191 1e3c 1690 853e
000001b0: 85b5 9abe 639b 71bf 6db4 1ebe b892 513e
000001c0: c99e bbbc 7bd6 9c3d c2a5 343f 165b f33d
000001d0: 56ad 7cbe 9335 e83c 5b35 c53e dbca 813e
000001e0: 709d e1bd 2c9a 0e3d 07b9 94be b5ec 323d
000001f0: fb6d 4d3e 94ba 4d3e d2de b9bb f8af 1d3e
00000200: 14f1 11be 7419 78bd 307b 803e 1cc5 7a3c
00000210: 355b b03d 3d25 5b3e 8be2 8cbd e0c7 b5bd
00000220: d4da 02be c3cd 823e 1932 d23d d916 f03c
00000230: 74a9 f9be 1f03 12be fde6 17bf 1ce0 7cbe
00000240: 81de b03d cb8f b23b 76e1 10bd ab29 98be
00000250: 84ca 80be 78ad 53be 9f25 26be 9ff6 843e
00000260: 2bd1 093d cdb2 18be e2f4 1dbd e7e7 e7be
00000270: 4401 7abe 25b7 17be 32fd 003e fc31 553e
00000280: b7a5 9b3c ded8 b8bd 395b b23c 1671 5b3e
00000290: df5d c93e fd59 a1be 8315 203e c7ef 643d
000002a0: d815 b7bd 6b0b ac3d fac8 22be da9a 0cbf
000002b0: df2b f23e 3504 283e 7414 22be d21d b03e
000002c0: 0855 813b a377 1a3f 4a16 6b3e cbe2 c0bd
000002d0: 29f2 24be 59be 243f 507d 73be 2658 6abd
000002e0: 061f 0ebd b228 cabd 64f5 103f 3f8f 0d3d
000002f0: 4c0d 44be d818 db3c 8230 0cbe 7c36 76bd
00000300: 85ca bd3e 1b82 2ebe 779d da3c 35c9 ec3d
00000310: 5197 7c3b 4681 fe3d b0d9 7a3e 86e0 093d
00000320: 42fc 2bbe 4c96 a63e 7067 53be 052f 0fbe
00000330: f58a 36be 8abb 12be a4b9 4cbd dc87 d2bc
00000340: 5620 5bbe ff03 113f 6f07 8f3e a62e d13d
00000350: 0a9c db3d 1f19 503e c698 90bd 22d3 16be
00000360: 058d 0cbd 3fb3 0dbe 550a 903d 6fb3 cebd
00000370: 3a30 e5bc c4ee 4bbc 759d 05be 61d5 29bd
00000380: a786 c6bd 9feb cf3c 546f 343d 4353 113d
00000390: 34e9 9e3e ce5e cf3e 5b0e 093c a1bf 2f3f
000003a0: 65e1 b73e 1c76 043f 5a94 2e3c 2c9c a3bd
000003b0: 358d fcbd 5828 dc3e f8c8 00be c6cf b7bb
000003c0: af43 bbbd 5caf 243e 6b30 323e 076c a93b
000003d0: 98b2 c53d 0c13 733e 2113 2fbe f93d 313e
000003e0: 9f28 b43d 5dbf 6e3e 1e8c 3abd c344 5cbe
000003f0: 3dfb e1bd f5ba 263d 02ab 963b bc32 d73d
-0.1166079 0.65939265 -0.1270937 0.47799042 -0.11762981 0.106672235 0.6968456 0.20155099
-0.16882673 0.04061128 0.05455925 -0.5024562 -0.035735764 -0.2137521 0.056392927 -0.34065148
0.021022959 0.71028167 -0.62288475 0.089949384 0.40923172 -0.11262254 -0.09532691 -0.12622947
0.111995324 0.56287503 0.7026645 -0.42113936 -0.19499612 0.05811437 0.13237189 0.07646062
-0.039616615 -0.15305725 -0.121191345 0.4125203 0.040982638 -0.08452563 -0.04261014 -0.09921123
-0.14130436 0.18774465 -0.16848475 0.24605158 -0.24718003 0.12150652 -0.15187988 0.5425699
0.071118735 -0.02565164 -0.31592274 -0.09694862 -0.031329796 -0.024505438 -0.08178142 0.2511333
-0.44027346 0.2389392 0.33255896 -0.49788034 0.16035736 -0.14251389 0.01007186 -0.11012401
0.5651322 0.0142713245 -0.27276173 0.66923654 0.1987745 -0.23368552 0.052119114 0.2718927
0.49884924 0.10965104 0.3530367 0.08532906 -0.064284675 -0.16551742 0.14799276 0.07525281
0.02407823 -0.105505064 -0.021822229 -0.08032969 -0.04302848 -0.23654297 0.5681528 0.07585533
-0.15350974 0.12734683 -0.23583254 0.12162907 -0.19234855 -0.0047415816 -0.42070407 -0.19867206
-0.07621741 0.6799869 0.30839726 -0.0594696 -0.25527456 -0.12949131 0.3365546 -0.07072091
-0.20483728 0.29589045 0.009678305 0.2608649 -0.30216613 -0.94377726 -0.15498514 0.20466125
-0.022902863 0.076580964 0.70565426 0.11882608 -0.24675497 0.028345859 0.3851727 0.2535008
-0.11016357 0.034815 -0.29047415 0.043682773 0.20061485 0.20090705 -0.005672314 0.15399158
-0.1425212 -0.06057115 0.25093985 0.015305784 0.08611146 0.21400924 -0.06879147 -0.08876014
-0.12778789 0.2554761 0.102634616 0.02930777 -0.48762095 -0.14259003 -0.59336835 -0.24694866
0.08636189 0.0054492704 -0.035371266 -0.2971929 -0.25154507 -0.20671642 -0.16225289 0.25969407
0.033646744 -0.14911957 -0.038563617 -0.45294115 -0.24414545 -0.14815958 0.12596586 0.20819849
0.018999917 -0.09025739 0.021772014 0.21429858 0.3932943 -0.31513968 0.15633206 0.055892732
-0.08939713 0.08400615 -0.15896979 -0.54923785 0.47299096 0.16407855 -0.15828115 0.3439775
0.003946904 0.603388 0.22957721 -0.09418257 -0.16108002 0.6435295 -0.23778272 -0.05721297
-0.034697555 -0.09871043 0.56624436 0.03456044 -0.19145697 0.026745245 -0.1369038 -0.060110554
0.37068573 -0.17041819 0.026686413 0.11561815 0.003854234 0.12427001 0.24497104 0.033661388
-0.16795447 0.32536542 -0.20644927 -0.1398278 -0.17826445 -0.14329353 -0.04998173 -0.025699548
-0.21399054 0.5664672 0.2793536 0.102139756 0.107231215 0.20322083 -0.07060389 -0.14728978
-0.034314174 -0.13837908 0.07033221 -0.10092818 -0.027977098 -0.012447063 -0.13048346 -0.04146326
-0.09693652 0.025380908 0.044051483 0.035479795 0.31037295 0.40502018 0.008365239 0.6865178
0.3591415 0.5174272 0.010655487 -0.07988772 -0.123316206 0.4299953 -0.12576663 -0.0056094853
-0.09143769 0.1608252 0.17401282 0.0051703486 0.09653205 0.23737735 -0.17097141 0.17308797
0.0879681 0.23315187 -0.045543782 -0.21510606 -0.11034248 0.04070564 0.0045980224 0.10507724

fc2.bias f4 [300]
00000000: 1c4a 82bb 5b4a 9dbc bde7 d5bc f788 26bc
00000010: effe e83c f5ea f6bc 7e86 ac3c 89c5 9ebc
00000020: 3c20 60bc 5ffc 163d c626 1a3b 6c5e 543c
00000030: 6d49 bebc 2b78 753b e433 efba 9996 48bc
00000040: 3a93 a73c c00e 80bc 208d 2fbc e1ee 1f3c
00000050: 238f 26bb 68eb fa3a b918 4cbc 3c88 e43c
00000060: 06e1 223c 510a f1bc 0258 bdbc a4e7 a3ba
00000070: 6013 edbc df98 283c a799 34bc 0e37 fe3b
00000080: 6dc3 c8bc 8bdb c63c a811 2fbc 6354 85bc
00000090: 7f02 aebc aa62 9a3c a765 773c 0e6a 953c
000000a0: 2a7d 9bbc 3fd2 efbb d504 1ebc 2d05 5c3c
000000b0: 7d9e e7bc 614f a2bc 0df6 673c 4fe7 2c3c
000000c0: 0887 75bc 757b d1bb cb28 1a3c f8c8 d2bc
000000d0: c88f 11bd 8242 2d3c 28d6 113d 759d 44bc
000000e0: 4486 853c 18d5 543c 5b0b d4bc 9f58 5d3c
000000f0: a6f2 76bc b164 283d 5f5b 903b 71cf f2bc
00000100: 4e93 473c f822 eeba 62ab 16bc f85a fe3c
00000110: 14ff 233b b20c c4bc b60d 3e3c c76f b2bc
00000120: e821 27bb 5647 e9bc 26cf 2f3c 3297 86bc
00000130: 4095 7fbc 2b4d 993c 7f7a 99ba e066 dbbc
00000140: d752 3c3c 7514 3c3c 7f63 ab3b 9956 d5bc
00000150: 1495 ebbc 3fc6 f53c ae7f 8bbc 0475 c93b
00000160: 79c3 1dbd 66c7 a1bc 93e3 2ebc 68ec 5a3b
00000170: 7636 4ebc c9ff 963c 102a 4dbc a530 cd3c
00000180: 6b28 2bbc 69e4 75bc 5be3 483c 25d8 6c3c
00000190: beb5 90bb ee31 0eba 5668 80bc 4c0a c4bc
000001a0: b8c7 68bb 8d4e f83b b04b 13bc 55a7 163c
000001b0: fe54 f43a fd5f 393c 99c7 963c f7a7 20bd
000001c0: 52fc bcbb b118 4ebc 1eca 343c 46e3 e33c
000001d0: 0739 883c 18e1 8abc aa5e 91bb 6266 20bc
000001e0: 7e41 9fbc ccac 79bc 933b ee3b f6cd 90bc
000001f0: 6d5d 18bb b9ff eebc c0ba f3bc 197f 9cbc
00000200: dd9e 39bc 17fb 7f3b e98e c1bc 83f1 1fbd
00000210: ac08 3c3c 2b6e 1f3c 7320 59bc a951 00bd
00000220: fdbe 693c 1bb3 e83c 768b 1ebd 2bc0 1a3c
00000230: c755 103d 33e5 1ebc 0838 d5bb cd5f f13c
00000240: 3759 98bc c935 93bc 9428 393c c3ab 233c
00000250: 4b66 103b b7b0 b3bc 8706 79bc 187d 4b3a
00000260: e8e0 bbb9 22a0 b33b 3d9a a4ba 98fd e1bc
00000270: 6970 f3bc c5b6 9ebc f58c a33a 369d a53c
00000280: 302e d0bc 2915 efbc 1af1 90bc f8aa d73c
00000290: e3cb 853b e679 edba c01c c43c 1640 cdbc
000002a0: 1c44 e8bc e605 0cbb df65 303c 34ff d63a
000002b0: c931 9c3c bac5 d3bc cdf6 19bd e5e9 f9ba
000002c0: 3ef0 933b 1c63 6939 3263 953b 2103 0bbd
000002d0: 9410 e7bb 3791 bb3b 6e31 eb3c 9e6b 903c
000002e0: 37cc c3ba 0e1a ebbc 7656 94bb 680a 92bc
000002f0: 96f8 d53c 40de 8c3c 2737 d93b aba9 8d3c
00000300: aad3 a03c bb1e f03c ad96 a9bc 09cd 27bd
00000310: b02c 6e3c 0398 673c 7ebc e4bc faea 6c3c
00000320: e308 d93b 7e10 0abc 1442 03bc 15ef 94bb
00000330: e8da 55bc 5d08 30bd 91fc 743c 89f9 023d
00000340: 7601 57bc 48d9 b63c 4e25 3fbc 4f79 89ba
00000350: bdc3 c23c 56ea 843c b1e8 5c3c a16c b13b
00000360: e558 433c 10ca 7e3c 05e0 f4bc 4178 87bc
00000370: f872 dbbc a91e ae3b 3d63 15bb d29c fcbc
00000380: a7f3 083b 1238 da3c 2b51 4a3c 6db9 723c
00000390: a874 6abc bdec d3bc 588d b93c 0070 c2bc
000003a0: 1f8a adbc 50cd 09bb 7f51 63bc 28d6 8b3c
000003b0: 913a 8a3c 03d6 b6bc 24d4 993c 47ca 3fbc
000003c0: 6d9f babc 8cbc 3fbc 2971 853c a768 ecbc
000003d0: b661 c73b 504d fcbc 5eea 5b3c 7d90 c5bc
000003e0: 798a b0bb 3e1f 9f3c 4b5a 65bc 1e65 9e3a
000003f0: 8da5 893c 405c b23c 6cf4 723c b7dd 003c
-0.0039761197 -0.019200495 -0.026111478 -0.010164491 0.028441874 -0.030141333 0.021060225 -0.019381301
-0.01367956 0.036861774 0.0023521646 0.012961965 -0.023228372 0.003745566 -0.0018249718 -0.0122429365
0.020455945 -0.015632033 -0.010714799 0.009761543 -0.0025414906 0.0019143643 -0.012457066 0.027896993
0.009941345 -0.029423865 -0.023113254 -0.0012504947 -0.028939903 0.010290354 -0.011022962 0.007758028
-0.024507249 0.024274608 -0.010685362 -0.01627559 -0.021241425 0.018845875 0.015099919 0.018239047
-0.018980581 -0.0073187645 -0.009644707 0.013428968 -0.028273815 -0.019813241 0.014157784 0.010553195
-0.014985807 -0.006392891 0.00940914 -0.025730595 -0.03553751 0.010574939 0.035604626 -0.012000431
0.016299374 0.012990259 -0.025884321 0.013509898 -0.0150725 0.04111165 0.0044054235 -0.029639931
0.012181116 -0.001816838 -0.009196134 0.031049237 0.0025023865 -0.023931835 0.011599949 -0.021781815
-0.0025502387 -0.028476398 0.01073054 -0.016429517 -0.015599549 0.018713554 -0.001170948 -0.026782453
0.01149436 0.011479487 0.0052303667 -0.02604227 -0.02875761 0.030001758 -0.017028656 0.0061479826
-0.038516495 -0.0197484 -0.010674375 0.003340507 -0.012586227 0.018432515 -0.0125222355 0.02504761
-0.010446648 -0.0150080705 0.012261237 0.01445583 -0.0044161966 -0.000542431 -0.015674751 -0.023930691
-0.0035519432 0.0075777234 -0.008990213 0.0091951685 0.0018641052 0.011314389 0.018405722 -0.039222684
-0.0057673836 -0.012579129 0.011034517 0.027818333 0.016628755 -0.016953036 -0.0044363337 -0.009790035
-0.019440409 -0.015238952 0.0072702854 -0.017676335 -0.0023249045 -0.029174672 -0.029752135 -0.019103574
-0.01132938 0.0039059573 -0.023627715 -0.039048683 0.011476677 0.009730856 -0.013252365 -0.031327877
0.014266727 0.028405717 -0.03870722 0.0094452305 0.035238054 -0.0096982 -0.0065069236 0.029464627
-0.018597228 -0.017969983 0.0113011785 0.009989682 0.0022033628 -0.02193485 -0.01519931 0.0007762476
-0.00035834988 0.005481736 -0.0012558174 -0.027586743 -0.029716687 -0.01937426 0.0012477922 0.020216566
-0.025412649 -0.029184895 -0.017693091 0.026326641 0.004083143 -0.0018117994 0.02393949 -0.025054973
-0.02835279 -0.002136582 0.010766475 0.0016402961 0.019066708 -0.02585112 -0.037588883 -0.0019066898
0.004514723 0.00022257533 0.004558944 -0.03393853 -0.007051537 0.005724098 0.028710093 0.01762944
-0.001493818 -0.028698947 -0.0045269085 -0.017827228 0.026119512 0.01719582 0.006628889 0.017292818
0.01963218 0.029311528 -0.02070173 -0.04096702 0.0145370215 0.0141353635 -0.027921911 0.01446032
0.006623374 -0.008426784 -0.00801136 -0.0045451024 -0.01305268 -0.042976726 0.014952795 0.031976257
-0.013122907 0.022320405 -0.011666609 -0.0010488423 0.023774976 0.016225021 0.013483212 0.005414561
0.01192305 0.015551105 -0.029891977 -0.016536834 -0.02678822 0.0053137136 -0.0022794746 -0.030836497
0.0020897181 0.026638065 0.0123484535 0.014814717 -0.01431004 -0.025869722 0.022650406 -0.023735046
-0.021184025 -0.0021026917 -0.013874411 0.017069891 0.01687363 -0.022318846 0.018777914 -0.0117059415
-0.022781098 -0.011702668 0.01628931 -0.028858496 0.006084646 -0.030798584 0.013422577 -0.024116749
-0.005387601 0.019424077 -0.013998578 0.0012084579 0.016802574 0.021772504 0.0148287825 0.007865361

bn2.weight f4 [300]
00000000: 2196 2a3f 7fc0 323f a685 7f3e e537 c53d
00000010: 47ed c93a c231 17bd 6a63 6c3c b500 113e
00000020: 26cc ea3d 2027 7b3d 4fdb 8d3e 96a9 383d
00000030: 9f2e 683e a0eb 36bd 2ba4 773e a45c 423d
00000040: e776 c8ba 0a36 aa3e 79ed c4ba ba8a 373d
00000050: e6bc 893c 15ee a73e 87b2 da3c 9977 663d
00000060: 18c1 9c3c 4297 073e 30bc 343e 6f7c bd3d
00000070: ad09 583e 3e4d 423e 3a8f 9c3c d64b aa3d
00000080: e308 7f3d 1999 963e 71b9 8a3e b10b c13d
00000090: 22d6 fc3a 2d31 043e 4d80 8bbb ed5d 8d3e
000000a0: 26f7 85bc 9f3d 053e 0082 103e ed13 f43d
000000b0: 9a68 f43c 1805 263e 95e2 6abd fcf6 c6bc
000000c0: aef2 3b3e f907 273d 8b11 713e 25e1 aa3c
000000d0: 8f12 f03d cf6d 9a3e cc2e 89bd 147c 963c
000000e0: 2c68 6a3e eb9b 6f3c 0fb9 08bc 095d d73d
000000f0: e00e 6c3e 1358 853f 24d1 713e 9ab2 4a3d
00000100: bb9d 2d3b 4c6f 373f 32ff 183c e111 bd3d
00000110: 22d8 073d 7c0d d3bc fd48 523e b940 b03e
00000120: 87e9 833d 59c4 943c eea7 243e 75fa 61ba
00000130: 8f2d 013e 974e 573c 717f 873d 2390 973c
00000140: ee4b 11bd a292 303f 36cc e13e 699d d73e
00000150: 2f3c 89bc 1720 643e dd9e 393e 9424 febc
00000160: 8c31 1e3d 6206 e83d 286d efbc b6fd 43bd
00000170: 0f6a 3f3c 273a e63c 1d84 193f e7f4 2bbd
00000180: a35a f53d 040b f93d 5a1d 843d e011 183e
00000190: 4c4a 993d b890 663c 79b9 3a3e 4816 2f3c
000001a0: 438f 7e3e b560 19bd eb53 1a3d ac81 15bd
000001b0: 395a fe3c 9591 973e 6623 763d 5009 2abc
000001c0: 64a2 e73c 17f2 8a3e dae3 c73d 246c 70bd
000001d0: b2e8 113b 858d a33c 36be 693f b9d5 0a3e
000001e0: a5df 4d3e 3f69 663d ef7c 063c 6f7f 06bd
000001f0: 1a4d df3e b9a0 c1bd 2f43 7e3d 0ee4 39bd
00000200: bf49 833d d040 083e dcac 5e3e 126e 8a3d
00000210: 8215 1c3c bbf8 833c fd2b 4c3f 3845 a73d
00000220: 7485 283e c1d6 dc3b 4ebb 9ebc ffc2 523e
00000230: fddc d9ba 10ab 88bb c688 103e b855 c83d
00000240: bdfa 493d 88e2 3c3e ff86 21bc 24e8 1fbd
00000250: ffa5 233e cd58 753c 0bd4 533c 115a 243e
00000260: 4f33 073e 379e 5c3f 1f50 413f 2732 fd3a
00000270: 2e81 9a3d 80f9 603f 1100 bb3e 124f de3e
00000280: 225a 563d 6017 9f3e a4a5 a439 2788 55bb
00000290: e008 81ba 173d d4bb 851e 3ebd 046f 923c
000002a0: aaf8 513c 872b 273e d28c 8a3d 2c55 123e
000002b0: 2463 a53c 641a 873e 110f 3a3d 4c0f 6a3d
000002c0: 2661 98bc 6ddc 5c3f cf02 133e 8e7f d8bd
000002d0: 7b2b e23d 7bd0 90bd 59ec 893d 538f 15bb
000002e0: ac23 443e bcdc 8cbc 2052 313e 607c b63c
000002f0: de7e 423e d686 a13c 20ca 4c3e 9d7e 933c
00000300: affa d13d 048b 0a3e 2267 da3c 4b3b 8b3d
00000310: 51b9 1d3e d82a 8d3d f3ab 5b3e 1796 ac3d
00000320: 1a39 403e d27d 543d 47e0 97ba 3497 883d
00000330: 1716 133c d549 ca3d 69d2 b53d f3c3 793d
00000340: efa4 033d 4591 33bd e80d 393d 5e50 923e
00000350: 3eca 2b3e 9c65 a43d 64ad a13c 5051 85bd
00000360: 708c c6bb 854f c53e 948d c63d 43ab bb3d
00000370: fd2a a6bb 750b 893d 3493 aebd 57dc cd3d
00000380: 9d4a 913d edbf a63d b161 a83d 79c3 a1bd
00000390: 3506 673e ce42 80bc 1620 0c3a f8c0 b73c
000003a0: 162d 253e c9ea 3c3e 5bcd 213d 1661 4b3d
000003b0: 2506 d33b 0af7 2f3e d695 913c c1af 4b3f
000003c0: ebc6 593e ee6a 753d 0887 35bc b2a5 6d3f
000003d0: 9c42 173f f352 6e3c c8da 6a3d 2019 51bd
000003e0: bd77 fe3c 1fd3 ce3d 4104 223e ef5a 35bd
000003f0: 484a 213f f175 f3bd e27d 893c ba67 d13d
0.6663533 0.69824976 0.24953327 0.09629802 0.0015405797 -0.036912687 0.014427999 0.14160426
0.114647195 0.06131661 0.27706382 0.045083605 0.22674035 -0.044658303 0.24183719 0.04745163
-0.0015294225 0.33244354 -0.0015024386 0.044810034 0.016813707 0.3279883 0.026696457 0.0562664
0.019135043 0.13241294 0.17649913 0.092522494 0.21097441 0.18974778 0.019111264 0.08315246
0.062264334 0.2941368 0.27094606 0.09426058 0.0019289891 0.12909384 -0.004257238 0.27610722
-0.016353201 0.13011788 0.14112091 0.11917863 0.029835034 0.1621288 -0.05734499 -0.024287693
0.18354294 0.040779088 0.23541848 0.02085931 0.1172229 0.30161902 -0.06698379 0.018369712
0.22891301 0.014624576 -0.008344903 0.10515792 0.2305255 1.0417503 0.23614937 0.049486734
0.002649172 0.716542 0.009338187 0.09231926 0.033165105 -0.025763266 0.20535655 0.3442438
0.06441026 0.018160032 0.16079685 -0.000862039 0.12615035 0.013141296 0.066161044 0.018501347
-0.035472803 0.68973744 0.44101113 0.42112282 -0.01675233 0.22277866 0.18127008 -0.031023301
0.03862147 0.113293424 -0.029226854 -0.04784938 0.011683001 0.028103901 0.59967214 -0.041981604
0.11980178 0.12160304 0.06450911 0.14850569 0.07484874 0.01407259 0.18234815 0.010686465
0.24859338 -0.037445743 0.037677687 -0.036500618 0.03104888 0.29603258 0.060092352 -0.010378197
0.028275676 0.27137825 0.09760256 -0.05869688 0.0022263941 0.019964943 0.91305864 0.13558091
0.20104845 0.056252714 0.008208497 -0.032836374 0.4361351 -0.094544835 0.06207579 -0.045383506
0.0641055 0.13305974 0.21745628 0.067592755 0.009526612 0.016109815 0.7975462 0.08167499
0.16457158 0.006739468 -0.019376423 0.20582198 -0.0016621646 -0.004170783 0.14114675 0.097819746
0.04931139 0.1844579 -0.009858846 -0.039039746 0.15981291 0.014974785 0.012928973 0.16049983
0.13203166 0.86178917 0.7551288 0.0019317315 0.0754417 0.87880707 0.36523488 0.434197
0.05233205 0.3107252 0.0003140393 -0.0032582374 -0.0009844564 -0.006477009 -0.046415824 0.017875202
0.012815634 0.16325198 0.067651406 0.14290303 0.020188875 0.26387322 0.045424525 0.057143494
-0.018601011 0.86273843 0.1435654 -0.10571204 0.110434495 -0.070710145 0.06734533 -0.0022821024
0.19154233 -0.017195098 0.17316484 0.022276103 0.18993708 0.019717615 0.1999898 0.01800471
0.10252892 0.13529593 0.026660506 0.067984186 0.15402724 0.068929374 0.21452312 0.08427065
0.18771783 0.051877804 -0.0011587226 0.06669465 0.008977435 0.098773636 0.08878023 0.060977887
0.032139715 -0.04383971 0.045179278 0.2857694 0.16776368 0.08027193 0.019736 -0.0650965
-0.006059222 0.3853723 0.09694973 0.09163525 -0.0050710426 0.066916384 -0.085241705 0.10051792
0.070943095 0.08142076 0.08221758 -0.078986116 0.22560962 -0.015656855 0.00053453573 0.022430882
0.1613048 0.18448938 0.039502483 0.049653135 0.0064399415 0.17184082 0.017771643 0.79565054
0.21267287 0.05991643 -0.011079557 0.92830956 0.5908601 0.014546144 0.057337552 -0.05104935
0.031062955 0.10098862 0.15821935 -0.044276174 0.6300397 -0.1188773 0.016783658 0.102248624

bn2.bias f4 [300]
00000000: a58a 953d 61de f73d 8010 ca3d de3b ea3d
00000010: 8580 babb 91ae c3bc 7b9f 2abd 2150 0f3d
00000020: d404 ba3b b78b 82bd 69cd a63c 4ff1 0fbc
00000030: b1ce 1c3d 4622 8c3c d945 2b3d 3bce 0e3a
00000040: 04eb f339 ddee b33d 4f4d c9b6 f595 053d
00000050: 4345 3cbc 6673 23bf b023 e7bb 5182 30bc
00000060: e061 4b3b 72bb d33c fc0d 033e 6306 64bd
00000070: a256 3e3d 23df 9ebd a0a2 593b b735 6cbc
00000080: 454a f83b d766 57ba a9d6 c33b cf47 403d
00000090: e40d a83c 74b9 443f 264c 9b3a c1e0 13bd
000000a0: d942 543b 2177 cabd bdee 073e 93f9 d7bd
000000b0: dfc0 893b 4d32 cb3b 0536 293d 9d14 833b
000000c0: a995 1ebc d592 d73c 8700 a83d de13 b83c
000000d0: 1fad 9c3d 6269 a8bd 680f 8cbd 75fc 44bc
000000e0: 4494 afbd 9b5b f8b8 7862 1cbb d025 f0bd
000000f0: e81d 34bf 911f b43d 9a4c f53c 957b fb3b
00000100: 8f8c 79bb d42a acbd 41a6 13bd c894 673c
00000110: d19d edbc b718 cb3b 9e8e a8bd 79bd 383e
00000120: b203 133d 9d55 08bc e8ae a53c bde3 013d
00000130: cbb9 8abd df3a 67bb 21f5 6e3d 72ef f43c
00000140: aeda 80ba bf84 08be dda9 113d d0de 903d
00000150: 7d0e 0abc 32cd 063b 2b79 69bd e342 1fbd
00000160: 00e0 fb3c beb1 ad3d 4a70 1abb 71ef 04bd
00000170: 9d66 0e3c d932 59bc b526 843d 2d48 fe3a
00000180: 1965 273b 21e7 cd3d 6431 f33b 03ad 5d3c
00000190: 0186 4b3d 5a6a 3e3a 623d 6bbc 3a76 5f3c
000001a0: 5b30 f3bc 213e 7939 790f 70bc bd90 f73c
000001b0: bbc4 cebb b54a b3bd df37 93bb 2b9c e23b
000001c0: e056 c0bc 5584 acbd a894 6cbd e007 813b
000001d0: b2d7 51bb 8e4f 313b 053a c4bd 1868 1abd
000001e0: 82be f2bc bcf9 08bc 0aa3 79bd 7523 3bbc
000001f0: 6bfe bebd d51b 1fbb d6f0 aa3d ee1a b9bc
00000200: 2e3e d8bb 1fd1 b8bd c39e 303d e688 893d
00000210: 5ff5 20bb 1b50 cdbc f736 d63d bb05 ee3d
00000220: b021 9bbc 7e0f d53b 976f 46bc 0f1b c8bd
00000230: 9936 76bc 562a 21bb 8df6 253d 5201 88bd
00000240: 4357 acbc e8ab 303d 961f 13bc bf74 3a3c
00000250: 89e4 b0ba 129d d83c 7872 2bbb 0d88 c33c
00000260: e853 4ebd 3ece e5bd 9340 e9bd ef07 703b
00000270: 0513 513d 3d43 043e 5498 42bd bfe5 b5bd
00000280: 4c2b 9f3b b3f9 62bc f901 823c 13be 553a
00000290: 2a13 c73a 856b c63a a4b5 c83b f149 633d
000002a0: 03f0 033c 5ea8 543c 85e5 0f3b c1f8 c23d
000002b0: 8728 1dbc fe88 ec3d 46a7 103d f213 c83c
000002c0: 795e 523b 2412 203d 5893 50bd f972 4dbb
000002d0: e5b2 bbbc 2e3c 0a3c c615 11bd a4fc 043a
000002e0: 1431 68bd 42f9 b2bb 92b9 1a3d d58e 223c
000002f0: 5781 adba 822f 04bb 439b 19bd 5aaa 95bc
00000300: 41a9 64bd 19a8 acbb 2a4b ff3c 4758 ae3d
00000310: 36a1 45bc 0f6a a3b9 aa9a e0b9 c064 09bc
00000320: 59a9 a7bd 5e4f b53c 161a a5ba eca8 a43b
00000330: bb2f 8c3d 3edc 093d e5c7 2abd c7ea acbd
00000340: 3d1e 0ebc 47a7 f83b e6fe 013d d53b d73e
00000350: 04a2 90bc 4567 3fbd 7fff 1d39 a799 363d
00000360: a52b 543b 276e b1bd 0a77 393d b659 a5bb
00000370: 4285 cbb8 86e6 5ebc 263c 133c 5c90 173e
00000380: d9e4 353d f7aa 153b 6ab3 1e3f a8ff b0bc
00000390: d5c7 8f3d 3fb8 113b e57c 04bb 5d64 3e3d
000003a0: 952e 3e3d 00c0 d3bd 1a35 db3a 3d10 90bd
000003b0: 43a5 acbc f90d 92bd 5b80 1e3c 95c4 a2bd
000003c0: cf5f 663e 94d8 28bb dcbc c33a 5588 b2bd
000003d0: 9abe 40be e6e5 2dbc 5268 c5bc bee6 e3bc
000003e0: ae7b 1bbd a422 fdbd 4b23 a2bc 1cf3 ae3b
000003f0: d359 d7bd 727d 113d d96a b7ba 0e46 773d
0.07301835 0.12102962 0.098664284 0.114372 -0.0056915903 -0.02388695 -0.041656 0.034988526
0.005676845 -0.06374305 0.02036162 -0.00878556 0.038283054 0.017106187 0.04181466 0.0005447601
0.00046523672 0.08785794 -5.9992667e-06 0.032613713 -0.011491123 -0.6384796 -0.007053815 -0.010773257
0.003103368 0.025846217 0.12798303 -0.055670153 0.04646934 -0.07757404 0.0033208504 -0.0144171035
0.007577213 -0.00082169235 0.005976517 0.046943482 0.020514436 0.7684548 0.0011848256 -0.036103014
0.0032388477 -0.09886003 0.13274665 -0.105456494 0.0042039 0.0062010647 0.041311283 0.00400026
-0.009679236 0.026315132 0.082032256 0.02247041 0.07650208 -0.08223225 -0.06838876 -0.012023081
-0.08573201 -0.000118426244 -0.0023862403 -0.11725962 -0.70358133 0.08795083 0.029943753 0.0076746442
-0.0038078164 -0.08406606 -0.036047224 0.014134593 -0.029005917 0.0061980146 -0.08230327 0.18041028
0.035892196 -0.008321193 0.020225003 0.03171133 -0.067737184 -0.0035282893 0.058339242 0.029899333
-0.0009830797 -0.13331889 0.035562385 0.07073748 -0.008426306 0.0020569083 -0.05700032 -0.038882148
0.03074646 0.08481167 -0.0023565465 -0.03245491 0.008691457 -0.013256752 0.06452695 0.0019400172
0.0025542437 0.1005385 0.0074216593 0.013530019 0.049688343 0.00072637724 -0.0143578965 0.013639027
-0.029686144 0.00023769635 -0.0146521265 0.030220384 -0.006310073 -0.087544836 -0.0044927443 0.0069155893
-0.023478925 -0.08423678 -0.057758957 0.0039377064 -0.0032019434 0.0027055475 -0.09581379 -0.037696928
-0.029631857 -0.008360323 -0.0609465 -0.011422028 -0.0932587 -0.0024278064 0.08346717 -0.022595849
-0.0065992093 -0.09024262 0.043120157 0.067155644 -0.0024560315 -0.025062611 0.104597025 0.11622187
-0.018936962 0.006502091 -0.012111566 -0.09770786 -0.0150276655 -0.0024591885 0.040518332 -0.06640877
-0.021037703 0.043132693 -0.008979699 0.0113803735 -0.0013495843 0.026442084 -0.0026160758 0.023868585
-0.050372988 -0.11220978 -0.1138927 0.0036625823 0.05104353 0.12916274 -0.047508553 -0.08881711
0.0048574563 -0.013853478 0.015870081 0.00081536284 0.0015188206 0.0015138244 0.006125169 0.055490438
0.008052829 0.012979595 0.0021956873 0.09520102 -0.009592182 0.11549567 0.035315774 0.024423573
0.0032099767 0.0390798 -0.050921768 -0.0031349047 -0.022912452 0.0084371995 -0.035421155 0.0005073047
-0.05668743 -0.0054618428 0.03777463 0.009921749 -0.0013237399 -0.0020169918 -0.037501585 -0.018269707
-0.055825476 -0.0052690622 0.03116377 0.08512931 -0.012062361 -0.00031168803 -0.00042839843 -0.008385837
-0.081865974 0.022132572 -0.0012596275 0.00502502 0.06845041 0.033657305 -0.04169454 -0.08443218
-0.008674202 0.0075883004 0.03173723 0.42037836 -0.01765538 -0.046729345 0.00015067866 0.044580128
0.0032374647 -0.08663588 0.04527954 -0.005046095 -9.7046155e-05 -0.013604766 0.0089865085 0.14801162
0.0444077 0.0022837499 0.61992514 -0.021606281 0.07020537 0.0022235063 -0.0020216045 0.046482433
0.046431143 -0.103393555 0.00167242 -0.07034347 -0.021074897 -0.07131571 0.009674157 -0.07947651
0.22497486 -0.0025763856 0.0014933604 -0.087174095 -0.18822709 -0.010613894 -0.024097595 -0.027819987
-0.037959747 -0.12360123 -0.01979222 0.0053390395 -0.105151795 0.035520025 -0.0013993635 0.060369544
