Zadanie3/srcV2/models/Zadanie 3/critic_network.pth (torch, 509903 bytes, 11 tensors)

fc1.weight f4 [400, 8]
00000000: 1447 3cbf 069e adbe 2751 1fbf 8186 413d
00000010: 686f 193f 909b 253e bf25 7f3f 98c7 40be
00000020: 99dc 403f 2a4d 18bf 0674 213e 391f edbe
00000030: 4c47 f5be e88e abbe e10b c1bf a7eb 79bf
00000040: cf9d b63e 2c99 cf3d c84f 943e 78f8 743d
00000050: 5f1b c13d a31c 58bf a17e 5e3e fdac b13e
00000060: 99eb 34be 12af a23e bf4b 783e f707 0dbe
00000070: 2c15 683f ff22 3d3f de8c abbd 71bf 0ebf
00000080: f709 bdbe 8249 6e3e afb7 9f3e 80dc 8dbe
00000090: 60f0 94be ea61 053e fef1 2d3f 5172 2a3f
000000a0: b93d 8c3e e335 9c3e 69b7 4fbe 750a 1e3f
000000b0: 679c 403e 28e5 47bf 2a89 a83e a07c 803f
000000c0: 48df cf3d df32 c1bd ea6f d7bd a2a1 a73e
000000d0: 5c1b a0bf 6a87 74bf d3f6 e33e 3384 193f
000000e0: 9bf8 3a3d 8144 8b3e dd07 af3d d08d 0fbf
000000f0: c98d 5fbe 4bb9 0c3f dd6f 3e3f eddf 5e3f
00000100: 9bab 2ebf 2170 e53d 1dda 3b3e 23c5 863f
00000110: c295 15bf 4723 fc3e 3176 213f 96c8 123f
00000120: 9f14 a23e 8fbf c3bd ec77 563f 141f 6f3e
00000130: dff6 b2be 397d a0be 2d6e 933e 7d35 0b3f
00000140: 4b1f 7bbe a5d5 763e e24b 123e 6d24 36bf
00000150: ced9 efbd 0ebc 233f 73be 1d3f 1a45 513f
00000160: e059 47bf 4103 3abd 38d9 0bbf cbca 413f
00000170: d287 293f 174b 143f c640 313f 1c91 8cbe
00000180: b7c4 44be 1c54 ec3e 4994 7d3c 2e24 d3be
00000190: cff0 c6bd e52b 8fbd 7473 3f3f 24fd 9c3f
000001a0: 56f7 d43b 852e 9f3e 4063 623e fcd7 1a3d
000001b0: bd98 cc3d 1452 6c3f 0ca7 2e3f 62e7 523c
000001c0: b85c de3d 7487 f5be 416a e4be 96ad 41bf
000001d0: 2793 bdbf 37c2 ba3e 8419 6c3e e400 8e3e
000001e0: e808 2fbe 66b9 e23c 1844 1e3f 49fe 99be
000001f0: 87ca 4cbf 80c4 99be 6ade a13e d830 6d3e
00000200: 01e8 de3d f977 eabd 386b d2be a321 d93e
00000210: 6a89 483f 618d bb3e 1f91 a13e e277 a53e
00000220: 3329 0c3e 77f4 fb3e 8185 223e 90dd 88be
00000230: 24d3 ebbd 5fdc b63e c7f2 203f 3826 913f
00000240: 48ad 393f 9759 94be b814 fb3e a4bb 983d
00000250: c2fb 0ebf 1d83 03bf c288 cf3d 1bb3 ea3e
00000260: 9417 35bf 23ce bebe c5d9 29bf 7566 5cbd
00000270: dc31 293f 53fe b83d 6cf9 a5be b156 d6bd
00000280: d5f3 1dbf 4339 3cbf 5b07 b9be c71b 63be
00000290: ad5e 5cbf 6e95 47be e966 6a3f cf30 4fbd
000002a0: 0b8c 07bf c439 cdbe 1c04 4d3f a9da d73e
000002b0: f520 31be 1c78 47be 077a c33e 0786 313f
000002c0: 8038 b23e c40c e33e 4db4 9f3d 96de fdbe
000002d0: 7270 b1be 02cf ca3e 876f 893e 3526 193f
000002e0: 55fb 30be eaed 53bf d7c3 073f 3bb6 2d3e
000002f0: d62a 213e 52f6 37bf 270a 963e fafb 3b3f
00000300: 01e2 cbbb 24a5 7d3e cdd8 f73d ff68 8bbe
00000310: af66 7fbf fdc8 b2be ea61 133e abc7 a13f
00000320: b900 993e 7cca 2ebf a93f dcbe 826e 22bf
00000330: 06aa 06bf 223b cebe e5da b1bd 3d1f c3be
00000340: 8787 62be f4df c83e 74af 133f a630 40bf
00000350: 1369 11bf 6b41 bf3e ee53 613f ad93 8c3f
00000360: fe51 493e dba5 8e3e 661e 8abd 2907 693e
00000370: e6dd 37be 1b51 a2be bda7 883e ff2d 3b3f
00000380: c0ed e1be 483e 1cbf cc34 c03e 834d 913e
00000390: d8b0 1f3d e2b1 853e efa6 273e 5bf7 fe3e
000003a0: 266c 0cbf 31f5 5abe 065c f73e 15fa 06bf
000003b0: da4f 523f 6a50 96be 422a 243d dde9 723f
000003c0: fb92 fcbe 82cd a6be 3788 30be 1f48 29be
000003d0: bd35 2d3f 7cf3 5a3f 3575 973f 8eab 3bbf
000003e0: a7de 13be c7a2 373e 4d23 babe 40a4 143f
000003f0: e424 efbd 9fe1 ba3e 0f3c bb3f 632e 183f
-0.73545957 -0.33909625 -0.62233204 0.047247414 0.5993562 0.16172624 0.9966697 -0.18826139
0.75336605 -0.59492743 0.15766916 -0.46312883 -0.47905958 -0.33507466 -1.508175 -0.976252
0.35667273 0.10136637 0.28967118 0.05980727 0.09429049 -0.84418696 0.21727993 0.34702292
-0.17667998 0.31774193 0.24247645 -0.1377257 0.90657306 0.73881525 -0.08376478 -0.55760866
-0.36921665 0.23270229 0.31194827 -0.2770729 -0.29089642 0.13025633 0.67947376 0.66580683
0.2739084 0.30509862 -0.20284809 0.61734706 0.18809663 -0.7808404 0.32917148 1.0038033
0.101500094 -0.09433531 -0.10519393 0.32740504 -1.250835 -0.95519125 0.4452425 0.59967345
0.045647245 0.27200702 0.08546422 -0.56075764 -0.2183143 0.54970235 0.7438944 0.87060434
-0.682306 0.112030275 0.18344922 1.0528911 -0.5843164 0.49245664 0.6307097 0.5733732
0.31656358 -0.09558021 0.83776736 0.23351699 -0.34953973 -0.31345537 0.28794995 0.5437849
-0.24523656 0.24104936 0.1428676 -0.7114933 -0.11711465 0.63958824 0.6161873 0.81746066
-0.77871513 -0.04541326 -0.54628325 0.7570006 0.6622287 0.5792708 0.6923946 -0.2745446
-0.19215666 0.4615792 0.0154772485 -0.4123854 -0.09713899 -0.06990794 0.7478554 1.2264752
0.0064992113 0.3109018 0.22108173 0.037803635 0.0999007 0.9231274 0.68223643 0.012872549
0.108575284 -0.47954905 -0.44612315 -0.75655496 -1.4810532 0.364763 0.23056608 0.27735054
-0.17093241 0.027676295 0.6182265 -0.30076817 -0.7999653 -0.3003273 0.31615 0.23163164
0.10884095 -0.11448664 -0.41097426 0.42408475 0.7833468 0.366313 0.3155603 0.32318026
0.13687591 0.4920995 0.1587124 -0.2673154 -0.11514881 0.35715005 0.6287045 1.1339788
0.7253003 -0.28974602 0.49039245 0.074576646 -0.558529 -0.5137194 0.10133506 0.45839772
-0.707391 -0.37266645 -0.66347915 -0.05380865 0.66091704 0.090328835 -0.32416856 -0.10465754
-0.61700183 -0.73524874 -0.36138424 -0.22178565 -0.86081964 -0.19490597 0.9156328 -0.050583657
-0.52948064 -0.40083134 0.80084395 0.42159012 -0.17297728 -0.19479412 0.38179037 0.69345134
0.3480873 0.44345677 0.077980615 -0.49583882 -0.346561 0.3961106 0.268429 0.59823924
-0.17283376 -0.82784903 0.530332 0.16964047 0.15738997 -0.7186023 0.2930462 0.7343136
-0.00622201 0.24770027 0.12101898 -0.27228543 -0.9976606 -0.34918967 0.1439282 1.2639059
0.29883364 -0.68277717 -0.4301732 -0.6344987 -0.52603185 -0.4027949 -0.08684329 -0.3810977
-0.22122012 0.39233363 0.57689595 -0.7507423 -0.56800956 0.37354597 0.8801869 1.0982567
0.19660184 0.27860913 -0.06744079 0.22756638 -0.17955741 -0.31702504 0.26690474 0.7311706
-0.441267 -0.61032534 0.3754028 0.2837945 0.03898701 0.26112276 0.16372274 0.49798092
-0.5485252 -0.21382596 0.48312396 -0.52725345 0.82153094 -0.29358226 0.040079363 0.948881
-0.49330887 -0.32578665 -0.17239462 -0.16531418 0.67660123 0.8552778 1.1832644 -0.73308647
-0.14440404 0.17933188 -0.36355057 0.58063126 -0.11676958 0.3650026 1.4627703 0.5944578

fc1.bias f4 [400]
00000000: fd49 08bf 7605 a0be b875 3a3e 67b8 2b3e
00000010: 7e96 e03e 619b 863e d758 893e 94c4 0f3f
00000020: bdd4 003e daee 39be 4338 353f cdaf 603d
00000030: 20d7 1a3f 858b 803e ffe0 5bbe 7572 db3e
00000040: de1d 11bf d69f 033f 4a15 e4be f71e 20bd
00000050: 9cf7 d1bd 6fda 083f 5723 003f ce0d 003f
00000060: 4588 cabe a807 0b3f c619 3e3f e57b 1b3e
00000070: 2c88 343f 3afd 953e bec8 8fbd fc64 b53e
00000080: c2f7 9abe f070 3b3f f8f8 b4be cb29 67bc
00000090: 851b d23e d5f1 e7be d225 ec3e f247 fe3e
000000a0: f3f9 ffbe bfde 86be 4e50 543e a945 2cbf
000000b0: 2189 6e3f a6b0 163f de4c b2be d3b1 b3be
000000c0: 8b5a b9be e806 7d3d 99c9 203e eaf2 9f3e
000000d0: 7e65 0abf 167c b2bd 4f12 45be c389 a23e
000000e0: 6135 4fbc 57a3 6a3f 59be 453e 963d 2e3f
000000f0: 7d82 37bf c78e adbe a3ec 6b3e 3b47 f23e
00000100: 5dd5 413f 27e2 32bf b495 0d3f 02d9 253f
00000110: e31f 25bd cf55 5dbe 9ab9 45bd 0673 b3be
00000120: 8aec 3e3e 30c9 8e3e 572d 1dbd 18ba 043f
00000130: 3cb7 693f 0138 133e d2b7 fd3e 5455 053f
00000140: f81b 543e c7d2 b33e 0a6f 5bbe 6cad d03e
00000150: 0287 c7be 4b09 58be 3fdc a23e f384 27bd
00000160: 834a b1bc 4c98 f5be 215b 99be 6333 b6bd
00000170: e139 46be 0e98 36bf d77c 073f d948 eabd
00000180: 9af9 673e a81b 473f c098 12be d609 d43e
00000190: 1d40 e93e de35 183f d13d c23e fdb9 89bd
000001a0: d28f 193f 6764 00be 2711 3abf e630 5f3e
000001b0: 9c8f 0abf 623f 2d3f 40ac 033f 81dd 6a3e
000001c0: 9947 9e3d 7ca9 4ebc d3e0 a33e ef6c 893e
000001d0: df64 5a3d 10ed b0be abe9 c33d 3bbe 2bbe
000001e0: 7fb1 4abe 31c9 9d3e 8bf7 193f 8003 a8be
000001f0: 7102 fe3e defc db3e c2d6 3bbd de74 f43e
00000200: 10e6 123e 260c 0dbd a0b3 bebe df2f c1be
00000210: da0b 013f 1104 0dbd 9030 4dbf 9614 cebd
00000220: 92f3 653f b996 85be ff87 f73e fbc8 be3e
00000230: 5cd6 103e 4c81 313f 1f60 353f 007a 103e
00000240: 3f67 123e 90fe 763d d89d 543e 8006 97be
00000250: 2b38 cdbe 0ebd 3c3f 7480 abbd 311a 103e
00000260: 8856 0c3f 464f 443f 7bb9 ba3d 1adb 853e
00000270: 341d 073f 5a15 023f 074a 213f ef38 c53e
00000280: 7747 1c3f 85eb 1bbf a8ae 8b3e e7b0 983e
00000290: 6ca6 023f ed8b 66be 8a12 23bd a7f8 dabe
000002a0: 4637 0dbe ee71 633d 1116 81be cc57 053f
000002b0: b50f de3e 1628 863f b25e 8a3e 13c6 3f3f
000002c0: 2274 d9be f3d7 d2be 3374 973e 7031 a5bd
000002d0: 903b aa3e 69df 693d 20e6 0e3f b28e 86be
000002e0: fb0d 21be 5fad 3a3e 3b96 afbd 377b 27be
000002f0: 30b2 3c3e 50f5 1abf 6fd1 923e e054 0bbf
00000300: d127 b13e d52f e43d 01f4 013f 6e89 7dbe
00000310: 797a a13d 83bb 213f b1fb 3a3e a264 8d3e
00000320: fca0 d3be c3e5 963e 3d0f dfbd d88a 1f3f
00000330: d1bf 6e3f 7526 283f 25ab 593d 509f f1be
00000340: 29ac 433f ff52 ddbe 52d5 373e b01c 933e
00000350: 7bdd 49be f70f a63e 99ba d03e 2e69 1d3f
00000360: c530 3abf 1fcc a13e 9b66 a93c c3f0 84bd
00000370: dc9f a53e e2c4 a63e c176 443f 7f24 2f3d
00000380: c366 763e 358a 183f 2f53 eebe 9a54 ac3e
00000390: 15ed 1f3e fd43 143f 70e4 16bf 6035 94be
000003a0: 2395 2e3f 221f 60be f504 15be 3fda 02bf
000003b0: 24b5 4b3e dac6 363f 8770 a43e ed4e 13bd
000003c0: 9447 7c3e 7b4b 233d 0a21 a13d 7d36 21be
000003d0: d9b3 adbe d9ef 3f3f 6bb4 753e 61b2 243d
000003e0: adcd 223f f4d3 263f f0cf 32bc e191 4d3f
000003f0: 11b1 a03e 183a e93e fe43 a53e 0282 30be
-0.532379 -0.31254166 0.18208969 0.16769563 0.43864816 0.2629042 0.26825592 0.5615933
0.12581153 -0.18157521 0.70788974 0.054855157 0.60484505 0.25106445 -0.21472548 0.4286076
-0.566862 0.51415765 -0.44547492 -0.03909203 -0.10252306 0.53458303 0.50053924 0.50021064
-0.3955709 0.5430856 0.7425808 0.15183981 0.7052028 0.2929476 -0.070207104 0.35428607
-0.3026715 0.73219204 -0.35346198 -0.014109085 0.4103662 -0.4530169 0.46122605 0.49664265
-0.49995384 -0.26341817 0.20733759 -0.6729379 0.9317799 0.58863294 -0.3482427 -0.35096607
-0.3620189 0.061774164 0.15701903 0.31240016 -0.54061115 -0.08715074 -0.19245265 0.3174573
-0.012647004 0.91655487 0.19310893 0.6806272 -0.71683484 -0.33897993 0.23039488 0.4731997
0.7571619 -0.6987633 0.55306554 0.6478425 -0.040313613 -0.21614765 -0.048272707 -0.35048693
0.1864492 0.2788787 -0.038373318 0.51846457 0.9129522 0.14376833 0.49554306 0.52083325
0.20713794 0.35121748 -0.21429077 0.4075731 -0.3897019 -0.21097295 0.3180866 -0.040898275
-0.021641975 -0.47967756 -0.29952338 -0.0889652 -0.19358017 -0.7132577 0.52924865 -0.11439676
0.22653809 0.77776575 -0.14316082 0.41413754 0.45556727 0.59457195 0.37937787 -0.067249276
0.5998508 -0.125383 -0.7268242 0.21795997 -0.5412538 0.6767484 0.5143471 0.2293606
0.077285 -0.01261365 0.32007465 0.26840922 0.053318854 -0.34555864 0.09566053 -0.16771786
-0.19794272 0.3081756 0.60143346 -0.3281517 0.49611238 0.4296636 -0.045859106 0.47745413
0.14345574 -0.034435414 -0.37246418 -0.37731835 0.5040871 -0.034427706 -0.80152225 -0.1006252
0.89824784 -0.26091555 0.48345944 0.3726271 0.14144272 0.69337916 0.70849794 0.1410904
0.14297198 0.060301363 0.20763338 -0.29497147 -0.40081915 0.73725975 -0.0837411 0.14072491
0.54819536 0.7668346 0.09117409 0.26143724 0.52778935 0.5081383 0.6300358 0.3852
0.61046547 -0.6090625 0.2728169 0.29822466 0.5103519 -0.22514315 -0.039812602 -0.42767832
-0.13790616 0.055528574 -0.25212148 0.5208709 0.4337136 1.0480983 0.27025372 0.7491161
-0.42471415 -0.4118038 0.2958084 -0.0806607 0.33248568 0.057097826 0.5581989 -0.26280743
-0.1572799 0.18230198 -0.08573576 -0.16355596 0.18427348 -0.6053057 0.2867541 -0.54426384
0.3460069 0.11141936 0.50762945 -0.24759457 0.07884688 0.63176745 0.18260075 0.2761584
-0.4133376 0.2947217 -0.10891578 0.62321234 0.9326144 0.6568368 0.05314173 -0.47191858
0.7643457 -0.43227383 0.17952469 0.28732824 -0.19713394 0.32434055 0.40767363 0.61488616
-0.72730666 0.31601045 0.020678809 -0.06491234 0.32348526 0.32572085 0.76743704 0.042759415
0.24062638 0.5958589 -0.4654784 0.33658296 0.15617783 0.5791624 -0.5894232 -0.28946972
0.68196315 -0.21886876 -0.14552672 -0.5111427 0.19893318 0.71397173 0.32117102 -0.03596394
0.2463668 0.039866906 0.0786763 -0.15743442 -0.33926275 0.74975353 0.23994605 0.040209178
0.63595086 0.65167165 -0.010913834 0.8030072 0.3138509 0.45552135 0.32278436 -0.17237094

bn1.weight f4 [400]
00000000: d578 cc3f 78cb dc3f d7b1 783f 7012 403f
00000010: 9ddc 053f a640 3e3f 94ec 323f 2bd7 c63e
00000020: 4af7 323f cdcc 723f 370a c43e 3bb1 803f
00000030: aaa6 af3e c057 013f 1e03 fe3f bfa3 073f
00000040: 329e 0340 9823 c53e cf0e b13f 617f 883f
00000050: 6083 703f a4de be3f 76c1 b43e 2337 943f
00000060: b0ed 853f 07ff ae3f 1fb9 913e de46 293f
00000070: e412 9b3f ea99 5b3f 5c72 703f bb04 2e3f
00000080: 5546 ce3f 7848 913e 72ec f13f cfa5 9e3f
00000090: 174d 503f ed8c b83f e7cb 133f e119 be3e
000000a0: 3996 873f 1ce6 0a40 9412 1a3f c969 f83f
000000b0: bb80 fd3f 50d7 4c3e 999c 0340 d599 cc3f
000000c0: 7ddb 563f 62ac 703f 19f0 843f 507a 1c3f
000000d0: e8a0 e93f 3254 983f 41d5 ab3f cc02 893e
000000e0: 5899 613f 8fdd 5c3e 16d8 353f b33e b53e
000000f0: c91e 4c40 34e1 403f ec68 013f f0c1 263f
00000100: 72e3 a93e 9931 5e40 9f5e c53e 5bec 813e
00000110: d86b ce3f f5a4 923f 85ca 9f3f 8dce b83f
00000120: 3785 123e 05a8 873f f5d0 913f 7d18 473f
00000130: 6513 713e d40e 513f d581 843f 5061 aa3f
00000140: e7be 2c3f 9895 9c3e bb7a eb3f 8c50 603f
00000150: 90a3 0040 d968 d03f 0fac 1d3f 9701 f83e
00000160: 047e 413f fda2 943f 7dee c63f be87 303f
00000170: 2561 5e3f 4d46 5040 58ab af3e 3f73 d23f
00000180: 9ab5 a13f 2e46 a23e 6a5d 0b3f 88ff 4c3f
00000190: 07c2 e63e aa45 9c3f 3261 483f 67d8 833f
000001a0: 7edb cc3e 5f17 443f 7539 0f40 dd9a c23f
000001b0: 3767 ca3f 4894 903f d561 113f bbda 213f
000001c0: 56c1 383f 7d0f ed3f 8f01 743f 3b16 b33f
000001d0: a12f 273f 732c c33f 55eb 4a3f 5017 803f
000001e0: 50e2 833f 6f51 5c3f 198a c03e 623c 8b3f
000001f0: a139 ce3f 4c40 e73e f29b 3f3f c200 433f
00000200: dc08 ae3f 8bc9 7e3f 87a3 8e3f f65c 0740
00000210: 97a1 c43e 919f 4e3f d8b5 4440 218a bc3f
00000220: 3544 cc3f fc09 0240 742c 8c3f 1f99 aa3e
00000230: a964 213f 2b0d c83e 8f10 363f c797 813f
00000240: b422 633f d3e0 df3e f7b2 363f 8e68 8a3f
00000250: da9a d13f 578e 963e 691a 3b3f a415 363f
00000260: 489d 423e a09d 943e f7b0 2f3f 5d98 933f
00000270: 5c18 bd3e 0de7 a33e 29db 4b3f 6814 693f
00000280: 2231 c23e 1df6 df3f 5f0b e93e 2338 9a3f
00000290: 3889 873f 56eb a53f d0c3 3d3f 468a b13f
000002a0: d031 433f 52c4 3a3f c0ac 0640 471f 1d40
000002b0: a2c6 2f3f d58d 2140 703e 483f ea2a c53e
000002c0: e576 923f b059 d43f 5f99 6b3f 4986 763f
000002d0: 6118 ba3e c038 b93f 1a45 3d3e e95d b43f
000002e0: ae20 713f 356b 3c3f 7b09 8a3f 6b4f de3f
000002f0: a975 993e 914f 3740 1df7 a53f c872 1140
00000300: d85d 903f 5de7 f03e e9c6 d53f a88c 6b3f
00000310: 8e62 ca3e 61a7 a63e f668 e53e b4fe 1d3f
00000320: a3bb d73f 6908 393f 6a25 ac3f 5b1a 843e
00000330: cf1c 763e e333 8d3f da96 823f 9bc1 e93f
00000340: dae7 9c3e dba4 e73f 0e7b 4c3f 4eac 883f
00000350: 8e36 973f a187 083f e147 963f 417d 2d3f
00000360: 1c4c 2940 5026 cb3e 9e9c 223f ecdf 5f3f
00000370: 44c4 923f aac7 023f 4929 ee3f aaa6 803e
00000380: 9922 4a3f 889e 6d3f a27e aa3f 6c76 673f
00000390: ebdf 313f 946d b23e cbac 1140 cda0 703f
000003a0: 6385 be3e ea98 c43f 6875 c03f ffbe cb3f
000003b0: b90f 123f b793 a93e 32cf e83e 2172 3d3f
000003c0: f2b1 643f 1eb6 2a3f 7ae1 203f 3c67 6d3f
000003d0: 3ef3 903f 11df b63e 4362 0540 ed6c 2340
000003e0: e29f b93e 49db 813f f803 723f d714 8a3e
000003f0: 6965 3b3e 04dc 5c3f d476 543f d798 3a40
1.5974375 1.7249594 0.9714636 0.75028133 0.52289754 0.74317396 0.6989224 0.38836035
0.69908583 0.9484375 0.38289043 1.0054086 0.34306842 0.5052452 1.9844701 0.5298423
2.0565305 0.38503718 1.3832644 1.0663873 0.9395046 1.4911695 0.3530385 1.1579326
1.0463161 1.3671578 0.2846155 0.6612376 1.211514 0.8578173 0.939245 0.6797597
1.6115214 0.28375602 1.8900282 1.2394351 0.8136763 1.4418007 0.57733005 0.3712912
1.0592719 2.1702948 0.601846 1.9407283 1.980491 0.2000401 2.056433 1.5984446
0.8392866 0.94013035 1.0385772 0.61124134 1.825223 1.1900694 1.3424455 0.26759946
0.8812461 0.21568893 0.71032846 0.35399398 3.189379 0.7534363 0.50550723 0.65139675
0.3318134 3.4717772 0.38548753 0.25375637 1.6126661 1.1456591 1.2483679 1.4438034
0.1430863 1.059815 1.1391894 0.7777174 0.23542555 0.8166325 1.0352122 1.3310947
0.67478794 0.3058288 1.8396829 0.87622905 2.009983 1.6281997 0.61590666 0.48438713
0.7558291 1.161224 1.5541531 0.68957126 0.8686698 3.2542908 0.34310412 1.644142
1.2633545 0.31694168 0.54439414 0.8007741 0.45069906 1.220876 0.7827331 1.0300416
0.4001121 0.7659816 2.237882 1.520351 1.5812749 1.1295252 0.56789905 0.6322438
0.7217001 1.8520352 0.9531488 1.3991159 0.6530705 1.524794 0.7926534 1.0007114
1.030344 0.8606176 0.3760536 1.0877802 1.6111337 0.45166242 0.7484733 0.7617303
1.3596454 0.9952628 1.1143655 2.115049 0.38404533 0.8071223 3.0735989 1.4729654
1.5958315 2.0318594 1.0951066 0.33319947 0.6304422 0.39072546 0.71119016 1.0124444
0.8872483 0.43726215 0.7136683 1.0813158 1.6375382 0.29405472 0.73087174 0.7112677
0.1900531 0.29026508 0.686294 1.1530873 0.36932647 0.32012215 0.79631287 0.9104676
0.3792811 1.7496983 0.45516488 1.2048382 1.0588751 1.2962444 0.7412691 1.3870323
0.7624788 0.7295581 2.1042938 2.455034 0.68662465 2.5242817 0.7822027 0.38509303
1.1442534 1.658987 0.920309 0.9629865 0.36346725 1.4470444 0.18483391 1.4091159
0.9419049 0.73601085 1.0784143 1.7367986 0.2997258 2.8642313 1.2966038 2.2726307
1.1278639 0.47051516 1.6701328 0.920115 0.39528316 0.32549575 0.4480664 0.6171677
1.6854137 0.7227846 1.3448918 0.25801358 0.24034427 1.103146 1.0202286 1.8262209
0.3064564 1.8097185 0.79875267 1.0677583 1.1813524 0.53331953 1.1740686 0.6776925
2.6452703 0.39677668 0.6352023 0.8745105 1.1466146 0.51085913 1.8606349 0.25127155
0.7895904 0.92820024 1.3319895 0.9041507 0.69482297 0.34849226 2.2761714 0.9399536
0.3721114 1.5359166 1.503583 1.5917662 0.5705524 0.3312051 0.45470577 0.7400227
0.89334023 0.6668414 0.6284405 0.9273565 1.1324232 0.3571706 2.0841224 2.5535233
0.36254793 1.0145046 0.94537306 0.26969025 0.18300404 0.8627322 0.8299382 2.9155786

bn1.bias f4 [400]
00000000: 8f52 bfbd 3659 b3be fb61 0ebf 6c50 fbbe
00000010: 2eb7 39bf 296f 18bf 536a 3dbe 44fb 14bf
00000020: 1e0f 03bf 54dc 0ebf a1c9 3cbf cbe7 e0be
00000030: ab37 39bf 617c 01bf 96da afbd cf80 ebbe
00000040: 83e1 8fba 9dc5 14bf 3f32 7cbe 5f98 bf3d
00000050: 1dbe 10bf 037f c3be e8cf 1ebf 6902 e2be
00000060: 79ae 7abd 0000 413d 94d9 40bf 5824 11bf
00000070: 9c95 9dbe 324c 17bf ad4f 183e a40f 0abf
00000080: 8881 bb3c 66cd 2ebf 7cc9 c5bd 8792 aebe
00000090: ec28 38bf a20f 533d 4af4 4fbf 4828 44bf
000000a0: b3c5 1dbf d31e 01bc 9547 22bf 82b6 5bbd
000000b0: 9320 21be c0ff debe 682a 39be f884 14be
000000c0: 73d6 7fbe b162 6bbe 7507 c7be 94b1 0abf
000000d0: 7f2a aabe c3aa d1be 73d0 68bd bae9 dcbe
000000e0: 5786 21bf 58cb 2dbf ded0 23bf 726f 2bbf
000000f0: 20c9 543b 5f1f 29bf a731 18bf b36d 03bf
00000100: 5365 46bf e64b efbd 1195 33bf b15e 12bf
00000110: d80a fdbe ad24 9abe 9acb e4be ac91 f0be
00000120: dfce 66be b0c6 01bf 6c83 09bf e394 2cbf
00000130: 75c5 3dbf acad 83be 5515 7bbe c3e9 fabd
00000140: aa1b 1cbf d54c 83be 62f1 773e 365d 16be
00000150: fb8a c3be ab08 f4be 923e f2be 0386 cdbe
00000160: 495c c03d 5d1e c9be ee2c 83be 9146 d7be
00000170: 029a 3dbe d8dd a53d 3b0e 05bf 9693 aabe
00000180: 8247 a1be 9a4d 51bf 6722 6abe f9a8 44bf
00000190: 826a 55bf 1a52 18bf dd0a 1cbf 47ac 0ebf
000001a0: baa9 40bf 8d13 08bf e9a1 99be 543c 093a
000001b0: e5de 943c dce5 eabd 8aa2 2bbf 7e30 0abf
000001c0: d426 27bf f8e4 8f3e a8bc 78be 97e8 8ebe
000001d0: ac6c 00bf 36ed 403e 8ed2 3ebe 1f85 94bd
000001e0: 3ab4 f4be 6aa1 32bf baf4 69bf 364a 00bf
000001f0: 546f f4be 6265 39bf d428 30bf 254f 1bbe
00000200: 496d 98bd 98c6 e6be 754a 2b3e 5750 54be
00000210: 029f 54bf 1e95 08bf ef1f 823d 1fbc 60be
00000220: faca 2fbe 7fa6 323e f5a9 f8be 82b5 32bf
00000230: 31a2 2dbf b059 2ebf 9f4c b6be ea3e 6abe
00000240: e501 a0be c991 23be 7893 0bbf ba36 61be
00000250: 4bb6 33be ecfd 2cbf a546 07bf d799 31bf
00000260: 11d4 d0be 2526 47bf b445 e63c 8db2 eebe
00000270: 6598 35bf 5cf3 2fbf 4e6c b43d c689 2bbf
00000280: 6c75 52bf 3d8f 90be e4bf 09bf 9348 2bbf
00000290: 45b7 96be 34be 373d e878 0cbf e013 e1be
000002a0: 47bd eabe dd26 6d3d 54d4 ec3a f527 cdbc
000002b0: 376a 25bf d0cf 723d 88fa 99be 46e8 33bf
000002c0: c3ec 9bbe 2217 c6bd abdb b1be a726 94be
000002d0: 11d7 1abf 1acd b8be 4f5b b0be e048 9b3d
000002e0: 2e54 46be 94b3 14be 0b71 edbe bb40 af3e
000002f0: 9d0b bebe 0eac 6cbd b683 28be a7a1 313e
00000300: 9b2d 22bf 9f4e 05bf 80cb 02bf d59f d1be
00000310: 98ae cfbe 63e9 37bf 290f 97bc e182 1fbf
00000320: ec19 eabe e7bc 20bf 02f8 25bf 4636 2dbf
00000330: ee52 5bbf ae3b 933c 4056 27bf 2820 273e
00000340: eda2 2fbf 2cc6 1abe 0b5d dbbe 8eac c2be
00000350: 3ea1 abbe d729 f8be bbd9 14bf 6005 24bf
00000360: be83 f5bd 3d6d 32bf 26e4 24bf 5c4d 0cbf
00000370: 41ed 0fbf 4464 09bf 8034 ebbe 5569 acbd
00000380: c2ff 24bf 7004 35be 5ddd e93c b87d 10bf
00000390: 94f2 d7be 62d9 3dbf 86cb ba3d ce9f abbe
000003a0: 69f3 62bf 517f 9ebe 95f6 97be 9ace 7cbd
000003b0: d443 07bf c463 2dbf 6888 34bf 8908 1fbf
000003c0: 86a2 b1be 9269 8b3c adce b03d f4cd 0ebf
000003d0: 9a10 2cbe 4a7f 35bf 841c ee3d 7001 bbbe
000003e0: 4382 59bf 11d1 ffbe 6ca9 1fbf 661a 24bf
000003f0: 5bad bfbe 829a 19bf 8420 d6be a66d e13d
-0.09341919 -0.35029 -0.55618256 -0.49084795 -0.72545135 -0.59544617 -0.1849759 -0.581959
-0.5119494 -0.55804944 -0.7374516 -0.43926844 -0.7235057 -0.5058041 -0.08586614 -0.4599671
-0.0010977242 -0.58114034 -0.24628542 0.09355234 -0.5654009 -0.3818284 -0.6203599 -0.44142464
-0.061201546 0.04711914 -0.75332 -0.5669608 -0.30778205 -0.5910064 0.14874144 -0.53930116
0.022888914 -0.68282163 -0.09657571 -0.34096166 -0.7193744 0.05152858 -0.8123213 -0.76623964
-0.6162979 -0.007880884 -0.63390476 -0.05364085 -0.15735082 -0.43554497 -0.18082583 -0.14503849
-0.2498415 -0.22986867 -0.38872877 -0.5417721 -0.33235547 -0.40950593 -0.056839418 -0.4314707
-0.6309561 -0.678884 -0.6399058 -0.6696693 0.0032468513 -0.66063493 -0.59450763 -0.5133926
-0.7749836 -0.11684398 -0.7014933 -0.5717574 -0.49422336 -0.30106106 -0.44686586 -0.4698614
-0.22539853 -0.506938 -0.5371616 -0.67414683 -0.7412942 -0.2571844 -0.24519856 -0.12251618
-0.6097971 -0.25644556 0.24213174 -0.14683995 -0.3819197 -0.47662863 -0.47313362 -0.40141305
0.09392602 -0.39280978 -0.25620216 -0.42046025 -0.1851578 0.08098954 -0.5197484 -0.33315724
-0.3149987 -0.81759036 -0.22864686 -0.7682033 -0.83365643 -0.5950028 -0.60954076 -0.55731624
-0.7525898 -0.5315483 -0.3000634 0.0005235125 0.01817269 -0.114696234 -0.6704489 -0.53980243
-0.6529362 0.28104377 -0.24290717 -0.27911827 -0.5016582 0.18840489 -0.18635008 -0.07251953
-0.47793752 -0.6977755 -0.9138905 -0.50113237 -0.47741187 -0.7242032 -0.688123 -0.1516691
-0.074427195 -0.4507339 0.16727622 -0.20733772 -0.83055127 -0.53352535 0.06353747 -0.21946763
-0.17167273 0.17446326 -0.48567167 -0.6980821 -0.6782561 -0.681056 -0.35605332 -0.22875562
-0.31251445 -0.15973581 -0.54521894 -0.21993533 -0.17550008 -0.67574954 -0.5284217 -0.69375366
-0.40786794 -0.7779258 0.028109409 -0.46620598 -0.7093566 -0.6873071 0.0880972 -0.670071
-0.8221042 -0.28234282 -0.53808427 -0.66907614 -0.294367 0.044859126 -0.5487199 -0.43960476
-0.45847532 0.05789839 0.001806865 -0.025043467 -0.64615196 0.059280217 -0.30073953 -0.70276296
-0.30454072 -0.09672381 -0.34737906 -0.2893574 -0.60484415 -0.3609398 -0.34444663 0.07582259
-0.1936805 -0.14521629 -0.46375307 0.34229073 -0.37118235 -0.05778127 -0.16456494 0.17346822
-0.6335084 -0.5207309 -0.51091766 -0.40942255 -0.40562892 -0.71840495 -0.018439846 -0.6230908
-0.45722902 -0.6278824 -0.64831555 -0.6766094 -0.85673416 0.017972793 -0.6536598 0.1632086
-0.6860798 -0.15114659 -0.42844424 -0.38022274 -0.33521456 -0.4846942 -0.5814473 -0.640707
-0.119880185 -0.69697934 -0.64410627 -0.5480554 -0.56221396 -0.5366862 -0.45938492 -0.08418528
-0.64452755 -0.17677474 0.028547937 -0.5644183 -0.4217726 -0.74159825 0.0912085 -0.3352036
-0.88652664 -0.3095651 -0.29680315 -0.061720468 -0.5283787 -0.67730355 -0.7052064 -0.621224
-0.34694308 0.017018113 0.0863317 -0.5578301 -0.16803208 -0.7089735 0.11626533 -0.36524534
-0.8496439 -0.49964193 -0.6236789 -0.6410278 -0.37436947 -0.60001385 -0.41821682 0.11007242

fc2.weight f4 [300, 400]
00000000: 6bc5 a6be cf94 73bf 909c 64be b557 423e
00000010: f8a9 40be 1cc3 9bbe d173 283c 1297 d3bd
00000020: 04b1 25bd 3123 47bf 0a50 7cbe 32d9 8c3e
00000030: b96d c2bd b031 3a3e c0aa 303f 7cf8 00be
00000040: 3e4f 19be 3a9b d1be 5792 1f3e d848 98bf
00000050: 4db4 973e aa6d 04bf 7170 30be 6b53 853d
00000060: 5233 853e 7857 43bf 1080 79bd ad59 1cbc
00000070: ea63 b3be 1847 2a3e 8bd7 c7be f502 633e
00000080: 58d5 18be 590e 45be 94ea a13d 59c7 12be
00000090: 9269 7c3e 1047 b43e 8e6c 603e 199a c8bc
000000a0: 7539 3a3f b3c8 193e 29aa a63c bac5 ea3e
000000b0: 0cc8 d1be 2f4e 97bd 2a9d f2be fd4c 6d3e
000000c0: 97cd 2a3e 669f 3cbe 1744 7d3e 0ff9 1d3d
000000d0: 0299 b03e bbdd a03e bc7a e2be da60 4c3d
000000e0: d9f8 eebb b10b 36be 03c0 ba3e 431f 21bd
000000f0: d855 b0be 0ba8 f53e a41c 01be f8f6 b5be
00000100: 1b36 cf3c 9ac7 263e 1909 75be e564 10bd
00000110: 55ef d53e 9a12 253f 3bcf 073f 8c42 a23e
00000120: 3aa5 7ebe 6fc3 9abe 88ec 13be 32aa a93d
00000130: 9012 d33d 699a 24bf 4ca8 3bbd 308e 0fbe
00000140: d1b1 d33d d0ba 43be 5b5f 86bf fe53 4ebf
00000150: 7edc 81bf d62c 38bd 81d9 1c3f 3ea7 cebc
00000160: 9ce8 00bf 613b b73e 3d97 ec3e 228c 1abd
00000170: bb88 003f e969 67be 26ca 82bd 97eb 76be
00000180: 1b21 d63e 69db 1dbd 3779 bebe 73c2 efbe
00000190: 8104 923e df98 dbbe 76e7 f33e f055 82be
000001a0: 6ee3 4f3e b1f2 9dbe 4717 fcbe b5d7 f3bd
000001b0: 9ae0 f43d ac79 3abe 87a1 af3e 8087 b03d
000001c0: b688 76bd 8235 cdbe 289b 57bc 0e6d 90be
000001d0: 6b2a c3be dc78 273e 0bee 50bd a8d3 91be
000001e0: 368d 443f eb67 b5be aa97 203e 98a8 633f
000001f0: 7d41 9d3e a069 33be eb56 953d 0722 8fbe
00000200: c5d1 6a3e fd83 9c3e c330 e6be 5c84 1bbf
00000210: a172 20be 96b9 593e 5929 4d3f 484c 7dbf
00000220: 6155 11bf 773e d6be 6c83 043e 0319 ab3e
00000230: 9cf2 9fbe 48ac 1f3e c804 0fbf 420d 8cbf
00000240: 440d 7a3e 737a 9a3d e4a0 cbbd ea6c e6be
00000250: 2819 9b3e f01a 123d be95 303e ca60 223f
00000260: fc80 fd3a 4184 3fbe 6802 a5be 865c dd3e
00000270: 91a6 bbbb 0b1d 0c3e 2e8c 47be 250e c23d
00000280: c7c6 5bbe 361e cc3d 2f6f 53be 2c77 413f
00000290: 7a19 4bbb 840a c33e b81a 02bc c855 fd3e
000002a0: 7fdc c03c 7082 e5be 000e 803e 1f16 10be
000002b0: 054d 5c3f 2fd2 86be f414 953d 4daa 3ebe
000002c0: 67df 853e 9405 603e 8714 463e d0a2 ad3e
000002d0: 82ac d6be f77a 143f 60e0 a9bd bd14 c53d
000002e0: 6b6c 91be c9a5 3dbd 8904 0cbf d9eb debe
000002f0: 7cb4 b4be ba43 843e a7c5 45bf e210 393f
00000300: f6b8 d43d c46e c73e 3770 fabd bc5c 81bf
00000310: de53 b4bd 0545 3a3d dd60 23be 167b 94be
00000320: 1b5a b6be f54c ab3e 23a0 343d 5c10 d83d
00000330: 6a6b d5bd 6352 a3bd 6528 e73d dabf db3e
00000340: f788 683d 6138 e23e 00b7 62be eecb 6ebd
00000350: f58d d33e d6dd da3d bc92 6e3e 9432 41be
00000360: 712e 813e 567f 22be f736 763e fb2d 093f
00000370: 2dc7 0abf 2cc8 c83d 4381 223e 18bd 203d
00000380: e629 ba3e 801c 56be f310 9b3e 7a3c 483e
00000390: 0ca1 2fbf 64a6 a4bd 3432 9dbe 1467 11bf
000003a0: 2f7f 61be d7d4 373f 4c4d 183f 2a36 cd3e
000003b0: 5218 a2bd 140f a0be 47f7 84be 64f5 13bf
000003c0: 711c 8a3d 40db b2be c0a9 8abb ac7b 353e
000003d0: 8f46 013e 1d33 87be c4f2 57bf 73e0 04be
000003e0: 669b 543e 5f0e 3fbf ff51 7f3e 6477 52be
000003f0: 0e49 86be 7cc2 be3e 292b b83d f3e3 4a3f
-0.32572493 -0.9514894 -0.22325349 0.1897877 -0.18814838 -0.30422294 0.010281519 -0.10331549
-0.04045202 -0.7778807 -0.24639907 0.27509457 -0.09493584 0.18183017 0.69010544 -0.1259479
-0.14971635 -0.4093874 0.15583168 -1.189723 0.29629746 -0.51729834 -0.17230393 0.06510051
0.26015717 -0.7630534 -0.060913146 -0.009542865 -0.35037166 0.16628683 -0.39031634 0.22169097
-0.14925134 -0.19243754 0.0790607 -0.14333858 0.24649647 0.35210466 0.2191641 -0.024487542
0.7274392 0.15017967 0.02034481 0.45853978 -0.40972936 -0.07387959 -0.47385532 0.231739
0.16679989 -0.1842018 0.24733005 0.0385676 0.34491736 0.31419167 -0.44234264 0.049897052
-0.0072928485 -0.17777897 0.36474618 -0.039336454 -0.34440494 0.4797977 -0.12608582 -0.35539985
0.025294354 0.1628708 -0.23929252 -0.03525247 0.41784158 0.6448151 0.53050584 0.31691396
-0.24867716 -0.3022723 -0.14445698 0.08284415 0.10306275 -0.6429811 -0.045814797 -0.14019084
0.1033665 -0.19114232 -1.049785 -0.8059691 -1.0145414 -0.044964634 0.61269385 -0.025226232
-0.50354934 0.3578749 0.46209136 -0.037731297 0.50208634 -0.22598995 -0.06386213 -0.24113308
0.41822132 -0.038539324 -0.37201855 -0.4682804 0.2851906 -0.4289007 0.47637528 -0.2545619
0.20301601 -0.3084922 -0.4923651 -0.11906377 0.11956902 -0.18210477 0.34302923 0.086195946
-0.06018897 -0.40079886 -0.013159551 -0.28208202 -0.381183 0.16354698 -0.051008265 -0.28481793
0.7677797 -0.35430846 0.15682855 0.8892913 0.30714026 -0.17520761 0.07291969 -0.27955648
0.22931583 0.3056945 -0.44959077 -0.6074884 -0.15668727 0.21262202 0.80141217 -0.9894452
-0.567709 -0.41844532 0.12940758 0.3341752 -0.31239784 0.15593064 -0.5586667 -1.0941546
0.24419123 0.075428866 -0.09942797 -0.4500497 0.3029263 0.03567022 0.17244622 0.6342894
0.0019340809 -0.18702795 -0.32228398 0.43234652 -0.0057266434 0.13682954 -0.19487068 0.09475354
-0.21462546 0.099667 -0.20647882 0.75572467 -0.0030990527 0.3809396 -0.007940941 0.49479508
0.02354264 -0.44826078 0.2501068 -0.14070939 0.8605502 -0.26332232 0.07279387 -0.18619652
0.26147005 0.21877128 0.19343768 0.3391328 -0.41928488 0.5800013 -0.08294749 0.09623096
-0.2840303 -0.046300683 -0.5469442 -0.43539312 -0.3529395 0.2583292 -0.7725472 0.72291386
0.10386841 0.38951695 -0.122284345 -1.0106425 -0.08805059 0.04547598 -0.15954919 -0.29000157
-0.3561562 0.3345715 0.04409803 0.10549995 -0.10420878 -0.079746984 0.112870015 0.4291981
0.056771245 0.4418364 -0.22140121 -0.05829995 0.41319242 0.10686843 0.23298162 -0.1886695
0.25230744 -0.15868887 0.24044405 0.53585786 -0.5421017 0.09803805 0.15869622 0.039242834
0.3636009 -0.2090931 0.3028637 0.1955432 -0.68605113 -0.08039549 -0.30702364 -0.5679791
-0.22021173 0.7180914 0.59492946 0.40080386 -0.07914795 -0.31261504 -0.25969908 -0.5779631
0.06743706 -0.349329 -0.0042316616 0.17722958 0.12624572 -0.26406184 -0.84354806 -0.12976246
0.20762405 -0.74631304 0.24933623 -0.20553356 -0.2622761 0.37257755 0.08992607 0.7925407

fc2.bias f4 [300]
00000000: e9af 45be 1f00 9e3e 6ec3 07be 9bc7 6dbe
00000010: b2ed 42bd 27c2 a4b9 7e99 273f 3ef4 c6be
00000020: f7e7 8c3f 4cb2 813f 5208 b4be 51e3 b33c
00000030: 72c7 ce3c 38fa 21bf 1ee5 2c3f 1631 b23d
00000040: e762 0d3e 2be5 8e3d c9e2 eebd 7767 4d3f
00000050: f56e d4bd 9f68 063e 75bf 14be e4b7 33bf
00000060: 84f8 93be 4963 e4bd 3645 663f b99e d5be
00000070: ccd1 263f 1352 893f d088 d8be 6a4b 893f
00000080: 5479 933f 9750 22be e03d 623f 13fa 793f
00000090: 012c 833f 5634 71be 75d0 e1be 6cd8 dabd
000000a0: cf1d 243e 1e18 973f b62f c9be 025b 9a3f
000000b0: 38bf cd3c c077 893d b002 973f a697 2fbe
000000c0: 5821 7d3e 402b 8fbe 200a 883e a544 e33b
000000d0: fee5 fbbe ad44 9a3f df4a a53e a1a0 ae3f
000000e0: 2ac7 8d3e 99d2 25be 0315 9dbc aebe 7b3f
000000f0: ffdd d3be 29e5 483e cb1d c53f 65e1 9cbe
00000100: 7ce0 873c 443d 35bf 391a 8abd 4538 593e
00000110: 23a4 b53d 20e5 e23d ebb8 883a f3a9 0ebf
00000120: 5f6e 30be 66dd 8abe 9106 41bf d97d 253f
00000130: d2c7 993f b899 b7be 1c74 95bd a0d0 5ebe
00000140: d20b 983e e084 7cbe c45c 623e c34e 16bf
00000150: f3b8 a7be 8d80 58ba f546 7fbd ab47 b7be
00000160: c45c a63d ed21 7a3e 405c 3d3a 7c2c 9ebe
00000170: 311d 9abe a258 9e3d dde4 b53d ba8e 843f
00000180: 3ff4 c2be 9b01 6a3d eeb7 3f3f 74d9 49be
00000190: cae9 91be 3869 823f 01f3 0e3e 7133 abbe
000001a0: f715 06bf b253 0c3e b19f 23bf 6348 82be
000001b0: b1af c3be ca0b ee3d bb25 583e 4f82 c4be
000001c0: 8ef1 78be eedc 9f3f 5ab9 d5bd 04ce 5a3f
000001d0: aad4 abbe 3edb 84be 898f 4fbe c661 abbd
000001e0: 8998 f73d 6465 3d3c 5545 a6be 683e 88bd
000001f0: da2c b9be e9a9 8b3f 2128 9dbe 0dc2 0fbd
00000200: c5d1 3abe 53b1 133e 35c7 c7be 1e59 86be
00000210: ab6c a9be 5c65 903f a2cd 11bf 0f05 ab3f
00000220: 49de 6cbe a3c9 843f f098 503e 1754 7d3e
00000230: 2f81 7ebe abf0 e2bd 908c 8ebe 02a9 ac3e
00000240: 9fa3 d7be b3ba a83f bd47 76be 88f8 dc3e
00000250: b694 8bbe a304 543d c138 b43e d168 dabd
00000260: 8ccc 1fbe 04df 733e 3683 08bc 1aed 133e
00000270: 4702 8e3f 0a9c 033e b838 39bd 369b a5be
00000280: baef 023e 0daa 18bf 39e5 7c3e 626f 5cbe
00000290: a048 83be 0b37 01bf f638 a73e c177 95be
000002a0: 03e9 313f 9cc6 623e 21f7 9d3f c53c 5e3f
000002b0: a8e2 a33d 8dd8 a5be 9ab6 f03c 1367 b63d
000002c0: 6588 183f a473 1cbf 422e b23c c163 943f
000002d0: 8156 be3f aa0d f23e 8336 b1ba bad4 a5be
000002e0: fec0 b7be 2a09 e6bd 7f6d 803f b373 063f
000002f0: 0a00 a9be 3a8d 043c 46cf 11bf c45a a83e
00000300: 0da7 97be ff19 623f f83b 833f a7c0 1ebf
00000310: d756 163f 9fd7 84bd 2535 a1be c6c5 793f
00000320: e27a 24bf 8d7e c2bd fa32 843f f7d3 00bf
00000330: d59a 8cbe b1ad ab3f b23c c5be e860 5fbe
00000340: 6061 513e 827a 0d3d 880e 9a3f f536 cbbd
00000350: d5fe 02bf 3b1f c43c d07a 993f a514 973e
00000360: 25b1 e4be 7d28 83bd 4203 0e3f b1a6 403b
00000370: 6410 6f3f 22ee 8fbe ac22 a5be b43c 823f
00000380: 772e 7f3c 1ceb 9d3f 2535 30bf be38 563f
00000390: a6a3 b9be 4834 a53b d3cb b2be b91b f0be
000003a0: 70c7 63bd e48f 94be 8d86 d9bd f5a5 923f
000003b0: b491 fc3e 9a9b f7be 382c 803f 8a93 423e
000003c0: d10a ff3d 583c 293f 10eb b53f 0738 f53c
000003d0: 9853 91be 400d e8be f048 bfbe fc18 873f
000003e0: ea36 87be 0607 26be 902a 553f 18c8 e03e
000003f0: 7fbb 703c 1d54 e2be 06a0 c4be 15e7 683e
-0.19305386 0.30859467 -0.13258144 -0.23220675 -0.047589965 -0.00031425172 0.65468585 -0.38858217
1.100829 1.0132537 -0.35162598 0.021958979 0.025241587 -0.6327243 0.67537105 0.08700769
0.1380726 0.06977304 -0.116643496 0.80236 -0.10372726 0.13125847 -0.1452616 -0.7020247
-0.2890054 -0.1115175 0.8994936 -0.41722658 0.65163875 1.0728172 -0.4229188 1.072614
1.1521401 -0.15851055 0.88375664 0.9764721 1.0247804 -0.23555121 -0.44104353 -0.106858104
0.16026996 1.1804235 -0.39294213 1.2059023 0.025115594 0.067122936 1.1797695 -0.17147693
0.24719751 -0.27962685 0.26570225 0.0069356733 -0.49198908 1.2052208 0.32283685 1.364277
0.27691013 -0.16193618 -0.019175058 0.9833783 -0.41380307 0.19618668 1.5399717 -0.30640712
0.016586535 -0.7079661 -0.06743283 0.21212871 0.08869197 0.110788584 0.0010431086 -0.5572807
-0.17229603 -0.2712204 -0.75400645 0.64645153 1.2014105 -0.35859466 -0.07297537 -0.21759272
0.29696518 -0.24660063 0.221057 -0.5871393 -0.32758293 -0.00082589017 -0.06232353 -0.35796866
0.081231624 0.24427004 0.0007223524 -0.30893314 -0.30100396 0.07731749 0.08881543 1.0356057
-0.3807697 0.057130437 0.7489003 -0.19711858 -0.2849868 1.018836 0.13959886 -0.33437684
-0.52377266 0.13703802 -0.63915545 -0.25445852 -0.3821998 0.11623342 0.21108143 -0.38380668
-0.24310896 1.2489297 -0.10435744 0.85470605 -0.33560687 -0.2594852 -0.20269598 -0.08368258
0.12089641 0.011559818 -0.3247477 -0.06652528 -0.36167032 1.0911227 -0.30694678 -0.03509717
-0.18244083 0.14423113 -0.3901917 -0.26239866 -0.3309072 1.1280932 -0.56954396 1.3360919
-0.2313167 1.0374035 0.20370841 0.24739109 -0.24853967 -0.1108106 -0.27841616 0.33722693
-0.4211702 1.3181976 -0.24050803 0.43158364 -0.27261895 0.051762234 0.3519955 -0.106645234
-0.15605372 0.23815542 -0.008332064 0.14445916 1.1094445 0.12852493 -0.045220107 -0.3234498
0.12786761 -0.59634477 0.24696817 -0.21526864 -0.25641346 -0.50474614 0.32660645 -0.29192927
0.6949617 0.22146076 1.2341043 0.86811477 0.080022156 -0.32391778 0.029383946 0.089063786
0.5958312 -0.61113954 0.021750573 1.1592942 1.4870149 0.4727605 -0.0013520274 -0.3238886
-0.3588943 -0.11232217 1.0033416 0.52520293 -0.33007842 0.008090312 -0.569569 0.3288175
-0.29619637 0.88320917 1.0252676 -0.62012714 0.5872626 -0.06486439 -0.3148586 0.97567403
-0.64250004 -0.09496794 1.0328057 -0.5032343 -0.27461877 1.3412381 -0.3852287 -0.2181431
0.20447302 0.03454066 1.2035685 -0.099225916 -0.5117009 0.023940673 1.1990604 0.29507938
-0.446664 -0.06404207 0.5547372 0.002939623 0.93384385 -0.28111368 -0.32253015 1.0174775
0.015575043 1.2337375 -0.6883109 0.8368033 -0.36257666 0.005041633 -0.3492113 -0.4689615
-0.05561012 -0.2901603 -0.10621367 1.1456896 0.49329913 -0.48360902 1.0013494 0.19001594
0.12453235 0.661077 1.421236 0.029933942 -0.2838409 -0.4532261 -0.37360334 1.05545
-0.26409084 -0.16213617 0.8326807 0.4390266 0.01469314 -0.44204798 -0.38403338 0.22744401

bn2.weight f4 [300]
00000000: b943 2a3f 040a b33f 949b 8d3f 86e8 9c3f
00000010: f829 8f3f cfd5 853f e939 6a3f 53de 0140
00000020: c7a5 863f 2fc9 7f3f e26d d13f b589 643f
00000030: c14a c43f 43fc b23f 23f4 793f 260c 913f
00000040: 8099 b63f a716 d73f 6cad ae3f 2629 813f
00000050: 7301 623f 4795 d73f 9907 913f eca4 c83f
00000060: 68f4 693f c10a 1540 e1f4 833f db71 d43f
00000070: 060b 753f 5dc5 853f 4e9c ba3f 8baa 863f
00000080: 0555 833f 6c72 fe3f 5028 7e3f 2f89 803f
00000090: c93e 803f 6629 8d3f 4b53 0140 cfab cc3f
000000a0: 31d4 cc3f 454e 873f d2da 863f 72ca 873f
000000b0: 6246 643f 6ca1 203f 6679 773f 24cd 823f
000000c0: 285c bf3f f5c7 563f 99b3 643f 6ef6 ef3f
000000d0: 9f8e b73f ee12 873f 6c76 623f 8eef 8a3f
000000e0: aec9 973f 8020 f13f d0e0 be3f 375d 823f
000000f0: a185 b23f 3bdb b23f 89aa 8f3f d1d3 8a3f
00000100: d1c5 a73f c722 d13f f552 4d3f ec2d 943f
00000110: 0ec9 ba3f 029c db3f 82a6 633f 191a e73f
00000120: 9ea7 f63f 29c5 4e3f 9813 ab3f 430c 743f
00000130: 4922 873f 1ef3 fc3e cd59 693f 0694 823f
00000140: 0b15 673f bdf5 c53f 52b9 6d3f 65bd 913f
00000150: 4552 b13f 1009 de3f a3f7 9f3f 091d 8d3f
00000160: 1d4e 0840 1a9c a93f f885 d23f 480c 4c3f
00000170: f8a4 943f 0569 ec3f 911c 633f 8c4b 843f
00000180: c6ad 913f 5180 bd3f 08c7 753f 9ceb da3f
00000190: b4ae ab3f 28ea 803f 83d4 663f 1faf 953f
000001a0: cae5 4b3f 3a96 833f 0f53 b33f 0c21 a83f
000001b0: ae47 9f3f f3bd 983f 8a7b c23f f360 863f
000001c0: 8cd2 3b3f 8380 7f3f b182 823f 9b3c 793f
000001d0: 7fe4 cd3f 7165 b43f a02c 853f 6d84 b23f
000001e0: aa10 d33f 4dc5 b23f db16 aa3f 7c92 b13f
000001f0: e83c 983f 6dcb 823f 8ea4 9c3f 7e40 443f
00000200: 597f 2a3f 6567 5d3f d699 693f 9f8b 913f
00000210: 0a02 853f ebdd 853f e5ee b93f 1258 8a3f
00000220: 24b6 ac3f 4a23 833f d5e1 bd3f 376e a93f
00000230: 06d2 8b3f 5bbe ab3f 6f8b 5b3f 5f43 633f
00000240: 0bef ad3f 2b6b 883f 9466 963f 6a34 573f
00000250: 5d16 873f 5c0c 7d3f 62e9 a33f a910 a03f
00000260: a106 de3f b175 5b3f 4d61 c23f f49e 833f
00000270: 4400 813f ce84 e03f 2640 a53f 3557 973f
00000280: 633b ce3f 19e3 9f3f 6cd6 a53f 4c16 203f
00000290: 7a48 bf3f ba2b d83f 4bcd a33f eb31 a63f
000002a0: 6585 793f 0d67 623f c353 873f 36fe 763f
000002b0: 6ba3 743f e843 993f 014b e53f 46d6 5f3f
000002c0: 4758 6d3f fd17 cb3f ed7c d43f d24b 863f
000002d0: 445e 813f 3b90 be3f 1ff2 823f c7e5 423f
000002e0: 8ec6 843f 6ba7 bb3f 34ec 853f 2a16 6f3f
000002f0: 566b c23f 58fe 833f 8f25 f63f 0f97 6b3f
00000300: 01b4 a73f d6ef 7d3f 783f 723f 0e57 873f
00000310: d560 713f e99c 963f 40f5 623f 15b5 803f
00000320: 8080 8b3f 4819 8f3f c56b 843f e0c6 3040
00000330: 517c 8d3f 9fac 843f a82c 8d3f 53c7 bc3f
00000340: 1b75 993f 861c ab3f eb38 873f 5075 cd3f
00000350: 3ca0 bd3f e8ab 313f 3c49 893f 8d53 a43f
00000360: cac0 ca3f 4bab 973f 3a98 763f 9b81 923f
00000370: a515 823f 042e d33f 3266 ed3f 9b5d 823f
00000380: 17a5 263f 8fe8 853f 535d b93f 16c0 803f
00000390: 17c2 453f 9876 ed3f 7cb5 763f cef7 7a3f
000003a0: 2d62 8c3f de2d b83f 9dcf b93f c39d 823f
000003b0: 9c54 af3f ec49 0040 89d2 813f 317a af3f
000003c0: 3b8e 313f 4ca8 713f db62 803f cc77 803f
000003d0: f0e3 963f f85e ca3f 9858 8a3f edb8 823f
000003e0: 9fc2 8d3f 280a bc3f 7861 803f cd31 693f
000003f0: a389 bb3f e596 553f ccfc 493f 3bd7 563f
0.66509587 1.3987432 1.1063104 1.225846 1.1184683 1.0455874 0.91494614 2.0291946
1.0519341 0.99916357 1.6361659 0.89272624 1.5335313 1.3983234 0.9763815 1.1331832
1.4265594 1.6803788 1.3646674 1.0090683 0.8828346 1.6842431 1.1330444 1.567533
0.9138856 2.3287814 1.0309106 1.6597246 0.95719945 1.0450855 1.457895 1.0520796
1.0260321 1.9878669 0.9928026 1.0041865 1.001916 1.1028259 2.0207088 1.5989932
1.6002256 1.0570761 1.0535529 1.0608656 0.89169896 0.6274631 0.96669614 1.0218854
1.4949999 0.8389886 0.89336544 1.8747079 1.43404 1.0552652 0.8846195 1.0854356
1.1858423 1.8838043 1.4912357 1.0184697 1.394703 1.3973154 1.1223918 1.0845891
1.3107244 1.6338738 0.8020471 1.1576514 1.4592607 1.7156985 0.88925946 1.8054839
1.9269903 0.8076959 1.3365355 0.9533121 1.0557338 0.49404234 0.9115265 1.0201423
0.90266484 1.5465618 0.928609 1.1385924 1.3853232 1.7346516 1.2497448 1.1024486
2.1297677 1.3250763 1.6447134 0.7970624 1.1612844 1.846955 0.88715464 1.0335555
1.1381156 1.4804784 0.9600682 1.7103152 1.341269 1.0071459 0.9016802 1.1694068
0.79647505 1.028022 1.4009722 1.3135085 1.244375 1.1932968 1.5193951 1.0498337
0.73368144 0.9980547 1.0196134 0.973581 1.6085356 1.4093457 1.0404243 1.3946663
1.648946 1.3966461 1.3288225 1.3872828 1.1893587 1.0218331 1.2237718 0.7666091
0.6660057 0.8648589 0.9125036 1.1370734 1.0391247 1.0458349 1.452603 1.0808127
1.3493085 1.0245144 1.4834543 1.323676 1.0923469 1.3417467 0.85759634 0.88774675
1.3588575 1.0657705 1.1750054 0.8406435 1.05537 0.98846984 1.2805598 1.2505084
1.7345773 0.8572646 1.5185944 1.0282884 1.0078206 1.7540529 1.2910202 1.1823488
1.6111873 1.249118 1.2956061 0.6253402 1.4943993 1.6888344 1.2797025 1.2983984
0.9746917 0.88438493 1.0572437 0.96481645 0.95561856 1.1973848 1.7913514 0.8743633
0.92712826 1.5866696 1.6600624 1.0491889 1.0106893 1.4887766 1.023014 0.7613186
1.0373094 1.4660467 1.0462708 0.93393195 1.5189006 1.0311995 1.9230212 0.9202737
1.3101808 0.99194086 0.94628096 1.0573442 0.9428838 1.1766635 0.8865547 1.0055262
1.089859 1.117959 1.0345389 2.7621384 1.1053563 1.036518 1.1029253 1.4748329
1.1988863 1.336808 1.0564245 1.6051426 1.4814525 0.69402933 1.0725474 1.2837998
1.5840085 1.184915 0.9632603 1.1445802 1.0162855 1.6498418 1.8546813 1.0184816
0.6509566 1.0461596 1.4481605 1.005862 0.7724928 1.8551817 0.96370673 0.9803437
1.0967461 1.4388998 1.4516484 1.0204395 1.3697696 2.0045118 1.0142375 1.3709165
0.6935765 0.94397426 1.0030168 1.0036559 1.1788311 1.5810232 1.0808287 1.0212685
1.1075019 1.46906 1.0029745 0.91091615 1.4651378 0.8343337 0.7890136 0.83922166

bn2.bias f4 [300]
00000000: f0db 1fbf fd7e 64bd 8b33 acbd 881a 053e
00000010: 7855 44bf 80c6 d03d 0830 09bd 84cb eabe
00000020: aad3 a23c 1be8 4ebb 2594 473d b9b3 43bd
00000030: 475e d93c 2379 b5bb f64f 63bc ed30 013d
00000040: d30b 58bd 03d4 cf3c 17eb 51be 333a c9b8
00000050: f753 c8bd b069 edbe c682 69bd 7175 de3d
00000060: 459d e3be 8ffe 0cbf 53aa f23b ef68 aabd
00000070: dbfb b0bc 76db 933c 8e29 6abe 86be 853c
00000080: 39ec 103c 3e71 35bd 7cd1 4ebb 20e5 dd3a
00000090: fc65 74bb aa0a b7be 2001 cabe dc73 c4bd
000000a0: a2d0 433d 5f93 983c 5528 33be 05b7 b13c
000000b0: dd40 55bd fce5 d3be edf9 c4bb 947f dcbd
000000c0: 4ca8 3f3d 49a8 a9be 83ac 55bd 95fe 30bf
000000d0: c25b 1fbc 78f8 923c dfb9 47bd 6dfc 0a3d
000000e0: 7da9 c73c cfc7 09be 401a e23d 59e5 603b
000000f0: 6a0e eabd b374 efbc 494c 8c3d 724a 18be
00000100: ff7a a5bc b6f0 2dbe b416 f4be afd9 acbc
00000110: 93fc a5ba abea 34bc b9a1 f337 a316 3abf
00000120: ced2 85bd fd7a bebe 8787 8cbc d9de bbbc
00000130: 4ef5 8c3c 5a8b f5be 6fb4 bebd a2aa b1be
00000140: 8094 2ebd 8ee3 a53d ab67 74be 4b22 b9be
00000150: d691 c4be cd92 14bf c139 16bc 6a1b 13be
00000160: d6a3 74bc 1a14 b2bd 3fd9 c4bd 2175 babe
00000170: 9d59 0f3d fb0b 223d b89b 82be 424b 0e3c
00000180: 7e4c bcbd a4a0 5ebe 7ee6 91bc b10a d3be
00000190: 0da3 e63a fd1a 46b9 f625 123e 9212 5b3e
000001a0: 9a4d ccbe 275c 2cbb 6e4a 1abe 89f1 68be
000001b0: dbf8 33bd 45ca 86bc a011 a7bc fd9e 59be
000001c0: b28c cdbe f290 753b f3f1 c1bd 101e 34bc
000001d0: a6eb b8be 7c82 81be 6462 02be 9652 c5be
000001e0: 1c7a 82be 0ee2 0d3d b2d8 59bc 6dba d93d
000001f0: 52d1 0b3c 4e1e b83b 3661 ddbd 335b afbd
00000200: 1e29 41bf 8998 64bd 2a82 64be 548d 66be
00000210: 41da 63be 8520 6c3c 060c 55be f598 003d
00000220: bf54 353d d3be 063c de86 2abd 3dc8 9abc
00000230: 530b a8be 82a4 653d ebb8 63be 8082 3bbd
00000240: 2de0 14bd 4c8d da3c b4da 31be c8f1 64bd
00000250: cf75 32be 43a4 72be 65bb 90bd 77c7 c23d
00000260: fba0 f2be d5e5 77bd 2ee6 cfbc 1925 6abd
00000270: 1c11 98ba f895 20be 0189 48bc 5032 2abd
00000280: fd93 73be 30fb 21be 2268 b4bc ffcb bebe
00000290: d13c 2fbe 2b42 1abf 6905 8fbd f76f 4d3e
000002a0: 2943 81bc 4d14 4dbd 3776 b53c 621a 62bc
000002b0: df81 4ebd 4a6e 8ebe 5ddb 5ebe 4298 86bd
000002c0: 6472 f1bc bf03 5dbd deaa f7bd 758c 683c
000002d0: 3934 103c 69aa 43be 4cc2 3cbe 571a 9bbe
000002e0: c300 acbe 1e6c d53b 5a66 2d3d 8873 00bd
000002f0: fe06 703d be7b cf3c 8f06 98be a9d9 1abd
00000300: 27d5 aabe adfa 85bb 5309 a7bc 22da 75be
00000310: b9e5 d6bc d5c7 96bd 068f 02be bd85 20bb
00000320: 3c09 4ebe d0e4 14be 442e 713c 44e3 27bf
00000330: 1588 a8bc 5d63 e63c ce60 dbbe 8a0c d7be
00000340: 0a28 d6bb ce7e 06bd cd51 9f3c cd28 2ebe
00000350: 14ec 7bbe 449c edbd fa63 d33c 63e6 9f3c
00000360: 46ae ca3d 6e14 89be 8d2f 91bc f725 a9bd
00000370: ad4a 713b 1219 6b3d 9f2f 94bd a502 023c
00000380: 16e6 2abf d0dd a13c a7c8 4bbe 8830 9cbb
00000390: 275b 7d3e 4511 2fbe db25 2fbe 1eb2 5bbd
000003a0: 960a 4cbd 2ab0 b83d 7d20 d0bb 8fc7 ae3b
000003b0: 7bcf eebe 1726 c3be ac99 bf3a 956b aebc
000003c0: c062 92be d5f6 bebc 83af bf3b dbe7 1bbd
000003d0: 259b 4abe 8033 893d c359 5d3c 8532 d23b
000003e0: 59fd 86be a38c 25be b51c 9eba 7dbd 19bd
000003f0: 92fa 33bd 9d89 45be 0166 20be c222 7dbd
-0.62444973 -0.055785168 -0.084082685 0.12998402 -0.76692915 0.10194111 -0.03349307 -0.45858395
0.01987632 -0.003157145 0.048725266 -0.04777882 0.026534213 -0.0055381223 -0.013874045 0.0315408
-0.05274565 0.02536965 -0.20499836 -9.595267e-05 -0.0978164 -0.46369696 -0.05700948 0.10862244
-0.44455925 -0.55075926 0.007405558 -0.08320796 -0.021604469 0.018048983 -0.22867414 0.0163262
0.008845382 -0.04429745 -0.0031557968 0.0016929246 -0.0037292233 -0.35750324 -0.39453983 -0.09592411
0.04780639 0.01862496 -0.17495854 0.021693716 -0.05206381 -0.41386402 -0.006011239 -0.10766521
0.04679136 -0.33136204 -0.052166473 -0.6913846 -0.009726467 0.017940745 -0.048761245 0.03393214
0.02437281 -0.13455127 0.11040163 0.003431639 -0.114285305 -0.029230451 0.06850488 -0.14872149
-0.02020025 -0.16986355 -0.4767357 -0.021099893 -0.0012663774 -0.011042277 2.9043165e-05 -0.7269079
-0.065343484 -0.37203208 -0.017154468 -0.02293341 0.017206814 -0.4795788 -0.09311759 -0.34700495
-0.04262209 0.08100043 -0.23867671 -0.36158976 -0.38392514 -0.580365 -0.009169043 -0.14365926
-0.01493164 -0.0869524 -0.09611749 -0.36417487 0.03499757 0.039562207 -0.2550943 0.008684935
-0.09194277 -0.21740967 -0.017810103 -0.41219094 0.00175962 -0.00018892805 0.14272293 0.21393803
-0.39902955 -0.0026300044 -0.15067455 -0.22748388 -0.0439385 -0.016453872 -0.020394146 -0.21252055
-0.40146405 0.0037470427 -0.09469976 -0.010993496 -0.36117285 -0.25294864 -0.12732846 -0.3853957
-0.25483787 0.03463941 -0.013296293 0.10631261 0.008533793 0.005618847 -0.10809557 -0.08562317
-0.75453365 -0.05580953 -0.22315279 -0.2251485 -0.22251226 0.01441205 -0.20805368 0.03139587
0.044270273 0.008224207 -0.041632526 -0.01889431 -0.3282114 0.05606509 -0.2223851 -0.04577875
-0.036346603 0.026678704 -0.17368585 -0.055894643 -0.17427753 -0.23695473 -0.07066993 0.09510701
-0.47388443 -0.06052192 -0.025378313 -0.057164285 -0.0011601779 -0.15682209 -0.0122396955 -0.041551888
-0.23786922 -0.15818477 -0.02202231 -0.37265012 -0.17113043 -0.60257214 -0.06983454 0.20062242
-0.015779095 -0.05006819 0.022151096 -0.013800235 -0.050416823 -0.2781852 -0.21763368 -0.065720096
-0.029473491 -0.05395865 -0.12093137 0.014193644 0.008801513 -0.19107975 -0.18433493 -0.30293533
-0.3359433 0.0065131327 0.04233394 -0.03136018 0.05860042 0.02532756 -0.29692504 -0.037805233
-0.33365747 -0.004088721 -0.020390188 -0.24008992 -0.026232587 -0.07362334 -0.12749872 -0.0024493777
-0.2012071 -0.1454041 0.014720503 -0.65581155 -0.020572701 0.028123552 -0.42847294 -0.42001754
-0.0065355347 -0.032835774 0.019448185 -0.17007752 -0.24601775 -0.11602071 0.025804508 0.019519037
0.09896521 -0.267734 -0.01772287 -0.08259194 0.0036818192 0.057396956 -0.072356455 0.007935201
-0.66757333 0.019759089 -0.19900762 -0.0047665276 0.24741803 -0.17096432 -0.17104284 -0.053636663
-0.049814783 0.09017976 -0.006351529 0.005333848 -0.4664267 -0.38114998 0.0014617941 -0.021291533
-0.28590965 -0.023311058 0.00584978 -0.03806291 -0.19785745 0.06699276 0.01351017 0.006414714
-0.26365164 -0.1616693 -0.0012062999 -0.037534226 -0.043940134 -0.19290777 -0.15663911 -0.061800726
