Zadanie3/srcV2/models/Zadanie 3/target_critic_network.pth (torch, 509863 bytes, 11 tensors)

fc1.weight f4 [400, 8]
00000000: e779 d4bc bd93 30bd 5812 3abd 2367 a7bc
00000010: a2d2 cc3c 6ff4 0b3d 6914 463d 6822 7dbc
00000020: a0cc 4fbc a151 1c3d f542 38bd f0ed 933b
00000030: 73ef 39bd b337 c3bc 6097 27bd 21d2 1a3d
00000040: 0c32 333c caa5 cdbc e53e 483d 55d9 273d
00000050: 1a0b 49bd 47cb e3bc 17ed dabc 5df3 e5bc
00000060: 00f6 273b f848 30bd 4430 93bc d6c0 a63c
00000070: e24b bc3c def5 e23c 1a8f 38bd 58bb cdbb
00000080: 8096 e8bb 6812 183c 6ebe e73c 7a5f 1bbd
00000090: d83a 47bd fea8 0fbd 2019 773b 8084 6f3b
000000a0: 671c b5bc e1fb 413d 9f57 40bd 7f8a 0e3d
000000b0: 68c3 a6bb 58bf 4abd 57ec 3ebd 6041 a2ba
000000c0: 94ad 38bc 329c 8a3c 2dcd 413d 304f 86bb
000000d0: 1262 ee3c bdbb b8bc 880e 08bd 61da 423d
000000e0: 878a 113d c07f 113c 00d2 943b 80ea 9cbc
000000f0: b2f9 cd3c 5b26 3a3d 5087 c1bb b99f 1d3d
00000100: 0c57 5bbc a406 8fbc 6ca1 4cbc 09c3 0c3d
00000110: a32f 273d 356e 2a3d 38e7 42bd 00ac 28bb
00000120: a05f 46bd b2d9 a53c 8d0a 363d 1bbd 1abd
00000130: 48be 25bc 1165 4b3d aa32 8f3c 52b7 8c3c
00000140: 5d31 29bd d38c 21bd f19f 023d 380a 45bc
00000150: f428 22bc 3d29 e5bc f0cf d2bc f2d2 cf3c
00000160: 6890 afbb 1039 a1bb 9dc1 c1bc c0d2 a8ba
00000170: c979 083d eacb 81bc 0ee5 19bd 3805 2b3c
00000180: c31b febc 73aa c0bc 17ce 363d 0cbd 15bc
00000190: 1ab1 d43c fa0f f4bc a115 323d 7d4f c3bc
000001a0: 6682 ff3c 8cfa 183c a568 3ebd 8a71 fbbc
000001b0: eed7 dd3c d10d 163d 8c47 02bd 828d 9f3c
000001c0: 63fb 293d fe6f 06bd 57ad 41bd 40e2 d2ba
000001d0: a0a4 a1ba ac81 713c c0bb cdba 866b bb3c
000001e0: db32 1cbd 28e4 d7bb 00c4 19bb a358 31bd
000001f0: 4d16 9ebc f9ec 043d 18c3 95bb 4281 a83c
00000200: 5a36 f13c 8e50 983c f6ab e33c a039 64bc
00000210: 782b 303c 8737 efbc 884f 493c 8d89 313d
00000220: f924 3d3d 6bc8 303d 0eab 15bd 6312 f1bc
00000230: f63f c13c 2ef4 a43c 62d6 ba3c 80c0 2bbd
00000240: bd01 0cbd 827f f53c 55f2 143d 4597 4abd
00000250: be97 c63c 005b f139 43be ecbc 8f7e 183d
00000260: a6cf 813c 74c9 00bc 40a7 d93b ec4f 6e3c
00000270: d0c0 a63b 5d61 f0bc 8a05 d9bc 2d25 34bd
00000280: aa46 c4bc 3474 32bc 3d88 f3bc 93b4 0ebd
00000290: 30c4 32bb a270 c73c 798d 3f3d 60cf 703b
000002a0: a591 14bd 86aa 8dbc e2e7 933c 7633 c13c
000002b0: a5cc 1c3d 80e0 4ebc 7e81 9f3c 28c2 b5bb
000002c0: ff26 1b3d 7bef 0f3d 62b2 e33c 808c 84bc
000002d0: ecc7 7cbc 21b3 0e3d ac8e 363c e372 333d
000002e0: d0d1 3ebb 8875 47bd 8620 823c 2531 2f3d
000002f0: 96b9 913c be81 b43c 54bf 91bc 3616 823c
00000300: 7331 d0bc 1d49 b2bc e6b3 0cbd 5eb3 bf3c
00000310: 33b6 45bd f417 6bbc 2a23 c73c 00d6 923a
00000320: 880a 46bc 86f9 90bc 90c0 b3bb 5964 363d
00000330: bba6 20bd 3695 993c c401 683c 3821 383c
00000340: 3450 1abc bf95 153d a0cc 88bc 1d41 42bd
00000350: c8de 103c 4df3 463d f8df 7abc f926 2c3d
00000360: 6e8a 16bd 8085 2cba e285 f63c 082e 493c
00000370: 36d0 0cbd cc97 6abc 86a2 08bd 65a4 02bd
00000380: 2a7e fabc 20a2 4d3b a044 753b 65c8 253d
00000390: 8d95 273d 90d0 30bd e0a0 3e3b 34ba 49bc
000003a0: 4309 ddbc 7916 463d 0f72 313d 5b97 33bd
000003b0: 81a5 0e3d 16fc 9b3c 87a6 b4bc f085 9ebb
000003c0: bdbc e1bc cad0 bebc f8a8 41bc 4034 b2bb
000003d0: 8186 463d 90ed adbc c72d 483d 42df bf3c
000003e0: dea8 853c 9a9c 813c 3395 23bd 6007 3abc
000003f0: 4c36 5ebc 2096 6d3b cc72 4f3c 9728 a9bc
-0.025937034 -0.043109644 -0.04542765 -0.020434922 0.025002781 0.034168657 0.04835931 -0.015450098
-0.012683064 0.038163785 -0.04498573 0.0045144483 -0.045394372 -0.02383027 -0.040915847 0.03779805
0.010937225 -0.025103468 0.048888106 0.04097875 -0.049082853 -0.027806891 -0.026724381 -0.028070146
0.0025628805 -0.04303834 -0.01796735 0.020355623 0.022985402 0.02770513 -0.045058347 -0.0062784366
-0.007098019 0.009281732 0.028289046 -0.03793285 -0.048640102 -0.035073273 0.0037704185 0.0036547482
-0.02210827 0.04735935 -0.046958562 0.03480005 -0.005089212 -0.049498886 -0.04661211 -0.0012379102
-0.011271853 0.016920183 0.04731481 -0.0040987954 0.029099498 -0.022550458 -0.033216983 0.047571544
0.0355325 0.008880556 0.0045416355 -0.019154787 0.025143478 0.045446735 -0.005906023 0.0384824
-0.013387453 -0.017459221 -0.012489658 0.034365688 0.040816914 0.041609008 -0.04758379 -0.0025737286
-0.04843104 0.020245407 0.044443656 -0.037778 -0.010116167 0.04965693 0.017480213 0.017177258
-0.041306842 -0.03944094 0.031890813 -0.012026362 -0.009897459 -0.027973766 -0.025733918 0.025369141
-0.0053577907 -0.0049201325 -0.023651892 -0.0012880191 0.03331927 -0.015844304 -0.03757196 0.010438256
-0.031019097 -0.023518777 0.044630136 -0.009139311 0.025963355 -0.029792774 0.04347766 -0.023841614
0.031190109 0.009337079 -0.046486516 -0.030693788 0.027080502 0.03663427 -0.031806514 0.019476656
0.041499507 -0.032821648 -0.04728445 -0.0016089156 -0.0012332387 0.014740389 -0.0015696213 0.02287842
-0.038134437 -0.0065884776 -0.0023462772 -0.04329742 -0.019297743 0.032452557 -0.004570376 0.020569447
0.029444862 0.018593099 0.027791958 -0.0139297545 0.010752551 -0.029201282 0.012287028 0.04334407
0.046177838 0.043159883 -0.036540084 -0.029427713 0.02359007 0.020135965 0.022807304 -0.04193163
-0.034181345 0.029968027 0.03636392 -0.049460668 0.024242278 0.00046034902 -0.028899318 0.03723007
0.015846085 -0.00786053 0.006642252 0.014545422 0.005088903 -0.029343301 -0.026491899 -0.043980766
-0.023959477 -0.010891963 -0.02972805 -0.034840178 -0.0027277581 0.0243457 0.04676578 0.00367447
-0.03627171 -0.017293226 0.018054906 0.023584109 0.0382811 -0.012626767 0.019470926 -0.005546827
0.037878986 0.035140496 0.02779502 -0.016180277 -0.015428524 0.0348388 0.011142414 0.043810736
-0.0029116757 -0.04869607 0.015884649 0.042771477 0.01778869 0.022034522 -0.017791428 0.015879732
-0.025414204 -0.021763379 -0.034351252 0.023400959 -0.04826946 -0.014348973 0.02430876 0.0011202693
-0.012087472 -0.017697107 -0.0054856017 0.044529293 -0.039221507 0.018747907 0.014160577 0.011238389
-0.009418536 0.036519762 -0.016699135 -0.047425378 0.008842178 0.048571873 -0.015312187 0.042029355
-0.03675311 -0.00065811723 0.030093137 0.012279041 -0.034378253 -0.014318418 -0.03335812 -0.03189506
-0.030577738 0.0031377152 0.0037424937 0.040474314 0.040914107 -0.04316765 0.0029087588 -0.012312461
-0.026981955 0.048361275 0.043321665 -0.043845516 0.034825806 0.019041102 -0.022052063 -0.004837744
-0.027555818 -0.023292918 -0.01182007 -0.0054383576 0.048468117 -0.021231443 0.04887178 0.023421887
0.016315874 0.015821744 -0.03993721 -0.011354297 -0.01356275 0.0036252812 0.012661647 -0.020649238

fc1.bias f4 [400]
00000000: 22f7 fb3c 1d6c 00bd da0d 8abc d23a b83c
00000010: 89d3 1e3d 9978 143d 54db 5d3c 5285 d83c
00000020: bd7c 40bd d688 c83c a624 1ebd 20f8 283c
00000030: a5a5 1d3d 014f 2a3d d8ad f1bb 9b44 343d
00000040: c496 86bc 073e 113d 0046 2a3b 5a1b f0bc
00000050: 6ca9 71bc 702d 8ebc e103 183d 53fb 053d
00000060: 9842 fdbb d448 95bc a9ed 283d 7171 223d
00000070: 3517 303d 3001 3c3b 5d56 ebbc 6aa2 8f3c
00000080: 4d33 a7bc 78df 13bc 2028 d7bc 0022 5fbb
00000090: 49cc 133d 95ac 20bd 521b e73c 98b1 6ebc
000000a0: 5004 42bd ada5 35bd e43d 673c 0853 36bd
000000b0: e8b7 863b a0b7 2dbc 009b 933a 8cc4 79bc
000000c0: b326 10bd a848 213c a0ff 94bc e18d 113d
000000d0: 4e69 00bd abbc 1f3d b36a 0ebd 8096 6bbb
000000e0: aac7 8cbc 7100 2e3d e2fc e13c 00d2 1ab9
000000f0: f430 8bbc f530 2dbd 7222 d23c 55ea 113d
00000100: b009 acbb 7460 0abd 70d7 f1bb 360f 07bd
00000110: 9d74 ebbc ca82 2ebd 7d74 bdbc 42e1 a43c
00000120: 9e6a 14bd 82a2 ef3c f31d 2e3d dcf4 6a3c
00000130: 4241 ca3c cec9 d23c e464 6f3c 33a2 c7bc
00000140: 1a19 ae3c fabb eabc e623 8cbc 1d8f 3e3d
00000150: e8ef 323c c7bf dcbc 7b23 2bbd cb56 18bd
00000160: caac 43bd 47a3 b9bc 60de 89bc 43e7 43bd
00000170: c017 c93a c24c 20bd feae 04bd 6cd6 433c
00000180: 357b 273d a0d7 f23a 4e4e 1ebd 5ef1 e73c
00000190: 1e68 8d3c c047 e8bb 4b26 2c3d 00b0 efbb
000001a0: dbf4 3dbd 8088 9cbb 4c54 92bc 1895 b33b
000001b0: 3ee8 18bd a872 a0bb e16d 173d 28fd b1bb
000001c0: f49f 283c a828 47bd c5f6 373d 4047 d53a
000001d0: 799f 1e3d ee8b 16bd 10e5 c4bc 0619 95bc
000001e0: e47e 703c 3994 013d 8032 e0bc 853a 38bd
000001f0: 54de 593c 0a8e 33bd 3e45 21bd 71dc 2d3d
00000200: c972 0a3d c085 9dba 5606 8ebc 583b c63b
00000210: 4cf4 02bd 2eac b93c c226 41bd ed70 37bd
00000220: 1de0 ccbc 001a c2bc df53 173d a8d5 30bd
00000230: e8ac 413c 02b0 823c ca96 e73c 2a43 803c
00000240: 5643 20bd 80ff 5cbb 3aa3 a93c d8e9 a83b
00000250: 67f6 dcbc 1b41 033d 547d 7d3c 01f3 353d
00000260: d400 5d3c 7ba1 443d 08c3 32bd 20bc 39bb
00000270: 6089 6bbc 4b26 103d f4d5 733c 89d1 453d
00000280: 5648 b23c 0045 8b3a 2fd4 0e3d ac2a 273c
00000290: 5948 473d b479 0f3c 7769 babc a034 55bb
000002a0: 6a60 08bd f5c9 03bd 2727 fcbc 5293 2ebd
000002b0: 4188 0d3d 4b0e 2c3d e4e3 513c 9350 2a3d
000002c0: 6d8b c2bc 90be 9abb 80ad 303c a859 b53b
000002d0: f81a 4a3c 60b3 423c a882 f63b 235c 48bd
000002e0: a7fd f7bc 60d0 36bd c4d7 81bc 0ae1 82bc
000002f0: 5030 d0bb 03e9 f7bc 5a26 02bd b55c 4bbd
00000300: a6a7 d03c 5128 2a3d 4749 2d3d 1a53 1bbd
00000310: 1215 f93c 072b 073d c864 4bbc 1868 aabb
00000320: 7889 3f3c 4c16 6cbc b063 13bd 92af 27bd
00000330: 02d6 e23c 1a2e de3c 1569 41bd b5b5 37bd
00000340: 2051 37bc cd9c 46bd 62d1 28bd 110d 2f3d
00000350: 2377 1ebd ee1a 933c 7c0a 6a3c 8061 013c
00000360: a027 353b 0814 1cbc 72d8 a43c 80bd aebb
00000370: 5062 cb3b 2de6 33bd 5c4c 7a3c f711 48bd
00000380: 383f 433c aaef 803c 18a1 3cbd 3332 403d
00000390: c22f c13c 7132 173d 5352 30bd 6af1 e9bc
000003a0: e723 f2bc 8050 2fba a06c 0abd 5ea7 f33c
000003b0: f470 7a3c 769b f13c aa5f ca3c 32e5 8d3c
000003c0: a892 a23b c2fd 2cbd f6c1 2cbd 3811 303c
000003d0: 9781 fabc c771 093d d01f 42bb 28d5 05bd
000003e0: c26d df3c 0037 d23b 5839 08bc 0294 813c
000003f0: 17b2 99bc 0097 88bc 65c5 223d 6051 5fbc
0.03075749 -0.031353105 -0.016852308 0.022488985 0.038775954 0.036247823 0.013541061 0.02643076
-0.04699396 0.024479311 -0.03860917 0.010313064 0.03848805 0.04157925 -0.00737546 0.04401074
-0.016429313 0.035459545 0.0025981665 -0.029309917 -0.014749866 -0.01735565 0.037113074 0.032710385
-0.007728886 -0.018223204 0.041242275 0.039658967 0.042990882 0.0028687231 -0.028727705 0.0175335
-0.020410204 -0.009025447 -0.02626425 -0.0034047365 0.036083493 -0.039227087 0.02821127 -0.014568709
-0.047367394 -0.044347454 0.014113877 -0.04451278 0.004111279 -0.010602862 0.0011261404 -0.015244614
-0.035193156 0.009843983 -0.018188298 0.035535697 -0.031350426 0.038998287 -0.034769725 -0.003594786
-0.017185051 0.04248089 0.027586404 -0.00014764816 -0.016991116 -0.042283017 0.02565119 0.035623867
-0.0052501783 -0.03378339 -0.0073804185 -0.03297349 -0.028742129 -0.0426052 -0.023126835 0.020126943
-0.03623449 0.029252294 0.04250903 0.014340606 0.02468932 0.025730994 0.014611457 -0.024369335
0.021252204 -0.028654087 -0.017106961 0.046523202 0.010921456 -0.026946915 -0.041781884 -0.037192147
-0.047772206 -0.022660865 -0.01682967 -0.04782797 0.0015342161 -0.039135702 -0.032393448 0.011952978
0.040888984 0.0018527396 -0.038648896 0.028313335 0.017261561 -0.0070886314 0.042028707 -0.007314682
-0.04637609 -0.0047770143 -0.017862462 0.00548042 -0.03733086 -0.0048964806 0.036970023 -0.00543179
0.010292042 -0.048622757 0.044913072 0.0016271845 0.038726304 -0.03675454 -0.024035007 -0.018200409
0.014678691 0.031635497 -0.02736783 -0.044977684 0.013297636 -0.04383663 -0.039372675 0.042446557
0.033800874 -0.001201801 -0.017337006 0.006049555 -0.03197126 0.02266511 -0.047156103 -0.04478543
-0.02500921 -0.023694038 0.03694522 -0.04317251 0.011821009 0.015953068 0.028270144 0.015657026
-0.039126717 -0.0033721626 0.020707715 0.0051548295 -0.026972963 0.03204451 0.015471775 0.0444212
0.013488967 0.048005562 -0.043643028 -0.002834089 -0.0143760145 0.03519277 0.014882553 0.04829553
0.021763008 0.0010625422 0.034870323 0.010203045 0.04865298 0.008757044 -0.022755368 -0.0032532588
-0.033295073 -0.032175023 -0.030780388 -0.042620964 0.03455377 0.04200582 0.012810681 0.041580748
-0.023748124 -0.004722424 0.010783553 0.0055343695 0.012335531 0.011883587 0.0075228997 -0.048915993
-0.030272318 -0.044632316 -0.015849955 -0.015976448 -0.0063534155 -0.030262476 -0.031774856 -0.04964896
0.025470566 0.041542355 0.04230621 -0.03792105 0.030405555 0.03300002 -0.012414165 -0.005200397
0.01169049 -0.014409613 -0.03598374 -0.04093892 0.027689938 0.027121592 -0.047219355 -0.044851024
-0.011188775 -0.04848938 -0.041215308 0.04273707 -0.038687836 0.017957177 0.014284726 0.007896781
0.0027642027 -0.00952626 0.02012274 -0.0053326488 0.006206788 -0.043920685 0.015276995 -0.048845258
0.011916928 0.01573928 -0.04605207 0.046922874 0.023582343 0.03691334 -0.04304726 -0.028557498
-0.029558135 -0.00066877156 -0.033795 0.029742893 0.015285719 0.029493075 0.02470382 0.017321203
0.0049613304 -0.04223419 -0.042177163 0.010746293 -0.030579371 0.033555772 -0.0029621013 -0.032673985
0.027274016 0.006415248 -0.008314453 0.015817646 -0.018761678 -0.016673565 0.03973903 -0.013630241

bn1.weight f4 [400]
00000000: 0000 803f 0000 803f 0000 803f 0000 803f
00000010: 0000 803f 0000 803f 0000 803f 0000 803f
00000020: 0000 803f 0000 803f 0000 803f 0000 803f
00000030: 0000 803f 0000 803f 0000 803f 0000 803f
00000040: 0000 803f 0000 803f 0000 803f 0000 803f
00000050: 0000 803f 0000 803f 0000 803f 0000 803f
00000060: 0000 803f 0000 803f 0000 803f 0000 803f
00000070: 0000 803f 0000 803f 0000 803f 0000 803f
00000080: 0000 803f 0000 803f 0000 803f 0000 803f
00000090: 0000 803f 0000 803f 0000 803f 0000 803f
000000a0: 0000 803f 0000 803f 0000 803f 0000 803f
000000b0: 0000 803f 0000 803f 0000 803f 0000 803f
000000c0: 0000 803f 0000 803f 0000 803f 0000 803f
000000d0: 0000 803f 0000 803f 0000 803f 0000 803f
000000e0: 0000 803f 0000 803f 0000 803f 0000 803f
000000f0: 0000 803f 0000 803f 0000 803f 0000 803f
00000100: 0000 803f 0000 803f 0000 803f 0000 803f
00000110: 0000 803f 0000 803f 0000 803f 0000 803f
00000120: 0000 803f 0000 803f 0000 803f 0000 803f
00000130: 0000 803f 0000 803f 0000 803f 0000 803f
00000140: 0000 803f 0000 803f 0000 803f 0000 803f
00000150: 0000 803f 0000 803f 0000 803f 0000 803f
00000160: 0000 803f 0000 803f 0000 803f 0000 803f
00000170: 0000 803f 0000 803f 0000 803f 0000 803f
00000180: 0000 803f 0000 803f 0000 803f 0000 803f
00000190: 0000 803f 0000 803f 0000 803f 0000 803f
000001a0: 0000 803f 0000 803f 0000 803f 0000 803f
000001b0: 0000 803f 0000 803f 0000 803f 0000 803f
000001c0: 0000 803f 0000 803f 0000 803f 0000 803f
000001d0: 0000 803f 0000 803f 0000 803f 0000 803f
000001e0: 0000 803f 0000 803f 0000 803f 0000 803f
000001f0: 0000 803f 0000 803f 0000 803f 0000 803f
00000200: 0000 803f 0000 803f 0000 803f 0000 803f
00000210: 0000 803f 0000 803f 0000 803f 0000 803f
00000220: 0000 803f 0000 803f 0000 803f 0000 803f
00000230: 0000 803f 0000 803f 0000 803f 0000 803f
00000240: 0000 803f 0000 803f 0000 803f 0000 803f
00000250: 0000 803f 0000 803f 0000 803f 0000 803f
00000260: 0000 803f 0000 803f 0000 803f 0000 803f
00000270: 0000 803f 0000 803f 0000 803f 0000 803f
00000280: 0000 803f 0000 803f 0000 803f 0000 803f
00000290: 0000 803f 0000 803f 0000 803f 0000 803f
000002a0: 0000 803f 0000 803f 0000 803f 0000 803f
000002b0: 0000 803f 0000 803f 0000 803f 0000 803f
000002c0: 0000 803f 0000 803f 0000 803f 0000 803f
000002d0: 0000 803f 0000 803f 0000 803f 0000 803f
000002e0: 0000 803f 0000 803f 0000 803f 0000 803f
000002f0: 0000 803f 0000 803f 0000 803f 0000 803f
00000300: 0000 803f 0000 803f 0000 803f 0000 803f
00000310: 0000 803f 0000 803f 0000 803f 0000 803f
00000320: 0000 803f 0000 803f 0000 803f 0000 803f
00000330: 0000 803f 0000 803f 0000 803f 0000 803f
00000340: 0000 803f 0000 803f 0000 803f 0000 803f
00000350: 0000 803f 0000 803f 0000 803f 0000 803f
00000360: 0000 803f 0000 803f 0000 803f 0000 803f
00000370: 0000 803f 0000 803f 0000 803f 0000 803f
00000380: 0000 803f 0000 803f 0000 803f 0000 803f
00000390: 0000 803f 0000 803f 0000 803f 0000 803f
000003a0: 0000 803f 0000 803f 0000 803f 0000 803f
000003b0: 0000 803f 0000 803f 0000 803f 0000 803f
000003c0: 0000 803f 0000 803f 0000 803f 0000 803f
000003d0: 0000 803f 0000 803f 0000 803f 0000 803f
000003e0: 0000 803f 0000 803f 0000 803f 0000 803f
000003f0: 0000 803f 0000 803f 0000 803f 0000 803f
1.0 1.0 1.0 1.0 1.0 1.0 1.0 1.0
1.0 1.0 1.0 1.0 1.0 1.0 1.0 1.0
1.0 1.0 1.0 1.0 1.0 1.0 1.0 1.0
1.0 1.0 1.0 1.0 1.0 1.0 1.0 1.0
1.0 1.0 1.0 1.0 1.0 1.0 1.0 1.0
1.0 1.0 1.0 1.0 1.0 1.0 1.0 1.0
1.0 1.0 1.0 1.0 1.0 1.0 1.0 1.0
1.0 1.0 1.0 1.0 1.0 1.0 1.0 1.0
1.0 1.0 1.0 1.0 1.0 1.0 1.0 1.0
1.0 1.0 1.0 1.0 1.0 1.0 1.0 1.0
1.0 1.0 1.0 1.0 1.0 1.0 1.0 1.0
1.0 1.0 1.0 1.0 1.0 1.0 1.0 1.0
1.0 1.0 1.0 1.0 1.0 1.0 1.0 1.0
1.0 1.0 1.0 1.0 1.0 1.0 1.0 1.0
1.0 1.0 1.0 1.0 1.0 1.0 1.0 1.0
1.0 1.0 1.0 1.0 1.0 1.0 1.0 1.0
1.0 1.0 1.0 1.0 1.0 1.0 1.0 1.0
1.0 1.0 1.0 1.0 1.0 1.0 1.0 1.0
1.0 1.0 1.0 1.0 1.0 1.0 1.0 1.0
1.0 1.0 1.0 1.0 1.0 1.0 1.0 1.0
1.0 1.0 1.0 1.0 1.0 1.0 1.0 1.0
1.0 1.0 1.0 1.0 1.0 1.0 1.0 1.0
1.0 1.0 1.0 1.0 1.0 1.0 1.0 1.0
1.0 1.0 1.0 1.0 1.0 1.0 1.0 1.0
1.0 1.0 1.0 1.0 1.0 1.0 1.0 1.0
1.0 1.0 1.0 1.0 1.0 1.0 1.0 1.0
1.0 1.0 1.0 1.0 1.0 1.0 1.0 1.0
1.0 1.0 1.0 1.0 1.0 1.0 1.0 1.0
1.0 1.0 1.0 1.0 1.0 1.0 1.0 1.0
1.0 1.0 1.0 1.0 1.0 1.0 1.0 1.0
1.0 1.0 1.0 1.0 1.0 1.0 1.0 1.0
1.0 1.0 1.0 1.0 1.0 1.0 1.0 1.0

bn1.bias f4 [400]
00000000: 0000 0000 0000 0000 0000 0000 0000 0000
00000010: 0000 0000 0000 0000 0000 0000 0000 0000
00000020: 0000 0000 0000 0000 0000 0000 0000 0000
00000030: 0000 0000 0000 0000 0000 0000 0000 0000
00000040: 0000 0000 0000 0000 0000 0000 0000 0000
00000050: 0000 0000 0000 0000 0000 0000 0000 0000
00000060: 0000 0000 0000 0000 0000 0000 0000 0000
00000070: 0000 0000 0000 0000 0000 0000 0000 0000
00000080: 0000 0000 0000 0000 0000 0000 0000 0000
00000090: 0000 0000 0000 0000 0000 0000 0000 0000
000000a0: 0000 0000 0000 0000 0000 0000 0000 0000
000000b0: 0000 0000 0000 0000 0000 0000 0000 0000
000000c0: 0000 0000 0000 0000 0000 0000 0000 0000
000000d0: 0000 0000 0000 0000 0000 0000 0000 0000
000000e0: 0000 0000 0000 0000 0000 0000 0000 0000
000000f0: 0000 0000 0000 0000 0000 0000 0000 0000
00000100: 0000 0000 0000 0000 0000 0000 0000 0000
00000110: 0000 0000 0000 0000 0000 0000 0000 0000
00000120: 0000 0000 0000 0000 0000 0000 0000 0000
00000130: 0000 0000 0000 0000 0000 0000 0000 0000
00000140: 0000 0000 0000 0000 0000 0000 0000 0000
00000150: 0000 0000 0000 0000 0000 0000 0000 0000
00000160: 0000 0000 0000 0000 0000 0000 0000 0000
00000170: 0000 0000 0000 0000 0000 0000 0000 0000
00000180: 0000 0000 0000 0000 0000 0000 0000 0000
00000190: 0000 0000 0000 0000 0000 0000 0000 0000
000001a0: 0000 0000 0000 0000 0000 0000 0000 0000
000001b0: 0000 0000 0000 0000 0000 0000 0000 0000
000001c0: 0000 0000 0000 0000 0000 0000 0000 0000
000001d0: 0000 0000 0000 0000 0000 0000 0000 0000
000001e0: 0000 0000 0000 0000 0000 0000 0000 0000
000001f0: 0000 0000 0000 0000 0000 0000 0000 0000
00000200: 0000 0000 0000 0000 0000 0000 0000 0000
00000210: 0000 0000 0000 0000 0000 0000 0000 0000
00000220: 0000 0000 0000 0000 0000 0000 0000 0000
00000230: 0000 0000 0000 0000 0000 0000 0000 0000
00000240: 0000 0000 0000 0000 0000 0000 0000 0000
00000250: 0000 0000 0000 0000 0000 0000 0000 0000
00000260: 0000 0000 0000 0000 0000 0000 0000 0000
00000270: 0000 0000 0000 0000 0000 0000 0000 0000
00000280: 0000 0000 0000 0000 0000 0000 0000 0000
00000290: 0000 0000 0000 0000 0000 0000 0000 0000
000002a0: 0000 0000 0000 0000 0000 0000 0000 0000
000002b0: 0000 0000 0000 0000 0000 0000 0000 0000
000002c0: 0000 0000 0000 0000 0000 0000 0000 0000
000002d0: 0000 0000 0000 0000 0000 0000 0000 0000
000002e0: 0000 0000 0000 0000 0000 0000 0000 0000
000002f0: 0000 0000 0000 0000 0000 0000 0000 0000
00000300: 0000 0000 0000 0000 0000 0000 0000 0000
00000310: 0000 0000 0000 0000 0000 0000 0000 0000
00000320: 0000 0000 0000 0000 0000 0000 0000 0000
00000330: 0000 0000 0000 0000 0000 0000 0000 0000
00000340: 0000 0000 0000 0000 0000 0000 0000 0000
00000350: 0000 0000 0000 0000 0000 0000 0000 0000
00000360: 0000 0000 0000 0000 0000 0000 0000 0000
00000370: 0000 0000 0000 0000 0000 0000 0000 0000
00000380: 0000 0000 0000 0000 0000 0000 0000 0000
00000390: 0000 0000 0000 0000 0000 0000 0000 0000
000003a0: 0000 0000 0000 0000 0000 0000 0000 0000
000003b0: 0000 0000 0000 0000 0000 0000 0000 0000
000003c0: 0000 0000 0000 0000 0000 0000 0000 0000
000003d0: 0000 0000 0000 0000 0000 0000 0000 0000
000003e0: 0000 0000 0000 0000 0000 0000 0000 0000
000003f0: 0000 0000 0000 0000 0000 0000 0000 0000
0.0 0.0 0.0 0.0 0.0 0.0 0.0 0.0
0.0 0.0 0.0 0.0 0.0 0.0 0.0 0.0
0.0 0.0 0.0 0.0 0.0 0.0 0.0 0.0
0.0 0.0 0.0 0.0 0.0 0.0 0.0 0.0
0.0 0.0 0.0 0.0 0.0 0.0 0.0 0.0
0.0 0.0 0.0 0.0 0.0 0.0 0.0 0.0
0.0 0.0 0.0 0.0 0.0 0.0 0.0 0.0
0.0 0.0 0.0 0.0 0.0 0.0 0.0 0.0
0.0 0.0 0.0 0.0 0.0 0.0 0.0 0.0
0.0 0.0 0.0 0.0 0.0 0.0 0.0 0.0
0.0 0.0 0.0 0.0 0.0 0.0 0.0 0.0
0.0 0.0 0.0 0.0 0.0 0.0 0.0 0.0
0.0 0.0 0.0 0.0 0.0 0.0 0.0 0.0
0.0 0.0 0.0 0.0 0.0 0.0 0.0 0.0
0.0 0.0 0.0 0.0 0.0 0.0 0.0 0.0
0.0 0.0 0.0 0.0 0.0 0.0 0.0 0.0
0.0 0.0 0.0 0.0 0.0 0.0 0.0 0.0
0.0 0.0 0.0 0.0 0.0 0.0 0.0 0.0
0.0 0.0 0.0 0.0 0.0 0.0 0.0 0.0
0.0 0.0 0.0 0.0 0.0 0.0 0.0 0.0
0.0 0.0 0.0 0.0 0.0 0.0 0.0 0.0
0.0 0.0 0.0 0.0 0.0 0.0 0.0 0.0
0.0 0.0 0.0 0.0 0.0 0.0 0.0 0.0
0.0 0.0 0.0 0.0 0.0 0.0 0.0 0.0
0.0 0.0 0.0 0.0 0.0 0.0 0.0 0.0
0.0 0.0 0.0 0.0 0.0 0.0 0.0 0.0
0.0 0.0 0.0 0.0 0.0 0.0 0.0 0.0
0.0 0.0 0.0 0.0 0.0 0.0 0.0 0.0
0.0 0.0 0.0 0.0 0.0 0.0 0.0 0.0
0.0 0.0 0.0 0.0 0.0 0.0 0.0 0.0
0.0 0.0 0.0 0.0 0.0 0.0 0.0 0.0
0.0 0.0 0.0 0.0 0.0 0.0 0.0 0.0

fc2.weight f4 [300, 400]
00000000: 1333 fbbc 80f4 ddb9 dccb 43bd 5030 69bc
00000010: e057 1a3d d37d 02bd c2f7 2b3d a516 4bbd
00000020: d098 3dbb a0a1 babb 00b5 67ba def8 3f3d
00000030: 4646 46bd 1899 903b 5c02 5f3d 2006 263d
00000040: cde6 e9bc 20cb b3bc 00a4 a0ba 1024 f83b
00000050: 1c17 c53c c179 69bd 40f2 debb 6e23 5b3d
00000060: 4163 47bd c62a 303d 4d15 14bd f360 19bd
00000070: 5a2e 0ebd 80cf b8ba 20fc 643c 8c71 383d
00000080: 60c7 d73c f858 f23c 0e41 87bc 9807 4f3d
00000090: 4090 a03b 0062 143c b820 06bc 6cac 333d
000000a0: c090 e53a fa4c d6bc 00e4 f03b 688a 203c
000000b0: 5699 56bd d26a 073d 0cec bd3c b6f9 1ebd
000000c0: 082e 963c 1b66 01bd 4057 493c 9042 df3c
000000d0: 607b ce3b cb72 3bbd 803b 91ba 743d e43c
000000e0: d837 ba3c 329d afbc 2483 0dbc 9ed0 34bd
000000f0: c41c b63c 30d4 00bc d221 36bd e6ec 01bd
00000100: f0ef 8fbb 98d9 32bd 5b34 f8bc b81d bebc
00000110: b0e8 40bd 54b8 4bbd 7c93 0bbd 5009 233b
00000120: 1444 56bc ba39 05bd 4afa 483d 3cf2 acbc
00000130: ca3c 223d 5ae3 0ebd 40f6 883a 20a2 4dbc
00000140: 0803 b9bc e679 2d3d 04d0 ba3c b092 4ebd
00000150: b057 42bc 7601 3fbd 6095 43bc 47aa f4bc
00000160: 30e5 983b 18d0 b4bc 7c3e e63c ccda bfbc
00000170: 1a91 533d dc60 063d ec98 ce3c e3e9 69bd
00000180: 6e84 1d3d 30de ba3b 5800 1b3d 7017 5f3d
00000190: 14d7 1bbd 0e47 473d 006a 97b9 5eff 95bc
000001a0: f1cf 30bd e0e2 88ba 7a0c 423d 3839 b0bb
000001b0: e2c7 173d 7061 d13b 806d 123d d4d0 b93c
000001c0: 2832 e83c ce3b 383d e0b4 c5bc 786d 86bc
000001d0: 2bec 4cbd e45f 20bc deac e3bc 78c1 c3bc
000001e0: ea65 633d 82ed 5f3d ba70 ffbc f159 43bd
000001f0: a054 9f3b 30c0 333c 3007 03bc 4615 bdbc
00000200: e491 ae3c 5043 48bd 73e0 46bd ccf4 67bc
00000210: 47dd 5ebd 0c87 513d 8658 063d 88e2 08bc
00000220: 10e2 293b 302b 483b 0c63 813c c889 bdbb
00000230: 6846 d63c 588e af3c 0601 6c3d 2e59 613d
00000240: 807a a4bc 7ff3 40bd c859 fdbb 1043 6fbb
00000250: 6827 a33c a89e 3b3c b8be 10bc 9497 35bc
00000260: 80bd 443d 3c37 d93c bcfd 37bc b807 293c
00000270: 1364 64bd c82b 053d 740c 983c 8cca 293d
00000280: 54d3 23bd 4cf4 72bc f0a3 fbbb 3a1d 063d
00000290: 002c 133a 8062 103d 5403 0abc 6494 3fbd
000002a0: b885 163c 0451 313d b000 3fbc ba47 013d
000002b0: e86d 953c 2242 4abd 115a 40bd 0241 1ebd
000002c0: 1038 613b 0095 a23a c85a 2b3c 6ced c63c
000002d0: e214 12bd 57e7 37bd d68f 52bd f150 48bd
000002e0: f353 5abd c077 cc3b c9f8 6bbd e70b e2bc
000002f0: c06c 5f3c a006 a5bb 78e1 fcbb b12a 5abd
00000300: 3a96 febc cb9e 18bd a031 183d a21b f2bc
00000310: ec7c df3c f07c 2b3d 162f 1d3d dab5 623d
00000320: 9e60 4c3d cbfb f1bc 3479 db3c 80e3 aa3c
00000330: c896 243c c898 9fbb 0eb2 31bd e887 d8bc
00000340: 7e44 553d 1017 313b 6c71 803c a0e3 253c
00000350: 98da bfbc b017 263c 5ada c4bc 1e70 03bd
00000360: 7fe4 1fbd b070 1abb 4499 c23c 00bd ceb9
00000370: 693c 5abd ec96 bf3c 1a2e c8bc ec1d e83c
00000380: 82c7 1a3d 00d9 3fbc 4870 053c d80b e8bc
00000390: 2827 86bb 88a8 debb b55d 3cbd 2087 3d3b
000003a0: dcad 5fbd a860 c4bc 8823 f73c e240 193d
000003b0: 002e d738 0808 993c 2068 ec3c aa2d 373d
000003c0: 6204 673d 7033 433c daec 3e3d a86b 9cbc
000003d0: 0ea7 0b3d 3c8c 5fbd 7a0b 9fbc 203d 193b
000003e0: b2a2 443d 0413 2c3d 56eb 303d b358 3cbd
000003f0: 50c6 603d 4a07 aebc 86e0 5bbd 6062 67bb
-0.030664003 -0.00042334571 -0.047801837 -0.01423271 0.03768146 -0.031858277 0.041984327 -0.049582142
-0.0028930195 -0.0056955367 -0.0008838922 0.046868198 -0.04840686 0.0044127814 0.05444561 0.040533185
-0.028552437 -0.021947443 -0.0012255907 0.0075726584 0.024058871 -0.05700088 -0.006803781 0.053500585
-0.04867864 0.043009542 -0.036153127 -0.037445974 -0.034712173 -0.0014099926 0.013976127 0.04503016
0.026340187 0.02958344 -0.016510513 0.05054435 0.0049000084 0.009056568 -0.008186512 0.043865606
0.0017514452 -0.026159752 0.0073513985 0.009798624 -0.052392326 0.033060856 0.023183845 -0.03881236
0.018332496 -0.031591516 0.012288868 0.02725342 0.0063013285 -0.045763772 -0.0011080354 0.027861334
0.022731707 -0.021437261 -0.008637223 -0.044144265 0.022230513 -0.007863089 -0.044465847 -0.031720065
-0.0043926165 -0.043664545 -0.030298403 -0.02320753 -0.047096908 -0.049736336 -0.0340762 0.0024877377
-0.0130777545 -0.032525755 0.04906682 -0.0211116 0.039608754 -0.034884788 0.0010449365 -0.012550861
-0.022584453 0.04235258 0.022804268 -0.05043286 -0.011861727 -0.046632253 -0.011937469 -0.02986635
0.004665993 -0.022071883 0.028105967 -0.02341976 0.05165205 0.032807216 0.025219403 -0.057107817
0.038456373 0.0057027563 0.037842125 0.05446571 -0.03804691 0.048651747 -0.0002887994 -0.018310245
-0.04316706 -0.001044359 0.04737518 -0.0053779148 0.037055857 0.0063897893 0.03574896 0.022682585
0.028344229 0.04497891 -0.0241341 -0.01640962 -0.050029915 -0.009788487 -0.02779239 -0.023895964
0.055517115 0.054669864 -0.031181682 -0.047693197 0.004862383 0.010971114 -0.007997319 -0.023081433
0.0213098 -0.04889232 -0.048553895 -0.014157485 -0.054410245 0.05115418 0.032799266 -0.0083547905
0.0025922097 0.003054332 0.0157943 -0.005784247 0.02615662 0.02143018 0.057618164 0.05501669
-0.020077944 -0.047107216 -0.00773165 -0.0036508478 0.019916251 0.011451401 -0.008834533 -0.011083502
0.048032284 0.026515596 -0.011229929 0.010316782 -0.0557595 0.032512456 0.018560626 0.04145293
-0.03999646 -0.014828753 -0.007679455 0.032742716 0.00056141615 0.035250187 -0.008423645 -0.046772376
0.0091871545 0.043290153 -0.011657879 0.031562544 0.018240884 -0.049379475 -0.046960894 -0.038636215
0.0034365691 0.0012404025 0.010458656 0.024283133 -0.035664447 -0.044898357 -0.051406704 -0.048905317
-0.053302716 0.0062398612 -0.057610307 -0.027593566 0.013636768 -0.00503619 -0.0077173077 -0.05326337
-0.031077493 -0.03726081 0.0371567 -0.029554192 0.027281247 0.041867197 0.038374983 0.05534921
0.04989683 -0.02953901 0.026791193 0.020860434 0.010045715 -0.004870508 -0.043382697 -0.026431993
0.052067272 0.0027021803 0.015679084 0.010125071 -0.023419663 0.0101374835 -0.0240299 -0.032089345
-0.03903627 -0.0023565702 0.023754723 -0.00039432198 -0.053280268 0.023387395 -0.024436045 0.02833458
0.03778792 -0.011709452 0.008144446 -0.02832596 -0.0040940233 -0.006794993 -0.045987803 0.0028919652
-0.054609165 -0.02397187 0.03016831 0.037415393 0.00010260567 0.018680587 0.028858244 0.044721283
0.056400664 0.011914119 0.046612598 -0.019094303 0.034094863 -0.054577097 -0.019414652 0.002338238
0.04800672 0.042010322 0.043193184 -0.045983028 0.054876626 -0.02124371 -0.05368092 -0.0035306439

fc2.bias f4 [300]
00000000: 8650 cebc 806e 3fbb 61f5 11bd b367 4dbd
00000010: 2c5b 463d da91 253d 38ab 433d 089d ccbb
00000020: 71a5 4cbd 004f 11ba 146c 51bc 0065 7dbb
00000030: 9ef1 d7bc 4e36 80bc 10a2 8ebb 48c7 63bd
00000040: 7621 543d 0c13 d9bc 9053 273d 09d0 44bd
00000050: f05e b63c 78f1 84bb a236 13bd 94bd 6bbc
00000060: 8188 eebc 38f2 6abc 005c 2339 047d 89bc
00000070: db81 5dbd ae39 2ebd 52fd 48bd 705a d83c
00000080: 9408 f8bc 409f cb3b c000 ca3a 3c67 3b3d
00000090: 6897 9f3c 54a5 563d c56e 64bd d0ac 7d3b
000000a0: 16f4 4c3d 04a1 04bd 686b b33c 90c9 abbb
000000b0: 8022 8e3c b4e2 adbc 8425 60bd 405c c33b
000000c0: 1cc6 3a3d aea4 2b3d 6009 85ba acba d53c
000000d0: e69e 49bd 5051 753c d87b 383d b861 e6bb
000000e0: 06ea 4e3d c844 80bb 30d4 b83b 70d5 0cbb
000000f0: 0ae7 043d 3c25 a5bc 2410 81bc da71 46bd
00000100: 94ad ae3c e0be c53b cc29 f33c 5ce4 1ebd
00000110: d484 6cbc ce3d 593d c4e0 133d 5527 22bd
00000120: c059 a8ba c0a5 d9bc d8da c33c f04a f23c
00000130: b624 1f3d d0d4 1a3c 784e 243c 980f 693c
00000140: 24ad 63bd 483e 5cbd 6207 023d bc10 953c
00000150: c0f4 fb3b a6d6 0f3d 20a4 e6bc eebc 4d3d
00000160: 200e d33b 24d6 523d 58f5 49bc 88c1 b3bc
00000170: 90f8 5f3b fc52 dc3c 80df 7fba 2431 08bd
00000180: 00bf 473c 7072 673c 78da 7cbc 66ef 4b3d
00000190: 9cc5 183d 96b1 623d a8ce 05bc 10a3 9abc
000001a0: 1ad3 363d d080 3cbc 80e0 af3a f83f 473c
000001b0: 708f 3b3b 560e 513d 1418 103d a6bb 51bd
000001c0: 0092 423a 2a3d 60bd 5016 d23b 9cf5 0cbc
000001d0: eef2 613d cc2f aa3c f698 033d 0026 c73b
000001e0: ccf8 2c3d 4050 5e3d a27e 46bd 809a afbc
000001f0: 6ff7 44bd c29b 21bd 607e 8aba 1150 fdbc
00000200: 07ab 6abd 9092 603c 8bf7 12bd a0d7 91bc
00000210: 1c5f ea3c b260 48bd 427b 2b3d dcd9 ca3c
00000220: 00be a23b c8fb 12bd 92a0 e2bc c859 2a3c
00000230: 0c73 9cbc a058 bf3c 581c 473d b8bb 5bbd
00000240: e01e 923c a03f af3a 4e91 593d 8c14 b43c
00000250: 5865 953b 2683 2fbd 7e94 433d 54fc 813c
00000260: 3c8a 5bbd f149 2dbd f06e 7d3c 54f4 533d
00000270: 4081 383b 6f33 4fbd 6320 37bd 7459 3fbc
00000280: 96c7 03bd 40ad 9aba a8a6 0bbc 68df 1f3d
00000290: e8d9 f0bc da21 37bd 0012 e8b9 18c8 63bd
000002a0: 0016 7c3c 349d f8bc dc1f ac3c f6ca 63bd
000002b0: 6877 3b3c 2407 2ebc c047 95bb 778f 40bd
000002c0: 0885 1a3d b49a 59bc 10c5 0d3b a486 2abc
000002d0: 8c48 493d 0023 19ba a8d4 783c 9145 58bd
000002e0: 5cf1 113d baf0 4d3d 8076 fa3c 4053 253b
000002f0: 7863 5b3d 9046 443b a676 09bd d002 4c3c
00000300: b49b 243d 1a9f 503d 5cb4 53bc 1aef 5a3d
00000310: 7017 cb3c a0a3 fd3c a08b 5a3d 0cbf efbc
00000320: 7434 96bc 2cd9 be3c 9c68 0bbd 6479 c53c
00000330: 18a2 603d b053 5dbd 394f 50bd 9659 4cbd
00000340: 9717 66bd 7094 5dbc 743f 27bd e04a 0b3d
00000350: b878 1d3c 4098 f4bc 9ceb 0cbd 94ad c4bc
00000360: 7818 b33c ab98 15bd 7c72 01bc 0c04 63bc
00000370: 9333 2ebd 6225 2dbd a2f4 2cbd a4d0 29bd
00000380: 2093 693c f86b ba3c d454 5bbd 1c05 833c
00000390: 64c0 64bd 90fd ccbc 6898 ccbc 94e0 52bd
000003a0: 282e 0dbc 1018 1e3c 54df 19bd 68bc e8bb
000003b0: 82c2 9bbc b092 50bd 9c4a 73bc 807b e639
000003c0: 7038 3dbd 92e2 0d3d 5f72 0fbd 90fe 25bc
000003d0: a0f7 0dbc d0db 2b3d 56da c3bc cad3 233d
000003e0: 4883 fe3c d859 f63c cca9 91bc b631 b7bc
000003f0: 0215 443d 96c1 aebc 048a 47bd ec15 3f3d
-0.025184881 -0.002921015 -0.035634402 -0.050147723 0.048426792 0.040422298 0.04777071 -0.0062443055
-0.049962465 -0.0005543083 -0.0127821155 -0.0038664937 -0.02636033 -0.015650894 -0.0043528154 -0.05560997
0.051789723 -0.02649834 0.040851176 -0.04804996 0.022262067 -0.0040571056 -0.035940774 -0.014388461
-0.029117825 -0.014339976 0.00015579164 -0.016783245 -0.054078918 -0.042535476 -0.04906971 0.026410311
-0.030277528 0.0062140524 0.00154116 0.04575275 0.019481376 0.052403763 -0.0557697 0.003870774
0.050037466 -0.03238012 0.021901801 -0.005242534 0.017350435 -0.021226265 -0.054723278 0.005961925
0.045599088 0.041905098 -0.0010149889 0.026089989 -0.049223803 0.014973 0.04503998 -0.007030692
0.05051615 -0.0039144494 0.005640529 -0.0021489523 0.0324469 -0.020159356 -0.015754767 -0.04844842
0.021323003 0.006034717 0.029683016 -0.038792 -0.014435966 0.053037457 0.036103025 -0.03958829
-0.001284413 -0.026568294 0.023908064 0.029576749 0.03885337 0.0094501525 0.010028474 0.014224909
-0.05558504 -0.053770334 0.031745322 0.018196456 0.0076890886 0.035116814 -0.028154433 0.050229006
0.006440893 0.05147375 -0.012326561 -0.021942869 0.0034175254 0.026895039 -0.0009760782 -0.03324999
0.012191534 0.014126405 -0.015432946 0.049788855 0.03729783 0.05534514 -0.0081669465 -0.018876582
0.044634916 -0.011505321 0.0013418347 0.012161247 0.002861943 0.051039062 0.035179213 -0.051204346
0.00074222684 -0.05474583 0.0064113513 -0.00860348 0.055163316 0.020774744 0.032128297 0.006077528
0.04222946 0.05427575 -0.04846061 -0.021435976 -0.048087534 -0.039455183 -0.0010566227 -0.030921968
-0.05729201 0.013706818 -0.035880607 -0.017803013 0.028609805 -0.04892034 0.041865595 0.024762087
0.0049664974 -0.03588465 -0.027664457 0.010397382 -0.019097827 0.02335769 0.048611015 -0.05364582
0.017836988 0.0013370402 0.05311709 0.021982454 0.0045592003 -0.042849682 0.047749035 0.01586739
-0.053598627 -0.042306844 0.015468344 0.05174668 0.002815321 -0.05058616 -0.04470862 -0.011679042
-0.03217276 -0.00118009 -0.008523621 0.039031416 -0.02940078 -0.044710018 -0.000442639 -0.055610746
0.015386105 -0.030348398 0.021011285 -0.05561348 0.011442043 -0.01062182 -0.0045556724 -0.04701182
0.037724525 -0.013281513 0.002163235 -0.010408077 0.04914145 -0.0005841702 0.01518742 -0.05280072
0.03563057 0.050278403 0.030574083 0.0025226623 0.053561658 0.0029949285 -0.033560418 0.012451842
0.040187553 0.05093298 -0.012921419 0.05345068 0.02479145 0.030961812 0.053355813 -0.029265903
-0.018335558 0.023296915 -0.03403531 0.024105735 0.054842085 -0.05403489 -0.050856803 -0.049890123
-0.05617484 -0.01352416 -0.040831998 0.034006953 0.009611301 -0.029857755 -0.034404382 -0.02400855
0.021862254 -0.03652255 -0.00790083 -0.013855945 -0.042529654 -0.04227198 -0.042225488 -0.04145874
0.014256269 0.022756562 -0.053547695 0.015993647 -0.05584754 -0.025023252 -0.024975017 -0.051483706
-0.008616962 0.009649292 -0.037566498 -0.007102538 -0.019013647 -0.050921142 -0.014849331 0.00043961033
-0.0461964 0.034639902 -0.035021182 -0.010131493 -0.008664995 0.041957676 -0.023907822 0.0399969
0.03106846 0.030072138 -0.01778116 -0.022362571 0.047871597 -0.021332543 -0.048715606 0.046651766

bn2.weight f4 [300]
00000000: 0000 803f 0000 803f 0000 803f 0000 803f
00000010: 0000 803f 0000 803f 0000 803f 0000 803f
00000020: 0000 803f 0000 803f 0000 803f 0000 803f
00000030: 0000 803f 0000 803f 0000 803f 0000 803f
00000040: 0000 803f 0000 803f 0000 803f 0000 803f
00000050: 0000 803f 0000 803f 0000 803f 0000 803f
00000060: 0000 803f 0000 803f 0000 803f 0000 803f
00000070: 0000 803f 0000 803f 0000 803f 0000 803f
00000080: 0000 803f 0000 803f 0000 803f 0000 803f
00000090: 0000 803f 0000 803f 0000 803f 0000 803f
000000a0: 0000 803f 0000 803f 0000 803f 0000 803f
000000b0: 0000 803f 0000 803f 0000 803f 0000 803f
000000c0: 0000 803f 0000 803f 0000 803f 0000 803f
000000d0: 0000 803f 0000 803f 0000 803f 0000 803f
000000e0: 0000 803f 0000 803f 0000 803f 0000 803f
000000f0: 0000 803f 0000 803f 0000 803f 0000 803f
00000100: 0000 803f 0000 803f 0000 803f 0000 803f
00000110: 0000 803f 0000 803f 0000 803f 0000 803f
00000120: 0000 803f 0000 803f 0000 803f 0000 803f
00000130: 0000 803f 0000 803f 0000 803f 0000 803f
00000140: 0000 803f 0000 803f 0000 803f 0000 803f
00000150: 0000 803f 0000 803f 0000 803f 0000 803f
00000160: 0000 803f 0000 803f 0000 803f 0000 803f
00000170: 0000 803f 0000 803f 0000 803f 0000 803f
00000180: 0000 803f 0000 803f 0000 803f 0000 803f
00000190: 0000 803f 0000 803f 0000 803f 0000 803f
000001a0: 0000 803f 0000 803f 0000 803f 0000 803f
000001b0: 0000 803f 0000 803f 0000 803f 0000 803f
000001c0: 0000 803f 0000 803f 0000 803f 0000 803f
000001d0: 0000 803f 0000 803f 0000 803f 0000 803f
000001e0: 0000 803f 0000 803f 0000 803f 0000 803f
000001f0: 0000 803f 0000 803f 0000 803f 0000 803f
00000200: 0000 803f 0000 803f 0000 803f 0000 803f
00000210: 0000 803f 0000 803f 0000 803f 0000 803f
00000220: 0000 803f 0000 803f 0000 803f 0000 803f
00000230: 0000 803f 0000 803f 0000 803f 0000 803f
00000240: 0000 803f 0000 803f 0000 803f 0000 803f
00000250: 0000 803f 0000 803f 0000 803f 0000 803f
00000260: 0000 803f 0000 803f 0000 803f 0000 803f
00000270: 0000 803f 0000 803f 0000 803f 0000 803f
00000280: 0000 803f 0000 803f 0000 803f 0000 803f
00000290: 0000 803f 0000 803f 0000 803f 0000 803f
000002a0: 0000 803f 0000 803f 0000 803f 0000 803f
000002b0: 0000 803f 0000 803f 0000 803f 0000 803f
000002c0: 0000 803f 0000 803f 0000 803f 0000 803f
000002d0: 0000 803f 0000 803f 0000 803f 0000 803f
000002e0: 0000 803f 0000 803f 0000 803f 0000 803f
000002f0: 0000 803f 0000 803f 0000 803f 0000 803f
00000300: 0000 803f 0000 803f 0000 803f 0000 803f
00000310: 0000 803f 0000 803f 0000 803f 0000 803f
00000320: 0000 803f 0000 803f 0000 803f 0000 803f
00000330: 0000 803f 0000 803f 0000 803f 0000 803f
00000340: 0000 803f 0000 803f 0000 803f 0000 803f
00000350: 0000 803f 0000 803f 0000 803f 0000 803f
00000360: 0000 803f 0000 803f 0000 803f 0000 803f
00000370: 0000 803f 0000 803f 0000 803f 0000 803f
00000380: 0000 803f 0000 803f 0000 803f 0000 803f
00000390: 0000 803f 0000 803f 0000 803f 0000 803f
000003a0: 0000 803f 0000 803f 0000 803f 0000 803f
000003b0: 0000 803f 0000 803f 0000 803f 0000 803f
000003c0: 0000 803f 0000 803f 0000 803f 0000 803f
000003d0: 0000 803f 0000 803f 0000 803f 0000 803f
000003e0: 0000 803f 0000 803f 0000 803f 0000 803f
000003f0: 0000 803f 0000 803f 0000 803f 0000 803f
1.0 1.0 1.0 1.0 1.0 1.0 1.0 1.0
1.0 1.0 1.0 1.0 1.0 1.0 1.0 1.0
1.0 1.0 1.0 1.0 1.0 1.0 1.0 1.0
1.0 1.0 1.0 1.0 1.0 1.0 1.0 1.0
1.0 1.0 1.0 1.0 1.0 1.0 1.0 1.0
1.0 1.0 1.0 1.0 1.0 1.0 1.0 1.0
1.0 1.0 1.0 1.0 1.0 1.0 1.0 1.0
1.0 1.0 1.0 1.0 1.0 1.0 1.0 1.0
1.0 1.0 1.0 1.0 1.0 1.0 1.0 1.0
1.0 1.0 1.0 1.0 1.0 1.0 1.0 1.0
1.0 1.0 1.0 1.0 1.0 1.0 1.0 1.0
1.0 1.0 1.0 1.0 1.0 1.0 1.0 1.0
1.0 1.0 1.0 1.0 1.0 1.0 1.0 1.0
1.0 1.0 1.0 1.0 1.0 1.0 1.0 1.0
1.0 1.0 1.0 1.0 1.0 1.0 1.0 1.0
1.0 1.0 1.0 1.0 1.0 1.0 1.0 1.0
1.0 1.0 1.0 1.0 1.0 1.0 1.0 1.0
1.0 1.0 1.0 1.0 1.0 1.0 1.0 1.0
1.0 1.0 1.0 1.0 1.0 1.0 1.0 1.0
1.0 1.0 1.0 1.0 1.0 1.0 1.0 1.0
1.0 1.0 1.0 1.0 1.0 1.0 1.0 1.0
1.0 1.0 1.0 1.0 1.0 1.0 1.0 1.0
1.0 1.0 1.0 1.0 1.0 1.0 1.0 1.0
1.0 1.0 1.0 1.0 1.0 1.0 1.0 1.0
1.0 1.0 1.0 1.0 1.0 1.0 1.0 1.0
1.0 1.0 1.0 1.0 1.0 1.0 1.0 1.0
1.0 1.0 1.0 1.0 1.0 1.0 1.0 1.0
1.0 1.0 1.0 1.0 1.0 1.0 1.0 1.0
1.0 1.0 1.0 1.0 1.0 1.0 1.0 1.0
1.0 1.0 1.0 1.0 1.0 1.0 1.0 1.0
1.0 1.0 1.0 1.0 1.0 1.0 1.0 1.0
1.0 1.0 1.0 1.0 1.0 1.0 1.0 1.0

bn2.bias f4 [300]
00000000: 0000 0000 0000 0000 0000 0000 0000 0000
00000010: 0000 0000 0000 0000 0000 0000 0000 0000
00000020: 0000 0000 0000 0000 0000 0000 0000 0000
00000030: 0000 0000 0000 0000 0000 0000 0000 0000
00000040: 0000 0000 0000 0000 0000 0000 0000 0000
00000050: 0000 0000 0000 0000 0000 0000 0000 0000
00000060: 0000 0000 0000 0000 0000 0000 0000 0000
00000070: 0000 0000 0000 0000 0000 0000 0000 0000
00000080: 0000 0000 0000 0000 0000 0000 0000 0000
00000090: 0000 0000 0000 0000 0000 0000 0000 0000
000000a0: 0000 0000 0000 0000 0000 0000 0000 0000
000000b0: 0000 0000 0000 0000 0000 0000 0000 0000
000000c0: 0000 0000 0000 0000 0000 0000 0000 0000
000000d0: 0000 0000 0000 0000 0000 0000 0000 0000
000000e0: 0000 0000 0000 0000 0000 0000 0000 0000
000000f0: 0000 0000 0000 0000 0000 0000 0000 0000
00000100: 0000 0000 0000 0000 0000 0000 0000 0000
00000110: 0000 0000 0000 0000 0000 0000 0000 0000
00000120: 0000 0000 0000 0000 0000 0000 0000 0000
00000130: 0000 0000 0000 0000 0000 0000 0000 0000
00000140: 0000 0000 0000 0000 0000 0000 0000 0000
00000150: 0000 0000 0000 0000 0000 0000 0000 0000
00000160: 0000 0000 0000 0000 0000 0000 0000 0000
00000170: 0000 0000 0000 0000 0000 0000 0000 0000
00000180: 0000 0000 0000 0000 0000 0000 0000 0000
00000190: 0000 0000 0000 0000 0000 0000 0000 0000
000001a0: 0000 0000 0000 0000 0000 0000 0000 0000
000001b0: 0000 0000 0000 0000 0000 0000 0000 0000
000001c0: 0000 0000 0000 0000 0000 0000 0000 0000
000001d0: 0000 0000 0000 0000 0000 0000 0000 0000
000001e0: 0000 0000 0000 0000 0000 0000 0000 0000
000001f0: 0000 0000 0000 0000 0000 0000 0000 0000
00000200: 0000 0000 0000 0000 0000 0000 0000 0000
00000210: 0000 0000 0000 0000 0000 0000 0000 0000
00000220: 0000 0000 0000 0000 0000 0000 0000 0000
00000230: 0000 0000 0000 0000 0000 0000 0000 0000
00000240: 0000 0000 0000 0000 0000 0000 0000 0000
00000250: 0000 0000 0000 0000 0000 0000 0000 0000
00000260: 0000 0000 0000 0000 0000 0000 0000 0000
00000270: 0000 0000 0000 0000 0000 0000 0000 0000
00000280: 0000 0000 0000 0000 0000 0000 0000 0000
00000290: 0000 0000 0000 0000 0000 0000 0000 0000
000002a0: 0000 0000 0000 0000 0000 0000 0000 0000
000002b0: 0000 0000 0000 0000 0000 0000 0000 0000
000002c0: 0000 0000 0000 0000 0000 0000 0000 0000
000002d0: 0000 0000 0000 0000 0000 0000 0000 0000
000002e0: 0000 0000 0000 0000 0000 0000 0000 0000
000002f0: 0000 0000 0000 0000 0000 0000 0000 0000
00000300: 0000 0000 0000 0000 0000 0000 0000 0000
00000310: 0000 0000 0000 0000 0000 0000 0000 0000
00000320: 0000 0000 0000 0000 0000 0000 0000 0000
00000330: 0000 0000 0000 0000 0000 0000 0000 0000
00000340: 0000 0000 0000 0000 0000 0000 0000 0000
00000350: 0000 0000 0000 0000 0000 0000 0000 0000
00000360: 0000 0000 0000 0000 0000 0000 0000 0000
00000370: 0000 0000 0000 0000 0000 0000 0000 0000
00000380: 0000 0000 0000 0000 0000 0000 0000 0000
00000390: 0000 0000 0000 0000 0000 0000 0000 0000
000003a0: 0000 0000 0000 0000 0000 0000 0000 0000
000003b0: 0000 0000 0000 0000 0000 0000 0000 0000
000003c0: 0000 0000 0000 0000 0000 0000 0000 0000
000003d0: 0000 0000 0000 0000 0000 0000 0000 0000
000003e0: 0000 0000 0000 0000 0000 0000 0000 0000
000003f0: 0000 0000 0000 0000 0000 0000 0000 0000
0.0 0.0 0.0 0.0 0.0 0.0 0.0 0.0
0.0 0.0 0.0 0.0 0.0 0.0 0.0 0.0
0.0 0.0 0.0 0.0 0.0 0.0 0.0 0.0
0.0 0.0 0.0 0.0 0.0 0.0 0.0 0.0
0.0 0.0 0.0 0.0 0.0 0.0 0.0 0.0
0.0 0.0 0.0 0.0 0.0 0.0 0.0 0.0
0.0 0.0 0.0 0.0 0.0 0.0 0.0 0.0
0.0 0.0 0.0 0.0 0.0 0.0 0.0 0.0
0.0 0.0 0.0 0.0 0.0 0.0 0.0 0.0
0.0 0.0 0.0 0.0 0.0 0.0 0.0 0.0
0.0 0.0 0.0 0.0 0.0 0.0 0.0 0.0
0.0 0.0 0.0 0.0 0.0 0.0 0.0 0.0
0.0 0.0 0.0 0.0 0.0 0.0 0.0 0.0
0.0 0.0 0.0 0.0 0.0 0.0 0.0 0.0
0.0 0.0 0.0 0.0 0.0 0.0 0.0 0.0
0.0 0.0 0.0 0.0 0.0 0.0 0.0 0.0
0.0 0.0 0.0 0.0 0.0 0.0 0.0 0.0
0.0 0.0 0.0 0.0 0.0 0.0 0.0 0.0
0.0 0.0 0.0 0.0 0.0 0.0 0.0 0.0
0.0 0.0 0.0 0.0 0.0 0.0 0.0 0.0
0.0 0.0 0.0 0.0 0.0 0.0 0.0 0.0
0.0 0.0 0.0 0.0 0.0 0.0 0.0 0.0
0.0 0.0 0.0 0.0 0.0 0.0 0.0 0.0
0.0 0.0 0.0 0.0 0.0 0.0 0.0 0.0
0.0 0.0 0.0 0.0 0.0 0.0 0.0 0.0
0.0 0.0 0.0 0.0 0.0 0.0 0.0 0.0
0.0 0.0 0.0 0.0 0.0 0.0 0.0 0.0
0.0 0.0 0.0 0.0 0.0 0.0 0.0 0.0
0.0 0.0 0.0 0.0 0.0 0.0 0.0 0.0
0.0 0.0 0.0 0.0 0.0 0.0 0.0 0.0
0.0 0.0 0.0 0.0 0.0 0.0 0.0 0.0
0.0 0.0 0.0 0.0 0.0 0.0 0.0 0.0

action_value.weight f4 [300, 2]
00000000: 7f7c 02bf a69b 30bf 0450 843e e045 0d3e
00000010: 9b30 2ebf d2fa eb3e da84 f43e 3cab 22be
00000020: d3e1 223f 01f9 34bf 68b1 5e3e 409a a0bc
00000030: c0d1 923c ab0f 173f 3e95 f33e e040 2fbf
00000040: 7456 16be 9005 b4bd bade e93e 4d6b 283f
00000050: eb1e cbbe a836 aabd 400f c5bc c2ec e53e
00000060: 7893 a73d 82ce d03e 58e4 f6bd f167 d7be
00000070: ca00 a3be b6bb f83e b08d 353e b049 92bd
00000080: 8623 c43e ac9a 79be 6810 d9be f4d1 59be
00000090: 58ee cdbe 8c76 eabe 3c31 f6be 98fe 223e
000000a0: 02a9 aa3e 795b 293f 081c 2cbf b60b b83e
000000b0: 76ea 9ebe 60e0 c8bc 35f4 313f 6cb0 74be
000000c0: fecd ab3e 0a03 09bf cff9 bdbe c790 273f
000000d0: f5b1 b7be 28ed 7ebe 7fc7 283f e055 a53c
000000e0: caf0 00bf b0c5 bbbd c02e 323e a0f3 1e3d
000000f0: f6e1 2bbf 7023 febd d477 853e 80a9 f53d
00000100: 9022 bf3d 75d6 1c3f a341 33bf 5a81 aa3e
00000110: f0f9 ce3d d4cb 4dbe 3efa af3e a0dc 713d
00000120: e339 c9be a791 f0be 7863 05bf da4b b03e
00000130: 8e74 a63e 7686 c93e 0054 90ba 96e6 82be
00000140: 3013 733e 5cd8 13bf 3c94 2b3e 5ccf e5be
00000150: 6c8a 33be ea22 a73e bafc fb3e a8df 87bd
00000160: 842c 97be 00ee 33bb 88ee d0bd c286 b83e
00000170: 1541 1a3f 6c33 edbe 002f a53b cca5 e5be
00000180: 6280 b23e aa45 ea3e c056 31bd c42f 16bf
00000190: 7cbd 2d3e f653 903e 7054 20bf 0a80 abbe
000001a0: 95d2 14bf 0bcb 0f3f 3d6f 0a3f d2ff 8b3e
000001b0: c9d7 163f 1a6b afbe d09d 563e 1885 133e
000001c0: 0075 9cbd 245e 243e cc14 773e 0e12 80be
000001d0: 80fd d8bd 8b41 1ebf f907 1e3f 59b0 203f
000001e0: 4d00 bdbe b15d 24bf 4a9a 27bf d3b3 afbe
000001f0: d7cd 023f e80f fcbd 57c1 aabe 305a 7bbe
00000200: 6221 9fbe 2036 113e 26b9 e13e 8830 463e
00000210: 547c b7be 002a 28bd 86a9 b6be b520 2abf
00000220: a8cb f6be 1e16 ecbe 01be 263f 8032 c9bb
00000230: f12d 073f 6127 1c3f acf4 a6be 667e 21bf
00000240: d58c 94be cce6 2a3e 0ea0 f33e 9a38 cb3e
00000250: f81e 433e e042 a53d 18d4 66be d83c 653e
00000260: b76f 0b3f 9877 aabd 0202 da3e 8a24 b13e
00000270: 9036 7c3d 10b3 933e 8ebd 9c3e 3654 ff3e
00000280: 462b b13e ef50 84be 901f 87be 6083 babe
00000290: b854 9bbd 6912 1f3f 791d 27bf ac95 193e
000002a0: 0a4c aebe de8c 00bf 3ce2 32bf dc29 233e
000002b0: 6641 be3e 00f4 a1bb 26ef 75be 1590 adbe
000002c0: 9a4c ca3e 8e73 2bbf afa5 183f 72fb 5fbe
000002d0: e1da 18bf b8b0 1bbf 6def 33bf 94e3 a6be
000002e0: b0cc 82bd af81 2bbf f6d8 82be 017a b8be
000002f0: c565 0e3f f13a 013f a602 bc3e 43b2 25bf
00000300: 78e6 de3d fd58 023f c61c f23e 4fcd 1e3f
00000310: 3e60 f13e fca7 0f3e 33ef 323f 6ebf 923e
00000320: 527b e6be 80f8 a33d 4cf1 68be 5d7a 183f
00000330: f8be 11be 4011 1cbc ada3 95be d050 5fbd
00000340: 9868 773e d03f f0be b26d b03e a128 0abf
00000350: fff9 143f c0e7 0dbe 50e3 f5bd 4c72 93be
00000360: 4c71 40be 484e 643e f021 9ebd 6653 c43e
00000370: 4645 e13e d03d 45bd ca1e 7bbe 7701 27bf
00000380: 20b2 f5bd da56 c6be b81b 493e bcae d6be
00000390: 8570 313f a08b 96bc c511 e9be 001c 85bc
000003a0: 9a4c f53e 23cc 023f 3e21 fdbe 8ae9 26bf
000003b0: cb4d a8be 9023 04bf 0b0a 173f 9034 97bd
000003c0: a436 24bf 091f e5be 3801 0dbe 55c1 26bf
000003d0: 3f77 ddbe 8f9f e2be abe5 28bf 0cfe 74be
000003e0: 0c87 103e 5bc8 26bf 44e4 9bbe 8c77 563e
000003f0: fbfe 333f 00b0 d3ba 4fc9 0cbf 75e8 12bf
-0.50971216 -0.689875 0.25842297 0.13796186 -0.68042916 0.46089798 0.47757608 -0.15885633
0.6362583 -0.7069245 0.21747363 -0.019604802 0.017922282 0.5900828 0.475748 -0.68458366
-0.14681417 -0.087901235 0.4567774 0.6578873 -0.39672026 -0.08311206 -0.024055123 0.44907194
0.08182424 0.40782553 -0.12055272 -0.42071488 -0.3183654 0.48580712 0.1772983 -0.07142961
0.38308352 -0.24375409 -0.4239533 -0.21271497 -0.40220904 -0.4579357 -0.48084438 0.15917432
0.33332068 0.661552 -0.6723027 0.35946435 -0.31038254 -0.024521053 0.69513255 -0.23895425
0.33555597 -0.5352026 -0.3710465 0.6545529 -0.35877958 -0.24895155 0.65929407 0.02018255
-0.50367415 -0.09168565 0.17400646 0.038806558 -0.67141664 -0.12409103 0.26067984 0.1199522
0.09332764 0.61264735 -0.7002203 0.33301812 0.101062655 -0.20097286 0.34370607 0.059048295
-0.39301977 -0.46986124 -0.521049 0.3443287 0.325108 0.39360398 -0.0011011362 -0.25566548
0.23737788 -0.57752013 0.16755766 -0.44884765 -0.17533273 0.32643825 0.49216253 -0.06634456
-0.2952615 -0.0027455091 -0.10201746 0.36040312 0.6025556 -0.46328294 0.005041003 -0.44853055
0.34863573 0.45756274 -0.043295622 -0.58666635 0.16966814 0.28189057 -0.6262884 -0.33496124
-0.5813382 0.56169194 0.54075986 0.27343613 0.5892301 -0.342614 0.20958638 0.1440624
-0.076395035 0.16051537 0.24129027 -0.25013775 -0.10595226 -0.6181876 0.61730915 0.62769085
-0.36914292 -0.6420546 -0.654698 -0.34316882 0.51095337 -0.123077214 -0.33350632 -0.24546123
-0.31080157 0.14180803 0.4408657 0.1935445 -0.35837042 -0.04105568 -0.3567621 -0.66456157
-0.48202252 -0.46110624 0.6513367 -0.0061400533 0.52804476 0.6099759 -0.32608545 -0.63083494
-0.29013696 0.16689605 0.4758305 0.3969162 0.19054782 0.08069396 -0.22541845 0.22386491
0.5446734 -0.08323592 0.42579657 0.3459819 0.061575472 0.2884755 0.3061337 0.49868935
0.34603328 -0.25842997 -0.26391268 -0.36428356 -0.07584518 0.62137467 -0.65279347 0.14998502
-0.34042388 -0.50214946 -0.69876456 0.15933937 0.3715927 -0.004942417 -0.24017009 -0.33898988
0.39511567 -0.669732 0.59627813 -0.21873263 -0.5970898 -0.60816526 -0.7028721 -0.32595503
-0.06386697 -0.66994756 -0.25556153 -0.36030582 0.5562404 0.5048056 0.3672077 -0.6472513
0.10883802 0.50917035 0.47287577 0.62032026 0.4714374 0.14028925 0.6989624 0.28661674
-0.4501596 0.08006382 -0.22748297 0.5956171 -0.14233005 -0.009525597 -0.29226437 -0.05452043
0.24160993 -0.46923685 0.3445869 -0.53968245 0.58193964 -0.13857937 -0.12006247 -0.2879814
-0.1879322 0.22295487 -0.07721317 0.38344878 0.43998164 -0.048154652 -0.24523464 -0.6523661
-0.11996865 -0.38738137 0.1963948 -0.41930187 0.69312316 -0.018377125 -0.4552137 -0.016248703
0.47910005 0.5109274 -0.49439424 -0.652001 -0.3287185 -0.51616764 0.589997 -0.073830724
-0.64145875 -0.4475024 -0.13769996 -0.6513875 -0.4325504 -0.4426236 -0.65975446 -0.23925036
0.14114016 -0.6514947 -0.3044759 0.20944041 0.70310944 -0.0016150475 -0.5499467 -0.5738595
