Zadanie3/srcV2/models/Zadanie 3/target_actor_network.pth (torch, 507007 bytes, 10 tensors)

fc1.weight f4 [400, 8]
00000000: 9a9f 44be 5605 e13d 1a59 efbd d075 163e
00000010: 8d65 12bd d84d 773d fa19 3f3e ea38 5bbd
00000020: b696 eabd 58e5 bc3e 1d67 02be cff8 1fbe
00000030: 6de3 983b aff3 0d3e 0ab1 923d 59b0 2a3e
00000040: 5806 1d3c 38b4 903e 1609 8c3d 91ab b9be
00000050: 93db b7bd 14b0 86bb bc9a 14be 7d29 433e
00000060: f6b4 26be 9d1f aa3e 6a2c 3ebe d91c 47be
00000070: f622 9d3e 7bf1 bc3e 2f97 c7be 0f07 013d
00000080: 48dc 3d3d 007f bc3e ee85 25bc 08c7 d8be
00000090: dcae 2a3c fae9 94be a7ef 2b3e 16c2 b1bd
000000a0: f1e4 bcbd 0ff8 1f3f 4e05 913c ec87 f2be
000000b0: 362d 4a3e e2b8 29be 4c5a 073f 12c3 ef3e
000000c0: 7eb9 9ebd ebd9 ca3e 19f6 28be b0bf 85be
000000d0: 3b28 ae3e 0f8f a43e 9930 693c b0d9 9b3d
000000e0: a8fa 1c3e 6aad 9f3e 8c96 5b3d 2cd4 9b3e
000000f0: a825 8abe ca31 cebd 8dcc 2b3c 7bd0 4b3e
00000100: 439c cbbd b335 883e 820c fcbd d6ae 753e
00000110: 0b7e e6bd 0bf4 bdbd ee90 1f3e 5bb4 9d3d
00000120: 66b4 ddbd a6cf d63e ce0a 4ebd 9d08 3fbe
00000130: 2cdd 873d e430 49bd 29f3 9f3e 1bed 953e
00000140: db81 6c3b 03a5 ab3e 7101 09be 924a e9bd
00000150: 48de 0a3d ec69 2d3e 28cb 2b3e 82d1 c33d
00000160: 834a 7abd 61b0 503e 167c b7bd 4f08 8cbe
00000170: 9013 913e 92c1 993e 60d5 ccbd b0a1 34be
00000180: b5f7 76be f324 153f e256 5b3d ba16 aebe
00000190: 7155 403e d84e 8f3d 538a 1b3f 114f d83e
000001a0: f478 70bd a564 c33e 3f38 d13d 9b81 bf3d
000001b0: 5a54 2ebe 5b2b f83b 78ab 7a3e e063 443e
000001c0: 27b4 013e 9fe4 2d3e ef25 01be 8e2f bcbe
000001d0: 8515 a3be 2563 20bd bc12 003e 2dab 53be
000001e0: cfe7 32bd 9986 bf3e b43a 4b3d 8407 a23e
000001f0: 7201 f9bd 7cdc 80bd 56e9 373e 45fe 313d
00000200: cec5 1dbe d290 c43e 662b 793c 8d55 10be
00000210: 77df d2bd 1b5c 8b3d d019 ad3e 4fad 5f3e
00000220: 2126 0cbe 5a12 cd3e f318 3abe d17d 87be
00000230: de6d 6a3e fbbc c33d ff13 023e 976f e63d
00000240: 357b 8ebd 8fab 773e cfd3 27be c074 a7be
00000250: 01fd 9d3e ba47 c13e cbee f0bd 9057 1fbe
00000260: 175a b2bc acc1 8c3e 5840 933c 6fdf 4a3e
00000270: 0443 d23d 1fbd 303d 94a5 d03d 7362 063e
00000280: ca68 10be bcbe a83e 8674 23be 24c4 4dbe
00000290: 5c89 f33d d885 293e 4a8f 2abe fea0 33be
000002a0: 9647 f43d 7f9e 053f b395 eabc b81c a8be
000002b0: eb4d a73d d031 d0bb c16f d03e a3be b43e
000002c0: b946 32be 5b08 aa3e e606 41be df58 b43b
000002d0: 3074 773e ffec 663e 0bc8 b2bd 5155 b53e
000002e0: 9990 f53d 705a fc3e cb22 c7bc 817d 8cbe
000002f0: 4733 3e3e 8194 93bb c518 f93e 4909 8d3e
00000300: 7585 3a3e 352a 973e 26b5 e93d c401 2bbe
00000310: b710 73be 4d2e 103e 3a18 d0bc b06f 4f3e
00000320: 53db 2fbe 3881 573e 7499 25be 5cec 9abd
00000330: e15f 2b3d 7fd3 443e ea80 59be 2ec8 4e3e
00000340: 0f4d f03d ede1 a23e eb87 d8ba a095 55bd
00000350: 094b 11be 5ec0 a9be 8fd5 b239 e62b 143e
00000360: e6d3 43be b1a4 a73d 1957 b3bd 957f b5be
00000370: 389d 643e 1108 79be 748b 6c3d b1e0 62be
00000380: f5ef 28be da32 c73e d75a b2bd 55be 1e3d
00000390: d905 003e 36ec 3a3e 51de 00bc 945c a23e
000003a0: 670f 2ebe 7c1b a83e 72a4 3a3c 2e04 0fbe
000003b0: d0fa 943e 65c8 203e ad82 b33e 593e 8d3e
000003c0: 9c43 08be c6bd 0e3f 55c9 05be 952f a6be
000003d0: ac74 5d3e fdb1 5d3d 9f89 db3e 6fd5 c13e
000003e0: e556 26be 306f 9d3e a4f0 1dbd 3a75 70be
000003f0: f785 563e 39a4 99bb f342 3d3e 20ad a33e
-0.19201508 0.10987346 -0.11686917 0.1469338 -0.035741378 0.060376972 0.18662253 -0.053521074
-0.11454527 0.36893725 -0.12734647 -0.15622257 0.004665783 0.13862489 0.07162674 0.16668834
0.009584032 0.28262496 0.068376705 -0.36263707 -0.08977427 -0.0041103456 -0.14512151 0.19058795
-0.16279969 0.33227244 -0.1857163 -0.19444598 0.30690736 0.36902985 -0.3898253 0.031500872
0.046352655 0.36815643 -0.010102732 -0.4233935 0.010417666 -0.2908476 0.16790639 -0.08679597
-0.092233546 0.6248788 0.017702725 -0.47369325 0.19743809 -0.16574433 0.5287216 0.46828514
-0.077502236 0.39619383 -0.16500129 -0.26122808 0.34015068 0.32140395 0.014232778 0.0760988
0.15329993 0.31186992 0.05361037 0.30435312 -0.26981854 -0.1006809 0.01048578 0.19903748
-0.09941914 0.2660347 -0.12307073 0.23992476 -0.112545095 -0.09275063 0.1558263 0.07700416
-0.10825424 0.41955298 -0.050303273 -0.1865563 0.06633982 -0.04911889 0.31240204 0.2928246
0.0036088142 0.3352433 -0.13379456 -0.11391176 0.03390339 0.16934937 0.16776717 0.09561445
-0.061106216 0.20379783 -0.089592144 -0.2735009 0.28335238 0.30030495 -0.100016356 -0.17639804
-0.2411793 0.58259505 0.053549655 -0.34001714 0.18782593 0.0699746 0.6075794 0.42247823
-0.0587091 0.38162723 0.10215806 0.09350892 -0.17024365 0.0075735277 0.24479473 0.19178724
0.12666379 0.16981743 -0.12612127 -0.3675503 -0.31852356 -0.03915705 0.12507147 -0.20670767
-0.0436781 0.37407377 0.04961653 0.3164636 -0.12158479 -0.06292054 0.17960104 0.04345538
-0.15407488 0.3839174 0.015208101 -0.14095135 -0.10296529 0.06804677 0.33808756 0.21843456
-0.1368642 0.40053064 -0.1817358 -0.26463178 0.22893474 0.095575295 0.1270294 0.11251753
-0.069570936 0.24186538 -0.16389392 -0.3270626 0.3085709 0.37750036 -0.11764296 -0.15560746
-0.021771474 0.2749151 0.017975017 0.19811796 0.102666885 0.04314911 0.101878315 0.13123493
-0.14102474 0.3295802 -0.15962419 -0.20094353 0.118914336 0.16554964 -0.16656223 -0.17541882
0.119277164 0.5219497 -0.028635835 -0.3283441 0.081691585 -0.0063535944 0.4071026 0.35301694
-0.17409791 0.332095 -0.18850288 0.0055037583 0.24165416 0.22551344 -0.087295614 0.35416654
0.119904704 0.49287748 -0.024308583 -0.27439502 0.18574248 -0.004503787 0.4865171 0.27546147
0.18214972 0.2952439 0.114115044 -0.16699892 -0.23736845 0.14080162 -0.025402177 0.20257449
-0.1717351 0.21045387 -0.16171819 -0.07564613 0.041839484 0.19221304 -0.21240583 0.2019355
0.11733448 0.31812993 -0.0016519999 -0.052144647 -0.1418878 -0.33154577 0.0003410992 0.14469871
-0.19123802 0.08185709 -0.08756847 -0.354489 0.22325599 -0.24319483 0.05775018 -0.22156025
-0.16497786 0.38905984 -0.087087326 0.038755734 0.1250223 0.1825417 -0.007865504 0.31711257
-0.16998063 0.3283347 0.011391746 -0.13966438 0.29097605 0.15701444 0.35060635 0.2758663
-0.13307041 0.5575832 -0.13065083 -0.32458177 0.21626538 0.05412482 0.42878434 0.3785815
-0.16244085 0.30748892 -0.03855957 -0.23482218 0.20949541 -0.0046887663 0.1848257 0.3196802

fc1.bias f4 [400]
00000000: cb5c ad3e 561d cb3e c9ea 4f3e 79f7 413e
00000010: 9884 823e 150e 5c3f 674d a73e cff9 a9bc
00000020: f0c4 293e 17d7 d03e 2a34 893e 898f 8c3e
00000030: fac9 443f 022b 263e aaa1 1b3e ba38 643e
00000040: f8b1 013f 2df0 cc3e 00f5 1c3e 378a 993e
00000050: c0dc af3e 1682 2b3f a4eb 4a3e bc62 123f
00000060: 21aa 203d 70c1 4e3e a9ca c03d c508 293e
00000070: 92cc cf3e edca 943e 3ee6 4b3f 848c dd3e
00000080: 4938 c53e 4805 9f3e b308 c63e b095 653e
00000090: a705 1d3e 30a2 853e 8852 993e ae4a ac3e
000000a0: 9e20 b13e fc9f b13e a170 943e b277 c33e
000000b0: 94b5 933e aaae 113e 9d9c 4c3e b006 a73e
000000c0: 29a3 bd3e 6c36 b23e b902 3c3e 21f7 943e
000000d0: 5860 dd3e aa62 c93e 4db9 883e 4545 893c
000000e0: 981f 4e3e c9af 193e 55fe 6c3d 844a 6e3d
000000f0: a89d 9e3e 3e81 473e af78 803e 5498 573e
00000100: cb30 013e 8485 5f3f d8f4 bf3e 8572 c03e
00000110: 0e5e a43e 4359 7b3e bc0e b73f c713 2d3e
00000120: 9a5e 543e 847a d13e aab8 8d3e f33d a83e
00000130: ff39 b13e 5d42 a33e b0aa bb3e 3329 f03e
00000140: 95ee e53e 8b47 d23e 863a 073f 637b e23e
00000150: 4da8 723e c6b2 4f3e 002e 8a3d 8c20 ff3e
00000160: 93b3 a23e 03b9 d73e fa6c 633e 5258 d03e
00000170: 7fa2 ee3e 8af7 d5bc f9a7 733e 7772 9c3e
00000180: 4008 0a3f 2da8 cd3e 8bae c83e 77b9 4c3f
00000190: f238 963e 27ba a13e 4328 943e a313 7a3e
000001a0: bca7 243f f5c2 883e 5e24 b53e 3985 583e
000001b0: 850e 4a3e 95ce 3bbe 46a1 b53e 76eb 693e
000001c0: dbf8 613e 95bd f13e 52f8 a33e 0bc6 573e
000001d0: 89a9 8c3e 1003 5a3e 83aa 9c3e 0f61 8c3e
000001e0: 44ba 0f3f 30b0 963e 0a01 833e c87f 533e
000001f0: 662e ef3e c54c 853e 0e55 743e c01c 603e
00000200: 25fb cb3e b402 a83e 013f ac3e 8e07 043f
00000210: 7d71 a83e a983 953e e295 a73e 51d9 763e
00000220: d572 a03e 41b4 443e dcb3 643e afd9 da3e
00000230: 4f15 843e 9c59 403e 3aa8 563e 4435 833e
00000240: f302 f03e 1362 143f 1901 903e 4848 413e
00000250: 7a23 a23e 030b 83bc abd6 543e 93e4 8d3d
00000260: 4969 a13e a98a 9d3e 24eb 9c3e 4049 3a3e
00000270: 7e73 5b3e d90b 953e 2491 7b3e 8776 8e3e
00000280: 31fc 083f 3f82 343e 1dd9 c93e 3226 853e
00000290: 2f5d 6a3e 6290 7d3e 4e55 163e 68d1 263f
000002a0: 9db8 883e fa7c e73e 9642 203e ae6b a23d
000002b0: e33d 813e e57a 4e3e a3d5 653e 9137 823e
000002c0: 7875 c63e 4e35 8b3e 39be f93e b316 2b3e
000002d0: e0b9 803e b1ee 7a3e 8381 103e a59c d83e
000002e0: 242e 953e b79c 6e3f b883 633e d64a ad3e
000002f0: db41 b03e a324 9c3e ba19 a53e 2c26 fc3e
00000300: 9ea4 af3e 0b0e 9d3e eba6 d53e 86ce b53e
00000310: 7f6d b73e c257 7b3e 7ffc b53e 6653 a43f
00000320: 085a a73e 2dd6 a33e 6699 7b3e 9e4e 433e
00000330: 3b2d 9e3e 3560 6f3e ffc1 6f3e ccef 073f
00000340: 6c76 923e b2f2 683e bf56 8f3e 91a4 793e
00000350: 015f 693e 5abc c43e d0f4 c13e 3b52 d93e
00000360: 4544 0b3f 3e56 463e 1fcb 513f 3d4c 2a3e
00000370: 05e1 f13e a615 903e 5482 7c3e 5098 a23e
00000380: 9091 833e b396 013f 3e83 853e c557 ac3f
00000390: 18f2 9d3e 7678 a23e 7bb5 953e 9aba a23e
000003a0: ef06 6c3e d080 a83e 6601 973e b2bf a33e
000003b0: f391 7a3e 62a5 5b3e 0ed1 6b3e 26d5 2c3e
000003c0: 498e 513e 0cc1 df3e fd7e a03d 8ede ab3f
000003d0: bd3e 0d3f b61f de3e a960 3d3e 8fb2 db3e
000003e0: 6687 103f 4b77 f03d ada2 323f 8eab 6a3e
000003f0: e422 db3e d2e8 6a3e 4d3e f43e bdba 5d3e
0.33859858 0.3967082 0.20304407 0.1894206 0.25491786 0.8595899 0.3267624 -0.020749
0.16579032 0.407891 0.2679761 0.2745326 0.7687069 0.16227344 0.15198389 0.22287264
0.50662184 0.4002699 0.15327835 0.29988262 0.34348106 0.6699537 0.19816452 0.57181907
0.039224748 0.20190978 0.09413654 0.16507252 0.40585762 0.2906107 0.79648197 0.43271267
0.38519505 0.31058717 0.38678512 0.22420382 0.15334187 0.26100302 0.2994578 0.33650726
0.34595197 0.3469237 0.2899218 0.38177258 0.2884947 0.14226785 0.19981618 0.3262229
0.37038544 0.34807146 0.18360414 0.29094794 0.43237567 0.39333087 0.26703873 0.016756663
0.2012924 0.15008463 0.057859737 0.058176532 0.30979657 0.19482896 0.25092074 0.21054202
0.1261627 0.87313104 0.37491488 0.3758737 0.32103008 0.2454577 1.4301372 0.16902076
0.20739213 0.40913785 0.2767995 0.32859764 0.3461456 0.3188657 0.36653662 0.46906433
0.44908586 0.41070208 0.52823675 0.44234762 0.23697014 0.2028304 0.06747055 0.4982952
0.3177763 0.4213334 0.2220954 0.40692383 0.4660835 -0.026119012 0.23794545 0.3055608
0.5391884 0.4016737 0.39195666 0.79970497 0.2934032 0.31587335 0.28936967 0.24421553
0.6431844 0.2671124 0.35379308 0.2114457 0.19732101 -0.18340524 0.35474604 0.22843727
0.22067587 0.47214952 0.3202539 0.21071641 0.27473095 0.21290231 0.3059884 0.274178
0.56143594 0.29431295 0.2558673 0.20654213 0.46715087 0.26035133 0.23860571 0.21885967
0.39840046 0.32814562 0.33641818 0.5157403 0.32899085 0.2920201 0.3273154 0.24106337
0.3133761 0.19209386 0.22334236 0.42744204 0.25797507 0.18784183 0.20962611 0.25626576
0.4687725 0.5796215 0.28125837 0.1887523 0.3166769 -0.015996462 0.20785014 0.06928363
0.3152564 0.30769852 0.30648148 0.18192005 0.21430776 0.29110602 0.24567086 0.27824804
0.53509814 0.1762781 0.39423457 0.26005703 0.22887109 0.24762109 0.14680979 0.6516328
0.2670335 0.45212537 0.156504 0.079306945 0.25242528 0.20164068 0.22444777 0.2543302
0.38761497 0.27189106 0.4877794 0.16707878 0.2514181 0.24505116 0.14111905 0.4230701
0.29136765 0.9320788 0.22218215 0.33846158 0.34425244 0.30496702 0.3224619 0.49247873
0.3430528 0.30674776 0.4172891 0.35509127 0.35825726 0.24545196 0.35544202 1.2837951
0.32685876 0.3199934 0.24570236 0.19072959 0.30893883 0.23376544 0.23413847 0.53100276
0.28605974 0.22748831 0.2799587 0.24379183 0.22790147 0.3842495 0.3788209 0.4244555
0.54401046 0.19368836 0.81950563 0.16630645 0.4724199 0.28141516 0.24659091 0.3175683
0.25696993 0.50620574 0.26076692 1.3464285 0.30848765 0.3173253 0.2924002 0.3178299
0.2304952 0.32910776 0.29493254 0.3198219 0.24469738 0.21449807 0.23028967 0.16878185
0.20464434 0.4370197 0.07836721 1.3427293 0.55173856 0.4338357 0.18493904 0.42909667
0.564566 0.11741503 0.69779474 0.22917005 0.42800057 0.22940376 0.47703782 0.21653266

bn1.weight f4 [400]
00000000: a305 643f a03a 693f 0c61 5b3f 097a 853f
00000010: a321 7f3f 4694 903e 1a15 553f a53f db3f
00000020: a775 a43f 8f91 473f 91c4 8c3f f9a2 b63f
00000030: c28a 9f3e 97dc b73f e2bd b83f 922d a13f
00000040: c9ea 083f bd22 433f 6869 ed3f 60b4 8a3f
00000050: 922f 4a3f b06e ca3e 037d 763f 6240 e23e
00000060: 7964 a33f d0c3 8d3f 2ef2 b93f 356f a63f
00000070: 4e28 333f c6d1 693f 22f1 a03e 4fc4 4c3f
00000080: 6737 583f 1224 3d3f fe9f 743f 962c 8f3f
00000090: c295 bd3f 7a11 933f f8b6 943f e4f1 593f
000000a0: a100 b73f 1b0a 7c3f af50 923f f956 503f
000000b0: 3e67 793f c05f cd3f a449 7c3f 6429 7f3f
000000c0: 0ce0 5c3f 6b57 483f 4d6a b03f 338a 9b3f
000000d0: 5543 363f a9f8 373f 6e73 623f 5c8d bd3f
000000e0: 0070 bc3f 5571 993f 2843 b43f 34f3 fc3f
000000f0: c787 823f ae80 ab3f a462 6b3f 89b4 a93f
00000100: ddcc bd3f 907b 8d3e a49c 3f3f 0a96 423f
00000110: 2f34 473f 5b04 993f 24b6 023e 8c6a 913f
00000120: 9b6b 9a3f 6d49 513f 2d44 8d3f 72ff 683f
00000130: a4f0 793f 1ffa 6e3f 23e7 443f 0734 f93e
00000140: 98d7 143f cf63 343f ced3 0d3f 26d4 293f
00000150: 85e5 913f 8323 983f 3354 af3f ea62 0f3f
00000160: 138a 713f 8838 3e3f 340d 6d3f ea6f 3a3f
00000170: 13ad 153f 8846 d03f 075a a13f 9588 b73f
00000180: 8693 0b3f 5d4c 223f 877d 303f 5342 993e
00000190: 1923 aa3f d8f2 7d3f 9e01 6b3f 10bf 7d3f
000001a0: 4806 d43e 68e5 653f 2295 6f3f 06d5 873f
000001b0: 3470 a33f e521 1040 8023 653f cff9 963f
000001c0: 67d0 a53f bda8 1f3f f89e 6f3f 6aaf 9b3f
000001d0: 5720 873f b841 923f 49ae 803f bc4b 793f
000001e0: 3e9e f23e b0eb 5e3f 140e b83f 1f85 ae3f
000001f0: 64dd 103f 910d 893f 27e0 9c3f 5494 903f
00000200: dec9 803f d90f 703f 4322 503f db42 063f
00000210: 38ed 523f c3e2 7e3f 323b 823f 0b14 8c3f
00000220: 0fc0 813f aefd cc3f 1027 5a3f a384 313f
00000230: 3aba be3f 2143 953f 3b0b 893f 16f0 9b3f
00000240: e026 113f e124 053f fbc9 8d3f ee60 af3f
00000250: 7f7c 833f b0f0 bc3f f02c 9d3f 8041 d23f
00000260: 7e33 9b3f 6bcb 763f 0397 593f de8c dc3f
00000270: 88a4 c83f 3259 873f 726e 7c3f c567 7a3f
00000280: b5bf 173f 2dce 823f 6824 653f 6a2e 8c3f
00000290: 2145 843f 7520 8c3f 3d3f ca3f b1bd d43e
000002a0: 2da2 883f ffc0 243f 072b 7a3f 480b f33f
000002b0: e267 9f3f ca76 b43f 26c5 663f 4da4 863f
000002c0: 361c 4d3f aa98 603f a089 053f 3e48 993f
000002d0: 155d 9c3f 2859 7f3f 37c4 a53f 1714 583f
000002e0: c109 853f e547 843e 6581 af3f b112 6f3f
000002f0: 951e 3e3f 6846 813f dea8 5f3f f88d 2a3f
00000300: e6b4 863f fc6b 8c3f af98 1e3f e9c6 663f
00000310: c9c2 4b3f ca91 8d3f 346b 493f b729 3b3e
00000320: dde3 883f 0209 613f 4287 a63f 75d2 9d3f
00000330: 9e9a 8e3f 3cc0 8e3f bc18 873f 6f0d e93e
00000340: 911f b93f ccbd 803f 7c69 943f f052 a13f
00000350: 3327 a73f bfbe 443f 340a 543f f6d9 593f
00000360: b384 fa3e 9d52 753f 43b8 8d3e c036 993f
00000370: 90aa 243f f550 883f a668 783f 4296 343f
00000380: bd5a a73f e228 183f 37b2 883f dda1 183e
00000390: e9de 543f f911 8f3f cf7e 943f 5f95 7e3f
000003a0: 2b5f 993f 65b3 863f 5d31 863f 7d7b 833f
000003b0: 0685 7a3f cace a03f 98f6 a43f 0d89 a13f
000003c0: 8637 a23f aefd 293f 075a c93f 8ebb 213e
000003d0: 31da 083f bf8f 143f 26fd 993f 11e6 5a3f
000003e0: 008b 0b3f 700d ba3f 1d27 b93e 4f48 b13f
000003f0: 531e 623f 241f 903f b4b5 1b3f 1bcc a53f
0.890711 0.9110508 0.85694957 1.0427867 0.996607 0.28238124 0.83235323 1.7128798
1.2848405 0.7795648 1.0997487 1.4268485 0.3116055 1.4364194 1.4432948 1.2592032
0.53483254 0.7622488 1.8547792 1.0836296 0.78978837 0.39537573 0.962845 0.44189745
1.2765037 1.1075382 1.4527032 1.3002688 0.69983375 0.91335714 0.3143397 0.79987043
0.8445954 0.73883164 0.9555663 1.1185482 1.4811327 1.1489708 1.1618338 0.8513472
1.4297067 0.9845292 1.1430873 0.8138271 0.9742316 1.6044846 0.98549867 0.9967253
0.8627937 0.7825839 1.378244 1.215155 0.7119649 0.718638 0.8845738 1.4808764
1.472168 1.1987711 1.4082994 1.976172 1.0197686 1.3398645 0.9194739 1.325822
1.4828144 0.27633333 0.7484839 0.7601019 0.77814 1.1954454 0.12764794 1.136064
1.2064089 0.81752664 1.1036431 0.9101478 0.97632813 0.93350405 0.76915187 0.48672506
0.5814147 0.70464796 0.55401313 0.6633934 1.1398169 1.1885837 1.369757 0.56010306
0.9435131 0.7430501 0.9259827 0.7282702 0.58467215 1.6271524 1.2605599 1.4338557
0.5452198 0.6339777 0.6894154 0.29933414 1.3291961 0.99198675 0.9179934 0.99119663
0.41411042 0.8980317 0.93586934 1.0611885 1.2768617 2.2520688 0.89507294 1.1794986
1.2954224 0.6236685 0.9360194 1.2162907 1.0556744 1.1426306 1.0053188 0.97381186
0.47386354 0.8707838 1.4379296 1.3634375 0.56587815 1.0707265 1.2255906 1.1295266
1.0061605 0.9377418 0.8130228 0.52445763 0.8239322 0.9956476 1.0174315 1.0943617
1.0136737 1.6014917 0.85215855 0.6934301 1.4900582 1.1661111 1.0706552 1.2182643
0.56699944 0.520094 1.1077265 1.3701456 1.0272368 1.4760952 1.2279339 1.6426239
1.2125089 0.9640414 0.8499605 1.7230489 1.5675211 1.0574095 0.98606026 0.9781459
0.59276897 1.021917 0.89508677 1.0951664 1.0333596 1.0947405 1.5800549 0.41550973
1.0674492 0.6435699 0.97721905 1.8987818 1.2453578 1.4098752 0.90144575 1.0518891
0.8012117 0.87732947 0.52163124 1.1975172 1.2215906 0.99745417 1.2950505 0.84405655
1.0393602 0.258361 1.3711363 0.93387896 0.74265414 1.0099611 0.87367046 0.6662288
1.0523956 1.0970454 0.61951727 0.9014726 0.79594094 1.1060116 0.78679204 0.18277632
1.0694538 0.8790437 1.3010027 1.2329851 1.1140935 1.1152415 1.0554423 0.45518062
1.4462758 1.0057921 1.1594691 1.2603436 1.3058838 0.76853555 0.8282807 0.85098207
0.48929366 0.9582918 0.27679643 1.1969833 0.6432276 1.0649706 0.9703468 0.70541775
1.3074566 0.5943738 1.0679387 0.14905496 0.83152634 1.117736 1.1601199 0.9944667
1.1982168 1.0523497 1.0483814 1.0272061 0.9785923 1.2563107 1.2887754 1.261995
1.2673194 0.6640271 1.5730599 0.15794203 0.53457934 0.5803184 1.203038 0.85507303
0.5450897 1.4535351 0.36162654 1.3850192 0.8832752 1.1259503 0.6082413 1.2952913

bn1.bias f4 [400]
00000000: 1bb5 1fbe b473 ebbe 6ec6 edbe 26ac 54be
00000010: ea5f cebb 7cac 43bf 7168 b9be 843d 90be
00000020: 872c 3fbe 03dc ffbe 3a09 39be 19ae 65bd
00000030: 3643 4ebf ae8b 5fbe 0949 403e aefd e9bd
00000040: 4c93 0bbf 43ad 03bf 6fc2 b53d c457 fdbe
00000050: f339 bebe 4402 35bf 8653 a0be 1f6e 2dbf
00000060: 29a3 edbc f480 67be 3a09 92be fb75 9dbd
00000070: 02af f5be cd76 a7be affe 3cbf 4b9a eebe
00000080: e28d 01bf a53a d0be 4fc9 77be ca9e 35be
00000090: 5383 32be f1ab 1cbe e569 24be a88a a4be
000000a0: d3ae bdbd 448f b1be 1b9e 90be 2650 b6be
000000b0: bea0 70be b11d 8d3d e8d4 f6bc 34fa a8be
000000c0: ab0d c9be a7a2 d4be 2912 4dbe 9b6c 8dbe
000000d0: b8a4 d5be aec3 c3be 2433 dcbe cc64 95bd
000000e0: c246 f1bd ba2a 8cbe 6a9d 8ebd fe60 0bbe
000000f0: 0b91 73be 06f3 2dbb 7f3a f9bc 7b72 b4be
00000100: ff95 88be 9f13 47bf c2a4 acbe a6a6 f8be
00000110: bb29 c6be ec67 69be e3e6 64bf 09e1 80be
00000120: 46ea ebbe 6e0c cabe b006 70be da77 62be
00000130: 2001 8dbe 61bb 6ebe 1681 d8be 3a25 29bf
00000140: 998b 09bf 9c2a d6be 6859 13bf 4811 dabe
00000150: b337 09be 286d 60be c710 5bbe 520d 19bf
00000160: f747 72be 09fd e9be 8c48 22be a32b c3be
00000170: 5d6b dfbe 4fdb 323e ee7b 4ebe cb85 17be
00000180: 52f7 22bf de58 00bf cc34 debe a616 4cbf
00000190: 6b21 b43c 1a33 15be 7504 e5be 9396 4dbe
000001a0: 86c8 38bf f4ca ebbe 28b2 abbe 921e aabe
000001b0: 0496 32be 7958 8a3d 3c91 92be cda5 65be
000001c0: 9372 5abe a3bb 07bf e99d c2be 8059 49be
000001d0: 9863 90be c140 babd a339 96be 495f 9bbe
000001e0: 8049 27bf 0eda bebe 8ca8 cdbd 3a00 efbd
000001f0: 3c14 0bbf 2d98 62be 9451 7cbe fbc2 96be
00000200: 0091 5abe 60bc 9bbe 7fa4 93be 1b59 0fbf
00000210: 7563 efbe 9957 94be 14dd 4bbe 1c87 22be
00000220: acc2 1ebe e1a9 793c 1000 a8be c223 e2be
00000230: c00d 64bd 7b7d d2be c327 b6be aab6 76be
00000240: 3eeb 03bf 8f4c 18bf 090d 54be 4b01 1c3d
00000250: ff4b a3be e8aa d839 4f37 68be f679 c43d
00000260: 0fb2 33be fb37 88be 9c21 d7be 4f5a 483b
00000270: 9f9f 9c3d 4cbd 9ebd dad8 2dbe 9760 a7be
00000280: 3596 12bf 32db 76be a54b 74be feb7 9fbe
00000290: ec35 75be 44a9 7dbe 8dbb a3bd 7be4 2dbf
000002a0: 634e 43be ba23 04bf 83a6 79be e5be edbc
000002b0: 5434 adbe 7fd6 0fbe 7838 99be c346 c9be
000002c0: 71d7 e6be cf2f b9be a97c 1cbf b067 3ebe
000002d0: 0293 823d 5a0b 60be 0b90 45be 07d6 81be
000002e0: bc7d 8dbe a333 51bf ddb9 3fbe 87c7 a2be
000002f0: 1f1d ccbe 7081 84be f4c3 47be b77c 07bf
00000300: a195 d3be 3949 88bd 6415 fcbe f51d c0be
00000310: 167d dabe d061 a6be 6afa cfbe 2441 70bf
00000320: b60e 90be cbf3 aabe 7c95 03be 2c99 dfbd
00000330: 4e82 68be fe50 b6bd 7582 3cbe c9ae 0dbf
00000340: ddf0 cb3c c2b3 48be 17e0 86be 24df 1bbe
00000350: 1d5f 57be 8de7 ddbe bfd2 ddbe 9169 ccbe
00000360: 02a9 1cbf c9f9 55be 1894 48bf 2c2a 88be
00000370: b2fc fabe 5a31 bbbe f218 5ebe c79c d3be
00000380: c37a 39be 8ab3 f3be 86f1 5bbe e2b8 5bbf
00000390: d189 b0be fee7 80be d2de 6abd 3852 95be
000003a0: b4bd 6ebe 4f6a 99be ce7b 87be 3778 13be
000003b0: ab1a 7abe 797f a6bd b408 17be fb1f 0abe
000003c0: 2d60 21be ebfd dbbe 3453 80be 43ab 63bf
000003d0: 4108 27bf 340e 14bf 07c3 2cbe d722 cbbe
000003e0: f8fd 30bf d074 73bd dff8 3fbf bf0e 2f3d
000003f0: cd5a 94be 68d8 7abe 3e8f fcbe db2a 17bd
-0.1559643 -0.45986712 -0.46440452 -0.20768794 -0.006298055 -0.76435065 -0.36212495 -0.28171933
-0.1866933 -0.49972543 -0.18069926 -0.056074236 -0.80571306 -0.21830627 0.1877786 -0.11425339
-0.5452163 -0.5143625 0.08874976 -0.49481022 -0.37153587 -0.7070658 -0.31313723 -0.67746156
-0.029008465 -0.22607785 -0.28522664 -0.076885186 -0.47985083 -0.32707825 -0.73826116 -0.4660209
-0.5060712 -0.40669742 -0.24197887 -0.17736354 -0.17432909 -0.15299965 -0.1605602 -0.32137036
-0.09261861 -0.34679615 -0.28245625 -0.35608023 -0.23498818 0.06890429 -0.030130818 -0.3300339
-0.3926824 -0.41530344 -0.20026459 -0.27621922 -0.41727233 -0.3823523 -0.43007767 -0.07294616
-0.11781074 -0.27376348 -0.06963618 -0.13611218 -0.23785798 -0.0026542558 -0.0304234 -0.35243592
-0.26676938 -0.77764314 -0.3371945 -0.48564643 -0.38703713 -0.2279355 -0.89414805 -0.25171688
-0.46077174 -0.39462608 -0.23440051 -0.22116032 -0.2753992 -0.23313667 -0.42285985 -0.6607243
-0.53728634 -0.41829383 -0.575583 -0.4259131 -0.13400154 -0.2191664 -0.21393119 -0.5978595
-0.23660265 -0.45700863 -0.15847987 -0.3811923 -0.436366 0.17466472 -0.20164463 -0.14797132
-0.6365863 -0.501356 -0.43399656 -0.7972206 0.021988591 -0.14570275 -0.44729963 -0.20076971
-0.72180974 -0.46053278 -0.3353436 -0.33226448 -0.17440039 0.06755156 -0.2862643 -0.22426529
-0.21332769 -0.53020686 -0.380111 -0.19663048 -0.28200984 -0.09094382 -0.29340848 -0.30346134
-0.6534653 -0.37275738 -0.100419134 -0.11669965 -0.5432775 -0.22128363 -0.24640495 -0.29445633
-0.21344376 -0.30417156 -0.28836438 -0.5599534 -0.46755567 -0.28973082 -0.19908553 -0.15871853
-0.15503949 0.015238256 -0.32812548 -0.44167906 -0.055677176 -0.4111136 -0.3557721 -0.24093118
-0.51530826 -0.5949182 -0.20708098 0.03808717 -0.31893918 0.00041326066 -0.22677349 0.09593575
-0.17548393 -0.2660521 -0.4201783 0.0030571406 0.07647633 -0.07750949 -0.16977254 -0.3269088
-0.5726045 -0.24107054 -0.23856981 -0.31195062 -0.23946351 -0.24771601 -0.07994757 -0.6792676
-0.19072871 -0.51617014 -0.24379925 -0.02902169 -0.33828986 -0.14046668 -0.29925895 -0.393118
-0.45086244 -0.36169288 -0.61127716 -0.18594241 0.06375696 -0.2187933 -0.1929323 -0.25358602
-0.2763499 -0.81719416 -0.18723245 -0.31792852 -0.39865968 -0.25880003 -0.19508344 -0.52924675
-0.41325095 -0.06654591 -0.4923507 -0.37522855 -0.42673558 -0.324965 -0.40620738 -0.93849397
-0.28136224 -0.33389124 -0.12849993 -0.10917887 -0.22705957 -0.08902167 -0.1840914 -0.55344826
0.024895126 -0.19599822 -0.26342842 -0.1522184 -0.21032377 -0.43340722 -0.4332485 -0.3992429
-0.61195385 -0.20896067 -0.78350973 -0.26594675 -0.49020916 -0.3656109 -0.21689203 -0.4133055
-0.18113236 -0.47597915 -0.21478853 -0.85828984 -0.34480146 -0.25176996 -0.057341404 -0.2916429
-0.23314553 -0.2996392 -0.26461643 -0.14401327 -0.24424236 -0.08129782 -0.14749414 -0.13488762
-0.15759344 -0.42967162 -0.2506348 -0.889332 -0.6524697 -0.5783417 -0.16871272 -0.39675018
-0.69137526 -0.059437573 -0.7498912 0.042738672 -0.28975525 -0.24496615 -0.49328035 -0.036906105

fc2.weight f4 [300, 400]
00000000: 6a4a efbd f08d 283f f605 06be 3d14 f43e
00000010: 20c1 f4bd f808 d93d 1644 323f 9e04 4f3e
00000020: 9494 2dbe 0156 343d a582 613d efac 00bf
00000030: 6d6e 0fbd 1c43 57be 5f71 613d 45a4 adbe
00000040: 8dca d13c 5939 363f fd58 1fbf 3877 b63d
00000050: 7db6 d13e d7f7 e5bd a53c c3bd 6479 fbbd
00000060: 7b55 de3d c17a 103f 77f5 333f 7733 d7be
00000070: 8a75 47be bc59 773d d78e 073e 88a0 a13d
00000080: 39e1 14bd 0a80 1abe 85a3 f9bd 06e1 d23e
00000090: 87ab 213d 4ed9 afbd d35d 29bd c28f c8bd
000000a0: 878c 11be 0424 403e e51a 2ebe 83d5 7b3e
000000b0: b6fa 7cbe c6ab f33d 0abd 1cbe 44a1 0a3f
000000c0: 4b4f 8f3d edba c9bc 937e a1be c206 cabd
000000d0: 7c3d 00bd aec9 c2bc 9911 a6bd a9c5 7e3e
000000e0: 461f e1be 5d13 723e 0b32 a93e 6976 febe
000000f0: 80c6 243e f43e 12be 0d92 253c 1c28 e7bd
00000100: 20c5 103f e017 723c 15f9 8bbe 7e39 2b3f
00000110: cc63 4a3e e648 6fbe 727a 553d c820 8a3e
00000120: 9112 ff3e d5f3 dc3d c924 b53e 7544 ad3d
00000130: 52f6 82bd c904 29be cb9b 153e 0eec 983d
00000140: bcaa dc3c e55b d6bd 2ae9 b0bc d9cf a9bd
00000150: 9ead 33bd f352 73be eade 113f e5bd a13d
00000160: 1966 1ebe c984 ff3d b880 72be f638 fb3d
00000170: 4cac 45be 2097 bcbb dd37 d7be 4c82 4ebe
00000180: 6b5e 9bbd 4b5c 2e3f 2c27 9c3e 9b6a 78bd
00000190: ca2a 83be 67dd 07be 33f7 ac3e a9c7 8dbd
000001a0: fa61 4fbe 56e7 973e 3a7b 4a3c 667f 853e
000001b0: f16d 9abe 6c22 72bf 6c52 1fbe 944d 533e
000001c0: 7ffa bcbc 1f1a 9a3d 5fb7 343f 4da8 f73d
000001d0: fd1b 7ebe e055 e63c 106d c43e a25d 823e
000001e0: 74dc e3bd b394 103d 5024 95be 1a21 323d
000001f0: 9183 4c3e b3d4 4c3e 83e4 e6bb cc96 1b3e
00000200: 37c2 13be 6fe0 7bbd c0ce 7d3e dc64 673c
00000210: 860c a83d b7a2 583e ca5b 8ebd 1b7d b8bd
00000220: fac4 02be 7e3b 833e 019b cd3d 4069 f13c
00000230: ffd7 f9be 5269 12be 84c3 17bf 0b0c 7cbe
00000240: f0ae b03d 1dd9 e73b 198a 11bd f2ab 96be
00000250: a76a 7ebe a892 57be 1742 25be de91 833e
00000260: 8b38 0b3d 8f0d 1abe d662 1bbd 7cb5 e6be
00000270: 6531 76be 8fd2 17be 389c 003e 70f3 533e
00000280: 0368 9f3c 87bc bdbd 263a bb3c 86bc 553e
00000290: d08a c83e 62c9 9fbe 8675 1d3e ebb8 5d3d
000002a0: 600a bbbd 9b6f a73d 384e 28be d82f 0dbf
000002b0: f5ad f13e 1cbc 253e 7a57 23be 9c77 b03e
000002c0: 4d59 cc3b ea3a 1a3f 85f7 6a3e 75ec c2bd
000002d0: fb9a 27be 3da9 233f 2bc8 6fbe 1fa6 76bd
000002e0: 9c2b 0abd 8012 cebd 5aa6 103f 1eb8 143d
000002f0: 5395 44be 7235 d23c 5716 0dbe 1461 7cbd
00000300: 6d76 bc3e 3471 2ebe 82ab d93c 0be1 ec3d
00000310: a59a 4e3b 7b07 fc3d 36d0 783e 85e0 093d
00000320: e4cd 2cbe 83a0 a73e 6571 4abe 65e8 11be
00000330: 6ec6 35be 3aa6 12be 79a6 49bd 16ce d6bc
00000340: d16d 5cbe 8fdf 103f 57fe 8d3e d426 d23d
00000350: fbec d93d 09fa 4b3e 875b 8ebd e7dd 17be
00000360: 9e90 0ebd 12e6 0cbe 81db 903d 618c c8bd
00000370: 100a dfbc 5d44 71bc 971f 04be 3e77 19bd
00000380: 8fa2 c8bd b05c c33c 767e 2c3d 8d53 113d
00000390: dd96 9d3e 9522 ce3e dcdd 533c 5e5d 2f3f
000003a0: 2460 b73e a83c 043f 6297 4b3c 5b2f a4bd
000003b0: 76ce ffbd a457 db3e f245 02be b63f ccbb
000003c0: f314 bdbd 2dd2 263e 5a89 343e 4e6c a93b
000003d0: d439 c43d 063f 713e c728 2ebe 91c1 303e
000003e0: 0756 b43d e365 703e 74d8 36bd e1f1 5dbe
000003f0: 270c e9bd c36a 1f3d 8356 d83b 68e5 cc3d
-0.11684115 0.6584158 -0.13088211 0.4767169 -0.11950898 0.10597414 0.6963514 0.20216605
-0.1695121 0.044027332 0.055056233 -0.50263876 -0.03501742 -0.21021694 0.05503976 -0.3391439
0.025609279 0.71181256 -0.6224516 0.08909458 0.4095954 -0.11228912 -0.095330514 -0.12279013
0.10856148 0.5643731 0.70296425 -0.42031452 -0.19478431 0.06038831 0.13238083 0.07891947
-0.0363476 -0.15087906 -0.12189392 0.41187304 0.03947022 -0.085863695 -0.041349243 -0.097930446
-0.14213763 0.18763739 -0.17002447 0.24593167 -0.24705014 0.118979976 -0.15306488 0.5415232
0.06997546 -0.024625266 -0.3154188 -0.0986457 -0.031308636 -0.023777809 -0.08108825 0.24880089
-0.43969172 0.23640199 0.33045992 -0.49699715 0.16091347 -0.14281827 0.010105622 -0.11286947
0.5655079 0.0147762 -0.27338472 0.668846 0.19764632 -0.23367652 0.052118726 0.26978135
0.49818853 0.10788695 0.35379627 0.08460323 -0.06394638 -0.16505732 0.14610212 0.07466899
0.026936881 -0.10466746 -0.021595556 -0.08291597 -0.043866746 -0.23762111 0.56980765 0.07897548
-0.15468635 0.12476499 -0.23681915 0.12266724 -0.19304007 -0.00575532 -0.42034808 -0.20166892
-0.07586368 0.6810958 0.30498636 -0.060648542 -0.25618583 -0.13268052 0.33782348 -0.06922848
-0.20252219 0.29668683 0.012358481 0.2607376 -0.30162004 -0.94583774 -0.15558785 0.20635062
-0.023068665 0.075245135 0.705923 0.12092648 -0.24815364 0.02811712 0.38364458 0.2546206
-0.111260325 0.03529806 -0.29129267 0.0434886 0.19972064 0.20003013 -0.0070462837 0.15194243
-0.14429556 -0.061493333 0.247859 0.014123168 0.08205514 0.21155821 -0.06951101 -0.09008237
-0.12770453 0.25631326 0.1003933 0.029469132 -0.48797604 -0.14297989 -0.5928271 -0.24613969
0.08627117 0.0070754425 -0.03553209 -0.2942806 -0.24845372 -0.21052039 -0.16138493 0.25697225
0.03398947 -0.15044235 -0.037936054 -0.45060337 -0.2404228 -0.14826415 0.12559593 0.20698333
0.019458776 -0.09264474 0.022854876 0.20872697 0.39168406 -0.3120833 0.15376863 0.05413143
-0.09132838 0.08175584 -0.16436088 -0.5515113 0.4720303 0.1618504 -0.15951338 0.34466255
0.0062362314 0.60246146 0.22945984 -0.09517757 -0.16367714 0.6393011 -0.23416202 -0.06021702
-0.033732995 -0.10062122 0.5650383 0.0363084 -0.19197588 0.02566025 -0.13778053 -0.06161602
0.36809102 -0.17035371 0.02657104 0.11566361 0.003152528 0.12306114 0.24298176 0.033661384
-0.16875416 0.32739648 -0.19769819 -0.14248808 -0.17751476 -0.14321223 -0.049231026 -0.026221316
-0.21526267 0.56591123 0.27733108 0.10261312 0.106409036 0.199196 -0.06951051 -0.14830743
-0.034805886 -0.1375964 0.07073117 -0.097924 -0.027226478 -0.014725772 -0.12902676 -0.037467234
-0.097966306 0.023847908 0.04211279 0.03548007 0.30779162 0.4026076 0.012931313 0.6850184
0.35815537 0.51655054 0.012426229 -0.08016845 -0.12490551 0.42840302 -0.12721995 -0.006233181
-0.09232511 0.16291113 0.1763052 0.0051703816 0.09581342 0.23559198 -0.17007743 0.1726134
0.08805471 0.23476367 -0.04464002 -0.216743 -0.11379271 0.038920175 0.00660211 0.10004693

fc2.bias f4 [300]
00000000: 1c21 67bb 9d85 99bc 15ed cbbc 32bd 11bc
00000010: 6144 c03c 29ae e8bc a498 903c 972f 7ebc
00000020: 4016 63bc b3ea f53c 20a6 843b 4973 2d3c
00000030: c311 a8bc 30f5 623b b2bd 8fbb 8445 4ebc
00000040: 0da4 8c3c 227a 55bc 4628 0fbc e2d1 fc3b
00000050: fa5e c4ba b9b3 a539 089d 53bc 40c7 c13c
00000060: 6ea4 c93b c71c d7bc 69c9 9cbc b1c6 4abb
00000070: e56c d3bc 99cc 083c 6fa8 0ebc ed97 303c
00000080: 1478 b6bc 82bc b03c a79a 06bc cb6d 45bc
00000090: 20ae a1bc 5029 843c a6ed 2d3c 73b2 8f3c
000000a0: e6e5 8fbc b05b 17bc ef88 1ebc 1e3f 293c
000000b0: cd21 bebc e964 89bc 66d6 4d3c 6ceb 3b3c
000000c0: 0255 6cbc 5095 3cbb 4e70 f33b da74 aabc
000000d0: eedf 03bd 28e9 063c 2785 043d 9d40 16bc
000000e0: 48fa 673c 5e96 183c 3b86 bbbc a714 4f3c
000000f0: 64fa 6dbc 0df7 1e3d 5945 cc3b 4bde dfbc
00000100: 8077 3f3c 54c5 01bb f50f 04bc 30b8 d53c
00000110: 7a0a a8b8 2715 a2bc ab21 073c 8b2c 9fbc
00000120: bfcd a1bb 77f1 e4bc 7b8e 0f3c 062c 55bc
00000130: ffaf 83bc 6776 843c a88e 24bb 6585 c7bc
00000140: a83a 443c f66e 403c 2795 4e3b 0b3f c7bc
00000150: 7b92 d2bc 8ed6 df3c de8b 66bc f2b4 d43b
00000160: 29f2 13bd 8e51 97bc 5b83 43bc 5ceb 603b
00000170: 2a04 48bc c36b 983c 977e 70bc 4787 b13c
00000180: 380f e6bb 595c 52bc fd6a 403c 8597 3c3c
00000190: a738 f8b9 8fd9 8eba d881 5cbc 8673 abbc
000001a0: 6f26 b4bb dd68 103c fd05 debb 12ea fc3b
000001b0: cc84 a0b8 73d5 0f3c 0d38 913c be65 0dbd
000001c0: 9788 0cbc c62f 60bc df06 2b3c dab2 d33c
000001d0: 9808 5b3c 07ed 90bc 9fec f6ba a30e c3bb
000001e0: 4bb7 8ebc 7654 82bc 4d6e 7e3b 8666 81bc
000001f0: 4186 4abb 6143 d6bc d373 debc 3e56 80bc
00000200: 7912 0abc f774 923b 8c41 abbc 05c4 0abd
00000210: cdfa 343c 7310 183c c4fa 81bc b875 cfbc
00000220: 0368 483c 7c3d d33c d4f2 06bd 60bd d73b
00000230: 40a5 003d f5b3 18bc 664b b3bb 8c0e d43c
00000240: 76c0 90bc 5ffd 73bc 8e45 3e3c 750c f73b
00000250: e27a 883a 2aed b1bc 8a48 85bc a592 34ba
00000260: f996 ff3a a7fd 043c 2383 9b3a 5dcb cbbc
00000270: b8af ccbc a4b7 a7bc ee47 1039 1b5e 913c
00000280: d1a7 c4bc 9981 efbc d27b 9bbc 86a2 b23c
00000290: 8afc 993b a7f6 323a 1429 b03c 8959 c2bc
000002a0: 4290 c7bc 8067 4537 7c33 0e3c 72a3 2b3b
000002b0: 03ed 853c 06e6 bdbc ce42 0cbd 160b 8aba
000002c0: c262 273b f274 09bb 1471 743b 2845 fbbc
000002d0: 2b8e b5bb a3c5 cf3b e430 d23c b391 833c
000002e0: 5ded 52bb c069 dfbc 5ffd 8ebb 69dc 94bc
000002f0: 3553 b93c 76fe 4d3c 14ea ac3b d3d8 833c
00000300: 9ec2 843c f6b5 d93c c709 81bc 821a 09bd
00000310: 845c 3d3c 0ced 563c adaa d4bc 19a6 693c
00000320: a1c2 993b 5313 8abb c706 c7bb 06c4 e0bb
00000330: c3a2 49bc 805c 1abd a6c5 843c 22ee e33c
00000340: 3d86 6dbc fb57 a93c 5c4f 18bc 01ab 313a
00000350: 00df aa3c de60 4c3c e509 283c b09c 9e3a
00000360: a2b9 413c b8c6 623c 65e5 e0bc 8de8 8cbc
00000370: 528d c4bc 60e7 7e3b fa90 613a 78b1 cebc
00000380: 3887 143a 605f c03c 556f 283c 55f5 543c
00000390: 80cc 3dbc 4a7f a6bc 54cd aa3c 1c49 a5bc
000003a0: 6e73 99bc 2532 4ebb 4f55 3dbc f1d4 443c
000003b0: 04d0 853c 45bb 9fbc a062 963c a4ab 38bc
000003c0: e43a 9dbc ff37 69bc 1e0c 643c 0969 d6bc
000003d0: b46e 7a3b 7a84 efbc 218a 0c3c d6af bdbc
000003e0: aa33 c1bb 355d 903c 868b 47bc 3684 363b
000003f0: 23d3 7b3c 3bb5 ae3c 27fd 383c 0501 c33b
-0.0035267537 -0.01874047 -0.024893323 -0.008895205 0.023470106 -0.028403359 0.01765091 -0.015514276
-0.013860285 0.03001914 0.004048124 0.010586568 -0.020516282 0.0034631006 -0.004386627 -0.012589816
0.01716807 -0.013029607 -0.008737629 0.0077154497 -0.0014981919 0.00031605156 -0.012915857 0.02365458
0.0061536347 -0.02625884 -0.019139009 -0.0030941183 -0.02580876 0.008349561 -0.00870715 0.010778409
-0.022274055 0.021574263 -0.008215583 -0.012050102 -0.01973635 0.01613298 0.010615742 0.017541146
-0.017565679 -0.009238169 -0.009676202 0.01032999 -0.023209477 -0.01677175 0.012563324 0.011469703
-0.014424564 -0.002877552 0.0074291592 -0.020807672 -0.032195978 0.0082343 0.032353546 -0.009170678
0.014158793 0.009313194 -0.022891155 0.012639201 -0.01452503 0.038809825 0.006233853 -0.027327677
0.011686206 -0.0019801455 -0.008060445 0.026088804 -8.012816e-05 -0.019785477 0.008247773 -0.01943042
-0.004937857 -0.02794717 0.008761997 -0.013010984 -0.016075132 0.01616974 -0.0025109444 -0.0243556
0.011976875 0.011745205 0.0031522007 -0.024322053 -0.025704613 0.027323987 -0.014071433 0.006491297
-0.036119614 -0.018471505 -0.011933173 0.0034319973 -0.012208024 0.018606072 -0.014678619 0.02167095
-0.007020857 -0.0128394 0.011744258 0.011510734 -0.00047344455 -0.0010898578 -0.013458692 -0.02092911
-0.0054977457 0.008814064 -0.006775616 0.007718333 -7.65413e-05 0.008778918 0.017726922 -0.034520857
-0.008577487 -0.013683265 0.01043865 0.025842119 0.013368748 -0.017691148 -0.0018838829 -0.0059526726
-0.017421385 -0.015909415 0.0038823069 -0.015795957 -0.0030902775 -0.026155176 -0.027154839 -0.015666123
-0.008427256 0.0044695097 -0.020905279 -0.033878345 0.011046124 0.009281266 -0.015866645 -0.025324687
0.01223183 0.025786154 -0.032946423 0.0065838546 0.031407595 -0.009320249 -0.0054716347 0.025885843
-0.017669898 -0.014891951 0.011613263 0.007539327 0.0010412598 -0.021719534 -0.01626994 -0.0006888307
0.0019499949 0.008117116 0.0011864643 -0.024877245 -0.024986133 -0.020473309 0.00013759706 0.017745068
-0.024005802 -0.029236602 -0.01897994 0.021806013 0.0046992945 0.0006826915 0.021503963 -0.023724334
-0.02436078 1.1766213e-05 0.008679267 0.002618995 0.016348368 -0.023180973 -0.034243397 -0.0010531868
0.0025541042 -0.0020974246 0.0037298845 -0.030672625 -0.0055406294 0.006340699 0.025658078 0.016060686
-0.0032184937 -0.027272105 -0.0043637003 -0.018171506 0.022622684 0.012572875 0.0052769277 0.0160946
0.016206082 0.026576024 -0.015751733 -0.033472545 0.011557702 0.01311804 -0.02596029 0.014260792
0.004692391 -0.0042137294 -0.006073806 -0.0068593053 -0.012306872 -0.03768587 0.016207527 0.027823512
-0.014497337 0.020671835 -0.0092962645 0.0006777496 0.020858288 0.012474267 0.010256265 0.001210114
0.0118240435 0.013841324 -0.027453134 -0.017200733 -0.023993168 0.0038895234 0.0008604672 -0.025231108
0.0005665901 0.023482978 0.01028045 0.012997945 -0.011584401 -0.020324368 0.020849861 -0.020176463
-0.018731799 -0.0031462994 -0.011555984 0.01201366 0.016334541 -0.019498477 0.018357575 -0.011271391
-0.01919312 -0.014234542 0.013918905 -0.026173132 0.0038212957 -0.029237974 0.008577854 -0.023155134
-0.0058960514 0.01762257 -0.012179261 0.00278498 0.015370163 0.021326652 0.011290825 0.0059510493

bn2.weight f4 [300]
00000000: 1c1b 2a3f 9268 323f 5008 7b3e e97b c43d
00000010: 1f54 043b 0cff 16bd efc1 3c3c b091 103e
00000020: f751 e93d 1e72 6d3d 25d8 8e3e 74fa 423d
00000030: f2aa 673e 4ff4 3ebd 92ef 733e 721d 483d
00000040: d97a 2cba 1541 a83e 1baf 08bb 0712 2d3d
00000050: cf3b 583c 0f67 a63e c990 d93c fa03 4d3d
00000060: 5b56 923c 488a 063e 91db 303e 3a5e c63d
00000070: 8d39 563e 4bb4 3e3e c7ba 803c 2ee9 a03d
00000080: ee0d 7f3d c32f 963e fbe8 893e e015 bb3d
00000090: 318a 4a3b 236c 043e f5c8 b1bb 544f 8d3e
000000a0: 64f4 14bc 7830 043e dc78 103e 4e43 f53d
000000b0: 3bf9 e83c 9e3c 263e e2c9 6dbd dae1 8cbc
000000c0: 3336 3c3e 3f46 243d c2fd 6f3e 582f b93c
000000d0: 55ec ea3d b8dd 9a3e 2a48 87bd ec31 8e3c
000000e0: 447d 673e aef2 8b3c 9b1c c7bb ffbd d23d
000000f0: c126 6c3e 3369 853f 00a5 723e da42 443d
00000100: e065 843b 9bed 363f 6390 be3b 159f ae3d
00000110: 5163 063d 07ef e5bc 4cac 503e 9008 b03e
00000120: f124 803d 4607 833c dad6 213e 3fc3 2bbb
00000130: 7031 013e 1919 2c3c 13e9 753d 329c 863c
00000140: 28df 12bd f170 303f 0ecb e13e e93e d83e
00000150: 5f8a 83bc 71b2 623e b394 363e 2b18 febc
00000160: cf0a 1a3d 8d57 e73d 3ecf dfbc 5ad0 4bbd
00000170: 80a6 fe3b 8a99 9c3c 2785 193f f225 27bd
00000180: 94f9 f43d 36d5 fa3d 5251 843d 1395 153e
00000190: aa6d 943d 4881 713c c795 373e a799 183c
000001a0: 1c8f 7f3e 2923 15bd 6b4b 123d a6d4 21bd
000001b0: 603e f53c 1efb 973e a736 7b3d 87d3 15bc
000001c0: a267 d43c f55b 893e 1a4d c93d 462b 5ebd
000001d0: 3c58 a83b d6d8 b73c 4c67 693f 4c28 0c3e
000001e0: ab20 4f3e 6344 5e3d 23c5 b23b 269f 10bd
000001f0: c729 df3e c1a2 bbbd a8e5 743d 9ddc 3dbd
00000200: d729 803d e3b8 073e 3dba 593e 5c49 843d
00000210: 1270 ee3b bc5c 7a3c 7708 4c3f f863 a13d
00000220: 799b 283e 82e2 e83b 5d78 3fbc 4b55 4f3e
00000230: 59b4 4cbb db99 1ebb 0e53 143e 4b20 c53d
00000240: 6360 4d3d 56ba 3e3e af91 0ebc f84e 27bd
00000250: 09e9 263e 16d0 8c3c 24ef 1b3c 2bb6 203e
00000260: 57d2 043e 5c9a 5c3f 0a31 413f 3f1d 083b
00000270: 7853 943d e3e8 603f 4274 bc3e a84e de3e
00000280: 1d19 583d 66a8 9f3e e149 3b3b df5a 99bb
00000290: 50b8 8839 af12 92bb 70ca 30bd d6f7 7f3c
000002a0: 48a3 0a3c 6e28 293e e3c5 8c3d 021a 143e
000002b0: 1954 953c 3442 863e 5bc2 373d 8a4e 6f3d
000002c0: d278 9bbc 987c 5c3f 57c6 133e c43f d5bd
000002d0: 9800 e43d 30a0 8ebd d2c0 8b3d 787b 1bbb
000002e0: 6b07 423e 005a 54bc ff75 2f3e 419e 713c
000002f0: e8e0 3a3e 6861 a93c aa13 513e b6c2 843c
00000300: fc51 d13d 7354 0a3e a356 e93c d792 833d
00000310: 2971 193e a6e6 933d 55dd 583e a948 af3d
00000320: 76d5 3b3e 7bef 633d 6202 44ba 1841 873d
00000330: f350 ae3b 42c2 c63d d049 a73d a591 6b3d
00000340: bcd0 033d d984 3dbd 40a7 403d a29f 903e
00000350: 5d5d 2c3e 9fb3 9d3d b2f0 aa3c e57b 7dbd
00000360: 15af c4bb 4664 c43e 1b9e c13d 309c bd3d
00000370: 574e d8ba 6e0b 943d fe05 a7bd 9e2a c53d
00000380: 2da9 8e3d 189f a53d 8eb9 a83d beb5 a6bd
00000390: 737e 683e 98a9 82bc 29f5 d83a 5621 a33c
000003a0: caf5 243e ed7b 3d3e 3ff0 273d 084e 4b3d
000003b0: aac9 183c e2e7 2e3e 3852 803c d158 4b3f
000003c0: 82bf 553e 0a22 693d f444 01bc 5b50 6d3f
000003d0: 33fe 163f 96c5 603c 7f5a 7b3d 764d 52bd
000003e0: bc51 fd3c 7633 c93d af8e 253e 35f7 3bbd
000003f0: 68b4 203f 78dd ecbd 5336 563c 6abd cd3d
0.66447616 0.6969081 0.2451489 0.095939465 0.0020191742 -0.036864325 0.011520847 0.14118075
0.11392587 0.05797016 0.2789928 0.047602132 0.22623804 -0.04661971 0.23821858 0.048856206
-0.0006579585 0.32862154 -0.0020856324 0.04225352 0.013197853 0.32500502 0.026558297 0.05005262
0.017863443 0.13138688 0.17271258 0.09685941 0.20920391 0.18623464 0.015714062 0.078569755
0.062269144 0.29333314 0.26935562 0.09135032 0.0030905122 0.12931876 -0.0054255673 0.27599585
-0.00909147 0.12909114 0.14108604 0.11975728 0.028439155 0.16234061 -0.05805386 -0.017197538
0.1838005 0.040106054 0.23436645 0.022605583 0.11470858 0.30247283 -0.06605561 0.017357789
0.22606379 0.017083492 -0.006076408 0.10290145 0.23061658 1.0422729 0.23695755 0.047915317
0.0040404648 0.7145631 0.005815552 0.08526436 0.03280956 -0.028068079 0.20378226 0.34381533
0.06257046 0.01599468 0.15804616 -0.0026208905 0.12616515 0.010504031 0.06003673 0.016431902
-0.03585735 0.68922335 0.4410023 0.42235497 -0.016057191 0.22138382 0.17830162 -0.031017384
0.037607964 0.11295996 -0.0273205 -0.049759246 0.007771313 0.019116182 0.599688 -0.04080767
0.11961666 0.12247698 0.06460823 0.14607649 0.07247479 0.014740296 0.1792823 0.009313977
0.24956936 -0.036410484 0.035716455 -0.039509438 0.02993697 0.29683775 0.061331417 -0.00914467
0.025928322 0.2682797 0.09829159 -0.054240488 0.0051374715 0.022442263 0.91173244 0.13687247
0.20227306 0.054264437 0.0054556294 -0.035308026 0.4358656 -0.09161902 0.05978933 -0.04635297
0.0625798 0.13254122 0.2126245 0.06459305 0.0072765434 0.015280899 0.79700416 0.07880396
0.16465558 0.00710708 -0.011686412 0.2024738 -0.0031235425 -0.0024200592 0.14484808 0.096253
0.05014075 0.18625769 -0.008701726 -0.040846795 0.16299833 0.017189067 0.009517465 0.15694492
0.12970863 0.86173034 0.7546545 0.0020769385 0.07242483 0.87855357 0.36807448 0.43419385
0.052758325 0.31183165 0.002857797 -0.004680022 0.00026077265 -0.0044577937 -0.04316181 0.015623054
0.008461781 0.16519329 0.068736814 0.14463046 0.018228577 0.26222384 0.044863086 0.05842451
-0.01897851 0.86127615 0.1443113 -0.10412553 0.11132926 -0.06964147 0.06823887 -0.0023724716
0.18948142 -0.012960911 0.17134856 0.014747203 0.18249857 0.02067633 0.20417657 0.016206127
0.102207154 0.13508777 0.028483694 0.06424492 0.14984573 0.07221727 0.21178181 0.08558781
0.18343148 0.05564831 -0.00074771617 0.066042125 0.0053197085 0.097050205 0.081683755 0.057511944
0.032181486 -0.04626927 0.047034502 0.2824679 0.1683249 0.07700276 0.020866726 -0.061885733
-0.0060023167 0.38357753 0.09453984 0.09258306 -0.0016502839 0.072287425 -0.0815544 0.09627269
0.069658615 0.08086985 0.08238517 -0.08140133 0.22704487 -0.01595001 0.0016552556 0.019913357
0.16109386 0.18504305 0.0410006 0.049634963 0.009325424 0.17080644 0.015664205 0.794324
0.20873836 0.056917228 -0.007889975 0.9270074 0.5898163 0.013718983 0.0613656 -0.051343404
0.030922763 0.098242685 0.1616771 -0.045890052 0.6277528 -0.11565679 0.013074475 0.100458935

bn2.bias f4 [300]
00000000: 644e 963d 589d f83d 5b07 ca3d 8356 ea3d
00000010: 3cc6 54bb b729 c8bc 0111 2fbd b5de 113d
00000020: f59f b13b 1263 83bd 533b ac3c d037 06bc
00000030: 6657 1e3d 1c78 873c ba0c 2b3d 7463 68ba
00000040: 4333 3737 0012 b43d fb5c 3ab9 1845 083d
00000050: f492 49bc e79d 23bf d4b3 f0bb 2b82 32bc
00000060: 86e6 fe3a 7b8a d73c f082 023e b655 65bd
00000070: 32b7 3d3d 13a8 9fbd 9469 863b 7026 64bc
00000080: f029 fa3b 63ac 89ba 8477 b73b a04f 433d
00000090: a92c b73c 1392 443f f13a 8939 0bfd 0dbd
000000a0: 8f56 cf3b e38c cdbd acfa 073e 5dc9 d8bd
000000b0: a70c 3f3b b3a1 c03b 43b0 293d 3c63 cbb6
000000c0: bf75 21bc fcac e53c 6af7 a73d 21ae bb3c
000000d0: 6d23 9d3d e39b a8bd 69ad 8bbd 2730 4fbc
000000e0: 576f aebd f83c 3b3b 88cf 8bbb 41a8 f0bd
000000f0: 4b2d 34bf b438 b33d 7490 003d 3229 073c
00000100: 2a15 fdba 40ce acbd 0a0b 17bd 413d 693c
00000110: f75b f4bc dc59 df3b ad1b aabd dc1d 393e
00000120: fcaf 123d 1e15 12bc 28f4 a33c b9ae 083d
00000130: dac5 8cbd 5279 793a 7ddd 6f3d 1055 f93c
00000140: e376 2cbb d6b1 08be b649 103d 05f2 913d
00000150: 411d 10bc 4fa1 243b 09da 68bd a86c 26bd
00000160: c730 ff3c 467a ad3d b443 e2b9 988e 0abd
00000170: 4aaa 7c3b 12d0 85bb 41bc 823d 7eff cc3a
00000180: 49a5 5e3b 0d13 cc3d 3415 153c 5aeb 5a3c
00000190: 9c5d 563d a83a e63a bb4b 73bc 7d5e 733c
000001a0: c156 06bd b9c0 1dba 80e5 6dbc 8ddf fc3c
000001b0: f998 cfbb d676 b4bd 5635 94bb 343d 263c
000001c0: 5309 c5bc 8a64 afbd eb40 6cbd 91d4 853b
000001d0: 08f1 5ebb f92d 143b c7c2 c2bd f5e5 12bd
000001e0: af37 f1bc fa0f 0bbc 81d5 7ebd 5803 47bc
000001f0: dee6 bfbd 3bff 2ebb 3334 ab3d 2b6d babc
00000200: 02b1 d2bb 99cc b8bd 38f0 313d a17d 8a3d
00000210: f760 5dbb 1253 d5bc 43bd d43d 7c77 ef3d
00000220: c1fd 95bc c1ea 123c 36f0 a0bb f349 c9bd
00000230: 1109 8bbc f404 21ba 23a4 273d cc98 88bd
00000240: fe6d b1bc af8b 323d 99b4 31bc f9ad 3b3c
00000250: 50f9 06bb c678 df3c a9f2 a1bb 1a22 c53c
00000260: b028 4dbd 5651 e4bd 4d24 e8bd 2e43 203b
00000270: 1c32 533d 783a 043e e9ca 42bd 5955 b6bd
00000280: 423b 933b a319 6fbc 8ae0 8c3c b431 0c3a
00000290: 0cb3 943b 2559 21ba 5e24 ce3b e89f 663d
000002a0: d5d4 153c 25de 6c3c 651a 003b e877 c43d
000002b0: e03e 28bc 7abd ec3d 120d 133d b176 d13c
000002c0: ec5e 4a3b 6852 1d3d 377b 50bd e8b2 67bb
000002d0: 09e4 bcbc 42ef ed3b 294f 13bd f1f6 edba
000002e0: fdd5 69bd 13ff 40bb 91a7 1f3d ecfa 333b
000002f0: 1b5c c139 47d4 dbba c8bc 1bbd c6e8 9abc
00000300: 2c1a 67bd 39cb bdbb e416 033d 1659 af3d
00000310: ec6a 4ebc 55b6 90b9 83f3 42ba 96f1 0bbc
00000320: db61 a8bd 61e4 ba3c 654f 4c38 ba53 7d3b
00000330: dbe0 8d3d 3411 0a3d c420 29bd 9db9 adbd
00000340: 93d8 2abc 0703 f33b 40e8 033d 1ea4 d73e
00000350: bc75 8dbc 38be 3fbd 0280 a43a bf1a 3b3d
00000360: 9374 393b cb32 b2bd 062b 363d 8313 cabb
00000370: 4f7b 823a 628c 5ebc 962f 0d3c 9190 183e
00000380: b4ba 363d c745 163b 3e90 1e3f 9c9d afbc
00000390: bf02 8e3d a4fe 103b 2adc f1ba d737 403d
000003a0: 0165 3e3d 8eb2 d4bd 0662 c73a 97a4 90bd
000003b0: be92 b5bc 6650 91bd b880 283c 382d a3bd
000003c0: 9610 673e e2b8 3ebb 6454 5abb f139 b1bd
000003d0: 8583 41be 917d 51bc 0ec6 ccbc beb0 e6bc
000003e0: 7c3a 20bd a0f5 fdbd 5b59 9ebc c048 b23b
000003f0: 2158 d8bd 227b 123d 42b2 6dbb 6066 773d
0.073391706 0.12139386 0.09864684 0.11442282 -0.003246679 -0.024433954 -0.042740826 0.03561278
0.0054206797 -0.064153805 0.021024382 -0.008192018 0.03865757 0.016536765 0.041760184 -0.00088649173
1.0919585e-05 0.08792496 -0.0001777298 0.033269018 -0.012303103 -0.63912815 -0.007345656 -0.010895292
0.0019447363 0.02631115 0.12745261 -0.055989943 0.046317287 -0.077957295 0.0041019414 -0.01392518
0.007634394 -0.0010503646 0.005598964 0.04768336 0.022360163 0.7678539 0.0002617459 -0.03466515
0.0063274573 -0.10036638 0.13279217 -0.10585282 0.0029151828 0.005878651 0.041427862 -6.061424e-06
-0.009854733 0.028036587 0.08201487 0.02291018 0.076727726 -0.08232858 -0.06820185 -0.012645758
-0.0851733 0.0028570276 -0.004266683 -0.11750842 -0.7038161 0.0875105 0.03138776 0.008249568
-0.0019308676 -0.084377766 -0.036875762 0.0142357955 -0.029829009 0.006816132 -0.0830606 0.18077797
0.035812363 -0.008916168 0.020013884 0.033369754 -0.06873675 0.00095166743 0.058560837 0.030436069
-0.002631598 -0.13349089 0.035226546 0.0712624 -0.008796037 0.0025120561 -0.05684856 -0.040630966
0.031151189 0.084705874 -0.00043156522 -0.033827394 0.0038553649 -0.004083642 0.06383563 0.0015640107
0.003397303 0.09964571 0.0090992935 0.013361776 0.052335367 0.0017565088 -0.0148495985 0.014854071
-0.03279758 -0.00060177926 -0.014520049 0.030868316 -0.0063353744 -0.08811729 -0.0045229597 0.010146428
-0.024052298 -0.08564098 -0.057679098 0.004084178 -0.0034018178 0.002261041 -0.09509807 -0.035863835
-0.029445497 -0.008487696 -0.062215332 -0.012146793 -0.09370206 -0.0026702422 0.083595656 -0.022757133
-0.0064297924 -0.09023399 0.04344198 0.06762243 -0.003377972 -0.026040588 0.10387661 0.11692712
-0.018309476 0.0089671025 -0.004911448 -0.09828558 -0.016972097 -0.00061424007 0.040928017 -0.06669769
-0.021658894 0.043590244 -0.0108462805 0.0114550525 -0.002059538 0.027279269 -0.0049422574 0.024064112
-0.05008763 -0.11148326 -0.11335049 0.0024454105 0.05156146 0.12912929 -0.04755679 -0.089029975
0.004493148 -0.014593515 0.017196912 0.00053479825 0.0045379456 -0.0006154946 0.0062909564 0.056304842
0.009144981 0.01445726 0.0019546982 0.09593183 -0.010268897 0.11559577 0.035901137 0.025569292
0.0030879332 0.038408667 -0.050898757 -0.003535444 -0.023057954 0.007261188 -0.035964165 -0.0018155259
-0.05708884 -0.002944891 0.038978163 0.0027462794 0.00036880453 -0.0016771638 -0.038021833 -0.018909823
-0.056421444 -0.0057920483 0.032004252 0.08561914 -0.012598734 -0.00027601668 -0.0007436799 -0.008541485
-0.082217894 0.022813978 4.8711332e-05 0.0038654641 0.069276534 0.033707812 -0.041291013 -0.084826685
-0.010427612 0.0074161324 0.032203913 0.421174 -0.017268054 -0.046812266 0.0012550356 0.045679804
0.0028298243 -0.08701094 0.044474624 -0.0061668768 0.0009954962 -0.013583275 0.008617302 0.14898898
0.044611648 0.0022929774 0.61938846 -0.021437459 0.069341175 0.0022124434 -0.0018452455 0.046928253
0.046483044 -0.10385619 0.0015211708 -0.07062643 -0.022164699 -0.07095413 0.010284595 -0.07967609
0.22564921 -0.0029101898 -0.003331446 -0.086536296 -0.18897827 -0.012786285 -0.024996784 -0.02816045
-0.039118275 -0.12400365 -0.019329717 0.0054408014 -0.10563684 0.03576196 -0.003626958 0.060400367
