Zadanie3/srcV2/models/Zadanie 3/target_critic_network.pth (torch, 509903 bytes, 11 tensors)

fc1.weight f4 [400, 8]
0	0xbf3ccdc6	-0.73751485
1	0xbeadd628	-0.3395245
2	0xbf1f3b2b	-0.6219966
3	0x3d1ebfc1	0.03875709
4	0x3f18fdb8	0.59762144
5	0x3e2a572b	0.16634814
6	0x3f805154	1.0024819
7	0xbe4bd1ba	-0.19904223
8	0x3f429887	0.7601399
9	0xbf174038	-0.59082365
10	0x3e21e58d	0.15810223
11	0xbeed7ea5	-0.46385685
12	0xbef335a8	-0.47501874
13	0xbeac3ecd	-0.33641663
14	0xbfc1426e	-1.5098398
15	0xbf79ef66	-0.9763092
16	0x3eb4b36c	0.35293138
17	0x3dd247e3	0.102676176
18	0x3e9631d6	0.29334897
19	0x3d785459	0.060627315
20	0x3dac0136	0.083986685
21	0xbf5a1b91	-0.85198313
22	0x3e5be876	0.21475396
23	0x3eb3f38e	0.35146755
24	0xbe36b421	-0.17842151
25	0x3ea1e0a9	0.31616715
26	0x3e751114	0.23932296
27	0xbe0869ac	-0.1332156
28	0x3f6633a4	0.8992255
29	0x3f3c1467	0.7346863
30	0xbdaffc98	-0.085931
31	0xbf12ce2f	-0.5734586
32	0xbeb78d72	-0.35850102
33	0x3e6ecb78	0.23319805
34	0x3ea2c437	0.31790325
35	0xbe8b89f9	-0.27253702
36	0xbe9486a7	-0.29008982
37	0x3e0198df	0.12655972
38	0x3f2c43d8	0.6729102
39	0x3f29f847	0.66394466
40	0x3e8bf209	0.27333096
41	0x3e9f021f	0.31056306
42	0xbe54ac46	-0.20768842
43	0x3f1bb132	0.60817254
44	0x3e44a466	0.19203338
45	0xbf4b0634	-0.7930634
46	0x3ea97106	0.33094043
47	0x3f80bb13	1.005709
48	0x3dd5a3e3	0.104316495
49	0xbdd02e5e	-0.10165094
50	0xbdd7fdda	-0.10546465
51	0x3ea40ae3	0.32039556
52	0xbf9fb5bf	-1.247734
53	0xbf74eae4	-0.95670915
54	0x3ee9a56f	0.45634028
55	0x3f1ae7c4	0.60509896
56	0x3d65abc6	0.05607202
57	0x3e8b73fe	0.27236933
58	0x3dba28af	0.09089791
59	0xbf0e90d0	-0.55689716
60	0xbe5e28fa	-0.21695319
61	0x3f0c2d90	0.5475702
62	0x3f3d14ed	0.73860055
63	0x3f5e8c19	0.8693252
64	0xbf2ef88c	-0.68348
65	0x3defff2f	0.11718594
66	0x3e3c445f	0.18385457
67	0x3f873f4a	1.0566189
68	0xbf153855	-0.5828908
69	0x3efe3587	0.49650213
70	0x3f1e0704	0.61729455
71	0x3f12e64b	0.5738265
72	0x3ea75962	0.3268538
73	0xbdb0e70c	-0.08637819
74	0x3f58df53	0.84715766
75	0x3e6b3a1f	0.2297139
76	0xbeb5134c	-0.35366285
77	0xbea2a11d	-0.31763545
78	0x3e95b171	0.2923694
79	0x3f0ef895	0.55848056
80	0xbe706928	-0.23477614
81	0x3e7736d6	0.24142012
82	0x3e171b63	0.14756541
83	0xbf352d11	-0.7077189
84	0xbdebf04f	-0.115204446
85	0x3f234943	0.63783664
86	0x3f1c6c87	0.611031
87	0x3f50e07b	0.8159253
88	0xbf478189	-0.7793203
89	0xbd062cf2	-0.032757707
90	0xbf0d0837	-0.5509066
91	0x3f413c75	0.75482875
92	0x3f274183	0.6533434
93	0x3f15c439	0.58502537
94	0x3f3188fb	0.6934964
95	0xbe8ca6f2	-0.2747112
96	0xbe3a5508	-0.181965
97	0x3eec89e8	0.46198964
98	0x3ca9351d	0.02065521
99	0xbed1160c	-0.40837133
100	0xbdc3aeee	-0.095548496
101	0xbd963669	-0.07334597
102	0x3f3de3ff	0.7417602
103	0x3f9cabde	1.223995
104	0x3b763600	0.0037568808
105	0x3e9e949b	0.30972752
106	0x3e60d23e	0.21955201
107	0x3d195fd0	0.03744489
108	0x3dc847bb	0.097793065
109	0x3f6cd458	0.9251151
110	0x3f2fa774	0.6861489
111	0x3c442419	0.011971497
112	0x3ddd7fab	0.10815366
113	0xbef73340	-0.48281288
114	0xbee28c1a	-0.44247514
115	0xbf3f0f11	-0.74632365
116	0xbfbd80b4	-1.4804902
117	0x3eb569ae	0.3543219
118	0x3e657314	0.2240718
119	0x3e888a4e	0.26668018
120	0xbe30bcb2	-0.17259482
121	0x3d03e372	0.03219933
122	0x3f1e76cd	0.61900026
123	0xbe9b973a	-0.30388814
124	0xbf4d4e72	-0.80197823
125	0xbe9a5577	-0.3014333
126	0x3ea163eb	0.31521544
127	0x3e6dcd2a	0.23222795
128	0x3ddeab68	0.10872537
129	0xbdf56f91	-0.1198417
130	0xbed1724b	-0.4090751
131	0x3eda3745	0.42620292
132	0x3f4700a1	0.77735335
133	0x3ebccd71	0.3687549
134	0x3ea83bc4	0.32858098
135	0x3ea16805	0.31524673
136	0x3e1654e4	0.1468082
137	0x3efc28d0	0.49249887
138	0x3e2908b4	0.16507226
139	0xbe86cd84	-0.2632867
140	0xbde9fe15	-0.114254154
141	0x3eb5585d	0.35418978
142	0x3f1f6e3d	0.62277585
143	0x3f90fbbd	1.1326824
144	0x3f39bfa8	0.7255807
145	0xbe922436	-0.28543252
146	0x3efd3370	0.49453306
147	0x3d95cb11	0.073141225
148	0xbf0f5f0d	-0.5600441
149	0xbf052d26	-0.52022016
150	0x3dd0106f	0.101593845
151	0x3eec397f	0.46137616
152	0xbf36580d	-0.71228105
153	0xbebf2599	-0.37333372
154	0xbf2aeb56	-0.66765344
155	0xbd8ff042	-0.070282474
156	0x3f29d4c2	0.6634027
157	0x3deafd12	0.114740506
158	0xbe9b462c	-0.30326974
159	0xbdcc89b4	-0.09987202
160	0xbf1d2de9	-0.6139818
161	0xbf3b4d7b	-0.731651
162	0xbeba01cf	-0.36329505
163	0xbe621aaf	-0.22080491
164	0xbf5be754	-0.85899854
165	0xbe46463f	-0.19362734
166	0x3f6a8a9f	0.9161777
167	0xbd4eeb98	-0.05051765
168	0xbf0a70d6	-0.54078424
169	0xbec7187e	-0.38885874
170	0x3f4c676a	0.798453
171	0x3ed7e12f	0.4216399
172	0xbe3068f3	-0.17227535
173	0xbe48e54f	-0.19618724
174	0x3ec26eeb	0.3797525
175	0x3f32d731	0.69859606
176	0x3eb729db	0.3577412
177	0x3ee33aa6	0.44380683
178	0x3dac1238	0.084019125
179	0xbefbd916	-0.4918906
180	0xbeb10567	-0.34574434
181	0x3ec90986	0.39265078
182	0x3e866898	0.26251674
183	0x3f18e7fe	0.5972899
184	0xbe3921b6	-0.18079266
185	0xbf548f0e	-0.83030784
186	0x3f06b59f	0.5262088
187	0x3e2a1bfc	0.16612238
188	0x3e28d0e2	0.16485932
189	0xbf369222	-0.7131673
190	0x3e999c9d	0.300023
191	0x3f3d42fa	0.73930323
192	0xbc36785d	-0.011137095
193	0x3e768d65	0.24077375
194	0x3deb6802	0.11494447
195	0xbe8a99fc	-0.27070606
196	0xbf7eab40	-0.99480057
197	0xbeb29499	-0.34878996
198	0x3e1e3fa3	0.15453963
199	0x3fa2b73e	1.2712171
200	0x3e992e6a	0.29918224
201	0xbf2f58cc	-0.6849487
202	0xbed9cb71	-0.42538026
203	0xbf20bfd7	-0.62792724
204	0xbf060827	-0.5235619
205	0xbecd98eb	-0.4015573
206	0xbdb03586	-0.08603959
207	0xbec1ac05	-0.37826553
208	0xbe573eac	-0.21020001
209	0x3ec924dd	0.39285937
210	0x3f152d5e	0.5827235
211	0xbf3f2563	-0.7466642
212	0xbf1152de	-0.5676707
213	0x3ebe8d61	0.3721724
214	0x3f600640	0.87509537
215	0x3f8c7c09	1.0975353
216	0x3e53a6c5	0.20669086
217	0x3e8f85b0	0.28031683
218	0xbd7d6cba	-0.061871268
219	0x3e6e731c	0.23286098
220	0xbe38ce58	-0.18047464
221	0xbea5a46c	-0.32352006
222	0x3e844b30	0.25838614
223	0x3f3b0fd7	0.73071045
224	0xbee83862	-0.45355517
225	0xbf1bdb2f	-0.6088132
226	0x3ebd98d9	0.37030676
227	0x3e8eeb4b	0.2791389
228	0x3d278b12	0.040904112
229	0x3e862c47	0.26205656
230	0x3e228519	0.15871085
231	0x3f0152d6	0.5051702
232	0xbf0c1eb7	-0.5473437
233	0xbe5e4b2b	-0.21708362
234	0x3f00582f	0.5013456
235	0xbf065e29	-0.52487427
236	0x3f4e8ed9	0.8068672
237	0xbe93d130	-0.28870535
238	0x3d2a186e	0.041527204
239	0x3f711787	0.94176525
240	0xbefe41ea	-0.49659663
241	0xbea3d489	-0.3199809
242	0xbe373bd7	-0.17893921
243	0xbe2a7d8a	-0.16649452
244	0x3f2e4cfb	0.6808621
245	0x3f5a3179	0.8523174
246	0x3f9685f3	1.1759628
247	0xbf3cba4c	-0.73721766
248	0xbe19acf2	-0.1500738
249	0x3e415df6	0.188835
250	0xbec11e74	-0.37718546
251	0x3f1414fa	0.5784451
252	0xbde57ac4	-0.11205056
253	0x3ec0f404	0.3768617
254	0x3fbb1a6f	1.4617442
255	0x3f172b30	0.59050274

fc1.bias f4 [400]
0	0xbf07ad1d	-0.52998525
1	0xbe9e4d85	-0.30918518
2	0x3e390dc9	0.18071665
3	0x3e277e5d	0.16356798
4	0x3ee01afb	0.43770584
5	0x3e88b227	0.2669842
6	0x3e8afd88	0.27146554
7	0x3f0f97a6	0.5609077
8	0x3e04a71d	0.12954374
9	0xbe2d2a03	-0.16910557
10	0x3f350d70	0.7072363
11	0x3d6fde9e	0.058561914
12	0x3f1aa9c0	0.6041527
13	0x3e803674	0.25041544
14	0xbe645fe3	-0.22302203
15	0x3eddbfa9	0.43310288
16	0xbf113bc9	-0.5673185
17	0x3f037287	0.5134663
18	0xbee37542	-0.44425398
19	0xbcffe067	-0.031234933
20	0xbdd73ee6	-0.10510044
21	0x3f0a24fd	0.5396269
22	0x3effef95	0.49987474
23	0x3f00127d	0.5002821
24	0xbecc07f1	-0.3984981
25	0x3f0b09db	0.54311913
26	0x3f3de868	0.7418275
27	0x3e1b3842	0.1515818
28	0x3f34f09f	0.7067966
29	0x3e936bcc	0.2879318
30	0xbd8e721f	-0.069553606
31	0x3eb7df3c	0.35912502
32	0xbe9c29e8	-0.30500722
33	0x3f3b5184	0.7317126
34	0xbeb10a1e	-0.3457803
35	0xbc8b3991	-0.016995223
36	0x3ecfde4d	0.4059929
37	0xbee5b498	-0.44864345
38	0x3eebb237	0.46034405
39	0x3efdd994	0.4958006
40	0xbefd1f2b	-0.49437842
41	0xbe840b0a	-0.25789672
42	0x3e4f2f83	0.20232968
43	0xbf2c1dfb	-0.67233247
44	0x3f6d667a	0.9273449
45	0x3f167f3f	0.5878791
46	0xbeb3483b	-0.35016045
47	0xbeb4cb8f	-0.35311553
48	0xbeb77bc1	-0.35836604
49	0x3d8d60f4	0.06903258
50	0x3e1f59cb	0.15561597
51	0x3e9f02fd	0.31056967
52	0xbf0aff29	-0.54295594
53	0xbdb55860	-0.08854747
54	0xbe44a325	-0.1920286
55	0x3ea21a0d	0.316605
56	0xbbe4ea4d	-0.0069859386
57	0x3f6a839b	0.91607064
58	0x3e469647	0.19393264
59	0x3f2e15b9	0.68001896
60	0xbf38d438	-0.7219882
61	0xbeade101	-0.33960727
62	0x3e6ae6eb	0.2293965
63	0x3ef03dde	0.469222
64	0x3f41b1bd	0.7566183
65	0xbf345710	-0.70445347
66	0x3f0d6992	0.5523921
67	0x3f25b1f7	0.6472468
68	0xbd3659e6	-0.044519328
69	0xbe69a2b0	-0.22815967
70	0xbd8557b4	-0.06510869
71	0xbeb0d7f6	-0.34539765
72	0x3e3df90b	0.18552034
73	0x3e88600b	0.26635775
74	0xbcfac5e2	-0.030611936
75	0x3f060449	0.5235029
76	0x3f699648	0.91244936
77	0x3e0fb6f5	0.14034636
78	0x3efd6395	0.49490038
79	0x3f05386a	0.52039206
80	0x3e495e53	0.19664888
81	0x3eb364a8	0.35037732
82	0xbe592acb	-0.2120773
83	0x3ed12cae	0.408544
84	0xbec65a3d	-0.3874072
85	0xbe5a66d6	-0.21328291
86	0x3ea066e2	0.31328493
87	0xbd2a5a89	-0.041590247
88	0xbced701b	-0.02898412
89	0xbef57262	-0.4793883
90	0xbe9caa10	-0.30598497
91	0xbdae98cd	-0.08525238
92	0xbe49ca86	-0.19706163
93	0xbf3767df	-0.7164287
94	0x3f074f89	0.52855736
95	0xbddf150f	-0.108926885
96	0x3e6797b3	0.22616462
97	0x3f46f873	0.77722853
98	0xbe18ca74	-0.1492098
99	0x3ed3a7d4	0.4133898
100	0x3ee8de72	0.45482212
101	0x3f17b238	0.59256315
102	0x3ec351b2	0.38148266
103	0xbd7ec7a5	-0.062202115
104	0x3f196726	0.5992302
105	0xbe063264	-0.1310516
106	0xbf3952bb	-0.7239186
107	0x3e592dd4	0.21208888
108	0xbf08dbd7	-0.5346045
109	0x3f2e2643	0.6802713
110	0x3f0133c0	0.5046959
111	0x3e6d1f1d	0.231564
112	0x3d9c3a9e	0.07628368
113	0xbc70b76f	-0.0146921715
114	0x3ea1d4c4	0.3160764
115	0x3e87fa49	0.2655814
116	0x3d5bc7e7	0.05365744
117	0xbeb1c9cf	-0.3472428
118	0x3dc59004	0.096466094
119	0xbe317103	-0.17328267
120	0xbe4b2c87	-0.19841205
121	0x3e9dda45	0.3083059
122	0x3f19c8be	0.60071933
123	0xbea8dcdf	-0.3298101
124	0x3efff974	0.49995005
125	0x3edb8043	0.42871293
126	0xbcfc9bf1	-0.030836077
127	0x3ef36c6d	0.4754366
128	0x3e126504	0.14296347
129	0xbcbe8713	-0.023257768
130	0xbebeb8c3	-0.37250337
131	0xbec32b5c	-0.38119018
132	0x3f00ddb8	0.50338316
133	0xbd38da5b	-0.045130115
134	0xbf4d2e69	-0.8014894
135	0xbdc961ca	-0.09833105
136	0x3f6879a3	0.908106
137	0xbe8485b0	-0.25883245
138	0x3efa62ab	0.48903403
139	0x3ebe5fc4	0.37182438
140	0x3e0fcfb5	0.14044078
141	0x3f31597b	0.6927716
142	0x3f35e117	0.71046585
143	0x3e107f5c	0.14111084
144	0x3e0a50af	0.13507341
145	0x3d86a284	0.06573966
146	0x3e4a8a56	0.19779333
147	0xbe9715da	-0.2950886
148	0xbed11667	-0.40837404
149	0x3f3c92bc	0.736614
150	0xbdbaee00	-0.09127426
151	0x3e12320c	0.14276904
152	0x3f0c24d0	0.5474367
153	0x3f442ffa	0.76635706
154	0x3dbdaf89	0.09261996
155	0x3e85491a	0.26032335
156	0x3f06f3e0	0.52715874
157	0x3f01da58	0.5072379
158	0x3f21b446	0.631657
159	0x3eca94b2	0.3956657
160	0x3f1c20bd	0.60987455
161	0xbf1aa59d	-0.60408956
162	0x3e8b315a	0.2718609
163	0x3e981c60	0.29709148
164	0x3f02a3c7	0.51031154
165	0xbe661038	-0.22467124
166	0xbd3c91c9	-0.04603747
167	0xbede4c76	-0.4341771
168	0xbe191a11	-0.1495135
169	0x3d73aff2	0.059493966
170	0xbe80581e	-0.25067228
171	0x3f03cb91	0.5148249
172	0x3edd65b5	0.4324166
173	0x3f859b0f	1.0437945
174	0x3e8b372b	0.27190527
175	0x3f3fa025	0.74853736
176	0xbed8b8d4	-0.42328513
177	0xbed22f95	-0.41051927
178	0x3e9a6f0f	0.30162856
179	0xbd9d9609	-0.076946326
180	0x3ea9ba71	0.33150056
181	0x3d40db3f	0.04708409
182	0x3f0eb537	0.5574526
183	0xbe897764	-0.268489
184	0xbe21cef7	-0.15801607
185	0x3e3ed762	0.1863685
186	0xbdcbe14e	-0.09955083
187	0xbe277ab3	-0.163554
188	0x3e3b91e9	0.18317379
189	0xbf1ae9a3	-0.6051275
190	0x3e935f82	0.28783804
191	0xbf0aa6d8	-0.54160833
192	0x3eb16d19	0.34653547
193	0x3de22f62	0.11044194
194	0x3f015ba4	0.5053046
195	0xbe7b4980	-0.24539757
196	0x3d9f34bb	0.077737294
197	0x3f21923e	0.6311377
198	0x3e3ddb6f	0.18540739
199	0x3e8c5cb7	0.27414486
200	0xbed299ec	-0.41133058
201	0x3e98ae8b	0.29820666
202	0xbdd53336	-0.10410158
203	0x3f1f6597	0.6226439
204	0x3f6e9eee	0.9321126
205	0x3f277427	0.6541161
206	0x3d6901e5	0.056886572
207	0xbef06a8e	-0.46956295
208	0x3f438641	0.7637673
209	0xbede0414	-0.43362486
210	0x3e406a8d	0.18790646
211	0x3e917c44	0.2841512
212	0xbe5629b4	-0.20914346
213	0x3ea455ad	0.32096615
214	0x3ed207de	0.41021627
215	0x3f1bc550	0.6084795
216	0xbf3b8a9f	-0.73258394
217	0x3ea165bb	0.31522927
218	0x3c992596	0.01869468
219	0xbd7948d7	-0.06086048
220	0x3ea591a3	0.32337674
221	0x3ea5c143	0.3237401
222	0x3f438afc	0.7638395
223	0x3d37b8f7	0.04485413
224	0x3e77130e	0.24128363
225	0x3f185c67	0.59515995
226	0xbeef2546	-0.46708125
227	0x3eafbdf8	0.34324622
228	0x3e20be37	0.15697561
229	0x3f1414bd	0.57844144
230	0xbf1649a2	-0.58706105
231	0xbe915096	-0.28381795
232	0x3f2e7058	0.6814017
233	0xbe5edeb6	-0.21764645
234	0xbe1b93aa	-0.15193048
235	0xbf02db26	-0.51115644
236	0x3e4c783f	0.19967745
237	0x3f36a37f	0.71343225
238	0x3ea3fba5	0.32027927
239	0xbd0cc0cc	-0.034363553
240	0x3e7a24d0	0.24428105
241	0x3d4100b6	0.04711982
242	0x3da88974	0.08229342
243	0xbe2170aa	-0.15765634
244	0xbeada5f8	-0.33915687
245	0x3f3fc3e3	0.74908274
246	0x3e7038ea	0.23459211
247	0x3d12df9d	0.035857785
248	0x3f229692	0.63511
249	0x3f292c28	0.66083
250	0x3a0f0856	0.0005456259
251	0x3f4d6ec2	0.8024713
252	0x3ea03291	0.3128858
253	0x3ee891dd	0.45423785
254	0x3ea4ed80	0.32212448
255	0xbe29a970	-0.16568542

bn1.weight f4 [400]
0	0x3fccec6e	1.6009653
1	0x3fdcb77d	1.7243496
2	0x3f792c2e	0.9733304
3	0x3f3e5880	0.7435379
4	0x3f05dd2c	0.52290606
5	0x3f3fbb82	0.7489549
6	0x3f32bce7	0.6981949
7	0x3ec6d790	0.38836336
8	0x3f338fc8	0.7014127
9	0x3f74d4f3	0.95637435
10	0x3ec40a60	0.38289165
11	0x3f80f77d	1.0075527
12	0x3eafa6d6	0.34306973
13	0x3f01bcf8	0.5067897
14	0x3ffce6d3	1.9757942
15	0x3f084296	0.532266
16	0x4002ec0f	2.0456579
17	0x3ec52468	0.38504338
18	0x3fb1935c	1.3873096
19	0x3f8904d3	1.0704597
20	0x3f7059b5	0.9388688
21	0x3fbf6e4d	1.4955536
22	0x3eb4c1df	0.35304162
23	0x3f942b12	1.1575644
24	0x3f85cd69	1.0453311
25	0x3fae4b40	1.3616714
26	0x3e91b9e5	0.2846214
27	0x3f2a425f	0.66507524
28	0x3f9bdab9	1.2176124
29	0x3f5a7fd5	0.85351306
30	0x3f7116ff	0.94175714
31	0x3f2f44c0	0.6846428
32	0x3fceb5b4	1.6149201
33	0x3e91489d	0.28375712
34	0x3ff1fc25	1.8905073
35	0x3f9e2c7d	1.2357327
36	0x3f4fff23	0.8124868
37	0x3fb8c9b4	1.4436555
38	0x3f13cc5d	0.5773371
39	0x3ebe1a0f	0.37129256
40	0x3f8937e8	1.0720186
41	0x400b0c8d	2.172641
42	0x3f189136	0.59596574
43	0x3ff7d25a	1.9361069
44	0x3ffd977f	1.9811858
45	0x3e4cd780	0.20004082
46	0x40037899	2.0542357
47	0x3fccfd76	1.601485
48	0x3f57f784	0.84362054
49	0x3f72032c	0.9453609
50	0x3f84c625	1.0372969
51	0x3f1be5cd	0.60897523
52	0x3fe94f43	1.8227314
53	0x3f985bb7	1.1902989
54	0x3fabfa71	1.3435804
55	0x3e89036c	0.26760423
56	0x3f62ffff	0.8867187
57	0x3e5cddd9	0.21569003
58	0x3f36733b	0.7126958
59	0x3eb53edf	0.3539953
60	0x404c5926	3.1929412
61	0x3f41feba	0.75779307
62	0x3f016a92	0.5055324
63	0x3f25a910	0.64711094
64	0x3ea9e3d6	0.33181638
65	0x405df9ab	3.4683635
66	0x3ec55f00	0.38549042
67	0x3e81ec94	0.25375807
68	0x3fce1329	1.6099597
69	0x3f919d64	1.1376157
70	0x3f9e3836	1.2360904
71	0x3fb95e83	1.4481968
72	0x3e1285cd	0.14308853
73	0x3f85f9cc	1.0466857
74	0x3f926193	1.1436027
75	0x3f496655	0.7867177
76	0x3e711413	0.23542814
77	0x3f508f96	0.81469095
78	0x3f844360	1.0333061
79	0x3faa2ff9	1.329589
80	0x3f29c490	0.66315556
81	0x3e9c965d	0.30583468
82	0x3febf93d	1.8435436
83	0x3f60c141	0.8779488
84	0x4000972f	2.0092275
85	0x3fcfdef1	1.6239911
86	0x3f1acd75	0.6046975
87	0x3ef90008	0.48632836
88	0x3f41b563	0.756674
89	0x3f94fa33	1.1638855
90	0x3fc6a0c0	1.5517807
91	0x3f30ab43	0.69011325
92	0x3f5d6159	0.86476666
93	0x4050241e	3.2522044
94	0x3eafab86	0.3431055
95	0x3fd3839b	1.6524538
96	0x3fa149fb	1.2600702
97	0x3ea2469e	0.31694502
98	0x3f0a453f	0.5401191
99	0x3f4c9eec	0.79929996
100	0x3ee6c2aa	0.45070392
101	0x3f9c2eee	1.2201822
102	0x3f48fd06	0.78511083
103	0x3f839570	1.027998
104	0x3eccdc30	0.4001174
105	0x3f422565	0.7583831
106	0x400f5d05	2.2400525
107	0x3fc15e16	1.5106838
108	0x3fcab802	1.5837405
109	0x3f9125f1	1.1339704
110	0x3f0bc630	0.54599285
111	0x3f23ee6b	0.6403567
112	0x3f38c217	0.7217116
113	0x3fed2274	1.8526139
114	0x3f7270a2	0.94703114
115	0x3fb1fc54	1.390513
116	0x3f26e3a6	0.65191114
117	0x3fc39800	1.5280762
118	0x3f4b938e	0.79522026
119	0x3f7fc83c	0.9991491
120	0x3f840bc5	1.0316092
121	0x3f5d06b5	0.8633836
122	0x3ec08a48	0.376055
123	0x3f8b28eb	1.0871862
124	0x3fce8475	1.6134173
125	0x3ee74072	0.45166355
126	0x3f42683d	0.75940305
127	0x3f42ed84	0.7614367
128	0x3fae4243	1.3613971
129	0x3f8053b3	1.0025543
130	0x3f8f5db8	1.1200476
131	0x4007407b	2.1133106
132	0x3ec4a1f0	0.38404799
133	0x3f4beffc	0.7966306
134	0x4044dc18	3.0759335
135	0x3fbcbb55	1.4744669
136	0x3fccc42e	1.5997369
137	0x40020dae	2.032085
138	0x3f8ca1f4	1.0986924
139	0x3eaa99de	0.33320516
140	0x3f2164d6	0.6304449
141	0x3ec80db8	0.39072967
142	0x3f36c5f4	0.713958
143	0x3f81987c	1.012466
144	0x3f607d39	0.87691075
145	0x3ee1a9f3	0.44074973
146	0x3f33e21a	0.7026688
147	0x3f8a4408	1.0802011
148	0x3fd17498	1.6363707
149	0x3e968e9d	0.2940568
150	0x3f397ad6	0.7245306
151	0x3f365efa	0.7123867
152	0x3e429d88	0.19005406
153	0x3e949dbd	0.29026595
154	0x3f31301e	0.69214046
155	0x3f934f25	1.1508528
156	0x3ebd1907	0.36933157
157	0x3ea3e7ce	0.3201279
158	0x3f4b4f65	0.7941802
159	0x3f6b5d1c	0.9193895
160	0x3ec231b8	0.37928557
161	0x3fe05079	1.7524558
162	0x3ee94e77	0.45567676
163	0x3f9a0821	1.2033731
164	0x3f873352	1.0562537
165	0x3fa623aa	1.2979634
166	0x3f3be719	0.733995
167	0x3fb0d428	1.3814745
168	0x3f3fe55a	0.7495934
169	0x3f3a7bc6	0.72845113
170	0x4006bdd0	2.1053352
171	0x401cdbcf	2.450916
172	0x3f2f9700	0.6858978
173	0x40217408	2.522707
174	0x3f48cb25	0.78434974
175	0x3ec52b70	0.38509703
176	0x3f930520	1.1485939
177	0x3fd4e0e4	1.6631131
178	0x3f6c0422	0.92193806
179	0x3f76455e	0.96199596
180	0x3eba190f	0.36347243
181	0x3fb848ae	1.439718
182	0x3e3d458f	0.18483566
183	0x3fb36d31	1.4017698
184	0x3f70d8f3	0.9408104
185	0x3f3f0935	0.74623424
186	0x3f88cdb4	1.0687776
187	0x3fde5ea0	1.7372627
188	0x3e99765d	0.29973117
189	0x40375ab0	2.8649101
190	0x3fa5e373	1.2960037
191	0x40117fee	2.2734332
192	0x3f909dff	1.1298217
193	0x3ef0e78b	0.47051653
194	0x3fd5ac76	1.6693256
195	0x3f6cdfd6	0.92529047
196	0x3ec8e3f3	0.3923641
197	0x3ea6a7b6	0.32549828
198	0x3ee855f3	0.45378074
199	0x3f1bcfa8	0.60863733
200	0x3fd80e81	1.6879426
201	0x3f39bb8c	0.725518
202	0x3fac6a2a	1.3469899
203	0x3e841a64	0.25801384
204	0x3e761d23	0.24034552
205	0x3f8ca309	1.0987254
206	0x3f82bbbd	1.0213543
207	0x3fea4771	1.8303052
208	0x3e9ce865	0.30646053
209	0x3fe6cbc1	1.8030931
210	0x3f4e4b9e	0.8058413
211	0x3f8867e1	1.0656701
212	0x3f95896b	1.1682562
213	0x3f07b636	0.53012407
214	0x3f96cbbf	1.1780928
215	0x3f2c2b03	0.6725313
216	0x4029509a	2.6455445
217	0x3ecb26b0	0.39677954
218	0x3f209f8e	0.6274346
219	0x3f5f3aba	0.87198985
220	0x3f924e7e	1.1430204
221	0x3f01efb4	0.5075638
222	0x3fee56fa	1.8620293
223	0x3e815cd8	0.25266147
224	0x3f49d9e3	0.78848094
225	0x3f6e3a8e	0.930581
226	0x3fa9f0a8	1.3276567
227	0x3f67deda	0.9057442
228	0x3f31b415	0.6941541
229	0x3eb26dc7	0.34849378
230	0x4011924b	2.274554
231	0x3f715675	0.9427255
232	0x3ebe85df	0.3721151
233	0x3fc4ee88	1.5385294
234	0x3fbfa515	1.4972254
235	0x3fcba822	1.5910685
236	0x3f128469	0.5723329
237	0x3ea99426	0.3312084
238	0x3ee8cfaa	0.45470935
239	0x3f3ebb70	0.74504757
240	0x3f6461b1	0.89211565
241	0x3f2aec91	0.6676722
242	0x3f2138ab	0.62977093
243	0x3f6d8e01	0.92794806
244	0x3f91db6b	1.1395086
245	0x3eb6df47	0.35717222
246	0x40054e27	2.082895
247	0x4022cd07	2.5437639
248	0x3eb99ff7	0.36254856
249	0x3f83c012	1.029299
250	0x3f73e1dd	0.95266515
251	0x3e8a15a4	0.26969635
252	0x3e3b65df	0.1830058
253	0x3f5c9939	0.861713
254	0x3f543ea8	0.82908106
255	0x403b3a7e	2.925445

bn1.bias f4 [400]
0	0xbdbaacc2	-0.09114982
1	0xbeb303a8	-0.34963727
2	0xbf0e136e	-0.554984
3	0xbefe48ea	-0.49665004
4	0xbf39b6a0	-0.7254429
5	0xbf16b4fa	-0.588699
6	0xbe397715	-0.18111832
7	0xbf14fab6	-0.58195055
8	0xbf025170	-0.50905514
9	0xbf0c5c92	-0.5482875
10	0xbf3cc958	-0.73744726
11	0xbede5f6a	-0.4343217
12	0xbf393748	-0.7234998
13	0xbf010632	-0.5040008
14	0xbdc23e6d	-0.09484563
15	0xbeea02bb	-0.45705208
16	0xbb26174c	-0.0025343476
17	0xbf14c596	-0.5811399
18	0xbe7a341c	-0.2443394
19	0x3dd18be1	0.10231758
20	0xbf10fc91	-0.56635386
21	0xbec12797	-0.37725517
22	0xbf1ecfe6	-0.6203598
23	0xbee1189a	-0.43964082
24	0xbd81e9a0	-0.063433886
25	0x3d3c7c13	0.046016764
26	0xbf40d931	-0.7533141
27	0xbf102e67	-0.56320804
28	0xbe9c3f40	-0.30517006
29	0xbf18aeac	-0.5964153
30	0x3e18fd6d	0.14940424
31	0xbf08ac18	-0.53387594
32	0x3cb26705	0.02177764
33	0xbf2eccdf	-0.6828136
34	0xbdb7e736	-0.08979647
35	0xbeafc964	-0.34333336
36	0xbf38297a	-0.7193829
37	0x3d69dc6a	0.05709497
38	0xbf4ff399	-0.81231076
39	0xbf442811	-0.76623636
40	0xbf1a42a7	-0.60257953
41	0xbb7a0b08	-0.0038153548
42	0xbf23b581	-0.6394883
43	0xbd5f856a	-0.054570593
44	0xbe267427	-0.16255246
45	0xbedeff2a	-0.4355405
46	0xbe3b68a4	-0.18301636
47	0xbe161413	-0.14656095
48	0xbe7c989d	-0.24667592
49	0xbe623213	-0.22089414
50	0xbec75419	-0.3893135
51	0xbf0b37e6	-0.5438217
52	0xbeab0715	-0.3340384
53	0xbed19a86	-0.40938205
54	0xbd658704	-0.056036964
55	0xbedce992	-0.4314695
56	0xbf1ff01a	-0.6247574
57	0xbf2dcb0f	-0.6788797
58	0xbf2390d1	-0.6389285
59	0xbf2b6f27	-0.6696648
60	0x38d5bccb	0.00010191797
61	0xbf28cbc5	-0.6593593
62	0xbf183072	-0.5944892
63	0xbf046b20	-0.5172596
64	0xbf4664b9	-0.7749744
65	0xbdf21655	-0.11820666
66	0xbf339518	-0.70149374
67	0xbf125df6	-0.57174623
68	0xbeff275f	-0.49834725
69	0xbe9f05f3	-0.31059226
70	0xbeec2b52	-0.461268
71	0xbeed6c4f	-0.46371695
72	0xbe66ce63	-0.22539668
73	0xbf04f969	-0.5194307
74	0xbf083d5b	-0.5321862
75	0xbf2af700	-0.6678314
76	0xbf3dc4e8	-0.7412858
77	0xbe85dd44	-0.26145375
78	0xbe7baa8c	-0.24576777
79	0xbdfbcb16	-0.12294595
80	0xbf1ef768	-0.6209626
81	0xbe834c25	-0.2564403
82	0x3e7afc3a	0.2451028
83	0xbe166668	-0.14687502
84	0xbec36cfb	-0.38169083
85	0xbef52913	-0.478829
86	0xbef7cec5	-0.4839994
87	0xbecc839c	-0.3994416
88	0x3db6b87b	0.089219056
89	0xbec7fcfc	-0.390602
90	0xbe85c6e2	-0.26128298
91	0xbed57468	-0.41690373
92	0xbe4279c9	-0.1899177
93	0x3da0817d	0.07837198
94	0xbf050e25	-0.5197471
95	0xbea77540	-0.32706642
96	0xbea1d9cf	-0.31611487
97	0xbf514cea	-0.81757987
98	0xbe6e5117	-0.23273121
99	0xbf44c70f	-0.7686624
100	0xbf556a0a	-0.8336493
101	0xbf18235b	-0.5942895
102	0xbf1aebcf	-0.60516065
103	0xbf0e48d0	-0.55579853
104	0xbf40a989	-0.7525869
105	0xbf09ddc9	-0.5385404
106	0xbe9798bb	-0.29608712
107	0xbb96ee20	-0.0046060234
108	0x3ccd334b	0.025048872
109	0xbddccaa4	-0.10780838
110	0xbf31a515	-0.6939252
111	0xbf0826f1	-0.5318442
112	0xbf272647	-0.6529278
113	0x3e8fe448	0.28103852
114	0xbe7d8506	-0.24757776
115	0xbe91241c	-0.28347862
116	0xbf000b98	-0.5001769
117	0x3e3f2536	0.18666539
118	0xbe3deff8	-0.18548572
119	0xbd9c76d1	-0.0763985
120	0xbef44d76	-0.47715348
121	0xbf31dd3e	-0.69478214
122	0xbf69f4a3	-0.9138891
123	0xbf00648c	-0.5015342
124	0xbef23217	-0.4730384
125	0xbf396560	-0.7242031
126	0xbf2d48f2	-0.6768943
127	0xbe1ec9a6	-0.1550661
128	0xbd99ae85	-0.0750399
129	0xbee22084	-0.44165432
130	0x3e2a8e51	0.16655852
131	0xbe587a2c	-0.21140355
132	0xbf549eea	-0.83054984
133	0xbf0b6587	-0.54451793
134	0x3d85aa29	0.06526596
135	0xbe5e20ac	-0.21692151
136	0xbe25744f	-0.1615765
137	0x3e35d189	0.17755713
138	0xbef5d2e8	-0.4801247
139	0xbf32b4e0	-0.69807243
140	0xbf2da1a7	-0.67824787
141	0xbf2e593f	-0.6810493
142	0xbeb4cad5	-0.35311
143	0xbe69b041	-0.22821142
144	0xbea5acf8	-0.32358527
145	0xbe1fa682	-0.15590861
146	0xbf0e8b0b	-0.5568091
147	0xbe6177c3	-0.22018342
148	0xbe3a9693	-0.18221502
149	0xbf2cfd97	-0.6757445
150	0xbf08b118	-0.53395224
151	0xbf3111f4	-0.6916802
152	0xbed0d3d2	-0.40786606
153	0xbf4725b1	-0.7779189
154	0x3ce3c8ed	0.02780577
155	0xbeef97d7	-0.46795532
156	0xbf3597f0	-0.70934963
157	0xbf2ff2a0	-0.6872959
158	0x3db47b61	0.08812595
159	0xbf28792d	-0.658099
160	0xbf527502	-0.8220979
161	0xbe8e0620	-0.27739048
162	0xbf09a21e	-0.53762996
163	0xbf2ba2ec	-0.67045474
164	0xbe96475c	-0.29351318
165	0x3d3bb74a	0.045829095
166	0xbf0e1efc	-0.5551603
167	0xbee3d56a	-0.4449876
168	0xbef202ea	-0.47267848
169	0x3d77bebb	0.06048463
170	0x3b3ffecc	0.0029296158
171	0xbcf386f9	-0.029727446
172	0xbf25001f	-0.6445331
173	0x3d650877	0.055916276
174	0xbe996788	-0.299618
175	0xbf33e7e8	-0.70275736
176	0xbe9ab35f	-0.30214974
177	0xbdc22cfd	-0.09481237
178	0xbeb09368	-0.34487462
179	0xbe9397d2	-0.28826767
180	0xbf1ad6b6	-0.6048387
181	0xbebc6397	-0.3679473
182	0xbeb05b50	-0.34444666
183	0x3d94c90b	0.072649084
184	0xbe483482	-0.1955128
185	0xbe0fc27c	-0.14039034
186	0xbef1b9d9	-0.47212103
187	0x3eaf961c	0.34294212
188	0xbebe0b38	-0.37117934
189	0xbd6cd87e	-0.05782365
190	0xbe276304	-0.16346365
191	0x3e340c80	0.17582893
192	0xbf214274	-0.62992024
193	0xbf054e35	-0.5207246
194	0xbf032d8f	-0.5124139
195	0xbecf51af	-0.40492007
196	0xbed1629c	-0.40895545
197	0xbf37e8e8	-0.7183976
198	0xbc8484fb	-0.016176691
199	0xbf21a92d	-0.63148767
200	0xbee8da05	-0.45478836
201	0xbf1f3e02	-0.6220399
202	0xbf24f4b8	-0.6443591
203	0xbf2d35d7	-0.6766028
204	0xbf5b528a	-0.8567282
205	0x3c7d3938	0.015455537
206	0xbf2684bb	-0.6504628
207	0x3e2a0600	0.16603851
208	0xbf2fa2ef	-0.6860799
209	0xbe1c7e09	-0.15282454
210	0xbed7a8be	-0.42120928
211	0xbec46723	-0.38359937
212	0xbeb26aec	-0.348472
213	0xbef8e96c	-0.48615587
214	0xbf138e51	-0.5763903
215	0xbf254105	-0.64552337
216	0xbdfa2449	-0.12213952
217	0xbf326d00	-0.6969757
218	0xbf26cf49	-0.6516004
219	0xbf0be0dc	-0.54639983
220	0xbf102b7b	-0.56316346
221	0xbf0a212c	-0.53956866
222	0xbeeb4b96	-0.45956105
223	0xbda3216d	-0.0796536
224	0xbf253626	-0.6453575
225	0xbe333e3d	-0.17504211
226	0x3cd21883	0.025646454
227	0xbf0fffbe	-0.56249607
228	0xbed7b129	-0.4212735
229	0xbf3dd938	-0.74159575
230	0x3dc06465	0.09394149
231	0xbea9e182	-0.3317986
232	0xbf62f2e3	-0.88651866
233	0xbe9cef80	-0.30651474
234	0xbe9a299e	-0.30109876
235	0xbd80815b	-0.062746726
236	0xbf06b14b	-0.5261428
237	0xbf2d6327	-0.6772942
238	0xbf348810	-0.70520115
239	0xbf1de444	-0.6167643
240	0xbeb24cba	-0.34824163
241	0x3cbc06da	0.022952486
242	0x3dba9c1f	0.09111809
243	0xbf0e690a	-0.55629027
244	0xbe27d6ef	-0.16390584
245	0xbf357ef0	-0.70896816
246	0x3ddc1612	0.10746397
247	0xbebe9515	-0.37223116
248	0xbf5981b2	-0.84963524
249	0xbefb63f4	-0.49099696
250	0xbf1caa32	-0.611972
251	0xbf2419cf	-0.6410188
252	0xbebfad30	-0.3743682
253	0xbf1a2e18	-0.60226583
254	0xbed74690	-0.42046022
255	0x3def8b83	0.116965316

fc2.weight f4 [300, 400]
0	0xbea728c0	-0.32648277
1	0xbf742298	-0.95365286
2	0xbe6505d8	-0.2236551
3	0x3e389862	0.1802688
4	0xbe40aa50	-0.18814969
5	0xbe99bf5c	-0.30028808
6	0x3c576f83	0.013149145
7	0xbdd397a1	-0.10331655
8	0xbd254199	-0.040345762
9	0xbf47072b	-0.7774531
10	0xbe7c4fdc	-0.24639839
11	0x3e8bf926	0.27338523
12	0xbdc26de0	-0.09493613
13	0x3e36c4c3	0.17848496
14	0x3f30b345	0.69023544
15	0xbdf7d887	-0.12101846
16	0xbe1e034e	-0.15430948
17	0xbed19b0a	-0.40938598
18	0x3e246cd9	0.16057147
19	0xbf97d5c4	-1.1862111
20	0x3e98a51d	0.2981347
21	0xbf03a799	-0.5142761
22	0xbe30712f	-0.17230676
23	0x3d8dfe73	0.06933298
24	0x3e87a9f8	0.26496863
25	0xbf443447	-0.7664227
26	0xbd797f8c	-0.060912654
27	0xbc258da8	-0.010104574
28	0xbeb3191b	-0.3498009
29	0x3e28225d	0.16419359
30	0xbecb1b10	-0.39669085
31	0x3e6258ff	0.22104262
32	0xbe2a893e	-0.16653916
33	0xbe450dc1	-0.19243528
34	0x3d9bdd25	0.07610539
35	0xbe0b70d9	-0.13617267
36	0x3e7b3e5b	0.24535505
37	0x3eb2e9fd	0.34944144
38	0x3e606cca	0.219165
39	0xbcc89a58	-0.02448766
40	0x3f3b1007	0.7307133
41	0x3e1645e5	0.146751
42	0x3c8f6a4e	0.017506745
43	0x3ee858bf	0.45380208
44	0xbed29e2f	-0.4113631
45	0xbd974ecd	-0.07388077
46	0xbef40845	-0.4766256
47	0x3e719f97	0.23596035
48	0x3e2340fc	0.15942758
49	0xbe3bef97	-0.18353115
50	0x3e7706af	0.24123643
51	0x3d1a3c3a	0.037655093
52	0x3eaf8322	0.34279734
53	0x3ea3551c	0.3190087
54	0xbee0570b	-0.4381641
55	0x3d4c60c1	0.04989696
56	0xbc7d29aa	-0.015451828
57	0xbe360b90	-0.17777848
58	0x3ebb8586	0.36625308
59	0xbd211f4e	-0.039336495
60	0xbeb36083	-0.3503457
61	0x3ef5629e	0.479268
62	0xbe010fc8	-0.12603676
63	0xbeb685e1	-0.35649016
64	0x3ccf35c1	0.025294187
65	0x3e226059	0.15857066
66	0xbe75095b	-0.2392935
67	0xbd10647e	-0.035252087
68	0x3ed559c6	0.41670054
69	0x3f25f730	0.64830303
70	0x3f083c3d	0.53216916
71	0x3e9f5b99	0.3112457
72	0xbe7ea583	-0.24867825
73	0xbe9b2c3c	-0.30307186
74	0xbe0ff30c	-0.14057559
75	0x3da89397	0.082312755
76	0x3dd3120a	0.10306175
77	0xbf23b3e6	-0.6394638
78	0xbd6e0998	-0.058114618
79	0xbe1c12aa	-0.15241495
80	0x3dc93817	0.098251514
81	0xbe43bab1	-0.19114186
82	0xbf85ff10	-1.0468464
83	0xbf4fe22d	-0.8120449
84	0xbf8203a8	-1.0157366
85	0xbd2ce5b4	-0.04221125
86	0x3f193a9c	0.59855056
87	0xbcc667d1	-0.024219425
88	0xbf035399	-0.51299435
89	0x3eb7fd5b	0.35935482
90	0x3eecde3f	0.4626331
91	0xbd269b97	-0.040675726
92	0x3efc5875	0.49286237
93	0xbe65bd02	-0.22435382
94	0xbd82ca74	-0.06386271
95	0xbe78e995	-0.24307854
96	0x3ed496ad	0.41521206
97	0xbd1ddc25	-0.038540024
98	0xbebca2d0	-0.36842966
99	0xbef66ab4	-0.48128283
100	0x3e9204e5	0.2851936
101	0xbedbc90d	-0.42926827
102	0x3eefcddd	0.4683675
103	0xbe7a3b0b	-0.24436586
104	0x3e4fe331	0.2030151
105	0xbe991f3c	-0.29906642
106	0xbefdd4ed	-0.49576512
107	0xbdf53b62	-0.11974217
108	0x3df5d30b	0.12003144
109	0xbe3a85c5	-0.18215092
110	0x3ea6bafb	0.3256453
111	0x3d9b9fc9	0.07598836
112	0xbd7688f3	-0.0601892
113	0xbed0c57d	-0.40775672
114	0xbcb3e33b	-0.021958938
115	0xbe9112ff	-0.28334805
116	0xbec4c467	-0.38431093
117	0x3e215cb4	0.1575802
118	0xbd3c8fe2	-0.046035655
119	0xbe93095d	-0.2871808
120	0x3f45e88a	0.7730795
121	0xbeb59233	-0.35463104
122	0x3e209826	0.1568304
123	0x3f64c94d	0.8936966
124	0x3e9e74c4	0.3094846
125	0xbe336958	-0.17520654
126	0x3d985b49	0.07439286
127	0xbe93f705	-0.28899398
128	0x3e669f72	0.22521761
129	0x3e9c48b7	0.30524227
130	0xbee64bff	-0.44979855
131	0xbf1c03de	-0.609434
132	0xbe2072a7	-0.15668736
133	0x3e591745	0.21200283
134	0x3f4b4e9e	0.79416835
135	0xbf7d7241	-0.9900246
136	0xbf119e65	-0.56882316
137	0xbed5540c	-0.41665685
138	0x3e0698d1	0.13144232
139	0x3eab186f	0.3341708
140	0xbe9ff286	-0.31239718
141	0x3e1fac36	0.15593037
142	0xbf0f5214	-0.55984616
143	0xbf8b9013	-1.0903343
144	0x3e78c556	0.24294028
145	0x3d8fc073	0.07019129
146	0xbdd5ec6a	-0.10445483
147	0xbee5f998	-0.44916987
148	0x3e9b9576	0.30387467
149	0x3d121ac6	0.035670064
150	0x3e316f1d	0.17327543
151	0x3f2236ce	0.63364875
152	0x3afd808c	0.0019340678
153	0xbe3f83c8	-0.18702614
154	0xbea63a50	-0.32466364
155	0x3ede5f4c	0.4343208
156	0xbbbba5f0	-0.0057265684
157	0x3e0c1d2c	0.13683003
158	0xbe4b1b1e	-0.19834563
159	0x3dc522cb	0.09625777
160	0xbe5bc6f1	-0.21462609
161	0x3dbf0c75	0.09328548
162	0xbe54371b	-0.20724146
163	0x3f41ad63	0.7565519
164	0xbc5ce5ac	-0.013482492
165	0x3ec36f23	0.38170728
166	0xbc07d6c4	-0.00829095
167	0x3efc9739	0.49334124
168	0x3c29d09a	0.010364676
169	0xbeea1bc8	-0.4572432
170	0x3e814c3f	0.25253484
171	0xbe10d7a0	-0.14144754
172	0x3f5b8445	0.857487
173	0xbe87395a	-0.26410943
174	0x3d9020e7	0.070375256
175	0xbe3eaa97	-0.18619762
176	0x3e85d947	0.26142332
177	0x3e614e99	0.22002639
178	0x3e4b4ebe	0.19854257
179	0x3eb0267c	0.3440436
180	0xbed6abea	-0.41928035
181	0x3f12e1ba	0.5737568
182	0xbda9e0b6	-0.08294813
183	0x3dc91fa6	0.098204896
184	0xbe90b2b1	-0.2826133
185	0xbd43ccb5	-0.047802646
186	0xbf0c27ad	-0.5474804
187	0xbee2343f	-0.44180486
188	0xbeb4b497	-0.3529403
189	0x3e839e20	0.25706577
190	0xbf464732	-0.77452385
191	0x3f37bce9	0.7177263
192	0x3dd4deac	0.10394034
193	0x3ec76f20	0.3895197
194	0xbdf05df1	-0.11736668
195	0xbf81859f	-1.0118903
196	0xbdb62a42	-0.08894779
197	0x3d3a4597	0.045476522
198	0xbe2b9053	-0.16754274
199	0xbea0b792	-0.31390053
200	0xbeb8cade	-0.36092275
201	0x3eac7e4c	0.33690107
202	0x3d32cb5a	0.043650962
203	0x3dd8102a	0.10549958
204	0xbdd56ad2	-0.10420765
205	0xbdb908bf	-0.09034871
206	0x3de086f1	0.10963238
207	0x3ed87a91	0.4228101
208	0x3d68895a	0.056771614
209	0x3edef1d7	0.43543884
210	0xbe606944	-0.21915156
211	0xbd8c02ac	-0.06836447
212	0x3ed179ef	0.4091334
213	0x3dd0b919	0.101915546
214	0x3e6c2fdf	0.23065136
215	0xbe428910	-0.18997598
216	0x3e7c54e4	0.24641758
217	0xbe227edf	-0.1586871
218	0x3e72ec5b	0.23722975
219	0x3f08ad21	0.53389174
220	0xbf0aee1a	-0.54269564
221	0x3dd16b66	0.10225563
222	0x3e2105c9	0.15724863
223	0x3d21295b	0.03934608
224	0x3eba1daa	0.36350757
225	0xbe558be2	-0.20854142
226	0x3e986257	0.29762527
227	0x3e4505a5	0.19240434
228	0xbf30693d	-0.6891058
229	0xbda4a736	-0.080397055
230	0xbe9c1484	-0.30484402
231	0xbf13304c	-0.5749557
232	0xbe617fca	-0.22021404
233	0x3f374c46	0.7160076
234	0x3f17c235	0.5928071
235	0x3ecad7e2	0.3961783
236	0xbd9f2592	-0.07770838
237	0xbea00f6e	-0.31261772
238	0xbe84f6b5	-0.25969473
239	0xbf122720	-0.5709095
240	0x3d70c69b	0.058783155
241	0xbeb6ef35	-0.35729375
242	0xbb055c77	-0.0020349303
243	0x3e3646eb	0.1780049
244	0x3df57eee	0.119871005
245	0xbe87335c	-0.26406372
246	0xbf5950c5	-0.8488887
247	0xbdf7b4bf	-0.120950215
248	0x3e549bc9	0.20762552
249	0xbf3e8ec2	-0.7443658
250	0x3e8013f4	0.25015223
251	0xbe52775a	-0.20553342
252	0xbe8649c4	-0.26228154
253	0x3ebc835e	0.36818975
254	0x3dada38f	0.08478462
255	0x3f4a2a5a	0.78970873

fc2.bias f4 [300]
0	0xbe475600	-0.194664
1	0x3e98c986	0.2984125
2	0xbe0f3211	-0.13983943
3	0xbe70a864	-0.23501736
4	0xbd4b13a4	-0.049579278
5	0xbac82579	-0.0015269957
6	0x3f26bf3a	0.6513554
7	0xbec51063	-0.38489065
8	0x3f8a8df3	1.082457
9	0x3f80ae12	1.0053122
10	0xbeb2b00b	-0.34899935
11	0x3cb44be7	0.02200885
12	0x3cf41150	0.029793411
13	0xbf207d41	-0.6269112
14	0x3f2d5864	0.67713
15	0x3dc31a97	0.09526556
16	0x3e0a7980	0.13522911
17	0x3d908f50	0.07058585
18	0xbde25959	-0.11052198
19	0x3f4c4686	0.7979511
20	0xbdd18de7	-0.10232144
21	0x3e056e3e	0.13030335
22	0xbe11d016	-0.14239535
23	0xbf33fe5e	-0.7031001
24	0xbe9408d8	-0.28912997
25	0xbdebb486	-0.115090415
26	0x3f666d96	0.90010965
27	0xbed96bbf	-0.42465016
28	0x3f271a11	0.6527415
29	0x3f892c2b	1.0716604
30	0xbed655f5	-0.41862455
31	0x3f88e541	1.0694963
32	0x3f9353c1	1.1509935
33	0xbe2a50fa	-0.16632453
34	0x3f63e632	0.89023125
35	0x3f7b41ab	0.98147076
36	0x3f823d3e	1.017494
37	0xbe6f6f85	-0.23382385
38	0xbee62ab5	-0.44954458
39	0xbddbe697	-0.10737341
40	0x3e258a74	0.16166097
41	0x3f96e60a	1.1788952
42	0xbecbc571	-0.39799073
43	0x3f9982dd	1.1993061
44	0x3cdf4f18	0.027259395
45	0x3d8c568f	0.06852447
46	0x3f9736d1	1.1813604
47	0xbe2f7272	-0.17133501
48	0x3e7cbfac	0.24682492
49	0xbe8e9a2e	-0.27852005
50	0x3e88a77d	0.26690283
51	0x3c2126e2	0.009835931
52	0xbefdd390	-0.49575472
53	0x3f99e2e3	1.2022365
54	0x3ea70baa	0.32626086
55	0x3fad3c1a	1.3533967
56	0x3e8bf7e2	0.27337557
57	0xbe23ed30	-0.16008449
58	0xbc8dadd5	-0.017294804
59	0x3f7c0d97	0.98458236
60	0xbed44343	-0.41457567
61	0x3e46c088	0.19409382
62	0x3fc47e3a	1.5351021
63	0xbe9e0f0b	-0.30870852
64	0x3c5f1532	0.013615893
65	0xbf34f09c	-0.7067964
66	0xbd8e3e08	-0.06945425
67	0x3e5d51db	0.21613257
68	0x3da89c68	0.08232957
69	0x3dd50e6f	0.104031436
70	0xb978a58e	-0.00023712797
71	0xbf0dcf33	-0.55394286
72	0xbe2a2b1c	-0.16618007
73	0xbe899538	-0.26871657
74	0xbf40431a	-0.7510239
75	0x3f26d026	0.6516136
76	0x3f99ff0b	1.2030958
77	0xbeb60ce6	-0.35556716
78	0xbd967128	-0.073458016
79	0xbe5ddc7a	-0.21666136
80	0x3e98320b	0.2972568
81	0xbe7cfcbc	-0.24705786
82	0x3e61c24b	0.22046773
83	0xbf162625	-0.58651954
84	0xbea8e72e	-0.32988876
85	0xbbb7dafe	-0.0056108227
86	0xbd7bba16	-0.061456762
87	0xbeb38198	-0.3505981
88	0x3d9fadde	0.077968344
89	0x3e7c8ceb	0.24663131
90	0xbc241675	-0.01001512
91	0xbe9d2f0e	-0.30699962
92	0xbe995492	-0.29947335
93	0x3da079cc	0.07835731
94	0x3db5b004	0.08871463
95	0x3f845619	1.0338775
96	0xbec1dc1f	-0.37863252
97	0x3d60b4d9	0.05485997
98	0x3f3d9d61	0.74068266
99	0xbe38a79f	-0.18032692
100	0xbe9451ab	-0.28968558
101	0x3f822a77	1.0169209
102	0x3e058c10	0.13041711
103	0xbeac8109	-0.33692196
104	0xbf063efb	-0.5243985
105	0x3e0bd119	0.13653983
106	0xbf228bdc	-0.6349466
107	0xbe86ee22	-0.26353556
108	0xbebf29ab	-0.37336478
109	0x3df8942e	0.12137638
110	0x3e560e4a	0.20903888
111	0xbec589bc	-0.38581645
112	0xbe784ab2	-0.24247244
113	0x3fa01eb0	1.2509365
114	0xbdd7e213	-0.10541167
115	0x3f5a6475	0.85309535
116	0xbeae95d6	-0.3409869
117	0xbe885251	-0.26625302
118	0xbe51fcfe	-0.20506665
119	0xbdaabeb1	-0.08337153
120	0x3e01a27e	0.12659642
121	0x3c691ea1	0.014228494
122	0xbea809ee	-0.32820076
123	0xbd6f71e9	-0.058458243
124	0xbeb976a3	-0.36223325
125	0x3f8bbe78	1.0917501
126	0xbea1eeb6	-0.31627434
127	0xbd084b12	-0.033274718
128	0xbe3e06b5	-0.18557246
129	0x3e15ace0	0.14616728
130	0xbec53d27	-0.38523218
131	0xbe86f2e7	-0.26357195
132	0xbea908ba	-0.3301447
133	0x3f904cb3	1.1273407
134	0xbf119ce3	-0.56880015
135	0x3fab2b36	1.3372562
136	0xbe75e0bd	-0.24011512
137	0x3f839fed	1.028318
138	0x3e4d5250	0.20050931
139	0x3e82a58f	0.25516936
140	0xbe7ffcb6	-0.24998745
141	0xbde5eaf8	-0.11226457
142	0xbe8b7255	-0.27235666
143	0x3eac60e5	0.33667675
144	0xbed92405	-0.42410293
145	0x3fa8cae3	1.3186916
146	0xbe77dc31	-0.2420509
147	0x3eded4af	0.4352164
148	0xbe8bbd93	-0.2729307
149	0x3d441a41	0.0478766
150	0x3eb72f9a	0.35778505
151	0xbdd3ed80	-0.10348034
152	0xbe213cfe	-0.15745923
153	0x3e76965d	0.24080797
154	0xbc27a421	-0.0102320025
155	0x3e13dcf2	0.14439753
156	0x3f8dd340	1.1080093
157	0x3df69f9f	0.12042164
158	0xbd259e8c	-0.040434405
159	0xbea733e0	-0.32656765
160	0x3e023ee2	0.127193
161	0xbf18e6fb	-0.5972745
162	0x3e7f748b	0.24946801
163	0xbe5a31b9	-0.2130803
164	0xbe8390aa	-0.25696307
165	0xbf02e0c7	-0.51124233
166	0x3ea9c2b7	0.33156368
167	0xbe9514af	-0.29117343
168	0x3f3122e0	0.6919384
169	0x3e65f765	0.22457655
170	0x3f9d8ac2	1.230797
171	0x3f5e5820	0.8685322
172	0x3da86e19	0.082241245
173	0xbea47a3e	-0.32124513
174	0x3d03b6a8	0.032156616
175	0x3dbe6271	0.0929612
176	0x3f185f4a	0.595204
177	0xbf1e2ea1	-0.617899
178	0x3ca4e5fb	0.020129194
179	0x3f948075	1.1601702
180	0x3fbef083	1.4917148
181	0x3ef2ab33	0.4739624
182	0xb9bfac7a	-0.00036558864
183	0xbea42d00	-0.32065582
184	0xbeba38d4	-0.3637148
185	0xbdd5385d	-0.10411141
186	0x3f803e95	1.0019099
187	0x3f069073	0.5256416
188	0xbeaa5f59	-0.3327587
189	0x3c1cb241	0.009563983
190	0xbf103864	-0.56336045
191	0x3ea8b307	0.32949087
192	0xbe9b1147	-0.3028662
193	0x3f61c3be	0.88189304
194	0x3f83d1b7	1.0298375
195	0xbf1d7abd	-0.6151541
196	0x3f15ed20	0.5856495
197	0xbd86dad8	-0.0658471
198	0xbea147f1	-0.315002
199	0x3f79e499	0.9761444
200	0xbf246a67	-0.6422486
201	0xbdc4f453	-0.09616914
202	0x3f84c5a3	1.0372814
203	0xbf01c0e7	-0.5068497
204	0xbe8b27b0	-0.27178717
205	0x3fabfaee	1.3435953
206	0xbec3b650	-0.3822503
207	0xbe601e09	-0.21886458
208	0x3e560ecd	0.20904084
209	0x3cf7f6ad	0.030268991
210	0x3f99df21	1.2021219
211	0xbdcd314b	-0.100191675
212	0xbf03aa3e	-0.51431644
213	0x3cdd139a	0.026986886
214	0x3f99a2f4	1.2002854
215	0x3e94b6be	0.2904567
216	0xbee4b4e7	-0.44669268
217	0xbd822e6f	-0.06356513
218	0x3f0df51f	0.5545215
219	0x3af58410	0.0018731374
220	0x3f6ec118	0.9326339
221	0xbe92dcba	-0.28684026
222	0xbea6f60d	-0.32609597
223	0x3f81e0fc	1.0146785
224	0x3c645eee	0.013938649
225	0x3f9e0331	1.2344724
226	0xbf2ff1e2	-0.6872846
227	0x3f53de30	0.82760906
228	0xbeb7dd9a	-0.35911256
229	0x3bfffe07	0.007812265
230	0xbeb17e97	-0.34666893
231	0xbeeddec7	-0.46459028
232	0xbd6e23c7	-0.05813959
233	0xbe979503	-0.29605874
234	0xbdd7791e	-0.10521148
235	0x3f93794f	1.1521395
236	0x3efb9d62	0.4914351
237	0xbef570b3	-0.47937545
238	0x3f800218	1.0000639
239	0x3e415bba	0.18882647
240	0x3e0009a0	0.12503672
241	0x3f28fe8b	0.660134
242	0x3fb5ee7b	1.4213403
243	0x3d06cb73	0.032908868
244	0xbe9223a4	-0.28542817
245	0xbee6f0ca	-0.45105582
246	0xbebd7b90	-0.37008333
247	0x3f86c996	1.0530269
248	0xbe8a92ac	-0.27065027
249	0xbe2bb8df	-0.16769741
250	0x3f53e19f	0.82766145
251	0x3ee1868f	0.44047973
252	0x3c97f934	0.018551446
253	0xbee31f1a	-0.44359666
254	0xbec2fcf8	-0.38083625
255	0x3e6c357c	0.23067278

bn2.weight f4 [300]
0	0x3f2a43ee	0.665099
1	0x3fb26fee	1.3940408
2	0x3f8f3589	1.1188213
3	0x3f9d9144	1.2309957
4	0x3f8f327f	1.1187285
5	0x3f85f68e	1.0465868
6	0x3f6a7483	0.9158403
7	0x4001cc52	2.0280957
8	0x3f86b947	1.0525292
9	0x3f7ff69b	0.99985665
10	0x3fd107cf	1.6330508
11	0x3f64cfe7	0.89379734
12	0x3fc3241a	1.5245392
13	0x3fb2c8c3	1.3967518
14	0x3f7a1876	0.97693574
15	0x3f9129f5	1.1340929
16	0x3fb615e6	1.4225433
17	0x3fd5de4d	1.6708466
18	0x3faf222d	1.3682305
19	0x3f813fe3	1.0097622
20	0x3f611202	0.879181
21	0x3fd800e9	1.6875278
22	0x3f918e02	1.1371462
23	0x3fc88a3e	1.5667188
24	0x3f696c7d	0.91181165
25	0x4015231b	2.3302677
26	0x3f840618	1.031436
27	0x3fd440f4	1.6582322
28	0x3f7531aa	0.95778906
29	0x3f85d42d	1.0455376
30	0x3fbaffd0	1.4609318
31	0x3f86bc91	1.0526296
32	0x3f83643a	1.0264962
33	0x3ffe0544	1.9845357
34	0x3f7e4482	0.99323285
35	0x3f809c11	1.0047628
36	0x3f80544a	1.0025723
37	0x3f8d3ada	1.1033585
38	0x40004913	2.00446
39	0x3fcbcc61	1.5921746
40	0x3fcc54a0	1.5963326
41	0x3f875dca	1.0575497
42	0x3f86db14	1.0535607
43	0x3f87dada	1.0613663
44	0x3f648476	0.8926462
45	0x3f1fe6d5	0.62461597
46	0x3f77ad38	0.96748686
47	0x3f82f30a	1.023042
48	0x3fbf6df0	1.4955425
49	0x3f591fe2	0.84814274
50	0x3f64d27a	0.8938366
51	0x3ff12e06	1.884217
52	0x3fb76a4d	1.4329315
53	0x3f8723ae	1.0557764
54	0x3f62a3c9	0.88531166
55	0x3f8b0082	1.085953
56	0x3f97e2e6	1.1866119
57	0x3ff016fb	1.8757013
58	0x3fbf13e1	1.4927942
59	0x3f826f9a	1.0190308
60	0x3fb1f869	1.3903934
61	0x3fb250b7	1.3930882
62	0x3f8fb9a3	1.1228527
63	0x3f8a9e68	1.0829592
64	0x3fa82f03	1.3139347
65	0x3fd18a13	1.6370262
66	0x3f4f2f61	0.8093167
67	0x3f93f94a	1.1560452
68	0x3fb97045	1.4487387
69	0x3fdb9360	1.715435
70	0x3f638f11	0.88890177
71	0x3fe71a2a	1.805486
72	0x3ff7da87	1.9363564
73	0x3f4ec540	0.8076973
74	0x3faacaa3	1.334309
75	0x3f743172	0.9538795
76	0x3f87308a	1.0561688
77	0x3efcf324	0.49404252
78	0x3f699726	0.9124626
79	0x3f81ed8a	1.0150616
80	0x3f673ad5	0.90324146
81	0x3fc5a325	1.5440413
82	0x3f6dba1b	0.928621
83	0x3f918931	1.1369992
84	0x3fb1b07a	1.3881981
85	0x3fdbf544	1.7184224
86	0x3f9ea029	1.2392627
87	0x3f8dcc03	1.1077884
88	0x400829c3	2.127549
89	0x3fa9753f	1.3238906
90	0x3fd21c75	1.6414934
91	0x3f4afba0	0.792902
92	0x3f94cdd1	1.162531
93	0x3fed0ffc	1.8520503
94	0x3f631d12	0.8871623
95	0x3f845ce7	1.0340852
96	0x3f91ae2d	1.1381279
97	0x3fbd9e54	1.4813943
98	0x3f75fb69	0.96086746
99	0x3fdd3824	1.7282758
100	0x3fabaf36	1.3412845
101	0x3f810216	1.0078762
102	0x3f6756d1	0.90366846
103	0x3f97f9a9	1.1873065
104	0x3f4a9765	0.7913726
105	0x3f839843	1.0280842
106	0x3fb3eff7	1.4057606
107	0x3fa83087	1.3139809
108	0x3f9e21b1	1.2354032
109	0x3f98f4f0	1.1949749
110	0x3fc2d072	1.5219862
111	0x3f84ae72	1.0365736
112	0x3f3bd278	0.73368025
113	0x3f7fb1b6	0.9988054
114	0x3f821df3	1.016539
115	0x3f796dd0	0.97433186
116	0x3fce25d8	1.6105299
117	0x3fb38820	1.4025917
118	0x3f852d64	1.0404477
119	0x3fafecf1	1.3744184
120	0x3fd37d4d	1.6522614
121	0x3fb17c50	1.3866062
122	0x3faa2235	1.3291689
123	0x3fb0cf2d	1.3813225
124	0x3f95c433	1.17005
125	0x3f82da5a	1.0222886
126	0x3f9ca535	1.2237917
127	0x3f43a559	0.76424176
128	0x3f2a8016	0.66601694
129	0x3f5d6986	0.8648914
130	0x3f6a6e34	0.91574407
131	0x3f914c6b	1.1351446
132	0x3f85026c	1.0391364
133	0x3f85ecdf	1.0462912
134	0x3fb9f9c7	1.4529351
135	0x3f8a663a	1.0812447
136	0x3fabead1	1.3431035
137	0x3f8336fc	1.0251155
138	0x3fbdb35a	1.4820359
139	0x3fa91e02	1.3212283
140	0x3f8c1ee2	1.0946925
141	0x3fabaf7c	1.3412929
142	0x3f5d4723	0.8643667
143	0x3f638128	0.8886895
144	0x3fadd4ee	1.3580606
145	0x3f887b1d	1.0662571
146	0x3f95b2de	1.1695211
147	0x3f577d71	0.84175783
148	0x3f87ebda	1.0618851
149	0x3f7cd995	0.98769504
150	0x3fa42092	1.282244
151	0x3fa1b616	1.2633693
152	0x3fdd9e63	1.7313961
153	0x3f5ba780	0.8580246
154	0x3fc1749d	1.5113713
155	0x3f833165	1.0249449
156	0x3f8111b4	1.0083528
157	0x3fe0496a	1.7522404
158	0x3fa5038a	1.2891705
159	0x3f97b4cf	1.1852053
160	0x3fce3dcf	1.6112612
161	0x3f9fa09a	1.2470887
162	0x3fa5876c	1.2931952
163	0x3f201676	0.6253427
164	0x3fbf8685	1.4962927
165	0x3fd824d7	1.6886243
166	0x3fa3a972	1.2786086
167	0x3fa67bc8	1.3006525
168	0x3f79b772	0.9754554
169	0x3f629dbc	0.88521934
170	0x3f8762e9	1.057706
171	0x3f77221a	0.9653641
172	0x3f746b2a	0.9547602
173	0x3f994d65	1.1976744
174	0x3fe5bced	1.794828
175	0x3f605aea	0.87638724
176	0x3f6d8e44	0.92795205
177	0x3fc9b80d	1.5759293
178	0x3fd3f8db	1.656032
179	0x3f8659f9	1.0496207
180	0x3f8171ed	1.0112892
181	0x3fbeef10	1.4916706
182	0x3f82b16d	1.0210396
183	0x3f45b4fe	0.772293
184	0x3f8544dd	1.041164
185	0x3fbbc92d	1.4670769
186	0x3f85fc01	1.046753
187	0x3f6f541f	0.93487734
188	0x3fc28e40	1.5199661
189	0x3f843a3b	1.033027
190	0x3ff62a61	1.9231683
191	0x3f6bdcdf	0.921339
192	0x3fa7b712	1.3102744
193	0x3f7e25fe	0.9927672
194	0x3f726f52	0.9470111
195	0x3f86f8a8	1.0544634
196	0x3f71a3cf	0.9439058
197	0x3f971291	1.1802541
198	0x3f635764	0.8880522
199	0x3f80c622	1.0060465
200	0x3f8b869e	1.0900457
201	0x3f8f0860	1.1174431
202	0x3f847ac1	1.0349962
203	0x403025a1	2.7522967
204	0x3f8dd258	1.1079817
205	0x3f84bb87	1.0369729
206	0x3f8d2d0c	1.1029372
207	0x3fbde007	1.4833993
208	0x3f9991db	1.1997637
209	0x3faa73b5	1.3316561
210	0x3f874941	1.056923
211	0x3fcd865b	1.6056627
212	0x3fbc7cb1	1.4725553
213	0x3f31ea01	0.69497687
214	0x3f8956a9	1.0729572
215	0x3fa4ca05	1.2874151
216	0x3fcac3e4	1.5841031
217	0x3f9825ea	1.188657
218	0x3f76bf87	0.96386
219	0x3f927df4	1.1444688
220	0x3f82283c	1.0168529
221	0x3fd1f815	1.6403834
222	0x3fed3381	1.8531343
223	0x3f8270a2	1.0190623
224	0x3f26a55e	0.6509608
225	0x3f85f82e	1.0466363
226	0x3fb96387	1.4483498
227	0x3f80d7e6	1.0065887
228	0x3f447d1a	0.7675339
229	0x3fed002c	1.8515677
230	0x3f76b57c	0.96370673
231	0x3f7af81b	0.9803483
232	0x3f8ccd9f	1.100025
233	0x3fb731a9	1.431203
234	0x3fb999b3	1.450003
235	0x3f82abc1	1.0208665
236	0x3faf84a7	1.3712357
237	0x40009733	2.0092285
238	0x3f81e579	1.0148154
239	0x3fafc8a3	1.3733104
240	0x3f33543b	0.700504
241	0x3f71e0da	0.9448372
242	0x3f8077cd	1.003656
243	0x3f80532f	1.0025386
244	0x3f96d436	1.1783512
245	0x3fcaaee8	1.5834627
246	0x3f89fb4a	1.0779812
247	0x3f82cc06	1.0218513
248	0x3f91131e	1.1333959
249	0x3fbafcf4	1.4608445
250	0x3f80796b	1.0037054
251	0x3f695968	0.9115205
252	0x3fbbc774	1.4670243
253	0x3f559759	0.83434063
254	0x3f493ac0	0.7860527
255	0x3f57366f	0.84067434
