Zadanie3/srcV2/models/Zadanie 3/target_actor_network.pth (torch, 506963 bytes, 10 tensors)

fc1.weight f4 [400, 8]
-0.0480784 -0.015937388 -0.033409417 0.038937654 0.036032427 0.011863243 0.040625256 0.024075706
-0.04710113 -0.0050027557 -0.008116115 -0.030358166 0.014240544 -0.015605666 -0.023908943 -0.00058286637
-0.033243507 0.04138257 0.03163903 0.047329683 -0.0088559985 0.016329754 -0.0020111017 -0.04137398
0.02262086 -0.034924604 -0.018049061 -0.022391213 -0.048778456 0.0017934218 0.008191191 -0.0037172139
0.036772672 0.002397377 -0.009107418 -0.027272148 -0.029695261 -0.007108532 -0.029345214 -0.03298365
-0.006613124 -0.0088282935 -0.030521138 0.029214483 0.04240385 -0.034091413 0.021900464 -0.023200518
-0.0051917024 0.046675224 0.006398 -0.047673684 0.04596444 -0.0021154694 -0.025036698 -0.026405502
0.042876642 0.00084386393 0.027616743 0.032861408 -0.019406576 0.004243888 -0.03234277 0.041752685
-0.02643971 0.03321101 0.012668449 0.03084338 -0.03522849 -0.0015549436 0.02590799 -0.0019957647
-0.00071742013 0.024365235 -0.037370093 -0.010024447 0.022774588 0.024522435 0.046439122 -0.009890806
0.011846941 -0.02460134 -0.0083917305 -0.025100851 0.037053484 0.00030457228 0.020340648 0.027502302
0.009317417 0.005320944 -0.0036595762 -0.042353746 0.008055873 -0.011077207 -0.04202642 0.046584193
-0.005330421 -0.024954338 -0.04867586 -0.046052326 0.019040171 -0.022825224 -0.021598656 -0.02893107
0.04036035 -0.012019433 0.032409105 0.039694045 -0.038765084 0.037302252 -0.009547889 0.047888447
0.025539134 -0.04843414 0.009288937 0.017576281 -0.018138625 0.037915524 -0.041406255 -0.015865296
0.04764149 0.04883236 0.024977107 -0.029847313 -0.043020066 -0.040653437 -0.01249937 0.028324809
0.015830014 -0.0060720444 0.04496753 0.0392634 -0.02336911 -0.021652812 -0.00058662146 0.010375895
-0.00035793707 0.019303184 0.03449739 -0.009015609 0.024554592 0.0068002753 0.01919261 0.02058402
-0.013364129 -0.022292996 0.021371756 -0.03201257 0.02625012 -0.032081045 0.034301747 0.020061973
-0.0122492425 0.028579686 -0.016466301 0.010652214 0.014721189 0.005106427 0.0100408085 -0.0009926036
-0.014444798 0.027895484 0.019721556 0.01864976 0.03375576 -0.026160998 -0.011616908 -0.001425147
0.040349226 -0.039815538 -0.028679967 -0.011910003 -0.042710043 -0.039503478 0.034251053 0.0023324378
-0.04022383 -0.008255951 -0.001643844 -0.017775804 -0.041822426 0.027211819 -0.0061755776 0.048816647
-0.03829336 -0.027449375 -0.0025976487 -0.034818806 0.036438625 0.038666274 0.045296725 -0.03156308
0.03557503 0.03471667 -0.019894755 0.0054865256 0.023826037 0.03577948 -0.046699848 0.04977874
-0.012571104 0.020372245 -0.03105445 -0.038477164 -0.033861745 0.029467743 -0.02466333 0.029065523
0.015115712 0.019888837 -0.011121206 -0.015816163 -0.023394018 -0.027948415 0.046101566 -0.002717305
-0.021441776 -0.046520244 0.0021751598 -0.049631882 -0.00058876723 0.03157038 -0.028798444 0.027471993
-0.01594951 -0.038455516 -0.04952195 0.024838973 -0.03825463 0.024413843 0.0071589425 0.027174715
-0.03758456 0.043724705 -0.049801566 -0.03795176 0.029984389 0.0016992986 -0.028076751 -0.010488231
-0.044496745 -0.04351545 -0.010727305 0.038142618 0.014932249 0.009428542 -0.013251416 0.045508627
0.00047886372 0.01688264 0.0007947087 0.0078022964 0.01667336 0.038369033 0.028780404 0.006398935
00000000: dbed 44bd 208f 82bc 50d8 08bd 177d 1f3d
00000010: bd96 133d 0c5e 423c ab66 263d 6a3a c53c
00000020: 1ded 40bd 28ee a3bb 74f9 04bc b0b1 f8bc
00000030: 2c51 693c e8ae 7fbc b0dc c3bc 80cb 18ba
00000040: 582a 08bd c580 293d ed97 013d c5dc 413d
00000050: c018 11bc fac5 853c b0cc 03bb c377 29bd
00000060: 624f b93c 1a0d 0fbd a0db 93bc c76d b7bc
00000070: ebcb 47bd 4011 eb3a 5834 063c 809c 73bb
00000080: f19e 163d 501d 1d3b 4837 15bc d769 dfbc
00000090: 7a43 f3bc b0ee e8bb 6065 f0bc dd19 07bd
000000a0: e8b2 d8bb 8ca4 10bc 7707 fabc 3653 ef3c
000000b0: a9af 2d3d 70a3 0bbd 9a68 b33c 030f bebc
000000c0: 281f aabb 852e 3f3d 50a6 d13b 7b45 43bd
000000d0: 3545 3c3d b0a3 0abb c319 cdbc 5a50 d8bc
000000e0: 6b9f 2f3d c036 5d3a 823c e23c af99 063d
000000f0: 8afa 9ebc 5010 8b3b da79 04bd dd04 2b3d
00000100: 1798 d8bc 4508 083d 548f 4f3c 42ab fc3c
00000110: c04b 10bd 40cf cbba fe3c d43c 60cb 02bb
00000120: 4011 3cba 9a99 c73c 6211 19bd 943d 24bc
00000130: c691 ba3c 46e3 c83c f336 3e3d 0c0d 22bc
00000140: ac19 423c c088 c9bc 787d 09bc 4da0 cdbc
00000150: 65c5 173d 00af 9f39 6ea1 a63c 824c e13c
00000160: 14a8 183c 505b ae3b 80d5 6fbb 1f7b 2dbd
00000170: c8fc 033c 2c7d 35bc e523 2cbd 11cf 3e3d
00000180: d0aa aebb 0a6d ccbc 5760 47bd 5da1 3cbd
00000190: 22fa 9b3c f7fb babc aaef b0bc da00 edbc
000001a0: e550 253d 28ed 44bc 69bf 043d 3996 223d
000001b0: 23c8 1ebd 3fca 183d c06e 1cbc ad26 443d
000001c0: 7237 d13c e062 46bd a030 183c 22fc 8f3c
000001d0: 7497 94bc 4f4d 1b3d 9b99 29bd f0f7 81bc
000001e0: b923 433d 7104 483d ca9c cc3c 5a82 f4bc
000001f0: cf35 30bd 3884 26bd 28ca 4cbc 6e09 e83c
00000200: f2ad 813c 00f8 c6bb df2f 383d a9d2 203d
00000210: 9370 bfbc 3d61 b1bc 80c7 19ba a8ff 293c
00000220: 80a9 bbb9 b621 9e3c 234d 0d3d 34b6 13bc
00000230: b626 c93c d8d4 de3b d239 9d3c d29f a83c
00000240: 38f5 5abc cd9f b6bc d213 af3c 9d1f 03bd
00000250: 7e0a d73c 6a67 03bd fd7f 0c3d 0259 a43c
00000260: 0cb1 48bc f21f ea3c 56e4 86bc a086 2e3c
00000270: 2431 713c d053 a73b 3482 243c 401a 82ba
00000280: e0a9 6cbc 1285 e43c 1a8f a13c 62c7 983c
00000290: 7b43 0a3d 974f d6bc d854 3ebc 00cc baba
000002a0: 3b45 253d 9e15 23bd 40f2 eabc 2c22 43bc
000002b0: baf0 2ebd 66ce 21bd d54a 0c3d d0db 183b
000002c0: bec1 24bd f843 07bc 4076 d7ba 909e 91bc
000002d0: fe4d 2bbd 52eb de3c 805c cabb f7f3 473d
000002e0: 80d9 1cbd 83dd e0bc 503d 2abb 2a9e 0ebd
000002f0: ab40 153d 8760 1e3d 0f89 393d 4a48 01bd
00000300: 1fb7 113d 1133 0e3d 53fa a2bc 50c8 b33b
00000310: d22e c33c 818d 123d 5748 3fbd cbe4 4b3d
00000320: 08f7 4dbc b2e3 a63c e765 febc 3b9a 1dbd
00000330: 9db2 0abd 5666 f13c c00a cabc d21a ee3c
00000340: e4a7 773c eaed a23c b835 36bc e690 81bc
00000350: d0a4 bfbc 13f4 e4bc ffd4 3c3d d014 32bb
00000360: aaa6 afbc 038c 3ebd 208d 0e3b cd4a 4bbd
00000370: 8057 1aba f14f 013d b7ea ebbc f20c e13c
00000380: 8ca8 82bc 8883 1dbd 87d7 4abd 1a7b cb3c
00000390: e3b0 1cbd 8aff c73c 9095 ea3b 829d de3c
000003a0: 45f2 19bd ad18 333d bafc 4bbd 4e73 1bbd
000003b0: d2a1 f53c 00bb de3a 3701 e6bc d4d6 2bbc
000003c0: 3842 36bd 423d 32bd 94c1 2fbc 6f3b 1c3d
000003d0: 64a6 743c 2c7a 1a3c 781c 59bc 4167 3a3d
000003e0: 0010 fb39 764d 8a3c 0054 503a 68aa ff3b
000003f0: 9296 883c d928 1d3d e2c4 eb3c 28ae d13b

fc1.bias f4 [400]
0.04696079 0.00033248588 0.031668168 0.03708357 -0.010591157 0.038313266 -0.012939692 0.024873715
-0.007760085 -0.039541256 -0.012746401 0.018987004 0.039940145 -0.04079982 -0.029014802 0.026059363
-0.025543077 0.0026054904 -0.034879 0.0031585991 -0.024193037 0.01116658 0.019715127 0.009588998
-0.03932209 0.037488293 0.042086754 -0.04483225 0.040951435 -0.043094855 0.02350298 -0.0029528849
-0.003996093 -0.024345512 0.039376613 0.008080639 -0.003476698 -0.0017685704 0.036240127 0.049544584
-0.02848404 -0.04434771 -0.03382604 -0.027147597 -0.040848948 -0.018044423 -0.019343084 -0.0003574714
0.01425961 0.03211761 -0.032990247 -0.035824966 -0.02177893 -0.036848746 0.0026931055 -0.03791648
-0.0023058467 -0.006842386 -0.038719088 -0.022573823 0.021855485 -0.014334105 -0.044130094 0.040678065
-0.015588779 0.0060261786 0.040208627 0.024896588 -0.040414255 0.04416446 -0.013937671 0.012754504
0.022259396 0.017452423 0.03417522 -0.02256406 0.037158813 0.031783808 -0.04385181 -0.018641733
0.04320967 -0.037111294 -0.045242198 0.03087962 0.017618854 0.0054821 0.039871093 0.0024620108
0.048753653 -0.033180684 -0.042971443 -0.010873068 0.0486081 -0.04274986 0.020627934 0.012802992
-0.02117209 -0.041004907 0.020936418 0.018751021 -0.0013077669 0.019756507 0.027342673 -0.035216004
-0.043221314 -0.008314371 -0.0071957484 -0.019205427 0.013159875 -0.038369257 0.048585523 -0.01006173
-0.02792952 -0.007989276 -0.039592028 -0.04326526 0.014470164 -0.013721652 -0.02707603 0.023059163
0.03905819 0.005606275 -0.024916017 0.02720863 -0.017219026 -0.023145312 -0.009748381 -0.012149889
0.048269544 -0.0089735165 -0.04501915 -0.015879184 0.018342253 0.021620575 -0.03354112 -0.035221208
-0.0142265335 0.0031972826 -0.041147567 0.023018282 -0.009384088 0.029085677 0.01490185 -0.007978816
-0.0045123696 0.015370075 -0.025982691 -0.012961935 0.022883091 -0.04462679 -0.009954095 0.010407917
-0.025785698 0.02367038 0.024768297 -0.007249005 -0.016065668 0.024199497 0.002816718 -0.03866156
0.028816897 0.04922167 0.04279289 -0.027581751 0.04642049 -0.020837415 -0.037888926 0.03580526
-0.035259925 0.045958254 0.04900259 -0.033605415 0.03311274 -0.009534545 -0.013000496 0.0075857043
0.018884894 -0.03403064 0.04903159 0.035034325 -0.02888654 0.023610767 0.0088769905 0.027478222
-0.0011643283 0.016915072 0.01397391 0.04672714 0.007048469 0.040755305 0.008272432 0.016104992
-0.0055685565 -0.005430393 -0.037579376 0.04806133 -0.027052099 0.026169788 0.011536144 0.032424573
-0.047321964 -0.0046645775 -0.04791942 -0.039356995 0.017656308 -0.011811949 0.03339592 0.037300717
0.000122495 -0.01484713 0.034682427 0.047673073 0.006043799 -0.041727036 0.020903993 -0.008345623
-0.036840208 0.010763664 0.0011691041 0.00074094534 0.04974405 0.025379222 0.031564664 0.0004155934
-0.009886432 0.018748906 -0.037410628 0.047249738 0.006214272 -0.046475478 -0.028872406 0.024110649
0.011539031 0.024695788 -0.049306896 -0.00024660677 0.029791255 0.027621176 0.002715379 -0.049435258
0.04369655 0.019205067 0.019531328 0.030135546 0.029550899 -0.0056478865 0.033118133 0.033977848
0.01238478 -0.038528003 0.034933437 -0.024495943 0.04264043 -0.031142646 -0.003445547 -0.019332558
00000000: f559 403d 8051 ae39 7bb6 013d f1e4 173d
00000010: 8886 2dbc 5fee 1c3d 0001 54bc f6c3 cb3c
00000020: 5048 febb 03f6 21bd 48d6 50bc a28a 9b3c
00000030: 4798 233d b61d 27bd 73b0 edbc 727a d53c
00000040: b73f d1bc e0c0 2a3b 48dd 0ebd 8000 4f3b
00000050: 7a30 c6bc 08f4 363c 9e81 a13c 2c1b 1d3c
00000060: 3310 21bd 538d 193d 2963 2c3d 05a2 37bd
00000070: b1bc 273d 3b84 30bd 5289 c03c 3085 41bb
00000080: a8f1 82bb 3d70 c7bc 5f49 213d a864 043c
00000090: 50d9 63bb 60cf e7ba 8770 143d 43ef 4a3d
000000a0: 5d57 e9bc f2a5 35bd 2c8d 0abd a364 debc
000000b0: 3a51 27bd e6d1 93bc 6375 9ebc 006b bbb9
000000c0: 24a1 693c c18d 033d c820 07bd 33bd 12bd
000000d0: ba69 b2bc b6ee 16bd d07e 303b 504e 1bbd
000000e0: b01d 17bb 1836 e0bb e897 1ebd bdec b8bc
000000f0: 460a b33c 98d9 6abc c2c1 34bd 0b9e 263d
00000100: 1468 7fbc 4077 c53b cdb1 243d eef3 cb3c
00000110: 6b89 25bd cbe5 343d d45a 64bc 44f8 503c
00000120: 5659 b63c 62f8 8e3c 51fb 0b3d 43d8 b8bc
00000130: d733 183d bd2f 023d f59d 33bd 8cb6 98bc
00000140: 9ffc 303d 0302 18bd e24f 39bd 42f7 fc3c
00000150: 6a55 903c 30a3 b33b df4f 233d b059 213b
00000160: e9b1 473d 78e8 07bd d302 30bd f424 32bc
00000170: 4919 473d 7a1a 2fbd eafb a83c a4c3 513c
00000180: 1771 adbc c3f4 27bd da82 ab3c be9b 993c
00000190: 6069 abba 66d8 a13c befd df3c a83e 10bd
000001a0: d508 31bd 0039 08bc 50ca ebbb b354 9dbc
000001b0: 849c 573c 1529 1dbd 9d01 473d f4d9 24bc
000001c0: 73cc e4bc 74e5 02bc 402b 22bd ea36 31bd
000001d0: 4414 6d3c c8d0 60bc 8dce ddbc 92e6 bc3c
000001e0: 7bfb 1f3d d8b4 b73b ad1c ccbc a2e4 de3c
000001f0: ea0e 8dbc 3d9b bdbc acb7 1fbc 5410 47bc
00000200: 49b6 453d a805 13bc 0066 38bd 1015 82bc
00000210: 7e42 963c a21d b13c 6a62 09bd 1d44 10bd
00000220: 6816 69bc 8089 513b 5a8a 28bd d690 bc3c
00000230: b8bf 19bc 1645 ee3c e426 743c 94b9 02bc
00000240: 80dc 93bb c4d2 7b3c a7d9 d4bc 4c5e 54bc
00000250: 5275 bb3c 95ca 36bd 8016 23bc f885 2a3c
00000260: 873c d3bc 62e8 c13c e2e6 ca3c 1089 edbb
00000270: 269c 83bc 063e c63c b098 383b 955b 1ebd
00000280: 6a11 ec3c a99c 493d 9947 2f3d 20f3 e1bc
00000290: 6923 3e3d 3ab3 aabc 6b31 1bbd 89a8 123d
000002a0: b66c 10bd b93e 3c3d f1b6 483d d5a5 09bd
000002b0: 39a1 073d c836 1cbc 0800 55bc 8091 f83b
000002c0: 7eb4 9a3c b663 0bbd 59d5 483d 2780 0f3d
000002d0: 77a3 ecbc 5e6b c13c cc70 113c 021a e13c
000002e0: 609c 98ba 7a91 8a3c d4f2 643c f564 3f3d
000002f0: d8f6 e63b 09ef 263d 1889 073c 9eee 833c
00000300: 7078 b6bb 70f1 b1bb d5ec 19bd f5db 443d
00000310: 5d9c ddbc 0662 d63c 1802 3d3c a1cf 043d
00000320: add4 41bd 50d9 98bb 2747 44bd cd34 21bd
00000330: f6a3 903c e886 41bc 29ca 083d a3c8 183d
00000340: 0072 0039 6041 73bc 290f 0e3d d744 433d
00000350: 100b c63b f8e9 2abd da3e ab3c 14bc 08bc
00000360: c2e5 16bd 145a 303c a03c 993a 003c 423a
00000370: 6bc0 4b3d 16e8 cf3c f349 013d 00e4 d939
00000380: b4fa 21bc 4e97 993c e33b 19bd f188 413d
00000390: 18a1 cb3b 125d 3ebd d385 ecbc b283 c53c
000003a0: 340e 3d3c d24e ca3c 07f6 49bd 004b 81b9
000003b0: ca0c f43c ce45 e23c 80f4 313b a07c 4abd
000003c0: 27fb 323d f253 9d3c 2a00 a03c d2de f63c
000003d0: ba14 f23c e811 b9bb e1a6 073d 5b2c 0b3d
000003e0: 88e9 4a3c 8acf 1dbd 5d16 0f3d b7ab c8bc
000003f0: bba7 2e3d dd1e ffbc b0ce 61bb 505f 9ebc

bn1.weight f4 [400]
1.0 1.0 1.0 1.0 1.0 1.0 1.0 1.0
1.0 1.0 1.0 1.0 1.0 1.0 1.0 1.0
1.0 1.0 1.0 1.0 1.0 1.0 1.0 1.0
1.0 1.0 1.0 1.0 1.0 1.0 1.0 1.0
1.0 1.0 1.0 1.0 1.0 1.0 1.0 1.0
1.0 1.0 1.0 1.0 1.0 1.0 1.0 1.0
1.0 1.0 1.0 1.0 1.0 1.0 1.0 1.0
1.0 1.0 1.0 1.0 1.0 1.0 1.0 1.0
1.0 1.0 1.0 1.0 1.0 1.0 1.0 1.0
1.0 1.0 1.0 1.0 1.0 1.0 1.0 1.0
1.0 1.0 1.0 1.0 1.0 1.0 1.0 1.0
1.0 1.0 1.0 1.0 1.0 1.0 1.0 1.0
1.0 1.0 1.0 1.0 1.0 1.0 1.0 1.0
1.0 1.0 1.0 1.0 1.0 1.0 1.0 1.0
1.0 1.0 1.0 1.0 1.0 1.0 1.0 1.0
1.0 1.0 1.0 1.0 1.0 1.0 1.0 1.0
1.0 1.0 1.0 1.0 1.0 1.0 1.0 1.0
1.0 1.0 1.0 1.0 1.0 1.0 1.0 1.0
1.0 1.0 1.0 1.0 1.0 1.0 1.0 1.0
1.0 1.0 1.0 1.0 1.0 1.0 1.0 1.0
1.0 1.0 1.0 1.0 1.0 1.0 1.0 1.0
1.0 1.0 1.0 1.0 1.0 1.0 1.0 1.0
1.0 1.0 1.0 1.0 1.0 1.0 1.0 1.0
1.0 1.0 1.0 1.0 1.0 1.0 1.0 1.0
1.0 1.0 1.0 1.0 1.0 1.0 1.0 1.0
1.0 1.0 1.0 1.0 1.0 1.0 1.0 1.0
1.0 1.0 1.0 1.0 1.0 1.0 1.0 1.0
1.0 1.0 1.0 1.0 1.0 1.0 1.0 1.0
1.0 1.0 1.0 1.0 1.0 1.0 1.0 1.0
1.0 1.0 1.0 1.0 1.0 1.0 1.0 1.0
1.0 1.0 1.0 1.0 1.0 1.0 1.0 1.0
1.0 1.0 1.0 1.0 1.0 1.0 1.0 1.0
00000000: 0000 803f 0000 803f 0000 803f 0000 803f
00000010: 0000 803f 0000 803f 0000 803f 0000 803f
00000020: 0000 803f 0000 803f 0000 803f 0000 803f
00000030: 0000 803f 0000 803f 0000 803f 0000 803f
00000040: 0000 803f 0000 803f 0000 803f 0000 803f
00000050: 0000 803f 0000 803f 0000 803f 0000 803f
00000060: 0000 803f 0000 803f 0000 803f 0000 803f
00000070: 0000 803f 0000 803f 0000 803f 0000 803f
00000080: 0000 803f 0000 803f 0000 803f 0000 803f
00000090: 0000 803f 0000 803f 0000 803f 0000 803f
000000a0: 0000 803f 0000 803f 0000 803f 0000 803f
000000b0: 0000 803f 0000 803f 0000 803f 0000 803f
000000c0: 0000 803f 0000 803f 0000 803f 0000 803f
000000d0: 0000 803f 0000 803f 0000 803f 0000 803f
000000e0: 0000 803f 0000 803f 0000 803f 0000 803f
000000f0: 0000 803f 0000 803f 0000 803f 0000 803f
00000100: 0000 803f 0000 803f 0000 803f 0000 803f
00000110: 0000 803f 0000 803f 0000 803f 0000 803f
00000120: 0000 803f 0000 803f 0000 803f 0000 803f
00000130: 0000 803f 0000 803f 0000 803f 0000 803f
00000140: 0000 803f 0000 803f 0000 803f 0000 803f
00000150: 0000 803f 0000 803f 0000 803f 0000 803f
00000160: 0000 803f 0000 803f 0000 803f 0000 803f
00000170: 0000 803f 0000 803f 0000 803f 0000 803f
00000180: 0000 803f 0000 803f 0000 803f 0000 803f
00000190: 0000 803f 0000 803f 0000 803f 0000 803f
000001a0: 0000 803f 0000 803f 0000 803f 0000 803f
000001b0: 0000 803f 0000 803f 0000 803f 0000 803f
000001c0: 0000 803f 0000 803f 0000 803f 0000 803f
000001d0: 0000 803f 0000 803f 0000 803f 0000 803f
000001e0: 0000 803f 0000 803f 0000 803f 0000 803f
000001f0: 0000 803f 0000 803f 0000 803f 0000 803f
00000200: 0000 803f 0000 803f 0000 803f 0000 803f
00000210: 0000 803f 0000 803f 0000 803f 0000 803f
00000220: 0000 803f 0000 803f 0000 803f 0000 803f
00000230: 0000 803f 0000 803f 0000 803f 0000 803f
00000240: 0000 803f 0000 803f 0000 803f 0000 803f
00000250: 0000 803f 0000 803f 0000 803f 0000 803f
00000260: 0000 803f 0000 803f 0000 803f 0000 803f
00000270: 0000 803f 0000 803f 0000 803f 0000 803f
00000280: 0000 803f 0000 803f 0000 803f 0000 803f
00000290: 0000 803f 0000 803f 0000 803f 0000 803f
000002a0: 0000 803f 0000 803f 0000 803f 0000 803f
000002b0: 0000 803f 0000 803f 0000 803f 0000 803f
000002c0: 0000 803f 0000 803f 0000 803f 0000 803f
000002d0: 0000 803f 0000 803f 0000 803f 0000 803f
000002e0: 0000 803f 0000 803f 0000 803f 0000 803f
000002f0: 0000 803f 0000 803f 0000 803f 0000 803f
00000300: 0000 803f 0000 803f 0000 803f 0000 803f
00000310: 0000 803f 0000 803f 0000 803f 0000 803f
00000320: 0000 803f 0000 803f 0000 803f 0000 803f
00000330: 0000 803f 0000 803f 0000 803f 0000 803f
00000340: 0000 803f 0000 803f 0000 803f 0000 803f
00000350: 0000 803f 0000 803f 0000 803f 0000 803f
00000360: 0000 803f 0000 803f 0000 803f 0000 803f
00000370: 0000 803f 0000 803f 0000 803f 0000 803f
00000380: 0000 803f 0000 803f 0000 803f 0000 803f
00000390: 0000 803f 0000 803f 0000 803f 0000 803f
000003a0: 0000 803f 0000 803f 0000 803f 0000 803f
000003b0: 0000 803f 0000 803f 0000 803f 0000 803f
000003c0: 0000 803f 0000 803f 0000 803f 0000 803f
000003d0: 0000 803f 0000 803f 0000 803f 0000 803f
000003e0: 0000 803f 0000 803f 0000 803f 0000 803f
000003f0: 0000 803f 0000 803f 0000 803f 0000 803f

bn1.bias f4 [400]
0.0 0.0 0.0 0.0 0.0 0.0 0.0 0.0
0.0 0.0 0.0 0.0 0.0 0.0 0.0 0.0
0.0 0.0 0.0 0.0 0.0 0.0 0.0 0.0
0.0 0.0 0.0 0.0 0.0 0.0 0.0 0.0
0.0 0.0 0.0 0.0 0.0 0.0 0.0 0.0
0.0 0.0 0.0 0.0 0.0 0.0 0.0 0.0
0.0 0.0 0.0 0.0 0.0 0.0 0.0 0.0
0.0 0.0 0.0 0.0 0.0 0.0 0.0 0.0
0.0 0.0 0.0 0.0 0.0 0.0 0.0 0.0
0.0 0.0 0.0 0.0 0.0 0.0 0.0 0.0
0.0 0.0 0.0 0.0 0.0 0.0 0.0 0.0
0.0 0.0 0.0 0.0 0.0 0.0 0.0 0.0
0.0 0.0 0.0 0.0 0.0 0.0 0.0 0.0
0.0 0.0 0.0 0.0 0.0 0.0 0.0 0.0
0.0 0.0 0.0 0.0 0.0 0.0 0.0 0.0
0.0 0.0 0.0 0.0 0.0 0.0 0.0 0.0
0.0 0.0 0.0 0.0 0.0 0.0 0.0 0.0
0.0 0.0 0.0 0.0 0.0 0.0 0.0 0.0
0.0 0.0 0.0 0.0 0.0 0.0 0.0 0.0
0.0 0.0 0.0 0.0 0.0 0.0 0.0 0.0
0.0 0.0 0.0 0.0 0.0 0.0 0.0 0.0
0.0 0.0 0.0 0.0 0.0 0.0 0.0 0.0
0.0 0.0 0.0 0.0 0.0 0.0 0.0 0.0
0.0 0.0 0.0 0.0 0.0 0.0 0.0 0.0
0.0 0.0 0.0 0.0 0.0 0.0 0.0 0.0
0.0 0.0 0.0 0.0 0.0 0.0 0.0 0.0
0.0 0.0 0.0 0.0 0.0 0.0 0.0 0.0
0.0 0.0 0.0 0.0 0.0 0.0 0.0 0.0
0.0 0.0 0.0 0.0 0.0 0.0 0.0 0.0
0.0 0.0 0.0 0.0 0.0 0.0 0.0 0.0
0.0 0.0 0.0 0.0 0.0 0.0 0.0 0.0
0.0 0.0 0.0 0.0 0.0 0.0 0.0 0.0
00000000: 0000 0000 0000 0000 0000 0000 0000 0000
00000010: 0000 0000 0000 0000 0000 0000 0000 0000
00000020: 0000 0000 0000 0000 0000 0000 0000 0000
00000030: 0000 0000 0000 0000 0000 0000 0000 0000
00000040: 0000 0000 0000 0000 0000 0000 0000 0000
00000050: 0000 0000 0000 0000 0000 0000 0000 0000
00000060: 0000 0000 0000 0000 0000 0000 0000 0000
00000070: 0000 0000 0000 0000 0000 0000 0000 0000
00000080: 0000 0000 0000 0000 0000 0000 0000 0000
00000090: 0000 0000 0000 0000 0000 0000 0000 0000
000000a0: 0000 0000 0000 0000 0000 0000 0000 0000
000000b0: 0000 0000 0000 0000 0000 0000 0000 0000
000000c0: 0000 0000 0000 0000 0000 0000 0000 0000
000000d0: 0000 0000 0000 0000 0000 0000 0000 0000
000000e0: 0000 0000 0000 0000 0000 0000 0000 0000
000000f0: 0000 0000 0000 0000 0000 0000 0000 0000
00000100: 0000 0000 0000 0000 0000 0000 0000 0000
00000110: 0000 0000 0000 0000 0000 0000 0000 0000
00000120: 0000 0000 0000 0000 0000 0000 0000 0000
00000130: 0000 0000 0000 0000 0000 0000 0000 0000
00000140: 0000 0000 0000 0000 0000 0000 0000 0000
00000150: 0000 0000 0000 0000 0000 0000 0000 0000
00000160: 0000 0000 0000 0000 0000 0000 0000 0000
00000170: 0000 0000 0000 0000 0000 0000 0000 0000
00000180: 0000 0000 0000 0000 0000 0000 0000 0000
00000190: 0000 0000 0000 0000 0000 0000 0000 0000
000001a0: 0000 0000 0000 0000 0000 0000 0000 0000
000001b0: 0000 0000 0000 0000 0000 0000 0000 0000
000001c0: 0000 0000 0000 0000 0000 0000 0000 0000
000001d0: 0000 0000 0000 0000 0000 0000 0000 0000
000001e0: 0000 0000 0000 0000 0000 0000 0000 0000
000001f0: 0000 0000 0000 0000 0000 0000 0000 0000
00000200: 0000 0000 0000 0000 0000 0000 0000 0000
00000210: 0000 0000 0000 0000 0000 0000 0000 0000
00000220: 0000 0000 0000 0000 0000 0000 0000 0000
00000230: 0000 0000 0000 0000 0000 0000 0000 0000
00000240: 0000 0000 0000 0000 0000 0000 0000 0000
00000250: 0000 0000 0000 0000 0000 0000 0000 0000
00000260: 0000 0000 0000 0000 0000 0000 0000 0000
00000270: 0000 0000 0000 0000 0000 0000 0000 0000
00000280: 0000 0000 0000 0000 0000 0000 0000 0000
00000290: 0000 0000 0000 0000 0000 0000 0000 0000
000002a0: 0000 0000 0000 0000 0000 0000 0000 0000
000002b0: 0000 0000 0000 0000 0000 0000 0000 0000
000002c0: 0000 0000 0000 0000 0000 0000 0000 0000
000002d0: 0000 0000 0000 0000 0000 0000 0000 0000
000002e0: 0000 0000 0000 0000 0000 0000 0000 0000
000002f0: 0000 0000 0000 0000 0000 0000 0000 0000
00000300: 0000 0000 0000 0000 0000 0000 0000 0000
00000310: 0000 0000 0000 0000 0000 0000 0000 0000
00000320: 0000 0000 0000 0000 0000 0000 0000 0000
00000330: 0000 0000 0000 0000 0000 0000 0000 0000
00000340: 0000 0000 0000 0000 0000 0000 0000 0000
00000350: 0000 0000 0000 0000 0000 0000 0000 0000
00000360: 0000 0000 0000 0000 0000 0000 0000 0000
00000370: 0000 0000 0000 0000 0000 0000 0000 0000
00000380: 0000 0000 0000 0000 0000 0000 0000 0000
00000390: 0000 0000 0000 0000 0000 0000 0000 0000
000003a0: 0000 0000 0000 0000 0000 0000 0000 0000
000003b0: 0000 0000 0000 0000 0000 0000 0000 0000
000003c0: 0000 0000 0000 0000 0000 0000 0000 0000
000003d0: 0000 0000 0000 0000 0000 0000 0000 0000
000003e0: 0000 0000 0000 0000 0000 0000 0000 0000
000003f0: 0000 0000 0000 0000 0000 0000 0000 0000

fc2.weight f4 [300, 400]
-0.030762287 0.007984847 0.04155504 0.039842874 -0.008079387 0.03467086 0.027983002 0.024655543
-0.046378452 0.05630459 -0.020722516 -0.0045482256 0.002953522 -0.05753416 -0.027875511 -0.0361187
0.021829657 -0.017645232 -0.039376955 0.008614913 -0.030392226 -0.002767317 -0.004949119 0.018116675
0.042101353 -0.022546683 0.035154603 -0.044494778 -0.03459761 0.05757924 -0.02676865 0.052110523
0.007947698 0.041878246 -0.004259888 -0.011504516 0.014455877 -0.024297033 -0.0042688698 0.0152803585
0.004981734 0.030859992 -0.019652009 -0.017362572 0.034570932 -0.030889716 -0.017077316 0.039056577
-0.02391785 0.008505039 0.042806715 0.016961627 -0.009670224 0.05168721 0.010044634 0.013637304
-0.024427764 0.055486478 0.032516487 -0.0506501 -0.025551472 -0.0505011 -0.04512543 -0.0490644
0.040630616 0.034305423 -0.035314776 0.045684688 -0.049389184 -0.035573058 0.04416856 0.036638245
0.0111307725 0.025071315 0.026155151 -0.009838354 -0.027944583 -0.042225435 0.010804161 0.054552503
-0.018476162 -0.040727112 0.042757623 -0.032129996 -0.031646423 -0.04557307 0.00017016381 0.0033819564
0.028966062 0.029079482 -0.056086916 0.054427564 -0.020508558 0.022837855 -0.017017405 -0.03241449
-0.046881787 0.016158625 0.0022993013 -0.026047692 -0.033886585 0.047484495 -0.0255749 0.026134044
-0.036767617 0.013941839 -0.026641311 -0.0034492463 -0.044237077 0.048990846 -0.04951613 -0.0021072254
0.014317922 -0.042114813 -0.00420912 0.013029963 -0.04264866 0.0038512014 0.0048989058 0.0016977526
-0.010699347 -0.049398053 0.0063439608 0.057547398 0.028929397 -0.018147726 -0.038619455 -0.0017039143
0.05661934 0.020962238 0.025746197 -0.011201877 0.04435835 0.021754779 -0.04374504 -0.024829395
-0.017390143 -0.04852657 0.034391314 0.0361214 -0.05276581 -0.035082445 0.0054181963 -0.018482354
0.040823035 0.04785493 -0.049544595 0.016636103 -0.0023581535 -0.0013292469 0.01928337 -0.044681385
0.027402014 0.0044705346 -0.031459983 -0.022680052 -0.040978972 -0.056480758 0.04691889 -0.004679654
-0.006440133 0.0023254752 0.038288802 0.036882848 0.048462182 -0.042324223 -0.019386433 -0.045785837
0.035976075 -0.055582523 0.033247717 -0.04793267 0.013239726 0.014303505 0.009713478 0.024270296
-0.054725673 -0.018690635 -0.040602155 -0.005183365 -0.052094057 0.05419659 0.030726306 0.046828903
0.0127682835 -0.01848336 -0.026023623 0.039610036 -0.040083528 -0.02956928 -0.051544413 -0.046513245
0.01733189 -0.046156414 0.048177004 -0.05593011 0.0032894313 0.042930722 0.05147642 0.04485867
-0.028491588 0.05736561 0.0070308447 -0.05751713 -0.016783059 -0.03613188 -2.0377338e-06 0.050340496
0.009084426 -0.014717691 -0.026971817 -0.05139941 0.02389218 0.0015169755 0.01011689 -0.051323846
-0.04261236 -0.035546683 -0.0039412454 -0.05071502 -0.041337416 0.0011111274 0.04900185 -0.024740811
0.019402005 0.031670123 0.0067593306 -0.009061106 0.05071353 0.03707672 0.0032880753 -0.027797414
0.049167305 0.01781471 0.056648634 -0.0017001145 -0.018692471 0.0064855367 -0.04761625 -0.027655158
-0.018360127 0.031295545 0.020717494 0.010838024 -0.0043959767 -0.022804543 0.037298217 0.026227355
-0.039967548 -0.018606462 0.041095443 -0.044943437 -0.005164385 0.0139556825 -0.05136813 -0.05395864
00000000: 3101 fcbc e0d2 023c 9e35 2a3d 4832 233d
00000010: 685f 04bc 0803 0e3d 9c3c e53c 6cfa c93c
00000020: 55f7 3dbd a49f 663d 44c2 a9bc 4809 95bb
00000030: e08f 413b f0a8 6bbd 2f5b e4bc 34f1 13bd
00000040: 1cd4 b23c bc8c 90bc bb49 21bd 9025 0d3c
00000050: 1ef9 f8bc e05b 35bb 382c a2bb 6c69 943c
00000060: 7872 2c3d d2b3 b8bc 46fe 0f3d 2840 36bd
00000070: 39b6 0dbd 36d8 6b3d ee49 dbbc d871 553d
00000080: 1037 023c 8688 2b3d 8896 8bbb 707d 3cbc
00000090: 58d8 6c3c 920a c7bc e0e1 8bbb 785a 7a3c
000000a0: d03d a33b 18ce fc3c 40fd a0bc f43b 8ebc
000000b0: 409a 0d3d 6e0c fdbc bae5 8bbc caf9 1f3d
000000c0: 5eef c3bc b858 0b3c 1856 2f3d 1cf3 8a3c
000000d0: dc6f 1ebc f8b5 533d 4092 243c 006f 5f3c
000000e0: bc1c c8bc ca45 633d 0230 053d 7b76 4fbd
000000f0: 5251 d1bc 3eda 4ebd 71d5 38bd c1f7 48bd
00000100: 4a6c 263d d883 0c3d 3aa6 10bd de1f 3b3d
00000110: 504c 4abd 0eb5 11bd 18ea 343d fc11 163d
00000120: d85d 363c 5c62 cd3c 5443 d63c 0c31 21bc
00000130: 0aec e4bc 94f4 2cbd f003 313c 7272 5f3d
00000140: 525b 97bc 79d1 26bd 9e22 2f3d be9a 03bd
00000150: ae9f 01bd d4aa 3abd 006e 3239 d0a3 5d3b
00000160: 3c4a ed3c 1838 ee3c 65bb 65bd 70ef 5e3d
00000170: 9001 a8bc 7416 bb3c 1668 8bbc 0ec5 04bd
00000180: 1e07 40bd 185f 843c e0af 163b f861 d5bc
00000190: a9cc 0abd 1a7f 423d 7482 d1bc 1017 d63c
000001a0: a499 16bd 506c 643c e13e dabc c00c 62bb
000001b0: f031 35bd a0aa 483d 6dd1 4abd 6019 0abb
000001c0: b895 6a3c 9580 2cbd a8ec 89bb a07b 553c
000001d0: 5cb0 2ebd 7064 7c3b 0087 a03b 2087 de3a
000001e0: 504c 2fbc 9d55 4abd 00e1 cf3b d2b6 6b3d
000001f0: 58fd ec3c 8aaa 94bc 6f2f 1ebd e055 dfba
00000200: aee9 673d 00b9 ab3c b0e9 d23c 1488 37bc
00000210: 1ab1 353d 1437 b23c 002e 33bd 0467 cbbc
00000220: c675 8ebc ccc3 46bd e8dd 0c3d 08f4 133d
00000230: f620 58bd 9cb2 0fbd 208b b13b 4e68 97bc
00000240: 0e36 273d 8803 443d 46ef 4abd 7048 883c
00000250: 408b 1abb 203a aeba 28f8 9d3c d403 37bd
00000260: 307a e03c 907d 923b 2fdc 00bd 84cb b9bc
00000270: 91d9 27bd 5e58 67bd 062e 403d c857 99bb
00000280: c007 d3bb 0067 183b b8d4 1c3d 7812 173d
00000290: 4880 463d 2a5c 2dbd 4cd0 9ebc ee89 3bbd
000002a0: a65b 133d 80aa 63bd c22e 083d 0c55 44bd
000002b0: 70eb 583c 4059 6a3c 4825 1f3c 80d2 c63c
000002c0: 0728 60bd 1a1d 99bc 724e 26bd 38d9 a9bb
000002d0: 9460 55bd 3efd 5d3d bcb5 fb3c aacf 3f3d
000002e0: 1032 513c 6a6a 97bc 7e2f d5bc 223e 223d
000002f0: a02e 24bd 463b f2bc 3c20 53bd ac84 3ebd
00000300: 9cfb 8d3c 820e 3dbd 4055 453d f916 65bd
00000310: 8093 573b 20d8 2f3d f0d8 523d babd 373d
00000320: 3167 e9bc 34f8 6a3d 0063 e63b 1597 6bbd
00000330: a07c 89bc 06ff 13bd 00c0 08b6 d631 4e3d
00000340: d8d6 143c 7822 71bc 00f4 dcbc 3088 52bd
00000350: 88b9 c33c 40d5 c63a 50c1 253c f438 52bd
00000360: 4c8a 2ebd 6699 11bd 9025 81bb 8eba 4fbd
00000370: 6c51 29bd 40a3 913a 2ab6 483d 3ead cabc
00000380: f4f0 9e3c 88b8 013d 607d dd3b 0875 14bc
00000390: feb8 4f3d c2dd 173d c07c 573b 67b7 e3bc
000003a0: a863 493d 28f0 913c 6608 683d 60d6 deba
000003b0: f420 99bc a084 d43b 4209 43bd 128d e2bc
000003c0: fa67 96bc c22f 003d bcb7 a93c f891 313c
000003d0: 200c 90bb 98d0 babc 04c6 183d c0da d63c
000003e0: 03b5 23bd 946c 98bc b253 283d 9c16 38bd
000003f0: 003a a9bb 60a6 643c 6367 52bd bc03 5dbd

fc2.bias f4 [300]
0.04551345 -0.025330156 -0.008984111 0.006023295 -0.01772093 0.049139716 -0.056973726 0.056636013
0.002734445 0.05726061 0.041741416 -0.007828847 0.022063993 0.021810919 -0.011568576 -0.047797546
0.008803643 0.02425918 0.003767103 -0.006783951 0.019990824 0.01378151 -0.009117 -0.00044583157
0.018518806 0.015005 0.013552614 0.05557069 0.05010873 0.03558541 -0.028871257 0.02630566
0.0058445856 0.035874724 0.057229653 -0.050613087 0.048020557 -0.055657677 -0.0019279867 0.017613433
-0.031167297 0.03818915 -0.036355473 -0.047011845 -0.033343293 -0.038629614 0.04817359 0.012456685
-0.01787097 -0.015861936 -0.04362117 -0.048278358 -0.0017942004 -0.0024866723 0.0060580894 -0.014998414
-0.05300033 -0.00020343438 -0.053598825 0.047833957 -0.022615548 0.04452289 0.04787471 -0.053939175
-0.05742387 -0.033635978 0.011691071 -0.025308717 0.054830544 0.031585433 -0.021072377 -0.016092755
-0.015969329 0.012964949 -0.03079568 0.03350094 -0.056930147 -0.050761584 0.0012808554 0.010799266
0.010592714 0.018921338 -0.007160887 -0.008842532 -0.013659358 0.01839108 0.035194755 0.0475521
-0.011865642 -0.005720027 0.057539895 -0.008228388 0.032574043 0.0057370514 -0.053132854 -0.005694665
-0.007870335 -0.022378746 0.034728087 -0.04846053 -0.02130352 0.042427197 0.0029942468 0.010616243
-0.04880775 -0.015004382 -0.053782426 0.015418477 0.011304133 0.04789765 -0.045790132 -0.02047649
-0.05155981 -0.040652093 0.000939738 0.012911096 0.0033862032 -0.03829635 -0.00035387278 0.051756367
-0.037790403 0.043148093 0.040427618 -0.036226377 -0.04116756 0.026495539 -0.0425098 -0.023494259
-0.05536279 -0.030026266 0.009307459 0.019294426 0.01620119 -0.03179429 -0.040755697 -0.015160911
-0.046342723 -0.04986293 -0.0045297667 0.04830057 -0.018015843 -0.039380707 0.054263175 0.019203655
0.020483918 -0.049963765 0.02833809 0.0483035 0.011392556 0.054851957 -0.048993647 -0.054498315
0.0072494224 0.051199853 0.011614762 0.046098992 0.030274473 -0.054577306 0.041684717 0.040862203
0.022761531 -0.043276086 0.045653604 -0.009921294 0.037434667 0.01853589 -0.025497004 -0.016453687
-0.00014606118 0.03483954 0.011007406 0.048009627 0.03629438 -0.042671397 -0.0047519393 0.045131557
0.015594289 0.031339556 -0.020896308 0.018790126 0.0017421879 0.007482484 -0.036692247 -0.00927772
0.031093046 0.04885985 -0.046825 0.054478332 0.033475228 -0.041967347 -0.03252943 -0.0048685595
0.005590163 -0.047534004 -0.0010941401 -0.05666832 0.001868166 0.03925103 -0.022771664 0.03088165
0.033546656 -0.03937345 0.04752004 0.008106418 0.01961729 -0.016183287 0.04129739 0.038231954
0.049665734 0.0234821 0.047425903 0.029498085 -0.013222467 0.05643066 -0.010115396 0.054800518
-0.0118568875 -0.0062426813 -0.012231093 0.034484185 0.036750592 0.029718928 -0.04261145 -0.05597045
-0.04076387 0.042039238 -0.037647948 -0.039362863 -0.055511158 -0.0034400076 0.015827999 -0.049892116
-0.019165345 0.009612225 -0.056678195 0.028662637 0.020541854 -0.03632674 0.040032797 -0.050662715
0.021490254 0.038014986 0.032484457 -0.04989758 -0.04127998 -0.024722792 0.00064661726 0.04043527
-0.02875344 -0.0016250871 0.036155097 -0.012992509 0.052183628 0.044512607 -0.032778747 0.04782504
00000000: 506c 3a3d 3081 cfbc 1832 13bc 105f c53b
00000010: 7c2b 91bc ba46 493d 485d 69bd 2afb 673d
00000020: 6034 333b 1a8a 6a3d 0cf9 2a3d 9044 00bc
00000030: 8cbf b43c d0ac b23c 208a 3dbc 5cc7 43bd
00000040: 283d 103c 30bb c63c 80e1 763b e84b debb
00000050: ccc3 a33c d8cb 613c 785f 15bc 80be e9b9
00000060: c0b4 973c 88d7 753c c80b 5e3c 189e 633d
00000070: d03e 4d3d 02c2 113d 6a83 ecbc f87e d73c
00000080: f083 bf3b 60f1 123d a469 6a3d ab4f 4fbd
00000090: 34b1 443d 4ef9 63bd 80b4 fcba 0c4a 903c
000000a0: 8f52 ffbc 3a6c 1c3d 7ae9 14bd 7e8f 40bd
000000b0: fa92 08bd 163a 1ebd ac51 453d 2017 4c3c
000000c0: 2466 92bc e4f0 81bc 1dac 32bd 87bf 45bd
000000d0: 602b ebba 70f7 22bb f082 c63b e8bb 75bc
000000e0: e016 59bd 0051 55b9 718a 5bbd 8aed 433d
000000f0: 3e44 b9bc a25d 363d 4618 443d 53ef 5cbd
00000100: 4b35 6bbd e1c5 09bd e88b 3f3c 3a54 cfbc
00000110: fe95 603d ba5f 013d fa9f acbc f4d4 83bc
00000120: 1cd2 82bc f06a 543c 3947 fcbc 4838 093d
00000130: 962f 69bd 61eb 4fbd 60e2 a73a 68ef 303c
00000140: 108d 2d3c ec00 9b3c e0a5 eabb 44e0 10bc
00000150: 80cb 5fbc e4a8 963c 6028 103d fec5 423d
00000160: 1c68 42bc 106f bbbb f4ae 6b3d 5cd0 06bc
00000170: 5c6c 053d e0fd bb3b d6a1 59bd 509a babb
00000180: 94f2 00bc a253 b7bc 0a3f 0e3d 8c7e 46bd
00000190: b884 aebc 24c8 2d3d 203b 443b c0ef 2d3c
000001a0: a3ea 47bd f0d4 75bc f64a 5cbd c89d 7c3c
000001b0: f834 393c 5430 443d 6f8e 3bbd 50be a7bc
000001c0: 6130 53bd cf82 26bd c058 763a 1089 533c
000001d0: 10eb 5d3b a2dc 1cbd 0088 b9b9 7cfe 533d
000001e0: 1cca 1abd 0ebc 303d 6e97 253d 1c62 14bd
000001f0: 519f 28bd 2c0d d93c c21e 2ebd 0877 c0bc
00000200: 18c4 62bd a5f9 f5bc 507e 183c 580f 9e3c
00000210: 5cb8 843c bb3a 02bd 72ef 26bd 7865 78bc
00000220: ded1 3dbd 123d 4cbd 706e 94bb d2d6 453d
00000230: f695 93bc aa4d 21bd 1043 5e3d fc50 9d3c
00000240: e4cd a73c cea6 4cbd 4825 e83c e4d9 453d
00000250: d8a7 3a3c 72ac 603d 90ad 48bd a039 5fbd
00000260: 908c ed3b f0b6 513d d84b 3e3c 4cd2 3c3d
00000270: 2c02 f83c 748c 5fbd 98bd 2a3d 205f 273d
00000280: 6476 ba3c 4442 31bd 46ff 3a3d ec8c 22bc
00000290: 1855 193d 94d8 973c 18df d0bc e2c9 86bc
000002a0: 0028 19b9 e8b3 0e3d 6858 343c bea5 443d
000002b0: 6aa9 143d 34c8 2ebd 28b6 9bbb dedb 383d
000002c0: 307f 7f3c e85d 003d bc2e abbc c0ed 993c
000002d0: 205a e43a a02f f53b 9c4a 16bd 9401 18bc
000002e0: d8b6 fe3c 4421 483d 92cb 3fbd ac24 5f3d
000002f0: 521d 093d f4e5 2bbd 943d 05bd 7088 9fbb
00000300: b02d b73b 04b3 42bd 4069 8fba 0a1d 68bd
00000310: 40dd f43a b0c5 203d a48b babc 84fb fc3c
00000320: 3868 093d 0e46 21bd 60a4 423d c8d0 043c
00000330: 70b4 a03c d092 84bc 7427 293d 1c99 1c3d
00000340: 4c6e 4b3d 885d c03c aa41 423d f8a5 f13c
00000350: 0ca3 58bc d623 673d 0cbb 25bc 8276 603d
00000360: 6443 42bc 688f ccbb ec64 48bc 4a3f 0d3d
00000370: ca87 163d 1c75 f33c 5889 2ebd 4541 65bd
00000380: 04f8 26bd 5631 2c3d bc34 1abd f43a 21bd
00000390: ab5f 63bd c071 61bb b8a9 813c ad5b 4cbd
000003a0: a400 9dbc 987c 1d3c 6527 68bd e8cd ea3c
000003b0: 6447 a83c 59cb 14bd 6ef9 233d b583 4fbd
000003c0: 540c b03c 9ab5 1b3d 6c0e 053d 6861 4cbd
000003d0: 3215 29bd 7487 cabc c081 293a 749f 253d
000003e0: 568c ebbc e000 d5ba 5e17 143d 88de 54bc
000003f0: 80be 553d da52 363d 0243 06bd 30e4 433d

bn2.weight f4 [300]
1.0 1.0 1.0 1.0 1.0 1.0 1.0 1.0
1.0 1.0 1.0 1.0 1.0 1.0 1.0 1.0
1.0 1.0 1.0 1.0 1.0 1.0 1.0 1.0
1.0 1.0 1.0 1.0 1.0 1.0 1.0 1.0
1.0 1.0 1.0 1.0 1.0 1.0 1.0 1.0
1.0 1.0 1.0 1.0 1.0 1.0 1.0 1.0
1.0 1.0 1.0 1.0 1.0 1.0 1.0 1.0
1.0 1.0 1.0 1.0 1.0 1.0 1.0 1.0
1.0 1.0 1.0 1.0 1.0 1.0 1.0 1.0
1.0 1.0 1.0 1.0 1.0 1.0 1.0 1.0
1.0 1.0 1.0 1.0 1.0 1.0 1.0 1.0
1.0 1.0 1.0 1.0 1.0 1.0 1.0 1.0
1.0 1.0 1.0 1.0 1.0 1.0 1.0 1.0
1.0 1.0 1.0 1.0 1.0 1.0 1.0 1.0
1.0 1.0 1.0 1.0 1.0 1.0 1.0 1.0
1.0 1.0 1.0 1.0 1.0 1.0 1.0 1.0
1.0 1.0 1.0 1.0 1.0 1.0 1.0 1.0
1.0 1.0 1.0 1.0 1.0 1.0 1.0 1.0
1.0 1.0 1.0 1.0 1.0 1.0 1.0 1.0
1.0 1.0 1.0 1.0 1.0 1.0 1.0 1.0
1.0 1.0 1.0 1.0 1.0 1.0 1.0 1.0
1.0 1.0 1.0 1.0 1.0 1.0 1.0 1.0
1.0 1.0 1.0 1.0 1.0 1.0 1.0 1.0
1.0 1.0 1.0 1.0 1.0 1.0 1.0 1.0
1.0 1.0 1.0 1.0 1.0 1.0 1.0 1.0
1.0 1.0 1.0 1.0 1.0 1.0 1.0 1.0
1.0 1.0 1.0 1.0 1.0 1.0 1.0 1.0
1.0 1.0 1.0 1.0 1.0 1.0 1.0 1.0
1.0 1.0 1.0 1.0 1.0 1.0 1.0 1.0
1.0 1.0 1.0 1.0 1.0 1.0 1.0 1.0
1.0 1.0 1.0 1.0 1.0 1.0 1.0 1.0
1.0 1.0 1.0 1.0 1.0 1.0 1.0 1.0
00000000: 0000 803f 0000 803f 0000 803f 0000 803f
00000010: 0000 803f 0000 803f 0000 803f 0000 803f
00000020: 0000 803f 0000 803f 0000 803f 0000 803f
00000030: 0000 803f 0000 803f 0000 803f 0000 803f
00000040: 0000 803f 0000 803f 0000 803f 0000 803f
00000050: 0000 803f 0000 803f 0000 803f 0000 803f
00000060: 0000 803f 0000 803f 0000 803f 0000 803f
00000070: 0000 803f 0000 803f 0000 803f 0000 803f
00000080: 0000 803f 0000 803f 0000 803f 0000 803f
00000090: 0000 803f 0000 803f 0000 803f 0000 803f
000000a0: 0000 803f 0000 803f 0000 803f 0000 803f
000000b0: 0000 803f 0000 803f 0000 803f 0000 803f
000000c0: 0000 803f 0000 803f 0000 803f 0000 803f
000000d0: 0000 803f 0000 803f 0000 803f 0000 803f
000000e0: 0000 803f 0000 803f 0000 803f 0000 803f
000000f0: 0000 803f 0000 803f 0000 803f 0000 803f
00000100: 0000 803f 0000 803f 0000 803f 0000 803f
00000110: 0000 803f 0000 803f 0000 803f 0000 803f
00000120: 0000 803f 0000 803f 0000 803f 0000 803f
00000130: 0000 803f 0000 803f 0000 803f 0000 803f
00000140: 0000 803f 0000 803f 0000 803f 0000 803f
00000150: 0000 803f 0000 803f 0000 803f 0000 803f
00000160: 0000 803f 0000 803f 0000 803f 0000 803f
00000170: 0000 803f 0000 803f 0000 803f 0000 803f
00000180: 0000 803f 0000 803f 0000 803f 0000 803f
00000190: 0000 803f 0000 803f 0000 803f 0000 803f
000001a0: 0000 803f 0000 803f 0000 803f 0000 803f
000001b0: 0000 803f 0000 803f 0000 803f 0000 803f
000001c0: 0000 803f 0000 803f 0000 803f 0000 803f
000001d0: 0000 803f 0000 803f 0000 803f 0000 803f
000001e0: 0000 803f 0000 803f 0000 803f 0000 803f
000001f0: 0000 803f 0000 803f 0000 803f 0000 803f
00000200: 0000 803f 0000 803f 0000 803f 0000 803f
00000210: 0000 803f 0000 803f 0000 803f 0000 803f
00000220: 0000 803f 0000 803f 0000 803f 0000 803f
00000230: 0000 803f 0000 803f 0000 803f 0000 803f
00000240: 0000 803f 0000 803f 0000 803f 0000 803f
00000250: 0000 803f 0000 803f 0000 803f 0000 803f
00000260: 0000 803f 0000 803f 0000 803f 0000 803f
00000270: 0000 803f 0000 803f 0000 803f 0000 803f
00000280: 0000 803f 0000 803f 0000 803f 0000 803f
00000290: 0000 803f 0000 803f 0000 803f 0000 803f
000002a0: 0000 803f 0000 803f 0000 803f 0000 803f
000002b0: 0000 803f 0000 803f 0000 803f 0000 803f
000002c0: 0000 803f 0000 803f 0000 803f 0000 803f
000002d0: 0000 803f 0000 803f 0000 803f 0000 803f
000002e0: 0000 803f 0000 803f 0000 803f 0000 803f
000002f0: 0000 803f 0000 803f 0000 803f 0000 803f
00000300: 0000 803f 0000 803f 0000 803f 0000 803f
00000310: 0000 803f 0000 803f 0000 803f 0000 803f
00000320: 0000 803f 0000 803f 0000 803f 0000 803f
00000330: 0000 803f 0000 803f 0000 803f 0000 803f
00000340: 0000 803f 0000 803f 0000 803f 0000 803f
00000350: 0000 803f 0000 803f 0000 803f 0000 803f
00000360: 0000 803f 0000 803f 0000 803f 0000 803f
00000370: 0000 803f 0000 803f 0000 803f 0000 803f
00000380: 0000 803f 0000 803f 0000 803f 0000 803f
00000390: 0000 803f 0000 803f 0000 803f 0000 803f
000003a0: 0000 803f 0000 803f 0000 803f 0000 803f
000003b0: 0000 803f 0000 803f 0000 803f 0000 803f
000003c0: 0000 803f 0000 803f 0000 803f 0000 803f
000003d0: 0000 803f 0000 803f 0000 803f 0000 803f
000003e0: 0000 803f 0000 803f 0000 803f 0000 803f
000003f0: 0000 803f 0000 803f 0000 803f 0000 803f

bn2.bias f4 [300]
0.0 0.0 0.0 0.0 0.0 0.0 0.0 0.0
0.0 0.0 0.0 0.0 0.0 0.0 0.0 0.0
0.0 0.0 0.0 0.0 0.0 0.0 0.0 0.0
0.0 0.0 0.0 0.0 0.0 0.0 0.0 0.0
0.0 0.0 0.0 0.0 0.0 0.0 0.0 0.0
0.0 0.0 0.0 0.0 0.0 0.0 0.0 0.0
0.0 0.0 0.0 0.0 0.0 0.0 0.0 0.0
0.0 0.0 0.0 0.0 0.0 0.0 0.0 0.0
0.0 0.0 0.0 0.0 0.0 0.0 0.0 0.0
0.0 0.0 0.0 0.0 0.0 0.0 0.0 0.0
0.0 0.0 0.0 0.0 0.0 0.0 0.0 0.0
0.0 0.0 0.0 0.0 0.0 0.0 0.0 0.0
0.0 0.0 0.0 0.0 0.0 0.0 0.0 0.0
0.0 0.0 0.0 0.0 0.0 0.0 0.0 0.0
0.0 0.0 0.0 0.0 0.0 0.0 0.0 0.0
0.0 0.0 0.0 0.0 0.0 0.0 0.0 0.0
0.0 0.0 0.0 0.0 0.0 0.0 0.0 0.0
0.0 0.0 0.0 0.0 0.0 0.0 0.0 0.0
0.0 0.0 0.0 0.0 0.0 0.0 0.0 0.0
0.0 0.0 0.0 0.0 0.0 0.0 0.0 0.0
0.0 0.0 0.0 0.0 0.0 0.0 0.0 0.0
0.0 0.0 0.0 0.0 0.0 0.0 0.0 0.0
0.0 0.0 0.0 0.0 0.0 0.0 0.0 0.0
0.0 0.0 0.0 0.0 0.0 0.0 0.0 0.0
0.0 0.0 0.0 0.0 0.0 0.0 0.0 0.0
0.0 0.0 0.0 0.0 0.0 0.0 0.0 0.0
0.0 0.0 0.0 0.0 0.0 0.0 0.0 0.0
0.0 0.0 0.0 0.0 0.0 0.0 0.0 0.0
0.0 0.0 0.0 0.0 0.0 0.0 0.0 0.0
0.0 0.0 0.0 0.0 0.0 0.0 0.0 0.0
0.0 0.0 0.0 0.0 0.0 0.0 0.0 0.0
0.0 0.0 0.0 0.0 0.0 0.0 0.0 0.0
00000000: 0000 0000 0000 0000 0000 0000 0000 0000
00000010: 0000 0000 0000 0000 0000 0000 0000 0000
00000020: 0000 0000 0000 0000 0000 0000 0000 0000
00000030: 0000 0000 0000 0000 0000 0000 0000 0000
00000040: 0000 0000 0000 0000 0000 0000 0000 0000
00000050: 0000 0000 0000 0000 0000 0000 0000 0000
00000060: 0000 0000 0000 0000 0000 0000 0000 0000
00000070: 0000 0000 0000 0000 0000 0000 0000 0000
00000080: 0000 0000 0000 0000 0000 0000 0000 0000
00000090: 0000 0000 0000 0000 0000 0000 0000 0000
000000a0: 0000 0000 0000 0000 0000 0000 0000 0000
000000b0: 0000 0000 0000 0000 0000 0000 0000 0000
000000c0: 0000 0000 0000 0000 0000 0000 0000 0000
000000d0: 0000 0000 0000 0000 0000 0000 0000 0000
000000e0: 0000 0000 0000 0000 0000 0000 0000 0000
000000f0: 0000 0000 0000 0000 0000 0000 0000 0000
00000100: 0000 0000 0000 0000 0000 0000 0000 0000
00000110: 0000 0000 0000 0000 0000 0000 0000 0000
00000120: 0000 0000 0000 0000 0000 0000 0000 0000
00000130: 0000 0000 0000 0000 0000 0000 0000 0000
00000140: 0000 0000 0000 0000 0000 0000 0000 0000
00000150: 0000 0000 0000 0000 0000 0000 0000 0000
00000160: 0000 0000 0000 0000 0000 0000 0000 0000
00000170: 0000 0000 0000 0000 0000 0000 0000 0000
00000180: 0000 0000 0000 0000 0000 0000 0000 0000
00000190: 0000 0000 0000 0000 0000 0000 0000 0000
000001a0: 0000 0000 0000 0000 0000 0000 0000 0000
000001b0: 0000 0000 0000 0000 0000 0000 0000 0000
000001c0: 0000 0000 0000 0000 0000 0000 0000 0000
000001d0: 0000 0000 0000 0000 0000 0000 0000 0000
000001e0: 0000 0000 0000 0000 0000 0000 0000 0000
000001f0: 0000 0000 0000 0000 0000 0000 0000 0000
00000200: 0000 0000 0000 0000 0000 0000 0000 0000
00000210: 0000 0000 0000 0000 0000 0000 0000 0000
00000220: 0000 0000 0000 0000 0000 0000 0000 0000
00000230: 0000 0000 0000 0000 0000 0000 0000 0000
00000240: 0000 0000 0000 0000 0000 0000 0000 0000
00000250: 0000 0000 0000 0000 0000 0000 0000 0000
00000260: 0000 0000 0000 0000 0000 0000 0000 0000
00000270: 0000 0000 0000 0000 0000 0000 0000 0000
00000280: 0000 0000 0000 0000 0000 0000 0000 0000
00000290: 0000 0000 0000 0000 0000 0000 0000 0000
000002a0: 0000 0000 0000 0000 0000 0000 0000 0000
000002b0: 0000 0000 0000 0000 0000 0000 0000 0000
000002c0: 0000 0000 0000 0000 0000 0000 0000 0000
000002d0: 0000 0000 0000 0000 0000 0000 0000 0000
000002e0: 0000 0000 0000 0000 0000 0000 0000 0000
000002f0: 0000 0000 0000 0000 0000 0000 0000 0000
00000300: 0000 0000 0000 0000 0000 0000 0000 0000
00000310: 0000 0000 0000 0000 0000 0000 0000 0000
00000320: 0000 0000 0000 0000 0000 0000 0000 0000
00000330: 0000 0000 0000 0000 0000 0000 0000 0000
00000340: 0000 0000 0000 0000 0000 0000 0000 0000
00000350: 0000 0000 0000 0000 0000 0000 0000 0000
00000360: 0000 0000 0000 0000 0000 0000 0000 0000
00000370: 0000 0000 0000 0000 0000 0000 0000 0000
00000380: 0000 0000 0000 0000 0000 0000 0000 0000
00000390: 0000 0000 0000 0000 0000 0000 0000 0000
000003a0: 0000 0000 0000 0000 0000 0000 0000 0000
000003b0: 0000 0000 0000 0000 0000 0000 0000 0000
000003c0: 0000 0000 0000 0000 0000 0000 0000 0000
000003d0: 0000 0000 0000 0000 0000 0000 0000 0000
000003e0: 0000 0000 0000 0000 0000 0000 0000 0000
000003f0: 0000 0000 0000 0000 0000 0000 0000 0000

mu.weight f4 [2, 300]
0.0017795092 -0.00030169194 -0.0017895548 -0.00043132994 0.0025418904 -0.0006864907 -0.00029319478 0.0015505264
0.0005466675 -0.0018962824 0.0017312989 0.00044137798 -0.0026076187 0.00012872485 -0.00053500733 -0.00039457763
-0.0016863885 -0.000673851 0.00049733906 0.0027615987 -0.0005262329 -2.8413488e-05 -0.0029833657 -0.002858274
0.00158802 0.0018287003 0.0026461328 0.0022785245 -0.0024280502 -0.0009854534 0.0026743487 -0.00047375285
0.002438624 0.000590916 0.0011683013 -0.0009557409 -0.0029534202 -0.0015037007 0.0027467245 -0.0005488468
-0.0006867747 -0.0005018513 0.0020330073 0.0023999354 -0.00037697097 -0.00048618717 0.0013704542 0.0022184993
-0.002948674 -0.0009314285 0.0022954121 -0.002027118 -0.0026654503 0.0011807322 -0.0005325591 0.002507456
-0.0019516887 -0.002905013 0.0027435785 -0.000205755 -0.00035480014 -0.0018217353 0.002144198 0.001966558
-0.0021273298 -0.001523018 -0.0013435725 -0.0013113427 -7.3525356e-05 -0.002419865 -0.0014119903 0.00038460665
-0.00069774734 -0.00085786777 -0.0027788933 0.0019655442 -0.0028029312 -0.0005802079 0.0019593677 0.002296952
0.00076156063 0.0014635609 0.0009823334 -0.0020995564 -0.00042904448 0.0003207561 -0.0016801626 -0.0017866313
0.0010721581 -0.0011663539 0.0010902486 0.0023881951 4.543457e-05 -0.00256575 0.002816836 0.0020342963
-0.0023526577 0.0015109899 0.00023153657 0.0017062039 -0.0010640927 -0.0016871721 0.002508815 -0.0016401995
-0.0016390561 -0.0006577696 0.0010727346 0.00017602649 -0.002072402 -0.0019555225 0.0027010995 0.0029560835
0.0016697748 -4.8941e-06 -0.0009775679 -0.00029044063 0.0010436024 0.0029333741 -0.0028451236 0.0028762538
0.00051277946 -0.00043659704 -6.6561624e-05 -0.002655531 0.0002988123 8.435198e-05 -0.0019431385 0.0013353336
-0.0015518535 -0.0028976302 -0.0012704451 0.0015240293 0.0022395314 0.0021014814 -0.0001898075 0.0010689264
0.0026596976 -0.0018170998 0.0022605527 0.00017238548 -0.0022315003 6.9214264e-05 -0.00021113525 -0.0019071314
-0.0010847823 -0.0009278429 0.001607364 0.00064025796 0.0008287672 0.0028540078 0.0003819205 0.0013438058
-0.00010211882 -7.763668e-05 -0.00060305395 0.0010153106 0.0028550955 -0.0006371115 0.001814656 -0.002136862
0.0010071332 -0.001794508 -0.0010517768 0.0021599792 0.0023813755 0.00029240013 0.0008081915 -0.0012896587
-0.0022589015 0.0021062456 0.00043343613 -0.0018016408 0.0007352636 0.0012646788 0.00055515394 0.0013831407
-0.0026937737 -0.0021602158 -0.0017432299 -0.00019690534 9.982684e-05 -0.001109775 -0.0005718556 -0.0022504115
-0.0014693631 -0.0015271304 0.0022523282 0.002433612 -0.0029559042 -0.00204084 -5.5308687e-05 0.0010315808
-0.0016551951 -9.275181e-05 -0.0015456293 -0.0025668791 -0.00047918875 0.002857898 -0.001925004 0.0020380714
0.0003307222 -0.000641186 -0.0019943933 0.0008758367 0.00092644384 -0.00229549 -0.00023639924 0.0006586157
-0.0015700457 -0.0008596906 0.0022988357 0.0003633981 0.0019575465 -0.002096861 -0.000990092 0.0012231013
-0.002065768 0.0005223409 0.0010086931 -0.0008196472 0.00290388 -0.0005246529 -0.00093452167 -0.0024264597
-0.0027693948 0.002444595 -0.0011626658 4.7065318e-05 0.0023816298 -0.0015113133 -0.0026276628 -0.0026441028
0.0019262959 0.00047737896 0.00044714892 -0.0026199166 0.0012535756 -0.0008739077 -0.0007373879 0.0022052284
-0.0024470207 -0.0013696114 0.0019590603 0.001103614 -0.001175683 -0.0019300568 0.0006756191 -0.0014711065
-0.0015217545 0.00086133275 -0.0014029898 0.0024245963 9.306939e-05 -0.0017015673 0.0026655993 0.0027384995
00000000: 6c3e e93a 682c 9eb9 7f8f eaba 2024 e2b9
00000010: d895 263b 9cf5 33ba f0b7 99b9 083b cb3a
00000020: 3c4e 0f3a ae8c f8ba c0ec e23a c068 e739
00000030: 95e4 2abb 50fa 0639 bc3f 0cba 50df ceb9
00000040: cf09 ddba 60a5 30ba dc5f 023a f0fb 343b
00000050: e4f2 09ba 8059 eeb7 9284 43bb e151 3bbb
00000060: 1c25 d03a 00b1 ef3a be6a 2d3b 4c53 153b
00000070: ec1f 1fbb 542a 81ba 2044 2f3b 0862 f8b9
00000080: 52d1 1f3b b4e7 1a3a b021 993a b08a 7aba
00000090: 2b8e 41bb d317 c5ba 6402 343b 7ce0 0fba
000000a0: ac08 34ba ac8e 03ba 343c 053b 3c48 1d3b
000000b0: 30a4 c5b9 f0e6 feb9 d0a0 b33a 3e64 113b
000000c0: 8a3e 41bb 1c2b 74ba a06e 163b 66d9 04bb
000000d0: d6ae 2ebb ccc2 9a3a 709b 0bba 2254 243b
000000e0: cecf ffba 0862 3ebb 9ccd 333b f0bf 57b9
000000f0: 7804 bab9 4bc7 eeba ac85 0c3b 5ee1 003b
00000100: ac6a 0bbb 01a0 c7ba d01a b0ba 5ce1 abba
00000110: a031 9ab8 9996 1ebb 8812 b9ba 08a5 c939
00000120: 08e9 36ba 88e2 60ba 181e 36bb 5cd0 003b
00000130: 62b1 37bb 1819 18ba bc68 003b 7688 163b
00000140: 78a3 473a f4d4 bf3a a4c1 803a b698 09bb
00000150: 60f1 e0b9 282b a839 e738 dcba 662d eaba
00000160: a887 8c3a 58e0 98ba ace6 8e3a 4483 1c3b
00000170: 0091 3e38 2426 28bb aa9a 383b d451 053b
00000180: 0c2f 1abb 680c c63a a0c8 7239 b4a2 df3a
00000190: 0779 8bba 1a24 ddba ee6a 243b f6fb d6ba
000001a0: 99d5 d6ba 2c6e 2cba 009b 8c3a c093 3839
000001b0: 23d1 07bb 3928 00bb ee04 313b daba 413b
000001c0: 58dc da3a 0038 a4b6 bc21 80ba 4846 98b9
000001d0: 7cc9 883a da3d 403b 4175 3abb 887f 3c3b
000001e0: 0c6c 063a 10e7 e4b9 0097 8bb8 6b08 2ebb
000001f0: e8a9 9c39 20e6 b038 e9b0 feba 5c06 af3a
00000200: 9067 cbba 2be6 3dbb 1085 a6ba f0c1 c73a
00000210: 1ac5 123b 02b9 093b 1007 47b9 381b 8c3a
00000220: 524e 2e3b c02b eeba c825 143b 60c2 3439
00000230: 5d3e 12bb 2027 9138 3064 5db9 b6f8 f9ba
00000240: 412f 8eba 7c3a 73ba 30ae d23a fcd6 273a
00000250: a041 593a 4e0a 3b3b 803c c839 a422 b03a
00000260: a028 d6b8 e0d0 a2b8 4416 1eba 2c14 853a
00000270: 8e1c 3b3b d403 27ba c0d9 ed3a 980a 0cbb
00000280: c801 843a b235 ebba c6db 89ba 708e 0d3b
00000290: da10 1c3b 484d 9939 d0dc 533a c409 a9ba
000002a0: 140a 14bb f008 0a3b d03e e339 0925 ecba
000002b0: b4be 403a 94c3 a53a c087 113a 804a b53a
000002c0: 068a 30bb 6892 0dbb 177d e4ba 6078 4eb9
000002d0: 205a d138 df75 91ba 94e8 15ba a47b 13bb
000002e0: a597 c0ba fe29 c8ba cc9b 133b 3c7d 1f3b
000002f0: d8b7 41bb 9dbf 05bb 40fb 67b8 1c36 873a
00000300: 22f3 d8ba c083 c2b8 b796 caba 1639 28bb
00000310: a03b fbb9 924b 3b3b 6a50 fcba 2a91 053b
00000320: c864 ad39 4415 28ba 5eb4 02bb 6898 653a
00000330: 98dc 723a ee6f 16bb f0e1 77b9 f4a6 2c3a
00000340: fec9 cdba dc5c 61ba 10a8 163b 7886 be39
00000350: 2e4a 003b 7d6b 09bb fac5 81ba 7850 a03a
00000360: d661 07bb b4ed 083a 2036 843a 98dd 56ba
00000370: 064f 3e3b dc88 09ba b0fa 74ba 3d05 1fbb
00000380: bc7e 35bb 8035 203b 9764 98ba 0068 4538
00000390: 1e15 1c3b 4217 c6ba de34 2cbb af48 2dbb
000003a0: c47b fc3a b848 fa39 506f ea39 e8b2 2bbb
000003b0: 044f a43a f416 65ba 444d 41ba 9885 103b
000003c0: 325e 20bb 8884 b3ba 9463 003b 24a7 903a
000003d0: 6019 9aba f6f9 fcba 081c 313a 25d2 c0ba
000003e0: 9c75 c7ba 10cb 613a 87e4 b7ba fae5 1e3b
000003f0: 402e c338 2007 dfba 56b1 2e3b 6678 333b

mu.bias f4 [2]
-0.001534858 -0.0023964865
00000000: 4a2d c9ba 5f0e 1dbb
