Zadanie3/srcV2/models/VEP_exp_prob_01_exploration_50/actor_network.pth (torch, 507007 bytes, 10 tensors)

fc1.weight f4 [400, 8]
000000 0b 12 2d be 17 be d8 3e 6d f5 34 be 17 b8 8c be
       -0.16901414 0.42332527 -0.17671748 -0.274842
000010 71 8d 3b 3e 72 a6 fc 3d 54 4e f9 3d 0e ce 41 3e
       0.18315674 0.123364344 0.12173143 0.1892626
000020 a3 35 4e be 26 c1 ca 3e 30 61 76 be a0 fa c3 be
       -0.20137648 0.39600486 -0.24060512 -0.3827715
000030 ab 99 97 3e cf cc b4 3e e5 2c 63 3d 4e 52 20 be
       0.29609427 0.35312507 0.055462737 -0.15656397
000040 cd a3 43 be cd 66 16 3f ba 36 72 be 71 7f 20 bf
       -0.19105454 0.5875061 -0.23653689 -0.6269446
000050 06 5b 23 3e 30 2a 2b 3d 71 1e 61 3e fe cf b7 3e
       0.15952691 0.04178828 0.21984269 0.35900873
000060 70 43 0f be b0 ee c6 3e 70 47 a4 bd 71 99 0f be
       -0.13990569 0.3885398 -0.08021438 -0.14023377
000070 c2 20 d9 bb 25 cc 2b be 31 90 b5 3c 8a 53 05 3d
       -0.0066262195 -0.16777094 0.022163482 0.032550372
000080 e1 de 53 be 3c d0 ef 3e 53 56 3c be a6 e2 21 bf
       -0.2069049 0.46838558 -0.18392305 -0.63236463
000090 9b bf 19 be 51 86 4d 3e df 16 ea 3d 7f 70 8d 3e
       -0.15014498 0.20070769 0.114301436 0.2762489
0000a0 ad 25 39 be cc 16 e4 3e f0 9f 53 be 42 19 6b be
       -0.18080778 0.44548643 -0.2066648 -0.22958854
0000b0 57 67 8d 3e 35 19 c3 3d f7 fc 3f 3e a9 2c 54 3d
       0.27617905 0.09526292 0.18748842 0.051800404
0000c0 f2 01 f9 be d9 36 5c 3f 89 05 e4 be 6a 66 9d bf
       -0.48634297 0.8602119 -0.44535473 -1.2296879
0000d0 91 c2 1d 3f 45 5d 92 3e 26 65 c3 3e 9e 32 0d 3f
       0.6162501 0.28586784 0.38163108 0.5515536
0000e0 07 71 3e be 5d 18 e1 3e 47 3e 0b be 9e 5b b8 be
       -0.18597804 0.439639 -0.13597976 -0.36007398
0000f0 ff 06 07 3e 76 b7 77 bd ac f7 19 3e c0 26 35 3e
       0.13186263 -0.060477696 0.15035886 0.17690563
000100 83 a9 e3 bd 91 f6 c3 3e 12 23 42 be 25 8b 20 be
       -0.11116316 0.38274053 -0.18958691 -0.1567808
000110 0d a7 40 3e ee 3b a0 3d da 85 62 3e 69 77 37 3e
       0.18813725 0.07823931 0.22121373 0.17916645
000120 47 06 3d be a8 31 b7 3e c6 a4 7d be db 95 4c be
       -0.18459426 0.35780072 -0.24769887 -0.1997904
000130 89 26 4a 3e cd 72 68 3e 2e 22 d7 3d d8 92 06 3c
       0.19741262 0.22700043 0.10504566 0.008213721
000140 1f 80 e4 bd 07 c0 b5 3e fc 76 58 3c e9 b6 77 be
       -0.1115725 0.35498068 0.013211962 -0.24190868
000150 36 ef 67 b9 ae 86 80 be e0 ac e4 3d ba 19 95 bd
       -0.0002211899 -0.25102752 0.11165786 -0.072802976
000160 44 cb 13 be 6c da bc 3e 97 1b 2b bd b1 0c d0 bd
       -0.14433008 0.36885393 -0.04177436 -0.10158671
000170 90 f7 55 3b fa 49 44 be 3b 3d 78 bd 92 46 22 3c
       0.003264878 -0.19168845 -0.06060527 0.009904521
000180 a7 40 83 be 9b 5e 0f 3f 05 c0 09 be 71 6c 19 bf
       -0.25635263 0.5600373 -0.13452156 -0.59931093
000190 c0 97 54 3e b4 fe c6 3d be a6 06 3e 6e 21 cc 3e
       0.20761013 0.097165495 0.13149545 0.39869255
0001a0 04 87 10 be d6 c2 ca 3e f9 03 bc be 86 d7 8c 3d
       -0.14114004 0.39601773 -0.3672178 0.06877045
0001b0 e4 b9 e3 3e 4a 45 23 3e 81 8a 49 bd eb f5 e8 3d
       0.4447776 0.159444 -0.049204353 0.1137503
0001c0 93 b9 99 bc 50 45 bb 3e b6 b1 71 be b9 18 49 be
       -0.018765246 0.3657632 -0.23602948 -0.19638337
0001d0 bb 18 0d 3e ea 52 9d bd 3e 71 84 3d 64 8d b6 3d
       0.13778965 -0.0768183 0.06466912 0.08913687
0001e0 57 e8 82 be 72 43 16 3f 04 22 84 be c5 ee 23 bf
       -0.25567886 0.58696663 -0.25807202 -0.6403621
0001f0 3d 08 05 3e c0 d9 be 3d 34 7d 40 3e 83 dc bc 3e
       0.12991424 0.09318876 0.18797761 0.36886987
000200 68 5e 3c be 24 20 cc 3e dd 65 50 bd bd 22 05 bf
       -0.18395388 0.3986827 -0.050878394 -0.5200613
000210 49 7f f8 bc 1d d4 cb bc 71 67 52 3c be 2a ba 3e
       -0.030334132 -0.024881417 0.012842045 0.36360735
000220 47 70 3f be 1c 0a d2 3e b0 f6 ac bd dc e5 c9 be
       -0.18695174 0.41023338 -0.084454894 -0.3943318
000230 50 8c 65 3c 79 87 9d bd ab 14 60 3d c9 93 c3 3d
       0.014010504 -0.07691855 0.05470721 0.09549672
000240 76 6a 43 be ee 5f db 3e 5b d9 7c be 24 43 9c be
       -0.1908358 0.42846626 -0.2469229 -0.30519974
000250 4e e5 a0 3e 88 9f f8 3d e3 ad 82 3d ef ed 0c 3e
       0.31424946 0.12139803 0.063808225 0.1376264
000260 e7 5a 10 be b3 51 f8 3e cb 8e fa bd b2 47 0b bf
       -0.14097176 0.48499832 -0.12234267 -0.54406273
000270 3f f9 27 3e 14 dd fb 3b ce 04 0b 3e c2 04 b7 3e
       0.16403674 0.0076862667 0.13576052 0.35745817
000280 43 9b 07 be e5 8d da 3e ac c0 44 be ad 89 d4 be
       -0.13242821 0.42686382 -0.19214123 -0.41511288
000290 f2 fc 3b 3e 93 35 02 3d cb 28 4a 3d fa cf 93 3e
       0.1835821 0.031789374 0.04935531 0.2886961
0002a0 34 da 0b 3e e5 26 4b 3e 0e ac a0 3d d6 df ef be
       0.13657457 0.19839056 0.07845317 -0.4685046
0002b0 91 a9 67 3d fe 0f c4 bd 3d a3 c8 be d7 c3 58 be
       0.056558196 -0.09573363 -0.3918704 -0.21168457
0002c0 15 47 a3 be 13 3b 28 3f 44 72 a4 be b9 b7 7f bf
       -0.3189017 0.6571514 -0.32118428 -0.99889714
0002d0 f6 49 ce 3e dc a4 4a 3e 8c 2b 80 3e aa 11 d5 3e
       0.40290803 0.19789451 0.25033224 0.4161504
0002e0 57 3b 6c bd 8e fa c9 3e 11 2d c4 bd 54 e2 d7 be
       -0.05767378 0.3944897 -0.09578908 -0.42164862
0002f0 fc 29 d3 3c 1c 97 b2 bd 18 ff ff 3d 10 70 83 3e
       0.025776856 -0.08720228 0.12499827 0.25671434
000300 c6 76 39 be 51 3c c8 3e 5c ff 08 be 60 f3 e4 bd
       -0.18111715 0.39108518 -0.13378662 -0.111792326
000310 df 55 36 3c c9 2e 6c be 13 95 c0 3c 5d 7f 4c bc
       0.011128872 -0.23064722 0.023508584 -0.012481538
000320 ad dd f7 bd fc 20 e3 3e 2b 06 3f be 5e f7 d4 be
       -0.12102828 0.44361103 -0.18654697 -0.41594976
000330 cc 9c 45 3e 0f 5e 82 3c 56 20 b3 3d 22 d3 93 3e
       0.19298095 0.015913991 0.08746402 0.2887202
000340 47 a7 9a bd 54 e4 aa 3e a2 82 98 3d ad a2 01 bd
       -0.07551437 0.33377326 0.07446791 -0.03164928
000350 45 60 11 bd a6 59 21 be 72 7c a7 3e f9 99 69 3d
       -0.0354922 -0.15756854 0.32712132 0.057031605
000360 6a 1f 11 be 1a 87 95 3e 28 be 0a be 35 81 32 bf
       -0.1417214 0.29204637 -0.13549101 -0.69728404
000370 f6 d8 06 be f8 aa ab 3d 2b 9b df be f7 a5 ee bd
       -0.13168702 0.08382219 -0.4367307 -0.11652749
000380 12 0e a4 be 15 ca 36 3f 96 2c 8f be 24 4d 47 bf
       -0.32041985 0.714021 -0.27963704 -0.7785208
000390 8f 28 b2 3e e0 dc 13 3e 47 9d 8f 3e f3 21 e9 3e
       0.3479657 0.14439726 0.2804968 0.45533714
0003a0 8a db 86 be ac 22 a8 3e e7 5d 3e be b0 65 00 bf
       -0.2633937 0.32838953 -0.18590508 -0.5015516
0003b0 de 2f cd 3e 36 16 0c 3f 1e dd 4c 3e 5d e2 f1 3d
       0.40075582 0.5472139 0.20006225 0.118107535
0003c0 54 2f f6 bd b9 ac 21 3e 0b db 08 be 68 a0 1e bf
       -0.12020746 0.15788545 -0.13364808 -0.6196351
0003d0 ad f9 c3 3e a7 82 07 3f e2 09 c4 bd f6 76 74 3e
       0.38276425 0.52933735 -0.095721975 0.23873505
0003e0 05 07 61 be b9 5a 8a 3e 24 b3 18 be 38 a8 01 bf
       -0.21975334 0.2702234 -0.14912087 -0.50647306
0003f0 46 6c 31 3e a0 b4 f5 3c a6 4a c7 3e ad d3 b1 3d
       0.1732646 0.029993355 0.3892414 0.08682952

fc1.bias f4 [400]
000000 53 da cc 3e 47 5c b1 3e 0d 98 23 3f 57 0a c3 3e
       0.40010318 0.34640715 0.63903886 0.38093826
000010 88 51 e7 3e 3b 7b e2 3e b0 c9 55 3f ce 56 e4 3e
       0.4517939 0.44234642 0.83510876 0.44597477
000020 80 26 a3 3e eb bf 85 3e ae b8 ba 3e 4c d2 c6 3e
       0.3186531 0.26122984 0.36469024 0.3883232
000030 18 21 1e 3f 42 8a 40 3e 7a 37 a9 3e 1b 62 16 3f
       0.6176925 0.18802741 0.33050138 0.5874345
000040 65 65 d7 3e 3d 41 dd 3e 33 5f cf 3e 58 d1 ff 3e
       0.42069545 0.43213835 0.4050232 0.49964404
000050 9c 38 fe 3e 44 3a 89 3e fb 9a 41 3f fa 1e d4 3e
       0.49652565 0.26802266 0.75627106 0.41429883
000060 43 8f ae 3e 44 27 f8 3e 64 86 a7 3e 8c 29 a6 3e
       0.34093675 0.48467457 0.3271972 0.32453573
000070 fb 6a 41 3f 80 b2 86 3e 60 5e 8e 3e 29 fd ab 3e
       0.75553864 0.2630806 0.27806377 0.33591583
000080 1e bc de 3e 19 19 f8 3e f5 14 c2 3e 0f 8a e7 3e
       0.43502897 0.48456648 0.37906614 0.45222518
000090 5d 07 0c 3f b7 75 cc 3e 25 32 05 3f 6b ea 1b 3f
       0.54698735 0.3993356 0.5202964 0.6090457
0000a0 b9 6b 96 3e fc 0f fa 3e 44 27 e7 3e db 45 90 3e
       0.2937906 0.4884032 0.45147145 0.28178295
0000b0 14 2b 05 3f 68 f8 aa 3e 15 70 a9 3e 04 24 03 3f
       0.52018857 0.33392644 0.33093324 0.5122683
0000c0 7c d1 e2 3e 60 94 04 3f d8 b3 b7 3e 63 f6 05 3f
       0.4430045 0.517889 0.35879397 0.5232908
0000d0 44 00 bc 3e 32 fd 9e 3e 16 37 62 3e a0 c6 a7 3e
       0.36718953 0.31052548 0.22091326 0.32768726
0000e0 e8 78 f5 3e 88 59 d9 3e 56 60 0c 3f d5 6f 97 3e
       0.47943807 0.4245112 0.54834497 0.2957751
0000f0 7e 4c 9c 3e 87 43 b4 3e c8 70 c0 3e 2e 49 2c 3f
       0.3052711 0.3520777 0.37586045 0.67299163
000100 57 00 ef 3e fe 18 7b 3e 54 e6 de 3e 15 66 00 3f
       0.46679947 0.24521253 0.435351 0.50155765
000110 c2 ff 86 3e db ee bf 3e ab 40 ed 3e 81 fa 5f 3e
       0.26367003 0.3748692 0.463384 0.21872903
000120 f8 93 c2 3e f6 b3 d7 3e e1 a7 d8 3e 01 ae 93 3e
       0.38003516 0.42129487 0.4231558 0.28843692
000130 73 e1 0b 3f 3c 5d f8 3e b6 1f 9a 3e f0 bd 6c 3f
       0.54640883 0.48508632 0.3010232 0.9247732
000140 b1 c4 89 3f ef a1 83 3e 86 00 1b 3f e7 6e 20 3f
       1.076315 0.25709483 0.60547674 0.62669224
000150 f1 f7 7f 3e ed e0 9f 3e 1a 60 c9 3e 5e a3 28 3f
       0.24996926 0.31226292 0.39331132 0.6587428
000160 27 c0 a6 3e 4c 33 8e 3e 5a ef dc 3e e1 57 9d 3e
       0.32568476 0.2777351 0.4315136 0.3073111
000170 c2 9a 93 3e 05 bf 63 3e 59 0f ed 3e 25 2d ec 3e
       0.28829008 0.22240837 0.46300772 0.46128193
000180 87 0d 8c 3e 2e 13 13 3f bb b5 00 3f 4a 6b 9a 3e
       0.2735407 0.5745114 0.502773 0.3015998
000190 c6 ad c2 3e 84 60 ce 3e c8 de 06 3f b7 9a c8 3e
       0.38023204 0.4030801 0.5268369 0.39180538
0001a0 4f 71 aa 3e 6b cc ce 3e 2b fd a5 3e 39 d6 89 3e
       0.33289573 0.40390334 0.32419714 0.2692125
0001b0 75 db bb 3e 0a 85 0a 3f b5 a4 8f 3e 9b 08 e7 3e
       0.3669087 0.5410925 0.2805535 0.45123753
0001c0 14 0e f3 3e 43 b2 ae 3e 1e 6f c5 3e 60 bd 1a 3e
       0.47471678 0.34120378 0.38561338 0.15111303
0001d0 10 b8 00 3f be 2f a7 3e 78 24 9a 3e a2 19 0a 3f
       0.5028086 0.32653612 0.30105948 0.5394536
0001e0 37 7b 02 3f 5b c8 cd 3e 10 a8 d9 3e ce b7 c0 3e
       0.5096926 0.40191922 0.42511034 0.37640232
0001f0 1c 35 a3 3e cb 3c c8 3e 18 91 d8 3e 1a 9d a7 3e
       0.31876457 0.3910888 0.42298198 0.32737046
000200 7f fb c2 3e 35 0b c3 3e 1f cd b7 3e 6a 2e da 3e
       0.380825 0.38094488 0.35898682 0.42613536
000210 48 b6 aa 3e 1a 76 ea 3e d9 eb 78 3e cb 8a 6c 3e
       0.33342195 0.4579323 0.24308719 0.2309982
000220 1e 8e 95 3e 64 0b f3 3e f0 f1 a7 3e c9 08 83 3e
       0.2920999 0.47469628 0.3280177 0.2559264
000230 cb c2 20 3e bf ed a4 3e c3 d7 a7 3e ad e5 67 3e
       0.15699308 0.32212636 0.327818 0.22646208
000240 52 4b 6e 3e bb c7 3f 3f b0 63 e8 3e a9 0a d3 3e
       0.2327092 0.7491414 0.45388556 0.4121907
000250 49 ea bd 3e 80 bb 85 3e ac bf c2 3e c1 3e 80 3e
       0.37092808 0.26119614 0.3803686 0.25047877
000260 cf d8 d1 3e d7 e7 a6 3e 7e bf a5 3e d5 8c 88 bc
       0.40985724 0.32598755 0.3237266 -0.016668716
000270 7c 3f a2 3e 3d 90 33 3f 1e 68 6f 3e bf 2c 06 3f
       0.3168906 0.70141965 0.23379561 0.5241203
000280 4c 37 b0 3e fe 53 f6 3e 25 27 ea 3e ab 5f cc 3e
       0.34417188 0.48110956 0.4573299 0.3991674
000290 9e cc 16 3f a5 fe 8e 3e 74 bf ba 3e e0 ff e0 3e
       0.5890597 0.27928653 0.36474192 0.43945217
0002a0 04 41 10 3f fe 5f 7c 3e f3 00 4c 3f a5 7f 80 3e
       0.56349206 0.24645993 0.7968895 0.25097385
0002b0 41 33 e7 3e ef 62 f3 3e b1 38 c6 3e d5 8c 51 3e
       0.4515629 0.47536418 0.38715127 0.2046388
0002c0 23 61 79 3e f1 54 8d 3e a1 d8 e4 3e fe 86 90 3e
       0.24353461 0.27603868 0.44696525 0.2822799
0002d0 cb 6f dc 3e de 5b 8f 3e d9 0a ba 3e 09 60 02 3f
       0.4305404 0.27999777 0.363364 0.5092779
0002e0 b8 97 d1 3e 82 d7 67 3e 40 5b dd 3e 44 22 64 3e
       0.40936065 0.22640803 0.4323368 0.22278696
0002f0 e9 f9 ce 3e 60 eb 29 3f af 5e 32 3e 10 ee 0e 3f
       0.4042504 0.6637478 0.17418931 0.55832005
000300 79 ec e8 3e fc 6d 97 3e d2 35 e2 3e 39 50 be 3e
       0.45492914 0.295761 0.44181687 0.3717058
000310 64 d9 a7 3e 36 b8 a9 3d 50 6d 93 3e 7a 29 e6 3e
       0.32783043 0.082870886 0.28794336 0.4495352
000320 2b 7f f4 3e ef 82 ad 3e 52 4a a5 3e cc b7 e2 3e
       0.4775327 0.33888957 0.32283264 0.4428085
000330 a8 b3 c0 3e 51 11 ed bd 57 2c 12 3f 53 38 f9 3e
       0.37637067 -0.115755685 0.5709891 0.48675784
000340 f5 49 b2 3e 9e 8c e3 3e f3 a8 0c 3f fd 0f da 3e
       0.3482205 0.4444322 0.54945296 0.42590323
000350 c4 02 d4 3e bd cf be 3e 4c 60 9b 3e ab 6d 0f 3f
       0.4140836 0.37267867 0.30346906 0.56026715
000360 5f 81 46 3e 0e c5 97 3e 2d a4 ae 3e e0 b1 03 3f
       0.19385289 0.29642528 0.3410963 0.5144329
000370 90 a8 f0 3e 32 58 f6 3e 63 b9 7c 3e d8 ac 89 3e
       0.47003603 0.48114163 0.24680094 0.26889682
000380 90 49 c2 3d 93 d2 4f 3e b2 58 c9 3e a8 9d d0 3e
       0.09486687 0.20295171 0.39325482 0.40745282
000390 a0 92 a1 3e 78 07 c3 3e 5e b7 94 3e 4c e5 01 3f
       0.31557178 0.38091636 0.29046148 0.50740504
0003a0 ef e1 94 3e cf 7c 9f 3e 74 65 b2 3e 2f 1c a3 3e
       0.29078624 0.3114991 0.34843028 0.3185744
0003b0 25 a6 b8 3e 62 62 9f 3e 9d 51 a2 3e 1b b1 92 3e
       0.36064258 0.31129748 0.3170289 0.28650746
0003c0 ec 23 10 3f 11 40 a2 3e 7d 62 93 3e 01 51 e7 3e
       0.5630481 0.31689504 0.28786078 0.4517899
0003d0 c8 e0 ba 3e 37 74 e9 3e 0e 8a e1 3e 28 e2 0f 3f
       0.3649962 0.45596477 0.4405064 0.5620446
0003e0 98 b7 ca 3e 54 c1 c3 3e af d4 ab 3e 1b d3 c0 3e
       0.39593196 0.38233435 0.33560702 0.3766106
0003f0 28 01 22 3f db df 99 3e a8 30 ea 3e 59 e3 88 3e
       0.63283014 0.300536 0.45740247 0.26735952

bn1.weight f4 [400]
000000 de 52 81 3f fc 49 a0 3f bf ad d4 3e 71 e4 90 3f
       1.0103414 1.2522578 0.41538808 1.1319715
000010 e8 e1 0d 3f 01 c1 78 3f 72 e6 73 3e df b3 3e 3f
       0.5542283 0.971695 0.23818377 0.7449321
000020 dc 1f b3 3f 13 5f ad 3f 57 23 8d 3f cc 88 99 3f
       1.3994098 1.3544639 1.102641 1.1994872
000030 f7 94 f6 3e 89 4c 04 40 4f 48 a7 3f 9d 3e d7 3e
       0.48160526 2.0671713 1.3068942 0.42039958
000040 19 1b 42 3f 85 e6 58 3f 3d 03 6c 3f df 05 0b 3f
       0.758226 0.84726745 0.9219244 0.54305834
000050 4f 78 31 3f 10 ab b2 3f 4a 58 a6 3e 7e 1a 49 3f
       0.693242 1.3958454 0.32489234 0.7855605
000060 4a 72 a6 3f b6 e4 30 3f 81 73 ad 3f 98 b6 d6 3f
       1.3003628 0.69098985 1.3550874 1.6774473
000070 5f 13 a3 3e 9e 6a c3 3f c7 f1 c4 3f fb 37 9b 3f
       0.31850716 1.5266912 1.5386285 1.2126459
000080 b6 79 2d 3f 65 93 1a 3f 0a bc 50 3f 08 ea 3f 3f
       0.6776384 0.60381156 0.81536925 0.7496648
000090 3f 85 0e 3f 00 d5 4b 3f d3 a4 02 3f c0 51 dc 3e
       0.5567207 0.7962189 0.5103275 0.4303112
0000a0 00 b5 a8 3f 75 c3 33 3f 55 dc 26 3f 4d c1 b8 3f
       1.3180237 0.7022012 0.6517995 1.4433991
0000b0 2f ea 09 3f 39 53 9a 3f f9 14 b9 3f 0b 1a 3c 3f
       0.5387296 1.2056648 1.4459525 0.7347724
0000c0 45 b2 28 3f 03 84 1b 3f b7 07 7a 3f 20 f2 14 3f
       0.6589702 0.6074831 0.9766802 0.58181953
0000d0 60 02 95 3f 69 05 bb 3f 51 af d0 3f 4a 38 93 3f
       1.164135 1.4611026 1.6303502 1.1501553
0000e0 20 06 2d 3f ed 48 58 3f 50 b0 37 3f 4f e4 a1 3f
       0.6758747 0.84486276 0.71753407 1.2647799
0000f0 bd 89 b0 3f 0e 21 63 3f b0 a7 96 3f 8a 49 e1 3e
       1.3792034 0.8872231 1.1769924 0.44001418
000100 bb 5f 11 3f 3c b2 c6 3f 90 ba 33 3f 39 70 32 3f
       0.567867 1.5523143 0.70206547 0.6970249
000110 d9 94 b2 3f a6 40 93 3f b3 22 27 3f ab 2d e1 3f
       1.3951675 1.1504104 0.6528732 1.7592062
000120 71 ed 9e 3f 49 71 ab 3f e7 40 4d 3f 30 c1 82 3f
       1.2416211 1.3393947 0.8017716 1.0215206
000130 58 14 0a 3f 45 9f 4e 3f 00 60 ab 3f 27 dc 8b 3e
       0.5393729 0.80711776 1.3388672 0.273164
000140 03 96 0f 3e 84 40 c4 3f b9 67 fc 3e a8 99 ea 3e
       0.14022069 1.5332189 0.49297884 0.45820355
000150 06 fd a2 3f cd e1 a1 3f 1e 7e 73 3f ae 16 d8 3e
       1.2733467 1.2647034 0.95114315 0.42204803
000160 46 5b 9b 3f 53 9d 86 3f 67 f5 97 3f c5 be d1 3f
       1.213723 1.0516762 1.1871766 1.6386343
000170 10 ce 90 3f 5f 5e e8 3f 3d 7a 27 3f 47 dd 34 3f
       1.1312885 1.81538 0.65420896 0.7065014
000180 09 91 e4 3f 79 c5 08 3f f6 c2 03 3f d7 28 ac 3f
       1.7856761 0.5342632 0.5146936 1.3449963
000190 79 41 8f 3f ad e9 93 3f 28 1f 1f 3f 13 23 59 3f
       1.1191856 1.1555687 0.62156916 0.84819144
0001a0 bd 48 84 3f db 3e 56 3f eb a2 a7 3f 07 e8 a7 3f
       1.0334698 0.8368966 1.3096594 1.3117684
0001b0 b7 3b 72 3f 65 b1 fd 3e 6b c5 86 3f 6f d1 27 3f
       0.9462237 0.49549404 1.0528997 0.65553945
0001c0 e1 ac 0d 3f 1f e9 b6 3f ab c0 9e 3f 33 f0 da 3f
       0.5534192 1.4289893 1.2402548 1.7104553
0001d0 a6 77 1c 3f cf d9 94 3f 35 d4 a2 3f 28 6c 03 3f
       0.6112007 1.162897 1.272101 0.5133691
0001e0 e7 77 19 3f 39 6f 4f 3f 67 4f 3f 3f 10 8e b0 3f
       0.5994858 0.8102909 0.74730533 1.3793354
0001f0 94 8e c9 3f c0 48 54 3f 1d 6b 66 3f 91 49 7c 3f
       1.5746636 0.8292351 0.9000719 0.98549753
000200 98 96 90 3f 6e 91 74 3f 8b 32 a5 3f 9d a7 6c 3f
       1.1295958 0.9553441 1.290605 0.9244326
000210 89 91 c2 3f 58 30 29 3f dd 8f c9 3f 09 8d c7 3f
       1.5200664 0.6608939 1.5747029 1.5589916
000220 34 d7 f6 3f 10 5b 15 3f f1 9c 90 3f ff eb d4 3f
       1.9284425 0.58342075 1.1297895 1.663452
000230 98 66 c6 3f ab 00 76 3f f6 f0 81 3f 4c ce b5 3f
       1.5500059 0.9609477 1.015166 1.4203582
000240 83 fa ac 3f 16 3f bd 3e 87 58 43 3f 5b 79 2f 3f
       1.351395 0.36962193 0.76306957 0.6854455
000250 a3 05 89 3f 33 4d c1 3f 52 ac 8f 3f 80 8b 9b 3f
       1.0704845 1.5101684 1.1224463 1.2151947
000260 3a 43 51 3f 8d 63 98 3f 6f 11 92 3f f4 01 df 3f
       0.81743205 1.190538 1.141157 1.7422471
000270 ec a2 b2 3f 16 4b 90 3e 1f 3f bd 3f bd 1b 1c 3f
       1.395597 0.28182286 1.4784888 0.60979825
000280 b7 85 9d 3f 8a 99 37 3f d6 14 33 3f 4f 83 90 3f
       1.2306432 0.71718657 0.6995367 1.1290072
000290 4a a7 f2 3e 4a 7b f5 3f b3 77 8a 3f d7 1d 40 3f
       0.47393256 1.917825 1.0817779 0.7504553
0002a0 dd 85 18 3f ca ab 9f 3f a4 5a 8b 3e e7 f7 e8 3f
       0.5957926 1.2474301 0.2721759 1.8200654
0002b0 4c 2b 40 3f 4d bd 2a 3f 55 31 96 3f eb 9e bb 3f
       0.75066066 0.666951 1.1733805 1.4657873
0002c0 3b 84 da 3f 64 90 cb 3f ba 1c 2b 3f 9d 96 83 3f
       1.7071604 1.590344 0.6684071 1.0280339
0002d0 72 02 46 3f e5 9a cf 3f 8c 45 7c 3f 66 62 2c 3f
       0.7734748 1.6219145 0.9854362 0.67337644
0002e0 de a0 61 3f cf 78 e8 3f 16 b6 50 3f 5e 8b cf 3f
       0.8813609 1.8161868 0.8152784 1.6214406
0002f0 af a1 4f 3f ad bc c6 3e 49 ca d9 3f cb df ea 3e
       0.81106085 0.38815823 1.7014858 0.45873865
000300 45 50 43 3f d7 74 a6 3f d8 62 55 3f ed fb 88 3f
       0.76294357 1.3004407 0.8335395 1.0701882
000310 aa b1 cb 3f 1f 8d 09 40 0c dd e0 3f 2c fb 25 3f
       1.5913594 2.1492383 1.7567458 0.6483638
000320 2b 94 12 3f 2a aa ac 3f 63 10 98 3f 4b 5a 2d 3f
       0.57257336 1.348943 1.1880001 0.677159
000330 c1 80 9b 3f 07 b3 27 40 47 08 15 3f 27 11 2a 3f
       1.2148668 2.620302 0.58215755 0.6643242
000340 74 9d 6a 3f 0d 8f 76 3f b2 c1 02 3f b5 85 86 3f
       0.91646504 0.9631203 0.51076806 1.0509554
000350 6a c2 61 3f 98 aa 66 3f f8 c9 c9 3f d5 74 d9 3e
       0.8818728 0.90104055 1.5764761 0.42471948
000360 f7 d6 04 40 c6 01 a8 3f 54 0c 9d 3f 90 d6 0f 3f
       2.0756204 1.3125541 1.2269387 0.5618677
000370 21 b1 32 3f 0b ba 1b 3f 6c ac 97 3f 6c 86 81 3f
       0.6980153 0.60830754 1.1849494 1.0119147
000380 26 1c 04 40 72 a8 b4 3f a4 0a 77 3f 0f 82 53 3f
       2.064218 1.4113905 0.9650061 0.8262033
000390 8e c5 a6 3f cd 29 8e 3f 6d 03 af 3f 1c d9 32 3f
       1.3029039 1.1106507 1.367292 0.6986253
0003a0 1b 07 af 3f b3 af a2 3f 51 e6 72 3f 46 5a a5 3f
       1.3674043 1.2709869 0.94882685 1.2918174
0003b0 b3 ce 80 3f cc 09 9a 3f 1d c7 a4 3f 5d 84 bd 3f
       1.006308 1.203424 1.2873265 1.4806019
0003c0 f0 b6 fd 3e d6 22 70 3f 0c fa b3 3f cd 08 46 3f
       0.49553633 0.93803155 1.4060683 0.7735718
0003d0 9f 19 65 3f 7b 72 43 3f e4 73 4b 3f 4f be 1f 3f
       0.8949222 0.7634656 0.7947371 0.6239976
0003e0 a8 64 5c 3f 73 98 74 3f 6f 1b b7 3f a8 e9 84 3f
       0.8609109 0.9554512 1.4305247 1.0383806
0003f0 fe 34 ca 3e 94 60 dc 3f cb 9f 21 3f 13 3c ee 3f
       0.39493555 1.7216973 0.6313445 1.8612083

bn1.bias f4 [400]
000000 bd fd 0e be 4b 66 34 be 7d 6c 2f bf 37 f1 8d be
       -0.13963981 -0.17617147 -0.68524915 -0.27723095
000010 1b f8 02 bf 85 9b 56 be 77 38 57 bf 7e 3a da be
       -0.5115983 -0.20957763 -0.84070534 -0.4262275
000020 21 1e da bd 03 f1 b8 bd 34 2f 41 be 7c 10 96 be
       -0.10650278 -0.09030344 -0.18865663 -0.29309452
000030 79 88 22 bf f0 0d c6 bd 2a 25 1b be 5e bd 32 bf
       -0.6348949 -0.09670627 -0.15150896 -0.698202
000040 db 8f cd be 81 d7 bd be 36 19 30 be f5 42 13 bf
       -0.40148816 -0.3707848 -0.17197117 -0.57524043
000050 47 d1 d7 be 13 81 84 3c 80 d6 36 bf c1 db d2 be
       -0.42151853 0.016174829 -0.7142105 -0.41183284
000060 30 72 77 bd 07 76 fa be 80 45 d0 bd 78 ed 3a 3e
       -0.060411632 -0.48918173 -0.10169506 0.1825465
000070 b9 7a 38 bf 44 a4 25 3d ca b5 c3 3d 74 e8 13 be
       -0.7206226 0.04043986 0.09556158 -0.14444143
000080 a2 7c e6 be 75 49 f6 be c4 07 b8 be 33 f0 c8 be
       -0.45016962 -0.48102918 -0.35943425 -0.39245757
000090 9f 1c 0f bf 37 b9 b8 be d3 c0 1b bf c1 b4 1a bf
       -0.5590305 -0.36078808 -0.608411 -0.6043206
0000a0 5b 1f 05 be 1d 48 f1 be 99 cb da be 4c 2d ac bd
       -0.13000242 -0.4712533 -0.42733458 -0.08407077
0000b0 bb c6 0b bf af 5e 32 be e1 52 20 be ce 7e c3 be
       -0.54600114 -0.17418931 -0.15656616 -0.38182682
0000c0 e1 28 ff be ad ee 06 bf cf 6d 96 be 68 9c 12 bf
       -0.49835876 -0.5270794 -0.29380652 -0.57269907
0000d0 ec 67 21 be c8 50 59 3d 71 a5 9c 3d ae 2f 28 be
       -0.157623 0.053055555 0.07648743 -0.16424438
0000e0 4c 7b 00 bf 01 88 b4 be 7d 47 c0 be 0c 8d 20 be
       -0.50188136 -0.35260013 -0.3755454 -0.15678805
0000f0 2d 26 51 3d 02 e1 98 be 0e 35 49 bd 62 b3 26 bf
       0.051061798 -0.29859167 -0.049122863 -0.65117466
000100 aa 27 0f bf 2f 67 e6 b8 3a 61 c7 be 4f aa d6 be
       -0.559199 -0.00010986474 -0.38941365 -0.4192681
000110 f8 67 41 bd 2e a4 8b be 0b be eb be e1 ae e5 bd
       -0.047218293 -0.27273697 -0.4604343 -0.11214996
000120 54 67 22 be be 62 17 be f0 f9 e4 be 61 08 e7 bd
       -0.15859729 -0.14783761 -0.44721937 -0.11280895
000130 c7 31 25 bf 9d 91 b3 be 34 9b ab bd 2a 86 46 bf
       -0.6452908 -0.35072032 -0.08379212 -0.7754847
000140 f1 42 63 bf 56 ea fe bc 45 9b 19 bf cf 29 21 bf
       -0.8877402 -0.0311176 -0.6000255 -0.6295442
000150 06 e1 0d be 21 a3 54 be 3d f1 34 be 74 05 25 bf
       -0.13855371 -0.20765354 -0.1767015 -0.64461446
000160 d9 44 41 be a1 8a a5 3d 3e 09 16 be b9 93 e6 3b
       -0.1887392 0.08083082 -0.14651963 0.007036653
000170 ed ac 5e be 9a bd d1 ba 04 41 f4 be d0 fe c4 be
       -0.21745653 -0.001600194 -0.47705853 -0.38475657
000180 d9 c3 b4 3d 9b 1b 0b bf f8 6e 27 bf 67 d3 d1 bd
       0.088264175 -0.54339 -0.654037 -0.102454
000190 1a 57 5d be 1e ba 9e be 6e 4d fc be f4 84 96 be
       -0.21615258 -0.3100137 -0.49277824 -0.2939831
0001a0 43 b5 25 be 68 01 99 be 56 17 9c bd 35 a7 87 3c
       -0.16182427 -0.29883885 -0.076216385 0.016559223
0001b0 e3 9f 5d be f4 d2 14 bf f4 17 79 be a5 02 ef be
       -0.21643023 -0.5813439 -0.24325544 -0.46681705
0001c0 ff 07 0a bf 42 1a 2e bd d5 8b 91 be 00 45 02 3e
       -0.5391845 -0.04250551 -0.28426996 0.12721634
0001d0 db 32 fa be 58 92 a5 bd 64 23 33 bd 8e 52 12 bf
       -0.48866925 -0.080845535 -0.043734923 -0.5715722
0001e0 7c 8f 0b bf d7 4e bc be 8c e9 aa be f8 4b f1 bb
       -0.54515815 -0.367789 -0.33381307 -0.0073637925
0001f0 1f 31 ea bd 0e 4f c4 be 16 83 87 be 0b 0d 98 be
       -0.1143515 -0.38341564 -0.26467198 -0.2969745
000200 f7 a1 a9 be 1e 58 6f be 6c c5 93 bd 2f 92 bf be
       -0.33131382 -0.23373458 -0.072153896 -0.37416217
000210 6e 0d b2 3c 8f b6 db be e3 8f 6c 3d 3b 0e ee bc
       0.02173492 -0.4291272 0.05775441 -0.02905952
000220 ae 43 ab 3c 6c ca 12 bf 44 1a b9 bd 30 71 db 3d
       0.020906296 -0.5734012 -0.09038213 0.10714948
000230 35 8e d7 bd a6 a1 75 be 7f c1 8a be 93 e1 46 be
       -0.10525171 -0.23987445 -0.2710075 -0.19421987
000240 6c 4b d8 bd c5 42 34 bf a5 42 d2 be 75 74 00 bf
       -0.105612606 -0.7041438 -0.4106647 -0.501777
000250 c0 47 31 be ab f8 5f bd 0e 74 72 be bb b7 0c be
       -0.17312527 -0.054680508 -0.23677084 -0.13741963
000260 60 28 bd be 6f cf 4c be 2f a5 74 bd 09 7b 66 3d
       -0.36944866 -0.20001005 -0.059727844 0.05626968
000270 76 26 b4 bd 64 94 41 bf a3 d9 9d 3d a6 51 fd be
       -0.08796398 -0.7561705 0.077075265 -0.49476355
000280 bd 64 2a be 2f 92 e7 be a7 7a e0 be 34 c2 86 be
       -0.16639991 -0.45228717 -0.43843576 -0.2632004
000290 a2 1e 15 bf 93 c5 4b 3e 2e d0 de bd f8 cd c8 be
       -0.58249867 0.19899587 -0.10879551 -0.39219642
0002a0 17 99 09 bf f2 98 17 be 81 d7 4c bf 68 28 aa bb
       -0.5374922 -0.14804438 -0.8001633 -0.005192805
0002b0 bc ab cd be 9c 2d d4 be a0 dc b1 be da 93 b6 3d
       -0.40170085 -0.41441047 -0.34738636 0.08914919
0002c0 1f 5a 08 be 85 5d 70 bc 32 ca de be 07 63 3e be
       -0.13315628 -0.014670734 -0.43513638 -0.18592463
0002d0 4a c2 a4 be 25 44 b3 bc 34 bf 81 be 50 a6 e0 be
       -0.3217948 -0.02188308 -0.2534119 -0.43876886
0002e0 9e c1 6f be 8a f5 f4 bb 6c b5 c9 be aa 01 98 bd
       -0.23413703 -0.0074755596 -0.39396226 -0.074221924
0002f0 33 37 c2 be 94 d6 3c bf 63 fe aa 3d 27 d3 1f bf
       -0.3793274 -0.7376492 0.08349302 -0.6243157
000300 8d a3 e5 be e0 8a 86 be 83 4d d3 be 2c f4 92 be
       -0.44851342 -0.26277828 -0.41270074 -0.28701913
000310 18 9e 0b be 4d 15 de 3e cc de dc bc 60 f9 f9 be
       -0.13634527 0.43375626 -0.026961707 -0.4882307
000320 91 36 07 bf f2 87 bc bd 8b 30 ba bd ae 5e e1 be
       -0.52817637 -0.09205617 -0.0909129 -0.44017547
000330 f9 0a 1c be ea 41 fa 3e bf c1 fc be 50 76 e2 be
       -0.1523856 0.48878413 -0.49366567 -0.4423089
000340 a8 be ae be 12 51 91 be 48 84 14 bf 49 e5 a6 be
       -0.34129834 -0.28382164 -0.58014345 -0.32596806
000350 6f 7d a9 be 9d ca 68 be f6 8a 73 3b da 09 37 bf
       -0.3310351 -0.22733541 0.0037161685 -0.7149941
000360 bc 9f 06 3d 2b c3 11 bd 26 19 26 be 29 2a 1f bf
       0.03286718 -0.035586517 -0.16220531 -0.62173706
000370 60 52 dd be 48 c9 0b bf cb 14 28 be 68 10 71 be
       -0.4322691 -0.54604006 -0.16414182 -0.23541415
000380 24 fc 99 3d 60 35 a1 bd d2 58 65 be fe 92 b0 be
       0.07518795 -0.078715086 -0.22397164 -0.34487146
000390 cb 0c 1b be 4c cc 2c be 10 3d 1a bc b7 ff e1 be
       -0.15141599 -0.16874808 -0.0094139725 -0.44140407
0003a0 7c e0 6c bc 93 7d 6f 3c 71 8c ea bd 99 f0 45 be
       -0.014457818 0.014617342 -0.11452568 -0.19330062
0003b0 21 96 8f be 7e 46 f7 bd 54 49 65 be 21 68 a2 3d
       -0.28044227 -0.12073992 -0.22391254 0.07930017
0003c0 9d ca 18 bf 4e 8d 87 be bc 0e 42 be 0a 4a cd be
       -0.59684163 -0.26474994 -0.18950933 -0.4009555
0003d0 7d 21 b5 be 26 34 f7 be 8d 2b c6 be 80 99 f7 be
       -0.35377112 -0.48281974 -0.38705102 -0.483593
0003e0 b0 2a a7 be a1 85 94 be 35 95 2f be a4 0b 4d be
       -0.32649755 -0.290082 -0.17146762 -0.20023972
0003f0 3e a0 30 bf 65 d0 35 bd d4 a5 10 bf b2 7d 29 3d
       -0.6899451 -0.044388194 -0.56503034 0.041379638

fc2.weight f4 [300, 400]
000000 4f c8 3a bd be 8a 80 3e 45 63 a8 3d a4 86 7f bc
       -0.045601185 0.25105852 0.08222059 -0.015596066
000010 33 b2 12 bd 40 ef e8 3d 75 28 fe bc 02 64 f1 3b
       -0.035814475 0.11373758 -0.03102515 0.007366658
000020 fc 4f 4f 3d 1d d6 74 3d 3f e3 00 be ea 88 cd 3b
       0.05061339 0.059774507 -0.12586688 0.006272425
000030 81 2a 2c 3e f4 80 d6 be b3 b9 97 3d 52 54 9e 3d
       0.16813089 -0.41895258 0.07408466 0.077309266
000040 8e a6 d3 bd 11 9f a0 be f2 40 7a bd d6 7c a1 3d
       -0.10334502 -0.31371358 -0.061097093 0.07885139
000050 13 21 2e 3e 50 43 d3 3d 99 2f 3b bd 62 41 ee bc
       0.17004804 0.10315573 -0.04569969 -0.029083911
000060 d9 69 1b be ce f6 3a 3e f7 2a 88 bd fa 3e 57 be
       -0.15177096 0.18258211 -0.0664882 -0.21020117
000070 63 17 6a 3d 93 d3 25 3d fe 31 8b be 35 ae 54 3e
       0.05715121 0.040484976 -0.2718658 0.2076958
000080 26 33 9e bd f3 79 6d 3b fc e5 14 be a1 29 c9 bd
       -0.077245995 0.0036236017 -0.14540857 -0.09822393
000090 d6 cf c4 3c b1 15 2a 3e 28 6f 8c 3d fe 73 1c 3e
       0.024024885 0.16609837 0.06857139 0.15278623
0000a0 04 c3 d6 3d 3f 1c e4 3d 43 7a 1a be 47 11 f6 3d
       0.10486415 0.111382 -0.15085702 0.12015014
0000b0 dc d6 56 be e3 df a2 be 97 37 8d 3d 04 a3 4e be
       -0.209804 -0.31811437 0.068953685 -0.20179373
0000c0 6d 3a 80 3d ed cf 4d 3e 57 a7 6f 3d 0d 95 83 bd
       0.06261144 0.20098849 0.058509197 -0.064249136
0000d0 38 db 82 be a8 4a 35 3e b5 3b 3a be c7 ef ce bc
       -0.25557876 0.1770426 -0.18186839 -0.02526082
0000e0 45 9a 17 be 5e 01 84 3e af 0d be bb e8 ba bf 3d
       -0.14804943 0.25782293 -0.005799971 0.093618214
0000f0 a8 0d 2f 3e 3b 56 99 bd 82 08 2b be 8e b2 21 be
       0.17095053 -0.0748715 -0.16702464 -0.1579077
000100 2e 2c c2 3d c2 01 a1 bd 50 fd 50 bc 30 3c f4 3d
       0.09481083 -0.078616634 -0.012755707 0.11925542
000110 c1 af cc 3d 1f be ee bd 66 d4 b6 3c 76 10 61 be
       0.0999446 -0.116573565 0.022318076 -0.21978936
000120 58 89 e7 3e c3 1d 5f be 90 96 23 bd 03 6d 32 bc
       0.45221972 -0.21788697 -0.03993851 -0.010890248
000130 27 ec f1 3c cc 9c c2 3c e0 07 80 3e 73 b8 01 be
       0.029531552 0.023756407 0.25006008 -0.12668018
000140 2d 90 24 bd d0 b9 59 bd 67 6c dd 3d d1 68 c0 3a
       -0.04017656 -0.05315572 0.10811692 0.0014679675
000150 51 17 a5 bd 53 79 22 3e 7f 23 3d be 0b 05 ea bd
       -0.08061088 0.15866594 -0.18470572 -0.11426743
000160 91 69 e2 bd f3 a9 6b bc bb cd 09 bc 9e f9 39 3e
       -0.110552914 -0.014383781 -0.008410866 0.18161628
000170 b5 31 a5 be 35 09 b5 be 2c 83 9f 3e a5 a7 14 3e
       -0.32264486 -0.35358587 0.31154764 0.14517076
000180 74 3b e8 3d 24 6f a9 bc 63 ea 7c 3d 46 fe 8f 3e
       0.11339465 -0.020682879 0.061746966 0.28123683
000190 9a 14 7b 3e cd 4e 43 3e 6c 72 7f 3d 21 69 d7 3d
       0.24519578 0.19073029 0.06236498 0.105180986
0001a0 3b 77 36 3d 46 58 4f 3e c4 01 36 be 5c bd d3 3c
       0.0445473 0.20248517 -0.17774111 0.02584713
0001b0 e1 fe cf bd e3 53 e9 3d a1 c4 05 be 15 f0 04 be
       -0.10156036 0.11392953 -0.13063289 -0.12982209
0001c0 a5 a0 18 be 90 d9 0a be 89 07 27 3d ad da ab 3e
       -0.14905031 -0.13559556 0.04077867 0.33565274
0001d0 7e 6a 73 bd 32 96 de 3d a8 59 0b 3b a0 96 3e 3e
       -0.05942773 0.10868491 0.0021263156 0.18612146
0001e0 07 f6 a6 3d c6 c9 7c be 4b 39 d8 bd d2 54 03 bd
       0.08152395 -0.24686345 -0.10557803 -0.032063313
0001f0 43 16 26 bd 14 87 99 bc 4e 3c a1 3d 87 85 9f bd
       -0.040548574 -0.018741168 0.0787283 -0.0778914
000200 fc eb a8 3d 9e e1 bd 3c b3 48 cc bd 22 69 bd be
       0.082481354 0.023178872 -0.09974804 -0.36994272
000210 fa 24 0f bd ca 95 49 bd d0 25 91 bd fa dc 94 be
       -0.034947373 -0.049215116 -0.0708729 -0.29074842
000220 8d 35 8b 3e a1 70 29 be db 26 fb 3d e8 92 90 3e
       0.27189294 -0.16546871 0.122632705 0.2823708
000230 d7 47 18 be fa b5 cc bd 9c 97 05 be 58 9a f5 be
       -0.14871155 -0.09995647 -0.13046116 -0.47969317
000240 65 66 33 be 92 cb 8f bd 6d d8 20 3e b3 0c 90 3e
       -0.17519529 -0.0702125 0.1570756 0.2813469
000250 55 66 2b 3e 51 ce 40 3d 44 09 02 3f 64 b1 b0 be
       0.16738255 0.04707176 0.5079539 -0.34510338
000260 ff 5e 0a bd 82 df 85 3e 73 df 04 3d 39 4c 2d 3e
       -0.033782 0.26147085 0.03243966 0.16923608
000270 ae 5b a7 bc 0e ec 74 be 4d 1f 15 bd 46 54 61 bd
       -0.020429458 -0.23918173 -0.036406804 -0.05501201
000280 2e f3 23 be 3a 2a 83 3e 78 99 1c 3e fb 4e a3 3d
       -0.16010734 0.25618154 0.15292919 0.07974049
000290 71 5f 14 bd 4d c2 a8 3d a9 a1 58 3d 2d d2 91 3d
       -0.036223833 0.08240185 0.052888546 0.07120166
0002a0 d6 b3 dc bd 3c 07 f8 bd ef a3 06 3e 6b 6d 9a 3e
       -0.107764885 -0.12110755 0.13148473 0.30161604
0002b0 9e 68 d5 3d 53 19 a7 3d 12 46 b4 bd 67 fa 39 3d
       0.10420345 0.08159127 -0.08802427 0.045404818
0002c0 68 5a 66 be 98 c6 9c 3e 7b 0c 07 be 5f c5 ad be
       -0.22495425 0.30620265 -0.13188355 -0.33939645
0002d0 8e 2b b3 3b 78 6b ac 3e 43 0b bf 3d 12 c5 dc bc
       0.0054678386 0.33675742 0.0932832 -0.02694944
0002e0 72 85 4b 3d 1b 18 17 bf d3 6b 48 bd c2 b7 7d 3e
       0.04968781 -0.5902116 -0.048930954 0.2477713
0002f0 48 26 50 3d 70 f3 c3 3d 53 71 b2 3e 3e b8 90 3d
       0.050817758 0.095679164 0.34852085 0.070663914
000300 78 2e a1 3d 07 73 af bd a6 29 16 3e 36 eb ee bd
       0.07870191 -0.085668616 0.14664325 -0.11665957
000310 24 cc af 3d d5 be 93 3d 1c 70 ef 3b 0e 7e 47 bd
       0.085838586 0.07214133 0.0073070657 -0.0487042
000320 fd 23 10 bc f2 c6 49 3e a4 2e 26 bb f1 ba a2 3d
       -0.008797643 0.19704798 -0.002535739 0.079458125
000330 02 e6 97 ba b0 d0 48 bf 54 dc 61 be 49 51 2f be
       -0.0011588933 -0.7844343 -0.22056705 -0.17120852
000340 cc 48 ca bc 75 eb cd be 1b 4b 8f bd 96 b8 3c be
       -0.024692915 -0.40218702 -0.06996747 -0.18429789
000350 6b 7e 04 bc 6e 99 31 be e9 60 9b 3e b3 56 48 be
       -0.008086781 -0.17343685 0.30347374 -0.19564323
000360 e3 ae e9 bc 4a e3 4f be 10 89 4b be 36 f6 14 3e
       -0.028525775 -0.20301548 -0.19876504 0.14547047
000370 e9 3c 06 bc 5d 45 44 3e 7d 62 db bd 6b 7f 5c 3e
       -0.008193233 0.19167085 -0.107121445 0.21532981
000380 11 63 a8 bd 4a da 51 be 0b 23 97 be fd 67 0c be
       -0.082220204 -0.20493427 -0.29518923 -0.13711543
000390 f8 8f 43 be 29 0a a3 3e fc 36 9c bd 1f 0e 1b be
       -0.19097888 0.3184369 -0.07627675 -0.15142106
0003a0 ac c8 dd 3d 65 e0 c7 bd ad ee f8 3d c1 a3 8d 3d
       0.10829291 -0.09759597 0.12154899 0.06915999
0003b0 a8 95 66 bd 7c 09 9e be 63 7a 1d 3e 67 e8 80 be
       -0.056295067 -0.3086661 0.15378718 -0.2517731
0003c0 d2 3d 29 be 73 42 9e bc bc ad c0 bd f9 42 f8 3c
       -0.16527489 -0.019318795 -0.09408137 0.030305373
0003d0 3e dd 99 3d 9e da 14 3e f9 d8 e0 bd 1a 61 bb 3d
       0.07512902 0.14536521 -0.10978884 0.0914938
0003e0 05 3d 2b be 2d da 82 be 46 04 0e 3e 48 d3 cb be
       -0.16722496 -0.2555708 0.13868818 -0.39809632
0003f0 d5 8f a3 bb 99 2d 50 3e 64 ad ab be 6d a4 02 3e
       -0.0049915113 0.20329894 -0.33530724 0.12758036

fc2.bias f4 [300]
000000 a4 41 83 bc 64 06 3b 3c d8 32 48 bc 49 a4 ce 3d
       -0.01602251 0.011415098 -0.012219153 0.10089929
000010 81 44 6a bd 3e 70 da 3c fc 2e c1 bc 08 cc 26 bd
       -0.057194237 0.02666485 -0.023581974 -0.040721923
000020 fe 3a 02 3c fd 60 cc 3d 4f f9 9b 3d ac 94 8b 3d
       0.007948635 0.099794365 0.07615911 0.06815466
000030 8f 58 86 bc 18 e6 34 3d fc ad 86 bc 5e 94 a0 bd
       -0.01639965 0.044164747 -0.016440384 -0.07840799
000040 b0 01 4c bd 0f 50 a2 3d 8b fb 0d 3d 6a 97 43 3d
       -0.049806297 0.07925426 0.03466372 0.04775182
000050 5f 20 7a 3d ed b4 06 bd 1c c8 aa bc 6d c1 6d 3d
       0.061066028 -0.032887388 -0.020847373 0.058045793
000060 2a 8f 64 bd cc fb 37 3d e9 be 42 3d 64 ea 9b 3d
       -0.055800594 0.044917867 0.047545347 0.07613066
000070 bb 5f 6a 3d 70 70 a4 39 c8 02 5b bb 97 49 84 bd
       0.057220202 0.0003136429 -0.0033418406 -0.06459349
000080 1d 5a 9d bd 7f 46 b7 3d 6d ae 8c 3c ca cd 07 bd
       -0.07683203 0.08948993 0.017173016 -0.03315524
000090 8f 0c 2b 3d f2 5a f5 bb d3 88 a2 3b e3 d0 dc 3c
       0.041760024 -0.007487648 0.0049601584 0.026955074
0000a0 ed 9f c6 3c 08 77 1a 3d a2 5e b0 3c e6 60 7a 3b
       0.02424618 0.037711173 0.0215295 0.0038204729
0000b0 d6 9d 9a bc e2 5e 8b 3a 7c 49 06 bd 0c e3 1d bc
       -0.01887409 0.0010633136 -0.032784924 -0.009636652
0000c0 39 5f 8b 3d 0e 33 64 bc 96 a2 6a bd c0 fa 3a 38
       0.06805272 -0.013928188 -0.05728396 4.4579385e-05
0000d0 cf 60 09 3d 14 1e 0f 3c 31 d0 a0 3d 2f 28 90 bd
       0.03353959 0.0087351985 0.07852209 -0.070389144
0000e0 6f 28 88 bd 5e f7 9a bd 29 bd 31 bd 50 c0 70 3d
       -0.06648337 -0.07566713 -0.043393288 0.058777153
0000f0 5b 45 a3 bd 40 08 bd bc 4c 16 0b 3d 30 1b a6 3c
       -0.07972213 -0.023075223 0.03395681 0.020276636
000100 7c d2 98 bd e4 54 df 3c 11 02 91 bc b3 d1 96 3c
       -0.07462022 0.027262159 -0.01770118 0.01841054
000110 b7 fc 5d bc 16 d7 d9 bc 7c a9 63 bc 63 f8 1f bc
       -0.013549021 -0.026591819 -0.013895389 -0.00976381
000120 42 2d 14 3d 4b 36 22 3d 74 91 1c 3b 76 b3 21 3d
       0.036175974 0.03960256 0.0023890408 0.039477788
000130 ee 1d 93 bd 47 45 1e bd 11 ad 7a bd 55 83 8c 3c
       -0.07183443 -0.038640287 -0.061200205 0.017152468
000140 3b 2f 56 3d 3a 63 46 3d da 81 bd 3b d7 ba 53 3d
       0.052291136 0.048434474 0.005783302 0.051691856
000150 db 77 98 bd 18 0d 7d 3c fe 29 42 3d 28 f6 b2 3c
       -0.074447356 0.015445016 0.047403328 0.021845892
000160 95 04 79 bd f9 78 6a 3c 60 a4 9b 3d e6 4d df 3c
       -0.060795385 0.014311069 0.075997114 0.027258825
000170 21 6a 8e 3d 12 0b 6e 3c 0c 86 94 bc e5 9f 12 3d
       0.06953836 0.014529007 -0.018130325 0.03579702
000180 e3 d9 75 3d fe 9e 37 bc 3a ab 59 bc fb 09 80 ba
       0.060022246 -0.01120734 -0.0132854525 -0.0009768599
000190 7f ac 16 3b e8 4f f5 bc 58 b4 16 3d d0 4a af 3d
       0.0022991 -0.029945329 0.036793083 0.08559191
0001a0 3d 87 bd 3a ad ba 54 bd 7e 90 29 3d 4c 7e 92 bd
       0.001445986 -0.05193584 0.041397564 -0.071529955
0001b0 b3 d5 34 bd 85 6a 41 3c 91 6e 5e bd ea 64 15 bd
       -0.044149112 0.011805181 -0.054304663 -0.036473192
0001c0 20 8c 2e bd cc 12 45 ba 57 0f de 3c ec d6 6d 3d
       -0.042614102 -0.00075177546 0.027106924 0.058066294
0001d0 fc 8a 6f 3d 88 06 78 bd 08 45 40 bc 4e c5 83 bc
       0.058482155 -0.060553104 -0.011735208 -0.016085293
0001e0 ed f6 19 3d ce 4c 16 3d 6f cc 69 bc b8 c2 b7 3c
       0.037589002 0.03669434 -0.014269932 0.022431716
0001f0 66 ab c2 bd 6b 5d 28 3d 04 0e bc 39 4b 22 4c 3d
       -0.09505348 0.041104715 0.00035868597 0.04983739
000200 24 47 82 3b 70 c7 2f bd f4 0d 68 3d f3 de 51 bd
       0.003975766 -0.042914808 0.05665393 -0.05123801
000210 1c c3 01 bd 73 0c 9e bc 62 d2 af 3b 4b 4d 9c bd
       -0.03168021 -0.019293046 0.0053656558 -0.0763193
000220 0c 52 29 3d c2 86 9f 3c 3f d4 b2 3a e7 f2 5f bc
       0.04133801 0.019473437 0.0013643577 -0.013668752
000230 eb c3 14 bd be e0 15 3d f8 23 52 3d 2d d7 08 bd
       -0.036319654 0.036591284 0.051303834 -0.033408333
000240 86 d0 1b 3d 4d 5a 1f 3d d0 a0 bc 3c 87 3a 3e 3c
       0.03804066 0.038904477 0.0230259 0.011610634
000250 01 4e 69 bd a2 28 ed 3d a5 73 ed bc a9 f0 87 bd
       -0.056959156 0.11580016 -0.028985808 -0.06637699
000260 e1 ec a4 3c f4 e8 10 3d f4 a9 8e bb 66 c9 0f ba
       0.020132484 0.03537841 -0.004353756 -0.0005485028
000270 8a c1 f5 3c 7c 70 77 bd d7 41 64 3d b3 10 05 3c
       0.029999513 -0.060410008 0.055726852 0.008121657
000280 10 bd 15 bd 29 89 4b bc aa ca 26 3d 28 9d 24 3b
       -0.036557257 -0.012422838 0.04072062 0.0025118086
000290 69 7a b1 bc 94 34 17 3d 40 d9 a1 3c 4a 4e 74 3d
       -0.021664815 0.036915377 0.019756913 0.059644975
0002a0 49 b8 69 3d 2d c9 70 3d 6f 24 86 bd 7c 17 5e ba
       0.057060514 0.058785606 -0.06549918 -0.00084721274
0002b0 7f 02 85 3d 60 75 10 bd 53 68 63 bb 53 5e fc 3c
       0.06494617 -0.035268188 -0.0034699633 0.030806696
0002c0 20 e0 85 3d 9f bd 01 3d 94 ff 2c bc 18 3c e7 3b
       0.06536889 0.031674977 -0.010558981 0.0070567243
0002d0 44 db e5 bc e5 b6 26 bc c7 66 67 bd 72 7c d8 3b
       -0.028058656 -0.010175441 -0.0564945 0.006606632
0002e0 7e eb 0d bd ec 40 94 3d 1a 45 b4 3c 20 f1 9c 3d
       -0.03464841 0.07238945 0.022005606 0.076631784
0002f0 10 29 38 3d e2 8e 4e bd 07 06 8e bd 93 ad 92 bd
       0.044961035 -0.050429232 -0.069347434 -0.07162013
000300 5b e8 a7 3c 24 32 07 3d 82 a2 2e bd 5c 58 05 3d
       0.020496538 0.033006802 -0.04263545 0.03255497
000310 ee da f6 bc e4 39 57 bc 00 f2 59 bc 54 25 61 bd
       -0.03013369 -0.013136361 -0.013302326 -0.05496724
000320 4d f1 44 3d 7c 7f 92 bd bb b3 8e 3d fc ee f7 bc
       0.048081685 -0.07153222 0.069678746 -0.030265324
000330 b7 a4 76 3d a4 3c 10 bd 1f db b5 3c f9 7b 14 bd
       0.060215678 -0.03521408 0.022199212 -0.036251042
000340 bc c2 8f 3c eb b6 56 bd 9f ec 77 3d b7 b5 8e 3d
       0.017548911 -0.052420538 0.060528394 0.06968253
000350 63 bd 96 bc ff eb 7a bb 55 72 04 3d 37 ae 4b 3d
       -0.018400853 -0.0038287637 0.032335598 0.04972669
000360 4e 9a 80 3d b9 eb 6a 3c 57 e5 92 bd 80 92 53 3d
       0.06279431 0.014338427 -0.07172649 0.051653385
000370 0c 83 5d 3d 4e 2d 5b bd 55 14 43 bd b1 1c fd bc
       0.054080054 -0.053510003 -0.047626812 -0.03089747
000380 d1 9f b7 bc 76 ac e7 bb 03 39 77 bc e6 cd 89 bc
       -0.022415074 -0.0070701195 -0.015089276 -0.016821813
000390 46 95 5a 3c 4b ac c6 3b 6e d7 ec bb 10 e5 4d bd
       0.013341254 0.0060630194 -0.0072278297 -0.05026728
0003a0 4d 50 53 bc a8 b1 de 3b ec 97 88 bc 5c 73 1e 3d
       -0.012897563 0.0067960806 -0.016674004 0.038684234
0003b0 8c e2 34 3d 01 28 2b 3d 52 22 12 bd 83 ca a1 3c
       0.044161364 0.041786198 -0.03567726 0.019749885
0003c0 83 9e 6a bc 05 e9 91 bc 55 92 07 bd 17 af 4b bd
       -0.014320019 -0.017811308 -0.033098537 -0.049727526
0003d0 e8 ba aa bd b0 66 48 3d c7 9e 20 3d 5a f0 8b 3d
       -0.08336431 0.048926055 0.039213922 0.06832953
0003e0 12 bb b2 bd 1c ad 9b 3b a6 2d 05 bc 41 f2 b7 3c
       -0.08727087 0.004750861 -0.008128559 0.022454383
0003f0 dd b6 67 3d 43 b9 77 3d b6 78 ee bc ac 3d 76 3d
       0.056570876 0.060479414 -0.029110294 0.06011741

bn2.weight f4 [300]
000000 92 2f 8b 3e 71 48 82 3e 8e 80 77 3e a6 a1 65 3e
       0.2718473 0.25445893 0.24170133 0.22424945
000010 69 fd 8b 3e db 01 ae 3e 9b 85 0b 3d cc 88 c0 3c
       0.27341774 0.3398579 0.034062963 0.02350273
000020 37 ff 00 3e da 8c 58 3e c9 ab e2 3c 66 bd 99 bc
       0.12597357 0.2114748 0.027669804 -0.01876707
000030 16 93 14 3e 7d e2 99 3e b8 3a ac 3e 3d 44 06 3e
       0.14509234 0.3005561 0.3363855 0.13111968
000040 da d3 86 3e da 28 84 3e 23 de 7f 3e 61 f7 50 3f
       0.26333505 0.25812417 0.24987082 0.8162747
000050 90 f2 ab 3d c7 f0 e3 3e 39 15 40 3e ae bd bd 3d
       0.083958745 0.44519636 0.18758096 0.09264694
000060 76 d5 55 3e 4b e5 52 3e 7b 56 31 3e b5 b7 e8 3c
       0.2088221 0.20595281 0.17318146 0.02840791
000070 fa 6f 85 3e 20 2e d2 3e 12 b9 87 3e 61 ac cb 3e
       0.26061994 0.41050816 0.26508385 0.39779952
000080 6a d5 8a 3d dd 05 d2 3d 99 21 b7 3e 11 e4 68 3e
       0.06778987 0.102550246 0.3576782 0.2274325
000090 e2 4a 8d 3e a6 62 01 3f f3 fe 70 3e 70 e1 8f 3d
       0.27596194 0.5054115 0.23534755 0.07025421
0000a0 73 b1 dc 3c e1 70 c4 3e 9d d2 45 3d f0 a3 2e 3e
       0.026940083 0.3836737 0.04829656 0.17054725
0000b0 26 a0 47 3e fb 56 42 3e 30 dd 6a 3d 22 c2 8b 3e
       0.19494686 0.18978493 0.057339847 0.2729655
0000c0 bd 27 d5 3d d6 0f 60 3e 65 36 b1 3d fc 13 bd 3e
       0.1040797 0.21881041 0.08652953 0.3692931
0000d0 32 8b 5b 3e a8 68 ed 3e 70 2b 02 bd 13 bd a0 3e
       0.21439818 0.4636891 -0.031779706 0.31394252
0000e0 87 64 b4 3d b6 d4 d4 3d 86 5f ca 3d 59 b2 20 3f
       0.088082366 0.10392134 0.09881501 0.62772137
0000f0 66 a7 4d 3f f2 f1 61 3e de d0 c1 3c 0c 27 64 3e
       0.80333555 0.22064951 0.023659166 0.2228052
000100 6f 3b f3 bc 16 82 99 3d 6c 1c 6d 3e c0 b9 e4 3d
       -0.029691426 0.07495515 0.23155373 0.111682415
000110 df d2 59 3e c6 a6 3f 3f 15 d8 df 3e d0 97 6d 3e
       0.21271847 0.7486385 0.43719545 0.23202443
000120 2b c1 66 3e 48 d1 1e 3d 65 c3 f6 3d fc cf 7b 3e
       0.22534625 0.038773805 0.12048987 0.24591058
000130 2d 17 87 3c 34 5d 4c 3e cb dd 4f 3d 29 97 35 3d
       0.016490543 0.19957429 0.050748628 0.04433361
000140 38 0a 12 3f cd 78 88 3e 60 ae 30 3d c4 ff 8b 3e
       0.5704684 0.26654664 0.043135047 0.2734357
000150 79 9c 85 3e c4 59 c8 3b 38 7d d2 3c d5 21 37 3e
       0.26095942 0.0061142165 0.025694475 0.17884
000160 13 76 be 3d ff 62 92 3d 66 6b 74 3e e7 29 24 3e
       0.092998646 0.07147788 0.23869094 0.1603161
000170 9e 2f 9a 3e 98 c2 26 3e 3f 0d 37 3e 7a a7 0e 3e
       0.30114454 0.16285169 0.17876147 0.13931075
000180 3f 51 b8 ba 86 41 4f 3e 27 04 29 3d 6a af 36 3e
       -0.0014062299 0.20239839 0.041263726 0.17840353
000190 36 2b 6b 3d ea b9 c7 3d a4 26 a4 bd d5 68 b4 3d
       0.057414256 0.09752257 -0.080151826 0.088090576
0001a0 44 95 2d 3d 6c 94 9f 3e 03 2a 20 bd 77 b5 b2 3d
       0.04237868 0.31167924 -0.039102565 0.08726018
0001b0 1b 6c fd 3c 7d 0c f3 3d 48 91 83 3e b4 fc 39 3e
       0.030935338 0.11867616 0.25696778 0.18162805
0001c0 99 a6 26 3e 1a 36 ff 3c ce 24 1b 3e 70 85 98 3e
       0.1627449 0.031153727 0.15150759 0.29789305
0001d0 14 10 16 3d 3d d0 80 3d bf 84 69 3e c1 87 58 3e
       0.036636427 0.06289718 0.22804545 0.21145536
0001e0 b1 7b a4 bd 54 7a 8f 3e fa 51 c6 3e b2 89 93 3d
       -0.08031405 0.28023016 0.38734418 0.07203998
0001f0 fe f1 1b 3e 5c a5 5c 3d 08 db b3 3e 4d 16 7a 3d
       0.15229031 0.053868636 0.35128045 0.061056424
000200 4d d6 a9 3e b4 cc cb bc fc d4 bf 3d ac 25 57 3e
       0.3317131 -0.024877883 0.093667954 0.21010464
000210 27 ce a9 3e c2 77 e7 3b 2e c3 77 3e a4 30 c8 3e
       0.33165094 0.007063837 0.24195549 0.3909961
000220 2c 11 88 3e 39 23 91 3e 95 36 37 3e 5c 3c 68 3d
       0.265756 0.28347185 0.17891915 0.05669819
000230 03 55 57 bd 60 c7 c6 3d 62 ec 89 3e 6b 84 4f bd
       -0.052571308 0.097059965 0.26938158 -0.050663393
000240 fb 07 23 3e 1e df 4a 3e 91 6c eb bd 41 21 54 3e
       0.15921013 0.19811675 -0.11495317 0.2071581
000250 4f 7b af 3d 6a 7c a7 3d 9e fb 3d 3e 72 e4 6a 3e
       0.08568441 0.08178027 0.18553016 0.22938707
000260 cc 6f 7d 3e 62 84 ba 3e 87 d1 81 3e 0b b8 10 3e
       0.24749678 0.36429125 0.2535517 0.14132707
000270 e7 b7 33 3e d8 7a 07 3e a6 2b 25 3e 6f 60 c1 3d
       0.17550622 0.13230455 0.16129932 0.094422214
000280 b2 0a 45 3e 71 f0 6d 3e c8 20 01 3d 6e d1 7e 3d
       0.19242361 0.23236252 0.031525403 0.062211446
000290 a7 58 19 3e 90 5f c3 3d 16 8c 6f 3e 9a 4f a4 3e
       0.14975224 0.095397115 0.23393282 0.3209198
0002a0 55 48 b5 3d aa 58 21 3f 81 b3 15 3d f7 f4 40 3d
       0.08851687 0.63025916 0.03654814 0.047108617
0002b0 b4 c2 ed 3d 00 82 37 3e 12 f5 c2 3d 7b b6 c3 3e
       0.11609402 0.17920685 0.095194 0.3822516
0002c0 ee aa ff 3d 60 ce 11 3e cc b1 8e 3e 7a cd 36 3d
       0.12483774 0.14238882 0.27870023 0.04462955
0002d0 bc 1c 4a 3e e9 36 00 3e ca f9 11 39 b4 cd bd 3d
       0.19737524 0.12520947 0.00013921331 0.092677504
0002e0 70 3e a2 3e 56 f3 75 3c 47 f6 e3 3d 1a 8b d8 3c
       0.3168826 0.015011629 0.11130958 0.026433516
0002f0 a1 27 3a 3e 51 eb ef 3d c8 ee 78 3d 17 1a 09 3e
       0.1817918 0.11714805 0.060774595 0.13388859
000300 0d a8 9c 3e 83 6b bb 3d 52 f6 a2 3d 71 60 84 3e
       0.30596963 0.091513656 0.07957138 0.2585483
000310 32 4b 9a 3e 99 dd 98 3e ca fc 74 3e 31 73 4c 3e
       0.30135494 0.29856566 0.23924556 0.19965817
000320 8e 98 38 3e dd fd 61 3f cb d8 f8 3d e9 8c d0 3c
       0.18026945 0.8827799 0.12150725 0.025457816
000330 24 a9 96 bd 00 e8 9a 3e e1 ff 04 3e 96 4f ad 3d
       -0.0735648 0.30255127 0.12988235 0.084624454
000340 59 18 71 3e e3 07 49 bd ab 11 8e bd 91 bb de 3e
       0.23544444 -0.049079787 -0.06936964 0.43502477
000350 56 72 6a 3e 45 b0 31 3d de 09 74 3e fd ad 78 3e
       0.22895178 0.043380994 0.23831889 0.24285121
000360 6e 84 cd 3e e4 8b 6b 3c a8 d5 16 3e ac 4f c9 3e
       0.40140098 0.014376614 0.14729941 0.39318597
000370 94 72 f7 3a 35 a0 43 3e 09 d4 6a 3e 4d 9f cf bd
       0.0018878751 0.19104083 0.22932447 -0.10137806
000380 57 13 a0 3e 1f 00 bb 3c 38 00 c6 3e fb de 98 3e
       0.31264755 0.022827206 0.38672042 0.2985762
000390 b4 d9 02 3f fe be 74 3e c3 87 51 3e c6 2d cf 3d
       0.5111344 0.23900983 0.20461945 0.101161525
0003a0 04 84 a2 3e 17 61 af 3e 05 da 27 3e 34 62 e4 3d
       0.31741345 0.3425376 0.16391762 0.11151543
0003b0 5c 29 32 3f 0e 1b 6c 3e ac 38 41 3d 11 79 fe 3d
       0.6959436 0.23057196 0.047173187 0.12425435
0003c0 fe cb 38 3d 22 b7 56 3b 6f 0e 50 3e 35 80 c0 3e
       0.045116417 0.0032762964 0.20318006 0.37597814
0003d0 f0 fd f8 3d 10 f7 45 3e 1d d1 1b 3d 96 b6 34 3e
       0.1215781 0.19332528 0.038041223 0.17647776
0003e0 6d 9c 49 3e 10 e4 83 3e 52 14 7d 3d 7b 44 37 3e
       0.19688578 0.25759935 0.061786957 0.17897217
0003f0 cc c7 b5 3e 96 63 41 3d 15 1e 51 3e c8 8c fc 3d
       0.35503995 0.047214113 0.20421632 0.123315394
