Zadanie3/srcV2/models/VEP_exp_prob_01_exploration_50/critic_network.pth (torch, 509903 bytes, 11 tensors)

fc1.weight f4 [400, 8]
000000 b2 37 b7 3d 92 4c 5a 3d 83 22 3c 3e 9c 11 d9 3e
       0.0894617 0.05329568 0.1837254 0.42396247
000010 ef fd b1 be cc d4 5c bf c5 f9 68 bf 48 b9 c4 be
       -0.34764048 -0.862622 -0.9100612 -0.38422608
000020 29 f0 0d 3f cd 20 1b 3e dd 72 cf bd 10 3b af 3e
       0.5544458 0.15149231 -0.1012933 0.3422475
000030 cf ee 28 be 50 f8 04 3f e1 d3 4f 3f da c2 70 bd
       -0.16497348 0.51941395 0.81182677 -0.058779575
000040 9a a3 9f 3e 96 86 1a 3f 0c 26 cd 3e 22 89 65 bd
       0.31179506 0.6036161 0.4006809 -0.056038983
000050 20 31 4d bf 35 9f 88 bf 3e 14 ed bc 81 48 9f bf
       -0.80153084 -1.0673586 -0.028940316 -1.2444001
000060 df a2 46 be 42 40 c7 3c 11 ae 2c bc 73 66 a1 bc
       -0.19398068 0.024322633 -0.010539548 -0.019702172
000070 f8 8e ee 3e 7f 4e b9 3e 86 9e 38 3f 0e df b9 3e
       0.46593451 0.361927 0.7211689 0.3630299
000080 1b 3a 3f be 18 bb 1b 3e 76 da ca 3e 10 01 41 bc
       -0.18674509 0.1520809 0.39619797 -0.0117800385
000090 df 69 a5 3e 7b 69 dd 3e 18 d1 3d ba 64 e4 3a 3f
       0.32307336 0.43244538 -0.0007240935 0.73004746
0000a0 ab 87 c6 be aa b8 c4 3d 82 c9 e8 bd 5b b4 a8 3d
       -0.3877538 0.096055344 -0.113665596 0.08237525
0000b0 8f be 52 3d 8b f6 47 3f c0 c1 e0 3e ae 22 23 3f
       0.051451262 0.7811057 0.4389782 0.6372479
0000c0 5f 31 00 be c5 bb 8c 3e a8 d9 f3 3d 5e 74 31 3e
       -0.12518834 0.27487007 0.11906749 0.17329547
0000d0 4b a1 03 be cd 37 c1 bd f7 2a 8a be 7f 64 91 3f
       -0.12854497 -0.09434471 -0.26985905 1.1358794
0000e0 ac c0 b0 3d 56 31 93 3e 25 17 b5 3e d9 e6 e6 3e
       0.08630499 0.28748578 0.3536922 0.45097998
0000f0 20 ee 16 be ae 21 95 3e b7 fa 99 3e af 5d 0e 3f
       -0.14739275 0.29127258 0.30074093 0.556117
000100 a1 8e 10 bf 13 02 a5 3d 45 18 2e bf 9f 32 66 3f
       -0.56467634 0.08057036 -0.6800578 0.8992099
000110 86 b8 af 3f 1e 40 4c 3f 6c 64 4e be 85 00 b8 be
       1.3728187 0.79785335 -0.20155495 -0.35937896
000120 06 08 06 be 18 d5 aa 3e d9 bd 52 3e c5 df a9 3e
       -0.13088998 0.33365703 0.20580234 0.33178535
000130 95 a7 8e be 1d b7 87 3e 09 b3 99 3e ff f8 37 3f
       -0.2786223 0.26506892 0.30019405 0.7186431
000140 55 97 23 bd 47 c5 64 bd 4e 20 93 3e 6b c0 4b bf
       -0.039939243 -0.0558522 0.28735584 -0.7959048
000150 8c 9f 2d bf c8 1c ee 3e 19 22 da bf 2b af de 3e
       -0.67821574 0.46506333 -1.7041656 0.43493018
000160 4a ff 08 bf 7c 84 28 3e 3b 92 dd be 95 53 20 3e
       -0.5351454 0.16456789 -0.43275627 0.15656884
000170 36 24 18 3f 9b a4 c2 bc ff 53 0d 3d 99 c7 fd be
       0.59430254 -0.02376013 0.034503933 -0.49566343
000180 3c 95 58 bd 5b 6e 07 3e 0a d1 6d 3e ff 64 01 3f
       -0.052876696 0.13225691 0.23224273 0.5054473
000190 76 a9 d4 3e 89 6d 5b bf 61 79 50 be e4 92 70 3e
       0.41535538 -0.8571401 -0.20358802 0.23493534
0001a0 c5 12 89 3e ff 80 e9 3e e6 e2 a5 3e ac 6a 50 be
       0.26772133 0.4560623 0.32399672 -0.20353192
0001b0 35 ad 21 bd 5e b5 72 3f 07 5e 52 3f 72 25 c0 3e
       -0.039471824 0.94807994 0.82174724 0.37528569
0001c0 df 22 35 be 34 7b ae 3e ae f6 da ba 8d 5c 3d be
       -0.17689084 0.34078372 -0.0016705596 -0.18492337
0001d0 1c 69 25 3e d6 34 52 3f 92 58 3a 3f e5 22 1c 3f
       0.16153377 0.8211187 0.727914 0.60990745
0001e0 b4 98 60 bc 94 b6 59 3c 65 7e e8 3d 8e cf 3b 3f
       -0.013708282 0.013288159 0.11352233 0.7336358
0001f0 56 35 43 bf 8a ad a7 3e 9b 3c 4c 3d 97 14 fa 3d
       -0.7625326 0.32749587 0.049862485 0.122109585
000200 18 ed 38 bd f0 2c a8 3e b9 dc 97 bc fe 32 24 3e
       -0.045147985 0.32846785 -0.018537866 0.16035077
000210 ff 3d 00 3e f3 90 12 bf c7 0d 57 be 23 3e 2a 3e
       0.1252365 -0.57252425 -0.2100135 0.16625266
000220 d9 7e b0 3d 25 ba bb 3e 32 af fa 3c 79 00 80 bc
       0.08617944 0.36665455 0.030601118 -0.015625225
000230 4c de b7 be d8 e5 19 3e 5d 62 0e 3e fe 89 f7 3e
       -0.35911787 0.15029085 0.1390471 0.48347467
000240 8c a2 9b be ee 85 d3 3e 32 7c 4d 3e ce 00 a9 3d
       -0.3039745 0.41313118 0.20066908 0.082521066
000250 e7 a8 8d 3e 9b 32 12 3f 54 6e c0 3e c8 b3 4c 3f
       0.27667925 0.5710847 0.37584174 0.79961824
000260 b9 38 19 3e 72 38 01 3f f0 b1 58 3e 1a cb aa be
       0.14963044 0.50476754 0.21161628 -0.3335808
000270 1d 17 e8 bd cc 4f 23 3f c1 4c 3e 3f 80 1f 4d 3f
       -0.113325335 0.63793635 0.7433587 0.8012619
000280 e7 5b 8e be 78 f8 b5 3c 1d 06 06 bf 98 3c 9f 3d
       -0.2780449 0.022213206 -0.5235308 0.07775229
000290 cb b1 65 3f 47 33 31 3f e5 23 47 ba 45 bf fa be
       0.89724416 0.6921887 -0.0007596596 -0.48974052
0002a0 e3 b7 dc 3c 1f c5 c8 be 15 54 a6 3e 48 36 7e 3f
       0.026943153 -0.3921289 0.32486024 0.99301577
0002b0 ab 1b 96 bd 8f 23 96 3e aa ec 61 3f 5e d5 6f 3e
       -0.07329496 0.29324004 0.88251746 0.23421237
0002c0 33 c9 ac 3e b7 cf d3 3e 1e ce 62 3e 84 96 e8 3c
       0.33747253 0.4136941 0.2214894 0.028392084
0002d0 04 77 00 bf 44 97 21 bf 94 38 a7 be 3b 6d 77 be
       -0.50181603 -0.6312144 -0.32660353 -0.24162762
0002e0 33 ea 43 be 28 2f 06 be ae 00 38 3f 30 5b f0 3e
       -0.19132309 -0.13103926 0.7187604 0.4694457
0002f0 8c 04 93 3e 0a 98 6a 3c 04 8c 47 3f 87 14 5e 3e
       0.28714406 0.0143184755 0.7794802 0.21687518
000300 43 d0 54 3f d5 cb 28 be 30 84 be 3e 0d 30 64 3e
       0.8313028 -0.16484006 0.37210226 0.22283955
000310 a0 89 e5 be 60 8e 51 3d 7a 5c cd bc 59 8f 46 3f
       -0.44831562 0.05116117 -0.02506851 0.7756248
000320 ab 8f 14 bd 54 d7 9f 3e c6 1b b1 3d 12 cc 5e be
       -0.036269825 0.3121897 0.086478755 -0.21757534
000330 9d 13 7d be cf eb 72 3f 8b 57 c7 3e bc ef 0c 3f
       -0.24714513 0.94891065 0.38933977 0.55053306
000340 43 bb f5 3e 5a be 38 3e a8 86 5b be 97 ce cd 3e
       0.47994432 0.18041363 -0.21438086 0.40196678
000350 75 ff 2c bf 56 bb 31 3f b6 75 91 3e 3e 86 e0 3e
       -0.67577296 0.69426477 0.2841012 0.4385242
000360 23 4b b0 bc 48 b5 bc bd a8 08 5b 3c 3e 9d 37 3f
       -0.021520203 -0.09214264 0.013368763 0.7172431
000370 e4 d4 97 3e fb 37 bd be e8 1b 5c be 1f b9 c9 3e
       0.2965461 -0.36956772 -0.2149502 0.3939905
000380 3a 9f 10 bd 06 70 9c be 4d 23 b6 3c bf 43 9e 3e
       -0.0353081 -0.30554217 0.02223363 0.3091106
000390 18 14 27 3f 5d bb 2a bf 46 85 9e 3e 86 aa f6 be
       0.65265036 -0.66692144 0.30961055 -0.48176974
0003a0 d1 a4 ab be 3c 74 91 be 98 a3 4e 3f cc ee 54 bc
       -0.33524182 -0.28408992 0.80718374 -0.012996387
0003b0 af 91 4a 3d 52 cd 42 3f 82 78 35 3e 38 6f 3d 3f
       0.04945534 0.76094544 0.17721751 0.7399783
0003c0 3e 1d 17 be 08 b0 00 3f ed fc 27 be 52 2d b5 be
       -0.14757249 0.502686 -0.16405077 -0.3538614
0003d0 b1 ac 09 3f 98 4f 9a 3e a6 56 d8 3d c0 5e e2 3c
       0.5377913 0.3013885 0.10563402 0.027633071
0003e0 b7 96 e9 be 0e 22 04 bd ba e3 fe be b4 ee 89 3f
       -0.456228 -0.03225904 -0.49783117 1.0775971
0003f0 b6 4d 22 3f e7 e0 ff 3e 73 f2 e7 3e 56 87 72 3e
       0.6339983 0.49976274 0.45302162 0.23684439

fc1.bias f4 [400]
000000 54 18 82 be 6d 41 9c 3d 80 d5 02 3f 22 d9 8b 3c
       -0.25409186 0.076296665 0.51107025 0.01707131
000010 cc 1c e6 ba fb fc 78 3e a7 14 17 3e 10 a5 b4 3e
       -0.001755619 0.24315254 0.14753972 0.35282183
000020 25 c1 a7 be 80 dd 2a 3e 83 4e f1 3d 2c a9 84 be
       -0.32764545 0.16686058 0.11782553 -0.25910318
000030 d5 07 96 3e 11 a7 be 3e b9 3d a0 3e 8e cd 2c 3f
       0.2930285 0.37236837 0.3129709 0.6750115
000040 b5 ab ee bc fa ba aa 3d 1a 22 7d 3e fa c2 a7 3e
       -0.02913461 0.08336444 0.2472004 0.32765943
000050 6a 2a 35 be f0 7a 19 3e 04 f7 9d 3e 3a 59 b5 3e
       -0.17691961 0.14988303 0.3085252 0.35419637
000060 4f e5 f5 be 32 5a c2 3d f9 ab 83 3e cb fa 2f 3f
       -0.4802651 0.0948986 0.25717142 0.68742055
000070 5c 63 18 3f 92 f3 bd 3e d7 6e c6 3e 63 71 a9 be
       0.5952661 0.37099892 0.3875644 -0.3309432
000080 fb 7e 7b be 7c f7 de 3d ba 46 04 bd 34 19 97 3e
       -0.24560158 0.10887048 -0.032294013 0.29511416
000090 a7 2c 47 3e 23 90 8d 3e 98 10 89 3e 87 24 a9 3e
       0.19450627 0.2764903 0.26770473 0.3303568
0000a0 2e 89 37 3e 3f 07 79 be 0a 50 89 bd 3a 52 c3 3d
       0.17923424 -0.2431917 -0.06704719 0.09537168
0000b0 ab a7 f8 3e a8 a4 2c be f6 5d bf 3d 9d 1e 44 be
       0.4856542 -0.16859686 0.093440935 -0.19152303
0000c0 b7 67 20 3f f1 e0 2b 3c bd a7 87 3d b0 be 3a 3f
       0.62658256 0.010490642 0.066237904 0.72947216
0000d0 9d f6 0d bf 68 d4 9f 3e 7d d6 ef bd 51 df a9 3c
       -0.55454427 0.3121674 -0.11710832 0.020736368
0000e0 ac f1 f9 be 46 43 b0 bd 27 3e 9e 3e 3f 8d af 3c
       -0.48817194 -0.086065814 0.30906793 0.021429656
0000f0 99 f9 c1 be 38 ed 09 3d 09 92 14 3e 4a 97 1a 3d
       -0.3788574 0.033673495 0.14508833 0.037741937
000100 8d 64 d0 3d 5f 4d df 3c 6c 81 06 be 71 7f 6c be
       0.101754285 0.027258573 -0.13135308 -0.2309549
000110 40 be 67 3e d0 14 c1 bd ed d1 83 3e e2 a4 36 3e
       0.22631168 -0.09427798 0.25746098 0.17836335
000120 fc ab 5e 3e ad fb 68 3e ba 65 83 3e d3 cb 8c 3d
       0.21745294 0.22752257 0.2566355 0.06874814
000130 1f 4b 11 3e 7a 93 40 3e be 9e 90 be 71 ba f4 3e
       0.14188813 0.18806258 -0.2824611 0.47798494
000140 6e d6 ee bc 73 dc f4 3d e3 1e 81 3d 15 d9 8c 3e
       -0.029154982 0.1195611 0.06304719 0.2750937
000150 23 97 47 3e ae f6 c1 3d 0a b9 a3 3c 73 5e 9a 3d
       0.19491248 0.094708785 0.019985694 0.07537546
000160 f5 05 40 be d9 09 bc be 74 9a f3 3e 5a a9 01 bf
       -0.18752272 -0.36726263 0.47578776 -0.50649035
000170 81 c7 a2 bd ce 6c 38 be 55 32 af be ba 71 75 3d
       -0.079482086 -0.18010256 -0.34218088 0.05992291
000180 1d 8a 15 bd 3e dd e8 be 87 b8 f5 ba 2f 29 1a 3f
       -0.03650867 -0.45481294 -0.001874701 0.6021909
000190 17 ec 8b 3e 58 b1 0e 3f 72 2d 86 3e e8 85 dd bd
       0.2732856 0.55739355 0.26206547 -0.10816556
0001a0 51 b6 8c be d7 b3 88 3e d7 bf df bd 65 62 ea 3d
       -0.27482846 0.26699707 -0.109252624 0.114445485
0001b0 03 e9 73 3e ee ee a9 3d dc d7 6e 3e fa d9 37 3e
       0.23819356 0.08297525 0.23324531 0.17954245
0001c0 7e 05 62 3e 9b 43 34 be d5 0c af 3b 86 39 c1 be
       0.22072408 -0.17603914 0.005342106 -0.377392
0001d0 f9 b2 a4 3e 68 98 8f be c0 ea 9c 3d 2a 3c 82 be
       0.32167795 -0.28045964 0.076619625 -0.25436527
0001e0 d1 f6 a2 3e 76 50 ac 3e 06 c4 76 3e d3 4b fd be
       0.3182893 0.33655137 0.24098215 -0.49471912
0001f0 b2 ac b4 3e e4 ba 88 be a3 2b 67 3e a3 17 29 3f
       0.35288006 -0.26705086 0.2257524 0.6605169
000200 ef 14 0f 3f b5 e3 fb 3e 98 fe bc bd 17 37 55 3e
       0.5589132 0.49197164 -0.092282474 0.20821796
000210 17 93 a4 3e 51 93 c3 3e 16 fe a4 be d4 6c d6 3c
       0.3214347 0.3819833 -0.32225102 0.02617494
000220 bc 8a 41 bd d3 06 a1 3e 6f 4f 0e 3f 24 86 ea be
       -0.047251448 0.3145052 0.55589956 -0.45805466
000230 bd f4 89 3e 56 4b 05 3e 77 44 ae 3e cf 60 1b 3f
       0.26944533 0.1301702 0.3403661 0.60694593
000240 cf 2c cf bd d3 ba 04 be 12 c0 87 3e 2f 8c d6 be
       -0.101159684 -0.12961893 0.26513726 -0.41903827
000250 9e 20 63 be 2f 1e 9e 3e a8 93 f4 3d 87 99 9a 3e
       -0.22180411 0.30882403 0.11942226 0.30195257
000260 1b fa 2d 3d 73 d6 bb bd ac 4b 97 3c aa a3 5a 3c
       0.042474847 -0.09171762 0.0184687 0.013344685
000270 54 89 fe bd e7 1e 06 3f 3a a0 8d 3e 1a 25 e5 3e
       -0.12428537 0.52390903 0.27661306 0.4475487
000280 6a a4 28 3e 22 b4 2d 3b bb 4b b5 3e e4 23 e6 3c
       0.16468969 0.0026505073 0.3540934 0.028093286
000290 f7 17 3a be c4 db 31 3e b9 a6 85 3e 17 bc b0 3e
       -0.18173204 0.1736899 0.26103762 0.345185
0002a0 78 f0 f5 be b9 45 9d 3e eb 51 0d be 00 b2 0c bf
       -0.48035026 0.30717257 -0.1380078 -0.54959106
0002b0 6f 1e 6d 3e 39 32 6f 3d 29 35 3b 3b cd 8a a7 3e
       0.2315614 0.058397505 0.0028565621 0.32723084
0002c0 3d 85 3d bf 1f 4c 66 3e 79 e4 b0 be 9e 2a 85 3e
       -0.7403143 0.22489975 -0.3454931 0.26009077
0002d0 90 3c ba 3e 61 e7 c1 3d 44 3b a2 3e 87 30 3f bd
       0.3637433 0.0946796 0.3168584 -0.04667714
0002e0 85 95 15 bc 06 7c 3c be a8 08 ce be 87 0a 3b 3e
       -0.0091298865 -0.18406686 -0.4024098 0.18265735
0002f0 19 54 0c be c1 26 8f be 22 70 9f be b9 7e 37 be
       -0.13703956 -0.27959254 -0.31140238 -0.17919435
000300 3b f7 62 3e 7d 6d 6e 3e 03 8b 1e 3e 4b 08 98 be
       0.22164623 0.23283954 0.15482716 -0.29693827
000310 3c 9f c4 3e f0 88 9e 3e aa 2c f5 be d9 89 9b 3e
       0.38402736 0.3096385 -0.47885638 0.30378607
000320 39 f1 9b 3e 74 86 c9 be f0 09 2e bf 37 ae 4c bb
       0.30457476 -0.39360392 -0.67983913 -0.003123177
000330 ec 8b 0b 3f 7f 2e 93 3e 34 1f c2 be ac 79 b3 bd
       0.5451038 0.2874641 -0.3791443 -0.087634414
000340 28 fc 02 bd eb a0 b7 be bc 4f e5 3d ad c9 d7 3e
       -0.031978756 -0.35864958 0.11196849 0.42146054
000350 9a c5 59 3e 49 32 94 3e 4a 56 9e 3e 74 94 d9 bc
       0.21266785 0.28944615 0.30925208 -0.026560046
000360 e4 8f 5b 3e 7d a1 65 3e 43 b4 89 3e 14 bc 0e bf
       0.21441609 0.22424884 0.2689534 -0.55755734
000370 c7 9c 2b 3f 70 c2 d9 bb a7 e5 81 3d 6c f1 1d 3e
       0.670361 -0.006645493 0.06342631 0.15424126
000380 38 44 d8 3d 0d 0b 54 3e 9e d7 44 be cf a6 25 3e
       0.10559887 0.2070734 -0.19222876 0.16176914
000390 f6 70 8b 3e 64 27 97 be e3 0d e7 3c 41 cd 4d be
       0.2723462 -0.2952224 0.028204864 -0.2009783
0003a0 f7 ff a2 3e 63 3d a2 3d 2f a0 24 bd 5b a4 e4 3e
       0.3183591 0.07921865 -0.040191825 0.44656643
0003b0 2e e1 a0 3d 35 3f 74 3d 44 2f 7e 3e 58 3f c1 3e
       0.078554496 0.05963059 0.24822718 0.3774364
0003c0 29 2c cd 3e 80 2d 12 3e 2d 57 f8 be 4c c9 73 3c
       0.40072754 0.1427517 -0.4850401 0.014879536
0003d0 77 08 da bd 17 d8 b5 3d 19 15 74 3e d5 1c 16 bd
       -0.10646146 0.088791065 0.23836173 -0.03664859
0003e0 13 06 44 3f 7b c3 30 3f 1e 0a 48 be d7 33 a4 be
       0.7657177 0.6904828 -0.1953511 -0.320708
0003f0 8c ef 04 bf 76 80 8a be 48 4d 80 be 02 48 9b 3e
       -0.5192802 -0.27051133 -0.2505896 0.30328375

bn1.weight f4 [400]
000000 6a 24 d6 3f af 4d 27 3f df 10 c0 3f 51 76 05 3f
       1.6729863 0.6535291 1.5005149 0.5213366
000010 8c 4b 40 3f 03 89 94 3e c2 03 32 3f f5 2b de 3e
       0.75115275 0.29010782 0.69536984 0.43392912
000020 f0 f3 f8 3f 08 84 f2 3e 9f b5 a2 3f 0c 74 3c 3f
       1.9449444 0.47366357 1.2711676 0.73614573
000030 b2 e3 34 3f 4f 21 6a 3e 3b bd 41 3e a4 1b 76 3f
       0.70659935 0.22864269 0.18919842 0.96135926
000040 8f 35 29 3f 3f cd f8 3e 6a a7 d8 3e ad 89 7c 3e
       0.6609735 0.4859409 0.42315227 0.24661894
000050 ce a0 3d 3f d5 52 c4 3f be 9e 4e 3f b2 1a 62 3f
       0.74073493 1.5337778 0.8071097 0.88321984
000060 45 24 08 40 d2 2b 1f 3f b4 f8 2c 3f be 42 6c 3f
       2.1272137 0.6217624 0.6756699 0.9228934
000070 ac d7 a7 3f 62 7b 86 3f 02 41 81 3f 2f 6d 74 3f
       1.3112693 1.0506403 1.0097964 0.954791
000080 4c 61 22 3f 4c 3c 97 3f 50 89 be 3f 8e ea 70 3f
       0.63429713 1.1815276 1.4885654 0.941079
000090 2b 1e 74 3f d5 46 b0 3e 7a df 90 3f d3 23 b1 3e
       0.9535853 0.3442904 1.13182 0.34597644
0000a0 54 d7 68 3f 84 91 07 40 b9 c2 b8 3e 3e bb a9 3e
       0.90953565 2.1182566 0.36086062 0.33150667
0000b0 55 4d 98 3f 96 3b 94 3f 71 cf c9 3e f7 04 ec 3f
       1.18986 1.1580684 0.39416078 1.8439015
0000c0 56 bd 9e 3f a0 32 1e 3f 84 59 99 3f 5c cb b4 3f
       1.2401531 0.61796 1.1980443 1.412456
0000d0 24 51 e4 3f a2 b1 c2 3e aa 7b 4e 3f a2 75 03 40
       1.7837262 0.38026148 0.80657446 2.0540547
0000e0 43 27 e5 3f 21 9c 05 3f 19 52 e9 3e 76 a4 f5 3f
       1.7902607 0.5219136 0.45570448 1.9190814
0000f0 ef b6 2c 40 a1 d1 72 3f 36 ed 33 3f f5 69 30 3f
       2.6986654 0.9485112 0.7028383 0.6891168
000100 f2 8b eb 3e 22 28 77 3f 5b 1c 3c 3f 65 ec 8d 3f
       0.46005207 0.9654561 0.73480767 1.1087767
000110 64 d3 a4 3e b2 b2 8b 3f e2 d6 96 3e 5c 89 d6 3f
       0.32192528 1.0913908 0.29460818 1.6760669
000120 9c 74 93 3e 2d 8b d5 3f 15 b3 c0 3e bb 41 5f 3f
       0.28799903 1.6683098 0.3763663 0.8720967
000130 0e de a1 3e 93 c2 2d 3f c0 cf c4 3f 1b cc c3 3f
       0.31614727 0.6787502 1.53759 1.5296663
000140 bb b4 e9 3e 23 b6 a9 3f e9 d1 58 3f cf 5f d5 3f
       0.456457 1.3258709 0.846953 1.6669863
000150 d6 20 e5 3e 91 82 a3 3f c8 89 1a 3f 07 46 53 3f
       0.44751614 1.2774221 0.6036649 0.8252873
000160 dc d5 a0 3f c1 5b 99 3f 47 03 1d 3f a8 8b b0 3f
       1.2565265 1.1981126 0.61333126 1.379262
000170 92 49 ba 3f d7 39 47 3f 4b b2 c3 3f fc 62 4f 3f
       1.4553702 0.7782263 1.5288786 0.81010413
000180 65 30 63 3f ae c0 05 40 97 52 b9 3e a8 b3 27 3f
       0.8874572 2.0898852 0.36195824 0.6550851
000190 33 0c c1 3e ac 32 65 3f e3 f4 42 3f ca 89 4a 3f
       0.3770462 0.89530444 0.7615492 0.791165
0001a0 f2 4a 6b 3f c4 31 54 3f c4 a1 5a 3f 94 c9 82 3e
       0.9191123 0.82888436 0.85403085 0.25544417
0001b0 70 ad 01 40 f5 ba b9 3f c7 fd 0e 3f 55 43 bb 3e
       2.0262108 1.451018 0.55855983 0.36574808
0001c0 58 1c ac 3e f3 d6 0c 40 e0 4f da 3e 10 c3 06 40
       0.33615375 2.2006195 0.42639065 2.1056557
0001d0 de ac 5d 3f d8 bc 95 3f e7 a1 56 3f 4f 11 76 3f
       0.865919 1.1698256 0.83840793 0.9612016
0001e0 ea 27 48 3e 28 7d cb 3e 9d 60 af 3e 54 31 b4 3f
       0.19546476 0.39743924 0.34253398 1.4077554
0001f0 e7 9a 43 3f 80 0a 02 40 ea 50 98 3f 69 9f 50 3f
       0.7640824 2.0318909 1.1899693 0.8149324
000200 76 d2 57 3f 8f 4a 83 3f f1 53 72 3f 2f 89 46 3f
       0.8430551 1.0257128 0.94659334 0.77553076
000210 5a b9 42 3e 2b 6a 67 3f a6 5a 90 3f 84 9d 2d 3f
       0.19016019 0.90396374 1.1277664 0.67818475
000220 8f 6c 98 3f 5a 91 9e 3e c5 01 2b 3f e7 57 58 3f
       1.190813 0.3097027 0.66799575 0.8450913
000230 b4 f3 c4 3e 2a 42 02 3f bc 76 9f 3e 16 73 47 3f
       0.3846718 0.5088221 0.31145275 0.7790998
000240 e0 17 a5 3f e3 14 9b 3f f2 73 dd 3e 43 9a 08 40
       1.2897911 1.2115749 0.43252522 2.1344154
000250 4c c4 3f 3f 6c d8 c6 3f 86 00 14 3f 43 11 c6 3e
       0.749089 1.5534797 0.578133 0.38685045
000260 b8 58 03 3f 15 8b 95 3f 60 a9 fa 3e e3 64 95 3f
       0.5130725 1.168307 0.48957348 1.1671413
000270 70 2a 85 3f b5 be ab 3f 04 1a cf 3e ca 1e 98 3f
       1.0403576 1.3417574 0.40449536 1.1884396
000280 0f 42 12 3f ae ba 72 3f 65 06 6b 3f 02 3d 8c 3f
       0.5713205 0.948161 0.9180663 1.0956118
000290 b9 05 98 3f b9 02 0c 40 c7 50 b3 3e f9 88 59 3f
       1.1876746 2.1876662 0.35022566 0.8497463
0002a0 ed 17 3b 40 41 11 af 3f 75 0c be 3f 6e 82 ba 3f
       2.9233353 1.367714 1.4847552 1.4571054
0002b0 8d fb e0 3e de 96 cb 3f 25 27 a6 3f 1e 89 8b 3e
       0.43941918 1.5905416 1.2980696 0.2725305
0002c0 b0 7e 04 40 8c 03 3b 3f 59 00 47 3f ef 50 ad 3e
       2.0702324 0.7305229 0.77734905 0.3385081
0002d0 51 41 7f 3f e4 76 80 3f 2b 64 40 3e ac 46 0e 3f
       0.9970904 1.0036283 0.18788211 0.55576587
0002e0 bb 97 9d 3f 1a a0 27 3f bd 7f aa 3f 89 c6 b5 3f
       1.231193 0.6547867 1.3320233 1.4201213
0002f0 52 e9 70 3f c9 84 5a 3f 7c 20 49 3f ef 79 c3 3f
       0.9410602 0.85358864 0.7856519 1.5271586
000300 e3 30 5c 3f af b8 04 3f d2 67 2d 3f 61 f1 77 3f
       0.86012095 0.51844305 0.6773654 0.9685269
000310 3d 86 2a 3f 74 1e 6d 3f 40 cf d1 3f c5 b1 92 3e
       0.6661108 0.9262459 1.6391373 0.28651252
000320 0d 1d 5e 3f e6 65 19 40 8a a0 d4 3f 23 0d a6 3e
       0.8676308 2.3968444 1.6611493 0.32431898
000330 19 a3 43 3f d7 88 df 3e 49 1c 4b 3f 3a 1e 44 3f
       0.7642074 0.43659088 0.79340035 0.7660862
000340 ce 9b da 3e 0e f4 4a 3f 12 ab de 3e be ea 9a 3f
       0.42696995 0.7927865 0.4348989 1.2102888
000350 cb 53 98 3e 85 5b 5c 3e fc 79 86 3e d1 37 9c 3f
       0.2975143 0.21519287 0.26264942 1.2204534
000360 f4 d7 f4 3e 60 fd b4 3e be 93 86 3e f6 6b b9 3f
       0.4782101 0.3534956 0.26284593 1.4486072
000370 60 60 b4 3f 38 6c bd 3f c0 24 ec 3e 3a 45 a1 3f
       1.4091911 1.4798651 0.46121788 1.2599251
000380 2c 18 4e 3f bd 37 c0 3e 79 92 f7 3f 93 54 01 3f
       0.80505633 0.37542525 1.9341575 0.50519675
000390 57 3e 95 3e 6e fa 49 3f c2 a5 cf 3e 64 00 cf 3f
       0.29149124 0.7889775 0.4055615 1.6171994
0003a0 ba f5 43 3e 1b a3 d5 3e c9 32 83 3f 91 b9 5c 3f
       0.19136706 0.41726002 1.0249873 0.8622065
0003b0 24 c6 19 3f d3 1d 5f 3f 72 81 e1 3e 19 01 66 3f
       0.60067964 0.87154883 0.4404407 0.89845425
0003c0 0f 86 28 3f 4b 46 52 3e fc 6e 0a 40 b5 2b d4 3e
       0.6582956 0.20534627 2.163024 0.41439596
0003d0 a7 51 0a 3f 38 4a 0c 3f dd bc a6 3e eb 1e ea 3f
       0.5403084 0.5480075 0.32565966 1.8290685
0003e0 f1 75 b2 3f b7 86 be 3f ba ef 92 3f 8c 3a a5 3f
       1.3942243 1.4884862 1.1479409 1.2908492
0003f0 3a 2e 74 3f c8 4d 74 3f a7 aa 79 3f 0b 1f 80 3e
       0.95383036 0.95431185 0.9752602 0.25023684

bn1.bias f4 [400]
000000 ee 73 e1 bd 0c fd e8 be 3d b4 35 3d e3 7d 24 bf
       -0.1100844 -0.4550556 0.04436134 -0.6425459
000010 08 84 30 bf 30 60 04 bf 35 a0 e6 be 08 94 25 bf
       -0.68951464 -0.5170927 -0.45044103 -0.64679
000020 02 c1 ab 3d 96 0c 0a bf 93 75 01 be 07 20 df be
       0.08386423 -0.53925455 -0.12642507 -0.43579122
000030 f9 bb fd be 1f 01 22 bf df dc bf be 56 2c fa be
       -0.49557474 -0.6328296 -0.374732 -0.4886195
000040 1b de d8 be 30 a3 fe be 2a 98 39 bf 9b c9 45 bf
       -0.42356953 -0.49733877 -0.7249781 -0.7726075
000050 1d 23 c4 be 0e 9d 78 be 84 e6 3d be b3 c0 03 bf
       -0.3830804 -0.24278662 -0.18544966 -0.5146591
000060 8d a6 37 3d d7 d3 07 bf d6 e9 02 bf a5 81 f5 be
       0.04483657 -0.53057617 -0.51138055 -0.47950473
000070 d5 d6 f2 be 9e b8 d6 be ca 8e 65 3d de c3 a4 be
       -0.4742953 -0.41937727 0.056044377 -0.32180685
000080 af dc 33 bf 1c 4a a2 3d 90 e7 c2 3d eb 0e 18 be
       -0.7025861 0.079242915 0.09516823 -0.14849441
000090 b7 99 ed be 87 b2 31 bf 15 2b d4 be 00 09 06 bf
       -0.46406338 -0.69413036 -0.4143912 -0.5235748
0000a0 71 98 9d be fe 2a c0 bd ef 76 00 bf 21 9f db be
       -0.30780366 -0.093832 -0.5018148 -0.42894843
0000b0 bd 65 63 bd ad db fc 3c 35 96 14 bf 73 5c 3d 3e
       -0.055516947 0.030866468 -0.580417 0.18492298
0000c0 5b 51 51 be 23 c0 1f bf 71 19 d2 be b5 eb 3b bd
       -0.20441191 -0.6240255 -0.41035035 -0.045879085
0000d0 4a 02 34 3e b1 b5 16 bf cf 3e 2e bf a1 b5 05 3f
       0.17578998 -0.5887099 -0.6806459 0.5223027
0000e0 d2 0c 0b 3e 4c f6 d8 be cd 9f 94 be c3 65 e4 3d
       0.1357911 -0.4237541 -0.29028168 0.11152222
0000f0 3e 31 e0 3e 90 49 c4 bd 91 d2 d2 be e0 ae 40 bd
       0.4378757 -0.095843434 -0.41176274 -0.047041774
000100 39 00 00 bf c5 ef e4 be 66 61 0c bf 2e 61 4f be
       -0.5000034 -0.4471418 -0.5483612 -0.20251915
000110 85 4d 2d bf 96 1d 7a be b5 20 14 bf 8c 2c 22 be
       -0.6769641 -0.24425349 -0.57862407 -0.15837306
000120 8f 46 17 bf b9 e2 85 be 78 2e 04 bf 9e ef 9c bb
       -0.5909204 -0.26149538 -0.51633406 -0.004789307
000130 ef 1d c5 be d0 dc 0a bf f9 b1 59 be 14 ff 88 be
       -0.384994 -0.54243183 -0.21259297 -0.2675711
000140 e8 72 28 bf ba 2f 62 bc 61 6e 35 bf 95 63 a0 bd
       -0.65800333 -0.013805324 -0.7087155 -0.07831494
000150 0c f9 f5 be a5 e5 3d 3d ca 3a 12 bf 40 dc e0 be
       -0.4804157 0.046361584 -0.57120955 -0.43918037
000160 5f 26 10 be b5 9b 1e be 77 96 aa be d9 48 72 bd
       -0.14077137 -0.15489085 -0.3331792 -0.059151504
000170 66 fa 3a 3e 0c eb 8b be 64 2f 33 be c7 01 06 bf
       0.18259582 -0.27327764 -0.17498547 -0.5234646
000180 c0 27 09 bf c7 01 8d 3e f4 04 ee be 0e b9 ed be
       -0.5357628 0.27540419 -0.46488154 -0.46430248
000190 d4 0a 22 bf d5 fa 3a be c9 85 12 bf 69 29 ef be
       -0.6329777 -0.18259747 -0.5723539 -0.4671128
0001a0 5f c0 db be 51 96 de be 77 02 c2 be 9a 1d ca be
       -0.42920205 -0.43474057 -0.37892506 -0.3947571
0001b0 87 f8 ec 3d 65 f2 4c 3e 49 ed 07 bf 0a d7 1c bf
       0.1157084 0.20014341 -0.53096443 -0.61265624
0001c0 88 b9 10 bf 3a 1f 4b 3d 1d 72 2c bf a8 2b 82 bd
       -0.565331 0.049590327 -0.67361623 -0.06355983
0001d0 4d 77 71 be 90 79 1e bf 93 f6 0f bf 9f 6b aa be
       -0.23580666 -0.6190424 -0.5623562 -0.33285233
0001e0 22 cf 37 bf 0c 5d 36 bf fa 5d 2d bf ee fb f7 ba
       -0.71800435 -0.7123573 -0.6772152 -0.0018919685
0001f0 b5 a3 06 bf 1d 42 f1 3e 36 28 13 be 01 9d bf be
       -0.5259355 0.47120753 -0.14370808 -0.37424472
000200 2e cb b5 be e4 cf d2 be 77 fc d0 3d 8c bf 02 bf
       -0.35506576 -0.41174233 0.10204404 -0.5107353
000210 8c d0 16 bf 24 b1 6c be d1 ee ab be 4c fe 18 bf
       -0.5891197 -0.23114449 -0.3358064 -0.59763026
000220 ea ce b7 be ca 92 24 bf 65 83 8f be 89 f9 ef be
       -0.3590005 -0.6428648 -0.28029934 -0.46870068
000230 ba 81 10 bf 9a 46 f9 be ee 3f 2d bf 5d 5a af be
       -0.5644795 -0.48686677 -0.67675674 -0.3424863
000240 33 69 bc be 43 4b a7 bd 15 7b 1d bf 24 28 bd 3e
       -0.3679901 -0.08168652 -0.61515933 0.36944687
000250 e7 cb 2d bf 0b bd b0 3e 77 f7 1a bf 26 95 03 bf
       -0.67889255 0.34519228 -0.6053385 -0.5139946
000260 12 d4 96 3d db 05 58 be 77 01 26 3d 35 0d f9 be
       0.07364668 -0.21095984 0.04052874 -0.4864289
000270 76 3f 69 3a 29 34 2a bb 7c 1b 33 bf 2a 7f cf be
       0.0008897701 -0.0025971031 -0.6996381 -0.40526706
000280 d4 b1 05 bf c4 fa f1 be 14 9f 4b be d6 84 f7 be
       -0.5222447 -0.4726163 -0.19884902 -0.48343533
000290 0f 2c b1 bd 34 92 14 3f ab d0 2e bf 59 04 01 bf
       -0.08650982 0.5803559 -0.6828715 -0.5039726
0002a0 02 18 d2 3e f3 05 96 be 86 5a 11 be 54 41 7e 3c
       0.41033942 -0.29301414 -0.14194688 0.015518505
0002b0 a1 a0 3a bf 6e b9 c5 3e d6 87 96 be 7c 5b 0c bf
       -0.7290135 0.38618034 -0.2940051 -0.54827094
0002c0 3f e5 0e bd 2f 94 12 bf f1 41 bb be c8 fb 48 bf
       -0.034886595 -0.5725736 -0.36573747 -0.7850919
0002d0 e3 bd 38 be eb c7 a2 be 6a d9 17 bf 57 95 20 bf
       -0.18041186 -0.3179315 -0.5931612 -0.62727875
0002e0 3f 54 a8 be 66 98 1f bf d1 37 21 be 22 ce 54 be
       -0.32876775 -0.62341917 -0.15743949 -0.20781758
0002f0 7e 4b e8 be 7c f9 88 bd 28 64 b8 be 4d 75 4f 3e
       -0.45370096 -0.0668821 -0.36013913 0.2025959
000300 5b b6 1e bf 1f 7c 21 bf c0 d9 45 bf 07 1b 73 bd
       -0.61997 -0.6308002 -0.77285385 -0.059351947
000310 70 12 71 be ce 59 0d bf 93 c3 ce 3d de cf 1f bf
       -0.2354219 -0.55215156 0.100958966 -0.62426555
000320 88 26 2e be 7b 5c a1 3d 1e 2b 32 be b3 ef 07 bf
       -0.17006886 0.078789674 -0.1739926 -0.53100127
000330 2b 4d c0 be 10 1f ea be b5 d4 e7 be 8f 37 24 bf
       -0.37558874 -0.45726824 -0.4527947 -0.64147276
000340 d8 18 19 bf d1 74 b5 be 04 6c 25 bf 69 a1 0b be
       -0.59803534 -0.35440686 -0.64617944 -0.13635792
000350 a7 9b 44 bf 5b 1e 2d bf 34 0e 1b bf c9 8e c3 be
       -0.76800007 -0.67624444 -0.6056855 -0.38194874
000360 cb b5 2e bf ef bd 23 bf 3d 5e 0b bf 64 62 7a be
       -0.68246144 -0.6396169 -0.5444067 -0.24451596
000370 49 2b cc bd 55 52 bd 3e 44 fe 11 bf 5a 0d 26 bc
       -0.099691935 0.36976877 -0.57028604 -0.010135019
000380 04 a0 0b bf ac 3b 2b bf 7c 90 69 3e 70 51 27 bf
       -0.5454104 -0.6688793 0.22809023 -0.6535864
000390 a1 81 23 bf 40 6c 00 bf 88 ba fa be 30 ec bf 3d
       -0.63869673 -0.50165176 -0.48970437 0.09371221
0003a0 22 8e 06 bf 73 95 08 bf f7 84 4f bf 85 bf 33 be
       -0.5256063 -0.5335304 -0.81062263 -0.17553528
0003b0 5d 8e 26 bf 4c f3 b1 be c3 61 fd be 4b 11 50 be
       -0.6506098 -0.34755933 -0.4948865 -0.20319097
0003c0 fb c8 3e be 60 f9 93 be 4f 76 07 3e 74 2f 16 bf
       -0.18631355 -0.28901196 0.13228725 -0.5866616
0003d0 4e 79 07 bf 0b c8 10 bf 15 de 08 bf df 1d 02 3d
       -0.5291947 -0.5655524 -0.5346387 0.03176677
0003e0 bd 51 c5 bd f7 99 87 3d 73 30 29 3a fc bd b7 be
       -0.09634731 0.06621163 0.0006454058 -0.35887134
0003f0 58 f2 07 bf 31 2a 1c be 56 67 9a be b1 37 39 bf
       -0.5310416 -0.1525047 -0.30156964 -0.72350603

fc2.weight f4 [300, 400]
000000 e2 2d 03 be a2 88 b0 bd bc a0 7f be 43 4b e2 bb
       -0.12810472 -0.08619811 -0.24963659 -0.0069059446
000010 e1 13 85 3e 3e bd ff bd b0 38 a7 3e 23 10 1c bf
       0.2599173 -0.12487267 0.32660437 -0.6096212
000020 b3 d3 bc bd 4e 9a 08 bf d1 fe 66 be 88 88 64 3e
       -0.09220066 -0.5336045 -0.22558142 0.22317708
000030 31 f0 19 3d 32 a0 00 3e cb cb 30 be 5f 72 74 be
       0.03758258 0.1256111 -0.17265241 -0.23871754
000040 ac ba ad be f4 db 7d be 48 06 b0 bb 4d 97 a3 be
       -0.33931482 -0.24790937 -0.0053718425 -0.3195137
000050 90 9e 85 be 91 86 08 be 92 96 89 be 64 7b fc 3d
       -0.26097536 -0.13332583 -0.2687269 0.123282224
000060 98 6b 25 3d 55 aa 8b 3e 2c e8 6f 3e 5a a9 d5 bd
       0.040385813 0.2727839 0.2342841 -0.10432692
000070 fc 3b c6 3e 11 2e 49 bd 1e 22 12 3e dd 8e 35 3f
       0.3871764 -0.049116198 0.14270827 0.7092112
000080 73 8b 4f 3d fc a7 21 bf bf e4 84 bf da 26 53 be
       0.0506701 -0.6314695 -1.0382308 -0.2062029
000090 86 76 19 3e 24 34 e9 3d d9 98 e0 be b4 ce 36 3d
       0.1498662 0.11386898 -0.43866614 0.04463072
0000a0 af 0b 90 3e 1a 8d 97 be 91 35 d1 be d0 9c 09 3e
       0.28133914 -0.2959984 -0.4086118 0.13438725
0000b0 2c 0c 86 be 4f b3 8c be 51 ab 80 be 45 24 3b bf
       -0.2618116 -0.27480552 -0.25130704 -0.7310222
0000c0 32 da d3 bd b1 68 4f be e3 2d c3 be 10 6e 67 be
       -0.10344352 -0.2025478 -0.38120946 -0.2260058
0000d0 bd a0 17 bf 40 59 99 be 6c 64 88 be 5c 29 f1 be
       -0.5922964 -0.29950905 -0.26639116 -0.47101867
0000e0 4c 8b bf 3e cd db cf be 4a 2a 43 bd 7b 00 a1 be
       0.37410963 -0.40597382 -0.047647752 -0.3144568
0000f0 f5 e5 e6 3e 26 81 17 bd ce e5 5f bf 73 0a 44 bf
       0.45097318 -0.0369884 -0.8746003 -0.76578444
000100 13 95 ac be d7 82 ee be 47 87 7e be c8 06 3b be
       -0.33707485 -0.46584198 -0.24856292 -0.18264306
000110 38 e5 8e bd 6d 8a 9a 3e c4 8d 79 be 1d 6e b5 be
       -0.06977314 0.30183735 -0.24370486 -0.35435572
000120 7c 09 56 be 77 7e 8d be 18 a8 81 be df ac 27 bf
       -0.20902056 -0.27635548 -0.25323558 -0.65498155
000130 d6 4c fd 3d 69 1b b6 bd f9 f0 4c 3e 7a 6c b4 be
       0.12368171 -0.08891947 0.20013799 -0.3523901
000140 43 07 53 3d 29 d9 b5 3d 71 d1 ba 3e a4 7e 70 bf
       0.051520597 0.08879311 0.36487916 -0.9394324
000150 cf 39 87 be 27 f8 91 3c 6c 82 c8 be aa 1c 51 bf
       -0.26411292 0.017818524 -0.39162004 -0.8168436
000160 7a bd 8b bd e9 29 df 3e 0b db 60 be 1b 7e e8 3d
       -0.06823249 0.43586662 -0.21958558 0.11352178
000170 46 e7 55 be 9d 8b 04 bf 81 62 d0 3e e9 95 3c bf
       -0.20889005 -0.5177553 0.40700153 -0.73666245
000180 d5 1c 8c be 3b ad fd bd fd f3 56 be 35 c8 13 be
       -0.27365747 -0.12386557 -0.20991512 -0.14431842
000190 6b 9a 0b 3e 42 08 32 be 9b d4 e5 bd 46 01 b2 be
       0.13633125 -0.17385963 -0.11222192 -0.34766597
0001a0 df 7d c6 3e 6e 3a dd be 2f 16 96 be 9c ba 06 bf
       0.38767907 -0.4320864 -0.293138 -0.52628493
0001b0 70 b0 4f bf f1 24 84 bf ed 54 9b 3e d6 93 4e be
       -0.811286 -1.0323774 0.3033823 -0.20173582
0001c0 a3 c4 05 bf 4c 0d f7 be 19 e2 43 be f8 af e6 be
       -0.5225317 -0.48252332 -0.19129218 -0.45056129
0001d0 22 d4 80 be 7c 4a 2c be 4c 8e 38 3e 06 5a 56 be
       -0.25161844 -0.16825289 0.18023032 -0.20932779
0001e0 84 61 86 3d 47 ef c4 bd af fc b0 bd d1 1a 1c bf
       0.065615684 -0.09615951 -0.086419456 -0.6097842
0001f0 66 c4 a1 3e 30 c6 71 be b0 0a 03 be fb 4f 4b be
       0.31595153 -0.23610759 -0.12797046 -0.19854729
000200 d7 cf 18 bd 16 e1 04 bf 5a e3 47 bf 5e b3 de be
       -0.037307587 -0.51905954 -0.78081286 -0.4349622
000210 71 ba 71 be f3 cf e0 3c b7 e7 55 3e 73 2c e2 be
       -0.23606278 0.027442908 0.20889173 -0.44174537
000220 9c f5 88 bf b7 40 04 3d 89 0a 62 be 85 03 6c be
       -1.0699954 0.03228828 -0.22074331 -0.23048218
000230 1b e7 a0 be 44 c6 ca 3c 81 1a bb bd 54 b3 02 be
       -0.3142632 0.024752744 -0.091359146 -0.12763721
000240 34 aa 5f 3e 97 73 f2 be 79 e6 06 be 41 ec df be
       0.21842271 -0.47353813 -0.13173856 -0.43734935
000250 54 b3 df be 54 ef b7 be ae f8 a9 be cb 56 8c be
       -0.43691504 -0.3592478 -0.3319754 -0.27409968
000260 db 4a 3b bf 0a 25 6c 3e 8c 4f 3b bf 20 eb 1c 3f
       -0.73161095 0.23061004 -0.73168254 0.6129627
000270 15 39 28 bf f5 e2 08 bd cd e3 32 3e d8 1a e8 3e
       -0.657121 -0.033419568 0.17469712 0.4533298
000280 48 48 49 be 56 74 b3 bd ac 55 d2 bd 79 23 e3 be
       -0.1965648 -0.08762424 -0.10270247 -0.44363
000290 78 5d 29 3d e9 01 7d bf 57 fe 95 bc de 52 2a 3f
       0.041348904 -0.9883104 -0.018309755 0.66532695
0002a0 17 ba eb 3e 72 8c ba be ba 7a 55 3f c0 21 23 bd
       0.46040413 -0.36435276 0.8339039 -0.03982711
0002b0 10 52 76 3d f5 b0 56 bf 7b 2b fb 3e 7f 93 82 be
       0.060136855 -0.83863765 0.4905661 -0.25503156
0002c0 58 75 8e 3e 1d 95 ac be 1c 74 fa be e5 2b 9b be
       0.278239 -0.33707514 -0.4891671 -0.30306926
0002d0 e2 99 86 bd a3 a3 f5 be b6 14 1e be 73 34 0b 3e
       -0.065723196 -0.47976407 -0.15437588 0.13594227
0002e0 3e c2 2a bf c5 9f 71 be 1b df e3 3e 65 70 59 be
       -0.6670264 -0.23596103 0.44506153 -0.21234281
0002f0 21 03 e6 3e f7 37 6b 3d 9f a6 da bd 8f 78 d2 bd
       0.44924262 0.05742642 -0.10676312 -0.10276901
000300 dd 2d d2 be 03 16 c2 be 83 99 f6 3d 1d 2b a2 3b
       -0.41050616 -0.3790742 0.12040999 0.004948987
000310 6c ff 36 3c 7a ff ee 3e c3 2e b9 3e 0a 2b 9b bd
       0.011169296 0.46679288 0.3616849 -0.075765684
000320 d7 e8 4a be f3 8e 5c bd 01 93 3b bf 0d 22 a9 be
       -0.19815384 -0.053847264 -0.73271185 -0.3303379
000330 b1 01 71 be 45 a8 68 be 49 04 44 be b0 39 ff be
       -0.23535801 -0.2272044 -0.1914226 -0.498487
000340 17 0a a0 be bc c3 2b bf 01 cb 51 bd 57 43 e2 be
       -0.31257698 -0.6709554 -0.05121899 -0.44192
000350 f1 10 76 be dd fc 3b be 2c 01 05 be 52 15 86 bf
       -0.240299 -0.18358178 -0.12988728 -1.0475256
000360 83 cf 0e bf 16 31 ab bc 29 90 88 be e4 0b 48 3f
       -0.5578539 -0.02089743 -0.26672485 0.78143144
000370 87 33 8d be a8 39 5a bf f3 30 0f 3e 2f af 73 3b
       -0.27578375 -0.85244226 0.13983516 0.0037183275
000380 1b ed a5 3e ff 02 7d be 11 50 38 bf c3 dd 60 be
       0.3240746 -0.24708174 -0.7199717 -0.21959595
000390 60 83 3a be d2 89 88 bf 24 72 8d be 7d c5 be be
       -0.18214178 -1.066706 -0.27626145 -0.37260047
0003a0 2c af 01 be f2 8e 5d be b4 97 25 3e e3 d3 e2 bd
       -0.12664479 -0.2163656 0.16171151 -0.110755704
0003b0 ff ce 03 be 6b 07 ae be d3 61 55 be e1 a8 31 bf
       -0.12871931 -0.33990034 -0.20838098 -0.69398314
0003c0 a8 58 2e 3c 38 6b dc 3c a3 4a 43 3f 60 b3 4f be
       0.0106412545 0.026906595 0.7628576 -0.2028327
0003d0 99 28 04 3e c8 73 f1 bd 7f 92 6e bd e5 bc 63 bd
       0.12906112 -0.11789662 -0.05824518 -0.055600066
0003e0 5f 7c e3 3c ef 86 23 be 71 b0 10 be ae 9e bf 3e
       0.027769266 -0.15969442 -0.14129807 0.3742575
0003f0 c7 ce 80 be dc 6b 10 3f 4d c3 ba 3e 47 29 87 3d
       -0.2515776 0.5641458 0.36477128 0.0659967

fc2.bias f4 [300]
000000 22 63 1d be e6 28 5b be f0 72 c0 bd 4e 19 07 be
       -0.15369847 -0.2140232 -0.093969226 -0.13193247
000010 8f a4 ee be 7c 26 11 bd 84 29 ae 3f 0c c0 29 be
       -0.46609923 -0.035437092 1.360642 -0.16577166
000020 ca 02 b3 3f 5b 5d 95 3f 68 e7 42 be bd cf d6 3e
       1.3985226 1.1669115 -0.19033587 0.41955367
000030 e0 0f 75 3d cd 13 30 be 9f 9b 26 3f 33 e3 ec bd
       0.059829593 -0.17195053 0.6508121 -0.11566772
000040 dd 97 ae 3d a7 5c a6 3c d3 5c af 3c af a0 b3 3f
       0.08525059 0.020307852 0.021406567 1.4033412
000050 05 4b 1e 3f ea b3 d6 bd 01 a2 f0 bc 56 74 37 be
       0.6183322 -0.10483535 -0.029374124 -0.17915472
000060 ce fc 8c bd 13 c7 36 be ad 88 8c 3f 52 47 14 bf
       -0.06884156 -0.17849378 1.097921 -0.57921326
000070 0d 6a e8 3e 1d 1b ab 3f d1 9d aa be db e6 ae 3f
       0.4539341 1.3367649 -0.3332353 1.3664201
000080 5e 95 b0 3f 2a 67 52 be 9e f9 b7 3f 30 2b a2 3f
       1.3795583 -0.20547166 1.4373052 1.266943
000090 66 44 28 3f 78 07 e3 bc d0 91 80 be 99 9c 8d 3d
       0.6572937 -0.027713522 -0.25111246 0.06914634
0000a0 e0 a9 3e be 77 ec 8e 3f e2 0a 09 3d 2e 2e ee 3e
       -0.1861949 1.1165913 0.033457644 0.46519607
0000b0 9e fb b8 3f 61 52 cd 3d cc 32 a0 3f 29 61 9f 3e
       1.4451787 0.10025478 1.2515502 0.31128815
0000c0 dc 1d e5 bd 30 65 8d 3d 0d 22 1e 3f b7 99 6d 3e
       -0.11187336 0.069040656 0.6177071 0.23203169
0000d0 97 44 46 be a9 a5 b2 3f 3d 3c 09 3e aa 67 1d be
       -0.19362102 1.3956805 0.13401885 -0.15371576
0000e0 43 41 0a be 6d 00 3d be 39 36 a6 3f ef 89 a1 3f
       -0.13501458 -0.18457194 1.2985297 1.2620219
0000f0 a9 24 df be ca 74 82 bd 2e e7 97 3c dc be 9a 3d
       -0.43582657 -0.06369932 0.018542852 0.07555935
000100 a9 88 79 3e 87 fb 3b 3d 63 82 d7 bd 84 40 a8 bd
       0.24368538 0.045894172 -0.10522916 -0.082154304
000110 2e d7 71 be e0 34 0c bd 13 41 4b 3b 4f 1c d2 be
       -0.23617241 -0.034230113 0.003101413 -0.41037223
000120 bc 95 39 be a7 17 55 be 00 65 dd bd 5f 03 a1 3c
       -0.18123525 -0.20809804 -0.1081028 0.019654928
000130 54 65 87 3f 01 d9 9e bd 56 9a 28 3f 82 d0 16 3e
       1.0577798 -0.07756234 0.658605 0.14727977
000140 56 19 1f be 7e 24 0c bd ed c0 e6 bc b7 a7 46 be
       -0.15537009 -0.03421449 -0.028168166 -0.19399916
000150 80 e7 a0 be 50 e8 40 be 09 f8 09 bc ba 0b 2d bd
       -0.3142662 -0.1883862 -0.008420953 -0.04224751
000160 9b 4f 46 be f4 9c 31 be 33 5e b0 bd 90 63 79 be
       -0.19366305 -0.17345029 -0.08611717 -0.24354386
000170 07 a8 b1 3f 5c ab 2d 3e cc b0 6b be 04 0b 19 3f
       1.3879403 0.169599 -0.23016661 0.59782434
000180 0f 8a 99 bc e0 92 9e bd 14 96 a0 3f 39 87 a3 be
       -0.01874259 -0.07742858 1.25458 -0.31939104
000190 71 31 95 3c 2c b4 8e 3f 9e 2a 81 be 43 14 7e be
       0.018212052 1.1148734 -0.25227827 -0.24812417
0001a0 23 57 7f 3f 65 fb 5d 3e 9f 43 65 bd 5d 13 a5 bc
       0.99742335 0.2167793 -0.05597269 -0.020150835
0001b0 34 63 4b 3f db 2c 43 be 11 a2 81 bd 06 26 bb 3e
       0.79448247 -0.1906008 -0.0632974 0.36552447
0001c0 97 3d 3e be 10 14 c0 3f 47 11 15 3e ec f2 99 3f
       -0.18578182 1.5006123 0.14557372 1.2027259
0001d0 5c d0 4a be f6 72 1f be 39 06 a5 bd d5 02 2f 3d
       -0.19806045 -0.15571198 -0.080578275 0.04272731
0001e0 d2 9b c1 3c 57 8f 8c bd a1 fa 14 be 3b 91 56 be
       0.023633871 -0.068632774 -0.14548732 -0.20953839
0001f0 43 e5 28 be 88 2f 10 3f 95 46 06 be 67 47 86 bc
       -0.16493706 0.56322527 -0.13112862 -0.01639147
000200 4a b7 a2 bd 60 97 11 3e 47 d0 09 be d0 b0 33 be
       -0.07945116 0.14217901 -0.13458358 -0.17547917
000210 ed 95 bf bc 18 54 88 3f f3 b7 29 be 87 50 b1 3f
       -0.02338692 1.0650663 -0.16574077 1.38527
000220 45 e5 32 be 5e 27 b7 3f 14 6e 66 be 90 b8 6c be
       -0.17470272 1.4308889 -0.22502929 -0.2311728
000230 3b ce e3 3e d4 5f ef bc 0e e0 78 bd 30 1c eb 3e
       0.4449328 -0.0292205 -0.06076055 0.45919943
000240 a6 f0 89 be 4a fa a8 3f 43 50 43 3c 20 34 2e 3f
       -0.26941413 1.3201382 0.011920991 0.68048286
000250 ab 24 78 bc ad 77 0f be bd 86 be bd 7a c3 ce bd
       -0.015145461 -0.14010496 -0.09303043 -0.10095878
000260 0c 57 1c be 87 a3 dd bd 0c 7a 39 bd 82 c3 4d 3e
       -0.15267581 -0.10822206 -0.04528241 0.20094112
000270 c1 e5 20 3f 4d 60 da bd a2 55 b3 be c2 28 f3 bd
       0.62850577 -0.10662899 -0.3502627 -0.11873008
000280 52 72 cf 3d a3 90 bb bd c8 22 42 bd 1b 11 49 be
       0.10129227 -0.09158447 -0.04739645 -0.19635431
000290 6e 40 9c bd e0 26 1f be 9d 20 2d be 39 07 37 be
       -0.076294765 -0.15542173 -0.16906972 -0.17873849
0002a0 63 ca f6 3e e6 ef b7 be 8e c5 f7 3e 70 a6 9f 3f
       0.48201284 -0.35925215 0.4839291 1.2472668
0002b0 4d fa aa 3f 56 2c f8 bd ed 8e 8f 3d 2d 81 cd 3d
       1.3357636 -0.121178314 0.07009683 0.10034404
0002c0 e9 96 6c 3f 40 1e a3 be fe 1a 81 bd d0 87 a6 3f
       0.9241777 -0.31859016 -0.063039765 1.3010197
0002d0 64 de b0 3f 0d a6 5f be 7d ca 9d bc 90 43 89 be
       1.3817868 -0.21840687 -0.019261593 -0.2680936
0002e0 a6 69 68 3d 6c 06 61 be 2a c9 19 bf dc 70 18 3f
       0.05674138 -0.21975106 -0.60072577 0.5954721
0002f0 78 ed 26 be e7 c0 0f 3e 65 05 82 bd 4f 65 18 be
       -0.16301525 0.1403843 -0.06348685 -0.14882396
000300 3f 39 e1 bd 5b 34 53 3f 86 b4 83 3f 89 a3 36 bd
       -0.10997247 0.82501763 1.0289466 -0.044589553
000310 f6 21 df 3e c6 7e 12 3f 43 68 21 be 29 2f 7b 3f
       0.43580598 0.5722469 -0.15762429 0.98118836
000320 a6 81 33 3f 1a a7 26 bf b4 a0 34 be 1e 37 06 bf
       0.701197 -0.65098727 -0.17639428 -0.5242785
000330 20 99 f4 3c fd 8b 54 be e0 b1 55 be f2 5c 06 be
       0.029858172 -0.20756526 -0.20868635 -0.13121393
000340 bb 9e 3a be da 1d 27 be b2 86 8b 3f b7 58 5b 3d
       -0.18224613 -0.16319981 1.0900481 0.053551402
000350 23 02 10 3d 29 e8 87 3f 08 f0 6b 3e 30 aa f0 3e
       0.035158288 1.0617725 0.23040783 0.47004843
000360 56 b2 40 be c2 4d 8f 3c 37 fc 74 3f 63 7f 01 3e
       -0.1881803 0.017493133 0.9569735 0.1264625
000370 03 37 95 3f 0f 45 32 be 50 36 3f be 3a e0 71 3f
       1.1657413 -0.17409156 -0.18673062 0.9448277
000380 e0 ab 4d be b2 b0 ab bd 92 96 31 3f 59 17 f0 3e
       -0.20085096 -0.08383311 0.6937038 0.46892813
000390 c9 14 98 3a 34 f2 f8 bd 85 7f 67 be 79 12 1e be
       0.0011602874 -0.121555716 -0.22607239 -0.15436734
0003a0 f5 9c 7f be 9f de f0 3e 6c 8c 74 3c 6e ef 77 3f
       -0.24962218 0.47044846 0.014926057 0.96849716
0003b0 4c e6 9f be 9e ab 80 be 22 d8 8a 3f 97 ea ab bd
       -0.3123039 -0.25130934 1.0847208 -0.08394354
0003c0 12 b5 28 bf db c4 1c 3e 88 e6 9b 3f d6 2c a0 bd
       -0.6590129 0.1530947 1.2179728 -0.07821052
0003d0 02 07 a3 3c be 3f 54 bd d6 18 8e bd 6e ad 9f 3f
       0.019900803 -0.0518186 -0.06938331 1.2474802
0003e0 30 1d 83 bd 43 22 0c bd 46 95 46 3f 7f ab 14 3f
       -0.064020514 -0.034212362 0.77571523 0.5807418
0003f0 e1 7d 9b bd 96 ac 96 be 6a f8 04 3e 02 ff 70 3f
       -0.07592369 -0.29428548 0.12985387 0.9413911

bn2.weight f4 [300]
000000 d9 f4 ad 3f 35 df a4 3f 2c 3a 82 3f b8 01 8a 3f
       1.3590347 1.2880617 1.0174003 1.0781775
000010 42 48 80 3f 4a 16 a6 3f 3d 4d 80 3f 0c 20 08 40
       1.0022051 1.2975552 1.0023571 2.126956
000020 d7 55 85 3f 7d 92 7e 3f e1 ec 9f 3f 0c 16 5f 3f
       1.0416821 0.99442273 1.2494165 0.87143016
000030 a4 39 bf 3f 2d 45 93 3f 9d 26 6d 3f dc 93 7b 3f
       1.4939466 1.1505486 0.92637044 0.9827249
000040 89 b7 af 3f b3 83 d6 3f 57 5d 91 3f 4a 85 82 3f
       1.3727885 1.6758941 1.135661 1.0196927
000050 f7 7e 67 3f 65 cf 9d 3f dd f2 50 3f 60 e7 b0 3f
       0.9042811 1.2328917 0.8162058 1.382061
000060 38 44 6a 3f 89 47 a4 3f 7c 40 7a 3f df f6 5d 3f
       0.91510344 1.2834331 0.97754645 0.8670482
000070 4a 84 60 3f 27 7c 84 3f 57 2a 79 3f 19 96 83 3f
       0.8770186 1.0350388 0.9733023 1.0280181
000080 55 30 86 3f b4 a7 02 40 5e a8 86 3f 14 5c 82 3f
       1.04835 2.0414858 1.0520132 1.018435
000090 f9 99 69 3f 36 26 8a 3f 14 55 90 3f a6 8e a9 3f
       0.9125057 1.0792911 1.1275964 1.3246658
0000a0 6e 71 87 3f 28 e0 7b 3f 78 f8 93 3f 0a 1b 5d 3f
       1.0581491 0.9838891 1.1560202 0.86369383
0000b0 22 a1 87 3f b0 8c 72 3f 94 83 83 3f 5f e4 58 3f
       1.0596049 0.9474592 1.027453 0.84723467
0000c0 ee 6f 82 3f 17 ce 5b 3f 07 3b 68 3f d8 30 ee 3f
       1.0190408 0.85861343 0.9071507 1.8608656
0000d0 aa 49 9a 3f b0 2c 84 3f 72 5b a8 3f 58 46 88 3f
       1.205373 1.0326138 1.3152907 1.0646467
0000e0 6c c1 82 3f 6d 78 0c 40 dd 08 82 3f 33 df 7b 3f
       1.0215278 2.1948502 1.0158955 0.9838745
0000f0 35 ef 9b 3f 5e ad e0 3f 68 94 85 3f cc 1e 75 3f
       1.2182375 1.7552907 1.0435915 0.9575012
000100 71 e1 54 3f fc 6e fc 3f b1 ed 7e 3f 49 5c 89 3f
       0.83156496 1.972137 0.9958144 1.0731288
000110 3e 4c c4 3f 21 71 88 3f e2 7c 90 3f b2 a2 d9 3f
       1.5335767 1.0659524 1.1288111 1.7002776
000120 8b 86 8f 3f 80 41 90 3f 4a 3c 82 3f cb 79 fa 3f
       1.1212934 1.1269989 1.0174649 1.9568418
000130 bf 01 77 3f 0b 08 81 3f 13 12 67 3f e7 8b 9e 3f
       0.9648704 1.008058 0.90261954 1.2386445
000140 7e d0 8e 3f 1c 19 68 3f 11 b7 80 3f 0f 82 84 3f
       1.1157377 0.90663314 1.0055867 1.0352191
000150 fb c2 cb 3f aa 8d ad 3f 2a ce a6 3f 08 fb 84 3f
       1.5918878 1.3558857 1.3031666 1.0389109
000160 00 18 06 40 ac ba 90 3f 1f da 86 3f 17 77 85 3f
       2.0952148 1.1306968 1.0535315 1.0426968
000170 4b 85 84 3f 3a 33 eb 3f 51 08 92 3f 30 f7 67 3f
       1.0353178 1.8375008 1.1408788 0.90611553
000180 85 42 88 3f a5 84 8b 3f 2c 79 7f 3f d4 e0 c1 3f
       1.06453 1.0899855 0.9979427 1.5146737
000190 3d fd c6 3f 38 e9 7b 3f 8d ff 92 3f 9e b5 80 3f
       1.5546032 0.9840274 1.1484238 1.0055425
0001a0 7b aa 70 3f c3 0f a0 3f 09 5f 83 3f d9 fc 80 3f
       0.9401013 1.250481 1.0263377 1.0077163
0001b0 59 a7 6c 3f 93 19 a7 3f c9 01 95 3f cb ea 59 3f
       0.9244285 1.305468 1.164117 0.8512389
0001c0 b1 7d 7e 3f e5 be 88 3f a2 30 72 3f 9f c1 80 3f
       0.9941054 1.0683256 0.9460546 1.0059088
0001d0 7b 4c b7 3f 98 26 88 3f c6 8b 8c 3f 3e 51 5e 3f
       1.4320215 1.0636778 1.0980155 0.86842716
0001e0 49 39 9a 3f dc 08 ae 3f 57 07 b7 3f 59 3b af 3f
       1.2048732 1.3596454 1.4299115 1.3689986
0001f0 e7 55 82 3f 74 6e 62 3f fd ea 88 3f cf 80 6e 3f
       1.0182465 0.8844979 1.0696713 0.93165296
000200 0e 4f a8 3f c5 44 96 3f 80 d0 9d 3f db 40 89 3f
       1.3149126 1.1739737 1.2329254 1.0722917
000210 e8 df 90 3f c9 67 7e 3f 75 76 9d 3f f9 a5 82 3f
       1.1318331 0.99377114 1.2301775 1.0206901
000220 38 34 81 3f b8 7e 86 3f f4 15 78 3f 01 bf 94 3f
       1.0094061 1.0507421 0.969085 1.162079
000230 2e a3 52 3f 0f 00 9e 3f 08 e4 7b 3f e0 9c 5e 3f
       0.8228024 1.2343768 0.98394823 0.8695812
000240 38 67 a5 3f 95 48 7e 3f 10 62 e3 3f 75 f9 68 3f
       1.2922125 0.993295 1.7764301 0.9100564
000250 46 bb 79 3f d1 3a 9f 3f c7 2f 7d 3f c8 b6 8d 3f
       0.9755138 1.2439824 0.9890103 1.1071405
000260 df 6b d7 3f b8 57 6a 3f 48 08 92 3f f3 3e e4 3f
       1.6829795 0.915401 1.1408777 1.783171
000270 20 60 6b 3f 12 65 6e 3f 7e 3d ad 3f 70 0d 81 3f
       0.9194355 0.9312297 1.3534391 1.0082226
000280 fb 43 87 3f 6f 63 a4 3f 96 9f 7e 3f e0 3b 80 3f
       1.0567621 1.2842845 0.9946226 1.0018272
000290 f5 8d 82 3f 24 33 a7 3f c7 a6 a0 3f 37 08 8e 3f
       1.0199572 1.3062482 1.2550896 1.1096257
0002a0 4b da 61 3f c7 39 01 40 7f e3 b3 3f 27 dc 7c 3f
       0.88223714 2.0191514 1.4053801 0.98773426
0002b0 52 be 81 3f ac 08 8d 3f 9e c3 c2 3f b2 ce 90 3f
       1.0136206 1.1018271 1.5215948 1.1313078
0002c0 84 d4 6d 3f 6e 83 7f 3f 6f 8e ae 3f 5e 8a 83 3f
       0.929024 0.9980992 1.3637217 1.0276601
0002d0 5f aa 86 3f cf 45 d6 3f 38 52 7a 3f 6a d1 7a 3f
       1.0520743 1.6740054 0.97781706 0.9797579
0002e0 ab 99 4d 3f 2d 13 7d 3f a8 3f 4e 3f ff 89 61 3f
       0.80312604 0.98857385 0.8056588 0.8810119
0002f0 b3 b9 96 3f d3 f6 8a 3f 63 e1 ac 3f f6 a6 92 3f
       1.1775421 1.0856575 1.3506283 1.1457202
000300 b7 21 a3 3f e4 13 6f 3f 02 bc 7f 3f b0 65 80 3f
       1.2744664 0.93389726 0.9989625 1.0031033
000310 50 29 63 3f 45 60 63 3f 32 49 98 3f 10 75 74 3f
       0.8873491 0.8881877 1.1897337 0.95491123
000320 ed db 64 3f 79 d0 99 3e 75 3c 81 3f 18 e1 8b 3e
       0.8939808 0.30041865 1.0096575 0.2732017
000330 ff 8e 5d 3f 92 da 71 3f 08 61 b1 3f 6e be 9a 3f
       0.8654632 0.94474137 1.3857737 1.2089365
000340 2c 03 89 3f ea 89 b0 3f 47 ad 77 3f b8 5a b0 3f
       1.0704093 1.3792088 0.96748775 1.3777685
000350 00 7d 8f 3f e0 c5 73 3f 09 f4 85 3f 65 20 75 3f
       1.1210022 0.9522381 1.0465099 0.95752555
000360 5c fc 74 3f 39 5d ed 3f e5 4a 73 3f 1a e1 fc 3f
       0.9569757 1.8544074 0.95036155 1.9756196
000370 1d 39 81 3f b2 9c a5 3f 60 7a 9c 3f 34 9d 74 3f
       1.0095555 1.2938445 1.2224846 0.9555237
000380 84 bf 8e 3f 73 1b 71 3f ed 46 6b 3f 93 32 62 3f
       1.1152196 0.9418251 0.919051 0.8835842
000390 f5 38 81 3f 00 cc 96 3f ee 22 69 3f 5e f2 a7 3f
       1.0095507 1.1781006 0.91068923 1.312084
0003a0 6a a2 ab 3f 13 6a 5c 3f 6a 16 e2 3f d9 c6 6d 3f
       1.340894 0.86099356 1.766309 0.9288154
0003b0 8d 5b e6 3f d3 dd ac 3f 21 bc 7a 3f 1f bc ae 3f
       1.7996689 1.3505195 0.9794331 1.365116
0003c0 07 92 87 3f 8b f4 b1 3f 7a cc 81 3f 4c 9b 45 3f
       1.0591439 1.3902754 1.0140526 0.7719009
0003d0 dd 66 a4 3f ba 01 8e 3f 86 68 5b 3f d0 24 7d 3f
       1.2843891 1.1094277 0.85706365 0.98884296
0003e0 cd 65 82 3f 21 cb b0 3f f5 a8 6c 3f 89 16 6b 3f
       1.0187317 1.381199 0.9244531 0.9183126
0003f0 fe f6 9f 3f 4a 30 b9 3f 68 a6 3b 3f 61 9e 73 3f
       1.2497251 1.4467862 0.7330079 0.9516354
