Zadanie3/srcV2/models/VEP_exp_prob_01_exploration_50/target_critic_network.pth (torch, 509903 bytes, 11 tensors)

fc1.weight f4 [400, 8]
0	0x3dac7269	0.084202595
1	0x3d3a94b9	0.04555199
2	0x3e35aa8e	0.17740843
3	0x3edb3aa6	0.42818183
4	0xbeae9c9f	-0.34103867
5	0xbf5b8658	-0.8575187
6	0xbf697a07	-0.91201824
7	0xbec0e879	-0.37677363
8	0x3f0da777	0.55333656
9	0x3e1bee3a	0.15227595
10	0xbdd8620e	-0.105655774
11	0x3eae84e9	0.34085777
12	0xbe29597e	-0.16538045
13	0x3f04c0c8	0.5185666
14	0x3f4f7533	0.81038207
15	0xbd597cc8	-0.053097516
16	0x3e9f6252	0.311297
17	0x3f199d13	0.600053
18	0x3ecc78ac	0.39935815
19	0xbd59249d	-0.053013433
20	0xbf4eb2d4	-0.8074162
21	0xbf884c05	-1.0648199
22	0xbd51ede7	-0.051252272
23	0xbf9f3a26	-1.243962
24	0xbe47859e	-0.19484565
25	0x3cce204f	0.02516189
26	0xbc5ab32a	-0.01334838
27	0xbcaa4a62	-0.020787422
28	0x3eed88f8	0.4639356
29	0x3ebbed32	0.36704403
30	0x3f39aba6	0.7252754
31	0x3ebae434	0.3650223
32	0xbe3eafd7	-0.18621765
33	0x3e1c6bfc	0.15275568
34	0x3ec928e3	0.39289007
35	0xbc6f25b8	-0.014596395
36	0x3ea6992e	0.32538742
37	0x3ee063b3	0.43826064
38	0x3b1327af	0.0022454073
39	0x3f3bfb02	0.7342988
40	0xbec7be3e	-0.3901233
41	0x3dc65e36	0.09685938
42	0xbdedcb36	-0.11611025
43	0x3da706e9	0.08155615
44	0x3d49bfa7	0.04925504
45	0x3f49c429	0.7881494
46	0x3ee2b707	0.44280264
47	0x3f23cd49	0.63985115
48	0xbe04ea25	-0.12979944
49	0x3e8cdb5e	0.27511114
50	0x3de3c393	0.11121287
51	0x3e2e5e0a	0.1702806
52	0xbe00062b	-0.12502353
53	0xbdb9fde5	-0.0908163
54	0xbe84f6d3	-0.25969562
55	0x3f91d11c	1.139194
56	0x3dab1844	0.08354238
57	0x3e93bdf9	0.28855875
58	0x3eb22f98	0.34801936
59	0x3ee63953	0.4496561
60	0xbe15e58b	-0.14638345
61	0x3e97f7eb	0.29681334
62	0x3e9bba97	0.30415794
63	0x3f0ef0a7	0.55835956
64	0xbf109b81	-0.5648728
65	0x3da22a0a	0.079181746
66	0xbf2e44c9	-0.6807371
67	0x3f6682dc	0.90043426
68	0x3faf9693	1.3717827
69	0x3f4a7baa	0.79094946
70	0xbe5aecef	-0.21379445
71	0xbeb809b9	-0.35944918
72	0xbe08404e	-0.1330578
73	0x3eab54fc	0.33463275
74	0x3e4d311c	0.20038265
75	0x3ea93d4e	0.33054584
76	0xbe8df243	-0.27723894
77	0x3e8b13f9	0.27163675
78	0x3e9b75db	0.30363354
79	0x3f3889a6	0.72085035
80	0xbd24cc4a	-0.040233888
81	0xbd64cf3b	-0.055861693
82	0x3e92d7a8	0.28680158
83	0xbf4c4255	-0.79788715
84	0xbf2d3525	-0.6765922
85	0x3eea2ed8	0.45738864
86	0xbfda3f07	-1.7050484
87	0x3ee0819c	0.43848884
88	0xbf05fc19	-0.52337795
89	0x3e324c60	0.17411947
90	0xbedc7bc6	-0.43063182
91	0x3e1e2824	0.15445
92	0x3f1a02e0	0.60160637
93	0xbc97e03e	-0.018539544
94	0x3d1ce443	0.038303625
95	0xbefbd8c7	-0.49188825
96	0xbd7c73d0	-0.061633885
97	0x3e03f754	0.12887317
98	0x3e6aba2d	0.22922583
99	0x3f01fa45	0.50772506
100	0x3ed9d2d0	0.4254365
101	0xbf5977a2	-0.8494817
102	0xbe479003	-0.1948853
103	0x3e747cd7	0.23875748
104	0x3e879247	0.26478788
105	0x3ee9d5d6	0.45670956
106	0x3ea3a770	0.31963682
107	0xbe515182	-0.20441249
108	0xbd27c413	-0.040958475
109	0x3f73e924	0.9527762
110	0x3f536dcf	0.8258943
111	0x3ec15c5b	0.37765774
112	0xbe37e458	-0.179582
113	0x3eaec3fe	0.34133905
114	0xbb86eb89	-0.0041174334
115	0xbe3de7d6	-0.1854547
116	0x3e223019	0.1583866
117	0x3f53b33a	0.82695353
118	0x3f3b6693	0.7320339
119	0x3f1cc0c6	0.6123165
120	0xbc4e5018	-0.012592338
121	0x3c6b4f58	0.014362179
122	0x3dde1ed5	0.108457245
123	0x3f3ad934	0.72987676
124	0xbf42747f	-0.7595901
125	0x3ea87f5b	0.32909665
126	0x3d251df3	0.040311765
127	0x3df1bc7c	0.11803529
128	0xbd43fb61	-0.047847155
129	0x3ea647ae	0.32476562
130	0xbc852c53	-0.016256487
131	0x3e234205	0.15943153
132	0x3dfd9354	0.12381616
133	0xbf11394f	-0.5672807
134	0xbe4defbd	-0.20110984
135	0x3e25c5bd	0.16188712
136	0x3daeab5d	0.08528779
137	0x3ebc24ef	0.36746928
138	0x3cd668fe	0.026173111
139	0xbc888ce9	-0.016668754
140	0xbeb71ff7	-0.35766575
141	0x3e2034db	0.15645163
142	0x3e12149b	0.14265673
143	0x3ef89a9c	0.48555458
144	0xbe9cd0bd	-0.30628005
145	0x3ed3e0ef	0.41382548
146	0x3e49d7d3	0.19711237
147	0x3da77dfc	0.081783265
148	0x3e8c99fe	0.27461237
149	0x3f13b83d	0.57703
150	0x3ec24445	0.3794271
151	0x3f4d60a8	0.8022561
152	0x3e1699d0	0.14707112
153	0x3f0159f2	0.5052787
154	0x3e54fbaf	0.20799135
155	0xbeab277d	-0.33428565
156	0xbdea4cfb	-0.11440464
157	0x3f24a5b4	0.6431534
158	0x3f3f5181	0.7473374
159	0x3f4db377	0.80351967
160	0xbe8c0394	-0.2734648
161	0x3cf280ca	0.029602427
162	0xbf069c7c	-0.52582526
163	0x3d8ade3e	0.067806706
164	0x3f685cac	0.90766406
165	0x3f324b3b	0.6964604
166	0xb999b40f	-0.00029316588
167	0xbef586bd	-0.4795436
168	0x3ccc46b3	0.024936056
169	0xbec828a9	-0.3909352
170	0x3ea2d9e3	0.3180686
171	0x3f7e7cb3	0.99409026
172	0xbda4ec36	-0.08052866
173	0x3e8da5ad	0.27665463
174	0x3f6106a4	0.8790076
175	0x3e6795b2	0.22615698
176	0x3eab6215	0.33473268
177	0x3ed156b8	0.40886474
178	0x3e59f6a4	0.21285492
179	0x3d10d37b	0.035357933
180	0xbefe7e99	-0.4970596
181	0xbf229380	-0.6350632
182	0xbeb0d378	-0.34536338
183	0xbe6e043d	-0.23243804
184	0xbe42abca	-0.19010845
185	0xbe00e856	-0.12588629
186	0x3f39e590	0.7261591
187	0x3eec0fec	0.46105897
188	0x3e972614	0.2952124
189	0x3bb285e1	0.0054480885
190	0x3f473d6a	0.77828085
191	0x3e5c1487	0.21492206
192	0x3f523e77	0.82126564
193	0xbe2b81fc	-0.16748804
194	0x3eb7be2b	0.35887274
195	0x3e769eae	0.24083969
196	0xbede750e	-0.4344868
197	0x3d1b8110	0.03796488
198	0xbd47e3f5	-0.04880138
199	0x3f43cfe7	0.7648911
200	0xbd267673	-0.040640306
201	0x3ea05a33	0.31318817
202	0x3dc01ccd	0.09380493
203	0xbe5f6ccd	-0.21818848
204	0xbe8048d8	-0.25055575
205	0x3f7302ed	0.9492634
206	0x3ecea376	0.40359086
207	0x3f0ccbf5	0.54998714
208	0x3efbd92a	0.4918912
209	0x3e324bb0	0.17411685
210	0xbe508049	-0.20361437
211	0x3ecc018a	0.39844924
212	0xbf2f49f3	-0.6847221
213	0x3f2f5143	0.6848337
214	0x3e9a071f	0.30083558
215	0x3ee2e6dd	0.4431676
216	0xbc89a2cf	-0.016801266
217	0xbdbc0a2f	-0.0918163
218	0x3c888d14	0.016668834
219	0x3f342cc8	0.7038083
220	0x3e99fbf6	0.30075043
221	0xbebbd86d	-0.36688557
222	0xbe63e45c	-0.22255081
223	0x3ec8a5fc	0.39189136
224	0xbd256f5e	-0.04038941
225	0xbe990a10	-0.2989049
226	0x3caba3b0	0.020952076
227	0x3e9ae77e	0.3025474
228	0x3f2726a6	0.6529335
229	0xbf2a8889	-0.66614586
230	0x3ea1e615	0.3162085
231	0xbef48bdb	-0.4776295
232	0xbeaea50f	-0.34110305
233	0xbe963309	-0.29335812
234	0x3f4b8461	0.7949887
235	0xbcb37024	-0.021904059
236	0x3d876e2a	0.06612809
237	0x3f412ece	0.75462043
238	0x3e2b8e3c	0.16753477
239	0x3f3c69c3	0.7359888
240	0xbe1796f0	-0.14803672
241	0x3f00aed9	0.50266796
242	0xbe2e09fb	-0.16995995
243	0xbeb63c53	-0.355929
244	0x3f0bc151	0.5459185
245	0x3e9f9b28	0.31173062
246	0x3dde325d	0.1084945
247	0x3d249469	0.040180597
248	0xbeed7eb5	-0.46385732
249	0xbc96282c	-0.018329702
250	0xbf016ea6	-0.5055946
251	0x3f893330	1.0718746
252	0x3f22f3e1	0.6365338
253	0x3eff94fd	0.49918357
254	0x3ee7cce2	0.452735
255	0x3e73a266	0.23792419

fc1.bias f4 [400]
0	0xbe846940	-0.2586155
1	0x3d9e4585	0.077281035
2	0x3f01f159	0.5075889
3	0x3c95c87a	0.018284071
4	0xb9021b33	-0.00012407899
5	0x3e7a4b71	0.24442841
6	0x3e1a714b	0.1508228
7	0x3eb54116	0.3540122
8	0xbea887b1	-0.32916024
9	0x3e2c533c	0.16828626
10	0x3df39394	0.11893383
11	0xbe84c2cb	-0.25929865
12	0x3e96826f	0.29396388
13	0x3ebf1cd2	0.37326676
14	0x3ea0c823	0.31402692
15	0x3f2d294f	0.67641157
16	0xbcf08d04	-0.029364116
17	0x3dad3ed8	0.08459252
18	0x3e7e5eb4	0.24840814
19	0x3ea8431c	0.328637
20	0xbe2f5860	-0.17123556
21	0x3e14aed9	0.14519824
22	0x3e9c76ca	0.3055938
23	0x3eb7616a	0.3581651
24	0xbefbec39	-0.4920366
25	0x3dc5ec21	0.09664179
26	0x3e8571a5	0.26063266
27	0x3f30b3a9	0.6902414
28	0x3f1aca54	0.6046498
29	0x3ebcac9f	0.3685045
30	0x3ec9e244	0.3943044
31	0xbea437ca	-0.32073814
32	0xbe7a2eff	-0.2443199
33	0x3dedccac	0.11611304
34	0xbd1430a2	-0.036179192
35	0x3e96ab34	0.29427493
36	0x3e5500bf	0.20801066
37	0x3e8e2dae	0.27769226
38	0x3e8b8a17	0.27253792
39	0x3ea9af74	0.33141673
40	0x3e3d83f2	0.18507364
41	0xbe7c7e9f	-0.24657677
42	0xbd8650fe	-0.06558417
43	0x3dc590d4	0.096467644
44	0x3ef875d6	0.48527402
45	0xbe300346	-0.17188749
46	0x3dc1a348	0.094549716
47	0xbe422afb	-0.18961708
48	0x3f204e3b	0.6261937
49	0x3c427856	0.011869511
50	0x3d8ba6a5	0.06818894
51	0x3f3aecf7	0.7301783
52	0xbf0e85b3	-0.5567276
53	0x3ea078e3	0.3134223
54	0xbdef337c	-0.11679742
55	0x3caa5f50	0.020797402
56	0xbefbb5ad	-0.49162045
57	0xbdabdc68	-0.083916485
58	0x3e9d101e	0.3067636
59	0x3c9b1cfd	0.018934721
60	0xbec26513	-0.37967739
61	0x3cf74988	0.03018643
62	0x3e1abcfd	0.15111156
63	0x3d1f0c64	0.038830176
64	0x3dd354b0	0.10318887
65	0x3ce4e75d	0.027942354
66	0xbe0b53a4	-0.13606125
67	0xbe69e33d	-0.22840591
68	0x3e68f98d	0.22751446
69	0xbdb29abc	-0.087209195
70	0x3e846c9b	0.2586411
71	0x3e31d267	0.17365418
72	0x3e5ff979	0.2187251
73	0x3e61affc	0.22039789
74	0x3e8414dd	0.25797167
75	0x3d8dbb2b	0.06920465
76	0x3e12864e	0.14309046
77	0x3e3da569	0.1852013
78	0xbe8ff41b	-0.28115925
79	0x3ef34226	0.47511405
80	0xbce3ee26	-0.027823519
81	0x3df16987	0.11787706
82	0x3d87151c	0.06595823
83	0x3e911741	0.28338054
84	0x3e48afa1	0.19598247
85	0x3dbec0e3	0.09314134
86	0x3c9d6ac2	0.019215945
87	0x3d9baca9	0.07601292
88	0xbe3abff3	-0.18237285
89	0xbeb7e1f4	-0.35914576
90	0x3ef08749	0.46978214
91	0xbefcdaad	-0.49385586
92	0xbda5e1d3	-0.08099713
93	0xbe3048fd	-0.17215343
94	0xbeb0b4bf	-0.34512898
95	0x3d840d07	0.06447797
96	0xbd07f47e	-0.03319215
97	0xbeea230f	-0.45729873
98	0xba79fda1	-0.000953639
99	0x3f1dcc8a	0.61640227
100	0x3e8c6a17	0.2742469
101	0x3f0f4b50	0.5597429
102	0x3e886074	0.26636088
103	0xbddf10b8	-0.10891861
104	0xbe90f5bc	-0.2831248
105	0x3e84cd6a	0.25937968
106	0xbdd824c5	-0.10553888
107	0x3deca441	0.115547664
108	0x3e6a29e4	0.22867543
109	0x3d903b48	0.07042557
110	0x3e717d13	0.23582868
111	0x3e3928af	0.18081926
112	0x3e638ece	0.22222444
113	0xbe367a6c	-0.17820138
114	0x3bdbdb6a	0.006709506
115	0xbec131ec	-0.377334
116	0x3ea5c3b0	0.3237586
117	0xbe90574d	-0.28191605
118	0x3da3b92a	0.079943016
119	0xbe804f99	-0.25060728
120	0x3ea37313	0.31923732
121	0x3eacf0f1	0.33777574
122	0x3e77fc5a	0.24217358
123	0xbefc1b94	-0.4923979
124	0x3eb5047e	0.3535499
125	0xbe88352d	-0.2660307
126	0x3e64f9b1	0.22360875
127	0x3f2aff96	0.66796243
128	0x3f11136f	0.5667028
129	0x3efe553f	0.49674413
130	0xbdb7871a	-0.089613155
131	0x3e5b034b	0.21387975
132	0x3ea51332	0.32241207
133	0x3ec372d9	0.3817356
134	0xbea346c5	-0.3188993
135	0x3ce3ab6d	0.027791703
136	0xbd5e698c	-0.054299876
137	0x3ea1974c	0.31560743
138	0x3f0e2928	0.5553155
139	0xbee9b4ff	-0.45645902
140	0x3e8aa7f7	0.27081272
141	0x3e05e82b	0.13076846
142	0x3eaef521	0.34171394
143	0x3f1ced65	0.61299735
144	0xbdca1f9b	-0.098693095
145	0xbe0cfd88	-0.1376859
146	0x3e887442	0.26651198
147	0xbed7aaba	-0.42122442
148	0xbe647149	-0.2230884
149	0x3e9f1beb	0.31075987
150	0x3df78218	0.1208536
151	0x3e9b283b	0.3030413
152	0x3d3940fe	0.045227997
153	0xbdb8fbf7	-0.090324335
154	0x3c7909b1	0.0152000645
155	0x3c9da4e3	0.019243663
156	0xbe02942b	-0.12751834
157	0x3f065371	0.5247107
158	0x3e8e248d	0.2776226
159	0x3ee327fe	0.4436645
160	0x3e2779e2	0.16355088
161	0x3c3451e1	0.01100585
162	0x3eb4dc5c	0.3532437
163	0x3cd9fd53	0.026610052
164	0xbe3a9113	-0.18219404
165	0x3e351ba5	0.17686327
166	0x3e863194	0.262097
167	0x3eafb108	0.34314752
168	0xbef801f0	-0.48438978
169	0x3ea471b3	0.32117996
170	0xbe082428	-0.13295043
171	0xbf0cd9b9	-0.5501972
172	0x3e6e823f	0.23291872
173	0x3d686234	0.05673428
174	0xb881d38e	-6.1906045e-05
175	0x3ea82879	0.32843378
176	0xbf3df6c7	-0.7420468
177	0x3e64bf06	0.22338495
178	0xbeaadae9	-0.3337014
179	0x3e85bd51	0.26121
180	0x3ebac8d2	0.3648134
181	0x3dd42404	0.10358432
182	0x3ea2bfd4	0.31786978
183	0xbd38d662	-0.045126326
184	0xbc2431bc	-0.010021623
185	0xbe38808f	-0.18017791
186	0xbecb2aa2	-0.39680964
187	0x3e3401f3	0.17578869
188	0xbe07a06d	-0.13244791
189	0xbe91e610	-0.28495836
190	0xbe9a01c2	-0.30079466
191	0xbe38b6dd	-0.18038507
192	0x3e5f13e8	0.21784937
193	0x3e6fa453	0.23402528
194	0x3e1fc448	0.15602219
195	0xbe95a0ad	-0.29224148
196	0x3ec3d6fb	0.38249955
197	0x3e9f4e1a	0.31114274
198	0xbef6e83e	-0.48224062
199	0x3e9c1d63	0.3049117
200	0x3e99ecf3	0.3006359
201	0xbeca6e80	-0.3953743
202	0xbf2e4065	-0.6806701
203	0xbb0eeb43	-0.0021807707
204	0x3f0b7c8c	0.5448692
205	0x3e93b969	0.28852394
206	0xbec297a5	-0.3800632
207	0xbdacf479	-0.08445067
208	0xbcfc119e	-0.03077012
209	0xbeb49b03	-0.35274515
210	0x3de7baf6	0.11314957
211	0x3ed8d5ed	0.42350712
212	0x3e5b2b9e	0.21403357
213	0x3e94b83d	0.29046813
214	0x3e9ee765	0.31035915
215	0xbcfd4dc4	-0.03092087
216	0x3e5cf922	0.21579412
217	0x3e66c721	0.22536899
218	0x3e8a4bcf	0.27010962
219	0xbf0e6fe0	-0.5563946
220	0x3f29f3d6	0.6638769
221	0xbc164164	-0.009170864
222	0x3d84505a	0.06460638
223	0x3e1c4939	0.15262307
224	0x3de1f42b	0.110328995
225	0x3e5555fc	0.20833582
226	0xbe480793	-0.1953414
227	0x3e270e07	0.16313945
228	0x3e8c0ca6	0.273534
229	0xbe9369f0	-0.2879176
230	0x3cefc96b	0.029270848
231	0xbe5191e3	-0.20465808
232	0x3ea3890f	0.31940505
233	0x3da5638d	0.080756284
234	0xbcf9e54b	-0.030504843
235	0x3ee4223e	0.44557375
236	0x3da24d64	0.07924917
237	0x3d8e0b56	0.06935756
238	0x3e7f3e5b	0.2492613
239	0x3ebdbd6a	0.37058574
240	0x3eccca43	0.39998063
241	0x3e13651a	0.14394036
242	0xbef8b1ce	-0.48573154
243	0x3c857a55	0.016293684
244	0xbdd72cf7	-0.10506623
245	0x3db860fc	0.09002873
246	0x3e7552cf	0.2395737
247	0xbcf33a8e	-0.029691007
248	0x3f43caa0	0.76481056
249	0x3f2fcd61	0.6867276
250	0xbe4135f2	-0.18868235
251	0xbea53f5b	-0.322749
252	0xbf04571f	-0.51695436
253	0xbe8a751b	-0.2704247
254	0xbe7d232c	-0.24720448
255	0x3e9bc6a5	0.3042499

bn1.weight f4 [400]
0	0x3fd56cd0	1.6673832
1	0x3f267aeb	0.6503131
2	0x3fbf96ee	1.4967935
3	0x3f0576d4	0.5213444
4	0x3f4144b3	0.7549545
5	0x3e94896d	0.29011098
6	0x3f327798	0.69713736
7	0x3ede2c39	0.43393114
8	0x3ff95a4d	1.9480683
9	0x3ef284d3	0.47366962
10	0x3fa30d13	1.2738365
11	0x3f3c1fbc	0.7348592
12	0x3f341911	0.7035075
13	0x3e6a21f2	0.22864512
14	0x3e41bd50	0.18919873
15	0x3f763f51	0.96190363
16	0x3f2752ba	0.65360606
17	0x3ef8cd6b	0.4859422
18	0x3ed8a7b9	0.42315462
19	0x3e7c8a73	0.24662189
20	0x3f3f36ea	0.7469317
21	0x3fc3beed	1.5292641
22	0x3f4d8b8a	0.80291045
23	0x3f633c73	0.88764113
24	0x4007573d	2.1146996
25	0x3f1fad87	0.62374157
26	0x3f2e4f80	0.6809006
27	0x3f6c0b0a	0.92204344
28	0x3fa88a24	1.3167157
29	0x3f85d0a3	1.0454296
30	0x3f81ba67	1.013501
31	0x3f75e30d	0.96049577
32	0x3f2261f6	0.63430727
33	0x3f97d095	1.1860529
34	0x3fbcbed0	1.4745731
35	0x3f6fda9a	0.93692935
36	0x3f753595	0.95784885
37	0x3eb046ff	0.34429166
38	0x3f911118	1.1333342
39	0x3eb12417	0.34597847
40	0x3f6a20cd	0.914563
41	0x40076160	2.1153183
42	0x3eb8c2df	0.36086175
43	0x3ea9bbfe	0.3315124
44	0x3f9838ef	1.1892375
45	0x3f93e8a8	1.1555376
46	0x3ec9cfb8	0.3941629
47	0x3feb93c9	1.8404475
48	0x3f9e179e	1.2350957
49	0x3f1e32dd	0.6179636
50	0x3f99a1d1	1.2002507
51	0x3fb44d41	1.4086076
52	0x3fe45cd5	1.784083
53	0x3ec2b1d8	0.3802631
54	0x3f4e3680	0.8055191
55	0x400381a1	2.054787
56	0x3fe51fd2	1.7900336
57	0x3f0645fb	0.5245053
58	0x3ee7bc96	0.45261067
59	0x3ff4727c	1.9097438
60	0x402c7c89	2.695101
61	0x3f72ecb8	0.94892454
62	0x3f35fd8f	0.71090025
63	0x3f302f02	0.6882173
64	0x3eede05b	0.46460232
65	0x3f77502d	0.96606714
66	0x3f3a88b1	0.72864825
67	0x3f8e8783	1.1135105
68	0x3ea4d3be	0.32192796
69	0x3f8b69a0	1.0891609
70	0x3e96d745	0.29461113
71	0x3fd5a43a	1.6690743
72	0x3e9374dd	0.28800097
73	0x3fd466c5	1.6593863
74	0x3ec0b3b0	0.3763709
75	0x3f5e84ad	0.869212
76	0x3ea1deb6	0.31615227
77	0x3f2d7163	0.6775114
78	0x3fc5b1d6	1.5444896
79	0x3fc35afa	1.5262139
80	0x3ee9b55a	0.45646173
81	0x3fa9c0f2	1.3262007
82	0x3f5b2837	0.8560824
83	0x3fd51609	1.664735
84	0x3ee5217a	0.44752103
85	0x3fa3a19d	1.2783695
86	0x3f1adfea	0.60497916
87	0x3f53e3f3	0.827697
88	0x3fa2dadc	1.272304
89	0x3f9acfdf	1.2094687
90	0x3f1c72bb	0.61112565
91	0x3fb17ea5	1.3866774
92	0x3fbaa02a	1.4580128
93	0x3f47a12e	0.77980316
94	0x3fc43165	1.5327574
95	0x3f50be2f	0.815402
96	0x3f655c02	0.8959352
97	0x4005b2b5	2.0890324
98	0x3eba2e20	0.36363316
99	0x3f2b2066	0.6684631
100	0x3ec10cc0	0.3770504
101	0x3f64252a	0.8911921
102	0x3f441a93	0.7660305
103	0x3f47e547	0.78084224
104	0x3f6b39da	0.9188515
105	0x3f519cb3	0.8187973
106	0x3f5b8127	0.85743946
107	0x3e82c9ac	0.25544488
108	0x400167b0	2.0219536
109	0x3fb9b63a	1.4508736
110	0x3f1064a1	0.5640355
111	0x3ebb437f	0.36574933
112	0x3eac1c96	0.3361556
113	0x400cc60c	2.1995878
114	0x3eda4ff1	0.42639115
115	0x4006ab9b	2.104224
116	0x3f5e51b5	0.86843425
117	0x3f9528c4	1.1653066
118	0x3f581652	0.8440906
119	0x3f77a9b0	0.967433
120	0x3e482848	0.19546616
121	0x3ecb7d68	0.39744115
122	0x3eaf614e	0.34253925
123	0x3fb40470	1.4063854
124	0x3f4225b0	0.75838757
125	0x40019b60	2.0251083
126	0x3f97ab58	1.1849165
127	0x3f50dfc8	0.81591463
128	0x3f597087	0.8493733
129	0x3f8416d6	1.0319469
130	0x3f74196c	0.9535129
131	0x3f479e5f	0.7797603
132	0x3e42b9a8	0.19016135
133	0x3f674bf4	0.9035027
134	0x3f90abd2	1.1302435
135	0x3f2db72c	0.67857623
136	0x3f97af34	1.1850343
137	0x3e9e9165	0.30970302
138	0x3f29e9cb	0.66372365
139	0x3f58a5bb	0.84627885
140	0x3ec4f3f8	0.38467383
141	0x3f01e8d5	0.507459
142	0x3e9f7715	0.3114554
143	0x3f4777a2	0.7791692
144	0x3fa5bedd	1.2948872
145	0x3f9ba051	1.21583
146	0x3edd74a1	0.43253043
147	0x40086e85	2.1317456
148	0x3f3e79fb	0.7440488
149	0x3fc6752f	1.5504512
150	0x3f152658	0.5826163
151	0x3ec611e8	0.38685536
152	0x3f01cc21	0.507021
153	0x3f95153c	1.1647105
154	0x3ef64a7c	0.48103702
155	0x3f961a37	1.172675
156	0x3f8481d0	1.0352116
157	0x3fab9af1	1.3406659
158	0x3ecf1a68	0.40449834
159	0x3f97d8c4	1.1863027
160	0x3f11035e	0.5664576
161	0x3f74bb83	0.9559862
162	0x3f69f913	0.9139568
163	0x3f8b852a	1.0900013
164	0x3f987ae1	1.19125
165	0x400c32db	2.190604
166	0x3eb3511f	0.35022828
167	0x3f57119a	0.8401123
168	0x403b1e0c	2.923709
169	0x3fb02ab2	1.376303
170	0x3fbe8e08	1.4887094
171	0x3fba31c6	1.454644
172	0x3ee0fbc2	0.43942076
173	0x3fcb9461	1.5904657
174	0x3fa559e0	1.2918053
175	0x3e8b8984	0.27253354
176	0x4004850a	2.07062
177	0x3f371d8b	0.71529454
178	0x3f4841ee	0.782256
179	0x3ead512e	0.33850998
180	0x3f7ee424	0.99566865
181	0x3f8167ee	1.0109842
182	0x3e4064c8	0.18788445
183	0x3f0e2b35	0.5553468
184	0x3f9da514	1.2316003
185	0x3f294af3	0.6612999
186	0x3faba409	1.3409435
187	0x3fb4d6eb	1.4128088
188	0x3f711523	0.9417288
189	0x3f57a2b9	0.8423267
190	0x3f4a5926	0.7904228
191	0x3fc4ebf3	1.5384506
192	0x3f596288	0.8491597
193	0x3f04b8fc	0.51844764
194	0x3f2d689e	0.6773776
195	0x3f79858a	0.9746939
196	0x3f2adbb1	0.6674147
197	0x3f6de00d	0.9292
198	0x3fd1099c	1.6331058
199	0x3e92b255	0.28651682
200	0x3f5cac2a	0.862002
201	0x40195a49	2.3961356
202	0x3fd49935	1.6609255
203	0x3ea60dce	0.32432407
204	0x3f4335ea	0.7625414
205	0x3edf8971	0.43659547
206	0x3f4a8b75	0.79119045
207	0x3f454773	0.7706215
208	0x3eda9c81	0.42697528
209	0x3f4bc437	0.79596275
210	0x3edeab91	0.4349027
211	0x3f9ac856	1.2092388
212	0x3e985485	0.29751983
213	0x3e5c5c29	0.21519531
214	0x3e867a34	0.2626511
215	0x3f9bb820	1.2165565
216	0x3ef4d823	0.4782115
217	0x3eb4fe07	0.35350057
218	0x3e8693fc	0.26284778
219	0x3fb9734d	1.4488312
220	0x3fb3555e	1.4010427
221	0x3fbd9899	1.4812194
222	0x3eec2592	0.46122414
223	0x3fa165dc	1.260921
224	0x3f502e77	0.813209
225	0x3ec03840	0.37542915
226	0x3ff6fc6f	1.9295787
227	0x3f015c67	0.5053162
228	0x3e953ead	0.2914938
229	0x3f4aefa2	0.792719
230	0x3ecfa640	0.40556526
231	0x3fce17eb	1.6101049
232	0x3e43f610	0.19136834
233	0x3ed6c236	0.41945046
234	0x3f84a292	1.0362113
235	0x3f5cc2b2	0.8623458
236	0x3f17b6ab	0.59263104
237	0x3f610386	0.87896
238	0x3ee18222	0.44044596
239	0x3f64da97	0.8939604
240	0x3f2823dc	0.6567972
241	0x3e5246e9	0.20534863
242	0x400af9a8	2.1714878
243	0x3ed42c11	0.4143987
244	0x3f09ea14	0.538728
245	0x3f0b0766	0.54308164
246	0x3ea6bd96	0.32566518
247	0x3febaf32	1.841284
248	0x3fb1f6e1	1.3903466
249	0x3fbdeaca	1.4837277
250	0x3f9392b1	1.1529142
251	0x3fa51ea5	1.2899977
252	0x3f741e78	0.9535899
253	0x3f7585e6	0.9590744
254	0x3f79e925	0.97621375
255	0x3e801f72	0.2502399

bn1.bias f4 [400]
0	0xbdf29bd5	-0.11846129
1	0xbee98c90	-0.45615053
2	0x3d25ec6e	0.04050868
3	0xbf247dcf	-0.6425447
4	0xbf2f815a	-0.6855675
5	0xbf045fed	-0.5170887
6	0xbee466cf	-0.44609687
7	0xbf2593ef	-0.64678854
8	0x3da75bf0	0.081718326
9	0xbf0a0c45	-0.5392497
10	0xbdfe3102	-0.12411691
11	0xbedea3d7	-0.43484375
12	0xbf0057ba	-0.5013386
13	0xbf220117	-0.6328291
14	0xbebfdcd8	-0.37473178
15	0xbef9dcc4	-0.48801243
16	0xbedbe076	-0.42944688
17	0xbefea32c	-0.49733865
18	0xbf399828	-0.72497797
19	0xbf45c941	-0.77260214
20	0xbec19e32	-0.37816006
21	0xbe801702	-0.25017554
22	0xbe4376d2	-0.19088295
23	0xbf02d2de	-0.5110301
24	0x3d01c0b0	0.0316779
25	0xbf071a8c	-0.5277488
26	0xbf01ee38	-0.5075412
27	0xbef5aeb7	-0.4798486
28	0xbeef3192	-0.46717507
29	0xbed8a4ba	-0.42313176
30	0x3d826a2e	0.063679084
31	0xbea1eb1f	-0.31624696
32	0xbf33dc30	-0.70257854
33	0x3dacca14	0.08436981
34	0x3dba7797	0.09104841
35	0xbe1a5e23	-0.15074973
36	0xbee8559e	-0.4537782
37	0xbf31b248	-0.6941266
38	0xbed36025	-0.4128429
39	0xbf0608ed	-0.5235737
40	0xbe998a04	-0.2998811
41	0xbdcb167a	-0.099163964
42	0xbf00768f	-0.50180906
43	0xbedb9f1a	-0.42894822
44	0xbd63702b	-0.055526894
45	0x3cf411f4	0.029793717
46	0xbf1495ee	-0.58041275
47	0x3e3e1312	0.18561962
48	0xbe515301	-0.2044182
49	0xbf1fbfbe	-0.6240195
50	0xbed22e25	-0.4105083
51	0xbd4cd711	-0.05000979
52	0x3e32892f	0.17435144
53	0xbf16b5ae	-0.5887097
54	0xbf2e6827	-0.68127674
55	0x3f057b69	0.52141434
56	0x3e088607	0.13332377
57	0xbed88f8c	-0.42297018
58	0xbe96951f	-0.29410645
59	0x3dd518e3	0.104051374
60	0x3edefd74	0.43552744
61	0xbdcbb6ae	-0.09946953
62	0xbeced3fd	-0.4039611
63	0xbd3b0954	-0.045663193
64	0xbefdad6b	-0.4954637
65	0xbee15524	-0.4401027
66	0xbf0da6f6	-0.5533289
67	0xbe4cf2ec	-0.20014542
68	0xbf2d4d47	-0.6769604
69	0xbe77ae0e	-0.2418749
70	0xbf1420be	-0.5786246
71	0xbe292398	-0.16517484
72	0xbf174636	-0.5909151
73	0xbe8a9ac6	-0.27071208
74	0xbf042ded	-0.5163258
75	0xbb9d4286	-0.00479919
76	0xbec51d61	-0.38498977
77	0xbf0b212a	-0.5434748
78	0xbe59b382	-0.21259883
79	0xbe8ae5d6	-0.27128476
80	0xbf28724f	-0.6579942
81	0xbc7872ab	-0.015164058
82	0xbf33b5eb	-0.7019946
83	0xbd986f23	-0.07443073
84	0xbef5f86c	-0.48041093
85	0x3d396d2d	0.045270134
86	0xbf1241ef	-0.57131857
87	0xbedfdbab	-0.4372228
88	0xbe089325	-0.13337381
89	0xbe135450	-0.14387631
90	0xbead3faf	-0.3383765
91	0xbd440e0b	-0.047864955
92	0x3e3b17ca	0.18270794
93	0xbe8953e3	-0.26821813
94	0xbe36781a	-0.17819253
95	0xbf04a3e5	-0.51812583
96	0xbf073e90	-0.5282984
97	0x3e8bd395	0.27309862
98	0xbeed3c0f	-0.46334884
99	0xbee6a522	-0.4504786
100	0xbf220a77	-0.6329722
101	0xbe3ca86f	-0.18423627
102	0xbf10ae06	-0.5651554
103	0xbef3d156	-0.47620648
104	0xbede346c	-0.4339937
105	0xbee46712	-0.44609886
106	0xbec11f0a	-0.37718993
107	0xbeca1d11	-0.394753
108	0x3ddacaff	0.1068325
109	0x3e42a473	0.19008045
110	0xbf064b9f	-0.5245914
111	0xbf1cd66e	-0.61264694
112	0xbf10b8de	-0.56532085
113	0x3d3a683b	0.04550956
114	0xbf2c71bf	-0.6736106
115	0xbd85251a	-0.06501217
116	0xbe6e32a1	-0.23261501
117	0xbf1e6f5b	-0.61888665
118	0xbf0f2790	-0.5591974
119	0xbea8340c	-0.3285221
120	0xbf37cf20	-0.7180042
121	0xbf365cd0	-0.7123537
122	0xbf2d5daf	-0.67721075
123	0xba88bbbc	-0.0010431926
124	0xbf07bd52	-0.53023255
125	0x3ef08338	0.46975112
126	0xbe165e3d	-0.14684387
127	0xbebd24ff	-0.36942288
128	0xbeb28f6e	-0.34875053
129	0xbed012c2	-0.4063931
130	0x3dd7d391	0.105384
131	0xbf0110e5	-0.50416404
132	0xbf16d03e	-0.589115
133	0xbe6d80a0	-0.23193598
134	0xbeaaa791	-0.33330968
135	0xbf18efa7	-0.5974068
136	0xbebb0c4a	-0.36532813
137	0xbf24921f	-0.64285463
138	0xbe906934	-0.28205264
139	0xbeeed9df	-0.46650597
140	0xbf108166	-0.56447446
141	0xbefa5ab7	-0.48897335
142	0xbf2d3f37	-0.67674583
143	0xbead48f7	-0.3384473
144	0xbebb376b	-0.36565718
145	0xbdb6d2f3	-0.08926954
146	0xbf1d7a7e	-0.61515033
147	0x3ebc3780	0.36761093
148	0xbf2f2730	-0.6841917
149	0x3eb094be	0.3448848
150	0xbf1a0147	-0.601582
151	0xbf0394cd	-0.51398927
152	0x3d987d35	0.07445756
153	0xbe5bc9df	-0.21463726
154	0x3d0bd687	0.034140136
155	0xbef5ea4e	-0.48030323
156	0xb98e22a4	-0.0002711016
157	0xbad70517	-0.0016404715
158	0xbf331b38	-0.6996341
159	0xbed23df1	-0.41062883
160	0xbf0716c3	-0.52769107
161	0xbeef750d	-0.4676899
162	0xbe4e745f	-0.2016158
163	0xbef9f2cd	-0.48818055
164	0xbdb22427	-0.08698302
165	0x3f14e8c7	0.5816769
166	0xbf2ecfff	-0.68286127
167	0xbf0393ec	-0.51397586
168	0x3ecf17c9	0.40447834
169	0xbe908963	-0.28229818
170	0xbe0ea2cd	-0.13929291
171	0x3c8150a4	0.015785523
172	0xbf3aa038	-0.72900724
173	0x3ec47a75	0.38374677
174	0xbe9a9300	-0.30190277
175	0xbf0c5ae5	-0.54826194
176	0xbd0c4486	-0.034245037
177	0xbf16e60e	-0.58944786
178	0xbeb7f943	-0.3593236
179	0xbf48fb39	-0.78508335
180	0xbe3800fe	-0.17969128
181	0xbe9ea7ae	-0.30987304
182	0xbf17d916	-0.5931562
183	0xbf20ae5a	-0.6276604
184	0xbea9ab1e	-0.33138365
185	0xbf1de011	-0.61670023
186	0xbe1ad0e1	-0.15118743
187	0xbe5d7910	-0.21628213
188	0xbee7dd30	-0.4528594
189	0xbda26e8a	-0.0793124
190	0xbeb4bcc3	-0.35300264
191	0x3e4f9386	0.2027112
192	0xbf2172ed	-0.6306599
193	0xbf217b7f	-0.63079065
194	0xbf45d9a9	-0.7728525
195	0xbd634bb3	-0.055492114
196	0xbe722b71	-0.23649384
197	0xbf0c98c6	-0.54920614
198	0x3dcc4dec	0.099758
199	0xbf1fcf5e	-0.6242579
200	0xbe33d24f	-0.17560695
201	0x3d9e5ab6	0.077321455
202	0xbe331b8a	-0.17490974
203	0xbf07efa5	-0.53100044
204	0xbec04ec6	-0.375601
205	0xbeea1ed3	-0.45726642
206	0xbee7a8e8	-0.45246053
207	0xbf23017b	-0.63674134
208	0xbf19189e	-0.5980319
209	0xbeb3a0ac	-0.3508352
210	0xbf256b4f	-0.64616865
211	0xbe09ec89	-0.13469137
212	0xbf449bb1	-0.76800066
213	0xbf2d1d9f	-0.67623323
214	0xbf1b0e2e	-0.6056851
215	0xbec5bd50	-0.38620996
216	0xbf2eb56f	-0.68245596
217	0xbf23bd9f	-0.63961214
218	0xbf0b5dc5	-0.54439956
219	0xbe7bc512	-0.24586895
220	0xbdd9089e	-0.10597347
221	0x3ebbd5a5	0.36686435
222	0xbf11fdde	-0.57027996
223	0xbc4195b3	-0.011815476
224	0xbf09850c	-0.5371864
225	0xbf2b3b97	-0.668878
226	0x3e686c32	0.22697523
227	0xbf2749c9	-0.6534696
228	0xbf238177	-0.6386942
229	0xbefe2b3a	-0.49642354
230	0xbefaba64	-0.4897033
231	0x3dbadba4	0.091239244
232	0xbf068dbd	-0.52560025
233	0xbf0809ae	-0.5313977
234	0xbf4cfb0f	-0.80070585
235	0xbe350bf7	-0.17680345
236	0xbf289e50	-0.65866566
237	0xbead7d68	-0.3388474
238	0xbefd614c	-0.49488294
239	0xbe593360	-0.21211004
240	0xbe3fb3a4	-0.18720871
241	0xbe93f8e6	-0.28900832
242	0x3e0413b0	0.12898135
243	0xbf162f4e	-0.5866593
244	0xbf07cf67	-0.53050846
245	0xbf119d62	-0.5688077
246	0xbf08dded	-0.5346363
247	0x3d26a31f	0.04068291
248	0xbdcf7df1	-0.10131443
249	0x3d6d6387	0.057956245
250	0x3be05b44	0.006846817
251	0xbeb9d8d7	-0.36298248
252	0xbf079cf4	-0.52973866
253	0xbe1b8b97	-0.15189968
254	0xbe986065	-0.29761043
255	0xbf393748	-0.7234998

fc2.weight f4 [300, 400]
0	0xbe09ac1c	-0.13444561
1	0xbdad03c8	-0.08447987
2	0xbe7bd6a9	-0.24593605
3	0xbbe24aeb	-0.0069059036
4	0x3e7d42d9	0.24732532
5	0xbdffbd34	-0.124872595
6	0x3ea88964	0.3291732
7	0xbf1c0ffe	-0.609619
8	0xbdbe74ef	-0.09299647
9	0xbf089abc	-0.53361106
10	0xbe64420a	-0.22290817
11	0x3e5e5d39	0.21715249
12	0x3d5ba3b5	0.05362292
13	0x3e00a0be	0.12561318
14	0xbe30cbd0	-0.17265248
15	0xbe75dabf	-0.24009226
16	0xbeabd537	-0.33561108
17	0xbe7ddbf4	-0.24790937
18	0xbbb00628	-0.0053718276
19	0xbea3981e	-0.31951994
20	0xbe843284	-0.2581979
21	0xbe012783	-0.12612729
22	0xbe879fb4	-0.2648903
23	0x3e0d248f	0.13783477
24	0x3d14c811	0.03632361
25	0x3e8c582f	0.2741103
26	0x3e651fa9	0.22375359
27	0xbdcfe886	-0.10151772
28	0x3ec8d107	0.39221975
29	0xbd512162	-0.051057227
30	0x3e14fb3e	0.14548966
31	0x3f3459d8	0.7044959
32	0x3d4f8ae9	0.050669584
33	0xbf22386e	-0.63367355
34	0xbf83b4e9	-1.0289584
35	0xbe4f5b9e	-0.20249793
36	0x3e21a17c	0.15784258
37	0x3de93472	0.11386956
38	0xbee1d71f	-0.44109437
39	0x3d36ce18	0.04463014
40	0x3e926458	0.2859218
41	0xbe963ca1	-0.2934313
42	0xbed13641	-0.40861705
43	0x3e099d54	0.13438922
44	0xbe848c74	-0.25888407
45	0xbe88cf7a	-0.26720792
46	0xbe80ab7c	-0.25130832
47	0xbf3ca51b	-0.7368943
48	0xbdccd404	-0.10001376
49	0xbe4f6950	-0.20255017
50	0xbec530b8	-0.38513732
51	0xbe63f81d	-0.22262616
52	0xbf1bfbad	-0.609309
53	0xbe9958ae	-0.2995047
54	0xbe8e7232	-0.278215
55	0xbef404cb	-0.47659907
56	0x3ebd75a3	0.37003812
57	0xbecee1e1	-0.40406707
58	0xbd277ced	-0.040890623
59	0xbea44760	-0.32085705
60	0x3ee7eba2	0.4529696
61	0xbd030222	-0.031984456
62	0xbf60f6fc	-0.8787687
63	0xbf43580e	-0.76306236
64	0xbeab56ae	-0.3346457
65	0xbef2ca4e	-0.4741997
66	0xbe80aee3	-0.25133428
67	0xbe39d4db	-0.18147604
68	0xbd8ee4e5	-0.06977252
69	0x3e9c0c3e	0.3047809
70	0xbe798d9c	-0.24370426
71	0xbeb28064	-0.3486358
72	0xbe560a31	-0.20902325
73	0xbe8a0f37	-0.26964733
74	0xbe81a89c	-0.2532395
75	0xbf263c1b	-0.64935464
76	0x3dfd4c34	0.1236805
77	0xbdcfcd44	-0.10146573
78	0x3e424ab0	0.18973804
79	0xbeb3ca3c	-0.3511523
80	0x3d5307e1	0.051521186
81	0x3dbce53f	0.09223413
82	0x3ec27c31	0.37985376
83	0xbf6f04c9	-0.93366677
84	0xbe873a64	-0.26411736
85	0x3cb28e2a	0.021796305
86	0xbecd7fd4	-0.40136588
87	0xbf52a61c	-0.8228471
88	0xbd68ae64	-0.056806937
89	0x3ee609bd	0.44929305
90	0xbe6508ff	-0.22366713
91	0x3decb89b	0.11558648
92	0xbe4fc3ae	-0.2028949
93	0xbf059dcd	-0.5219391
94	0x3ecc38eb	0.39887175
95	0xbf3d6548	-0.7398267
96	0xbe92ea34	-0.28694308
97	0xbe0b6a06	-0.13614663
98	0xbe56d241	-0.20978643
99	0xbe125530	-0.14290309
100	0x3e0b99ed	0.13632937
101	0xbe33af32	-0.175473
102	0xbddbd933	-0.10734787
103	0xbeaec77b	-0.34136567
104	0x3ec3378e	0.38128322
105	0xbee0e30d	-0.43923226
106	0xbe9305a1	-0.28715232
107	0xbf06bb0c	-0.5262916
108	0xbf4ff67c	-0.8123548
109	0xbf840450	-1.0313816
110	0x3ea06fd2	0.31335312
111	0xbe4e9341	-0.2017336
112	0xbf05c4f4	-0.5225365
113	0xbef3515b	-0.47523007
114	0xbe43e1c1	-0.19129087
115	0xbee919d9	-0.45527533
116	0xbe7e0d3d	-0.24809738
117	0xbe2a54ea	-0.16633955
118	0x3e4b7bf0	0.19871497
119	0xbe539174	-0.20660955
120	0x3d866135	0.065615095
121	0xbdc4f010	-0.09616101
122	0xbdb0fc40	-0.08641863
123	0xbf1eae25	-0.61984473
124	0x3ea38600	0.3193817
125	0xbe79926a	-0.24372259
126	0xbe004fb6	-0.12530407
127	0xbe4d36ee	-0.20040485
128	0xbd13a894	-0.03604944
129	0xbf05d662	-0.5228025
130	0xbf47c82d	-0.7803982
131	0xbede59f9	-0.4342802
132	0xbe71ba7c	-0.23606294
133	0x3cf54133	0.029938316
134	0x3e598b97	0.21244656
135	0xbee42788	-0.4456141
136	0xbf897879	-1.073989
137	0x3d044174	0.032288983
138	0xbe5dd403	-0.21662907
139	0xbe6a36a7	-0.2287241
140	0xbea0e70f	-0.31426284
141	0x3cf47bb7	0.029844148
142	0xbdbb1a18	-0.09135836
143	0xbe03f7c8	-0.1288749
144	0x3e6c67ae	0.23086426
145	0xbef2cd28	-0.47422147
146	0xbe06e6cc	-0.1317398
147	0xbee9a23f	-0.45631596
148	0xbedded42	-0.43345076
149	0xbeb919bb	-0.36152443
150	0xbeb444fa	-0.35208875
151	0xbe8c56fc	-0.27410114
152	0xbf3956ed	-0.72398263
153	0x3e6f3279	0.23359098
154	0xbf395fe5	-0.7241195
155	0x3f1e166e	0.61752975
156	0xbf27ab8a	-0.6549612
157	0xbcf68b0a	-0.030095596
158	0x3e32e487	0.17469989
159	0x3eef8aed	0.4678568
160	0xbe46585f	-0.19369648
161	0xbdab0adb	-0.0835168
162	0xbdcc7647	-0.09983497
163	0xbee6f97f	-0.45112225
164	0x3d33ff49	0.04394463
165	0xbf7e81a9	-0.99416596
166	0xbc95fe16	-0.018309634
167	0x3f2a2bd3	0.6647312
168	0x3ee9978e	0.4562344
169	0xbeb9b1fd	-0.36268607
170	0x3f563960	0.836813
171	0xbd1cbab0	-0.038263977
172	0x3d765243	0.060137045
173	0xbf57cbab	-0.8429515
174	0x3ef64436	0.48098916
175	0xbe8292fd	-0.25502768
176	0x3e8db2bf	0.27675435
177	0xbeb0bdd9	-0.34519842
178	0xbefce852	-0.49395996
179	0xbe9b2ca5	-0.303075
180	0xbd7fc0a3	-0.062439572
181	0xbef461d3	-0.47730884
182	0xbe1e152d	-0.15437765
183	0x3e0aabf4	0.13542157
184	0xbf2b328c	-0.66874003
185	0xbe752430	-0.23939586
186	0x3ee4af50	0.44665003
187	0xbe51d219	-0.20490302
188	0x3ef1d2b8	0.47231078
189	0x3d14a08d	0.036285926
190	0xbde327b6	-0.11091559
191	0xbdbdc571	-0.092661746
192	0xbecff72e	-0.4061827
193	0xbec21599	-0.37907103
194	0x3df69a23	0.12041118
195	0x3bda8429	0.0066685867
196	0x3c5cee6b	0.013484578
197	0x3ef22224	0.47291672
198	0x3eb92a37	0.3616502
199	0xbd9b2b15	-0.075765766
200	0xbe46f592	-0.19429615
201	0xbd715244	-0.058916345
202	0xbf3c2eed	-0.73509103
203	0xbea922de	-0.33034414
204	0xbe74a2c0	-0.23890209
205	0xbe68a89a	-0.22720566
206	0xbe44be7d	-0.1921329
207	0xbef9b181	-0.48768237
208	0xbea00abe	-0.31258196
209	0xbf2b7599	-0.66976315
210	0xbd51cab2	-0.051218696
211	0xbee09b15	-0.43868318
212	0xbe76116b	-0.24030082
213	0xbe3bfd6f	-0.18358396
214	0xbe0500dd	-0.1298861
215	0xbf86bb77	-1.052596
216	0xbf0ecf05	-0.55784637
217	0xbcab30a7	-0.020897223
218	0xbe889094	-0.26672804
219	0x3f48decc	0.7846496
220	0xbe8c854c	-0.27445447
221	0xbf59340f	-0.8484506
222	0x3e0f3174	0.13983709
223	0x3c020279	0.00793516
224	0x3ea1c425	0.3159496
225	0xbe7d02c4	-0.24708086
226	0xbf38607d	-0.7202223
227	0xbe60dca2	-0.21959165
228	0xbe3a8350	-0.18214154
229	0xbf894d7f	-1.0726775
230	0xbe8d71cd	-0.27625886
231	0xbebb7d8e	-0.36619228
232	0xbe01afa4	-0.12664658
233	0xbe5d05ce	-0.21584246
234	0x3e309d9c	0.17247623
235	0xbddb27d7	-0.10700958
236	0xbe16e192	-0.14734486
237	0xbeacacc2	-0.33725554
238	0xbe556172	-0.20837954
239	0xbf312066	-0.6919006
240	0x3c60e3f0	0.01372622
241	0x3cdc6bc9	0.026906865
242	0x3f448ad9	0.76774365
243	0xbe4fb388	-0.2028333
244	0x3def41bf	0.11682462
245	0xbdf559f4	-0.11980048
246	0xbd6e92aa	-0.05824534
247	0xbd8bea91	-0.06831849
248	0x3d0781f2	0.03308291
249	0xbe1f3e93	-0.15551214
250	0xbe0d6589	-0.13808264
251	0x3ebac370	0.36477232
252	0xbe7a9644	-0.24471384
253	0x3f0ff48b	0.5623252
254	0x3ebe17af	0.37127444
255	0x3d8729fc	0.06599805

fc2.bias f4 [300]
0	0xbe1a5d40	-0.15074635
1	0xbe5ee607	-0.21767436
2	0xbdc1022f	-0.094242446
3	0xbe014f84	-0.12627989
4	0xbeefa2ba	-0.46803838
5	0xbcf9be00	-0.030486107
6	0x3fadd383	1.3580173
7	0xbe2d1131	-0.16901089
8	0x3fb23767	1.3923157
9	0x3f959797	1.1686887
10	0xbe4a31f8	-0.19745624
11	0x3ed8515f	0.4224958
12	0x3d7e4aa2	0.062082894
13	0xbe2e7f2c	-0.170407
14	0x3f26a763	0.6509916
15	0xbde87757	-0.11350887
16	0x3d9b19df	0.07573294
17	0x3c9359f6	0.017987233
18	0x3ceb08d6	0.028690737
19	0x3fb326de	1.3996236
20	0x3f1ee661	0.6207028
21	0xbdc8876a	-0.09791453
22	0xbcdece84	-0.027198084
23	0xbe3819c0	-0.17978573
24	0xbd8fe174	-0.07025424
25	0xbe3dc90a	-0.18533722
26	0x3f8c51af	1.0962428
27	0xbf14f57f	-0.581871
28	0x3ee92a8a	0.45540267
29	0x3faa5b23	1.3309063
30	0xbea84111	-0.32862142
31	0x3fae6e41	1.3627397
32	0x3fafec52	1.3743994
33	0xbe52d8c9	-0.2059051
34	0x3fb7a003	1.4345707
35	0x3fa1f8f5	1.2654101
36	0x3f285648	0.65756655
37	0xbca24b07	-0.019811166
38	0xbe7e0981	-0.24808313
39	0x3d8e6eb9	0.069547124
40	0xbe3f2cb0	-0.1866939
41	0x3f8e3955	1.1111246
42	0x3d0fb00c	0.03508
43	0x3eee9529	0.46598175
44	0x3fb8a4dc	1.4425311
45	0x3dcc1109	0.09964187
46	0x3fa01765	1.250714
47	0x3ea2b882	0.31781393
48	0xbdf323f7	-0.11872094
49	0x3d8d2444	0.06891683
50	0x3f1e53c9	0.61846596
51	0x3e6dfbdc	0.23240608
52	0xbe417b3a	-0.18894663
53	0x3fb24200	1.3926392
54	0x3e0ddada	0.13853016
55	0xbe2016c7	-0.15633689
56	0xbe04b807	-0.12960826
57	0xbe4056a3	-0.1878305
58	0x3fa54f17	1.2914761
59	0x3fa158dd	1.2605244
60	0xbedefbd8	-0.43551517
61	0xbd7e5712	-0.062094755
62	0x3c80d309	0.01572563
63	0x3d9bbca2	0.07604338
64	0x3e85d51d	0.26139155
65	0x3d55ced9	0.05219922
66	0xbdce415b	-0.10071059
67	0xbdafe506	-0.08588605
68	0xbe74913c	-0.23883528
69	0xbd168474	-0.03674741
70	0x3bc0724e	0.005873001
71	0xbed24916	-0.41071385
72	0xbe3f40af	-0.18677019
73	0xbe608deb	-0.21929137
74	0xbdd7536e	-0.1051396
75	0x3c99481a	0.018711139
76	0x3f874212	1.0567038
77	0xbd931810	-0.07182324
78	0x3f28b5d0	0.65902424
79	0x3e14c88b	0.14529626
80	0xbe24b469	-0.16084446
81	0xbd150379	-0.036380265
82	0xbd01ff83	-0.031737816
83	0xbe41e2d2	-0.18934181
84	0xbe9edba7	-0.31026956
85	0xbe3dc1d6	-0.18530974
86	0xbc1a3673	-0.009412396
87	0xbd0b538f	-0.034015235
88	0xbe549fb6	-0.2076405
89	0xbe2cda7a	-0.16880217
90	0xbda8d505	-0.08243755
91	0xbe75cb4d	-0.24003334
92	0x3fb176d9	1.3864394
93	0x3e2e0c66	0.16996917
94	0xbe6d6a54	-0.23185092
95	0x3f1929c9	0.59829384
96	0xbc9f9134	-0.019478418
97	0xbd869a76	-0.0657243
98	0x3f9fea51	1.2493383
99	0xbea5fdaf	-0.32420108
100	0x3ca7d46d	0.020487035
101	0x3f8f0b9b	1.1175417
102	0xbe7ccbe9	-0.2468716
103	0xbe7a5139	-0.24445046
104	0x3f7eabe4	0.99481034
105	0x3e5d1248	0.21589005
106	0xbd5b4e2f	-0.05354136
107	0xbc89d4be	-0.016825076
108	0x3f4b6935	0.7945741
109	0xbe48399b	-0.19553225
110	0xbd838522	-0.064218774
111	0x3ebc4b79	0.3677633
112	0xbe38af60	-0.1803565
113	0x3fbfbe6e	1.497999
114	0x3e1524fb	0.14564888
115	0x3f997d96	1.1991451
116	0xbe434872	-0.19070604
117	0xbe1d5b2e	-0.15366814
118	0xbda7503b	-0.081695996
119	0x3d2f69d8	0.04282555
120	0x3cc0385c	0.023464374
121	0xbd915335	-0.070959486
122	0xbe10cc67	-0.14140473
123	0xbe5935e3	-0.21211962
124	0xbe2c54ce	-0.16829225
125	0x3f108d22	0.5646535
126	0xbe0367e2	-0.12832597
127	0xbc8f4acf	-0.017491726
128	0xbd9c58e0	-0.07634139
129	0x3e0faa5b	0.14029829
130	0xbe0a1c15	-0.13487275
131	0xbe35a668	-0.1773926
132	0xbcaf4c9c	-0.021398835
133	0x3f87cd01	1.0609437
134	0xbe282e76	-0.16423973
135	0x3fb0f6dd	1.3825337
136	0xbe3ad8d6	-0.18246779
137	0x3fb6c871	1.427992
138	0xbe6ba434	-0.23011857
139	0xbe6adec5	-0.22936542
140	0x3ee48cbd	0.44638625
141	0xbcc18a32	-0.023625467
142	0xbd6e1aa2	-0.058130868
143	0x3eebec3c	0.4607867
144	0xbe855d15	-0.26047578
145	0x3fa88f4c	1.3168731
146	0x3c5e0bd8	0.013552628
147	0x3f2e828d	0.68167955
148	0xbcdb30d5	-0.026756683
149	0xbe0786dc	-0.13235039
150	0xbdad4f76	-0.084624216
151	0xbdc0a20d	-0.09405909
152	0xbe1e37aa	-0.15450922
153	0xbddf15ce	-0.10892831
154	0xbd1e990f	-0.038720187
155	0x3e4ae7e1	0.19815017
156	0x3f21430b	0.62992924
157	0xbdcee4a0	-0.101022005
158	0xbeb0a47e	-0.34500498
159	0xbe01954a	-0.12654606
160	0x3ddb13d5	0.10697142
161	0xbdc1aab2	-0.09456386
162	0xbd4ae550	-0.049535096
163	0xbe4e87aa	-0.20168939
164	0xbd9fb6ec	-0.077985615
165	0xbe1b8a40	-0.15189457
166	0xbe2bdadb	-0.16782705
167	0xbe31f3fd	-0.1737823
168	0x3ef75960	0.48310375
169	0xbeb72c59	-0.35776022
170	0x3ef9ba96	0.48775166
171	0x3f9f6bf9	1.2454826
172	0x3faa4e3f	1.3305129
173	0xbdfb535d	-0.1227176
174	0x3d8a7d17	0.0676214
175	0x3dd009fb	0.101581536
176	0x3f6d1fe6	0.926268
177	0xbea0706b	-0.31335768
178	0xbd6e9a01	-0.05825234
179	0x3fa56fae	1.2924707
180	0x3fb07b6d	1.3787667
181	0xbe52b20b	-0.2057573
182	0xbc9445c5	-0.018099675
183	0xbe883028	-0.2659924
184	0x3d7ae5e1	0.061254386
185	0xbe5dffa7	-0.21679555
186	0xbf1aa94b	-0.6041457
187	0x3f199a5b	0.6000115
188	0xbe2701cd	-0.1630928
189	0x3e152690	0.14565492
190	0xbd8135af	-0.063090675
191	0xbe14b601	-0.14522554
192	0xbdd4e714	-0.10395637
193	0x3f537a36	0.82608354
194	0x3f83dc14	1.0301538
195	0xbd4b0648	-0.049566537
196	0x3edfd4fb	0.4371718
197	0x3f139e79	0.57663685
198	0xbe1e5814	-0.15463287
199	0x3f7ae2ce	0.98002326
200	0x3f336eb2	0.7009078
201	0xbf27f95c	-0.6561487
202	0xbe2ca6f2	-0.1686056
203	0xbf08048e	-0.5313195
204	0x3d08e50f	0.033421572
205	0xbe549856	-0.20761237
206	0xbe5f5115	-0.21808274
207	0xbe0d0a8a	-0.13773552
208	0xbe494191	-0.19653918
209	0xbe16d6b4	-0.1473034
210	0x3f8a95c8	1.082696
211	0x3d5545c5	0.05206849
212	0x3d06c681	0.03290415
213	0x3f8761f3	1.0576767
214	0x3e6d304c	0.23162955
215	0x3ef30459	0.47464254
216	0xbe3b0cda	-0.18266621
217	0x3c6e6491	0.014550344
218	0x3f7531e1	0.95779234
219	0x3e011219	0.1260456
220	0x3f94c6f5	1.1623217
221	0xbe2eae4f	-0.17058681
222	0xbe41cac6	-0.18925008
223	0x3f71cf2b	0.9445674
224	0xbe4a202a	-0.19738832
225	0xbdac57e3	-0.084152006
226	0x3f322297	0.6958403
227	0x3ef0d658	0.4703853
228	0xbb1c9d41	-0.0023897442
229	0xbe01c429	-0.12672485
230	0xbe649c07	-0.22325145
231	0xbe1b7d84	-0.15184599
232	0xbe811a4f	-0.25215384
233	0x3ef33e73	0.47508582
234	0x3c4502ae	0.012024565
235	0x3f787102	0.97047436
236	0xbea36bb7	-0.31918117
237	0xbe7b8411	-0.24562098
238	0x3f8a6099	1.0810729
239	0xbdaa1a9d	-0.08305857
240	0xbf296725	-0.6617301
241	0x3e1fff30	0.1562469
242	0x3f9b5f15	1.2138392
243	0xbdbea8c0	-0.0930953
244	0x3c9f8406	0.019472133
245	0xbd6b45bc	-0.05743955
246	0xbd8e9ecc	-0.06963882
247	0x3f9ec9fe	1.2405393
248	0xbd860fda	-0.06545992
249	0xbd17743e	-0.03697609
250	0x3f46be7f	0.77634424
251	0x3f14cf5a	0.58128893
252	0xbd8a8797	-0.06764143
253	0xbe956182	-0.29175955
254	0x3e081a55	0.13291295
255	0x3f70e862	0.9410459

bn2.weight f4 [300]
0	0x3fad1d3c	1.3524547
1	0x3fa45ee4	1.2841458
2	0x3f8239ed	1.0173928
3	0x3f89fd38	1.0780401
4	0x3f813e20	1.0097084
5	0x3fa65095	1.2993342
6	0x3f806b47	1.0032738
7	0x4007d690	2.1224709
8	0x3f857093	1.042498
9	0x3f7ecb31	0.99528795
10	0x3f9fec46	1.249398
11	0x3f5f86d8	0.8731513
12	0x3fbf20ee	1.4931924
13	0x3f934536	1.1505497
14	0x3f6d7cf1	0.9276877
15	0x3f7b22ae	0.9809979
16	0x3faf8a4b	1.3714079
17	0x3fd65ffb	1.6748041
18	0x3f90dbdc	1.1317096
19	0x3f82a2aa	1.0205891
20	0x3f67c91b	0.9054124
21	0x3f9d70e3	1.2300075
22	0x3f50f311	0.8162089
23	0x3fb0a519	1.3800384
24	0x3f6b1816	0.9183363
25	0x3fa4405e	1.2832143
26	0x3f7a84ae	0.97858703
27	0x3f6072f8	0.8767543
28	0x3f60e481	0.8784867
29	0x3f849723	1.0358623
30	0x3f787ac9	0.97062355
31	0x3f83b27d	1.0288845
32	0x3f864aaf	1.0491542
33	0x40029871	2.0405543
34	0x3f86c1c4	1.0527883
35	0x3f8277d6	1.0192821
36	0x3f69f9a6	0.9139656
37	0x3f8a20f0	1.0791302
38	0x3f8f84e5	1.1212431
39	0x3fa7e8f4	1.3117967
40	0x3f874b96	1.0569942
41	0x3f7c2625	0.98495704
42	0x3f92e544	1.1476216
43	0x3f5d9736	0.86558855
44	0x3f87ba14	1.0603662
45	0x3f727227	0.9470543
46	0x3f839e6e	1.0282724
47	0x3f598e10	0.84982395
48	0x3f826fd5	1.0190378
49	0x3f5ce220	0.8628254
50	0x3f6890ce	0.90845954
51	0x3fee33a9	1.8609515
52	0x3f9bb0c8	1.2163324
53	0x3f844804	1.0334477
54	0x3fa8ad71	1.317793
55	0x3f88465d	1.0646473
56	0x3f818740	1.01194
57	0x400c40cf	2.1914556
58	0x3f82253f	1.0167617
59	0x3f7c22a5	0.98490363
60	0x3f9c8b79	1.2230064
61	0x3fe071de	1.753475
62	0x3f8593bd	1.0435711
63	0x3f7439dc	0.95400786
64	0x3f556846	0.83362234
65	0x3ffc7769	1.9723941
66	0x3f7eb261	0.99490935
67	0x3f895bb5	1.0731112
68	0x3fc40d67	1.531659
69	0x3f88f20f	1.069887
70	0x3f9033ee	1.1265848
71	0x3fda34a6	1.7047317
72	0x3f8f7f1a	1.1210663
73	0x3f9471ff	1.1597289
74	0x3f823c45	1.0174643
75	0x3ffaa437	1.9581364
76	0x3f774d72	0.9660255
77	0x3f8107ad	1.0080467
78	0x3f677202	0.9040834
79	0x3f9e3786	1.2360694
80	0x3f8ec1a9	1.115285
81	0x3f6783da	0.90435565
82	0x3f80b66d	1.0055672
83	0x3f847cde	1.0350606
84	0x3fcb52d0	1.5884647
85	0x3fad8d57	1.3558758
86	0x3fa73d04	1.3065495
87	0x3f851343	1.0396503
88	0x40058a54	2.0865679
89	0x3f90ba6e	1.1306894
90	0x3f86d985	1.0535132
91	0x3f8576d5	1.042689
92	0x3f849fba	1.0361245
93	0x3feaf3f0	1.8355694
94	0x3f920806	1.1408699
95	0x3f68593b	0.90761155
96	0x3f877047	1.0581139
97	0x3f8a344f	1.0797213
98	0x3f7fb532	0.9988586
99	0x3fc29eb7	1.5204686
100	0x3fc70b72	1.5550368
101	0x3f7c28f7	0.9850001
102	0x3f92ffad	1.1484276
103	0x3f80b5a5	1.0055434
104	0x3f70f6fe	0.9412688
105	0x3fa0386a	1.2517216
106	0x3f835fac	1.0263572
107	0x3f80540c	1.0025649
108	0x3f6cf724	0.92564607
109	0x3fa649ad	1.2991234
110	0x3f9532f1	1.1656171
111	0x3f5a5924	0.8529227
112	0x3f7e7e73	0.99411696
113	0x3f88d769	1.0690738
114	0x3f71f806	0.9451908
115	0x3f80de1d	1.0067784
116	0x3fb768ce	1.4328859
117	0x3f880904	1.0627751
118	0x3f8c8c1c	1.0980258
119	0x3f5d81b1	0.8652602
120	0x3f9a38e6	1.2048614
121	0x3fae08c7	1.3596429
122	0x3fb6299a	1.4231446
123	0x3fb03de3	1.3768886
124	0x3f825545	1.0182272
125	0x3f62cdb3	0.8859512
126	0x3f88ea6d	1.0696541
127	0x3f6e2476	0.93024385
128	0x3faa3bc4	1.3299489
129	0x3f9614fe	1.1725156
130	0x3f9d9489	1.2310954
131	0x3f88dbd8	1.0692091
132	0x3f90e77c	1.1320643
133	0x3f7ea7d4	0.99474835
134	0x3f9cf391	1.226183
135	0x3f82c0d7	1.02151
136	0x3f813435	1.0094057
137	0x3f86985f	1.051525
138	0x3f78169b	0.96909493
139	0x3f94c153	1.1621498
140	0x3f531c48	0.8246503
141	0x3f9fb589	1.2477275
142	0x3f7bed04	0.9840853
143	0x3f5efa87	0.87101024
144	0x3fa50950	1.2893467
145	0x3f7e861a	0.9942337
146	0x3fe2cf02	1.7719424
147	0x3f694715	0.9112409
148	0x3f78dc81	0.9721146
149	0x3f9e4384	1.2364354
150	0x3f7c1f16	0.98484933
151	0x3f8de05c	1.1084094
152	0x3fd769c0	1.6829147
153	0x3f6a922d	0.91629297
154	0x3f922108	1.141633
155	0x3fe46875	1.7844378
156	0x3f6bb5d5	0.9207433
157	0x3f73a8e0	0.9517956
158	0x3fad7532	1.355139
159	0x3f819c73	1.012587
160	0x3f8743c5	1.0567557
161	0x3fa4633f	1.2842788
162	0x3f7efe76	0.99607027
163	0x3f803b93	1.0018181
164	0x3f824abd	1.0179058
165	0x3fa6e301	1.3038026
166	0x3fa0a086	1.2548988
167	0x3f8e04e5	1.1095244
168	0x3f6246fe	0.88389575
169	0x40013849	2.0190604
170	0x3fb3c882	1.4045565
171	0x3f7d1f9f	0.98876375
172	0x3f81daf0	1.014494
173	0x3f8e01b4	1.109427
174	0x3fc2d325	1.5220686
175	0x3f90c9a2	1.1311533
176	0x3f6e1f0c	0.93016124
177	0x3f7f842b	0.9981105
178	0x3fae9379	1.3638755
179	0x3f83a78b	1.0285505
180	0x3f86c444	1.0528646
181	0x3fd6516a	1.6743596
182	0x3f7bc06d	0.98340493
183	0x3f79b1bb	0.9753682
184	0x3f4cea5d	0.8004511
185	0x3f7c65bc	0.98592734
186	0x3f4e8517	0.8067183
187	0x3f61ca4b	0.881993
188	0x3f9688c9	1.1760494
189	0x3f8b0885	1.0861975
190	0x3fab8d14	1.3402429
191	0x3f92a765	1.1457335
192	0x3fa3a46a	1.278455
193	0x3f6f64f5	0.93513423
194	0x3f7ff74f	0.9998674
195	0x3f80655f	1.0030936
196	0x3f639656	0.8890127
197	0x3f63b2dc	0.8894479
198	0x3f984995	1.1897455
199	0x3f74bddd	0.9560221
200	0x3f653636	0.89535844
201	0x3e99d0fd	0.30042258
202	0x3f813c05	1.0096442
203	0x3e8be1cc	0.27320707
204	0x3f5f26c0	0.871685
205	0x3f7196a1	0.94370466
206	0x3fb145b2	1.3849394
207	0x3f9a0120	1.2031593
208	0x3f87683a	1.0578682
209	0x3faf1939	1.3679572
210	0x3f77f2e1	0.9685498
211	0x3fb09c35	1.3797671
212	0x3f8f7c75	1.1209856
213	0x3f740a95	0.95328647
214	0x3f85dc07	1.0457772
215	0x3f75b261	0.9597531
216	0x3f74fcdb	0.95698327
217	0x3fed4151	1.8535558
218	0x3f73968a	0.9515158
219	0x3ffae7fd	1.9602047
220	0x3f815678	1.0104513
221	0x3fa50dfe	1.2894895
222	0x3f9c7a3e	1.2224805
223	0x3f74e8aa	0.9566752
224	0x3f8ea8a4	1.1145215
225	0x3f71143a	0.9417149
226	0x3f6b924a	0.92020094
227	0x3f62aa25	0.8854087
228	0x3f813adc	1.0096087
229	0x3f95f2af	1.1714686
230	0x3f692342	0.91069424
231	0x3fab453d	1.3380505
232	0x3fab5baf	1.3387355
233	0x3f5ce034	0.86279607
234	0x3fe21792	1.7663443
235	0x3f6e1117	0.9299483
236	0x3fe49aae	1.7859704
237	0x3faac81f	1.3342322
238	0x3f7b0448	0.9805341
239	0x3faefab8	1.3670263
240	0x3f87b93d	1.0603405
241	0x3fb1b32b	1.3882803
242	0x3f81e91e	1.0149267
243	0x3f45773d	0.7713507
244	0x3fa402df	1.2813376
245	0x3f8bf555	1.0934244
246	0x3f5be78c	0.8590019
247	0x3f7d67a9	0.989863
248	0x3f8265ad	1.0187279
249	0x3fb0c1ba	1.3809121
250	0x3f6cfc72	0.925727
251	0x3f6b722d	0.91971093
252	0x3f9dccdb	1.2328142
253	0x3fb93a6c	1.4470954
254	0x3f3d019b	0.73830575
255	0x3f73e86c	0.9527652
