Zadanie3/srcV2/models/Best_model_VEP_exp_prob_01_exploration_50/actor_network.pth (torch, 507007 bytes, 10 tensors)

fc1.weight f4 [400, 8]
000000 e6 b5 2e be 6f d0 2a 3e f4 e0 02 be e0 3e 88 be
       -0.17061576 0.16681074 -0.12781125 -0.2661047
000010 13 bc 48 3e bb 41 32 3e 1b 92 80 3e 5a 89 30 3e
       0.19602995 0.17407887 0.2511147 0.17239895
000020 37 7a 1c be 66 f8 44 3e 9a f2 e8 bd b2 6e 99 be
       -0.15280996 0.19235381 -0.113743976 -0.29967266
000030 de a8 6b 3e ac cd 0e 3e 17 ca ff bd 02 d6 3b be
       0.23013636 0.13945645 -0.124897175 -0.18343356
000040 06 d8 ad bd 23 e0 a4 3e 65 5e d4 bd c1 33 e1 be
       -0.08488469 0.32202253 -0.10369567 -0.43984798
000050 27 34 36 bd 02 d7 3a bd 7a 0b 8b bd b4 27 62 3e
       -0.04448333 -0.045615204 -0.06789298 0.22085458
000060 29 c0 69 bc 51 44 1d 3e 42 e9 cd 3d 2d 55 3a bd
       -0.014267006 0.15358092 0.10054256 -0.045491386
000070 1e 74 67 be 18 b8 58 be 84 e8 ee bd cd e5 ec bc
       -0.22602889 -0.21163976 -0.116654426 -0.028918171
000080 c5 2e 54 be 1c 82 72 3e 9b d0 3f be 48 a4 db be
       -0.20720966 0.23682445 -0.1873192 -0.42898774
000090 fe a8 5a bd 2d fb 72 3e 53 dd 13 3d 33 94 81 3e
       -0.05338382 0.23728628 0.036099743 0.2530838
0000a0 c8 d4 d5 bd 94 7d 7b 3e 42 df ca bd 21 b3 87 be
       -0.104409754 0.24559623 -0.09905864 -0.26503852
0000b0 28 b5 13 3e ac 66 a8 3d 93 5d 1e 3e 24 c2 39 3e
       0.14424574 0.08222708 0.15465383 0.18140465
0000c0 8a 3b 7d be 5e e2 db 3e 2a 45 74 be e1 19 41 bf
       -0.24729744 0.42946142 -0.23854509 -0.75430113
0000d0 21 b6 63 3e 29 b3 c8 3d c8 93 49 3c d2 d3 af 3e
       0.22237445 0.09799797 0.0123033 0.34341294
0000e0 da 70 1e be 11 c5 7e 3e 05 41 5e bd fe 96 89 be
       -0.15472737 0.24879862 -0.054261226 -0.2687301
0000f0 92 0a 6f bc 7a b9 d0 bd 6a 8f 25 bb cd 12 2f 3e
       -0.0145899225 -0.10191627 -0.0025262483 0.17097016
000100 97 78 b8 bc 03 5e 39 3e d2 8d 1e be 72 8d 82 be
       -0.02251844 0.18102269 -0.15483788 -0.2549854
000110 68 ca 16 3e 15 04 4e 3d 1e b3 78 3e 45 46 71 3d
       0.1472565 0.05029686 0.24287078 0.058904905
000120 04 6f b8 bd 52 ae 59 3e a2 44 6e be c8 47 39 be
       -0.090055496 0.21257904 -0.23268369 -0.18093789
000130 b8 df 75 3e 8b d0 38 3e fd 51 31 3e 48 0e e9 3c
       0.24011123 0.18048303 0.17316432 0.028449193
000140 cc 30 70 bd e5 64 44 3e 1b a6 c8 3d 19 1c 96 bc
       -0.058640286 0.19179113 0.09797307 -0.018323945
000150 a8 a3 09 be d8 69 65 be 53 ed aa 3d c0 92 5e be
       -0.13441336 -0.22403657 0.08346047 -0.21735668
000160 93 98 a6 bc 17 ff 1a 3e 0d 65 d9 3d 71 32 e1 bc
       -0.020336425 0.15136372 0.10614977 -0.027489873
000170 2f e0 73 be 69 94 56 be b2 c7 f6 bd 7c 62 54 bd
       -0.23815988 -0.20955051 -0.120498076 -0.051851735
000180 f7 c7 df bd 69 f7 89 3e 46 48 0a be fd cf a3 be
       -0.10926812 0.2694657 -0.13504133 -0.3199462
000190 22 56 08 3e fa 06 d0 3d 9f 0e 97 bc 06 70 4d 3e
       0.13314107 0.10157581 -0.018439589 0.20062265
0001a0 87 e7 9c 3c df 1d 6c 3e 92 68 65 be 4e b0 f1 3d
       0.01915337 0.2305827 -0.22403172 0.118012056
0001b0 72 2e 75 3e e8 85 ae 3c 52 6e 14 3d 10 30 36 3e
       0.23943499 0.021304086 0.036238022 0.17791772
0001c0 26 77 1c 3e bc 8f 65 3e dd b9 48 be e4 56 9e bd
       0.15279827 0.22418112 -0.19602151 -0.07731417
0001d0 76 44 d8 3c 05 f3 05 be ad 28 da 3c 70 7b 94 3d
       0.026399832 -0.13080986 0.026630724 0.07250106
0001e0 41 84 3a be 6c cf 96 3e 5d a6 11 be af 50 c6 be
       -0.18214513 0.29455125 -0.14223619 -0.38733432
0001f0 26 e6 c1 3d 86 6a c0 3d 69 1a 02 bd e8 0c ae 3e
       0.094677255 0.09395318 -0.031763468 0.33994222
000200 38 2c ad bd 2a 90 59 3e 44 17 19 3d a0 36 66 be
       -0.084557 0.212464 0.037375703 -0.22481775
000210 ca db 5c bd 22 0f b6 3d bd fd c5 bd 22 10 7e 3e
       -0.053920545 0.08889605 -0.09667537 0.24810842
000220 44 23 90 bd 3d 02 48 3e e3 d8 d9 3d 68 76 0c bd
       -0.070379764 0.19532104 0.10637071 -0.03429261
000230 03 00 10 be a5 81 fb bd 96 aa 1e be 4d ed cc 3c
       -0.14062504 -0.12280587 -0.15494761 0.025015498
000240 c7 ff cc bd 22 72 63 3e a8 c5 ad bd 44 01 8f be
       -0.10009723 0.22211507 -0.084849656 -0.27930653
000250 35 d0 c7 3d da 9a bb 3d 45 56 3d 3c 8e bc 27 3e
       0.09756509 0.09160395 0.011556213 0.16380522
000260 96 b7 e1 bd 25 c6 85 3e 94 83 d9 bd 2a 1d 9d be
       -0.11021344 0.26127735 -0.106208 -0.30686313
000270 ed 2e df 3d a7 01 e4 3d db 74 80 bd 62 9d 72 3e
       0.10897622 0.11133128 -0.062722884 0.2369285
000280 f6 32 07 be 36 7d 79 3e 69 95 d4 bd c7 5e a7 be
       -0.13203034 0.2436417 -0.1038006 -0.32689497
000290 f3 cd 98 3d cd 37 96 3d a5 8b e8 3c ce ac 93 3e
       0.07461157 0.07334862 0.0283869 0.28842777
0002a0 52 99 e1 3d 57 2d df 3d 21 3f d4 bc 4b 67 bd be
       0.11015572 0.1089732 -0.025909008 -0.3699287
0002b0 a6 2b 7e be 6b 5a 67 be 90 e8 d3 be 47 e1 69 be
       -0.24821338 -0.22593085 -0.4138837 -0.22839843
0002c0 c7 16 e2 bd 9a 9c a6 3e 0f b7 03 be 67 8a 1d bf
       -0.11039501 0.32541353 -0.128628 -0.6153931
0002d0 f2 f1 d3 3d f6 04 fe 3d ce 7a 97 bd 5b 54 b0 3e
       0.10348882 0.1240329 -0.0739647 0.34439358
0002e0 18 41 c7 bd d1 f9 66 3e 34 3f ac bd 22 26 a2 be
       -0.097292125 0.22556235 -0.084104925 -0.31669718
0002f0 fd 16 8b bd b7 be 90 bd 19 02 a3 bd 40 d7 47 3e
       -0.06791494 -0.07067626 -0.079593845 0.19515705
000300 c3 30 0e be f3 59 24 3e a7 5a 09 bd d0 e3 8e 3d
       -0.13885789 0.16049938 -0.03353372 0.069770455
000310 db 83 42 bc 93 1b 22 be 93 7c 01 be f0 a9 c0 bd
       -0.011872257 -0.15830831 -0.12645178 -0.09407413
000320 1a 0c 14 be 75 b6 43 3e 98 f0 66 bd 0b 9c 3f be
       -0.14457741 0.1911257 -0.05638179 -0.1871187
000330 83 24 f1 3d b1 83 b8 3d de da b7 bd 5a eb 68 3e
       0.11774542 0.09009493 -0.089772925 0.2274603
000340 ed 9e db bd b7 6c 49 3e cc 16 c4 3d ff 19 93 3d
       -0.10723672 0.19670378 0.09574661 0.07182693
000350 6f 12 a9 bc b5 02 2c be 2f ed 26 3e 4f 4b 3d be
       -0.020638673 -0.16797908 0.16301416 -0.18485759
000360 89 ba 4f be a4 c2 e3 3d 2d b5 31 be be b4 f9 be
       -0.20286001 0.11121109 -0.1735427 -0.48770708
000370 d8 d6 68 3d bb 4f 1f 3e 24 a1 ec be f8 e3 94 be
       0.056845516 0.15557759 -0.4621669 -0.29080176
000380 84 23 e5 bd 3a 88 a6 3e dd 1a 33 be b4 18 ce be
       -0.11188415 0.32525808 -0.17490716 -0.40253222
000390 42 0c 26 3e be ea 12 3e 96 f5 a4 bc 46 36 96 3e
       0.16215613 0.1434736 -0.020136636 0.29338282
0003a0 8f 2f 04 be 11 e2 5b 3e 5b cd 17 be aa 16 aa be
       -0.12908767 0.21472956 -0.1482443 -0.33220416
0003b0 41 ed b7 3e ce 8e c5 3e d6 8b 58 3e e1 c9 3a 3d
       0.35923198 0.38585514 0.21147093 0.045602683
0003c0 d2 e5 69 bc ed 2e 89 3d 2d 52 d6 bd 71 9b d4 be
       -0.014275985 0.066984035 -0.104648925 -0.41524842
0003d0 eb 8b 9f 3e 20 7a d3 3e e3 99 51 be 3c 27 ad 3e
       0.31161436 0.4130411 -0.2046886 0.33818996
0003e0 d4 d3 54 be 75 90 28 3e d4 51 1a be 6d 3a 88 be
       -0.20783931 0.16461356 -0.15070277 -0.26607075
0003f0 51 2f 29 3e 8f 6e 7a 3d a1 a8 b3 3e 82 fa 1f 3d
       0.16521956 0.061140593 0.3508959 0.039057262

fc1.bias f4 [400]
000000 14 0e 52 3e ec bd 3e 3e 33 36 a8 3e 03 9f 56 3e
       0.20513183 0.18627137 0.3285385 0.20959096
000010 8c 7b 85 3e 55 1b 7b 3e ac 30 e3 3e f2 d4 7c 3e
       0.2607082 0.24522145 0.4437307 0.24690607
000020 d2 d7 29 3e bf 81 51 3e 17 7e 33 3e 17 dc 59 3e
       0.16586235 0.2045965 0.17528568 0.21275364
000030 6a 35 9f 3e c7 5e 0e 3e f3 a0 57 3e 22 40 9f 3e
       0.3109544 0.13903342 0.21057491 0.31103617
000040 a6 4e 6a 3e fd f9 64 3e a4 f7 55 3e 63 ca 87 3e
       0.22881564 0.22360988 0.20895249 0.26521596
000050 e0 dc 82 3e e1 eb 0e 3e f5 0c c8 3e 0b a0 62 3e
       0.2555914 0.13957168 0.39072385 0.22131364
000060 1b e5 e6 3d 9a 57 91 3e ba 49 22 3e 5a c4 0d 3e
       0.11274167 0.28387147 0.15848437 0.13844433
000070 32 9f b9 3e 95 e0 07 3e 54 34 19 3e 8e 8b 5b 3e
       0.3625427 0.13269265 0.14961368 0.21439955
000080 9c 68 7f 3e 59 d2 78 3e dc 3a 73 3e d4 ff 83 3e
       0.24942249 0.24298991 0.23752922 0.2578112
000090 c7 9a 86 3e 87 ab 68 3e 6e 4b 9d 3e f4 03 a7 3e
       0.2628996 0.22721682 0.3072161 0.32620203
0000a0 83 e8 3c 3e 85 c4 88 3e 1e eb 89 3e d9 31 2b 3e
       0.18448071 0.26712433 0.26937193 0.16718234
0000b0 9a cc b1 3e 43 f1 48 3e 49 a9 28 3e a5 31 83 3e
       0.3472641 0.19623284 0.16470827 0.25623813
0000c0 79 38 84 3e 41 28 83 3e b7 53 57 3e 39 87 95 3e
       0.25824335 0.2561665 0.21028028 0.2920473
0000d0 7c 4e 39 3e f4 a8 1b 3e a2 85 1c 3e 63 36 37 3e
       0.18096346 0.15201169 0.15285352 0.1789184
0000e0 84 86 79 3e 63 ab 6f 3e e4 fc 6a 3e ba 4c 13 3e
       0.2436772 0.23405223 0.22948033 0.14384738
0000f0 00 1c 59 3e 51 f7 58 3e 80 5d 67 3e 1b f1 b4 3e
       0.21202087 0.21188094 0.22594261 0.353402
000100 af e6 91 3e 33 55 33 3e 25 97 77 3e 70 7a 82 3e
       0.2849631 0.1751297 0.24178751 0.25484037
000110 de c6 16 3e 3f 46 3f 3e 1e 3c 90 3e 11 b1 29 3e
       0.147243 0.1867914 0.28170866 0.16571452
000120 df ea 78 3e 32 9b 1e 3e e5 81 68 3e 2b f2 3e 3e
       0.24308346 0.1548889 0.22705801 0.18647067
000130 66 03 97 3e 02 9e 71 3e a4 28 19 3e f0 21 e8 3e
       0.2949478 0.23595431 0.1495691 0.45338392
000140 3f 56 23 3f 26 58 de 3d cd 80 a0 3e 2a 7f 9e 3e
       0.63803476 0.10856657 0.31348267 0.30956393
000150 ac b6 53 3e 59 16 47 3e 4a 7b 6c 3e 98 ca aa 3e
       0.20675153 0.19442119 0.23093906 0.33357692
000160 48 9b 4a 3e 6e 92 3e 3e 34 e9 47 3e 36 fe 3a 3e
       0.19785798 0.18610546 0.19522554 0.18261036
000170 55 ae 5c 3e 7c 02 d8 3d 1c 2e 84 3e 27 5e 80 3e
       0.21550877 0.10547349 0.2581643 0.25071833
000180 e2 62 19 3e ac ed a0 3e 98 94 84 3e 1b 8e 65 3e
       0.14979127 0.3143133 0.25894618 0.2241749
000190 c9 3e 54 3e 7a d3 47 3e 23 5d 96 3e b7 f4 5c 3e
       0.20727076 0.19514266 0.29367933 0.21577726
0001a0 92 41 13 3e d8 e3 62 3e ce b5 58 3e e2 8f 15 3e
       0.14380482 0.22157228 0.21163103 0.14605668
0001b0 6a 12 5e 3e 50 76 9f 3e 05 9e 6b 3e 26 ce 84 3e
       0.21686712 0.31144953 0.23009498 0.2593853
0001c0 5d 22 92 3e 89 5c 29 3e 1e ce 46 3e 9a 76 7e 3d
       0.28541842 0.16539206 0.19414565 0.062124826
0001d0 5c 11 8e 3e af b1 1b 3e 49 2b 53 3e 45 0f a0 3e
       0.2774762 0.152045 0.2062198 0.3126165
0001e0 97 3e 96 3e e8 79 80 3e 39 9f 70 3e cd 9e 16 3e
       0.29344627 0.25093007 0.23498239 0.14709015
0001f0 65 76 4d 3e a2 44 7d 3e d0 ba 47 3e c1 10 2e 3e
       0.20064695 0.24733213 0.19504857 0.16998579
000200 c0 c2 4f 3e 21 06 37 3e fd 35 13 3e 53 88 26 3e
       0.20289135 0.17873432 0.14376064 0.16262941
000210 83 d6 1e 3e 72 0f 87 3e c4 e7 27 3e 9a 2e 8d 3d
       0.15511517 0.2637897 0.16397005 0.06893654
000220 f6 2f 12 3e 5e 18 7d 3e ed 8c 34 3e 3f 28 62 3e
       0.14276108 0.24716327 0.17631884 0.22085665
000230 40 b9 87 3d e2 13 73 3e fc ed 63 3e 08 89 2d 3e
       0.066271305 0.23738053 0.22258753 0.16946805
000240 fb 1c 5a 3e b4 56 cc 3e da 8c 76 3e e9 f7 86 3e
       0.21300118 0.399099 0.24077168 0.26361015
000250 22 88 4d 3e 03 9f 4a 3e 5e 4a 50 3e 4b d3 59 3e
       0.20071462 0.1978722 0.20340869 0.21272008
000260 d2 81 78 3e dd 04 47 3e 89 2b 24 3e d9 72 39 3d
       0.24268273 0.19435449 0.16032232 0.045275543
000270 b1 ab 22 3e ce 02 c0 3e 2d 29 2a 3e 3b 70 8f 3e
       0.15885808 0.3750214 0.1661727 0.28015313
000280 47 f2 53 3e 47 57 91 3e de c8 73 3e f7 8e 5b 3e
       0.2069789 0.283869 0.23807094 0.21441256
000290 3d 28 9f 3e 55 32 08 3e 7c 9f 46 3e 7e 8e 7d 3e
       0.31085387 0.1330045 0.19396776 0.24761388
0002a0 12 86 9f 3e 31 0c 5a 3e ca 5d d2 3e 79 a6 47 3e
       0.31156975 0.21293713 0.4108718 0.19497098
0002b0 e1 7c 85 3e 51 16 8a 3e 3d 12 4b 3e 47 91 f1 3d
       0.26071838 0.2697015 0.19831176 0.117952876
0002c0 12 11 2c 3e 3d 83 29 3e f2 27 88 3e 83 75 61 3e
       0.16803387 0.1655397 0.26592976 0.22017483
0002d0 ed 7a 75 3e 38 c3 50 3e 74 3c 54 3e 64 22 9e 3e
       0.23972674 0.2038697 0.20726186 0.30885613
0002e0 92 e4 5c 3e 8f 01 1a 3e 58 4d 8f 3e 19 0d 39 3e
       0.21571568 0.15039657 0.27988696 0.18071403
0002f0 d9 ae 4f 3e 5e 32 c2 3e b7 73 e2 3d 72 89 95 3e
       0.20281543 0.37929052 0.11057227 0.29206425
000300 dc ad 73 3e 43 db 5b 3e 4b b1 69 3e 0a 41 3f 3e
       0.23796791 0.2147036 0.22821538 0.18677154
000310 3a 32 59 3e 3c ed 18 bc f0 60 fc 3d 99 1c 88 3e
       0.21210566 -0.009333905 0.12323177 0.26584318
000320 ba 98 88 3e 84 30 50 3e e8 b1 42 3e 83 5a 88 3e
       0.2667902 0.20331007 0.19013178 0.26631555
000330 73 93 5b 3e 27 8a 25 be 40 4d a1 3e a1 e2 89 3e
       0.21442966 -0.16165982 0.3150425 0.26930717
000340 47 fd 4a 3e 90 f0 28 3e ae 69 99 3e 05 77 2d 3e
       0.1982318 0.16498017 0.2996344 0.16939934
000350 f5 39 7c 3e 9b 9a 5f 3e e4 b9 2d 3e 94 0c 9a 3e
       0.24631484 0.21836321 0.16965443 0.3008772
000360 13 95 07 3e bf cf 4d 3e 09 01 5a 3e 28 eb 8d 3e
       0.13240461 0.2009878 0.21289457 0.27718472
000370 46 58 76 3e 82 68 84 3e f0 fb 54 3e 66 2d 65 3e
       0.24057111 0.25860983 0.20799232 0.223806
000380 25 f4 34 3c 11 ec 91 3d 85 eb 50 3e 74 6e 79 3e
       0.011044537 0.07125104 0.20402344 0.24358541
000390 f9 f8 0e 3e 6a a9 47 3e 2f 47 32 3e 06 14 8c 3e
       0.13962163 0.1949822 0.17409967 0.27359027
0003a0 7a fa 59 3e 14 a2 a1 3d 86 c3 42 3e d2 bf 21 3e
       0.21286955 0.07892242 0.19019899 0.1579583
0003b0 21 7e 45 3e 8c 96 1a 3e 9d 74 2d 3e a0 7d aa 3d
       0.19286396 0.15096492 0.16939016 0.08324742
0003c0 d7 00 98 3e a1 15 58 3e c1 75 47 3e 52 0a 86 3e
       0.2968814 0.21102001 0.19478513 0.2617975
0003d0 98 72 36 3e 08 6f 74 3e 52 53 8e 3e f5 37 82 3e
       0.17817152 0.2387048 0.27797943 0.25433317
0003e0 60 b3 4f 3e 04 6d 36 3e 76 da 2f 3e 6e 2d 43 3e
       0.2028327 0.17815024 0.1717318 0.19060299
0003f0 ae fb b6 3e 90 7c 04 3e a5 78 79 3e f2 7d f2 3d
       0.3573889 0.12938142 0.24362428 0.118404284

bn1.weight f4 [400]
000000 77 59 7e 3f 97 0a 95 3f a0 b9 e4 3e 3f a3 9d 3f
       0.9935526 1.1643857 0.4467287 1.2315444
000010 fd bf 14 3f e9 cb 64 3f 9c 13 6c 3e c2 85 43 3f
       0.5810545 0.8937364 0.23054355 0.76375973
000020 62 36 9c 3f 5c 30 a1 3f 8f 6f 93 3f ed 20 ae 3f
       1.2204096 1.2592883 1.151842 1.3603798
000030 7a fc 03 3f 64 75 b6 3f d7 23 b4 3f 97 49 f5 3e
       0.51557124 1.4254575 1.4073437 0.47907707
000040 51 60 37 3f ff 71 75 3f 48 4e 4f 3f 12 c6 1a 3f
       0.7163134 0.9587707 0.8097882 0.6045848
000050 6b ed 2f 3f 01 b9 a0 3f f5 8d 9f 3e 15 7e 46 3f
       0.68721646 1.2556459 0.31162992 0.77536136
000060 32 fa 9c 3f d7 79 30 3f f3 aa 9d 3f 54 3c cf 3f
       1.2263854 0.6893591 1.2317795 1.6190286
000070 86 f9 be 3e 85 84 9b 3f 54 4c a4 3f 9e bf 93 3f
       0.37299746 1.2149817 1.2835793 1.1542852
000080 01 d5 1f 3f c8 4c 21 3f 14 15 39 3f da 62 42 3f
       0.62434393 0.63007784 0.7229779 0.75932086
000090 6f 78 17 3f ec 87 57 3f 7b 7c 02 3f 09 b1 e6 3e
       0.5916814 0.84191775 0.5097119 0.45056942
0000a0 e8 74 8e 3f 43 9d 38 3f 2c c2 2f 3f d7 2b a3 3f
       1.1129427 0.7211496 0.6865566 1.2747754
0000b0 70 8b da 3e bc 6a 86 3f cd e9 aa 3f bc 20 22 3f
       0.42684507 1.0501323 1.33526 0.633312
0000c0 b9 66 28 3f 59 1f 2d 3f fd 3b 65 3f 13 8c 2b 3f
       0.6578174 0.6762596 0.8954466 0.6701061
0000d0 ed e2 87 3f 53 a1 a0 3f 23 9e ad 3f 9d c4 8c 3f
       1.0616127 1.2549232 1.3563884 1.0997502
0000e0 d7 12 25 3f 21 d2 67 3f 18 95 27 3f e7 56 89 3f
       0.6448187 0.90555006 0.65461874 1.0729645
0000f0 d9 87 a4 3f 8a 1b 46 3f 85 d0 88 3f f0 eb d6 3e
       1.2853957 0.7738577 1.0688635 0.4197688
000100 bc 31 19 3f e9 72 99 3f 35 33 28 3f 3f 9e 25 3f
       0.59841514 1.1988193 0.65703136 0.6469459
000110 56 e9 a0 3f 69 11 8d 3f 2a 1c 25 3f 40 47 a0 3f
       1.2571208 1.1020938 0.644961 1.2521744
000120 2c 69 90 3f 8e 98 98 3f 60 74 57 3f 24 3d 85 3f
       1.1282096 1.1921556 0.8416195 1.0409284
000130 78 b9 12 3f 5b 91 48 3f 5a 34 9c 3f 48 af 82 3e
       0.5731425 0.78346795 1.2203476 0.25524354
000140 03 96 0f 3e e7 c5 a7 3f d0 d6 01 3f 5e 79 00 3f
       0.14022069 1.310727 0.507184 0.5018519
000150 56 2c a4 3f 09 fa 8e 3f 5c 4d 78 3f 89 af e6 3e
       1.282603 1.1170055 0.9699304 0.45055798
000160 54 52 99 3f 8c 58 8e 3f e8 67 83 3f ad 64 c2 3f
       1.197825 1.1120772 1.0266085 1.5186974
000170 69 48 99 3f fd 95 ca 3f 5f 90 23 3f d8 c0 3c 3f
       1.1975223 1.5827023 0.6389217 0.73731756
000180 98 82 af 3f 19 44 f6 3e 4b 8d 29 3f 41 e9 95 3f
       1.3711729 0.4809883 0.6623122 1.1711808
000190 93 0d 90 3f 61 ae 9b 3f c6 c2 15 3f 20 a3 4a 3f
       1.1254143 1.2162591 0.58500326 0.7915516
0001a0 02 0e 6f 3f 37 41 5b 3f 5d fb aa 3f a9 a2 a9 3f
       0.9338075 0.85646385 1.335796 1.3252765
0001b0 83 47 63 3f ac 8d 02 3f 91 45 82 3f 3f ca 30 3f
       0.88780993 0.50997424 1.017748 0.69058603
0001c0 66 67 0c 3f be 3c a4 3f f9 ed a6 3f f7 cf d4 3f
       0.54845273 1.2831037 1.3041373 1.6625966
0001d0 38 4d 23 3f 53 04 6d 3f 0f 60 96 3f 23 61 f1 3e
       0.637897 0.92584723 1.1748065 0.47144422
0001e0 5b 2c 2c 3f 0c ce 47 3f f1 bb 41 3f b4 ec 9a 3f
       0.6725518 0.7804878 0.756774 1.2103486
0001f0 36 8c c2 3f be d7 5f 3f 9b ed 69 3f 5f 4d 79 3f
       1.5199039 0.8743857 0.9137818 0.97383684
000200 f8 3e 9c 3f fa 87 5a 3f a6 21 9b 3f 86 42 83 3f
       1.2206717 0.85363734 1.2119644 1.0254676
000210 cb 31 b7 3f 41 57 1e 3f 2e 99 a9 3f ef 9c af 3f
       1.4312071 0.6185189 1.3249872 1.3719767
000220 8e e9 c5 3f 40 00 30 3f ee 3f 88 3f 6a 7e bd 3f
       1.54619 0.6875038 1.064451 1.4804204
000230 3c 67 a9 3f 6e e5 65 3f 2c 33 85 3f 0a 5b 88 3f
       1.323463 0.89803207 1.0406241 1.0652783
000240 d0 89 ab 3f b7 6f c1 3e 3b c3 45 3f 48 55 26 3f
       1.3401432 0.37780544 0.77251023 0.6497388
000250 4f 0e 81 3f 62 91 b5 3f ee 9b 8c 3f d6 a7 99 3f
       1.0082492 1.4184992 1.0985086 1.2004344
000260 c3 97 4e 3f e0 23 92 3f 81 98 8d 3f b1 44 ce 3f
       0.8070032 1.1417198 1.1062165 1.6114713
000270 2f 17 9c 3f 1e f2 a1 3e 57 0f a7 3f 6f fa 26 3f
       1.2194575 0.31630033 1.3051556 0.6522588
000280 47 50 9e 3f d1 91 3a 3f c8 c6 22 3f 93 0d 88 3f
       1.2368249 0.7287875 0.63584566 1.0629143
000290 b0 6d ef 3e 1e ad c6 3f 8d 3e 81 3f 9d 44 30 3f
       0.46763372 1.5521581 1.0097214 0.68854696
0002a0 00 c3 10 3f 6e 57 9c 3f 08 9d 90 3e 43 56 ce 3f
       0.56547546 1.2214181 0.28244805 1.6120075
0002b0 be a8 3b 3f 09 e3 2e 3f 57 14 a5 3f 07 a8 a8 3f
       0.73304355 0.6831518 1.2896832 1.3176278
0002c0 9c de a2 3f 76 45 ad 3f 15 70 26 3f 85 88 93 3f
       1.2724185 1.3536823 0.65014774 1.1526037
0002d0 d1 43 4a 3f a7 d0 b1 3f ad f0 64 3f 1d 91 26 3f
       0.7900973 1.3891801 0.8942974 0.65065175
0002e0 82 70 58 3f 6e df 99 3f 9a d5 5c 3f b9 7a c1 3f
       0.84546673 1.202131 0.8626343 1.5115577
0002f0 02 5a 6c 3f 9b 05 ca 3e 08 9b ba 3f e4 20 09 3f
       0.9232484 0.39457402 1.4578562 0.5356581
000300 01 1a 50 3f da da 8f 3f e3 0c 69 3f 9a a5 85 3f
       0.8128968 1.1238663 0.9103529 1.0441163
000310 dd 82 b8 3f 71 21 06 40 d0 4c aa 3f 6c 38 2a 3f
       1.4414936 2.095791 1.3304691 0.6649234
000320 04 64 1e 3f 0c f3 a6 3f 5e 98 8c 3f f1 69 21 3f
       0.6187136 1.3042922 1.0983999 0.6305228
000330 47 89 9b 3f 95 a9 14 40 66 05 04 3f f0 0b 16 3f
       1.2151269 2.3228505 0.5157074 0.58611965
000340 d1 81 5f 3f 2d 4a 7e 3f c3 d4 0e 3f 25 b7 89 3f
       0.8730746 0.99331933 0.557934 1.0759016
000350 92 03 75 3f cc 79 55 3f 54 d6 a6 3f 47 da f5 3e
       0.9570857 0.8338897 1.3034158 0.48018095
000360 ef 75 ed 3f 94 ff 99 3f 10 1e 98 3f 28 b8 1f 3f
       1.8551615 1.2031121 1.1884174 0.62390375
000370 42 18 2e 3f f8 80 1e 3f 04 3f 95 3f 71 19 80 3f
       0.68005764 0.6191554 1.1659856 1.0007764
000380 f5 d4 db 3f f8 cf 9f 3f a6 4c 78 3f 32 d8 58 3f
       1.7174364 1.2485342 0.96991956 0.8470489
000390 3a 5a 98 3f 1a 5f 87 3f 56 53 83 3f bf bd 28 3f
       1.1902535 1.0575898 1.0259807 0.6591453
0003a0 ef 86 9e 3f f3 ff 9e 3f b2 6d 7a 3f 75 3c a2 3f
       1.2384928 1.242186 0.9782363 1.26747
0003b0 48 48 81 3f b1 63 92 3f f1 98 a1 3f 5a 7f ab 3f
       1.0100183 1.1436673 1.2624799 1.339824
0003c0 af f8 09 3f 39 5c 70 3f 4e 42 9a 3f 8b 6e 45 3f
       0.53895086 0.9389072 1.2051485 0.771218
0003d0 4a 43 85 3f 0f ab 59 3f 10 62 3b 3f 5a 59 13 3f
       1.041116 0.8502664 0.73196507 0.57558215
0003e0 8b a5 50 3f 2c d0 71 3f 38 86 aa 3f ca 1d 87 3f
       0.815026 0.9445827 1.332221 1.0555966
0003f0 cf 30 a6 3e 35 2a bc 3f 45 48 39 3f 61 f9 aa 3f
       0.32459113 1.470038 0.723759 1.3357354

bn1.bias f4 [400]
000000 60 68 3e be 6a 9a 8c be e6 1e 26 bf a4 23 16 be
       -0.18594503 -0.2746156 -0.648909 -0.14662033
000010 94 ff ef be a5 bb 72 be 87 88 5b bf 29 ba c6 be
       -0.46874678 -0.23704393 -0.857552 -0.38813904
000020 da 99 43 be 29 01 b5 bd bf c3 e8 bd 50 a0 e6 bd
       -0.19101658 -0.08838112 -0.113654606 -0.11261046
000030 c2 da 18 bf 5e b2 35 be 71 59 07 bb 52 87 22 bf
       -0.597088 -0.17743823 -0.0020652676 -0.6348773
000040 6b 99 ca be 74 b5 86 be e4 28 7f be 83 bc fe be
       -0.39570174 -0.26310313 -0.24917942 -0.49753198
000050 f4 20 d0 be f2 05 cc 3b a6 84 39 bf 99 04 c9 be
       -0.4065014 0.0062262947 -0.7246803 -0.3926132
000060 10 b2 d9 bd a6 04 f1 be 05 dc 07 be 89 bf 34 3d
       -0.10629666 -0.4707386 -0.13267525 0.044127975
000070 db a9 29 bf 75 64 63 bd 04 a8 81 3b f3 76 12 be
       -0.66274804 -0.055515725 0.0039567966 -0.14303188
000080 20 5e f5 be dd c2 e3 be c1 fd c5 be e2 87 bb be
       -0.47923374 -0.44484606 -0.3867016 -0.36627108
000090 62 f0 04 bf 67 e5 9d be 7f b5 1a bf 18 d9 14 bf
       -0.51929295 -0.30839083 -0.6043319 -0.5814376
0000a0 53 a3 6b be 7c 2a dc be 5b a0 c0 be 94 8c 76 bd
       -0.23011522 -0.43001163 -0.37622342 -0.06019266
0000b0 d7 c8 2a bf 14 cb 2a be 9b 96 e3 bd 3e 6c e5 be
       -0.6671271 -0.1667903 -0.1111271 -0.44809145
0000c0 51 08 f6 be 67 26 e2 be e5 27 b3 be 77 22 f4 be
       -0.4805322 -0.44169924 -0.34991375 -0.47682545
0000d0 c8 77 4a be d7 ca 47 bd fb f7 5f 3c cb 6d 1e be
       -0.19772255 -0.048777428 0.013669963 -0.1547157
0000e0 3d ba 02 bf 64 ea 91 be 52 e0 de be af 51 94 be
       -0.5106543 -0.28499138 -0.43530518 -0.2896857
0000f0 4e 7b e7 bc 8e ea b5 be 9e b4 c0 bd 54 68 2b bf
       -0.028257038 -0.35530514 -0.0940945 -0.6695607
000100 fa 82 02 bf 6f a1 40 bd a1 dd d6 be 8d 85 e6 be
       -0.50981104 -0.047028955 -0.41965964 -0.45023766
000110 2b 58 e0 bd a2 12 62 be c0 95 e9 be 36 91 3a be
       -0.10954317 -0.2207742 -0.45622063 -0.18219456
000120 72 f4 27 be 0c 03 15 be 60 0d ba be 5b 82 1c be
       -0.16401842 -0.14551944 -0.3633833 -0.15284102
000130 ee 24 1a bf 26 56 b9 be d6 9a 95 bd 1e 4b 4c bf
       -0.602126 -0.3619854 -0.07304923 -0.7980212
000140 f1 42 63 bf f8 1d 69 bd 44 f8 14 bf 90 e6 13 bf
       -0.8877402 -0.056913346 -0.58191323 -0.57773685
000150 a7 92 c3 bd 13 50 85 be c1 97 56 be c9 0a 1d bf
       -0.09549456 -0.26037654 -0.20956327 -0.6134458
000160 ba bc 13 be 95 24 f5 3d 08 e2 31 be 02 0c 90 3b
       -0.14427462 0.11969868 -0.1737138 0.0043959627
000170 0e 58 2b be d6 8a ce bd f3 eb ef be cf c2 b0 be
       -0.16732809 -0.100850746 -0.46859702 -0.34523627
000180 f9 01 df bc 3f c9 15 bf 31 f7 f4 be 7e 07 e4 bd
       -0.02722262 -0.585102 -0.47844842 -0.111342415
000190 e4 c6 f8 bd 5e 7c 2d be 06 cc 06 bf a8 e0 9e be
       -0.121473104 -0.16941974 -0.52655065 -0.31030774
0001a0 d0 84 6e be 9a 06 8f be 95 e0 ba bc 9c 4b 07 bd
       -0.23292851 -0.27934724 -0.022812167 -0.03303109
0001b0 d8 51 8d be 71 d7 0d bf 4c d5 63 be 51 af cb be
       -0.27601504 -0.5540686 -0.22249335 -0.39782193
0001c0 de e9 06 bf d8 16 a5 bd 96 71 ee bd 02 5d a4 3d
       -0.52700603 -0.08060998 -0.116427585 0.08025552
0001d0 9a b7 eb be 3d 54 32 be 59 10 77 bd bb 73 1b bf
       -0.46038514 -0.17414947 -0.060318325 -0.60723466
0001e0 65 e9 ec be 1b 27 b7 be 6d 96 9b be fb e7 9d bd
       -0.46271816 -0.35772023 -0.30388203 -0.077102624
0001f0 43 e1 99 bd 71 2e a4 be bb 6c 87 be bc e7 88 be
       -0.075136684 -0.32066682 -0.26450142 -0.267393
000200 da b5 19 be 55 5d 8d be e0 f5 dc bd 03 f9 86 be
       -0.15010777 -0.2761027 -0.107890844 -0.26361856
000210 65 cb e0 bd f7 a9 ea be 3c 04 af 3d c2 8e 0e be
       -0.109762944 -0.45832798 0.085457295 -0.13921645
000220 9f f9 63 3a d4 2b e5 be d4 f2 11 be 97 01 78 3d
       0.0008696559 -0.4476 -0.14252788 0.06054839
000230 d5 00 b4 bd d2 f8 95 be 46 a3 6d be ff 16 74 be
       -0.08789221 -0.29291397 -0.23206815 -0.23836897
000240 b8 f5 94 bd ea e4 2f bf 92 6e ba be 49 08 05 bf
       -0.0727343 -0.6870867 -0.36412483 -0.5196577
000250 d5 07 59 be bf 29 cb bc 0f 5c 78 be 8a 1d 17 be
       -0.21194394 -0.02480018 -0.24253868 -0.14757362
000260 e2 09 b6 be 12 12 46 be d5 c4 5e bb 49 c0 aa bd
       -0.35554415 -0.19342831 -0.0033991833 -0.08337457
000270 00 dc fe bd ac 1a 37 bf fa b2 f5 3c 17 6c e0 be
       -0.124443054 -0.71525073 0.02999257 -0.43832466
000280 89 11 05 be e1 c5 d6 be be 6f f6 be 04 70 94 be
       -0.1299497 -0.41947845 -0.48132128 -0.2899171
000290 79 06 14 bf 24 22 3d 3c 9d 4a 18 be a4 0e db be
       -0.57822376 0.011543784 -0.14872213 -0.42784607
0002a0 7c b8 0f bf 7c d8 2c be b8 1b 4a bf 29 3b 7c bc
       -0.56140876 -0.16879457 -0.78948545 -0.015394964
0002b0 7c b2 c9 be 77 33 c4 be fb 80 14 be ae 2b c7 3c
       -0.39393985 -0.38320515 -0.14502327 0.02431282
0002c0 19 cf 68 be ae 47 70 bd 8f ec de be a2 3b 15 be
       -0.22735251 -0.05866211 -0.43539855 -0.1457353
0002d0 37 0c 96 be 09 d8 cb bc 2a 8e 8a be 66 96 e8 be
       -0.29306194 -0.024883287 -0.27061588 -0.45427245
0002e0 d0 e3 8e be 1f 74 cd bd 3f f6 a0 be 35 4e c6 bc
       -0.27908182 -0.10031914 -0.3143787 -0.024207214
0002f0 7f 0d 78 be bd 7a 3a bf 93 17 b8 3c 28 2e 0b bf
       -0.24223898 -0.72843534 0.022472179 -0.54367304
000300 9a 5f c6 be 3a 9d 8e be 35 a8 95 be dd 06 6e be
       -0.38744813 -0.2785433 -0.29229894 -0.23244806
000310 10 61 c1 bd 4f 10 9a 3e 16 c2 0c be 51 53 e9 be
       -0.09442341 0.30090567 -0.13745913 -0.45571378
000320 2c f5 f1 be 49 87 80 bd 4c 5b 12 be 53 13 f3 be
       -0.47257364 -0.062758036 -0.1429264 -0.4747568
000330 8a 2d 98 bc 7b 42 9f 3e 57 3f 0f bf 7d 46 03 bf
       -0.018576402 0.31105408 -0.55956024 -0.5127943
000340 18 dc c1 be f0 b2 77 be 87 53 06 bf 87 73 73 be
       -0.3786323 -0.24189353 -0.524712 -0.23774539
000350 f6 bb 69 be aa 02 64 be d0 01 f1 bd cf 49 29 bf
       -0.22825608 -0.22266641 -0.11767924 -0.6612825
000360 c6 1c 71 3c 98 be d1 bd a3 e9 22 be a1 7e 0d bf
       0.014716333 -0.10241431 -0.15909438 -0.55271345
000370 41 21 d6 be 7e 66 04 bf 23 ac 3f be d3 a0 84 be
       -0.41822246 -0.5171889 -0.18718009 -0.2590395
000380 29 0c 7f bd 5d 36 ec bd b3 ae 5c be 51 64 90 be
       -0.062267456 -0.115338065 -0.21551017 -0.28201535
000390 9d 31 1d be d0 72 16 be 7f bd bd bd 57 5e ea be
       -0.15350957 -0.14692235 -0.09264659 -0.457751
0003a0 1e 1b d6 bc 0b bb f7 bd e0 5f f4 bd 84 c0 1a be
       -0.026135977 -0.120962225 -0.11932349 -0.15112501
0003b0 21 45 72 be dc 94 29 be 7d b0 26 be d7 34 d2 bd
       -0.23659183 -0.16560692 -0.16278262 -0.10263985
0003c0 a2 1d 0c bf 99 a7 69 be 47 ef 89 be ae 1f c5 be
       -0.54732716 -0.2281784 -0.26940367 -0.38500732
0003d0 7c 67 54 be 4b 8b b5 be 71 fe d8 be 8d 13 05 bf
       -0.20742601 -0.35457835 -0.42381623 -0.5198296
0003e0 cb cd b0 be e0 d2 87 be e0 5d 14 be 11 4e 35 be
       -0.34532008 -0.26528072 -0.14488935 -0.17705561
0003f0 14 5d 3f bf da 19 98 bd 93 c8 df be 9f 14 d5 bd
       -0.747514 -0.07426806 -0.43707713 -0.10404324

fc2.weight f4 [300, 400]
000000 17 d6 d9 3d 14 29 e8 3e 7a 36 1e 3e 83 0f 0c be
       0.106365375 0.4534384 0.15450469 -0.13677792
000010 7d 8c e6 bd 5f b1 84 3e ae fa 81 bb 15 4c 09 bd
       -0.11257265 0.25916573 -0.003966651 -0.033519823
000020 f1 a5 5a 3e 9c 5c 56 3c ad 13 41 be c6 ee f5 bd
       0.21352364 0.013083603 -0.18855162 -0.12008433
000030 3b de c9 3d e6 80 84 bd 0c 57 06 3d dc 6a 89 3d
       0.0985684 -0.06469898 0.032797858 0.06709835
000040 97 3b 8e bd 78 19 bd be 46 2b 6d 3c d7 e0 86 3d
       -0.069449596 -0.36933494 0.014475649 0.065858535
000050 cc f4 3f 3d db c7 b6 3c 0f f4 16 3d fa 98 d3 bb
       0.046864316 0.022312095 0.036853846 -0.006457445
000060 22 74 91 be 99 5b fc 3d ae 28 51 be ca 11 ff bd
       -0.28408915 0.12322158 -0.20425674 -0.12454565
000070 ef 7a 2d 3d de c4 49 3e 8a d9 d4 bd 2e 13 83 3e
       0.042353567 0.19704005 -0.10393055 0.2560057
000080 7e ad 97 3d 76 65 e5 b9 c6 c3 35 3d d4 3e 29 bd
       0.07406138 -0.00043753878 0.044376157 -0.041319683
000090 dd af f7 bc 9d f0 55 3e f6 11 dc 3c 52 a5 04 3e
       -0.030235225 0.20892568 0.026864033 0.1295369
0000a0 ab 6d a3 3d c3 5d 09 3d a6 17 19 3c d7 42 1b 3e
       0.07979902 0.033536684 0.009344017 0.15162216
0000b0 91 e4 ba bd 83 96 bc bd 35 22 e0 bd a3 77 93 bc
       -0.09125627 -0.09208395 -0.109440245 -0.018001383
0000c0 09 4b d9 bc 58 a5 72 3e 58 55 3c 3b 44 81 a7 bc
       -0.026525037 0.23695886 0.0028737392 -0.02044738
0000d0 57 ca 8d be 8e ad 92 3e 35 0e 61 bc f9 40 b3 3c
       -0.27693436 0.28648037 -0.013736297 0.021881567
0000e0 e4 e1 a9 bd 63 5f 41 3e 5e 3b 1f 3e 02 ac a7 bc
       -0.08295038 0.18884043 0.1554999 -0.020467762
0000f0 92 d3 87 3e 10 ed ba bd 76 0f 46 be 4a d4 08 be
       0.26528603 -0.09127247 -0.19341835 -0.13362232
000100 76 00 ac 3c 12 ff 12 be b2 ec dc 3c 6e fc 02 3e
       0.020996314 -0.14355114 0.026968334 0.12791607
000110 74 4d 72 3e 85 2a 85 be 0e bc 7e 3c 28 6f f4 3d
       0.23662359 -0.26009002 0.015547765 0.11935264
000120 41 19 da 3e 39 d1 b2 be f4 5a 9a bd ae 16 80 3d
       0.42597392 -0.3492525 -0.07536879 0.06254326
000130 15 34 1a ba 34 1a 00 3e fe 4a ad 3e 8b 32 ad bd
       -0.00058823946 0.12509996 0.33846277 -0.08456906
000140 2d 90 24 bd e7 19 99 be 52 ac 51 3e 37 2d c5 bb
       -0.04017656 -0.29902574 0.20475891 -0.006017353
000150 1d e7 c6 bd c5 a6 09 3e bc 21 2a bd de f8 0a 3c
       -0.0971205 0.13442524 -0.041536078 0.008482186
000160 8d b7 33 be f6 c7 b3 bc 21 57 e5 bc cb a7 53 bd
       -0.17550488 -0.021945935 -0.027995648 -0.05167369
000170 20 f2 c3 be c4 02 e3 bd c2 d2 80 3c 76 5c 67 3e
       -0.38270664 -0.11084512 0.015725497 0.22593865
000180 5c 86 8d 3e 4f cd d0 3d 07 9a 63 3c f2 40 92 3e
       0.2764157 0.101954095 0.013891703 0.28565174
000190 12 8b 22 3e 01 c5 f3 3c 15 67 3a 3d a3 5b cc 3d
       0.15873364 0.029757025 0.045508463 0.09978416
0001a0 b1 80 78 bc 1d 1a 55 3e 3c 2d 4e be c6 7d 2c 3e
       -0.015167401 0.20810743 -0.20134443 0.16844854
0001b0 15 9e 1c 3d 4e cc 45 3d 07 16 24 be b5 46 48 bd
       0.038236696 0.048290543 -0.16024028 -0.048895556
0001c0 f4 97 ac bd 01 24 88 be d2 bd 99 bd e9 28 a2 3e
       -0.0842742 -0.2658997 -0.075069085 0.31671837
0001d0 51 f9 38 bc 8e f4 14 bd 85 73 01 3e c1 28 a5 3c
       -0.01128991 -0.036366038 0.12641723 0.020161035
0001e0 b1 83 8c 3d 01 e4 f6 bd 62 f0 af bb dd 25 1f be
       0.06861056 -0.12055207 -0.005369232 -0.15541787
0001f0 05 35 7b bd b9 3f d7 bd df b2 01 3e b9 0b 86 bd
       -0.06132986 -0.10510201 0.1266589 -0.06545205
000200 a1 ca 0d bd ce ed 6a bd af b6 cd bd 72 0f b0 be
       -0.03461707 -0.057355694 -0.1004461 -0.34386784
000210 2e bf c3 3d 64 0e 79 bd 70 0c 5a bd 66 72 0f be
       0.09557949 -0.06080474 -0.053234518 -0.14008483
000220 2c 8d 33 3d 11 f0 be bd e2 4d a2 3e ef e1 98 3e
       0.043835804 -0.09323133 0.31700045 0.29859874
000230 ea 6c 05 be c7 29 d4 bd 96 d6 9c bd a4 1a 0c be
       -0.13029829 -0.10359531 -0.076581165 -0.13682038
000240 2d 1c 7d be 33 8e 96 3d fd 2d ca 3d ed b5 f9 3d
       -0.2471778 0.07351341 0.09872053 0.12192903
000250 de f1 19 3e e4 8e 62 3d e7 0f ff 3e 84 63 d1 be
       0.15033671 0.055312052 0.4981682 -0.40896237
000260 55 bf 09 bd a5 8c be 3e 00 49 0d bd dd 6f 3c 3c
       -0.033629734 0.37216678 -0.034493446 0.01150128
000270 55 04 8e bd b3 2a 39 be ec c7 98 3d fb 83 87 3d
       -0.0693442 -0.18082695 0.07460007 0.0661697
000280 c8 92 03 be 29 bb 4d 3e 37 50 ce 3d b1 1d 03 3d
       -0.12848961 0.20090927 0.100738935 0.032010738
000290 04 e0 77 3c 24 72 82 3d 58 b5 7e 3e d1 bc 83 bd
       0.015129093 0.06369427 0.24873865 -0.06432498
0002a0 ca f0 5a 3a c5 32 1d be 7a 5d 16 3e de 0b b6 3e
       0.00083519204 -0.15351398 0.14684096 0.3555593
0002b0 f8 1e a4 3d 29 19 14 bb a3 4c 3a be c0 eb 04 bc
       0.08013719 -0.0022598004 -0.18193297 -0.008112848
0002c0 b5 29 56 3d 5e ab b4 3e 85 7e a5 bd 58 5f aa be
       0.05228587 0.35286993 -0.08080772 -0.33275867
0002d0 b7 df c5 bd 12 95 ad 3e 11 aa aa 3d ef a9 22 3e
       -0.09661811 0.33902794 0.08333219 0.15885137
0002e0 40 35 2b 3e b7 ef 4d be 37 2e 66 3d 42 f7 16 3e
       0.16719532 -0.20110975 0.056196418 0.14742759
0002f0 42 8c a8 3d 09 e7 a2 3d 5e 41 2c 3e fb 27 8f 3c
       0.08229877 0.07954223 0.1682181 0.017475119
000300 40 d9 82 3d d4 05 5b bc 13 f1 06 3c b2 32 b2 bd
       0.063890934 -0.013368089 0.0082361875 -0.087010756
000310 e2 1a 1a 3c 2e ae c2 3c 02 8a 0d 3d 2f 63 16 bc
       0.009405823 0.023764696 0.034555443 -0.009178921
000320 bf 82 2f bd 18 1e 0d 3e 63 ce 71 3e 94 7c 47 bc
       -0.0428493 0.13781011 0.23613887 -0.012175698
000330 b4 3c df bb bf 45 02 bf b6 d7 c0 bd b1 a2 37 bd
       -0.0068126563 -0.50887674 -0.094161436 -0.04483289
000340 bb f8 b9 bb bf 2d c9 be cb c7 b1 bd 93 b9 8d be
       -0.005675403 -0.39292714 -0.086806856 -0.27680644
000350 ce bd 9d 3d 80 f5 af bd 52 96 ba 3e e8 2f 05 be
       0.07702218 -0.08591747 0.3644281 -0.13006556
000360 f3 dc 81 bd 72 8d 56 bd 58 ed 2a be e8 6e a1 3d
       -0.06340971 -0.052380987 -0.16692102 0.07882482
000370 bf 85 53 3d d2 6a 18 3d ab 47 14 be 65 74 e1 3d
       0.051641222 0.037211247 -0.14480464 0.110085286
000380 cb 61 2a 3d 04 fc a9 bd fe a9 ae be 3a 93 a2 bd
       0.04159717 -0.08300021 -0.3411407 -0.079382375
000390 61 f3 b6 be 8b fd 96 3e ce 00 e4 3d f8 67 14 be
       -0.35732558 0.29490313 0.11132966 -0.14492786
0003a0 f1 13 1e 3e 3b 90 29 bb 1a a6 49 3e cf 07 24 bd
       0.15437295 -0.0025873322 0.19692269 -0.04004651
0003b0 73 8b 4b be 4b 23 ba be b5 ec f6 3c f2 d1 a5 bd
       -0.19877414 -0.3635505 0.030142168 -0.080966845
0003c0 4c f5 06 be 1e f3 18 be 21 c4 52 3d 41 cf 78 3c
       -0.13179511 -0.14936492 0.051456574 0.015186132
0003d0 6d bd ea 3d 4c 77 76 3c fd 19 85 bd ff bd ab bb
       0.11461911 0.015043091 -0.064990975 -0.005241155
0003e0 80 aa 95 bc b2 a4 5f be 69 d0 1d bd fa a3 d2 be
       -0.018269777 -0.2184017 -0.038528834 -0.4114073
0003f0 c2 8e 9d bd 3a 8b 86 3d 9b ad e5 bd 3a 2c 34 bd
       -0.076932445 0.06569524 -0.11214753 -0.04398749

fc2.bias f4 [300]
000000 bc 22 8e 3d 92 41 1a 3c 1d b6 07 3d 27 28 f6 3c
       0.06940219 0.009415047 0.03313266 0.030048443
000010 d2 85 ba ba 36 6e 84 bb c4 7e c7 bd da 0b 70 3c
       -0.0014230555 -0.0040414585 -0.097409755 0.014651263
000020 f1 a0 56 3c 89 e5 83 3d 71 5e 86 3d f4 22 90 bc
       0.013099895 0.06440265 0.06560982 -0.017594792
000030 f4 4f 3c bd df 1f 5d 3c 9d 8a 18 3d d8 e3 19 bd
       -0.045974687 0.013496368 0.037241567 -0.037570804
000040 00 63 48 3d f1 92 2e 3d 76 e4 88 3c ee cf 20 3d
       0.04892254 0.042620603 0.016710501 0.039260797
000050 e4 df 61 3d 37 7b df 3c 68 2a 8d 3c 98 78 53 3d
       0.05514516 0.027280433 0.017232135 0.05162868
000060 3a 65 b5 3c 53 e5 2f 3d dc 9a 87 3c 33 d6 af 3d
       0.022142995 0.04294331 0.016553335 0.08585777
000070 66 fd 7d 3d 08 f7 9c 3d 79 a1 b5 bc a4 d1 f1 bd
       0.062009238 0.07664305 -0.022171723 -0.11807564
000080 7b d1 e2 3c d2 42 3c 3d f2 17 7f 3d 64 2d 6a bd
       0.027687779 0.045962162 0.062278695 -0.057172194
000090 46 37 87 3d 7d 5a bc bd 2f 6e b7 3b 91 d4 a0 3c
       0.066023394 -0.09196947 0.0055978517 0.01963261
0000a0 f5 79 92 bd b1 2f 92 3b 15 19 c6 bc 44 02 39 bb
       -0.07152168 0.0044612517 -0.024181882 -0.002823011
0000b0 97 8a 9d ba 27 f1 31 3c cc b6 25 3c 74 16 b9 bb
       -0.0012019452 0.010860718 0.010114383 -0.0056484286
0000c0 01 33 5a bc 02 25 0d 3d 13 7c 96 bd c9 bf b6 bd
       -0.013317824 0.03445912 -0.07347884 -0.08923299
0000d0 49 07 3e bc 4a 8f eb bc b2 35 b9 3c e9 d1 9d 3a
       -0.011598417 -0.028754849 0.022608612 0.0012040708
0000e0 dc 28 ab bd 0c 16 d8 3c 42 c9 44 bd e9 8b c8 3d
       -0.08357403 0.0263777 -0.048043497 0.09792311
0000f0 e8 89 4d bd fc d7 7c 3d 71 ef 28 bc df f9 3f bd
       -0.050180346 0.061729416 -0.0103109935 -0.046869155
000100 be 43 ae bd bd c9 8d bd c5 9a 37 3d 2f 7a 24 bd
       -0.085090145 -0.06923244 0.044825334 -0.040155586
000110 f9 7d bb 3d 55 4d 85 3b c2 ff c3 bd ea 1f 6d bc
       0.09154887 0.0040680566 -0.09570266 -0.014472941
000120 52 4b 84 bc e9 d1 c8 3c fa f8 32 bd 84 ef 8b 3d
       -0.016149197 0.024514155 -0.043694474 0.06832793
000130 cc d8 1f bd 73 28 2d bd f5 74 be 3b 3f 7a f6 3c
       -0.039025113 -0.042274904 0.005812282 0.030087588
000140 29 e3 7a 3d c9 19 be 3a 97 fa cd 3c 3f 64 ad bc
       0.061251793 0.0014503534 0.025143905 -0.021165965
000150 77 4b 58 3c c6 d3 6b bc 27 0e ba bc 48 a6 4b 3d
       0.013201586 -0.014393752 -0.022711826 0.049719125
000160 74 37 0d bc 55 ef 60 bc 35 ba a0 3d 55 5e 33 3d
       -0.008619178 -0.013728936 0.07848016 0.043791134
000170 35 0f bc 3a e6 4f 33 bc 95 c2 a1 bc 0d dc d8 3c
       0.0014347794 -0.010944342 -0.019746104 0.026472116
000180 e4 79 0e bc 97 1a 5a bd e5 1e 9e 3d bf c7 0c bc
       -0.008696053 -0.053248014 0.077207364 -0.008592545
000190 49 99 9d bd 29 71 59 3d 36 90 bc bc b6 97 b7 3c
       -0.076952524 0.053086434 -0.023017984 0.022411209
0001a0 54 d2 19 bb a4 50 8c bd da 71 07 be c8 bf fe 3b
       -0.0023471313 -0.068513185 -0.13227025 0.007774327
0001b0 da 57 0e bd aa 33 3a ba 8a f4 83 bd 64 56 b6 bc
       -0.03475175 -0.00071030355 -0.064431265 -0.022257991
0001c0 93 eb 17 bc 32 0e e6 3c 81 84 dc 3b a7 5c c4 3c
       -0.009272474 0.02808294 0.006729663 0.023969961
0001d0 c8 ca bb 3c db 28 b6 3c c6 91 a1 bd 77 a7 cb 3c
       0.022923842 0.022236278 -0.07889132 0.024860127
0001e0 62 85 3d 3c 7f cb 6a 3d e9 75 61 3d c7 0a a7 bd
       0.0115674455 0.057322975 0.05504409 -0.081563525
0001f0 c3 02 da bc 35 29 28 3d d8 12 38 bd 36 c0 13 3d
       -0.026612645 0.041054923 -0.044939846 0.03607198
000200 1c 70 5a bd 83 29 4a bd 35 c7 18 3c c3 c7 53 be
       -0.053329572 -0.049355995 0.009324838 -0.20681672
000210 6c 27 96 3c 19 1b b4 bd be 52 6e bd 02 3c 32 bd
       0.018329345 -0.08794231 -0.058184378 -0.04351426
000220 6f 2d 5e bd 89 c4 78 bd 45 73 bb bc 73 ad 61 3c
       -0.054242548 -0.060734306 -0.022882113 0.013774264
000230 f7 1d 6c 3c 83 a2 17 bb 04 c8 30 3d 04 0c 03 3d
       0.014411441 -0.0023137636 0.0431595 0.03199388
000240 d9 80 34 3d 8d 91 6f 3e 3e f5 ee 3d f6 42 98 3d
       0.04406819 0.23395367 0.1166787 0.07434647
000250 6f 02 e8 3c aa e1 8c 3d 04 cf 59 bb ab 8e 6f bd
       0.028321473 0.068789795 -0.0033234963 -0.05848567
000260 bf ab 33 bc c4 a3 90 3b e8 69 f9 3c 23 cd aa 3c
       -0.01096624 0.0044140536 0.030446008 0.02084977
000270 79 dd 0c bc 49 29 15 bd ba 88 54 3c 1a 24 12 bd
       -0.008597725 -0.036416326 0.012972051 -0.03567896
000280 cf d6 c7 bb 0b d3 7a bc a8 79 3b 3d 2b 4e 2b 3d
       -0.006098605 -0.015309106 0.045770317 0.041822594
000290 cd 98 dc 3a f8 d3 4a 3d 51 64 9f 3c 13 ca f8 bc
       0.0016830206 0.049518555 0.019457014 -0.030369794
0002a0 5f 69 99 3b 21 eb c9 3c bb 9b 3b 3c 23 f2 5f bd
       0.0046817507 0.024648251 0.011450703 -0.05467428
0002b0 5f a0 95 3d e3 b4 53 bd 68 d5 80 bd aa d4 ce ba
       0.07305979 -0.05168618 -0.06290704 -0.0015779932
0002c0 4c 9f 03 3d 3c fc 0c 3c 2d 9d 28 bd 2e 77 dd 3b
       0.03213434 0.008605059 -0.04116552 0.006758592
0002d0 1e 6b de 3c e5 70 04 bc 5b d7 01 3b 34 e7 15 bd
       0.027150687 -0.008083557 0.00198122 -0.036597446
0002e0 08 dc dc 3b 1e b3 3b 3d b5 c5 95 bc 72 17 9c 3d
       0.006740097 0.045825116 -0.01828275 0.07621659
0002f0 97 e2 77 3d 8f 59 79 bd b6 40 3a bd 9b aa 30 3c
       0.060518827 -0.060876425 -0.04547187 0.010782863
000300 04 f2 83 bd 8c 6a 45 3d de 40 45 bd 66 c5 e3 bb
       -0.06442645 0.048197314 -0.048157565 -0.006951022
000310 d7 29 90 bc 86 57 3a 3d 69 a6 c6 39 a3 a2 5e be
       -0.017598076 0.045493625 0.00037889488 -0.21741728
000320 91 05 c3 3a de c8 6c bd e9 5f e6 3d 20 93 22 3d
       0.0014878978 -0.05780875 0.11248762 0.03969109
000330 fa 5f 2c bc 17 72 52 bb 1d 6b 4d 3d ff fc 3c 3d
       -0.0105209295 -0.003211146 0.05015098 0.046139713
000340 0f 6b 84 3d 94 57 86 3d 3e ac 3a bd 02 1e 4a 3d
       0.06465732 0.06559673 -0.04557442 0.049345024
000350 a9 92 f4 bc 7e bd f3 3a 89 42 d7 bc fc 32 96 3c
       -0.02985509 0.0018595902 -0.026276844 0.018334858
000360 df 37 c0 b9 2b 50 4b bd 78 c8 e5 bc 4f b2 75 3d
       -0.0003666272 -0.049637 -0.028049693 0.0599845
000370 ac a8 2b 3e 4b 75 3a 3c f4 37 4b bd 27 38 76 3d
       0.16763562 0.011380504 -0.049613908 0.060112145
000380 43 de 62 bd 16 71 c9 3d f6 3e 47 bd 66 93 31 bd
       -0.055387747 0.098360226 -0.04864403 -0.04335346
000390 fa 8b 82 bc 4d 1d 8c bc b1 80 26 3d 1b 42 a1 bd
       -0.015935887 -0.017103815 0.040650073 -0.07873937
0003a0 45 84 56 3d 04 21 17 bc f0 e8 07 bc f6 d7 c0 3c
       0.052372236 -0.00922418 -0.008295283 0.023540478
0003b0 87 ed 95 3d 21 90 02 3d 50 06 ad 3d 7d ca 22 bd
       0.07320695 0.031875733 0.0844847 -0.03974389
0003c0 17 94 f3 3c ba cf b5 3d 6f 26 79 3c e2 85 21 be
       0.0297337 0.08877511 0.015206917 -0.15773728
0003d0 c7 35 f7 bd 48 9b b5 bc 10 3f 63 3d 8a 14 95 3d
       -0.12070804 -0.02216877 0.055480063 0.07279308
0003e0 4f 8d 34 be e5 5a af bc c7 ec 4a 3d d5 ec 64 3a
       -0.1763203 -0.021405647 0.049542215 0.00087328005
0003f0 3a 81 00 3d f8 33 5e 3e 7a a4 4d 3c 05 9d 16 3d
       0.03137324 0.21699512 0.012551421 0.03677084

bn2.weight f4 [300]
000000 9d 5b b0 3e cb 3e 90 3e c9 49 94 3e 73 f1 b1 3e
       0.34444895 0.28172907 0.28962544 0.34754524
000010 61 1c c1 3e c7 b3 00 3f 03 94 0a 3e c8 0f 33 3e
       0.37716964 0.5027432 0.13533024 0.17486489
000020 8c c7 b0 3e 52 6e a4 3e 62 1d 64 3e 73 33 15 3e
       0.34527242 0.32115418 0.22276834 0.14570408
000030 1f 32 3d 3e 11 0e b0 3e 0b 27 f3 3e 9d f9 83 3e
       0.18476151 0.34385732 0.47490725 0.25776377
000040 e4 54 9e 3e 70 6c 86 3e 79 6b aa 3e 97 45 51 3f
       0.3092414 0.26254606 0.3328512 0.8174681
000050 b7 66 58 3e a7 7c ed 3e f8 a6 5b 3e 25 19 6c 3e
       0.21132933 0.46384165 0.21450412 0.23056467
000060 98 14 94 3e b3 d9 ac 3e ae 71 70 3e 6e b7 1b 3e
       0.28921962 0.3375984 0.23480865 0.15206692
000070 f4 a8 b0 3e ab 08 0e 3f 38 68 d5 3e b2 fb cf 3e
       0.345039 0.55481976 0.41681075 0.40621716
000080 63 4d 79 3e 1e af 90 3e cc d1 ed 3e 85 3d 9d 3e
       0.24345927 0.28258604 0.46449125 0.30710998
000090 8b ff a6 3e 8a 50 e6 3e 3f a7 89 3e 5c 1d 65 3d
       0.3261684 0.4498332 0.2688541 0.055936202
0000a0 ee fb 17 3e 75 8e 08 3f 1f 18 63 3e f1 81 80 3e
       0.14842197 0.5334237 0.2217717 0.25099137
0000b0 50 a1 90 3e a8 68 ae 3e db af 2e 3e cc 7c c5 3e
       0.28248072 0.3406422 0.17059271 0.38571775
0000c0 a4 7f a4 3e 85 84 48 3e 84 93 7b 3e 2a 1c 00 3f
       0.32128632 0.19581802 0.24567991 0.50042975
0000d0 95 80 c7 3e a3 5e 0c 3f 96 2a 66 3e bc 70 97 3e
       0.38965288 0.54831904 0.22477183 0.29578197
0000e0 29 dc 76 3e f9 0a a2 3e a8 f9 79 3e f1 d3 49 3f
       0.24107422 0.31648996 0.24411643 0.7883902
0000f0 04 88 52 3f dc d3 b1 3e 63 21 e7 3d 58 cc a5 3e
       0.82238793 0.34731948 0.11285665 0.32382464
000100 cd 2d 94 3e 5a c2 60 3e 99 4c 9d 3e 88 ec 8b 3e
       0.28941193 0.21949139 0.30722502 0.27328897
000110 98 d4 d3 3e c4 71 40 3f b2 a3 26 3f 3e fd a9 3e
       0.41373134 0.7517359 0.6509353 0.3320102
000120 e7 25 72 3e 18 54 41 3e 41 f9 84 3e cc b1 65 3e
       0.23647271 0.18879735 0.25971416 0.22431105
000130 77 01 0a 3e 59 1d 4f 3e 3b 1f 25 3e c0 76 4b 3e
       0.13477121 0.20226039 0.16125195 0.19869518
000140 7d 12 42 3f f7 78 02 3f 44 5d 8e 3e ab 8d a4 3e
       0.7580946 0.5096583 0.2780553 0.32139334
000150 62 13 93 3e 6e b6 42 3e a8 1f 49 3e ac e0 93 3e
       0.28725725 0.19014904 0.19640982 0.2888235
000160 d2 9d 76 3e f1 e6 70 3e f5 c2 9b 3e 39 07 cc 3e
       0.24083641 0.23525597 0.30422178 0.3984926
000170 95 78 f1 3e ff 40 5d 3e 91 b4 98 3e 70 74 6a 3e
       0.4716231 0.21606825 0.2982526 0.2289598
000180 b1 07 2a 3e 35 9e 6b 3e d6 bb 69 3e 7e e7 86 3e
       0.16604497 0.2300957 0.2282556 0.2634849
000190 d2 a4 6b 3e 39 2e 39 3e 3a 80 14 3e ca 8a 47 3e
       0.23012093 0.18084039 0.1450204 0.19486538
0001a0 aa 7d 4d 3e 74 f9 ab 3e c2 25 9c 3d d1 c9 85 3e
       0.20067468 0.33588755 0.07624389 0.26130536
0001b0 f8 18 17 3e fc 6d 56 3e 90 be ca 3e 21 96 ad 3e
       0.14755619 0.20940393 0.39598513 0.33903602
0001c0 bd 76 6e 3e a0 94 4d 3e 9a c0 56 3e 9c 39 ae 3e
       0.23287483 0.20076227 0.20971909 0.34028327
0001d0 9f 5f 83 3e 19 47 53 3e f8 80 d0 3e 69 3f 92 3e
       0.2565889 0.2063259 0.40723395 0.28564003
0001e0 87 90 2f 3e 8f be 9d 3e bd 14 b3 3e e8 fe 23 3e
       0.17144977 0.30809447 0.3497676 0.16015208
0001f0 dd ae 9e 3e e2 54 3d 3e b3 18 b8 3e 11 54 8f 3e
       0.30992785 0.18489411 0.35956344 0.27993825
000200 56 b1 d4 3e be 7c 78 3e 3a ed 79 3e e0 65 ea 3d
       0.41541547 0.24266335 0.24406901 0.11445212
000210 69 cd 9d 3e 02 05 6c 3e 3d 44 6d 3e 0a 56 24 3f
       0.30820778 0.23048785 0.23170562 0.64193785
000220 7a 64 a4 3e 5f fa bd 3e bb ce 79 3e a1 2b 30 3e
       0.32107908 0.3710508 0.24395268 0.17204143
000230 77 ac 0f 3e a7 99 61 3e 3f 0f 8d 3e 2e ae 3e 3e
       0.14030634 0.2203127 0.27550694 0.18621132
000240 09 ef 5c 3e 87 42 e6 3d fb c8 52 3d f2 8d 84 3e
       0.2157556 0.11243158 0.0514612 0.25889546
000250 83 96 52 3e 1f c3 90 3e 93 ae 70 3e b0 d1 96 3e
       0.20565228 0.28273866 0.23504095 0.29456854
000260 17 a5 8a 3e 78 26 93 3e 73 f9 97 3e ce bb 88 3e
       0.2707908 0.28740287 0.29682502 0.26705784
000270 79 cf 91 3e 62 ef 84 3e 92 13 a6 3e 5b e0 1e 3e
       0.28478602 0.25963885 0.32436806 0.15515272
000280 b2 09 a5 3e f9 9b 8e 3e c2 a4 28 3e e2 06 1a 3e
       0.3223396 0.27853373 0.164691 0.15041688
000290 ad 67 4f 3e 4a 10 54 3e 21 88 83 3e 49 e5 ba 3e
       0.20254393 0.20709339 0.25689796 0.36503056
0002a0 4c a4 59 3e cf 93 40 3f e8 b7 78 3e ef 70 e6 3d
       0.2125408 0.7522554 0.24288905 0.11252009
0002b0 f4 a5 3a 3e 69 df 89 3e e9 1e 10 3e f8 6a 0e 3f
       0.18227369 0.2692826 0.14074291 0.5563197
0002c0 b5 60 68 3e e8 85 88 3e 19 9c ba 3e 49 e0 85 3e
       0.22693141 0.26664662 0.36447218 0.26147678
0002d0 e5 3d a2 3e 8c 8a 2e 3e d7 77 3b 3e 2c e3 3e 3e
       0.31687847 0.17045039 0.18307434 0.18641347
0002e0 5b a3 f1 3e 60 ed 74 3e 02 82 79 3e e1 09 59 3e
       0.47194943 0.23918676 0.24366 0.21195175
0002f0 26 7f b7 3e 93 b5 1a 3e b6 fa 39 3e ca 00 77 3e
       0.35839194 0.15108328 0.18162045 0.24121395
000300 b6 c4 01 3f a4 db 80 3e 34 11 42 3e d2 0d a8 3e
       0.5069078 0.25167572 0.18951875 0.32823044
000310 bf 42 c2 3e ff 1c c4 3e 58 90 9d 3e 5d 30 e2 3d
       0.37941548 0.38303372 0.30774188 0.11044381
000320 57 93 a5 3e ae 47 6d 3f 2a 04 2a 3e 2b 9a 21 3e
       0.32338974 0.926875 0.16603151 0.15781467
000330 81 3c 09 3e 63 b9 c7 3e 7a 01 83 3e 3f c3 81 3e
       0.13401987 0.39008626 0.25587064 0.25344273
000340 ca 63 88 3e 10 09 21 3e 26 91 e2 3d d1 7b ff 3e
       0.26638633 0.15726113 0.11062841 0.49899152
000350 9a fd 8e 3e c0 f5 3a 3e f1 88 2e 3e 4d 5f 88 3e
       0.27927858 0.18257809 0.17044427 0.2663521
000360 2f 2a 19 3f 3e e9 ea 3d df fa b4 3e 32 ac fa 3e
       0.5982999 0.11470269 0.3534765 0.489595
000370 cf 78 af 3d e4 a0 a5 3e 4c ed 8d 3e ec e5 ff 3d
       0.08567964 0.32349312 0.27720106 0.12495026
000380 22 b2 a2 3e f3 f6 f1 3b 1c 4d ed 3e fb 34 ab 3e
       0.3177653 0.007384175 0.46347892 0.33438858
000390 2e 22 23 3f a9 58 94 3e d9 e5 d2 3e d7 ca 33 3e
       0.6372403 0.28973892 0.41190985 0.17557846
0003a0 c4 1e c1 3e b4 ed a7 3e ec 9e 5f 3e 9c c5 a4 3e
       0.37718785 0.3279854 0.21837968 0.32182014
0003b0 a7 ef 57 3f a7 96 98 3e 84 54 5a 3e d4 11 4c 3e
       0.84350055 0.2980244 0.21321303 0.19928676
0003c0 99 de 67 3e 0b 58 68 bc 4f 92 af 3e dd 9c 02 3f
       0.22643508 -0.014181147 0.34291312 0.51020604
0003d0 79 2c 33 3e de 6f cb 3e 57 11 3c 3e 1d a3 61 3e
       0.17497434 0.39733785 0.1836599 0.22034879
0003e0 dc f6 f0 3d 48 da 64 3e b1 95 20 3e e1 c2 a1 3e
       0.11765835 0.22348893 0.15682103 0.31593993
0003f0 ec c0 c3 3e e0 bc de bb e0 87 61 3e c9 00 81 3e
       0.38233125 -0.006797418 0.22024488 0.25195912
