Zadanie3/srcV2/models/Best_model_VEP_exp_prob_01_exploration_50/target_actor_network.pth (torch, 507007 bytes, 10 tensors)

fc1.weight f4 [400, 8]
000000 9b 01 2a be a7 6f 2a 3e a8 79 fe bd 1b 65 85 be
       -0.16602175 0.16644154 -0.12425548 -0.260537
000010 4a 88 49 3e 27 09 33 3e 57 53 7f 3e 58 5e 2f 3e
       0.19680896 0.1748396 0.24934135 0.17125833
000020 cc 8f 1b be b7 e6 3f 3e 5b 1e de bd a4 be 92 be
       -0.15191573 0.18740354 -0.108456336 -0.28661072
000030 26 26 66 3e b6 86 0b 3e 3c c6 fb bd 4f 75 39 be
       0.2247549 0.13625607 -0.122936696 -0.18111156
000040 a7 df b5 bd 60 f7 a5 3e e4 47 d9 bd 17 ac e2 be
       -0.08880549 0.32415295 -0.10609415 -0.4427192
000050 dc ef 35 bd f6 53 3c bd bc ff 85 bd 9e 44 64 3e
       -0.0444182 -0.04597851 -0.06542918 0.222918
000060 06 de 2a bc 56 47 1f 3e 20 e3 d2 3d ee ea 42 bd
       -0.010428911 0.15554556 0.10297227 -0.047587328
000070 6d 39 66 be fb 64 59 be 73 c4 eb bd 26 da fe bc
       -0.22482844 -0.21229927 -0.11512079 -0.03110988
000080 89 72 53 be 01 bf 70 3e 0d 9f 3c be ee 04 dc be
       -0.2064916 0.23510362 -0.18420048 -0.4297251
000090 24 c0 58 bd 2d 8d 73 3e af b1 16 3d 21 ea 81 3e
       -0.052917615 0.23784323 0.036790546 0.2537394
0000a0 67 0e dd bd e5 95 78 3e 04 b2 d0 bd 76 5f 86 be
       -0.10793763 0.2427593 -0.10190204 -0.26244706
0000b0 97 de 15 3e 81 10 af 3d 36 2d 1f 3e 27 6b 3b 3e
       0.14635693 0.0854807 0.1554459 0.18302594
0000c0 fb 19 80 be cc 50 d9 3e d1 d1 72 be 09 db 3f bf
       -0.25019822 0.42444456 -0.23712851 -0.74943596
0000d0 6c b7 5f 3e 52 17 c6 3d f6 97 3e 3c a6 a3 b0 3e
       0.21847314 0.09672417 0.01163291 0.34499854
0000e0 e1 9c 21 be 9f 20 7e 3e c2 c8 6a bd fa 09 89 be
       -0.15782501 0.24817131 -0.057320364 -0.26765424
0000f0 a7 7f 88 bc 7d fc d4 bd 61 2e 11 bb 58 91 31 3e
       -0.016662432 -0.10399721 -0.0022152888 0.173406
000100 0a 69 c4 bc 46 d3 37 3e 32 79 1f be 9d 0b 82 be
       -0.023975868 0.17951688 -0.15573576 -0.25399485
000110 4a b0 16 3e 67 76 48 3d 3e 24 74 3e 03 88 61 3d
       0.14715686 0.048941042 0.2384195 0.05506135
000120 58 b2 c3 bd f8 35 57 3e 31 ae 6d be e1 91 36 be
       -0.09555501 0.21016681 -0.2321098 -0.17829086
000130 26 1f 75 3e 00 e2 3c 3e 6d 16 2c 3e b7 9b c1 3c
       0.23937663 0.18445587 0.1680543 0.023633821
000140 ab 32 6a bd f3 58 45 3e 3f 62 cd 3d 88 86 a0 bc
       -0.057177227 0.19272213 0.100285046 -0.0195954
000150 fb 04 0b be 04 46 65 be 20 10 b1 3d 82 2c 5d be
       -0.13576119 -0.2238999 0.08645654 -0.2159901
000160 9e e8 86 bc 4c 6d 1c 3e be 07 de 3d 97 99 f1 bc
       -0.016468342 0.15276068 0.108413205 -0.029492183
000170 8a 16 73 be 47 b7 56 be 42 20 f3 bd aa 35 5f bd
       -0.23739067 -0.20968352 -0.11871387 -0.054494537
000180 f8 ab e5 bd f9 4b 88 3e 74 b2 0a be e2 81 a2 be
       -0.11214441 0.26620463 -0.13544637 -0.31739718
000190 b8 38 07 3e f9 b5 ce 3d fa cb 96 bc d3 c5 4f 3e
       0.1320523 0.10093302 -0.01840781 0.20290308
0001a0 49 f2 6e 3c 61 79 6b 3e e2 31 67 be 88 10 ee 3d
       0.0145841325 0.22995521 -0.22577623 0.11624247
0001b0 b6 83 75 3e cb c1 b1 3c b8 f1 0f 3d 04 22 36 3e
       0.23976025 0.021698853 0.03514263 0.17786413
0001c0 2d 1a 1b 3e e6 0a 68 3e 6e 2f 4d be 3f 24 a3 bd
       0.15146704 0.22660407 -0.20037624 -0.07965898
0001d0 6f ee f1 3c 83 0a 05 be a8 3e ef 3c 60 4d 9e 3d
       0.02953264 -0.12992291 0.029204682 0.07729602
0001e0 6b d8 3c be 3e ee 96 3e d2 fc 15 be e0 82 c6 be
       -0.18441932 0.2947864 -0.14647225 -0.38771725
0001f0 f4 49 b9 3d 90 07 be 3d 05 b7 02 bd e8 6c ad 3e
       0.090473086 0.09278786 -0.031912822 0.3387215
000200 a2 01 b9 bd 94 99 58 3e 38 fc 17 3d d2 3c 65 be
       -0.090335146 0.21152335 0.03710577 -0.22386482
000210 ae 7b 60 bd 13 11 bc 3d b7 26 c5 bd bf fc 7e 3e
       -0.05480545 0.09182944 -0.09626525 0.24901102
000220 7e c2 8d bd 6c 57 47 3e 04 97 d9 3d 11 68 09 bd
       -0.06921862 0.19466943 0.10624507 -0.03354651
000230 4c 88 0d be 2f 6b fa bd 7b 25 1e be 8a 4a b5 3c
       -0.13821524 -0.12227475 -0.15443985 0.02213027
000240 64 6a d3 bd a5 2e 61 3e 28 6c aa bd a2 d6 8d be
       -0.10323027 0.2199045 -0.083214104 -0.27702814
000250 3f f6 c4 3d a3 49 b8 3d 74 2b 40 3c c1 ac 29 3e
       0.0961728 0.0899842 0.01172911 0.16569807
000260 81 65 e5 bd 48 9d 85 3e 56 5c d9 bd 04 c3 9c be
       -0.11201001 0.2609656 -0.10613315 -0.30617535
000270 b9 2f df 3d 77 d9 e7 3d 3c af 7f bd bd 73 74 3e
       0.10897774 0.11320775 -0.062422976 0.23872276
000280 85 9b 09 be 81 a2 7b 3e 83 9d d8 bd a1 eb a7 be
       -0.13438232 0.24573709 -0.10576918 -0.32796958
000290 44 74 9a 3d bd 30 9a 3d ba c5 f9 3c a9 54 94 3e
       0.07541707 0.07528827 0.030489791 0.2897084
0002a0 87 75 d6 3d ca c0 dd 3d b6 a4 06 bd fd 65 bd be
       0.10471635 0.10827787 -0.032871924 -0.36991873
0002b0 c0 96 7e be d0 1c 66 be 46 12 d3 be d3 3c 67 be
       -0.24862194 -0.22471929 -0.4122488 -0.22581796
0002c0 88 f6 e3 bd fd 5a a6 3e 0f 05 04 be f1 10 1e bf
       -0.111310065 0.32491294 -0.12892555 -0.617446
0002d0 f9 b0 d5 3d ea 9b ff 3d b1 ae 97 bd 83 17 b1 3e
       0.104341455 0.1248091 -0.074063666 0.3458825
0002e0 97 d7 cf bd 5c 2c 65 3e e5 16 b1 bd e0 b2 a0 be
       -0.101485424 0.22380203 -0.08646945 -0.3138647
0002f0 2e 53 8c bd cc 34 8f bd 60 be 9f bd 84 eb 48 3e
       -0.06851803 -0.06992492 -0.07799983 0.19621092
000300 14 56 14 be b0 1e 26 3e de 7b 12 bd 35 28 92 3d
       -0.14485961 0.16222644 -0.03576266 0.07136575
000310 31 6d 2c bc 69 43 21 be 00 27 ff bd b6 f9 ba bd
       -0.01052408 -0.15748371 -0.124586105 -0.0912966
000320 cf 39 14 be 33 65 42 3e e1 1e 67 bd 97 9e 3d be
       -0.14475177 0.18983917 -0.056425933 -0.18517528
000330 9a 26 f5 3d 0c 23 ba 3d 51 17 b7 bd 00 7c 6a 3e
       0.11970253 0.09088716 -0.08939994 0.22898865
000340 b5 98 dc bd 49 13 48 3e 66 c0 bf 3d 8a 50 96 3d
       -0.10771314 0.19538607 0.09362869 0.0733958
000350 fc 21 b4 bc 7b 7d 2d be 3c 98 27 3e eb 31 3b be
       -0.021988861 -0.16942398 0.16366667 -0.18280761
000360 19 9a 50 be 2a 25 e5 3d c1 92 30 be 5a 21 fc be
       -0.20371284 0.11188729 -0.17243482 -0.49244195
000370 2b e8 5c 3d e6 62 1c 3e ef 5d eb be eb f9 94 be
       0.05393235 0.15272102 -0.45970103 -0.29096922
000380 b2 28 ef bd 63 cc a4 3e 3e c1 34 be 8f 93 cc be
       -0.11677684 0.32187185 -0.17651841 -0.39956328
000390 a3 71 24 3e f9 15 14 3e 02 e3 a6 bc cb 23 97 3e
       0.16058974 0.14461507 -0.020371918 0.29519495
0003a0 39 d6 05 be 6b 94 59 3e 31 06 19 be 38 b0 a8 be
       -0.1307 0.21248023 -0.14943768 -0.32946944
0003b0 1c 66 b6 3e 34 c5 c3 3e a4 da 55 3e 1a ae 29 3d
       0.35624778 0.38236392 0.20884186 0.0414258
0003c0 9c 95 8b bc 6e 52 8b 3d 19 91 da bd 10 e2 d5 be
       -0.017039113 0.068028316 -0.106722064 -0.41774035
0003d0 d2 d5 9f 3e 1c 1b d4 3e 86 5b 51 be 38 41 ad 3e
       0.3121782 0.41426933 -0.2044507 0.3383882
0003e0 43 4c 52 be 93 ca 27 3e 67 39 17 be ff 6d 86 be
       -0.20536904 0.1638587 -0.14767991 -0.26255795
0003f0 ed fb 2c 3e 01 af 83 3d ea 0f b2 3e ad d1 14 3d
       0.16892977 0.06429864 0.34777766 0.036332775

fc1.bias f4 [400]
000000 03 60 4f 3e a2 4f 38 3e 6e 9f a9 3e 9c df 58 3e
       0.2025147 0.17999128 0.33129448 0.2117905
000010 b7 31 85 3e 91 c6 78 3e 02 49 e1 3e 02 9e 7d 3e
       0.26014492 0.24294497 0.44001013 0.24767306
000020 76 c0 28 3e 11 38 50 3e 5f a2 35 3e 98 8b 5b 3e
       0.16479668 0.20333888 0.17737721 0.2143997
000030 83 93 9e 3e de 4b 0e 3e 40 94 5a 3e 92 df 9f 3e
       0.30971918 0.13896129 0.21345615 0.31225258
000040 2e d1 6a 3e d6 76 64 3e 4f 56 54 3e 15 a2 87 3e
       0.22931358 0.22310957 0.20736049 0.26490846
000050 50 d3 83 3e cc c6 0e 3e 00 33 c8 3e 75 bc 60 3e
       0.25747156 0.13943022 0.3910141 0.2194689
000060 01 3a ec 3d a0 61 91 3e 35 3b 22 3e 4a 30 10 3e
       0.11534501 0.28394794 0.15842898 0.14080921
000070 4f 0d b9 3e 73 9e 05 3e ed 95 19 3e 2f b7 59 3e
       0.36142966 0.13048725 0.14998598 0.21261285
000080 fb 0e 7e 3e 07 ed 77 3e 5e 85 72 3e 8e cb 83 3e
       0.24810402 0.24211513 0.23683688 0.25741237
000090 e6 17 86 3e 79 5f 6a 3e 23 f0 9e 3e f6 bf a6 3e
       0.26190108 0.22887982 0.31042585 0.3256833
0000a0 51 8d 3e 3e bd a3 88 3e 85 f8 89 3e 1b f1 2d 3e
       0.18608595 0.26687422 0.26947418 0.16986506
0000b0 83 8a b2 3e ad 2f 4b 3e e4 e1 27 3e 98 81 82 3e
       0.348713 0.19842406 0.16394764 0.25489497
0000c0 1f cf 83 3e 56 7f 83 3e 49 28 59 3e cc ae 95 3e
       0.25743958 0.25683087 0.21206774 0.29234922
0000d0 e2 08 3a 3e 68 15 15 3e 57 5e 1b 3e 84 f8 32 3e
       0.18167451 0.14558947 0.15172707 0.17477614
0000e0 02 ef 77 3e 5c b1 6e 3e c3 2c 6b 3e 97 c5 14 3e
       0.24212268 0.23309845 0.22966294 0.145285
0000f0 dd 02 58 3e af 18 59 3e de 86 68 3e f5 8f b3 3e
       0.21094842 0.21200822 0.22707698 0.35070768
000100 82 8b 92 3e d8 f0 34 3e 51 0a 78 3e c5 57 82 3e
       0.2862206 0.1767 0.24222685 0.25457588
000110 f2 c6 12 3e 24 1e 3d 3e 7b 1f 92 3e 2d bb 29 3e
       0.14333704 0.18468529 0.28539643 0.16575308
000120 6f 2a 75 3e 19 da 1f 3e e6 bc 68 3e 00 92 41 3e
       0.23941968 0.15610541 0.22728309 0.18903351
000130 82 25 95 3e bc b4 6f 3e 28 0b 14 3e 84 06 e6 3e
       0.2913018 0.23408788 0.14457381 0.44926846
000140 75 61 22 3f f0 4f e5 3d af 40 a0 3e 75 92 9d 3e
       0.6342996 0.111968875 0.3129935 0.307758
000150 57 a2 52 3e ff 9b 46 3e 26 01 6a 3e 17 8e aa 3e
       0.2056974 0.19395445 0.22852 0.3331153
000160 a3 c0 49 3e 61 82 3c 3e e6 ea 47 3e 4a 93 3b 3e
       0.19702391 0.1840911 0.195232 0.18317905
000170 5e 73 5c 3e 27 79 df 3d 9a 06 83 3e 9e c8 80 3e
       0.21528384 0.1091178 0.25590974 0.2515306
000180 bf d5 16 3e d1 33 a1 3e 53 b5 83 3e 1d 54 63 3e
       0.14729975 0.31484845 0.25724277 0.22200055
000190 59 f1 4b 3e d4 54 49 3e b0 ad 96 3e 92 a7 5d 3e
       0.19916286 0.19661266 0.29429388 0.21645954
0001a0 09 c2 14 3e c6 cc 64 3e 41 ca 58 3e 44 9b 13 3e
       0.14527144 0.2234374 0.21170904 0.14414698
0001b0 e8 b6 5f 3e fb df a0 3e 7e 96 69 3e 9a 34 84 3e
       0.21847117 0.31420884 0.22811314 0.25821382
0001c0 0e 06 92 3e a9 b3 2a 3e a6 96 48 3e 68 6c 81 3d
       0.28520244 0.16670097 0.19588718 0.06319505
0001d0 2b 10 90 3e bf e1 1c 3e 72 06 50 3e 5d d5 9e 3e
       0.28137335 0.1532049 0.20314959 0.31022158
0001e0 88 a2 96 3e 08 76 81 3e c6 8a 73 3e f8 14 18 3e
       0.29420877 0.25285363 0.23783407 0.14851749
0001f0 e6 9b 4e 3e d0 43 7f 3e 5e 93 46 3e 49 73 2e 3e
       0.20176658 0.24928212 0.19392154 0.17036165
000200 b8 86 51 3e 62 d6 3a 3e c1 20 16 3e ee dc 26 3e
       0.20461547 0.18245843 0.14660932 0.16295215
000210 b9 e2 20 3e 4a c9 85 3e e1 c9 23 3e 6f 48 90 3d
       0.15711488 0.26130134 0.1599498 0.070450656
000220 cd 02 14 3e 48 a4 7b 3e d7 47 30 3e 70 22 62 3e
       0.14454193 0.24574387 0.17214905 0.2208345
000230 0e 10 83 3d 51 e3 71 3e 44 ff 63 3e 70 c9 2c 3e
       0.063995466 0.2362187 0.22265345 0.16873717
000240 8d d6 59 3e 41 9c cb 3e 3f b5 76 3e 0f dc 86 3e
       0.21273251 0.3976765 0.24092577 0.26339766
000250 8d 0b 4c 3e d5 84 4c 3e d1 53 50 3e 67 fb 59 3e
       0.19926281 0.19972546 0.20344473 0.21287309
000260 9c 9c 75 3e 4c a8 43 3e ea b3 23 3e db 12 4a 3d
       0.23985523 0.19107169 0.159866 0.04933439
000270 0a e1 24 3e 4a 6e be 3e 49 4f 28 3e 32 68 8f 3e
       0.1610147 0.3719352 0.16436495 0.28009182
000280 2b de 55 3e 44 5e 91 3e 47 8c 74 3e c1 d0 59 3e
       0.20885532 0.2839223 0.23881637 0.2127104
000290 d3 3f 9e 3e f7 2f 0b 3e 8c 2f 42 3e 6c 1c 7b 3e
       0.3090807 0.13592516 0.1896345 0.24522561
0002a0 a9 6d 9f 3e cc e9 5b 3e 09 a9 d0 3e 28 f5 41 3e
       0.31138352 0.21475905 0.40753964 0.18941176
0002b0 db ce 84 3e cd 17 8c 3e 25 8b 4d 3e 8f a2 eb 3d
       0.25939068 0.2736191 0.2007261 0.11505615
0002c0 2e 81 2d 3e 8d b0 23 3e a8 6f 87 3e 8f a2 60 3e
       0.1694381 0.15985318 0.26452374 0.21937011
0002d0 fc 7f 77 3e 30 a6 49 3e fc 2f 56 3e c7 7c 9e 3e
       0.24169916 0.19692302 0.20916742 0.30954573
0002e0 0c a6 59 3e 9f 43 1d 3e 3f 43 8f 3e 01 bb 36 3e
       0.21254748 0.15357827 0.27980992 0.17844774
0002f0 65 68 4f 3e f0 1b c3 3e 92 7f e9 3d b0 41 95 3e
       0.20254667 0.38107252 0.11401285 0.29151678
000300 b8 43 70 3e ba c6 5d 3e e3 16 6b 3e 6d af 40 3e
       0.23463333 0.2165784 0.2295795 0.1881692
000310 65 bb 59 3e b3 e5 17 bc 6b ca f6 3d 50 9b 8a 3e
       0.21262892 -0.009271073 0.12050327 0.2707162
000320 39 b1 88 3e 70 48 4f 3e fd 33 41 3e 01 83 8a 3e
       0.2669771 0.20242476 0.18867488 0.27053073
000330 46 90 5d 3e 5d 3e 25 be 90 d5 a0 3e ff 40 89 3e
       0.21637067 -0.16137071 0.31412935 0.268074
000340 d3 3d 4c 3e 60 03 2b 3e 18 8d 9a 3e 77 e4 2f 3e
       0.19945459 0.16700506 0.3018577 0.17176996
000350 4c ab 7b 3e 4c 25 61 3e 5c f0 29 3e bf b2 99 3e
       0.24577063 0.21986884 0.16595596 0.30019185
000360 73 c1 09 3e b1 14 50 3e 75 69 5b 3e cc 29 8e 3e
       0.13452701 0.20320393 0.21426947 0.27766263
000370 78 16 78 3e 7b df 83 3e 7d f1 56 3e 45 09 64 3e
       0.24227321 0.2575644 0.20990558 0.22269161
000380 ee dc 62 3c 4c 53 93 3d 28 4f 51 3e e4 7d 79 3e
       0.013846619 0.07193622 0.20440352 0.2436443
000390 b8 d4 10 3e 72 97 45 3e 1a 64 2e 3e b4 a1 8a 3e
       0.14143646 0.19296053 0.17030373 0.27076495
0003a0 03 e5 4f 3e 57 94 a2 3d 51 f6 3d 3e 94 5d 22 3e
       0.20302205 0.0793845 0.18550994 0.1585601
0003b0 68 db 45 3e ca 97 1c 3e d6 10 2d 3e b2 d0 ad 3d
       0.19321978 0.15292278 0.16900954 0.08487071
0003c0 c5 05 98 3e f8 5b 58 3e 6a aa 48 3e ee c9 86 3e
       0.29691902 0.21128833 0.19596258 0.26325935
0003d0 c0 91 34 3e ad d9 75 3e 77 b1 8e 3e da e6 81 3e
       0.17633724 0.24008818 0.2786977 0.25371438
0003e0 10 be 4f 3e fd 63 38 3e f5 d6 2d 3e 94 b9 43 3e
       0.20287347 0.18006893 0.16976531 0.19113761
0003f0 57 6a b5 3e 5b 5b 07 3e f9 26 7c 3e 3a be f7 3d
       0.35432693 0.13218443 0.24624242 0.1209683

bn1.weight f4 [400]
000000 0f 60 7d 3f 9e 02 94 3f bb 5b e6 3e d0 e3 9d 3f
       0.989747 1.1563299 0.4499186 1.2335148
000010 c6 a6 14 3f d3 a8 64 3f 97 6a 6c 3e a0 da 43 3f
       0.58066976 0.89320105 0.23087536 0.7650547
000020 1d e4 9b 3f 76 35 a1 3f d7 d9 93 3f 97 5b ae 3f
       1.217899 1.259444 1.1550854 1.3621701
000030 fa 27 04 3f 00 6e b6 3f f4 73 b4 3f 22 95 f6 3e
       0.516235 1.4252319 1.4097886 0.48160654
000040 08 87 37 3f 9a 74 75 3f d3 28 4f 3f f1 e7 1a 3f
       0.71690416 0.95881045 0.8092167 0.60510164
000050 96 73 30 3f 76 e1 9f 3f 24 9c a1 3e b9 5e 46 3f
       0.6892637 1.249068 0.31564438 0.77488285
000060 b4 80 9d 3f 05 9b 30 3f b4 db 9d 3f 25 03 d0 3f
       1.2304902 0.6898654 1.2332673 1.625096
000070 83 0e c0 3e 82 1d 9b 3f a4 90 a4 3f a6 63 93 3f
       0.37511072 1.211838 1.2856641 1.1514785
000080 71 d8 20 3f 87 8b 21 3f a7 c9 38 3f 34 4a 42 3f
       0.62830263 0.63103527 0.721827 0.75894475
000090 e4 a3 18 3f 62 ee 57 3f 1d 6e 03 3f fc f1 e6 3e
       0.5962508 0.8434812 0.51339895 0.45106494
0000a0 57 b2 8e 3f c0 4e 39 3f 79 e5 2f 3f 0a 6b a3 3f
       1.1148175 0.7238579 0.6870952 1.2767041
0000b0 2c 99 dc 3e 05 8d 86 3f ea a6 aa 3f 98 28 22 3f
       0.4308561 1.0511786 1.3332188 0.6334319
0000c0 1e 5d 28 3f 09 a5 2d 3f 68 6e 65 3f a2 b4 2b 3f
       0.65767086 0.6782995 0.8962159 0.670725
0000d0 8d 15 88 3f e1 2b a0 3f 5a 90 ad 3f 4d 30 8c 3f
       1.0631577 1.2513391 1.3559678 1.095224
0000e0 ca d1 25 3f 6a 98 67 3f 9a bf 27 3f 95 86 89 3f
       0.6477324 0.9046694 0.65526736 1.0744196
0000f0 4e 39 a4 3f 69 f7 45 3f 19 02 89 3f 82 33 d7 3e
       1.2829988 0.7733064 1.0703765 0.42031485
000100 52 d7 19 3f 81 af 99 3f 77 97 28 3f 66 e6 25 3f
       0.6009418 1.2006685 0.65856117 0.64804685
000110 ac d2 a0 3f 95 2f 8d 3f 5f 39 26 3f 09 60 a0 3f
       1.2564292 1.1030146 0.6493129 1.2529308
000120 d9 9f 8f 3f b2 e0 98 3f 8a 10 58 3f 77 7a 85 3f
       1.1220657 1.1943572 0.84400237 1.0427998
000130 b8 96 12 3f dd 01 48 3f b8 68 9b 3f e4 f8 80 3e
       0.5726123 0.78127843 1.2141333 0.25189888
000140 3c 96 0f 3e 64 f6 a7 3f 56 0e 02 3f 8b 82 00 3f
       0.14022154 1.3122067 0.50803125 0.5019919
000150 60 33 a4 3f d6 ef 8e 3f 0e c9 77 3f 18 66 e8 3e
       1.2828178 1.1166942 0.9679116 0.4539039
000160 6f 61 99 3f e9 75 8e 3f 98 9e 83 3f 8f d9 c2 3f
       1.1982859 1.1129733 1.0282774 1.5222644
000170 3d 4a 99 3f e0 c6 ca 3f fe da 23 3f d3 23 3d 3f
       1.1975781 1.5841942 0.6400603 0.7388279
000180 ee fd ae 3f 07 31 f7 3e 01 62 29 3f a2 49 95 3f
       1.3671243 0.48279592 0.6616517 1.1663096
000190 ae c9 8e 3f a0 06 9c 3f 5e 2a 16 3f c2 08 4b 3f
       1.1155298 1.2189522 0.586584 0.7931024
0001a0 2b 5d 6f 3f 1e b3 5b 3f 22 d5 aa 3f 87 44 a9 3f
       0.9350154 0.85820186 1.3346293 1.3224038
0001b0 04 a1 63 3f 32 9c 03 3f c5 3c 82 3f dd 43 31 3f
       0.88917565 0.5141021 1.0174795 0.69244176
0001c0 a8 4f 0d 3f 21 94 a4 3f 10 04 a7 3f 59 be d4 3f
       0.5519967 1.2857705 1.3048115 1.662059
0001d0 a7 6c 24 3f ab a8 6d 3f bc f3 95 3f 94 e5 f1 3e
       0.6422829 0.9283549 1.1715007 0.47245467
0001e0 95 71 2c 3f 94 50 48 3f 6b a3 42 3f f9 2b 9b 3f
       0.6736081 0.7824795 0.76030606 1.2122794
0001f0 63 bc c2 3f e5 37 60 3f 79 96 69 3f 9a 22 79 3f
       1.5213741 0.8758529 0.9124523 0.9731842
000200 39 63 9c 3f 16 30 5b 3f 5a 73 9b 3f 90 d8 83 3f
       1.221778 0.8562025 1.2144578 1.0300465
000210 50 c1 b7 3f 83 e1 1d 3f a2 c4 a8 3f d6 7c af 3f
       1.4355869 0.6167223 1.3185008 1.3709972
000220 e1 32 c6 3f 97 aa 2f 3f dc 85 87 3f 52 22 bd 3f
       1.5484277 0.68619674 1.0587726 1.4776099
000230 e6 2a a9 3f 7a c4 65 3f 2e 26 85 3f 9b 47 88 3f
       1.3216217 0.89752924 1.0402277 1.0646852
000240 62 92 ab 3f 2a 9b c1 3e 24 d2 45 3f 4b 2a 27 3f
       1.3404047 0.37813693 0.77273774 0.6529891
000250 5e c0 80 3f 6b a7 b5 3f 2c ab 8c 3f 06 b6 99 3f
       1.0058706 1.4191717 1.0989738 1.2008674
000260 26 77 4e 3f 31 b7 91 3f ba ea 8c 3f 68 70 ce 3f
       0.80650556 1.138403 1.1009133 1.6128054
000270 62 eb 9b 3f 5d a7 a2 3e ae b9 a6 3f 65 07 27 3f
       1.2181208 0.31768313 1.3025415 0.6524566
000280 69 87 9e 3f 74 a0 3a 3f f0 49 23 3f b2 f6 87 3f
       1.2385074 0.7290108 0.63784695 1.062216
000290 c6 96 ef 3e 47 c7 c6 3f b8 9e 80 3f 6b 83 30 3f
       0.46794719 1.5529565 1.0048437 0.6895053
0002a0 52 ca 10 3f 49 8e 9c 3f 7c 3a 92 3e e9 d8 cd 3f
       0.56558716 1.2230922 0.28560245 1.6081821
0002b0 04 7d 3b 3f dd fd 2f 3f 05 29 a5 3f a3 73 a8 3f
       0.73237634 0.6874674 1.2903143 1.316029
0002c0 0f 03 a3 3f 4b cb ac 3f e1 8d 26 3f de 81 93 3f
       1.2735308 1.349954 0.6506024 1.1524007
0002d0 6b d3 4a 3f 84 de b0 3f 7d 90 65 3f d2 c7 26 3f
       0.7922885 1.3817906 0.89673597 0.6514865
0002e0 e9 a8 57 3f d1 35 9a 3f 0c 0a 5d 3f 1b 2d c1 3f
       0.8424211 1.2047673 0.86343455 1.509189
0002f0 e7 57 6c 3f 39 64 cb 3e fa d7 ba 3f 05 49 09 3f
       0.9232163 0.397249 1.4597161 0.53627044
000300 48 af 4f 3f e0 21 90 3f 07 7f 69 3f c2 fe 85 3f
       0.8112683 1.1260338 0.91209453 1.0468371
000310 ff ab b8 3f 9c ef 05 40 b6 06 aa 3f b1 c4 2b 3f
       1.4427489 2.0927496 1.3283298 0.67097
000320 bf 90 1e 3f 13 2b a7 3f b5 2b 8c 3f 21 a6 22 3f
       0.61939615 1.306002 1.0950838 0.6353474
000330 80 d1 9b 3f 74 3f 14 40 55 5c 04 3f c4 ac 16 3f
       1.2173309 2.3163729 0.5170339 0.5885737
000340 97 a5 5f 3f 9d 12 7f 3f 14 ad 0f 3f ac 22 8a 3f
       0.87362045 0.99637777 0.5612347 1.0791831
000350 27 ec 74 3f d2 08 56 3f 0d 58 a6 3f a0 be f5 3e
       0.9567284 0.8360721 1.2995621 0.47996998
000360 31 71 ed 3f e0 37 9a 3f f2 46 98 3f 03 10 20 3f
       1.8550168 1.2048302 1.1896651 0.6252443
000370 84 b7 2e 3f 70 a1 1f 3f 19 78 95 3f 6d 11 80 3f
       0.6824877 0.6235571 1.1677276 1.0005318
000380 06 be db 3f 9c bb 9f 3f 59 c6 78 3f 7a 6b 58 3f
       1.7167366 1.2479129 0.97177655 0.84538996
000390 38 a1 98 3f 75 20 87 3f cf a2 82 3f 9f 21 28 3f
       1.19242 1.055678 1.0205935 0.656763
0003a0 ad b9 9d 3f 3d 1f 9f 3f ab 90 79 3f 27 42 a2 3f
       1.2322289 1.2431408 0.9748637 1.2676438
0003b0 a5 66 81 3f 42 b7 92 3f 88 6b a1 3f 45 b7 ab 3f
       1.010945 1.1462176 1.2610941 1.3415304
0003c0 63 85 0a 3f a5 86 70 3f 5b 53 9a 3f 9d dc 45 3f
       0.5410978 0.9395545 1.2056688 0.77289754
0003d0 cd 09 85 3f b3 1f 5a 3f 31 c3 3b 3f c9 19 14 3f
       1.0393616 0.8520462 0.73344713 0.57851845
0003e0 c7 33 51 3f 82 b0 72 3f ab 27 aa 3f 19 75 87 3f
       0.8171963 0.9480058 1.3293356 1.058261
0003f0 b0 73 a7 3e 7f 61 bc 3f 89 2a 3a 3f 76 3d ab 3f
       0.3270545 1.4717253 0.72721153 1.3378131

bn1.bias f4 [400]
000000 38 2b 41 be 85 bc 8f be ee 45 25 bf 66 e9 13 be
       -0.18864143 -0.28073516 -0.6455983 -0.14444503
000010 01 39 f0 be a9 42 74 be c1 73 5b bf 25 1e c6 be
       -0.4691849 -0.23853554 -0.857235 -0.38694873
000020 d1 a3 44 be c5 22 b8 bd 37 34 e5 bd 4c 3e e3 bd
       -0.19203116 -0.08991007 -0.111916 -0.110958666
000030 4a af 18 bf c8 4d 35 be 91 2d a5 3a f8 e4 21 bf
       -0.5964247 -0.17705452 0.0012602081 -0.63240004
000040 1f 03 ca be 7c f9 86 be 5c cf 7f be 2a 72 fe be
       -0.39455506 -0.26362216 -0.24981445 -0.49696475
000050 f0 04 cf be c2 3f dd 3b 77 79 38 bf 59 40 c9 be
       -0.40433455 0.0067519853 -0.7206034 -0.39306906
000060 39 dd d2 bd 7d da f0 be 02 13 08 be 9a 5d 3e 3d
       -0.10296101 -0.47041693 -0.13288501 0.046475984
000070 88 1e 29 bf 9b 0a 6d bd 77 f1 b8 3b 9f 61 14 be
       -0.6606221 -0.057871442 0.005644019 -0.14490364
000080 19 6a f3 be 22 3c e3 be 87 90 c6 be cb af bb be
       -0.47541884 -0.44381815 -0.3878214 -0.36657557
000090 5a c2 03 bf 3a f9 9c be 91 bf 19 bf eb b8 14 bf
       -0.5146843 -0.30658895 -0.6005793 -0.5809466
0000a0 e1 b1 69 be b3 d8 da be c2 83 c0 be d1 d6 6e bd
       -0.22821762 -0.42743453 -0.37600523 -0.058310334
0000b0 3d c3 29 bf 3a b5 27 be 66 61 e5 bd fd 3c e5 be
       -0.66313535 -0.16377726 -0.11200218 -0.44773093
0000c0 38 14 f6 be 1b 1f e1 be af f0 b1 be 4c d8 f3 be
       -0.480623 -0.43969044 -0.3475394 -0.4762596
0000d0 a0 11 49 be 96 07 64 bd 62 43 5d 3c bb a8 21 be
       -0.1963563 -0.055671297 0.013504835 -0.15787022
0000e0 50 f2 01 bf 25 27 92 be 05 73 de be 7d 68 93 be
       -0.50760365 -0.2854549 -0.43447128 -0.28790656
0000f0 2d 8d f1 bc c5 bc b5 be be 19 be bd b7 4a 2b bf
       -0.029486263 -0.35495582 -0.09282254 -0.6691088
000100 5d df 01 bf e1 f9 38 bd 3b 0d d6 be ad e3 e5 be
       -0.5073145 -0.045160178 -0.4180697 -0.44900265
000110 69 3d e8 bd 38 40 62 be 43 7c e7 be 13 db 39 be
       -0.11339838 -0.2209481 -0.45211992 -0.18149976
000120 3a 3c 2c be 8e d3 13 be 49 fa b8 be d8 57 1a be
       -0.1681985 -0.1443617 -0.36128452 -0.15072572
000130 a5 46 1a bf 4d 6e ba be 5b 95 9f bd 04 24 4d bf
       -0.60264045 -0.36412278 -0.07792159 -0.8013308
000140 93 42 63 bf a4 e1 5c bd 71 c2 14 bf f4 db 13 bf
       -0.8877346 -0.053926125 -0.58109194 -0.57757497
000150 56 f4 c3 bd e8 56 85 be 46 50 59 be 83 25 1c bf
       -0.09568088 -0.26042867 -0.21222028 -0.6099474
000160 ed d2 13 be 42 02 f1 3d 64 fd 30 be e9 09 9f 3b
       -0.1443593 0.11768009 -0.17284161 0.0048534763
000170 91 cf 2a be 96 89 c6 bd e9 40 ef be c9 23 b0 be
       -0.16680743 -0.09694211 -0.4672921 -0.34402302
000180 f0 d4 f7 bc db 4c 15 bf cf ee f4 be 01 6e e9 bd
       -0.030252904 -0.583204 -0.47838446 -0.11397935
000190 da 3f 05 be 63 81 2b be c4 5c 06 bf ac 5b 9d be
       -0.13012639 -0.16748576 -0.524853 -0.30734003
0001a0 c7 c4 6c be 29 ff 8d be e3 47 b1 bc 96 64 0f bd
       -0.2312194 -0.27733734 -0.021640724 -0.035008036
0001b0 ff 75 8c be b6 c5 0c bf b7 d3 64 be 0d c5 ca be
       -0.27433774 -0.5498918 -0.22346388 -0.39603463
0001c0 c5 fe 05 bf c6 40 a2 bd 66 64 eb bd a3 ff a3 3d
       -0.5234187 -0.07922511 -0.11493759 0.08007743
0001d0 61 6c e9 be d9 0b 30 be 99 d9 81 bd 12 32 1b bf
       -0.455905 -0.1719202 -0.063403316 -0.60623276
0001e0 64 3b ec be 2d 09 b6 be e9 b9 99 be a9 60 9c bd
       -0.4613906 -0.35553876 -0.3002465 -0.07635624
0001f0 5f bc 96 bd 46 13 a3 be 7d 76 87 be ac 4f 88 be
       -0.07360148 -0.31850642 -0.26457587 -0.26623285
000200 30 fe 17 be 91 95 8b be 1c 4d d7 bd 1e c2 84 be
       -0.14843059 -0.27262548 -0.10512754 -0.2592935
000210 32 01 dc bd 1a 88 eb be 23 b1 a8 3d a8 d0 0d be
       -0.107424155 -0.46002275 0.08236911 -0.13849127
000220 cd 91 09 3b 95 62 e5 be 59 d9 14 be 67 cf 72 3d
       0.0020991445 -0.44801775 -0.14536037 0.059279826
000230 e7 84 b8 bd 6b 69 96 be 09 4a 6d be e8 6e 74 be
       -0.09009724 -0.29377303 -0.23172773 -0.23870432
000240 e4 1f 93 bd 24 de 2f bf 7f 44 ba be c9 28 04 bf
       -0.07183817 -0.68698335 -0.36380383 -0.51624733
000250 2e 1e 5a be 83 0b bd bc 03 33 78 be 9f e7 15 be
       -0.21300575 -0.023076778 -0.2423821 -0.14639138
000260 6e 63 b6 be a7 f5 49 be a2 50 86 bb 77 24 a8 bd
       -0.35622734 -0.19722615 -0.0040989676 -0.0821008
000270 d5 7d f8 bd 5e c0 36 bf 69 48 e5 3c 49 56 e0 be
       -0.121333756 -0.7138728 0.02798863 -0.4381583
000280 74 4c 03 be c4 bf d6 be 17 69 f5 be 79 89 94 be
       -0.12822133 -0.4194318 -0.4793174 -0.29011133
000290 58 f1 13 bf 46 7d 5a 3c 85 e3 1b be 36 8b da be
       -0.57790136 0.013335532 -0.1522351 -0.42684335
0002a0 47 b5 0f bf 66 1b 2b be a3 52 49 bf fc cb a7 bc
       -0.5613598 -0.1670967 -0.7864172 -0.02048301
0002b0 a5 1e ca be dd f6 c1 be c7 30 12 be 4e 9f b5 3c
       -0.39476505 -0.37883654 -0.1427642 0.022170689
0002c0 0a 11 67 be 5b 3b 83 bd 67 b1 de be 7a e9 14 be
       -0.22565094 -0.064078055 -0.43494722 -0.14542189
0002d0 1a cf 94 be 0c 62 01 bd 7e 49 89 be 5b 31 e8 be
       -0.29064256 -0.031587645 -0.26813883 -0.45350155
0002e0 18 51 90 be 07 8f c6 bd d9 fb a0 be 88 5a d0 bc
       -0.2818687 -0.09695249 -0.31442145 -0.025433794
0002f0 16 cc 77 be e8 c6 39 bf 9f 1a c5 3c 40 02 0b bf
       -0.24198946 -0.7256913 0.024060545 -0.5430031
000300 f6 10 c7 be df a8 8d be 2d 7b 94 be 65 f3 6a be
       -0.38880128 -0.276679 -0.29000226 -0.2294441
000310 09 a2 be bd 7a d5 98 3e 60 96 0e be 22 32 e6 be
       -0.093082495 0.2985037 -0.13924551 -0.44960123
000320 54 ab f1 be 05 d9 7d bd f2 16 14 be ae 99 f0 be
       -0.47201025 -0.061974544 -0.14461878 -0.46992248
000330 06 a7 88 bc 4d 15 9d 3e 7c f4 0e bf e9 a5 02 bf
       -0.016681205 0.30680314 -0.55841804 -0.5103441
000340 0b 0d c1 be bf 63 74 be 9a 7c 05 bf b3 18 70 be
       -0.37705263 -0.23866175 -0.5214325 -0.23446922
000350 8c 82 6a be 85 bb 61 be e3 2e fa bd a0 5a 29 bf
       -0.22901362 -0.2204419 -0.12215974 -0.6615391
000360 c1 60 78 3c 00 8e cc bd 78 23 21 be e5 25 0d bf
       0.015159787 -0.09988022 -0.15736187 -0.5513595
000370 7e cc d4 be f1 3a 03 bf 71 e7 3d be a0 e9 84 be
       -0.41562265 -0.5126181 -0.18545319 -0.25959492
000380 c7 45 7f bd 52 5a ec bd bf 8d 5a be c2 f1 8f be
       -0.062322404 -0.11540665 -0.21343134 -0.28114134
000390 a0 29 1b be 69 a7 17 be e0 03 c5 bd 4e aa eb be
       -0.15152597 -0.14809956 -0.0961988 -0.4602837
0003a0 39 4e 14 bd 0c 4b f8 bd 07 cf fd bd e3 75 19 be
       -0.03620741 -0.12123689 -0.12393003 -0.14986376
0003b0 53 a4 71 be 30 14 27 be e3 f4 26 be e6 1a cf bd
       -0.23597841 -0.16316295 -0.16304354 -0.10112552
0003c0 5b 84 0b bf 5c 65 69 be 11 47 89 be 2f 2b c4 be
       -0.54498833 -0.22792572 -0.26812032 -0.38314196
0003d0 d6 ed 55 be d4 8f b4 be e8 28 d8 be e0 4b 04 bf
       -0.20891508 -0.35265982 -0.4221871 -0.51678276
0003e0 0d a6 af be c0 c8 85 be b9 29 16 be 67 ed 32 be
       -0.34306374 -0.26129723 -0.14664353 -0.17473374
0003f0 aa ba 3e bf d6 9e 92 bd 24 dd dd be c2 7e d0 bd
       -0.74503577 -0.07159202 -0.4333278 -0.10180427

fc2.weight f4 [300, 400]
000000 5d 87 d5 3d 00 0c e4 3e ed b4 21 3e c7 93 08 be
       0.10426209 0.44540405 0.15791674 -0.13337623
000010 3b ab e3 bd 2a a7 87 3e fe 4e 88 bb 94 3f 05 bd
       -0.11116644 0.26494724 -0.004159807 -0.032531336
000020 af f8 5c 3e 64 d4 73 3c 78 8f 3f be 6e e3 f0 bd
       0.2157924 0.014882181 -0.18707073 -0.11762129
000030 40 c2 ca 3d 8e 91 79 bd 6d c4 14 3d f7 e0 8c 3d
       0.099003315 -0.060929827 0.03632014 0.06878846
000040 36 e3 88 bd 7a 1d bd be bf ed 6b 3c ba f8 86 3d
       -0.06683962 -0.3693655 0.014399945 0.065904096
000050 ed 06 44 3d c5 12 fc 3c 80 85 27 3d 3c 99 be bb
       0.047858167 0.030770669 0.0408988 -0.005816607
000060 76 8d 91 be 90 a0 fe 3d 6c e2 51 be 7a fb ff bd
       -0.2842824 0.124329686 -0.2049653 -0.12499137
000070 ad 8f 2e 3d b8 9f 4c 3e 37 ee d2 bd be 98 82 3e
       0.04261749 0.19982803 -0.10299342 0.25507158
000080 86 de 9e 3d 08 14 be b9 2c 56 2f 3d 88 54 29 bd
       0.07757287 -0.00036254548 0.04280679 -0.04134038
000090 c4 76 df bc 32 67 57 3e 3d e5 ed 3c 03 e9 04 3e
       -0.027278312 0.2103546 0.029039973 0.12979512
0000a0 fb da a7 3d 64 10 0d 3d 4a 5d 35 3c ce 87 1e 3e
       0.08196064 0.03443946 0.011069605 0.15481493
0000b0 79 0f a9 bd 0f 1e ae bd b1 0d eb bd 46 04 82 bc
       -0.08254904 -0.08501827 -0.11477221 -0.015871178
0000c0 66 b0 e1 bc 92 f4 73 3e 53 8e 1a 3c b4 32 a0 bc
       -0.027549934 0.23823765 0.009433347 -0.019555427
0000d0 14 28 8e be a3 7d 92 3e 24 66 28 bc 28 06 92 3c
       -0.27764952 0.28611478 -0.0102782585 0.017825201
0000e0 68 8d a6 bd ef 0b 40 3e d9 92 1f 3e 1d 01 91 bc
       -0.0813244 0.18754552 0.15583362 -0.017700726
0000f0 a0 bc 87 3e c7 ed af bd b6 08 44 be 6b e9 08 be
       0.26511097 -0.08590274 -0.19143948 -0.13370292
000100 42 a3 a3 3c 40 38 10 be 00 fe e2 3c 81 00 03 3e
       0.019975308 -0.14083958 0.027709007 0.12793161
000110 d4 af 6f 3e 57 e5 85 be c3 3d bb 3c 9e 7c fb 3d
       0.23406917 -0.26151535 0.022856599 0.12279628
000120 9b 70 d9 3e 24 35 b2 be 9b 71 97 bd 21 fc 85 3d
       0.42468724 -0.34806168 -0.073947154 0.065422304
000130 42 7b 77 38 89 38 fe 3d ad 9d ad 3e d7 44 a7 bd
       5.9004182e-05 0.12413127 0.3390936 -0.08167427
000140 8e 90 24 bd ac d3 97 be 9e 30 52 3e b8 f9 b4 bb
       -0.04017692 -0.2965368 0.20526358 -0.005522933
000150 4d 79 cd bd 38 62 0c 3e fe af 1f bd 66 b8 fc 3b
       -0.10032902 0.13709342 -0.0389862 0.0077124117
000160 e1 af 37 be 67 a0 91 bc c2 23 ce bc c2 ef 4e bd
       -0.17938186 -0.017776681 -0.025163535 -0.05052162
000170 95 e8 c4 be 24 eb d9 bd 3f c9 67 3c 9f 2a 6a 3e
       -0.38458696 -0.10640553 0.014147102 0.22867821
000180 63 d8 8e 3e be ec d5 3d 6d bc 8c 3c fc 93 91 3e
       0.27899465 0.104455456 0.017179692 0.28433216
000190 17 83 20 3e 64 1d 05 3d 62 5d 3b 3d 03 27 cd 3d
       0.15675007 0.032498732 0.045743354 0.100172065
0001a0 1d 5b 39 bc 0f 47 56 3e fd 0a 50 be 64 99 2c 3e
       -0.011313227 0.20925544 -0.20316692 0.16855389
0001b0 8b 50 1e 3d 77 6b 53 3d 63 a4 25 be 1a 64 40 bd
       0.03865103 0.05161616 -0.1617599 -0.046970464
0001c0 e3 70 a9 bd 8f 5a 88 be 78 87 93 bd a0 1d a3 3e
       -0.082734846 -0.2663159 -0.07203573 0.3185854
0001d0 b2 96 04 bc a3 b3 01 bd a1 39 00 3e 53 31 a4 3c
       -0.008092569 -0.031665456 0.12521984 0.02004305
0001e0 f6 75 8c 3d b9 18 f4 bd ba 61 2b ba 93 72 1e be
       0.06858437 -0.11918778 -0.0006537695 -0.15473394
0001f0 03 4f 73 bd f0 7c cd bd 67 58 00 3e 58 40 81 bd
       -0.059401523 -0.100335956 0.12533723 -0.06311101
000200 13 bc 03 bd 89 3d 5b bd da 13 c9 bd d1 13 b0 be
       -0.032161783 -0.05352548 -0.098182395 -0.3439012
000210 93 3b c5 3d 7c 65 66 bd 4c 96 6d bd 06 66 0c be
       0.096305035 -0.056249127 -0.058004662 -0.13710794
000220 c4 81 2f 3d 18 fb b6 bd cc b2 a0 3e 0a 68 98 3e
       0.042848364 -0.08934611 0.3138641 0.29766876
000230 d9 2d 03 be 24 38 d5 bd b7 49 9f bd 0c 8c 08 be
       -0.12810458 -0.104110986 -0.07777732 -0.13334674
000240 e3 8a 7f be 62 75 9a 3d db fa cb 3d 2b 7a f2 3d
       -0.24955325 0.0754192 0.09959956 0.11839708
000250 49 a2 19 3e 20 b3 6e 3d 74 49 ff 3e a6 b2 d2 be
       0.15003313 0.058276296 0.49860728 -0.41151923
000260 15 b2 05 bd 92 cd bf 3e d4 3e fc bc 2f 53 49 3c
       -0.032640535 0.37461525 -0.030791678 0.012287899
000270 e3 d8 78 bd 09 81 39 be c9 fd 95 3d bc f3 8c 3d
       -0.060753714 -0.1811563 0.07323796 0.06882426
000280 94 0a 01 be ea ce 4d 3e 75 19 d0 3d 21 ab 07 3d
       -0.12601691 0.20098463 0.101611055 0.033122186
000290 8a 24 82 3c 26 ba 84 3d 06 2d 7d 3e 8b 7e 83 bd
       0.015886564 0.064808175 0.24724206 -0.064206205
0002a0 68 16 15 3b 65 ca 1a be 9a 26 17 3e 44 45 b4 3e
       0.002274895 -0.1511627 0.14760819 0.35209095
0002b0 c0 86 9f 3d 32 4b b8 b9 69 e0 36 be 2c 3a 83 3a
       0.077893734 -0.0003515124 -0.17859043 0.0010011843
0002c0 65 0f 60 3d 3a 43 b5 3e e4 4e a0 bd 7f 99 ab be
       0.05470218 0.35402852 -0.07827547 -0.33515546
0002d0 95 34 c4 bd 69 5d ac 3e 81 80 ae 3d 19 bb 23 3e
       -0.09580342 0.33665016 0.08520604 0.15989341
0002e0 87 9d 28 3e c6 88 49 be 71 7c 70 3d 9b 9d 10 3e
       0.16466342 -0.19681081 0.058712427 0.14122622
0002f0 da 6f aa 3d eb 0c a6 3d 29 16 2b 3e 81 f5 8f 3c
       0.08322115 0.08107933 0.16707672 0.01757312
000300 08 1a 82 3d 45 9e 48 bc 54 f1 54 3c 45 9b af bd
       0.06352621 -0.012244766 0.01299699 -0.08574537
000310 d6 55 14 3c 92 e0 dd 3c 32 5b 1a 3d 87 72 f8 bb
       0.009053668 0.027084623 0.037684627 -0.007582012
000320 00 05 2f bd 70 3f 0f 3e 2c 35 70 3e 73 a0 0b bc
       -0.042729378 0.13989043 0.23457783 -0.008522141
000330 9f ca 8b bb ac de 01 bf ee 9a c1 bd 1c 5b 2c bd
       -0.0042660977 -0.50730395 -0.094533786 -0.042079076
000340 5c 17 cf 3a b6 34 c8 be 47 1f a7 bd 48 e9 8c be
       0.0015799808 -0.39102715 -0.081602626 -0.2752173
000350 43 cf a0 3d c6 6c ae bd 86 cf bb 3e 43 0d 02 be
       0.07852032 -0.08516841 0.36681765 -0.12700371
000360 a7 24 87 bd f0 2b 43 bd af 43 29 be 9b b6 a5 3d
       -0.06598788 -0.047649324 -0.16529725 0.0809147
000370 0d 2a 61 3d 81 ed 1c 3d 69 74 11 be 39 10 de 3d
       0.054971743 0.03831244 -0.14204563 0.10842938
000380 31 f0 2d 3d 74 5c a6 bd ab 81 af be d3 d3 97 bd
       0.042465393 -0.08123103 -0.34278616 -0.07413449
000390 74 c2 b5 be f4 43 96 3e fc 1a e1 3d a4 2a 14 be
       -0.35499918 0.2934872 0.10991475 -0.14469391
0003a0 17 0b 1b 3e 72 be ae 3a fc a6 4d 3e f1 12 37 bd
       0.15140949 0.0013331904 0.2008323 -0.0446958
0003b0 48 82 4d be 96 b0 b8 be 14 82 d0 3c 8e 3a 9f bd
       -0.2006923 -0.36072224 0.025452651 -0.0777484
0003c0 e1 01 08 be a9 34 17 be 0d 94 5d 3d 9d 5b 81 3c
       -0.13281967 -0.14766182 0.05409627 0.015790755
0003d0 d2 91 ee 3d 35 29 84 3c 7c 9c 86 bd d4 bb 64 bb
       0.11648907 0.01613293 -0.06572816 -0.0034901993
0003e0 0f a4 91 bc 82 bf 5d be 74 56 3a bd 84 ed d3 be
       -0.017778425 -0.21655086 -0.045492604 -0.41392148
0003f0 49 4b 9d bd b0 a0 80 3d 94 b1 d9 bd 70 c5 24 bd
       -0.07680375 0.06280649 -0.106295735 -0.040227354

fc2.bias f4 [300]
000000 73 fa 94 3d 10 70 29 3c 3f fe 1c 3d 1d 91 d9 3c
       0.07274332 0.010341659 0.038328405 0.026558453
000010 0b 9f 4e ba 79 b5 b2 bb aa d1 cb bd c9 54 74 3c
       -0.00078819756 -0.005453762 -0.099520996 0.0149127925
000020 24 93 96 3c 24 b6 7b 3d c6 e1 81 3d ca b4 b4 bc
       0.018380709 0.061453 0.06341891 -0.022058863
000030 ec 5b 3d bd d6 58 64 3c b7 c7 21 3d 7c 6b 11 bd
       -0.04623024 0.013937196 0.039497104 -0.035502896
000040 c7 ed 50 3d 49 b3 1f 3d 93 98 91 3c 2f 80 20 3d
       0.051008012 0.03898934 0.017772948 0.039184745
000050 9e 2d 58 3d ac 27 db 3c 5d 15 9f 3c a7 05 53 3d
       0.05277788 0.026752315 0.019419366 0.051519062
000060 c3 92 c1 3c 55 c6 29 3d 10 e1 8f 3c e1 c2 ad 3d
       0.023629552 0.04144891 0.017563373 0.08484436
000070 8c 21 79 3d a7 97 a1 3d 7d 5c b5 bc 92 ce f5 bd
       0.06082301 0.078902535 -0.022138828 -0.12002291
000080 f2 8b f5 3c 18 00 2c 3d 1d 77 70 3d 08 cf 72 bd
       0.029973958 0.041992277 0.058707345 -0.05927947
000090 c4 7c 89 3d 86 e7 be bd 84 2e a1 3b 24 f9 86 3c
       0.0671325 -0.09321503 0.004918875 0.016476221
0000a0 1f 30 96 bd 65 ec c1 3a c5 09 bd bc 82 4c 86 3a
       -0.07333397 0.0014795183 -0.023075948 0.001024619
0000b0 02 0f b3 3a 96 7e 4d 3c 42 f4 f9 3b 41 44 20 bc
       0.0013661089 0.0125423875 0.0076279948 -0.009781898
0000c0 88 be 89 bc 68 1d 15 3d 71 80 97 bd 4f 23 bb bd
       -0.016814485 0.036404997 -0.07397545 -0.09137594
0000d0 58 9f 4b bc 61 43 03 bd d4 33 9e 3c 9a a6 a9 39
       -0.012428127 -0.03204668 0.019311823 0.0003235832
0000e0 9b a0 b0 bd 8e bd ef 3c 74 85 41 bd 63 6d c6 3d
       -0.08624383 0.029265191 -0.04724641 0.096888326
0000f0 b8 8c 52 bd d5 7a 85 3d 7d 89 64 bc 0e c8 31 bd
       -0.05140373 0.06517569 -0.013948795 -0.043403678
000100 35 51 a9 bd 4b d3 92 bd 1f 6e 2f 3d 42 c0 25 bd
       -0.08267442 -0.07169207 0.04282963 -0.040466554
000110 a2 6e bf 3d 16 a2 91 3b e3 97 c7 bd 8a 52 77 bc
       0.093472734 0.004444371 -0.09745767 -0.015095362
000120 5d 59 9b bc aa 6f bd 3c 8d 1a 3c bd 92 ed 93 3d
       -0.01896351 0.023124535 -0.04592376 0.07223047
000130 89 72 1b bd d8 78 36 bd b2 05 c5 3b 3a 9d 08 3d
       -0.037951026 -0.04454884 0.006012642 0.033353068
000140 5f 3e 71 3d 28 06 09 bb 3c 0c d2 3c d2 fb c9 bc
       0.058897372 -0.002090821 0.0256406 -0.02465621
000150 7c 8b 13 3c dc 7e 93 bc 4a 90 d3 bc 62 8b 40 3d
       0.009005424 -0.018004827 -0.025825638 0.047007926
000160 73 8a ac bb 5c 4d 3d bc 5c 95 a9 3d c0 be 28 3d
       -0.005265528 -0.011554088 0.08280441 0.04119754
000170 b3 8e f2 ba ca 88 41 bc 66 46 b3 bc c7 d7 b0 3c
       -0.0018505662 -0.011812398 -0.021884155 0.021587266
000180 fa 55 42 bc e1 c6 6d bd 35 2c a0 3d ef 21 94 bb
       -0.011861319 -0.058050994 0.07820932 -0.0045206468
000190 6f a0 a3 bd a7 1a 5d 3d dc 96 c4 bc 37 2b ab 3c
       -0.07989585 0.053980496 -0.023997717 0.02089463
0001a0 ae 50 88 b9 f9 01 87 bd e7 5f 07 be f0 e6 3f 3c
       -0.00026000052 -0.06592173 -0.13220178 0.011712775
0001b0 2f 55 18 bd 2c 6e a9 3b 18 9e 87 bd db 04 a6 bc
       -0.037190612 0.005170604 -0.06621951 -0.020265987
0001c0 29 a8 0a bc 8b 79 cd 3c b9 27 64 3b 88 80 a7 3c
       -0.008462944 0.02508237 0.0034813716 0.02044703
0001d0 12 10 ad 3c 7e e2 d6 3c ad f2 9f bd 2e f3 ee 3c
       0.021125827 0.026231047 -0.078099586 0.029168691
0001e0 d0 22 3b 3c af cf 7a 3d fe 62 62 3d 5c 7a b0 bd
       0.011421874 0.06123322 0.055270188 -0.08617088
0001f0 19 13 c3 bc 7b 4b 1f 3d 43 2d 35 bd d1 37 0d 3d
       -0.023812817 0.038890343 -0.044232618 0.03447706
000200 1c 08 63 bd 90 ad 3d bd d8 bd 0c 3c 43 1a 54 be
       -0.055427656 -0.0463081 0.008590184 -0.20713143
000210 39 11 90 3c df cf bd bd 89 d1 6f bd db fe 1d bd
       0.017586337 -0.09268164 -0.058549438 -0.038573127
000220 0a c6 6e bd 54 a8 7d bd 7f c0 d7 bc 2a 98 87 3c
       -0.058294334 -0.06192811 -0.026336906 0.01655205
000230 f9 24 4e 3c 4f 78 af bb 30 ac 25 3d a1 50 11 3d
       0.012582057 -0.005354918 0.040447414 0.035477284
000240 8f b1 32 3d 85 56 6f 3e e9 3c f3 3d 8a df 95 3d
       0.043626364 0.23372848 0.11876852 0.07318027
000250 94 ef 00 3d 21 af 85 3d d0 7a 03 bb 55 26 67 bd
       0.03147848 0.06527544 -0.0020062216 -0.05643304
000260 6b fd 67 bc 95 5b 0a 3b 7c 96 f9 3c 60 f9 90 3c
       -0.014159541 0.0021111716 0.030467264 0.017697036
000270 25 53 40 bc 1b 2e 10 bd 4c 32 fb 3b 08 3d 16 bd
       -0.011738573 -0.03520022 0.007665908 -0.036679298
000280 04 30 dc bb d6 a2 47 bc 58 8b 38 3d 0d e1 34 3d
       -0.006719591 -0.012184819 0.045054764 0.044159938
000290 0d 51 89 ba 7c 51 5a 3d a3 79 9e 3c f2 ae 06 bd
       -0.0010476426 0.053300366 0.01934511 -0.032881685
0002a0 03 9d 1b 3b 9d 13 a5 3c 4a 6c 52 3c e7 5c 5a bd
       0.002374471 0.020150954 0.012843201 -0.053311255
0002b0 7a 54 95 3d 05 b7 56 bd 26 f7 89 bd 64 d2 9b bb
       0.07291503 -0.052420635 -0.06736593 -0.004755305
0002c0 6e 8d 08 3d 6a 9a 12 3c 0e d8 31 bd d9 42 38 3b
       0.033338003 0.008947948 -0.043418936 0.0028116016
0002d0 91 75 f5 3c 31 3f f8 bb 04 ea 26 3a 2f b4 19 bd
       0.029963287 -0.0075758924 0.00063672685 -0.037525352
0002e0 be f9 0a 3c 0c ee 3b 3d 38 58 71 bc 4a ea 95 3d
       0.008482395 0.045881316 -0.014730506 0.07320078
0002f0 4a 16 71 3d bd 2c 77 bd 2d ae 2e bd e5 bc 6b 3c
       0.058859147 -0.0603454 -0.042646576 0.014388298
000300 0e 78 89 bd 12 8c 3f 3d 4c 91 54 bd 92 2b 23 bc
       -0.06712352 0.04676444 -0.05189638 -0.009959118
000310 8e 1b a3 bc c0 77 28 3d f8 81 2d 3b 42 fc 5e be
       -0.0199106 0.041129827 0.0026475172 -0.21775916
000320 76 71 5a bb 3a d6 5b bd f8 e2 e7 3d 5c 97 25 3d
       -0.0033331788 -0.0536711 0.11322588 0.04042755
000330 59 f9 53 bc 9c ad 3c b9 8a b2 4e 3d e8 2c 48 3d
       -0.012937867 -0.00017993752 0.050463237 0.04887095
000340 f6 c1 87 3d 62 4a 87 3d 0f da 44 bd 4b 56 52 3d
       0.06628792 0.06605984 -0.04805952 0.051351827
000350 ae 2a ff bc 8e 0b 8d 3a 25 b0 f5 bc 0b 8b 71 3c
       -0.031148281 0.001076089 -0.029991219 0.014742623
000360 5f 63 a9 bb 7b 45 5d bd d9 99 cd bc 39 f3 6b 3d
       -0.0051693167 -0.05402134 -0.025097774 0.057605002
000370 b2 de 29 3e 15 db 6c 3c 30 ae 57 bd 57 37 79 3d
       0.16588858 0.01445653 -0.052656353 0.06084379
000380 3f 20 66 bd d7 e1 c4 3d b2 88 54 bd 17 9f 46 bd
       -0.056183096 0.09613388 -0.051888175 -0.048491564
000390 f0 47 91 bc 46 23 a7 bc 5b 30 32 3d a4 41 a4 bd
       -0.017734498 -0.020402562 0.043503147 -0.080203325
0003a0 7c d7 60 3d b3 26 23 bc ab 9c c6 bb b3 d9 b2 3c
       0.054893002 -0.009957957 -0.0060611567 0.021832323
0003b0 4b 75 92 3d ad be ee 3c d9 87 b1 3d e1 9c 27 bd
       0.07151278 0.029143656 0.08668489 -0.040921096
0003c0 cc 20 05 3d 97 c0 b0 3d 63 d9 77 3c 33 f8 24 be
       0.03250198 0.086304836 0.015127513 -0.16110305
0003d0 72 90 f5 bd 00 6b cd bc df cf 73 3d 65 42 97 3d
       -0.119904414 -0.025075436 0.059524413 0.073857106
0003e0 ee 3e 34 be 4b 38 cc bc 85 cd 5b 3d 46 31 0d 3b
       -0.17602131 -0.024929186 0.053662796 0.0021544262
0003f0 8f 4e 0b 3d 37 b0 5a 3e 6a 77 7e 3c 5c 53 0a 3d
       0.034010466 0.21356283 0.0155314 0.033770904

bn2.weight f4 [300]
000000 e4 0a b1 3e 56 42 91 3e 08 7a 96 3e 23 eb b0 3e
       0.3457862 0.28370923 0.29389977 0.34554395
000010 08 f7 c1 3e de 45 01 3f b3 dc 08 3e 30 2a 33 3e
       0.37883782 0.50497234 0.1336544 0.17496562
000020 c0 e4 b2 3e 29 ba a4 3e 79 a2 63 3e 89 5e 1a 3e
       0.34940147 0.3217328 0.22229947 0.15075125
000030 b7 e6 3a 3e 79 23 b0 3e d5 b7 f4 3e 55 db 83 3e
       0.18252073 0.34402063 0.47796503 0.25753275
000040 c9 ed 9e 3e 10 76 85 3e 4e 6e aa 3e 09 c3 51 3f
       0.3104079 0.26066637 0.3328728 0.81938225
000050 3d 21 57 3e 26 c5 ec 3e d3 b2 5c 3e 4b fa 6b 3e
       0.21008773 0.46244162 0.21552591 0.23044698
000060 e3 c1 94 3e f7 3b ad 3e a0 6c 70 3e 06 25 1b 3e
       0.29054174 0.33834812 0.23478937 0.15150842
000070 88 c7 b1 3e 99 f3 0e 3f 97 2f d6 3e 1c da d2 3e
       0.34722543 0.5584045 0.41833183 0.4118203
000080 47 e4 78 3e ce c9 8f 3e 17 da ec 3e e1 0a 9e 3e
       0.24305831 0.28083652 0.4626014 0.30867675
000090 f3 2b a7 3e e8 13 e6 3e b6 73 89 3e 90 1d 6f 3d
       0.32650718 0.44937062 0.26846093 0.058377802
0000a0 7b 88 18 3e 69 17 09 3f 72 75 65 3e 69 c6 81 3e
       0.14895813 0.53551346 0.22408083 0.25346687
0000b0 0b dc 91 3e fc d2 ae 3e 80 09 2d 3e 15 c6 c3 3e
       0.28488192 0.34145343 0.16898155 0.38237062
0000c0 fb ef a3 3e c5 f6 49 3e 16 10 7c 3e ab 0d 01 3f
       0.32019028 0.19723041 0.24615511 0.5041148
0000d0 33 b4 c8 3e 69 e7 0c 3f 6c 5e 65 3e 68 d3 98 3e
       0.3919998 0.55040604 0.223993 0.2984879
0000e0 9e ab 76 3e 95 ff a1 3e ad b2 79 3e ff a5 4a 3f
       0.24088904 0.31640306 0.24384566 0.7915954
0000f0 37 d7 52 3f 6e 6e b2 3e da 14 ec 3d 45 80 a6 3e
       0.8235964 0.34849876 0.115274146 0.32519737
000100 2b 78 93 3e 56 e9 5e 3e db 57 9c 3e 7c b2 8c 3e
       0.28802618 0.21768698 0.30535778 0.27479923
000110 c0 df d5 3e ce 1a 41 3f fa 80 27 3f 65 03 aa 3e
       0.4177227 0.75431526 0.6543118 0.33205715
000120 8e b3 73 3e c0 36 41 3e b7 92 86 3e ef 9f 69 3e
       0.23798963 0.18868542 0.2628381 0.22814916
000130 7e 0c 10 3e 6a 15 4f 3e 73 c3 24 3e 5a b6 4d 3e
       0.14067265 0.20223013 0.16090183 0.20089093
000140 f7 41 42 3f 31 2a 02 3f b0 83 8f 3e 06 3d a5 3e
       0.75881904 0.5084563 0.28030157 0.3227312
000150 1e 2f 91 3e a5 8a 44 3e 44 e2 4a 3e 3e 2d 93 3e
       0.2835626 0.19193514 0.19812876 0.28745455
000160 2a b9 78 3e 03 1d 70 3e 71 75 9d 3e bc bf cc 3e
       0.24289384 0.23448567 0.30753663 0.39990032
000170 d0 13 f2 3e 6e 06 5c 3e f7 0d 99 3e df fa 68 3e
       0.4728074 0.21486828 0.29893467 0.2275195
000180 e1 15 2b 3e b2 76 6f 3e b0 8a 6a 3e 65 4f 86 3e
       0.16707565 0.23385122 0.22904468 0.26232448
000190 5c b2 6d 3e 72 36 3a 3e d1 41 16 3e 0f 69 48 3e
       0.2321257 0.18184832 0.14673544 0.19571327
0001a0 4a 30 50 3e 0e 9a ac 3e 2c 8b 96 3d 74 c8 84 3e
       0.20330921 0.33711284 0.07350764 0.25934184
0001b0 73 5c 16 3e 2c ac 5b 3e c2 4a cb 3e 96 7a ae 3e
       0.14683704 0.21452397 0.39705473 0.340779
0001c0 d1 5c 70 3e 52 ed 4c 3e d2 69 54 3e 46 13 ad 3e
       0.23472907 0.20012406 0.20743492 0.33803767
0001d0 02 e7 83 3e 0b f7 56 3e a1 07 d1 3e 96 cb 8f 3e
       0.25762182 0.20992677 0.40826133 0.2808501
0001e0 d7 1d 30 3e 79 f2 9e 3e f3 f6 b3 3e 1d 11 29 3e
       0.17198883 0.31044367 0.35149345 0.16510434
0001f0 db 32 9e 3e 07 68 3c 3e 7a 5a b8 3e ca a0 8e 3e
       0.30898175 0.18399058 0.36006528 0.27857047
000200 ca 11 d5 3e 50 6d 78 3e ff 7a 7c 3e d0 6b e3 3d
       0.41615134 0.2426045 0.24656294 0.11104548
000210 78 54 9d 3e 3c 41 6f 3e 0e 9e 6b 3e 87 02 24 3f
       0.30728507 0.23364729 0.23009512 0.64066356
000220 f8 eb a4 3e 2b b9 bd 3e 58 0b 7d 3e 4a e9 2d 3e
       0.3221128 0.37055334 0.24711359 0.16983524
000230 ce 1b 11 3e 5c d3 5f 3e 86 fc 8c 3e dc 9a 3c 3e
       0.14170763 0.21857971 0.2753641 0.18418449
000240 c1 c6 5e 3e 6d 3e e0 3d bd ef 61 3d 4a 61 84 3e
       0.21755506 0.10949407 0.055160273 0.25855476
000250 9c 9c 57 3e 85 87 92 3e 4a d7 71 3e f5 f6 95 3e
       0.21055835 0.28619018 0.23617283 0.29289976
000260 cf 0c 8b 3e 10 13 93 3e 72 7c 98 3e 08 a7 89 3e
       0.2715821 0.2872548 0.29782444 0.26885247
000270 08 1f 92 3e 4a 8e 85 3e 77 81 a6 3e d9 6d 1d 3e
       0.285393 0.2608512 0.3252065 0.15373935
000280 74 7d a4 3e c8 ec 8e 3e ee ff 29 3e 11 4a 1a 3e
       0.32126963 0.27915025 0.16601536 0.15067317
000290 fd 9d 4f 3e 7d 20 55 3e 1d ea 82 3e a4 4e bb 3e
       0.20275111 0.20813175 0.2556924 0.36583436
0002a0 bf 43 5c 3e fe 1c 40 3f c3 18 7a 3e a8 be e1 3d
       0.21510218 0.7504424 0.24423508 0.11022693
0002b0 a0 bf 38 3e 85 07 8b 3e c3 c3 10 3e c0 45 0f 3f
       0.18041849 0.27154174 0.14137177 0.55965805
0002c0 c8 78 69 3e 36 57 88 3e 8b 97 bb 3e c1 56 87 3e
       0.2279998 0.26629037 0.36639056 0.26433375
0002d0 3d 5c a3 3e 18 4e 30 3e 77 1e 3d 3e ed af 3d 3e
       0.3190631 0.1721729 0.18468653 0.18524142
0002e0 35 0b f2 3e e7 7a 78 3e 84 e1 7b 3e 0c 6a 58 3e
       0.47274175 0.24265634 0.24597746 0.21134204
0002f0 bd 3e b8 3e ab 50 1a 3e 80 70 3c 3e dc ad 78 3e
       0.35985366 0.15069835 0.1840229 0.24285072
000300 51 13 03 3f dd 22 80 3e 1d 4c 41 3e da 59 a7 3e
       0.5120135 0.250266 0.18876691 0.3268574
000310 2f 51 c1 3e 24 89 c2 3e ab 3c 9d 3e ec 70 db 3d
       0.3775725 0.37995255 0.30710348 0.107148975
000320 6b fe a5 3e 0a 42 6d 3f b6 2d 28 3e 94 e7 23 3e
       0.32420668 0.9267889 0.16423687 0.16006309
000330 40 c4 09 3e 99 32 c8 3e ff bb 83 3e 9b 73 82 3e
       0.1345377 0.39101103 0.25729367 0.25478825
000340 cf 55 89 3e 8c 16 23 3e a5 b0 e1 3d d4 7b fe 3e
       0.2682328 0.1592657 0.110200204 0.49703848
000350 4f cc 8e 3e 7e b9 39 3e 56 a7 2f 3e 85 a0 89 3e
       0.2789025 0.18137166 0.17153677 0.2688028
000360 33 d2 18 3f 09 38 ec 3d ab c8 b4 3e a1 f1 fa 3e
       0.5969574 0.11534125 0.35309348 0.49012473
000370 e4 a2 b7 3d 8d 8b a4 3e 88 b5 8e 3e 5c 04 ff 3d
       0.08966616 0.3213772 0.27872872 0.12452003
000380 92 73 a2 3e eb b1 2c 3c a8 2e ee 3e d3 fe a8 3e
       0.31728798 0.010540466 0.4651997 0.33006915
000390 03 3e 23 3f fb 19 93 3e 7d 7e d3 3e 8a 01 33 3e
       0.637665 0.2873076 0.4130744 0.17481056
0003a0 9a 5f c2 3e 4f 0e a8 3e 9d 2f 60 3e 8f 60 a5 3e
       0.37963563 0.32823417 0.21893163 0.3230023
0003b0 23 7e 58 3f fd 5b 99 3e ab d1 5b 3e 76 4a 4b 3e
       0.8456747 0.29952994 0.214667 0.19852623
0003c0 d2 3b 6b 3e fc d6 86 bc a0 1d b1 3e ba 05 04 3f
       0.22972038 -0.016459934 0.34592915 0.5157124
0003d0 ea 08 31 3e e0 f1 ca 3e b8 3b 3d 3e 8e 5e 61 3e
       0.17288557 0.3963766 0.18479812 0.22008726
0003e0 e7 ff ec 3d 34 70 66 3e 3b 68 22 3e 50 3d a2 3e
       0.11572247 0.2250374 0.15860073 0.31687403
0003f0 a5 f4 c2 3e bc e4 55 bb 54 9b 62 3e 6d fe 7e 3e
       0.38077274 -0.0032637557 0.22129565 0.24901743
