Zadanie3/srcV2/models/Variable exploration probability/actor_network.pth (torch, 507007 bytes, 10 tensors)

fc1.weight f4 [400, 8]
00000000: c098 153e c236 363d 706f 19be 9573 d93b
00000010: 6781 e0bd 80db 263c 6457 823e 02bb b63e
00000020: c847 cebd 4be3 133e 7a6b 9ebb 91f1 4fbe
00000030: 4964 30bb b647 ed3d ce79 353e 2b37 593b
00000040: baff 5fbb d307 053e 6021 3cbd 5528 12be
00000050: c4d5 f1bc ab1b 82bc 9977 a53e b02c e33d
00000060: eb82 de3d 2368 e13d 3cc3 9f3d 59ce a53c
00000070: 3925 4abe 2df6 40be a48f df3d 0a38 26bd
00000080: 8c89 753e db4a be3d aef7 cabd 228d 8dbd
00000090: c2c0 633e a73d 1fbe b710 183d 13cc 2d3d
000000a0: ef0a a23c 9c20 d13d ce14 5abd 077b 31be
000000b0: b8d5 da3d a769 67bd bd3b d83e 0c3a 083e
000000c0: bba4 a1bc fb7b 283e ed2d 05bc aa72 2abe
000000d0: 3d3f b93c e39d 883d 4b56 7f3e 49ad 713d
000000e0: 1617 91bc c1bf 603d fb1c 82bc 623e c8bd
000000f0: cb1b 45bd 3083 a23e bc33 7f3f 420d 403e
00000100: ed74 e23c 8b86 063e 89b5 cbbc 9a3f bdbd
00000110: ca23 b33b 114b 7fbe 3e77 4c3e 17bb 8bbe
00000120: 14b4 03bd c31a 223e 0783 04be 6f5c d43e
00000130: d317 bebe 318a 1dbd a272 123e 64c0 343e
00000140: e0ec ddbd a39f 463d b3b2 a0bc 92c9 7cbe
00000150: 81a0 253d ba0e 1e3e 131d d4bd e12b 36bd
00000160: 8643 73bc 97b3 083e 8782 bcbb bac5 dfbd
00000170: 048e adbd 0e78 053b 8613 893e 3384 433e
00000180: ac8d e03c 40fe ab3d 84c4 30be 68c2 163e
00000190: cd01 383e 5cff 9dbe 61d3 0cbd 6363 ee3d
000001a0: 42bb 6d3d 3d84 d43d 6a1c 27bc d7e9 56bd
000001b0: da77 17bb 7654 a3be c5a7 603e 28bb 79be
000001c0: 33bc 8dbd 3f00 b73d 9ef9 2bbd 8dc1 8cbe
000001d0: 1204 1a3d e540 303e 8567 123e fb6f 25bd
000001e0: aaed 5fbc e26b 083e d4e1 6dbd c360 61be
000001f0: b541 bb3d 0e1e 4ebd f57a af3e 0e33 9cbc
00000200: 2fd8 d6bc 2576 2b3d d682 7a3d 1333 0abc
00000210: 67d2 a0be d0f4 04bc 6f7e 0c3f 3cde c93e
00000220: 3ae6 93bc 4b94 093e d266 043e b4ff 90bd
00000230: 3840 063e 1c9c 82be 5441 073e 893a 41be
00000240: 33c7 4abd 44aa 773d 2cd6 5cbc f7e3 84be
00000250: 5e08 973b ad03 3fbd 577d 1ebd 98ee 253d
00000260: 5841 f0bd 9da3 213e 89ad 05be e12a 8b3d
00000270: 8569 8c3d 61a6 29bd a133 283e 812c 1cbe
00000280: b5d9 b4bd f7e0 053e 12d3 adbc f6e6 89be
00000290: 874e 76bb 9de5 883e f219 963d c116 adbd
000002a0: 505b 8cbb 4193 243d bd39 06bd 59aa 03be
000002b0: 4abc 4e3e bf89 8cbe 595b b43d c42a 913e
000002c0: 21c3 e73b 623e fc3d 199b 13bd 005d f5bd
000002d0: 1d0a 7abd d75a f83a 4d98 9d3e d9ed 4a3e
000002e0: f1c0 bfbd 679d bd3d 9041 a5bd 54df e3bc
000002f0: 282d 4fbe 4879 c63c 9181 a73d 5ce6 313e
00000300: 705f 143b 097b e43d cb03 1bbe d1ec b63d
00000310: 7883 603e 1ff6 0e3e 3cca 033e 0277 49bd
00000320: 7c85 1dbc eb0c d13d cb74 12bd 6698 f6bc
00000330: 2c54 7cbe 7809 72be d20c f0bd fa72 d1bc
00000340: 27f2 a93c 0ade dc3d 4eae d53c af65 8c3c
00000350: 37c9 73be 9af3 90be f280 cf3b c5cd 88bb
00000360: 838b e0bd db85 2a3d a44e c53b 1274 99be
00000370: c60c 8d3d 8dd2 a73e 586c 84be 3d0e 543c
00000380: ee28 d33d b415 c13d bbdb e5bc ec80 adbd
00000390: 1adf d6bd e212 483d 846f cd3d bed6 753d
000003a0: d2e0 27bd 5861 073e 344d e9bd e2c9 fc3c
000003b0: 1ffb 513e 08e6 fb3d 7825 253e 68eb c5bd
000003c0: cfc1 27be 5176 263d a2a9 ad3c 7206 083e
000003d0: 11bc 16be 8978 ed3d 0af1 603e 98b9 833e
000003e0: f1a7 103b b17b 273e 7f2a 903b 991c d3bd
000003f0: e4c1 10bd 0039 19bd 4c51 ab3e 3436 633e
0.14609051 0.044485815 -0.14983916 0.006636093 -0.109621815 0.010184169 0.254573 0.3568955
-0.10072285 0.14442174 -0.0048345895 -0.20306994 -0.0026915243 0.115859434 0.17722246 0.0033144455
-0.0034179525 0.12991266 -0.045930266 -0.14273198 -0.029520877 -0.015882334 0.32317808 0.11092508
0.10864814 0.11006191 0.0780091 0.020239996 -0.19740762 -0.18843909 0.10916069 -0.040580787
0.23978251 0.09291621 -0.099105224 -0.069116846 0.222415 -0.15550862 0.037125316 0.04243095
0.019780604 0.10211298 -0.053242497 -0.17332087 0.10685295 -0.056497242 0.42233077 0.13303393
-0.01973187 0.16453545 -0.008128625 -0.16645303 0.022613162 0.066707395 0.24935262 0.05900315
-0.017711204 0.05487037 -0.01588296 -0.097775236 -0.04812221 0.31740713 0.99688315 0.18755057
0.027643645 0.13137262 -0.024866836 -0.09240647 0.005466913 -0.2493098 0.19967362 -0.27291176
-0.032154158 0.15830521 -0.12940608 0.4147677 -0.3712755 -0.038461868 0.14301541 0.17651516
-0.10836196 0.048492085 -0.01961646 -0.24686268 0.04043627 0.15435305 -0.10357108 -0.04447544
-0.014847642 0.13349758 -0.0057528648 -0.10926385 -0.08474353 0.0020365748 0.26772708 0.19093399
0.027411304 0.08398104 -0.17262465 0.14722598 0.17969437 -0.30858886 -0.034381274 0.1164005
0.05803991 0.10376785 -0.0101996455 -0.0524691 -0.0023112209 -0.31900376 0.21938999 -0.243878
-0.06920662 0.08935594 -0.0419861 -0.27491418 0.037601538 0.17212255 0.14297302 -0.040389996
-0.013667503 0.13322404 -0.058076695 -0.22009568 0.09143392 -0.05032163 0.34273496 -0.019067314
-0.026226131 0.04186072 0.06115993 -0.008435029 -0.31410524 -0.0081150085 0.5488042 0.39427364
-0.018054117 0.13435476 0.12929848 -0.070800215 0.13110435 -0.25509727 0.13208514 -0.18869986
-0.049506377 0.060465112 -0.013478797 -0.25955173 0.0046091517 -0.046634365 -0.038693752 0.040510744
-0.11731213 0.1578507 -0.1305448 0.06795288 0.06856064 -0.041418437 0.16425945 -0.15251352
-0.08830587 0.13074099 -0.02121881 -0.26934022 -0.0037583427 0.2673768 0.073291674 -0.084516056
-0.0042833462 0.040179495 -0.032769907 -0.12857951 0.20189014 -0.27448842 0.08806486 0.2835294
0.0070728217 0.12316586 -0.036036585 -0.11980629 -0.0610448 0.0018947971 0.3078026 0.19817294
-0.093629725 0.09258538 -0.08069146 -0.027816452 -0.2023207 0.024227753 0.0817901 0.17373031
0.0022639893 0.111562796 -0.15138166 0.08931888 0.21925151 0.13961075 0.12870115 -0.04918576
-0.009614345 0.10207542 -0.035755914 -0.030101966 -0.24641484 -0.23636425 -0.11721195 -0.02556752
0.02074535 0.10784538 0.026084092 0.01713833 -0.23807226 -0.28310853 0.00633251 -0.0041749203
-0.1096411 0.04163156 0.0060213376 -0.29971367 0.06887202 0.32777825 -0.2586391 0.012942848
0.10310541 0.09427968 -0.028058877 -0.084718555 -0.10491772 0.048846133 0.100310355 0.060019247
-0.04098589 0.13220727 -0.113916785 0.030857984 0.20505951 0.12299734 0.16127574 -0.09664041
-0.16382526 0.04064018 0.021199051 0.13283709 -0.14720179 0.11595256 0.21966949 0.25727534
0.0022072757 0.16355778 0.004399597 -0.10308189 -0.03534116 -0.037407875 0.33460462 0.22188646

fc1.bias f4 [400]
00000000: 6a64 5c3e 320c 193e 7e14 1c3e ae23 c03d
00000010: e04d 2a3e e5ba 3f3e 0096 093e 6ff7 bc3d
00000020: 3ec2 303d a350 c33d d28f d33d 44c1 243e
00000030: ecfb 103e 04e8 dfbb 8cab e03d 4170 163e
00000040: 45d5 973d a817 aa3d 7476 873d 3767 153e
00000050: de01 d93d 2056 123e c05a 323e 1d02 0b3e
00000060: d166 933d 1c3f 7a3d fd02 9f3d b54e c53d
00000070: 906f 353e c09c c73d d0a5 4e3e 4013 2a3e
00000080: 9e5b 733d ec77 dd3d bc2f 333e 08d0 093e
00000090: 643d 213e 6d2b d03d 543d e33d f083 393e
000000a0: 505f 503d 702d e13d ad56 743d 10b4 f63d
000000b0: 88be 1a3e a8e5 203e fbfa 143e b179 173e
000000c0: 9e0c ca3d 4b29 0b3e a0e2 c23d 92dd f83d
000000d0: 9a5c 383e 2c28 433e 7b1a e93d 3195 a03d
000000e0: dc71 bc3d 25ac 0fbd b4ae a03d c5a4 c13d
000000f0: 5393 3d3e 161e 023d e792 1b3e 4050 9f3d
00000100: 2619 e13d 6853 253e 3e53 e13d a079 0c3e
00000110: 7cec df3d 8487 2f3e 57b8 023e f359 ee3d
00000120: d343 1c3e 8fe3 be3d e887 ba3d 1e22 4b3e
00000130: d66c 223e 5bef 733d 003f 4c3d e4e4 003e
00000140: d1cd 583e 3591 143e 29bb 053e 067b 323e
00000150: 137e 9e3d a5f1 bf3d cc4f a03d 61fa d73d
00000160: a7ee 2f3e dfc6 463d 4789 fb3d a28e 163e
00000170: 28fa 253e 4b1c 9d3d 6629 543d 466e 803d
00000180: 98aa 2a3e c180 2b3d 6482 f33d a0b2 07bd
00000190: 0bbd 313d fe7a 943d c70a de3d ff06 153e
000001a0: 2b02 0c3e ca79 073e 392c ac3d 93e9 133e
000001b0: 4655 ae3d f815 d43d 738e 333e f38d 273e
000001c0: 4dd2 083e a539 ec3d b325 b13d ff39 c7bd
000001d0: 181a b03d 6d08 c83d 3425 913d 0f91 173e
000001e0: 5632 423d 85aa 003e ad4c dabd 71cb 323e
000001f0: 904e 113e e0e1 463d 9d2c ea3d 70f1 da3d
00000200: f253 163e d894 e63d 9138 d93d c38a 153e
00000210: 6b09 163e aadb d33d 3903 cb3d 0c4b cb3d
00000220: 0b51 123e 2351 ed3d 5cd8 823d 32a9 253e
00000230: 9512 003e 93d0 323e 1c37 273e cf81 0f3e
00000240: 062c 023e 5136 083e 2559 f93d 41ef 0e3e
00000250: 074c 0a3e fcd9 8f3d 9cd6 103e 0c89 cd3d
00000260: cd09 cd3d a788 183e 9b35 8f3d de61 bd3d
00000270: 0eab 0c3e ac8b f63d 2e5e de3d 391e db3d
00000280: 5b97 363e 8529 293e b094 413e f684 f13d
00000290: 4f34 443e 57b2 a03d 2c10 de3d 7d73 4e3e
000002a0: 8364 753d 7e4e c63d 1b9e 163e 2d76 453d
000002b0: bc61 0b3e ca7a c93d efa7 063e 34f1 393e
000002c0: cff5 473d 1c93 9a3d 326f 0b3e 1163 123e
000002d0: ee71 8e3d 49b2 193e de09 053e b737 813d
000002e0: abf7 ba3d e76f 2e3e 2763 103e a328 5b3e
000002f0: 9f06 2b3e bc25 ef3d ba20 733d 477f 253e
00000300: 6ace cc3d 9a55 ad3d 1731 003e 2799 213e
00000310: 916d fb3d 147b f93d 5687 ba3d dfdb 193e
00000320: 2a8b bb3d f67a a13d 6c83 a53d 2b57 b93d
00000330: 5370 093e e5f0 063e 08f3 7d3d 15ec 1d3e
00000340: 1142 e73d b08a 833d c236 e53d e8e8 4e3e
00000350: d461 bf3d a63e b53d 668c 213e a18f ed3d
00000360: 5b0a 113e 2cf1 b33d 234d e0bc 4b42 f13d
00000370: bf7f 3e3e 4af1 373e b3e8 803d 557e 283e
00000380: 586f 513d c4f4 e03d c670 cd3d d589 023e
00000390: c7fa 4a3d 8370 0c3d 1bc7 58bd a7f8 a0bb
000003a0: 8ad5 3f3e 1826 cb3d 1fcd d83d 0fc8 c03d
000003b0: e925 433e 0308 f13d 2856 303e ec4d 753d
000003c0: 180c 393e ae6b 353e c9aa 033e 30df 433e
000003d0: 874e 5f3e 7823 a93d 69b5 113e 2e0f 003e
000003e0: ba3e 1a3e b51b 9c3d 02b7 0f3e 8965 143e
000003f0: ec40 333e a698 803d 5f31 e33d e7ac 6e3d
0.2152268 0.14946058 0.15242192 0.09381805 0.1663127 0.18723638 0.13436127 0.09226882
0.043153994 0.095368646 0.10330166 0.1608935 0.141586 -0.0068330783 0.1097022 0.14691259
0.07413725 0.08305293 0.0661439 0.14590155 0.10596059 0.14290667 0.17417431 0.13575025
0.07197345 0.061095342 0.07764242 0.09634153 0.17718339 0.097466946 0.2018044 0.16608906
0.059413545 0.10813889 0.17498678 0.13458264 0.15746075 0.10164533 0.11095682 0.18116736
0.050872147 0.10994995 0.059652973 0.12046063 0.15111744 0.15712607 0.14548866 0.14792515
0.09865688 0.13589971 0.095158815 0.12151636 0.18004075 0.19058293 0.11382004 0.07840956
0.092014045 -0.03507628 0.07845822 0.094552554 0.18513231 0.031766973 0.15192758 0.07778978
0.10991125 0.16145098 0.11002205 0.13718271 0.10933778 0.17141539 0.12765633 0.1163825
0.15260248 0.09320747 0.09107953 0.19837233 0.1586183 0.05955444 0.04986477 0.12587315
0.21172263 0.14508517 0.13059677 0.17429742 0.077388905 0.09372262 0.0782772 0.10545803
0.17180882 0.048529502 0.12282043 0.14702848 0.16208708 0.07671412 0.051797293 0.06271033
0.16666639 0.041870836 0.118901044 -0.033129334 0.043393176 0.072500214 0.10841899 0.1455345
0.13672702 0.13230053 0.08406872 0.1444457 0.08512358 0.10355753 0.17534809 0.16362743
0.13361473 0.11534432 0.08649769 -0.09727859 0.08598727 0.09767232 0.07087174 0.14801429
0.047411285 0.12565048 -0.10659156 0.17460419 0.14190125 0.048555255 0.114342906 0.10690582
0.1468046 0.112588584 0.10606492 0.14603715 0.1465203 0.10344632 0.09912724 0.099264234
0.14288728 0.11587741 0.063889235 0.16177824 0.12507088 0.17462377 0.16329616 0.14014362
0.12712106 0.1330197 0.12175206 0.13958456 0.13505565 0.07023999 0.14144367 0.10035905
0.10011635 0.14895879 0.06992646 0.09247182 0.13737127 0.12038359 0.10857807 0.10699124
0.17831175 0.16519745 0.18904376 0.117929384 0.19160579 0.078465156 0.10842928 0.20161243
0.05991031 0.0968294 0.1470875 0.048208404 0.13611501 0.09837873 0.13149999 0.18158418
0.048818406 0.0754759 0.13616636 0.14295603 0.06955324 0.15009417 0.12992045 0.06309455
0.0912927 0.17034875 0.14100324 0.2140222 0.16701744 0.11677119 0.059357382 0.16161834
0.10000308 0.08463593 0.12518726 0.15781079 0.122767575 0.121816784 0.091078445 0.1502528
0.09157403 0.07884781 0.08081707 0.09049829 0.13421755 0.13177831 0.06199935 0.1542209
0.11291898 0.06422937 0.11192085 0.20206034 0.09344831 0.0884984 0.15776214 0.11599661
0.14164107 0.08786234 -0.027380532 0.117802225 0.18603419 0.17963138 0.06294384 0.16454442
0.051131576 0.10984185 0.100312755 0.12747891 0.049555566 0.034286987 -0.052924257 -0.004912454
0.18733802 0.09919375 0.10585999 0.09413158 0.1905743 0.11769106 0.17220366 0.059888765
0.1807102 0.17716858 0.12858118 0.19128108 0.218073 0.08258718 0.14229359 0.1250579
0.15062991 0.07622472 0.14034656 0.14491858 0.17505234 0.062791154 0.11093401 0.05827036

bn1.weight f4 [400]
00000000: b9c3 903f ecc1 103f a368 1b3f ede5 7a3f
00000010: 941c 713f fcdd 123f f043 1d3f 6daa b33f
00000020: 900f 933f 7009 b73f af5c 8e3f f0c1 1f3f
00000030: 05b9 863f a402 a53f 3fd0 463f 08f5 193f
00000040: 1939 b63f ab6a 933f 33ac 753f 6979 723f
00000050: 1b67 1b3f fa35 823f cbff 1f3f f45c 663f
00000060: 7055 873f e576 7a3f 19fa 793f 2428 973f
00000070: a704 573f ace4 6a3f a37c c43f 6fd1 213f
00000080: 0cac e53f 742c 733f 0ba3 2a3f 91ed 3a3f
00000090: f805 593f a135 853f f3f0 863f 5672 0c3f
000000a0: 3723 cb3f 8d90 163f 3106 8d3f 5ced 923f
000000b0: 57c7 e13e 614f f63e eb07 013f f3aa 1f3f
000000c0: 1c8e 7e3f 0f97 353f 0a64 333f 071b 4a3f
000000d0: c287 c13e 5979 103f 732e 863f 66ca 8c3f
000000e0: 08c7 953f 25ea bd3f 10ba 793f 84c1 943f
000000f0: 8ff2 3b3f 682e c63f a17a 0e3f ce7a 803f
00000100: 1510 6b3f 460b 103f 6d7f ad3f 8d14 3e3f
00000110: b96d 913f e54f 073f 1ca4 373f 28bb 6d3f
00000120: d445 243f 0b10 8b3f 4c81 593f 9845 d23e
00000130: 8c54 423f 26a1 8b3f 6d78 8d3f b6b3 913f
00000140: 6ad1 0f3f 4955 e93e 7cce 093f fe37 f63e
00000150: 03b2 883f 7530 833f 3ede 983f 1b80 7f3f
00000160: c504 163f d8ee d73f fe2b f23e 79f9 843f
00000170: e22e 6a3f ec55 903f 4742 8f3f 1a8c d83f
00000180: b4bb 683f 920b 773f ea14 743f 7db6 b03f
00000190: d604 923f 1f92 953f 1dc5 943f 2d02 963f
000001a0: 12be 103f 0184 2d3f 3871 883f 01a0 7d3f
000001b0: b096 8d3f 0ea1 403f 499c 5b3f 14a1 d33f
000001c0: 16be f93e 6ab1 bd3f aa86 903f 6928 ed3f
000001d0: 84cc 873f 6ce9 873f 1882 883f 2e13 363f
000001e0: 2a7a 883f 4b51 8c3f 95ff fb3f 2437 0f3f
000001f0: b67b 163f 7b05 ea3f ebdf 793f 1250 f33f
00000200: fc00 2e3f 521f 923f 0aef 343f 5a75 c03f
00000210: 8ba3 253f b0ff 823f 6568 bb3f e4df 933f
00000220: 8257 073f 4ea6 ad3f 91f6 9a3f c06b 123f
00000230: 4464 1b3f 1f05 093f 6890 313f c5e8 793f
00000240: 09ce 143f 3e32 103f c2cc 3c3f 0ec4 fc3e
00000250: 0ccc 3e3f 543e 573f b049 603f 565d 873f
00000260: c4f5 7b3f 7ef6 673f b1c8 9b3f 5d06 8e3f
00000270: f8fb b03f 9422 7c3f 8c42 e33f 5d70 213f
00000280: ee59 303f fa80 193f a085 383f e234 513f
00000290: 8301 8e3f e33d 8a3f a2c0 4d3f afc6 0f3f
000002a0: 3282 4c3f 3f9e 863f 12d4 283f fed3 8a3f
000002b0: b29b 3c3f 092c 863f 1634 3b3f 31f5 e03e
000002c0: b7a9 933f 0d36 5c3f e234 383f c385 7d3f
000002d0: 5af1 9e3f dad1 3c3f 98f5 833f 1c80 933f
000002e0: 57ad a13f 232d 263f 4301 3c3f 3cfa 4f3f
000002f0: e09c 293f a068 463f c671 a23f 58a2 4c3f
00000300: 0ad9 af3f ee27 813f 6714 343f f856 193f
00000310: d145 993f d65b 983f e14d a23f f6d7 1d3f
00000320: be89 873f 311b 843f 6512 763f a3e0 943f
00000330: 1493 783f 8ded 263f 7950 7c3f 937d 9a3f
00000340: 4603 2d3f 4be6 ee3f 9f00 483f 8cf0 3c3f
00000350: e0f1 8d3f 13e5 223f 6e17 153f 4b5b 5c3f
00000360: 80a6 113f ecf2 9c3f f0c0 ae3f 1092 3b3f
00000370: e89b 3a3f f976 d83e b07d 773f 2c01 123f
00000380: 74d3 9f3f 21b4 863f cdd1 213f 1b72 893f
00000390: fde0 c33f 0abb 9f3f 3cdc bf3f dbe1 a33f
000003a0: 50a9 bc3f 27a4 773f f4a9 163f 5e3e 873f
000003b0: 82a2 113f 06c9 903f e4ba f23e d03a 983f
000003c0: 6ef3 f43e d0bc ef3e 7858 853f d16d 103f
000003d0: 2643 ee3e 1aa5 863f 98d1 633f ef79 a93f
000003e0: a7fc 613f 818d 5a3f 63b3 813f 0087 7c3f
000003f0: a8b5 4d3f 8e8d 9f3f 441d 2b3f 7279 d13f
1.130973 0.565459 0.6070654 0.9800709 0.9418423 0.5736997 0.6143179 1.4036385
1.1489124 1.4299755 1.1122035 0.624053 1.0525213 1.2891431 0.7766151 0.60139513
1.4236175 1.1516927 0.9596588 0.9471651 0.607042 1.0172722 0.62499684 0.89985585
1.0572948 0.9783767 0.97647244 1.1809125 0.83991474 0.91755176 1.5350536 0.63210195
1.794313 0.94989705 0.66655034 0.7301875 0.8477473 1.0406991 1.0542282 0.5486196
1.5870122 0.58814317 1.1017514 1.1478686 0.44097397 0.48107436 0.50402707 0.6237022
0.9943559 0.7093362 0.7007452 0.7894749 0.37798887 0.5643516 1.0482925 1.0999267
1.1701365 1.483708 0.97549534 1.1621556 0.7341699 1.5482912 0.55655867 1.0037477
0.91821414 0.562672 1.3554512 0.7425011 1.136161 0.52856284 0.71734786 0.928637
0.6416905 1.0864271 0.84962916 0.4106872 0.7591026 1.0908554 1.1052376 1.1382968
0.56178916 0.4557288 0.53830695 0.48089594 1.0679325 1.0249163 1.1942823 0.9980485
0.5860103 1.6869764 0.47299188 1.0388633 0.9147779 1.1276221 1.1192101 1.6917756
0.9091141 0.9650203 0.9534441 1.3805691 1.1407726 1.1685218 1.1622654 1.1719414
0.56540024 0.67779547 1.0659552 0.9907227 1.1061611 0.7524575 0.8578535 1.6533532
0.48777837 1.4819767 1.1291096 1.8527957 1.0609288 1.061811 1.0664701 0.71123016
1.0662282 1.0962309 1.9687372 0.5594351 0.5878252 1.8282923 0.97607297 1.900881
0.6797025 1.1415808 0.70677245 1.5035813 0.6470267 1.023428 1.4641234 1.1552701
0.528679 1.3566377 1.2106496 0.57195663 0.6069987 0.5352344 0.6936097 0.97620803
0.58126885 0.56326663 0.73749936 0.49368328 0.745301 0.8407948 0.8761244 1.0575359
0.98421884 0.9061049 1.2170621 1.1095692 1.3826895 0.9849026 1.7754683 0.6306208
0.6888722 0.5996243 0.72078896 0.8172132 1.1094211 1.0800136 0.8037206 0.5616254
0.7988616 1.0517043 0.65948594 1.0845945 0.7367507 1.0482188 0.7312635 0.43937066
1.1536168 0.86019975 0.7195569 0.9903223 1.2417405 0.7375771 1.0309324 1.1523471
1.2631024 0.64912623 0.73439425 0.812412 0.66255 0.77503395 1.2690971 0.79935217
1.373811 1.009031 0.7034363 0.5989833 1.1974431 1.1903026 1.2680017 0.61657655
1.058891 1.0320798 0.9612182 1.1631054 0.97099423 0.65206224 0.9856029 1.2069572
0.6758312 1.866403 0.7812595 0.73804545 1.1089439 0.6363079 0.58238876 0.860768
0.56894684 1.2261634 1.365263 0.7326975 0.72894144 0.4227827 0.9667616 0.5703304
1.2486405 1.0523721 0.63210756 1.0737947 1.5303036 1.2478955 1.4989085 1.2803301
1.473917 0.9673485 0.5885308 1.0565908 0.5688859 1.1311347 0.4740821 1.1892948
0.47841972 0.4682374 1.0417624 0.56417567 0.46535605 1.0519135 0.8899169 1.3240336
0.8827614 0.8537217 1.013287 0.98643494 0.8035531 1.2465074 0.6684153 1.6365187

bn1.bias f4 [400]
00000000: caa8 45be a1ca ecbe 54b7 01bf 7607 57be
00000010: a6ac 96be 06dc 16bf fd4e f4be 6229 17be
00000020: d0b3 e2be 6253 643c 5d60 dbbd b811 f2be
00000030: 61f3 61be 2027 b3be 58aa cebe a25b 03bf
00000040: 7da1 e8bd 4708 2abe f3cf 18be 3a54 8fbe
00000050: 9e01 dabe 3387 60be d1f4 0abf 5ec4 84be
00000060: 94c9 7bbe 57a0 51be 8e69 4ebe 87d7 82bc
00000070: 30ae c6be 01da 9abe d429 3a3d 983c f9be
00000080: a1c2 a73d 408c 3ebe 06df fbbe 40da e3be
00000090: 9408 b6be 79c4 bdbd beb2 34be de00 14bf
000000a0: 6ff8 103e dfbf f0be 76c3 0ebe 56dc 6abe
000000b0: 94ff 13bf d460 05bf 1b59 0dbf 66dc e7be
000000c0: 78e6 3bbe 0e1f ccbe d417 b0be 3bd1 a5be
000000d0: f62a 1abf 11fe 04bf 93ba eebd 659c 30be
000000e0: 9677 a9bd a0ac abbe b862 62be c8f1 c3bc
000000f0: 1d49 edbe b807 313e 8b8a f6be 22c8 55be
00000100: 4d2e 99be f20d 11bf 4cb0 833c cc1f d5be
00000110: 7ec5 3cbe b832 0dbf 5cca d4be 8ac0 c6bd
00000120: 4f29 02bf 48c7 01be 19af 95be e03e 26bf
00000130: 7b99 cabe 73a7 20be 50cc 07be 4308 53be
00000140: cb9e 09bf f1f1 10bf 68f3 f0be e43b 14bf
00000150: b65f 43be 8ccb 57be 475c 43bd b9cc 86be
00000160: e9aa 0abf 631a f33d e81b febe 8c7c 5bbe
00000170: 9661 3abe 0980 58bd f314 fdbd cbc0 3c3e
00000180: 965f 91be 6a02 5ebe d227 3dbe 92c7 bebe
00000190: 29f7 bfbd 0e9f d0bd 5dee 07be 5196 dfbd
000001a0: 404a f5be b62c d0be c5c6 e8bd 28bd 6dbe
000001b0: b69a 91bd f508 8fbe c080 a5be 87bf 133e
000001c0: d649 02bf deb3 263d b7ef a5bd fd6c 5abe
000001d0: caf1 f1bd 654b e8bd 3846 17be 2ec1 f8be
000001e0: 139b 6dbe 7557 09be 46b2 2bbe 0e38 16bf
000001f0: c39f e1be 1daa 0d3e 2382 13be 8de2 1a3e
00000200: 42c0 f0be 786e 38be 267f c8be abbe 6cbc
00000210: b9d1 f6be e9b4 a0be 50c6 613d dc2c 27bd
00000220: 54fd 04bf ae72 8e3d 8a0f d0bc 0aab e6be
00000230: 26ca ecbe 6f54 12bf 3746 f9be 3a10 89be
00000240: 3a6b f2be 0677 ffbe bd0c cebe ab29 08bf
00000250: ad78 b1be f2a7 87be 8469 c2be 6539 0fbe
00000260: 3c1f 80be eada a0be 36e1 b9bc 81d0 09be
00000270: a5a1 953d cdc5 fcbd caeb 113e 1b8d d6be
00000280: 26da c8be 2880 c7be 26b2 c4be bf1a d1be
00000290: 686a c8bd 77e8 22be 5ccf a7be 6b67 10bf
000002a0: 53eb 9cbe c817 06be 9ed5 e9be 3bb1 d0bd
000002b0: 6fbc 98be 50f0 77be 7961 abbe 7a28 24bf
000002c0: 62de a3bd f697 98be b627 dbbe e066 64be
000002d0: 6291 9abc 1be3 a8be d956 dfbd cf97 b1bd
000002e0: 364d ffbd c159 07bf 19b4 cdbe c437 acbe
000002f0: 2ba3 eebe 9bb1 d9be 2b63 91bd 6665 9cbe
00000300: 0639 81bd 4f89 44be b90b c9be dd17 ffbe
00000310: ad84 29be 9318 38be 7282 043d f51f 08bf
00000320: 73f5 2ebe 8acb 23be d203 61be 85e2 bebd
00000330: 564a adbe 0091 e3be 6eaf 75be 18e2 28be
00000340: 8cc0 babe 8e0d 40bd 6e6b 7abe 21ab d2be
00000350: 3786 09be 9326 cdbe 055d 03bf d00e 6ebe
00000360: 08ca 04bf f4c1 43be 9d32 b6be c2e7 b8be
00000370: a038 d7be bd37 17bf bd5c 70be e0db eebe
00000380: f501 c1bb 5c47 35be e757 e1be 4a79 43be
00000390: a1de 90bc b0da ffbc e541 8ebe 2e41 cbbe
000003a0: 3f04 143d db18 05be f8d2 e3be 2088 e9bd
000003b0: a42d 16bf b4fd f3bd d4eb 17bf 73a2 02be
000003c0: fccf 1abf ce00 0ebf cabb c5bd 167b 20bf
000003d0: 4deb 1fbf 3dac febd 69d1 99be 1f3c 2bbc
000003e0: fb6b c6be 0b3a aebe f2c5 92be 3724 07be
000003f0: 46d5 b1be 3209 83bd 516a cbbe 243a 813d
-0.19302669 -0.46248344 -0.5067036 -0.2099894 -0.29428595 -0.5892948 -0.47716513 -0.1476188
-0.4427781 0.013935896 -0.10711739 -0.47279143 -0.22065498 -0.34990788 -0.40364337 -0.51311696
-0.113589264 -0.1660472 -0.14923076 -0.27993947 -0.4257936 -0.21926574 -0.5427981 -0.25931066
-0.24588615 -0.20471321 -0.20157453 -0.015971912 -0.3880477 -0.3024445 0.045450047 -0.48679042
0.081914194 -0.18608189 -0.4919359 -0.4450245 -0.3555342 -0.0926599 -0.1764631 -0.57813823
0.1415727 -0.47021386 -0.1394175 -0.22935614 -0.57811856 -0.52100873 -0.5521409 -0.45285338
-0.18349636 -0.39867443 -0.3439318 -0.32386193 -0.60221803 -0.51950175 -0.1165668 -0.1724716
-0.08274762 -0.3353014 -0.2210797 -0.023919001 -0.46344844 0.172881 -0.48152575 -0.20877126
-0.29918137 -0.56661904 0.016075276 -0.41625822 -0.18434712 -0.55155516 -0.41560638 -0.09704693
-0.5084428 -0.12673676 -0.2923515 -0.6493969 -0.3957022 -0.15688877 -0.13261533 -0.2060862
-0.53757924 -0.56619173 -0.47060704 -0.57903886 -0.1907948 -0.2107374 -0.047695424 -0.26328066
-0.5416704 0.11870267 -0.49630666 -0.2143423 -0.18201289 -0.05285648 -0.12357511 0.1843292
-0.2839324 -0.21680608 -0.18472221 -0.37261635 -0.09373314 -0.10186587 -0.13274522 -0.109173425
-0.4790821 -0.40659112 -0.11366037 -0.23216689 -0.07109587 -0.2793652 -0.3232479 0.1442853
-0.50893915 0.04069888 -0.081023626 -0.21330638 -0.11813696 -0.11342505 -0.1477288 -0.48584884
-0.23203687 -0.13412268 -0.16767225 -0.5867928 -0.440672 0.13834424 -0.14405112 0.15125485
-0.4702168 -0.1801089 -0.39159507 -0.014449756 -0.4820688 -0.31388023 0.055120766 -0.040814266
-0.5194905 0.06955467 -0.025398035 -0.45052367 -0.46247977 -0.57160085 -0.48686382 -0.26770192
-0.47347432 -0.49895495 -0.40244094 -0.5318858 -0.3466238 -0.2649532 -0.37971127 -0.13986738
-0.2502383 -0.31417018 -0.022690397 -0.13458444 0.07306222 -0.12342415 0.14250103 -0.4190453
-0.39228934 -0.38964963 -0.38417166 -0.40840718 -0.097859204 -0.15908991 -0.3277539 -0.56407803
-0.30648288 -0.1309501 -0.4567079 -0.10190054 -0.29831263 -0.24212766 -0.33472803 -0.6412426
-0.080014005 -0.29803437 -0.42803735 -0.22304869 -0.018868152 -0.32985768 -0.10905237 -0.08671533
-0.12465899 -0.5287133 -0.40176466 -0.33636296 -0.46608862 -0.42518315 -0.07098993 -0.3054611
-0.063097045 -0.19193004 -0.39266756 -0.49822894 -0.16554518 -0.17978124 0.032350965 -0.5317376
-0.17085819 -0.15995613 -0.21974114 -0.09320549 -0.33845776 -0.44446564 -0.23992702 -0.16492498
-0.36475027 -0.046887927 -0.24455044 -0.41146186 -0.13430105 -0.40068492 -0.5131381 -0.23247838
-0.51870775 -0.19116956 -0.3558549 -0.36114317 -0.4203539 -0.59069425 -0.23472877 -0.46652126
-0.005890126 -0.17703003 -0.44012377 -0.19089237 -0.017684283 -0.031232208 -0.2778465 -0.39698166
0.036136862 -0.12997763 -0.44496894 -0.11402917 -0.5866339 -0.119136244 -0.5934422 -0.12757282
-0.6047361 -0.5546998 -0.096549585 -0.62687814 -0.62468415 -0.124351956 -0.3004258 -0.010451346
-0.38754258 -0.34028658 -0.28666645 -0.13197409 -0.34733027 -0.06398238 -0.3972955 0.063099176

fc2.weight f4 [300, 400]
00000000: 2e84 58bd 6321 a3bd 8cfe 493d 8fb6 053e
00000010: c855 8c3d 6615 87bd 3ba9 a1bd 4cdc cabd
00000020: 4aa6 d43c 77a4 7a3e 71e5 fcbb 8cb2 35bd
00000030: 99c5 b03d c833 d2bd 68f5 37bd 136c 49bd
00000040: 16d0 41bd c04f 4abd 8220 7b3d ef3f 463d
00000050: 995f bebd 97f2 f93d 2f84 05be d1fa 95bd
00000060: 3c81 443e 12da 40bb ee85 f83d cfab 67bc
00000070: 5379 3ebe c950 4a3e 8fc1 7cbd 467d 52bd
00000080: f3e9 083e 5be9 073e a491 85bd a687 81bd
00000090: 5ebd cc3d e3bf b63d e3aa fa3d 2588 52bd
000000a0: 370d 653e 4c14 b73d 7a20 713d 3ff1 653d
000000b0: 2b18 75bc 8c17 a7bd 64c4 aabd d2c4 a73c
000000c0: f0db 8f3d 0e7e c23c ca9c f43d 9777 a2bd
000000d0: a73b 6bbd cec2 603d 3ea5 e23d 234c c03d
000000e0: 089c 74bd 5038 fdbc 426b eb3d 7824 3cbb
000000f0: 98b1 fdbd 1dd4 4e3d 65cb 333b 3be5 ccbd
00000100: 1af0 d13d 04e7 e7bd cdc3 c33d 1824 343d
00000110: 7c6d 0b3e 8ec6 40bd dbb1 bcbc 33f5 903d
00000120: c998 243d d5e9 3a3d 2895 76bb 093c 413a
00000130: a9a5 39bb 53db 23bc bacc 963d 4768 d43d
00000140: 73ed 24be af0e 35bd 5de9 083a 0f2e 95bd
00000150: a32e 983d b217 a43c bc3e 25bd 6c8f 343d
00000160: 6317 a2b9 c693 753e e1f6 ffbd 6791 343d
00000170: 418c a83c 9e9c ac3d 0cde 103c 54bf e43d
00000180: b59b f3bc b89c efbc 5cc5 533d 1a54 39bd
00000190: c753 1bbc a605 ce3d f0be fd3d 92a5 f93d
000001a0: f35e 6fbd f046 b2bc f6f1 8dbd 626e e03d
000001b0: 5b38 643d d006 e13d 26b7 9fbd 0550 213e
000001c0: a866 75bd 53a4 18bd 18c4 f13d c2b4 1abc
000001d0: 167d 6d3d bb7a e73d 75e7 fb3d 928f fdb9
000001e0: 6d14 d63d b37a 953b 9b18 0fbb 27d9 b1bc
000001f0: 0bfc 0bbd fd9a a53e 77cc 513d 9208 ca3d
00000200: c761 a9bb 9497 3f3e 5fde d13d 194a 443e
00000210: f937 8abd 14be 59bd c7eb b23d 9080 913d
00000220: b457 b43c 6286 a43c caa1 283e d5c3 e83c
00000230: 3355 5dbd 6c80 13be a77f a53d 823e 933d
00000240: bbe2 9f3c 7e61 933c 2470 623d ae9e eabc
00000250: ac26 b43c 8441 cc3d 398c 113e e1de 94bb
00000260: 73ad 373e b876 13be 0555 3bbc e4a4 dd3d
00000270: e372 0c3e 3cac 3dbc 6e98 c23e 2f28 3fbd
00000280: 4222 d8bd dcbb 3bbd 562e 3ebd db24 ed3d
00000290: 4a8e b23d 69c4 08bd 8615 f23b 4ab3 aabd
000002a0: d5d2 c73d e80b 783c e263 1839 1910 dcbd
000002b0: e0a8 463d 85ed 393d dc19 fc3c d5dd 4abd
000002c0: 9669 cbbd cf77 56bd cc07 cebd 4acf 353d
000002d0: fd25 213b b102 95bd 3a73 a93d 02f0 debc
000002e0: b72d 283e eaa6 82bd 1a47 14bd e3fe 9b3d
000002f0: 577f 983c a954 30bd 11a4 7dbd aefb 74bc
00000300: 2a8c acbc 20ab 14bd 5486 edbb ae58 0dbe
00000310: 79b9 873d e984 1e3d f012 e43b 9d42 503c
00000320: 5197 bb3c 4944 c93d d2ec be3d 50cd 233d
00000330: 8425 8cbd 66b8 103d 1728 513c 4d9e 6f3c
00000340: 91db 4b3b 46f3 cabd 9d21 863c 4165 dabd
00000350: 4f27 783c 62db 8c3c 6810 d8bd b4b4 a9bc
00000360: ccba a0bd 5323 be3d f88a 5fbc eda4 03be
00000370: bf00 a7bd bdcf 90bd f0c0 d03d efcc f1bd
00000380: 5fe0 b0bb f548 2c3e 076c d03c b3d0 cabd
00000390: 2ff0 843d bf9b 4d3d f3bd b63c 58d6 f8bd
000003a0: 9334 3e3e 0d62 5a3d 585c bc3c fbb7 af3d
000003b0: fa35 74bd d947 d7bd 62e7 f5bd 2af3 143d
000003c0: 04eb aebc 7ff2 46bd 4e8f 8f3d 4951 d8bd
000003d0: 0e2c c5bd 37de 15bd f204 943d 9387 d53c
000003e0: 5955 f83d 7684 5a3d 7a0f 513d 61da 973d
000003f0: 1dee c6bd 406b 92bd 5cba 4fbb 16d8 3f3e
-0.05286043 -0.079653524 0.04931502 0.13057922 0.06852299 -0.06595878 -0.07893606 -0.099052995
0.025958199 0.24476801 -0.0077177812 -0.04435973 0.08631439 -0.10263783 -0.044911772 -0.049175333
-0.047317587 -0.04939246 0.0613103 0.048400816 -0.092955776 0.122044735 -0.13038705 -0.0732323
0.19189924 -0.0029426855 0.1213492 -0.014140083 -0.18600969 0.1975738 -0.06170803 -0.051389
0.13370495 0.13272612 -0.06521919 -0.06324701 0.099970564 0.08923318 0.12239625 -0.05139937
0.22368322 0.08939418 0.058868863 0.056138273 -0.014959375 -0.08158788 -0.0833824 0.020479593
0.070243716 0.023741748 0.11943968 -0.07932966 -0.057429936 0.05487328 0.11066674 0.09389522
-0.059719115 -0.030910641 0.11495067 -0.002870826 -0.12387389 0.050495256 0.0027434465 -0.1000466
0.10250874 -0.113233596 0.095588304 0.043979734 0.13615984 -0.047064357 -0.023034027 0.07078018
0.04018477 0.045633156 -0.0037625525 0.00073713117 -0.00283275 -0.010001021 0.07363267 0.10371452
-0.16106205 -0.044203456 0.0005222762 -0.072841756 0.0743077 0.02003083 -0.04034303 0.04408209
-0.00030916472 0.23982152 -0.1249826 0.04408398 0.02057469 0.0842831 0.008842003 0.111693054
-0.029737333 -0.029249534 0.05170189 -0.04524622 -0.009480423 0.10059671 0.12389934 0.12189783
-0.05844016 -0.021762341 -0.06930916 0.10958554 0.055717807 0.109876275 -0.07798605 0.15753181
-0.059912354 -0.037266087 0.1180498 -0.00944251 0.05798062 0.11302706 0.12300006 -0.0004836289
0.10453115 0.004561746 -0.0021834734 -0.021709992 -0.034175914 0.3234481 0.051220383 0.09864916
-0.0051691267 0.18710166 0.10247492 0.19168891 -0.06748957 -0.05315979 0.08736377 0.071045995
0.022014476 0.02008361 0.16467968 0.028413692 -0.05403633 -0.14404458 0.080809884 0.07189657
0.019517293 0.017990824 0.055282727 -0.028640117 0.021991096 0.099734336 0.14213647 -0.004543171
0.1793726 -0.14400756 -0.011433844 0.10822466 0.13715701 -0.011576708 0.3800692 -0.04666918
-0.10553409 -0.045833454 -0.04643091 0.11579295 0.08718546 -0.033390436 0.0073878197 -0.08334978
0.0975701 0.015139557 0.00014533059 -0.10745258 0.048500896 0.045392532 0.03077405 -0.04952796
-0.09932248 -0.052360352 -0.10060081 0.04438714 0.0024589293 -0.07275904 0.08273931 -0.027214054
0.16423689 -0.063794926 -0.03620062 0.07616975 0.018615408 -0.04304949 -0.061924044 -0.014952583
-0.02106293 -0.03629601 -0.007248679 -0.1380336 0.06627173 0.03870097 0.0069602653 0.012711194
0.022899302 0.098274775 0.09322514 0.039990723 -0.06843093 0.035332106 0.012765906 0.014625144
0.0031106214 -0.09909682 0.01637345 -0.10663844 0.015146091 0.017194454 -0.10550004 -0.020716049
-0.07848129 0.09284081 -0.013643973 -0.12855883 -0.08154439 -0.07070873 0.1019305 -0.11806666
-0.005397841 0.16824706 0.025442136 -0.099030875 0.06491124 0.05019736 0.022307372 -0.12150258
0.18574743 0.053316165 0.022993252 0.08580013 -0.05962179 -0.10511751 -0.120070234 0.03636471
-0.021352299 -0.048571106 0.07009755 -0.10562379 -0.096275434 -0.036588874 0.07227506 0.026065623
0.12125654 0.05334898 0.05104015 0.07414699 -0.09713385 -0.071493626 -0.0031696772 0.18734774

fc2.bias f4 [300]
00000000: 1cbb c53c 8511 9b3b 305f c1bc 6ef1 9dba
00000010: ee80 56bc aa6f 973d 786a 79bd 9651 113d
00000020: 1328 473d 3bdb ab3d 12ec a33c 0a4b a6bc
00000030: ad25 c5bc 0f98 3ebb d42f 23bd 90c7 a6bd
00000040: 0d52 313d 16d8 cebb c3ef e23b c84c 85bd
00000050: 1f04 903c 0197 d13d 3c76 c6bc 0dfc 69bc
00000060: 5d87 c13c 619b 433b 5cd7 933c 64fb 953d
00000070: 6c1c 4c3d bed0 b23d 2601 413c 2a7a 0a3d
00000080: daa1 e73b e87f ac3d bb33 8f3d 2c91 6fbd
00000090: 2790 4b3c c4f6 47bd baf4 d63c 88ce 75bc
000000a0: 60fc ecbc accc 9d3d 4b08 27bd ade8 debc
000000b0: f02b a5bd a279 07bd 6d23 623d 3285 053d
000000c0: d6ed 3dbc 9bd7 19bc 8aa8 98bd 08a5 62bd
000000d0: 62d2 343b 9c72 973c cc36 353a c894 43bc
000000e0: 4746 83bd 7a11 37bc 510d 03bd 41ff 213d
000000f0: 0931 ee3c 79bb 123d 48d6 733d 9485 91bd
00000100: 8de6 e1bc 6c68 88bd 29dd 9ebb 5a11 92bc
00000110: d195 a53d 8aa0 863c 1dd4 05bc fdbb 8abb
00000120: 7e3e 38bc 26b9 f3bb 33f7 4abd 35b2 c13b
00000130: 8d9e 9cbd 221d ecbc 4912 c4ba 3668 273d
00000140: 8174 e83c ad5e 053c 45bc 603d 5439 e5bc
00000150: 8e56 8dbd 4545 8fbd cfa4 d83c 6e5a a63b
00000160: a868 87bc fa03 04bd 8775 cf3c a201 9639
00000170: a3bf a53c 0ecd 13bd b2e9 39bd 611e 66bd
00000180: e802 053d 293a 29bd 16fc b43c 962f d1bb
00000190: 1703 de3c c84f 023d 54c1 083e 4743 243c
000001a0: a82f 7bbd 53d9 5fbd bd1b 96bb 41ed 4bbd
000001b0: 5c61 443c 1491 a7bc 7f0f 37bc 9db4 f5bb
000001c0: 1f0d cdbd ad85 86bd a939 5ebc bbc4 acbb
000001d0: 5429 403d e8a7 a93c 6c77 7abd 0818 42bc
000001e0: af28 b3bc efc9 ad3d 22df ed3b b9ad edbb
000001f0: 6b69 b6bd c526 703c ee01 e3bc d1f1 56bd
00000200: 7646 ebbc a110 1bbd 4612 1d3d 3f25 683c
00000210: 1ffe 19bd 9ab0 6abd a15b f0bb cfdb 5c3c
00000220: 5883 b0bb dded ba3b eaf3 eabd 43f8 463d
00000230: f9c1 34bd fb00 90bd 108b d13d 3080 10bc
00000240: 681a 253d 2208 c3bd 9c5d 46bc 3c64 413c
00000250: 8fd0 3b3c d4da c53c 535a 97bc 96d2 e9bc
00000260: 9a49 93bc 0645 5a3c cbbb 76bc 20e6 57bd
00000270: f446 b43d bb46 03bd 342e c93b 2814 023d
00000280: 42b8 9b3b c2ed d0bb 07f1 013d e8a8 1fbd
00000290: cbed 563d 81ca a93c 043e 32bc 8675 17bd
000002a0: f2a5 4dbc d47d 5d3d 81ab 07bc fd29 533d
000002b0: 2e89 063d cbd7 35bd 413d 18bd 55ef 543d
000002c0: 0e4a 4a3c 228a bf3c 5d16 87bc c93c a4bb
000002d0: 4e18 a9bc 3fb5 0a3d 8290 8fbc 73e0 f6bb
000002e0: c273 873d 57aa c53c 6db6 84bd ad00 763d
000002f0: 8b98 603d d862 7dbd 57ef 5ebd a822 6cbd
00000300: ddcd 03bd e24c 68bd 295e 25bc cd01 90bd
00000310: e630 313d 6ec2 1a3d e4d1 033c c9e8 213d
00000320: 048b 923d 9273 babd 2090 e43c bfd4 b1bc
00000330: a8b4 133a b95a 16bd d426 fd3c 1c99 253c
00000340: ac2d f43c 9f02 9dbb dd03 873d 1988 febd
00000350: f084 a43c f454 8b3d bdbb 213b 5d9d 2c3d
00000360: c801 0f3d 8f16 49bb 7ecc 1e3c 9bbb eb3c
00000370: a015 d43c 05f7 9d3c 60a9 78bd 5ef4 91bd
00000380: 7871 d7bd 6d5b b0bd 6c53 29bd a6c0 86bc
00000390: c158 fdbd c3bb 88bd e635 7f3b b900 b7bc
000003a0: ef65 093d 1b48 d63c 70cc a6bc 4506 a2bc
000003b0: 0837 f5bc 971f 77bb 8548 c83c 1835 a2bd
000003c0: 0141 fa3a 76ca 283d 0938 0e3d d1d1 7fbd
000003d0: b5be 06bc 47e8 0dbb 8572 bc3b cb1c 663d
000003e0: adcd beb9 b731 b0bc c329 8f3d 7196 15bd
000003f0: 8b4b 763d 04cd 653d 5da9 4ebc 4273 f73c
0.024137072 0.004732313 -0.02360496 -0.0012050101 -0.013092263 0.07394345 -0.060892552 0.035478197
0.048622202 0.08391424 0.020010028 -0.020299453 -0.024065817 -0.0029082333 -0.039840534 -0.08143532
0.04329114 -0.0063123805 0.0069255545 -0.065087855 0.01758009 0.1023388 -0.0242263 -0.014281285
0.023624117 0.0029847252 0.018047027 0.073233396 0.049831793 0.08731221 0.011780059 0.03380791
0.0070688548 0.08422834 0.06992289 -0.058488056 0.012424505 -0.04881932 0.026239742 -0.015002854
-0.028928936 0.07705054 -0.040779393 -0.027210558 -0.08065021 -0.033074982 0.055209566 0.032597728
-0.011592349 -0.009389783 -0.07454021 -0.055333167 0.0027591218 0.018487267 0.00069127674 -0.011937328
-0.06409889 -0.0111736 -0.03199512 0.03955007 0.029076116 0.03582332 0.059530526 -0.07105556
-0.027575755 -0.06660542 -0.0048481417 -0.01783054 0.08085216 0.016433973 -0.0081682475 -0.0042338357
-0.011245368 -0.007437843 -0.049552154 0.0059111365 -0.07647429 -0.028822485 -0.0014959063 0.040870868
0.028375866 0.008140248 0.054867048 -0.027981438 -0.069012746 -0.06995634 0.026445774 0.005076698
-0.016529396 -0.032230355 0.025324596 0.00028611446 0.020232981 -0.036084227 -0.045388885 -0.056181315
0.032473475 -0.04131523 0.02209286 -0.0063838465 0.027101083 0.031814367 0.13354999 0.010025806
-0.061324745 -0.054650616 -0.0045809434 -0.04978681 0.011986103 -0.02045492 -0.011173128 -0.0074983374
-0.10012268 -0.065684654 -0.013563552 -0.0052724755 0.046914414 0.020709947 -0.061149046 -0.01184655
-0.021869985 0.084857814 0.0072592655 -0.0072533754 -0.08906826 0.014657681 -0.027710881 -0.052476708
-0.028720122 -0.037857655 0.038347505 0.014169036 -0.037595864 -0.057297327 -0.0073351418 0.013480141
-0.005386751 0.005704625 -0.11472304 0.048576605 -0.0441303 -0.07031437 0.10231602 -0.008819625
0.040308386 -0.095230356 -0.012107279 0.011803683 0.011463298 0.024152197 -0.018475687 -0.028542798
-0.017979432 0.0133221205 -0.015059422 -0.0527097 0.08802596 -0.032049876 0.006139541 0.031757504
0.00475219 -0.006375999 0.031724002 -0.03897944 0.05247287 0.020726444 -0.0108790435 -0.036977313
-0.0125517715 0.054075077 -0.008280636 0.051553715 0.03284567 -0.04439525 -0.03716779 0.051986057
0.012346758 0.023381297 -0.016490156 -0.005012129 -0.020641472 0.033864256 -0.017524961 -0.0075340807
0.06613876 0.024129076 -0.064801075 0.06005924 0.054832976 -0.061861843 -0.05442747 -0.05765024
-0.03217875 -0.056713946 -0.01009325 -0.070315935 0.043259524 0.03778308 0.008045647 0.03952864
0.071554214 -0.091040745 0.027900755 -0.02170789 0.0005634525 -0.036707614 0.030902304 0.010107305
0.029806934 -0.004791572 0.06592534 -0.12428302 0.02008292 0.06803313 0.002467855 0.04214226
0.034913808 -0.0030683612 0.009692309 0.02877598 0.025889218 0.019282827 -0.060708404 -0.071266875
-0.10519689 -0.08611188 -0.041339323 -0.016449284 -0.12370444 -0.06676438 0.0038942038 -0.022339212
0.033544477 0.02615743 -0.020361155 -0.01977838 -0.029933468 -0.0037708038 0.024448643 -0.07920283
0.0019092859 0.041208707 0.034721408 -0.062455956 -0.008224179 -0.002165334 0.0057509565 0.056179803
-0.00036392864 -0.02150808 0.06990387 -0.036520425 0.060130637 0.05610372 -0.012613622 0.030206326

bn2.weight f4 [300]
00000000: a9a0 233e 4db3 4a3e 8556 863e bee1 923e
00000010: 64bc b73e 30fc 4e3e bbba 913e 96ba f93d
00000020: 67e5 853e 216d 033e 2dbd c53d 919e 8b3e
00000030: 1313 373f 02f4 a73e 5b81 4c3e d1c2 c63e
00000040: 5747 103e aeef 713f 8537 593e ca8a 5c3e
00000050: 9973 923e 9a55 0d3f 2647 933e 1087 783e
00000060: a01d 633e 8010 373e 1f94 1a3e 0f58 ae3e
00000070: 6542 ea3e b39c 853e 6c1e af3e d88a b03e
00000080: ca68 793e 8971 913e ab0d 7c3e 3a4a a93e
00000090: 7bf8 2f3e 8916 c83e 5de3 4f3e 5d1f 1d3e
000000a0: 59bf 9a3e 890b 8b3e b0b4 a53e 3ca1 4b3e
000000b0: b92d a23e d297 263e 0d1f 2f3e 1e50 9e3e
000000c0: d519 b43e 0990 933e 0561 3c3e 4161 343e
000000d0: 4664 8b3e 196f 6c3e aeba 743e 69dd 8a3e
000000e0: 996c 433e 5738 8f3e e382 7a3e 681e 1e3e
000000f0: 0245 d93e dcdf 4d3d 5687 383e 23a7 643e
00000100: 5ff7 8a3e 2a89 a03e 5998 423f c2b6 8a3e
00000110: 6ed1 623f aa9b 723f 80f2 5a3e d265 813e
00000120: fd36 6c3e 76d0 643e 912e 443e f3b9 c33e
00000130: d74b 9d3e b13c a93e d9dc 5c3e f84a 143e
00000140: 2de2 133e 850b 7e3e 8b83 813e 7561 b83e
00000150: 8939 1e3f 0f6b f53e c18e aa3e fa0c 893e
00000160: f3a7 383e b65f 003e 539c 253f 7700 833e
00000170: 035c e73e 326d 793e ab13 ae3e d89a bc3e
00000180: 5e5a c63e 172b 603e 5011 893e cfe2 bd3e
00000190: 9203 593e 0486 523e 3d61 54bc d6a1 403e
000001a0: d17c 643e 4615 0d3e cbe4 683e 8964 b73e
000001b0: ebbb 513e 9d17 613e 0074 653e 709f 963e
000001c0: 3dfd 943e c8be 993e a11a 763e 1945 853e
000001d0: 69ed 8c3e 8c1d 8b3d 5133 913e 2008 433e
000001e0: 7b37 8b3e f37f b43e 9ea8 143f 9a3f 3a3e
000001f0: c6fa 553f d93d 433e 2b3f 713e c364 263e
00000200: 75f5 9e3e f26c a03e 06ee 1d3d 6077 983e
00000210: 462a c13e d2e0 dd3d 0787 8a3e 785f fb3d
00000220: 6e37 cc3d cacd a13e bcc6 033e 0193 fd3d
00000230: ef78 5d3e 727d 9f3e 72cf 7a3e 4ca7 023f
00000240: 786a 183f d7b6 9f3e 68a0 5c3e 4d15 7a3e
00000250: 8ab4 793e 7454 953e 2e99 363e e260 b23e
00000260: d274 a33e e716 4f3f 126a 0b3f fe22 123e
00000270: f3e6 5b3f 471c 043f cabb 543e 138e 3a3e
00000280: 3528 b03e de53 023f 5f8b 3f3e 43f6 3e3e
00000290: 3b78 723e c6ef 983e 40c4 a23e f13a aa3e
000002a0: 88f6 053f 8837 b03e 2ac5 803e 1477 af3e
000002b0: 6042 a83e e1aa 4c3e 4525 8e3e bf10 843e
000002c0: c40f 9a3e a575 0e3f 1f31 583d f677 ac3e
000002d0: 8932 843e 8762 823e 5001 633e 0265 5a3e
000002e0: cd01 d43e 77d3 9a3e ffa7 073f 26b2 243e
000002f0: 631b 3d3f 039e 573e 6d65 763e 96ab b93e
00000300: 9506 1b3f 94f9 543e 2c82 4d3e f830 a23e
00000310: 8823 ae3d 8571 063f ee69 723f fbce 4b3e
00000320: a6e1 213e 7e37 e43e 1c09 423e 713b 8a3e
00000330: dde6 563e fa4f 523e 0277 183e 7522 593e
00000340: 5724 9e3e 362f 983e 342c 313f 7c72 cd3e
00000350: 400b c63e d973 b43e 62c7 443e 91c8 703e
00000360: dcea 8c3e 034c 9d3e 496f c83e 0804 a83e
00000370: 4e6d a53e 5938 6e3e 6a8e 433e 2226 d13e
00000380: 65e3 993e 2647 453d ea63 8a3e 1ed6 473e
00000390: 4528 f63e 1aea 9e3e dc44 6f3e 9bcd 093e
000003a0: ef16 7f3e d43e 1b3e 0138 a73e e8da 323e
000003b0: 7485 8f3e 3bb0 4a3e d576 503f 10ae 2d3e
000003c0: eac1 9f3e 3abd a33e 4e33 6c3e 52b1 383f
000003d0: 3eb2 413f 0bb3 353f cdb0 353e 0c68 aa3e
000003e0: 9337 993e dc84 7f3e 663e 143e c3dc b13e
000003f0: 41c1 5d3e 29eb 713e a603 1e3e c241 9f3e
0.15979256 0.1979496 0.26237884 0.28687853 0.35885918 0.2021339 0.28462777 0.121937916
0.26151583 0.12834598 0.09655223 0.27269414 0.7151348 0.3280335 0.1997122 0.38820508
0.14089714 0.9450635 0.21212585 0.21537319 0.2860382 0.5520874 0.2876522 0.24270272
0.2217927 0.17877388 0.15095566 0.34051558 0.4575378 0.26096115 0.34202898 0.3448093
0.2435638 0.28406933 0.24614589 0.33064443 0.17184632 0.39079693 0.20301576 0.15343995
0.30224112 0.27157238 0.32364416 0.19885725 0.3167551 0.16268852 0.17101689 0.309205
0.35175958 0.28820828 0.18396385 0.17615224 0.2722494 0.23089255 0.23899338 0.27122048
0.19084395 0.2797267 0.24463992 0.15441287 0.4243546 0.050262317 0.18020377 0.22329383
0.27141854 0.31354648 0.76013714 0.27092558 0.88600814 0.94768775 0.21381569 0.25272995
0.23067851 0.22345147 0.19158389 0.38227805 0.30721924 0.33054116 0.21568622 0.14481723
0.14441748 0.24809082 0.25295672 0.36011854 0.6180654 0.47933242 0.33312038 0.26767713
0.18032818 0.12536511 0.64691657 0.25586292 0.45187387 0.24358061 0.3399938 0.36836886
0.3874082 0.21891437 0.2677102 0.37087104 0.21192768 0.20558935 -0.012962637 0.18811736
0.22313239 0.13777646 0.22743528 0.3581889 0.20481841 0.21981664 0.22407532 0.29418516
0.29099455 0.30028367 0.24033596 0.2602928 0.2752488 0.06792745 0.28359464 0.19046068
0.27190766 0.35253868 0.5806979 0.18188325 0.83585775 0.19066562 0.23559253 0.16249375
0.31046644 0.3133312 0.038557075 0.29778576 0.37727565 0.10833897 0.27056143 0.122740686
0.0997151 0.31602317 0.1286878 0.123815544 0.21628164 0.31150395 0.24493197 0.51036525
0.5953746 0.31194183 0.21545565 0.24422188 0.24385276 0.29165995 0.17831871 0.3483954
0.31925064 0.8089432 0.54458725 0.14271161 0.85899276 0.5160565 0.20774761 0.1821826
0.34405676 0.5090922 0.1870551 0.18648629 0.23678677 0.29870433 0.31790352 0.33248094
0.523293 0.34417367 0.25150424 0.34270537 0.3286314 0.1998706 0.2776281 0.25794026
0.30090153 0.5564826 0.05278122 0.33685273 0.25819805 0.25465795 0.2216847 0.21327594
0.41407624 0.3023946 0.52990717 0.16083583 0.73869914 0.2105637 0.24062128 0.36263722
0.6055692 0.20798331 0.20069188 0.31677985 0.08502871 0.5251697 0.94692886 0.19903176
0.15808734 0.44573587 0.18948787 0.26998475 0.20986505 0.20538321 0.14889148 0.2120455
0.308871 0.2972352 0.69208074 0.40126407 0.38680458 0.35244635 0.19216684 0.2351401
0.27522933 0.30722055 0.39147404 0.32815576 0.32309955 0.23263682 0.19097295 0.40849406
0.300563 0.048163556 0.27029353 0.19515273 0.48077598 0.3103798 0.23366112 0.13457339
0.24911092 0.15160686 0.32659915 0.17466319 0.28031504 0.19793789 0.81431323 0.16960931
0.31202632 0.31980306 0.23066446 0.7214557 0.756626 0.7097632 0.17743225 0.33282506
0.29925212 0.24953026 0.14476928 0.3473874 0.21655752 0.23624863 0.1543108 0.31104857

bn2.bias f4 [300]
00000000: a1aa d6bc e9ab 7ebd 37dd 293c 52b8 da3b
00000010: 2cf9 a73b 6783 98bd bef2 343c 72d4 a03d
00000020: 83ca d2bd bcb0 a83c a51e 853c a7c0 b7bc
00000030: 02c4 0fbd 8df7 31bc 72b7 873d 4dbe 09bc
00000040: 16fb b5bb 586c a2bb db45 40bc 4b18 4c3e
00000050: d38e 1dbb 9783 10bf 874a 083c 41b2 0ebd
00000060: 3377 67bc 440e 4e3d d977 2d3d 2513 8a3b
00000070: e515 a0bc 8bf6 dabd b596 41bd 2d67 21be
00000080: cafd f6bc 47f8 8cbd 0cad 56bc 1a10 2dbc
00000090: 7791 3ebc df48 8abd c46e 9ebd 87ef 443c
000000a0: 545d 2ebc f312 c83b 9001 993d 4013 70bc
000000b0: 5dd2 553d a0a4 edbc 8b7f 103c ff95 96bd
000000c0: bca5 1e3c 2386 51bb f738 ae3c 216d 96bd
000000d0: bd92 94bc e777 46bd 7379 c9ba 8f1a 583d
000000e0: f228 3db9 0393 023d d113 e8bd 6f22 c9bc
000000f0: e907 d53d 9d61 d9bc fb1f 8fbb 8e24 5f3d
00000100: 14f8 89bd 5eb3 6ebc c34e 05bd e271 e0bc
00000110: a3bc 1d3d 9157 213d 64b7 d63c 346f c2bc
00000120: 1346 123d 9709 4ebd afb3 8e3e 50aa 75bc
00000130: 626a 8b3c 3e9c 7bbd 6c96 c8bb 7666 7ebd
00000140: c312 a8bc ce51 263c 679b 96bd a929 71bc
00000150: a39d 18be 547a 223f 9b4d 8a3b b4ef 633d
00000160: 702f 1a3d 7bcf 87bb 4edb 5abd b2dd 6c3c
00000170: 7e64 b83c de82 83bc c6c9 b03c 2d53 053d
00000180: 9eea a1bd b171 4c3d dd78 563d 95f8 383e
00000190: d3aa c9bd c39c 1cbb 8fbd 853c 0076 933d
000001a0: 6e14 813d 715b e03b 4c36 63bd c66f 7c3d
000001b0: 43fa 143c 4fd7 c63d 8bf7 e1bd 69f4 803b
000001c0: 6c9e 843c bc48 6f3d ddd7 36bd 2880 5f3d
000001d0: 0902 5cbd c636 0fbd a466 9f3d a0c2 3a3e
000001e0: 32dc 673d 3c53 e4bd 55d8 f7bd 2fad 1e3d
000001f0: 3961 3bbc 0f5c 003d f686 2d3d 940c c93a
00000200: 1b1b 7abd 74f2 a6bb b1a8 2abd c8ce eb3b
00000210: 9953 a13c 9118 713d 6289 3d3c 5d96 05bc
00000220: f36c f5bc ca45 d03c f402 923e 0a78 923c
00000230: cf5e a93d 9570 073c a229 6ebd a835 4cbd
00000240: 06f8 473d d491 3b3b 40ce 623c 06a9 9b3d
00000250: e701 dc3c ef33 7b3d 8943 373b cd51 a93b
00000260: daa8 2fbe 798f 173d 3b39 f03d 200f 833e
00000270: 98bf 463d 7f0e 35be 7552 a43d 3c36 2f3d
00000280: 361b 283c f8fc 863e 612d 32bc c674 03bd
00000290: 216f fbbb 5175 fd3c cd90 4b3d 9253 803d
000002a0: 84d1 8a3d 043f 18bd 2852 ae3c c9b5 1abc
000002b0: ded2 963c 78ea ccbc b0e5 b43c 7fc9 9bbb
000002c0: 4313 e8bc 7fc5 f23d 0245 46bd ef93 c13d
000002d0: 528f 8e3c 6bb1 10bd 64d4 ebbc 2338 403c
000002e0: 450d 0c3e 4f22 bc3b 8396 82bd fecc 3c3d
000002f0: 415e 373c f209 6abd 619a 11bb 9598 b93d
00000300: a1d4 d6bd 9542 b73c ebeb 323d 701a 4c3c
00000310: a783 73bd 8f86 cebd 69f1 1d3b 1b74 97bc
00000320: 7ab0 163d 6670 1cbe 8468 3d3b 47dc b7bc
00000330: d749 e9bc 4a9c 1d3c 75c6 47bc ae33 d73b
00000340: c1ae 813d 0ddd b43c 1fa1 b73c 1e42 373f
00000350: d92b 6e3e b125 dbbb 6e4b 29bd 9b42 05bb
00000360: 876e 97bd 0e09 e6bb 151e 8abd 84d3 c1bd
00000370: 8875 213b 1c94 253c 56d8 f73c d47c a9bc
00000380: c04a 1e3e c4a2 933d 8cc4 08bb d98b e1bb
00000390: 914c 81be 30cb d33c 7121 d83c 027b 88bd
000003a0: ba1a 03be 9756 4ebc d84c c8bc e97f 143c
000003b0: 9a4a cfbc 2d1b 6cbe 2606 56bd 475f 4f3d
000003c0: 61e3 833c e543 933a a327 90bd e6e7 983d
000003d0: 8fb2 ca3d d887 9d3d 40ba 1b3d 76db 2cbc
000003e0: 5cd0 7dbd da62 853d 8c3e 80bd 9932 f13c
000003f0: 08ba 4cbd d72f a6ba 8fac cf3b 96f5 413d
-0.02620441 -0.062175665 0.010367683 0.0066748047 0.005126139 -0.07446938 0.011044202 0.07853021
-0.10292532 0.020592086 0.016249964 -0.022430731 -0.035099037 -0.010862243 0.06626786 -0.008407188
-0.0055536134 -0.0049567632 -0.011735405 0.19931142 -0.0024041429 -0.5645079 0.00831855 -0.034837965
-0.01412754 0.050306574 0.042350624 0.004213708 -0.01954169 -0.106915556 -0.047262866 -0.15762015
-0.030150313 -0.06883293 -0.013102781 -0.010562921 -0.011631361 -0.0675218 -0.077359706 0.012019998
-0.010642368 0.0061057745 0.07471001 -0.014653027 0.05220257 -0.029009163 0.008819471 -0.07352828
0.009683069 -0.003197082 0.021267397 -0.073450334 -0.018136377 -0.04845419 -0.0015371278 0.052759703
-0.00018039698 0.031878483 -0.11331905 -0.024552552 0.10401899 -0.026535803 -0.004367826 0.05447822
-0.0673677 -0.014569132 -0.032545816 -0.027398054 0.038509976 0.03939015 0.026210494 -0.023734666
0.03571136 -0.050302114 0.27871463 -0.014994219 0.0170185 -0.0614283 -0.0061214473 -0.062109433
-0.020516759 0.01015134 -0.073538594 -0.014719405 -0.14903884 0.6346791 0.004220677 0.05564852
0.037642896 -0.0041446066 -0.0534318 0.014457153 0.022508856 -0.016053613 0.021580588 0.032550026
-0.07906078 0.049913112 0.052361358 0.18063577 -0.09847035 -0.0023897148 0.01632574 0.07200241
0.06302725 0.006846838 -0.055471703 0.061630033 0.00909287 0.097090356 -0.11033543 0.003935386
0.016188823 0.058418974 -0.044639457 0.05456558 -0.05371288 -0.034964345 0.07783249 0.18238306
0.05660648 -0.11148688 -0.12101809 0.03873938 -0.011436754 0.031337794 0.042365037 0.0015338832
-0.061061006 -0.0050948206 -0.041664783 0.007196281 0.019693183 0.05886132 0.011568399 -0.008153525
-0.029959178 0.025423903 0.28517878 0.017879505 0.082700364 0.008266588 -0.058145173 -0.049855858
0.048820518 0.0028620856 0.013843119 0.07600598 0.026856376 0.061328825 0.0027963838 0.005167222
-0.17154256 0.03700206 0.11729666 0.25597477 0.04852256 -0.17681311 0.0802354 0.04277633
0.010260394 0.26364875 -0.010875077 -0.032093786 -0.0076731597 0.03093973 0.04969864 0.0626594
0.06778243 -0.03716947 0.02127941 -0.009442755 0.018411096 -0.025014147 0.02208218 -0.004754245
-0.028329497 0.11854076 -0.048405655 0.09452044 0.017402325 -0.03532545 -0.0287878 0.011732134
0.13676937 0.0057413946 -0.06376364 0.046093933 0.0111919055 -0.05713839 -0.002221726 0.09062306
-0.104897745 0.022370616 0.04368202 0.012457475 -0.059451725 -0.10084259 0.002410019 -0.01848798
0.036789395 -0.15277252 0.0028901407 -0.022443904 -0.028477592 0.009619782 -0.012193312 0.00656744
0.0633216 0.022078061 0.022415696 0.7158526 0.23258914 -0.006687843 -0.0413317 -0.002033389
-0.07394128 -0.0070201224 -0.06744019 -0.094641715 0.0024636704 0.010106113 0.030254524 -0.020689406
0.15458202 0.072087795 -0.0020869104 -0.006883126 -0.25253728 0.025853723 0.026383134 -0.06664087
-0.12803164 -0.012593887 -0.024450704 0.009063699 -0.025304127 -0.23057242 -0.052251957 0.050627973
0.016099634 0.0011235444 -0.0703881 0.07466106 0.098973386 0.07691926 0.03801942 -0.01055037
-0.061966285 0.06512995 -0.0626193 0.029443072 -0.0499821 -0.0012679052 0.0063377093 0.04735335
