Zadanie3/srcV2/models/Variable exploration probability/target_critic_network.pth (torch, 509903 bytes, 11 tensors)

fc1.weight f4 [400, 8]
-0.092612535 0.15316883 0.002279384 -0.2886131 0.29995567 1.1859607 0.068020955 -0.51597995
0.15862237 -0.19921623 0.1948642 0.29500583 -0.70006317 0.5791149 -0.28935087 -0.036406867
0.36172187 0.007939017 0.35646185 0.38476178 -0.7478893 -0.8555282 0.10311002 -0.42666617
-0.2558815 -0.0027432377 -0.20685181 0.43841636 0.04447183 0.85209703 0.24709062 -0.68406963
0.25303006 0.13820507 0.11733532 0.47870114 -0.7770115 -0.048925858 0.037204035 0.44527608
-0.26708123 0.19294497 0.154464 0.5380238 0.14912546 0.57024336 0.40328836 0.96475255
0.47005892 0.055047736 0.21043922 0.13261494 0.14671752 -0.6701248 -0.23507829 0.9546091
-0.39000973 -2.1934002e-05 0.38155925 0.0005108425 0.21519692 -0.14778093 0.3372334 0.57865953
0.018777918 0.16810034 0.013688157 -0.21948734 0.23276761 -0.9709253 0.10723005 0.3429205
-0.050480355 0.13199982 -0.043834586 -0.11730464 0.03374996 -0.6840874 0.773252 0.3142498
-0.149664 -0.27052307 -0.0859772 0.07072693 -0.32748652 -0.6737934 -0.68725675 0.1699155
0.044850424 0.21346287 0.030900791 -0.30301282 0.2307471 0.5965614 -2.1077492 -0.5663725
-0.6332304 0.09421306 0.11969154 0.33264405 0.5237384 0.20983215 -0.7995493 0.11657241
0.07944867 -0.046458926 -0.13169153 -0.09308864 0.22809777 -0.50403845 0.7971171 0.6209228
-0.112674385 -0.4359781 -0.11438476 -0.10299663 0.55405766 -0.008796745 0.31638765 -0.5426298
0.19205877 0.08861421 0.35370198 -0.06740114 -0.465125 -0.36848474 0.13016722 -0.25688845
0.26699197 -1.1578926 -0.040113408 -0.3214583 0.3412729 -0.27068964 0.5544788 -0.27924675
0.50459176 -0.05352135 -0.1781528 -0.19696674 0.21151434 -0.38979578 0.84748566 0.120989755
-0.4256512 0.009618503 0.33448374 -0.06476734 0.5917772 0.0728393 0.6032728 0.365872
0.14593406 -0.08297341 0.012932754 -0.26842934 0.08382436 -0.25268888 0.403935 -0.12935837
-0.20716801 0.24948844 -0.28942224 -0.11761107 -0.2543687 -0.81036484 -0.07705437 0.3208024
-0.5383764 -0.48883975 -0.1352493 -0.09087269 -0.31588197 1.2454199 0.11364944 0.5017252
0.25977787 -0.08586375 0.21884847 0.09801557 -0.59165597 -0.15923873 0.33803365 0.59319186
0.21373922 -0.3489156 0.35249996 -0.020641003 0.50379217 0.23650423 -0.12670074 0.7557243
0.09301585 -0.2104326 0.082632385 -0.14148575 0.92769766 -0.60183823 0.7728363 -1.1349561
-0.11724449 0.24531181 0.23954244 -0.36067244 0.19229132 -0.1123736 0.9512079 0.11477433
0.010211291 0.27875048 0.1447365 0.2852574 0.40896705 0.47876328 -0.3666147 -0.20655204
0.02874809 0.063073285 0.22473034 -0.33117428 0.10274773 -0.1634518 0.21609849 0.4183984
0.034908723 -0.123807214 -0.072612815 0.23904039 0.61259794 -0.26708943 -0.81024975 0.4338018
-0.25497797 0.06219829 -0.27825472 0.244646 0.22931576 0.78137547 -1.0358374 -0.09612419
-0.30623946 0.031725783 -0.014804951 -0.52639264 -0.14884572 0.012358212 0.07602696 -0.58356
-0.04478651 0.115811765 0.04424937 -0.03837177 0.43871188 -0.8245949 0.2990388 0.63189286
00000000: a4ab bdbd 4ad8 1c3e b861 153b 19c5 93be
00000010: ca93 993e 8fcd 973f 924e 8b3d 4317 04bf
00000020: e76d 223e 57ff 4bbe 7b8a 473e 010b 973e
00000030: 5737 33bf e040 143f cc25 94be 5e1f 15bd
00000040: 9c33 b93e a712 023c 2b82 b63e 7fff c43e
00000050: ac75 3fbf e503 5bbf 592b d33d fd73 dabe
00000060: e602 83be e4c7 33bb f6d0 53be 1c78 e03e
00000070: 1828 363d 0823 5a3f 5305 7d3e 301f 2fbf
00000080: 288d 813e a185 0d3e 804d f03d 5118 f53e
00000090: 3aea 46bf 7b66 48bd 4263 183d 3afb e33e
000000a0: dfbe 88be 5e93 453e d02b 1e3e eebb 093f
000000b0: 58b4 183e 78fb 113f d07b ce3e 06fa 763f
000000c0: 90ab f03e bc79 613d 617d 573e 36cc 073e
000000d0: 1e3d 163e 4d8d 2bbf 5db8 70be 4361 743f
000000e0: 5baf c7be e9fe b7b7 bc5b c33e 0fea 053a
000000f0: 955c 5c3e e253 17be dba9 ac3e 0823 143f
00000100: 26d4 993c 7f22 2c3e 4b44 603c 4ac1 60be
00000110: a25a 6e3e 8f8e 78bf 6e9b db3d 4793 af3e
00000120: 7dc4 4ebd f62a 073e e58b 33bd 6a3d f0bd
00000130: 663d 0a3d 5a20 2fbf d8f3 453f 5ae5 a03e
00000140: 8541 19be 0082 8abe d014 b0bd 48d9 903d
00000150: 50ac a7be b97d 2cbf 0ff0 2fbf 54fe 2d3e
00000160: 14b5 373d 0396 5a3e a823 fd3c 7f24 9bbe
00000170: f848 6c3e 3fb8 183f 5de5 06c0 cafd 10bf
00000180: 631b 22bf c7f2 c03d d720 f53d 5250 aa3e
00000190: b813 063f 3dde 563e 43af 4cbf 84bd ee3d
000001a0: fcb5 a23d b74b 3ebd 25da 06be 42a5 bebd
000001b0: 7692 693e aa08 01bf de0f 4c3f ccf4 1e3f
000001c0: d4c1 e6bd 8638 dfbe 8f42 eabd e6ef d2bd
000001d0: b9d6 0d3f 3920 10bc 90fd a13e c9e9 0abf
000001e0: 0eab 443e 5e7b b53d 6d18 b53e 9c09 8abd
000001f0: dd24 eebe 08aa bcbe 8e4a 053e e286 83be
00000200: 2cb3 883e d335 94bf f54d 24bd 2f96 a4be
00000210: 52bb ae3e d597 8abe 53f2 0d3f 6ef9 8ebe
00000220: ed2c 013f 3439 5bbd b06d 36be a6b1 49be
00000230: 3797 583e 5093 c7be d2f4 583f 7ac9 f73d
00000240: f4ee d9be ed96 1d3c 7441 ab3e bda4 84bd
00000250: b67e 173f c52c 953d 1670 1a3f 9353 bb3e
00000260: bd6f 153e f7ed a9bd e7e3 533c 926f 89be
00000270: 1bac ab3d 7060 81be 91d0 ce3e 8576 04be
00000280: da23 54be e679 7f3e 272f 94be 13de f0bd
00000290: 9d3c 82be 1274 4fbf aece 9dbd 3640 a43e
000002a0: 09d3 09bf 3449 fabe cb7e 0abe 761b babd
000002b0: 48bb a1be eb69 9f3f 0ac1 e83d 1071 003f
000002c0: 9b01 853e 55d9 afbd d019 603e 63bc c83d
000002d0: c476 17bf 7a0f 23be bf12 ad3e 6cdb 173f
000002e0: 74de 5a3e 11a5 b2be e07a b43e 5217 a9bc
000002f0: 86f8 003f 2a2e 723e d7bd 01be 2677 413f
00000300: 187f be3d a57b 57be 2b3b a93d a4e1 10be
00000310: 987d 6d3f 1212 1abf 9ad8 453f 3e46 91bf
00000320: e11d f0bd 0533 7b3e 9d4a 753e 0faa b8be
00000330: 04e8 443e 2124 e6bd 5c82 733f ce0e eb3d
00000340: 424d 273c 62b8 8e3e ce35 143e 420d 923e
00000350: 2164 d13e 7620 f53e ecb4 bbbe 6182 53be
00000360: 1d81 eb3c 912c 813d b61f 663e ad8f a9be
00000370: 676d d23d e95f 27be ec48 5d3e 5138 d63e
00000380: 73fc 0e3d a38e fdbd 07b6 94bd 01c7 743e
00000390: 38d3 1c3f f2bf 88be 876c 4fbf 451b de3e
000003a0: 798c 82be a2c3 7e3d 6777 8ebe 7b84 7a3e
000003b0: c0d1 6a3e 3908 483f 5296 84bf c2dc c4bd
000003c0: 6bcb 9cbe e5f2 013d 7790 72bc abc1 06bf
000003d0: 036b 18be 197a 4a3c 06b4 9b3d 3064 15bf
000003e0: 0f72 37bd b82e ed3d d43e 353d b82b 1dbd
000003f0: d89e e03e a718 53bf 9d1b 993e bbc3 213f

fc1.bias f4 [400]
0.21093024 -0.0118611045 -0.12235763 -0.20426968 0.16000558 0.091447815 0.29479912 0.100999214
0.06961816 0.14838767 -0.108967274 0.22409335 0.15547533 0.22603406 0.03448264 -0.16621734
-0.07011348 0.12292676 -0.018956797 -0.034711484 0.18318374 -0.091496095 -0.09486825 0.44739863
0.31275612 0.28738195 0.014473596 0.22814254 0.41999614 -0.3113571 -0.00886979 0.044653926
-0.3514474 -0.05921452 -0.17707513 -0.26696005 0.024825651 0.22639357 -0.17082462 -0.29790783
0.23280609 -0.1334626 0.23258297 0.095783934 0.10008094 -0.026304372 0.25035065 0.2636738
-0.23489925 0.20647171 0.20730379 0.35647452 -0.048719846 0.17510942 -0.11536685 0.060348567
0.15692888 -0.043718945 0.27590728 0.21805981 -0.17163227 -0.011376011 -0.01236072 -0.041534368
0.1481765 0.27027616 -0.11402395 -0.16593371 -0.3764092 0.19386682 0.290416 0.27908888
0.07935267 0.09627488 0.08145978 -0.05247113 -0.07178899 -0.034869175 -0.007359124 -0.19977398
0.23574775 0.05473732 0.091033116 -0.10002216 0.112457395 0.19367985 -0.04169645 0.11444541
-0.040797062 -0.3776761 -0.11753889 0.27337134 -0.07926974 -0.1279663 -0.12634195 0.19120376
-0.055000678 0.13961719 -0.057619214 0.2863749 -0.21866672 0.40983987 0.13362697 0.071946375
-0.13025624 -0.32610604 0.08380896 0.18860915 -0.09318577 -0.32406682 0.13942374 -0.022149809
0.0803114 -0.15277292 0.16979678 0.026201494 -0.11618665 -0.10233469 -0.12443065 0.18819723
0.19850908 0.10509442 0.18257135 -0.09550644 0.16465084 -0.421456 0.009581046 0.1140368
0.21679324 -0.32224762 -0.13221891 -0.09937525 -0.04192661 0.3205892 0.23748182 -0.23419125
-0.34033832 -0.16032293 0.27229846 -0.30249983 0.058772877 -0.13224372 0.42160854 -0.029688478
-0.0024449604 -0.11118677 0.113606736 0.19828321 0.058109626 0.10494486 0.1191828 0.004238003
-0.06896196 -0.09268581 0.074865416 0.27536336 0.028836023 -0.103320315 0.0689854 0.3618497
0.15153517 -0.285962 0.11161428 -0.3154057 0.43198878 0.17180021 -0.30661777 0.21160847
-0.3293064 -0.10529035 0.041740205 0.28868395 0.15004326 0.18804836 0.102539346 0.19420338
-0.081060514 0.2965812 0.16106662 -0.03692545 0.19948125 -0.31679282 0.018532798 -0.28773925
0.24544641 -0.24420741 -0.055991825 -0.11845189 -0.07196451 -0.2050982 0.29817238 0.09364183
0.028544787 0.28072974 -0.31784132 0.06129861 0.16564128 -0.20781985 0.1656037 0.08264965
-0.16569456 -0.15864024 -0.14513083 -0.003817275 -0.21879962 0.25250322 -0.15582034 -0.08539653
0.16646737 -0.153364 -0.1768895 0.16628905 -0.5105985 0.22344725 -0.074417494 -0.12691738
-0.07526506 0.27791888 -0.068049885 0.0678719 0.22872643 0.26433197 0.38359728 -0.047054168
0.29614487 0.51769847 0.077270634 0.1708822 0.25676763 0.07491193 -0.5087065 -0.027321152
0.22966085 0.089478225 0.008493662 -0.094143875 0.2396655 -0.024391588 0.039280184 0.045480162
0.19795313 -0.21093778 -0.057358593 -0.31075072 0.16634908 0.05815471 -0.08111272 0.31366587
-0.46258828 0.31066084 -0.13090464 0.075273454 -0.042186014 0.013132051 0.46356604 -0.11781779
00000000: 19fe 573e 1455 42bc a396 fabd 122c 51be
00000010: 81d8 233e fe48 bb3d e9ef 963e add8 ce3d
00000020: f793 8e3d f0f2 173e 3c2a dfbd ba78 653e
00000030: ed34 1f3e 7975 673e ab3d 0d3d e134 2abe
00000040: a897 8fbd 06c1 fb3d 494b 9bbc a12d 0ebd
00000050: 8594 3b3e 4e62 bbbd 494a c2bd 6f11 e53e
00000060: 9221 a03e ba23 933e a922 6d3c 339e 693e
00000070: bc09 d73e 336a 9fbe 9852 11bc 09e7 363d
00000080: eaf0 b3be ed8a 72bd 2f53 35be fdae 88be
00000090: 2a5f cb3c b7d3 673e a6ec 2ebe 6087 98be
000000a0: b864 6e3e 6baa 08be 3b2a 6e3e 5e2a c43d
000000b0: 3cf7 cc3d 447c d7bc f62d 803e 4100 873e
000000c0: 6e89 70be 526d 533e 7247 543e d483 b63e
000000d0: 768e 47bd e24f 333e 7445 ecbd 0f30 773d
000000e0: f7b1 203e a312 33bd b843 8d3e 124b 5f3e
000000f0: 5fc0 2fbe 7362 3abc 9e84 4abc f11f 2abd
00000100: 95bb 173e a361 8a3e 6485 e9bd 87ea 29be
00000110: b5b8 c0be 0685 463e 68b1 943e bde4 8e3e
00000120: a783 a23d c42b c53d 63d4 a63d f8eb 56bd
00000130: 1b06 93bd fbd2 0ebd ce24 f1bb 8d91 4cbe
00000140: dc67 713e 3d34 603d 926f ba3d 6bd8 ccbd
00000150: 1050 e63d 0354 463e e6c9 2abd 5b62 ea3d
00000160: d21a 27bd c35e c1be 3bb8 f0bd 54f7 8b3e
00000170: 2c58 a2bd 9909 03be c95f 01be ebca 433e
00000180: 6448 61bd cff7 0e3e 2002 6cbd bb9f 923e
00000190: 2bea 5fbe 88d6 d13e 82d5 083e 9f58 933d
000001a0: e461 05be 5ff7 a6be 08a4 ab3d c222 413e
000001b0: 2ed8 bebd 16ec a5be 19c5 0e3e 8473 b5bc
000001c0: 4e7a a43d 8170 1cbe 35df 2d3e 84a4 d63c
000001d0: 44f3 edbd da94 d1bd 7fd5 febd c6b6 403e
000001e0: f745 4b3e be3b d73d fcf3 3a3e e198 c3bd
000001f0: 3b9a 283e 15c9 d7be d2f9 1c3c 208c e93d
00000200: 0cff 5d3e a4fd a4be 6564 07be 4085 cbbd
00000210: 3dbb 2bbd 4524 a43e 6f2e 733e d5cf 6fbe
00000220: d340 aebe b22b 24be b46a 8b3e 42e1 9abe
00000230: d4bb 703d e66a 07be 13dd d73e 4035 f3bc
00000240: a13b 20bb e4b5 e3bd a6aa e83d c10a 4b3e
00000250: 5c04 6e3d 55ed d63d 1d16 f43d f2de 8a3b
00000260: ee3b 8dbd 0fd2 bdbd 0a53 993d 6dfc 8c3e
00000270: 8639 ec3c 9a99 d3bd 3848 8d3d 5d44 b93e
00000280: 092c 1b3e 9c69 92be 0796 e43d db7c a1be
00000290: a22d dd3e 65ec 2f3e 01fd 9cbe e4af 583e
000002a0: d99a a8be 78a2 d7bd c7f7 2a3d 62ce 933e
000002b0: f1a4 193e c08f 403e 2600 d23d 40dd 463e
000002c0: 0e03 a6bd 7ed9 973e a6ee 243e 243f 17bd
000002d0: d044 4c3e ab32 a2be 18d2 973c 8f52 93be
000002e0: 4e56 7b3e 8211 7abe af57 65bd e896 f2bd
000002f0: 2162 93bd 4305 52be 0daa 983e 4ac7 bf3d
00000300: c2d6 e93c cfbb 8f3e 19bc a2be 4014 7b3d
00000310: de9d 293e bace 54be 0494 293e 3844 a93d
00000320: d6ab 29be 9672 22be 2d9d 14be 3f2b 7abb
00000330: 020d 60be 1a48 813e 5e8f 1fbe 60e4 aebd
00000340: 6c76 2a3e 740b 1dbe 8522 35be ad47 2a3e
00000350: 95b6 02bf 5bcf 643e 3368 98bd a1f6 01be
00000360: 9124 9abd 624b 8e3e bd5d 8bbd 6c00 8b3d
00000370: 4337 6a3e 8556 873e dd66 c43e dfbb 40bd
00000380: 4da0 973e e387 043f 1140 9e3d befb 2e3e
00000390: 0c77 833e 6d6b 993d 973a 02bf 9cd0 dfbc
000003a0: 372c 6b3e 5c40 b73d 0029 0b3c 81ce c0bd
000003b0: df6a 753e ded0 c7bc 42e4 203d 6849 3a3d
000003c0: 3ab4 4a3e 1300 58be d8f0 6abd b81a 9fbe
000003d0: 6a57 2a3e a233 6e3d 6d1e a6bd d098 a03e
000003e0: 5fd8 ecbe f00e 9f3e de0b 06be f828 9a3d
000003f0: 3ecb 2cbd d027 573c 8758 ed3e 744a f1bd

bn1.weight f4 [400]
1.0656168 1.4516721 0.972976 0.9128296 0.6791639 0.8184697 0.5452076 0.52167577
0.4091654 0.42500252 0.9061461 0.9184552 0.69413126 0.47065616 1.1174403 0.6722853
1.9266584 0.6102133 0.77992207 0.6683357 0.42932203 1.8573427 0.6858212 1.1568884
0.9605968 0.32641023 0.6906594 0.46796542 0.7008877 1.1856878 0.5909888 0.5171884
1.4687514 0.63704944 1.4547772 0.7018826 1.2275332 1.1238425 0.63269895 0.96316034
0.32810897 0.99604243 0.7502334 1.0830896 0.6752854 1.4359406 0.7915608 0.8672308
0.7540735 1.2027215 0.37166807 1.531476 0.8733239 0.45536906 1.3543822 0.7979489
0.6517976 0.60292625 0.5161801 0.49150246 1.4782943 0.56355447 0.67820585 1.2857066
0.9164871 0.26712143 0.9120645 1.7838581 1.4444485 0.62940836 0.25278652 0.8766453
0.51306033 0.8893312 0.77401614 0.93509775 1.673801 0.8209928 0.6527874 1.1500512
1.3275461 1.2860032 0.58933645 0.6716116 0.6263432 0.9919076 0.57560515 0.6425581
0.7050001 1.1674249 0.55563956 0.27425015 1.4331177 1.6418281 0.94841975 0.59750587
0.8128624 0.8078368 1.2031084 0.7902088 0.7196719 0.6438181 0.6542099 0.5548684
0.82237077 0.7031373 1.2540492 0.95112944 0.5055125 1.6840615 0.60207623 0.65218836
0.6747972 0.954965 0.6202323 0.4939297 0.50907546 0.55164945 0.5398606 0.543436
0.595479 0.9399783 0.4384715 1.2749492 0.6377024 1.0418634 1.0976278 1.0799072
0.41156593 2.110347 1.4626769 1.0120426 0.6977895 1.0410368 0.68907493 1.8295187
0.98520386 1.291721 1.0160947 1.4293258 0.95446724 0.5981684 1.4114156 1.195068
0.8535142 1.8338547 1.0150602 1.1372445 0.5707448 0.9728242 1.0278703 0.932946
1.0001949 0.61399585 0.82562715 1.1578679 0.87537116 0.65907925 0.39830312 0.8396663
0.6151908 1.6206096 0.54269063 1.1721653 1.1867785 1.1090991 1.5176266 0.75208
1.3368093 1.3302386 1.0522084 0.6763858 0.5291503 0.14729258 0.54683 0.6473502
1.7623588 0.23013225 0.9634294 0.99858165 0.8298149 0.7540184 0.66165036 1.069201
0.2990934 1.496735 1.0590844 1.3744546 0.7272937 2.1386945 0.18761027 0.898932
0.5333314 1.1319518 0.9219614 0.60008025 1.4062618 0.7347937 0.91621524 0.64874464
0.7458822 1.2222792 0.8109672 0.6226318 0.7921435 0.7904211 0.6669292 0.54572785
0.79914385 0.85417163 1.0219438 0.49454847 2.384862 0.72273344 0.84738326 0.62322646
1.3480979 0.27503693 0.62108046 0.75447816 0.6890953 0.29858676 1.157138 0.21398346
0.28596845 1.6085119 1.337483 0.63931274 0.67959183 0.63504004 1.7456535 1.1000812
0.3127846 0.5695765 0.77172434 0.98498094 0.28079474 0.63391316 0.8916583 0.6526739
0.92358166 0.8172201 1.1360766 1.7873858 0.97232914 0.5551584 0.5855271 0.23073426
1.2413219 0.7592942 1.004454 0.5954694 0.5311673 0.52348584 1.1458417 1.9351135
00000000: 2266 883f 64d0 b93f f514 793f 33af 693f
00000010: afdd 2d3f 3b87 513f ba92 0b3f 8b8c 053f
00000020: 217e d13e ee99 d93e 31f9 673f e11f 6b3f
00000030: 96b2 313f d8f9 f03e 4908 8f3f e41a 2c3f
00000040: be9c f63f f036 1c3f f9a8 473f 0c18 2b3f
00000050: 19d0 db3e 68bd ed3f fa91 2f3f eb14 943f
00000060: ace9 753f 3e1f a73e 0ecf 303f 2a99 ef3e
00000070: 606d 333f 9ec4 973f 0b4b 173f 7566 043f
00000080: 0c00 bc3f ac15 233f 2436 ba3f 94ae 333f
00000090: cf1f 9d3f 12da 8f3f 8ff8 213f ad91 763f
000000a0: e6fd a73e a3fc 7e3f 4c0f 403f aea2 8a3f
000000b0: 81df 2c3f e7cc b73f bba3 4a3f d602 5e3f
000000c0: f60a 413f c7f2 993f 474b be3e 6807 c43f
000000d0: 2892 5f3f 2226 e93e 655c ad3f 6146 4c3f
000000e0: 35dc 263f 6059 1a3f 6124 043f 36a6 fb3e
000000f0: bf38 bd3f 1b45 103f e69e 2d3f 0992 a43f
00000100: e69e 6a3f 24c4 883e 0f7d 693f 7655 e43f
00000110: b0e3 b83f e820 213f 3c6d 813e d46b 603f
00000120: ec57 033f 36ab 633f ec25 463f 9162 6f3f
00000130: 1c3f d63f 962c 523f 131d 273f e134 933f
00000140: 08ed a93f c19b a43f c1de 163f bdee 2b3f
00000150: 0758 203f a8ed 7d3f dc5a 133f b07e 243f
00000160: e37a 343f 2e6e 953f 653e 0e3f 846a 8c3e
00000170: 6770 b73f 6c27 d23f a3cb 723f 25f6 183f
00000180: c017 503f 64ce 4e3f 75ff 993f 204b 4a3f
00000190: 6b3c 383f 43d1 243f 4d7a 273f db0b 0e3f
000001a0: e486 523f ce00 343f af84 a03f 387d 733f
000001b0: 4469 013f 548f d73f ab21 1a3f d1f5 263f
000001c0: 82bf 2c3f 9678 743f 8bc7 1e3f 5be4 fc3e
000001d0: c552 023f e638 0d3f 4e34 0a3f 9f1e 0b3f
000001e0: 5071 183f 6ba2 703f 567f e03e 8931 a33f
000001f0: 7740 233f c85b 853f 117f 8c3f 663a 8a3f
00000200: c5b8 d23e ed0f 0740 ff38 bb3f 9d8a 813f
00000210: 55a2 323f b240 853f 3767 303f ab2d ea3f
00000220: 5236 7c3f 1d57 a53f 640f 823f 26f4 b63f
00000230: f757 743f 9021 193f 44a9 b43f fdf7 983f
00000240: e87f 5a3f c0bb ea3f 7eed 813f 3a91 913f
00000250: 551c 123f 020b 793f 4191 833f 8dd5 6e3f
00000260: 6306 803f d52e 1d3f 4d5c 533f 0435 943f
00000270: 5318 603f 6bb9 283f 63ee cb3e 5ff4 563f
00000280: 257d 1d3f 2370 cf3f c6ed 0a3f 8309 963f
00000290: 5ce8 973f f6f6 8d3f 9741 c23f 5188 403f
000002a0: 911c ab3f 4245 aa3f c4ae 863f 9f27 2d3f
000002b0: 6576 073f ded3 163e 0dfd 0b3f beb8 253f
000002c0: f994 e13f caa7 6b3e 4fa3 763f 0ca3 7f3f
000002d0: c06e 543f 5a07 413f eb61 293f 94db 883f
000002e0: c522 993e 0395 bf3f 1490 873f 21ee af3f
000002f0: ec2f 3a3f 5fe0 0840 e81c 403e 6820 663f
00000300: 6888 083f cce3 903f aa05 6c3f dc9e 193f
00000310: 6300 b43f 711b 3c3f 158d 6a3f 2114 263f
00000320: 23f2 3e3f a573 9c3f 8c9b 4f3f cc64 1f3f
00000330: ebc9 4a3f 0a59 4a3f dfbb 2a3f d2b4 0b3f
00000340: b194 4c3f feaa 5a3f 0ecf 823f 7535 fd3e
00000350: 94a1 1840 0f05 393f 1cee 583f c58b 1f3f
00000360: 798e ac3f a4d1 8c3e 21ff 1e3f 7b25 413f
00000370: 8d68 303f 5de0 983e 191d 943f 7b1e 5b3e
00000380: 756a 923e b8e3 cd3f a532 ab3f 00aa 233f
00000390: bbf9 2d3f fc91 223f 9371 df3f 76cf 8c3f
000003a0: 4e25 a03e c4cf 113f ba8f 453f b627 7c3f
000003b0: 54c4 8f3e 2248 223f b843 643f a315 273f
000003c0: d96f 6c3f 5635 513f f56a 913f 0fc9 e43f
000003d0: 90ea 783f dc1e 0e3f 1be5 153f 9a45 6c3e
000003e0: a3e3 9e3f 1b61 423f f391 803f af70 183f
000003f0: 95fa 073f 2b03 063f f1aa 923f cdb1 f73f

bn1.bias f4 [400]
-0.1547711 -0.11617914 -0.027650109 -0.2357201 -0.21537973 -0.33451173 -0.2927044 -0.72349584
-0.7292576 -0.6154747 -0.08720616 -0.20613287 -0.30920723 -0.52258384 -0.04963902 -0.358119
0.21554768 -0.4435089 -0.49326017 -0.5356261 -0.527461 -0.14991055 -0.31090423 -0.43235943
-0.49548516 -0.78064877 -0.3894057 -0.7323928 -0.34735432 -0.20494801 -0.29588497 -0.5485599
0.00092542975 -0.32724217 0.24542059 -0.40764177 -0.37333557 -0.18941168 -0.37562189 -0.29045254
-0.7303066 -0.37277746 -0.104700945 -0.15396611 -0.2731895 -0.41418234 -0.41057673 -0.46341893
-0.31634787 0.019460004 -0.633449 -0.19404691 -0.32215747 -0.3672743 -0.0556032 -0.18833578
-0.57555467 -0.49465775 -0.576689 -0.51370245 -0.063771576 -0.5337196 -0.4336742 0.3055695
-0.26382652 -0.62232673 -0.10257228 0.20984194 0.24051385 -0.49798483 -0.68251556 -0.4949569
-0.5977841 -0.38650432 -0.4172824 0.14095129 0.31126136 -0.32273197 -0.4002565 0.038305823
-0.27908874 0.021857569 -0.5242561 -0.2746896 -0.38160062 -0.12505384 -0.3797203 -0.40990207
-0.49575043 -0.3045632 -0.3761455 -0.70310307 0.2990914 -0.09478857 -0.3359846 -0.5069623
-0.37556374 -0.27623338 0.05013376 -0.35852307 -0.31985408 -0.55140567 -0.51278055 -0.32572415
-0.47039858 -0.5107903 0.46553236 -0.06975019 -0.582648 -0.0047713337 -0.36753315 -0.39201784
-0.46381634 -0.36074126 -0.255412 -0.5940891 -0.3939984 -0.56048965 -0.48980173 -0.6127187
-0.5018497 -0.36921737 -0.41628876 0.050293658 -0.38960123 -0.17590182 -0.38482222 -0.31214824
-0.26465568 0.034239255 -0.23754756 -0.06931705 -0.5155967 -0.038052138 -0.48262805 0.093908556
-0.2891926 0.16824552 -0.15325001 -0.30641934 -0.10135747 -0.36876345 0.066836104 -0.054036055
-0.48921117 0.14692947 0.37182114 0.009301843 -0.57852966 0.27087858 -0.308977 -0.49647433
0.2800308 -0.38297674 0.0012091789 -0.06563206 -0.48253834 -0.38064638 -0.28773636 -0.32654297
-0.23127347 -0.09336462 -0.30307767 -0.18836658 -0.1605473 0.28655046 -0.33236128 -0.5616048
-0.2884764 0.26347798 -0.19234744 -0.43169495 -0.5236798 -0.2681556 -0.47673863 -0.45021397
-0.20165233 -0.68747467 -0.3581063 -0.15588693 -0.3326581 -0.2550325 0.030278213 -0.21831699
-0.6962962 0.3906796 -0.21750444 -0.0046661682 -0.51955545 -0.06992658 -0.7703849 -0.41422483
-0.35545102 -0.26236552 -0.2648365 -0.39006552 0.060946885 -0.37045896 -0.09594346 -0.4426122
-0.33968353 0.2004673 0.105457455 -0.38466838 -0.32217196 -0.3507348 -0.36338398 -0.5166751
-0.18128921 -0.24945673 -0.14530097 -0.499908 0.09813735 -0.44828418 -0.2927056 -0.4835628
0.2793353 -0.699193 -0.39445361 -0.35266507 -0.2761555 -0.7264681 -0.20575133 -0.03802561
-0.68506664 -0.059291366 -0.43082672 -0.4178053 -0.41649756 -0.40470794 0.012764766 -0.17996389
-0.66730446 -0.4674332 -0.44101778 -0.18997705 -0.5779213 -0.4260228 -0.4470341 -0.45697302
-0.18929803 0.0732018 0.19475333 -0.13604702 -0.13891564 -0.3350618 -0.3070717 -0.75004774
-0.087056234 -0.16252133 -0.49805975 -0.3575307 -0.56742 -0.57595474 -0.38944045 -0.30775124
00000000: 517c 1ebe 54ef edbd 7b82 e2bc 9c60 71be
00000010: 818c 5cbe 1f45 abbe 5add 95be 0637 39bf
00000020: a0b0 3abf c08f 1dbf 2599 b2bd 7f14 53be
00000030: 6950 9ebe 0ec8 05bf 4952 4bbd 605b b7be
00000040: 88b8 5c3e 9913 e3be 998c fcbe cb1e 09bf
00000050: af07 07bf 2782 19be d72e 9fbe 375e ddbe
00000060: 3bb0 fdbe 99d8 47bf 2f60 c7be 187e 3bbf
00000070: 6dd8 b1be e4dd 51be 3c7e 97be 6c6e 0cbf
00000080: 8a98 723a 498c a7be 894f 7b3e 6cb6 d0be
00000090: d725 bfbe 23f5 41be 8351 c0be 32b6 94be
000000a0: 60f5 3abf b0dc bebe 736d d6bd 4ba9 1dbe
000000b0: 7fdf 8bbe b50f d4be 1d37 d2be 3f45 edbe
000000c0: 59f8 a1be 966a 9f3c b729 22bf 3cb4 46be
000000d0: d3f1 a4be 610b bcbe 2ec0 63bd 18db 40be
000000e0: 8d57 13bf c843 fdbe e4a1 13bf 0182 03bf
000000f0: ac9a 82bd d9a1 08bf 8b0a debe 9b73 9c3e
00000100: 4514 87be ce50 1fbf 6a11 d2bd cee0 563e
00000110: 4349 763e def7 febe 57b9 2ebf fe6a fdbe
00000120: 6108 19bf e5e3 c5be 0aa6 d5be 8955 103e
00000130: a65d 9f3e 203d a5be 6cee ccbe 91e6 1c3d
00000140: b8e4 8ebe a50e b33c a635 06bf 1ea4 8cbe
00000150: 2861 c3be 1d0e 00be b36a c2be afde d1be
00000160: 00d3 fdbe b5ef 9bbe 2596 c0be 90fe 33bf
00000170: 8222 993e 8320 c2bd 2c06 acbe 48c8 01bf
00000180: e449 c0be 766e 8dbe 0f59 4d3d 5690 b7be
00000190: eac3 a3be ec28 0dbf 9645 03bf 51c5 a6be
000001a0: 15d8 f0be 27c3 02bf 425a ee3e 30d9 8ebd
000001b0: 6b28 15bf d958 9cbb 4e2d bcbe 90b6 c8be
000001c0: 5679 edbe 14b3 b8be 5dc5 82be 3916 18bf
000001d0: 29ba c9be 407c 0fbf 4bc7 fabe 22db 1cbf
000001e0: 3979 00bf 0f0a bdbe cd23 d5be b900 4e3d
000001f0: d079 c7be 9b1f 34be 6b07 c5be e5d1 9fbe
00000200: f380 87be 763e 0c3d ab3f 73be 19f6 8dbd
00000210: 25fe 03bf 8fdc 1bbd 061b f7be 2153 c03d
00000220: 0d11 94be 8e48 2c3e 92ed 1cbe ffe2 9cbe
00000230: 8194 cfbd 90ce bcbe 5ee1 883d e954 5dbd
00000240: e379 fabe ae74 163e 575f be3e c266 183c
00000250: 851a 14bf 99b0 8a3e 3c32 9ebe e231 febe
00000260: 3260 8f3e 8715 c4be 507d 9e3a 1a6a 86bd
00000270: 440f f7be 15e4 c2be 2e52 93be a430 a7be
00000280: f4d2 6cbe f335 bfbd ff2c 9bbe 2be3 40be
00000290: 8366 24be beb6 923e 422b aabe 55c5 0fbf
000002a0: 2eb3 93be 96e6 863e baf6 44be 1f07 ddbe
000002b0: e10f 06bf b14b 89be 1617 f4be 7282 e6be
000002c0: f37d 4ebe 57fe 2fbf b559 b7be d3a0 1fbe
000002d0: 2a52 aabe 9f93 82be 040a f83c 7d8e 5fbe
000002e0: 7840 32bf 2807 c83e 7cb9 5ebe a8e6 98bb
000002f0: 9601 05bf ab35 8fbd f237 45bf 4715 d4be
00000300: adfd b5be c654 86be a698 87be abb6 c7be
00000310: 71a3 793d ccac bdbe 017e c4bd 119e e2be
00000320: 00eb adbe 4d47 4d3e 14fa d73d 41f3 c4be
00000330: b9f3 a4be 8393 b3be 770d babe d244 04bf
00000340: e1a3 39be 9671 7fbe c7c9 14be f1f3 ffbe
00000350: 3cfc c83d 8185 e5be 82dd 95be 8b95 f7be
00000360: 0905 8f3e 50fe 32bf d3f5 c9be 8490 b4be
00000370: 4164 8dbe d0f9 39bf 7ab0 52be bec0 1bbd
00000380: 8760 2fbf 81db 72bd 5295 dcbe 94ea d5be
00000390: 2b3f d5be e135 cfbe 4f23 513c 7448 38be
000003a0: 77d4 2abf 6853 efbe 15cd e1be 5889 42be
000003b0: a6f2 13bf a91f dabe a7e1 e4be 5ef8 e9be
000003c0: 58d7 41be d3ea 953d 6b6d 473e e94f 0bbe
000003d0: e73f 0ebe 388d abbe 8038 9dbe 2103 40bf
000003e0: 8a4a b2bd fe6b 26be b001 ffbe 440e b7be
000003f0: 7042 11bf c571 13bf bd64 c7be 9291 9dbe

fc2.weight f4 [300, 400]
-0.37073594 0.13789208 -0.47501603 0.1800532 0.033505294 -0.34512803 0.0010208122 0.03317813
-0.19127595 0.16857894 0.32365534 -0.2317684 -0.22891068 0.41012457 -0.16594513 -0.3616659
-0.37698403 0.52973783 -0.35298413 0.78686863 -0.31641394 -0.26995295 0.21407828 0.4980449
0.3760302 0.3558073 -0.2810333 0.16231105 0.27892363 0.46255088 -0.52969646 -0.06735274
-0.29049137 -0.43140185 -0.30541086 -0.21638948 0.7224617 -0.08155367 -0.4163939 -0.92290115
0.060636982 0.14149295 -0.17037173 -0.40904513 -0.3963859 -0.08703107 -0.027556479 0.43827158
-0.45148957 -0.54632133 -0.058635753 0.63123816 -0.21797734 -0.09292203 0.44485843 0.3204275
0.39848953 0.21314779 0.40833303 -0.32248718 -0.42480573 -0.57533485 -0.089088894 -0.9793201
-0.3314692 -0.039354376 -0.7815379 -1.0391182 0.44044754 -0.03489475 0.004049814 0.45630768
-0.10978339 -0.25598925 -0.35448793 -0.8690875 -0.32639307 -0.24180351 0.17178732 0.082166545
0.61560166 -0.6794542 0.4603684 -0.0011773019 0.28691387 -0.51466364 0.0074352846 -0.6066917
-0.19722691 0.437021 0.24843818 0.13909204 -0.77876973 -0.41720042 0.47333372 0.26975584
0.01790263 -0.14889559 -0.4812934 -0.011133621 0.2418615 0.7503165 0.09295884 -0.13228221
0.19583797 -0.0072453227 -0.024900021 -0.3845201 -0.20251906 -0.31366858 -0.033792354 -0.20118837
-0.3799386 0.5151255 -0.035689007 -0.29537493 -0.426853 -0.21763104 -0.46927577 -0.18411723
0.3486161 0.11501292 -0.08877785 -0.040279787 -0.056400016 -1.1099681 0.13920346 -0.1673791
-0.057378054 0.31612346 0.19387367 -0.38762197 -0.28027275 -0.2475206 0.17954564 0.09921191
-0.853658 -0.7379824 0.2288944 -0.37320334 -0.48104984 -0.7965045 0.59858763 -0.3014726
0.3044263 -0.83014804 0.051343016 -0.4316444 -0.25145638 -0.01081026 0.24039388 0.038902905
-0.8017966 0.15426785 -0.58101743 0.36565977 0.54911345 -0.4379463 -0.2191226 0.44689426
0.25681278 -0.61308044 0.26348504 0.5165325 0.40042686 -0.10942944 -0.31173125 0.16803738
-0.21610783 -0.7572531 -0.22587368 0.049450688 0.3803681 0.29222938 -0.123645514 0.4387157
-0.19218263 -0.013552153 0.43125293 0.42452028 0.26444212 -0.5740583 -0.13885939 -0.5262307
-0.10959591 -0.93582004 -0.0025245843 0.035433203 0.5042579 1.7265221 -0.07697872 -0.4526735
0.12736559 0.25205243 0.49640444 -0.17959012 -0.38821465 -0.3489194 -0.31118762 0.30042982
-0.17026955 0.16035546 -0.06270238 -0.5468167 -0.082637586 0.5173509 -0.35401535 -0.4075286
-0.18354154 0.54802716 -0.38582173 -0.17014414 -0.8945823 0.43349382 -0.3551546 0.037053406
-0.5679696 0.026682232 0.2771148 -0.3196305 0.29531404 -0.05514217 0.5145282 0.008793973
0.10274733 0.5028362 0.5733383 -0.25183806 0.3354264 -0.06556033 -0.69787985 -0.081961304
0.023690077 0.03252882 -0.7842556 -0.0629379 -0.22875538 -0.2173501 -0.32805043 -0.119054735
-0.2902288 -0.90551424 -0.6079415 0.5007477 -0.33154044 0.151328 -0.079947665 0.039374493
-0.40763038 -0.18610314 0.30212176 -0.19640063 0.00059060956 -0.1375164 0.56078106 0.6816521
00000000: 1ad1 bdbe 9533 0d3e 4d35 f3be de5f 383e
00000010: d93c 093d 9fb4 b0be c6cc 853a cae5 073d
00000020: d8dd 43be f59f 2c3e 27b6 a53e b254 6dbe
00000030: 9067 6abe d9fb d13e 85ed 29be 462c b9be
00000040: 0d04 c1be e69c 073f 56ba b4be 3970 493f
00000050: 0201 a2be 4637 8abe 5637 5b3e beff fe3e
00000060: 0887 c03e 602c b63e 99e3 8fbe de34 263e
00000070: 14cf 8e3e 78d3 ec3e 309a 07bf 3cf0 89bd
00000080: 49bb 94be b4e0 dcbe d05e 9cbe 3495 5dbe
00000090: 40f3 383f 9c05 a7bd 9531 d5be 4043 6cbf
000000a0: 7c5e 783d 87e3 103e ed75 2ebe 5d6e d1be
000000b0: 18f3 cabe 583d b2bd 20be e1bc 2265 e03e
000000c0: a429 e7be b7db 0bbf 0b2c 70bd d398 213f
000000d0: 7435 5fbe e84d bebd 7cc4 e33e 130f a43e
000000e0: d206 cc3e 6a43 5a3e 0711 d13e 0a1d a5be
000000f0: 2380 d9be 2549 13bf 3d74 b6bd b9b4 7abf
00000100: 55b6 a9be 0e32 21bd de12 48bf d301 85bf
00000110: 5782 e13e cced 0ebd 4db4 843b 29a1 e93e
00000120: 1dd6 e0bd 0611 83be 717f b5be 857c 5ebf
00000130: fe1c a7be 579b 77be 04e9 2f3e ef46 a83d
00000140: 1298 1d3f b6f0 2dbf 68b5 eb3e b24f 9aba
00000150: 60e6 923e ffc0 03bf b0a3 f33b 2650 1bbf
00000160: daf5 49be 37c1 df3e 9466 7e3e 256e 0e3e
00000170: 745d 47bf 4b9b d5be cc58 f23e 701d 8a3e
00000180: 89a8 923c 1678 18be 176c f6be cb69 36bc
00000190: 8baa 773e be14 403f 3461 be3d fd74 07be
000001a0: c089 483e 2c6a edbb 21fb cbbc d2df c4be
000001b0: 2861 4fbe 2b99 a0be da69 0abd 5304 4ebe
000001c0: 5087 c2be 44df 033f a32e 12bd 623b 97be
000001d0: 7a8c dabe acda 5ebe ea44 f0be 3a89 3cbe
000001e0: cf7d b23e e58b eb3d 29d1 b5bd 6bfc 24bd
000001f0: b403 67bd 6f13 8ebf 5a8b 0e3e 6d65 2bbe
00000200: 4005 6bbd efda a13e d286 463e 6376 c6be
00000210: e97f 8fbe 0a76 7dbe d0da 373e 9d2f cb3d
00000220: 5589 5abf 6aec 3cbf 4b63 6a3e 8214 bfbe
00000230: 2a4c f6be b8e7 4bbf 0a3d 193f 9e5a 9abe
00000240: c4dd 9b3e 9584 54bf 0e4d 523d 7f00 ddbe
00000250: e4be 80be 841d 31bc d029 763e a758 1f3d
00000260: 8b42 4dbf 64f8 1d3e 8fbd 14bf c237 bb3e
00000270: b392 0c3f 7f3a e0be ad61 60be 53cf e43e
00000280: f77c 833e d7f2 1cbf 83e7 863e 793b 043f
00000290: c004 cd3e 8b1c e0bd 3d9b 9fbe fe11 2c3e
000002a0: 5f4b 5dbe 57db 41bf 6e4b 67be ce8c 4a3d
000002b0: 9cbf c23e 179f 953e dc39 fdbd 589f e03e
000002c0: 86cb 44be d909 5ebc 2fcd dc3e b95a d93e
000002d0: f564 873e 7cf5 12bf 2831 0ebe 0eb7 06bf
000002e0: d273 e0bd e791 6fbf 7f73 25bb 6822 113d
000002f0: 0c17 013f adfe dc3f 05a7 9dbd d2c4 e7be
00000300: 206c 023e 040d 813e b928 fe3e 79e6 37be
00000310: 12c4 c6be 90a5 b2be fc53 9fbe f0d1 993e
00000320: 245b 2ebe 3934 243e 1b6a 80bd 2efc 0bbf
00000330: e53d a9bd 1c71 043f 8041 b5be 97a7 d0be
00000340: 50f2 3bbe 824b 0c3f 6d8a c5be 443a 2ebe
00000350: 5803 65bf e7f2 dd3e d3d6 b5be 50c5 173d
00000360: 7566 11bf b294 da3c fee1 8d3e 9ca6 a3be
00000370: 6733 973e c2dc 61bd 1fb8 033f 9914 103c
00000380: 316d d23d e0b9 003f 4dc6 123f ebf0 80be
00000390: 02bd ab3e 7f44 86bd 41a8 32bf 54db a7bd
000003a0: b111 c23c f13c 053d fac4 48bf 96e5 80bd
000003b0: da3e 6abe 0691 5ebe 3af6 a7be f8d2 f3bd
000003c0: df98 94be c8cf 67bf 0ea2 1bbf 0031 003f
000003d0: abbf a9be baf5 1a3e 9abb a3bd 2647 213d
000003e0: eeb4 d0be d291 3ebe b4af 9a3e 3f1d 49be
000003f0: 23d3 1a3a 19d1 0cbe 598f 0f3f c180 2e3f

fc2.bias f4 [300]
-0.3410243 -0.29088622 0.48923674 -0.32116756 0.37763238 -0.29431945 0.4904324 0.4747762
0.5815287 0.5519335 -0.28520563 -0.33386892 -0.28869224 -0.31074965 0.5184683 -0.2308169
0.47993115 0.18304032 -0.34972873 -0.27043813 0.63250095 0.42580122 -0.25712416 0.51066935
-0.2779421 -0.35797048 0.44411433 -0.29184955 0.49267882 -0.28791347 -0.29134902 0.5049045
-0.26865253 0.0487766 -0.2704025 0.65350753 0.45104495 0.76321816 0.43040588 -0.328039
-0.17964981 0.46489623 -0.31108052 -0.20252205 -0.27400428 0.52268624 0.43712133 0.43278262
0.62128055 -0.20324759 -0.28224745 -0.26650304 -0.3096023 0.5213131 -0.19982165 -0.22999524
0.42286703 0.48119134 0.51470035 0.5680773 -0.16093822 0.46844012 -0.25328687 0.0018875841
0.58193284 -0.22708645 0.5932789 -0.26878 -0.24295747 -0.22581524 -0.24994041 -0.3709652
0.58481514 -0.36722142 -0.23579113 0.5828533 0.6130453 -0.29156303 0.41009545 0.5927405
0.48024586 -0.23859791 -0.20753676 0.15555683 -0.23284511 0.45230073 0.41439468 -0.15932147
-0.19488634 0.3895255 -0.285833 -0.24696691 -0.1984834 -0.22649102 0.32037097 0.42731354
-0.24449006 -0.20216823 -0.25642294 -0.16144554 0.57352155 0.5340179 -0.35345626 -0.29218665
0.53821373 -0.2544154 -0.33018398 0.05829428 0.5871812 0.5562633 0.6132858 0.41362286
0.44599968 -0.38759255 0.2642778 -0.25805515 0.43428218 0.59982574 -0.18438528 -0.31018496
0.3209747 0.18984081 -0.31726146 0.15577203 -0.25829244 -0.2462771 -0.25453138 0.3906102
-0.24121062 -0.19841316 -0.2718677 -0.34151232 -0.2005174 0.51944286 -0.16385837 -0.2608094
-0.22767822 0.48787904 0.45372814 -0.2898206 0.42912453 0.45915002 -0.1686705 0.45710883
-0.3211628 -0.2024017 -0.21756133 0.5410168 0.44789016 0.41381904 -0.12616763 -0.20528942
-0.37160242 0.43778306 -0.31637985 -0.21806343 0.58866525 0.4317444 -0.10262204 -0.35844404
0.4075624 -0.19265467 0.34879532 -0.24921182 0.4012913 -0.2454184 -0.30923298 -0.23345977
0.45881027 0.5264784 -0.04366373 0.5060288 0.41184184 -0.2896547 -0.25449914 0.30825907
-0.2400459 -0.31394324 -0.36379427 0.4115003 0.5853503 -0.4539025 0.42278504 -0.2692101
0.5483297 0.5363935 0.48765802 -0.32174104 -0.20758748 0.2052363 0.3234371 0.47558293
-0.22546811 0.61658496 0.4692455 -0.20783958 -0.25059107 0.43703544 0.5864751 0.4969891
0.44048288 0.50924826 0.5515717 -0.052268337 -0.20965354 -0.3084761 -0.27727374 -0.19347866
0.3526209 0.50178885 0.51887167 -0.37787855 -0.2576506 0.4157571 0.59385365 0.53173554
-0.16914028 -0.26664776 0.47423637 -0.2562941 0.4364592 -0.39082068 -0.38612333 0.54315865
-0.27107364 -0.26738018 0.31767958 0.5110031 -0.24777655 0.3732835 -0.30313978 -0.32263142
0.4307729 0.5131805 -0.33040676 0.4630819 0.41149753 0.40321368 0.49488884 0.55314344
-0.2811302 -0.13524033 0.5183435 0.50076246 -0.40692207 0.60396487 -0.33989802 0.5985058
-0.20926589 -0.17226928 0.5136787 0.45496964 -0.20105915 -0.2578835 0.4045188 0.5195183
00000000: bd9a aebe 0aef 94be 3d7d fa3e 1370 a4be
00000010: 0859 c13e 0ab1 96be f519 fb3e de15 f33e
00000020: 11df 143f 844b 0d3f 7906 92be def0 aabe
00000030: 78cf 93be 941a 9fbe 57ba 043f 445b 6cbe
00000040: 89b9 f53e ec6e 3b3e a50f b3be de76 8abe
00000050: 95eb 213f 9e02 da3e c7a5 83be 3abb 023f
00000060: 6d4e 8ebe e847 b7be f462 e33e 4e6d 95be
00000070: 6640 fc3e 6569 93be b32b 95be 6c41 013f
00000080: d38c 89be f9c9 473d 3272 8abe 454c 273f
00000090: 5def e63e 4462 433f 295e dc3e baf4 a7be
000000a0: 1ff6 37be e106 ee3e f245 9fbe f161 4fbe
000000b0: 4a4a 8cbe c4ce 053f 5ece df3e af95 dd3e
000000c0: 3e0c 1f3f 2320 50be bd82 90be 1673 88be
000000d0: 3184 9ebe c674 053f 0c9e 4cbe df83 6bbe
000000e0: 0782 d83e b65e f63e 67c3 033f 846d 113f
000000f0: fdcc 24be 62d7 ef3e d1ae 81be d068 f73a
00000100: 8df9 143f 5a89 68be 20e1 173f 889d 89be
00000110: d8c9 78be 1c3c 67be 61f0 7fbe 27ef bdbe
00000120: 72b6 153f 7204 bcbe 3b73 71be e035 153f
00000130: 89f0 1c3f c047 95be 08f8 d13e d7bd 173f
00000140: c9e2 f53e 0353 74be 8484 54be 4a4a 1f3e
00000150: f36e 6ebe f693 e73e 8a2b d43e 2b25 23be
00000160: 4990 47be e36f c73e b458 92be e5e4 7cbe
00000170: 3b3f 4bbe 43ed 67be aa07 a43e d7c8 da3e
00000180: 9a5b 7abe 3005 4fbe de49 83be fb51 25be
00000190: 4fd2 123f 66b5 083f 38f8 b4be 7d99 95be
000001a0: 60c8 093f bc42 82be e00d a9be fcc5 6e3d
000001b0: 8251 163f 4667 0e3f 4c00 1d3f 60c6 d33e
000001c0: 125a e43e 8872 c6be 6b4f 873e ce1f 84be
000001d0: 3c5a de3e 2e8e 193f 7fcf 3cbe 90d0 9ebe
000001e0: cc56 a43e a165 423e 1870 a2be b482 1f3e
000001f0: e83e 84be 1030 7cbe f051 82be 0ffe c73e
00000200: ebff 76be d22c 4bbe 3e32 8bbe b4da aebe
00000210: 6f54 4dbe 35fa 043f 7dca 27be cf88 85be
00000220: 7b24 69be 48cb f93e 0e4f e83e 5e63 94be
00000230: 36b6 db3e b615 eb3e f6b7 2cbe 2b0a ea3e
00000240: 736f a4be 6442 4fbe 66c8 5ebe 1480 0a3f
00000250: dc51 e53e 17e0 d33e 1632 01be 6437 52be
00000260: ac42 bebe 1a25 e03e 8afc a1be 054c 5fbe
00000270: c4b2 163f 9a0d dd3e 812b d2bd fa85 b7be
00000280: 05ac d03e 4447 45be 4d95 b23e 6231 7fbe
00000290: 0e76 cd3e f64e 7bbe c953 9ebe 1410 6fbe
000002a0: 2ee9 ea3e 4ac7 063f bdd8 32bd 1a8b 013f
000002b0: efdc d23e 9f4d 94be b64d 82be 22d4 9d3e
000002c0: 98ce 75be 2bbd a0be 3e43 babe 2bb0 d23e
000002d0: 84d9 153f e965 e8be 4877 d83e e8d5 89be
000002e0: 565f 0c3f 1651 093f 50ae f93e 3ebb a4be
000002f0: d091 54be 7729 523e 8c99 a53e 9b7f f33e
00000300: 1de1 66be 83d8 1d3f f240 f03e e6d3 54be
00000310: 794d 80be 1cc3 df3e 3b23 163f 5b75 fe3e
00000320: f986 e13e 185e 023f ce33 0d3f 5317 56bd
00000330: 6baf 56be 94f0 9dbe d3f6 8dbe 451f 46be
00000340: ba8a b43e 3c75 003f c6d4 043f 4c79 c1be
00000350: c8ea 83be 1dde d43e cb06 183f d21f 083f
00000360: 1c33 2dbe 0e86 88be 1ccf f23e fb38 83be
00000370: 9577 df3e a619 c8be f5b1 c5be 720c 0b3f
00000380: 2aca 8abe 0ee6 88be e6a6 a23e 19d1 023f
00000390: 23b9 7dbe 041f bf3e 2335 9bbe f22f a5be
000003a0: 448e dc3e cc5f 033f 132b a9be 1219 ed3e
000003b0: ceaf d23e 0672 ce3e 1262 fd3e cf9a 0d3f
000003c0: 4cf0 8fbe 717c 0abe 29b2 043f f831 003f
000003d0: 1758 d0be 719d 1a3f 1d07 aebe ad37 193f
000003e0: cc49 56be 5c67 30be 7380 033f c8f1 e83e
000003f0: 73e2 4dbe 4e09 84be 171d cf3e 27ff 043f

bn2.weight f4 [300]
1.8604227 1.0031294 1.2517079 1.0085951 1.1592976 0.9991596 1.2132201 1.2085695
1.2611438 1.2525489 0.9945342 1.0081183 1.0146986 1.0052574 1.2436563 1.0111939
1.233808 1.094234 0.94038934 1.0059487 1.2478416 1.2349769 0.9798537 1.2526745
0.9827444 1.2640343 1.2361071 0.98225564 1.2564971 1.0055672 0.99439114 1.2332543
1.0046314 1.0664173 1.0028194 1.2503655 1.2065924 1.2344072 1.2379198 1.00301
1.0092865 1.2548243 0.9814451 1.0053288 1.0040115 1.2465837 1.2455134 1.240674
1.2612556 0.9908983 1.0043691 1.0459315 1.0271202 1.2518469 1.0489594 1.0057341
1.3880405 1.2474436 1.2661905 1.2224239 2.0169797 1.227283 0.99906415 0.8626326
1.2440889 1.0100256 1.2581437 1.0034631 1.2370503 1.0059725 1.1319671 0.9908745
1.259306 0.980241 1.0 1.1961935 1.249456 0.9829828 1.1506535 1.2630982
1.2569607 1.0 0.9983131 1.4063284 1.023091 1.2209256 1.2330209 0.98158807
1.6257169 1.1535491 1.0417591 0.9944269 1.0031294 1.0466467 1.2116551 1.2293351
1.0161768 1.0751854 1.0064017 1.3487593 1.2596512 1.2183694 1.00394 1.0053526
1.2206852 1.0085235 0.9659597 1.3428156 1.2578894 1.2516148 1.259504 1.1923136
1.220239 1.0038804 1.1833744 1.0059725 1.1896086 1.2434063 1.7332016 1.3024468
1.2141116 1.1422623 1.0233771 1.111614 1.0186802 1.1012923 0.9815404 1.2173151
0.9839484 1.0038803 0.97081155 1.0 1.0058533 1.2608229 1.1510855 1.0043453
1.0 1.2590822 1.2293669 0.99734753 1.1438016 1.2206174 1.1120375 1.2361637
1.1182677 1.0851339 1.0010313 1.179803 1.2221196 1.2188265 1.1251432 0.993962
0.9697744 1.2300886 1.8119687 1.0006617 1.2518426 1.2280996 1.1698892 1.0005902
1.1954364 0.9927103 1.1548153 0.99439114 1.2237924 1.485938 1.1284959 1.2208443
1.2091391 1.2606883 1.4413453 1.25086 1.2094527 1.0443579 1.0049056 1.197305
1.172818 0.9943554 1.028341 1.2129747 1.2566051 0.9724315 1.2162459 0.9926626
1.2334054 1.1992542 1.2300736 1.0046791 1.0041903 1.2707697 1.2050906 1.1967305
1.0342635 1.215148 1.2468518 0.9941289 1.0996869 1.2172734 1.250481 1.2399746
1.1918352 1.2406174 1.2656168 1.2921331 1.003642 0.9867856 0.6486124 1.3907859
1.193751 1.2285384 1.2513711 2.6557822 0.99565476 1.2019858 1.2581631 1.268861
1.1783924 1.086105 1.2428656 1.0041069 1.2482864 0.97983575 1.0565172 1.2561789
1.0 1.0058056 1.1982377 1.2384604 1.0534214 1.2234353 0.9976098 1.0312926
1.2408943 1.2543691 1.0057818 1.2328863 1.1846287 1.1736119 1.2352904 1.2582128
1.0505091 1.0017108 1.254447 1.2560283 1.0573517 1.2596551 0.9967157 1.2592752
1.0020088 1.0219227 1.2594945 1.246343 1.0060916 0.91841745 1.1955879 1.221732
00000000: 5522 ee3f 8b66 803f f737 a03f a519 813f
00000010: dd63 943f ecc8 7f3f cc4a 9b3f 68b2 9a3f
00000020: 296d a13f 8653 a03f cb99 7e3f 050a 813f
00000030: a5e1 813f 46ac 803f 2130 9f3f cd6e 813f
00000040: 6ced 9d3f dc0f 8c3f 5bbd 703f edc2 803f
00000050: 46b9 9f3f b913 9e3f b1d7 7a3f a357 a03f
00000060: 2395 7b3f e0cb a13f c238 9e3f 1b75 7b3f
00000070: e6d4 a03f 6db6 803f 6b90 7e3f 47db 9d3f
00000080: c397 803f 5d80 883f 635c 803f fa0b a03f
00000090: 9f71 9a3f 0e01 9e3f 2874 9e3f a262 803f
000000a0: 4d30 813f 159e a03f fc3f 7b3f 9dae 803f
000000b0: 7383 803f 0e90 9f3f fc6c 9f3f 68ce 9e3f
000000c0: d370 a13f 83ab 7d3f 2b8f 803f 15e1 853f
000000d0: ad78 833f 853c a03f 4d44 863f e5bb 803f
000000e0: 50ab b13f 3bac 9f3f 8812 a23f 6378 9c3f
000000f0: 3216 0140 9c17 9d3f abc2 7f3f 7dd5 5c3f
00000100: 4e3e 9f3f 8548 813f da0a a13f 7b71 803f
00000110: aa57 9e3f b5c3 803f 4ce4 903f f4a9 7d3f
00000120: f030 a13f 13f1 7a3f 0000 803f de1c 993f
00000130: 2dee 9f3f c3a4 7b3f 9d48 933f 34ad a13f
00000140: 17e4 a03f 0000 803f 7391 7f3f 9202 b43f
00000150: a5f4 823f 4a47 9c3f a1d3 9d3f 5b49 7b3f
00000160: 7e17 d03f 7fa7 933f 5d58 853f c392 7e3f
00000170: 8b66 803f 85f8 853f 8417 9b3f da5a 9d3f
00000180: 1512 823f ad9f 893f c5d1 803f 25a4 ac3f
00000190: 403c a13f 87f3 9b3f 1b81 803f 65af 803f
000001a0: 6a3f 9c3f 4c17 813f 2349 773f 62e1 ab3f
000001b0: 8502 a13f ea34 a03f 6d37 a13f bb9d 983f
000001c0: cb30 9c3f 277f 803f d078 973f b5c3 803f
000001d0: 1845 983f f027 9f3f 8dd9 dd3f 94b6 a63f
000001e0: 0268 9b3f a735 923f 05fe 823f 5e49 8e3f
000001f0: 1d64 823f 25f7 8c3f 3b46 7b3f fbd0 9b3f
00000200: 0be4 7b3f 267f 803f 1b87 783f 0000 803f
00000210: cdbf 803f a562 a13f c556 933f 638e 803f
00000220: 0000 803f 9b29 a13f e55b 9d3f 2b52 7f3f
00000230: 1768 923f 313d 9c3f 3f57 8e3f 9d3a 9e3f
00000240: 6523 8f3f abe5 8a3f cb21 803f c903 973f
00000250: 6a6e 9c3f 8202 9c3f b104 903f 4b74 7e3f
00000260: 2343 783f 8b73 9d3f 97ee e73f af15 803f
00000270: 613c a03f 5e32 9d3f eebe 953f 5713 803f
00000280: 0f04 993f 4322 7e3f fdd0 933f 6b90 7e3f
00000290: 3ba5 9c3f 3733 be3f 8e72 903f a044 9c3f
000002a0: 12c5 9a3f 3c5e a13f 017e b83f 2e1c a03f
000002b0: 59cf 9a3f 85ad 853f bfa0 803f 4a41 993f
000002c0: e61e 963f 138e 7e3f aea0 833f c142 9b3f
000002d0: 70d8 a03f 45f1 783f f2ad 9b3f 231f 7e3f
000002e0: 3ae0 9d3f 2981 993f 0d73 9d3f 5399 803f
000002f0: 4f89 803f 95a8 a23f 6940 9a3f 772e 993f
00000300: bf62 843f f889 9b3f d798 9f3f 3b7f 7e3f
00000310: 8ac2 8c3f 9dcf 9b3f c30f a03f 7db7 9e3f
00000320: 0e8e 983f 8dcc 9e3f bbff a13f 9e64 a53f
00000330: 5777 803f fb9d 7c3f 760b 263f 4605 b23f
00000340: d5cc 983f bf40 9d3f ee2c a03f 56f8 2940
00000350: 3be3 7e3f acda 993f 7d0b a13f 0a6a a23f
00000360: 90d5 963f 7d05 8b3f 3816 9f3f 9386 803f
00000370: d9c7 9f3f 84d6 7a3f f53b 873f 78ca a03f
00000380: 0000 803f 3dbe 803f da5f 993f df85 9e3f
00000390: 83d6 863f 8799 9c3f 5b63 7f3f 6501 843f
000003a0: a0d5 9e3f 2b8f a03f 75bd 803f 38cf 9d3f
000003b0: eaa1 973f ea38 963f ff1d 9e3f 1e0d a13f
000003c0: 1577 863f 0f38 803f b891 a03f 89c5 a03f
000003d0: 4d57 873f 613c a13f c328 7f3f ee2f a13f
000003e0: d341 803f 5dce 823f 1e37 a13f 2b88 9f3f
000003f0: 9cc7 803f 681d 6b3f 0609 993f b761 9c3f

bn2.bias f4 [300]
0.15276115 0.0020757106 0.24051556 -0.0043095597 0.21751586 0.0040072524 0.23073635 0.22996674
0.24765258 0.24248894 0.0055485927 0.0021294479 0.014913004 -0.005329452 0.24207374 0.01190129
0.23707879 0.20196924 0.041313883 0.0011599284 0.24052572 0.23721854 0.08819844 0.2436614
0.0034962583 -0.053207554 0.2410482 0.014410089 0.24396583 0.0010206024 0.013386564 0.24046455
0.0009909165 0.19617985 0.0017209578 0.2442062 0.23326297 0.24721019 0.22835545 0.004510819
0.0096698385 0.24592471 -0.0044467435 0.0015679179 0.001260232 0.2424883 0.24093202 0.23822933
0.24838437 -0.0079304995 0.0008093841 -0.020878969 0.0046887943 0.24232198 0.026893828 0.0010502185
0.13157862 0.23535316 0.24864525 0.23683034 -0.055454157 0.23368506 0.05618004 0.18188676
0.23697951 0.0065391483 0.2459623 0.0011164123 -0.031105483 0.001192967 -0.12284026 0.010306304
0.25132185 0.013359742 0.0 0.23408782 0.241772 0.0046233227 0.21691109 0.25460705
0.24377225 0.0 0.003085079 0.15167776 -0.0157552 0.22964641 0.23536704 -0.007193589
0.038330834 0.2043611 -0.028415611 -0.005253363 0.0011613952 0.026225137 0.2319019 0.23791447
0.025258796 -0.059453085 0.0009256133 -0.2142716 0.2447268 0.2362714 0.044773936 0.0055257753
0.23356766 0.030203007 0.045056313 0.10889028 0.24286698 0.24266131 0.24608913 0.22569773
0.22870423 0.0015435172 0.22246072 0.001103467 0.22374946 0.24262469 0.072980404 -0.030940417
0.19736312 0.21240865 0.06905875 0.20634158 0.0309693 -0.024444075 0.010765448 0.23166277
-0.004939973 0.001883823 0.016001815 0.0 0.00034332366 0.24686979 0.12380829 0.0017751607
0.0 0.24651049 0.23195758 0.00046775432 0.21561323 0.23293538 0.23485702 0.24003336
-0.015518364 -0.014966469 -0.0020709608 0.22209962 0.2342698 0.23355365 0.24355915 -0.005520094
0.01904687 0.23486319 0.1340798 -0.0013792552 0.24363366 0.23500524 0.12934299 0.0007846109
0.22837804 -0.007032098 0.21610937 -0.00567488 0.2319103 -0.008626937 -0.037892573 0.13348915
0.23205684 0.246475 0.20760578 0.24187984 0.23063271 -0.021454899 0.0016801424 0.22714871
-0.14774665 -0.005044281 -0.065659285 0.23159249 0.24649192 -0.07526297 0.23125163 -0.00616755
0.23568268 0.22695933 0.23087269 0.0019006333 0.008092177 0.17592178 0.21771169 0.22840448
-0.02160392 0.2352961 0.24060407 -0.005994231 -0.038795993 0.23244661 0.24013223 0.24158372
0.22963165 0.2406784 0.24802268 0.023505362 0.010825239 -0.013823356 -0.5812472 -0.02210009
0.22508459 0.23730159 0.2451665 0.07986447 -0.023532124 0.23188028 0.24389145 0.25251663
0.021646872 -0.052370556 0.24183354 0.0020555474 0.24323645 0.004752124 -0.007154194 0.24696462
0.0 0.0011325708 0.22596893 0.23957741 -0.061389603 0.23447879 0.0016239139 0.034813248
0.23773262 0.24951452 0.001000579 0.23685156 0.22707659 0.22551978 0.23985751 0.24583828
-0.029126024 0.00015460988 0.24602649 0.24266335 0.03442283 0.2480717 0.0017512258 0.24644858
0.0056174174 -0.024737256 0.24624924 0.23916732 0.0068881153 -0.09482313 0.22970656 0.2335574
00000000: 6b6d 1c3e a508 083b b649 763e 3537 8dbb
00000010: 7abc 5e3e 454f 833b 2646 6c3e 677c 6b3e
00000020: a398 7d3e 054f 783e f8d0 b53b 358e 0b3b
00000030: ac55 743c afa2 aebb 2ee2 773e a1fd 423c
00000040: c8c4 723e 06d1 4e3e bf38 293d bd08 983a
00000050: 604c 763e 6be9 723e 62a1 b43d 6082 793e
00000060: 7b21 653b 2af0 59bd 57d5 763e 4b18 6c3c
00000070: 2ed2 793e bcc5 853a 5253 5b3c 573c 763e
00000080: a4e1 813a 5fe3 483e c391 e13a 3111 7a3e
00000090: 7ddc 6e3e ab24 7d3e 03d6 693e 7ecf 933b
000000a0: 3e6e 1e3c b0d3 7b3e fdb5 91bb 9882 cd3a
000000b0: 5e2e a53a da4e 783e e2b6 763e 64f2 733e
000000c0: 7958 7e3e edee 01bc d92c 543a 5f0a abbc
000000d0: 75a4 993b 4123 783e 7250 dc3c 7ca7 893a
000000e0: 8cbc 063e 6b00 713e dc9c 7e3e a783 723e
000000f0: e623 63bd 234b 6f3e 0b1d 663d 8640 3a3e
00000100: c2aa 723e 5a46 d63b 8bdd 7b3e 9554 923a
00000110: edd0 febc 555d 9c3a ad93 fbbd c6db 283c
00000120: 42ad 803e d2e2 5a3c 0000 0000 b8b4 6f3e
00000130: 1493 773e 3e7f 973b f11d 5e3e db5b 823e
00000140: 6f9f 793e 0000 0000 092f 4a3b 6a51 1b3e
00000150: 0d11 81bc 6e28 6b3e 0f04 713e 33b8 ebbb
00000160: cb00 1d3d 0944 513e dbc7 e8bc 6724 acbb
00000170: f539 983a 19d6 d63c b177 6d3e da9f 733e
00000180: 89eb ce3c 1485 73bd dba4 723a 046a 5bbe
00000190: aa99 7a3e 21f1 713e e064 373d 9011 b53b
000001a0: 5c2c 6f3e 4c6c f73c f88c 383d de01 df3d
000001b0: 1fb2 783e 357c 783e cafe 7b3e 4e1d 673e
000001c0: 7131 6a3e d84f ca3a becc 633e 35a2 903a
000001d0: 941e 653e 9b72 783e c076 953d c276 fdbc
000001e0: 8f19 4a3e a781 593e ad6e 8d3d 354b 533e
000001f0: 54b3 fd3c f13e c8bc 9061 303c 0139 6d3e
00000200: 7fdf a1bb 9cea f63a 3d16 833c 0000 0000
00000210: 1f00 b439 6fcb 7c3e 338f fd3d 82ac e83a
00000220: 0000 0000 3f6d 7c3e 4a86 6d3e ec3c f539
00000230: b7c9 5c3e 9d86 6e3e 5c7e 703e 4ecb 753e
00000240: bc40 7ebc ec35 75bc f5b8 07bb 156e 633e
00000250: 6ce4 6f3e b028 6f3e 9267 793e e8e1 b4bb
00000260: 2e08 9c3c fa7f 703e 374c 093e 20c8 b4ba
00000270: 1a7b 793e 37a5 703e 7d72 043e 59ae 4d3a
00000280: efdb 693e 836d e6bb c64b 5d3e 58f4 b9bb
00000290: e579 6d3e ff57 0dbc 3e35 1bbd 61b1 083e
000002a0: 4fa0 6d3e f163 7c3e 9c96 543e 59af 773e
000002b0: fb2a 6c3e 2fc2 afbc 3938 dc3a ac99 683e
000002c0: e64a 17be 7f4a a5bb 6078 86bd 9526 6d3e
000002d0: 6168 7c3e 7923 9abd 3acd 6c3e 2919 cabb
000002e0: cd56 713e 0768 683e e469 6c3e ac1e f93a
000002f0: 0d95 043c d724 343e d0ef 5e3e dde2 693e
00000300: b4fa b0bc 76f1 703e ea60 763e 416b c4bb
00000310: 8ce8 1ebd 7c06 6e3e 39e5 753e b961 773e
00000320: 8f24 6b3e 6674 763e a8f9 7d3e 518e c03c
00000330: 585c 313c 5b7b 62bc 9ecc 14bf 3f0b b5bc
00000340: 937c 663e 30ff 723e ed0c 7b3e fc8f a33d
00000350: 71c6 c0bc 0672 6d3e aebe 793e dc49 813e
00000360: c854 b13c 8282 56bd 36a3 773e 5db6 063b
00000370: fa12 793e b5b7 9b3b bb6d eabb 4be4 7c3e
00000380: 0000 0000 c572 943a 6664 673e c853 753e
00000390: aa73 7bbd 351b 703e 82d9 d43a 5698 0e3d
000003a0: 2e70 733e bc80 7f3e dc25 833a 3789 723e
000003b0: c486 683e a8ee 663e 359d 753e 08bd 7b3e
000003c0: b399 eebc c61e 2239 5eee 7b3e be7c 783e
000003d0: f4fe 0c3d 8206 7e3e 6389 e53a 045d 7c3e
000003e0: 5012 b83b c9a5 cabc c328 7c3e 47e8 743e
000003f0: b3b5 e13b a132 c2bd 3238 6b3e ac29 6f3e
