Zadanie3/srcV2/models/Variable exploration probability/target_actor_network.pth (torch, 507007 bytes, 10 tensors)

fc1.weight f4 [400, 8]
000000 fe 20 16 3e 76 f0 34 3d 46 0b 18 be 8a cc d0 3b
       0.14661023 0.044174634 -0.1484805 0.006372039
000010 0c 63 e7 bd 0a 53 13 3c 01 6b 83 3e 90 bc b5 3e
       -0.112981886 0.008991966 0.25667575 0.35495424
000020 eb 36 cf bd e0 ff 14 3e 09 ce b0 bb 31 a2 50 be
       -0.10117897 0.14550734 -0.005395655 -0.20374371
000030 e4 3b 45 b8 96 12 f0 3d 51 32 37 3e 42 5f 52 3b
       -4.7024238e-05 0.11722295 0.17890288 0.0032100235
000040 9e de a4 bb 29 65 01 3e 3e f7 41 bd c4 83 0e be
       -0.005031421 0.12636246 -0.04735493 -0.13917452
000050 74 34 bd bc 0c 80 2c bc 04 98 a3 3e 3b d0 e0 3d
       -0.0230963 -0.010528576 0.31951916 0.10977217
000060 21 b1 db 3d 3e e6 df 3d cd 02 9d 3d 3a b1 a9 3c
       0.10727144 0.10932587 0.0766655 0.020714391
000070 58 bf 48 be 39 7c 3f be fe 29 de 3d 9b f0 20 bd
       -0.19604242 -0.18699731 0.10847853 -0.03929196
000080 20 12 75 3e 3c d6 b8 3d 84 55 c6 bd 0b 0d 8a bd
       0.23932695 0.09025237 -0.096842796 -0.06740769
000090 a4 27 5f 3e 76 fd 20 be 80 fa 18 3d 73 e2 2c 3d
       0.21792465 -0.15721688 0.03734827 0.042208146
0000a0 7b ed 9a 3c 32 b9 ca 3d e9 a3 5c bd 10 10 2f be
       0.018912068 0.098986045 -0.053867254 -0.17095971
0000b0 95 59 da 3d a4 50 61 bd 10 d5 d8 3e 34 93 06 3e
       0.10661618 -0.055008546 0.42350054 0.13142091
0000c0 d4 db 94 bc 13 12 2a 3e eb f5 ec bb ea 49 2b be
       -0.018171228 0.16608457 -0.007231464 -0.16727415
0000d0 91 c7 c0 3c eb 2a 89 3d 01 90 80 3e 18 46 73 3d
       0.02353266 0.06697639 0.25109866 0.05939302
0000e0 e8 e5 8e bc e6 d6 62 3d ef fc 8a bc 56 97 c5 bd
       -0.017443612 0.055380724 -0.016966311 -0.09648006
0000f0 c9 e5 47 bd 7d 83 a0 3e e2 da 7e 3f 64 33 3e 3e
       -0.048803125 0.31350318 0.9955274 0.18574291
000100 c2 d3 d2 3c 95 7f 06 3e ca 23 d8 bc 72 77 bd bd
       0.02573574 0.13134606 -0.026384253 -0.09251298
000110 9e 4c e6 3b 48 7a 7d be f8 b3 4a 3e 31 85 8b be
       0.0070281764 -0.24753678 0.19795215 -0.27250054
000120 29 99 07 bd 69 96 23 3e 23 4b 05 be 73 ef d3 3e
       -0.03310505 0.15975346 -0.13016944 0.41393623
000130 2f f6 bd be ea 97 25 bd ec 4e 12 3e 62 80 36 3e
       -0.37101886 -0.04042808 0.14287919 0.17822412
000140 5e 79 e2 bd a9 fe 51 3d f8 3b b5 bc 03 76 7f be
       -0.11058305 0.051268253 -0.022123322 -0.24947362
000150 7f 00 33 3d e4 83 1f 3e 6d 4d cf bd a7 e4 2f bd
       0.043701645 0.15577656 -0.1012219 -0.04294267
000160 5f 63 78 bc 09 b4 07 3e 69 13 df bb 42 5e de bd
       -0.015160411 0.13252272 -0.006807734 -0.10857822
000170 09 f4 aa bd 68 7e 5b 3b ec 83 89 3e 91 b6 42 3e
       -0.08347327 0.0033492092 0.2685846 0.19014956
000180 a7 44 df 3c 4f e6 ac 3d a8 a2 30 be 47 f4 16 3e
       0.027254416 0.084423654 -0.17249548 0.14741622
000190 23 c2 37 3e a4 c7 9d be 52 47 0e bd 0a ce f0 3d
       0.17945151 -0.30816376 -0.034735985 0.11758049
0001a0 89 21 68 3d 09 b3 d6 3d 47 b4 46 bc 54 c3 58 bd
       0.056672607 0.10483367 -0.012127942 -0.052920654
0001b0 46 fb 0e ba d6 80 a2 be 6d 5b 5f 3e a1 0b 79 be
       -0.0005454313 -0.3173892 0.2181222 -0.24320842
0001c0 0b 5b 94 bd b0 53 be 3d bd e7 3b bd 9d 6a 8e be
       -0.072439276 0.09293306 -0.0458753 -0.27815714
0001d0 13 e6 2c 3d 47 74 32 3e 6a 5e 11 3e 0f 40 20 bd
       0.042211603 0.17427169 0.14196172 -0.03912359
0001e0 e7 f2 75 bc 1c fc 0b 3e 88 cd 76 bd 96 a5 64 be
       -0.015011526 0.13670391 -0.060254604 -0.22328791
0001f0 4f 4d c4 3d 92 97 4c bd 7b 6d ae 3e 97 0b 8f bc
       0.09585058 -0.049949236 0.34067902 -0.017461581
000200 a1 78 dc bc fb 3f 31 3d c6 c2 77 3d 38 11 15 bc
       -0.02691299 0.043273907 0.060488485 -0.009098344
000210 ee 49 a0 be 4e 4f 1e bc 8b ef 0c 3f ec 23 c9 3e
       -0.31306404 -0.009662462 0.55053014 0.3928522
000220 29 b5 96 bc c4 f3 08 3e 36 dc 03 3e ab fd 8f bd
       -0.01839693 0.13374239 0.12876973 -0.07030805
000230 cd e2 06 3e f8 a4 82 be 81 aa 07 3e 27 52 3f be
       0.13172455 -0.25516486 0.13248636 -0.18683682
000240 01 5e 4a bd 9e 47 7c 3d 9a 7f 58 bc 83 ed 85 be
       -0.049406055 0.061591737 -0.013214016 -0.2615777
000250 2c 32 9f 3b 91 ef 42 bd aa 8c 11 bd c4 cd 2e 3d
       0.004858276 -0.04759175 -0.03553454 0.042676702
000260 0e 2c e7 bd 1a bd 1c 3e a1 f0 00 be be ac 91 3d
       -0.112877 0.15306512 -0.12591793 0.07113026
000270 c2 3e 83 3d d3 7a 26 bd f2 19 29 3e 7c f5 1b be
       0.064084545 -0.040644478 0.16513804 -0.15230364
000280 16 6f b7 bd 52 b2 09 3e 33 92 bb bc 62 57 8b be
       -0.08956735 0.1344693 -0.022896862 -0.27215105
000290 03 f9 94 ba 03 c6 89 3e 42 75 9c 3d a6 72 ab bd
       -0.0011365715 0.26908883 0.07639553 -0.08371477
0002a0 e5 8d 79 bb 20 56 23 3d 1d c2 04 bd 4b 90 02 be
       -0.003807896 0.039877057 -0.032411683 -0.12750356
0002b0 f4 a3 4d 3e 34 96 8c be 1e 89 b6 3d 23 37 91 3e
       0.20082074 -0.27458346 0.08912872 0.28362378
0002c0 28 6b 16 3c c9 04 ff 3d e1 62 0d bd 1e 64 f5 bd
       0.0091808215 0.124520846 -0.034518126 -0.119819865
0002d0 de b9 77 bd 87 dd 4c 3b bc 5b 9c 3e 10 4e 4a 3e
       -0.06047999 0.003125997 0.30538738 0.19756341
0002e0 7b ed bf bd 10 63 be 3d 75 c3 a6 bd 05 08 e5 bc
       -0.09371468 0.092962384 -0.08142749 -0.027957926
0002f0 55 12 4e be f5 3e cf 3c 1a dd a5 3d e6 7d 31 3e
       -0.2012418 0.025298575 0.080988124 0.17333183
000300 7c bf 8d 3b 84 e0 e1 3d b6 ee 18 be 03 fd ba 3d
       0.004325805 0.11029151 -0.14934811 0.091302894
000310 f8 58 5e 3e f2 1e 0d 3e 61 6b 03 3e 02 b2 46 bd
       0.21713626 0.13781336 0.1283393 -0.048509605
000320 1e b3 33 bc 4a a0 d4 3d 9b 72 17 bd 2f 70 fe bc
       -0.010967998 0.10382135 -0.03697453 -0.031059353
000330 cd 69 7c be 70 89 72 be a1 fe f0 bd 57 7b cc bc
       -0.24649735 -0.23685241 -0.117673166 -0.024961157
000340 34 56 a2 3c 3f 08 dd 3d b3 99 cc 3c 29 87 92 3c
       0.019816495 0.107925884 0.024975633 0.017886715
000350 3b 5a 72 be dd 75 90 be f1 a9 c4 3b 54 6e 58 bb
       -0.23667233 -0.28214923 0.006001704 -0.0033024745
000360 68 93 e1 bd c9 65 30 3d 75 68 a8 3b 1e 16 9a be
       -0.11014444 0.04306582 0.0051394054 -0.30095
000370 78 a2 91 3d 25 7d a8 3e 65 cc 83 be b5 44 6f 3c
       0.071110666 0.32907978 -0.25741878 0.014603783
000380 f1 be d1 3d 80 b9 bf 3d b9 9c ee bc d0 58 ab bd
       0.10241497 0.09361553 -0.029127466 -0.08366549
000390 b7 9b d5 bd d5 76 4e 3d f8 00 d1 3d 18 0f 78 3d
       -0.10430091 0.050406296 0.10205263 0.06056127
0003a0 21 e7 1d bd 29 a3 04 3e bb 30 e4 bd 36 8c 04 3d
       -0.0385505 0.12952866 -0.11142107 0.032360278
0003b0 5b 27 4f 3e 76 50 f7 3d a8 a4 25 3e 00 02 c4 bd
       0.20229857 0.120758936 0.16176093 -0.09570694
0003c0 8e 5f 29 be 6b 74 29 3d 16 c8 9c 3c fd c8 06 3e
       -0.16540357 0.04137079 0.019138377 0.13162608
0003d0 1b 3c 17 be ca d8 ea 3d 80 bf 61 3e 11 4e 83 3e
       -0.14769022 0.114671305 0.22045708 0.25645497
0003e0 a8 36 80 3b 6d f3 27 3e b5 7c be 3b 74 92 d2 bd
       0.0039127655 0.16401453 0.005813206 -0.1028184
0003f0 fd ba 11 bd 56 3b 1a bd e6 55 aa 3e 98 3c 63 3e
       -0.035578717 -0.037654243 0.3326866 0.22191083

fc1.bias f4 [400]
000000 59 0a 5c 3e 6b 2a 1a 3e a3 fd 17 3e bd 2c bf 3d
       0.21488322 0.15055244 0.14842848 0.09334705
000010 4e 85 27 3e fd 2e 3c 3e 55 21 0b 3e 16 d5 bb 3d
       0.16359445 0.183773 0.13586934 0.09171502
000020 ac 39 30 3d 3d d3 c5 3d 7d de d9 3d 49 a0 23 3e
       0.04302375 0.09659431 0.106381394 0.15979113
000030 86 15 11 3e 1c 5b c2 bb 1b 82 e8 3d 09 17 1a 3e
       0.14168367 -0.0059312712 0.11352941 0.1504785
000040 36 36 9a 3d 77 9f a8 3d 43 bb 8a 3d dd 7a 10 3e
       0.07529871 0.082335405 0.067739986 0.14109369
000050 0d a0 e0 3d e2 68 11 3e f1 4f 33 3e 03 1e 0b 3e
       0.10968027 0.14200166 0.17510964 0.13585667
000060 2d 1c 90 3d fc 47 80 3d 87 05 9f 3d 5e 74 c8 3d
       0.07036624 0.0626373 0.07764726 0.0978782
000070 38 a4 34 3e 4e 68 c2 3d 94 52 4f 3e b2 73 2a 3e
       0.1764077 0.09492551 0.20246345 0.16645697
000080 60 51 7a 3d 66 a5 d7 3d e3 b2 31 3e 7c 2a 0b 3e
       0.06111276 0.10529594 0.17353396 0.13590425
000090 60 1e 1e 3e 2c ef cb 3d 3e 77 dc 3d 06 d4 35 3e
       0.15441275 0.09957728 0.10764931 0.17756662
0000a0 df 03 46 3d c1 cc e9 3d 2d 35 79 3d 0e 40 f0 3d
       0.048343536 0.11416007 0.060841728 0.117309675
0000b0 68 79 1b 3e 58 c5 24 3e 98 9c 18 3e 88 97 17 3e
       0.15183032 0.16090906 0.14903486 0.14803898
0000c0 15 f3 c9 3d e5 89 0e 3e f7 5d c9 3d 4d f0 f8 3d
       0.09860817 0.1391979 0.098323755 0.12155209
0000d0 3b 6f 39 3e 99 06 3e 3e b2 35 e3 3d 30 04 a4 3d
       0.18108837 0.18557204 0.11094226 0.08008611
0000e0 b3 c1 be 3d 6f 5a 0a bd c2 60 9c 3d 38 c5 c3 3d
       0.09314289 -0.03377765 0.076356426 0.09559101
0000f0 97 85 3e 3e ff eb f1 3c 2b 1f 1b 3e 70 17 9f 3d
       0.18605648 0.029531477 0.15148608 0.07768142
000100 cb 02 e1 3d fc df 20 3e ba 2e e1 3d 8a 78 0a 3e
       0.10986861 0.15710443 0.109952405 0.13522545
000110 84 0d da 3d 50 eb 2f 3e 8a 89 01 3e 9e 36 ea 3d
       0.10647109 0.17179608 0.12650123 0.11436199
000120 51 73 1c 3e e2 67 c0 3d fc 59 bb 3d 6c 9d 4b 3e
       0.15278365 0.09394814 0.091480225 0.1988427
000130 86 e7 1e 3e ce 93 71 3d e2 56 42 3d 1d 4a ff 3d
       0.15518007 0.05897885 0.04744614 0.12465308
000140 ec 4f 58 3e aa c0 17 3e 8b 3c 0a 3e 7f 57 31 3e
       0.21124238 0.1481959 0.13499658 0.17318533
000150 8a f5 a0 3d bc 2e c0 3d 13 36 9f 3d 2d ea db 3d
       0.07859333 0.09383914 0.07773986 0.10738025
000160 38 ce 2c 3e b6 db 55 3d 92 ef 00 3e 14 34 10 3e
       0.16875541 0.052211486 0.12591389 0.14082366
000170 4d 66 21 3e 08 69 a0 3d 71 37 53 3d bb 70 74 3d
       0.15761681 0.07832533 0.051566545 0.05967782
000180 28 b4 27 3e b1 86 2e 3d 73 a8 fb 3d 5a 18 03 bd
       0.16377318 0.04260892 0.122879885 -0.032005645
000190 80 36 35 3d 96 ea 93 3d f0 84 db 3d 3b 6f 10 3e
       0.04424143 0.07222478 0.10718715 0.14104931
0001a0 e8 3d 10 3e 51 44 07 3e 68 a4 ab 3d b8 d9 11 3e
       0.14086115 0.13209654 0.083809674 0.1424321
0001b0 e7 31 a9 3d da 61 d4 3d 4a da 30 3e f0 b9 26 3e
       0.08261471 0.10370226 0.1727077 0.16281867
0001c0 6f ad 0c 3e 6d c8 ec 3d 06 60 ad 3d 60 b7 c3 bd
       0.13738035 0.11561666 0.08465581 -0.095564604
0001d0 86 f4 ae 3d 46 3b c8 3d 52 6f 8d 3d ef ca 18 3e
       0.08542733 0.097769305 0.06905998 0.14921163
0001e0 93 4d 40 3d 28 a7 00 3e 8f 7d d6 bd 24 b7 2e 3e
       0.04694898 0.12563765 -0.10473167 0.1706205
0001f0 32 f5 13 3e 8c b9 3d 3d 8a d1 e8 3d 62 93 e1 3d
       0.14449003 0.04631953 0.113680914 0.11014439
000200 68 ea 1a 3e b3 29 e1 3d 62 65 dc 3d bd 73 17 3e
       0.15128481 0.109942816 0.10761525 0.14790244
000210 cf 42 14 3e 02 9f d4 3d eb cc c7 3d a3 e2 cb 3d
       0.1447861 0.10381891 0.09755882 0.09955337
000220 40 67 17 3e 08 52 ed 3d 87 6e 81 3d 96 14 25 3e
       0.1478548 0.11587912 0.063199095 0.16121134
000230 50 d4 03 3e e2 d1 2f 3e 32 6b 25 3e 36 4f 0b 3e
       0.1287396 0.17169908 0.16154173 0.13604435
000240 53 d0 05 3e 50 7d 04 3e 16 9e f5 3d c2 48 12 3e
       0.1306775 0.12938428 0.11993043 0.14285567
000250 dd 1e 08 3e 5d 6f 8f 3d 36 2e 0c 3e e3 b6 d0 3d
       0.13293023 0.07003663 0.13689503 0.10191133
000260 5e 13 c9 3d 35 16 19 3e 95 36 8d 3d c1 b0 be 3d
       0.09818147 0.14949878 0.06895176 0.09311057
000270 7c 1e 0c 3e d0 4c f1 3d 6c b2 da 3d 79 db e3 3d
       0.13683504 0.11782229 0.106785625 0.111258455
000280 2b ff 36 3e ee cf 26 3e ef 41 42 3e bf 92 f1 3d
       0.17870776 0.16290256 0.18970464 0.11795568
000290 40 20 43 3e 8d 0c a1 3d 86 ea d7 3d e8 63 4b 3e
       0.19055271 0.07863722 0.10542779 0.1986233
0002a0 7d 79 75 3d bb d4 c4 3d 56 55 14 3e 0d ad 45 3d
       0.059930313 0.096108876 0.14485678 0.048260737
0002b0 2e d6 07 3e 67 cc cb 3d 80 f4 05 3e a0 1e 36 3e
       0.13265297 0.09951096 0.1308155 0.1778512
0002c0 03 bf 48 3d 8d 9a 9f 3d 2c 4b 0d 3e e6 36 0e 3e
       0.049010288 0.0779315 0.13798207 0.1388813
0002d0 76 47 8e 3d c0 59 19 3e 5f 2f 02 3e f3 ee 81 3d
       0.06947224 0.14975643 0.12713383 0.06344404
0002e0 f9 3f b9 3d 64 bc 2b 3e 6f 55 14 3e bf 97 58 3e
       0.09045405 0.16771084 0.14485715 0.21151637
0002f0 9e 16 28 3e d4 5c ed 3d 95 19 70 3d 70 3e 23 3e
       0.16414878 0.11589971 0.058618147 0.15941787
000300 b4 72 d0 3d 33 a6 b3 3d 38 c3 fa 3d d3 6a 26 3e
       0.10178128 0.08771934 0.12244266 0.16251688
000310 d9 18 f6 3d 13 7a ff 3d 2f 65 bb 3d d1 ee 18 3e
       0.12016458 0.12474456 0.091501586 0.14934851
000320 e3 f5 b8 3d bb 65 a4 3d 77 17 a6 3d 8f a3 ba 3d
       0.09031274 0.08027216 0.08109944 0.091132276
000330 81 99 08 3e 0e 50 08 3e 89 19 81 3d cb 1b 21 3e
       0.13339807 0.13311788 0.063036986 0.15733258
000340 37 97 eb 3d 12 b2 85 3d da b7 dc 3d d7 1a 4d 3e
       0.11503451 0.06528105 0.107772544 0.2002977
000350 df 32 c1 3d 2d 14 bc 3d a2 86 25 3e 8d 7d ee 3d
       0.09433531 0.09183536 0.1616464 0.11645041
000360 7c b5 14 3e 87 cf b6 3d 39 f1 d6 bc 71 f8 f3 3d
       0.14522356 0.089263014 -0.02623807 0.11912621
000370 b4 eb 3c 3e f7 80 3a 3e 44 f3 80 3d d7 89 29 3e
       0.18449289 0.18213259 0.06296399 0.16556488
000380 e4 33 4f 3d 50 c5 e1 3d a7 1b d6 3d 03 a1 02 3e
       0.050586596 0.110239625 0.10454493 0.12756734
000390 df ca 54 3d a1 43 0c 3d 55 dc 53 bd 51 80 73 bb
       0.051951285 0.034244183 -0.051723797 -0.003715534
0003a0 ef 49 43 3e 6f 35 cd 3d b0 31 e2 3d 47 fc c0 3d
       0.19071172 0.10019957 0.110446334 0.09423118
0003b0 74 e1 41 3e 6b a9 ed 3d f7 76 32 3e 70 b3 6f 3d
       0.1893366 0.116045795 0.17428194 0.058520734
0003c0 b0 72 3e 3e 52 db 38 3e fd 7f 00 3e 93 94 40 3e
       0.18598437 0.18052414 0.12548824 0.18806677
0003d0 22 75 5c 3e ec 01 ad 3d 10 f1 0e 3e ad f3 00 3e
       0.21529058 0.08447632 0.13959146 0.12592955
0003e0 26 e4 11 3e ab cf a4 3d 06 a9 10 3e b1 9a 0c 3e
       0.14247188 0.08047422 0.14126977 0.13730885
0003f0 94 1a 32 3e 8d 8e 81 3d 37 89 ea 3d 13 58 6a 3d
       0.17392951 0.063260175 0.11451953 0.0572129

bn1.weight f4 [400]
000000 21 c7 90 3f 69 21 11 3f 76 c1 1a 3f e9 af 7a 3f
       1.1310769 0.56691605 0.6045145 0.9792467
000010 85 79 70 3f 33 d7 12 3f 36 b9 1d 3f 5a 08 b3 3f
       0.93935424 0.5735962 0.61610734 1.3986924
000020 50 da 92 3f 1b 5f b7 3f 51 d8 8e 3f be c2 1f 3f
       1.1472874 1.4325899 1.1159765 0.6240653
000030 ac c6 86 3f b3 cc a4 3f 4f ed 47 3f 8d e7 1a 3f
       1.052938 1.2874969 0.7809648 0.6050957
000040 0c 19 b6 3f 59 70 93 3f ec 6b 76 3f 6c 41 71 3f
       1.4226394 1.1518661 0.96258426 0.9424045
000050 d1 58 1c 3f e5 1b 82 3f 94 5a 20 3f da 68 66 3f
       0.61073023 1.0164763 0.6263821 0.9000374
000060 fb 1b 87 3f a1 9d 7a 3f 79 e9 79 3f 17 6b 97 3f
       1.0555414 0.9789677 0.97621876 1.1829556
000070 cc 02 57 3f d0 29 6a 3f c1 94 c4 3f 62 09 22 3f
       0.8398864 0.9147005 1.5357896 0.6329557
000080 d7 68 e5 3f d4 5a 72 3f c6 a7 2a 3f 9d 7d 3b 3f
       1.792262 0.9466984 0.6666225 0.73238546
000090 40 3a 58 3f 00 e3 84 3f 40 8e 86 3f 5a 6f 0c 3f
       0.8446388 1.0381775 1.0512161 0.5485741
0000a0 98 8c ca 3f 4e b1 17 3f da 25 8d 3f 1e 85 92 3f
       1.5824156 0.5925492 1.1027176 1.1446874
0000b0 e0 8e e2 3e ae 3b f8 3e cf f3 01 3f 29 cb 1f 3f
       0.4424963 0.48483032 0.5076265 0.6241937
0000c0 18 89 7e 3f 21 97 36 3f 69 6c 34 3f b2 42 4a 3f
       0.9942794 0.71324354 0.7047792 0.7900802
0000d0 65 56 c2 3e fa d3 0f 3f 47 d4 85 3f 41 20 8d 3f
       0.3795654 0.56182826 1.0455407 1.1025468
0000e0 4e 11 96 3f e5 af bd 3f 4c 1c 79 3f aa fb 94 3f
       1.1724031 1.4819304 0.973088 1.1639302
0000f0 d5 5c 3c 3f 94 a2 c5 3f eb 7f 0e 3f 5d 5e 80 3f
       0.7357915 1.544024 0.5566394 1.0028797
000100 3b 3b 6b 3f 8d 41 0f 3f ab 79 ad 3f c9 ef 3d 3f
       0.91887254 0.559594 1.3552755 0.7419401
000110 7e 13 91 3f 78 aa 07 3f c0 3f 38 3f ab 16 6d 3f
       1.1334074 0.5299449 0.71972275 0.92612714
000120 94 9f 24 3f 95 50 8b 3f 1d 9c 59 3f 48 55 d3 3e
       0.64305997 1.0883967 0.85003835 0.41276002
000130 b6 87 41 3f 2c 75 8b 3f 73 3d 8d 3f 47 87 91 3f
       0.75597703 1.0895133 1.1034378 1.1369408
000140 a9 d5 0f 3f 09 f4 ea 3e 5a ef 0a 3f ab f9 f6 3e
       0.56185395 0.4588931 0.5427147 0.48237357
000150 bb e0 88 3f 4c 35 83 3f c4 c9 98 3f a7 11 80 3f
       1.0693582 1.025064 1.1936574 1.0005387
000160 18 1a 16 3f 65 2e d8 3f 83 ce f3 3e 78 59 84 3f
       0.58633566 1.6889158 0.47618493 1.0339804
000170 bb fe 68 3f ca a3 90 3f e4 26 8f 3f c0 ff d7 3f
       0.9101369 1.1299984 1.1183743 1.6874924
000180 ba fb 67 3f 06 f1 76 3f 8d 52 75 3f 7d 7a b0 3f
       0.9061848 0.9646152 0.9582909 1.378738
000190 ca ee 91 3f 30 62 95 3f 65 ac 94 3f 66 59 95 3f
       1.1400998 1.167059 1.1615111 1.1667907
0001a0 4b cd 11 3f af e2 2d 3f 44 87 88 3f fa 18 7d 3f
       0.5695388 0.67924017 1.066628 0.98866236
0001b0 71 37 8d 3f f5 1b 41 3f 04 fd 5a 3f b7 94 d3 3f
       1.1032544 0.75433284 0.8554232 1.6529759
0001c0 b9 b3 fb 3e f9 a0 bd 3f 70 45 90 3f 5e e8 ec 3f
       0.49160555 1.481475 1.1271191 1.8508413
0001d0 be bf 87 3f 84 2e 88 3f 40 38 88 3f 8f 9d 36 3f
       1.060539 1.0639195 1.0642166 0.71334165
0001e0 45 59 88 3f 72 4d 8c 3f 5e b7 fb 3f 1d ec 0e 3f
       1.0652243 1.0961134 1.9665334 0.5582903
0001f0 ee 30 17 3f 73 a5 e9 3f 8e b8 79 3f 18 ce f3 3f
       0.59059036 1.8253616 0.97547233 1.904727
000200 44 24 2f 3f 37 cc 91 3f 5e b4 35 3f 9a d3 c0 3f
       0.6841471 1.1390446 0.70978343 1.5064576
000210 77 63 25 3f 3d 21 83 3f 59 20 bb 3f 06 1d 94 3f
       0.64604896 1.0244519 1.4619247 1.1571357
000220 2c 7c 08 3f 53 74 ad 3f 96 e9 9a 3f a5 90 12 3f
       0.5331447 1.3551124 1.2102535 0.5725196
000230 61 65 1c 3f 70 b9 08 3f a4 61 31 3f 39 db 78 3f
       0.6109219 0.53407955 0.6928961 0.9720951
000240 41 ac 15 3f 71 f8 0f 3f 41 72 3c 3f 02 85 fe 3e
       0.58465964 0.56238467 0.7361184 0.49710852
000250 9c 66 3e 3f 32 82 57 3f 29 b7 5f 3f 7f bf 87 3f
       0.7437532 0.8418304 0.87388855 1.0605315
000260 17 62 7b 3f 54 3b 68 3f c7 a2 9b 3f f9 24 8e 3f
       0.9819655 0.9071553 1.2159051 1.1105033
000270 35 0f b1 3f 3e 62 7b 3f d6 d6 e2 3f 0b 7e 22 3f
       1.3832766 0.9819678 1.7721813 0.63473576
000280 bb 9f 30 3f 78 24 19 3f 89 e0 38 3f 95 33 51 3f
       0.6899373 0.5982127 0.72217613 0.8171933
000290 f5 e0 8d 3f a8 44 8a 3f 63 23 4d 3f 27 67 0f 3f
       1.1084276 1.0802202 0.8013212 0.56016773
0002a0 dd ab 4c 3f 24 89 86 3f 83 e0 28 3f 20 ba 8a 3f
       0.7994974 1.0510602 0.6596758 1.0838051
0002b0 18 c9 3b 3f b3 62 86 3f 70 3d 3b 3f 9a b8 e0 3e
       0.7335372 1.0498871 0.7314062 0.4389084
0002c0 6e 92 93 3f e0 d1 5c 3f 24 c0 38 3f 23 73 7c 3f
       1.1529062 0.86257744 0.72168183 0.98613185
0002d0 62 fa 9e 3f 0a ac 3c 3f 28 95 83 3f 13 69 93 3f
       1.2420161 0.7370001 1.0279894 1.1516441
0002e0 6d 93 a1 3f 74 bf 25 3f 0d 04 3d 3f b2 6f 4f 3f
       1.2623116 0.6474526 0.73834306 0.8102981
0002f0 b9 0b 29 3f 5b 9f 46 3f 8a 4b a2 3f 10 43 4c 3f
       0.6603351 0.7758691 1.2679303 0.7978983
000300 bc 14 b0 3f ce 76 81 3f e5 14 34 3f 48 88 1a 3f
       1.3756328 1.0114381 0.7034438 0.603642
000310 22 00 99 3f bf 6e 98 3f 6d 49 a2 3f 5b ec 1e 3f
       1.1953166 1.1908797 1.2678658 0.620794
000320 c0 73 87 3f e4 67 84 3f 24 19 76 3f 69 22 95 3f
       1.0582199 1.0344205 0.9613211 1.1651126
000330 60 9a 78 3f 99 93 27 3f 29 67 7c 3f 67 82 9a 3f
       0.9711056 0.6545959 0.9859491 1.2071046
000340 eb a4 2d 3f 13 a7 ee 3f ff ed 46 3f 44 98 3c 3f
       0.6782977 1.8644737 0.77706903 0.7366984
000350 36 32 8e 3f 90 ce 23 3f b5 14 16 3f eb 79 5c 3f
       1.1109073 0.63987064 0.58625346 0.8612353
000360 50 95 12 3f b3 03 9d 3f 24 8d ae 3f 5f fc 3b 3f
       0.5725908 1.2266754 1.3636823 0.7343196
000370 1d 7c 3a 3f 86 e4 d9 3e 17 53 77 3f 6a 54 12 3f
       0.7284563 0.42557162 0.9661116 0.57160056
000380 cf b8 9f 3f 2d cc 86 3f ae ee 22 3f c5 38 89 3f
       1.2478274 1.053106 0.63645446 1.072045
000390 43 b2 c3 3f a2 8e 9f 3f 6e 9b bf 3f 95 98 a3 3f
       1.5288776 1.2465403 1.4969308 1.2780939
0003a0 49 20 bd 3f 58 ff 77 3f d0 cd 17 3f 15 7e 87 3f
       1.4775478 0.96874 0.5929842 1.0585352
0003b0 8b 58 12 3f 68 d4 90 3f f3 f3 f3 3e dd 41 98 3f
       0.57166356 1.1314821 0.47647056 1.18951
0003c0 ff 6f f7 3e ea 84 f1 3e d7 fa 84 3f c1 90 10 3f
       0.48327634 0.47171718 1.038905 0.56470877
0003d0 6e 13 ee 3e 05 fa 86 3f b7 33 63 3f 0f 7c a9 3f
       0.464992 1.054505 0.88750786 1.3240985
0003e0 63 a9 60 3f 99 bc 5b 3f c5 e9 81 3f b3 76 7b 3f
       0.87758464 0.8583465 1.0149466 0.98227996
0003f0 71 92 4d 3f d3 71 9f 3f a0 1a 2c 3f 6b 30 d1 3f
       0.80301577 1.2456611 0.67228127 1.6342901

bn1.bias f4 [400]
000000 53 ba 45 be a1 07 ec be ea 69 02 bf 8b d0 57 be
       -0.19309358 -0.4609957 -0.5094286 -0.21075647
000010 31 01 98 be 7e e7 16 bf c3 69 f3 be 57 b5 19 be
       -0.2968841 -0.5894698 -0.47541627 -0.15010582
000020 c7 36 e3 be 9c 89 78 3c 41 86 d4 bd 8d 1b f2 be
       -0.4437773 0.015169527 -0.103771694 -0.47286645
000030 4c ef 61 be d5 a2 b3 be 6d a0 cc be b5 66 02 bf
       -0.22063941 -0.35085168 -0.39966145 -0.5093797
000040 47 3b e8 bd f9 6c 2a be e3 e7 15 be a0 bb 91 be
       -0.11339431 -0.16643132 -0.14639239 -0.2846346
000050 55 16 d8 be 87 1c 61 be 43 94 0a bf d3 b3 84 be
       -0.42204538 -0.21983539 -0.5413248 -0.25918445
000060 7a ae 7d be c1 9a 50 be 58 ef 4e be 1b 12 68 bc
       -0.24773589 -0.20371534 -0.2020849 -0.014164473
000070 1d dd c6 be 63 1d 9c be 03 27 3d 3d 27 e7 f8 be
       -0.3884057 -0.3049117 0.046179783 -0.48613855
000080 ff f8 a7 3d 11 7c 41 be 7b de fb be fc 9b e2 be
       0.08201789 -0.18894984 -0.49193177 -0.44259632
000090 18 8f b7 be 8d c3 c1 bd 61 ba 37 be 09 03 14 bf
       -0.3585136 -0.094611265 -0.17942192 -0.5781713
0000a0 54 f3 0d 3e ab 79 ee be e8 ba 0d be d2 8a 6d be
       0.13862354 -0.465772 -0.1384083 -0.23197487
0000b0 b8 9a 13 bf 59 67 04 bf 69 6b 0c bf 58 a9 e7 be
       -0.5765796 -0.51720196 -0.54851395 -0.45246387
0000c0 47 03 3c be 34 21 ca be 9e 18 ae be 88 b9 a5 be
       -0.18360625 -0.39478457 -0.34003156 -0.32368112
0000d0 f7 bf 19 bf 15 bc 05 bf 6c 38 f4 bd 10 66 2e be
       -0.6005854 -0.52240115 -0.11924824 -0.17031121
0000e0 0e 2e a6 bd ee 07 ac be ec 9b 64 be d6 15 b7 bc
       -0.08114253 -0.335998 -0.22325104 -0.02234928
0000f0 48 9f ec be 87 69 2d 3e 15 86 f6 be 3a 20 56 be
       -0.46215272 0.16934787 -0.4814917 -0.20910731
000100 6e 14 99 be 4b d0 11 bf e5 a9 80 3c 1f 74 d5 be
       -0.298984 -0.56958455 0.015706012 -0.41690156
000110 51 bc 3f be f0 d6 0c bf 19 69 d3 be cd 20 cb bd
       -0.18724181 -0.5501547 -0.4129112 -0.09918366
000120 5e d4 01 bf 3e 84 00 be e8 6f 95 be 20 b3 25 bf
       -0.5071467 -0.12550446 -0.2918694 -0.6472645
000130 89 2f cc be 27 b6 21 be 53 0f 0a be c8 51 54 be
       -0.39880016 -0.15792142 -0.13482408 -0.20734322
000140 a3 a5 09 bf be 1e 10 bf 80 a5 ee be 3a dc 13 bf
       -0.53768367 -0.5629691 -0.4661064 -0.57757914
000150 dd 25 42 be 59 d6 57 be c3 0e 47 bd 9c b4 85 be
       -0.18959756 -0.21077861 -0.048598062 -0.26114357
000160 ff 99 0a bf 43 21 f9 3d 9c 6f fc be ed 23 61 be
       -0.5414123 0.12164547 -0.493039 -0.21986361
000170 96 da 3e be fb a3 50 bd 7c 08 ff bd 28 e9 38 3e
       -0.18638071 -0.050937634 -0.1245279 0.18057692
000180 af d2 92 be c4 f3 5e be 53 e5 38 be 1b 46 bf be
       -0.28676364 -0.21772677 -0.1805623 -0.37358174
000190 ab ef c0 bd cb 04 d2 bd a6 27 09 be 13 67 e8 bd
       -0.09420713 -0.102548204 -0.13394031 -0.11347785
0001a0 11 26 f3 be 3c 52 cf be 09 9e e8 bd 8a bd 6f be
       -0.4748998 -0.40492427 -0.11358268 -0.23412147
0001b0 94 71 96 bd 98 24 8e be e5 bd a6 be f4 17 13 3e
       -0.07345882 -0.27762294 -0.32566753 0.14364606
0001c0 fa 4a 01 bf 1a 65 25 3d fe 6d a9 bd 2d 43 5b be
       -0.5050503 0.04037962 -0.082729325 -0.21412344
0001d0 85 ed f2 bd f0 62 e6 bd 0f 1d 19 be 18 8d f7 be
       -0.118617095 -0.112493396 -0.14952491 -0.48349833
0001e0 df b0 6e be a4 90 09 be f0 5c 2c be fa 75 16 bf
       -0.23309658 -0.13434082 -0.16832328 -0.5877377
0001f0 9f 2d e0 be 22 a2 0a 3e 83 0f 14 be 29 29 1e 3e
       -0.43784806 0.13538411 -0.14459042 0.15445389
000200 c8 6b ee be 79 0b 3b be 2f 07 c7 be c3 e8 4b bc
       -0.46566606 -0.18266095 -0.38872668 -0.012445631
000210 2b 4e f7 be 7c 6a a0 be 8e c8 59 3d 0d c3 23 bd
       -0.48301825 -0.3133124 0.05316978 -0.039980937
000220 a4 cc 03 bf 75 3b 8d 3d 98 01 d5 bc c9 54 e6 be
       -0.5148413 0.06896106 -0.026001737 -0.4498656
000230 ca cb ea be fc a3 12 bf a1 89 f9 be 9d 17 8b be
       -0.45858604 -0.5728147 -0.48737815 -0.27166453
000240 78 a5 f0 be 27 ee ff be ae ae ce be a7 48 07 bf
       -0.47001243 -0.49986383 -0.40367645 -0.52845234
000250 aa 53 b2 be fa 3d 87 be 10 b6 c3 be 8c e1 0c be
       -0.34829456 -0.26414472 -0.3822484 -0.13757914
000260 ab 22 81 be f3 6a a0 be d9 42 c2 bc c7 3b 09 be
       -0.25221762 -0.31331596 -0.023713516 -0.1340171
000270 3e ca 94 3d d1 db 00 be 70 85 0f 3e cc 64 d4 be
       0.07265137 -0.12583853 0.14015746 -0.41483152
000280 45 79 c8 be b2 45 c8 be 8f 19 c4 be e8 15 d1 be
       -0.3915502 -0.39115673 -0.3830075 -0.40837026
000290 a6 92 ca bd d0 ff 22 be ad 2a a9 be 26 d3 10 bf
       -0.09891252 -0.15917897 -0.33040372 -0.56572187
0002a0 a0 b6 9c be d2 dd 06 be c0 ba e9 be 1e d0 d1 bd
       -0.30608082 -0.13170555 -0.4565029 -0.10244773
0002b0 94 47 9a be e6 8b 76 be 24 77 ab be c2 46 24 bf
       -0.30132735 -0.24076805 -0.33489335 -0.6417047
0002c0 ab a8 a4 bd 3a 45 97 be d3 fd d9 be 4d 70 68 be
       -0.08039983 -0.29545003 -0.42576465 -0.2269909
0002d0 2b 7a 9c bc a9 d3 a8 be 83 db e4 bd 9b 15 b2 bd
       -0.019101223 -0.32973984 -0.11174681 -0.08695527
0002e0 82 af 00 be c0 cb 07 bf d9 8c cb be 3e 40 ad be
       -0.12566951 -0.5304527 -0.39755896 -0.33838075
0002f0 ce ce ef be 12 48 d9 be 9e 3c 93 bd 01 68 9d be
       -0.46837467 -0.42437798 -0.07189296 -0.3074341
000300 bf 22 7c bd ee 43 42 be d3 0f c9 be 47 a2 fc be
       -0.061556574 -0.18971226 -0.39269885 -0.49342558
000310 ab cc 2b be bf 4a 35 be e5 8a 04 3d 58 09 07 bf
       -0.16777293 -0.17704295 0.032359023 -0.5274863
000320 5f 0e 30 be 72 c0 21 be 26 e0 60 be 7a 3f bc bd
       -0.17192982 -0.15796068 -0.21960506 -0.09191795
000330 7f 6f ad be cd 33 e2 be 26 06 75 be 53 d8 25 be
       -0.33874127 -0.44180146 -0.23928127 -0.16195802
000340 c5 7f b9 be 6e b4 3d bd 63 2f 7e be 91 67 d3 be
       -0.36230293 -0.04631465 -0.24822764 -0.41289952
000350 be 1a 08 be 62 4d cb be 42 58 02 bf f8 58 6d be
       -0.13291451 -0.39707476 -0.5091592 -0.2317847
000360 b5 da 03 bf 10 d1 42 be c5 94 b6 be 3e c4 b7 be
       -0.51505595 -0.19025064 -0.35660377 -0.35891908
000370 b9 6a d7 be 74 7d 16 bf 60 e2 70 be 65 22 ee be
       -0.4207361 -0.58785176 -0.23523855 -0.46510616
000380 69 5d de bb 90 da 34 be 4c 1c df be ad cb 43 be
       -0.0067860377 -0.176615 -0.43576276 -0.19120665
000390 7f 28 89 bc f1 ea 01 bd 0e d2 8e be d1 a5 cb be
       -0.016742943 -0.0317182 -0.27894634 -0.39774945
0003a0 9d 73 22 3d 26 55 03 be 38 7d e1 be da e4 e7 bd
       0.03966104 -0.1282545 -0.44040847 -0.11322947
0003b0 32 74 15 bf c4 2c f9 bd 1e 4f 17 bf 08 be 03 be
       -0.58380425 -0.121667415 -0.591051 -0.1286546
0003c0 2c 81 19 bf 18 1a 0d bf cf 0f cc bd 14 5a 20 bf
       -0.59962726 -0.5511794 -0.09963953 -0.6263745
0003d0 e2 03 20 bf 47 0b fa bd 09 12 9b be e8 67 22 bc
       -0.62505925 -0.12209182 -0.30287197 -0.0099124685
0003e0 42 30 c9 be 12 dd ab be 35 c4 91 be 78 cd 0c be
       -0.3929463 -0.335671 -0.28470007 -0.13750255
0003f0 61 41 b2 be 7a 85 83 bd 22 7b c9 be c0 da 79 3d
       -0.34815505 -0.06421943 -0.39351755 0.060999632

fc2.weight f4 [300, 400]
000000 31 9d 5c bd 41 14 b1 bd 26 c6 4d 3d 9a b7 03 3e
       -0.053860847 -0.08646441 0.050237797 0.12863007
000010 6f 8e 87 3d 2c 2f 85 bd 0d 10 af bd a5 31 c0 bd
       0.06618964 -0.06503138 -0.08547983 -0.09384469
000020 90 0b bf 3c fe 48 76 3e 0d b3 3b bc 1c b3 3a bd
       0.023320943 0.24051282 -0.011456263 -0.04558097
000030 e0 fc a9 3d 23 db d7 bd 98 27 4b bd 5a 17 68 bd
       0.08300185 -0.10539844 -0.049598306 -0.056662895
000040 32 ba 2c bd 65 cd 60 bd e6 f2 73 3d 32 3e 2c 3d
       -0.042169757 -0.05488338 0.059557818 0.0420515
000050 67 a2 ca bd cc ae f6 3d ec 77 07 be 36 33 97 bd
       -0.09894257 0.120450586 -0.1322934 -0.073828146
000060 f3 48 43 3e aa 46 5b ba d8 b9 fa 3d 27 f1 8d bc
       0.19070797 -0.0008364717 0.12242478 -0.017326904
000070 a1 52 40 be 23 e4 45 3e 4d 55 81 bd 3f a6 6a bd
       -0.1878152 0.19325309 -0.06315098 -0.05728745
000080 ac e9 0f 3e 41 75 04 3e 46 53 89 bd 59 75 82 bd
       0.14053982 0.12935354 -0.06705336 -0.063700385
000090 5d ac c3 3d bf e9 ab 3d a5 06 f3 3d ba c0 50 bd
       0.0955436 0.08394193 0.11866502 -0.05096505
0000a0 08 83 65 3e 38 de a7 3d da da 6a 3d 3a 2b 5a 3d
       0.22413266 0.08196682 0.05733762 0.05326388
0000b0 01 ff a4 bc ce 9a b6 bd 15 43 ba bd df 99 84 3c
       -0.020141127 -0.089162454 -0.09094826 0.016186653
0000c0 61 a5 89 3d 21 fd 86 3c 88 f2 e5 3d cd 59 af bd
       0.06720997 0.016478123 0.112279 -0.0856205
0000d0 0f 5d 81 bd a4 d6 54 3d e7 a4 db 3d 29 c8 b8 3d
       -0.06316578 0.05196251 0.10724812 0.090225525
0000e0 fa 92 74 bd 2c 12 0b bd a3 5d e2 3d e4 2b 46 bb
       -0.05971048 -0.033952877 0.11053016 -0.0030238563
0000f0 29 3f 03 be 28 cb 55 3d 8f 43 63 bb 50 21 c4 bd
       -0.12817062 0.052195698 -0.003467772 -0.09576666
000100 bc 68 c4 3d 6a c5 e3 bd 56 b1 c1 3d 6e 89 35 3d
       0.09590289 -0.11121638 0.09457652 0.044320516
000110 e5 ac 07 3e 47 c1 5e bd e3 7b ad bc 26 22 8a 3d
       0.13249548 -0.054383542 -0.021177238 0.067447945
000120 69 6e 02 3d f9 f1 39 3d 67 29 43 bb df 7e da bb
       0.031843577 0.04539678 -0.0029779316 -0.0066679562
000130 f9 c0 e8 bb 02 6f ef bb a8 22 91 3d de bb ce 3d
       -0.0071030823 -0.0073069343 0.07086688 0.100944266
000140 44 32 2a be c7 04 53 bd f1 67 df bb 68 e8 99 bd
       -0.16620737 -0.051518228 -0.0068178107 -0.07515031
000150 39 50 93 3d 83 20 98 3c 0a cc 19 bd 3a e4 14 3d
       0.07193036 0.01857019 -0.037548102 0.036350466
000160 b8 7b cd ba b4 c0 74 3e f3 c5 06 be 40 a0 23 3d
       -0.001567713 0.23901635 -0.13161449 0.03994775
000170 9b 55 67 3c a4 ac a5 3d 43 6a 4b 3c 0c 20 ea 3d
       0.014119531 0.08089569 0.0124154715 0.11431894
000180 51 e6 08 bd d4 f9 cd bc 0c 73 48 3d a2 2c 45 bd
       -0.03342277 -0.025143541 0.048937842 -0.04813827
000190 6f ac c8 bb 9e c8 d1 3d a6 d9 f4 3d f4 f0 f1 3d
       -0.0061240713 0.10243343 0.11955576 0.11813536
0001a0 3b ff 86 bd 7a 46 b4 bc 0f 29 99 bd 9f 85 d6 3d
       -0.0659165 -0.022006262 -0.074785344 0.10474705
0001b0 17 64 4b 3d 2f c9 d0 3d 24 24 a7 bd 4c d8 1b 3e
       0.049656 0.10194623 -0.0816119 0.1521923
0001c0 62 c2 89 bd 61 f7 06 bd 45 45 ec 3d 3d d3 4d bc
       -0.06726529 -0.032950763 0.115366496 -0.01256257
0001d0 7b 61 5a 3d f1 5a e1 3d 2c a1 f0 3d 40 66 c1 ba
       0.05331562 0.11003674 0.11749491 -0.0014755204
0001e0 8b 68 de 3d e2 ec cd 3b 39 7c b0 bb 0c f9 9e bc
       0.10859784 0.006284342 -0.0053859022 -0.019405864
0001f0 bd 73 28 bd b1 18 a8 3e 14 71 43 3d 09 54 c6 3d
       -0.041126 0.32831338 0.04771526 0.09683997
000200 5a e2 3c bc d6 2c 3a 3e d2 b4 bf 3d 86 10 3e 3e
       -0.011528576 0.18181166 0.093606606 0.1856099
000210 62 ee 85 bd f8 21 74 bd 8d 87 b4 3d 0b 18 8b 3d
       -0.065396085 -0.059602708 0.08814917 0.06791695
000220 59 74 87 3c 90 b1 a2 3c 75 7a 22 3e 81 c0 e6 3c
       0.016534971 0.019860059 0.15867026 0.028167965
000230 08 7a 7b bd 2c d2 13 be 94 be 9f 3d 9a 7d 87 3d
       -0.061395675 -0.14435643 0.07800022 0.066157535
000240 02 ed 65 3c 2c b3 ac 3c 4e 3c 57 3d 80 e0 14 bd
       0.014033558 0.02108153 0.052547745 -0.036346912
000250 c8 3e 91 3c 00 87 c9 3d c4 73 07 3e bf 04 cf bb
       0.017730132 0.09840202 0.13227755 -0.0063177045
000260 87 30 33 3e 87 50 17 be 37 2f e5 bb a3 89 dd 3d
       0.1749898 -0.14776812 -0.006994154 0.10817268
000270 d1 52 0a 3e 5d 04 85 bc e2 cf c2 3e df 72 59 bd
       0.13508154 -0.016237432 0.38049227 -0.053088065
000280 65 87 e2 bd 61 e9 4a bd 90 a9 4a bd aa 52 ea 3d
       -0.11060981 -0.049538974 -0.049478114 0.11441548
000290 ad ed a9 3d 3d 20 05 bd 7b 13 93 3b 6d 0c ad bd
       0.08297286 -0.032501448 0.0044884062 -0.08449636
0002a0 d7 d5 bc 3d cc 06 3b 3c f9 b1 c2 3a 03 37 d3 bd
       0.09220474 0.011415195 0.0014854065 -0.10313227
0002b0 1f 46 36 3d fb 83 32 3d ba 84 e7 3c 54 f9 48 bd
       0.044500466 0.043582898 0.028261531 -0.049065903
0002c0 88 54 c0 bd fc e7 5d bd 63 af d1 bd 2e 1d 1c 3d
       -0.09391123 -0.054176316 -0.102385305 0.038113765
0002d0 ff 9a 8b 3b 3d 24 90 bd 80 18 a0 3d 0e b7 b7 bc
       0.0042604203 -0.07038162 0.07817173 -0.022426154
0002e0 4a 14 26 3e 2d e1 8c bd 37 26 34 bd c8 47 97 3d
       0.16218677 -0.06878886 -0.043981757 0.07386738
0002f0 cb 29 71 3c ea 4c 30 bd d4 38 64 bd fa bc 9b bc
       0.014719437 -0.0430421 -0.055718258 -0.01901101
000300 a2 40 a9 bc 5a 26 13 bd 5b 9c a4 bb 0d a4 14 be
       -0.020660702 -0.035925247 -0.005023522 -0.14515705
000310 f2 de 83 3d 1b 6a 30 3d f6 fd 2f 3c 4b 7d 42 3c
       0.06439008 0.04306994 0.010741701 0.0118706925
000320 e7 77 8a 3c 10 3b ca 3d 84 bb bc 3d 52 f6 0d 3d
       0.016902877 0.098745465 0.09215453 0.034658737
000330 1b 9f 8c bd 1c 10 10 3d b9 b8 74 3c 4d 34 93 3c
       -0.068662845 0.035171613 0.014936619 0.017969275
000340 7a b2 71 bb c0 ab be bd 33 75 43 3c fa cd db bd
       -0.0036880062 -0.093101025 0.011929798 -0.10732646
000350 71 9a 7c 3c 60 8a 26 3c 36 d2 e7 bd 49 aa ba bc
       0.015417681 0.010164827 -0.113193914 -0.022786276
000360 fa 33 b0 bd c1 2e be 3d 27 75 85 bc 84 de 03 be
       -0.08603664 0.09286261 -0.016291214 -0.12877852
000370 63 9e a8 bd 77 d2 9f bd ca 35 da 3d ec 0d fd bd
       -0.08233335 -0.07803815 0.10654791 -0.12356171
000380 be 81 66 ba 84 cc 2a 3e 44 1d 9c 3c 06 73 be bd
       -0.0008793137 0.16679579 0.019056924 -0.09299283
000390 aa eb 92 3d ac 6a 62 3d 6b 88 9e 3c 39 a7 ff bd
       0.071738556 0.05527751 0.019352159 -0.12483067
0003a0 c0 e7 38 3e 2e 88 5c 3d 45 62 84 3c eb e1 ac 3d
       0.18057156 0.05384081 0.01616014 0.08441528
0003b0 96 d7 7c bd 9a 4c d1 bd 2f cc 02 be 08 a5 0b 3d
       -0.061729036 -0.10219689 -0.12773202 0.034092933
0003c0 cf 90 e5 bc a0 1d 67 bd ad d3 86 3d db c6 d8 bd
       -0.028023152 -0.056424737 0.06583343 -0.10584804
0003d0 49 51 c7 bd 5b f2 23 bd 86 d3 8b 3d b2 ea c9 3c
       -0.09732301 -0.04002605 0.06827454 0.024648044
0003e0 95 8c e3 3d d8 42 41 3d c6 24 59 3d 7e 21 86 3d
       0.11110798 0.047182888 0.053013586 0.06549357
0003f0 1a 96 cc bd c0 20 8c bd a6 5b 2b bc d1 ff 48 3e
       -0.09989567 -0.06842184 -0.010458862 0.19628836

fc2.bias f4 [300]
000000 11 9c 9b 3c fb 74 50 3b 2f 3d b4 bc 0e ac 01 bc
       0.018995317 0.0031808007 -0.02200183 -0.007914556
000010 9a f2 93 bc 7a f3 8f 3d a3 15 6d bd 3e 71 0b 3d
       -0.018060017 0.07028861 -0.057881963 0.034043543
000020 14 93 37 3d b5 83 ac 3d c6 6d c5 3c 5d b1 a6 bc
       0.044818 0.084235586 0.024100196 -0.020348245
000030 d6 bc b6 bc e6 b8 10 bb 96 43 13 bd 4d d4 9c bd
       -0.02230684 -0.0022082864 -0.035953127 -0.07657681
000040 38 a6 43 3d 18 b4 db bb 04 e4 0d 3a ba 50 79 bd
       0.04776594 -0.0067048185 0.00054127 -0.060868002
000050 b9 0a b2 3c 4b a6 c7 3d 8a 50 ac bc d9 40 87 bc
       0.021733629 0.09748515 -0.021034498 -0.016510414
000060 fd ee 99 3c 05 25 c0 3b 44 5b b0 3c 1b 32 92 3d
       0.018790716 0.005863788 0.021527894 0.07138463
000070 2b 78 61 3d 6e 86 ac 3d 45 a9 f5 3b 87 bf eb 3c
       0.05504624 0.08424078 0.007496985 0.02877785
000080 f1 37 b8 3b 1b 69 a2 3d 55 b7 83 3d dd f4 5d bd
       0.005621903 0.079302035 0.06431452 -0.054188598
000090 42 20 73 3c ca c8 60 bd 16 60 aa 3c 6b 98 13 bc
       0.014839234 -0.054878987 0.02079777 -0.009008507
0000a0 df 8f b1 bc 3b 8f 93 3d 91 96 0e bd 04 ff 07 bd
       -0.021675048 0.072050534 -0.03481156 -0.033202186
0000b0 0b de 9c bd 39 f8 07 bd b5 c4 53 3d 1b e4 0c 3d
       -0.07659539 -0.033195708 0.051701266 0.034397226
0000c0 96 bf 10 bc 3d c8 0f bc 1d 71 93 bd 1d 86 58 bd
       -0.00883474 -0.008775768 -0.07199309 -0.052862275
0000d0 bd af 99 ba 68 cb 9a 3c 43 90 c3 ba ac 2a 37 bc
       -0.0011725348 0.01889582 -0.0014920313 -0.011179607
0000e0 ec 99 8b bd 6f e5 5d bc 8c 37 ca bc 88 2e 20 3d
       -0.06816468 -0.013543471 -0.02468469 0.039106876
0000f0 0e 9b 19 3d 4d 28 1a 3d a2 14 60 3d 00 aa 8d bd
       0.037501387 0.03763609 0.054707177 -0.069171906
000100 96 8d d9 bc cc ed 8e bd b5 8d 4b bb 2f 40 6e bc
       -0.026556771 -0.0697895 -0.0031059806 -0.01454167
000110 4d 39 a6 3d 8a db 83 3c 19 b5 1b bc c7 42 3e bc
       0.08116398 0.016095895 -0.009503626 -0.011612601
000120 6e 2e 11 bc c3 a6 d5 bb 81 2a 38 bd 87 42 3b 3c
       -0.008861167 -0.0065201237 -0.04496241 0.011429436
000130 f5 bf 92 bd 43 e5 ee bc da 62 f3 bb e8 fd 2d 3d
       -0.07165519 -0.029162055 -0.0074275555 0.042478472
000140 9c c6 00 3d 1d d1 e1 3b 1c c2 4e 3d c6 e9 c8 bc
       0.03143941 0.0068913833 0.050478086 -0.024525534
000150 3d 3c 8d bd 37 5f 85 bd d2 d4 ad 3c 20 c7 1f 3c
       -0.06896255 -0.065123014 0.021219645 0.009752065
000160 0f 80 72 bc e8 9b 20 bd 4a b5 ca 3c 2c 6b f3 3a
       -0.014801039 -0.039211184 0.024744648 0.0018571368
000170 59 1a 6c 3c 7b 5d 01 bd 62 09 40 bd f9 01 58 bd
       0.014410579 -0.03158329 -0.04688395 -0.052736256
000180 bb cc e8 3c c7 ef 1b bd 1c c4 e6 3c f8 9c 01 bc
       0.028417936 -0.038070466 0.028169684 -0.007910959
000190 5a 13 ea 3c 2e 61 c6 3c 2c 0d 0a 3e 7c 4b 6c 3c
       0.02857368 0.02421626 0.13481587 0.014422294
0001a0 7e d9 8e bd e5 5e 50 bd 93 ab 46 bc 93 b3 43 bd
       -0.06975077 -0.05087175 -0.012125867 -0.047778677
0001b0 49 e4 f4 3b ac a1 8b bc 8f dd 6a bc 0a 84 34 bc
       0.007473503 -0.017044865 -0.01433505 -0.011017809
0001c0 eb 66 c7 bd d9 f8 84 bd 75 29 90 bc 94 af 9d ba
       -0.09736427 -0.064927764 -0.017597893 -0.0012030476
0001d0 4c 08 3f 3d 67 3e 88 3c dd 82 68 bd ba 8b 08 bc
       0.046638772 0.016631318 -0.056765426 -0.008334095
0001e0 c9 c0 dd bc 6c e2 a6 3d 1b be f3 3b 55 0d 3c bc
       -0.027069466 0.08148655 0.007438434 -0.011477788
0001f0 a3 dd b2 bd d6 eb a9 3c 0a a1 b7 bc 10 0e 66 bd
       -0.0873368 0.020742338 -0.022415657 -0.056165755
000200 89 3c 07 bd eb 23 12 bd 22 57 34 3d b7 c3 55 3c
       -0.033016715 -0.035678785 0.04402841 0.01304715
000210 78 27 15 bd c7 7a 65 bd a7 01 2f bc 72 3c 7a 3c
       -0.036414593 -0.056025293 -0.010681546 0.0152732
000220 b6 00 0c bc 76 16 70 3a a0 7b e4 bd 5e 5e 49 3d
       -0.008545091 0.00091586204 -0.11156392 0.04916226
000230 ce f3 40 bd 7b 7a 8e bd d1 89 c8 3d c6 14 45 bc
       -0.04710751 -0.06956955 0.097919114 -0.012028879
000240 b1 99 27 3d bd 24 bc bd d5 cc e7 bb a8 20 93 3c
       0.040918056 -0.09186695 -0.0070739784 0.017959908
000250 80 fe cc 3b 4b 51 fa 3c d7 b2 89 bc 8b a7 c8 bc
       0.0062559247 0.030556342 -0.01680891 -0.024493953
000260 25 71 a5 bc cd d4 51 3c b6 15 31 bc f1 e0 4e bd
       -0.020195553 0.012807083 -0.010808399 -0.05050749
000270 a8 ca ab 3d d7 c0 13 bd e2 03 05 39 57 48 ef 3c
       0.08388263 -0.03607258 0.00012685315 0.029209299
000280 37 f9 96 39 04 e5 5e 3a 7f d4 07 3d 50 49 1d bd
       0.0002879591 0.0008502754 0.033161636 -0.038399994
000290 bd 2e 5c 3d 18 b6 aa 3c d6 20 61 bc bb f0 0f bd
       0.05375551 0.020838782 -0.013740739 -0.035141688
0002a0 01 a0 21 bc 66 c2 59 3d 69 82 64 bb e0 70 68 3d
       -0.009864808 0.05316391 -0.003486777 0.05674827
0002b0 30 e5 f3 3c 2e fe 3b bd 3a 5d 0e bd 98 bb 63 3d
       0.029772371 -0.0458967 -0.034756877 0.055598825
0002c0 a5 b3 45 3c 36 16 bd 3c 80 64 68 bc 75 29 a9 bb
       0.012066756 0.02308188 -0.014184117 -0.0051624128
0002d0 60 4c 87 bc e9 d0 f4 3c e3 a3 b4 bc dd 64 cc bb
       -0.01651591 0.029884772 -0.022050804 -0.00623761
0002e0 18 93 88 3d 2a dc e7 3c 76 f6 87 bd c6 b8 85 3d
       0.06668681 0.028303225 -0.066388056 0.06529383
0002f0 7c 20 63 3d 55 06 88 bd a4 e3 4a bd 9c fa 59 bd
       0.0554509 -0.06641833 -0.0495335 -0.053217515
000300 d2 26 04 bd 11 84 79 bd 5b a7 47 bc 56 1a 87 bd
       -0.032263584 -0.060916964 -0.012185897 -0.0659682
000310 f6 68 44 3d de 05 19 3d e9 47 fa 3b d8 1d 0b 3d
       0.04795166 0.03735911 0.007637967 0.033964008
000320 0d a3 88 3d ed b7 ca bd 59 86 ee 3c 22 10 e0 bc
       0.066717245 -0.09898362 0.029116796 -0.027351443
000330 bb 60 95 bb f0 cf 27 bd a4 09 00 3d 06 b8 34 3c
       -0.0045586503 -0.04096979 0.031259194 0.011030203
000340 61 05 07 3d a0 db 04 ba 4d c2 86 3d db 4d f5 bd
       0.032964114 -0.0005068127 0.06580029 -0.119777404
000350 f5 fd b8 3c e0 50 80 3d 1b 3f bf 3a 55 53 23 3d
       0.022582034 0.06265426 0.001459095 0.039874393
000360 ee 7a 06 3d a9 ac 3d bb c4 ac 98 3b 95 82 da 3c
       0.03283208 -0.0028942025 0.004659267 0.026673594
000370 a4 6c cb 3c 22 ee 88 3c 73 14 64 bd 48 26 87 bd
       0.024832077 0.016715113 -0.055683564 -0.065990984
000380 f1 4d ce bd 4c 9e af bd 42 80 0b bd 8c 70 c9 bc
       -0.1007346 -0.085751146 -0.034057863 -0.0245898
000390 4c 1d 00 be 18 27 80 bd be c3 46 3c fd a6 d6 bc
       -0.12511176 -0.062574565 0.0121316295 -0.026202673
0003a0 fa 85 07 3d 67 7d b2 3c f2 fc a6 bc 75 2c 70 bc
       0.033086754 0.021788312 -0.020384286 -0.014659037
0003b0 4f 66 07 bd c9 85 ef bb 8b b1 cd 3c 82 68 ab bd
       -0.033056553 -0.0073096496 0.025109073 -0.08369543
0003c0 5d 05 bc b9 29 19 44 3d 94 e8 08 3d 18 98 6b bd
       -0.0003586215 0.047875557 0.03342493 -0.057518095
0003d0 22 4c 12 bc dc 0f c4 bb a3 a3 26 3c 13 8e 51 3d
       -0.008929284 -0.005983336 0.01017085 0.051160883
0003e0 bb da b0 bb 2f bb 9c bc 51 aa 88 3d 63 83 01 bd
       -0.0053971685 -0.019132225 0.0667311 -0.03161944
0003f0 b8 32 86 3d ac 7b 70 3d 70 5b 93 bc 52 d7 04 3d
       0.065526426 0.058711693 -0.017987937 0.032431908

bn2.weight f4 [300]
000000 ee 48 1e 3e a4 11 49 3e bf 88 86 3e 44 96 8e 3e
       0.15457508 0.19635636 0.26276204 0.2784902
000010 00 7e ba 3e 9f 90 4e 3e f6 0b 93 3e fa 2d f6 3d
       0.36424255 0.20172356 0.28720063 0.12020488
000020 d6 9d 86 3e a2 b9 02 3e 2c 9b ca 3d e3 aa 8b 3e
       0.26292294 0.12766126 0.09892878 0.27278814
000030 4d da 36 3f 9d 35 a8 3e 4e d9 49 3e 0d 02 c6 3e
       0.7142685 0.32853404 0.19711801 0.3867344
000040 97 5c 13 3e dd 26 71 3f c3 74 5c 3e 9d 3b 5b 3e
       0.14390789 0.94199926 0.21528916 0.2140946
000050 93 d6 90 3e a6 ac 0c 3f 1a bd 94 3e b9 19 76 3e
       0.28288707 0.5495094 0.29050523 0.2403325
000060 cc 37 63 3e a6 4d 39 3e b5 56 1b 3e 9b c7 ad 3e
       0.22189254 0.18096027 0.15169795 0.3394135
000070 e0 ff eb 3e 01 79 85 3e 81 3f b1 3e b5 2c af 3e
       0.46093655 0.2606888 0.34618762 0.34213796
000080 1c 5d 79 3e 73 5f 93 3e 00 92 7b 3e 43 88 aa 3e
       0.24351925 0.2878376 0.24567413 0.33307084
000090 a1 6b 37 3e 2d 62 c8 3e 4d cb 4a 3e 47 7d 18 3e
       0.17912151 0.39137402 0.19804116 0.1489154
0000a0 48 22 96 3e 71 72 8d 3e 83 58 a4 3e f4 d3 47 3e
       0.2932303 0.27626374 0.3209878 0.19514447
0000b0 7a 46 a2 3e b3 4e 2d 3e fd f5 33 3e 15 98 9d 3e
       0.31694394 0.16924553 0.17574306 0.30780092
0000c0 79 7c b4 3e 30 fd 95 3e b4 af 3e 3e b6 a4 2f 3e
       0.35251215 0.2929473 0.18621713 0.17152676
0000d0 60 1e 8b 3e bf 26 6b 3e c0 a2 77 3e a4 3e 8d 3e
       0.27171612 0.22963999 0.24183178 0.27586854
0000e0 9e 4a 46 3e e5 2d 8f 3e 4e 56 78 3e d5 9d 25 3e
       0.19364402 0.27964702 0.24251673 0.1617349
0000f0 63 71 d8 3e 02 26 41 3d 92 32 3c 3e 94 67 64 3e
       0.42274007 0.047155388 0.18378666 0.22305137
000100 5f 14 8b 3e ad eb 9f 3e 0a 04 43 3f db 13 8d 3e
       0.2716398 0.31234494 0.7617804 0.2755421
000110 fc 31 62 3f 3c 61 72 3f 18 76 5e 3e b3 29 7c 3e
       0.8835752 0.9467962 0.21724737 0.24625282
000120 80 4f 6f 3e e2 7b 64 3e 31 12 42 3e 17 e4 bf 3e
       0.2337017 0.22312883 0.18952252 0.37478706
000130 ad e8 9f 3e c1 67 a9 3e 1f 10 5a 3e 61 ab 13 3e
       0.31232205 0.3308697 0.21295212 0.14420845
000140 ea 0f 16 3e c3 3e 79 3e b7 62 82 3e 84 dd b7 3e
       0.14654508 0.24340348 0.25465938 0.3591119
000150 d1 91 1e 3f 2c 14 f4 3e ba 38 aa 3e c8 4f 8a 3e
       0.6194125 0.4767164 0.33246404 0.27013993
000160 b3 77 36 3e 6a 0e f0 3d 15 28 25 3f 3a 5e 86 3e
       0.17819099 0.11721499 0.64514285 0.26243764
000170 a9 7d e9 3e c5 8f 7b 3e 3a fb ae 3e 3c e6 bc 3e
       0.45603684 0.24566562 0.34176046 0.36894405
000180 17 14 c7 3e 84 e0 62 3e 0f 32 86 3e 6b 2e be 3e
       0.38882515 0.22155958 0.26210067 0.3714479
000190 46 d0 57 3e 84 1b 4b 3e d9 59 52 bc 25 b2 43 3e
       0.21075544 0.19834715 -0.012838804 0.19110925
0001a0 17 24 5f 3e ed 37 11 3e 7e 7c 62 3e 32 eb b7 3e
       0.21791111 0.1418149 0.22117803 0.35921627
0001b0 91 3c 52 3e 8e 16 61 3e 95 7f 64 3e d8 29 99 3e
       0.20530917 0.2198126 0.22314294 0.29914737
0001c0 20 ed 97 3e e9 11 98 3e ce 0f 7a 3e 26 41 86 3e
       0.296731 0.29701164 0.24420092 0.2622158
0001d0 d7 da 8b 3e 1a 94 81 3d 4a 15 90 3e ca f2 40 3e
       0.273154 0.06327076 0.28141242 0.18842617
0001e0 58 59 8c 3e 23 0c b6 3e 64 a1 14 3f 4e 29 3d 3e
       0.27411914 0.35556135 0.5805876 0.18472788
0001f0 6c 93 55 3f dc ef 44 3e 26 92 6f 3e 23 55 21 3e
       0.8342807 0.19232124 0.23395595 0.15755133
000200 c7 2b a0 3e 51 63 a2 3e 79 45 38 3d 05 1a 9a 3e
       0.312834 0.31716397 0.04498813 0.30097976
000210 30 34 c3 3e 63 b0 dd 3d c3 51 88 3e 39 18 fc 3d
       0.38125753 0.10824659 0.2662488 0.123093076
000220 a3 a7 b9 3d 58 5c a4 3e 15 3d 00 3e 7f 32 f6 3d
       0.09065177 0.32101703 0.12523301 0.1202135
000230 3e f5 5c 3e 36 4f a1 3e 9d e9 78 3e 9c df 02 3f
       0.21577927 0.31505746 0.24307866 0.5112245
000240 3d f8 17 3f e0 05 a2 3e 7d fe 5e 3e 63 e7 74 3e
       0.59363157 0.31645107 0.21776767 0.23916392
000250 6c 9d 77 3e 29 bf 92 3e e8 c1 3b 3e 05 d1 b2 3e
       0.24181145 0.2866147 0.18335688 0.34925094
000260 11 7f a2 3e 76 48 4e 3f c6 d0 0b 3f ca d3 0f 3e
       0.3173757 0.80579317 0.5461544 0.14045635
000270 00 98 5b 3f 60 60 04 3f de 3a 4c 3e 7e 3d 40 3e
       0.8577881 0.51709557 0.19944331 0.18773457
000280 31 a6 b1 3e d8 6d 01 3f 81 e5 43 3e 8e 5d 3f 3e
       0.34697106 0.50558233 0.19130518 0.18688032
000290 11 68 73 3e 8e e1 98 3e e6 5a a4 3e a8 ca aa 3e
       0.23770167 0.29859585 0.321006 0.3335774
0002a0 c6 e6 06 3f ae f5 b0 3e 0e 87 81 3e cd 87 b2 3e
       0.5269588 0.3456244 0.2529835 0.34869233
0002b0 7e f8 aa 3e e3 da 49 3e 22 f6 8e 3e 07 3b 85 3e
       0.3339271 0.19712405 0.2792216 0.26021597
0002c0 78 72 9b 3e b5 a4 0f 3f 82 27 51 3d f7 17 ad 3e
       0.3036077 0.561107 0.05106307 0.33807346
0002d0 87 b9 86 3e 4a 27 85 3e 84 b6 64 3e 1c 43 59 3e
       0.2631342 0.26006538 0.22335249 0.21217006
0002e0 f9 01 d4 3e 7a 7e 9c 3e d0 4a 07 3f 45 cd 1f 3e
       0.41407755 0.30565244 0.5284853 0.15605648
0002f0 2f 66 3c 3f 10 cf 56 3e 62 33 74 3e fa a3 b8 3e
       0.7359342 0.20977426 0.23847726 0.36062604
000300 38 01 1b 3f 01 bb 52 3e 83 71 54 3e f1 b5 a4 3e
       0.60548735 0.20579149 0.20746426 0.3217006
000310 a1 8d b1 3d 85 9c 07 3f e3 a8 71 3f 61 1a 4a 3e
       0.08669592 0.52973205 0.94398326 0.19736625
000320 f4 02 26 3e 64 a8 e3 3e 1f 5b 44 3e b3 51 89 3e
       0.16212064 0.4446441 0.19175385 0.26820144
000330 3e 39 54 3e cb 19 56 3e 83 1e 1d 3e 46 4d 5d 3e
       0.20724961 0.20908277 0.1534367 0.21611509
000340 aa 28 9c 3e 49 31 99 3e 80 97 30 3f 15 d4 cb 3e
       0.30499774 0.29920414 0.6898117 0.39810243
000350 58 74 c5 3e cb fa b6 3e 07 ac 49 3e 46 c3 73 3e
       0.38565326 0.35738215 0.1969453 0.2380496
000360 5e 3c 8c 3e 5e f5 9d 3e 24 bd c8 3e b5 2b a7 3e
       0.27389807 0.30851263 0.39206803 0.32650533
000370 0a f3 a5 3e 5c 9b 6f 3e 7f aa 43 3e 51 4e d3 3e
       0.32411987 0.23399109 0.19108008 0.41270688
000380 09 cb 99 3e 7a 7a 32 3d a1 e1 86 3e 6a 35 43 3e
       0.30037716 0.043573834 0.26344016 0.19063345
000390 09 2c f6 3e 2f e0 9f 3e 56 d7 65 3e 16 ec 08 3e
       0.4808047 0.31225726 0.22445425 0.1337131
0003a0 8d db 7d 3e 52 87 21 3e c8 8b a8 3e 81 86 2f 3e
       0.24790783 0.15774277 0.32919145 0.17141153
0003b0 4a c0 90 3e 57 43 49 3e 5a b0 50 3f b0 6c 31 3e
       0.28271705 0.19654594 0.8151909 0.17326617
0003c0 7d 3d a2 3e 0f 40 a1 3e 48 bd 6d 3e 32 51 39 3f
       0.31687537 0.31494185 0.23216736 0.7238952
0003d0 fb 48 41 3f c4 54 36 3f d0 76 36 3e c1 a4 ac 3e
       0.75501984 0.7122309 0.17818761 0.33719447
0003e0 64 94 98 3e 2d ec 7d 3e a6 6f 12 3e 3a 29 b3 3e
       0.29800713 0.24797125 0.14300403 0.3499239
0003f0 49 cb 59 3e f4 c3 72 3e 91 a1 18 3e 20 43 9f 3e
       0.21268953 0.23707563 0.14905383 0.311059
