Zadanie3/src_v2/experiments/LunarLanderContinuous-v2/ddpg_1/saves/pi_network.pth (torch, 507007 bytes, 10 tensors)

fc1.weight f4 [400, 8]
-0.019349325 0.005504147 0.05665045 -0.05487732 -0.055706136 -0.04908574 -0.004547366 -0.065625414
0.0016474352 -0.042521086 0.046372656 0.03962195 -0.06862762 -0.018238751 0.045521967 0.08199867
-0.075938985 -0.010946567 0.039282713 -0.025974363 -0.08936246 0.020429352 0.008511708 -0.09238609
-0.03310828 2.8635892e-05 0.0043702913 -0.011310682 -0.015211931 0.06878166 0.099083945 0.01943892
0.01504524 -0.023230359 0.057317372 0.005128273 0.025401926 0.024949761 0.06751697 0.02235199
-0.005099993 0.013639527 0.019355204 0.036032237 -0.00629828 -0.051415384 -0.08537744 0.029419426
-0.007758048 -0.043093186 0.005718001 -0.03733953 -0.066747285 -0.1616208 -0.121367276 0.054472554
-0.008126074 0.041063856 0.020224288 -0.0617704 -0.116934896 -0.045908943 -0.027472299 0.039910153
-0.026363742 0.0041600633 0.013563643 0.05051003 -0.041529603 0.00033038747 -0.047635343 0.006435588
0.013817921 0.016793877 0.04760377 -0.028106363 0.021808472 0.038749542 0.072162494 -0.03368641
0.003948621 0.037335146 -0.017524172 0.015206185 0.0834818 0.045208585 0.025936373 0.0007198383
-0.0026722192 0.009417025 -0.024026921 0.019578343 -0.022628179 -0.029815264 -0.077922285 0.04259921
-0.04614511 0.0089498 0.04934432 -0.00694017 0.025234716 -0.15358168 -0.002423558 -0.088172905
0.032258626 0.02672957 0.033186223 -0.091072224 -0.07930911 -0.0407161 0.004631494 0.038815115
-0.0035335124 0.029356446 -0.019787785 -0.048133217 0.03167111 -0.019243794 -0.00529867 0.060331218
0.009564772 0.02319659 0.044399794 0.00017328306 -0.09984256 0.042766854 0.08789436 -0.059597485
0.0053098476 0.002850569 -0.023137873 0.068437666 0.1213524 0.037525773 -0.05467007 -0.06631167
-0.034439266 0.042286135 0.010544758 0.003733945 -0.08327441 -0.1198009 -0.08504075 0.09859918
0.03552458 0.013349885 0.067094795 0.07621705 -0.08854067 -0.005323415 -0.15095335 0.037806205
0.012604429 -0.058759123 -0.02030738 -0.04740955 0.020423332 -0.015818756 0.04643962 -0.07303201
0.0400621 -0.0043844143 -0.018324742 0.010700761 -0.09521149 -0.05975839 -0.07915746 0.020946072
-0.018759051 -0.011005925 -0.03798821 0.10171464 0.07864514 0.02560496 -0.09008115 0.017031131
-0.040276498 -0.0063333353 -0.015705988 -0.0088128215 0.0108394995 -0.0033840823 0.019587262 0.032798994
0.028046977 0.02995037 0.016204003 0.05528544 -0.006131594 -0.009086182 0.028363664 0.065253586
0.040626075 0.023520825 -0.05502428 -0.050135702 0.03404468 -0.0014170342 0.107277215 -0.07815734
-0.022884853 0.017145537 -0.010882777 -0.007807571 -0.038443834 -0.07735715 -0.047367003 0.089433275
-0.0069803973 0.025735687 0.04429088 -0.066352434 0.07447337 0.059619024 -0.13952024 -0.031754997
0.01003368 0.039279263 0.04237043 0.007312236 -0.042050034 -0.10359475 -0.07079304 -0.105956316
0.008477088 0.016834643 0.0459376 -0.040254664 -0.069885224 0.035984714 0.04746314 0.036108233
-0.011807704 0.010126009 0.08900566 -0.020327037 -0.0039213225 -0.03145255 -0.021762 0.08950876
-0.030725852 0.030920144 0.037535124 -0.056090415 -0.096744195 -0.06303804 -0.019905377 0.025946856
0.031945627 0.0009903435 -0.038292162 -0.05463201 -0.040531598 -0.08765553 -0.025670245 0.04912915
00000000: 7a82 9ebc 225c b43b 4d0a 683d 0ac7 60bd
00000010: 1e2c 64bd 210e 49bd 1202 95bb 9e66 86bd
00000020: c1ee d73a 972a 2ebd 41f1 3d3d a04a 223d
00000030: a38c 8cbd 6f69 95bc 3e75 3a3d ebee a73d
00000040: e685 9bbd 3b59 33bc e9e6 203d 30c8 d4bc
00000050: aa03 b7bd 755b a73c b174 0b3c eb34 bdbd
00000060: 8c9c 07bd 1c37 f037 a934 8f3b 7050 39bc
00000070: 773b 79bc 66dd 8c3d 86ec ca3d 5f3e 9f3c
00000080: 4f80 763c 984d bebc 9fc5 6a3d 120b a83b
00000090: b317 d03c 7163 cc3c 5646 8a3d 851b b73c
000000a0: d81d a7bb 5378 5f3c ce8e 9e3c 8a96 133d
000000b0: cd61 cebb f098 52bd 5eda aebd 0201 f13c
000000c0: 3937 febb 7b82 30bd 125e bb3b 56f1 18bd
000000d0: cdb2 88bd ec7f 25be 688f f8bd 9d1e 5f3d
000000e0: 3a23 05bc 9332 283d 68ad a53c f502 7dbd
000000f0: 907b efbd 040b 3cbd 960d e1bc d478 233d
00000100: c6f8 d7bc 2451 883b 0b3a 5e3c 9be3 4e3d
00000110: f21a 2abd db37 ad39 471d 43bd a0e1 d23b
00000120: 9064 623c 5093 893c 2cfc 423d 513f e6bc
00000130: aea7 b23c d7b7 1e3d eec9 933d c3fa 09bd
00000140: 6f63 813b bdec 183d da8e 8fbc 5d23 793c
00000150: 82f8 aa3d a32c 393d 8478 d43c 88b3 3c3a
00000160: 6620 2fbb de49 1a3c 1bd4 c4bc c362 a03c
00000170: bb5e b9bc 243f f4bc b895 9fbd 827c 2e3d
00000180: a802 3dbd 2fa2 123c 451d 4a3d 5e6a e3bb
00000190: 09b9 ce3c 8444 1dbe 8ed4 1ebb ff93 b4bd
000001a0: 9f21 043d f9f7 da3c 47ee 073d 1384 babd
000001b0: d16c a2bd edc5 26bd cac3 973b 99fc 1e3d
000001c0: 8092 67bb ee7c f03c fe19 a2bc 5627 45bd
000001d0: 91b9 013d 29a5 9dbc 77a0 adbb de1d 773d
000001e0: 90b5 1c3c c606 be3c 8fdc 353d 51b3 3539
000001f0: 427a ccbd 4c2c 2f3d f501 b43d 7e1c 74bd
00000200: 3bfe ad3b 9dd0 3a3b a38b bdbc 0c29 8c3d
00000210: 9b87 f83d a0b4 193d b9ed 5fbd 6ace 87bd
00000220: 3010 0dbd 3a34 2d3d ecc3 2c3c 34b5 743b
00000230: c68b aabd 2d5a f5bd d829 aebd 5eee c93d
00000240: 3982 113d 7ab9 5a3c ff68 893d af17 9c3d
00000250: d054 b5bd 0b70 aebb 8493 1abe aeda 1a3d
00000260: cf82 4e3c 68ad 70bd aa5b a6bc 8430 42bd
00000270: d54e a73c 5696 81bc 7937 3e3d ce91 95bd
00000280: 2818 243d 22ab 8fbb c51d 96bc 3f52 2f3c
00000290: 3efe c2bd 37c5 74bd 4e1d a2bd 1997 ab3c
000002a0: 95ac 99bc 3252 34bc 8699 1bbd c44f d03d
000002b0: b410 a13d 7ec1 d13c 777c b8bd df84 8b3c
000002c0: f8f8 24bd de87 cfbb d8a9 80bc a763 10bc
000002d0: 2898 313c 7bc7 5dbb 7775 a03c 3d58 063d
000002e0: c6c2 e53c 7a5a f53c 42be 843c fc72 623d
000002f0: 8aeb c8bb 36de 14bc ea5a e83c aca3 853d
00000300: 8767 263d bfae c03c 2461 61bd 185b 4dbd
00000310: 6f72 0b3d c7bb b9ba 28b4 db3d f510 a0bd
00000320: 0479 bbbc cc74 8c3c ad4d 32bc a7d6 ffbb
00000330: 4877 1dbd 6d6d 9ebd e703 42bd cb28 b73d
00000340: d1bb e4bb a6d3 d23c 5b6a 353d c9e3 87bd
00000350: 7f85 983d 1433 743d 65de 0ebe 8711 02bd
00000360: 4e64 243c 4be3 203d 9e8c 2d3d 7b9b ef3b
00000370: a83c 2cbd 7c29 d4bd f1fb 90bd a0ff d8bd
00000380: 7ce3 0a3c cee8 893c 1129 3c3d 13e2 24bd
00000390: fc1f 8fbd b564 133d b668 423d 3ae6 133d
000003a0: 1a75 41bc 8fe7 253c 9948 b63d e384 a6bc
000003b0: 707e 80bb 64d4 00bd 3946 b2bc 5e50 b73d
000003c0: c8b4 fbbc 3e4c fd3c 6ebe 193d 10bf 65bd
000003d0: d221 c6bd 171a 81bd 9a10 a3bc 808e d43c
000003e0: 6bd9 023d 6ace 813a 3ed8 1cbd d1c5 5fbd
000003f0: 7604 26bd be84 b3bd 684a d2bc a63b 493d

fc1.bias f4 [400]
0.015453663 0.04522296 0.041877106 -0.010800719 -0.01644565 0.041505482 0.004136839 -0.0127918385
0.021335796 -0.008988366 -0.03626376 0.052850608 -0.015233863 -0.04287839 0.055448137 -0.015932215
0.033862624 0.0072454936 -0.037016198 6.5765216e-06 0.016211914 0.037569985 -0.020057537 0.030991578
-0.0057417667 0.05364805 0.012730493 0.035884436 -0.0067555835 0.012488523 0.0072677094 0.053589992
0.019819409 0.052784283 -0.0057929894 0.022002751 0.0021322828 -0.025592968 0.01688 0.05590987
0.014977833 -0.03690777 0.034369163 -0.013927375 0.029705325 0.05117778 0.03746274 -0.0029593569
-0.013041261 0.053885315 0.03136325 -0.016707879 0.0024922364 0.0074296133 -0.008383886 -0.06116777
0.03457424 -0.0016485667 0.0391024 -0.046458576 -0.045718867 0.0024531758 0.01726265 -0.058210537
-0.0049328855 0.023668429 -0.002717469 0.041145995 0.01306452 0.010757915 -0.003943175 0.027911805
0.02620479 0.02748435 0.029478326 -0.0015963209 0.01949014 -0.00083853805 0.042063866 -0.008606416
-0.014209508 0.03307639 -0.03265115 0.044411976 -0.01503681 0.026379086 0.0009537727 0.032054894
0.011878189 0.04460163 -0.02886652 0.008213678 -0.0014409613 0.01732632 0.040256575 -0.009893502
-0.020786732 0.025351038 0.0053305565 -0.011244266 0.037451297 0.015472835 0.003257473 -0.0042248718
0.035374217 0.047380798 -0.017561011 0.06013 0.0009046192 0.008193434 0.013144508 0.031326827
0.007869936 0.018263891 0.027953126 -0.023641985 0.04282143 0.037700634 0.041644033 0.06886707
-0.0078079347 0.013536725 0.03929351 -0.03863842 0.00010012422 -0.04387607 0.021390852 0.028511275
0.011480311 0.0274105 0.037909355 0.051840764 -0.017602343 -0.012647668 0.0020501576 -0.033278
0.010131408 0.03641111 0.007825293 0.044389956 0.032830913 -0.005521666 0.017623598 0.036276847
-0.033538774 -0.03199336 -0.009996934 -0.0021687262 -0.007363103 0.005221252 0.031173378 -0.0029469691
0.009322672 0.028300652 0.011641236 0.0023321698 -0.0047976444 -0.0047749295 0.029351844 0.023399163
0.046833538 -0.031709515 0.01037699 0.015658064 -0.020347534 0.045382846 -0.00028013333 -0.04998941
0.06188407 0.024007099 0.0012946388 0.05780875 0.006706474 -0.012117345 0.03897782 0.024779774
0.03708185 -0.04015895 -0.068972595 0.017025411 0.0078442795 0.054592296 0.01050428 -0.016829822
-0.0077626747 0.053568773 0.025707033 -0.011297029 0.010579831 -0.022953633 0.010398103 0.019452399
0.00981614 -0.018601056 0.0013414252 0.026466759 0.02042781 0.05657107 -0.03419224 0.040405832
0.019044979 -0.00958519 0.021832274 0.026031515 -0.019705908 0.078421615 0.037388247 0.06552119
-0.01304164 -0.009827517 -0.025705101 0.017759053 -0.0058563254 0.0034624091 0.007971538 0.018786335
0.03252184 0.03632154 -0.035993647 0.034416184 0.015880404 -0.006924024 0.040650193 0.020873072
-0.024970796 0.0022337388 0.04332731 0.034110196 0.053558536 0.06151568 0.020003334 -0.004263538
-0.0120597305 0.05306835 -0.018562539 0.043497153 -0.010938884 -0.021703428 -0.004398808 -0.011069939
0.0032927936 0.053295687 0.010868182 0.02192792 -0.010853719 0.009064154 -0.01750195 -0.03207753
0.010078706 -0.024944343 0.007618603 -0.019721454 0.03196568 0.030059356 0.053807046 0.0057004103
00000000: 5c31 7d3c b63b 393d 5487 2b3d 80f5 30bc
00000010: 07b9 86bc a701 2a3d 528e 873b dc94 51bc
00000020: 68c8 ae3c f143 13bc 4f89 14bd e179 583d
00000030: 7497 79bc 40a1 2fbd 961d 633d 4784 82bc
00000040: 89b3 0a3d 9b6b ed3b 4c9e 17bd e4ab dc36
00000050: d9ce 843c fce2 193d b44f a4bc 0de2 fd3c
00000060: 6e25 bcbb 0fbe 5b3d 8f93 503c 8ffb 123d
00000070: f15d ddbb a99c 4c3c f725 ee3b 2e81 5b3d
00000080: 505c a23c 5534 583d 1ed3 bdbb 1d3f b43c
00000090: c5bd 0b3b 58a8 d1bc ed47 8a3c bf01 653d
000000a0: 9665 753c 9a2c 17bd aec6 0c3d a52f 64bc
000000b0: 9558 f33c cb9f 513d 8872 193d c5f1 41bb
000000c0: 03ab 55bc d9b6 5c3d c076 003d f6de 88bc
000000d0: ca54 233b 1d74 f33b 915c 09bc 0e8b 7abd
000000e0: b89d 0d3d b814 d8ba d729 203d 594b 3ebd
000000f0: b543 3bbd 76c5 203b 676a 8d3c 2c6e 6ebd
00000100: 0ba4 a1bb 4be4 c13c 9017 32bb b488 283d
00000110: 920c 563c f741 303c c035 81bb 4ca7 e43c
00000120: 6eab d63c dc26 e13c 887c f13c a43b d1ba
00000130: c9a9 9f3c 56d1 5bba 294b 2c3d ed01 0dbc
00000140: ffce 68bc 1c7b 073d 36bd 05bd 55e9 353d
00000150: f45c 76bc f418 d83c 9a06 7a3a fe4b 033d
00000160: bc9c 423c 33b0 363d 7b79 ecbc aa92 063c
00000170: a3de bcba edef 8d3c 14e4 243d 5b18 22bc
00000180: f048 aabc fbac cf3c f3ab ae3b df39 38bc
00000190: 8866 193d c681 7d3c 547b 553b cb70 8abb
000001a0: 8ee4 103d 5e12 423d 1cdc 8fbc e04a 763d
000001b0: f823 6d3a c13d 063c 105c 573c 8f50 003d
000001c0: e7f0 003c 289e 953c f4fd e43c d6ac c1bc
000001d0: 8665 2f3d fb6b 1a3d ef92 2a3d 2e0a 8d3d
000001e0: b4d9 ffbb 24c9 5d3c 3bf2 203d 5243 1ebd
000001f0: c8f9 d138 65b7 33bd de3b af3c 7a90 e93c
00000200: ea17 3c3c fc8b e03c d746 1b3d fb56 543d
00000210: ca32 90bc 2a38 4fbc f05b 063b 834e 08bd
00000220: 35fe 253c d123 153d a835 003c 3ed2 353d
00000230: b579 063d 17ef b4bb 5d5f 903c 0897 143d
00000240: f45f 09bd 780b 03bd 2eca 23bc 3021 0ebb
00000250: 2f46 f1bb 0917 ab3b 505f ff3c f021 41bb
00000260: 1fbe 183c c5d6 e73c e2ba 3e3c 51d7 183b
00000270: 8f35 9dbb 0377 9cbb 4773 f03c 9aaf bf3c
00000280: 86d4 3f3d d6e1 01bd 4004 2a3c 5745 803c
00000290: dfaf a6bc 5de3 393d dcde 92b9 b2c1 4cbd
000002a0: 277a 7d3d 89aa c43c dfb0 a93a dec8 6c3d
000002b0: fbc1 db3b d487 46bc 35a7 1f3d f4fe ca3c
000002c0: 23e3 173d b67d 24bd 8141 8dbd e078 8b3c
000002d0: 4b85 003c 2c9c 5f3d 251a 2c3c b2de 89bc
000002e0: 095e febb ee6a 5b3d 8e97 d23c 2d17 39bc
000002f0: 0757 2d3c 4209 bcbc ce5c 2a3c a35a 9f3c
00000300: e0d3 203c 3e61 98bc c3d2 af3a d1d0 d83c
00000310: 3958 a73c 11b7 673d 2a0d 0cbd 9680 253d
00000320: 3704 9c3c 330b 1dbc 99d9 b23c 0b40 d53c
00000330: 496e a1bc 839b a03d 6b24 193d f92f 863d
00000340: 9aac 55bc 9803 21bc 8193 d2bc 6f7b 913c
00000350: 6be6 bfbb 96e9 623b 0e9b 023c cde5 993c
00000360: 9f35 053d e5c5 143d 136e 13bd fcf7 0c3d
00000370: 9f17 823c ece2 e2bb d180 263d 01fe aa3c
00000380: 8e8f ccbc eb63 123b fa77 313d 22b7 0b3d
00000390: 3260 5b3d def7 7b3d 08de a33c 26b5 8bbb
000003a0: 2d96 45bc 335e 593d 7710 98bc 122a 323d
000003b0: 0139 33bc 63cb b1bc e023 90bb b05e 35bc
000003c0: e9cb 573b 944c 5a3d 7610 323c 2ea2 b33c
000003d0: ccd3 31bc d181 143c 4060 8fbc ba63 03bd
000003e0: 2821 253c 1458 ccbc 79a5 f93b e38e a1bc
000003f0: 72ee 023d 0a3f f63c c764 5c3d 82ca ba3b

bn1.weight f4 [400]
1.0679994 0.99912363 0.9823097 1.1207801 1.1896403 0.7062954 1.1960044 0.9728069
0.9992522 1.0111635 1.0408119 0.746275 1.016724 1.0137181 0.67005825 1.0530499
0.93607265 0.9606412 1.0764651 1.183852 1.046506 1.0080663 1.1826296 0.9337389
1.0790094 0.75453997 0.98789024 0.95440036 1.0178555 0.9628569 0.9764905 0.9466597
1.2261031 0.80742985 1.0213989 0.9228028 1.1263186 1.069631 1.0103621 0.8008632
1.096121 1.1977537 1.018342 1.0086222 0.96437746 0.7406483 0.9235503 0.84641373
1.0279095 0.6961902 0.87740016 1.1592187 1.1181202 0.9717748 0.9656022 1.2827322
0.86247885 1.1135556 0.90413547 1.25549 1.2163737 1.0188593 0.7647953 1.2308711
1.0496608 0.8467233 0.9627497 1.0088326 0.9784263 1.029347 0.98334354 0.9976043
0.9037458 0.9614766 0.9520263 1.0107172 1.0974349 0.9565954 0.96798015 1.3381184
0.93085897 1.0064614 1.2499555 0.88707256 1.0835752 0.9436807 1.0807824 1.0147843
0.8442144 0.8964014 1.0496252 1.0935829 1.0937724 1.0755167 0.9036582 1.2590655
1.1549417 1.0343425 0.91749996 1.108118 1.0895282 0.9640495 1.215609 1.05395
0.8820826 1.0382808 1.2817922 0.8838675 0.9715576 0.79818815 0.9569708 0.9360423
1.0255154 0.91499716 1.0043383 1.0892392 0.9345259 0.9703363 0.90594304 0.6682226
1.1226525 0.9167153 0.9910227 1.0869577 1.0295398 1.2454548 1.0029554 0.8557175
1.0629003 0.9414318 0.9246752 1.0073959 1.0452795 1.1026465 1.0851845 1.0303282
1.1304297 1.033475 0.8553103 1.0977333 1.0540572 1.3332064 0.9502092 0.9675572
1.0925012 1.1327028 1.0590614 1.097157 1.0687782 0.9691113 0.9765952 0.9812659
1.0688951 0.91529244 1.1062467 0.8723208 0.94713175 1.1910905 0.9482927 0.95917124
1.0115447 1.0249336 1.1809391 1.0974644 1.0838989 0.8259402 0.97078735 1.2029707
0.90360504 0.96308976 1.1568955 0.78488916 0.9386575 1.0219436 0.88298106 0.8131995
1.0337372 1.1899284 1.2719309 0.95733345 1.000349 0.8871936 0.9853422 0.99665296
1.0030107 0.78841096 0.78927255 0.8320245 1.1509928 1.1028413 0.9503208 0.8084132
1.0541747 1.0743877 1.119003 0.92116153 0.8205422 0.8553656 1.1674696 0.97340435
1.1421821 0.96723616 1.2248405 1.1259965 1.1335584 0.76730645 0.8329968 0.8034098
1.0156703 1.0953857 0.9981681 0.91210425 0.7776498 0.94426304 1.0238098 1.0308973
1.0008401 0.86296326 1.1170424 1.0598536 0.8822492 1.0090888 0.97017473 1.0298942
1.0974171 1.2475952 0.9541455 0.75600743 0.8994429 0.78397846 0.80573356 0.8540761
1.1994065 0.8968679 1.1022204 0.8700791 0.88949764 1.3591137 1.0051376 1.0014675
1.044406 0.74667895 0.9464673 0.9693803 0.97168696 1.0776973 1.0598094 1.2106434
1.0992762 1.0181456 1.1510799 0.9831621 0.787058 0.94014955 0.67708266 0.8824006
00000000: 34b4 883f 91c6 7f3f a678 7b3f b975 8f3f
00000010: 2246 983f c6cf 343f ac16 993f df09 793f
00000020: fece 7f3f ce6d 813f 5339 853f e10b 3f3f
00000030: 0324 823f 84c1 813f f088 2b3f 57ca 863f
00000040: 75a2 6f3f 95ec 753f 9cc9 893f 7688 973f
00000050: e9f3 853f 5108 813f 6860 973f 8309 6f3f
00000060: fb1c 8a3f 8829 413f 60e6 7c3f 9553 743f
00000070: 1749 823f ca7d 763f 48fb 793f 4a58 723f
00000080: f2f0 9c3f b9b3 4e3f 33bd 823f ce3c 6c3f
00000090: 352b 903f abe9 883f 8c53 813f 5f05 4d3f
000000a0: b14d 8c3f fe4f 993f 0859 823f 881a 813f
000000b0: 71e1 763f 219b 3d3f cb6d 6c3f 92ae 583f
000000c0: 8a92 833f 8539 323f 4c9d 603f 4761 943f
000000d0: 901e 8f3f 3cc6 783f b531 773f 9230 a43f
000000e0: 6acb 5c3f fd88 8e3f 6c75 673f e5b3 a03f
000000f0: 22b2 9b3f fb69 823f a0c9 433f 2f8d 9d3f
00000100: 495b 863f dcc2 583f c476 763f 6d21 813f
00000110: 257a 7a3f a4c1 833f 67bc 7b3f ff62 7f3f
00000120: e25b 673f 5523 763f ffb7 733f 2e5f 813f
00000130: bf78 8c3f 70e3 743f 8ccd 773f 7747 ab3f
00000140: c64c 6e3f bad3 803f 8bfe 9f3f 3017 633f
00000150: 98b2 8a3f 0f95 713f 1457 8a3f 74e4 813f
00000160: 6f1e 583f 907a 653f 1e5a 863f 86fa 8b3f
00000170: bc00 8c3f 88aa 893f 2556 673f 0f29 a13f
00000180: 21d5 933f 5665 843f 47e1 6a3f d0d6 8d3f
00000190: a975 8b3f f3cb 763f 1399 9b3f d5e7 863f
000001a0: 2ad0 613f 63e6 843f c411 a43f 2445 623f
000001b0: 00b8 783f 0f56 4c3f 0afc 743f 78a0 6f3f
000001c0: 1744 833f 413d 6a3f 288e 803f 316c 8b3f
000001d0: 173d 6f3f f667 783f e2eb 673f a310 2b3f
000001e0: 14b3 8f3f dbad 6a3f aab3 7d3f 6e21 8b3f
000001f0: f6c7 833f 106b 9f3f d860 803f 4d10 5b3f
00000200: 1e0d 883f ad01 713f 84b7 6c3f 59f2 803f
00000210: b8cb 853f 8523 8d3f 53e7 8a3f cbe1 833f
00000220: ecb1 903f e948 843f 9ef5 5a3f 8682 8c3f
00000230: 59eb 863f 82a6 aa3f e940 733f d4b1 773f
00000240: 14d7 8b3f 68fc 903f 538f 873f a46f 8c3f
00000250: b9cd 883f ae17 783f 2502 7a3f 3e34 7b3f
00000260: 8ed1 883f 9b50 6a3f 7e99 8d3f 6a50 5f3f
00000270: 3a77 723f a775 983f 4fc3 723f 3f8c 753f
00000280: 4c7a 813f 0631 833f 0329 973f b779 8c3f
00000290: 33bd 8a3f d170 533f 8585 783f f2fa 993f
000002a0: a952 673f 0d8d 763f 2715 943f 7fee 483f
000002b0: dc4b 703f 0ccf 823f 0c0b 623f d82d 503f
000002c0: 8051 843f 934f 983f a2ce a23f ce13 753f
000002d0: 700b 803f 1f1f 633f 633f 7c3f a624 7f3f
000002e0: a862 803f 4dd5 493f c40d 4a3f 8fff 543f
000002f0: bb53 933f e729 8d3f 3948 733f 2bf4 4e3f
00000300: 32ef 863f 8985 893f 7e3b 8f3f 3ed1 6b3f
00000310: 0e0f 523f 3df9 5a3f a56f 953f 0731 793f
00000320: 0633 923f ca9c 773f 93c7 9c3f a720 903f
00000330: 7118 913f 326e 443f 473f 553f 44ac 4d3f
00000340: 7c01 823f 9935 8c3f f287 7f3f aa7f 693f
00000350: 0f14 473f 39bb 713f 330c 833f 71f4 833f
00000360: 871b 803f 29eb 5c3f 3ffb 8e3f 48a9 873f
00000370: 15db 613f d229 813f 5f5d 783f 93d3 833f
00000380: 2a78 8c3f 33b1 9f3f e142 743f b489 413f
00000390: e441 663f d0b2 483f 8e44 4e3f bba4 5a3f
000003a0: 2786 993f 2299 653f 8f15 8d3f 81bd 5e3f
000003b0: 1eb6 633f 70f7 ad3f 59a8 803f 1630 803f
000003c0: 19af 853f 5a26 3f3f ae4b 723f 4f29 783f
000003d0: 7ac0 783f fcf1 893f d6a7 873f 5df6 9a3f
000003e0: 15b5 8c3f 9852 823f 9656 933f 83b0 7b3f
000003f0: a27c 493f a4ad 703f 4a55 2d3f 01e5 613f

bn1.bias f4 [400]
-0.0063074143 -0.060050633 -0.08803048 0.02749761 -0.0454338 -0.2984978 0.032892972 -0.04533898
-0.04741039 -0.03112223 -0.08124346 -0.26179603 -0.06980566 -0.041074418 -0.32363206 -0.051823214
-0.1255681 -0.05457323 -0.034293585 -0.040462412 -0.003016965 -0.0749131 -0.06617763 -0.06356046
-0.059204556 -0.22327521 -0.05813743 -0.06394634 -0.032332182 -0.034669895 -0.03321362 -0.024768075
0.034554772 -0.21290143 -0.0031374507 -0.092302375 0.013899424 -0.0031186542 -0.070975155 -0.17365749
-0.054161556 -0.043493833 -0.03645059 -0.046886917 -0.02849308 -0.22836062 -0.0790195 -0.1845492
-0.0739809 -0.28869334 -0.09282047 -0.016023785 0.036300186 -0.03985631 -0.039420415 -0.04607599
-0.13408835 -0.038710903 -0.09218738 -0.08211939 -0.08221298 -0.07014117 -0.24601094 -0.042880353
-0.04491252 -0.18744893 -0.06713461 -0.054205533 -0.025018556 -0.06637372 -0.08145119 -0.0025514443
-0.088781625 -0.027048435 -0.05082674 -0.008634525 -0.042482834 -0.08683392 -0.05306993 -0.010834976
-0.10606354 -0.06577336 -0.06347548 -0.09812136 -0.009448785 -0.06599782 -0.034338128 -0.0151852025
-0.15348539 -0.1066505 -0.027401287 -0.004830131 -0.01205892 0.0008992952 -0.09268762 -0.019572878
-0.04747996 -0.080794156 -0.11201401 -0.041218705 -0.08301197 -0.044569205 -0.05312994 -0.0054107695
-0.1268145 -0.048015367 -0.06497258 -0.09614202 -0.043436017 -0.21238965 -0.09528337 -0.09339513
-0.017351164 -0.07561082 -0.066258565 -0.050842497 -0.05384196 -0.025370648 -0.10876732 -0.30055392
-0.037939064 -0.06709995 -0.03830589 -0.032493416 0.012528869 -0.035412256 -0.048935756 -0.16922735
-0.0120957 -0.06763317 -0.10755498 -0.027020445 -0.044863395 -0.0132693825 -0.035535872 -0.0887055
-0.03425851 -0.015990503 -0.20575956 -0.021238951 -0.061253645 -0.02217644 -0.072712936 -0.043302227
-0.01027728 -0.044211578 0.003217471 -0.012955732 -0.03385522 -0.0776553 -0.08648715 -0.036869567
-0.090874985 -0.10786089 -0.09145848 -0.1406224 -0.06348385 -0.038699824 -0.044911925 -0.06282144
-0.0074804234 -0.072554834 -0.014949235 -0.008528963 -0.002686816 -0.16587357 -0.027864134 -0.042913698
-0.06819087 -0.061273232 -0.045079764 -0.21301425 -0.14369701 -0.015110213 -0.13381022 -0.18736227
-0.08864939 -0.028190028 -0.05672481 -0.07237423 -0.06601667 -0.08598441 -0.07008251 -0.02648234
-0.0053983894 -0.20867445 -0.20654312 -0.1671071 0.001862411 0.01191175 -0.04259192 -0.19943078
-0.04181813 -0.040871724 -0.001353326 -0.10352986 -0.19941226 -0.17390582 -0.023685874 -0.07391358
0.04405127 -0.081335895 -0.03876213 -0.010200208 -0.041167364 -0.2268988 -0.14735301 -0.21815003
-0.039344672 0.010794155 -0.042259984 -0.11040807 -0.1895193 -0.09247878 -0.0017689919 -0.07833624
-0.05565691 -0.14398028 -0.055040993 -0.04027605 -0.15287769 -0.026985122 -0.04228053 -0.010953438
-0.030166429 -0.043398708 -0.03914591 -0.24994698 -0.07917491 -0.2421384 -0.1951078 -0.14090239
-0.036063716 -0.0921396 -0.04554683 -0.11188545 -0.0939795 -0.05935649 -0.050381523 -0.035838306
-0.06950546 -0.24912696 -0.07186663 -0.04304788 -0.041441437 -0.077537835 -0.029872837 -0.015721714
-0.10881419 -0.09597783 -0.019815257 -0.010743779 -0.22918113 -0.056561846 -0.31504202 -0.12568171
00000000: 6dae cebb a7f7 75bd 5349 b4bd ab42 e13c
00000010: cb18 3abd b4d4 98be c8ba 063d 5eb5 39bd
00000020: 6631 42bd 0cf4 febc f962 a6bd 210a 86be
00000030: 45f6 8ebd a63d 28bd 1ab3 a5be 9444 54bd
00000040: ed94 00be 2e88 5fbd 6e77 0cbd eabb 25bd
00000050: 46b8 45bb 0a6c 99bd 2388 87bd fd2b 82bd
00000060: 7a80 72bd 42a2 64be 8421 6ebd 4cf6 82bd
00000070: c06e 04bd 0502 0ebd 010b 08bd 6be6 cabc
00000080: 4e89 0d3d d502 5abe b09d 4dbb 0709 bdbd
00000090: 69ba 633c 5662 4cbb 6c5b 91bd 45d3 31be
000000a0: 82d8 5dbd 9726 32bd 374d 15bd 7f0c 40bd
000000b0: 526a e9bc 5ed7 69be fad4 a1bd 77fa 3cbe
000000c0: 4c83 97bd 9dcf 93be a918 bebd 5044 83bc
000000d0: 81af 143d 5f40 23bd 4d77 21bd 2dba 3cbd
000000e0: 754e 09be 538f 1ebd bdcc bcbd 362e a8bd
000000f0: 475f a8bd 2ca6 8fbd 4bea 7bbe 4fa3 2fbd
00000100: 31f6 37bd 9df2 3fbe df7d 89bd 9f06 5ebd
00000110: b7f3 ccbc f2ee 87bd e2cf a6bd 2236 27bb
00000120: 24d3 b5bd ae94 ddbc b32f 50bd d377 0dbc
00000130: 7b02 2ebd fbd5 b1bd db5f 59bd 2f85 31bc
00000140: d737 d9bd 2fb4 86bd 6fff 81bd daf3 c8bd
00000150: 14cf 1abc dd29 87bd 23a6 0cbd 5bcb 78bc
00000160: 462b 1dbe 946b dabd aa78 e0bc 1346 9ebb
00000170: c792 45bc aebe 6b3a 02d3 bdbd 4d57 a0bc
00000180: 597a 42bd 6877 a5bd 9a67 e5bd f2d4 28bd
00000190: 2e02 aabd 338e 36bd c89e 59bd d34c b1bb
000001a0: a9db 01be c3ab 44bd 5810 85bd 1be6 c4bd
000001b0: f7e9 31bd ac7c 59be ed23 c3bd f245 bfbd
000001c0: 0724 8ebc d8d9 9abd 92b2 87bd 3940 50bd
000001d0: 6389 5cbd 1bd6 cfbc 67c1 debd 34e2 99be
000001e0: fe65 1bbd b36b 89bd a3e6 1cbd d117 05bd
000001f0: e345 4d3c 710c 11bd dc70 48bd ef49 2dbe
00000200: 0b2d 46bc 4283 8abd c945 dcbd fb59 ddbc
00000210: aec2 37bd d367 59bc 108e 11bd 3bab b5bd
00000220: a752 0cbd 84fe 82bc a2b2 52be 4ffd adbc
00000230: 1ae5 7abd 5eab b5bc 85ea 94bd ad5d 31bd
00000240: 0962 28bc 3317 35bd 35dc 523b 4744 54bc
00000250: c5ab 0abd be09 9fbd 2d20 b1bd 8b04 17bd
00000260: aa1c babd 2ce6 dcbd 954e bbbd 52ff 0fbe
00000270: d203 82bd b583 1ebd 91f5 37bd 87a8 80bd
00000280: 571e f5bb a197 94bd a3ed 74bc 10bd 0bbc
00000290: 4b15 30bb c3da 29be 5343 e4bc 46c6 2fbd
000002a0: a8a7 8bbd a4f9 7abd 8fa5 38bd 6820 5abe
000002b0: 4f25 13be d490 77bc 8c05 09be e5db 3fbe
000002c0: d08d b5bd c6ee e6bc 4658 68bd f138 94bd
000002d0: bf33 87bd 9818 b0bd 6b87 8fbd 7ef1 d8bc
000002e0: f9e4 b0bb c1ae 55be 0a80 53be 201e 2bbe
000002f0: 251c f43a 8029 433c dd74 2ebd 9537 4cbe
00000300: 7d49 2bbd 1c69 27bd 1662 b1ba 7707 d4bd
00000310: ba32 4cbe 5e14 32be e108 c2bc 0160 97bd
00000320: 1b6f 343d 6f93 a6bd 0ac5 1ebd c61e 27bc
00000330: 1c9f 28bd 2958 68be b5e3 16be b962 5fbe
00000340: e127 21bd f8d9 303c ce18 2dbd a01d e2bd
00000350: 5911 42be 8465 bdbd 85dd e7ba c06e a0bd
00000360: 80f8 63bd 916f 13be aa72 61bd 80f8 24bd
00000370: f88b 1cbe e70f ddbc 592e 2dbd 0c76 33bc
00000380: 961f f7bc d8c2 31bd 7657 20bd 1af2 7fbe
00000390: 7526 a2bd 21f3 77be 57ca 47be b748 10be
000003a0: 8cb7 13bd b0b3 bcbd 508f 3abd 3324 e5bd
000003b0: 5378 c0bd ca1f 73bd db5c 4ebd 30cb 12bd
000003c0: e158 8ebd 231b 7fbe d02e 93bd f952 30bd
000003d0: 7fbe 29bd 28cc 9ebd e1b7 f4bc d3ca 80bc
000003e0: f9d9 debd 0690 c4bd 9b53 a2bc ad06 30bc
000003f0: 75ae 6abe 65ad 67bd 304d a1be b5b2 00be

fc2.weight f4 [300, 400]
-0.1132138 -0.031480063 0.06342223 0.097368434 0.091250226 -0.025135834 0.1401925 0.023528986
-0.03205574 -0.012512116 -0.020592548 -0.06424626 -0.06771473 0.01681882 0.0062062754 0.039675526
-0.07166159 0.033728205 -0.04226873 0.001332434 -0.08365762 -0.0070279306 -0.15122695 0.021455415
-0.11901906 0.042521603 -0.113879845 0.011511554 -0.012356154 -0.061278295 -0.020595314 -0.02305437
0.17033793 -0.032837164 -0.039729945 0.009058872 -0.15150248 0.06867274 0.07380945 -0.025505964
0.008836354 0.19780484 -0.026060307 -0.041790854 0.030030094 0.056007575 0.004756622 0.04018908
0.037038382 -0.06606678 -0.036329616 -0.032283526 0.12303762 -0.00695261 0.008917254 0.20251592
0.03505709 -0.03660581 -0.031463306 -0.2986225 -0.18349972 0.04364841 -0.037279855 -0.2474159
-0.09897933 0.0010361293 0.04630501 -0.0033738147 0.015819155 0.0017157091 -0.004697972 -0.01973914
-0.042126212 0.022917692 -0.013540215 -0.026258538 0.06759024 0.03985168 0.02041633 -0.21533935
0.037211202 0.02240196 -0.066097304 0.053044833 -0.098801345 0.0322631 0.03241157 -0.07717532
-0.02985258 -0.021173805 -0.03641957 0.060297035 0.076871604 -0.06481874 0.06445401 -0.18046525
-0.24823211 0.021625265 0.016926706 0.047414374 0.14858563 0.0007629916 -0.10421371 -0.08119182
-0.027337072 -0.041923217 -0.1124057 -0.06521753 0.027256722 0.030269766 0.061391387 -0.015492966
-0.077448934 -0.05012427 0.021978807 0.02391787 -0.04642758 0.032889683 0.003365531 -0.025522538
-0.05354513 -0.025362087 -0.080386475 -0.07320843 -0.012902608 -0.19416429 0.020007752 -0.03718596
-0.09913896 0.04870997 0.013898085 -0.025617428 -0.032906324 0.034054726 0.10513212 -0.06767243
-0.09986868 -0.027525984 -0.01254342 -0.15251398 0.09622151 0.11357568 0.04530666 0.06534512
-0.091157444 -0.13703698 -0.07348134 0.087803155 0.09152442 -0.015462078 -0.029720746 0.06189747
0.111316696 -0.024503553 0.097331524 0.04751425 0.056566697 -0.15132232 0.035431355 -0.04897146
0.011868492 -0.04139658 -0.103708014 0.05181886 0.021744542 -0.008044533 0.04916827 0.14091036
0.026014283 -0.050479777 -0.13545857 -0.035110176 0.10845413 -0.040583856 -0.019655123 -0.0016215363
0.077980936 -0.13522671 -0.18646687 -0.08604377 -0.03877318 -0.0053856974 0.11562161 -0.018140825
-0.039932318 0.056060497 0.041628398 -0.03485279 0.098161384 0.112362385 -0.026339103 -0.021541832
0.0726973 -0.0036676046 0.17985943 0.013218527 -0.04245635 0.044543378 0.09981017 -0.026679832
0.038445584 -0.03846761 -0.10617447 -0.17604026 -0.048703194 0.022827955 -0.04307137 -0.01829883
-0.07265034 0.053257328 -0.040260136 -0.011735939 -0.004225348 0.038331598 0.015854992 0.048694964
0.024513297 0.023570823 -0.13866688 0.0255922 0.053274386 -0.031062981 0.0031083864 -0.04717326
0.064847946 -0.3363316 -0.038449157 -0.034241997 0.014245537 0.0150818005 0.019526035 -0.04516439
-0.034063615 -0.03361675 0.06882876 0.0088953795 0.0069804117 0.25637895 0.058357716 0.029446615
-0.06337298 0.016211508 0.03284164 0.06950014 0.008358685 -0.042064767 -0.071388416 0.0944095
0.15095478 -0.036000554 0.10849233 0.05434655 -0.034430988 0.014319122 -0.03593754 0.0075545483
00000000: a3dc e7bd 3df1 00bd 84e3 813d 1a69 c73d
00000010: 66e1 ba3d aae9 cdbc 9f8e 0f3e dcbf c03c
00000020: e14c 03bd 9eff 4cbc b4b1 a8bc 8b93 83bd
00000030: 05ae 8abd 9fc7 893c 035e cb3b ce82 223d
00000040: 50c3 92bd 9626 0a3d fa21 2dbd 11a5 ae3a
00000050: b054 abbd 8e4a e6bb 3ddb 1abe 44c3 af3c
00000060: 44c0 f3bd 222b 2e3d d639 e9bd f59a 3c3c
00000070: 7771 4abc f3fe 7abd 81b7 a8bc 85dc bcbc
00000080: 116d 2e3e 4380 06bd debb 22bd aa6b 143c
00000090: 7723 1bbe 4ba4 8c3d 6929 973d e2f1 d0bc
000000a0: 5bc6 103c 5a8d 4a3e 6d7c d5bc e32c 2bbd
000000b0: ac01 f63c 3368 653d 70dd 9b3b 4e9d 243d
000000c0: 8fb5 173d 054e 87bd 5dce 14bd bb3b 04bd
000000d0: 26fb fb3d b8d2 e3bb ad19 123c 5560 4f3e
000000e0: 0698 0f3d f9ef 15bd abdf 00bd 0ce5 98be
000000f0: 5ae7 3bbe adc8 323d c3b2 18bd 985a 7dbe
00000100: adb5 cabd bbce 873a 52aa 3d3d 381b 5dbb
00000110: 2c97 813c a5e1 e03a 72f1 99bb fab3 a1bc
00000120: 898c 2cbd e2bd bb3c c7d7 5dbc 251c d7bc
00000130: c06c 8a3d 843b 233d 2640 a73c eb81 5cbe
00000140: c66a 183d 5184 b73c 065e 87bd 8a45 593d
00000150: 5c58 cabd 5026 043d ffc1 043d 180e 9ebd
00000160: 668d f4bc b074 adbc b02c 15bd 06fa 763d
00000170: dc6e 9d3d b0bf 84bd 7700 843d e2cb 38be
00000180: 8f30 7ebe 7827 b13c e0a9 8a3c 9335 423d
00000190: d526 183e 8003 483a ff6d d5bd e647 a6bd
000001a0: fff1 dfbc aeb7 2bbd f634 e6bd c590 85bd
000001b0: 7d49 df3c 4df8 f73c 8975 7b3d 36d6 7dbc
000001c0: 8c9d 9ebd 1b4f 4dbd e60c b43c 69ef c33c
000001d0: d92a 3ebd 55b7 063d 3e90 5c3b a414 d1bc
000001e0: 2352 5bbd 27c4 cfbc aaa1 a4bd 4dee 95bd
000001f0: 7665 53bc 01d3 46be 4ce7 a33c 4e50 18bd
00000200: 5e09 cbbd 1b84 473d cbb4 633c a4db d1bc
00000210: c8c8 06bd f87c 0b3d 824f d73d d897 8abd
00000220: f387 ccbd 2c7e e1bc eb82 4dbc a02c 1cbe
00000230: c80f c53d 5e9a e83d 7a93 393d aad3 853d
00000240: c1b0 babd 6c53 0cbe 637d 96bd 24d2 b33d
00000250: 2871 bb3d a854 7dbc ec78 f3bc 3488 7d3d
00000260: 02fa e33d adbb c8bc c055 c73d 4d9e 423d
00000270: 7bb2 673d 3df4 1abe 7820 113d 4c96 48bd
00000280: 1074 423c 768f 29bd de64 d4bd 0340 543d
00000290: 9c21 b23c 38cd 03bc ab64 493d ce4a 103e
000002a0: e81b d53c e2c3 4ebd a7b5 0abe b0cf 0fbd
000002b0: 331d de3d 423b 26bd c803 a1bc bb89 d4ba
000002c0: 78b4 9f3d df78 0abe 2cf1 3ebe b737 b0bd
000002d0: a0d0 1ebd 817a b0bb 06cb ec3d 119c 94bc
000002e0: 1290 23bd b19f 653d 8a82 2a3d cdc1 0ebd
000002f0: d608 c93d 401e e63d 1ac5 d7bc 7f78 b0bc
00000300: 52e2 943d 325c 70bb 122d 383e 8592 583c
00000310: b6e6 2dbd 1e73 363d 4669 cc3d aa8f dabc
00000320: 1e79 1d3d 3690 1dbd 0072 d9bd e643 34be
00000330: 007d 47bd b101 bb3c 9b6b 30bd 6ee7 95bc
00000340: b4c9 94bd 5b24 5a3d d0e7 24bd 1948 40bc
00000350: ca74 8abb 9801 1d3d 54e2 813c 5f74 473d
00000360: 1cd0 c83c 9917 c13c b1fe 0dbe bca6 d13c
00000370: 3e36 5a3d cb77 febc 12b6 4b3b c038 41bd
00000380: 00cf 843d a833 acbe dd7c 1dbd 5641 0cbd
00000390: 1d66 693c a819 773c 10f5 9f3c 4cfe 38bd
000003a0: 4a86 0bbd b8b1 09bd 18f6 8c3d edbd 113c
000003b0: f0bb e43b 1a44 833e 8008 6f3d 073a f13c
000003c0: b1c9 81bd ffcd 843c f584 063d 1756 8e3d
000003d0: def2 083c 1b4c 2cbd 1734 92bd c559 c13d
000003e0: e493 1a3e 5175 13bd 3a31 de3d 7d9a 5e3d
000003f0: 8207 0dbd c09a 6a3c 3e33 13bd 258c f73b

fc2.bias f4 [300]
0.02257866 -0.058722645 -0.037290223 -0.017502582 -0.038649414 -0.033092044 -0.036973625 -0.033625275
-0.015065873 0.040398642 -0.02902785 0.022461386 0.05296151 0.022740686 -0.051832203 0.00897742
-0.018571077 -0.046555772 -0.034039102 -0.02664994 -0.021168288 0.026685463 0.021488661 0.0034188922
0.026981482 0.02461255 0.030154577 0.030801175 -0.037730582 -0.014635697 -0.0456711 -0.026565965
-0.03647583 -0.021664232 0.014289376 0.027090082 -0.016357714 -0.05740792 0.03527809 -0.026061144
-0.029879028 -0.017249655 0.028117284 0.018956563 -0.0054706135 -0.016675083 -0.021922782 0.037594836
-0.005186216 0.037069246 0.0023028722 0.02219764 -0.035090193 -0.040393677 -0.013093738 0.0587711
-0.0062967706 0.050210476 0.04622438 -0.02456315 -0.031903118 0.011095916 0.024295637 -0.024417283
0.03389117 0.051441647 -0.025007747 -0.031660147 0.0043283184 -0.019221377 0.017846163 0.023337038
-0.01439087 -0.044333644 0.018418122 0.034520533 -0.01422856 -0.06012837 -0.044742703 0.030002244
-0.03139751 -0.0064940727 -0.00032667886 0.0011370042 -0.04012446 -0.00012644408 0.045185793 0.036101848
0.03300762 0.0037335237 0.018123604 -0.014221263 0.0027699799 0.03305334 -0.034240413 0.02396395
-0.03910124 0.020085504 -0.036958102 0.03783811 0.031836726 -0.016995864 0.025908517 0.019546213
0.055045832 -0.042146433 0.041217357 0.0057808487 -0.03561541 0.047379438 0.009422146 0.021823278
0.00044789872 -0.012196149 -0.055424422 -0.06052768 0.0010813781 0.04811093 -0.010013124 0.037548445
0.028198548 -0.04561079 -0.028602751 -0.028669346 -0.005237244 0.032077737 0.000208376 0.025279138
-0.0021220662 -0.013253962 0.06064296 -0.0027752102 -0.04362815 -0.021071855 -0.017758626 0.011411097
-0.014725073 0.0021349504 0.054382436 0.042039637 -0.027331935 -0.0354911 -0.056600917 -0.051767625
-0.045291394 0.0080598295 -0.03687088 -0.025094848 0.02181995 0.032096047 0.044590294 0.03799078
-0.005689632 -0.016433688 0.056521285 0.04095596 0.005861722 -0.011735694 -0.03836582 -0.027001062
-0.004230768 -0.05242587 0.013983772 -0.046140347 0.0008547463 -0.06345384 -0.02686507 0.026775477
-0.02617502 -0.042703286 0.025690438 -0.0019602713 -0.016540973 -0.0043272353 0.029548578 0.03336941
-0.014399045 -0.045680687 0.031119028 -0.047670517 0.03199406 -0.013988308 -0.016821142 0.042539142
-0.010853918 -0.050522637 0.0032470243 0.0012364355 -0.047797974 -0.031378664 -0.05480779 0.03370399
-0.00036044398 -0.03422993 0.015154191 0.00022349364 0.04125858 -0.056089878 0.013281639 -0.05787804
0.051108405 -0.019277465 -0.05044996 0.011951213 -0.059913512 -0.02714547 0.02478916 0.03177183
0.06641604 0.037840497 -0.03426852 -0.04407536 -0.015033015 0.045557957 -0.018130677 -0.0062558018
0.006763837 0.0056068455 0.05035205 -0.02138134 0.027888753 0.0025385867 0.0071533406 0.04922483
0.0066118813 -0.055297058 -0.0011009241 0.019769195 -0.044785418 -0.042529568 -0.036153328 -0.023039078
0.024499478 0.011277603 -0.04086539 0.040971737 -0.019905822 0.0072786855 0.040040042 -0.04267221
0.04498499 -0.0024451972 0.002077779 -0.005398024 -0.040453736 -0.032706067 -0.0055129556 0.05482731
0.039911684 -0.020628287 -0.010097777 0.023062244 0.026392432 -0.021768216 0.028257165 0.044060774
00000000: e2f6 b83c 2887 70bd a2bd 18bd 9361 8fbc
00000010: d94e 1ebd 868b 07bd a871 17bd a8ba 09bd
00000020: dad6 76bc 0c79 253d d0cb edbc f100 b83c
00000030: 2bee 583d ad4a ba3c 014e 54bd 0716 133c
00000040: 5f22 98bc 44b1 3ebd 966c 0bbd fa50 dabc
00000050: 1e69 adbc 799b da3c fd08 b03c 7e0f 603b
00000060: 4508 dd3c 42a0 c93c bb06 f73c bf52 fc3c
00000070: 628b 1abd 90ca 6fbc 9f11 3bbd dea0 d9bc
00000080: ae67 15bd 3079 b1bc fd1d 6a3c 05ec dd3c
00000090: 9d00 86bc 9124 6bbd c27f 103d 2e7e d5bc
000000a0: ddc4 f4bc 264f 8dbc 3856 e63c cb4a 9b3c
000000b0: d542 b3bb 2f9a 88bc 6897 b3bc 0bfd 193d
000000c0: 22f1 a9bb ecd5 173d c9eb 163b d3d7 b53c
000000d0: bcba 0fbd d773 25bd 1e87 56bc f7b9 703d
000000e0: 2455 cebb 80a9 4d3d c755 3d3d a938 c9bc
000000f0: d8ac 02bd a5cb 353c a507 c73c c106 c8bc
00000100: 78d1 0a3d 7ab4 523d 0cdd ccbc 12ae 01bd
00000110: 91d4 8d3b 2676 9dbc 1e32 923c 512d bf3c
00000120: afc7 6bbc 3297 35bd 9ae1 963c 6765 0d3d
00000130: e81e 69bc 2a49 76bd 2044 37bd 44c7 f53c
00000140: ad9a 00bd 3bcc d4bb 1846 abb9 8807 953a
00000150: 8c59 24bd 1396 04b9 bd14 393d 88df 133d
00000160: 0033 073d 22ae 743b f477 943c 4d00 69bc
00000170: 8d88 353b f062 073d ad3f 0cbd 0c50 c43c
00000180: 9f28 20bd 5b8a a43c 6161 17bd 22fc 1a3d
00000190: 3a67 023d e93a 8bbc 193e d43c 611f a03c
000001a0: bd77 613d bda1 2cbd 88d3 283d 466d bd3b
000001b0: 77e1 11bd f110 423d 585f 1a3c bbc6 b23c
000001c0: f3d3 ea39 5bd2 47bc b804 63bd dfeb 77bd
000001d0: 07bd 8d3a f70f 453d 160e 24bc 66cc 193d
000001e0: a400 e73c 61d2 3abd 5150 eabc fadb eabc
000001f0: 309d abbb f263 033d 827f 5a39 3216 cf3c
00000200: 5d12 0bbb 2527 59bc c164 783d 4de0 35bb
00000210: 6eb3 32bd e29e acbc 8a7a 91bc 9cf5 3a3c
00000220: 6f41 71bc 86ea 0b3b 1ec0 5e3d c131 2c3d
00000230: 39e7 dfbc 1e5f 11bd 5dd6 67bd 4a0a 54bd
00000240: 7883 39bd 600d 043c eb05 17bd b693 cdbc
00000250: c0bf b23c 2577 033d 50a4 363d 389c 1b3d
00000260: 1870 babb f19f 86bc dd82 673d 70c1 273d
00000270: b013 c03b 1147 40bc 7a25 1dbd 5531 ddbc
00000280: 41a2 8abb 82bc 56bd 311c 653c a9fd 3cbd
00000290: 0e11 603a 16f4 81bd 2314 dcbc 3f58 db3c
000002a0: ff6c d6bc a4e9 2ebd c174 d23c e577 00bb
000002b0: ef80 87bc 7bcb 8dbb dc0f f23c 5dae 083d
000002c0: f9e9 6bbc ac1b 3bbd 55ed fe3c 2942 43bd
000002d0: 340c 033d 372f 65bc 7ecc 89bc 863d 2e3d
000002e0: a2d4 31bc d3f0 4ebd 07cc 543b e40f a23a
000002f0: cfc7 43bd ea86 00bd 227e 60bd 320d 0a3d
00000300: f9f9 bcb9 af34 0cbd 4949 783c 9e59 6a39
00000310: c2fe 283d 80be 65bd 3b9b 593c 8611 6dbd
00000320: 0c57 513d c6eb 9dbc 9ea4 4ebd 05cf 433c
00000330: df67 75bd 2d60 debc a312 cb3c 2e23 023d
00000340: 2205 883d a3fe 1a3d 265d 0cbd 5d88 34bd
00000350: 094d 76bc fb9a 3a3d c986 94bc 78fd ccbb
00000360: 2da3 dd3b a1b9 b73b f43d 4e3d ec27 afbc
00000370: f476 e43c 6b5e 263b 9266 ea3b fa9f 493d
00000380: 7ba8 d83b 2b7f 62bd e24c 90ba 02f3 a13c
00000390: ea70 37bd 7c33 2ebd 8315 14bd 73bc bcbc
000003a0: 21b3 c83c b2c5 383c 7862 27bd fbd1 273d
000003b0: 8911 a3bc 0a82 ee3b 0701 243d 0ec9 2ebd
000003c0: 2e42 383d 9a3f 20bb 592b 083b e8e1 b0bb
000003d0: d1b2 25bd ccf6 05bd 06a6 b4bb 9a92 603d
000003e0: 6f7a 233d a7fc a8bc 2571 25bc 08ed bc3c
000003f0: f134 d83c 4253 b2bc 927b e73c 1279 343d

bn2.weight f4 [300]
0.87592417 0.7809922 0.85577166 0.7574055 0.7900656 0.7313232 0.8008065 1.0321168
1.0289001 0.9522119 0.822306 0.7921222 0.7947832 1.0005068 1.059485 0.77842885
0.7611684 0.65534365 0.61945194 0.7735979 0.6820843 0.7095736 0.7877338 0.70425576
0.7271653 0.57818216 0.6125651 0.80893654 0.77080405 0.7711101 0.99686396 0.71113807
1.0164875 0.7627789 0.66086406 0.64866316 0.87242174 0.9378224 0.7161374 0.735177
0.78313285 0.7903266 0.8204122 0.80128115 1.0224899 0.7211656 0.7072975 0.5526712
0.9649675 0.70565116 0.6906848 0.9400348 0.7369721 0.94313776 0.9842758 0.562531
0.69918364 1.0477765 0.6273736 0.7090402 0.6553166 0.87540966 0.7885469 0.79234606
0.8290936 0.841412 0.97525895 1.0225316 0.7247983 0.8533007 0.7175218 0.7544383
1.0427263 0.71211076 1.00554 0.8731675 0.9888695 0.74461675 0.67804253 0.70692265
0.6765893 0.8744446 0.76909924 0.8333888 1.001214 0.8386747 0.98684293 1.0435443
0.6252364 0.83124495 0.713024 0.7326418 0.76631683 1.0215929 0.7486266 1.0050601
0.8076253 0.770569 0.9880305 0.7165489 0.9733798 0.9011021 0.7979504 0.74976337
0.96375656 0.6345684 0.67242634 0.88589066 0.6748536 0.8641939 0.7977057 0.9606988
0.79779154 0.9741832 0.9730765 0.6408881 0.7603192 0.9180679 1.0608193 1.0032262
0.94673395 0.7773979 0.95306313 0.99582845 0.78457516 1.0562054 0.8970613 0.8421466
0.737904 0.7417825 0.8328566 0.6842162 0.6121884 1.0128369 0.6949675 0.7629486
0.9540729 0.71137553 0.900595 0.7960253 0.6489633 0.81876785 0.86160594 0.8005301
1.0266092 0.9810395 0.65213037 1.0280968 0.7723894 0.7722276 0.7201602 1.0298314
0.7163244 1.1581101 0.79648834 0.6773114 0.7816996 0.63837224 0.7939895 0.9398224
0.66919744 0.6652278 0.6485171 0.82232594 0.68862784 0.68546414 0.9921938 0.997633
0.9182689 0.68477803 0.75075585 0.814987 0.6646069 0.8950739 0.9801203 0.73591655
0.7474176 0.74166864 0.71189004 0.69279766 0.83065814 0.80966175 1.0042816 0.66829354
0.8307233 0.67891866 1.0261794 0.8184064 0.94681525 0.8176123 1.1229761 0.6948193
0.86508447 0.63691664 0.6963471 0.8495418 0.7828811 0.89986676 0.791976 0.9683194
0.7452022 0.7071919 0.7953256 0.7782362 0.91847396 0.7140504 0.75146276 0.74121505
0.6841477 0.8978262 0.98697937 0.6739507 0.80765134 0.78534395 0.7139321 0.7850643
0.7872239 0.65485775 0.73080754 0.9460595 0.9292757 0.7157667 1.0381184 0.9741104
0.70414287 1.0698715 0.8404734 0.7571085 0.78900456 0.76322436 0.75920635 0.7308686
0.8096001 0.6931524 0.95961565 0.6033558 0.63088745 0.8322157 0.9137912 0.8506517
0.9478534 0.9400529 0.8235476 0.96692914 0.604616 0.7574371 0.8459659 0.6815546
0.72264874 0.96075433 0.68384725 0.90321136 0.9845544 1.029683 0.7995584 0.84701633
00000000: 913c 603f 1bef 473f da13 5b3f 54e5 413f
00000010: bd41 4a3f ff37 3b3f a801 4d3f 671c 843f
00000020: 00b3 833f 29c4 733f a582 523f 85c8 4a3f
00000030: e976 4b3f 9b10 803f 349d 873f 1d47 473f
00000040: efdb 423f 9ac4 273f 6794 1e3f 830a 463f
00000050: 149d 2e3f 9ea6 353f eca8 493f 1b4a 343f
00000060: 8127 3a3f bf03 143f 11d1 1c3f 7716 4f3f
00000070: 6a53 453f 7967 453f 7a32 7f3f 250d 363f
00000080: 431c 823f 7a45 433f 632e 293f ca0e 263f
00000090: 0857 5f3f 2115 703f c854 373f 8f34 3c3f
000000a0: 657b 483f d852 4a3f 8906 523f c320 4d3f
000000b0: f3e0 823f 4f9e 383f 7311 353f dc7b 0d3f
000000c0: 1c08 773f 8ea5 343f b8d0 303f 1fa6 703f
000000d0: 34aa 3c3f 7a71 713f 80f9 7b3f 0802 103f
000000e0: b3fd 323f 8a1d 863f 8e9b 203f a983 353f
000000f0: d4c2 273f d91a 603f 36de 493f 31d7 4a3f
00000100: 7a3f 543f c766 573f 92aa 793f 51e2 823f
00000110: 628c 393f ea71 5a3f 82af 373f de22 413f
00000120: 0e78 853f e44c 363f 89b5 803f e887 5f3f
00000130: 8d26 7d3f 349f 3e3f 3294 2d3f e2f8 343f
00000140: f534 2d3f 9adb 5f3f b0e3 443f f858 553f
00000150: c827 803f 63b3 563f bda1 7c3f dc92 853f
00000160: 7e0f 203f 78cc 543f be88 363f 6a8e 3b3f
00000170: 572d 443f 8ec3 823f fea5 3f3f cfa5 803f
00000180: 88c0 4e3f 0344 453f 91ef 7c3f c06f 373f
00000190: 6b2f 793f a1ae 663f 7a46 4c3f 7ef0 3f3f
000001a0: c0b8 763f 1373 223f 2224 2c3f bbc9 623f
000001b0: 35c3 2c3f d03b 5d3f 7136 4c3f 5bf0 753f
000001c0: 113c 4c3f 1264 793f 8b1b 793f 3e11 243f
000001d0: 47a4 423f 7f06 6b3f edc8 873f b769 803f
000001e0: 285d 723f 8c03 473f f2fb 733f 9dee 7e3f
000001f0: ebd9 483f bd31 873f cfa5 653f eb96 573f
00000200: 47e7 3c3f 75e5 3d3f 1736 553f cb28 2f3f
00000210: 61b8 1c3f a4a4 813f 64e9 313f 9950 433f
00000220: 1f3e 743f b51c 363f 658d 663f 50c8 4b3f
00000230: 7522 263f c59a 513f 3592 5c3f 8aef 4c3f
00000240: ee67 833f 6825 7b3f 04f2 263f ad98 833f
00000250: 50bb 453f b5b0 453f 6b5c 383f 84d1 833f
00000260: 0961 373f f43c 943f a9e6 4b3f 4864 2d3f
00000270: 771d 483f 5d6c 233f e542 4b3f 3398 703f
00000280: 8650 2b3f 5e4c 2a3f 3705 263f f483 523f
00000290: ea49 303f 947a 2f3f 6a00 7e3f e064 7f3f
000002a0: ac13 6b3f 9d4d 2f3f 8931 403f fda2 503f
000002b0: ae23 2a3f 9023 653f 2ae9 7a3f 0765 3c3f
000002c0: c356 3f3f ffdd 3d3f 6d3e 363f 305b 313f
000002d0: 03a6 543f fe45 4f3f 4d8c 803f 4915 2b3f
000002e0: 48aa 543f 9dcd 2d3f d959 833f 1583 513f
000002f0: 7c62 723f 0a4f 513f aebd 8f3f addf 313f
00000300: 2d76 5d3f f80c 233f ce43 323f 927b 593f
00000310: e56a 483f ab5d 663f f0be 4a3f c8e3 773f
00000320: 92c5 3e3f 870a 353f 759a 4b3f 7d3a 473f
00000330: 1c21 6b3f 02cc 363f dd5f 403f 45c0 3d3f
00000340: 4e24 2f3f f0d7 653f aeaa 7c3f 0888 2c3f
00000350: 3dc2 4e3f 4d0c 493f 41c4 363f f9f9 483f
00000360: 8187 493f c2a4 273f 3416 3b3f f530 723f
00000370: 03e5 6d3f 7d3c 373f 10e1 843f 4d5f 793f
00000380: b542 343f 8df1 883f 4429 573f ddd1 413f
00000390: 34fc 493f ac62 433f 595b 423f 341a 3b3f
000003a0: f441 4f3f 7072 313f 5fa9 753f 8775 1a3f
000003b0: d781 213f 170c 553f 38ee 693f 4fc4 593f
000003c0: 85a6 723f 4fa7 703f 04d4 523f ab88 773f
000003d0: 1dc8 1a3f 66e7 413f 3991 583f 5d7a 2e3f
000003e0: 82ff 383f fff3 753f 9d10 2f3f dc38 673f
000003f0: c20b 7c3f a7cc 833f dcaf 4c3f 10d6 583f

bn2.bias f4 [300]
0.0624501 -0.02998043 -0.008473147 0.0716233 -0.10628628 0.114872195 -0.057590988 -0.027017983
-0.06403385 0.008911424 0.036080003 -0.061322283 0.012369468 -0.043685023 -0.06351144 -0.015692096
-0.031060947 -0.086673535 -0.16442114 -0.014989197 -0.12408622 0.040105324 0.0036128657 -0.06642179
-0.04669372 -0.15710947 -0.042723827 -0.09103363 0.0151097 -0.0374961 0.09068059 -0.029985646
0.052578546 0.046758514 0.09535478 0.04165922 0.038293134 -0.0584352 -0.098079905 -0.07346854
-0.041008748 0.013922628 -0.0011054293 -0.0015218757 -0.037507728 0.011758173 -0.087848656 -0.20042701
0.050381534 0.14139126 0.05490172 -0.02004263 -0.09370594 -0.042339433 0.03070918 -0.17023286
-0.13579921 0.07799499 0.106782846 0.11321119 -0.13013284 -0.01531464 0.09066997 0.002738052
-0.08203042 -0.012575152 0.022505827 0.038215056 -0.075748995 -0.07275084 -0.019754415 -0.019561827
0.048354365 -0.060345594 -0.0326576 -0.019885909 -0.070279725 0.037042044 -0.03229894 -0.0031162968
-0.062413454 -0.048547637 -0.09161743 0.061333764 0.07773045 -0.041012555 -0.080108956 0.019375328
-0.11575034 -0.117573455 -0.015960814 -0.12169086 -0.012394599 0.03857759 -0.050036594 -0.023870714
0.024652692 0.07303646 0.046843234 -0.086659275 0.06032189 0.00231245 -0.0023156798 -0.058963627
0.05780759 -0.08097591 0.068877615 -0.09294492 -0.05612407 -0.06125812 -0.08173105 -0.04488248
-0.009403734 0.050937053 0.019236468 -0.16737701 -0.13646619 -0.032700464 -0.070794664 0.055634875
0.07940641 -0.05597692 -0.037480745 -0.033023164 0.04403137 0.071112245 -0.07029445 0.016128305
0.009972299 -0.014512684 0.07036295 -0.11309693 -0.10542017 -0.06853654 0.07140196 -0.08513621
-0.046276208 0.03136283 -0.046330117 -0.019368712 -0.05888487 0.06571614 -0.05712622 -0.0043555335
0.07873674 -0.07199912 0.07125665 -0.077107005 0.030417431 0.032619637 -0.061433796 -0.06349112
-0.014205968 0.04487876 0.07238692 -0.054454718 0.044655044 0.02479425 -0.057994463 0.0073426114
-0.18572661 -0.049045917 0.114743 0.012718269 -0.12904476 -0.10151123 0.043874245 0.002542557
0.058441028 0.07019818 -0.07526409 0.00557553 -0.06550847 -0.030462207 -0.030423967 -0.14891449
0.06947464 -0.055505227 0.0432981 -0.13394456 0.09855537 0.009754 0.015236169 0.0045549483
-0.0044983295 0.019507375 0.031065276 -0.0473509 -0.04813001 -0.052115437 -0.06243783 -0.15016802
-0.054827996 0.03694029 -0.08314963 -0.0018995085 0.022963615 0.0059780953 -0.103579305 0.0069099357
0.022027109 -0.13278992 0.024245579 -0.021920577 -0.058318667 -0.049791258 0.070177056 -0.008010417
-0.07472249 -0.07212172 -0.041315105 -0.105581634 -0.11366506 -0.041099362 -0.047014125 0.014459178
-0.04034192 -0.045609467 -0.16843615 0.06328672 -0.053294957 -0.074773416 0.057610303 0.031090127
-0.15276769 -0.04760304 -0.05186887 -0.11572627 -0.11898375 0.021243852 -0.04262726 -0.05259131
0.025842657 0.016807107 0.049842898 -0.02999753 -0.18273032 -0.035050277 0.0828953 -0.001991905
0.052191563 -0.0458831 -0.07975588 -0.0836833 -0.15227585 0.02666898 -0.00131801 0.012761071
-0.09394476 0.03774253 0.09322051 0.0030385123 0.051496692 -0.075589344 -0.09437739 -0.11478431
00000000: adcb 7f3d 8599 f5bc f4d2 0abc 3daf 923d
00000010: 9fac d9bd 1d42 eb3d 87e4 6bbd d154 ddbc
00000020: 2e24 83bd 3901 123c a0c8 133d 132d 7bbd
00000030: 4fa9 4a3c 11ef 32bd 4912 82bd b68c 80bc
00000040: 8773 febc e581 b1bd 045e 28be 4095 75bc
00000050: eb20 febd 7b45 243d d4c5 6c3b 2608 88bd
00000060: ea41 3fbd 4ee1 20be 2eff 2ebd d76f babd
00000070: ad8e 773c 8395 19bd bfb6 b93d 75a4 f5bc
00000080: 9a5c 573d db85 3f3d 5e49 c33d dca2 2a3d
00000090: 43d9 1c3d c059 6fbd 1ede c8bd ad76 96bd
000000a0: caf8 27bd bc1b 643c 0de4 90ba ad79 c7ba
000000b0: b4a1 19bd 5aa5 403c ffe9 b3bd bd3c 4dbe
000000c0: de5c 4e3d dfc8 103e a0e0 603d 7130 a4bc
000000d0: e6e8 bfbd 1d6c 2dbd d191 fb3c 8651 2ebe
000000e0: f30e 0bbe d6bb 9f3d f7b0 da3d 45db e73d
000000f0: 8b41 05be 41ea 7abc 2db1 b93d e470 333b
00000100: 91ff a7bd 0308 4ebc 245e b83c 6487 1c3d
00000110: 4a22 9bbd 64fe 94bd 03d4 a1bc 2040 a0bc
00000120: 3a0f 463d f12c 77bd fac3 05bd c6e7 a2bc
00000130: d1ee 8fbd 66b9 173d e54b 04bd c93a 4cbb
00000140: 40a5 7fbd e3d9 46bd eba1 bbbd 1d39 7b3d
00000150: 2431 9f3d c8fc 27bd 2a10 a4bd 02b9 9e3c
00000160: 840e edbd 5aca f0bd 41c0 82bc 0f39 f9bd
00000170: b712 4bbc 8903 1e3d 2cf3 4cbd 848c c3bc
00000180: 71f4 c93c 2494 953d b1de 3f3d 6b7a b1bd
00000190: 1614 773d 798c 173b a9c2 17bb d883 71bd
000001a0: a7c7 6c3d b3d6 a5bd b50f 8d3d e859 bebd
000001b0: 5ae2 65bd cbe9 7abd 9c62 a7bd b1d6 37bd
000001c0: 1e12 1abc 5fa3 503d cc95 9d3c e164 2bbe
000001d0: cbbd 0bbe ecf0 05bd cbfc 90bd 65e1 633d
000001e0: d49f a23d 0e48 65bd 6985 19bd 4c43 07bd
000001f0: 3d5a 343d 4ca3 913d 89f6 8fbd 821f 843c
00000200: db62 233c 9cc6 6dbc 731a 903d 5d9f e7bd
00000210: 88e6 d7bd e35c 8cbd 313b 923d e55b aebd
00000220: 1f8c 3dbd 5076 003d a6c4 3dbd 22ab 9ebc
00000230: 4331 71bd 2f96 863d 2ffd 69bd ddb8 8ebb
00000240: ba40 a13d 4674 93bd 02ef 913d 47ea 9dbd
00000250: fa2d f93c 2b9c 053d 01a2 7bbd a207 82bd
00000260: 26c0 68bc cad2 373d 983f 943d e90b 5fbd
00000270: 35e8 363d 501d cb3c 9a8b 6dbd 4a9a f03b
00000280: 1e2f 3ebe 5fe4 48bd 61fe ea3d 4960 503c
00000290: 4f24 04be 1fe5 cfbd 7bb5 333d 07a1 263b
000002a0: dc5f 6f3d 10c4 8f3d 0f24 9abd f0b2 b63b
000002b0: 4e29 86bd e18b f9bc af3b f9bc 0a7d 18be
000002c0: b848 8e3d 7359 63bd 5959 313d c328 09be
000002d0: 66d7 c93d 3ecf 1f3c 20a1 793c ad41 953b
000002e0: b966 93bb eecd 9f3c 9b7c fe3c 04f3 41bd
000002f0: f923 45bd ff76 55bd cfbe 7fbd a5c5 19be
00000300: 5293 60bd b44e 173d 5a4a aabd eef8 f8ba
00000310: 311e bc3c e6e3 c33b 6321 d4bd be6c e23b
00000320: 3272 b43c 15fa 07be aa9e c63c c892 b3bc
00000330: 8edf 6ebd ebf1 4bbd fdb8 8f3d 203e 03bc
00000340: 1b08 99bd 8db4 93bd 073a 29bd 2f3b d8bd
00000350: 3ac9 e8bd ce57 28bd e291 40bd 30e6 6c3c
00000360: 923d 25bd fed0 3abd 877a 2cbe 789c 813d
00000370: d04b 5abd ce22 99bd c8f8 6b3d b9b0 fe3c
00000380: 226f 1cbe 68fb 42bd 7474 54bd e501 edbd
00000390: c1ad f3bd 9607 ae3c ec99 2ebd fc69 57bd
000003a0: fbb3 d33c 0faf 893c 1128 4c3d 61bd f5bc
000003b0: a81d 3bbe e190 0fbd 03c5 a93d 9f8a 02bb
000003c0: d2c6 553d ebef 3bbd 0d57 a3bd 2662 abbd
000003d0: 33ee 1bbe e878 da3c 14c1 acba d013 513c
000003e0: 1c66 c0bd e997 1a3d 65ea be3d c721 473b
000003f0: 32ee 523d 96ce 9abd ef48 c1bd 0914 ebbd
