Zadanie3/src_v2/experiments/LunarLanderContinuous-v2/ddpg_1/saves/target_q_network.pth (torch, 509903 bytes, 11 tensors)

fc1.weight f4 [400, 8]
-0.10360314 -0.007847223 0.06840992 -0.022323918 -0.17444278 0.28785017 0.0636795 -0.21892023
0.3873162 -0.0104349675 0.1685975 0.013409484 0.07836726 -0.18052934 0.008249294 0.16490525
0.016194347 -0.04201912 0.031662736 -0.1355911 -0.10949002 -0.102592275 0.025257427 0.22253172
0.028410709 0.13983335 -0.14200413 -0.0406902 -0.050431985 -0.27393717 0.16644214 -0.07424973
-0.06804199 0.10039783 0.034215886 -0.0018668269 -0.11807676 0.22721934 0.18308714 -0.13930635
0.1790198 -0.34707657 0.0006925789 -0.17248274 0.044071984 0.13188995 0.02801594 -0.11161763
0.012788535 0.19592795 -0.116540916 -0.11533544 -0.009126363 -0.30087999 -0.07041136 0.07935433
-0.0494892 -0.6130125 0.15161598 -0.08803435 -0.018474475 0.14546171 -0.027122367 -0.08067717
0.059254117 0.22271311 0.114296 -0.069348134 0.15080062 -0.26346835 -0.11675982 -0.18872644
0.047714084 0.21038863 0.010113057 -0.24129236 -0.06341808 -0.1653046 0.17000636 0.27927166
-0.36289436 0.009064885 -0.08072561 0.13988015 -0.018319387 0.011682349 0.19852927 0.1778222
-0.15538535 -0.2022695 0.15250796 -0.2553285 0.19140363 -0.20721458 0.096371375 -0.21116686
-0.13167815 -0.27283186 0.13738781 0.04862674 0.41264287 0.039462093 0.40665808 0.047587648
-0.090240724 -0.27163348 0.09807866 -0.18398604 0.21100096 0.019458711 0.3933744 0.14327472
-0.02923081 0.21104518 -0.15649585 -0.23357879 -0.1108585 -0.104960956 0.25778374 0.10844657
-0.1370077 0.21628882 -0.13352503 0.005527872 -0.18379669 -0.021106169 0.18844335 -0.124210164
-0.15643592 -0.013773678 0.19682613 -0.031348515 0.20874977 -0.22257435 0.09491557 0.10967596
-0.01962989 0.24688064 -0.20900254 0.14566436 -0.16440073 0.00892406 0.22063114 -0.011599209
0.27321348 -0.2733911 -0.008873416 -0.008238751 0.31489685 -0.051621266 0.24387637 -0.089713044
0.094989486 0.03170381 -0.16475469 0.048498776 -0.30586112 0.172354 0.08881849 0.11732196
0.25223765 -0.21623395 -0.14635877 -0.07696702 0.09341563 0.26046425 0.2881168 -0.14144257
0.23540574 -0.1822581 0.3865032 -0.08439614 0.26688245 -0.028999077 -0.0707253 0.16683927
0.16159575 -0.27312145 -0.29085946 -0.18554255 -0.37004262 -0.051328648 -0.04348066 0.1266896
0.34379452 -0.18088402 0.018031154 -0.17800975 -0.21183835 -0.15318635 -0.12848832 0.3547346
-0.2003186 0.28156838 -0.15057895 0.041654438 -0.22473976 -0.01625323 0.18256222 -0.19382593
-0.037858997 0.031959932 -0.1310845 -0.02438822 0.16415799 -0.060303915 0.51661164 -0.10907606
0.040679935 -0.024232456 -0.21152812 -0.16378622 -0.3181328 -0.1680363 -0.034106318 0.0052477927
-0.09568598 0.03260767 0.1780496 0.1725642 0.1281788 -0.15185781 0.07510352 -0.081829354
-0.30523697 -0.28295535 -0.18794167 -0.17322291 0.26511303 -0.13850929 0.34807646 -0.09071508
-0.009085685 0.14254293 0.12033688 -0.004803138 -0.14766058 0.2101641 0.039102796 -0.042917
-0.0023861001 0.15380266 0.09955115 0.062221006 0.17331748 -0.12592372 -0.054500386 -0.008159653
0.013321872 0.19338487 -0.1602382 -0.1130994 -0.38782674 0.2427706 0.07050691 -0.057854477
00000000: e22d d4bd a491 00bc 801a 8c3d a6e0 b6bc
00000010: 21a1 32be 1961 933e 666a 823d a02c 60be
00000020: 4f4e c63e 6df7 2abc d3a4 2c3e 74b3 5b3c
00000030: 047f a03d afdc 38be 0c28 073c ecdc 283e
00000040: 02aa 843c 3e1c 2cbd c9b0 013d 65d8 0abe
00000050: 4e3c e0bd e61b d2bd aae8 ce3c 5bdf 633e
00000060: 93bd e83c 7930 0f3e 8869 11be c4aa 26bd
00000070: c591 4ebd 7e41 8cbe cf6f 2a3e 3e10 98bd
00000080: 9959 8bbd 619d cd3d f525 0c3d 51b0 f4ba
00000090: 3ad2 f1bd 30ac 683e 327b 3b3e 53a6 0ebe
000000a0: f750 373e 05b4 b1be 2f8e 353a 519f 30be
000000b0: d384 343d 290e 073e af81 e53c c997 e4bd
000000c0: 0187 513c 56a1 483e 01ad eebd fd34 ecbd
000000d0: be86 15bc f10c 9abe d533 90bd 8684 a23d
000000e0: 30b5 4abd 63ee 1cbf 3841 1b3e 5a4b b4bd
000000f0: c857 97bc eaf3 143e ba2f debc 123a a5bd
00000100: 72b4 723d e80e 643e 0514 ea3d 6506 8ebd
00000110: 7a6b 1a3e 53e5 86be c61f efbd 8141 41be
00000120: d86f 433d 1e70 573e 3cb1 253c 5815 77be
00000130: 57e1 81bd 9c45 29be 2616 2e3e b2fc 8e3e
00000140: 4acd b9be e284 143c 7853 a5bd be3c 0f3e
00000150: 8a12 96bc 5367 3f3c 424b 4b3e 0617 363e
00000160: 561d 1fbe bc1f 4fbe 0c2b 1c3e 6bba 82be
00000170: 50ff 433e 0f30 54be 5b5e c53d 203c 58be
00000180: a3d6 06be 9eb0 8bbe 64af 0c3e d52c 473d
00000190: ed45 d33e 01a3 213d 7d35 d03e 44eb 423d
000001a0: 21d0 b8bd 8b13 8bbe 77dd c83d d666 3cbe
000001b0: a310 583e e067 9f3c 5f68 c93e 9cb6 123e
000001c0: 7475 efbc 3a1c 583e 7340 20be 472f 6fbe
000001d0: c809 e3bd c5f5 d6bd 3bfc 833e 3c19 de3d
000001e0: bf4b 0cbe d17a 5d3e c9ba 08be 2723 b53b
000001f0: 3335 3cbe d8e6 acbc 4bf7 403e e661 febd
00000200: bd30 20be feaa 61bc ca8c 493e 4d67 00bd
00000210: 80c2 553e 88ea 63be 1863 c23d ca9d e03d
00000220: ddce a0bc 47ce 7c3e c304 56be 0a29 153e
00000230: aa58 28be 3836 123c 21ed 613e 9c0a 3ebc
00000240: a3e2 8b3e ebf9 8bbe ce61 11bc d4fb 06bc
00000250: 293a a13e d270 53bd baba 793e 79bb b7bd
00000260: d989 c23d dbdb 013d 74b5 28be a7a6 463d
00000270: d499 9cbe 917d 303e 78e6 b53d 7f46 f03d
00000280: 4b25 813e 6f6c 5dbe 13df 15be e3a0 9dbd
00000290: b250 bf3d 925b 853e 0c84 933e 52d6 10be
000002a0: 340e 713e dea1 3abe bfe3 c53e e2d7 acbd
000002b0: d1a4 883e 798f edbc 6dd8 90bd ead7 2a3e
000002c0: 5b79 253e 93d6 8bbe 88eb 94be defe 3dbe
000002d0: 3a76 bdbe fd3d 52bd c718 32bd ebba 013e
000002e0: d605 b03e a939 39be 12b6 933c 3048 36be
000002f0: 27ec 58be e2dc 1cbe 7192 03be c69f b53e
00000300: 5220 4dbe bb29 903e 5e31 1abe d89d 2a3d
00000310: 2e22 66be 7e25 85bc 97f1 3a3e 4e7a 46be
00000320: 0912 1bbd 6be8 023d 043b 06be cec9 c7bc
00000330: 0819 283e 3d01 77bd a940 043f 4563 dfbd
00000340: 01a0 263d 2583 c6bc d49a 58be 93b7 27be
00000350: 4de2 a2be b511 2cbe 11b3 0bbd adf5 ab3b
00000360: 03f7 c3bd 9f8f 053d a252 363e abb4 303e
00000370: 4e41 033e 9d80 1bbe e0cf 993d 2696 a7bd
00000380: 0548 9cbe 86df 90be c873 40be 5961 31be
00000390: e5bc 873e 61d5 0dbe 1437 b23e d4c8 b9bd
000003a0: 20dc 14bc c6f6 113e 2f73 f63d a463 9dbb
000003b0: 5634 17be 4235 573e 412a 203d bcc9 2fbd
000003c0: 1e60 1cbb 727e 1d3e 79e1 cb3d 74db 7e3d
000003d0: 237a 313e 26f2 00be cc3b 5fbd 11b0 05bc
000003e0: fb43 5a3c af06 463e 7c15 24be a9a0 e7bd
000003f0: 3a91 c6be db98 783e ed65 903d d1f8 6cbd

fc1.bias f4 [400]
0.15291543 -0.24461891 0.09759289 0.2058581 0.109825574 -0.07047761 0.32549307 0.17514268
0.22798392 0.29954898 -0.25004867 0.09041008 -0.06899933 -0.21778585 0.29072684 0.13159247
0.13955766 0.20555612 0.034570266 0.14003757 -0.00058428204 -0.10142687 -0.06035344 -0.12862395
0.13735437 0.05216976 0.0766739 0.18038282 -0.1668237 0.08266056 0.20604652 0.07488369
0.12092454 -0.03470043 0.21837586 0.033991095 0.22297017 0.35430714 0.2562557 0.28133452
-0.24105616 -0.014771819 0.17876968 0.21341693 0.08668152 0.17322779 0.15024224 0.030473674
-0.08506303 -0.05089591 0.17907886 0.22042242 0.46851292 -0.008333099 -0.14027582 -0.11379581
0.0559618 0.16823153 -0.14118998 0.028452737 0.30627102 -0.048018076 -0.1089465 0.33377048
0.038818184 0.312759 0.19796447 -0.04133865 0.30494872 0.012027967 0.19735362 0.15830302
0.080028415 0.18829438 0.19684592 0.30851898 0.14120422 -0.028580101 0.16190076 0.24285772
-0.18523063 0.051868398 0.26679003 0.23317659 0.17142153 0.52656823 0.3377399 0.23277731
0.1777924 0.26133397 0.3143364 0.12965912 0.095589265 0.22962922 0.13913749 0.19473708
0.37130436 0.21580365 -0.14074329 0.091830015 0.043279435 -0.09817641 0.1708095 0.2532994
0.3217595 0.05637543 -0.17522283 0.03862536 0.1945459 0.057366394 0.18347417 0.028478831
-0.10505354 0.118850015 0.14514357 0.18879376 0.33328685 0.1253012 0.07009584 0.13049516
0.14270717 0.37405056 0.18908705 -0.17541215 -0.2052567 0.39261952 0.09252452 0.18000746
0.17696229 0.22515629 0.18569635 0.028778944 0.37006378 0.21718629 0.040191907 0.22764966
-0.041041587 -0.16288808 -0.13880664 0.15610258 -0.12553959 0.15818758 0.17648128 0.30109087
0.13680375 0.1947598 0.0012135638 -0.17132688 0.114436515 0.09972561 0.18935968 0.16489913
0.08419166 0.20741177 0.22125842 0.041474525 0.3154394 0.33643034 0.21426915 -0.12413902
0.16298193 0.09764989 0.12058904 -0.15184087 0.1043653 0.22806856 0.034105238 0.12585476
0.4274152 0.16973513 0.1326752 -0.20629025 0.053391647 0.16924791 0.15927236 0.4278551
0.29270038 -0.08659104 0.07609356 0.17256105 0.19015387 0.12103216 0.18239342 -0.22352359
-0.005631263 -0.061104525 -0.16679443 0.36956784 -0.038627863 0.019554827 -0.19860226 0.32273072
-0.028327694 -0.22356924 0.49659297 -0.20023797 0.25150225 0.12636843 -0.024848765 0.18756177
0.22628075 -0.0638847 0.16860878 0.3313594 0.21062024 0.18837631 0.31641862 -0.22067615
0.33164024 0.3265487 0.29900244 0.15446012 0.03591185 0.23760931 0.22650756 0.09396614
0.040480684 0.23577285 -0.08908251 -0.022124516 -0.1306009 0.25399315 -0.10246764 0.356984
0.3392189 0.13804215 0.37721553 0.10866478 -0.26149383 0.23004894 0.26782313 0.25411138
0.32394093 0.1667711 0.39531907 0.16108873 -0.0076365266 -0.12410914 0.11322156 0.23658247
-0.15501219 0.17110042 0.13854071 0.21291496 0.29786912 0.18014802 0.21263035 0.34049976
0.07901328 0.2000745 0.08056237 -0.12171684 0.15542561 0.1289917 0.1605717 0.18280128
00000000: dd95 1c3e 617d 7abe c8de c73d 77cc 523e
00000010: 3bec e03d 9156 90bd 07a7 a63e 9a58 333e
00000020: 9e74 693e 7c5e 993e 6106 80be ec28 b93d
00000030: 854f 8dbd 4103 5fbe 26da 943e 2dc0 063e
00000040: 34e8 0e3e 4e7d 523e 8d99 0d3d 0266 0f3e
00000050: 812a 19ba e4b8 cfbd 2b35 77bd ffb5 03be
00000060: a0a6 0c3e f5af 553d 3507 9d3d 46b6 383e
00000070: d5d3 2abe f149 a93d dcfd 523e 9f5c 993d
00000080: 49a7 f73d 0a22 0ebd ec9d 5f3e 3f3a 0b3d
00000090: 4b52 643e bf67 b53e f233 833e 140b 903e
000000a0: 6dd7 76be 8005 72bc 660f 373e f889 5a3e
000000b0: 1586 b13d a062 313e 1ad9 193e eda3 f93c
000000c0: 8735 aebd 3b78 50bd 7360 373e 6ab6 613e
000000d0: ede0 ef3e 8d87 08bc 77a4 0fbe c70d e9bd
000000e0: 3338 653d e344 2c3e 1b94 10be b715 e93c
000000f0: 8ecf 9c3e 9aae 44bd 581f dfbd f7e3 aa3e
00000100: d1ff 1e3d f321 a03e 33b7 4a3e b752 29bd
00000110: 3d22 9c3e f310 453c 1117 4a3e 301a 223e
00000120: f0e5 a33d 3ed0 403e fa91 493e 33f6 9d3e
00000130: d797 103e d120 eabc 50c9 253e b2af 783e
00000140: 19ad 3dbe f573 543d b498 883e d8c5 6e3e
00000150: 2089 2f3e 2dcd 063f 3fec ac3e 2d5d 6e3e
00000160: 360f 363e 91cd 853e b3f0 a03e 5cc5 043e
00000170: 4ec4 c33d ec23 6b3e 0f7a 0e3e 2869 473e
00000180: 9b1b be3e a2fb 5c3e 021f 10be 6011 bc3d
00000190: c745 313d b710 c9bd b0e8 2e3e 75b0 813e
000001a0: a9bd a43e ece9 663d 9d6d 33be a035 1e3d
000001b0: 0a37 473e 06f9 6a3d a7e0 3b3e 704c e93c
000001c0: 4f26 d7bd a367 f33d 84a0 143e 2753 413e
000001d0: 93a4 aa3e f54e 003e 688e 8f3d 86a0 053e
000001e0: d421 123e 8e83 bf3e 09a0 413e 3e9f 33be
000001f0: d02e 52be 6d05 c93e 7f7d bd3d e053 383e
00000200: 9a35 353e 5f8f 663e 2f27 3e3e d2c1 eb3c
00000210: 0079 bd3e 1566 5e3e 45a0 243d fe1c 693e
00000220: 391b 28bd 22cc 26be 5423 0ebe 5bd9 1f3e
00000230: 738d 00be edfb 213e 82b7 343e 9528 9a3e
00000240: 4816 0c3e 1d6f 473e 7210 9f3a 5070 2fbe
00000250: b15d ea3d f13c cc3d 81e7 413e 51db 283e
00000260: ad6c ac3d c063 543e 9191 623e 31e1 293d
00000270: 4681 a13e 9940 ac3e 5f69 5b3e 993c febd
00000280: bce4 263e aafc c73d 63f7 f63d 2c7c 1bbe
00000290: 79bd d53d ce8a 693e efb1 0b3d 12e0 003e
000002a0: 2ad6 da3e 0ccf 2d3e 02dc 073e c03d 53be
000002b0: 33b1 5a3d 534f 2d3e 4b18 233e d30f db3e
000002c0: d3dc 953e a556 b1bd f1d6 9b3d d8b3 303e
000002d0: b2b7 423e b6df f73d 57c5 3a3e 5ee3 64be
000002e0: 7586 b8bb bd48 7abd 29cc 2abe ff37 bd3e
000002f0: 4038 1ebd 7231 a03c 645e 4bbe f63c a53e
00000300: 7b0f e8bc 56ef 64be 6f41 fe3e 2f0b 4dbe
00000310: e7c4 803e ba66 013e a38f cbbc 3110 403e
00000320: 24b6 673e fbd5 82bd c8a7 2c3e f0a7 a93e
00000330: d5ac 573e b8e5 403e 9f01 a23e eef8 61be
00000340: c0cc a93e 6431 a73e d916 993e cb2a 1e3e
00000350: 4e18 133d db4f 733e 99f1 673e 5271 c03d
00000360: 13cf 253d 706e 713e e470 b6bd 793e b5bc
00000370: 3ebc 05be 640b 823e 8eda d1bd 9bc6 b63e
00000380: 1aae ad3e ec5a 0d3e 6522 c13e a48b de3d
00000390: 85e2 85be f391 6b3e 1d20 893e e31a 823e
000003a0: 96db a53e 0bc6 2a3e 4367 ca3e 72f4 243e
000003b0: d43b fabb ef2c febd b5e0 e73d ad42 723e
000003c0: 84bb 1ebe f334 2f3e 9edd 0d3e 6106 5a3e
000003d0: 4d82 983e b978 383e c5bb 593e fc55 ae3e
000003e0: b7d1 a13d 54e0 4c3e e2fd a43d ae46 f9bd
000003f0: e427 1f3e 6616 043e e86c 243e 4230 3b3e

bn1.weight f4 [400]
0.7379044 1.4610718 0.6332019 0.51296395 0.7674248 0.9611097 0.4301676 1.1979336
0.9623085 0.30463812 1.6793548 0.7185229 1.4683006 1.3268831 0.4044146 0.7647807
0.81545603 0.98136824 1.0355082 0.70421976 1.0585057 1.3832512 1.3318127 1.1376953
0.99505734 0.7928105 0.6280817 0.74698865 1.5777322 0.83826756 0.68119574 0.6640206
0.8694981 0.8995354 1.7082645 0.881597 0.6689655 0.4280798 0.35580674 0.549464
1.5034131 0.87105906 0.8178649 0.4807772 0.81480527 0.4906703 0.84272504 0.7766889
1.2930989 1.0814497 0.87391645 0.5997735 0.23128383 0.9106255 1.4157575 1.1823512
1.0686523 0.76751673 1.3196645 0.9850153 1.0823838 1.3832034 1.0839372 0.52885807
1.2756215 0.39388698 0.6556538 1.7612219 0.41928324 0.82676053 0.42518947 0.5524669
1.3033336 0.51010036 0.9300731 0.39900133 0.6598795 1.4726046 1.2428142 0.93675065
1.7221382 1.0284972 0.4633629 0.5869582 0.8690626 0.32288572 1.2755828 0.5330478
0.67958605 0.5444528 0.37433997 1.3374909 0.74409455 0.88374263 0.49697304 0.4653353
0.3624308 0.47862482 1.3447578 1.2910222 0.82832927 0.9590615 0.5350516 0.52849984
0.36876148 1.0152146 1.3284413 0.74133795 0.47874898 0.5989687 0.45797336 0.6615355
1.3286786 0.6871917 0.73360974 0.6999416 0.54927135 0.6014645 0.5918463 1.1413223
0.75025153 0.40339106 0.4787186 1.2244906 1.5267928 0.34275413 1.1431588 0.5488593
0.6018704 0.9950399 0.82412696 0.9043508 0.44684696 0.49338055 0.9208707 0.5850211
0.7927131 1.4392267 1.1368811 0.4857152 1.0421042 0.54847145 0.5543236 0.39372253
0.59593755 0.7579059 0.8315974 1.4937798 1.1547055 0.59745616 0.69724625 0.56697935
0.6826477 0.82931 0.61322236 0.88182324 0.3020506 0.37922722 1.0217249 1.0689192
0.42560875 1.1849054 0.6829977 1.186471 0.7850943 0.5588498 0.6380239 0.86284584
0.23104665 0.9569034 1.0684068 1.2785054 1.0231634 0.83883 1.1802967 0.35574433
0.45920137 1.5126935 0.8475892 0.62504923 0.7079001 0.80464053 0.7797663 1.213656
0.86740184 1.1677885 1.1670381 0.28665337 1.3398131 1.1028068 1.34036 0.34114552
1.008366 1.2177578 0.20792896 1.2130991 0.44997534 0.57939214 1.3653314 1.2934015
0.51003027 0.7933837 0.61233234 0.37871468 0.50314337 0.5143232 0.3728322 1.5287342
0.41081554 0.9081829 0.49834323 0.52431786 1.3265796 0.5158624 0.61630416 0.8453907
0.7536882 1.016119 0.67628914 1.2752719 1.4179403 1.0783149 0.96151215 0.31856966
0.36241388 0.55531365 0.35524788 0.73913294 1.736002 0.60480535 0.40777048 0.50851315
0.42997172 0.88758636 0.37264338 0.8737278 0.8633077 1.3040783 1.0081911 0.7939707
1.6157937 0.6845894 0.8840651 0.8121441 0.42960456 0.8707488 1.030392 0.41266575
1.1975337 0.5520253 0.6541786 1.3310891 0.52017397 0.85529816 0.96866024 0.45870322
00000000: 4ee7 3c3f 6704 bb3f 8519 223f 9b51 033f
00000010: f475 443f 490b 763f ed3e dc3e e355 993f
00000020: da59 763f 87f9 9b3e 19f5 d63f 1ef1 373f
00000030: 46f1 bb3f 4ed7 a93f 6e0f cf3e abc8 433f
00000040: bac1 503f f33a 7b3f 888b 843f bf47 343f
00000050: 1d7d 873f 600e b13f d778 aa3f 00a0 913f
00000060: 14bc 7e3f a1f5 4a3f f6c9 203f a63a 3f3f
00000070: 21f3 c93f b498 563f d862 2e3f 41fd 293f
00000080: 6d97 5e3f f447 663f 69a8 da3f 57b0 613f
00000090: 5341 2b3f 472d db3e 4d2c b63e aca9 0c3f
000000a0: d76f c03f bafd 5e3f 985f 513f 6e28 f63e
000000b0: 1497 503f 2339 fb3e d4bc 573f 15d5 463f
000000c0: 4484 a53f f26c 8a3f fdb8 5f3f c28a 193f
000000d0: abd5 6c3e c11e 693f 8b37 b53f 4957 973f
000000e0: 99c9 883f fa7b 443f c4ea a83f f629 7c3f
000000f0: 8d8b 8a3f cf0c b13f 74be 8a3f 3e63 073f
00000100: 9147 a33f 8eab c93e edd8 273f b86f e13f
00000110: 4bac d63e 94a6 533f 6fb2 d93e 796e 0d3f
00000120: a3d3 a63f f095 023f 4519 6e3f e749 cc3e
00000130: dded 283f 4f7e bc3f 8914 9f3f e4ce 6f3f
00000140: 066f dc3f cca5 833f e73d ed3e e542 163f
00000150: e37a 5e3f 4751 a53e 4c46 a33f d275 083f
00000160: 5af9 2d3f 4261 0b3f 7da9 bf3e e732 ab3f
00000170: fb7c 3e3f f53c 623f 4073 fe3e 6e40 ee3e
00000180: 8890 b93e 500e f53e 0621 ac3f 3740 a53f
00000190: 630d 543f 0e85 753f 24f9 083f c44b 073f
000001a0: 4ece bc3e 8df2 813f 5d0a aa3f 53c8 3d3f
000001b0: 961e f53e 0356 193f 7c7b ea3e 645a 293f
000001c0: 2412 aa3f cceb 2f3f d9cd 3b3f 5f2f 333f
000001d0: 0c9d 0c3f 94f9 193f 3d83 173f d916 923f
000001e0: 7c10 403f 4689 ce3e 9b1a f53e 1cbc 9c3f
000001f0: f26d c33f 787d af3e 0753 923f 0b82 0c3f
00000200: 2e14 1a3f efba 7e3f fcf9 523f 8983 673f
00000210: 20c9 e43e 609c fc3e 2fbe 6b3f f1c3 153f
00000220: 3fef 4a3f 9538 b83f 5285 913f aaaf f83e
00000230: ac63 853f a068 0c3f 27e8 0d3f 0096 c93e
00000240: 5d8f 183f 1f06 423f 91e3 543f 2d34 bf3f
00000250: 64cd 933f e3f2 183f bb7e 323f 8f25 113f
00000260: 00c2 2e3f a94d 543f 24fc 1c3f 2bbf 613f
00000270: 60a6 9a3e 122a c23e e2c7 823f 58d2 883f
00000280: 64e9 d93e fbaa 973f f0d8 2e3f 48de 973f
00000290: f1fb 483f c810 0f3f 8955 233f 77e3 5c3f
000002a0: 7e97 6c3e 9ff7 743f 8ec1 883f 11a6 a33f
000002b0: 05f7 823f 90bd 563f f613 973f 1f24 b63e
000002c0: 711c eb3e f19f c13f 9bfb 583f 3a03 203f
000002d0: f138 353f ecfc 4d3f c49e 473f 1459 9b3f
000002e0: 0c0e 5e3f 187a 953f 8161 953f 3bc4 923e
000002f0: ff7e ab3f c628 8d3f eb90 ab3f a0aa ae3e
00000300: 2312 813f 7ddf 9b3f 54eb 543e d546 9b3f
00000310: 2b63 e63e 0b53 143f 2ec3 ae3f 2e8e a53f
00000320: 5891 023f 321b 4b3f d0c1 1c3f e4e6 c13e
00000330: 01ce 003f afaa 033f dde3 be3e 90ad c33f
00000340: 6a56 d23e ad7e 683f d826 ff3e b239 063f
00000350: 5ccd a93f 8f0f 043f 1cc6 1d3f 866b 583f
00000360: b6f1 403f 3010 823f 4921 2d3f 1c3c a33f
00000370: 117f b53f 3906 8a3f a925 763f 901b a33e
00000380: 508e b93e 0929 0e3f 0de3 b53e d137 3d3f
00000390: 5035 de3f 86d4 1a3f 4bc7 d03e eb2d 023f
000003a0: 4125 dc3e dc38 633f 1dcb be3e a0ac 5f3f
000003b0: bc01 5d3f 0aec a63f 680c 813f aa41 4b3f
000003c0: 54d2 ce3f 4041 2f3f 1752 623f ade8 4f3f
000003d0: 21f5 db3e 65e9 5e3f e3e3 833f ed48 d33e
000003e0: c948 993f 8851 0d3f 4078 273f 2161 aa3f
000003f0: 1f2a 053f d2f4 5a3f 1efa 773f 26db ea3e

bn1.bias f4 [400]
-0.26703393 -0.077749886 -0.43657672 -0.37915465 -0.26693872 -0.12357035 -0.53214294 -0.15900093
-0.08722085 -0.63361734 0.0328001 -0.4262805 -0.029763136 -0.10201369 -0.5333087 -0.14233789
-0.40897346 -0.07942846 -0.41096425 -0.5525384 -0.34075385 -0.17903082 -0.10355698 -0.07361957
-0.11956787 -0.15191369 -0.4977286 -0.27769807 -0.08249166 -0.26754025 -0.19325478 -0.4730964
-0.44497243 -0.11527895 -0.037212033 -0.32699898 -0.42756742 -0.5713338 -0.55480254 -0.5799384
0.0073912973 -0.1668117 -0.2312937 -0.5143493 -0.3809664 -0.22386846 -0.22373086 -0.2875498
-0.10938649 -0.013002606 -0.20800444 -0.33369297 -0.5561686 -0.21344239 -0.17478283 -0.069885835
-0.29688847 -0.25376764 -0.15858114 -0.37802693 -0.017657325 -0.07296728 -0.07206747 -0.68395704
-0.17417131 -0.5431793 -0.54268295 -0.18302287 -0.56212837 -0.21542422 -0.46399355 -0.5073781
-0.31651533 -0.4472934 -0.1488304 -0.5721134 -0.42113423 -0.1665102 -0.19820972 -0.13163845
0.04472884 -0.30151597 -0.46932182 -0.52835387 -0.2075942 -0.6683131 -0.17792934 -0.39700198
-0.22600357 -0.4059472 -0.5493326 0.046723638 -0.500263 -0.24551713 -0.53892684 -0.4520762
-0.64126706 -0.6075269 0.087057196 -0.18905914 -0.4256801 -0.25484437 -0.26271525 -0.33372712
-0.4880393 -0.29220074 -0.23595606 -0.3929165 -0.39989105 -0.5040373 -0.6448448 -0.41493398
-0.2164083 -0.10719179 -0.022324575 -0.5551383 -0.5210428 -0.512207 -0.40967134 -0.13257879
-0.24279419 -0.5378879 -0.4808438 -0.043228555 -0.091940366 -0.6701624 -0.16340987 -0.28653187
-0.4356506 -0.16406761 -0.27375197 -0.101373196 -0.50766176 -0.4896858 -0.13996759 -0.32960722
-0.3567432 -0.11758926 0.026257148 -0.62263465 -0.066278465 -0.46072555 -0.40409896 -0.44207576
-0.21405706 -0.14964058 -0.23797862 -0.027090054 -0.21224287 -0.2874577 -0.3470718 -0.35519692
-0.29734957 -0.3013927 -0.33984566 -0.29249227 -0.4074123 -0.5060535 -0.08018853 -0.07125293
-0.5456061 -0.209608 -0.36229917 -0.020026544 -0.37735444 -0.46041387 -0.46792796 -0.26493654
-0.71941286 -0.32589373 -0.20302194 -0.0943533 -0.03265512 -0.1992541 -0.20012766 -0.63430715
-0.37491876 -0.18539204 -0.32207695 -0.19518298 -0.5401554 -0.1829883 -0.23311824 -0.031998508
-0.43354505 -0.23311102 -0.024242582 -0.5953782 -0.43030185 -0.324836 -0.0300733 -0.65914875
-0.24561955 0.049250733 -0.7666726 -0.00498986 -0.56673265 -0.38113153 -0.18509452 -0.025714463
-0.58789015 -0.006951702 -0.4308241 -0.686345 -0.6141809 -0.60613316 -0.6770623 -0.084321395
-0.50872046 -0.3353858 -0.4177085 -0.6268865 -0.21484144 -0.5499415 -0.34737334 -0.3750338
-0.11749632 -0.18478824 -0.028781954 -0.1544455 -0.016748423 -0.13877247 -0.030741364 -0.6238966
-0.6005468 -0.5078606 -0.6778528 -0.30913907 0.027872618 -0.5821516 -0.63336176 -0.5970143
-0.5933649 -0.13913348 -0.58083904 -0.3799411 -0.2736192 -0.10933122 -0.23102444 -0.34723675
-0.1692119 -0.45635715 -0.50712514 -0.16891484 -0.5874603 -0.10165397 -0.1453024 -0.6031492
-0.15216944 -0.48561063 -0.25779554 -0.11291498 -0.498456 -0.35454646 -0.20792426 -0.61746556
00000000: acb8 88be 553b 9fbd fc86 dfbe 8f20 c2be
00000010: 31ac 88be 7412 fdbd 853a 08bf 24d1 22be
00000020: d8a0 b2bd bf34 22bf 6659 063d 7041 dabe
00000030: d2d1 f3bc 8eec d0bd eb86 08bf 06c1 11be
00000040: f864 d1be 63ab a2bd e869 d2be 2873 0dbf
00000050: 4a77 aebe db53 37be af15 d4bd dbc5 96bd
00000060: 00e0 f4bd 438f 1bbe 48d6 febe 712e 8ebe
00000070: 63f1 a8bd 09fb 88be 95e4 45be b139 f2be
00000080: 6dd3 e3be 5f17 ecbd a56b 18bd 696c a7be
00000090: 1eea dabe ef42 12bf 8a07 0ebf d876 14bf
000000a0: b232 f23b b0d0 2abe 41d8 6cbe 65ac 03bf
000000b0: 070e c3be c63d 65be b419 65be ba39 93be
000000c0: 0606 e0bd e208 55bc 1eff 54be ced9 aabe
000000d0: 1161 0ebf a490 5abe 45fa 32be 4e20 8fbd
000000e0: c401 98be d5ed 81be 1863 22be bf8c c1be
000000f0: 18a6 90bc df6f 95bd 1c98 93bd cf17 2fbf
00000100: f759 32be cc0d 0bbf 45ed 0abf 596a 3bbe
00000110: a5e7 0fbf 2b98 5cbe 9090 edbe 88e3 01bf
00000120: 4c0e a2be a403 e5be ff66 18be 0676 12bf
00000130: e89e d7be a681 2abe 7df7 4abe 3bcc 06be
00000140: 9735 373d 4d60 9abe f34a f0be 3342 07bf
00000150: 9393 54be 9116 2bbf 1c33 36be d843 cbbe
00000160: 7b6d 67be 50d8 cfbe 10a1 0cbf 4961 3f3d
00000170: 3c11 00bf d868 7bbe 1cf7 09bf 8876 e7be
00000180: 142a 24bf e286 1bbf 0b4b b23d b898 41be
00000190: bef2 d9be f67a 82be 9d82 86be 48de aabe
000001a0: 4ae0 f9be 569b 95be 779e 71be 5a2c c9be
000001b0: 85be ccbe 9708 01bf 8c14 25bf 3a72 d4be
000001c0: 239a 5dbe 5f87 dbbd 07e2 b6bc 8b1d 0ebf
000001d0: 1063 05bf ff1f 03bf 71c0 d1be bcc2 07be
000001e0: 0a9f 78be 05b3 09bf 2931 f6be 6d10 31bd
000001f0: 3b4b bcbd c38f 2bbf eb54 27be 4eb4 92be
00000200: 980d dfbe 5701 28be 3829 8cbe c09c cfbd
00000210: 1ff6 01bf 19b8 fabe aa53 0fbe 47c2 a8be
00000220: 0ba7 b6be a3d2 f0bd 3b19 d73c fc64 1fbf
00000230: 01bd 87bd 38e4 ebbe 0fe6 cebe c157 e2be
00000240: c631 5bbe 613b 19be abb0 73be f6eb ddbc
00000250: 3256 59be a82d 93be 65b3 b1be 5fdc b5be
00000260: 343e 98be 2550 9abe 4000 aebe 8cc1 95be
00000270: 5898 d0be b98c 01bf e239 a4bd 0eed 91bd
00000280: d7ac 0bbf 7ba3 56be 477f b9be b50e a4bc
00000290: 9a34 c1be 5ebb ebbe 4194 efbe c3a5 87be
000002a0: 712b 38bf 8bdb a6be fce4 4fbe 4e3c c1bd
000002b0: 60c1 05bd 4409 4cbe 44ee 4cbe f461 22bf
000002c0: 5af5 bfbe 69d7 3dbe 45e7 a4be 0cde 47be
000002d0: a047 0abf 4961 3bbe 8cb6 6ebe de10 03bd
000002e0: 9ef9 ddbe a8b4 6ebe 6198 c6bc b56a 18bf
000002f0: 8650 dcbe e750 a6be 485c f6bc f9bd 28bf
00000300: b183 7bbe 23bb 493d a844 44bf fb81 a3bb
00000310: 6415 11bf ac23 c3be 6b89 3dbe 23a7 d2bc
00000320: f87f 16bf 1acb e3bb fa94 dcbe 4eb4 2fbf
00000330: f63a 1dbf 8b2b 1bbf f453 2dbf b2b0 acbd
00000340: 813b 02bf b0b7 abbe e3dd d5be a27b 20bf
00000350: 65ff 5bbe f7c8 0cbf ebda b1be 6e04 c0be
00000360: e9a1 f0bd 2139 3dbe 22c8 ebbc f626 1ebe
00000370: fd33 89bc 5f1a 0ebe 50d5 fbbc b0b7 1fbf
00000380: 6fbd 19bf 2703 02bf c387 2dbf 7a47 9ebe
00000390: 1e55 e43c e307 15bf ff23 22bf eed5 18bf
000003a0: c3e6 17bf 0279 0ebe deb1 14bf a487 c2be
000003b0: d117 8cbe 0ce9 dfbd ac91 6cbe 04c9 b1be
000003c0: e245 2dbe a5a7 e9be f4d2 01bf 03f8 2cbe
000003d0: cc63 16bf f52f d0bd 27ca 14be fc67 1abf
000003e0: 4ed2 1bbe f5a1 f8be c7fd 83be f83f e7bd
000003f0: a035 ffbe 1d87 b5be 19ea 54be 3912 1ebf

fc2.weight f4 [300, 400]
0.045358695 0.43937567 -0.06012183 -0.20627582 0.027483614 0.05099304 -0.10631852 0.26054087
-0.2698054 0.12594518 0.34393537 0.00499724 -0.41069657 -0.10699364 0.020540508 -0.075685166
-0.15208802 -0.11592079 -0.2661392 0.053206835 -0.3137059 0.15101168 -0.25174484 -0.17803155
-0.07506092 0.069577135 0.08175076 -0.16982003 0.5741274 -0.053288117 0.058620352 0.22491573
-0.1610294 0.25882947 -0.05059916 0.046139408 0.08203059 0.22695288 0.02785855 0.02946912
0.31759378 0.057821643 0.18093185 0.009741481 0.05005083 -0.022078171 -0.14534745 -0.0101866275
-0.36894095 0.21615967 -0.31994018 0.32287285 0.067816556 0.08441599 -0.49754715 -0.33980644
-0.34714982 -0.0034598233 0.5318328 0.24464655 0.380699 -0.3568892 0.06249767 0.18282601
-0.42267966 -0.06663028 0.11744328 0.17655516 0.054067418 0.102364905 -0.15436387 0.23450689
-0.07671277 -0.13956663 -0.16877611 -0.0004690156 -0.2676806 -0.41831657 0.03467512 -0.017354859
1.0089599 -0.09874491 0.040827755 -0.14025849 -0.059804488 0.15240985 0.04344792 -0.024256365
0.06861763 0.05284625 -0.1666744 -0.08653137 0.24663436 0.23435166 0.025584942 0.052731056
-0.0069947797 0.116303064 0.51567507 0.065824494 -0.08240065 -0.15671347 -0.32175586 -0.09554874
0.068370655 0.020913446 0.18852687 0.0025546404 0.073667675 0.1487703 0.037410796 0.27992728
0.12685202 0.029940426 0.17422041 0.0026753107 -0.08497061 0.028544018 0.112945564 -0.45208937
-0.21955413 0.098811224 0.13731138 0.2543618 -0.08675831 0.16731782 0.11843946 0.0074408534
0.044350263 0.2809029 0.37770757 0.24956332 -0.003243776 -0.06898651 0.12859048 -0.056913443
-0.37780175 0.26859975 0.5620322 -0.036832564 -0.20020436 -0.34138274 0.15630572 0.057659507
0.07281361 -0.02738002 -0.17094538 -0.21204683 -0.0014422473 0.10606251 0.20342304 0.05099517
-0.3655545 0.054177664 0.10503327 0.106836654 0.03931695 0.17725906 0.006197987 -0.20618868
0.0821125 -0.055967517 -0.23542234 0.4342581 -0.043545496 0.09704597 0.16797842 -0.020654842
-0.07395276 0.21222277 -0.3071075 0.26836953 0.15720361 -0.12474795 0.3315199 -0.041849323
-0.039872013 -0.7270938 0.07501606 0.0070937667 0.09149813 -0.124733575 0.1060871 0.1010548
0.012818275 -0.18607016 0.13079283 0.00033800377 0.07483456 0.013007243 0.31676015 0.23128472
0.067692 0.05888126 -0.0034852726 0.08047133 0.1874813 -0.034537833 -0.41164663 -0.7060326
0.0644512 -0.094177715 0.04292426 0.1465939 0.2091901 0.11521757 0.29699203 0.35081607
0.038714465 0.04150222 0.015947936 -0.033467956 0.27573505 0.20444748 0.03514898 0.30941033
-0.02686823 0.04542274 0.011539904 -0.29851225 0.22822678 0.10182633 0.011699751 0.035662074
-0.025545718 -0.018667247 0.055368155 -0.04757134 0.7573809 0.2016505 0.20870608 0.008761997
0.1656494 -0.0153828645 0.08691379 -0.02575599 0.14898428 -0.37305695 -0.13438255 0.21454878
-0.22643182 0.15794744 -0.1388399 -0.10332129 0.032392148 0.15941 0.071878664 -0.07831569
-0.0806924 0.034546465 0.07561209 -0.23838697 0.13889438 -0.4112324 0.09960328 0.14204346
00000000: 0aca 393d d9f5 e03e 4f42 76bd f839 53be
00000010: 5125 e13c 14de 503d 86bd d9bd 9d65 853e
00000020: ef23 8abe c6f7 003e 4c18 b03e e3bf a33b
00000030: d246 d2be 7b1f dbbd 9144 a83c d300 9bbd
00000040: f6bc 1bbe e167 edbd 6643 88be 69ef 593d
00000050: 0f9e a0be cea2 1a3e b3e4 80be e74d 36be
00000060: 8ab9 99bd 757e 8e3d f16c a73d 4de5 2dbe
00000070: 03fa 123f a444 5abd e51b 703d 4f50 663e
00000080: e4e4 24be 4c85 843e 1141 4fbd adfc 3c3d
00000090: a7ff a73d 5666 683e 9d37 e43c 3969 f13c
000000a0: a79b a23e 63d6 6c3d 3346 393e bc9a 1f3c
000000b0: 1902 4d3d 48dd b4bc f6d5 14be d0e5 26bc
000000c0: d4e5 bcbe f658 5d3e 33cf a3be 974f a53e
000000d0: 68e3 8a3d 4ae2 ac3d 80be febe 1cfb adbe
000000e0: 9fbd b1be 34be 62bb 3226 083f a084 7a3e
000000f0: fbea c23e 2eba b6be 8ffd 7f3d be36 3b3e
00000100: 7869 d8be 7575 88bd 1a86 f03d e0ca 343e
00000110: cc75 5d3d b1a4 d13d 9011 1ebe 9322 703e
00000120: 961b 9dbd 8eea 0ebe a5d3 2cbe 35e6 f5b9
00000130: 6e0d 89be 972d d6be 8007 0e3d c72b 8ebc
00000140: 9925 813f c53a cabd 013b 273d ec9f 0fbe
00000150: 8df5 74bd 5411 1c3e 72f6 313d 49b5 c6bc
00000160: 6687 8c3d 4f75 583d b2ac 2abe 5c37 b1bd
00000170: b88d 7c3e e2f9 6f3e 8397 d13c 85fc 573d
00000180: 7734 e5bb 4d30 ee3d 4803 043f fece 863d
00000190: acc1 a8bd 7f79 20be 2fbd a4be 0faf c3bd
000001a0: ea05 8c3d ad52 ab3c 300d 413e c16b 273b
000001b0: 14df 963d 3e57 183e 103c 193d a152 8f3e
000001c0: 7fe5 013e a045 f53c d666 323e 4454 2f3b
000001d0: 1205 aebd 25d5 e93c 0150 e73d 4278 e7be
000001e0: ccd2 60be 8a5d ca3d 5b9b 0c3e b63b 823e
000001f0: 57ae b1bd 5d55 2b3e 6390 f23d 67d2 f33b
00000200: 9fa8 353d 81d2 8f3e e362 c13e 878d 7f3e
00000210: 8895 54bb cd48 8dbd 39ad 033e 121e 69bd
00000220: 3b6f c1be e885 893e 58e1 0f3f bedd 16bd
00000230: 5f02 4dbe b8c9 aebe 9b0e 203e 602c 6c3d
00000240: 4d1f 953d 104c e0bc 4e0c 2fbe ce22 59be
00000250: ca09 bdba 4d37 d93d 214e 503e 50e0 503d
00000260: f629 bbbe 66e9 5d3d af1b d73d 2dcd da3d
00000270: cf0a 213d 6683 353e 7c18 cb3b 2023 53be
00000280: 992a a83d 323e 65bd 8e12 71be 1457 de3e
00000290: c35c 32bd 0ac0 c63d 8902 2c3e 5834 a9bc
000002a0: 8b74 97bd ed50 593e 323d 9dbe bb67 893e
000002b0: fcf9 203e da7b ffbd fabc a93e 326a 2bbd
000002c0: d650 23bd d222 3abf 05a2 993d d472 e83b
000002d0: 5f63 bb3d 5174 ffbd 3244 d93d d2f5 ce3d
000002e0: be03 523c 2d89 3ebe 8eee 053e 1936 b139
000002f0: dd42 993d 551c 553c 632e a23e e7d5 6c3e
00000300: 1aa2 8a3d 7a2d 713d 2c69 64bb 27ce a43d
00000310: 19fb 3f3e 8b77 0dbd 59c3 d2be 8dbe 34bf
00000320: fefe 833d 3fe0 c0bd 59d1 2f3d b61c 163e
00000330: ee35 563e 30f7 eb3d 570f 983e 2a9e b33e
00000340: 0f93 1e3d 3bfe 293d 3fa5 823c b215 09bd
00000350: 252d 8d3e ae5a 513e 60f8 0f3d 086b 9e3e
00000360: c31a dcbc 320d 3a3d de11 3d3c 99d6 98be
00000370: 48b4 693e 538a d03d 50b0 3f3c 6512 123d
00000380: 4145 d1bc 0eec 98bc b8c9 623d 2ada 42bd
00000390: b7e3 413f 787d 4e3e 0cb7 553e 7b8e 0f3c
000003a0: ff9f 293e 6908 7cbc dbff b13d 3afe d2bc
000003b0: 568f 183e 5201 bfbe 949b 09be adb2 5b3e
000003c0: bedd 67be f9bc 213e 0c2c 0ebe 1d9a d3bd
000003d0: a1ad 043d 603c 233e 1f35 933d fa63 a0bd
000003e0: 0f42 a5bd 9880 0d3d 83da 9a3d b71b 74be
000003f0: 543a 0e3e 0e8d d2be cefc cb3d d773 113e

fc2.bias f4 [300]
-0.10002716 0.08291758 0.03312682 0.106123365 0.11107094 -0.124154344 -0.019638518 -0.064955965
-0.03742474 0.034087233 0.073264964 0.09065522 0.017505819 -0.09956042 0.024246057 0.014125266
-0.068946965 0.030363688 -0.074106105 -0.04175346 0.049399216 0.068045154 0.020859744 0.06183142
0.008716787 0.1044092 0.008537361 -0.05924778 0.025761342 -0.048403822 -0.110911444 -0.08018981
-0.06759352 -0.1342538 -0.0033820465 0.10137367 0.107184276 0.064423196 -0.016305503 0.013133415
0.07422988 -0.1617506 -0.07026003 -0.12970294 -0.029196601 -0.037694935 0.021024855 0.15507552
0.002622233 -0.04640232 -0.08330111 -0.04099254 -0.056003418 0.13654236 -0.03188745 0.050422747
-0.028741596 0.055836987 0.05707928 0.0452001 -0.04721242 0.04331938 -0.058330387 -0.028978804
-0.026185352 -0.051870923 0.010551223 0.04528933 -0.018678388 -0.014629101 0.020005189 -0.042479113
-0.019559735 0.043202672 -0.06959517 0.07773598 0.13533314 -0.08372814 0.05109895 -0.017604027
0.032548167 0.085602 -0.041604504 -0.0948209 -0.026490474 0.07291472 0.010963882 0.022570888
-0.030216645 -0.10789995 -0.03362887 0.048269127 -0.020058824 0.10450523 0.014205202 -0.051793285
0.021580452 0.09629604 0.09477577 -0.078252554 -0.06431348 0.01788423 -0.10183702 0.021780785
-0.020901766 -0.029485498 0.08590074 0.1526189 0.0262475 -0.104148746 0.03384771 -0.0497602
0.038092747 -0.13117872 -0.10332964 -0.028679352 -0.0011393148 -0.022572313 -0.045545682 -0.021023965
0.020270266 0.09883248 -0.06502628 -0.054077115 -0.07065682 -0.048368484 -0.010327745 0.042598702
0.020953614 0.02988579 -0.10761401 -0.05929954 -0.007436823 -0.010022914 -0.07072107 0.19681036
-0.028674966 0.077226 0.044989556 -0.046511773 -0.085892595 0.056866717 -0.041109316 -0.03032875
0.12506272 0.013296328 -0.0034591535 -0.01727358 -0.051796023 -0.02783576 -0.043226164 -0.05215949
-0.037376825 -0.057712752 0.050142866 -0.016187113 0.0069983522 0.11591598 0.020904085 0.07097667
-0.03629636 -0.03358212 -0.010891733 -0.094243445 -0.012806327 -0.041046593 -0.02963735 -0.022626324
0.13464333 0.043267824 0.09305615 0.014719399 -0.03232388 0.022837782 0.022284975 0.020470738
-0.0013784701 -0.00737299 -0.06650507 -0.054729912 -0.076747924 0.12271904 -0.115017265 0.058143184
0.011095661 0.1192454 0.03305643 0.0059362585 0.08040827 -0.11024442 0.077827595 0.08081964
-0.031899024 0.006184773 0.20992759 0.035358526 -0.02060813 -0.14977556 0.09887116 0.02649572
0.049834006 -0.12291042 0.030008007 -0.12877475 0.009181755 0.016994957 -0.002463716 0.071322925
0.05165103 -0.0800752 0.104989596 -0.048634842 -0.014913114 0.08131035 0.032598104 -0.095060825
-0.16067325 0.048143238 0.06524307 -0.10920199 -0.031969294 -0.013003705 -0.00019622064 -0.016870787
0.088640034 0.03770347 -0.014503958 0.10623651 0.01424393 0.056962088 -0.12524235 -0.021006549
-0.015217898 -0.0026846356 -0.032783106 0.00999393 0.010917145 0.029561356 -0.058777772 -0.18078971
-0.06529398 -0.05412841 0.03037536 0.08616226 0.013658651 0.03433544 -0.07127799 -0.05244076
-0.01563747 0.020696888 0.12629011 0.026065174 0.041898634 0.057121824 -0.001748152 -0.007813359
00000000: 0adb ccbd b1d0 a93d fdaf 073d 3557 d93d
00000010: 2979 e33d a244 febd f5e0 a0bc a207 85bd
00000020: af4a 19bd 0e9f 0b3d f10b 963d 72a9 b93d
00000030: 5d68 8f3c 55e6 cbbd ab9f c63c a96d 673c
00000040: 1134 8dbd 45bd f83c f1c4 97bd ad05 2bbd
00000050: d556 4a3d 425b 8b3d 0ee2 aa3c f142 7d3d
00000060: dbd0 0e3c 7ed4 d53d 4ae0 0b3c cdad 72bd
00000070: 7309 d33c 1643 46bd 8a25 e3bd 8e3a a4bd
00000080: 796e 8abd d479 09be 53a5 5dbb 009d cf3d
00000090: 6e83 db3d 4ff0 833d 1e93 85bc 892d 573c
000000a0: d605 983d f3a1 25be 7ee4 8fbd d9d0 04be
000000b0: b62d efbc 0166 1abd 513c ac3c 1ecc 1e3e
000000c0: c5d9 2b3b 5c10 3ebd c699 aabd cbe7 27bd
000000d0: d763 65bd c3d1 0b3e 6a9c 02bd 1588 4e3d
000000e0: 7f73 ebbc 53b5 643d f7cb 693d bd23 393d
000000f0: cf61 41bd aa6f 313d d8eb 6ebd f564 edbc
00000100: aa82 d6bc 9b76 54bd 09df 2c3c 4e81 393d
00000110: 6b03 99bc e6ae 6fbc ece1 a33c 94fe 2dbd
00000120: bd3b a0bc 49f5 303d ea87 8ebd 0b34 9f3d
00000130: c594 0a3e a979 abbd 224d 513d 5236 90bc
00000140: 3a51 053d 1a50 af3d 7c69 2abd 7631 c2bd
00000150: 8d02 d9bc 5054 953d dba1 333c 95e6 b83c
00000160: e688 f7bc a6fa dcbd 6dbe 09bd d9b5 453d
00000170: 6752 a4bc d706 d63d f0bc 683c 3225 54bd
00000180: 7dc9 b03c dc36 c53d cd19 c23d e042 a0bd
00000190: c9b6 83bd f381 923c ed8f d0bd 9e6d b23c
000001a0: 2e3a abbc 928b f1bc baec af3d 2148 1c3e
000001b0: ff04 d73c f04b d5bd e5a3 0a3d 5ad1 4bbd
000001c0: 2407 1c3d b753 06be 7e9e d3bd f6f0 eabc
000001d0: 1055 95ba 92e9 b8bc 1c8e 3abd 733a acbc
000001e0: d40d a63c af68 ca3d 802c 85bd f77f 5dbd
000001f0: 86b4 90bd 081e 46bd b435 29bc fa7b 2e3d
00000200: eaa6 ab3c 0bd3 f43c bc64 dcbd 13e4 72bd
00000210: 98b0 f3bb 2637 24bc 35d6 90bd a888 493e
00000220: c3e7 eabc aa28 9e3d f846 383d 2183 3ebd
00000230: 75e8 afbd 13ed 683d 3e62 28bd 0074 f8bc
00000240: 7110 003e d7d8 593c f7b2 62bb 5381 8dbc
00000250: 1128 54bd d207 e4bc eb0d 31bd 30a5 55bd
00000260: 7118 19bd 3564 6cbd 9b62 4d3d d69a 84bc
00000270: 6f52 e53b 5b65 ed3d 0b3f ab3c 375c 913d
00000280: 7eab 14bd 688d 09bd 3d73 32bc b502 c1bd
00000290: a1d1 51bc 7920 28bd 07ca f2bc d75a b9bc
000002a0: f1df 093e 9a39 313d 3994 be3d a229 713c
000002b0: 0b66 04bd 4d16 bb3c fb8e b63c 40b2 a73c
000002c0: c8ad b4ba 1f99 f1bb cf33 88bd 792c 60bd
000002d0: 042e 9dbd 1f54 fb3d 2c8e ebbd 8c27 6e3d
000002e0: 93ca 353c ef36 f43d 2e66 073d f284 c23b
000002f0: 17ad a43d d4c7 e1bd 1364 9f3d c484 a53d
00000300: 8da8 02bd a3a9 ca3b 42f7 563e 1ad4 103d
00000310: 62d2 a8bc c45e 19be f67c ca3d 8d0d d93c
00000320: be1e 4c3d 75b8 fbbd 5ad3 f53c 87dd 03be
00000330: 126f 163c 0239 8b3c 4c76 21bb c111 923d
00000340: 0890 533d 77fe a3bd c904 d73d 5435 47bd
00000350: 2256 74bc 0a86 a63d 9785 053d 40af c2bd
00000360: 8787 24be d831 453d 299e 853d 4ba5 dfbd
00000370: 3cf2 02bd 7e0d 55bc 94c0 4db9 9b34 8abc
00000380: e888 b53d f46e 1a3d 02a2 6dbc 8792 d93d
00000390: 5f5f 693c 1451 693d 883f 00be ed15 acbc
000003a0: 7e54 79bc b6f0 2fbb 9447 06bd 95bd 233c
000003b0: d3dd 323c a82a f23c f6c0 70bd f020 39be
000003c0: dab8 85bd c0b5 5dbd bfd5 f83c d775 b03d
000003d0: 89c8 5f3c 51a3 0c3d 32fa 91bd 1fcc 56bd
000003e0: 271a 80bc 858c a93c 3252 013e a286 d53c
000003f0: e79d 2b3d 93f8 693d 3f22 e5ba 9a03 00bc

bn2.weight f4 [300]
1.671005 0.9594976 0.43648323 0.9804103 1.0266567 2.1954901 1.0626147 1.9447948
1.4512104 1.8900055 1.8404928 1.5517205 1.8586624 1.5793966 1.0546814 1.6132003
0.32173946 0.7347599 1.6400126 1.0524035 0.31764388 1.5788578 1.0583339 0.9432125
0.63961655 0.6617833 1.0474759 1.7204144 1.8093684 0.8513029 1.869822 2.3976538
0.31317842 1.8593142 2.0664597 1.5293702 1.3285848 1.0448773 1.1103637 1.7043524
1.079062 2.0768673 1.6896515 1.338859 0.9197975 1.8503276 1.4689592 0.94488204
1.8970037 1.8173299 1.5469617 1.6632658 1.8447291 1.3749536 0.479066 0.63834167
1.7378602 1.0780362 1.2257904 0.3502861 1.3771683 1.0391109 2.0542927 1.0165745
0.34676936 1.0132127 2.3322322 1.0810918 0.9635286 0.8504453 0.34203073 1.9812356
2.0821524 0.9613567 2.5352464 1.0651002 1.4565308 1.4648154 1.8615576 1.774403
1.1043216 1.1120759 1.8028784 1.5199192 1.830229 1.2810129 2.1130176 0.687548
0.17888328 1.4439844 0.57806206 1.1425254 1.2483371 1.6491549 1.1473279 1.6152892
0.88939834 1.7618649 1.732964 1.4837677 0.3605382 1.386718 1.4400196 0.9489691
1.8521448 1.7234671 1.1849519 1.1205868 1.5122527 1.5449126 0.3642746 1.6171947
1.0517279 1.6228148 2.4535286 0.6764704 1.2914705 2.0725706 1.0691836 2.202945
0.52320564 1.2763137 1.0877827 1.9215455 0.8935532 0.17527501 1.6847147 0.9844905
0.7992692 1.8608303 1.6721973 0.24346122 1.6911967 0.34063002 2.1474254 0.9792978
0.9459597 1.0710106 1.2927867 1.585964 1.9531001 1.7817336 1.1433704 0.36013547
1.0259949 0.32575846 0.37018615 1.9851412 1.1073893 0.31193 0.3630079 1.8678552
1.0491022 0.4065238 1.4440566 0.9203915 1.2091775 1.9592983 0.8115597 1.7542077
1.2511299 0.48256284 1.5832053 1.6690962 1.6434437 1.7354356 0.36519027 1.0309708
1.1051452 0.326963 2.4885156 0.4520823 0.3944911 0.85462725 1.8652283 1.3783481
1.4639434 0.81186795 0.3666358 0.7804888 2.0227914 1.426372 1.5501556 0.5337909
1.6790966 1.725323 1.6751727 0.8602229 1.3139035 1.7312906 1.2232088 2.816474
0.71809274 1.6623908 1.7140114 1.1333028 2.0695243 1.7630293 1.1461979 1.7628627
2.7345972 2.559477 0.5341018 2.055651 1.858323 1.2050561 0.76301605 1.4754514
1.1814731 2.2692738 1.3854991 2.0843573 1.7194519 1.5641718 1.0901765 1.4726031
2.4073675 0.7977658 1.1210479 1.632162 0.40954983 1.9289106 0.36715442 2.1680596
1.4860146 0.8769188 0.77781606 1.2920506 0.7081621 1.6249123 2.0658863 0.79713327
2.08029 2.2903197 1.8829534 1.6138755 1.6781784 1.0256982 1.8249308 2.1159716
0.5613783 2.2118883 1.2453382 1.7199808 0.8801594 2.130423 1.5640408 0.783507
0.87185264 1.0327379 0.98224795 0.7792175 1.3277386 1.0939257 0.69717956 0.53766775
00000000: 7ee3 d53f a2a1 753f bb7a df3e 2bfc 7a3f
00000010: 7d69 833f e982 0c40 c203 883f 09ef f83f
00000020: 43c1 b93f b3eb f13f 4595 eb3f c79e c63f
00000030: a6e8 ed3f ab29 ca3f cdff 863f 597d ce3f
00000040: 09bb a43e 3a19 3c3f efeb d13f 28b5 863f
00000050: 38a2 a23e 0318 ca3f 7c77 873f 6076 713f
00000060: e9bd 233f a16a 293f b113 863f 8a36 dc3f
00000070: 6299 e73f fdee 593f 5456 ef3f 2973 1940
00000080: ec58 a03e 02fe ed3f e040 0440 67c2 c33f
00000090: 110f aa3f 8abe 853f 6620 8e3f 3828 da3f
000000a0: b41e 8a3f 65eb 0440 8046 d83f bb5f ab3f
000000b0: d977 6b3f 89d7 ec3f db06 bc3f cae3 713f
000000c0: 04d1 f23f 449e e83f d702 c63f e5e5 d43f
000000d0: 1520 ec3f 7bfe af3f 2448 f53e 5c6a 233f
000000e0: 3472 de3f 17fd 893f b3e6 9c3f b358 b33e
000000f0: 0d47 b03f 9601 853f 8879 0340 1d1f 823f
00000100: c18b b13e f4b0 813f 4b43 1540 3761 8a3f
00000110: cfa9 763f c8b6 593f a71e af3e 2199 fd3f
00000120: fc41 0540 791b 763f 7a41 2240 3455 883f
00000130: 9a6f ba3f 127f bb3f 8547 ee3f a31f e33f
00000140: 695a 8d3f 8158 8e3f b8c4 e63f b68c c23f
00000150: f244 ea3f 3bf8 a33f ae3b 0740 2503 303f
00000160: 2e2d 373e 7bd4 b83f e0fb 133f 463e 923f
00000170: 83c9 9f3f 8217 d33f a4db 923f ccc1 ce3f
00000180: 9caf 633f ca84 e13f c4d1 dd3f 1aec bd3f
00000190: 7798 b83e fa7f b13f 9052 b83f a4ef 723f
000001a0: 1513 ed3f 929a dc3f 81ac 973f 636f 8f3f
000001b0: 7f91 c13f b2bf c53f 3382 ba3e 3c00 cf3f
000001c0: 059f 863f 65b8 cf3f 9d06 1d40 2a2d 2d3f
000001d0: e84e a53f ffa4 0440 02db 883f 0dfd 0c40
000001e0: cef0 053f 3f5e a33f 773c 8b3f 34f5 f53f
000001f0: e7bf 643f 4b7b 333e bba4 d73f 9207 7c3f
00000200: e89c 4c3f b02f ee3f 900a d63f e64d 793e
00000210: 2279 d83f 0f67 ae3e 6b6f 0940 43b3 7a3f
00000220: 6a2a 723f e016 893f 097a a53f de00 cb3f
00000230: 2fff f93f d90f e43f f659 923f ad63 b83e
00000240: cd53 833f d0c9 a63e 0a89 bd3e 1b19 fe3f
00000250: efbe 8d3f 4ab5 9f3e 2cdc b93e e115 ef3f
00000260: fb48 863f e323 d03e d9d6 b83f c79e 6b3f
00000270: 54c6 9a3f 49ca fa3f 60c2 4f3f e189 e03f
00000280: 0625 a03f 7a12 f73e 79a6 ca3f f2a4 d53f
00000290: 5d5c d23f c122 de3f 38fa ba3e daf6 833f
000002a0: 6675 8d3f b267 a73e d743 1f40 5577 e73e
000002b0: bdfa c93e dac8 5a3f cdbf ee3f b66d b03f
000002c0: 7f62 bb3f 94d6 4f3f b0b7 bb3e 1dce 473f
000002d0: 6a75 0140 5c93 b63f 806b c63f 85a6 083f
000002e0: a3ec d63f 62d7 dc3f 0f6c d63f 9137 5c3f
000002f0: fd2d a83f ee9a dd3f 1b92 9c3f 1c41 3440
00000300: edd4 373f 39c9 d43f ba64 db3f 1110 913f
00000310: 1673 0440 f2aa e13f 9db6 923f 7ca5 e13f
00000320: a403 2f40 79ce 2340 e5ba 083f c98f 0340
00000330: 87dd ed3f 473f 9a3f 0555 433f 97db bc3f
00000340: 833a 973f c83b 1140 0958 b13f 1c66 0540
00000350: 0017 dc3f c836 c83f e78a 8b3f 427e bc3f
00000360: 4f12 1a40 613a 4c3f 7f7e 8f3f afea d03f
00000370: 84b0 d13e 8be6 f63f aafb bb3e 7dc1 0a40
00000380: ba35 be3f c07d 603f f41e 473f ea61 a53f
00000390: 1d4a 353f 20fd cf3f 7b37 0440 ed10 4c3f
000003a0: 7923 0540 9994 1240 9e04 f13f 7993 ce3f
000003b0: 8dce d63f 144a 833f 5597 e93f 146c 0740
000003c0: 7db6 0f3f 948f 0d40 3e67 9f3f 5528 dc3f
000003d0: 2052 613f da58 0840 7d32 c83f ea93 483f
000003e0: bc31 5f3f c130 843f 9a74 7b3f cc7a 473f
000003f0: 57f3 a93f c205 8c3f 5c7a 323f 98a4 093f

bn2.bias f4 [300]
0.070408456 -0.5198498 -0.5359247 0.034134746 -0.23729396 -0.009458784 0.02785743 0.17357606
0.17510253 -0.13133717 -0.21837361 -0.036978852 -0.031900056 -0.01714142 -0.10663295 0.13416804
-0.6117718 -0.07647685 0.29473805 -0.09672469 -0.4309357 0.19915764 -0.11909821 -0.0550363
-0.23993397 0.012632995 -0.13615209 0.26286948 -0.1513153 -0.102583066 0.1337206 0.12437184
-0.4894057 0.069932036 0.15295169 -0.0020152603 -0.09751705 -0.09054935 0.05654234 0.17589812
-0.44418284 -0.028311921 0.012562419 -0.3024998 -0.040054917 -0.009384071 0.23651175 0.11147159
-0.12053831 0.040475313 0.24025209 0.24795467 0.1520108 0.05072024 -0.42078325 -0.48019856
0.22485529 -0.01642953 0.24153028 -0.5523336 0.089013234 -0.06493033 -0.14364251 -0.0026694697
-0.54011446 -0.5713779 0.010606446 0.15541226 -0.10459874 -0.5002668 -0.5260476 0.10594054
0.28132492 0.015764443 -0.013376388 -0.1382872 -0.29422188 0.22300412 0.11786381 -0.08938898
-0.13371927 -0.04029991 0.069522716 0.14353448 -0.013353791 -0.04212465 0.05245312 -0.22816132
-0.4547148 0.3699014 -0.3640572 -0.39459604 0.06953559 -0.09660726 -0.04634902 0.1511848
-0.23574542 -0.1547373 -0.18119459 0.2779739 -0.45784408 0.045134477 0.11954763 0.07356221
0.008739659 0.24612947 -0.01330312 -0.2689397 -0.015955428 0.03372548 -0.5817777 0.11062805
-0.08143517 0.2243117 0.11712908 -0.23108855 -0.11930931 0.047102224 -0.09997787 0.066740446
-0.46840668 0.030365285 -0.10607168 -0.014944771 -0.094542876 -0.51934963 -0.032631 -0.17493886
-0.09508851 -0.28132784 0.30433238 -0.50456655 -0.47761628 -0.45429757 0.07759903 -0.11428221
-0.051140517 -0.50739896 0.002167647 0.0930775 0.25636816 0.08248355 -0.076804794 -0.5115399
-0.42365766 -0.4117691 -0.57657766 0.121394046 -0.012211005 -0.54303515 -0.5401091 0.034631226
-0.120813936 -0.5753413 -0.013844228 -0.0077276137 0.134659 0.14063695 -0.0145480735 -0.1510033
0.033378746 -0.64410925 0.27775633 0.26939914 0.13290976 0.34503654 -0.53306895 0.003601976
-0.366425 -0.14184803 0.0688739 -0.44067055 -0.5193808 0.037003197 0.1452548 -0.024919517
0.16159761 -0.1055692 -0.4157078 -0.16566877 -0.046770718 -0.009526507 0.29176417 -0.028993793
0.14188008 -0.12594849 0.22915986 -0.09950443 -0.010985451 0.34962353 -0.40903866 0.20609438
-0.24860243 0.12956454 0.050783973 -0.04603488 -0.097378656 0.039742764 -0.4095967 0.016572319
-0.21023619 -0.114177465 -0.37105355 -0.05428826 -0.03483899 -0.04657718 -0.095404916 -0.11399307
-0.025403468 0.082462974 0.05091734 0.021858143 0.11743409 0.10080191 -0.07411786 0.09740553
-0.34224144 -0.09900767 -0.25891095 0.20122541 -0.5399611 0.07787761 -0.56461227 0.0356507
0.047224723 -0.13767216 -0.23020342 -0.0039687287 -0.1801185 0.2782936 0.047797535 -0.372001
0.06185713 0.083859034 -0.091592915 0.09452963 0.24577357 -0.1094401 0.13778621 -0.06310382
-0.28631237 0.08889383 0.0077184867 -0.34239814 -0.10335477 -0.119917035 0.14571834 -0.12922257
0.06405919 -0.5759016 0.20384164 -0.12110898 0.30168462 -0.07894013 0.042922176 -0.23934107
00000000: 4f32 903d e014 05bf 5c32 09bf e0d0 0b3d
00000010: 30fd 72be 04f9 1abc 4435 e43c ecbd 313e
00000020: 144e 333e 407d 06be 559d 5fbe 2377 17bd
00000030: a2a9 02bd 2a6c 8cbc 6062 dabd 5963 093e
00000040: 149d 1cbf e59f 9cbd e8e7 963e 9817 c6bd
00000050: 9ba3 dcbe fbef 4b3e c3e9 f3bd be6d 61bd
00000060: 40b1 75be 9ffa 4e3c 746b 0bbe d496 863e
00000070: 66f2 1abe 1217 d2bd 0eee 083e aab6 fe3d
00000080: 6293 fabe 8738 8f3d 5e9f 1c3e 7512 04bb
00000090: 05b7 c7bd f071 b9bd f198 673d a31e 343e
000000a0: ef6b e3be 67ee e7bc 9bd2 4d3c 41e1 9abe
000000b0: a010 24bd a6bf 19bc 2330 723e 384b e43d
000000c0: cadc f6bd 71c9 253d a504 763e d4e7 7d3e
000000d0: b8a8 1b3e 07c0 4f3d e770 d7be 96dc f5be
000000e0: 7740 663e 3997 86bc b753 773e bc65 0dbf
000000f0: 924c b63d 31fa 84bd 0617 13be 45f2 2ebb
00000100: f144 0abf d245 12bf a9c6 2d3c 6424 1f3e
00000110: dd37 d6bd 7c11 00bf 0eab 06bf 5bf7 d83d
00000120: d209 903e 6f24 813c a328 5bbc 299b 0dbe
00000130: 40a4 96be 315b 643e 9562 f13d 9211 b7bd
00000140: b4ed 08be 8511 25bd ed61 8e3d b4fa 123e
00000150: dcc9 5abc e68a 2cbd 15d9 563d 1fa3 69be
00000160: 61d0 e8be b763 bd3e b565 babe 7e08 cabe
00000170: ad68 8e3d 07da c5bd 78d8 3dbd 30d0 1a3e
00000180: 3f67 71be 7473 1ebe 138b 39be 9852 8e3e
00000190: 8a6a eabe eede 383d 63d5 f43d c9a7 963d
000001a0: c930 0f3c 5d09 7c3e 54f5 59bc 77b2 89be
000001b0: f5b4 82bc bb23 0a3d 62ef 14bf f690 e23d
000001c0: 7bc7 a6bd f7b1 653e 5fe1 ef3d 7aa2 6cbe
000001d0: 7158 f4bd 43ee 403d 33c1 ccbd 37af 883d
000001e0: 00d3 efbe 9ec0 f83c 1c3c d9bd eada 74bc
000001f0: b29f c1bd 19f4 04bf 15a8 05bd 2c23 33be
00000200: c4bd c2bd 340a 90be 74d1 9b3e 462b 01bf
00000210: 1f8a f4be b199 e8be 3eec 9e3d cb0c eabd
00000220: b878 51bd e6e4 01bf 150f 0e3b 6b9f be3d
00000230: b042 833e 23ed a83d d54b 9dbd 47f4 02bf
00000240: a8e9 d8be 66d3 d2be 989a 13bf 719d f83d
00000250: ab10 48bc 5a04 0bbf 9744 0abf 79d9 0d3d
00000260: 4c6d f7bd 9149 13bf e7d2 62bc ec37 fdbb
00000270: 0de4 093e 2203 103e 0b5b 6ebc 9ca0 1abe
00000280: 27b8 083d 58e4 24bf 1436 8e3e afee 893e
00000290: 7f19 083e a1a8 b03e 3577 08bf 210f 6c3b
000002a0: 0f9c bbbe 9c40 11be c20d 8d3d 929f e1be
000002b0: 24f6 04bf aa90 173d adbd 143e 0424 ccbc
000002c0: d879 253e aa34 d8bd a7d7 d4be 13a5 29be
000002d0: a792 3fbd 1115 1cbc 1d62 953e 6484 edbc
000002e0: 0349 113e a4f8 00be e2a8 6a3e fbc8 cbbd
000002f0: 52fc 33bc db01 b33e 846d d1be 680a 533e
00000300: a391 7ebe 91ac 043e db02 503d 128f 3cbd
00000310: 766e c7bd 4fc9 223d a9b6 d1be acc2 873c
00000320: 2848 57be e0d5 e9bd bbfa bdbe 5e5d 5ebd
00000330: 54b3 0ebd b7c7 3ebd a763 c3bd 3375 e9bd
00000340: ef1a d0bc 59e2 a83d b38e 503d d90f b33c
00000350: 4981 f03d 3b71 ce3d 1bcb 97bd 8d7c c73d
00000360: 453a afbe 89c4 cabd fa8f 84be 090e 4e3e
00000370: e43a 0abf 4c7e 9f3d 6e8a 10bf 7806 123d
00000380: b66e 413d eef9 0cbe 72ba 6bbe 1c0c 82bb
00000390: fc70 38be 807c 8e3e 59c7 433d ea76 bebe
000003a0: e75d 7d3d 49be ab3d 1195 bbbd c098 c13d
000003b0: 11ac 7b3e 2222 e0bd d417 0d3e 933c 81bd
000003c0: 8997 92be f80d b63d 5ceb fc3b cf4e afbe
000003d0: aaab d3bd 1097 f5bd 3037 153e ec52 04be
000003e0: 7731 833d 4a6e 13bf ddbb 503e fc07 f8bd
000003f0: 6876 9a3e 5dab a1bd 2acf 2f3d d315 75be
