Zadanie3/src_v2/experiments/LunarLanderContinuous-v2/ddpg_1/saves/target_pi_network.pth (torch, 507007 bytes, 10 tensors)

fc1.weight f4 [400, 8]
000000 10 01 95 bc 77 f3 90 3b bf 00 68 3d 90 ca 65 bd
       -0.018188983 0.0044235545 0.056641337 -0.05610138
000010 a9 57 5c bd 7f 8b 5e bd c4 63 2a bb a7 38 91 bd
       -0.053794537 -0.054332253 -0.0025999406 -0.07090884
000020 d5 1b fc 3a 76 3e 23 bd 06 72 3e 3d 20 6f 13 3d
       0.0019234369 -0.03985449 0.04649546 0.03599465
000030 a4 4e 94 bd 25 1a ad bc c6 69 3d 3d 63 6e a7 3d
       -0.07241562 -0.02113063 0.04624345 0.081753515
000040 3e 82 9d bd cc 04 40 bc d6 aa 1b 3d 73 ef d3 bc
       -0.07690857 -0.011719894 0.03800472 -0.025871014
000050 1d a4 b1 bd cb e5 9f 3c ea 35 1a 3c fb e7 ba bd
       -0.0867388 0.019518754 0.009412268 -0.09126278
000060 1b 3c 08 bd b9 48 1b ba f7 54 49 3b 94 31 45 bc
       -0.033260446 -0.0005923617 0.003072081 -0.012035746
000070 91 05 69 bc 8e 14 8c 3d 38 67 ca 3d 01 a4 9a 3c
       -0.014222519 0.06839858 0.09882969 0.018877031
000080 05 87 72 3c d0 08 c3 bc 1b ed 61 3d de de c2 3b
       0.014802699 -0.023807913 0.055157762 0.005946978
000090 de 4c db 3c bd 16 b3 3c 8e ef 88 3d e5 70 af 3c
       0.026770052 0.021861428 0.066863164 0.021416137
0000a0 95 70 8f bb e9 90 67 3c 7f c7 a6 3c 9b 85 01 3d
       -0.0043774345 0.01413367 0.020358799 0.031621557
0000b0 02 5b 93 bb b0 43 5e bd 37 bb b2 bd ff 24 e8 3c
       -0.004496933 -0.05426377 -0.08727115 0.028337954
0000c0 31 17 06 bc a2 b9 36 bd 07 7b 08 3c 38 03 1b bd
       -0.00818424 -0.044610627 0.008330113 -0.037844867
0000d0 25 01 81 bd e4 eb 24 be 3e 7f f4 bd 0b 17 60 3d
       -0.062990464 -0.1610561 -0.11938332 0.054709475
0000e0 cb 3c 16 bc f8 04 29 3d eb b5 a5 3c d5 b3 7c bd
       -0.009169768 0.041264504 0.020228347 -0.06169494
0000f0 4f 8e e5 bd 84 e1 35 bd 57 cd d0 bc 3f 4d 20 3d
       -0.11208784 -0.04440452 -0.025488539 0.039136168
000100 0a 6e d9 bc 4e 03 7e 3b e5 92 78 3c b4 e0 45 3d
       -0.026541729 0.0038759294 0.015171741 0.048309997
000110 70 28 25 bd 73 48 8d 3a b7 13 2b bd 62 4c 14 3c
       -0.040321767 0.0010779038 -0.04176685 0.009051414
000120 f8 15 54 3c bf 0e 88 3c ad 66 3c 3d 11 62 ea bc
       0.012944691 0.016608594 0.045996357 -0.028611215
000130 89 41 bc 3c 9b 33 20 3d 79 2a 94 3d d1 2c 00 bd
       0.022980468 0.039111715 0.072346635 -0.03129274
000140 fa 47 71 3b 4e 92 1c 3d ce a3 95 bc 2d 54 94 3c
       0.0036816583 0.038225465 -0.018266585 0.018106544
000150 2d 05 ab 3d 48 2c 42 3d 92 c3 d7 3c 6e 65 a5 3b
       0.083505966 0.04740551 0.026338372 0.0050474918
000160 dd fe 1f bb ff c7 16 3c 21 d9 bd bc 8f 22 77 3c
       -0.0024413385 0.009202956 -0.023174824 0.015083923
000170 16 71 b1 bc 92 6d 0b bd 93 77 a3 bd 73 e0 2c 3d
       -0.021660369 -0.03404004 -0.07981791 0.04220624
000180 79 bf 3f bd e4 ea c1 3b 24 19 48 3d ba 28 dc bb
       -0.046813462 0.0059178937 0.0488521 -0.006718722
000190 2f e9 e3 3c d2 18 1a be 7e 40 52 bb 1c b1 b8 bd
       0.027821152 -0.1504853 -0.0032081897 -0.09018156
0001a0 49 8f 03 3d 9e b3 e5 3c 5d 58 ff 3c a0 79 b6 bd
       0.03211907 0.02803975 0.031170065 -0.08909917
0001b0 af 04 a0 bd 70 c2 3d bd b2 02 e7 3b a6 83 13 3d
       -0.07813393 -0.04632801 0.007049882 0.03601422
0001c0 dd 39 84 bb 15 84 ee 3c 98 c2 9c bc dd a4 55 bd
       -0.004035218 0.029115716 -0.019135758 -0.05215918
0001d0 f3 8a 08 3d 9a 5b ba bc 40 12 de bb 5d cb 78 3d
       0.033335637 -0.022748757 -0.006777078 0.060740817
0001e0 5d 1b 02 3c c8 94 cb 3c 6c 0d 35 3d c6 65 79 39
       0.007941094 0.024851218 0.044202253 0.00023784404
0001f0 8a 90 d3 bd c3 d3 28 3d 0f 4c b9 3d 90 50 6e bd
       -0.10330303 0.041217577 0.0904771 -0.0581823
000200 31 27 e9 3b c0 d3 3b 3b 22 48 cf bc a4 77 90 3d
       0.0071152677 0.0028660148 -0.02530295 0.0705407
000210 ce 26 f8 3d 4a 7e 0c 3d e9 6b 6a bd f6 c2 80 bd
       0.121167764 0.034300126 -0.057231817 -0.06287186
000220 63 2f 09 bd 17 7c 2e 3d f0 f6 47 3c 35 3e 7c 3b
       -0.033492457 0.04259881 0.012204871 0.0038489227
000230 1a 90 a7 bd 92 74 f1 bd 53 38 ab bd 93 f4 c8 3d
       -0.08181782 -0.11789812 -0.08360352 0.09812274
000240 1d 57 14 3d b8 82 5b 3c 71 06 8e 3d fe 2e 9e 3d
       0.03621589 0.013397865 0.06934822 0.07723807
000250 f4 bc b2 bd 90 f6 17 ba 56 71 17 be fc 8d 26 3d
       -0.08727446 -0.00057969335 -0.14789328 0.04066275
000260 9f a3 4d 3c ce 84 6b bd 43 16 99 bc b6 24 37 bd
       0.012551217 -0.0574997 -0.018687373 -0.044712745
000270 56 aa b2 3c 57 e2 38 bc ac db 33 3d d1 97 98 bd
       0.021809738 -0.011284432 0.043910667 -0.07450832
000280 af 76 25 3d d7 fd fb ba 80 60 a9 bc 66 c7 28 3c
       0.04039639 -0.001922543 -0.020675898 0.010301447
000290 f5 52 c4 bd 5b ce 82 bd 08 fd 9f bd fb fe 97 3c
       -0.09586135 -0.063870154 -0.07811934 0.018554201
0002a0 1f 7f 92 bc fb 29 32 bc 94 4e 1a bd 0d 3b c8 3d
       -0.017882882 -0.010874267 -0.037672594 0.09776888
0002b0 f3 0d 9c 3d 1b af c4 3c bc cd bc bd ff bb 93 3c
       0.07619848 0.024009278 -0.09218928 0.01803398
0002c0 cc a9 27 bd bf 7c af bb 27 d7 7f bc 84 c2 1e bc
       -0.040933415 -0.005355447 -0.015615261 -0.009689931
0002d0 c5 6a 22 3c dd 19 6a bb 86 a3 87 3c 3f da 0d 3d
       0.009913151 -0.0035720982 0.016557466 0.034631964
0002e0 01 19 e9 3c 09 1d f1 3c 5b 86 83 3c 6d b4 5d 3d
       0.028454306 0.02943279 0.016055277 0.054127146
0002f0 ca 70 f1 bb 19 9e 53 bc 6e 92 e2 3c 95 04 86 3d
       -0.007368182 -0.012916111 0.027657714 0.06543843
000300 a4 b0 2b 3d cf 8b bb 3c dd 7d 59 bd 5f 9c 46 bd
       0.041916505 0.022893814 -0.05309855 -0.04848897
000310 14 d7 1c 3d 4b 13 d9 3a c6 7a d9 3d 41 0f a6 bd
       0.038291052 0.0016561536 0.1061912 -0.08108378
000320 13 0b bd bc f3 fc 8e 3c 1c 50 20 bc 26 c6 3e bc
       -0.02307657 0.0174546 -0.009784725 -0.011643922
000330 4c d6 15 bd 72 3c a1 bd 2a 37 47 bd 16 79 bb 3d
       -0.036581323 -0.07872857 -0.048636593 0.09153955
000340 54 2c b6 bb ee b0 c9 3c 65 c1 34 3d 1c f5 8a bd
       -0.0055594835 0.0246205 0.044129748 -0.06785032
000350 37 13 98 3d 7f 0d 6f 3d b6 85 0f be 76 8f ec bc
       0.0742554 0.05836248 -0.1401585 -0.028877001
000360 df a5 20 3c ed eb 22 3d 09 50 33 3d 27 0b fa 3b
       0.009805172 0.039775778 0.0437775 0.007630724
000370 cf cc 23 bd 54 c7 cc bd 47 86 8e bd de 8c da bd
       -0.039990243 -0.09998956 -0.06959205 -0.106713995
000380 07 61 fc 3b 56 52 91 3c 0d c9 3d 3d fe 7f 24 bd
       0.0077019962 0.017739456 0.046334315 -0.040161125
000390 0b 47 94 bd c9 f9 0e 3d 01 7c 45 3d e4 d3 02 3d
       -0.07240113 0.034906182 0.048213962 0.031940356
0003a0 62 61 59 bc 56 85 2f 3c 07 bf b7 3d cc 8b a2 bc
       -0.013267847 0.010712942 0.089719824 -0.019842051
0003b0 f0 4e d6 bb d0 4e 10 bd 55 9e be bc c8 ee b6 3d
       -0.006540172 -0.03523141 -0.023268858 0.08932263
0003c0 69 ae ee bc 0c 30 fe 3c c7 c1 1e 3d 92 ce 67 bd
       -0.0291359 0.03102877 0.03875902 -0.056593485
0003d0 f6 a7 bb bd 4a b4 7e bd e9 a0 98 bc 2e 88 d3 3c
       -0.091628954 -0.062183656 -0.018631415 0.025821771
0003e0 fc f9 02 3d 32 d5 49 3a a0 5a 19 bd 07 1c 61 bd
       0.031976685 0.000769931 -0.037439942 -0.05495837
0003f0 76 68 24 bd 61 e3 b0 bd 3a b9 d6 bc e3 b8 45 3d
       -0.040138684 -0.08637119 -0.02621137 0.048272025

fc1.bias f4 [400]
000000 dd 00 69 3c 78 8b 3b 3d ae fb 27 3d a4 a9 38 bc
       0.014221397 0.045787305 0.041011505 -0.011270914
000010 2e 84 7a bc e8 79 22 3d a3 b0 1c 3b bf ab 40 bc
       -0.015290303 0.03966704 0.0023908995 -0.011759697
000020 1f 07 b2 3c 37 99 27 bc 0f 2f 13 bd 9b 85 54 3d
       0.021731911 -0.0102294 -0.03593355 0.05188523
000030 91 9d 5e bc 2b b1 2b bd 29 ff 5b 3d 56 74 74 bc
       -0.013587371 -0.041917007 0.053710137 -0.014920315
000040 b8 cf 05 3d ae 1e 04 3c 7c d7 0f bd d1 85 21 3a
       0.0326688 0.008063955 -0.03511761 0.0006161603
000050 6e f9 8b 3c 64 3e 1c 3d 71 85 9e bc c9 11 f6 3c
       0.01708671 0.038145438 -0.01935074 0.030037777
000060 62 3a b9 bb fb 8c 56 3d 66 2a 34 3c ba 02 17 3d
       -0.0056527117 0.052380543 0.010996437 0.036867835
000070 5a a3 f6 bb 73 fb 42 3c 34 da 0e 3c 99 17 5c 3d
       -0.0075267972 0.0119007705 0.008719016 0.053733442
000080 8a 4a a8 3c 99 c7 53 3d f9 fc a1 bb 0d f1 aa 3c
       0.020543355 0.051704023 -0.004943487 0.020866895
000090 54 b5 53 3b 00 e9 c7 bc 88 81 8f 3c cd b1 60 3d
       0.0032304125 -0.024403095 0.01751782 0.054857064
0000a0 fe 5b 82 3c c9 d5 17 bd ed d8 0e 3d 93 f7 4b bc
       0.015913006 -0.037069116 0.034874845 -0.012449163
0000b0 3e b7 fa 3c 92 2c 4e 3d 83 4d 1b 3d d5 41 53 bb
       0.030604955 0.050335474 0.037915718 -0.0032235284
0000c0 32 fe 56 bc b9 08 55 3d 0c 77 fd 3c 76 0f 82 bc
       -0.013122128 0.05201027 0.030940555 -0.015876513
0000d0 e8 ea 26 3b 44 35 e9 3b ed a9 26 bc ca 94 70 bd
       0.0025469605 0.0071169455 -0.010172349 -0.058735646
0000e0 80 5a 08 3d 75 f4 8a 3a 23 fa 1b 3d 94 d6 3d bd
       0.033289433 0.0010601418 0.038080346 -0.046347216
0000f0 a1 18 3a bd 9c 2c 02 3b 7f 3c 97 3c ac 7c 6c bd
       -0.045433644 0.0019863015 0.018461464 -0.057736084
000100 24 18 72 bb 72 60 b8 3c 9c 23 6c ba ba 04 23 3d
       -0.0036940658 0.022506926 -0.0009007992 0.03979943
000110 d1 d5 4a 3c 0c 96 30 3c 5b e5 ae bb 9d 44 e7 3c
       0.012380079 0.010777961 -0.0053374 0.02823096
000120 c9 01 d1 3c ad a6 e3 3c 2e 86 e8 3c 8d 33 29 ba
       0.025513547 0.027789438 0.028384294 -0.000645452
000130 80 88 ad 3c b1 a8 14 b9 0a d9 23 3d a4 00 44 bc
       0.021183252 -0.00014177222 0.040001906 -0.011963043
000140 7d 1b 83 bc d3 64 04 3d 1e 63 0e bd 90 1c 37 3d
       -0.016004318 0.032322716 -0.034762494 0.044704974
000150 3b 13 70 bc bb ee d7 3c e0 86 b8 ba 7b 38 fe 3c
       -0.014653022 0.026358953 -0.0014078282 0.031032791
000160 37 bd 32 3c dd 92 32 3d e5 23 f5 bc 23 08 04 3c
       0.01090937 0.04359709 -0.029924342 0.008058581
000170 35 76 40 bb ad 14 8e 3c 69 3c 22 3d fd 1b 36 bc
       -0.0029367332 0.017343843 0.039608393 -0.011115071
000180 f0 92 9f bc 80 20 d7 3c 2a 2c 8f 3b e8 61 34 bc
       -0.019479245 0.026260614 0.0043692784 -0.011009671
000190 26 97 25 3d a4 a7 85 3c 14 06 2a 3b 76 5e 8d bb
       0.04042735 0.016315289 0.0025943564 -0.004314239
0001a0 b2 b3 10 3d c6 e2 3b 3d b9 85 88 bc 20 8c 71 3d
       0.03532762 0.045870565 -0.016665326 0.058971524
0001b0 ca f1 56 3a 23 ba 00 3c 0c 7a 5e 3c 73 d6 01 3d
       0.00081994815 0.007856878 0.013578903 0.031698655
0001c0 07 ad 09 3c 74 fc 9f 3c 45 0d e0 3c 55 f6 c6 bc
       0.008403069 0.019529559 0.027350077 -0.024287382
0001d0 4f 7d 2b 3d ee 7d 1b 3d ce 81 2b 3d 19 97 88 3d
       0.04186755 0.037961893 0.04187184 0.066694446
0001e0 cb 7b 16 bc 28 74 70 3c e2 a2 20 3d 30 26 18 bd
       -0.009184788 0.014676131 0.039217837 -0.037145793
0001f0 c5 a2 0f b6 d8 87 2d bd 06 0d b0 3c 08 2b ec 3c
       -2.1403405e-06 -0.04236588 0.021490585 0.028829113
000200 10 ac 2b 3c 90 f9 da 3c 86 b8 18 3d 2a 9d 4f 3d
       0.010478035 0.026730329 0.03728535 0.050686993
000210 4d d7 93 bc 90 85 56 bc 55 8e 78 3b 7f 9a 02 bd
       -0.018047 -0.013093367 0.0037926633 -0.03188562
000220 e2 f0 26 3c f3 dd 14 3d 5f 33 08 3c 79 e3 39 3d
       0.010189267 0.03634448 0.008313029 0.04538295
000230 55 25 0a 3d 71 46 e2 bb 87 9f 8e 3c d6 79 16 3d
       0.03372701 -0.00690537 0.017410053 0.036737286
000240 09 bf 09 bd ab 0e fd bc d6 10 24 bc c7 d9 3a bb
       -0.03362945 -0.030890783 -0.01001378 -0.0028511153
000250 6f 05 0d bc ef 74 6e 3b 7c 7e 00 3d bc 25 d0 ba
       -0.0086072525 0.0036385616 0.031370625 -0.0015880386
000260 19 ac 1a 3c 75 7f d7 3c c0 9f 40 3c 53 72 0a 3b
       0.009440445 0.026305893 0.011756837 0.0021125271
000270 d1 a0 94 bb 9b 9d 3c bb 14 8a ea 3c 5e 5b c7 3c
       -0.0045357724 -0.0028780464 0.028630294 0.02433556
000280 e7 a9 3d 3d 61 9a 06 bd cf 82 3e 3c 29 24 8c 3c
       0.04630461 -0.03286207 0.011627867 0.017107086
000290 69 47 a8 bc ab ac 37 3d c1 65 8f 3a 1b fb 46 bd
       -0.020541864 0.044842403 0.0010940359 -0.048579317
0002a0 2a 43 7a 3d 9f 65 bb 3c c1 ac 68 39 7f 3d 68 3d
       0.06109921 0.022875605 0.000221896 0.056699272
0002b0 0b a3 c9 3b 28 21 5e bc c1 d4 1d 3d c1 da c8 3c
       0.0061534694 -0.01355771 0.038532976 0.024518372
0002c0 32 c1 20 3d ad fc 1f bd 3b 15 8a bd 1f ad 84 3c
       0.039246745 -0.03905933 -0.06742331 0.016195832
0002d0 90 21 05 3c 00 30 5c 3d 8e 8f 34 3c 11 0a a1 bc
       0.008125678 0.053756714 0.011020554 -0.01965812
0002e0 bc ce ce bb 34 bd 56 3d 17 3f d0 3c a3 9a 24 bc
       -0.0063112658 0.052426532 0.025420709 -0.010046634
0002f0 57 24 cb 3b 16 8e b2 bc 65 ac 1b 3c 81 95 94 3c
       0.0061994004 -0.021796267 0.009501551 0.018137695
000300 09 c3 29 3c f7 ea a6 bc a5 87 24 3b 22 5d c9 3c
       0.010361441 -0.020375712 0.0025105265 0.024580542
000310 d6 58 a3 3c 07 b6 62 3d 58 fb 07 bd d5 9b 25 3d
       0.019939821 0.055349376 -0.033198684 0.040431816
000320 78 b6 9d 3c 4a 6c 2e bc f6 f9 a9 3c f9 15 bf 3c
       0.019252047 -0.010645935 0.020749073 0.023325907
000330 2b ab a0 bc 57 c4 9e 3d be fc 1a 3d ad cd 85 3d
       -0.01961287 0.077522926 0.03783869 0.0653337
000340 9d 40 81 bc d6 bc 49 bc 9b 3c da bc 3b 4d 90 3c
       -0.01577788 -0.012313088 -0.026640227 0.017614951
000350 71 68 ac bb 36 04 67 3b 53 6d ea 3b 77 67 a2 3c
       -0.005261474 0.0035250313 0.0071541457 0.019824727
000360 1a 35 01 3d c3 07 13 3d d3 4a 0d bd 9e ed 05 3d
       0.031544782 0.035896074 -0.034495186 0.032697313
000370 cf b7 87 3c 2b c0 f9 bb 41 5e 24 3d 32 e1 a4 3c
       0.016567139 -0.007621785 0.04012895 0.020126913
000380 9a 74 e4 bc 08 8c 11 3b e8 c1 37 3d 99 99 09 3d
       -0.027887631 0.002220871 0.044862658 0.033593748
000390 5a 03 58 3d 20 b8 77 3d 32 e8 a1 3c 84 35 7c bb
       0.05273757 0.06047833 0.01976404 -0.0038484046
0003a0 36 3f 3a bc 93 a8 55 3d bb b6 9f bc 03 bb 2f 3d
       -0.01136761 0.052162718 -0.019496312 0.042902958
0003b0 cd f1 2b bc 77 d9 b6 bc 1f fd 77 bb e5 29 41 bc
       -0.0104946615 -0.022320492 -0.003784008 -0.011789774
0003c0 91 87 9e 3b 92 55 52 3d 89 a1 15 3c d7 a7 b9 3c
       0.004837938 0.051351137 0.009132751 0.02266304
0003d0 2a 20 2d bc 06 da 10 3c 90 13 9c bc 4d a7 02 bd
       -0.010566751 0.008841043 -0.019052297 -0.03189783
0003e0 57 da 3e 3c a9 0b cb bc cb 28 5f 3b 82 77 9f bc
       0.011648736 -0.024785833 0.0034051414 -0.019466165
0003f0 24 b0 fe 3c 02 72 f2 3c db 10 57 3d 3d 25 ae 3b
       0.03108985 0.029595379 0.05250631 0.0053144977

bn1.weight f4 [400]
000000 91 f0 88 3f 51 be 7f 3f 8f 7d 7b 3f 90 72 8f 3f
       1.0698415 0.99899775 0.9823846 1.1206837
000010 94 4e 97 3f 42 66 36 3f 2b 0b 99 3f f6 ca 78 3f
       1.1820855 0.71249783 1.1956533 0.97184694
000020 e4 2a 80 3f ad 7b 81 3f 5e 81 85 3f 0c f3 40 3f
       1.0013089 1.0115868 1.0430105 0.7537086
000030 3c 9f 81 3f 48 4e 81 3f c2 d4 2d 3f 40 22 87 3f
       1.012672 1.0102015 0.6790277 1.0557327
000040 8b d2 6f 3f 9b 0d 76 3f cf b4 89 3f ba bf 96 3f
       0.9368064 0.9611451 1.0758303 1.177726
000050 07 28 86 3f 39 c5 80 3f e6 ac 96 3f a4 2f 6f 3f
       1.0480965 1.0060188 1.1771514 0.9343207
000060 37 3f 8a 3f 12 b0 42 3f 74 12 7d 3f 4b aa 74 3f
       1.0800542 0.7604991 0.9885628 0.95572346
000070 1d a2 82 3f 04 06 77 3f 20 fd 79 3f 43 b9 72 3f
       1.0205723 0.96493554 0.97651863 0.94813937
000080 fa e5 9c 3f 04 32 4f 3f 6c c8 82 3f 34 7a 6c 3f
       1.2257683 0.8093569 1.0217414 0.9237397
000090 0c 38 90 3f b4 13 89 3f b6 4a 81 3f 5d f8 4d 3f
       1.1267104 1.0709138 1.0100925 0.804571
0000a0 06 72 8c 3f e4 37 99 3f 9a a1 82 3f c1 24 81 3f
       1.0972297 1.1970181 1.0205567 1.0089341
0000b0 7b 44 77 3f 48 eb 3e 3f a7 32 6d 3f f0 01 59 3f
       0.9658887 0.7457776 0.92655414 0.8476858
0000c0 48 67 83 3f 3a 94 34 3f ac 9b 61 3f d1 62 94 3f
       1.0265894 0.70538676 0.8812816 1.1592656
0000d0 7c ef 8e 3f aa 76 79 3f 76 59 77 3f b9 49 a3 3f
       1.1166835 0.9744669 0.9662088 1.2756873
0000e0 ea 4a 5e 3f c0 7d 8e 3f 51 e7 67 3f d2 ad a0 3f
       0.8683306 1.1132126 0.90587336 1.2553046
0000f0 ae a9 9a 3f 5c 95 82 3f 61 66 44 3f ce eb 9c 3f
       1.2083032 1.0201831 0.7671872 1.2259462
000100 45 31 86 3f 86 9b 59 3f dc 27 76 3f 40 1d 81 3f
       1.0483786 0.85002935 0.9615457 1.0087051
000110 3f 86 7a 3f af e2 83 3f 83 26 7c 3f b7 7b 7f 3f
       0.97861093 1.0303553 0.98496264 0.9979815
000120 a4 c6 67 3f 1b 1f 76 3f fd 81 73 3f 08 5b 81 3f
       0.90537477 0.96141213 0.9512022 1.0105906
000130 7a 56 8c 3f b6 36 74 3f b2 06 78 3f 4d 31 aa 3f
       1.096389 0.9539598 0.96885216 1.3296295
000140 9a 0b 6e 3f 41 0b 81 3f 77 68 a0 3f 15 2e 64 3f
       0.9298645 1.008156 1.253188 0.89132816
000150 c2 38 8b 3f 7e ed 71 3f 45 93 8a 3f bc b2 81 3f
       1.0876696 0.9450301 1.0826193 1.013267
000160 32 ac 5a 3f 9b a5 65 3f 43 32 86 3f 91 fc 8b 3f
       0.85419 0.8970582 1.0484089 1.0936452
000170 c2 fd 8b 3f 26 bc 89 3f 5d a8 67 3f b3 b9 a0 3f
       1.0936816 1.0760543 0.90491277 1.2556671
000180 d3 00 93 3f 6e 70 84 3f 29 3c 6b 3f 9f 26 8d 3f
       1.1484627 1.0346811 0.9188867 1.1027411
000190 28 65 8b 3f 04 f1 76 3f 08 96 9b 3f 37 f9 86 3f
       1.0890245 0.9646151 1.2155161 1.0544804
0001a0 9f 78 62 3f 98 b3 84 3f 36 b2 a3 3f ed 97 62 3f
       0.88465303 1.0367308 1.2788761 0.8851307
0001b0 7a 56 79 3f cb 62 4d 3f c8 55 74 3f d7 30 70 3f
       0.9739758 0.8022887 0.9544339 0.93824524
0001c0 1e 5e 83 3f 66 19 6b 3f 1d 9f 80 3f 43 3c 8b 3f
       1.0263097 0.9183563 1.0048558 1.0877765
0001d0 ec 76 6f 3f b7 ce 78 3f b0 b6 67 3f 16 47 2d 3f
       0.93540835 0.9719042 0.90513134 0.67686594
0001e0 ba 79 8f 3f 6d 6f 6b 3f ec ca 7d 3f 61 bc 8b 3f
       1.1209023 0.919669 0.9913776 1.0916864
0001f0 4e f3 83 3f 8e 6e 9f 3f 3d 3a 80 3f 3c e7 5b 3f
       1.0308626 1.2455614 1.0017773 0.8589971
000200 c9 52 88 3f 09 40 71 3f 1d 7c 6d 3f 0f fb 80 3f
       1.0650264 0.94238335 0.92767507 1.0076617
000210 34 f3 85 3f 6d 0e 8d 3f 61 06 8b 3f 30 ff 83 3f
       1.0464845 1.1020027 1.0861322 1.0312252
000220 82 19 91 3f 30 6d 84 3f 76 30 5b 3f 9a b8 8c 3f
       1.1335909 1.0345821 0.8562082 1.0993836
000230 00 79 86 3f e8 a4 aa 3f ae 48 73 3f a0 f2 77 3f
       1.0505676 1.3331575 0.95032775 0.9685459
000240 f9 c7 8b 3f ad 94 90 3f 4d 81 87 3f 73 50 8c 3f
       1.0920402 1.1295372 1.0586334 1.0962051
000250 de a9 88 3f 48 66 78 3f 92 e1 79 3f 73 2f 7b 3f
       1.0676839 0.9703107 0.9760982 0.98119277
000260 18 8a 88 3f 30 cd 69 3f 3b 45 8d 3f 82 8a 5f 3f
       1.0667143 0.91328716 1.1036752 0.8732072
000270 eb a4 72 3f 2c 8c 97 3f 94 be 72 3f 82 25 76 3f
       0.94782895 1.1839652 0.9482205 0.9615098
000280 bd 83 81 3f c3 0a 83 3f 9b ef 96 3f 21 77 8c 3f
       1.0118328 1.0237659 1.1791872 1.0973855
000290 cb 93 8a 3f 27 3c 54 3f c6 7a 78 3f 98 ec 99 3f
       1.0826353 0.82904285 0.9706234 1.2025328
0002a0 20 54 68 3f 52 fb 76 3f 83 2d 94 3f 56 fb 49 3f
       0.90753365 0.96477234 1.1576389 0.78899133
0002b0 f7 1d 6f 3f d8 00 83 3f 48 31 63 3f 08 de 51 3f
       0.934051 1.0234632 0.8874707 0.8197942
0002c0 c4 3c 84 3f 2c 2c 98 3f 30 72 a3 3f c2 63 75 3f
       1.0331044 1.188848 1.2769222 0.95855343
0002d0 e6 00 80 3f fb bf 63 3f 59 d5 7b 3f 1d 1f 7f 3f
       1.0000274 0.88964814 0.9837242 0.9965685
0002e0 5b 46 80 3f 85 57 4b 3f 5e 50 4c 3f db 8d 55 3f
       1.0021471 0.7943042 0.7981013 0.8341958
0002f0 39 16 93 3f d0 59 8d 3f b1 ba 73 3f ff c2 50 3f
       1.1491157 1.1043034 0.95206743 0.8154754
000300 d8 4e 87 3f 98 d0 89 3f bf d0 8e 3f e7 8c 6b 3f
       1.0570936 1.0766783 1.1157454 0.92011875
000310 29 69 53 3f ac 13 5b 3f 7c e9 94 3f 1e be 79 3f
       0.82582337 0.8557689 1.1633754 0.9755572
000320 64 03 92 3f 78 86 77 3f 82 fc 9b 3f 07 1b 90 3f
       1.1407285 0.9668956 1.2186434 1.1258248
000330 54 5f 91 3f a6 0a 45 3f d2 b3 56 3f ab 5c 4e 3f
       1.1357217 0.76969373 0.83868134 0.8061015
000340 55 ed 81 3f 6d 17 8c 3f 11 b4 7f 3f 5e 87 6a 3f
       1.0150553 1.0944649 0.99884135 0.91612804
000350 2d 62 48 3f 38 9d 71 3f c4 d5 82 3f d6 ef 83 3f
       0.78274804 0.9438052 1.0221486 1.0307567
000360 83 a4 7f 3f 1a 37 5d 3f 21 5c 8f 3f 8a a9 87 3f
       0.998604 0.86412203 1.119999 1.0598614
000370 c5 fe 61 3f 4e 33 81 3f 8d 8e 78 3f ff c4 83 3f
       0.8827937 1.0093782 0.97092515 1.0294493
000380 74 84 8c 3f fe 8e 9f 3f eb 8f 74 3f a4 f1 42 3f
       1.0977921 1.2465513 0.955321 0.76149964
000390 31 fa 66 3f 72 50 49 3f e3 d6 4f 3f 1d c9 5a 3f
       0.9022551 0.78638375 0.81187266 0.85463125
0003a0 9d 91 99 3f bf 2d 66 3f 09 76 8d 3f 03 74 5f 3f
       1.1997563 0.89913553 1.1051646 0.87286395
0003b0 70 b7 63 3f 31 48 ad 3f 95 64 7f 3f e0 2d 80 3f
       0.8895178 1.3537656 0.9976285 1.0014
0003c0 d4 23 86 3f cd 18 41 3f fe 87 72 3f 2b 77 78 3f
       1.0479684 0.7542847 0.9473876 0.97056836
0003d0 c1 92 78 3f 98 ce 89 3f 73 aa 87 3f e9 b4 9a 3f
       0.9709893 1.0766172 1.0598892 1.2086459
0003e0 63 ad 8c 3f 35 71 82 3f 9b 2d 93 3f a6 a6 7a 3f
       1.0990413 1.0190798 1.1498293 0.97910535
0003f0 71 1f 4b 3f 5b f3 70 3f da 62 30 3f 6e 55 63 3f
       0.7934485 0.9412133 0.68900836 0.8880223

bn1.bias f4 [400]
000000 68 4b c2 bb c0 97 6d bd a0 61 b5 bd 5d 11 de 3c
       -0.0059293993 -0.05800605 -0.08856511 0.027107889
000010 d1 d0 35 bd fc 84 95 be a2 b9 fe 3c f9 0a 36 bd
       -0.044388596 -0.29203022 0.031094376 -0.044444058
000020 6e e2 3b bd 95 a6 00 bd 8d 51 a2 bd c3 da 81 be
       -0.045870237 -0.031408865 -0.07925711 -0.25362214
000030 10 4c 8e bd ae c2 25 bd e8 bc a0 be 0b 3d 4a bd
       -0.069481015 -0.040468864 -0.31394124 -0.04937462
000040 f9 5a 00 be 85 85 5a bd 47 5b 06 bd 10 3d 26 bd
       -0.12534703 -0.05334999 -0.032801893 -0.040585577
000050 83 f1 ad ba 9a 9a 95 bd 80 af 83 bd e7 4e 7f bd
       -0.0013270829 -0.073048785 -0.06429958 -0.062331107
000060 66 d9 73 bd fd 46 5e be f4 47 6d bd 85 fc 80 bd
       -0.0595335 -0.21706767 -0.057929948 -0.06298164
000070 b7 69 02 bd c4 78 0b bd 30 82 02 bd 98 b0 c4 bc
       -0.0318391 -0.034050718 -0.031862438 -0.024009988
000080 26 25 0c 3d db d6 57 be 96 ab 0e bb ad c8 ba bd
       0.034215115 -0.21078055 -0.0021769754 -0.09120307
000090 0c cd 7b 3c 89 cd 16 bb e9 71 90 bd 3b 84 2d be
       0.015368711 -0.0023010692 -0.07052977 -0.16944973
0000a0 6a 3a 59 bd a7 ee 2f bd 03 ea 08 bd d0 5f 36 bd
       -0.053034224 -0.042952206 -0.033426296 -0.044524968
0000b0 39 8e db bc a5 b6 64 be 39 a8 9d bd 78 23 3c be
       -0.026801215 -0.22335298 -0.076981016 -0.18372905
0000c0 6c 72 97 bd 2a cc 8e be aa ba b6 bd aa d3 58 bc
       -0.07394871 -0.2789014 -0.08922322 -0.013234058
0000d0 33 dd 18 3d f6 5a 20 bd 06 25 20 bd d7 ce 36 bd
       0.037320327 -0.039149247 -0.03909781 -0.04463085
0000e0 05 96 04 be cb 93 13 bd c7 9c b9 bd 12 14 a0 bd
       -0.12947853 -0.03602962 -0.09063106 -0.07816328
0000f0 4a 44 aa bd 33 3b 8f bd d7 b2 77 be 9c 7b 2d bd
       -0.08313806 -0.06993713 -0.24189316 -0.04235421
000100 a3 c8 31 bd 97 12 3d be b2 84 86 bd 55 03 5b bd
       -0.043404233 -0.18464123 -0.06568278 -0.053469975
000110 69 17 c7 bc bc e5 85 bd 37 6e a8 bd ae 68 c3 ba
       -0.024303155 -0.06537959 -0.08224147 -0.0014908516
000120 d6 3a b2 bd 0e 6e cf bc 17 2e 4d bd 52 28 03 bc
       -0.08702628 -0.025321033 -0.050092783 -0.008005219
000130 f9 73 29 bd e8 e1 b0 bd f0 1b 5a bd ec 57 71 bc
       -0.041370366 -0.08636838 -0.0532493 -0.014730435
000140 cb 73 da bd e4 f5 86 bd 5b cf 84 bd dd 2f c2 bd
       -0.10666617 -0.06589869 -0.064848624 -0.094817854
000150 24 11 e0 bb 2b b2 82 bd c7 a0 16 bd e3 70 72 bc
       -0.006837981 -0.06381639 -0.036774423 -0.014797422
000160 ff 47 14 be 74 12 d8 bd e8 a5 e2 bc 4c 2c 9e bb
       -0.1448059 -0.10550395 -0.027667 -0.004827058
000170 26 cd 5b bc 70 85 01 3b 00 35 ba bd e7 f7 a7 bc
       -0.01341561 0.0019763373 -0.0909214 -0.020503951
000180 6d 4c 3c bd 2f 9c a4 bd 0b bf e3 bd b2 5c 2a bd
       -0.045971323 -0.08037602 -0.11120423 -0.041592307
000190 77 68 a7 bd a1 8e 34 bd c0 cd 57 bd ef 1b 98 bb
       -0.08174222 -0.044081334 -0.052686453 -0.004642002
0001a0 d8 38 00 be 8f b3 43 bd fd 60 83 bd 13 99 c2 bd
       -0.12521684 -0.047778662 -0.064149834 -0.09501853
0001b0 27 59 2b bd 65 dc 54 be 3e 45 c2 bd af 6c ba bd
       -0.04183307 -0.20787199 -0.09485863 -0.09102761
0001c0 e4 1f 81 bc df a6 93 bd 39 df 89 bd c9 41 4a bd
       -0.015762277 -0.072095625 -0.067320295 -0.049379144
0001d0 20 74 57 bd 55 b2 cc bc 57 5e d9 bd 1b 09 95 be
       -0.05260098 -0.02498738 -0.10613697 -0.2910851
0001e0 5d fb 1b bd db 0d 82 bd c7 39 19 bd 76 d4 f4 bc
       -0.038081516 -0.06350299 -0.037408616 -0.029886466
0001f0 dc be 4f 3c 93 09 0c bd 5a 5b 44 bd 5c ff 29 be
       0.012679782 -0.03418882 -0.047938682 -0.16601318
000200 7c c1 3c bc 11 d4 89 bd 10 00 d6 bd af 29 e4 bc
       -0.01152074 -0.067299016 -0.10449231 -0.027851908
000210 67 a2 37 bd e9 d0 59 bc 9b 54 0c bd d1 8d b0 bd
       -0.044832613 -0.013294437 -0.034260374 -0.08620799
000220 49 0a 09 bd d7 4a 74 bc 58 9d 50 be d1 ff a1 bc
       -0.033457074 -0.014910421 -0.20372522 -0.019775303
000230 4b dd 7e bd 93 03 c0 bc aa 33 93 bd d1 3c 30 bd
       -0.06222276 -0.023439204 -0.071875885 -0.04302675
000240 89 1d 1d bc e4 c9 36 bd e1 1b 48 3b 93 c2 48 bc
       -0.009589561 -0.04462613 0.0030534195 -0.012253421
000250 8d 08 10 bd d5 88 9e bd 0e b2 ae bd 93 88 12 bd
       -0.035164405 -0.077409424 -0.08530055 -0.03577478
000260 d7 16 b7 bd ee 9c dd bd 26 c6 bc bd 36 de 0e be
       -0.08939903 -0.108209476 -0.09217481 -0.13951954
000270 80 88 7f bd c6 0f 13 bd ea 28 34 bd 94 8a 7b bd
       -0.062386036 -0.035903715 -0.04398433 -0.061411455
000280 01 c3 d5 bb 7e a9 93 bd 8e 39 7a bc a4 21 f5 bb
       -0.0065234904 -0.072100624 -0.015272511 -0.007480817
000290 97 46 55 bb b8 f3 26 be 92 3a d5 bc 9e 4b 2e bd
       -0.0032543296 -0.16303909 -0.026028905 -0.042552583
0002a0 0e 6c 84 bd df 41 79 bd 59 c8 36 bd 16 c5 55 be
       -0.06465922 -0.060853835 -0.04462466 -0.20875964
0002b0 b5 dd 13 be d7 35 85 bc 6a fd 05 be 2a 91 39 be
       -0.14440043 -0.016261024 -0.13084951 -0.18121782
0002c0 47 b6 b4 bd 94 03 df bc 15 6d 57 bd 11 46 91 bd
       -0.08823829 -0.027223386 -0.052594263 -0.07093442
0002d0 8d 2f 86 bd 95 0c ab bd 46 9b 8d bd 63 5b ec bc
       -0.06552038 -0.08352009 -0.06914382 -0.02885217
0002e0 27 94 8e bb fe 71 4e be d8 45 4a be ea e1 27 be
       -0.004351157 -0.20160672 -0.19753206 -0.16394773
0002f0 66 69 ed ba 57 9e 4f 3c f2 71 28 bd f3 27 45 be
       -0.0018113076 0.0126720285 -0.04112429 -0.1925352
000300 fc 81 26 bd c3 4c 2b bd 8a 6e 8d ba 6b b2 d4 bd
       -0.040651307 -0.041821253 -0.001079039 -0.10385593
000310 6a 3e 47 be 7e db 30 be 06 d3 c5 bc 16 7e 8e bd
       -0.19457403 -0.1727123 -0.024148475 -0.06957643
000320 bd e0 34 3d c1 67 a7 bd 97 09 21 bd a4 53 41 bc
       0.04415964 -0.08174086 -0.039315786 -0.011799727
000330 33 e8 22 bd 16 5f 65 be 33 df 11 be a0 10 5d be
       -0.039772224 -0.22399554 -0.142453 -0.21588373
000340 b0 97 24 bd 97 cc 0e 3c e2 78 29 bd c3 c9 db bd
       -0.040183723 0.00871577 -0.04137505 -0.10731842
000350 18 f8 3c be c7 f9 bd bd ff 37 78 bb 17 9c 9f bd
       -0.18454015 -0.09276157 -0.0037875173 -0.07793444
000360 97 6a 62 bd 9b 9f 13 be 4d e9 54 bd 21 68 28 bd
       -0.055277433 -0.14416353 -0.051980305 -0.04111493
000370 88 85 1b be 0a c4 d5 bc a5 2e 30 bd 7d a7 2d bc
       -0.15187657 -0.026094455 -0.043013234 -0.010599014
000380 31 da 00 bd 7b 47 31 bd ac 6a 19 bd 0e b1 79 be
       -0.031458084 -0.04328106 -0.037455246 -0.24383947
000390 12 fe 9d bd c2 ed 73 be 12 a0 41 be 3e 53 0f be
       -0.07714476 -0.23821166 -0.18908718 -0.13996598
0003a0 a8 98 0c bd c8 9a b6 bd 94 5a 3b bd 25 c1 df bd
       -0.03432527 -0.08916241 -0.04574068 -0.10925511
0003b0 fc 0c c0 bd d9 83 77 bd c4 bc 48 bd 67 9b 0f bd
       -0.093774766 -0.060428474 -0.049008146 -0.035060313
0003c0 89 a6 89 bd 95 c5 76 be 0e 95 93 bd d8 06 2f bd
       -0.06721217 -0.24098809 -0.07206164 -0.042731136
0003d0 14 d5 25 bd eb 06 9e bd de ef f7 bc 2b 58 66 bc
       -0.04048641 -0.07716163 -0.030265745 -0.014059107
0003e0 ac 9c dc bd 67 b0 c3 bd 6d 0f b7 bc 48 79 2f bc
       -0.1077207 -0.095551305 -0.022346223 -0.010710068
0003f0 14 f5 63 be 66 8f 65 bd 80 d9 9a be a5 f0 f7 bd
       -0.22261459 -0.05604496 -0.30244064 -0.12106446

fc2.weight f4 [300, 400]
000000 3e ff e7 bd a2 ae f4 bc 5a 8f 7b 3d cc 6f be 3d
       -0.113279805 -0.029868428 0.061416008 0.09298667
000010 cd 5c c4 3d 78 b1 d9 bc 0a d1 11 3e 19 1d ba 3c
       0.09588013 -0.026573882 0.14239898 0.022718953
000020 c1 c7 14 bd 2c d5 7e bc 58 0c 3a bc 6f 43 84 bd
       -0.036323313 -0.015553754 -0.011355482 -0.064581744
000030 bd 39 8a bd c9 1e 7e 3c cb 0f be 3b 5f b6 16 3d
       -0.06749294 0.015510269 0.0058002225 0.036795016
000040 8a a5 92 bd 13 8d 03 3d 90 2d 42 bd 5b f3 d8 bb
       -0.0716048 0.03211696 -0.047406733 -0.006620807
000050 bc 2f aa bd 7d 05 0e bb 2c a0 15 be 93 39 a8 3c
       -0.08309886 -0.0021670752 -0.14611882 0.020535266
000060 72 22 f4 bd 0c 29 2c 3d d4 40 e9 bd e8 54 32 3c
       -0.119206324 0.042031333 -0.11389318 0.010884501
000070 08 7e 57 bc 1c 26 81 bd 9c aa b1 bc 7c 79 bd bc
       -0.013152607 -0.06306097 -0.021687798 -0.023129217
000080 f9 7b 28 3e f1 19 09 bd b0 20 2d bd 7d a9 15 3c
       0.16453542 -0.033472005 -0.0422675 0.009134647
000090 e0 83 1b be 4e 5b 86 3d eb 95 94 3d 8e 7c d0 bc
       -0.15187025 0.06560384 0.07255157 -0.025450017
0000a0 f3 ca 06 3c ee 42 45 3e b1 7d d1 bc 07 37 19 bd
       0.008227098 0.19263813 -0.02557263 -0.037405994
0000b0 50 56 f0 3c a8 15 67 3d 57 a2 95 3b f4 76 26 3d
       0.029338032 0.056417137 0.0045664716 0.040640786
0000c0 65 90 09 3d 17 db 86 bd 33 6c 13 bd b7 e9 f2 bc
       0.03358497 -0.06584757 -0.03599186 -0.02965246
0000d0 3f ff f7 3d 31 9f 35 bc 05 b2 c6 3b 12 c5 52 3e
       0.12109231 -0.0110853175 0.006063702 0.20582989
0000e0 a9 a3 0d 3d 0e 58 19 bd 3b 4d 01 bd ce c3 99 be
       0.034579907 -0.03743749 -0.031567793 -0.300322
0000f0 92 e5 36 be 85 df 31 3d e0 17 1c bd a6 cf 73 be
       -0.17861012 0.043426055 -0.038108706 -0.2380968
000100 1a ab cb bd 07 3d 77 3a bc 81 3a 3d 9f 13 b0 ba
       -0.099447444 0.0009431396 0.04553388 -0.0013433582
000110 0f 7d 6a 3c 24 7e 32 3c fd 39 8e bb 56 1b b2 bc
       0.014312043 0.010894332 -0.004340409 -0.02174155
000120 b5 91 2b bd 08 1f b0 3c 9c 2c 3d bc a0 78 dd bc
       -0.041887004 0.021499172 -0.01154628 -0.027035058
000130 7d 7a 82 3d f3 95 13 3d c6 8d a2 3c c8 1e 5b be
       0.06371019 0.036031675 0.019842993 -0.21398461
000140 2d 32 1c 3d 99 a0 c4 3c 00 c6 27 bd 03 24 58 3d
       0.03813379 0.02400236 -0.040960312 0.05276872
000150 da a0 d1 bd 0a ed f7 3c 4f e7 e1 3c 2a 30 9f bd
       -0.10235758 0.030264396 0.027576117 -0.077728584
000160 c1 d3 00 bd 7e 5d ad bc 1c f7 04 bd af b5 70 3d
       -0.031451944 -0.021162745 -0.032462224 0.058767017
000170 d5 89 90 3d 2f 43 84 bd 57 54 84 3d 88 28 3b be
       0.070575394 -0.06458127 0.06461399 -0.1827718
000180 7d f8 75 be 7c db a3 3c bf c1 88 3c 20 4b 26 3d
       -0.24020572 0.02000212 0.016693948 0.04059899
000190 dd 94 12 3e 93 5f 00 b7 c9 99 c7 bd 65 9f aa bd
       0.143146 -7.651647e-06 -0.09746129 -0.08331183
0001a0 b2 5f de bc 75 02 17 bd a7 b3 da bd 14 b2 84 bd
       -0.02714524 -0.036867578 -0.10678797 -0.06479278
0001b0 78 02 cf 3c dd 36 f1 3c 7b 1b 5c 3d 4d 9d 83 bc
       0.025269732 0.029445106 0.053737145 -0.016066218
0001c0 7d e5 a0 bd 4c d6 4b bd 19 0a b4 3c 55 8f e8 3c
       -0.078562714 -0.049764916 0.021977471 0.028388659
0001d0 b8 4e 3f bd e7 72 07 3d 4c 5a 0b 3c 07 f5 d2 bc
       -0.04670593 0.033068564 0.008505415 -0.025751604
0001e0 d9 2e 52 bd fb 88 d8 bc 9c 7b a2 bd a0 69 a7 bd
       -0.05131421 -0.026432505 -0.07933733 -0.08174443
0001f0 63 dc 8c bc b2 98 44 be 31 73 c5 3c f3 b7 19 bd
       -0.017194932 -0.19198874 0.02410278 -0.037528943
000200 ee 87 cb bd 32 88 46 3d 00 2b 42 3c 2e 00 e1 bc
       -0.09938036 0.04846973 0.011851072 -0.027465906
000210 e3 75 04 bd d6 cf f1 3c ae be c8 3d 4f 11 84 bd
       -0.032338988 0.02951805 0.09801994 -0.06448614
000220 ae d9 d0 bd 70 b0 dc bc 7b d8 6b bc 1a 63 1d be
       -0.10197769 -0.0269396 -0.014394875 -0.15369835
000230 b1 d2 b0 3d 57 ee cd 3d 6d 46 35 3d 63 fe 84 3d
       0.08633936 0.10055225 0.044256616 0.06493833
000240 f1 b5 ab bd 22 0a 0b be 8d 17 9b bd 18 49 b3 3d
       -0.08384312 -0.13578084 -0.07572851 0.08754176
000250 2b 48 af 3d 71 c1 76 bc 93 a4 f0 bc 48 60 7a 3d
       0.08558687 -0.015060768 -0.02937535 0.061126977
000260 3d 4b dc 3d 39 c6 c1 bc ff 86 b9 3d 78 7b 42 3d
       0.10756538 -0.02365409 0.090589516 0.04748103
000270 a3 61 61 3d 65 46 09 be aa 82 11 3d 28 a6 52 bd
       0.055024754 -0.1340576 0.035525 -0.05142799
000280 fb 65 4f 3c 26 f8 c5 bc 4c f3 cc bd ed 9d 4f 3d
       0.012658591 -0.024166178 -0.10007343 0.05068772
000290 ac da 9d 3c 2c e0 fe bb 87 b6 47 3d 26 02 0e 3e
       0.01926931 -0.007778188 0.048758056 0.13868007
0002a0 7f 9d d7 3c f2 eb 52 bd 14 03 09 be 8e 03 10 bd
       0.026320217 -0.051494546 -0.1338008 -0.03515964
0002b0 6b 33 cb 3d 5c 1e 2c bd 07 ec 9f bc 0b 0a 3c bb
       0.099219166 -0.04202114 -0.019521726 -0.002869251
0002c0 f0 9e 93 3d 0b 3c fb bd df fe 39 be 66 24 b0 bd
       0.07208049 -0.12267312 -0.18163632 -0.086006925
0002d0 ff 44 27 bd 40 b7 a7 bb 30 79 dc 3d da 24 96 bc
       -0.040837284 -0.0051182806 0.10765302 -0.01832812
0002e0 81 fc 20 bd 1f 91 64 3d c9 fa 28 3d ab ee 0e bd
       -0.039303306 0.05580246 0.041254792 -0.03489558
0002f0 0d 5b c9 3d 18 1e ea 3d 40 7a e4 bc 74 29 b4 bc
       0.0983182 0.11431521 -0.027890325 -0.021992423
000300 6c a3 7f 3d b7 c3 a0 bb 9e 49 32 3e 84 23 56 3c
       0.06241171 -0.0049061435 0.17410895 0.013069991
000310 c8 71 30 bd 28 91 36 3d 9a f6 d3 3d ce 66 d7 bc
       -0.04307726 0.044572026 0.1034977 -0.026294138
000320 41 c6 0e 3d fa 8b 1e bd 59 81 cc bd 08 97 34 be
       0.03485704 -0.03870771 -0.099856086 -0.17635739
000330 25 3e 66 bd 7a 6f bb 3c c8 0c 31 bd 17 01 9c bc
       -0.05621161 0.022880305 -0.04322508 -0.019043488
000340 cc 76 88 bd 92 08 51 3d 3e 3e 17 bd 5f 22 3b bc
       -0.06663284 0.051033564 -0.036924593 -0.011421769
000350 7d 8c 6f bb 54 b5 11 3d e1 00 43 3c cd 7b 42 3d
       -0.0036552243 0.03557332 0.011902065 0.047481347
000360 65 60 d6 3c 6d 55 b6 3c d1 c5 16 be 03 30 dd 3c
       0.026169011 0.022257531 -0.14723898 0.027000433
000370 48 de 51 3d a5 64 eb bc cd a1 64 3b 48 e0 4c bd
       0.051237375 -0.028734514 0.003488648 -0.05001858
000380 bd 97 84 3d 1b 05 a6 be 44 8c 19 bd 5c b5 10 bd
       0.06474254 -0.3242577 -0.037487283 -0.035329208
000390 7f 5c 76 3c 98 d6 71 3c 97 02 95 3c cf ec 3a bd
       0.015036701 0.014760636 0.018189711 -0.045635995
0003a0 6f 0d 13 bd bc b6 08 bd 07 b2 8e 3d 70 a2 14 3c
       -0.035901483 -0.033377394 0.0696755 0.009071931
0003b0 9f 6c c0 3b 6e 8c 7a 3e 34 2e 81 3d 73 d1 0a 3d
       0.0058723236 0.24467632 0.06307641 0.033891153
0003c0 ca f6 83 bd 40 bb 80 3c 2a 3f 06 3d a6 2d 8f 3d
       -0.06443556 0.015714288 0.03277508 0.069911286
0003d0 35 01 f2 3b 7f 92 3c bd 54 08 85 bd 5b 23 b3 3d
       0.007385398 -0.046038147 -0.06495729 0.08746978
0003e0 f2 fc 15 3e 2d 00 1f bd 70 c8 dc 3d 9f 14 48 3d
       0.14647272 -0.038818527 0.10780418 0.04884779
0003f0 f4 25 13 bd 9d 31 65 3c 52 0c 13 bd 70 5d e8 3b
       -0.035924867 0.0139888795 -0.03590042 0.0070912167

fc2.bias f4 [300]
000000 22 08 b0 3c 6b 8f 6d bd af ca 18 bd af ec 8f bc
       0.021488253 -0.057998102 -0.03730267 -0.017568914
000010 b6 f1 1c bd e3 f8 09 bd b1 90 19 bd b7 3d 09 bd
       -0.03831645 -0.033684622 -0.037491504 -0.03350612
000020 6e 69 73 bc 07 95 22 3d 5a bc ee bc d9 d5 bb 3c
       -0.014856679 0.039692905 -0.029142547 0.022929119
000030 a3 4c 58 3d 34 25 bd 3c ff 8e 53 bd e3 85 06 3c
       0.05280746 0.023089029 -0.051650044 0.008210632
000040 42 7b 98 bc c0 0f 40 bd aa 82 0b bd 72 0b db bc
       -0.018613461 -0.04689002 -0.034060158 -0.026738856
000050 88 50 b0 bc 6c 28 d6 3c 9a 05 b2 3c ed a2 5e 3b
       -0.021522775 0.026142322 0.021731187 0.0033971623
000060 dc d9 dd 3c a3 c8 cb 3c ab a4 f5 3c 58 80 01 3d
       0.027081423 0.024875944 0.029985746 0.03161654
000070 ed f7 17 bd 27 79 71 bc 7c 37 3c bd d1 a5 d5 bc
       -0.037101675 -0.014738358 -0.04595135 -0.026080044
000080 d1 a8 15 bd 86 f5 b4 bc c1 3c 66 3c bf 29 e0 3c
       -0.03653795 -0.022089731 0.014052571 0.027363656
000090 f4 9d 86 bc d0 58 69 bd ef 21 12 3d 63 6d d8 bc
       -0.01643274 -0.056969464 0.035676893 -0.026419347
0000a0 d6 76 f4 bc 83 f1 8e bc 8c d0 e5 3c 83 f8 94 3c
       -0.029841822 -0.017449146 0.028053544 0.018184906
0000b0 45 0b ab bb 84 de 88 bc a8 a4 b5 bc 75 77 1a 3d
       -0.0052198493 -0.016707666 -0.02217324 0.03771158
0000c0 fc 5d b8 bb 87 4a 16 3d d7 66 30 3b 19 e0 b8 3c
       -0.005626438 0.03669217 0.0026916766 0.022567796
0000d0 86 2e 0f bd f2 e4 24 bd ba cb 55 bc b4 90 73 3d
       -0.034956478 -0.0402574 -0.0130490605 0.05946417
0000e0 67 43 d8 bb 82 88 4c 3d 32 64 3c 3d 8e 8d ca bc
       -0.006599832 0.04993487 0.04599399 -0.024725702
0000f0 6e 6e 05 bd 45 88 39 3c 07 0d c2 3c c6 d2 ca bc
       -0.032576017 0.011323993 0.023687853 -0.024758708
000100 9d 96 0d 3d 87 20 54 3d 99 61 d0 bc 0b c2 01 bd
       0.034567464 0.051788833 -0.025437163 -0.031679194
000110 40 d8 99 3b ee 45 98 bc 0f 07 93 3c c0 28 bb 3c
       0.0046949685 -0.018588033 0.017947702 0.02284658
000120 c7 46 6d bc bb 31 37 bd ae 1a 96 3c aa 38 0f 3d
       -0.014482207 -0.04472516 0.018323269 0.03496615
000130 3d f4 67 bc 53 a6 75 bd e5 94 38 bd 60 57 f2 3c
       -0.014157352 -0.059973072 -0.045063872 0.02958268
000140 a5 f5 00 bd 5e 9d ce bb fe 18 eb b9 50 73 ed 39
       -0.031484265 -0.0063053807 -0.00044841314 0.00045290077
000150 0e f7 25 bd 9f 8c 13 39 20 b8 39 3d 1d 2a 13 3d
       -0.040518813 0.00014071398 0.04534161 0.035928834
000160 05 96 06 3d a0 3c 86 3b 5c fe 8e 3c 07 92 60 bc
       0.032857914 0.0040965825 0.017455272 -0.013706691
000170 ed ef 3b 3b 7a 31 08 3d a9 2b 0f bd 5a 69 c2 3c
       0.0028676942 0.03325031 -0.034953747 0.023731876
000180 6f 07 20 bd a7 ac 9c 3c 8d 4a 17 bd e7 d3 19 3d
       -0.03906959 0.019125296 -0.03693633 0.0375556
000190 f6 e6 02 3d 6d 65 8e bc 4e 62 d7 3c 6f dc a6 3c
       0.031958543 -0.017382348 0.026291993 0.020368783
0001a0 25 fd 5e 3d bf 03 2c bd c8 12 27 3d 82 27 d1 3b
       0.054440636 -0.04199576 0.040789396 0.0063828835
0001b0 58 6a 12 bd 28 4a 45 3d 9f 05 10 3c e8 7c b7 3c
       -0.03574595 0.048166424 0.008790403 0.022398427
0001c0 a5 79 d9 b8 33 8f 46 bc 78 58 65 bd c5 8d 78 bd
       -0.000103700244 -0.012119102 -0.055992573 -0.060682077
0001d0 c7 8a 74 3a b6 d6 43 3d 72 1b 1f bc 85 05 18 3d
       0.0009328541 0.047812186 -0.009711133 0.03711464
0001e0 53 57 e4 3c e3 ef 3c bd 93 ff e6 bc ae 15 e8 bc
       0.02787367 -0.04612721 -0.02819804 -0.02833065
0001f0 5b ee c2 bb b4 e9 01 3d 8c f9 3d 3a 1c 78 cd 3c
       -0.0059488243 0.031717017 0.0007246963 0.025081687
000200 6e 71 06 bb db f3 58 bc a0 91 76 3d 3c 4b 3e bb
       -0.0020514387 -0.013241733 0.060197473 -0.0029036542
000210 ee 36 32 bd b0 0e aa bc 05 c9 96 bc 11 3a 3d 3c
       -0.043509416 -0.020758957 -0.0184064 0.011549489
000220 f0 2d 6f bc a2 91 b9 3a 79 5d 61 3d c7 45 2d 3d
       -0.014598355 0.0014157782 0.055020783 0.042302873
000230 74 31 dc bc 85 cd 14 bd d7 45 65 bd 6b 13 53 bd
       -0.02687905 -0.03632881 -0.055974808 -0.05153219
000240 b4 36 3b bd 19 38 09 3c ec 51 18 bd 9a 12 cb bc
       -0.045706466 0.008375191 -0.0371875 -0.024789143
000250 9f 22 b4 3c 3f ea 04 3d d6 fe 38 3d ef f5 1d 3d
       0.021989165 0.032449957 0.045164905 0.03856462
000260 78 ad c4 bb be 54 87 bc 84 54 66 3d 11 13 2a 3d
       -0.0060021244 -0.0165199 0.056232944 0.04152209
000270 b8 c5 b9 3b 2f 04 41 bc 7e e7 1e bd 30 85 e0 bc
       0.005669322 -0.011780783 -0.038794987 -0.027407259
000280 a3 bd a1 bb 55 74 54 bd 3f b6 65 3c 5a c6 3d bd
       -0.0049359365 -0.051868755 0.014020502 -0.04633174
000290 2d 54 9a 3a 8e c1 82 bd 0c 17 dc bc 6e ef d7 3c
       0.0011774354 -0.06384574 -0.026866458 0.026359286
0002a0 3e 6a d8 bc ff a4 30 bd a3 6f d9 3c fa 79 17 bb
       -0.026417848 -0.043126103 0.02654249 -0.0023113475
0002b0 a8 28 83 bc b1 eb 85 bb df 34 f2 3c 7b 2a 07 3d
       -0.016010597 -0.0040869345 0.029566227 0.032999497
0002c0 18 30 7c bc f7 9a 39 bd 82 7b fe 3c 37 2c 42 bd
       -0.015392326 -0.0453138 0.031064752 -0.047405448
0002d0 be 12 03 3d 61 0c 67 bc 8d fd 88 bc 8a df 2f 3d
       0.032000296 -0.014102072 -0.016722465 0.042937793
0002e0 60 0e 36 bc 28 9e 50 bd bc 6b 40 3b ba 9e cd 3a
       -0.011111826 -0.05093208 0.002936109 0.0015687563
0002f0 00 70 43 bd 01 44 fe bc 46 92 5f bd 3c 5f 0a 3d
       -0.047714233 -0.031038286 -0.054582857 0.03378223
000300 97 9e 2a b9 60 30 0e bd fa bf 79 3c e7 4d 31 b9
       -0.00016271543 -0.034714103 0.015243525 -0.00016909056
000310 06 67 28 3d e7 d5 64 bd f8 ca 66 3c f9 54 6d bd
       0.041113876 -0.055868056 0.014086477 -0.057942364
000320 d6 95 51 3d 1c c5 9c bc 4b 95 4c bd 20 d6 47 3c
       0.051168285 -0.019136958 -0.049947064 0.0121970475
000330 38 2a 73 bd 07 9c dd bc 44 84 c5 3c 6b 21 03 3d
       -0.059366435 -0.027051939 0.02411092 0.03201429
000340 67 fd 87 3d b2 b0 1c 3d 19 09 0b bd ac 52 33 bd
       0.066401295 0.038254447 -0.033944223 -0.043780014
000350 e8 d0 6b bc 60 59 38 3d 20 8f 96 bc 30 fe e3 bb
       -0.014393069 0.04500711 -0.018378794 -0.0069577917
000360 02 4e e2 3b 0a b9 ae 3b 80 b8 4e 3d 29 48 b4 bc
       0.006906272 0.005332117 0.05046892 -0.022007065
000370 ca 30 ec 3c dc 7c 29 3b 3a 4a e5 3b b7 a6 46 3d
       0.028831858 0.0025861776 0.006997374 0.048498835
000380 1b b0 d3 3b 05 23 62 bd 88 89 43 ba 21 94 9e 3c
       0.0064602024 -0.05520918 -0.00074591534 0.019357743
000390 18 cb 36 bd 02 a9 2d bd 62 7d 14 bd 27 b5 be bc
       -0.04462728 -0.042397507 -0.036252387 -0.02327974
0003a0 e6 42 cb 3c 37 2c 2e 3c 2a 94 27 bd 5b a2 28 3d
       0.024812173 0.010630659 -0.040912785 0.04117046
0003b0 19 41 a0 bc 42 bf eb 3b de 71 21 3d 7b d9 2e bd
       -0.019562291 0.0071944306 0.039415233 -0.042687874
0003c0 0c e6 37 3d 6f 0d 2a bb d0 91 29 3b 81 88 a2 bb
       0.044897124 -0.0025947948 0.0025874265 -0.00496012
0003d0 9a 58 27 bd 4a 69 07 bd 5c b4 a9 bb e4 1c 5f 3d
       -0.04085598 -0.033059396 -0.005178971 0.05447091
0003e0 e6 a8 24 3d 4c 9a a8 bc 20 3d 2e bc 2d 74 b9 3c
       0.040200137 -0.020581387 -0.0106346905 0.022638405
0003f0 8c b1 d4 3c bf 31 b0 bc a7 6b e8 3c 82 be 36 3d
       0.025963567 -0.021508096 0.028371645 0.044615276

bn2.weight f4 [300]
000000 81 11 63 3f c3 13 49 3f 8d ae 5d 3f f2 a4 42 3f
       0.88698584 0.7854578 0.8659447 0.76032937
000010 69 28 4b 3f b5 ba 3d 3f 39 9b 4e 3f 87 4d 84 3f
       0.79358536 0.7411302 0.807056 1.033616
000020 2b 6b 83 3f 19 b7 74 3f 99 fd 55 3f 5c 88 4c 3f
       1.026708 0.95591885 0.83590084 0.7989557
000030 0e cc 4c 3f 60 ce 7f 3f 53 b0 87 3f a3 f2 47 3f
       0.7999886 0.9992428 1.0600685 0.7810461
000040 e3 6d 44 3f 98 30 29 3f 27 8d 20 3f f3 b2 47 3f
       0.76730174 0.66089773 0.6271538 0.7800743
000050 65 79 30 3f 14 a8 37 3f f5 ab 4a 3f 3b dc 35 3f
       0.68935233 0.7174084 0.79168636 0.7103917
000060 38 a2 3b 3f f4 fc 15 3f 55 d1 1e 3f dd 89 50 3f
       0.732944 0.585891 0.62038165 0.8146036
000070 00 c4 45 3f 4a 46 45 3f ca ee 7e 3f 47 96 37 3f
       0.772522 0.7706038 0.99583113 0.7171368
000080 23 4e 82 3f 99 62 43 3f f6 ce 29 3f 55 5d 29 3f
       1.0180095 0.76322323 0.6633142 0.6615804
000090 84 53 5f 3f 45 01 70 3f 7c e0 38 3f e2 b7 3d 3f
       0.8723681 0.9375194 0.72217536 0.7410871
0000a0 71 08 4a 3f 4e 94 4a 3f 3b 41 53 3f 9b 60 4f 3f
       0.7891913 0.79132545 0.8252141 0.81006783
0000b0 0f 9c 82 3f 97 cf 39 3f 40 d6 35 3f da 7e 0e 3f
       1.0203875 0.7258238 0.71030045 0.5566231
0000c0 7e f2 77 3f f7 af 38 3f f9 f3 31 3f 6e 1b 72 3f
       0.9685439 0.721435 0.695129 0.94573104
0000d0 26 b0 3e 3f 94 42 72 3f 0c d1 7c 3f b9 81 11 3f
       0.7448753 0.9463284 0.9875648 0.56838566
0000e0 4e 85 34 3f 6a c1 85 3f e9 56 23 3f 96 5a 37 3f
       0.70515907 1.044965 0.6380449 0.716226
0000f0 25 62 29 3f f8 61 61 3f 4f 92 4b 3f fe 7f 4b 3f
       0.6616538 0.88040113 0.79520124 0.79492176
000100 e7 e9 55 3f 1c b3 58 3f 85 06 7a 3f 6b 1e 83 3f
       0.8356003 0.846483 0.976662 1.0243658
000110 36 71 3a 3f f1 c1 5b 3f 76 4e 38 3f 6e 0d 43 3f
       0.72828996 0.85842806 0.7199472 0.7619237
000120 49 88 85 3f e4 01 38 3f 7e 0b 81 3f 02 47 61 3f
       1.0432216 0.71877885 1.0081632 0.87998974
000130 c6 8c 7d 3f 2b c9 40 3f de 09 2e 3f 6a 97 37 3f
       0.9904293 0.7530696 0.67983806 0.71715415
000140 27 7d 2e 3f 6b e6 60 3f 31 75 47 3f c6 1a 59 3f
       0.6815972 0.8785159 0.77913195 0.8480648
000150 e9 40 80 3f c4 62 58 3f 0a 8b 7c 3f 4b 60 85 3f
       1.0019809 0.84525704 0.98649657 1.0420011
000160 e3 cb 22 3f be d4 55 3f d9 d6 37 3f a4 70 3c 3f
       0.63592356 0.83527744 0.71812207 0.73609376
000170 69 09 45 3f 77 12 83 3f a5 5c 41 3f c0 cb 80 3f
       0.76967484 1.024001 0.7553199 1.006218
000180 5b 78 4f 3f 8c 05 47 3f 57 a2 7d 3f 53 97 39 3f
       0.8104302 0.7774284 0.99075836 0.7249653
000190 23 0c 7a 3f c1 d7 68 3f d4 61 4d 3f d7 93 41 3f
       0.9767477 0.90954214 0.802274 0.7561621
0001a0 81 66 76 3f 34 66 24 3f b8 b3 2d 3f 36 d8 63 3f
       0.9625016 0.6421845 0.67852354 0.89001787
0001b0 e9 d9 2e 3f 77 29 5e 3f bd 11 4d 3f 07 ae 75 3f
       0.68301255 0.8678202 0.8010519 0.9596867
0001c0 8b ee 4e 3f 25 12 7a 3f 22 7b 79 3f 59 00 26 3f
       0.8083274 0.97683936 0.9745351 0.6484428
0001d0 14 64 44 3f 5b db 6b 3f f0 9e 87 3f 8a 30 80 3f
       0.7671521 0.92131585 1.0595379 1.0014813
0001e0 f0 b2 72 3f f0 10 48 3f f3 96 74 3f 84 31 7f 3f
       0.94804287 0.78150845 0.9554283 0.9968493
0001f0 71 cb 4a 3f b8 e0 86 3f c8 c5 66 3f e0 2c 5a 3f
       0.79216677 1.0537329 0.9014554 0.85224724
000200 b0 41 3d 3f a8 9a 3f 3f fe 63 55 3f fb 43 30 3f
       0.73928356 0.7484536 0.833557 0.6885373
000210 61 2c 1f 3f c3 63 81 3f 57 31 34 3f 92 52 44 3f
       0.6217709 1.010857 0.70387787 0.7668849
000220 26 45 74 3f 7a 57 38 3f 1d 16 68 3f b9 33 4d 3f
       0.9541801 0.7200848 0.9065874 0.8015705
000230 3b de 27 3f f1 8b 54 3f 3c d4 5d 3f 98 da 4c 3f
       0.6557347 0.83026034 0.8665197 0.8002105
000240 0b 52 83 3f 11 6e 7b 3f 2b 0d 29 3f b8 58 83 3f
       1.0259413 0.98214823 0.6603572 1.026145
000250 77 4d 47 3f f3 8a 46 3f 98 b3 39 3f 65 90 83 3f
       0.77852577 0.7755577 0.72539663 1.0278441
000260 3f 62 39 3f fd 8c 93 3f 33 6c 4c 3f 39 c5 2e 3f
       0.72415537 1.1527401 0.798526 0.6826969
000270 51 72 4a 3f 0f 98 24 3f 73 4e 4d 3f 43 7e 71 3f
       0.79080683 0.64294523 0.8019783 0.94333285
000280 c9 cc 2c 3f f7 62 2c 3f 62 4c 29 3f de 5b 53 3f
       0.6749998 0.6733851 0.66132176 0.82562053
000290 1e 26 32 3f 2d 79 30 3f 20 55 7e 3f d6 fd 7f 3f
       0.6958941 0.689349 0.9934864 0.999967
0002a0 c9 d4 6b 3f fd 64 31 3f 9a 31 41 3f ab dd 53 3f
       0.9212156 0.6929472 0.7546631 0.82760113
0002b0 40 85 2c 3f 18 7d 66 3f 36 8e 7b 3f 69 b2 3d 3f
       0.67390823 0.9003463 0.9826387 0.7410036
0002c0 c5 7b 41 3f 36 76 3f 3f 6a 31 38 3f e2 ab 32 3f
       0.7557948 0.7478975 0.719504 0.6979352
0002d0 9e 91 54 3f bb e6 52 3f 49 ce 80 3f 70 94 2b 3f
       0.83034694 0.82383317 1.0062953 0.6702337
0002e0 79 20 58 3f 18 48 2f 3f de 3f 83 3f 2d a5 52 3f
       0.8442455 0.6846938 1.0253866 0.8228329
0002f0 79 11 73 3f 87 02 53 3f 34 4f 8f 3f 4f 95 33 3f
       0.94948536 0.8242573 1.1196046 0.701497
000300 86 b2 5e 3f 97 83 24 3f 7b 3a 34 3f 94 7a 5b 3f
       0.86991155 0.6426329 0.70401734 0.85733914
000310 c1 0f 49 3f e5 28 67 3f f5 e2 4b 3f 6e f2 78 3f
       0.78539664 0.90296775 0.79643184 0.9724492
000320 19 03 3f 3f bc 32 37 3f c7 61 4d 3f ff a6 47 3f
       0.746141 0.7156179 0.8022732 0.7798919
000330 ed 31 6b 3f 54 a9 38 3f ce 92 43 3f 3a 56 3f 3f
       0.91873056 0.72133374 0.7639588 0.74740946
000340 58 0a 30 3f 57 37 66 3f 65 98 7c 3f 9d a5 2d 3f
       0.68765783 0.8992819 0.98670036 0.6783083
000350 f3 99 4f 3f a1 52 49 3f bd bb 38 3f 6f 9b 4a 3f
       0.8109428 0.78641707 0.72161466 0.7914342
000360 e1 23 4b 3f ec ff 28 3f 74 73 3c 3f 0b df 72 3f
       0.7935162 0.66015506 0.7361367 0.94871587
000370 4f 4b 6f 3f 05 65 38 3f cf b5 84 3f 19 fd 79 3f
       0.93474287 0.72029144 1.0367984 0.9765182
000380 88 0f 36 3f 90 ef 88 3f cb 06 58 3f 98 aa 42 3f
       0.7111745 1.0698109 0.84385365 0.76041555
000390 41 c1 4b 3f 36 b7 44 3f 0c 9e 42 3f b1 05 3c 3f
       0.7959176 0.7684206 0.7602241 0.73446184
0003a0 2a c7 50 3f 1b 06 33 3f 29 10 76 3f e1 7a 1c 3f
       0.815539 0.6993119 0.9611841 0.61125
0003b0 b0 c2 23 3f 03 df 55 3f 2c 02 6b 3f 14 44 5c 3f
       0.63968945 0.83543414 0.9180019 0.8604138
0003c0 8a b4 73 3f 23 d4 71 3f d5 54 54 3f 63 c6 77 3f
       0.95197356 0.9446432 0.82941943 0.9678709
0003d0 02 fd 1b 3f 04 11 43 3f 31 d6 5a 3f 59 26 30 3f
       0.60932934 0.7619784 0.8548308 0.68808514
0003e0 52 a4 3a 3f 2d 30 77 3f b8 24 31 3f 5f 16 68 3f
       0.7290698 0.96557885 0.69196653 0.90659136
0003f0 da 45 7d 3f 49 c8 83 3f 30 9e 4c 3f e5 fc 59 3f
       0.9893471 1.0295497 0.79928875 0.8515151
