Zadanie3/srcV2/models/VEP_exp_prob_01_exploration_100/actor_network.pth (torch, 507007 bytes, 10 tensors)

fc1.weight f4 [400, 8]
00000000: 04b9 d73d 6fcf 2c3e 02e6 59bd d3c1 c4bd
00000010: 5997 42bc 0dcc a2bd a1eb aa3e 482f 1abd
00000020: e3c1 9dbd 57b7 593e d67f 8c3d 749e 40be
00000030: 0932 933e 860a 40be d764 913e a459 f13d
00000040: 5b00 e33b 65e3 743e d9dc 453d 6568 383b
00000050: 89ee d4bd 2396 06bd 32a8 8c3e 6dd0 c73c
00000060: d3d5 363e e440 e13d ff0c 03be 7c5e dfbd
00000070: 6e76 c5bd a142 1d3e aed5 3f3d 7f82 063e
00000080: eeaa 45be bea0 8a3e c9af 4c3e 12cf a43b
00000090: a524 6fbe 7510 b13c 6bfb 603e 31e6 7b3e
000000a0: 1618 0ebe 1a2e b83e 6af9 2abc aa3f 8dbe
000000b0: 71ab e9bc 861d 09be 42bc ad3e 7e2f 113e
000000c0: 00ab 45be e6d2 ee3e 34fb aabc 66d1 e5be
000000d0: 852c 803e bfdf 923e c7e3 a23e a1f1 6c3e
000000e0: 5d8c 26be 2dde 8ebb f463 5abe 587d bebe
000000f0: c50d 75bd 48d6 f03d 2227 70be 96f2 463e
00000100: 032c 98be eeac 8d3e 899a 6f3e 1ff7 1e3e
00000110: 2fc2 f9bd 3bb9 1fbe a528 903e 50a7 803e
00000120: 6a03 4dbe b432 973e f12f 2dbd 9283 abbe
00000130: 4161 113e c534 ad3d efb2 0e3e a83c a73d
00000140: 33f1 1ebf 7ebb 783f 8bd4 57be 2977 8bbf
00000150: 55a7 283d ede2 87be ef99 153f 5dc4 023f
00000160: a236 1abe ec6b 753e 41fc 71be f530 0ebe
00000170: 6302 b83e bba0 833e 190d 113e 9b44 abbe
00000180: 6886 eabd 4147 a03e f374 6b3c bf99 06be
00000190: 6663 883e 1500 5b3e aa6b 2f3e 7c50 d53d
000001a0: 4d9e 04be a6ef b43e 76a6 183e db13 d7be
000001b0: d346 06be 077a 87be ae17 653e de5c 353e
000001c0: 52b1 18be 08ee e43e 9111 7fbd 0110 96be
000001d0: 950b 80be 725f 2bbe 73d9 8d3e 9c39 ba3e
000001e0: 5630 d6bd 64a3 b03e cd47 b23d 8f8d 7b3c
000001f0: 3b82 74be 4ef6 25be fc5b 103d e8d7 df3d
00000200: 9790 dfbd da40 d23e 150c a7bd b57a 70be
00000210: fbcb 6ebd 4291 07be 34ad 5b3e eb8e 933e
00000220: c8ae 1ebe dfc0 813e aaf0 14be 7f56 8cbe
00000230: ed91 893e 8f3a fe3d 6142 643e aece 40be
00000240: 83fb 70be 4892 903e 5fea 3e3e 2ca5 3cbb
00000250: 1072 1dbc ae8d eebd 8c8c 0d3e 547e 803e
00000260: f7e9 46be 6d80 db3e 43a5 813d fe9f 3dbe
00000270: 570f 34be 7145 5abe 6158 183e dbec cc3e
00000280: ba9b 62bc 46e9 233e 77c2 823d e644 57be
00000290: 49ee bcbd bd78 e53d ef11 013e 236c 70bd
000002a0: 97f5 0cbe a1a7 83bd 5e9f 25be 0da7 d9be
000002b0: 866d 32be 6b8c cabe 842c 1cbd 0e92 7f3e
000002c0: 8cc1 bfbd 656f 513e 83c0 cabd e3ed d6bd
000002d0: 8f75 313e bd88 9b3c 918c 683e 39ca 793e
000002e0: 15d6 2dbe 4646 f13d 5825 60be 27dd 46bd
000002f0: ad78 7d3e f738 1b3c 1038 623e abfc 6d3e
00000300: c5f4 81be dfda ad3e 44b3 fbbc 4dba b1be
00000310: 7597 a0bc 93d2 8fbe 6f62 57bc 8e84 683e
00000320: 8a4e d73c 076f a83e ebee 73bd f67f 68be
00000330: 20df c6bd 0372 cebd 6eea d13d a500 1c3e
00000340: d7b5 453b 94da 9e3e fb57 983d 08db ff3d
00000350: ece2 8cbe a40b 2cbe ecfd 1f3d 5c81 063e
00000360: 5003 56be 3c60 dcbd 2db5 03be 6891 01bf
00000370: 534f b3be 2265 84bd bb7e 8ebe 65b6 893e
00000380: cd10 aebc 867c 6b3e 6da9 db3c 0c1c 5fbe
00000390: ae41 bfbd b600 e5bd 467b 263e 6e00 883e
000003a0: c277 50be 61c9 823e ed34 5bbe aec6 42be
000003b0: ddaf 9a3e 56dd 8f3e c8d1 1d3d d0bc bcbe
000003c0: 52d5 29be 6a76 80bb c8a5 5e3d 804b a0be
000003d0: 969e 2fbe 2296 d53d c3be 28be 9d22 e23d
000003e0: 8285 e0bd 95ce ba3e 9923 6cbc 390f 97be
000003f0: 7da9 b93c a524 253e adbd 853e da9f 5c3e
0.10533336 0.16876005 -0.05319787 -0.096072815 -0.011876904 -0.07949076 0.33382896 -0.037642747
-0.077029966 0.21261345 0.0686032 -0.18810445 0.2874911 -0.18754014 0.28397247 0.11784676
0.0069275326 0.23914869 0.04830632 0.0028138396 -0.103970595 -0.032858025 0.27472073 0.024391377
0.17855005 0.10998705 -0.12797926 -0.10906693 -0.09641729 0.15357448 0.04683464 0.13135718
-0.19303486 0.27075762 0.19988932 0.0050295675 -0.23353823 0.021614293 0.21970908 0.2459953
-0.13876376 0.35972673 -0.0104354415 -0.27587634 -0.028524132 -0.13390169 0.33932692 0.14178273
-0.19303513 0.46645278 -0.020871736 -0.4488632 0.25033966 0.2868633 0.31814405 0.23139049
-0.16264482 -0.0043599815 -0.21327192 -0.37205005 -0.059827585 0.11759621 -0.23452428 0.19428477
-0.29721078 0.27670997 0.23398794 0.15523957 -0.12195241 -0.15598004 0.2815601 0.2512765
-0.20020834 0.2953087 -0.04228205 -0.33498818 0.14197256 0.084573306 0.13935445 0.08165866
-0.6208679 0.9716109 -0.21077172 -1.089574 0.041175205 -0.26540318 0.5843801 0.51080877
-0.15059903 0.2396695 -0.23631383 -0.13885863 0.3593932 0.25708565 0.14165153 -0.3345078
-0.11451417 0.31304362 0.014371145 -0.13144587 0.26638335 0.2138675 0.17130914 0.10415742
-0.12951012 0.35339087 0.1490725 -0.42007336 -0.13112955 -0.26460287 0.22372314 0.17711207
-0.14911392 0.44712853 -0.062272612 -0.29309085 -0.25008836 -0.16735628 0.27704963 0.36372077
-0.10458438 0.34499657 0.08705101 0.015353574 -0.23877804 -0.16207239 0.035243973 0.10929853
-0.1091625 0.41065103 -0.08156601 -0.23484309 -0.0583 -0.13239005 0.2145279 0.28819975
-0.15496361 0.2534246 -0.14544931 -0.2740974 0.26869145 0.12413513 0.22290947 -0.18828842
-0.23533444 0.28236604 0.18644093 -0.0028784974 -0.009609714 -0.11648117 0.13823146 0.2509638
-0.19425188 0.4287142 0.06330349 -0.18518063 -0.17583977 -0.21315552 0.14877464 0.40024456
-0.013831073 0.16006956 0.063847475 -0.21022376 -0.09225137 0.112046696 0.12604497 -0.058696877
-0.1376556 -0.06428457 -0.16174075 -0.42510262 -0.17424592 -0.39560255 -0.03812839 0.24958059
-0.09363088 0.2045265 -0.099 -0.10494592 0.17330001 0.0189861 0.22709872 0.24393548
-0.16976197 0.11780982 -0.21889246 -0.04855075 0.24753065 0.009474031 0.22091699 0.23240916
-0.25382057 0.33956048 -0.030725129 -0.3471245 -0.01960347 -0.28090343 -0.013146027 0.22706816
0.026282568 0.32897207 -0.05955402 -0.22705063 -0.097105265 -0.1008034 0.10249792 0.15234621
0.00301682 0.31026137 0.07438656 0.12492949 -0.27516878 -0.16801316 0.03906052 0.13135284
-0.20899701 -0.10760543 -0.12862082 -0.506125 -0.35021457 -0.06464602 -0.27831063 0.26896968
-0.021248246 0.2299672 0.026814187 -0.21788043 -0.09338699 -0.11181776 0.16257963 0.26562828
-0.20358184 0.25544265 -0.21406908 -0.19021103 0.30212298 0.28098553 0.03853014 -0.36862803
-0.16585281 -0.003920366 0.05435732 -0.31307602 -0.1715034 0.10429026 -0.1647902 0.11041758
-0.109629646 0.36485735 -0.014412784 -0.295038 0.022663826 0.1612726 0.26121274 0.21545354

fc1.bias f4 [400]
00000000: 6abf 873e 7d47 0c3e 9575 7a3e b86e 0f3e
00000010: 090a 9c3e 1994 b93e f37d e13e bfe9 573e
00000020: 2c4b 933e 368e 703e 3cd4 823f b10b 053e
00000030: 50e2 803e f184 3e3e a86c d43e 1ba2 903e
00000040: e8fe c53e 2e63 fe3d 8349 9f3e c7c2 e23e
00000050: 7001 103e f0c3 c63c 9787 9c3e 6ddd 8a3e
00000060: 8c91 483e a8e8 ba3e d01f 4a3e bbd7 f93d
00000070: 205f 9e3e fb57 d53d 76ad 673e 8495 9b3e
00000080: e8cb 3b3e aa4b 1e3e 14dd ec3e acbb 993e
00000090: 6fca 133e c6ad 9b3e 8fd4 743e 5be4 913e
000000a0: d40f 2a3e fe45 233e 0712 663e b0e8 2dbd
000000b0: 2841 fe3e 2d6a 063e 9d35 953e 6b8c 2b3e
000000c0: e4dc 953e a6f9 873e abe9 853e ee66 003e
000000d0: 80fa db3d 9ac7 773e dc98 9e3d 7ea4 ad3d
000000e0: 9f27 3e3e 6f7e 913e 257b 603e 96e4 293e
000000f0: d858 7f3e b2f4 e23d ccc2 d83e 0b61 ae3e
00000100: 8b71 bb3e bd72 923e 0142 943e c0c8 953e
00000110: a73c 023d 888f 363e 9c35 663f a7fc 823e
00000120: 1bf9 173e cb74 873e ec3b 9f3e d76b 623e
00000130: ca3a 2f3e 1168 803e 5cc1 8b3e 4cef a13e
00000140: 04ec b33e 2704 693e c7d3 a53e 190b a23e
00000150: 43de c83e f851 413e 9325 853e 1e2a 4e3e
00000160: 27e9 6a3e dd1b 483e bc72 8d3e 1803 a43e
00000170: bfa9 993e 20bd 05bc 499e c23e 8b7c 8f3e
00000180: 755a da3d 69a4 b63e 893d e03d 203f 963e
00000190: ed73 503e 7aa5 d03e b8c7 a33e d248 7a3e
000001a0: 3276 203e 25b4 693e 473a 203e 029e a53d
000001b0: 9305 d93d 00a2 053f 94b8 c23e bf6a 873e
000001c0: 65dd 923e 9908 823e 6408 713e c340 653e
000001d0: 7bd7 8e3e a180 de3d 7aef 293e 9228 903e
000001e0: cc42 f13d 7b80 a83e 62c3 fc3d 03fd 423e
000001f0: 295b 863e dd66 8e3e c0bb d33e 2ff4 833e
00000200: c9c8 a03e aefa 103f 50cf 983e da1e 7a3e
00000210: 0ff9 b13e b6c7 c83e c6bf 1f3e f015 18be
00000220: 83bd 373e d5c3 1c3d 78fe e13e 6474 1ebd
00000230: 9d7a 4f3e a014 003f 3387 c73e 2221 ce3e
00000240: a83c 423e 9cf9 093f ad5c 203e 515c 823e
00000250: c285 893e 063e 303e 5bfa a23e 84a5 a73d
00000260: c0da bb3e fb83 8a3e 3eb3 4e3e 0e05 823e
00000270: ff7c 3a3c 79dc 973e 7b4b 6c3e 03ee 083e
00000280: 161c 0b3f 3fec 733e 47f1 9f3e 0372 3f3e
00000290: 292c 7f3f f6e6 b13e 298b e63d 9d46 463e
000002a0: 4fd2 e43e 7e55 a63e 84ef d43e 572b 3f3e
000002b0: b0e9 ba3e 7bad 2b3e e25b 5a3e 1eaf 553e
000002c0: 1389 813e fd76 583d 0673 473e 270c 153f
000002d0: 290f cb3e 1e73 893e 656e 933e a154 b53e
000002e0: ec2d 943e 6a43 893e 7fd7 af3e 58c3 be3e
000002f0: 1087 a73e 8303 0e3f 9b19 413e c7d6 c23e
00000300: e6d6 543e cfe5 4ebe 3ae0 e93d 8954 4a3e
00000310: 622f 873e 94b2 873e 4a32 233e ee12 493e
00000320: ec95 f63e 3af7 8e3e 5922 093e eafd e53d
00000330: ca90 b2be 439e a83e 9102 983e 3f02 973e
00000340: 3c28 b13d 4750 9e3e 41db b73e fb2c 0f3e
00000350: 8a0c 573e a63a 8a3e 6f84 223c d5e6 1a3d
00000360: 798f 6e3e 4a84 8f3e 7e41 923e d9eb 6d3d
00000370: 681e bb3e 04f3 8e3e 360d a43e 430a b93e
00000380: b7e2 913e 1bb0 533e b02f 0e3f 170b 9d3e
00000390: a806 023e a7bf af3e 974f 573e 3174 a43e
000003a0: 6f3e 13bd 3864 453e 8942 6f3f dc35 423e
000003b0: 9957 b03e 1512 a53c ca33 843e 1429 143e
000003c0: a5a5 973e 4f45 b13e a701 1e3e 0ddc 5a3e
000003d0: afad 383e f09c de3e 508a c43e 17ce 003f
000003e0: bb52 9e3e bb9f 823e 9d7d fa3d dd45 733e
000003f0: b316 fe3e 82b0 603e 7e42 703e 5b11 a5bc
0.26513225 0.13699146 0.24458916 0.1400708 0.30476406 0.36245802 0.44041404 0.21085261
0.2876829 0.23491749 1.0221019 0.12992741 0.25172663 0.186054 0.41489148 0.28248677
0.3867104 0.12421261 0.31110772 0.44289228 0.14063048 0.024263352 0.30572197 0.2712206
0.19586772 0.36505628 0.19738698 0.121993504 0.3093195 0.104171716 0.22624764 0.3038751
0.18339503 0.15458551 0.4626242 0.30025995 0.14432691 0.30406016 0.2390921 0.28494534
0.166076 0.15944669 0.22467814 -0.042458236 0.49659085 0.1312644 0.29142466 0.16752784
0.2927009 0.26557654 0.26154837 0.12539265 0.107411385 0.24197236 0.07743999 0.0847864
0.18569802 0.28416774 0.21921976 0.16591105 0.24936235 0.11081828 0.42336118 0.34058413
0.36610064 0.28603163 0.28956607 0.29254723 0.031796124 0.1782819 0.8992555 0.25583383
0.1484112 0.26456293 0.31100404 0.2211145 0.1711227 0.25079396 0.2729596 0.31627882
0.35141003 0.2275549 0.32388136 0.31649092 0.39232072 0.18878925 0.2600523 0.20133254
0.22940503 0.19541879 0.27626598 0.3203361 0.30012318 -0.008162767 0.38011387 0.28024706
0.106617846 0.3567231 0.10949237 0.29345036 0.20356722 0.4075125 0.3198831 0.24441841
0.15670088 0.22822626 0.15647231 0.08086778 0.10596766 0.5220032 0.38031447 0.26448628
0.28684536 0.25397184 0.23538357 0.22387986 0.27898774 0.10864378 0.1659526 0.28155953
0.117803186 0.32910523 0.12341954 0.19041829 0.26241425 0.27812853 0.4135418 0.25772235
0.31403187 0.56632507 0.29845667 0.24425831 0.3476033 0.39214867 0.156005 -0.14852118
0.17943387 0.038272697 0.44139457 -0.038685217 0.20261617 0.5003147 0.38970336 0.40259653
0.18968451 0.538965 0.15660353 0.25461057 0.26859862 0.1721116 0.3183163 0.081858665
0.3669033 0.27053818 0.20185563 0.2539448 0.01138234 0.29660395 0.23075669 0.13372044
0.5433973 0.2382059 0.31238768 0.18695836 0.9967676 0.34746522 0.112570114 0.19362874
0.44691703 0.324871 0.41588986 0.18668877 0.36506414 0.16765396 0.21324113 0.20867583
0.25299892 0.05284785 0.19477472 0.5822167 0.39660004 0.2684564 0.28795162 0.3541613
0.28941286 0.26809245 0.34344098 0.3725841 0.32720232 0.5547411 0.18857424 0.38054487
0.20785102 -0.20204853 0.11419721 0.1975881 0.26403338 0.26503432 0.15937153 0.19636127
0.48161256 0.27922994 0.13392009 0.11230071 -0.3487609 0.32933244 0.29689458 0.294939
0.08650252 0.30920622 0.35909465 0.13982002 0.21000877 0.2699787 0.00991927 0.037817795
0.23296918 0.28030616 0.28565592 0.05808625 0.36546636 0.2791978 0.3204133 0.36140642
0.28493282 0.20672648 0.55541515 0.30672523 0.12697852 0.34325907 0.21026455 0.32119897
-0.035948213 0.19276512 0.934609 0.18965858 0.34441832 0.020150224 0.25820762 0.14468795
0.29618564 0.3462319 0.15430318 0.21373005 0.18035005 0.4347911 0.38386774 0.5031447
0.30922493 0.2551249 0.1223099 0.2375712 0.49626693 0.21942332 0.23462865 -0.020149877

bn1.weight f4 [400]
00000000: 1064 6e3f 83aa b13f f225 6d3f 4716 9e3f
00000010: ceb1 4a3f 7a06 2a3f 2ae7 cf3e 8d18 be3f
00000020: 1117 843f ae5b 5c3f b8d8 123e e273 b63f
00000030: 18aa 523f 03e0 863f 04b6 093f 9521 5d3f
00000040: 6660 313f 41c9 b73f 827a 583f 0eba 023f
00000050: ab23 ac3f 3999 fb3f 870c 623f e397 523f
00000060: 912b 543f 8edf 303f d754 863f ca04 f93f
00000070: f1e5 533f 3b01 c03f 7ac6 a13f 9078 423f
00000080: fb7f 673f 8ed0 be3f 15f5 ec3e ebc5 4f3f
00000090: 0b12 a63f 2a15 4e3f 4e3c 653f 9ffa 673f
000000a0: 4c0d 833f 4a86 993f 5b25 533f a2cf d03f
000000b0: 2932 e43e 3915 8c3f 2eac 503f ddb3 ab3f
000000c0: 82ea 2b3f 1143 403f cbb5 403f 9568 a73f
000000d0: 9798 b13f cd3b 7e3f 425b d23f 5cab 913f
000000e0: 0b6e b93f 1812 763f b323 473f b2fe 9c3f
000000f0: 6719 853f c9af 933f 51d8 da3e 78c6 423f
00000100: 6c2e 1d3f 3340 413f 72a6 8e3f 5baf 553f
00000110: 05c9 d03f a9d4 8e3f 0ad8 363e 0dad 273f
00000120: 54ff 8f3f adde 753f 1c4d 4c3f 991e 9e3f
00000130: cd9d 6c3f ca3e 823f 7bc0 623f e55f 3b3f
00000140: dc2f 3c3f a177 5a3f f27e 303f 46ac 4e3f
00000150: 214b 1e3f d159 a03f 7a34 7b3f 7370 943f
00000160: f06e 6e3f 0930 903f d569 313f 4e9b 433f
00000170: b5bd 573f ed6c d83f 181f 1b3f ea23 5b3f
00000180: aa43 d03f c32f 373f f465 b13f 9887 693f
00000190: 4a76 af3f addb 223f e6fd 383f f029 633f
000001a0: e274 b53f 978d 813f a7fe a23f e61f a83f
000001b0: 135b a93f 4a63 c33e 62b9 063f eef5 4b3f
000001c0: 380e 553f 205e 603f 0f33 723f 135f 963f
000001d0: 1d35 483f f784 903f 1daf a33f 731b 7c3f
000001e0: edb7 9f3f b370 2a3f 7bb8 923f 0804 af3f
000001f0: 878b 893f 408b 943f 7a13 073f 827f 603f
00000200: f552 703f b207 bf3e a848 6b3f 1398 583f
00000210: 794d 423f 6f5d 023f 84ea 883f 5a4a f03f
00000220: 3ce3 ac3f fdb5 e63f 28bf 053f 4d66 bb3f
00000230: 8fca 7d3f f0b0 c73e 5221 163f 9acb f23e
00000240: f609 c23f b44d c23e a26d 833f df02 733f
00000250: d023 723f b437 b43f fbf7 363f 869a b03f
00000260: 47e7 1d3f 7b8b 3c3f 5a56 ae3f a395 6e3f
00000270: dbf5 a33f a6c2 423f bd31 b13f 6eae 9d3f
00000280: 18b6 bf3e 19fe 6b3f 9705 453f 2098 b73f
00000290: b22a 183e 9e05 423f 009a ab3f 93aa 863f
000002a0: 09ef 173f 4880 443f 342a 0a3f 9f87 b73f
000002b0: 1966 2b3f fcd4 903f c61e 713f de75 843f
000002c0: 3499 5f3f 083c e53f f163 9a3f 7f90 ac3e
000002d0: 56c3 1f3f 6c7b a03f 6fce 763f f6d2 2a3f
000002e0: 4560 463f 7499 663f 9911 5b3f 1a19 2a3f
000002f0: 7ea4 1c3f 664d c93e af3c ba3f f480 173f
00000300: 583d 783f e8d8 fe3f c7b8 b03f 340d 853f
00000310: 43ed 8b3f 761f 683f 0529 ae3f 643e b43f
00000320: d0c7 dd3e 6777 883f a6e5 a23f 5930 9c3f
00000330: 8000 0040 a89e 583f 0411 1e3f 4621 773f
00000340: 669d c63f 9a4f 3a3f f576 133f 41cd 933f
00000350: 1741 8b3f c0dc 5b3f 08ed d33f 8608 b63f
00000360: 3da6 553f 2997 523f 5262 3e3f c233 b63f
00000370: 4dc9 413f 292a 653f 1b87 2f3f ac9f 3e3f
00000380: 95eb 613f e78e 943f edc5 c33e 4e2e 743f
00000390: 3fc0 913f 45c5 293f b802 b33f dfd0 503f
000003a0: b1bc de3f b16f c63f b4fc 363e e55b a83f
000003b0: 2fc1 453f 2f4e b13f ebd0 6f3f b205 923f
000003c0: 12b8 393f 948e 5a3f 78d1 943f 8747 9e3f
000003d0: b162 853f 5910 003f 8319 293f b71f d83e
000003e0: 727b 613f 732f 843f 994f a83f c5da 623f
000003f0: 702b d13e 74ce a43f c6dc 943f d538 fa3f
0.93121433 1.3880161 0.92636025 1.2350549 0.7917756 0.6641613 0.40606052 1.4851242
1.0319539 0.8607739 0.14340484 1.4254115 0.8229079 1.0537113 0.5379336 0.8637937
0.6928772 1.4358293 0.8456193 0.51065147 1.3448385 1.9656135 0.88300365 0.8226301
0.8287898 0.6909112 1.0494641 1.9454587 0.8277274 1.5000376 1.2638695 0.75965214
0.9042966 1.4907396 0.46280733 0.81161374 1.2974256 0.80501044 0.8954514 0.9061679
1.0238433 1.1994107 0.82478875 1.6313365 0.4456952 1.0943977 0.81512725 1.3414265
0.67154706 0.75102335 0.75277394 1.3078791 1.3874692 0.9931 1.64341 1.138042
1.4486707 0.9612136 0.7778885 1.2265227 1.0398377 1.153802 0.4274316 0.7608409
0.6139896 0.75488585 1.1144545 0.83470696 1.6311346 1.1158649 0.1785585 0.6549843
1.1249795 0.960429 0.7980516 1.2353088 0.92428285 1.0175412 0.8857495 0.731932
0.7351053 0.8533879 0.68943703 0.8073162 0.6183339 1.252741 0.9812695 1.1596817
0.9313803 1.1264659 0.6930211 0.7640885 0.84273845 1.6908242 0.6059432 0.85601676
1.627065 0.71557254 1.3859239 0.91222525 1.3707974 0.6361645 0.7226242 0.88735867
1.4176295 1.0121335 1.2733964 1.3134735 1.3230919 0.3816169 0.5262662 0.79672134
0.8322482 0.87643623 0.9460916 1.1747764 0.78206044 1.1290578 1.2787815 0.98479384
1.2478005 0.66578215 1.1462549 1.3673105 1.0745705 1.1604996 0.52764094 0.8769456
0.9387658 0.3731056 0.9190774 0.84607047 0.75899464 0.5092382 1.0696568 1.877269
1.3506846 1.8024288 0.52244806 1.4640595 0.99137205 0.3900218 0.5864459 0.4742096
1.515929 0.37949908 1.0267832 0.94926256 0.94585896 1.4079499 0.7147214 1.3797157
0.61681026 0.7365033 1.3620102 0.9319708 1.2809404 0.7607826 1.3843304 1.2318857
0.37443614 0.921846 0.76961654 1.43433 0.14860037 0.7578982 1.3406372 1.0520805
0.59349114 0.7675824 0.53970647 1.4338263 0.66952664 1.1314998 0.9418758 1.034847
0.87343144 1.7908945 1.206175 0.33703992 0.62407434 1.2537665 0.9640874 0.6672815
0.77490646 0.900779 0.85573727 0.6644455 0.61188495 0.39316863 1.4549769 0.5918114
0.96968603 1.9909945 1.380639 1.0394654 1.0931782 0.90673006 1.3606268 1.408154
0.43316507 1.0661439 1.2726333 1.2202255 2.0000305 0.8461709 0.61744714 0.96535146
1.5516784 0.7277771 0.5760339 1.1547014 1.0879239 0.8588371 1.6556711 1.4221351
0.83456784 0.822619 0.74368775 1.4234545 0.75697786 0.89517456 0.6856553 0.7446239
0.88250095 1.160611 0.38236943 0.95383155 1.1386794 0.66316634 1.3985205 0.8156871
1.7401334 1.5502836 0.17869836 1.3153044 0.772479 1.3851985 0.9367816 1.1407988
0.72546494 0.85373807 1.1626425 1.2365578 1.0420743 0.50024945 0.6605455 0.42211697
0.8807899 1.032698 1.3149291 0.88615066 0.40853453 1.2875504 1.1629875 1.9548594

bn1.bias f4 [400]
00000000: 7500 cfbe c5d2 96bd f16c a4be 4400 5bbe
00000010: 4cbd bebe f8c2 f0be f579 30bf 54dc a4bc
00000020: af13 6fbe d3b3 aebe 00f5 56bf dbe9 d9bd
00000030: d544 b0be 31fd 6dbe 0419 1fbf a286 bdbe
00000040: 1022 04bf 0c90 03be dbf1 a4be acf0 1dbf
00000050: 529f 37be 6956 42bd 239e c0be db4d a0be
00000060: 391d a8be 0f7e 0fbf abdb 43be 001a a53d
00000070: 92c8 e0be 1349 15be 78f9 a3bc 0f15 05bf
00000080: 0df3 d2be c13c 09be 2299 1cbf 9281 d5be
00000090: 5cde 6abe 6976 dbbe 740d ddbe d3d8 b0be
000000a0: 4904 58be 9444 01be 9644 9ebe 3461 86be
000000b0: 1e45 3bbf b637 b0bd a8d3 ddbe f0a9 94bb
000000c0: 0075 03bf ff31 e1be 15c8 75be f204 44bd
000000d0: efea 72bd ad3e 97be 6bb5 dd3c 9d55 033d
000000e0: 38b8 0b3e 508c c3be dcea d2be d662 22be
000000f0: e89f 26bc d821 383c f119 29bf 4512 ebbe
00000100: 945e 08bf 1c77 b7be 7dbc 91be 2d4f d5be
00000110: bc13 09be 7a3e 4abd e5bc 62bf 13d4 e5be
00000120: 8bcb 7cbe 9c2d a3be 9d4a 2ebe 5ef4 86bd
00000130: 71d7 45be 212f 81be f572 a7be fee3 dcbe
00000140: 591e d0be 09e9 a9be 5430 e2be d00e d1be
00000150: 7d3d 14bf af14 58be 0ffa b3be d034 9cbe
00000160: 1d29 59be 682b aebd 2444 e5be 7186 d8be
00000170: 2c2a eebe b1f1 bb3c e9c4 12bf 2e13 d4be
00000180: 3dcf 8fbd dc5f 06bf 9127 b0bd 1adc 90be
00000190: 711e 3fbe c92c 04bf 8ff3 d7be 3074 f5be
000001a0: c551 39bc 0c8a a9be 163a 01be ca35 b33c
000001b0: de2c 81be 4ec0 41bf 05d6 0dbf 46f3 cabe
000001c0: aae2 ccbe 7151 e0be 42f7 a2be e9e9 63be
000001d0: 04a1 ecbe a1ba d1bc 1e07 5cbe a8f3 31be
000001e0: 2d35 97be fda1 fabe acc5 acbe 7216 08be
000001f0: bbf6 77be 2d65 ca3c cc65 1bbf bb3a c8be
00000200: 418c bfbe eccd 3fbf d618 bfbe 69e2 89be
00000210: 2e26 cfbe e8b0 1fbf 5fe5 1a3d 8ae2 083d
00000220: 7f09 6ebe 671f 403d b8cc 15bf 8e2e 71bd
00000230: f408 a2be 9ccc 3ebf 16eb 1abf 526a 25bf
00000240: 2d02 f63d 1a09 40bf 2fd7 b7be 6194 f7be
00000250: 410e c5be a9a8 5dbe 4924 ddbe cd15 87bd
00000260: de64 10bf 7a41 eebe 8831 c73d 4e93 77be
00000270: ef7e 09be 20dc e5be a583 a3ba eb72 4abd
00000280: 6441 32bf 4a51 a6bd 1415 f0be 7729 0cbe
00000290: d132 5ebf c3c9 cbbe 1042 a7bd ee33 c7be
000002a0: 0421 1abf 117c d0be 7729 19bf 8091 e9bd
000002b0: a7ff dabe 3099 39be 39dc a5be 9351 a4be
000002c0: 8d33 e1be c145 003d aa96 13be 3af7 40bf
000002d0: c723 07bf bd85 65bd f4fd 99be 045d 09bf
000002e0: e0a2 e6be 52d5 2dbe 5f52 a5be efcc e6be
000002f0: efe8 11bf e6dd 44bf 7078 a1bc 7f4a 10bf
00000300: ea5b a1bd 93fb 933d bbfc cf3c 5612 9fbe
00000310: a5c9 37be a54c dabe 5de1 ffbd 0913 07be
00000320: 82eb 34bf 0004 96be 88c2 48be 840c 02bd
00000330: e395 753e 8adc f4be e2f2 00bf f270 8ebe
00000340: e151 99bd 63fe e6be 9273 03bf 0785 59be
00000350: 0ce4 59be a08e b2be de3b 03be 2d7d 43be
00000360: 4873 c2be 1bfa b6be 0496 cabe 95cd 8a3c
00000370: 5b8e bfbe a497 d1be 55a0 fcbe 7d90 e5be
00000380: 0cce cabe e260 5fbd 64f5 46bf 5fe0 78be
00000390: c582 40be 47eb d2be 2d89 13be 6534 d1be
000003a0: 46b2 3abe eac6 8dbc 6ba9 6dbf 6b77 473d
000003b0: b959 c3be 7a04 06be 802c 44be a99b ecbd
000003c0: 1314 e3be f79a 98be 41ef bfbe d255 82be
000003d0: b8c3 88be 70ed 2ebf 11aa febe f24c 37bf
000003e0: 333c b8be 8dfd bbbe 71dc 01be ee01 fdbe
000003f0: 208a 31bf b159 44be ca62 77be 2f50 b13b
-0.40430036 -0.0736442 -0.32114366 -0.2138682 -0.37253797 -0.4702375 -0.6893609 -0.020124592
-0.23347352 -0.3412157 -0.8396759 -0.106403075 -0.34427515 -0.23241116 -0.62147546 -0.3701678
-0.51614475 -0.12847918 -0.3221577 -0.6169536 -0.1793187 -0.04744569 -0.3762065 -0.313094
-0.32834795 -0.56051725 -0.19126765 0.080616 -0.43903023 -0.14578657 -0.020016417 -0.5198526
-0.41201058 -0.13402082 -0.6117116 -0.41700417 -0.22936386 -0.42863777 -0.43174326 -0.34540424
-0.21095385 -0.12623817 -0.30911702 -0.26246035 -0.7315234 -0.08604376 -0.43325543 -0.0045368597
-0.513504 -0.43983456 -0.24002106 -0.04785628 -0.05930608 -0.29540005 0.027064046 0.03206407
0.13644493 -0.38192987 -0.41194808 -0.15858015 -0.010169961 0.011238538 -0.6605521 -0.45912376
-0.53269315 -0.3583306 -0.28464118 -0.4166197 -0.13386434 -0.04937599 -0.8856948 -0.44888362
-0.2468702 -0.31870735 -0.1702065 -0.06589578 -0.19320466 -0.2523127 -0.32704893 -0.43142694
-0.40648153 -0.33185604 -0.44177496 -0.40831614 -0.57906324 -0.2110164 -0.35151717 -0.30509043
-0.2120709 -0.08504373 -0.4477855 -0.4229007 -0.4651655 0.022942396 -0.5733171 -0.41420883
-0.070219494 -0.5249002 -0.08601297 -0.28292924 -0.18663956 -0.51630837 -0.42178008 -0.47940207
-0.011310999 -0.33113134 -0.12619814 0.021876235 -0.25229543 -0.7568406 -0.5540469 -0.39638728
-0.4001668 -0.43812135 -0.31829268 -0.22257198 -0.46216595 -0.025601687 -0.2148709 -0.17378104
-0.29532757 -0.48951712 -0.33744562 -0.13289812 -0.24215214 0.024706447 -0.60702205 -0.39107308
-0.37411693 -0.74923587 -0.37323636 -0.2693055 -0.40458816 -0.6237931 0.0378164 0.03341917
-0.2324581 0.046904948 -0.585155 -0.05888229 -0.31647456 -0.7453096 -0.6051496 -0.64615357
0.12012134 -0.7501389 -0.3590636 -0.48355392 -0.38487437 -0.2164637 -0.43191746 -0.06595955
-0.5640391 -0.4653433 0.09726244 -0.24177286 -0.13427328 -0.44894505 -0.0012475146 -0.049426
-0.6963103 -0.081209734 -0.4689108 -0.13687693 -0.8679629 -0.3980237 -0.08166897 -0.38906807
-0.6020663 -0.40719655 -0.59828895 -0.11404705 -0.42773172 -0.18124843 -0.3239458 -0.32093486
-0.43984643 0.031316523 -0.14412943 -0.7537724 -0.52788967 -0.056035746 -0.30076563 -0.53657556
-0.4504614 -0.16975906 -0.32289407 -0.45078227 -0.56996053 -0.7690109 -0.01971075 -0.5636367
-0.07878859 0.07225718 0.025389066 -0.31068677 -0.17948015 -0.426366 -0.124941565 -0.13190855
-0.70671856 -0.29299927 -0.19605458 -0.031750217 0.23982958 -0.47824508 -0.5037061 -0.27820545
-0.0748632 -0.45115957 -0.5134822 -0.21242152 -0.21278399 -0.3487444 -0.12815806 -0.1909072
-0.37978578 -0.3573769 -0.39567578 0.016943732 -0.37413296 -0.40936005 -0.49341074 -0.44836798
-0.39610326 -0.054535754 -0.77718186 -0.24304341 -0.18799885 -0.41195127 -0.14407797 -0.40860286
-0.18232068 -0.017306764 -0.92836636 0.04869787 -0.3815439 -0.13087645 -0.191576 -0.11553127
-0.44351253 -0.2980573 -0.37487224 -0.254561 -0.26711822 -0.6833105 -0.49739125 -0.71601784
-0.35983428 -0.3671688 -0.12681748 -0.49415535 -0.6935139 -0.1917484 -0.24158779 0.00541117

fc2.weight f4 [300, 400]
00000000: dd72 1f3e f69f 193d 0405 dcbd a1e9 733e
00000010: 6c39 a3bd baf5 6c3e 43e5 69bd 5167 213e
00000020: d317 87be 1f34 4d3e 19f3 f0bc 63a5 483e
00000030: fa0e 633e bb39 b6be 5206 e13d 4166 49be
00000040: 2045 d4bd 9598 c4bd 9bcc 883d 9504 893d
00000050: ddf9 e1bb 1ed9 60bd e146 bbbc 3f43 fdbc
00000060: e2b9 e5bd 52d6 fa3d 0b7a a5be a4bb d13d
00000070: 5bcc 483e 05ae e9bc 6d4b 37be 682f 693e
00000080: 3d19 803e b984 a03d 2bc3 84bc c7dd c1bd
00000090: 1d39 55bd f959 803d 7a17 883c 43de 10be
000000a0: 9d3d f9bd 292d 053e 6783 d7bd cce2 ab3e
000000b0: 8266 16bc 5d31 82bd 4012 74be e1f1 363e
000000c0: d36d 343d f69d 29be a1f8 e93d f04c be3d
000000d0: f561 9bbb c6f2 993e a685 283d 587b 50bc
000000e0: 01b3 8c3e f5f5 d4bd 9f0c 08be 7031 893d
000000f0: f574 7fbb 1078 c33d f4af 5ebe c901 d8bd
00000100: 55ae 593e 8337 e1bd e232 123d 3311 a2bd
00000110: 9ece 7ebd daba e3bd 97f9 22bd 464a d23d
00000120: ea7a ac3d 93a3 c5bd bff6 2f3e bff4 02be
00000130: 9a2e f7bd cb02 873c 1e19 6ebd f485 afbe
00000140: 96fa e0bd b192 c8be a6f6 353e 51a8 40be
00000150: 5efc 88bd 2700 0e3e 753c 3dbe ed2c 97be
00000160: caa4 bd3c 30d1 9cbd fb48 bebd 035c 3e3c
00000170: d892 bdbd 5ed8 1d3e f3db 25be c265 2ebe
00000180: acfe f93d bc75 b8bc 5f74 d93d bbf7 93be
00000190: ca8c 8b3e 22d1 f63d 8a7b 8abd 5537 7cbb
000001a0: 6e6a 813b fbac 8ebd 7a3b 0bbd 39d8 833d
000001b0: 9280 853c 57f2 debd 3129 a3be 1c69 fdbd
000001c0: 749b 30bd 2e01 373d 9547 51be 6fb1 eebd
000001d0: bf2b 03bd df30 2fbd 7888 493b 12c8 18be
000001e0: 3794 703e 4006 97be 39e3 24be 7211 7d3e
000001f0: f79a bd3b b51c bbbd 2e97 10be a5e4 123e
00000200: f613 583e 86d3 3ebe e6fb fabd 92f7 bebc
00000210: 9923 18be 5204 07be 1098 b9bd f273 8b3e
00000220: c1a2 2d3e 2c0d da3d f6ee 453e 6394 523e
00000230: 5c3b 04be e5b8 9e3d 81ab 2a3e d01b 7e3d
00000240: 6e5d 853e ba0d e4bc a558 2ebe 695c e23d
00000250: ba2b 8abe 123c ee3d 3bbc 4dbd 7341 733e
00000260: 5fcb b43d 90b7 87be e6c7 9b3d 1b33 33be
00000270: 53c0 503d e531 90bb 1d20 6fbd d095 923d
00000280: 9f0c d0bc 48fa 8ebd c378 b33c fa65 f63d
00000290: a5d8 f53d 09ec 4a3d f94f 19bd 069a 47bd
000002a0: b7ef b8bc 6273 063d 67e8 a83d 703e 093e
000002b0: ba84 8d3d 5c52 e5bc 4d96 8d3d 39f2 e3bc
000002c0: 6d74 643e 4537 d03d 1954 8e3c 3fed dfbd
000002d0: 4f10 9cbd ce75 a3bc 4f2b debd 7389 5f3e
000002e0: 4213 b73d 4457 d2bd 84ba 203c b1bb bb3d
000002f0: e803 65be 49f8 e3bd e3c8 e03d 22e8 8abd
00000300: 447b 94bd e5bf 413e aa33 273e 781d 283e
00000310: 507d 253e 0ad8 d03e 1ff3 18bd 64f2 9d3e
00000320: d125 37bd 94fa b43d 2445 f13c f1f7 863e
00000330: 29b7 e53c e07b bb3d fd60 edbd 173a 42bc
00000340: 81b8 d53d 00db 6bbb f560 b33d 048a 04be
00000350: b6a2 e6bc cec2 27bc d755 013e 072f 26be
00000360: 7a19 a3bd 980a 8abe a304 07be ce16 da3c
00000370: 0a94 e83b 920c 3e3e afdc 573e bb91 7fba
00000380: 9332 71bd ef94 543e b738 32be 7b1e abbd
00000390: 4a72 6e3e 615a 8e3d 9aa5 95bc c19f 5a3d
000003a0: f396 d73d d961 16be 5982 98bb fafb 663d
000003b0: 2816 46be 9a5f 4c3e db29 24be 47a9 56be
000003c0: 535b c53d 7bb2 443c 4cfc 693d 2ffb 9f3e
000003d0: 714b 933e c39b 0bbe 2c70 f83b d850 a1bd
000003e0: 32f9 0cbe aef2 5ebe 8bad 9a3e 502a 773d
000003f0: 34e5 cc3d e210 31be c9f2 2fbe f404 0cbc
0.1557116 0.037506066 -0.10743144 0.23819591 -0.07969937 0.23140612 -0.057103407 0.15762068
-0.26385364 0.20039414 -0.029412793 0.1959434 0.22173682 -0.3559092 0.10987534 -0.19667913
-0.10364747 -0.09599415 0.066796504 0.06690327 -0.006896241 -0.05489456 -0.022860946 -0.030915854
-0.11217095 0.122479096 -0.32319674 0.10240868 0.19609205 -0.028525362 -0.17899866 0.2277199
0.25019255 0.07837815 -0.016206345 -0.09466129 -0.05205642 0.06267161 0.016612757 -0.14147286
-0.12169955 0.13005508 -0.1052311 0.3357147 -0.009179713 -0.063570715 -0.23835087 0.17865707
0.04405005 -0.16564164 0.11424375 0.092920184 -0.004741902 0.30068034 0.041143082 -0.01272472
0.2748032 -0.10398475 -0.13286065 0.066988826 -0.0038979624 0.095443845 -0.21746808 -0.105472155
0.21257909 -0.10996916 0.035693057 -0.07913437 -0.062208764 -0.111196235 -0.03978881 0.10268073
0.084218815 -0.0965034 0.1718397 -0.12788676 -0.120694354 0.016480824 -0.058129422 -0.34281886
-0.109852955 -0.39174417 0.1776987 -0.18814208 -0.0668876 0.13867246 -0.18480094 -0.29526463
0.023149867 -0.07657087 -0.09291264 0.011618617 -0.09256524 0.15414569 -0.16197185 -0.17031005
0.12206778 -0.022517078 0.10617899 -0.2889994 0.2725585 0.12051608 -0.067618445 -0.003848513
0.003949455 -0.06966587 -0.03399227 0.064377256 0.016296659 -0.108860664 -0.31867364 -0.12373564
-0.043117 0.04467886 -0.20437463 -0.116549365 -0.03202414 -0.042771216 0.0030751508 -0.14920071
0.2349404 -0.29496956 -0.16102304 0.24713686 0.0057862955 -0.09136335 -0.1412017 0.14345033
0.21101364 -0.18635377 -0.12255077 -0.02331141 -0.1485733 -0.13185242 -0.09062207 0.27236897
0.16956617 0.106470436 0.19329438 0.20564418 -0.12913269 0.077501096 0.16666986 0.062038243
0.26047844 -0.027838577 -0.17026003 0.11052782 -0.26986486 0.11632551 -0.05022834 0.23755436
0.088278525 -0.26507235 0.07606487 -0.17499964 0.050964665 -0.004400479 -0.058380235 0.07157481
-0.025396643 -0.06981331 0.02190817 0.12031169 0.12004212 0.049541507 -0.037429783 -0.048730873
-0.022575242 0.03282488 0.08247452 0.13402724 0.06910081 -0.027993374 0.06913433 -0.027825462
0.22310038 0.10166792 0.017374085 -0.10933923 -0.07620298 -0.019953635 -0.10848104 0.21829776
0.0893922 -0.10270551 0.009810094 0.09166659 -0.22364771 -0.11131341 0.10975816 -0.06782557
-0.072500736 0.18920858 0.16328302 0.16417491 0.16161084 0.40789825 -0.037341233 0.30848992
-0.0447138 0.088368565 0.029451914 0.2636104 0.02804144 0.09154487 -0.11590765 -0.01185467
0.10435582 -0.0035988688 0.087587275 -0.12943274 -0.028153758 -0.010239316 0.12630402 -0.16228877
-0.07963844 -0.26961207 -0.13185363 0.026622202 0.0070977258 0.18559483 0.21080278 -0.00097491936
-0.058886122 0.20759939 -0.17404447 -0.08355423 0.23285785 0.06950832 -0.018267442 0.05337501
0.10526838 -0.14685763 -0.0046542105 0.056392647 -0.1934439 0.19958344 -0.16031592 -0.20963012
0.09636559 0.012005444 0.057125375 0.31246325 0.28768495 -0.13633637 0.0075817313 -0.07876748
-0.13766935 -0.21772262 0.30210528 0.060343087 0.100046545 -0.17291597 -0.17182459 -0.008546103

fc2.bias f4 [300]
00000000: 052c 313c 9998 25bd a467 80bd 333f ed3c
00000010: 07f9 863c e994 103d e7b7 69bd 40e7 603c
00000020: 520d b73b fb1b cf3c 408a 893d 61d7 fa3c
00000030: cec4 38bd 2281 173d 3a56 113e 398e d1bc
00000040: 04c4 97bd b7dd a6ba c7f3 cc3d eb29 a93c
00000050: c695 a1bd ae64 323d 0b5c cfbc fc08 373c
00000060: 118e 953d ee97 7fbc f429 80bc 4fa3 163c
00000070: 0e55 5b3c 80ca e83d 6a97 1cbc 8c6d 3dbc
00000080: f0f9 903b db1d 05bd 4417 11bd ad40 d7bc
00000090: 71fc 083d 4c1d f9bc 317e 853d d3b6 123d
000000a0: f52d 4bbd 9f8e 0e3b 7968 8cbd 2fca b9bc
000000b0: e7cc 2abd 134f cf3b 0d57 30bd e1a9 3eba
000000c0: bd43 223d c319 86bc d9aa 8a3c 4c04 353d
000000d0: e57b 153d 2df2 32bc caeb 4d3d c533 fdbc
000000e0: d909 04bd f35f 883b fbad 1ebd 66a9 3e3d
000000f0: 9d24 f9bc 033a 8e3c 740f 7c3c 01a7 cf3b
00000100: 750f 27bd cf49 92bd 1dff 5d3d c249 3c3d
00000110: e32b 3f3d 5c5e 13bb b32a c93c 9866 c5bb
00000120: ed1d 6b3c 5f62 83bd 23bb 8bbb 7707 cebb
00000130: b302 223d 43a1 f8bc 4714 123e f675 92bc
00000140: 9d66 b03c 4bdc a13c 742c 96bc 56bb cfbd
00000150: aa9d a3bd 017f 533d 6106 9e3d 9776 6e3c
00000160: 068f bb3d 8957 8e3d 9647 cabc b7fa 523b
00000170: 6d11 db3b e603 9a3c f4f3 0f3d 1c8b 45bd
00000180: 9013 ff3c fce1 0abd 79d4 0cbd a97f 073d
00000190: 7f46 e7bb a9e0 2e3d d36a 2ebd 1a3a 9fbb
000001a0: 56e3 54bd ada7 d0bc b191 e43b 27be 37bd
000001b0: 8df7 5d3d 513b 063d 26e3 183b 0447 4dbd
000001c0: c582 aebd 2f45 d83c 09b8 8abd f567 353d
000001d0: 0d01 5ebb d44f dcbb 6b85 13bd 9c79 383d
000001e0: e216 1fbd 5283 a83b cb82 b33d cf42 a0bc
000001f0: e449 19bc 01e3 cc3c c715 c23c b8f8 8ebd
00000200: b741 493d 5581 de3b b231 7d3c ecc2 403c
00000210: 29a7 003c 7514 73bd fc4a 683c bad2 02bc
00000220: 3171 e9bb 6889 e3bc 028b fc3c f33f 253d
00000230: 9b53 58bc 8c00 47bd 82fe 7ebd ad87 76bc
00000240: 0de9 693c 6a21 003b 1698 5cbd 74d7 08bd
00000250: 8321 773b b812 b43d 120a 69bd fde7 49bd
00000260: 440d b0bc ccd0 063d 1479 4abd 55c3 6dbd
00000270: bd35 8a3d f25d aabd 49a3 f73c 664c 2ebd
00000280: 07a2 02bb e371 423d cfba 1d3e 69ae 2e3c
00000290: b5be 423d 3986 733d f1c3 f83c 678a 93bd
000002a0: 1413 773d 0958 093c 80aa 8b3d 182b a6bb
000002b0: 230e d03c d90c dc3c fee4 64bd 0f27 e9bc
000002c0: 167d 2dbb 3477 a2bc 1b3a 0b3d 1eb5 49bd
000002d0: 085b 49bc 020a f13d 042c eb3c a403 97bc
000002e0: 08e0 d63d 6ad8 8e3d c882 e8bc f023 f33c
000002f0: babe 64bc 6e5a 753d 3b8d d5bc 4f75 703d
00000300: 80bb 43bc bf52 81bd 4747 e33c 07de 0fbc
00000310: 046c 6cbc af31 543d 3da3 2abd 69d4 813d
00000320: cf8e 923b d9ae a6bc 42ec c43c 6007 3cbd
00000330: 2bc0 a6bc b799 5f3d 067e 043d 9ceb 843d
00000340: d000 a23c ea87 073d d7db 86bd 278f 4bbc
00000350: 80ca 193d b222 c43b 98ca 14bd b9f2 653d
00000360: 279b 543d c14c 363d 49e3 b8bb 0761 9e3d
00000370: b00d 153d 9972 34bd a968 37bb 9fad babc
00000380: 4a75 25bd 8bad e83c 2055 3bbc 898b 1cbc
00000390: adfa a3bc 039b bc3c 9c50 b63d 429a 0fbd
000003a0: 7c41 53bd 948b bdbc fcea 69bd 6046 9abb
000003b0: 6e58 be3c 15fd fd3c d83f 0fbd 280c 0c3b
000003c0: e1d9 a83d 3570 04bd b3a2 c63c fb13 01bd
000003d0: ab3d 70bb 5a6d 633d 28a5 313d 701a 2d3c
000003e0: 6b6c 11bc e582 0d3d b06d ad3d 60ac 8e3d
000003f0: 4688 a3bc 4a59 823d 2b81 49bd 0f0a 143d
0.010813718 -0.04042873 -0.06269768 0.0289608 0.016476167 0.03529826 -0.05706015 0.013727009
0.0055863047 0.025281897 0.06715822 0.030620279 -0.045109563 0.036988385 0.14193049 -0.025580512
-0.07410434 -0.0012730871 0.10007434 0.02064987 -0.07889895 0.043553047 -0.025312444 0.011171576
0.07302488 -0.015600188 -0.015645005 0.009194209 0.013386978 0.11366749 -0.009557584 -0.011561763
0.004424326 -0.032499176 -0.03542258 -0.026275957 0.033443872 -0.030409478 0.0651821 0.035818886
-0.049604375 0.002175249 -0.06855864 -0.022679416 -0.041699316 0.006326565 -0.043051768 -0.0007273239
0.03961538 -0.016369706 0.01692717 0.04419355 0.03649511 -0.010921997 0.050273694 -0.030908475
-0.032235954 0.0041618287 -0.03874014 0.04654827 -0.030412966 0.017361647 0.015384544 0.006337047
-0.040786225 -0.07142984 0.054198373 0.04596878 0.046672713 -0.0022486662 0.024556493 -0.006024193
0.014350397 -0.06415247 -0.004264252 -0.006287511 0.039553355 -0.030350333 0.14265548 -0.017878514
0.021533305 0.019758364 -0.018331744 -0.10143153 -0.079890564 0.051634792 0.077160604 0.014554641
0.09158139 0.0695029 -0.024692338 0.0032192895 0.006685427 0.018800687 0.03514476 -0.04822837
0.031137258 -0.03390692 -0.034382317 0.03308073 -0.0070579643 0.04269472 -0.042582344 -0.004859221
-0.051974617 -0.025470579 0.0069753756 -0.044859078 0.05419116 0.032771412 0.002332875 -0.050116554
-0.08521036 0.026400177 -0.06773383 0.044288594 -0.0033875138 -0.0067233834 -0.03601591 0.04503785
-0.038840182 0.0051426077 0.08765181 -0.019563107 -0.009355996 0.025010588 0.023692025 -0.06981033
0.049134936 0.00679032 0.015453743 0.011765223 0.007852354 -0.05934568 0.014178034 -0.007984811
-0.007124089 -0.027775481 0.030828003 0.04034419 -0.013203527 -0.048584506 -0.062254436 -0.015046996
0.014276755 0.0019551166 -0.053855978 -0.033408597 0.0037709184 0.08792633 -0.05689437 -0.049293507
-0.0214907 0.032913968 -0.049431875 -0.05804761 0.06748531 -0.083187 0.030229228 -0.042553328
-0.0019933002 0.047471892 0.15403293 0.0106617 0.047545154 0.059454177 0.03036687 -0.072041325
0.06032093 0.008382806 0.0681963 -0.005071055 0.025397366 0.026861595 -0.055882446 -0.028461007
-0.0026472262 -0.019832231 0.03399096 -0.049244992 -0.01228977 0.11769487 0.028707512 -0.018434353
0.10491949 0.069748715 -0.028382674 0.029680222 -0.013961488 0.059900694 -0.02606832 0.058705624
-0.011946559 -0.06314611 0.027743949 -0.008780963 -0.01443005 0.051805194 -0.041659582 0.06339342
0.0044725905 -0.020347046 0.024038438 -0.04590547 -0.020355305 0.054589953 0.032346748 0.064902514
0.019775778 0.033088602 -0.065849 -0.012424267 0.037546635 0.0059855813 -0.03632602 0.05613968
0.051905777 0.044506792 -0.005642329 0.0773335 0.036390007 -0.0440546 -0.0027985966 -0.022787867
-0.04039506 0.028403064 -0.01143387 -0.009554752 -0.020016992 0.023023134 0.08902094 -0.03505922
-0.051576123 -0.023137845 -0.057108864 -0.0047080964 0.023235526 0.031004468 -0.034972996 0.002136955
0.08244682 -0.03233357 0.024247503 -0.031513195 -0.003665785 0.055524208 0.043370396 0.010565385
-0.0088759465 0.03454866 0.08468187 0.06966472 -0.019962441 0.06364687 -0.04919545 0.036142405

bn2.weight f4 [300]
00000000: 27f6 ac3d dd11 813e 057e 1cbd ca60 c13d
00000010: dca2 053f bbfc 3a3a 070f 973a a974 703e
00000020: 4bcb 133f 4959 d9bc b124 2c3e 0542 183e
00000030: 456e 65bd 787b ae3d b53b 333d aa73 0b3f
00000040: 6d60 0dbc a590 dd3e 2c56 d23d ac16 533f
00000050: 0808 393c dc96 ab3e 4c9d 7e3e 343b 673e
00000060: 4c55 213d a061 003e ec34 0d3e bb2f e93c
00000070: f28e 4c3f e7ab 803b 8ea0 933e 66fc 3b3e
00000080: f72a 6d3e c396 6c3d b9ba a33e 16b8 a73e
00000090: 2098 1a3e 72db c53e 414d 5d3e 5d2d d3ba
000000a0: c890 d73d 5a65 8d3e bb09 0b3e 7fa7 5a3f
000000b0: ec2f f63c 7d42 ce3d d46b a93b ca10 2b3e
000000c0: d2e3 e93d d2cd 513d 17b5 8d3e b5dc b3bc
000000d0: 2c65 a83e 2892 e43e 6248 583e a547 9b3e
000000e0: 010c 463e 5df3 a33d 4fcd cd39 cd58 90bc
000000f0: 2fc4 483f 48c9 4d3e 9bc1 033e 5a6b 493d
00000100: d996 7b3e 3465 b33d 4e25 5e3d 5160 0a3d
00000110: e661 263e f811 f53e fe1a 813d c1df 1e3e
00000120: 8bbf 513d 9922 233e 4062 aa3d b864 a83e
00000130: dc54 d03d 72fa b53d 8684 7d3d 81d2 5e3c
00000140: 99e8 64bd 021f a73e 4db9 523e 6b06 093e
00000150: d41f 993c 8864 5c3e 4cbe a6bc cec1 8a3e
00000160: 63f0 ff3c 253b 6c3d 2874 3b3a b8e2 be3e
00000170: c438 a73b b8c0 3c3e a1ee 573d 2cdc 533e
00000180: 50c7 9d3e ff7b 0a3e cccb 233e 0f9f b83e
00000190: b8e0 3b3e c686 563e 7448 ab3d 58e2 9d3d
000001a0: 98f8 cf3d efaa 1a3e 68ce 6c3e 3748 a43d
000001b0: 3ade 973e ce3c 3d3e 5484 e73d 6253 ac3e
000001c0: fa4a 38bd 2a44 233d a9dc 6b3e 3d7b f93c
000001d0: 2768 6f3e f89b bc3d 7ae8 1f3e 6619 533e
000001e0: 47ff 423e 651a bc3b 4d70 7d3e 1d23 853e
000001f0: b7c0 053e e1b3 953e 2750 9a3d ac32 293e
00000200: 38de 77bd 96ab 403e 97f0 763c 4bff 8b3d
00000210: 418e ea3d af66 093e 1385 143c 3e7a 223e
00000220: 6ce1 853e 1864 29bd 4b30 273e daa0 ad3d
00000230: ac90 e33d 5333 ce3e 530c 093d 1329 a33e
00000240: 7f2c ce3b 9e94 663c 3abb ff3d 5a2c 7ebd
00000250: d4cb 783d 6d98 f03c f5d5 5f3e 65c5 a73e
00000260: 229d 223e 03f4 9a3e 1e9e 38bd 309f 46bd
00000270: 63b2 683d 679e 3a3e df39 913d 4728 e03c
00000280: 2e9b e83e e8ed d73b 3a35 993c f1d3 28bd
00000290: 5ba1 363e 2e55 123a 6318 af3d 99e3 b13d
000002a0: dc04 143e 83ad 6a3e 20f3 663d 6133 413e
000002b0: c0ed a83d f22f 9a3d d0d2 f23b 42ec 283e
000002c0: f098 853e 961a fc3e 76b1 7d3e e141 36bc
000002d0: 4ad5 8f3e 7949 8b3d ef6b 8f3e 8a96 41bd
000002e0: ba19 943d abb0 c63c a64c c13d ebba f53d
000002f0: bfe7 d73e d3f2 0d3e 720e 963d 2578 d5bd
00000300: 8be3 473f a990 ed3b e1f2 e93d 7c48 0fbd
00000310: 8e2f 483e 35d9 c63e d3b0 de3e 6082 0f3e
00000320: 10e9 fa3c 1d2c 5f3f d6c1 a33d 9fbd 803c
00000330: e131 df3d 2891 843e e6ec cd3d 9a98 ec3b
00000340: 3dbd 303e b0dd 923e 8de9 183b 7298 b03e
00000350: 4d1b c13a 81af ac3e ffad 34bd ad92 ea3d
00000360: dc7c cd3d 228a aeba ea52 ff3b bc18 7fbd
00000370: 7c45 0d3e 979c 133e 4dc0 713e 85f5 423d
00000380: 82de 0b3e 907e aa3e 505f 483d d19a 993e
00000390: 0d7a d13e 3b53 763e 38aa af3d d6dd 693e
000003a0: bb7a 633e 569e 933e 34d3 843e 18eb b53d
000003b0: ff49 103f 7b42 903e 6a7f 163d 3487 f3bc
000003c0: 5823 eebd 8dfa 6f3e 04ce a83e 0ae4 b03e
000003d0: ac84 2f3d 48e8 073e 0b9d 9e3d e952 463e
000003e0: 6a9f 453f 067e 06bd 32d8 263e 7636 233e
000003f0: a5b7 5d3e 4059 643e 47ee c03d 2be5 b23d
0.08445387 0.2520894 -0.03820612 0.09442289 0.5220163 0.00071329967 0.0011524864 0.23482002
0.57732075 -0.026531832 0.16810872 0.14868934 -0.056013364 0.085196435 0.043758113 0.54473364
-0.008628947 0.43274418 0.10270342 0.8245647 0.011293419 0.33513534 0.24864691 0.22581178
0.039387986 0.12537241 0.1378972 0.028465142 0.7990562 0.0039267424 0.2883343 0.18358001
0.23160921 0.057760965 0.31978396 0.32757634 0.15097094 0.38643986 0.21611501 -0.0016111542
0.10525662 0.27616388 0.1357793 0.8541183 0.030052148 0.100712754 0.005170325 0.16705623
0.114204064 0.051221676 0.27677223 -0.021955827 0.32889688 0.44642758 0.21121362 0.30328098
0.19340517 0.08005402 0.00039253614 -0.017620469 0.7842435 0.20096314 0.12866823 0.049174644
0.24569263 0.08759537 0.054234795 0.03378326 0.16248283 0.47865272 0.063039765 0.15515043
0.05120806 0.15931167 0.08319521 0.32889342 0.10172436 0.08885659 0.061893962 0.013599993
-0.055885885 0.32640845 0.20578499 0.13381355 0.018691935 0.21522725 -0.020354412 0.27100986
0.031242555 0.057673592 0.00071507925 0.37282348 0.0051032025 0.18432891 0.05271781 0.20689458
0.30816126 0.13523863 0.15995711 0.36058852 0.18347442 0.2094985 0.08363429 0.07709187
0.10154837 0.15104268 0.23125613 0.080215864 0.29661733 0.18480226 0.113045365 0.33657366
-0.04499338 0.03985993 0.23033394 0.030454272 0.23379575 0.09209436 0.15616027 0.20615157
0.19042693 0.005740451 0.2474987 0.26003352 0.13061796 0.292388 0.07534819 0.16523236
-0.06051466 0.18815455 0.0150720095 0.06835803 0.11452914 0.13418077 0.0090649305 0.15866944
0.26148546 -0.041355222 0.16327016 0.084779456 0.11111578 0.40273532 0.03345902 0.31867275
0.0062919254 0.014073519 0.124868825 -0.062054016 0.06074126 0.029369557 0.21858962 0.32767788
0.15880254 0.3026429 -0.045072667 -0.048491657 0.056810748 0.18224488 0.07091116 0.027362956
0.45430893 0.00658964 0.018702138 -0.041217748 0.1783499 0.0005582151 0.08549573 0.08685989
0.14454979 0.22917752 0.056384206 0.18867256 0.08248472 0.07528676 0.0074103847 0.16496375
0.26093245 0.49239033 0.24774727 -0.011124105 0.28092414 0.06801123 0.28012034 -0.047262706
0.072314695 0.024254164 0.09438448 0.119985424 0.42168996 0.13862161 0.07326974 -0.104233064
0.7808158 0.007249911 0.114232786 -0.034981236 0.1954939 0.3883759 0.4349428 0.14014578
0.030628711 0.87176687 0.07995956 0.015715418 0.108981855 0.25891995 0.100549504 0.00722034
0.17259689 0.2868476 0.0023332566 0.34491307 0.0014732868 0.3372765 -0.044111248 0.114537574
0.10033581 -0.0013316313 0.0077918665 -0.062279448 0.13796037 0.14415203 0.23608513 0.047597427
0.13659099 0.33299685 0.048919022 0.30000928 0.4091343 0.24055187 0.085773885 0.2283853
0.22214787 0.28831738 0.25942385 0.08882731 0.5636291 0.2817572 0.036742605 -0.029727556
-0.11627835 0.23435421 0.32969677 0.3454898 0.042851135 0.13272202 0.07744797 0.19367565
0.7719637 -0.03283503 0.1629341 0.15938744 0.21652086 0.22299671 0.09420448 0.087351166

bn2.bias f4 [300]
00000000: e6bc 40bc 5ce2 e33d 5d96 b63a 091f 93bc
00000010: b995 adbd c1f2 133c 09e4 f9ba 75ce c83d
00000020: 14ea 403d 2671 2fbc 422b a8bd 3642 05bc
00000030: e73d b13c 6d64 bf3c ec45 cfbd 2b47 87bc
00000040: 84cb 3dbb 17ef e23c 6542 c0bd c2a8 20bd
00000050: cfd6 be3a 1811 2dbf 74bf b63d 5615 84bd
00000060: 795f 31bb 76ec fb3c 84fc 313d 5d17 723c
00000070: 8ffe a03d 6411 d33c 7e7c aebd 2347 6e3d
00000080: 928a 423d 367e d83c c850 003e 0e5a ce3c
00000090: 2c36 ccbd 9c98 283f e5ed c9bd da5c 2d3b
000000a0: 4bc6 703d dab8 1e3d afa4 233c c3a4 85bd
000000b0: b3b5 59bc 7a43 83bc 6490 133c 9e08 a73b
000000c0: efbe 0ebd f8a6 98bc 9ba2 203b 7e49 c23b
000000d0: dec8 683d 4670 893d 156e 33bd 78d1 813d
000000e0: e4fb 7b3c dab7 573c 53a4 cb3b 3ae6 57bc
000000f0: 98fc b93d 0c25 06be 08b8 313d e9c9 18bc
00000100: 3c12 cc3d e986 213d bc6e a13b ebae 10bb
00000110: a1ed 35bd 0c73 153d 9c0b 6abb 5654 d7bc
00000120: b565 efbc 6bcd bb3d f192 3dbc 12dd f03d
00000130: 1e34 fcbc febb 82bb 04b6 0abe e5ed adba
00000140: eb33 efbb 9502 0dbb 0d84 a93d ae23 043d
00000150: 2dd4 163c 3a05 b0bd 4eaf b4bc 5f15 3a3d
00000160: 63fd 34bd 3260 75ba 7c32 bebb a9fd afbd
00000170: 3240 93bb f6fb 293d 9412 bfbc f2eb 633c
00000180: 28f3 97bd 5416 603d 1405 c33d 3fea 8c3c
00000190: e0f3 fabd f9ae 8cbc 1e13 aa3b ec8d 8a3c
000001a0: 11b5 af3d d85c b43d 2191 07b9 7882 843d
000001b0: 2010 4abd 9421 51ba adf3 123d 3d2f 973d
000001c0: c5e5 583b b457 9bbc c056 e63d 7ec1 063c
000001d0: cd03 1e3d 85ec db3c 0e75 63bc 75d1 06be
000001e0: baf6 d33d d1fb 183c 2743 bfbd 7131 233b
000001f0: 4522 943c d9e7 73bd 4072 02bc 805f 413d
00000200: dba4 293a 7fab 5f3c 2986 bdbc 6b78 c03b
00000210: 57de 5fbb 5da4 c23d d2cf 893b dde1 db3d
00000220: bb7b 37be 94df 943c 8853 89bd a8f6 083d
00000230: 4176 9b3d cf7c ce3d 988e 37bb 1ab6 d43d
00000240: 571d f33a 20da 93bc 80d7 df3d 7f6b 97bc
00000250: 9c6b b939 2ec7 5a3c 7e87 123e e423 c93d
00000260: 8263 933d 591f ab3c b595 f039 ca8b 8fb9
00000270: fc1f aebc 56b7 833d fcd8 4abb 3229 11bc
00000280: 0e23 9b3d c285 f7ba 882f 85bd 76e5 e2b9
00000290: 953a 11be 4a26 b73a 7e7a bc3c 2067 e93d
000002a0: 7955 debd f4b8 d5bc d547 0fbd a564 5b3b
000002b0: f442 e9bb 5f7b 83bd db88 24bc 3f5d 703d
000002c0: f109 d23c f2b7 a03d ff6b 683c 37c4 cbbb
000002d0: 7483 5cbd 7be8 16be 2618 13be 9d2a 8abb
000002e0: 5095 debd f9de 583c db95 533d 4a51 923c
000002f0: 1d37 ac3c f71b 9fbd 0c23 463c 4a08 423c
00000300: 747c 8f3d 4980 823b 3995 72ba 891c d239
00000310: e51f a63d 7106 16bd 8db8 a53d ee28 443c
00000320: 5726 ddbc f832 8ebd c00c 57bd cd19 0bbb
00000330: 040e 68bc 6dba 9fbd 3f63 fcbc 41e9 1e3c
00000340: 2568 adbd 4648 04bd f87c a73b 27f0 2e3f
00000350: 1a27 963b 691a cb3d e537 c13c 50ae debb
00000360: d448 d0bd b139 11bc e73d e0bb 5337 fc3b
00000370: c3dd a23c 5d3a bb3d 0ec1 503d 4555 143c
00000380: ed59 eb3c fc9e 953d 6db1 63bb 451b eb3d
00000390: 87c0 90bd 14a6 08be 8afb 8cbd 61b6 023e
000003a0: 89bd 323e 19ad 4e3d 417b c03d 77b7 1c3c
000003b0: 2041 37bc bb2a b63c 917d f1bc ed6f 03bc
000003c0: a4bf 8b3c f078 a43d 9e1f c2bd d9b6 a23d
000003d0: 0b7e 55bc 5b15 78bb 42d9 d5bc 97d5 8fbd
000003e0: df4f 24bd cd01 03bd 8124 cfbd a80a 90bd
000003f0: b9cb 9fbb d2a1 b8bd 7698 903c 650c a13c
-0.011763787 0.11127159 0.001393031 -0.017959135 -0.08475823 0.009030045 -0.0019065152 0.098050036
0.047098234 -0.010708129 -0.08211376 -0.008133462 0.021635963 0.023363316 -0.101207584 -0.016513428
-0.0028960416 0.027701898 -0.09387664 -0.03922344 0.0014559868 -0.6760421 0.089232355 -0.06449382
-0.0027064963 0.030752402 0.04345371 0.014776078 0.07861053 0.025765128 -0.08519839 0.05817331
0.047495432 0.02642737 0.12530816 0.025189426 -0.0997127 0.65857863 -0.09859828 0.002645305
0.058782857 0.038750507 0.009987994 -0.065255664 -0.013287949 -0.016023386 0.009006593 0.005097463
-0.034850057 -0.018634304 0.0024510983 0.005929171 0.056832187 0.067108676 -0.043806154 0.06338781
0.01537988 0.013166392 0.0062146573 -0.013177449 0.090813816 -0.1310007 0.043388397 -0.009325483
0.099644154 0.0394353 0.0049265306 -0.0022076915 -0.044416074 0.03648667 -0.0035712486 -0.026285332
-0.029223302 0.0917004 -0.011570678 0.11760916 -0.03078657 -0.0039896956 -0.13545996 -0.0013269751
-0.0072998903 -0.0021516432 0.0827714 0.03226059 0.00920586 -0.08594747 -0.022056248 0.045430537
-0.04418696 -0.00093603425 -0.005804358 -0.08593304 -0.0044937367 0.041500054 -0.023324288 0.013911234
-0.07419425 0.054708794 0.09522453 0.017201541 -0.12253547 -0.017173277 0.005190267 0.016913377
0.085794576 0.08806771 -0.00012928668 0.064701974 -0.049331784 -0.0007977721 0.03587692 0.07382057
0.0033095938 -0.018962719 0.11247015 0.008224843 0.038577843 0.02684618 -0.0138828885 -0.13165839
0.10349794 0.009337381 -0.0933898 0.0024901296 0.018082747 -0.05954728 -0.00796181 0.047210217
0.0006471404 0.013651728 -0.023135262 0.00587373 -0.0034159624 0.09504006 0.0042056823 0.107364394
-0.17918293 0.018173017 -0.067053854 0.033438355 0.075909145 0.10082399 -0.0028008576 0.103862956
0.0018548173 -0.018048346 0.10929775 -0.018483875 0.00035366125 0.013353152 0.14309499 0.09821299
0.07196714 0.020888971 0.00045887908 -0.00027379236 -0.021255486 0.06431453 -0.0030952087 -0.008859919
0.075750455 -0.0018884467 -0.065032065 -0.0004327704 -0.14182504 0.0013973203 0.023007628 0.11396623
-0.10856146 -0.02608917 -0.034980614 0.0033476737 -0.007118577 -0.064200155 -0.0100423945 0.058682676
0.025639506 0.07847585 0.0141859045 -0.006218459 -0.0538363 -0.14737122 -0.1436468 -0.0042165057
-0.10868323 0.013236755 0.051656585 0.017861027 0.021022374 -0.07769006 0.012093317 0.011842797
0.070061594 0.003982578 -0.00092538033 0.00040075582 0.08111552 -0.036627237 0.08091841 0.011972649
-0.02699582 -0.06943315 -0.052502394 -0.0021225095 -0.014163498 -0.0779923 -0.030809043 0.009699167
-0.084671296 -0.032295488 0.005111333 0.68335193 0.004582298 0.09917147 0.023586223 -0.006795682
-0.10170141 -0.008863852 -0.006843317 0.007697025 0.019881135 0.09141991 0.05096536 0.009053533
0.028729403 0.073057145 -0.0034743205 0.114798106 -0.07067972 -0.13344604 -0.06883915 0.12764885
0.17455114 0.050458048 0.09398509 0.009565226 -0.011184961 0.022237172 -0.02947882 -0.008022291
0.017059155 0.080308795 -0.09478687 0.07945032 -0.013030539 -0.0037854526 -0.026104573 -0.07023161
-0.040115234 -0.03198414 -0.101143844 -0.070332825 -0.0048765806 -0.0901524 0.017650824 0.01965923
