Zadanie3/srcV2/models/VEP_exp_prob_01_exploration_100/critic_network.pth (torch, 509903 bytes, 11 tensors)

fc1.weight f4 [400, 8]
0.3493894 0.27103525 0.2523508 0.9627328 -0.21043745 -0.5432084 -0.16987316 -0.060020275
0.0584574 -0.3611677 -0.87723887 0.20034863 -0.45211777 0.02472811 0.4069827 -0.70445013
0.3710306 0.59652597 0.32900703 -0.012680586 0.1089898 -0.09715941 -0.6159391 -0.5314281
-0.4494289 -0.4638447 -0.56420046 0.38790533 0.29959658 -0.32572603 0.68734634 0.18079072
-0.34191167 0.062948 0.3634223 0.7957871 0.90107244 -0.7175497 0.73983014 0.3147541
-0.10235468 0.2754223 -0.047616165 -0.2727414 0.65768456 0.39531448 0.99187386 0.55956215
-0.09554987 0.13413258 0.2754548 0.22730951 0.77587473 -0.8501695 0.29781264 0.20520858
-0.092229195 -0.058959883 -0.014845456 -0.06581056 0.24895215 -0.01870516 0.5795403 0.60050154
-0.11835002 0.05016485 0.113447554 0.7524702 0.7425528 0.55157834 -0.018341573 0.66904145
-0.34689054 -0.0063232975 0.3959451 0.45860416 0.8902885 -0.5526077 0.66645986 0.29231372
0.71201426 -0.7840186 0.48396623 -0.33209294 -0.20191522 0.7315317 0.12978156 0.15480302
0.31273735 -0.02738227 -0.6314189 0.019090187 0.85643226 0.61636615 0.13260983 0.21066968
-0.18485694 -0.101859175 0.66764325 0.5495428 0.13075261 -1.2215747 0.25963286 0.29641163
-0.030813288 0.2478505 -0.15774554 -0.41939393 0.6578137 0.34448233 1.1039453 0.4696229
-0.894713 -0.2763605 -0.96414334 -0.13862759 1.1126033 -0.028354753 0.3996056 0.040189844
-0.09492046 0.13917139 0.20051582 0.094225585 0.23141457 -0.032804687 0.94236267 0.1091971
-0.20693104 0.34728196 0.5425243 -0.08079371 0.27083257 -1.1660856 0.100169435 0.38334277
-0.061690196 0.3587095 0.1359077 -0.10309443 0.20763741 0.5218255 0.48023385 0.2766286
-0.13107204 0.1678296 0.23292953 -0.06046617 0.7213933 -0.24169742 0.6743494 0.33686003
0.071376346 -0.113826595 0.06480958 0.29513365 -0.76156837 0.33574474 -0.13918956 0.5218404
-0.13509887 0.41210347 -0.2550999 -0.5220014 0.12877248 1.6092087 0.28839326 -1.1748118
0.20430243 -0.6130987 -0.050996676 0.38219473 0.23640245 0.041863807 0.44428822 -0.038073953
-0.024902325 0.21207415 -0.018031115 0.062737755 0.72504824 -0.2952756 0.7122946 0.16659254
0.34259477 0.050247673 -0.17392077 0.36658666 0.7033189 -0.04881629 0.80804634 0.15270281
-0.42524186 -0.5376987 -0.16034988 -0.7445954 -0.12879923 0.094882116 -0.7342513 0.70025134
0.012980858 0.30034053 -0.22145775 -0.36492142 0.74585646 0.37871957 1.1299394 0.60393965
0.43712407 -0.2109932 -0.29246277 0.23556532 -0.72266185 0.21190304 0.26220104 0.47288233
-0.37096968 0.15078792 -0.1276208 0.053438015 0.53783906 0.023007149 0.3326361 0.7784395
0.4666103 0.02553573 -0.038747393 1.0251049 0.30692425 -0.012389651 0.8366813 0.035985835
-0.39035723 0.1775309 0.17475675 -0.044784352 0.58603066 -0.70205873 0.497689 0.2927768
-0.10376726 0.13890372 -0.27730453 -0.40159756 0.56089664 -0.013994594 0.10390395 0.17285216
-0.006781046 0.21750602 -0.10382637 -0.30722556 0.71986836 0.26230165 1.0268418 0.41211575
00000000: 2be3 b23e 22c5 8a3e 2034 813e a875 763f
00000010: ea7c 57be b50f 0bbf 3bf3 2dbe d2d7 75bd
00000020: 0771 6f3d f9ea b8be ba92 60bf 3128 4d3e
00000030: fb7b e7be 9b92 ca3c 0960 d03e d856 34bf
00000040: b9f7 bd3e edb5 183f 9c73 a83e 3cc2 4fbc
00000050: 0b36 df3d 83fb c6bd 2fae 1dbf ac0b 08bf
00000060: 8b1b e6be 0d7d edbe 716f 10bf 879b c63e
00000070: b964 993e 90c5 a6be eef5 2f3f 3421 393e
00000080: 0c0f afbe e2ea 803d 7d12 ba3e b4b8 4b3f
00000090: afac 663f 56b1 37bf 8265 3d3f 7327 a13e
000000a0: 559f d1bd 2704 8d3e 2b09 43bd c3a4 8bbe
000000b0: 045e 283f a966 ca3e 72eb 7d3f 773f 0f3f
000000c0: a6af c3bd 0d5a 093e 6908 8d3e d3c3 683e
000000d0: ba9f 463f b5a4 59bf e67a 983e 3322 523e
000000e0: a9e2 bcbd eb7f 71bd 5b3a 73bc b0c7 86bd
000000f0: 50ed 7e3e 903b 99bc c15c 143f 78ba 193f
00000100: 7f61 f2bd a879 4d3d 3157 e83d e3a1 403f
00000110: f117 3e3f 3d34 0d3f 1141 96bc 4d46 2b3f
00000120: a39b b1be aa33 cfbb 51b9 ca3e 2ace ea3e
00000130: f2e9 633f b377 0dbf 1d9d 2a3f 25aa 953e
00000140: 9146 363f 71b5 48bf 6cca f73e 1608 aabe
00000150: ddc2 4ebe a945 3b3f 75e5 043e af84 1e3e
00000160: 1c1f a03e c850 e0bc aba4 21bf 0663 9c3c
00000170: 253f 5b3f 2cca 1d3f dfca 073e cbb9 573e
00000180: 234b 3dbe 8b9b d0bd abea 2a3f d6ae 0c3f
00000190: 03e4 053e 8f5c 9cbf 99ee 843e 44c3 973e
000001a0: 266c fcbc 85cc 7d3e 0c88 21be cdba d6be
000001b0: 7b66 283f fd5f b03e 144e 8d3f 6a72 f03e
000001c0: e90b 65bf 207f 8dbe 19d2 76bf 64f4 0dbe
000001d0: c969 8e3f 3a48 e8bc 1b99 cc3e 1b9e 243d
000001e0: a865 c2bd f282 0e3e 0554 4d3e 58f9 c03d
000001f0: f1f7 6c3e 355e 06bd ae3e 713f bba2 df3d
00000200: bbe5 53be f1ce b13e dfe2 0a3f 2c77 a5bd
00000210: 91aa 8a3e 4b42 95bf a225 cd3d 8145 c43e
00000220: dcae 7cbd c6a8 b73e 632b 0b3e 2c23 d3bd
00000230: e79e 543e 5b96 053f 36e1 f53e 44a2 8d3e
00000240: c037 06be 86db 2b3e 1485 6e3e 60ab 77bd
00000250: 3bad 383f 877f 77be 2aa2 2c3f eb78 ac3e
00000260: c32d 923d eb1d e9bd e3ba 843d c21b 973e
00000270: 25f6 42bf bce6 ab3e b587 0ebe 5597 053f
00000280: 5c57 0abe 3aff d23e 749c 82be e2a1 05bf
00000290: efdc 033e 8dfa cd3f 48a8 933e 3c60 96bf
000002a0: a834 513e 09f4 1cbf e4e1 50bd 07af c33e
000002b0: 7c13 723e 6279 2b3d bf79 e33e 6ff3 1bbd
000002c0: f6ff cbbc f729 593e fdb5 93bc a77c 803d
000002d0: c39c 393f 5d2e 97be f058 363f 3c97 2a3e
000002e0: 9568 af3e 81d0 4d3d 4918 32be 3fb1 bb3e
000002f0: b50c 343f 97f3 47bd 20dc 4e3f 205e 1c3e
00000300: 4db9 d9be 9fa6 09bf c232 24be ce9d 3ebf
00000310: f2e3 03be 8e51 c23d e5f7 3bbf ac43 333f
00000320: aaad 543c 3cc6 993e d2c5 62be fbd6 babe
00000330: 73f0 3e3f 88e7 c13e dba1 903f ca9b 1a3f
00000340: bace df3e 9a0e 58be aebd 95be 0938 713e
00000350: 5e00 39bf 1cfd 583e 373f 863e a21d f23e
00000360: bdef bdbe 2668 1a3e 07af 02be d2e1 5a3d
00000370: d2af 093f 7d79 bc3c 474f aa3e d047 473f
00000380: 8ce7 ee3e 4f30 d13c 96b5 1ebd a336 833f
00000390: 2d25 9d3e f6fd 4abc bf30 563f e265 133d
000003a0: e7dc c7be a9ca 353e 6ff3 323e cc6f 37bd
000003b0: 1b06 163f 1fba 33bf 18d1 fe3e d7e6 953e
000003c0: ee83 d4bd c73c 0e3e dcfa 8dbe 329e cdbe
000003d0: ec96 0f3f 9549 65bc 98cb d43d 2800 313e
000003e0: 8933 debb e6b9 5e3e eba2 d4bd ab4c 9dbe
000003f0: 4b49 383f 674c 863e 8d6f 833f d600 d33e

fc1.bias f4 [400]
-0.6624229 0.27567515 0.5208948 -0.40542328 -0.05020374 0.52177924 0.25839794 0.48436874
0.017633695 0.104848474 0.43597323 -0.002945018 0.5087185 0.5781003 -0.09921992 0.40212834
0.09619316 0.14461645 0.33789384 0.3577278 0.2958959 0.72238666 0.3787465 0.63629967
-0.12728153 0.57225835 0.31900108 0.18026263 0.74362016 0.1346906 0.2873592 0.5508785
0.5866472 -0.010437913 0.1108015 0.18087265 0.27097735 0.5639806 0.12477973 -0.17238149
0.36871502 0.43567833 0.32251072 0.103112094 0.2470732 0.08994303 0.20520605 0.1457251
0.4030271 0.30104727 0.6125562 0.6563349 -0.5232748 0.3464005 0.2287841 -0.23459625
-0.47712153 -0.1601442 0.5742479 -0.59814245 -0.38129023 0.5775166 0.4294618 0.21488753
0.22690585 -0.5278906 0.272039 -0.08562015 0.5679808 0.41195288 0.11681003 0.4640925
-0.26123616 0.78337646 0.37106845 0.104138285 0.3413197 -0.30571002 0.5652572 0.18766004
0.32647076 0.57037485 0.5743713 0.76800585 0.11012203 0.14085643 0.39999747 0.13412224
-0.40700606 0.47258863 0.57227355 -0.37754866 0.5499847 0.37669894 -0.09012587 0.042599015
0.5419697 -0.16941532 0.06991675 0.54995495 0.556088 0.62411475 0.38108566 0.1515299
-0.3409663 0.4973289 0.24917947 0.03558908 0.25893697 -0.22336206 0.63135546 0.441454
0.17479905 0.42590296 0.4167391 -0.038144864 0.26809424 -0.42526254 0.250444 0.01977344
0.566823 0.54780805 -0.5433805 -0.784651 -0.08385692 -0.40217116 0.107141875 0.49990082
0.3495487 0.45893085 0.18665706 0.056847744 0.43212137 0.27079836 -0.20397948 0.20544404
0.010275223 0.5335101 0.51017505 -0.27004123 0.11356299 0.31244493 0.5930408 0.45772216
0.07561731 0.18298316 0.57126546 -0.4752166 0.5466992 0.020564266 0.068601854 0.4667735
0.21436992 0.3578469 0.17914297 0.4650068 -0.23183794 0.45457396 -0.03806089 0.6648553
0.92363775 0.3273451 0.23209853 0.24197951 -0.21504821 -0.21640016 0.28304914 0.6343893
-0.37159646 -0.3470764 -0.39254886 -0.070531376 0.43704498 0.012127329 -0.36178458 0.19402628
-0.2939222 0.38367715 -0.36329088 0.5985075 0.2825757 0.58204293 0.5959965 0.43165568
0.26412374 0.45282283 -0.30959126 0.4370715 0.49811292 -0.35382137 0.54769486 -0.47260404
0.19667025 0.492039 0.046542402 -0.3642851 0.36977535 0.5897556 0.13679634 -0.22576675
0.37886095 -0.730347 -0.33644804 0.18626326 0.54427665 0.26157036 -0.12722866 0.55667114
-0.325548 -0.58985275 0.19574559 0.31483695 0.44739622 -0.09317741 0.5924541 0.3851496
-0.050761867 0.5791042 0.21915632 0.46322113 0.49977514 -0.547389 0.29541484 0.16580091
0.5816649 0.46745324 -0.5324514 0.19111983 0.023802582 0.62136024 -0.10324945 -0.40328553
0.5083585 0.30680877 -0.43559894 0.4146501 0.339551 0.44989908 0.27964684 0.4394213
-0.13810067 0.11276041 -0.399305 0.32009947 0.030250808 0.21108295 0.0744313 -0.27764687
0.82253146 0.91577566 0.37620217 0.24015461 0.43860403 0.5087853 0.5121792 -0.5101409
00000000: 8c94 29bf 4b25 8d3e 5d59 053f a493 cfbe
00000010: 70a2 4dbd 5393 053f bc4c 843e 2eff f73e
00000020: 8a74 903c ccba d63d e237 df3e 3401 41bb
00000030: 603b 023f 62fe 133f d033 cbbd c4e3 cd3e
00000040: eb00 c53d 5616 143e 6c00 ad3e 1928 b73e
00000050: ab7f 973e 55ee 383f 10eb c13e 89e4 223f
00000060: 1756 02be 867f 123f 1c54 a33e c496 383e
00000070: e45d 3e3f 55ec 093e bf20 933e 6006 0d3f
00000080: 832e 163f c803 2bbc e6eb e23d ae36 393e
00000090: 8bbd 8a3e 0861 103f 848c ff3d c684 30be
000000a0: 37c8 bc3e 3b11 df3e 2020 a53e 6f2c d33d
000000b0: c200 7d3e 0d34 b83d 8921 523e f638 153e
000000c0: 9159 ce3e de22 9a3e 7cd0 1c3f 9005 283f
000000d0: 56f5 05bf 685b b13e 6146 6a3e 003a 70be
000000e0: 4649 f4be d7fc 23be e901 133f dd1f 19bf
000000f0: 7938 c3be 21d8 133f 6be2 db3e 7a0b 5c3e
00000100: 025a 683e d723 07bf b248 8b3e 9e59 afbd
00000110: 3167 113f 7deb d23e 193a ef3d 889d ed3e
00000120: bfc0 85be 5c8b 483f affc bd3e 7446 d53d
00000130: 75c1 ae3e 0686 9cbe b2b4 103f f429 403e
00000140: 2d27 a73e 1604 123f ff09 133f 089c 443f
00000150: a987 e13d ab3c 103e 78cc cc3e 5757 093e
00000160: 1963 d0be 23f7 f13e 8580 123f 0f4e c1be
00000170: cccb 0c3f afde c03e ea93 b8bd 4e7c 2e3d
00000180: 87be 0a3f 367b 2dbe 8330 8f3d d9c9 0c3f
00000190: c85b 0e3f fcc5 1f3f a91d c33e a72a 1b3e
000001a0: 2393 aebe e5a1 fe3e e728 7f3e dbc5 113d
000001b0: 6393 843e 06b9 64be 83a0 213f 4206 e23e
000001c0: 86fe 323e f40f da3e d45e d53e ca3d 1cbd
000001d0: a643 893e 03bc d9be 323a 803e e9fb a13c
000001e0: 501b 113f 263d 0c3f fc1a 0bbf e3de 48bf
000001f0: 2dbd abbd 61e9 cdbe 336d db3d 00f3 ff3e
00000200: 0cf8 b23e fcf8 ea3e 0723 3f3e 2ed9 683d
00000210: 033f dd3e 15a6 8a3e ffdf 50be ec5f 523e
00000220: 6959 283c 1e94 083f d59a 023f d842 8abe
00000230: b793 e83d c8f8 9f3e 86d1 173f 8f5a ea3e
00000240: 40dd 9a3d f05f 3b3e 743e 123f 974f f3be
00000250: 7bf4 0b3f 6476 a83c 217f 8c3d f0fc ee3e
00000260: ca83 5b3e b537 b73e 4171 373e 5f15 ee3e
00000270: ed66 6dbe ebbd e83e bce5 1bbd f533 2a3f
00000280: 8673 6c3f c799 a73e 3dab 6d3e 7ac9 773e
00000290: 9935 5cbe 0198 5dbe d1eb 903e 5667 223f
000002a0: e441 bebe ffb3 b1be 2afc c8be c172 90bd
000002b0: 5cc4 df3e b4b1 463c d43b b9be d3ae 463e
000002c0: f87c 96be 5571 c43e 4301 babe ca37 193f
000002d0: c3ad 903e c400 153f 3a93 183f f901 dd3e
000002e0: 3a3b 873e 65d8 e73e bf82 9ebe d6c7 df3e
000002f0: a808 ff3e 1328 b5be bb35 0c3f 28f9 f1be
00000300: ed63 493e 89ec fb3e 3fa3 3e3d 9483 babe
00000310: 3253 bd3e 39fa 163f 5714 0c3e 662f 67be
00000320: 10fa c13e 05f8 3abf eb42 acbe ccbb 3e3e
00000330: b755 0b3f 8dec 853e 3b48 02be 0082 0e3f
00000340: 3aae a6be 9700 17bf 8871 483e 4f32 a13e
00000350: 1e11 e53e ccd3 bebd 12ab 173f 5432 c53e
00000360: adeb 4fbd 2c40 143f 846a 603e 522b ed3e
00000370: 87e2 ff3e af21 0cbf 9d40 973e b7c7 293e
00000380: fee7 143f 0856 ef3e bc4e 08bf ebb4 433e
00000390: a2fd c23c 7711 1f3f 7374 d3bd 717b cebe
000003a0: c823 023f 0a16 9d3e d306 dfbe 054d d43e
000003b0: a1d9 ad3e 2c59 e63e df2d 8f3e d4fb e03e
000003c0: 436a 0dbe eeee e63d b471 ccbe 14e4 a33e
000003d0: 8bd0 f73c 2126 583e 706f 983d bb27 8ebe
000003e0: 6c91 523f 4670 6a3f 929d c03e 17eb 753e
000003f0: b590 e03e c13f 023f 2d1e 033f 9898 02bf

bn1.weight f4 [400]
2.1151695 1.0017359 1.2304932 0.96859336 1.0084053 0.3013017 0.5866972 0.47204173
1.0070319 0.7964005 1.3773959 0.8214028 0.98673683 0.26090676 1.4031562 0.5802941
0.7292145 0.45314386 0.45844546 0.9409871 1.2489514 1.0335267 0.40459594 0.37849635
1.6166586 0.28390944 0.7414771 0.54795885 1.358796 0.6369338 0.3140732 0.37466076
0.21910939 1.2062436 1.7085373 0.50898886 0.68313414 0.33270982 0.9926095 0.8604052
0.56374055 1.0421258 0.5004465 0.9001658 0.9862388 1.8513361 0.605412 1.6894318
0.56549835 0.95201874 1.34744 1.4156288 1.7799972 0.9372709 0.54221237 1.9334419
2.0618134 0.9222187 0.739523 1.4040086 1.9092141 1.546917 0.3483215 0.68310165
1.0307518 2.0227334 0.45918995 0.8522588 0.18878539 0.9366376 0.7245073 1.2252309
0.87478745 1.3810046 0.411951 1.2795489 0.7931196 1.1369706 0.29412913 0.97938913
0.58120835 1.6418248 0.31523782 1.7136912 0.45234233 0.997436 0.38443592 0.88004196
1.6114264 0.35737547 0.7919811 1.7128621 1.1184318 0.5673292 0.99984217 0.95046484
0.3060049 1.2408017 0.70687056 0.44655 0.3016473 1.5960083 0.58395284 0.45710555
1.3367057 0.31791934 1.4112121 1.2101316 1.8507311 1.5485445 0.2750869 0.7130538
0.5546101 1.184688 0.46534383 0.7044354 0.7067134 1.706512 0.8900603 0.87450576
0.17097464 0.2930865 2.1861997 2.8711748 1.0742594 1.7139874 0.50798535 0.9173593
1.063333 0.42185953 0.8771374 0.5799016 0.33599436 0.80592114 0.61054546 0.7562614
0.54952645 0.27089477 0.27795693 1.1687324 0.7578957 0.44589967 0.38578698 0.9179938
0.52798015 0.9230136 0.33914986 1.5005068 0.32502446 1.454642 0.66664785 0.71685475
0.82192284 0.3735389 1.080563 0.87181973 1.6839508 1.2106333 0.89264894 0.87155014
0.8689031 1.0712638 0.33001935 0.4562103 0.8820863 1.5615892 0.83969283 0.2789338
2.0314322 1.4522465 3.065967 1.2432967 0.33113915 1.0037694 1.8040637 0.44050935
0.78978074 0.97866803 1.3894631 0.27433047 0.38108343 0.3339371 0.176526 0.65000707
0.8520319 0.95375544 0.75303406 0.8729264 0.30458954 1.8340101 0.21195601 1.3845623
0.7633743 0.3938057 0.8446685 1.3418684 1.3228182 0.3088438 1.843717 0.9646737
0.5931251 2.452656 2.2705457 0.39697358 0.30194235 0.34476295 0.88999766 0.20251533
1.2431377 1.7551243 1.1681883 0.3487114 1.0388459 0.604025 0.9574562 0.52510357
0.86280876 0.19796556 0.48608282 0.39880967 1.1359854 2.45231 0.5519512 1.5836128
0.7170526 0.3812472 2.2007277 0.6679659 0.936483 0.29752138 0.69173354 1.131419
0.34712344 0.86776185 1.3720099 0.37920135 0.7217954 0.34576982 0.6978354 0.35758942
0.6326761 0.47224087 1.8018489 0.8965119 0.64135057 0.6635058 0.7562665 1.4754269
1.3686556 1.3164737 0.42988208 0.5001124 0.4033036 0.37940988 0.34538 1.9081922
00000000: f05e 0740 e238 803f cd80 9d3f bcf5 773f
00000010: 6d13 813f 3744 9a3e ca31 163f 74af f13e
00000020: 6ce6 803f e7e0 4b3f 824e b03f 7447 523f
00000030: c99a 7c3f 9295 853e 9f9a b33f 278e 143f
00000040: cdad 3a3f 7902 e83e 5db9 ea3e 88e4 703f
00000050: a4dd 9f3f 9a4a 843f 3327 cf3e 46ca c13e
00000060: abee ce3f 945c 913e 71d1 3d3f 0847 0c3f
00000070: 07ed ad3f 180e 233f 34ce a03e 89d3 bf3e
00000080: 365e 603e 3166 9a3f 5ab1 da3f 184d 023f
00000090: e1e1 2e3f f158 aa3e a81b 7e3f 8443 5c3f
000000a0: 4d51 103f 6164 853f 431d 003f 4471 663f
000000b0: 257a 7c3f 95f8 ec3f 48fc 1a3f 4d3f d83f
000000c0: 80c4 103f 80b7 733f ea78 ac3f 5333 b53f
000000d0: f3d6 e33f fcf0 6f3f 6ece 0a3f 067b f73f
000000e0: c0f4 0340 8616 6c3f 6151 3d3f 8eb6 b33f
000000f0: 2161 f43f 6001 c63f 3257 b23e c0df 2e3f
00000100: adef 833f 7774 0140 f21a eb3e a22d 5a3f
00000110: f550 413e 7bc7 6f3f 4f79 393f 5ed4 9c3f
00000120: 12f2 5f3f c2c4 b03f 3eeb d23e 42c8 a33f
00000130: e309 4b3f 4188 913f 1898 963e 3fb9 7a3f
00000140: 12ca 143f 5127 d23f da66 a13e 3c5a db3f
00000150: 6a99 e73e f757 7f3f c9d4 c43e 6e4a 613f
00000160: 3843 ce3f ebf9 b63e 46bf 4a3f 113f db3f
00000170: c628 8f3f 7d3c 113f a8f5 7f3f aa51 733f
00000180: adac 9c3e 97d2 9e3f 78f5 343f 34a2 e43e
00000190: 8471 9a3e 004a cc3f ef7d 153f bd09 ea3e
000001a0: 2c19 ab3f 53c6 a23e 99a2 b43f 98e5 9a3f
000001b0: c2e4 ec3f b536 c63f 31d8 8c3e b28a 363f
000001c0: edfa 0d3f dba3 973f 8c41 ee3e e155 343f
000001d0: 2beb 343f fc6e da3f feda 633f 9cdf 5f3f
000001e0: fa13 2f3e 6f0f 963e b2ea 0b40 54c1 3740
000001f0: 5581 893f f063 db3f 540b 023f 0fd8 6a3f
00000200: 4c1b 883f f9fd d73e 148c 603f 6e74 143f
00000210: 7407 ac3e d950 4e3f b54c 1c3f 599a 413f
00000220: c4ad 0c3f b8b2 8a3e 5f50 8e3e 0699 953f
00000230: 7405 423f f64c e43e df85 c53e a401 6b3f
00000240: b529 073f 9f4a 6c3f 0da5 ad3e 9b10 c03f
00000250: 9b69 a63e b631 ba3f 6fa9 2a3f cb83 373f
00000260: 8969 523f 7e40 bf3e e34f 8a3f 942f 5f3f
00000270: b38b d73f 08f6 9a3f a484 643f e91d 5f3f
00000280: 6f70 5e3f 2c1f 893f 4cf8 a83e 6594 e93e
00000290: 68d0 613f 28e2 c73f 1cf6 563f 69d0 8e3e
000002a0: fc02 0240 37e3 b93f ce38 4440 5924 9f3f
000002b0: 128b a93e 847b 803f 8feb e63f 718a e13e
000002c0: 122f 4a3f fd89 7a3f edd9 b13f 0b75 8c3e
000002d0: 5e1d c33e cef9 aa3e 3bc3 343e dd66 263f
000002e0: c31e 5a3f 5129 743f d7c6 403f 1b78 5f3f
000002f0: 29f3 9b3e d8c0 ea3f ff0a 593e 5639 b13f
00000300: 806c 433f e7a0 c93e 323c 583f 58c2 ab3f
00000310: 1b52 a93f c620 9e3e ebfe eb3f dbf4 763f
00000320: 0cd7 173f 51f8 1c40 9f50 1140 1f40 cb3e
00000330: 3098 9a3e c584 b03e e3d6 633f 2e60 4f3e
00000340: 231f 9f3f eaa7 e03f 3287 953f 4d8a b23e
00000350: e7f8 843f 62a1 1a3f d91b 753f 306d 063f
00000360: 09e1 5c3f 7cb7 4a3e d9df f83e c830 cc3e
00000370: f867 913f a6f2 1c40 ad4c 0d3f d3b3 ca3f
00000380: c290 373f d532 c33e b9d8 0c40 d0ff 2a3f
00000390: 5abd 6f3f b954 983e 7315 313f 56d2 903f
000003a0: 2aba b13e a425 5e3f 059e af3f ae26 c23e
000003b0: 95c7 383f be08 b13e 57a5 323f f615 b73e
000003c0: 10f7 213f 8ec9 f13e fca2 e63f ce81 653f
000003d0: 8d2f 243f 84db 293f ae9a 413f cada bc3f
000003e0: 1b30 af3f 3682 a83f 8119 dc3e 5e07 003f
000003f0: cf7d ce3e 0342 c23e a6d5 b03e a43f f43f

bn1.bias f4 [400]
0.09337163 -0.51959485 0.08465304 -0.4034264 -0.4078274 -0.55705804 -0.44075263 -0.55923504
-0.34384942 -0.46721023 -0.047584247 -0.5633984 -0.24761964 -0.5764996 -0.004529913 -0.7884938
-0.39748546 -0.55250996 -0.5974912 -0.61229426 -0.042038698 -0.3064994 -0.5502418 -0.71189153
0.114190355 -0.69475865 -0.55101514 -0.6494573 -0.12567902 -0.61391586 0.011512963 -0.6504137
-0.8442937 0.27247387 0.11142831 -0.38056192 -0.62100863 -0.73659855 -0.5367321 -0.47556123
-0.63673484 -0.4160153 -0.46604234 -0.36469328 -0.19439778 0.09712628 -0.4312229 0.12358736
-0.6679089 -0.25312874 -0.45291585 -0.34849846 -0.28829467 -0.42875272 -0.71779275 0.33663926
0.1423345 -0.5451453 -0.2622365 0.087736204 0.43501136 -0.019748034 -0.6276503 -0.3017289
-0.42378864 -0.037428334 -0.6279665 -0.15102169 -0.7449196 -0.17199063 -0.5909252 -0.5197006
-0.35903996 -0.24490729 -0.6736984 -0.087352894 -0.5177541 -0.40024567 -0.65806955 -0.735252
-0.52444464 -0.08116523 -0.7153347 0.033375032 -0.5023825 0.07214411 -0.68582785 -0.30463257
-0.1676818 -0.6740938 -0.3637538 0.27365547 -0.41591936 -0.7405763 -0.43781874 -0.20290053
-0.61698794 0.014113318 -0.34247047 -0.62888116 -0.64987296 -0.013018994 -0.6067028 -0.52474695
-0.35090712 -0.578126 -0.018105255 -0.3604503 0.23882787 0.093710564 -0.5960939 -0.6793254
-0.5328533 -0.304046 -0.5746785 -0.32291406 -0.42102048 0.18425654 -0.5333788 -0.3605113
-0.7397711 -0.5463823 0.20727374 0.07716685 -0.24486771 0.4020571 -0.5125951 -0.2179215
-0.48970196 -0.4764761 -0.07317089 -0.48005164 -0.6575016 -0.26837215 -0.829636 -0.5676412
-0.50262123 -0.5869115 -0.541786 -0.31629673 -0.5679258 -0.46995294 -0.69589424 -0.106893115
-0.6004469 -0.27304792 -0.6187885 0.09960631 -0.79449975 0.19730163 -0.5892262 -0.3495345
0.29749212 -0.7647256 -0.266316 -0.60466015 -0.3081832 0.0024848217 -0.49270123 -0.38533443
-0.2083726 -0.29514292 -0.4928602 -0.7300106 -0.07399418 0.3848304 -0.5631374 -0.64621526
0.22045253 -0.35023966 0.07021693 -0.22009349 -0.6084093 0.23180082 0.2773881 -0.4624499
-0.08232423 -0.2951301 -0.2275163 -0.66622907 -0.4782515 -0.68203187 -0.6164758 -0.62002516
-0.64074665 -0.4775842 -0.21476538 -0.33818457 -0.61106545 0.28448358 -0.82704073 0.1643725
-0.5558134 -0.5018465 -0.29413563 -0.32009107 -0.32498777 -0.6760732 0.09537421 -0.27001414
-0.34630662 0.09026227 0.19997844 -0.5876646 -0.5639203 -0.532772 -0.20896304 -0.8743206
-0.4504293 0.06970358 -0.29143763 -0.58918196 -0.4304803 -0.6472069 -0.24022645 -0.33542657
-0.43000442 -0.7317947 -0.368386 -0.68227667 -0.4724238 0.25626576 -0.79731053 -0.26596847
-0.46472743 -0.68573636 0.31998873 -0.47139716 -0.58498836 -0.5782725 -0.6361653 0.22045986
-0.65963805 -0.48211193 -0.30284396 -0.50178105 -0.53474486 -0.5832389 -0.28310132 -0.5681511
-0.44967067 -0.3697329 0.11151825 -0.4822626 -0.55524707 -0.4558731 -0.43311566 0.097154774
-0.18955202 -0.12075603 -0.63137054 -0.6744314 -0.70182383 -0.7003431 -0.62084526 -0.13149069
00000000: a039 bf3d 2b04 05bf 935e ad3d e88d cebe
00000010: c1ce d0be 5b9b 0ebf 54aa e1be 072a 0fbf
00000020: 080d b0be 2e36 efbe b3e7 42bd e13a 10bf
00000030: 0190 7dbe 7a95 13bf aa6f 94bb bbda 49bf
00000040: 3783 cbbe 4b71 0dbf 2ff5 18bf 51bf 1cbf
00000050: c530 2cbd 7ded 9cbe a6dc 0cbf 863e 36bf
00000060: a2dc e93d b4db 31bf 540f 0dbf d542 26bf
00000070: 00b2 00be 9729 1dbf dea0 3c3c 8381 26bf
00000080: a223 58bf b281 8b3e 8734 e43d 03d9 c2be
00000090: 6cfa 1ebf b991 3cbf 4667 09bf c37c f3be
000000a0: 0e01 23bf f5ff d4be 1a9d eebe 14b9 babe
000000b0: 3610 47be 25ea c63d 3fc9 dcbe 5f1b fd3d
000000c0: 14fc 2abf 179a 81be 96e4 e7be 646e b2be
000000d0: 5c9b 93be 7a85 dbbe 44c1 37bf fb5b ac3e
000000e0: 23c0 113e a48e 0bbf dd43 86be 0aaf b33d
000000f0: cfb9 de3e a1c6 a1bc b1ad 20bf 367c 9abe
00000100: d3fa d8be 744e 19bd 6ac2 20bf 6ea5 1abe
00000110: 0db3 3ebf 501e 30be e046 17bf 190b 05bf
00000120: 16d4 b7be fac8 7abe 8077 2cbf 13e6 b2bd
00000130: 888b 04bf 00ed ccbe 3f77 28bf 7a39 3cbf
00000140: 0142 06bf f539 a6bd 2d20 37bf 42b4 083d
00000150: 249c 00bf 4bc0 933d 6a92 2fbf cdf8 9bbe
00000160: c7b4 2bbe 6991 2cbf f03d babe 921c 8c3e
00000170: 62f3 d4be 6996 3dbf c729 e0be 28c5 4fbe
00000180: ecf2 1dbf 8c3b 673c 4a58 afbe 5bfe 20bf
00000190: 135e 26bf 9e4d 55bc e050 1bbf d155 06bf
000001a0: 19aa b3be 1100 14bf 7951 94bc f18c b8be
000001b0: 4b8f 743e 53eb bf3d 9c99 18bf 45e8 2dbf
000001c0: 1369 08bf ebab 9bbe 211e 13bf fe54 a5be
000001d0: ff8f d7be bfad 3c3e 838b 08bf f094 b8be
000001e0: a461 3dbf b6df 0bbf 913f 543e a709 9e3d
000001f0: 9abe 7abe 6eda cd3e 6f39 03bf d026 5fbe
00000200: 37ba fabe adf4 f3be 9fda 95bd 54c9 f5be
00000210: 0652 28bf 1368 89be 0663 54bf ef50 11bf
00000220: c9ab 00bf d53f 16bf 7db2 0abf a5f1 a1be
00000230: 9663 11bf ac9d f0be 2026 32bf c7ea dabd
00000240: e3b6 19bf f0cc 8bbe ec68 1ebf 65fe cb3d
00000250: 5664 4bbf 7009 4a3e 87d7 16bf 30f6 b2be
00000260: e350 983e 0fc5 43bf 925a 88be 02cb 1abf
00000270: 30ca 9dbe 64d8 223b 5643 fcbe 8e4a c5be
00000280: a05f 55be f91c 97be 2c58 fcbe fae1 3abf
00000290: 438a 97bd 7d08 c53e c629 10bf 5d6e 25bf
000002a0: 4fbe 613e 9d52 b3be e5cd 8f3d 3060 61be
000002b0: b6c0 1bbf 325d 6d3e d005 8e3e 3cc6 ecbe
000002c0: 9b99 a8bd 4b1b 97be 08fa 68be fd8d 2abf
000002d0: 61dd f4be a499 2ebf 5cd1 1dbf f8b9 1ebf
000002e0: f907 24bf eb85 f4be 75eb 5bbe 8726 adbe
000002f0: c96e 1cbf d5a7 913e f1b8 53bf 4451 283e
00000300: c949 0ebf 0379 00bf f298 96be fae2 a3be
00000310: cc64 a6be 2213 2dbf 8e53 c33d 4b3f 8abe
00000320: 1a4f b1be 6ddb b83d 26c7 4c3e 3071 16bf
00000330: 155d 10bf bf63 08bf 68fa 55be 7ad3 5fbf
00000340: ab9e e6be c0c0 8e3d 5037 95be a1d4 16bf
00000350: ea67 dcbe 5aaf 25bf ecfd 75be 08bd abbe
00000360: 8a29 dcbe e656 3bbf 179d bcbe afa9 2ebf
00000370: 88e1 f1be 4435 833e 8b1c 4cbf 052d 88be
00000380: c1f0 edbe 6b8c 2fbf 90d5 a33e f85a f1be
00000390: ccc1 15bf ab09 14bf bbdb 22bf 3bc0 613e
000003a0: 0ade 28bf 60d7 f6be 5d0e 9bbe b974 00bf
000003b0: 0ae5 08bf 254f 15bf a8f2 90be 5a72 11bf
000003c0: 3c3b e6be a14d bdbe ae63 e43d 20eb f6be
000003d0: ac24 0ebf 3368 e9be 56c1 ddbe 15f9 c63d
000003e0: ed19 42be f04e f7bd 80a1 21bf 89a7 2cbf
000003f0: baaa 33bf af49 33bf b7ef 1ebf 7fa5 06be

fc2.weight f4 [300, 400]
-0.27458373 -0.8193212 -0.07126634 0.7399419 -0.57416177 -0.20804116 -0.14627779 -0.09426499
-0.24183664 -0.39415878 0.10052297 0.18134734 0.054486006 -0.10645042 -0.16681468 -0.7762662
-0.3519451 -0.3572823 -0.25980946 -0.34744355 -0.46081507 0.02314901 -0.26609385 0.24188532
-1.0334669 -0.13817643 -0.055386353 -0.49069583 0.15043506 -0.3184846 -0.14903772 -0.013892138
0.02538695 -0.7741503 0.1592429 -0.18755363 -0.42306662 -0.22124566 0.29327968 -0.37085906
-0.67415184 -0.06923356 -0.3450742 -0.80807203 -0.49352494 0.08310827 -0.049810026 0.24049011
-0.37488002 -0.6459233 -0.11814118 -0.064068 -0.18692484 -0.515476 0.42603102 0.5924798
-0.16495542 -0.22351226 0.11053535 0.16550587 0.43834767 0.117406115 -0.23554544 -0.21889783
-0.15489732 -0.037904803 -0.43695363 0.44555697 -0.05739078 0.10282284 0.017641336 -0.14300191
0.37243772 -0.014876685 -0.2518205 -0.24775521 0.6049303 -0.41949195 0.025957871 -1.3140937
-0.98286134 0.17279428 0.17096967 -0.14066228 -0.44662842 -0.65787077 -0.008064374 -0.84213805
-0.37057564 -0.1070075 0.115619384 0.61285025 0.124304265 -0.12984936 -0.090143755 -0.5782315
-0.44273648 -0.0786916 -0.71912944 -0.13517407 -0.2852759 -0.064083934 -1.1462168 -0.20534027
-0.18244809 -0.055143885 -0.25941905 -0.98078054 0.1271013 0.43447885 -0.20981695 0.11734071
0.014174825 -0.31996912 -0.82391393 -0.1508994 -0.58670557 -0.26621085 -0.521828 -0.75311273
0.18681309 -0.13204223 -0.29093993 -0.5604277 -0.9731804 0.15053754 -0.30506137 0.3581707
-0.25950727 0.21588345 -0.3841988 -0.0057799052 0.015433851 -0.093330905 -0.48658186 -0.206248
-0.015330587 0.15222016 -0.15097581 -0.08242065 -0.19565888 -0.18739091 -0.27404565 -0.288546
-0.5408925 0.012407402 -0.48277372 -0.047421206 0.08170707 -0.690309 -0.41238558 -0.23053686
-0.73679155 0.21927324 0.23629422 -0.15094285 -0.27073112 -0.23142163 -0.79023534 -0.35639307
-0.057568736 0.4424617 -0.2398849 -0.04471521 0.47868577 0.33962697 -0.31303406 0.046545573
0.39724162 0.15353122 -1.6139096 0.3790689 -0.1263776 -0.19616741 -0.33081132 -0.4289024
-0.63440394 -0.2788447 -0.12900105 -0.09950452 -0.35695893 -0.14160943 -0.01147897 -0.6560027
-0.28384745 0.0846631 0.31034398 -0.13832632 -0.14765182 -0.5171215 -0.06210111 -0.48152006
-0.6471438 0.00025622733 0.011853061 0.034228478 -0.31009215 -0.07454967 -0.008695282 -0.16601506
0.039272066 -0.30274686 -0.9638249 -0.32323584 -0.32309097 -0.25216466 0.38825306 -0.14406072
-0.2657561 0.7349708 -0.8329346 -0.30039656 -0.8210283 -0.07082352 -0.4115311 -0.055575017
-0.3004438 0.010780962 -0.6283653 -0.0011054189 -0.946522 0.3357857 -0.8251163 -0.05486982
-0.23978016 0.006599461 -0.5273669 -0.33060095 0.36218628 -0.06634792 -0.027190248 -0.70938504
-0.25821275 -0.60774374 -0.629557 -0.15896647 0.118580826 -0.01466265 -0.4377055 -0.119573586
-0.23962052 -0.69273174 0.3590565 -0.30472475 -0.2764405 -0.323165 -0.8170788 0.36769396
0.039566774 -0.14338624 -0.49336842 0.22736089 0.03744944 -0.1055564 -0.33485433 -0.16527864
00000000: 3d96 8cbe 09bf 51bf 16f4 91bd d56c 3d3f
00000010: 44fc 12bf be08 55be d8c9 15be 010e c1bd
00000020: 06a4 77be 2ecf c9be fdde cd3d 1eb3 393e
00000030: b82c 5f3d ae02 dabd 78d1 2abe 62b9 46bf
00000040: 2632 b4be b5ed b6be bf05 85be 1fe4 b1be
00000050: f4ef ebbe fea2 bd3c 743d 88be c9b0 773e
00000060: a548 84bf 1f7e 0dbe cddc 62bd 7c3c fbbe
00000070: a60b 1a3e 6a10 a3be 589d 18be da9b 63bc
00000080: 4bf8 cf3c b72e 46bf 9210 233e 0f0e 40be
00000090: 309c d8be 398e 62be c128 963e 3de1 bdbe
000000a0: 3795 2cbf 53ca 8dbd 91ad b0be cfdd 4ebf
000000b0: 4daf fcbe ab34 aa3d 9905 4cbd 0a43 763e
000000c0: 46f0 bfbe 3b5b 25bf 01f4 f1bd 1536 83bd
000000d0: 3a69 3fbe 3cf6 03bf bd20 da3e c2ac 173f
000000e0: 13ea 28be 66e0 64be 5c60 e23d 5f7a 293e
000000f0: 1b6f e03e 9e72 f03d d332 71be c126 60be
00000100: 679d 1ebe 1142 1bbd 63b8 dfbe 0b20 e43e
00000110: 9812 6bbd c894 d23d 9084 903c 186f 12be
00000120: 28b0 be3e 57bd 73bc 9eee 80be 8bb3 7dbe
00000130: b6dc 1a3f a6c7 d6be 9aa5 d43c 3934 a8bf
00000140: cd9c 7bbf fcf0 303e ac12 2f3e c609 10be
00000150: 7bac e4be 386a 28bf 7020 04bc 5c96 57bf
00000160: 17bc bdbe c026 dbbd dbc9 ec3d c1e3 1c3f
00000170: 3c93 fe3d 3bf7 04be 4a9d b8bd fb06 14bf
00000180: 5bae e2be 1029 a1bd de18 38bf 126b 0abe
00000190: af0f 92be 703e 83bd 3bb7 92bf b844 52be
000001a0: acd3 3abe 8ede 61bd 93d2 84be 6f14 7bbf
000001b0: d826 023e 0374 de3e 41da 56be 5350 f03d
000001c0: 863d 683c fed2 a3be 06ec 52bf 5f85 1abe
000001d0: 5632 16bf ca4c 88be 8596 05bf ffcb 40bf
000001e0: ee4b 3f3e 1436 07be 14f6 94be 3178 0fbf
000001f0: 5a22 79bf 8326 1a3e 0131 9cbe 2662 b73e
00000200: 23de 84be 8d10 5d3e b5b5 c4be 5c65 bdbb
00000210: 43de 7c3c 4624 bfbd 4221 f9be ad32 53be
00000220: 242d 7bbc 9adf 1b3e 6799 1abe 28cc a8bd
00000230: cd5a 48be 67e3 3fbe b64f 8cbe 4dbc 93be
00000240: ee77 0abf 6a48 4b3c 1e2e f7be bd3c 42bd
00000250: 0956 a73d 17b8 30bf 3424 d3be db11 6cbe
00000260: 5f9e 3cbf 2a89 603e 1df7 713e c390 1abe
00000270: 459d 8abe cbf9 6cbe dd4c 4abf 2779 b6be
00000280: 32cd 6bbd 578a e23e 63a4 75be 4c27 37bd
00000290: 4d16 f53e 96e3 ad3e 0046 a0be 92a6 3e3d
000002a0: 4163 cb3e 4a37 1d3e 9794 cebf 5215 c23e
000002b0: 2169 01be 1ce0 48be 1a60 a9be 1899 dbbe
000002c0: 4c68 22bf bcc4 8ebe da18 04be 07c9 cbbd
000002d0: 52c3 b6be 1002 11be 4a12 3cbc cbef 27bf
000002e0: 7454 91be d963 ad3d 68e5 9e3e 6aa5 0dbe
000002f0: 0a32 17be 1362 04bf bc5d 7ebd cc89 f6be
00000300: 37ab 25bf 4056 8639 5733 423c 2933 0c3d
00000310: 66c4 9ebe 7fad 98bd a876 0ebc daff 29be
00000320: bfdb 203d a301 9bbe 3bbd 76bf 2b7f a5be
00000330: 2e6c a5be ba1b 81be 1bc9 c63e a784 13be
00000340: 2f11 88be 0c27 3c3f 343b 55bf 94cd 99be
00000350: e92e 52bf ec0b 91bd 34b4 d2be a1a2 63bd
00000360: c5d3 99be a2a2 303c 8cdc 20bf b4e3 90ba
00000370: 444f 72bf 1aec ab3e d23a 53bf 2dbf 60bd
00000380: ee88 75be 4b40 d83b 8401 07bf 8744 a9be
00000390: 7b70 b93e 6be1 87bd 15be debc 429a 35bf
000003a0: 7634 84be 1895 1bbf a62a 21bf 1bc8 22be
000003b0: 81da f23d 9d3b 70bc ef1a e0be ffe2 f4bd
000003c0: 155f 75be de56 31bf 41d6 b73e e204 9cbe
000003d0: 9c89 8dbe e275 a5be 142c 51bf 6242 bc3e
000003e0: c510 223d d8d3 12be c99a fcbe 4bd1 683e
000003f0: 9664 193d f42d d8bd 0772 abbe ce3e 29be

fc2.bias f4 [300]
-0.078794874 -0.136826 -0.09276076 -0.1978499 -0.1871517 -0.27791527 1.0334563 -0.28333846
1.4037462 1.0260447 -0.18304586 0.90852946 -0.055290777 -0.36110273 0.8246809 -0.32947853
-0.017801533 0.023275645 -0.23386416 1.1495088 0.6648002 -0.34070924 -0.33712298 -0.3166523
-0.37779936 -0.24898988 1.1142565 -0.33943093 0.6609703 1.2382766 -0.32754338 1.1038527
1.2635237 -0.25431877 1.2983351 1.1400352 1.0447851 -0.09399224 -0.23727547 0.07433924
-0.30407685 1.0747367 -0.26397064 1.0327797 1.3756529 0.18607998 1.172884 0.88062763
-0.2533255 -0.18431722 0.9780978 0.16405901 -0.22254631 1.1188663 0.06455073 -0.27082855
-0.22816245 -0.3590751 1.1201187 1.1159258 -0.29930744 0.22845542 -0.26089552 0.23950863
0.57454634 0.112291045 -0.06608351 -0.3631 -0.047124982 0.05137238 0.18820174 -0.7128443
-0.1576299 -0.26141605 -0.22409901 -0.13297832 1.0909201 -0.16414149 0.8265692 0.14110364
-0.40123463 -0.31847826 -0.116949804 -0.18614426 -0.02379183 -0.26497796 -0.10990034 -0.27689955
-0.007458112 0.026454397 -0.346795 -0.34071633 1.2227018 0.13820945 -0.082784966 0.9919255
-0.29531166 -0.07690313 1.1483146 -0.13971311 -0.3188006 1.0491354 -0.22449228 -0.13002317
1.0532694 0.0621184 -0.21832031 -0.215101 0.9844781 -0.2270104 -0.35860032 0.8048002
-0.34413928 1.4038568 0.6627147 1.2419822 -0.18698159 -0.3576071 -0.059570346 0.39134973
-0.122890085 -0.03428622 -0.4484548 -0.22969417 -0.39492717 0.9486032 -0.36020365 0.42084366
-0.29200312 -0.0744314 -0.12175366 -0.29727688 -0.18471445 1.0759346 -0.17192979 1.1594498
-0.19651838 1.2835385 -0.2655629 -0.33439156 0.18939692 -0.14990954 -0.19921778 0.44382343
-0.2827577 1.2308637 0.31805715 0.6367359 0.45039156 -0.12362142 -0.20239618 -0.18614137
-0.59705615 -0.20786701 -0.2649137 0.060913857 1.0129138 -0.326158 -0.19376604 -0.29904562
-0.31652686 -0.15645996 -0.23846677 -0.28418043 -0.13893329 -0.4326575 -0.2418461 -0.327818
0.7049098 -0.28220206 0.026725994 1.0925081 1.2533265 -0.24551268 -0.42551348 0.56706905
0.62023264 -0.01163271 -0.23130098 1.3357201 1.2775342 -0.05675379 0.13010262 -0.27705127
0.30052418 -0.2742466 -0.26799604 1.0138347 0.16186106 0.22801608 -0.18295705 -0.14028528
-0.28136477 1.1375052 1.1060494 -0.23951097 0.9713048 0.7674683 -0.0668532 0.85433316
0.57542306 -0.36992735 -0.26628274 -0.638812 -0.18140197 -0.32033122 -0.3518627 -0.2261954
-0.28213978 -0.15947905 1.1627177 0.06117982 -0.30073893 0.9818716 0.2743797 0.13245632
-0.24319087 -0.0291571 0.98495984 0.084232524 1.2134659 -0.21752344 -0.37584785 0.96935135
-0.15242623 -0.36740398 1.0381272 0.8440851 -0.2580389 -0.24901555 -0.37007645 -0.36090925
-0.24492262 0.9197149 -0.048423704 0.80826366 -0.25748402 -0.39260718 1.1142062 -0.12747929
-0.42497104 0.07225008 1.1205871 -0.2524269 0.013430342 -0.27102208 -0.2233567 1.2438809
-0.2932198 -0.14368346 1.0117393 1.0314544 -0.19845437 -0.21836992 0.3108673 0.9617759
00000000: 355f a1bd 1d1c 0cbe 5af9 bdbd 2a99 4abe
00000010: b2a4 3fbe e94a 8ebe 4c48 843f bd11 91be
00000020: f5ad b33f 6f55 833f 6070 3bbe 6395 683f
00000030: 9578 62bd 75e2 b8be 4a1e 533f 69b1 a8be
00000040: 85d4 91bc 91ac be3c 167a 6fbe 1b23 933f
00000050: 5930 2a3f 7171 aebe 629b acbe 4020 a2be
00000060: eb6e c1be 34f7 7ebe f59f 8e3f e4c9 adbe
00000070: 5935 293f d97f 9e3f c4b3 a7be 0c4b 8d3f
00000080: 25bb a13f 1236 82be d82f a63f acec 913f
00000090: 85bb 853f 017f c0bd 57f8 72be 2c3f 983d
000000a0: f6af 9bbe f990 893f 2927 87be 2032 843f
000000b0: 6515 b03f c08b 3e3e 1021 963f d070 613f
000000c0: e1b3 81be a7bd 3cbe 9e64 7a3f 16ff 273e
000000d0: 2ee3 63be 0337 8f3f 2c33 843d 0aaa 8abe
000000e0: 6ba3 69be b1d8 b7be 0d60 8f3f a8d6 8e3f
000000f0: d33e 99be 38f0 693e 1994 85be c041 753e
00000100: 7815 133f d9f8 e53d cb56 87bd 3ee8 b9be
00000110: 2006 41bd d86b 523d f5b7 403e f77c 36bf
00000120: bc69 21be 53d8 85be 367a 65be 782b 08be
00000130: 45a3 8b3f b514 28be 0a9a 533f 797d 103e
00000140: a06e cdbe 950f a3be 6183 efbd 9a9c 3ebe
00000150: 15e7 c2bc 31ab 87be 6e13 e1bd c7c5 8dbe
00000160: 2e63 f4bb e4b6 d83c 1d8f b1be 5f72 aebe
00000170: 7e81 9c3f c786 0d3e 2a8b a9bd d4ee 7d3f
00000180: 1733 97be 637f 9dbd f9fb 923f f410 0fbe
00000190: d539 a3be 124a 863f 4ee1 65be cb24 05be
000001a0: 88d1 863f dd6f 7e3d 5c8f 5fbe 7043 5cbe
000001b0: c206 7c3f 6a75 68be 769a b7be 6307 4e3f
000001c0: 0633 b0be 94b1 b33f aca7 293f 46f9 9e3f
000001d0: 1a78 3fbe 4718 b7be 0900 74bd fe5e c83e
000001e0: ccad fbbd b56f 0cbd de9b e5be f334 6bbe
000001f0: e533 cabe a9d7 723f 9d6c b8be d278 d73e
00000200: 6f81 95be 7d6f 98bd fc59 f9bd ad34 98be
00000210: c925 3dbe 3ab8 893f 5d0e 30be da68 943f
00000220: 1d3c 49be fd4a a43f dcf7 87be 5f35 abbe
00000230: 44f1 413e e381 19be bfff 4bbe d33c e33e
00000240: 9ec5 90be f18c 9d3f 63d8 a23e 2001 233f
00000250: b999 e63e 3a2d fdbd f240 4fbe d89b 3ebe
00000260: acd8 18bf 17db 54be c5a2 87be cf80 793d
00000270: 29a7 813f 2efe a6be 9b6a 46be 821c 99be
00000280: cf0f a2be 0a37 20be a230 74be 1980 91be
00000290: 8744 0ebe 4985 ddbe 81a6 77be c3d7 a7be
000002a0: f874 343f ca7c 90be 79f0 da3c 4ed7 8b3f
000002b0: 016d a03f ad67 7bbe e7dc d9be 702b 113f
000002c0: 91c7 1e3f 1f97 3ebc 2ada 6cbe e0f8 aa3f
000002d0: 3e86 a33f a976 68bd 9f39 053e aad9 8dbe
000002e0: 4ede 993e 0d6a 8cbe c736 89be 56c5 813f
000002f0: e8be 253e 0c7d 693e 1859 3bbe f2a6 0fbe
00000300: 0b0f 90be c599 913f 0793 8d3f 5d42 75be
00000310: 6ea7 783f cd78 443f 55ea 88bd 94b5 5a3f
00000320: ed4e 133f 1e67 bdbe 3656 88be 2f89 23bf
00000330: 70c1 39be 7402 a4be 5927 b4be c49f 67be
00000340: a074 90be 7a4e 23be efd3 943f b197 7a3d
00000350: 74fa 99be f05b 7b3f 7f7b 8c3e a1a2 073e
00000360: 0707 79be dfda eebc 5426 7c3f 1a82 ac3d
00000370: da52 9b3f 77be 5ebe 216f c0be 6927 783f
00000380: 9f15 1cbe 601c bcbe 5ae1 843f f615 583f
00000390: ad1d 84be effd 7ebe a97a bdbe 19c9 b8be
000003a0: ffcc 7abe 7072 6b3f ef57 46bd 5eea 4e3f
000003b0: f2d4 83be cf03 c9be 4f9e 8e3f ee89 02be
000003c0: ce95 d9be daf7 933d 666f 8f3f 193e 81be
000003d0: f00a 5c3c 68c3 8abe 9eb7 64be 7d37 9f3f
000003e0: e820 96be c221 13be ac80 813f b306 843f
000003f0: 9f37 4bbe 5d9c 5fbe 002a 9f3e f236 763f

bn2.weight f4 [300]
1.4449903 1.0036122 0.9257348 1.4803464 1.1908531 1.0469452 1.0196217 1.890563
1.0474778 1.0276408 1.3713285 0.9997276 1.6561563 0.9275863 0.9915784 1.0861757
1.2856153 1.5204427 1.0440638 1.0413656 0.9534845 0.8751471 1.1480321 1.0579981
0.8990143 1.1963707 1.0294769 1.7411109 0.9567462 1.0664372 0.9512568 1.0659153
1.0730039 1.8950946 1.0648024 1.0544275 1.0103245 0.9771886 1.2018306 1.1775513
1.1531817 1.0552723 1.2323341 1.0041022 1.0940695 0.9054758 1.0695945 0.9964122
1.0798752 0.8338593 0.9960383 2.0571308 1.1146117 1.0664259 1.1433944 0.99592984
2.0088866 1.3058681 1.0457147 1.0348647 1.2155135 1.3508899 1.0655098 0.85421216
0.9493874 1.4917716 1.295415 0.9798072 1.2107785 0.76628464 1.8975205 0.2616605
0.97146624 1.1232541 0.9638244 1.2334325 1.0187012 1.0398008 0.981506 1.1115488
1.0224202 1.1396313 1.1668094 1.0394081 1.4193821 1.6231493 1.0544055 1.0689517
1.9544063 1.2624804 1.0434226 0.9983947 1.0365142 1.9808675 1.0662389 1.0291535
0.93864036 1.2278465 1.0426999 1.3327876 1.064879 1.020179 1.0684913 0.9804501
1.0230776 1.0554768 1.0390013 1.1704919 1.0035622 1.4238489 1.7219498 0.9894994
0.9511928 1.0776292 0.95066506 1.0505953 1.1157601 1.3397526 0.9791682 0.86965996
1.2846298 1.3601527 1.1030326 1.2420663 1.7941676 0.98618823 1.1800773 0.8930145
1.0009425 1.015201 1.4673947 1.111983 1.2361022 1.0636742 1.538642 1.0615036
1.0 1.0680722 0.9125371 1.1242537 0.86276627 1.1251934 0.97595817 0.9205523
1.1394744 1.0399272 2.049381 0.94728875 0.892958 1.0964401 1.200362 1.0678734
0.48233107 0.89672977 1.0980687 1.4595627 1.0176815 1.1775404 1.1332902 1.0858238
1.0207593 1.0782585 1.181519 0.9946098 1.0680653 1.1662127 2.2080376 1.359661
0.96496564 1.6581944 1.4645553 1.0497761 1.0588483 1.2532048 1.6942745 0.9460989
0.95279485 1.0049764 1.3452643 1.0626874 1.0817453 1.679956 1.0091162 0.9739951
0.8726563 1.1723912 1.2775681 1.009055 0.9522951 1.3326112 1.4142548 1.2974575
1.2818422 1.022606 1.0480881 1.0335051 1.0047771 0.9873168 1.0804183 0.981398
0.9324445 0.9944029 0.87218666 0.70760906 1.153583 1.0038459 2.0202267 0.867926
1.1423402 1.322432 1.0222776 1.3241501 1.1344572 1.0170568 0.9032584 1.2072868
0.85083044 1.3903915 1.0200002 1.4682403 1.0524898 1.192191 1.3797977 1.0045817
1.0957572 1.1107031 1.0218081 1.0035989 1.1296232 1.0782568 1.0178443 0.98954016
1.0929339 0.9935408 1.3056405 0.98456234 1.2231 1.2263236 1.0336862 1.0193193
1.39549 0.961204 1.040703 1.4174937 1.2960821 1.1484996 1.084048 1.0476673
1.190345 1.4137642 1.0195799 1.0288249 1.3965478 1.0973419 0.89183027 0.99830014
00000000: 71f5 b83f 5d76 803f f5fc 6c3f fe7b bd3f
00000010: e06d 983f 4d02 863f f782 823f f8fd f13f
00000020: c113 863f bc89 833f b187 af3f 26ee 7f3f
00000030: eefc d33f 4c76 6d3f 15d8 7d3f ce07 8b3f
00000040: 0b8f a43f de9d c23f e2a3 853f 784b 853f
00000050: 8f17 743f a409 603f b7f2 923f 7b6c 873f
00000060: cd25 663f ad22 993f e6c5 833f b9dc de3f
00000070: 52ed 743f 0481 883f 9185 733f ea6f 883f
00000080: 3158 893f 7692 f23f 724b 883f 7bf7 863f
00000090: 5052 813f 0829 7a3f 96d5 993f 00ba 963f
000000a0: 759b 933f 2a13 873f 20bd 9d3f 6c86 803f
000000b0: 780a 8c3f 43cd 673f 79e8 883f df14 7f3f
000000c0: 5a39 8a3f ce77 553f 5efc 7e3f 08a8 0340
000000d0: 99ab 8e3f a580 883f bf5a 923f 42f5 7e3f
000000e0: 9991 0040 b026 a73f fbd9 853f 7276 843f
000000f0: f295 9b3f f6e9 ac3f a062 883f a6ad 5a3f
00000100: 0d0b 733f 5ff2 be3f 29d0 a53f a5d4 7a3f
00000110: cafa 9a3f 3b2b 443f f4e1 f23f 5df8 853e
00000120: 03b2 783f cac6 8f3f 32bd 763f 1ee1 9d3f
00000130: cd64 823f 3118 853f fa43 7b3f 3b47 8e3f
00000140: aade 823f 70df 913f 035a 953f 530b 853f
00000150: 50ae b53f 5bc3 cf3f c2f6 863f 69d3 883f
00000160: fc29 fa3f f598 a13f df8e 853f cc96 7f3f
00000170: 7fac 843f 118d fd3f 847a 883f 4dbb 833f
00000180: bc4a 703f 132a 9d3f 3177 853f c998 aa3f
00000190: f44d 883f 3a95 823f 53c4 883f c7fe 7a3f
000001a0: 35f4 823f dd19 873f fffd 843f aed2 953f
000001b0: ba74 803f ae40 b63f da68 dc3f d54f 7d3f
000001c0: 5f81 733f c1ef 893f c95e 733f e879 863f
000001d0: 3ad1 8e3f 037d ab3f c4aa 7a3f 09a2 5e3f
000001e0: c06e a43f 7c19 ae3f 2c30 8d3f 07fc 9e3f
000001f0: 49a7 e53f d576 7c3f c60c 973f 999c 643f
00000200: e21e 803f 1bf2 813f 97d3 bb3f 7555 8e3f
00000210: 9938 9e3f 7a26 883f 39f2 c43f 5adf 873f
00000220: 0000 803f 97b6 883f 089c 693f 8ce7 8f3f
00000230: 40de 5c3f 5606 903f 65d8 793f 51a9 6b3f
00000240: 4cda 913f 561c 853f 0f29 0340 8481 723f
00000250: e598 643f 2658 8c3f 76a5 993f 13b0 883f
00000260: 19f4 f63e 1590 653f 848d 8c3f f3d2 ba3f
00000270: 6343 823f a5b9 963f a70f 913f 46fc 8a3f
00000280: 3ea8 823f 6004 8a3f 043c 973f bf9e 7e3f
00000290: 5db6 883f 7546 953f 7d50 0d40 5f09 ae3f
000002a0: fd07 773f b73f d43f 8c76 bb3f 105f 863f
000002b0: 5788 873f 0469 a03f fddd d83f 8a33 723f
000002c0: 5dea 733f 11a3 803f 9f31 ac3f 2406 883f
000002d0: a176 8a3f cc08 d73f b82a 813f be57 793f
000002e0: 6766 5f3f ea10 963f 5a87 a33f b728 813f
000002f0: 9dc9 733f 0193 aa3f 4d06 b53f 1613 a63f
00000300: 6813 a43f c1e4 823f c027 863f e549 843f
00000310: 899c 803f cbc0 7c3f 264b 8a3f e63c 7b3f
00000320: afb4 6e3f 3091 7e3f a047 5f3f de25 353f
00000330: 9ca8 933f 067e 803f 654b 0140 6630 5e3f
00000340: 3438 923f 7445 a93f fed9 823f c07d a93f
00000350: e535 913f eb2e 823f f13b 673f 6088 9a3f
00000360: 06d0 593f 59f8 b13f 5e8f 823f 4cef bb3f
00000370: fcb7 863f b799 983f 369d b03f 2296 803f
00000380: c641 8c3f 852b 8e3f 9cca 823f ee75 803f
00000390: 7e97 903f 5204 8a3f b948 823f 8152 7d3f
000003a0: 42e5 8b3f b158 7e3f 3a1f a73f 470c 7c3f
000003b0: 8a8e 9c3f 2cf8 9c3f d44f 843f 0e79 823f
000003c0: 6b9f b23f 7711 763f c235 853f 6f70 b53f
000003d0: 05e6 a53f 0902 933f 16c2 8a3f f619 863f
000003e0: 3a5d 983f 3af6 b43f 9881 823f 89b0 833f
000003f0: 14c2 b23f b375 8c3f fd4e 643f 9990 7f3f

bn2.bias f4 [300]
-0.15110931 0.0018759411 -0.068545766 0.05837078 -0.6239153 -0.04918986 0.017570427 -0.030260969
0.033691473 0.019622123 -0.35724992 0.008888729 -0.008668783 0.07252474 0.005171468 -0.03487229
-0.011895352 0.04420106 0.008354375 0.027046314 -0.009550252 -0.29114655 -0.044354692 -0.017702976
0.029421693 -0.10293118 0.021158347 0.06258149 -0.00691326 0.036148526 -0.23335774 0.032989133
0.039202884 0.017622063 0.037610035 0.032491542 0.013685886 0.04699981 -0.22298941 -0.04460602
-0.02470298 0.031341422 -0.060985446 0.011689746 0.0481118 -0.036836512 0.03750279 0.006426317
-0.011438754 -0.21127489 0.00730242 0.24913378 -0.3429266 0.034583546 0.003638193 -0.002179866
0.07405692 -0.051849574 0.027284084 0.021851927 -0.20209913 -0.16789517 -0.13036837 -0.04338261
0.0054537617 0.02003271 0.008926097 0.07744914 -0.15499729 -0.45847765 -0.24445423 -0.6540368
0.116431996 -0.13076806 -0.13849173 -0.1040344 0.020437181 0.08890094 0.002865228 -0.008437702
-0.16458306 -0.03395286 0.094549574 -0.11089179 0.0024560401 -0.064986296 -0.1391429 -0.093684524
0.0084012505 -0.29182827 -0.032401863 -0.021253606 0.029263612 0.05998581 -0.03114714 0.020289402
-0.04797022 -0.22089466 0.02616242 -0.23316413 -0.0131339105 0.015868956 0.16656604 0.06088609
0.020062173 -0.00086488045 -0.041546054 -0.072995886 0.0091978125 -0.0041568093 -0.1001876 0.0056438334
0.0013804223 0.04458429 -0.01138094 0.030491484 -0.31266764 0.018331787 -0.059124235 -0.02991405
-0.15901744 -0.016468694 0.005103544 0.08517986 0.037703075 0.004867534 -0.05611984 -0.02804703
-0.01971153 -0.013801361 -0.12894942 -0.09015136 -0.18950039 0.03371228 0.031426366 0.033539616
0.0 0.03918362 -0.11821329 -0.025675295 -0.029348064 -0.06669445 0.033918567 -0.015259992
-0.07861623 0.025596753 -0.0046226336 -0.008185483 -0.027108833 -0.12585254 -0.04844937 0.030062852
-0.481544 -0.07185204 -0.11020075 -0.019203868 0.015842635 -0.1435355 -0.029022912 -0.08336535
-0.38497162 0.033602398 0.07257702 0.053047277 -0.14358746 -0.10415226 -0.20302902 -0.06573116
-0.0048688822 0.2092835 -0.025719702 0.027510526 0.031913128 -0.46679538 -0.053816795 -0.011109425
-0.0034372476 -0.21682985 -0.48304102 0.03359343 0.042580508 -0.15776382 -0.036283646 0.07966785
-0.037299156 -0.1688249 -0.2851201 0.011903461 0.016052673 0.10378508 -0.32642555 -0.10401751
-0.16476925 0.017792499 0.026572585 0.19676515 0.00979388 0.0017101436 -0.05716068 0.003919519
-0.010934672 -0.22069494 0.12175751 -0.38171124 -0.054405876 0.031828262 -0.23690192 -0.09580042
-0.20515949 -0.017563088 0.021955788 -0.017787205 -0.11533505 0.020489741 -0.036835782 0.03980399
-0.18391404 0.020749316 0.01645406 -0.018271387 0.030850383 -0.07729582 -0.19445269 0.018769115
0.0005031176 0.059103116 0.016592398 0.008340505 0.19402438 -0.054478474 -0.08896418 -0.025315
-0.13279186 0.009662007 0.015835062 0.0125642 -0.07757543 -0.17096514 0.022242151 -0.015387376
-0.26245305 0.013410616 0.027410718 0.08506362 -0.018794375 -0.08290229 -0.0031632504 0.027804045
-0.06965651 -0.0063189785 0.01771629 0.01800439 0.06850107 -0.06568321 -0.017001286 0.008913425
00000000: 66bc 1abe 23e2 f53a b961 8cbd 3316 6f3d
00000010: eab8 1fbf 4e7b 49bd dbef 8f3c dae5 f7bc
00000020: 1200 0a3d 93be a03c 76e9 b6be 08a2 113c
00000030: 8307 0ebc da87 943d 6b75 a93b 3fd6 0ebd
00000040: b9e4 42bc 2c0c 353d cae0 083c 3b90 dd3c
00000050: a978 1cbc 2911 95be 44ad 35bd d505 91bc
00000060: c305 f13c 95cd d2bd 4554 ad3c b92a 803d
00000070: a188 e2bb 7a10 143d 55f5 6ebe 9d1f 073d
00000080: 3493 203d 255c 903c fb0c 1a3d da15 053d
00000090: c43a 603c df82 403d 5657 64be cdb4 36bd
000000a0: e75d cabc dd5f 003d e0cb 79bd 5986 3f3c
000000b0: e110 453d e2e1 16bd 879c 193d db93 d23b
000000c0: 9d69 3bbc 7258 58be 2449 ef3b ed1c 7f3e
000000d0: 1394 afbe 7aa7 0d3d c06e 6e3b 15dc 0ebb
000000e0: 28ab 973d 3860 54bd df82 df3c d002 b33c
000000f0: 13f3 4ebe b6ec 2bbe 497f 05be f7b1 31bd
00000100: 78b5 b23b a31b a43c c43e 123c a89d 9e3d
00000110: 9cb7 1ebe 95bd eabe 3652 7abe f56e 27bf
00000120: e673 ee3d 10e8 05be c7d0 0dbe fd0f d5bd
00000130: e06b a73c b211 b63d 8dc6 3b3b 4a3e 0abc
00000140: 7688 28be 2712 0bbd 35a3 c13d 3c1b e3bd
00000150: 84f5 203b 8917 85bd 7a7b 0ebe acdd bfbd
00000160: 66a5 093c 846a 95be d1b7 04bd 0b1c aebc
00000170: 3eba ef3c aeb3 753d 4928 ffbc f635 a63c
00000180: 6c7c 44bd 3632 62be 9252 d63c 94c2 6ebe
00000190: 9d2f 57bc 9dff 813c 4a90 2a3e b163 793d
000001a0: 6d59 a43c 25b9 62ba 322c 2abd de7e 95bd
000001b0: 6cb2 163c d835 88bb 282f cdbd e8ef b83b
000001c0: 49ef b43a 049e 363d 1f77 3abc 47c9 f93c
000001d0: f915 a0be 8b2c 963c 412c 72bd 4f0e f5bc
000001e0: 78d5 22be 5be9 86bc a13b a73b c772 ae3d
000001f0: 8a6e 1a3d d67f 9f3b ebdd 65bd e3c2 e5bc
00000200: 137a a1bc 1b1f 62bc 510b 04be 47a1 b8bd
00000210: 640c 42be e315 0a3d efb8 003d d660 093d
00000220: 0000 0000 017f 203d cf19 f2bd ff54 d2bc
00000230: 5a6b f0bc 1a97 88bd 32ee 0a3d 0c05 7abc
00000240: 8c01 a1bd 48b0 d13c 7679 97bb 671c 06bc
00000250: 5813 debc 7ddf 00be d972 46bd 5f46 f63c
00000260: ef8c f6be 2a27 93bd eeb0 e1bd 6e51 9dbc
00000270: 6ac8 813c f8fa 12be 75c1 edbc 74bb aabd
00000280: 001b c5be aba2 093d 43a3 943d 1a48 593d
00000290: 9708 13be c84d d5bd d7e6 4fbe 0f9e 86bd
000002a0: 258b 9fbb 6a4e 563e 20b2 d2bc c15d e13c
000002b0: 57b7 023d ceff eebe 006f 5cbd 4e04 36bc
000002c0: 7243 61bb a508 5ebe 2751 f7be 4499 093d
000002d0: e668 2e3d d78c 21be 299e 14bd e628 a33d
000002e0: 00c7 18bd 6fe0 2cbe 43fb 91be bc06 433c
000002f0: e580 833c 468d d43d 4021 a7be 2207 d5bd
00000300: 45b9 28be 93c1 913c c0ae d93c ce7c 493e
00000310: 8376 203c e626 e03a 5121 6abd 4f6f 803b
00000320: 5727 33bc dbfd 61be 005c f93d a86f c3be
00000330: b2d8 5ebd 5a5e 023d 6b96 72be 0333 c4bd
00000340: 5415 52be 77e0 8fbc a0dc b33c 79b6 91bc
00000350: c834 ecbd 1ada a73c 1ee1 16bd 8209 233d
00000360: f653 3cbe 78fa a93c aaca 863c e0ad 95bc
00000370: f1b9 fc3c 454d 9ebd 9b1e 47be b0c1 993c
00000380: a7e3 033a 1c16 723d c8ec 873c 9da6 083c
00000390: 54ae 463e d224 5fbd da32 b6bd 6761 cfbc
000003a0: 97fa 07be 654d 1e3c 88b8 813c 13da 4d3c
000003b0: dedf 9ebd 7c11 2fbe 2c35 b63c 551b 7cbc
000003c0: 3f60 86be 33b8 5b3c 718c e03c d635 ae3d
000003d0: a9f6 99bc adc8 a9bd 894e 4fbb 4fc5 e33c
000003e0: 13a8 8ebd 6f0f cfbb c121 913c f17d 933c
000003f0: 4a4a 8c3d eb84 86bd 4846 8bbc 9d09 123c
