Zadanie3/srcV2/models/VEP_exp_prob_01_exploration_100/target_actor_network.pth (torch, 507007 bytes, 10 tensors)

fc1.weight f4 [400, 8]
000000 bb d4 d8 3d fa 34 29 3e 74 d4 55 bd d2 f9 c4 bd
       0.1058745 0.16524115 -0.052204564 -0.09617962
000010 2c ae 47 bc 00 ea 9e bd c6 dc aa 3e 73 bc 14 bd
       -0.012187522 -0.07759476 0.33371562 -0.03631253
000020 40 40 a1 bd ed c4 58 3e 4d e0 8b 3d 59 41 40 be
       -0.07873583 0.21168871 0.06829891 -0.18774928
000030 3e 13 93 3e a1 55 41 be 2a 09 90 3e 7d 15 ef 3d
       0.28725618 -0.18880321 0.28131992 0.116740204
000040 4d 52 05 3c 39 4c 72 3e 2f 43 48 3d e9 44 8f 3b
       0.008137298 0.23661889 0.048892196 0.0043722284
000050 78 11 d4 bd 51 ea 04 bd 53 05 8c 3e 34 cf b1 3c
       -0.103548944 -0.032450024 0.27347812 0.021705247
000060 ee 6b 39 3e 09 3d da 3d 2e 3f 00 be bf e0 de bd
       0.18107578 0.10656173 -0.12524101 -0.10882711
000070 66 05 cb bd 57 64 20 3e ad e7 54 3d f6 17 09 3e
       -0.09913139 0.15663277 0.051978756 0.13388047
000080 ca b0 45 be 31 24 8a 3e a9 cb 4f 3e 2f 12 ed 3a
       -0.19305721 0.26980737 0.20292534 0.0018087084
000090 53 3f 73 be 13 2f b5 3c fa e3 61 3e eb b0 7b 3e
       -0.23754625 0.022117173 0.22059622 0.24579208
0000a0 62 e2 0e be ab 17 b6 3e ae 14 3f bc b4 65 8b be
       -0.13953546 0.35564932 -0.011662645 -0.2722603
0000b0 6b 69 d5 bc 0e 21 09 be 44 aa aa 3e f6 8d 0c 3e
       -0.026051244 -0.13391516 0.33333027 0.13726029
0000c0 25 94 45 be da a4 ee 3e 67 52 a2 bc 68 1e e6 be
       -0.19294794 0.46610147 -0.019814683 -0.44945073
0000d0 17 ea 80 3e e4 1c 94 3e 58 e5 9f 3e c0 6e 66 3e
       0.25178596 0.28928292 0.31229663 0.22503185
0000e0 eb be 24 be 78 ea f9 bb b8 2e 58 be 29 5e bc be
       -0.16088454 -0.007626828 -0.21111572 -0.36790588
0000f0 dd 6b 7f bd 96 d3 ec 3d 93 36 71 be 3b d3 44 3e
       -0.062358726 0.11563794 -0.23555975 0.19221203
000100 a1 18 99 be d5 c5 8e 3e 29 fa 6e 3e c7 9f 1e 3e
       -0.29901603 0.2788531 0.23337616 0.15490638
000110 4d c5 fd bd 99 95 1f be 60 d8 90 3e 93 85 80 3e
       -0.12391148 -0.1558441 0.2829008 0.2510191
000120 a3 8f 4e be 9b a4 98 3e 2f a9 38 bd a0 6e ad be
       -0.2017198 0.29813084 -0.04508322 -0.33873463
000130 f0 14 16 3e 02 51 b4 3d d6 ed 08 3e e2 df a5 3d
       0.14656425 0.088045135 0.13371977 0.08099343
000140 0d d6 1e bf b1 da 77 3f 08 19 5a be 50 d3 8a bf
       -0.62045366 0.9681807 -0.21298611 -1.0845737
000150 09 d4 37 3d 1f c9 87 be 59 61 13 3f ce 1a 01 3f
       0.044879947 -0.2652063 0.57570416 0.50431526
000160 f0 a9 1d be 84 fd 79 3e 9c 7f 78 be a3 36 11 be
       -0.15396857 0.24413115 -0.24267429 -0.14180999
000170 15 ea b9 3e 6f 9c 84 3e 73 a1 12 3e a3 fe a9 be
       0.36311403 0.259006 0.143194 -0.33202085
000180 7b a1 e7 bd b2 f7 a0 3e a6 42 85 3c 11 b6 07 be
       -0.11310097 0.31438977 0.016267132 -0.13253047
000190 a8 d4 88 3e 3a 13 5b 3e 79 f4 2c 3e 56 3f d3 3d
       0.26724744 0.21394053 0.16890134 0.10314815
0001a0 77 13 05 be de e8 b2 3e ce 26 18 3e 38 d0 d4 be
       -0.12995706 0.3494329 0.14858553 -0.41565108
0001b0 33 e5 05 be 23 ef 87 be 33 1b 61 3e 34 bb 32 3e
       -0.13075714 -0.26549634 0.21983032 0.17454225
0001c0 02 2b 18 be dc 49 e4 3e a3 a2 7b bd d5 9f 95 be
       -0.14860156 0.445876 -0.0614344 -0.29223505
0001d0 05 15 7f be 4b 27 2c be 51 68 8c 3e 8f 8c b9 3e
       -0.24910362 -0.16811864 0.27423337 0.3624005
0001e0 82 21 da bd 7b ac b2 3e 92 39 b6 3d b2 e6 64 3c
       -0.10650922 0.34897217 0.088976994 0.013971018
0001f0 e4 80 7a be 32 6b 2a be ee 68 f8 3c ad c2 db 3d
       -0.2446323 -0.16642454 0.030323472 0.10730491
000200 7b 5a db bd 77 a0 d0 3e 8f 7a a4 bd 14 66 70 be
       -0.10710617 0.40747425 -0.08031189 -0.2347644
000210 f3 63 78 bd 66 d3 0a be c0 61 58 3e ed 41 91 3e
       -0.060642194 -0.13557205 0.21131039 0.2837061
000220 a9 b6 1e be a7 2f 83 3e ee 50 17 be c0 98 8d be
       -0.15499367 0.25622293 -0.14776966 -0.27655602
000230 65 1c 8b 3e d1 6a ff 3d c9 d3 64 3e 49 72 3f be
       0.271701 0.124715455 0.22346415 -0.1869594
000240 63 a2 70 be 56 af 90 3e 22 60 3f 3e e9 33 4c bb
       -0.23499446 0.2825877 0.18689016 -0.003115887
000250 1d 92 20 bc d2 0d f1 bd 35 ac 0d 3e 74 cf 81 3e
       -0.009800461 -0.11770214 0.13835223 0.25353587
000260 4f b2 45 be cf 77 d9 3e ec eb 81 3d a7 30 3c be
       -0.193063 0.4247422 0.06343827 -0.18377934
000270 ad ef 31 be 36 82 5b be 43 7f 14 3e e7 b3 cc 3e
       -0.17376585 -0.2143639 0.14501671 0.39981005
000280 80 8b 31 bc 6c 88 22 3e d4 2a 88 3d 70 2c 59 be
       -0.010836482 0.15872353 0.06648794 -0.21208358
000290 70 45 c0 bd 63 50 ec 3d 8c 74 02 3e 80 bc 6a bd
       -0.09388244 0.1153877 0.12739772 -0.057308674
0002a0 e2 3b 0a be ec a0 8a bd ab 67 24 be 98 7a d8 be
       -0.13499406 -0.06768975 -0.16055171 -0.42281032
0002b0 62 c5 30 be 28 03 c9 be e4 b4 18 bd 1a 36 7d 3e
       -0.17262796 -0.3926022 -0.037281886 0.2472767
0002c0 6a 34 ba bd 91 82 50 3e 8a d9 ca bd d1 8d d5 bd
       -0.090920284 0.20362307 -0.099047735 -0.1042744
0002d0 4e 8c 32 3e 37 82 a4 3c db 2a 6f 3e 41 1e 80 3e
       0.17436334 0.020081623 0.23356192 0.25023082
0002e0 69 86 2d be 0e 52 ec 3d a9 f4 60 be 9c 60 42 bd
       -0.16945805 0.11539088 -0.2196833 -0.047455415
0002f0 d2 ce 7e 3e 34 4f 10 3c 7b 25 66 3e c2 e4 71 3e
       0.24883583 0.008807946 0.22475235 0.2362242
000300 5f 87 81 be dd 87 ad 3e 50 50 ff bc b3 c9 b1 be
       -0.25298592 0.33892718 -0.031166226 -0.34724197
000310 2d d3 9c bc f6 63 8f be 7e ed 9d bc 2b 73 66 3e
       -0.019143665 -0.28005952 -0.019278284 0.2250487
000320 ea df dd 3c ed 2d a8 3e 11 68 79 bd 86 4a 69 be
       0.02708431 0.3284754 -0.06089026 -0.22782335
000330 27 03 c6 bd 21 e3 cf bd 34 50 c3 3d 0e 60 16 3e
       -0.0966857 -0.10150743 0.09536782 0.1468508
000340 08 b6 ae 3b ba ea 9d 3e 5e 06 9f 3d 5c 36 f4 3d
       0.0053317584 0.30843145 0.07764886 0.11924431
000350 3a 0d 8f be 54 57 31 be 9f 69 0e 3d d1 3d 0a 3e
       -0.2793978 -0.1731847 0.034768697 0.13500144
000360 cc 11 51 be 4b 8a dd bd 04 62 fe bd 71 48 01 bf
       -0.20416945 -0.10817393 -0.12421039 -0.5050116
000370 ed e8 b1 be 1d f3 7d bd ce 53 8e be 86 a3 86 3e
       -0.3474802 -0.06199943 -0.27798313 0.26296633
000380 fa b0 be bc cf 4d 67 3e e7 ef c7 3c 62 28 5f be
       -0.023277748 0.22588275 0.024406387 -0.21792749
000390 09 4f bb bd 3c c6 e9 bd 95 d6 1f 3e 5e fc 85 3e
       -0.09145934 -0.11414763 0.156092 0.26169103
0003a0 ef aa 52 be 29 c0 84 3e 69 c0 5e be 02 3b 45 be
       -0.20573018 0.25927857 -0.21753086 -0.19260791
0003b0 49 a4 9c 3e 79 97 91 3e c7 1e 20 3d 7a d6 ba be
       0.3059409 0.28435877 0.03909185 -0.36491758
0003c0 af 1a 2b be a7 2e 00 bc 00 4e 50 3d a1 80 9f be
       -0.16709398 -0.007823623 0.050855637 -0.31152824
0003d0 a3 8b 2b be 6f 18 ca 3d 9e d9 2c be 5b a3 d6 3d
       -0.16752486 0.098679416 -0.1687989 0.10480376
0003e0 21 22 d9 bd 0d 90 bb 3e 5a 2e 55 bc 42 1a 98 be
       -0.10602213 0.3663334 -0.013011539 -0.29707533
0003f0 55 8e d4 3c df 0c 27 3e 37 3a 84 3e d4 24 5c 3e
       0.025946775 0.16313504 0.25825664 0.21498424

fc1.bias f4 [400]
000000 65 bd 87 3e e6 2f 0a 3e 66 0e 7a 3e df 8a 11 3e
       0.26511684 0.13494834 0.24419555 0.14213131
000010 9a 56 9c 3e 6d ee b5 3e 11 de e0 3e 06 6b 54 3e
       0.30534822 0.35533467 0.43919423 0.20743951
000020 f4 c0 93 3e d5 c8 73 3e 90 f5 81 3f be e1 09 3e
       0.2885815 0.2380708 1.0153065 0.1346502
000030 1b 7c 81 3e ea 63 3a 3e 57 c6 d3 3e 05 de 92 3e
       0.25289997 0.18202177 0.4136226 0.28685012
000040 11 5f c5 3e 0d f3 01 3e dc 28 9f 3e 80 67 e0 3e
       0.38549092 0.12690373 0.3108586 0.43828964
000050 a4 b0 11 3e 8f e6 aa 3c 5c ba 9e 3e 0c 91 8c 3e
       0.1422754 0.020861892 0.31001556 0.27454412
000060 d2 d9 47 3e db d5 ba 3e 50 67 48 3e 3e 33 ed 3d
       0.19516686 0.36491284 0.1957066 0.11582039
000070 2b 77 9c 3e 45 e8 dc 3d 61 b0 63 3e f0 57 9c 3e
       0.30559668 0.107864894 0.22235252 0.3053584
000080 2e 2f 32 3e 67 02 1e 3e f5 b8 ec 3e 0d d7 9d 3e
       0.1740081 0.15430604 0.4623486 0.30828133
000090 77 26 14 3e ba a6 9c 3e da 28 73 3e 72 ef 93 3e
       0.14467798 0.30595952 0.23746052 0.2889362
0000a0 37 2f 29 3e 1f ca 26 3e e8 55 63 3e 03 87 21 bd
       0.16521917 0.1628804 0.2220074 -0.039435398
0000b0 4d c4 f9 3e 07 80 06 3e 88 13 95 3e 34 e0 2f 3e
       0.48782578 0.13134776 0.29116464 0.1717537
0000c0 5b 53 95 3e c9 ac 87 3e de a8 85 3e 0b 33 04 3e
       0.29165158 0.26499012 0.26105398 0.12910096
0000d0 78 dc dd 3d 71 fe 74 3e 45 a8 9d 3d 6e 90 b2 3d
       0.10833067 0.23925187 0.076981105 0.08718954
0000e0 c5 c1 33 3e 47 a7 8f 3e 73 9d 5c 3e ed 06 22 3e
       0.17554386 0.2805731 0.21544437 0.15822954
0000f0 69 08 7e 3e 63 a3 eb 3d 73 63 d6 3e f3 27 ae 3e
       0.24807896 0.11505773 0.4187275 0.34014854
000100 c6 ab bb 3e 30 cc 92 3e e6 4d 95 3e 61 82 96 3e
       0.3665449 0.28671408 0.29160994 0.29396346
000110 6e c8 03 3d 64 ab 32 3e a8 74 64 3f 92 6a 82 3e
       0.032173567 0.17448193 0.89240503 0.25471932
000120 bc 2e 13 3e e6 cc 87 3e 5e f1 9b 3e 77 5b 5e 3e
       0.14373296 0.26523513 0.30457586 0.21714579
000130 90 7b 2e 3e 18 9e 84 3e 5b f4 8d 3e 51 1b a2 3e
       0.17039323 0.25901866 0.2772549 0.31661466
000140 4b e0 b3 3e e5 fc 65 3e 77 81 a4 3e ea b5 a2 3e
       0.3513206 0.22459753 0.32130024 0.31779414
000150 17 52 c9 3e 60 af 45 3e f1 db 82 3e 09 38 4b 3e
       0.39320442 0.19305182 0.25558427 0.19845594
000160 bb 33 63 3e 42 0e 44 3e 35 01 8e 3e 34 6d a3 3e
       0.22187702 0.19146064 0.27735296 0.31919253
000170 35 f4 9a 3e 84 70 12 bc 8c 1b c3 3e 61 36 92 3e
       0.3026444 -0.008937959 0.38106954 0.28557113
000180 56 a0 d5 3d 7a 6d b6 3e 99 f7 e8 3d 8c 2c 96 3e
       0.10430972 0.356304 0.113753505 0.29330862
000190 cf 3b 53 3e f2 98 d0 3e 38 b5 a5 3e 68 34 77 3e
       0.20628284 0.40741688 0.3236482 0.24141085
0001a0 a6 58 1d 3e d7 ca 68 3e cf 04 1c 3e b3 a0 a6 3d
       0.15365848 0.22733627 0.1523621 0.0813612
0001b0 c6 90 c7 3d c1 6f 04 3f 60 4b c2 3e 46 4e 87 3e
       0.0974441 0.5173302 0.37948132 0.26426905
0001c0 93 12 94 3e e5 68 84 3e a6 e6 69 3e 81 41 66 3e
       0.2892042 0.25861278 0.22841892 0.22485925
0001d0 98 cc 8f 3e 77 2b e5 3d b2 46 2e 3e 2c d1 91 3e
       0.2808578 0.11189931 0.17019156 0.28479898
0001e0 98 ad ec 3d 01 87 a8 3e 15 ca fb 3d 53 dd 3e 3e
       0.11556548 0.329155 0.122944035 0.18639116
0001f0 d7 05 88 3e 1c 19 8d 3e 79 82 d4 3e c5 0c 83 3e
       0.26566955 0.2755822 0.41505793 0.2559568
000200 92 c5 9f 3e d7 a8 0f 3f 39 9d 99 3e 09 74 79 3e
       0.31205422 0.56117004 0.30002764 0.2436067
000210 12 98 b1 3e 46 1b c6 3e 6d d8 25 3e 43 ad 15 be
       0.34686333 0.38692683 0.16195841 -0.14616875
000220 1c 49 31 3e d3 a1 14 3d 3d aa e2 3e 89 aa 16 bd
       0.17313045 0.03628714 0.44270507 -0.03678373
000230 9e 1a 57 3e 61 15 fe 3e d5 90 c7 3e 6f 0b cc 3e
       0.21006247 0.49625686 0.38977686 0.39852473
000240 4f df 3b 3e 8e c5 09 3f 9c 00 1d 3e be 9a 80 3e
       0.18346904 0.5381707 0.15332264 0.2511806
000250 70 6a 88 3e dc 1f 2c 3e ef 6f a4 3e 5b ff 9a 3d
       0.26643705 0.16809028 0.3211665 0.075682364
000260 db 39 ba 3e 86 3f 8a 3e 69 49 4b 3e c8 27 81 3e
       0.36372265 0.2700159 0.19852223 0.25225663
000270 3d e6 25 3c ee 8d 98 3e a8 a2 6a 3e 19 1d 0a 3e
       0.010125694 0.29795784 0.22913611 0.13487662
000280 e0 21 0b 3f 5c 89 73 3e 45 46 a1 3e 54 15 41 3e
       0.54348564 0.23782867 0.31498924 0.18855792
000290 24 6c 7d 3f 4f d1 b2 3e 3b 47 f0 3d fe 67 46 3e
       0.98993134 0.34925315 0.11732336 0.19375607
0002a0 8b 72 e4 3e 36 25 a6 3e 27 21 d3 3e 25 7f 3e 3e
       0.4461864 0.32450265 0.4123623 0.1860319
0002b0 77 a9 ba 3e d5 11 25 3e 8c bb 57 3e 0b 20 57 3e
       0.36457416 0.16120084 0.21067637 0.21008317
0002c0 51 a6 7b 3e 56 15 61 3d d7 54 49 3e 9a 6f 14 3f
       0.24575163 0.05495199 0.1966127 0.5798279
0002d0 fa dc cc 3e 19 db 82 3e f2 9a 96 3e 20 b8 b5 3e
       0.40012342 0.25557783 0.2941509 0.3549204
0002e0 c0 38 93 3e 20 09 8a 3e 32 18 b0 3e 65 e4 c0 3e
       0.28754234 0.26960087 0.3439346 0.3767425
0002f0 c4 0b a7 3e 4e b9 0d 3f 69 d4 3d 3e 31 b8 be 3e
       0.32626164 0.5536088 0.1853806 0.37249902
000300 2a 4b 4e 3e 0e 31 4c be af f2 f0 3d 9c 3a 51 3e
       0.2014586 -0.19940588 0.11765038 0.20432514
000310 dc 9e 85 3e 96 ee 87 3e 62 d1 22 3e ed 16 42 3e
       0.26097763 0.26549214 0.15900186 0.18954058
000320 64 ab f6 3e eb e8 8e 3e 71 7e 08 3e b2 58 ed 3d
       0.48177636 0.27912077 0.13329484 0.11589183
000330 71 2a b4 be 8f 20 a9 3e 0c ca 97 3e 52 93 98 3e
       -0.3518863 0.33032653 0.29646337 0.29799896
000340 87 8d bd 3d 71 89 9e 3e b3 ab b7 3e 44 92 0d 3e
       0.0925551 0.30964234 0.35873184 0.13825327
000350 9c d2 56 3e 01 4d 88 3e 21 0f 24 3c 2f 54 1e 3d
       0.20978779 0.2662125 0.010013373 0.038654502
000360 e0 0b 67 3e ce 9c 90 3e ed 76 91 3e a7 8f 6d 3d
       0.22563124 0.28244632 0.28411046 0.057998326
000370 a0 fe bb 3e de f5 90 3e f5 ea a4 3e 2b 55 b9 3e
       0.367177 0.28312582 0.32210508 0.3619779
000380 04 05 91 3e 4d da 4a 3e c4 31 0d 3f 70 b7 9d 3e
       0.2832414 0.19809838 0.5515406 0.30804014
000390 a7 fa 04 3e 72 d0 aa 3e e4 30 56 3e 92 8f a7 3e
       0.12986241 0.33362156 0.20917088 0.32726723
0003a0 91 38 09 bd 5e af 43 3e 0c 85 6d 3f 3b 84 3b 3e
       -0.03350121 0.19109866 0.9278114 0.1831216
0003b0 05 54 b0 3e 0f aa 97 3c b3 33 86 3e 4c d4 13 3e
       0.34439102 0.018513707 0.26211318 0.14436454
0003c0 44 fd 98 3e 7e 16 b0 3e d5 1e 23 3e df d8 5c 3e
       0.29880726 0.3439216 0.1592973 0.21567105
0003d0 1a 00 3e 3e 1f 71 df 3e c2 b4 c5 3e 7c 90 01 3f
       0.18554726 0.43640992 0.3861447 0.5061109
0003e0 6f e3 9f 3e 77 91 84 3e e2 65 fd 3d f1 22 71 3e
       0.31228206 0.2589223 0.12372948 0.23548485
0003f0 0b 2d fc 3e cf c9 64 3e 50 69 70 3e bc dc ac bc
       0.49253115 0.22342609 0.23477674 -0.021101348

bn1.weight f4 [400]
000000 cf 87 6e 3f b6 94 b1 3f f9 11 6d 3f 97 75 9e 3f
       0.9317598 1.3873508 0.9260555 1.2379636
000010 fa 45 4b 3f fa d0 28 3f ae d9 d0 3e 7d ba bd 3f
       0.7940365 0.6594387 0.40791076 1.4822537
000020 e4 59 84 3f e7 80 5d 3f ef 52 13 3e 93 1a b7 3f
       1.0339932 0.86524814 0.14387105 1.4304985
000030 ff f1 52 3f 73 48 86 3f 78 89 09 3f 6d 61 5e 3f
       0.82400507 1.049086 0.53725386 0.8686741
000040 2f f5 30 3f 40 1c b8 3f 32 a6 58 3f 7d 81 02 3f
       0.6912412 1.4383621 0.84628594 0.50978833
000050 46 83 ac 3f 45 db fa 3f 85 a6 63 3f 81 95 53 3f
       1.3477561 1.9598166 0.88925964 0.8265
000060 ba 20 54 3f 7d 15 31 3f b2 6f 86 3f f8 43 f8 3f
       0.82862437 0.69173414 1.0502837 1.9395742
000070 68 52 53 3f bc 66 c0 3f aa 29 a1 3f 63 1c 43 3f
       0.82547617 1.5031352 1.259084 0.7621519
000080 21 1c 65 3f 85 55 be 3f d5 37 ed 3e b5 27 52 3f
       0.89496046 1.4869848 0.4633166 0.8209184
000090 b0 fa a5 3f 87 b9 4e 3f a5 28 65 3f eb 31 69 3f
       1.2967129 0.8075184 0.89515144 0.91091794
0000a0 18 dc 82 3f 67 1a 9a 3f 96 e2 52 3f 92 53 d1 3f
       1.0223417 1.2039307 0.8237699 1.6353629
0000b0 8d b0 e0 3e cc 8e 8c 3f 20 71 51 3f b9 86 ac 3f
       0.43884698 1.0981078 0.8181324 1.3478614
0000c0 1f 2b 2c 3f 11 4a 40 3f c4 7f 41 3f db 2f a8 3f
       0.672533 0.75113016 0.7558558 1.3139604
0000d0 ab 99 b1 3f 6a 9d 7d 3f 75 6a d2 3f ba 43 92 3f
       1.3875021 0.9906832 1.6438738 1.1426919
0000e0 7e 77 b8 3f d1 04 76 3f 15 39 47 3f 8b 02 9c 3f
       1.4411466 0.961011 0.77821475 1.2188276
0000f0 53 dd 84 3f 02 60 94 3f 52 e4 da 3e 97 a7 42 3f
       1.0380043 1.1591799 0.4275232 0.7603697
000100 6f c6 1d 3f 74 96 41 3f 12 0f 8f 3f 94 e3 55 3f
       0.6163091 0.756202 1.1176474 0.8355038
000110 40 cd d0 3f 98 43 8e 3f 57 71 36 3e ec 8f 27 3f
       1.6312637 1.1114378 0.17816673 0.6545398
000120 17 af 8f 3f 30 05 76 3f 8c 68 4a 3f a7 82 9d 3f
       1.1225308 0.96101665 0.79065776 1.2305497
000130 89 7e 6c 3f 0e 44 83 3f 03 24 64 3f 48 2a 3b 3f
       0.9238058 1.0255144 0.8911745 0.7311139
000140 9a 6d 3c 3f 66 9e 59 3f d2 4e 30 3f 68 4d 4f 3f
       0.7360474 0.8500732 0.6887027 0.8097749
000150 27 c3 1e 3f ee fe a0 3f c0 eb 7a 3f 10 56 94 3f
       0.6201653 1.2577798 0.98015976 1.1588764
000160 63 bd 6c 3f 45 0a 90 3f 92 35 32 3f 51 85 43 3f
       0.9247648 1.1253134 0.6961299 0.763753
000170 c4 1b 59 3f 94 43 d8 3f 16 77 1b 3f ba 89 5c 3f
       0.8480799 1.6895623 0.60728586 0.86147654
000180 24 04 d0 3f b2 47 37 3f 93 c7 b1 3f 3b a6 69 3f
       1.6251264 0.71593773 1.388903 0.9126927
000190 17 e2 af 3f 54 ee 22 3f 5e 37 3a 3f f6 5b 63 3f
       1.3740872 0.6364491 0.72740734 0.88812196
0001a0 dd f1 b4 3f 00 bd 81 3f 75 4b a2 3f 76 33 a8 3f
       1.4136311 1.0135803 1.2679278 1.3140705
0001b0 b2 67 a8 3f d1 64 c3 3e ac eb 06 3f e6 2f 4c 3f
       1.3156645 0.38162854 0.52703357 0.7976059
0001c0 8a 03 56 3f 80 93 61 3f 42 54 70 3f a9 84 96 3f
       0.8359915 0.8811569 0.9387857 1.1759235
0001d0 79 44 49 3f 91 0e 91 3f 6f 58 a4 3f f6 4a 7d 3f
       0.78620106 1.133257 1.2839488 0.98942506
0001e0 d1 7c 9f 3f c4 c1 2a 3f 35 a5 93 3f 34 60 ae 3f
       1.2459966 0.6670191 1.1534792 1.3623109
0001f0 f5 0d 8a 3f d2 51 94 3f b3 ba 07 3f 7a c2 60 3f
       1.0785509 1.158747 0.53019255 0.8779675
000200 7a 02 70 3f 98 cd be 3e 17 55 6b 3f 87 95 58 3f
       0.9375378 0.3726623 0.9192671 0.8460316
000210 e3 5c 42 3f 85 ed 01 3f bc 82 89 3f de 52 f0 3f
       0.75922984 0.5075305 1.0743022 1.8775289
000220 5f 0d ac 3f ce a9 e6 3f fb 41 06 3f f5 b5 bb 3f
       1.344158 1.802057 0.5244443 1.4664904
000230 50 18 80 3f 23 e7 c7 3e fd a6 16 3f 33 d0 f4 3e
       1.000742 0.3904353 0.58848554 0.47815093
000240 51 b4 c1 3f d4 ae c4 3e b6 3e 83 3f 90 1c 72 3f
       1.5133153 0.38414633 1.0253513 0.9457483
000250 53 aa 71 3f 66 c2 b3 3f 12 e4 37 3f 93 cf af 3f
       0.9440052 1.4043701 0.7183238 1.3735222
000260 51 3e 1d 3f 41 d3 3c 3f d6 7d ae 3f 2a 57 6e 3f
       0.6142321 0.7375985 1.3632152 0.9310175
000270 2d dc a3 3f 57 66 43 3f 12 c7 b0 3f 1a c8 9d 3f
       1.2801567 0.76328033 1.3810751 1.2326691
000280 6f b1 c0 3e 87 37 6c 3f f9 16 46 3f 31 df b7 3f
       0.3763537 0.9227223 0.77378803 1.4364988
000290 e3 7a 19 3e 6f 80 42 3f 32 30 ac 3f de fb 86 3f
       0.14988284 0.75977224 1.3452208 1.0545614
0002a0 d1 a2 17 3f fe 8f 44 3f be 56 09 3f 82 28 b7 3f
       0.59232813 0.76782215 0.53647983 1.4309237
0002b0 99 53 2b 3f f7 06 90 3f ad 2f 72 3f d0 d4 84 3f
       0.66924435 1.1252126 0.94604 1.0377445
0002c0 e8 3f 5e 3f c7 ae e5 3f e8 d3 9a 3f fd 1a af 3e
       0.86816263 1.7943963 1.2095919 0.34200278
0002d0 02 e6 20 3f b5 9b 9e 3f 91 7b 78 3f 46 8d 2b 3f
       0.62850964 1.2391268 0.9706355 0.6701244
0002e0 51 17 46 3f e9 16 67 3f 64 68 5b 3f 59 4a 2b 3f
       0.7737933 0.90269333 0.8570616 0.6691032
0002f0 18 38 1d 3f 8a 5d cc 3e cc d5 b9 3f 53 ce 15 3f
       0.6141372 0.39915115 1.4518371 0.5851795
000300 e9 8b 76 3f e6 ff fe 3f 32 35 b1 3f 7d f2 85 3f
       0.96307236 1.9921844 1.3844359 1.0464627
000310 1d 6d 8b 3f 8e 4e 69 3f 34 2f ae 3f 85 a8 b3 3f
       1.0892674 0.9113549 1.3608155 1.4035803
000320 15 39 e2 3e 59 52 88 3f 6a ec a2 3f 4e a0 9c 3f
       0.44184175 1.065013 1.2728398 1.2236421
000330 4c 68 ff 3f 50 3f 59 3f 35 90 1e 3f 15 2e 78 3f
       1.9953704 0.8486223 0.6193879 0.96945316
000340 b3 ea c6 3f 56 88 3a 3f 2b 9e 13 3f 6f de 93 3f
       1.5540375 0.7286428 0.5766322 1.1552256
000350 d4 51 8b 3f 22 f4 5a 3f 00 fd d3 3f 98 1e b6 3f
       1.0884347 0.8552877 1.6561584 1.4228086
000360 09 a8 53 3f ce 57 53 3f 5f ad 3e 3f d4 3a b6 3f
       0.82678276 0.82555854 0.74483293 1.4236703
000370 94 35 42 3f 54 5c 66 3f ce 0c 30 3f ef 9c 3e 3f
       0.75863004 0.8998463 0.6876954 0.7445821
000380 15 8d 61 3f f8 4f 93 3f 5f 08 c7 3e 3c c3 74 3f
       0.881059 1.150878 0.38873574 0.95610404
000390 78 4d 92 3f b4 48 27 3f c3 ba b2 3f 4a d2 52 3f
       1.1429892 0.6534531 1.3963245 0.82352126
0003a0 cd d7 de 3f 86 43 c6 3f 92 88 37 3e 91 d4 a7 3f
       1.7409607 1.5489357 0.17923191 1.3111745
0003b0 e4 de 45 3f f5 43 b1 3f d7 0c 71 3f bb f8 91 3f
       0.7729323 1.3848864 0.9416022 1.1404032
0003c0 bc df 3a 3f 88 f5 59 3f 90 81 95 3f 2c 60 9e 3f
       0.7299764 0.85140276 1.1680164 1.2373099
0003d0 fb 8b 86 3f ff 9e 01 3f 19 8d 29 3f ae 0c db 3e
       1.0511469 0.50633234 0.6623092 0.4278311
0003e0 55 88 62 3f f0 b0 84 3f 61 78 a8 3f ff 23 63 3f
       0.88489276 1.0366497 1.3161737 0.887268
0003f0 16 d3 cf 3e 9e 5b a5 3f 9f 1e 95 3f 41 16 fa 3f
       0.40590733 1.2918584 1.164997 1.9538041

bn1.bias f4 [400]
000000 20 67 ce be 91 c5 98 bd 16 44 a4 be 5d 02 58 be
       -0.40313053 -0.07459558 -0.32083195 -0.21094652
000010 b0 d0 bd be 59 29 f3 be d1 03 30 bf d6 11 c2 bc
       -0.37073278 -0.47492483 -0.68755823 -0.023690145
000020 50 5f 6d be 54 74 ac be e1 d7 56 bf ea 30 d0 bd
       -0.2318089 -0.336825 -0.83923155 -0.101655796
000030 88 7d af be c7 2b 72 be 15 45 1f bf 2c 2c bb be
       -0.3427546 -0.23649512 -0.62214786 -0.36557138
000040 51 91 04 bf 79 aa 00 be 29 a4 a4 be ce 2e 1e bf
       -0.51784235 -0.1256503 -0.32156494 -0.6179017
000050 c6 06 35 be 7e c1 4d bd e8 88 bd be f6 31 9e be
       -0.17678365 -0.050233357 -0.37018514 -0.30897492
000060 3c 36 a8 be 5d 4a 0f bf d7 19 42 be 3c 99 9a 3d
       -0.32853878 -0.55972844 -0.1895517 0.075487584
000070 c1 d9 e1 be 7d 73 11 be 78 f0 ba bc 97 6b 04 bf
       -0.44111446 -0.14204212 -0.022819743 -0.5172667
000080 ab 4f d7 be 8e df 0a be dd 78 1c bf 06 c8 d0 be
       -0.4205297 -0.13561842 -0.6112192 -0.40777606
000090 b8 68 69 be fd 4c da be 54 30 dd be 71 97 ae be
       -0.22793853 -0.42636862 -0.43200934 -0.34099916
0000a0 06 a3 58 be 35 12 fb bd 16 a0 9e be 0e 6e 84 be
       -0.21155939 -0.12259332 -0.3098151 -0.25865215
0000b0 27 f7 3c bf 4c 42 aa bd e8 4b dc be 14 63 07 b9
       -0.73814625 -0.083134264 -0.43026662 -0.00012911513
0000c0 73 30 03 bf 96 27 e1 be f2 26 73 be 9f 98 34 bd
       -0.512458 -0.43975514 -0.23745325 -0.044090863
0000d0 98 60 6f bd 75 0c 98 be 9a 2c db 3c e4 67 0e 3d
       -0.05844173 -0.29697004 0.026754666 0.034767047
0000e0 d6 c3 01 3e 60 95 c3 be 55 9a d2 be 50 d7 28 be
       0.12672362 -0.38199902 -0.4113337 -0.16488385
0000f0 1c 54 41 bc 27 a4 7c 3c 3c 14 29 bf 91 3b eb be
       -0.011799838 0.015419996 -0.660465 -0.45943883
000100 4a cd 07 bf 24 d4 b6 be 32 40 90 be aa b8 d4 be
       -0.5304762 -0.35708725 -0.28173977 -0.41547137
000110 f6 54 08 be 9f 94 59 bd 7e d5 62 bf 3f 14 e6 be
       -0.1331366 -0.05312025 -0.88607013 -0.44937322
000120 ba c0 7e be d4 c7 a2 be 89 3b 35 be 44 9a 8c bd
       -0.24878207 -0.31793082 -0.17698492 -0.06865361
000130 59 51 46 be c6 44 79 be d4 a7 a4 be 5e f6 dc be
       -0.19366969 -0.24342641 -0.32159293 -0.43156713
000140 81 96 cf be 45 80 ab be 1c 97 e2 be 11 b3 cf be
       -0.40544513 -0.334963 -0.44255912 -0.40566304
000150 01 c5 13 bf 71 16 54 be 10 7c b4 be 93 60 9c be
       -0.5772248 -0.20711686 -0.35250902 -0.3054243
000160 9c 20 60 be 9e 7e b2 bd ed bd e3 be 81 b0 d8 be
       -0.2188744 -0.087155566 -0.4448084 -0.42322162
000170 66 7f eb be 65 31 bb 3c f3 77 12 bf 6b 5c d1 be
       -0.45995635 0.022850702 -0.5721428 -0.40890822
000180 3f 2f 92 bd 36 42 06 bf aa aa a6 bd 7a ce 90 be
       -0.07137918 -0.5244478 -0.0813802 -0.2828253
000190 f6 93 3b be 08 17 04 bf 04 b3 d5 be cf 06 f5 be
       -0.18318161 -0.5159764 -0.4173814 -0.47856757
0001a0 33 46 6d bc 7f fd a8 be e5 11 05 be d3 0d bb 3c
       -0.014482069 -0.33005902 -0.12995107 0.02283374
0001b0 e5 ec 85 be 3c c0 41 bf 62 a7 0d bf 29 71 ca be
       -0.261573 -0.7568395 -0.5533353 -0.3953946
0001c0 58 10 cb be e9 1d de be d7 7c a6 be a5 44 62 be
       -0.39660907 -0.43382195 -0.3251712 -0.22096498
0001d0 e3 76 ea be ac 75 b1 bc 54 21 57 be c8 f5 2d be
       -0.45793828 -0.021662556 -0.21008807 -0.1698829
0001e0 99 14 98 be bf e2 f9 be d8 6d a9 be 97 12 0c be
       -0.29703215 -0.48805806 -0.33091617 -0.13678966
0001f0 b7 e1 74 be 1e 5c b8 3c c3 c1 1a bf 76 c4 c7 be
       -0.23914228 0.022504862 -0.60451907 -0.39017075
000200 90 fa bf be 60 ea 3f bf d0 dd be be e1 0e 8a be
       -0.37495852 -0.74967 -0.37278605 -0.26964477
000210 01 22 cf be f0 1e 20 bf 1d d1 36 3d 38 83 0b 3d
       -0.4045563 -0.62547207 0.04463302 0.034060687
000220 e4 7e 73 be 58 af 36 3d 23 4e 15 bf a1 0e 69 bd
       -0.23778874 0.044600815 -0.5832235 -0.056898717
000230 02 f8 9c be 95 af 3e bf 97 6c 1a bf cb 73 24 bf
       -0.30657965 -0.74486667 -0.60321945 -0.64239186
000240 0d b6 e9 3d 27 ee 3e bf 58 6b b8 be 7b dd f8 be
       0.114116766 -0.7458214 -0.36019397 -0.48606476
000250 57 08 c6 be 0d 3a 61 be 53 62 db be 13 b4 93 bd
       -0.38678238 -0.21994801 -0.42848453 -0.07212081
000260 3d 08 11 bf b8 b1 ed be ef 13 c1 3d f8 d6 77 be
       -0.56653196 -0.4642465 0.0942763 -0.24203098
000270 dd 41 0a be 64 bb e4 be 90 d0 3b bb b6 68 45 bd
       -0.13501687 -0.44674218 -0.0028658248 -0.048195563
000280 22 cd 31 bf a0 67 a5 bd 51 f5 ed be 19 a0 0a be
       -0.6945363 -0.080764055 -0.46476224 -0.13537635
000290 5f e0 5d bf 77 05 cb be 7b 5c 9d bd f8 68 c6 be
       -0.8667049 -0.39652607 -0.07683655 -0.3875196
0002a0 89 71 1a bf 7e 5c d0 be 6a eb 19 bf 3c 75 ec bd
       -0.6032949 -0.40695566 -0.6012484 -0.11545798
0002b0 74 11 db be 22 b5 3f be b3 9d a3 be ee f9 a2 be
       -0.42786753 -0.1872144 -0.31956252 -0.31831306
0002c0 fc 2e e4 be c7 02 0a 3d 9e f9 0f be 12 bb 3f bf
       -0.44567096 0.033694055 -0.14060065 -0.7489482
0002d0 46 15 06 bf 72 63 8e bd 86 d8 96 be 2e b5 08 bf
       -0.5237621 -0.069525614 -0.2946207 -0.5340146
0002e0 3d 1d e7 be 4a ba 2b be e5 ab a4 be 04 81 e4 be
       -0.45139495 -0.16770282 -0.32162395 -0.4462968
0002f0 29 51 11 bf 37 5c 43 bf 19 1b b1 bc c0 06 12 bf
       -0.56764466 -0.76312584 -0.021619366 -0.5704155
000300 cf 00 ae bd 90 8a 96 3d 16 7f eb 3c d0 2b 9b be
       -0.08496248 0.073506474 0.028747123 -0.30306864
000310 77 ce 3a be 95 1e d8 be 19 fb fe bd 0f e9 0b be
       -0.18242823 -0.42210832 -0.12450237 -0.13663124
000320 76 b6 32 bf 32 01 96 be e7 02 49 be bd c5 e3 bc
       -0.69809663 -0.29297787 -0.19630013 -0.02780425
000330 af 99 70 3e c0 b0 f3 be 48 71 00 bf af b0 8c be
       0.23496126 -0.47595787 -0.50172853 -0.2747855
000340 e5 84 8d bd 11 7d e6 be 3c 4c 03 bf 1f c9 57 be
       -0.06910113 -0.45017293 -0.512882 -0.21072815
000350 79 5c 59 be 8c 55 b4 be 7d 2b 03 be 50 62 42 be
       -0.21226682 -0.35221517 -0.12809558 -0.18982816
000360 a9 d7 c5 be dd 8a b5 be 0b 06 ca be 63 36 8f 3c
       -0.38641098 -0.35457507 -0.39457735 0.017481988
000370 a7 c3 be be 16 79 cf be 35 8d fb be d0 58 e5 be
       -0.37258646 -0.4052207 -0.4913117 -0.4479432
000380 3c 21 cb be 82 25 82 bd be 51 45 bf 67 d3 76 be
       -0.39673793 -0.0635481 -0.77077854 -0.24104081
000390 4b 6f 3d be 96 c4 d7 be 7a f9 14 be 91 36 cd be
       -0.18499486 -0.4214217 -0.14548293 -0.40080693
0003a0 0a 73 38 be 1b 58 97 bc 19 87 6d bf 57 96 2b 3d
       -0.18012634 -0.01847463 -0.9278427 0.041891422
0003b0 87 0c c3 be 57 7c 07 be 50 c1 3f be b9 71 ec bd
       -0.38095495 -0.13231026 -0.18726087 -0.115451284
0003c0 2e f4 e0 be 7a ae 99 be dd 55 bd be aa 8e 81 be
       -0.43936294 -0.30015928 -0.3697957 -0.25304157
0003d0 62 0c 85 be 88 73 2d bf 54 cf fd be e5 db 35 bf
       -0.2598601 -0.6775441 -0.4957224 -0.7103866
0003e0 5d 54 b6 be cb 06 ba be d7 49 00 be fe a3 fc be
       -0.3561124 -0.36333308 -0.12528168 -0.49343866
0003f0 d9 2b 32 bf 9b f8 3f be 8f d5 75 be ca 16 ab 3b
       -0.69598156 -0.18747179 -0.24007247 0.0052212225

fc2.weight f4 [300, 400]
000000 09 21 1e 3e ab d1 1a 3d 49 1c e0 bd 22 c5 74 3e
       0.1544229 0.03779761 -0.10942895 0.23903325
000010 de 83 9a bd 22 42 6c 3e 06 d3 6b bd 14 fd 26 3e
       -0.07544683 0.23072103 -0.057574295 0.16307479
000020 4f e8 84 be 0f eb 4c 3e d6 32 f0 bc 0b 5b 4b 3e
       -0.25958487 0.20011543 -0.029321115 0.19858949
000030 d3 7c 63 3e be 6d b2 be 50 11 ec 3d 97 84 46 be
       0.22215585 -0.34849352 0.115267396 -0.19386517
000040 ad 42 cd bd 4b 6a c3 bd 3a cf 90 3d f5 07 90 3d
       -0.10022483 -0.09541758 0.07070775 0.07032768
000050 ce e3 d4 bb 3b 6c 5f bd c7 6f ab bc 54 92 e2 bc
       -0.006496883 -0.054546576 -0.020927323 -0.027657665
000060 ba 38 e2 bd ce 6b fd 3d f3 72 a3 be 17 c1 d5 3d
       -0.11045976 0.12374078 -0.31923637 0.104372196
000070 55 5c 4c 3e 51 ce d6 bc 63 dd 35 be 34 24 69 3e
       0.19957097 -0.026221426 -0.17760234 0.22767717
000080 e1 76 80 3e f2 f2 9f 3d 3b b5 85 bc 4c 1a be bd
       0.25090697 0.0781001 -0.016321769 -0.092823595
000090 d1 fa 5e bd 89 e0 89 3d d4 f4 90 3c fd 8c 0d be
       -0.054438416 0.0673228 0.017694868 -0.13823314
0000a0 fe 16 ec bd ea 40 07 3e 5a 65 cb bd 84 4c ac 3e
       -0.11527823 0.13208356 -0.09931441 0.33652127
0000b0 e3 95 f0 bb 16 f9 83 bd 3f c7 6f be d6 2e 3a 3e
       -0.0073420866 -0.06443994 -0.2341585 0.18181929
0000c0 7f 64 37 3d a2 c7 2a be 94 3d f4 3d 95 ec c4 3d
       0.044773575 -0.16677716 0.119258076 0.09615437
0000d0 45 d5 4c bb e3 b3 99 3e cb 15 34 3d 69 8b 21 bc
       -0.0031255048 0.30020055 0.043966096 -0.009859898
0000e0 71 ab 8f 3e db 21 d5 bd 14 1b 05 be de 58 8b 3d
       0.28060487 -0.10406848 -0.1299861 0.068040594
0000f0 fe 84 c9 b9 39 f8 c5 3d 21 7e 5d be bf 72 d6 bd
       -0.00038436794 0.09666485 -0.21630146 -0.10471105
000100 10 96 5d 3e 7d 08 e0 bd 7e 82 0d 3d 76 3d 9f bd
       0.21639276 -0.10939119 0.034548275 -0.077753946
000110 7f 3f 7d bd 0e fb d5 bd 7a e8 21 bd 0f 5a d5 3d
       -0.061828133 -0.104482755 -0.039528348 0.10417568
000120 b5 f1 b0 3d 74 6d c0 bd 69 4f 34 3e 3a 25 f9 bd
       0.08639852 -0.093958765 0.17608418 -0.121653035
000130 0d 89 f4 bd fb 3e a4 3c 73 13 62 bd d7 9a ae be
       -0.11940203 0.020049563 -0.05519433 -0.34102508
000140 2c a9 d7 bd 51 02 c5 be 40 10 3a 3e c2 bc 42 be
       -0.10530314 -0.3847833 0.18170261 -0.19017318
000150 6b 06 81 bd b9 fc 0e 3e f6 c7 3c be dd a7 97 be
       -0.06300052 0.13963594 -0.18435654 -0.29620257
000160 d8 e9 e5 3c 41 5e 96 bd 17 db b9 bd 97 fd 4a 3c
       0.028065607 -0.07342196 -0.09074991 0.012389562
000170 a8 70 c1 bd b5 c3 1e 3e c3 45 21 be 4c 03 2d be
       -0.094453156 0.15504344 -0.15749268 -0.16895789
000180 35 44 fa 3d 86 2e 7a bc 8c 37 dd 3d 86 d1 91 be
       0.12220041 -0.015269881 0.1080161 -0.28480166
000190 ca cc 8b 3e bc 97 f9 3d cb 47 80 bd a1 be 53 bb
       0.2730468 0.12187144 -0.062636934 -0.0032309669
0001a0 11 c7 40 3c 44 be 88 bd 7a d1 f8 bc 7b ef 80 3d
       0.011766211 -0.06676915 -0.030373324 0.06295677
0001b0 5d 9b 87 3c 64 e3 d8 bd 9f d2 a2 be f2 03 ff bd
       0.016553575 -0.10590246 -0.31801316 -0.124519244
0001c0 9c 24 18 bd 3d e3 4b 3d 03 31 4b be 8a 49 ec bd
       -0.03714429 0.04977726 -0.19842915 -0.11537464
0001d0 f8 30 f2 bc e0 84 2c bd c0 b3 fe 3b f5 a9 12 be
       -0.029564366 -0.042118907 0.0077728927 -0.14322646
0001e0 72 b1 72 3e 0e 2e 94 be a5 c4 22 be 51 99 7f 3e
       0.23700503 -0.28941387 -0.15895326 0.2496083
0001f0 d5 d0 21 3c 6f 3f b3 bd 82 7c 0f be 8e fd 11 3e
       0.00987645 -0.087523334 -0.1401234 0.1425688
000200 43 5f 5c 3e 1c a7 3e be 13 fd f9 bd dc f8 99 bc
       0.21520714 -0.18618435 -0.12206473 -0.018795423
000210 30 91 16 be c6 c7 05 be 89 f7 b0 bd 43 14 8d 3e
       -0.14703822 -0.13064489 -0.086409636 0.2755452
000220 49 1d 2f 3e 0a 3e dd 3d 7b df 46 3e c7 f7 55 3e
       0.17101015 0.10802849 0.19421189 0.20895301
000230 99 3c 04 be b5 f8 a0 3d c7 3f 2d 3e 5a 57 7d 3d
       -0.12913741 0.07859937 0.1691886 0.061850883
000240 0e c0 88 3e a7 b9 c3 bc 71 5a 2b be 4e c3 e6 3d
       0.26709026 -0.023892237 -0.1673372 0.1126772
000250 dc a9 89 be 98 d5 ec 3d 69 eb 3d bd cc 0a 77 3e
       -0.26887405 0.11564177 -0.046367083 0.24125212
000260 49 66 ba 3d 23 18 88 be 9a 49 9d 3d 86 14 2f be
       0.091015406 -0.26580915 0.07680054 -0.17097673
000270 9d 02 58 3d d8 79 8c ba 16 8b 54 bd 02 44 96 3d
       0.052736867 -0.0010717465 -0.051890455 0.0733719
000280 bb 0e a9 bc 65 2e 82 bd 38 7c 94 3c 49 01 00 3e
       -0.020636907 -0.06356505 0.018125638 0.1250049
000290 ee d5 f5 3d b4 00 5e 3d f8 e0 14 bd eb cb 32 bd
       0.120036945 0.05419989 -0.03634736 -0.043651503
0002a0 5d 6a 98 bc b0 ae 1b 3d e6 b8 ab 3d 9c 3e 09 3e
       -0.018605405 0.03800839 0.08384876 0.1340279
0002b0 62 d2 8b 3d e2 85 ca bc af 28 8f 3d f8 c7 d2 bc
       0.06827237 -0.024722043 0.06990182 -0.025730118
0002c0 9b 4e 68 3e e6 c0 d0 3d 52 84 99 3c cf 9c dc bd
       0.22686236 0.101930425 0.018739853 -0.10772096
0002d0 35 a7 95 bd 5b 43 92 bc d2 a7 d6 bd 73 c0 61 3e
       -0.07307283 -0.017854383 -0.10481228 0.2204607
0002e0 05 76 b9 3d 3a e2 c5 bd 8d e9 6b 3c 71 b7 c2 3d
       0.090557136 -0.0966229 0.014398945 0.09507645
0002f0 1a 4e 64 be ff e4 e1 bd 40 e8 e1 3d 60 72 81 bd
       -0.22295418 -0.11030006 0.11030626 -0.063206434
000300 93 48 86 bd ac 7f 42 3e 08 74 29 3e 28 39 2b 3e
       -0.06556811 0.18994015 0.16548169 0.16721022
000310 fc de 27 3e 41 63 d1 3e 3d 11 0f bd a1 43 a1 3e
       0.16393656 0.40896037 -0.03492855 0.3149691
000320 3b 99 32 bd 5a 2c ba 3d a5 b2 00 3d 2b 6a 87 3e
       -0.043603163 0.09090491 0.03142037 0.26448187
000330 d1 87 02 3d 1d a3 b9 3d 7f 00 e9 bd c3 23 da bb
       0.031867806 0.090643145 -0.11377048 -0.006657095
000340 23 5d d5 3d 65 63 0e ba 2b 19 b4 3d ac 28 02 be
       0.10418155 -0.0005431681 0.08793863 -0.12710828
000350 16 3f f5 bc 99 9a 08 bc 75 03 02 3e 61 ba 26 be
       -0.029937308 -0.00833764 0.12696631 -0.16282035
000360 b3 77 9d bd ed 2f 88 be cc 81 07 be d5 48 cc 3c
       -0.076888464 -0.26599064 -0.13233107 0.024937073
000370 a3 9d 42 3c 12 76 43 3e 2b 78 5a 3e 9d 3c 20 bb
       0.011878404 0.19088009 0.21334903 -0.002445019
000380 77 b0 6c bd b5 8b 58 3e f1 2a 2f be e0 19 a6 bd
       -0.057785477 0.21147044 -0.17106225 -0.08110404
000390 a6 63 6f 3e 3c b7 94 3d 77 de 87 bc a0 1c 69 3d
       0.23377857 0.07261512 -0.016585572 0.056912065
0003a0 4b 21 d7 3d d1 84 12 be 8b f1 98 bb be c5 83 3d
       0.10504397 -0.14308478 -0.004667466 0.06434201
0003b0 1c ec 42 be 17 e2 50 3e 37 8a 1f be cc a9 53 be
       -0.19035381 0.20398746 -0.15580069 -0.20670241
0003c0 66 ec c2 3d 51 ac 82 3c ef 3b 74 3d 22 61 a2 3e
       0.09517746 0.015951307 0.05962747 0.3171473
0003d0 c4 75 92 3e e7 d6 07 be 48 8c 66 3c 66 38 9e bd
       0.28605473 -0.13265572 0.014071532 -0.07725601
0003e0 18 bc 0e be 65 fd 5c be a4 ae 9a 3e 82 d3 7f 3d
       -0.1393894 -0.21581037 0.30211365 0.06245757
0003f0 69 10 d3 3d 7f ce 2c be 37 2d 2c be 31 76 1c bc
       0.10305864 -0.16875647 -0.16814123 -0.009549663

fc2.bias f4 [300]
000000 02 46 76 3c b5 b4 27 bd 58 5a 75 bd 0e c6 01 3d
       0.01503134 -0.04094382 -0.05990061 0.03168302
000010 40 2d 6a 3c fe cb 1a 3d ce 84 70 bd 22 7d 76 3c
       0.014293015 0.0377922 -0.058720402 0.015044482
000020 a0 58 8e 3b 16 c2 e1 3c c1 b2 94 3d 6d c5 0a 3d
       0.004344061 0.027558368 0.07260657 0.033879686
000030 c3 b1 37 bd 36 9c 01 3d e0 da 12 3e 0a 89 d0 bc
       -0.04484726 0.031643115 0.14341307 -0.02545597
000040 e9 ff 9b bd 72 b7 12 bb 16 29 cd 3d 99 43 9d 3c
       -0.0761717 -0.0022387174 0.10017602 0.019197272
000050 ec 12 9c bd 6a b2 38 3d 03 7e ac bc 70 c6 71 3c
       -0.076207966 0.045092024 -0.02105618 0.014756784
000060 48 ca 9d 3d 87 08 48 bc 6c 37 98 bc 35 1f 44 3c
       0.07704598 -0.012209064 -0.018581115 0.011970331
000070 d4 52 96 3c bb 51 ed 3d 15 bc 97 bb da 26 3d bc
       0.018350042 0.115878545 -0.0046305754 -0.011544907
000080 16 83 85 ba 36 ba 04 bd f7 81 29 bd 9e ae c1 bc
       -0.0010186161 -0.032404147 -0.04138371 -0.023642834
000090 f8 01 25 3d d5 f8 e4 bc bc 58 76 3d b9 8b 23 3d
       0.04028508 -0.027950684 0.060143217 0.03992817
0000a0 74 ff 59 bd 28 85 0e 3b a6 cc 82 bd 74 e4 dd bc
       -0.053222135 0.0021746848 -0.0638669 -0.027086474
0000b0 5f 80 2a bd 72 5f 09 3c 8b e5 33 bd 69 37 a9 39
       -0.04162633 0.008384572 -0.04392008 0.00032275476
0000c0 5b 7a 32 3d 4a 4e 51 bc ea 4b 46 3c b0 93 31 3d
       0.04357372 -0.012775013 0.01210306 0.043353736
0000d0 86 b4 0e 3d 6a a7 6d bc 4e 06 4a 3d 02 b3 15 bd
       0.03484013 -0.014505247 0.04932242 -0.03654767
0000e0 67 42 ef bc 9d ba 26 3b 5c 16 0c bd ca c5 4a 3d
       -0.029206468 0.002544082 -0.03420101 0.049505033
0000f0 7f 19 df bc 33 c6 95 3c 74 4b 74 3c a2 32 a6 3b
       -0.027233837 0.018282985 0.014910568 0.005071954
000100 f5 76 40 bd 1d 00 90 bd f2 a4 5a 3d e2 8a 4b 3d
       -0.046988446 -0.070312716 0.05337996 0.049692996
000110 5e 07 2f 3d 48 16 b3 bb 71 d6 ed 3c 8e 50 3a bb
       0.042731635 -0.0054653026 0.029032918 -0.0028429362
000120 a9 7d 78 3c 31 a0 73 bd 8c 16 0d ba ab be 3d bc
       0.0151666785 -0.059478942 -0.0005382083 -0.011581103
000130 db 70 3a 3d 71 f3 de bc e8 5c 13 3e ba ba 9e bc
       0.045517784 -0.027215691 0.1439091 -0.019376148
000140 6f 88 ab 3c 86 f4 a2 3c b6 d3 72 bc 29 8e c6 bd
       0.02093908 0.019891988 -0.014820984 -0.09695084
000150 2d 03 a4 bd c1 ab 40 3d 8a 3c a6 3d d2 31 5c 3c
       -0.08008418 0.047038797 0.08117016 0.013439612
000160 d5 95 c5 3d d1 a1 9a 3d 9e ad da bc a7 37 fc 3b
       0.09647719 0.07550395 -0.026694115 0.007697064
000170 b7 eb 20 3c ee 3c 68 3c 34 67 24 3d 7b c4 43 bd
       0.009821824 0.014174683 0.040137485 -0.0477948
000180 6e 3f f4 3c 51 74 14 bd 10 27 0f bd 05 54 fe 3c
       0.029815402 -0.03624374 -0.034949362 0.031045923
000190 70 9a 88 ba 5e cd 45 3d 44 81 14 bd 95 52 5d ba
       -0.0010422003 0.048291557 -0.03625609 -0.00084427866
0001a0 d5 2b 59 bd 46 ba dd bc c4 62 8e 3b bb f9 3f bd
       -0.053020317 -0.027066361 0.00434527 -0.04686902
0001b0 e3 24 51 3d 37 ef 15 3d ec e7 34 bb 03 64 36 bd
       0.05106057 0.036605086 -0.0027604057 -0.044528972
0001c0 cd 7f a8 bd 79 29 ee 3c eb 46 80 bd 23 27 3c 3d
       -0.08227501 0.02907251 -0.062635265 0.04593576
0001d0 26 f4 f8 3a bd da 1b bc c9 64 07 bd 93 8c 58 3d
       0.001899366 -0.0095126005 -0.0330551 0.052868437
0001e0 c5 62 1e bd 8c 70 84 3b 39 ee b7 3d 8b c9 91 bc
       -0.038668413 0.004041737 0.08980984 -0.017796298
0001f0 51 4a cc bb 84 d0 b6 3c d5 4d ee 3c 52 89 87 bd
       -0.006234445 0.022316225 0.029089848 -0.06617989
000200 1b e8 53 3d 1e f0 2c 3c 79 f5 a9 3c 03 d1 3d 3c
       0.051735025 0.010555295 0.020746933 0.011585477
000210 c3 89 bf 3b ee ce 64 bd 29 d5 91 3c 63 58 51 bc
       0.00584528 -0.055861406 0.017801838 -0.012777421
000220 cc 54 0e bb 5c 6f e1 bc f2 df db 3c 13 ba 1c 3d
       -0.0021718023 -0.02751892 0.026840184 0.03826339
000230 a7 8f 3c bc 68 c4 49 bd c9 50 79 bd 3a 02 3b bc
       -0.011508859 -0.049259573 -0.06086806 -0.011414105
000240 86 04 6a 3c c1 3b 4a 3b 1c 0f 71 bd c9 f0 1a bd
       0.014283305 0.003085837 -0.0588523 -0.037827287
000250 63 67 f5 3b f4 f6 b5 3d 1b 15 5f bd 88 7d 51 bd
       0.0074891313 0.08884993 -0.054463487 -0.051145107
000260 2e 9e e3 bc e7 10 05 3d 86 e1 51 bd 13 1d 78 bd
       -0.027785387 0.032486822 -0.051240467 -0.060574602
000270 69 6e 8e 3d c1 31 a0 bd f7 e8 0d 3d ab a5 33 bd
       0.06954653 -0.0782199 0.034646 -0.043859165
000280 bc 45 fd bb 53 a0 52 3d f3 b4 1e 3e 5a 77 f9 3b
       -0.0077292603 0.05142243 0.15498714 0.007613105
000290 7f d7 5a 3d c5 42 7c 3d d3 92 e0 3c 13 f4 97 bd
       0.05342817 0.061587114 0.027413761 -0.074196
0002a0 00 eb 69 3d 0c b7 64 3c fb 52 8b 3d 20 ab 48 ba
       0.05710888 0.013959657 0.06802937 -0.0007654894
0002b0 88 9b f4 3c dc 7e 00 3d e7 cc 64 bd 0c f0 c7 bc
       0.02985932 0.031370983 -0.055859473 -0.024406455
0002c0 51 14 f3 bb 26 a1 99 bc eb 05 ed 3c 7e 24 39 bd
       -0.0074181934 -0.0187536 0.028933486 -0.045200817
0002d0 a2 b3 ca bb 3b f6 f1 3d 45 83 cd 3c 00 3c 91 bc
       -0.0061859647 0.11814543 0.025087008 -0.017728806
0002e0 ae 33 de 3d 5e 42 93 3d 44 18 da bc 8c 05 f7 3c
       0.10849701 0.07190393 -0.026622899 0.030154012
0002f0 9d d4 21 bc a5 d6 73 3d 5c b8 ee bc ac 67 83 3d
       -0.009877351 0.059530873 -0.029140644 0.06416258
000300 d4 67 07 bc 5f f5 76 bd 91 29 c4 3c 7b a1 2a bc
       -0.008264501 -0.060292598 0.023945602 -0.0104144765
000310 e6 fe 9e bc 7c bb 4e 3d 1b 1a 36 bd 3e 54 81 3d
       -0.019408654 0.050471768 -0.04445849 0.06314896
000320 e8 4b 72 3b 8b 6f cf bc 73 42 ea 3c b5 51 2d bd
       0.0036971513 -0.025321743 0.028596139 -0.04231425
000330 2f ee 8f bc 51 d8 4c 3d ae 43 14 3d 96 19 8d 3d
       -0.01756963 0.050010983 0.036197357 0.06889646
000340 95 2a ae 3c 08 ca ee 3c cf b5 83 bd 53 1e 33 bc
       0.02126054 0.02914907 -0.064311616 -0.010932523
000350 ac 1d 22 3d da de e0 b8 08 a2 17 bd 80 ae 7d 3d
       0.03957908 -0.00010722662 -0.03701976 0.061933994
000360 d6 31 59 3d d7 05 3e 3d 72 84 89 bb be 82 9c 3d
       0.053026043 0.046392288 -0.004196697 0.076421246
000370 e0 7c 0e 3d 79 f6 35 bd 9e 01 8f bb e4 9b 94 bc
       0.03478706 -0.044424508 -0.0043642065 -0.01814074
000380 16 79 11 bd eb 25 d4 3c da d8 56 bc 5c 2a 6e bc
       -0.035515867 0.025896987 -0.013113225 -0.014536466
000390 e0 fe 6d bc 1e 25 eb 3c 1b b1 c1 3d 04 ff 05 bd
       -0.014526099 0.028704222 0.09457608 -0.032713905
0003a0 5e 1f 6d bd 45 b6 93 bc 43 02 5a bd f8 00 03 bc
       -0.057891242 -0.018031249 -0.053224813 -0.007995836
0003b0 fe 4b ab 3c 5e ea d5 3c 7f ee 0b bd e6 95 bc 3b
       0.02091026 0.026112732 -0.034162994 0.005755174
0003c0 04 e2 b2 3d 17 41 0a bd d5 d2 af 3c 0e 38 03 bd
       0.08734515 -0.03375348 0.021462837 -0.03203588
0003d0 47 17 ba ba b5 e8 55 3d cd 6e 33 3d 8f ec 8a 3c
       -0.0014197611 0.05222388 0.04380684 0.016958503
0003e0 ff 4a 20 bc 2f f6 18 3d 9c cd a6 3d cd 9e 86 3d
       -0.009783505 0.037344154 0.081446856 0.065732576
0003f0 eb 6a 8d bc 42 ec 8c 3d ab a8 43 bd 69 85 0d 3d
       -0.017262897 0.06881 -0.047768276 0.034551058

bn2.weight f4 [300]
000000 03 9f af 3d 30 ae 82 3e 5e bf 08 bd 38 d8 c8 3d
       0.08575251 0.2552352 -0.033385627 0.098068655
000010 7d 95 05 3f b6 ff 84 3a c8 88 c3 3a 40 7c 71 3e
       0.52181226 0.0010147009 0.0014918083 0.23582554
000020 ba a8 14 3f eb b0 dd bc 5c 36 32 3e 3e 7f 19 3e
       0.58069956 -0.0270619 0.17403549 0.14989945
000030 7a 3a 55 bd 47 93 a8 3d 05 c1 55 3d 26 7d 0a 3f
       -0.05205772 0.08231216 0.05218603 0.5409721
000040 40 48 24 bc 3f e9 dc 3e c8 94 da 3d dc 0d 54 3f
       -0.010026991 0.43146703 0.10672909 0.8283365
000050 5e f6 c3 3b 29 04 ae 3e 79 63 7c 3e d1 ee 6b 3e
       0.005980297 0.3398755 0.24647321 0.2304032
000060 de 4e 29 3d 83 a5 fa 3d c3 9d 0e 3e e1 7f 00 3d
       0.04133498 0.122386 0.13927369 0.031371955
000070 6a d1 4c 3f 98 40 d9 bb 11 f1 94 3e f7 ce 3e 3e
       0.8000704 -0.0066300146 0.2909017 0.18633638
000080 dc ab 72 3e 94 07 75 3d 86 f6 a7 3e 77 01 a8 3e
       0.23698372 0.05982168 0.3280527 0.32813618
000090 24 75 1f 3e ef 89 c7 3e 9a 34 5b 3e 3f 46 aa ba
       0.1557203 0.38972422 0.21406785 -0.0012990906
0000a0 9e b2 e8 3d f9 78 8d 3e 38 e5 0b 3e 7d 72 5b 3f
       0.113621935 0.27631357 0.13661659 0.8572157
0000b0 cc fa 0b 3d fd 2c d3 3d 3f 4a 08 3c 22 cb 2c 3e
       0.034174725 0.10311315 0.008318483 0.16874364
0000c0 16 9a f8 3d c9 73 6c 3d fb 8d 8d 3e f7 db b6 bc
       0.121387646 0.05772761 0.27647385 -0.022321684
0000d0 8f de a9 3e 5b 4d e4 3e 34 61 57 3e 57 5a 9c 3e
       0.3317761 0.44590268 0.21033174 0.30537674
0000e0 58 00 4c 3e 16 37 9f 3d fe 23 8c ba f8 bc fe bb
       0.19922006 0.07774179 -0.0010691879 -0.0077739917
0000f0 e2 08 49 3f 67 29 51 3e cc 47 08 3e 15 ea 47 3d
       0.7852918 0.2042595 0.13308638 0.048807222
000100 d5 ae 7e 3e da 09 bd 3d 7b 15 61 3d 64 9f 0d 3d
       0.2487138 0.09230395 0.054952126 0.034575835
000110 ee fe 28 3e ac 27 f4 3e 12 45 8e 3d e3 63 20 3e
       0.16503498 0.47686517 0.06946768 0.15663104
000120 e9 e8 44 3d 33 98 20 3e e2 81 b2 3d 6f 3d ab 3e
       0.048073683 0.1568306 0.087161794 0.33445308
000130 c4 69 d8 3d af 7b b9 3d b9 a5 91 3d d9 6a 34 3c
       0.10567048 0.09056794 0.07111687 0.011011803
000140 6e ff 7c bd ec ad a6 3e 2a 6f 55 3e 59 a9 09 3e
       -0.061767034 0.32554567 0.20843187 0.13443507
000150 9b 00 af 3c c7 c5 5e 3e 19 b4 c7 bc 16 85 8a 3e
       0.021362593 0.21755134 -0.02437787 0.27054662
000160 a6 e8 2d 3d d5 db 71 3d fb bc 20 3b 70 d0 c2 3e
       0.0424582 0.05904754 0.0024526704 0.3804965
000170 1b 9f 8e 3b ba 39 41 3e 60 87 60 3d ef 05 54 3e
       0.004352463 0.18869677 0.054816604 0.20705388
000180 ee 82 9d 3e 35 9f 0e 3e 5e 08 2a 3e a9 fb b7 3e
       0.30763954 0.1392792 0.16604754 0.3593419
000190 fa 51 43 3e 11 db 59 3e 2b 21 a3 3d 3f 25 a7 3d
       0.1907424 0.21274973 0.07965311 0.08161401
0001a0 08 c1 e1 3d a1 2b 23 3e 38 7e 6c 3e bf ca af 3d
       0.11023146 0.15934612 0.23095024 0.085835926
0001b0 c3 d1 97 3e 9a d2 40 3e 2e 5c ed 3d c0 1a ad 3e
       0.29652223 0.18830338 0.115898475 0.3380947
0001c0 17 51 37 bd 7f 1b 35 3d 32 ea 70 3e 0c bb 0c 3d
       -0.044755068 0.044215675 0.23526838 0.03435807
0001d0 f7 c5 68 3e 72 78 c6 3d b6 c9 24 3e 79 16 54 3e
       0.22731768 0.09690942 0.16092572 0.20711698
0001e0 29 de 48 3e ae 6c 0b 3c 1e a9 7d 3e 05 f1 85 3e
       0.19615997 0.008509798 0.24771544 0.26160446
0001f0 20 c1 03 3e 2c ac 95 3e d7 f4 99 3d b2 29 2f 3e
       0.1286664 0.2923292 0.075174026 0.17105749
000200 b7 1c 55 bd f3 4e 46 3e 3e 6f cc 3c ce 35 95 3d
       -0.052029338 0.19366054 0.024955388 0.07285653
000210 cc f7 f4 3d 71 af 0a 3e 1a f1 17 3c fc c2 2a 3e
       0.11961326 0.13543488 0.009273792 0.16675943
000220 89 1a 89 3e 71 f6 34 bd 58 67 29 3e 03 1f b2 3d
       0.26778057 -0.044180337 0.16543329 0.08697321
000230 66 e4 ec 3d 73 b6 cc 3e 9c 7a 1e 3d bc fc a2 3e
       0.11567001 0.39982948 0.03869115 0.31833446
000240 34 05 d2 3b 79 84 80 3c 43 0d 0a 3e 55 96 90 bd
       0.0064093117 0.015688168 0.13481621 -0.070599236
000250 26 bc 82 3d fd 9f e7 3c 6c 26 61 3e f6 5a a9 3e
       0.06383543 0.02827453 0.21987313 0.3307721
000260 d4 6d 2a 3e 5c 9d 98 3e 8b ce 25 bd 71 a8 4a bd
       0.16643459 0.29807556 -0.040480178 -0.049477044
000270 b0 1c 73 3d 53 1f 3c 3e dd 9d 93 3d e6 9d da 3c
       0.05935353 0.18371324 0.072078444 0.02668662
000280 91 69 ea 3e 1f 7f f6 3b c0 fa c4 3c 96 f8 1c bd
       0.45783666 0.0075224782 0.024045348 -0.038323008
000290 8c 24 3b 3e 8c ae cf 3b a3 6e ad 3d 43 1b bb 3d
       0.1827566 0.0063379463 0.08468368 0.09136059
0002a0 f9 b3 17 3e c8 0a 70 3e 42 f2 62 3d 99 b7 47 3e
       0.14814748 0.23441613 0.055406816 0.1950363
0002b0 54 40 aa 3d 91 15 aa 3d 67 7a 03 3c 7b 54 2b 3e
       0.08313051 0.08304895 0.008024788 0.16731445
0002c0 80 17 88 3e 1d c8 fb 3e ec 87 7e 3e 63 23 fc bb
       0.2658043 0.49176112 0.24856538 -0.007694648
0002d0 d0 d5 91 3e 3d c5 98 3d c6 9d 8e 3e 8e 41 47 bd
       0.28483438 0.07459495 0.27854747 -0.048646502
0002e0 a7 3a a6 3d ae 9f d5 3c 5f 9b bb 3d 4b ef f7 3d
       0.08116656 0.026077118 0.09160494 0.121061884
0002f0 e1 53 d7 3e 6a 76 10 3e 7e 1c 9d 3d e3 83 d2 bd
       0.42056182 0.14107671 0.0767145 -0.10279062
000300 b1 bf 48 3f 96 3b ff 3b 4b 3a ea 3d 12 94 17 bd
       0.784175 0.0077890856 0.114369 -0.037006445
000310 bf 7d 47 3e 5a cc c6 3e f4 fd dc 3e 99 70 0f 3e
       0.19481562 0.38827783 0.431625 0.14007796
000320 8e 77 0a 3d 8e f1 5f 3f b7 1c ac 3d 1f 14 26 3c
       0.033805422 0.8747796 0.084039144 0.010136633
000330 cf 9e e4 3d 42 04 83 3e f0 af d4 3d 3c 48 20 3c
       0.11163103 0.25589186 0.1038512 0.009782847
000340 fb 61 32 3e 92 fc 93 3e e4 19 f5 3b 08 88 b2 3e
       0.17420189 0.28903633 0.007479893 0.3486941
000350 29 ad 46 3b 14 82 b0 3e ae 68 31 bd 6c ca ee 3d
       0.0030315614 0.34474242 -0.04331272 0.11659703
000360 e8 1d d2 3d dd cf 8a bb 50 a8 11 3c 3d 0b 6e bd
       0.102596104 -0.004236205 0.0088902265 -0.058116186
000370 75 fa 0c 3e 67 60 17 3e 3f 2c 70 3e 45 24 4f 3d
       0.13767417 0.14782868 0.23454379 0.0505717
000380 a2 fa 0d 3e 1a b8 ab 3e 2a f7 45 3d d4 c7 9a 3e
       0.1386514 0.33538896 0.048331417 0.30230582
000390 43 73 d6 3e aa 75 7f 3e 47 97 bf 3d 9d ff 6b 3e
       0.41884813 0.24947229 0.09355026 0.23046727
0003a0 7f ee 66 3e 4d 0c 95 3e 04 0a 85 3e bb 8b c4 3d
       0.22551917 0.29110947 0.25984204 0.09596964
0003b0 f4 8e 10 3f 6a 65 91 3e 16 ed 19 3d 64 48 f9 bc
       0.5646813 0.28397685 0.03757962 -0.030430026
0003c0 80 35 eb bd d1 92 75 3e 3e 38 aa 3e 05 86 b1 3e
       -0.11484814 0.23981787 0.33246034 0.3467256
0003d0 e2 00 3e 3d 3f 9a 0b 3e ba 47 9f 3d 4e a6 45 3e
       0.04638756 0.13633059 0.07777353 0.19301721
0003e0 49 a2 46 3f 15 84 19 bd cd 30 26 3e 5d a6 21 3e
       0.7759138 -0.03747948 0.16229554 0.15786119
0003f0 89 0a 62 3e 54 4e 67 3e 8c a6 c5 3d 3e 3f ba 3d
       0.22074331 0.22588474 0.09650907 0.09094094
