Zadanie3/srcV2/models/VEP_exp_prob_01_exploration_100/target_critic_network.pth (torch, 509903 bytes, 11 tensors)

fc1.weight f4 [400, 8]
000000 3d 87 ae 3e de 97 87 3e 9c 19 75 3e 26 95 75 3f
       0.34087554 0.26483053 0.2393555 0.9593071
000010 00 1a 58 be 57 e3 0c bf 4d 85 22 be fa c5 8a bd
       -0.21103668 -0.55034393 -0.15871163 -0.06776042
000020 5a a0 74 3d a1 b0 b7 be 07 08 61 bf a9 b9 50 3e
       0.059723236 -0.35876945 -0.87902874 0.20383324
000030 d7 14 e6 be 43 1f b3 3c 32 ed d1 3e e4 5e 36 bf
       -0.44937775 0.021865493 0.41001278 -0.7123854
000040 c8 1c bf 3e 48 c4 18 3f 6a 68 a8 3e 4d 6a 53 bc
       0.37326646 0.596745 0.32892162 -0.012903762
000050 4d ba d5 3d a8 82 d5 bd b0 a1 1d bf cd 0e 08 bf
       0.10435925 -0.10425311 -0.6157484 -0.53147584
000060 59 80 e6 be d3 56 ee be 0a bd 10 bf 3b 51 c7 3e
       -0.45019796 -0.46550617 -0.5653845 0.3892916
000070 90 a8 9d 3e ab 5d a3 be f5 bd 2f 3f 3e 31 3b 3e
       0.30792665 -0.319074 0.68649226 0.18280503
000080 80 8d af be 4c 02 85 3d b9 25 b8 3e 68 1d 4c 3f
       -0.34287643 0.06494579 0.3596628 0.7973237
000090 25 47 67 3f fd a7 38 bf e4 e0 3f 3f b6 d5 a1 3e
       0.9034293 -0.7213133 0.7495253 0.3160836
0000a0 04 8f db bd 68 a8 8c 3e 52 a3 48 bd ae 3c 8a be
       -0.107206374 0.27472234 -0.04898388 -0.2699942
0000b0 db b5 28 3f e9 71 ce 3e 36 78 7e 3f 62 e7 0e 3f
       0.6590249 0.40321282 0.9940218 0.5582181
0000c0 55 21 b5 bd e7 56 08 3e 79 59 8d 3e 64 f9 69 3e
       -0.08844248 0.133144 0.27607325 0.22849041
0000d0 45 41 4a 3f 8e a9 56 bf e4 fd 94 3e e2 e6 4d 3e
       0.79005843 -0.8385247 0.29099953 0.20107606
0000e0 bf 8f c4 bd b5 ef 74 bd aa 84 84 bc 0c 74 81 bd
       -0.0959773 -0.059798915 -0.01617654 -0.06320962
0000f0 1f 2c 81 3e cd 74 03 bc ee c1 14 3f 4a d1 18 3f
       0.25228974 -0.008023453 0.58108413 0.5969435
000100 a2 36 e7 bd f4 2a 34 3d de 35 e9 3d aa 79 3f 3f
       -0.11289717 0.043986276 0.113872275 0.7479502
000110 e3 ce 3e 3f 80 81 0c 3f dc 6a c7 bc ca f7 27 3f
       0.74534434 0.548851 -0.024342947 0.6561247
000120 98 5b b4 be 46 87 84 bb d5 67 c7 3e c9 e0 eb 3e
       -0.3522613 -0.004044446 0.38946405 0.46069935
000130 dc c1 65 3f ba e6 0c bf 3f 67 2c 3f b3 17 95 3e
       0.8974893 -0.5503956 0.6734504 0.29119644
000140 7f 59 35 3f 2a a3 4c bf 8f 42 f5 3e f5 69 a3 be
       0.70839685 -0.7993647 0.47902343 -0.31916776
000150 10 6d 4e be a9 27 3b 3f 45 66 05 3e 35 e7 1e 3e
       -0.20158792 0.7310739 0.13027294 0.15517886
000160 7e ed 9d 3e f0 47 0e bd 6a f9 20 bf 63 47 96 3c
       0.30845255 -0.034736574 -0.62880576 0.018344587
000170 8f 16 5c 3f b5 25 1d 3f 48 e8 00 3e f0 6b 54 3e
       0.8597192 0.6138566 0.12588608 0.207443
000180 fc 6f 3b be 85 87 d0 bd 19 e3 2a 3f 90 e0 09 3f
       -0.18304437 -0.10182098 0.66752774 0.5385828
000190 0c de 02 3e d7 4e 9c bf a3 80 85 3e 18 45 98 3e
       0.12780017 -1.221156 0.26074705 0.29740214
0001a0 b1 d5 10 bd 7a 1b 7d 3e 4a c7 22 be 92 41 d5 be
       -0.035360042 0.24717513 -0.15896335 -0.4165159
0001b0 91 8a 28 3f 6c 53 b4 3e ca a4 8d 3f b2 d6 ef 3e
       0.65836436 0.35219896 1.1065915 0.46843487
0001c0 bf 15 65 bf 9e cd 8d be ce a8 76 bf ed e8 0c be
       -0.89486307 -0.27695936 -0.96351326 -0.13760729
0001d0 2c bd 8e 3f bf db bf bc 7d a9 cd 3e 30 1e 2a 3d
       1.1151481 -0.023420213 0.40168372 0.041532695
0001e0 4e 27 cb bd d3 91 0d 3e 6c 2b 4b 3e 0a 16 c6 3d
       -0.09919606 0.13825159 0.19840783 0.09672172
0001f0 94 5b 70 3e cc 16 bd bc a2 ba 71 3f 1b 15 d7 3d
       0.23472434 -0.02308216 0.94425404 0.105020724
000200 63 cd 4a be a0 3d b2 3e 3f a5 0b 3f 3c a2 ad bd
       -0.19804911 0.3481264 0.5454902 -0.084782094
000210 81 95 8c 3e 50 f4 94 bf 93 6e ba 3d 2a f0 c7 3e
       0.27457812 -1.1637058 0.091031216 0.39050418
000220 dd 50 84 bd 9e 33 b7 3e ba 97 09 3e 32 65 ce bd
       -0.06460736 0.35781568 0.13436785 -0.10077895
000230 8a a4 58 3e 26 c1 07 3f 34 94 f4 3e ac 3c 8b 3e
       0.21156517 0.53029096 0.4776932 0.27194726
000240 e0 be 0a be 6c 0b 2b 3e 49 7c 6c 3e 92 ea 6c bd
       -0.13549376 0.16703576 0.23094286 -0.05784089
000250 3c 65 39 3f 3b d8 6c be e4 86 2c 3f 1a 55 aa 3e
       0.72420096 -0.2312936 0.67393327 0.33268052
000260 fa fa 82 3d 66 64 e5 bd fa c8 8f 3d 25 cc 97 3e
       0.06395526 -0.1120079 0.07020755 0.29647937
000270 5b 25 40 bf 47 b5 b3 3e c5 9c 15 be 6e 86 04 3f
       -0.75057 0.3509924 -0.14610584 0.51767623
000280 11 a5 04 be c4 2c d2 3e f4 70 7d be ca 64 03 bf
       -0.12953593 0.41049778 -0.2475012 -0.51325667
000290 3c 04 00 3e ac f3 cd 3f 31 1f 8f 3e 1a 53 98 bf
       0.12501615 1.6089988 0.27953485 -1.190036
0002a0 33 66 55 3e 1c 6d 1c bf 57 c6 3e bd 84 6c c2 3e
       0.20839767 -0.6110399 -0.04657587 0.37973416
0002b0 64 18 7b 3e 27 89 61 3d dc b4 e1 3e 3b 82 20 bd
       0.24521023 0.05506244 0.44083297 -0.039186697
0002c0 21 76 f0 bc 22 53 58 3e 3f bd a3 bc 69 1f 86 3d
       -0.029353203 0.21125463 -0.0199877 0.0654896
0002d0 bd 5a 3a 3f 39 d6 91 be ad 47 36 3f dd 98 25 3e
       0.72794706 -0.2848375 0.7120312 0.16171594
0002e0 f1 c4 ad 3e 9e d9 49 3d d3 1e 34 be 69 30 bd 3e
       0.33939317 0.0492798 -0.17589884 0.36950997
0002f0 68 97 34 3f cd b1 1f bd a8 47 4f 3f fb ca 18 3e
       0.7054353 -0.038987923 0.80968714 0.14921181
000300 0f ed dc be b9 75 09 bf a9 0e 17 be 67 9d 3d bf
       -0.4314961 -0.53695256 -0.14751686 -0.740683
000310 15 5b 14 be 6e d1 b8 3d 3d 81 3c bf 48 ae 34 3f
       -0.1448787 0.090243205 -0.736347 0.7057843
000320 98 90 0d 3c 35 6d 99 3e c9 ed 63 be 30 58 b9 be
       0.008640431 0.2996613 -0.22258677 -0.36200094
000330 4b 15 3f 3f da c8 c5 3e cb fc 90 3f f0 6e 1a 3f
       0.74641865 0.386298 1.1327146 0.6032553
000340 0b f8 da 3e ab 31 56 be 74 69 97 be d2 13 71 3e
       0.42767367 -0.20917384 -0.29572642 0.23542717
000350 fb ed 36 bf 67 55 59 3e 44 47 83 3e 56 64 ee 3e
       -0.7145688 0.21223985 0.2564031 0.46560925
000360 94 93 c1 be e0 15 1a 3e bd 07 05 be 4a 3b 64 3d
       -0.37807906 0.15047407 -0.12991233 0.055720605
000370 48 2d 0a 3f 93 5a fb 3c 78 68 a9 3e 50 f5 48 3f
       0.53975344 0.030682838 0.33087516 0.7849932
000380 c2 e6 ef 3e ed c0 dc 3c 10 63 21 bd 7e 33 83 3f
       0.46855742 0.026947463 -0.039401114 1.0250089
000390 14 d2 9f 3e bc 3f 2e bc 05 a7 54 3f e3 f5 e7 3c
       0.31214964 -0.010635313 0.8306735 0.02831549
0003a0 1a 36 c8 be 5d a4 34 3e cc 96 30 3e 84 9d 2b bd
       -0.39103776 0.17640825 0.17245024 -0.041898265
0003b0 44 6e 17 3f 0b a4 2f bf 0c fa fd 3e 94 5d 91 3e
       0.59152627 -0.68609685 0.49604833 0.28391707
0003c0 5d 5a ce bd 9b 72 08 3e f6 fd 8b be 51 3b cb be
       -0.10075829 0.13324969 -0.27342194 -0.39693692
0003d0 9c 23 0f 3f 9f 06 33 bc 4c 9d d3 3d 6d d4 36 3e
       0.5591371 -0.010926872 0.103327364 0.17854472
0003e0 ff 03 3d bc a2 ff 5d 3e 54 81 d7 bd a6 d4 9b be
       -0.011536597 0.21679547 -0.10522714 -0.30435675
0003f0 21 7d 38 3f 63 6a 8a 3e 91 b6 83 3f 9b 23 d2 3e
       0.7206593 0.27034292 1.029009 0.4104279

fc1.bias f4 [400]
000000 73 08 2c bf 59 38 8c 3e 2f 29 05 3f 41 98 cf be
       -0.6720039 0.2738674 0.52015966 -0.40545848
000010 cd 07 39 bd 64 d5 05 3f 1b 57 84 3e 63 3f f8 3e
       -0.045173455 0.52278733 0.25847706 0.4848586
000020 5e 66 fc 3b 2e aa dd 3d 26 d8 d6 3e eb cf e4 bb
       0.007702633 0.10823475 0.41961783 -0.0069827936
000030 7d be 02 3f 1c 48 14 3f e4 7d cb bd e5 1b ce 3e
       0.5107191 0.5792253 -0.09936121 0.40255657
000040 bd f7 c6 3d b3 4b 14 3e b9 29 ad 3e 23 1e ba 3e
       0.09715221 0.14482002 0.33820894 0.36351117
000050 d1 23 95 3e 77 09 39 3f 71 14 c2 3e 23 f9 22 3f
       0.29128888 0.7228007 0.3790622 0.636614
000060 18 97 01 be f7 ca 12 3f 3c 08 a2 3e 01 34 3b 3e
       -0.12655294 0.5734095 0.31646907 0.18281557
000070 b9 a2 3d 3f 7b 5e 09 3e 07 16 93 3e fb 41 0d 3f
       0.7407642 0.13414948 0.28727743 0.55178803
000080 3e 7f 16 3f 77 ea 0a bc 06 a5 e3 3d 40 6c 39 3e
       0.58787906 -0.008478752 0.1111546 0.181077
000090 2d 82 89 3e 95 9e 10 3f 80 78 01 3e 63 60 28 be
       0.2685713 0.56491977 0.12643623 -0.16443019
0000a0 df bb bc 3e 9d d9 de 3e 94 99 a5 3e 6c f6 df 3d
       0.36862084 0.435254 0.32343733 0.10935673
0000b0 e8 b2 80 3e 19 99 ba 3d 04 ae 4c 3e 1b 18 14 3e
       0.25136495 0.09111232 0.19988257 0.1446232
0000c0 cb 88 ce 3e 63 3b 9b 3e a7 8f 1b 3f 2a 12 28 3f
       0.4033874 0.30318746 0.6076607 0.65652716
0000d0 34 64 03 bf c3 ef af 3e e1 83 69 3e 1a f2 6f be
       -0.5132477 0.3436261 0.22804214 -0.23432198
0000e0 11 d4 f3 be f6 8d 25 be b8 fc 12 3f 8a f2 18 bf
       -0.4762273 -0.16167435 0.5741687 -0.59745085
0000f0 f9 60 c3 be f5 3e 14 3f d7 3d dc 3e f6 12 5e 3e
       -0.38159922 0.57908565 0.4301593 0.2168692
000100 6a ce 6a 3e bd e2 07 bf 4b 4e 8b 3e c4 cd 9f bd
       0.22930303 -0.5308035 0.2720817 -0.078029186
000110 65 c2 11 3f 76 16 d2 3e 49 76 ef 3d 1a 2b ec 3e
       0.5693725 0.4103276 0.11692483 0.46126634
000120 8d a1 86 be e7 a7 48 3f 69 6d be 3e 7d f3 c0 3d
       -0.26295128 0.783812 0.37192848 0.09421442
000130 26 71 b2 3e 92 9e 9b be 5e fa 10 3f e8 6d 3f 3e
       0.3485195 -0.30394417 0.5663203 0.1869427
000140 03 bd a5 3e 74 26 12 3f 7f 44 13 3f e5 42 45 3f
       0.32370767 0.57089925 0.5752639 0.770552
000150 ce 71 e3 3d eb e6 0f 3e d5 25 cd 3e 57 a7 0d 3e
       0.11105691 0.14052932 0.40067926 0.13833366
000160 0c 5b d2 be 1b 84 f2 3e 46 71 11 3f 5e 17 c2 be
       -0.41085088 0.47366413 0.56813467 -0.37908453
000170 93 64 0c 3f 54 be c0 3e 2c e4 b1 bd 4a 7d 26 3d
       0.54840964 0.3764521 -0.086860985 0.04064683
000180 b3 f2 0a 3f 24 75 29 be 7a 97 79 3d cc e6 0c 3f
       0.5427658 -0.16548592 0.060935475 0.5503967
000190 b0 a3 0e 3f 90 83 1e 3f 6c 5c c3 3e 6a de 1a 3e
       0.5571852 0.619195 0.3815645 0.15123907
0001a0 c1 ab af be 40 33 ff 3e 60 1b 7b 3e 70 fc 1d 3d
       -0.34310725 0.49843788 0.24522161 0.03857082
0001b0 44 77 84 3e 74 49 63 be 4b d7 21 3f a7 2d e2 3e
       0.25872242 -0.22195989 0.63219136 0.44175455
0001c0 48 b1 36 3e b9 ef d7 3e ac b5 d4 3e 7a ed 12 bd
       0.17841065 0.4217508 0.41544855 -0.035871007
0001d0 61 3e 87 3e 80 79 d8 be 54 56 7f 3e 86 2f b6 3c
       0.2641478 -0.42280197 0.24935275 0.022239458
0001e0 ed 77 11 3f 57 81 0c 3f d3 23 0b bf 2d 52 4a bf
       0.5682362 0.54884857 -0.5435154 -0.7903164
0001f0 46 08 aa bd 0b 22 cc be 0b f9 dc 3d e1 86 ff 3e
       -0.08302359 -0.39869723 0.10789689 0.49907592
000200 d3 ae b1 3e 15 48 eb 3e 16 a1 39 3e b0 f3 5f 3d
       0.34703693 0.45953432 0.18127856 0.054675758
000210 ce b2 dd 3e b4 29 8c 3e 6d 5d 51 be 70 93 55 3e
       0.4330048 0.27375567 -0.20445795 0.20857024
000220 fb 12 2a 3c d7 d8 08 3f 68 d5 02 3f 42 8c 8c be
       0.010380502 0.5345587 0.5110688 -0.27450758
000230 34 85 ea 3d ed 15 a0 3e ab 04 18 3f 22 0a ea 3e
       0.11451188 0.31266728 0.5938212 0.45710856
000240 b5 8a 9a 3d ce c7 3d 3e f5 64 12 3f a5 f7 f2 be
       0.075459875 0.1853325 0.571853 -0.47454563
000250 46 2c 0c 3f 02 96 c2 3c 72 b1 8c 3d 07 60 ef 3e
       0.54755056 0.02375317 0.068697825 0.4675295
000260 16 90 60 3e 90 85 b7 3e a6 eb 2d 3e 46 c8 ed 3e
       0.21929964 0.35844088 0.16984424 0.4644186
000270 d0 92 66 be fa 11 e9 3e 02 fd da bc de da 2b 3f
       -0.22516942 0.45521528 -0.026731972 0.6713084
000280 2b 8d 6b 3f bb 20 a6 3e 99 e2 6d 3e 16 11 78 3e
       0.9201228 0.32446846 0.23230971 0.24225268
000290 74 6a 5d be 10 38 5d be 87 21 8f 3e 12 96 22 3f
       -0.2162264 -0.21603417 0.27955267 0.6351024
0002a0 65 7e be be 5e 49 b2 be 42 39 ca be c7 c9 a0 bd
       -0.37205806 -0.348216 -0.3949681 -0.07850986
0002b0 bc 23 e0 3e 62 f7 f4 3b 29 01 b9 be b8 92 46 3e
       0.43777263 0.0074757794 -0.36133698 0.19391906
0002c0 58 47 97 be b1 15 c5 3e f3 3c bd be 8b 7b 19 3f
       -0.29546618 0.38493112 -0.36960563 0.59954137
0002d0 01 d3 90 3e db 3c 15 3f 94 e4 18 3f ec d7 de 3e
       0.28285983 0.58295983 0.5972378 0.4352411
0002e0 57 6f 84 3e 23 ab e9 3e e7 e6 9c be 08 a3 e0 3e
       0.25866196 0.4563838 -0.30644915 0.43874383
0002f0 82 99 ff 3e 4d dd b5 be e5 8c 0c 3f a1 76 f2 be
       0.49921805 -0.35520402 0.5490249 -0.47356132
000300 d0 72 49 3e 65 25 fc 3e f2 a0 47 3d ce 61 b5 be
       0.19672704 0.4924728 0.048737474 -0.35426182
000310 b8 47 b8 3e bd 3f 17 3f 01 8f 08 3e 05 f6 69 be
       0.35992217 0.5908163 0.13335802 -0.22847755
000320 fd 31 c2 3e f8 20 3c bf 37 2a ab be d2 60 3f 3e
       0.37928763 -0.73487806 -0.33430645 0.18689278
000330 5b 8f 0b 3f ca 2d 86 3e ef 8d 00 be 1c dd 0e 3f
       0.5451562 0.2620681 -0.12554143 0.55806136
000340 ed d4 a5 be ea 9e 16 bf 93 61 4a 3e d4 55 a1 3e
       -0.32389012 -0.58836234 0.19763784 0.31510794
000350 16 c6 e3 3e a1 08 c4 bd ca b8 17 3f 65 6a c3 3e
       0.44487065 -0.09571958 0.5926634 0.3816711
000360 96 90 46 bd 5c 92 14 3f 85 70 5c 3e 21 ae ed 3e
       -0.04847773 0.58035827 0.21527298 0.46421912
000370 d8 96 00 3f 0c 9f 0b bf d7 79 97 3e 97 35 1e 3e
       0.5023017 -0.5453956 0.29585144 0.1545013
000380 50 4a 13 3f 35 d6 ef 3e d2 02 07 bf 8d fe 41 3e
       0.57535267 0.46843114 -0.5273868 0.1894476
000390 a8 b6 f0 3b f6 50 1f 3f d3 a9 d6 bd 6a 98 d0 be
       0.007345993 0.6223291 -0.1048161 -0.40741283
0003a0 74 69 02 3f 9a 1d 9f 3e 1e 99 dc be 19 97 d4 3e
       0.5094216 0.31077272 -0.4308557 0.41521528
0003b0 55 4d ac 3e 0a dc e6 3e f0 d3 8d 3e df 53 e1 3e
       0.3365275 0.4508975 0.27700758 0.440093
0003c0 86 c5 0d be 1d d8 f0 3d 98 f0 ca be 6c 29 a7 3e
       -0.1384488 0.1175997 -0.39636683 0.3264879
0003d0 0e 38 0a 3d 5a 46 55 3e 79 04 ab 3d 2f 3e 8a be
       0.033744864 0.20827618 0.083504625 -0.27000567
0003e0 6e d4 51 3f eb a3 69 3f 09 f6 c0 3e 67 14 76 3e
       0.81964767 0.91265744 0.3768771 0.2403122
0003f0 a1 fd e0 3e f7 7e 02 3f b4 63 03 3f 48 3e 03 bf
       0.43943503 0.5097498 0.5132401 -0.5126691

bn1.weight f4 [400]
000000 04 2e 07 40 d1 58 80 3f da a4 9d 3f c2 5f 78 3f
       2.1121836 1.0027105 1.2315934 0.97021115
000010 bc c7 81 3f 9d 44 9a 3e e4 7e 15 3f 8b af f1 3e
       1.0139079 0.30130473 0.58396745 0.4720424
000020 b3 0d 80 3f 13 1a 4d 3f 7b 9c af 3f 62 06 52 3f
       1.0004181 0.8011791 1.3719629 0.8204099
000030 b2 a5 7c 3f 14 96 85 3e ea ad b3 3f e5 8e 14 3f
       0.9869033 0.26091063 1.4037449 0.5803054
000040 b9 7e 3b 3f fa 02 e8 3e 82 b9 ea 3e e1 ff 6f 3f
       0.7324024 0.4531477 0.45844656 0.93749815
000050 17 6d 9f 3f fe 27 84 3f b0 27 cf 3e d1 c9 c1 3e
       1.2455167 1.0324705 0.40459967 0.37849286
000060 0b c5 ce 3f ed 5c 91 3e 2e 53 3b 3f c4 d4 0d 3f
       1.6153883 0.2839121 0.731738 0.5540278
000070 fa a1 ad 3f f8 2c 1f 3f 13 ae 9e 3e 3f d4 bf 3e
       1.3565056 0.6217799 0.30992183 0.37466618
000080 ba 5e 60 3e 6b eb 99 3f 23 f8 da 3f 5b f0 03 3f
       0.21911135 1.2024969 1.7106975 0.5153863
000090 f6 e9 2d 3f 06 59 aa 3e 1e b1 7d 3f 8d 80 5d 3f
       0.6793512 0.33271044 0.99098384 0.8652428
0000a0 ce b6 0f 3f 3f 70 85 3f e5 5f 01 3f 35 30 66 3f
       0.5613831 1.042488 0.5053695 0.8991731
0000b0 42 75 7e 3f 95 5e ed 3f 0d 53 17 3f a0 7a d8 3f
       0.9939767 1.8544489 0.591111 1.6912422
0000c0 95 c4 10 3f 56 2a 73 3f 05 29 ac 3f 06 eb b4 3f
       0.5654996 0.94986475 1.3450018 1.4134223
0000d0 68 89 e4 3f b4 77 70 3f bf d4 0a 3f 53 80 f6 3f
       1.7854433 0.9393265 0.54230875 1.9257911
0000e0 9b e7 03 40 98 8c 6c 3f f9 97 3d 3f 5c 45 b3 3f
       2.061011 0.9240203 0.74060017 1.4005542
0000f0 3f fb f4 3f 04 31 c6 3f e7 57 b2 3e c9 d5 2e 3f
       1.9139174 1.5483708 0.3483269 0.6829496
000100 ee 33 84 3f 5d 8d 01 40 2a 1b eb 3e 9c ca 5d 3f
       1.0328348 2.0242531 0.45919162 0.8663728
000110 80 51 41 3e 0d 1b 6f 3f 72 67 3a 3f 1b 93 9b 3f
       0.18878746 0.9340065 0.72814095 1.2154268
000120 43 03 61 3f 2e f3 b0 3f c1 eb d2 3e 86 e6 a2 3f
       0.878956 1.3824213 0.4119549 1.27266
000130 f8 9f 4e 3f ee e0 91 3f c5 98 96 3e 43 da 79 3f
       0.8071284 1.1396768 0.2941343 0.97598666
000140 0a b9 12 3f d7 42 d2 3f 2e 67 a1 3e 74 65 db 3f
       0.573136 1.6426648 0.31524032 1.7140336
000150 e2 4f e9 3e 42 d0 7e 3f 80 d5 c4 3e 76 dd 62 3f
       0.45568758 0.99536526 0.38444138 0.8861917
000160 29 46 ce 3f 9f fa b6 3e 81 fe 47 3f f7 2f db 3f
       1.6115161 0.35738084 0.7812272 1.7124013
000170 e4 1e 8f 3f 68 3d 10 3f f4 97 80 3f 10 7e 71 3f
       1.1181302 0.563437 1.0046372 0.9433298
000180 05 ad 9c 3e 38 29 9e 3f 48 94 31 3f ea a2 e4 3e
       0.30600753 1.2356329 0.69366884 0.44655544
000190 ed 71 9a 3e 54 88 cc 3f 03 25 15 3f b0 a8 e4 3e
       0.30165043 1.5979104 0.582596 0.44659948
0001a0 fa 0e ab 3f be c6 a2 3e 84 44 b4 3f d8 bb 9a 3f
       1.3363945 0.31792253 1.4083409 1.2088575
0001b0 53 b6 ec 3f 35 66 c6 3f ac d8 8c 3e f2 f7 35 3f
       1.8493141 1.5499941 0.27509058 0.7108146
0001c0 d6 f5 0e 3f d9 1d 97 3f d7 4c ec 3e f6 aa 34 3f
       0.55843866 1.1805984 0.46152374 0.70573366
0001d0 4e 70 33 3f d4 4f da 3f f0 e9 63 3f 80 17 5f 3f
       0.7009324 1.7055612 0.89028835 0.87145233
0001e0 be 14 2f 3e 0d 10 96 3e 84 e6 0b 40 51 97 37 40
       0.17097756 0.2930912 2.1859446 2.8686106
0001f0 2c 0f 8a 3f 25 9c db 3f 1d 76 06 3f f9 d6 68 3f
       1.078588 1.7157027 0.52523977 0.9095302
000200 4e aa 87 3f 31 fe d7 3e c1 39 62 3f 88 14 13 3f
       1.0598848 0.4218612 0.88369375 0.57453203
000210 46 08 ac 3e a9 59 4f 3f 27 5f 1c 3f 93 62 42 3f
       0.33600062 0.80996186 0.6108269 0.7593166
000220 54 a1 0c 3f 74 b3 8a 3e 74 50 8e 3e fd 49 95 3f
       0.5493367 0.27090037 0.27795756 1.1663204
000230 11 d9 41 3f ed 8a e0 3e 10 86 c5 3e 05 74 6a 3f
       0.7572184 0.43855992 0.38578844 0.9158328
000240 ac 05 07 3f 60 5c 6c 3f 8e a5 ad 3e 47 2c c0 3f
       0.5274303 0.92328453 0.3391537 1.5013512
000250 fe 69 a6 3e 84 db b9 3f 82 05 2b 3f 57 e0 37 3f
       0.3250274 1.4520116 0.6680528 0.7182669
000260 cd 04 51 3f 97 40 bf 3e 97 0e 89 3f de 9a 5e 3f
       0.8164795 0.37353966 1.0707577 0.8695506
000270 e8 0e d8 3f d4 3a 9b 3f b6 8a 66 3f 23 61 5f 3f
       1.6879549 1.2127328 0.90055406 0.87257594
000280 b6 a8 5d 3f d7 cf 89 3f ae f8 a8 3e 8a 94 e9 3e
       0.8658556 1.0766553 0.33002228 0.4562114
000290 8c 45 63 3f c9 70 c7 3f 13 40 55 3f 94 d0 8e 3e
       0.88777995 1.5581294 0.83300894 0.27893507
0002a0 9b a3 01 40 fe 42 b9 3f 2e 0f 44 40 14 89 9e 3f
       2.0256107 1.4473569 3.0634265 1.2385583
0002b0 8e 8b a9 3e 0e af 7f 3f 90 93 e6 3f ba 8a e1 3e
       0.33114284 0.9987649 1.8013783 0.44051152
0002c0 68 67 49 3f 2f 4c 7a 3f 36 78 b1 3f 74 75 8c 3e
       0.7867341 0.97772497 1.386481 0.2743336
0002d0 21 e4 c3 3e f6 f9 aa 3e 6f c3 34 3e 66 ff 27 3f
       0.38259986 0.3339383 0.17652677 0.6562408
0002e0 cb 81 58 3f ba c3 73 3f 6e 26 43 3f 10 e1 5f 3f
       0.8457305 0.9522053 0.76230514 0.87452793
0002f0 dd f3 9b 3e 29 39 ea 3f b9 0b 59 3e b3 dc b0 3f
       0.3045949 1.8298694 0.21195878 1.3817352
000300 a2 22 43 3f d4 ab c9 3e c2 dd 58 3f da 65 ac 3f
       0.7622472 0.39388907 0.84713376 1.3468583
000310 a7 2f a8 3f e5 20 9e 3e 9f e3 eb 3f 19 9f 76 3f
       1.3139542 0.30884472 1.842884 0.96336514
000320 61 2f 18 3f b0 16 1d 40 17 7c 11 40 78 40 cb 3e
       0.59447294 2.4545097 2.2731988 0.39697623
000330 fd 98 9a 3e 7f 85 b0 3e 7f 01 67 3f b8 60 4f 3e
       0.30194846 0.3447685 0.9023666 0.20251739
000340 0f 0f a0 3f 5b 76 e0 3f 05 b8 95 3f a4 8c b2 3e
       1.2504596 1.7536119 1.1696783 0.34872925
000350 00 46 85 3f 78 41 1a 3f fb 04 75 3f c3 c8 06 3f
       1.0411987 0.6025615 0.95710725 0.5265009
000360 bf a4 5d 3f c0 b7 4a 3e 2f b9 f4 3e 18 31 cc 3e
       0.8657951 0.19796658 0.47797534 0.39881206
000370 8c cc 91 3f 71 51 1d 40 47 5f 0d 3f a3 a2 c9 3f
       1.1390548 2.4580958 0.55223507 1.5752758
000380 56 a4 35 3f 88 33 c3 3e 05 fb 0b 40 90 02 29 3f
       0.7095388 0.38125253 2.187196 0.66019535
000390 3e f9 6b 3f 4d 55 98 3e 96 09 30 3f 02 4e 90 3f
       0.9217719 0.2975258 0.68764627 1.1273806
0003a0 df ba b1 3e 8a 2d 5f 3f f4 b1 af 3f c8 26 c2 3e
       0.34712884 0.8717886 1.3726182 0.37920213
0003b0 ae f8 37 3f 87 09 b1 3e 76 0c 32 3f bf 16 b7 3e
       0.7186383 0.3457758 0.69550264 0.3575954
0003c0 79 69 21 3f bb f7 f7 3e 4d 76 e6 3f 82 6f 67 3f
       0.63051564 0.4843119 1.8004853 0.9040452
0003d0 60 07 24 3f c1 9c 25 3f 61 00 44 3f 4f d4 bc 3f
       0.64073753 0.6469231 0.7656308 1.4752291
0003e0 c9 15 af 3f 26 72 a8 3f c1 19 dc 3e 9e 07 00 3f
       1.3678523 1.3159835 0.429884 0.5001162
0003f0 28 7e ce 3e 20 42 c2 3e f7 d5 b0 3e 7b 44 f4 3f
       0.40330625 0.37941074 0.34538242 1.9083399

bn1.bias f4 [400]
000000 0e b4 b4 3d 0a 0e 05 bf 14 8d ad 3d cc 23 ce be
       0.08823405 -0.51974547 0.08474174 -0.40261686
000010 84 54 cc be ad 9a 0e bf 59 1f e2 be a5 29 0f bf
       -0.3990823 -0.55704767 -0.4416454 -0.5592292
000020 27 2b b3 be 4c 36 eb be 26 44 71 bd 39 db 10 bf
       -0.3499386 -0.45939863 -0.058902882 -0.5658451
000030 05 b8 7a be e6 94 13 bf 1d b8 9f bb a9 da 49 bf
       -0.2448426 -0.57649076 -0.004874243 -0.78849274
000040 cd 29 ca be 05 71 0d bf ae f4 18 bf fd 32 1c bf
       -0.39485016 -0.5525058 -0.5974835 -0.610153
000050 05 80 41 bd 3a b8 9c be 95 dc 0c bf 1f 3f 36 bf
       -0.04724123 -0.30609304 -0.5502408 -0.71190065
000060 fe 5c e8 3d b0 db 31 bf 46 dd 0e bf 05 a6 24 bf
       0.11345862 -0.6947584 -0.55806386 -0.64315826
000070 10 d8 01 be dd 05 21 bf 2e 46 36 3c 6f 81 26 bf
       -0.12680078 -0.6289957 0.011125131 -0.6504125
000080 ea 22 58 bf 28 4e 8c 3e bd e2 e6 3d 76 31 c0 be
       -0.84428275 0.27403378 0.11273716 -0.37537736
000090 92 e0 1f bf 18 91 3c bf c0 f1 08 bf e2 46 ef be
       -0.6245204 -0.73658895 -0.5349388 -0.46733767
0000a0 51 92 23 bf 40 56 d4 be 11 1b ec be e0 54 b8 be
       -0.63895136 -0.41472054 -0.461144 -0.36002254
0000b0 ae c7 41 be b5 08 ca 3d ce 02 e4 be 6a 2f fd 3d
       -0.18923828 0.09864942 -0.4453339 0.12362559
0000c0 87 fb 2a bf d6 aa 80 be 97 e0 ea be 8a 04 b2 be
       -0.6679005 -0.25130337 -0.45874473 -0.34769088
0000d0 8b c8 8f be ae 00 dc be 03 af 37 bf 4e 7e ac 3e
       -0.2808269 -0.4296927 -0.7175142 0.33690113
0000e0 c1 45 12 3e 4f 42 0b bf ec b5 85 be b4 28 b2 3d
       0.14284422 -0.54398054 -0.26115358 0.0869917
0000f0 f6 86 de 3e 2b 3e 87 bc 3f ad 20 bf 26 4f 9b be
       0.43462342 -0.016509136 -0.6276435 -0.30333823
000100 ce 90 d6 be 08 eb 1e bd 57 c2 20 bf 80 48 12 be
       -0.41907352 -0.038798362 -0.6279654 -0.14285469
000110 68 b2 3e bf c7 28 31 be 2b 72 16 bf a4 76 07 bf
       -0.74490976 -0.17300712 -0.58767956 -0.52915406
000120 35 4e b7 be f9 71 78 be 37 77 2c bf 11 77 c6 bd
       -0.35801855 -0.24262227 -0.6736941 -0.09690679
000130 09 fe 01 bf c8 93 cc be ff 76 28 bf 2f a5 3c bf
       -0.5077825 -0.39956498 -0.65806574 -0.7368955
000140 87 70 08 bf 95 37 a0 bd 20 20 37 bf bc 43 0f 3d
       -0.53296703 -0.078231014 -0.71533394 0.034976706
000150 42 3a ff be a4 65 92 3d bf 91 2f bf 70 3e 99 be
       -0.49849135 0.07148293 -0.68581766 -0.2993045
000160 19 a8 30 be ff 90 2c bf 37 ae bd be 7f c1 8b 3e
       -0.17251624 -0.67408746 -0.37046978 0.27296063
000170 91 9f d5 be bc 54 3e bf 5b c6 dd be 04 d6 53 be
       -0.41723302 -0.74348044 -0.43315396 -0.20687109
000180 ce f2 1d bf 26 16 84 3c 87 5b b7 be b7 fd 20 bf
       -0.61698616 0.016123842 -0.35812017 -0.6288714
000190 7f 5d 26 bf 94 70 8c bc c6 56 1b bf d4 db 08 bf
       -0.64986414 -0.017143525 -0.6067928 -0.5346043
0001a0 d7 00 b4 be ee ff 13 bf 8e 3f b7 bc b7 2f b7 be
       -0.3515689 -0.5781239 -0.022369172 -0.3577859
0001b0 22 8a 75 3e d2 a4 c2 3d 46 99 18 bf 98 86 2e bf
       0.23978475 0.09504093 -0.59608877 -0.68174124
0001c0 4d 41 07 bf 12 2d 9e be bc 19 14 bf 61 e2 a3 be
       -0.52834016 -0.3089376 -0.5785177 -0.3200865
0001d0 11 23 da be b2 13 3e 3e e8 08 09 bf ed 7f b8 be
       -0.4260488 0.185622 -0.53529215 -0.360351
0001e0 e8 60 3d bf 75 df 0b bf 69 a8 53 3e 7f 28 98 3d
       -0.7397599 -0.54637843 0.20669712 0.07429599
0001f0 e0 49 78 be ea 5d cf 3e a8 fe fd be ab cb 60 be
       -0.24246931 0.40501338 -0.4960835 -0.21952693
000200 f4 82 fc be 04 f4 f3 be d2 86 9b bd e8 82 f8 be
       -0.4931866 -0.47647107 -0.07594074 -0.48537374
000210 7f 51 28 bf 62 6d 87 be f6 50 54 bf 5f d4 0f bf
       -0.65749353 -0.2645064 -0.82936037 -0.5618343
000220 96 68 00 bf b6 3f 16 bf e5 b1 0a bf ff b9 a3 be
       -0.50159585 -0.58690965 -0.54177696 -0.3197784
000230 98 6f 11 bf de 30 f4 be e8 25 32 bf e1 3a dc bd
       -0.56810904 -0.47693533 -0.6958909 -0.10753418
000240 64 d6 19 bf 22 43 8b be c6 68 1e bf 30 7b cb 3d
       -0.6009276 -0.27199656 -0.6187862 0.099356055
000250 a1 63 4b bf ed dd 4c 3e 41 4d 16 bf 8e 09 b2 be
       -0.79448897 0.20006533 -0.5871163 -0.34772915
000260 0d a9 99 3e d9 c4 43 bf 7a 97 8d be 92 c6 1b bf
       0.30011788 -0.7647224 -0.2765463 -0.6084987
000270 58 af 9a be e9 00 85 3b 03 0f f8 be fb 01 c4 be
       -0.30211902 0.0040589464 -0.48448953 -0.3828276
000280 2f ef 57 be 8d 0e 98 be ac 57 fc be d8 e1 3a bf
       -0.21087335 -0.296986 -0.49285638 -0.7300086
000290 79 53 94 bd 97 3d c5 3e 00 aa 11 bf a7 6d 25 bf
       -0.07242484 0.38523552 -0.56900024 -0.6462044
0002a0 bd f4 60 3e 69 61 b4 be e2 40 89 3d 37 b3 68 be
       0.2196836 -0.35230568 0.067018285 -0.22724615
0002b0 4e c0 1b bf 45 d0 6a 3e 59 eb 8d 3e bb c5 ec be
       -0.6084031 0.22931011 0.2771862 -0.46244606
0002c0 3a cc a9 bd fe 10 98 be 0c 98 6c be 5f 8d 2a bf
       -0.08290906 -0.29700464 -0.23104876 -0.66621965
0002d0 49 22 f4 be 4f 99 2e bf 36 d1 1d bf d2 20 1d bf
       -0.47682407 -0.6820268 -0.61647356 -0.61378205
0002e0 37 8b 25 bf f3 e6 f3 be 2c b5 55 be f6 00 ac be
       -0.6466555 -0.47637138 -0.20869893 -0.33594483
0002f0 86 6e 1c bf b1 54 90 3e 72 b8 53 bf f9 90 26 3e
       -0.61106145 0.28189614 -0.82703316 0.1626624
000300 e3 52 0e bf fa 73 00 bf c7 31 93 be 49 8d a0 be
       -0.55595225 -0.50176966 -0.28748915 -0.31357792
000310 1f 71 a9 be af 12 2d bf 93 c9 be 3d 05 65 8b be
       -0.33094117 -0.67606634 0.09315791 -0.2722551
000320 cd e9 b0 be f0 0c b4 3d f9 e5 4d 3e ee 70 16 bf
       -0.34553376 0.0879153 0.20107259 -0.5876607
000330 ae 5c 10 bf 45 63 08 bf dd a3 50 be e2 d2 5f bf
       -0.5639142 -0.53276473 -0.20375009 -0.87431157
000340 a1 b4 e3 be e9 c3 90 3d d3 4c 94 be 63 d3 16 bf
       -0.44473746 0.07068617 -0.28964862 -0.589163
000350 27 7f dc be de 39 26 bf 9e 00 76 be 89 9e ac be
       -0.4306576 -0.6493205 -0.24023673 -0.33714703
000360 c2 32 da be 40 56 3b bf ef 50 c1 be b7 a9 2e bf
       -0.4261685 -0.7317848 -0.3775706 -0.68227714
000370 46 0c f2 be 12 85 83 3e 0e 0b 4c bf 73 6b 8d be
       -0.4727499 0.25687462 -0.7970437 -0.2762104
000380 3b 3f f2 be 47 8c 2f bf fa f2 a4 3e a7 93 f4 be
       -0.47313866 -0.6857342 0.32216626 -0.477689
000390 15 0f 19 bf 4e 09 14 bf a4 ac 23 bf 3a 7f 5c 3e
       -0.5978864 -0.578267 -0.63935304 0.21532908
0003a0 57 dd 28 bf 4e 53 f4 be cf a0 98 be 37 74 00 bf
       -0.6596274 -0.47719806 -0.29810187 -0.5017733
0003b0 1d d6 09 bf 16 4f 15 bf e1 24 93 be 06 72 11 bf
       -0.53842336 -0.583238 -0.28739074 -0.5681461
0003c0 60 5e e7 be a7 3f b7 be 72 cc e9 3d ef 00 f2 be
       -0.4518919 -0.3579075 0.11415948 -0.47266337
0003d0 00 48 0e bf f3 3d f2 be e4 f1 d7 be 0f 8d d0 3d
       -0.55578613 -0.47312889 -0.42176735 0.10183155
0003e0 5b ee 43 be 8e 4e fc bd ff a0 21 bf df a6 2c bf
       -0.19133894 -0.123196706 -0.63136286 -0.67442125
0003f0 30 aa 33 bf 50 49 33 bf 26 ef 1e bf fd 5d 07 be
       -0.7018156 -0.7003374 -0.6208366 -0.13219447

fc2.weight f4 [300, 400]
000000 45 74 87 be b7 f4 51 bf 18 40 8e bd f4 32 3d 3f
       -0.26455894 -0.8201403 -0.06945819 0.73905873
000010 f7 0a 14 bf 62 08 55 be 2c e3 15 be 89 0d c1 bd
       -0.5782923 -0.20803979 -0.1463744 -0.0942641
000020 b4 a6 73 be b1 41 d0 be a3 d2 cf 3d f9 18 44 3e
       -0.23794061 -0.4067512 0.10147598 0.19150151
000030 8e 9f 27 3d 61 03 da bd a5 78 25 be 19 b9 46 bf
       0.040923648 -0.10645176 -0.16159303 -0.77626187
000040 7b f8 ba be 58 ed b6 be 8d 05 85 be 83 b1 b0 be
       -0.365177 -0.35727954 -0.25980797 -0.3451043
000050 76 26 e8 be 5f 2b c3 3c fd 3c 88 be 0b b1 77 3e
       -0.45341843 0.023824392 -0.2660903 0.2418863
000060 2c be 83 bf 85 7d 0d be 54 d5 59 bd 6c f1 fc be
       -1.0292411 -0.13817413 -0.05318196 -0.4940294
000070 65 6b 17 3e 90 9a a3 be b1 05 14 be a3 9b 63 bc
       0.14787062 -0.3195386 -0.14455296 -0.013892087
000080 49 f8 cf 3c 66 f5 44 bf f4 b6 25 3e d3 5d 58 be
       0.025386946 -0.7693695 0.16183072 -0.21129541
000090 a3 3f da be 1b 8e 62 be 7d 7d a0 3e 1a fa bc be
       -0.42626676 -0.22124521 0.3134574 -0.36909562
0000a0 cf f8 2c bf cb e5 88 bd f5 3e b1 be b6 01 4e bf
       -0.6756715 -0.066844545 -0.34618345 -0.8047136
0000b0 6f 27 fd be d4 9d c2 3d 37 3b 8b bd 2d e3 78 3e
       -0.49444148 0.095027596 -0.06798404 0.2430541
0000c0 98 ef bf be 19 89 23 bf 9a 73 ed bd dd b4 8d bd
       -0.37487483 -0.6388107 -0.11594315 -0.069192626
0000d0 c4 cf 3b be 73 fb 05 bf 6b dd d6 3e dd 3b 16 3f
       -0.18340975 -0.52336806 0.41965804 0.58685094
0000e0 07 cc 2a be 78 ba 60 be 06 2b dd 3d 7b 0f 2b 3e
       -0.16679393 -0.21946132 0.10799222 0.16705124
0000f0 56 4a dc 3e 13 52 f7 3d 53 33 71 be c6 24 5e be
       0.43025464 0.12076201 -0.23554735 -0.21693715
000100 85 30 19 be f1 f8 fd bc 19 b9 df be f1 b3 e6 3e
       -0.14959915 -0.031002494 -0.43695906 0.4505916
000110 93 12 6b bd 18 5c cb 3d 7a e1 a6 3c 31 cb 12 be
       -0.05739076 0.09929675 0.020371187 -0.14335324
000120 2f 8c c4 3e 27 9e a6 bc ac ee 80 be ef 90 6b be
       0.38388202 -0.020339085 -0.25182092 -0.23004507
000130 70 de 1b 3f 0d 77 d6 be 2a a5 d4 3c e0 a2 a9 bf
       0.6088629 -0.41887704 0.025957663 -1.325283
000140 f6 7a 7a bf 08 22 34 3e 2e 13 2f 3e 84 56 11 be
       -0.97843874 0.17591107 0.1709716 -0.1419316
000150 60 7b e1 be 08 6f 27 bf a4 20 04 bc d9 ca 56 bf
       -0.4403944 -0.65403795 -0.008064423 -0.8390327
000160 0e 63 bb be 91 27 db bd b8 19 ed 3d 3c 57 1c 3f
       -0.3659901 -0.10700906 0.11577171 0.6107061
000170 91 e7 ff 3d 23 16 05 be d2 2f b1 bd 57 8e 13 bf
       0.1249534 -0.12996726 -0.08651699 -0.5763907
000180 ea ae e2 be a9 43 a3 bd d4 da 36 bf 94 6b 0a be
       -0.44274074 -0.079718895 -0.71427655 -0.135176
000190 d5 0f 92 be 04 e8 a0 bd c6 29 93 bf ad 2b 4e be
       -0.28527704 -0.078567535 -1.1497123 -0.20133848
0001a0 41 bf 2e be 1a df 61 bd 73 cd 81 be 55 15 7a bf
       -0.17065145 -0.055144407 -0.25352058 -0.976888
0001b0 66 28 02 3e cb 4e df 3e c9 da 56 be cc 91 f2 3d
       0.12710723 0.43614802 -0.20981897 0.11844215
0001c0 c7 33 4b 3c c4 1a a4 be 46 77 51 bf a9 cb 29 be
       0.012402481 -0.3205167 -0.8182262 -0.16581596
0001d0 57 cf 16 bf a1 02 82 be 57 b0 07 bf 90 0f 40 bf
       -0.58910125 -0.2539263 -0.5300345 -0.75023746
0001e0 88 4b 3f 3e b5 35 07 be f0 75 93 be 38 5b 0c bf
       0.18681157 -0.13204081 -0.28800917 -0.5482669
0001f0 c6 69 77 bf af ad 12 3e 76 ee 9f be 5c 30 b8 3e
       -0.9664577 0.14324068 -0.3123662 0.35974395
000200 b4 ba 8b be a1 10 5d 3e 7f 7a c3 be 81 3f 01 3c
       -0.2729088 0.21588375 -0.38179395 0.007888676
000210 0c de 7c 3c df 5a b9 bd dd 29 f9 be a8 69 44 be
       0.0154337995 -0.090505354 -0.48664752 -0.1918093
000220 df 89 cd bc 8e df 1b 3e c5 99 1a be aa 72 90 bd
       -0.025090156 0.15221998 -0.15097721 -0.070531204
000230 01 20 4a be 3a 93 43 be f4 4f 8c be f9 5f 97 be
       -0.19738771 -0.19099131 -0.2740475 -0.2956541
000240 49 81 0a bf ce c1 34 3c 93 2e f7 be f8 f5 70 bd
       -0.54103523 0.011032535 -0.4827772 -0.058828324
000250 b6 56 a7 3d c1 1f 31 bf 08 1b d1 be 55 b6 71 be
       0.08170836 -0.6918908 -0.40840936 -0.2360471
000260 be c4 3a bf eb 88 60 3e 27 df 77 3e cf ea 1b be
       -0.72956455 0.2192723 0.2420622 -0.15226291
000270 c3 ad 89 be 1b cd 6b be db 6b 4b bf 14 ef b7 be
       -0.26890382 -0.2302746 -0.7946145 -0.3592459
000280 ad 5d 88 bd 14 2f e5 3e 0c a4 75 be 28 27 37 bd
       -0.06658492 0.4476248 -0.2398836 -0.044715077
000290 80 4a f6 3e 25 90 aa 3e b4 6e 9f be e8 a5 3e 3d
       0.48103714 0.333131 -0.31139147 0.04654494
0002a0 a6 ab c7 3e 0a 4b 2a 3e 53 f8 ce bf a9 36 c2 3e
       0.38998145 0.16630188 -1.6169533 0.37932327
0002b0 8d 68 01 be d1 53 40 be 64 5f a3 be a1 99 db be
       -0.12637539 -0.18781973 -0.31908715 -0.42890647
0002c0 5e b2 21 bf 24 f2 8d be dc ee fb bd 69 c8 cb bd
       -0.6316279 -0.277238 -0.12301418 -0.099503346
0002d0 85 db b7 be 86 01 11 be c0 11 3c bc b0 44 29 bf
       -0.35909668 -0.14160737 -0.011478841 -0.66120434
0002e0 42 f0 97 be 06 e9 8f 3d cd de a0 3e fa 7f 14 be
       -0.2967549 0.070268676 0.31419984 -0.14501944
0002f0 e6 31 17 be d9 bd 01 bf 6b 5e 7e bd 34 72 f2 be
       -0.14765128 -0.5068031 -0.062101763 -0.47352755
000300 5b 32 26 bf b4 0c 50 39 1c 87 ff 3c f1 5e 11 3d
       -0.64920586 0.00019841158 0.031192355 0.035490934
000310 d6 62 9c be ce ac 98 bd 31 75 c2 bb b7 93 1d be
       -0.30544156 -0.07454835 -0.0059343805 -0.1538838
000320 52 9d 0e 3d 54 15 9a be 73 09 77 bf 9e 7f a5 be
       0.034818 -0.30094397 -0.96498793 -0.32323927
000330 17 6c a5 be 35 1b 81 be 5f df ca 3e 7e 84 13 be
       -0.32309029 -0.2521607 0.39623544 -0.1440601
000340 b8 1a 84 be 82 11 3d 3f cd 59 55 bf dd cd 99 be
       -0.25801635 0.7385484 -0.8334015 -0.30039874
000350 94 bf 53 bf d1 7a 8c bd 31 85 d3 be c8 a0 61 bd
       -0.827142 -0.06859363 -0.41312554 -0.055084974
000360 6b f4 9d be 2f a3 30 3c 96 c1 1f bf d5 e3 90 ba
       -0.3085054 0.0107810935 -0.62404764 -0.0011054227
000370 d0 f7 72 bf 7a 3c ac 3e cc 3e 53 bf c5 96 66 bd
       -0.9490938 0.3363989 -0.82517695 -0.05629613
000380 87 82 79 be 99 40 d8 3b 0c 51 03 bf 83 11 ac be
       -0.24366198 0.0065994975 -0.5129554 -0.3360711
000390 bc 64 b8 3e cd e0 87 bd 6c c3 d9 bc 97 b9 31 bf
       0.36014354 -0.06634674 -0.026582442 -0.6942381
0003a0 f4 34 84 be 2d 38 1e bf 11 62 22 bf 4e c8 22 be
       -0.2582165 -0.6180447 -0.6343089 -0.15896723
0003b0 ee a6 f7 3d 72 3c 70 bc ad f6 dc be 13 e3 f4 bd
       0.12092386 -0.014662849 -0.4315695 -0.119573735
0003c0 ab 93 69 be 06 ea 30 bf f5 f3 b7 3e 19 fe 9e be
       -0.22810237 -0.6910709 0.35928312 -0.31053236
0003d0 0f 2f 8a be b9 ae a4 be 61 90 50 bf 1e 07 be 3e
       -0.26989028 -0.32164553 -0.81470305 0.37114805
0003e0 fc 3d ec 3c ff 10 1e be db 9a fc be 02 d2 68 3e
       0.02883815 -0.15436171 -0.49336895 0.22736362
0003f0 66 64 19 3d a1 2e d8 bd 46 72 ab be 0d 4e 22 be
       0.037449263 -0.10555769 -0.3348562 -0.15850087

fc2.bias f4 [300]
000000 a7 5f 9f bd 0a f1 0a be 70 8d b3 bd 38 1e 4b be
       -0.07781916 -0.13568512 -0.087672114 -0.19835746
000010 7b 41 46 be 82 45 8d be 92 f1 83 3f 45 89 92 be
       -0.19360916 -0.27592093 1.0308096 -0.28620353
000020 8c 98 b2 3f 31 88 82 3f 60 97 3f be e7 81 68 3f
       1.3952804 1.0197812 -0.18710089 0.90823215
000030 96 54 68 bd a3 5b b8 be be 11 54 3f c5 ab a8 be
       -0.056721292 -0.36007413 0.8283957 -0.3294355
000040 f4 86 89 bc 15 1a 90 3c be 2b 6d be a6 3a 92 3f
       -0.016787983 0.017590562 -0.23161218 1.1424148
000050 fc f2 29 3f 46 23 b0 be 6b d7 ab be 7b d5 a4 be
       0.6638639 -0.34401911 -0.33562788 -0.32194123
000060 5a 23 c2 be 5f 0b 81 be e4 f9 8d 3f b9 ec af be
       -0.37917596 -0.25203988 1.1091886 -0.34360293
000070 f6 5d 29 3f 90 50 9e 3f 77 c1 a7 be f9 44 8d 3f
       0.66159 1.2368336 -0.3276479 1.1036674
000080 f5 78 a1 3f da 4e 80 be 90 d4 a5 3f f5 8f 91 3f
       1.2615038 -0.2506016 1.2955494 1.1372057
000090 08 ad 85 3f 07 1d c7 bd 6e eb 72 be c3 61 9f 3d
       1.044343 -0.097223334 -0.23722622 0.077823184
0000a0 2a a2 9e be be 7b 89 3f 60 12 87 be 9a fa 83 3f
       -0.30983096 1.0740888 -0.26381207 1.0310853
0000b0 55 f7 af 3f 97 97 38 3e ce e2 95 3f a6 09 61 3f
       1.3747355 0.18026577 1.170984 0.8790535
0000c0 1b 19 81 be d1 7b 3c be f2 89 7a 3f 81 ae 29 3e
       -0.25214466 -0.18406607 0.9786674 0.16570474
0000d0 ae b1 68 be 8b fc 8e 3f d9 59 79 3d 34 6e 8a be
       -0.2272403 1.117082 0.0608767 -0.27037203
0000e0 a8 b6 6a be a4 c0 b2 be 4c 00 8f 3f 66 98 8e 3f
       -0.2292124 -0.34912598 1.1171966 1.1140258
0000f0 9d 5d 9a be 26 fd 64 3e 5d 8c 84 be dd 84 78 3e
       -0.30149546 0.22362193 -0.2588834 0.24269433
000100 fe 5c 14 3f 1e f7 e7 3d c8 87 84 bd d8 76 ba be
       0.57954395 0.11326431 -0.06471211 -0.36418796
000110 14 98 39 bd 72 70 4a 3d 91 50 3e 3e 7b 72 37 bf
       -0.04531105 0.049423642 0.18585421 -0.7165906
000120 4c 4a 22 be 6d a0 87 be 6f c9 69 be fb 12 09 be
       -0.15848655 -0.26489583 -0.22830747 -0.13386147
000130 82 4f 8b 3f 2a 6f 2a be 9f a6 53 3f 69 8e 0c 3e
       1.0883639 -0.16643968 0.8267612 0.137262
000140 52 83 ce be 62 dd a1 be 12 b5 fb bd b9 14 3d be
       -0.40334564 -0.31614214 -0.12290396 -0.18464936
000150 fc 53 ca bc 6e 22 84 be 94 f1 de bd 4b 1d 8e be
       -0.02469825 -0.25807518 -0.10885921 -0.27756724
000160 ef 6c 0b bc b2 d9 cf 3c 06 82 b2 be 90 c2 ad be
       -0.0085098585 0.02537236 -0.34864825 -0.33937502
000170 af df 9b 3f 32 2d 01 3e 53 2a a3 bd 1e b7 7d 3f
       1.2177638 0.12614897 -0.07967057 0.9910754
000180 8d 29 97 be f1 e9 96 bd f4 19 93 3f f9 46 0e be
       -0.29523888 -0.073688395 1.1492295 -0.13894261
000190 a1 9c a1 be 9a 4a 86 3f 1c c1 68 be 1c 0e 03 be
       -0.3156481 1.0491517 -0.22729915 -0.12798351
0001a0 19 89 86 3f 0a ba 87 3d 1f 78 5d be fb b8 5d be
       1.0510589 0.06627281 -0.21627854 -0.21652596
0001b0 05 2d 7c 3f 7c c2 66 be 2c 3d b8 be a3 5d 4d 3f
       0.98506194 -0.22535127 -0.3598417 0.80221003
0001c0 8f d7 b1 be de 5a b3 3f 31 5f 2a 3f 64 6a 9e 3f
       -0.3473477 1.4012105 0.665515 1.2376218
0001d0 9a da 3d be c4 64 b5 be 59 b9 75 bd 54 37 c8 3e
       -0.18540421 -0.3542844 -0.059991214 0.39104712
0001e0 2a 99 fa bd 4d 4c 0f bd 8a 26 e6 be a6 16 69 be
       -0.12236245 -0.034984875 -0.44951278 -0.22762546
0001f0 25 33 ca be 98 99 73 3f 96 a7 b6 be ab d3 d8 3e
       -0.39492145 0.9515624 -0.35674733 0.4234899
000200 3e b9 94 be c1 1e 9f bd 50 74 fe bd e8 6a 99 be
       -0.2904758 -0.07769538 -0.124245286 -0.29964375
000210 09 b9 3b be 61 7b 89 3f a5 b8 2c be 7d 59 94 3f
       -0.18332304 1.0740777 -0.16867311 1.158981
000220 36 44 49 be e8 e3 a3 3f 58 95 89 be 98 81 a9 be
       -0.19654927 1.2803926 -0.26871753 -0.33106685
000230 42 7e 42 3e 24 8c 18 be 9b a9 46 be 00 ce e3 3e
       0.18993476 -0.1489721 -0.19400637 0.44493103
000240 82 7e 8a be 9d bb 9d 3f af a1 a1 3e 2d e4 22 3f
       -0.27049643 1.232288 0.31568667 0.6362942
000250 0c a5 e7 3e b9 af f9 bd 61 c4 4e be 46 e7 37 be
       0.45243108 -0.121917196 -0.201921 -0.17959318
000260 0a f7 19 bf e4 b1 53 be e9 c4 86 be c7 9a 6b 3d
       -0.60142577 -0.20673329 -0.26322106 0.057520654
000270 b9 4e 81 3f d0 dd a6 be 52 40 42 be c8 67 98 be
       1.0102149 -0.32591105 -0.18969849 -0.2976668
000280 38 5b a1 be 7f 20 1d be 93 db 79 be 75 77 91 be
       -0.31514907 -0.15344428 -0.24400167 -0.2841145
000290 db 26 0e be d2 4b dc be 56 73 78 be e8 6a a9 be
       -0.1388201 -0.43026596 -0.24262747 -0.33089375
0002a0 d1 80 34 3f 8b a9 91 be 1c 4e c8 3c 97 e8 8b 3f
       0.7050906 -0.28449664 0.024451308 1.0930356
0002b0 21 43 a0 3f 96 9e 7f be 58 74 d8 be de b7 11 3f
       1.2520486 -0.2496284 -0.42276263 0.56921184
0002c0 e4 bf 1e 3f b0 50 2d bc fe 31 6c be fd b6 aa 3f
       0.6201155 -0.010578319 -0.23065946 1.3337094
0002d0 5d 38 a3 3f 21 f4 71 bd 6e 1c 06 3e 7a 08 8f be
       1.2751576 -0.05907071 0.13096783 -0.27936155
0002e0 37 71 9b 3e 08 ae 8c be 6a 51 89 be 46 b8 81 3f
       0.30359814 -0.27476525 -0.26819927 1.0134361
0002f0 a4 3e 29 3e be c1 69 3e fc 65 42 be dd ec 0c be
       0.16527802 0.22827813 -0.18984216 -0.13762231
000300 c3 b0 8f be 97 05 91 3f 5a 56 8d 3f 30 bc 78 be
       -0.28064546 1.1329831 1.1041977 -0.24290538
000310 64 74 78 3f 93 59 45 3f 51 ba 66 bd 8e 99 5a 3f
       0.970526 0.77089804 -0.05633003 0.85390556
000320 1b 1f 13 3f 54 db c0 be 67 a6 89 be 69 91 24 bf
       0.5746934 -0.37667334 -0.26884767 -0.6428438
000330 f0 09 3b be c4 a5 a4 be bd fb b2 be 63 27 6d be
       -0.1826551 -0.3215772 -0.34957686 -0.23159556
000340 45 15 90 be a6 c6 20 be e1 56 94 3f 64 84 78 3d
       -0.28141227 -0.15700778 1.1589013 0.060673133
000350 9f 93 9c be 00 ae 7b 3f 6b ca 8c 3e f0 86 05 3e
       -0.30581376 0.9831238 0.27498183 0.13039756
000360 f7 62 7c be 29 65 e4 bc 74 0e 7c 3f 81 45 b5 3d
       -0.24647127 -0.027880268 0.98459554 0.088511474
000370 d6 18 9b 3f e9 f8 5f be f1 99 c2 be 95 b5 77 3f
       1.2116954 -0.21872295 -0.38008073 0.9676145
000380 d0 fb 19 be fa ac b8 be e7 5e 84 3f 73 9c 58 3f
       -0.15037465 -0.3606947 1.0341462 0.8461372
000390 94 dd 7d be cc 20 7e be a2 16 bc be 49 2d b8 be
       -0.24791557 -0.24817199 -0.36736017 -0.3597205
0003a0 2b f0 76 be 80 df 6a 3f 60 c8 49 bd fe ec 4e 3f
       -0.24115054 0.91747284 -0.049263358 0.8083037
0003b0 c2 28 82 be dc 1f c9 be dd 09 8e 3f 4f c5 02 be
       -0.2542172 -0.3928212 1.109676 -0.1277058
0003c0 df 4c df be da 9d 9f 3d e8 10 8f 3f 17 22 81 be
       -0.43613335 0.0779378 1.1177034 -0.2522132
0003d0 ad 92 78 3c fe ce 89 be f2 40 64 be d9 25 9f 3f
       0.015171689 -0.26915735 -0.222904 1.2433425
0003e0 f7 6d 97 be 39 31 15 be cd 14 81 3f db 12 84 3f
       -0.29576084 -0.14569558 1.0084473 1.0318254
0003f0 f6 63 4e be 83 6a 5d be 77 78 9f 3e ca 18 76 3f
       -0.2015532 -0.21622662 0.31146595 0.96131575

bn2.weight f4 [300]
000000 a7 f5 b8 3f 0a 6b 80 3f 1a bd 6c 3f fd f3 bc 3f
       1.4449967 1.0032666 0.92476046 1.4761959
000010 f4 ec 97 3f cd 2a 86 3f c9 74 82 3f 2a 38 f2 3f
       1.1869187 1.0481812 1.019189 1.892339
000020 83 05 86 3f 53 7b 83 3f ba f3 af 3f c2 d7 7f 3f
       1.0470432 1.027201 1.3746254 0.99938595
000030 9c cc d5 3f 0b ee 6d 3f a6 c3 7d 3f 9c 08 8b 3f
       1.6703067 0.9294135 0.9912666 1.0862002
000040 ff 8e a4 3f 6e 3c c2 3f f7 df 83 3f 87 3b 85 3f
       1.2856139 1.5174692 1.0302724 1.0408791
000050 c4 10 74 3f e0 0a 60 3f 2d f3 92 3f 6f 24 87 3f
       0.9533808 0.87516594 1.1480461 1.0557994
000060 a9 a8 66 3f 45 5f 98 3f 5e b7 83 3f a5 dc de 3f
       0.90101105 1.1904074 1.0290334 1.7411085
000070 47 e3 74 3f d6 6d 88 3f af 99 73 3f 68 5e 88 3f
       0.956593 1.0658519 0.9515638 1.065381
000080 4e 45 89 3f 50 fa f2 3f e0 38 88 3f a3 e6 86 3f
       1.0724275 1.8982639 1.0642357 1.0539135
000090 02 45 81 3f 0b f5 7a 3f e6 d4 99 3f 69 74 95 3f
       1.0099185 0.98030156 1.2018096 1.167615
0000a0 4e 1d 93 3f cd 01 87 3f f9 b5 9d 3f 4f 79 80 3f
       1.1493318 1.0547425 1.2321159 1.003702
0000b0 d3 f5 8b 3f da 0b 67 3f fc d4 88 3f bc ff 7e 3f
       1.0934395 0.9025246 1.0689998 0.9960897
0000c0 df eb 89 3f d5 c4 55 3f 88 e2 7e 3f a5 a8 03 40
       1.0775107 0.83503467 0.9956441 2.0571682
0000d0 c0 61 8e 3f 3d 6f 88 3f d3 26 92 3f 34 f5 7e 3f
       1.1123581 1.0658947 1.1418098 0.995929
0000e0 46 a4 00 40 65 c4 a4 3f c7 c8 85 3f b5 66 84 3f
       2.0100265 1.2872435 1.0451897 1.0343844
0000f0 7b 73 9b 3f eb 89 ac 3f 7d 62 88 3f f8 de 5a 3f
       1.2144617 1.3479589 1.0655056 0.85496473
000100 db fe 72 3f 52 e1 be 3f c6 bc a5 3f ab f0 78 3f
       0.9492013 1.4912512 1.2948234 0.9724223
000110 1c 90 9d 3f f8 2b 44 3f 1b e4 f2 3f 84 f8 85 3e
       1.2309604 0.7662959 1.8975862 0.26166165
000120 a2 71 78 3f 74 c7 8f 3f aa 89 77 3f b7 c8 9d 3f
       0.9704839 1.1232743 0.96694434 1.2326878
000130 8b 55 82 3f b7 84 85 3f 8d 31 7b 3f 6a e1 8d 3f
       1.0182356 1.0431126 0.98122483 1.1084416
000140 c4 de 82 3f 2d e0 91 3f 7c c8 95 3f 05 0b 85 3f
       1.0224233 1.1396538 1.1701808 1.0393988
000150 4b ad b5 3f 18 56 cf 3f d0 2e 87 3f 71 6c 88 3f
       1.419351 1.6198149 1.0561161 1.0658094
000160 e7 71 fa 3f 3f c9 a0 3f 9a 7b 85 3f d0 a4 7e 3f
       1.956601 1.2561415 1.0428345 0.99470234
000170 0e 9c 84 3f 26 e7 fd 3f 8f 98 87 3f 67 ac 83 3f
       1.0360124 1.9836166 1.0593432 1.0286988
000180 4b 4b 70 3f 6f 31 9d 3f e8 65 85 3f 71 91 aa 3f
       0.9386489 1.2280711 1.0421724 1.3325635
000190 84 06 88 3f 44 88 82 3f cf e4 8a 3f 4b e3 79 3f
       1.0626988 1.0197835 1.0851077 0.97612447
0001a0 07 e4 82 3f 7f 3a 87 3f 6d 10 85 3f 4d c8 95 3f
       1.0225838 1.0564727 1.0395638 1.1701752
0001b0 92 67 80 3f 6d 86 b5 3f be 37 dc 3f fe 3b 7d 3f
       1.0031607 1.4181648 1.7204511 0.98919666
0001c0 a6 e1 72 3f 0f dd 89 3f 30 56 73 3f 6a 68 86 3f
       0.9487556 1.0770587 0.95053387 1.0500615
0001d0 5c d1 8e 3f c5 8b ab 3f 77 bb 79 3f bb ce 5e 3f
       1.1157641 1.3402029 0.97551674 0.87034196
0001e0 2f 6e a4 3f 9d 71 ad 3f 2d 30 8d 3f 3a 70 9e 3f
       1.2846125 1.3550297 1.1030327 1.2377999
0001f0 cd 4a e5 3f 20 5d 7c 3f f7 e0 96 3f 30 9f 64 3f
       1.7913452 0.985796 1.1787404 0.893054
000200 ed 1c 80 3f b9 d6 81 3f 07 d4 bb 3f ec 55 8e 3f
       1.0008827 1.0143653 1.4674081 1.1119971
000210 56 38 9e 3f 12 15 88 3f e0 8b c5 3f 6d cc 87 3f
       1.2360942 1.063143 1.5433311 1.0609261
000220 00 00 80 3f 0e a4 88 3f 5a 9c 69 3f 44 e8 8f 3f
       1.0 1.0675066 0.912542 1.1242757
000230 79 eb 5c 3f f6 05 90 3f d6 d6 79 3f ca a1 6b 3f
       0.862968 1.1251819 0.9759344 0.92043746
000240 06 90 90 3f ff 09 85 3f d8 1c 03 40 a0 77 72 3f
       1.1293952 1.0393676 2.0486355 0.94713783
000250 f2 9f 64 3f c5 57 8c 3f 56 a3 99 3f d3 a0 85 3f
       0.8930656 1.0964285 1.2002971 1.0439705
000260 3d e4 f6 3e b6 3c 65 3f e5 8c 8c 3f d1 e2 bd 3f
       0.48221007 0.8954576 1.0980498 1.4834844
000270 c0 35 82 3f 86 b9 96 3f 4e fd 90 3f 1d fc 8a 3f
       1.0172653 1.1775367 1.1327302 1.0858189
000280 b5 c0 81 3f b1 75 89 3f ac a3 96 3f d4 a0 7e 3f
       1.0136935 1.0739042 1.1768699 0.99464154
000290 dc b6 88 3f ad ca 95 3f 2a 2e 0d 40 ea 29 ad 3f
       1.0680804 1.1702477 2.2059426 1.3528416
0002a0 03 01 77 3f 9d 38 d4 3f 21 64 bb 3f 85 4d 86 3f
       0.9648592 1.6579777 1.4639932 1.0492407
0002b0 79 75 87 3f 5a 25 a0 3f b4 b3 d8 3f e6 2b 72 3f
       1.0582725 1.2511399 1.6929841 0.94598234
0002c0 ea d9 73 3f da 44 81 3f e7 30 ac 3f 23 f4 87 3f
       0.95254385 1.0099137 1.3452424 1.062138
0002d0 39 64 8a 3f 71 75 d7 3f 6d 43 7f 3f f1 0b 7d 3f
       1.0811836 1.6832715 0.9971226 0.98846346
0002e0 89 8f 5f 3f 03 13 96 3f 07 85 a3 3f 45 1a 81 3f
       0.8732839 1.1724552 1.2774972 1.0086142
0002f0 c5 b2 73 3f f5 83 aa 3f d8 05 b5 3f cd de a6 3f
       0.95194656 1.332152 1.4142408 1.3036743
000300 e2 25 a4 3f a3 d7 82 3f 6a 17 86 3f 89 bf 83 3f
       1.2824061 1.0222057 1.0475895 1.0292827
000310 06 91 80 3f ab af 7c 3f 83 ff 88 3f ae 29 7b 3f
       1.0044258 0.9870555 1.0702976 0.98110473
000320 29 b1 6e 3f 79 1b 80 3f 0b e2 5e 3f 07 ca 33 3f
       0.93239075 1.0008384 0.87063664 0.70230144
000330 a6 27 92 3f 03 43 80 3f d7 0e 01 40 4d c8 5e 3f
       1.141835 1.002045 2.0165308 0.87024385
000340 ae 37 92 3f 21 00 a8 3f 34 ca 82 3f a1 38 aa 3f
       1.1423242 1.3125039 1.0217957 1.3298532
000350 a5 36 91 3f cc 1e 82 3f 8d bc 66 3f 76 a6 9a 3f
       1.1344801 1.0165648 0.90131456 1.208205
000360 e6 44 5b 3f 48 1b b2 3f 3a 81 82 3f 0e d8 b9 3f
       0.85652006 1.3914576 1.0195687 1.451906
000370 4f a6 86 3f dc 6c 98 3f 09 9f b0 3f 1a 87 80 3f
       1.0519503 1.1908221 1.3798534 1.004123
000380 21 ea 8c 3f 01 d9 8d 3f 5c bb 82 3f 75 6c 80 3f
       1.100895 1.1081849 1.0213428 1.0033098
000390 5b e0 8f 3f 72 d2 8a 3f 08 98 82 3f b8 0b 7d 3f
       1.1240343 1.0845473 1.0202646 0.98846006
0003a0 ed e4 8b 3f d6 43 7e 3f 9f c9 a6 3f db eb 7b 3f
       1.0929238 0.9932226 1.303028 0.9840676
0003b0 1e c8 9c 3f cd f8 9c 3f 13 41 84 3f df 7d 82 3f
       1.2248571 1.2263428 1.0332359 1.0194663
0003c0 6b 97 b1 3f 95 27 76 3f 5c 25 85 3f da 67 b5 3f
       1.3874334 0.9615415 1.0402026 1.4172318
0003d0 41 6e a5 3f ed 03 93 3f 45 2e 8b 3f 18 09 86 3f
       1.2924272 1.1485573 1.0873495 1.0471525
0003e0 e5 5d 98 3f c0 58 b4 3f a0 73 82 3f b8 a0 83 3f
       1.1903654 1.4089584 1.0191536 1.0283422
0003f0 eb e0 b2 3f dc 82 8c 3f 16 3f 64 3f 01 7c 7f 3f
       1.397489 1.0977435 0.8915876 0.9979859
