Zadanie3/srcV2/models/Explration_100_prob_01/critic_network.pth (torch, 509903 bytes, 11 tensors)

fc1.weight f4 [400, 8]
0	0x3ea784a4	0.32718384
1	0x3e94974c	0.2902168
2	0x3e94b129	0.29041412
3	0x3f197a82	0.5995256
4	0xbeb7c203	-0.35890207
5	0xbf38a27a	-0.7212292
6	0xbe4cd522	-0.20003179
7	0xbd098a09	-0.033578906
8	0xbdb9f7ff	-0.090805046
9	0xbead9640	-0.33903694
10	0xbf2918a6	-0.66053236
11	0x3dddf9f2	0.10838689
12	0xbf3387aa	-0.7012888
13	0xbdd2f2fa	-0.1030025
14	0x3ec578ae	0.38568634
15	0xbee9b5f1	-0.45646623
16	0x3ea96243	0.3308278
17	0x3f16b9c4	0.58877206
18	0x3eab71b9	0.334852
19	0x39e1326e	0.00042952917
20	0x3e132ed9	0.1437334
21	0x3d8a3bac	0.06749663
22	0xbf1213c6	-0.5706142
23	0xbf0f56a8	-0.559916
24	0xbef82b73	-0.4847065
25	0xbeaea049	-0.34106663
26	0xbf0cd4ea	-0.5501238
27	0x3e6476fd	0.22311015
28	0x3edf4f31	0.43615106
29	0xbe60b607	-0.21944438
30	0x3e77c337	0.24195562
31	0x3e17e19a	0.14832154
32	0xbea8d4ae	-0.32974762
33	0x3e07c686	0.13259324
34	0x3e588370	0.2114389
35	0x3f4f9058	0.81079626
36	0x3f405715	0.75132877
37	0xbf48f6b0	-0.78501415
38	0x3f22a3ab	0.6353099
39	0x3eb25835	0.34832922
40	0xbe3bc089	-0.18335165
41	0x3e3b9ebd	0.18322273
42	0xbd32e70b	-0.04367737
43	0xbe793377	-0.24336039
44	0x3ef62857	0.48077652
45	0x3e95a0c6	0.29224223
46	0x3f61d9d9	0.88223034
47	0x3eb94075	0.3618199
48	0xbe73bab0	-0.23801684
49	0x3d93dfd7	0.072204284
50	0x3dee500b	0.11636361
51	0x3e857a74	0.26069987
52	0x3f0ea223	0.5571615
53	0xbf82f3ef	-1.0230693
54	0x3ec7d12e	0.3902678
55	0xbbea3615	-0.0071475604
56	0xbe138a7a	-0.14408293
57	0xbe265441	-0.16243078
58	0x3c4d90de	0.012546746
59	0xbc061811	-0.008184449
60	0x3ce188a5	0.027530978
61	0xbe386928	-0.18008864
62	0x3ecc1659	0.398608
63	0x3ec81ce4	0.39084542
64	0xbdc81b6f	-0.097708575
65	0xbdb2a650	-0.08723128
66	0x3d74395c	0.059625015
67	0x3f101336	0.56279314
68	0x3f2ed74c	0.68297267
69	0x3eb70fcc	0.3575424
70	0xbe51087e	-0.20413396
71	0x3f101159	0.5627647
72	0xbe8ef77d	-0.27923194
73	0x3cfdb42f	0.030969707
74	0x3eb157dc	0.34637344
75	0x3f02265a	0.5083977
76	0x3f38333e	0.7195319
77	0xbf094001	-0.5361329
78	0x3f0d8337	0.5527834
79	0x3e978a0d	0.29597512
80	0x3f37eb52	0.71843445
81	0xbf622219	-0.8833328
82	0x3e7ec563	0.24879985
83	0xbe9bbf6a	-0.30419475
84	0xbd4d81c6	-0.05017259
85	0x3f1e545b	0.61847466
86	0x3d0cc044	0.034363046
87	0x3e1ab2b9	0.1510724
88	0x3eaedf13	0.34154567
89	0x3d300653	0.04297478
90	0xbf164cff	-0.58711237
91	0x3df107c7	0.117690615
92	0x3f0c92d1	0.54911524
93	0x3f0c16f8	0.5472255
94	0x3d6be5f4	0.057592347
95	0x3e02b6cd	0.12765045
96	0xbe31b1e4	-0.17353016
97	0xbd97e530	-0.07416761
98	0x3f22e41c	0.6362932
99	0x3ed9299d	0.4241456
100	0x3df76629	0.120800324
101	0xbf58af0d	-0.84642106
102	0x3e698353	0.22804002
103	0xbcdb46d4	-0.026767172
104	0xbe07bbd8	-0.1325525
105	0x3e2579c6	0.16159734
106	0xbe37a192	-0.17932728
107	0xbec83326	-0.39101523
108	0x3ef50939	0.478586
109	0x3e764988	0.24051487
110	0x3f7dae6c	0.9909427
111	0x3e8a745b	0.27041897
112	0xbf53ecca	-0.82783186
113	0xbe878889	-0.26471356
114	0xbf5ec680	-0.87021637
115	0xbdbcdaa9	-0.092213936
116	0x3f8b7526	1.0895126
117	0x3c368f93	0.011142629
118	0x3e9a7d53	0.3017374
119	0x3cad7fce	0.021179106
120	0xbe2b9d5e	-0.1675925
121	0x3d1fea52	0.039041825
122	0x3e0c1b22	0.13682225
123	0x3e19d2c9	0.15021814
124	0xbc9fa36a	-0.019487102
125	0xbe50db33	-0.20396118
126	0x3f6f2871	0.93421084
127	0xbda4b873	-0.080429934
128	0xbd828f83	-0.06375029
129	0x3e838a0c	0.2569126
130	0x3f1363fd	0.57574445
131	0xbd4ecd2b	-0.050488632
132	0x3e6594f3	0.22420101
133	0xbf8524c9	-1.0401851
134	0x3c656b7c	0.014002677
135	0x3eea0000	0.45703125
136	0xbd22aa74	-0.039713338
137	0x3e9c11b3	0.30482253
138	0x3e4251fc	0.18976587
139	0xbd069ed0	-0.0328663
140	0x3e0954a7	0.13411199
141	0x3eece985	0.4627191
142	0x3e9b72b4	0.3036095
143	0x3d4c75c6	0.049917005
144	0xbe0b97aa	-0.13632074
145	0x3d862dc1	0.065516956
146	0x3e8be49a	0.27322847
147	0xbc161fdb	-0.009162868
148	0x3f115be1	0.5678082
149	0xbece22e0	-0.40260983
150	0x3f04a8bd	0.51819974
151	0x3e11f44b	0.14253347
152	0x3d41a7d6	0.0472792
153	0xbe0412d6	-0.1289781
154	0x3d759fb6	0.059966765
155	0x3eb7a9ef	0.35871837
156	0xbf111d94	-0.5668576
157	0x3e2a6e00	0.16643524
158	0xbe0ff687	-0.14058886
159	0x3ecaf88b	0.39642748
160	0xbe493afd	-0.19651408
161	0x3ed09b25	0.40743366
162	0xbea33123	-0.31873426
163	0xbef51840	-0.47870064
164	0x3e61c7ac	0.22048825
165	0x3fc2327a	1.5171654
166	0xbda5dde9	-0.08098967
167	0xbf8e8c50	-1.113657
168	0x3e8af66b	0.27141127
169	0xbeba99e0	-0.36445522
170	0xbe04c30e	-0.12965032
171	0x3eba9c9b	0.36447605
172	0x3e270ab9	0.16312684
173	0xbcc57e97	-0.024108214
174	0x3f0f021b	0.5586259
175	0x3e2046fe	0.15652081
176	0xbcde1468	-0.02710934
177	0x3de1eb3b	0.11031195
178	0xbc70f9c0	-0.014707983
179	0x3de6a6c9	0.112622805
180	0x3f04a8ad	0.5181988
181	0xbefd8ffc	-0.49523914
182	0x3f04872f	0.51768774
183	0xbd666e3f	-0.056257483
184	0x3e9f4638	0.3110826
185	0x3d9d26bf	0.07673406
186	0xbec223d5	-0.37917963
187	0x3ed3b54a	0.4134925
188	0x3f3767e4	0.716429
189	0xbe82f0ee	-0.2557444
190	0x3f03e7ea	0.5152575
191	0xbd97ff9f	-0.07421803
192	0xbeb1c06f	-0.34717128
193	0xbf1c533e	-0.6106452
194	0xbe481361	-0.19538642
195	0xbf159b3d	-0.5844
196	0xbe9f74b8	-0.31143737
197	0x3dabaad7	0.083821945
198	0xbf436e8f	-0.76340574
199	0x3f054e24	0.5207236
200	0xbda6bef2	-0.08141889
201	0x3e5b9abd	0.21445747
202	0xbe7c6416	-0.24647555
203	0xbeae8089	-0.3408244
204	0x3f13334c	0.5750015
205	0x3e8c4e0d	0.27403298
206	0x3f81e96a	1.0149357
207	0x3ecdd55b	0.4020184
208	0x3e92175a	0.2853344
209	0xbe87d869	-0.26532295
210	0xbec3b02a	-0.3822034
211	0x3e28e3df	0.16493176
212	0xbf1a5757	-0.6028952
213	0x3d884853	0.0665442
214	0x3ea70da0	0.32627583
215	0x3ecedec4	0.40404332
216	0xbe91e78a	-0.28496963
217	0x3db9c0a4	0.090699464
218	0xbd9a83fa	-0.07544704
219	0x3d876930	0.0661186
220	0x3ed1aec8	0.4095366
221	0x3e3e7582	0.18599513
222	0x3e5debe5	0.21672018
223	0x3f1c8785	0.61144286
224	0x3ee2cb52	0.44295746
225	0x3d8ca420	0.06867242
226	0x3a8073f5	0.0009800183
227	0x3f79abe4	0.9752791
228	0x3ea0a4aa	0.3137563
229	0xba548629	-0.00081071496
230	0x3f5aa0ec	0.854018
231	0x3cacb96d	0.021084512
232	0xbef7ac7b	-0.4837378
233	0x3de2b576	0.11069767
234	0x3e2fe7a6	0.1717821
235	0x3cb846f5	0.022494772
236	0x3ecd8810	0.4014287
237	0xbf2db4d6	-0.6785406
238	0x3edbe64b	0.42949137
239	0x3e2e2732	0.1700714
240	0xbe769535	-0.24080355
241	0x3d6be51c	0.057591543
242	0xbe8ff69e	-0.2811784
243	0xbec525ff	-0.3850555
244	0x3f14df69	0.58153397
245	0x3c9d3fe6	0.019195508
246	0xbd6444e1	-0.05572975
247	0x3e3b15bf	0.18270014
248	0xbdc08c83	-0.094018005
249	0x3e02293b	0.1271104
250	0xbde2ef69	-0.1108082
251	0xbe8b8562	-0.272502
252	0x3f0af5f7	0.5428156
253	0x3e21909c	0.1577782
254	0x3f67bd11	0.9052287
255	0x3e5482e0	0.2075305

fc1.bias f4 [400]
0	0xbf1ae673	-0.6050789
1	0x3e0e7d75	0.13915046
2	0x3eeb1bb3	0.4591957
3	0xbe8166d6	-0.2527377
4	0xbd9a346d	-0.07529531
5	0x3ed8d98e	0.4235348
6	0x3e3017bd	0.17196555
7	0x3ebb5bec	0.36593568
8	0xbb89755a	-0.0041948976
9	0x3da571b0	0.08078325
10	0x3e7edd54	0.24889117
11	0xbb5bfb36	-0.0033566481
12	0x3ef7f26a	0.48427135
13	0x3ef96cc1	0.48715785
14	0xbda0989f	-0.0784161
15	0x3eb0cd54	0.34531653
16	0x3dde2d8e	0.108485326
17	0x3d97628f	0.073918454
18	0x3e60e263	0.2196136
19	0x3e964c67	0.29355165
20	0x3e3a66c5	0.18203266
21	0x3f2adcc8	0.66743135
22	0x3e85707e	0.26062387
23	0x3f1ae6f4	0.60508657
24	0xbe0c87cb	-0.13723676
25	0x3ef6eae4	0.48226082
26	0x3e80ee04	0.25181592
27	0x3e28d976	0.16489205
28	0x3f2c7978	0.67372847
29	0x3da4f475	0.08054439
30	0x3e4a6515	0.19765122
31	0x3ee75f0e	0.45189708
32	0x3effc3cd	0.49954072
33	0xbd2c9770	-0.04213661
34	0x3deb6adf	0.114949934
35	0x3e30efde	0.17279002
36	0x3eac23e0	0.3362112
37	0x3ef033ff	0.4691467
38	0x3e0adccd	0.13560791
39	0xbde959bb	-0.11394068
40	0x3eb677f1	0.35638383
41	0x3ed40e64	0.4141723
42	0x3e59fa36	0.21286854
43	0x3dba8db4	0.09109059
44	0x3e852e15	0.2601172
45	0x3ba1c365	0.004936623
46	0x3e76e56d	0.24110956
47	0x3df02b28	0.117269814
48	0x3e90bfc7	0.28271315
49	0x3e82c2fb	0.25539383
50	0x3f0c738b	0.54863805
51	0x3f12997e	0.5726546
52	0xbed1f888	-0.41009927
53	0x3e895a4e	0.2682671
54	0x3e46f864	0.19430691
55	0xbe3727db	-0.17886297
56	0xbed84dba	-0.422468
57	0xbe057091	-0.13031222
58	0x3f09cf0f	0.5383157
59	0xbf0295c1	-0.51009756
60	0xbecbcce5	-0.3980476
61	0x3f044a83	0.51676196
62	0x3ea3b707	0.31975576
63	0x3e2f992d	0.17148276
64	0x3e38a8ad	0.18033095
65	0xbedd80ba	-0.43262273
66	0x3e745829	0.23861755
67	0xbe03d8b5	-0.12875636
68	0x3ef83a94	0.48482192
69	0x3edebada	0.4350193
70	0x3e21ca40	0.15799809
71	0x3ee54f96	0.44787282
72	0xbe6f1308	-0.23347104
73	0x3f26df4a	0.6518446
74	0x3e86edd0	0.26353312
75	0x3dd87807	0.105697684
76	0x3e9942c5	0.29933754
77	0xbe819e66	-0.2531616
78	0x3ef14856	0.471255
79	0x3e8920a8	0.26782727
80	0x3e80662f	0.2507796
81	0x3f08c9c3	0.53432864
82	0x3ef53997	0.478955
83	0x3f2feed6	0.6872381
84	0x3e3439f8	0.17600238
85	0x3d66df04	0.056365028
86	0x3e925963	0.28583822
87	0x3e49c392	0.1970351
88	0xbed35799	-0.4127777
89	0x3ebf2eaa	0.3734029
90	0x3ee2049c	0.44144142
91	0xbeb03f4e	-0.34423298
92	0x3ef8ac1e	0.48568815
93	0x3e943977	0.28950092
94	0xbcd91822	-0.026500765
95	0x3e0e2992	0.13883045
96	0x3ee0dfdf	0.439208
97	0xbe3ef0fc	-0.18646616
98	0x3d21c2b5	0.039492328
99	0x3edf1241	0.43568614
100	0x3eecb14c	0.46229017
101	0x3f01a209	0.5063787
102	0x3e9fd4d9	0.31217077
103	0x3d8b3e79	0.06799025
104	0xbe93f739	-0.28899553
105	0x3ecdf8ae	0.4022879
106	0x3e4b3380	0.19843864
107	0x3e228585	0.15871246
108	0x3e2719e0	0.16318464
109	0xbe2de08c	-0.16980189
110	0x3f092122	0.5356618
111	0x3ebf5d70	0.37375975
112	0x3e0fa46c	0.14027566
113	0x3ec2568e	0.3795666
114	0x3ea5cc83	0.32382593
115	0xbd5ce900	-0.053933144
116	0x3e6d5c10	0.2317965
117	0xbedd657b	-0.43241486
118	0x3e6be72f	0.23037408
119	0x3d862199	0.06549377
120	0x3ef7e56d	0.48417225
121	0x3ee830a8	0.45349622
122	0xbef06ee4	-0.46959603
123	0xbf333695	-0.7000516
124	0xbd18bd23	-0.03728975
125	0xbed127da	-0.40850717
126	0x3dcbf75e	0.09959291
127	0x3ee1f358	0.4413097
128	0x3ea71413	0.32632503
129	0x3eb0a9e2	0.3450461
130	0x3d040809	0.032234225
131	0x3d8bb9c4	0.06822541
132	0x3ea8b3c4	0.3294965
133	0x3ea25854	0.31708014
134	0xbdffb11a	-0.12484951
135	0x3e70daf8	0.2352103
136	0xbd40f149	-0.047105107
137	0x3ee05db5	0.43821493
138	0x3ed0f9c9	0.4081557
139	0xbe81b559	-0.2533367
140	0x3e2062b4	0.15662652
141	0x3e575be7	0.21031152
142	0x3efb75b5	0.4911324
143	0x3ea77e3d	0.327135
144	0x3d96b880	0.07359409
145	0x3dfb8388	0.12280947
146	0x3eebc9b6	0.4605233
147	0xbee282c8	-0.44240403
148	0x3ee51dd2	0.44749314
149	0xbd00affc	-0.03141783
150	0xbcbb346d	-0.022852147
151	0x3ee3dd4b	0.4450477
152	0x3e2e1277	0.16999231
153	0x3e77af30	0.24187922
154	0x3e6a141a	0.2285923
155	0x3ea32e09	0.3187106
156	0xbe1f0740	-0.1553011
157	0x3ed6b10f	0.4193196
158	0xbd724663	-0.059149157
159	0x3f13e7b4	0.57775426
160	0x3f475881	0.7786942
161	0x3e8624a9	0.26199844
162	0x3de553aa	0.11197598
163	0x3de56a8f	0.11201965
164	0xbe507f2b	-0.2036101
165	0xbe67bdad	-0.2263095
166	0x3e242594	0.1602996
167	0x3f09ecaa	0.53876746
168	0xbe9d8b91	-0.30770543
169	0xbea67c44	-0.32516682
170	0xbec83a1f	-0.39106843
171	0xbd68000d	-0.056640673
172	0x3eaa82d7	0.33302948
173	0xbd09db98	-0.033656687
174	0xbebe2852	-0.37140137
175	0x3dff0a52	0.1245314
176	0xbe8a7550	-0.27042627
177	0x3ea48e3c	0.32139766
178	0xbe863273	-0.26210365
179	0x3f01fb76	0.50774324
180	0x3e5212c3	0.2051497
181	0x3ef85b2a	0.48507053
182	0x3f025e17	0.5092482
183	0x3eaea914	0.3411337
184	0x3e2e30d0	0.17010808
185	0x3e90b65f	0.28264138
186	0xbe2b2cff	-0.16716383
187	0x3ee867fe	0.4539184
188	0x3ecbe0a1	0.39819816
189	0xbead0f66	-0.3380081
190	0x3eece7e8	0.4627068
191	0xbedcf834	-0.43158114
192	0x3e3656dd	0.17806573
193	0x3ec1470c	0.37749517
194	0x3daae4c6	0.08344416
195	0xbe939d2d	-0.28830853
196	0x3e942e5c	0.2894162
197	0x3efed790	0.49773836
198	0x3dfce74a	0.123488024
199	0xbe5222dd	-0.20521112
200	0x3ec00c19	0.3750923
201	0xbf188179	-0.5957256
202	0xbeaf7f22	-0.34276682
203	0x3d7323f7	0.05936047
204	0x3ee32636	0.4436509
205	0x3e0f7537	0.14009558
206	0xbe021fc7	-0.12707435
207	0x3ef2883b	0.4736956
208	0xbe7afde3	-0.24510913
209	0xbef4f150	-0.47840357
210	0x3e6e4c55	0.23271306
211	0x3e4a206a	0.19738927
212	0x3ea6a810	0.32550097
213	0xbd9774ac	-0.073953
214	0x3f02fa19	0.5116287
215	0x3ea4664d	0.321093
216	0xbe12503f	-0.14288424
217	0x3efcf4d7	0.49405548
218	0x3e129bc5	0.14317234
219	0x3eb8d598	0.3610046
220	0x3e990fa1	0.29894736
221	0xbef67301	-0.48134616
222	0x3e6b9822	0.23007253
223	0x3dd66e37	0.104702406
224	0x3ee11389	0.43960217
225	0x3ebbb24d	0.3665947
226	0xbf01c4b7	-0.5069079
227	0x3e082803	0.13296513
228	0xbd713c68	-0.0588955
229	0x3f0689bd	0.5255392
230	0x3d7e05a6	0.062017106
231	0xbeb630ae	-0.35584015
232	0x3ed2331d	0.4105462
233	0x3e3a2bb6	0.18180737
234	0xbec05bf7	-0.37570164
235	0x3e98c8dc	0.29840744
236	0x3e8c0d78	0.27354026
237	0x3eb2cb6a	0.34920818
238	0x3e03b562	0.12862161
239	0x3ea76449	0.326937
240	0xbe1a32fc	-0.15058511
241	0x3d683b19	0.056696985
242	0xbec772d6	-0.389548
243	0x3e786a3e	0.24259278
244	0x3c38e8f7	0.011286012
245	0x3e0475eb	0.12935607
246	0x3cf0f94b	0.029415747
247	0xbe52f184	-0.20599943
248	0x3f240721	0.6407338
249	0x3f59982c	0.8499782
250	0x3e945574	0.28971446
251	0x3dee2a0c	0.116291136
252	0x3eaab5ca	0.3334182
253	0x3ed14d3a	0.40879232
254	0x3ed4e9c4	0.415846
255	0xbedcd3a8	-0.4313023

bn1.weight f4 [400]
0	0x40060e5c	2.0946264
1	0x3f6e1f7b	0.93016785
2	0x3fa0aa0c	1.2551894
3	0x3f515e36	0.8178438
4	0x3f7df2eb	0.9919879
5	0x3e9a4437	0.3013017
6	0x3f1f23a1	0.6216374
7	0x3ef1af74	0.47204173
8	0x3f68ff14	0.9101422
9	0x3f43c52b	0.7647273
10	0x3fac2162	1.3447688
11	0x3f3f34fe	0.74690235
12	0x3f6ce4e8	0.92536783
13	0x3e859592	0.26090676
14	0x3fb28fcf	1.3950137
15	0x3f3c714b	0.7361037
16	0x3f30e4b4	0.69098973
17	0x3f1112a3	0.5666906
18	0x3f091ced	0.5355976
19	0x3f4e1cbd	0.805126
20	0x3fa59a56	1.2937725
21	0x3f7da352	0.9907733
22	0x3ee7b23f	0.45253178
23	0x3f0890f3	0.53346175
24	0x3fbfc5a4	1.498219
25	0x3e915c94	0.28390944
26	0x3f256f71	0.6462317
27	0x3f0198ac	0.50623584
28	0x3faccbe5	1.3499724
29	0x3f1d5753	0.6146137
30	0x3f03f72e	0.5154904
31	0x3ebfd389	0.37466076
32	0x3e605e36	0.21910939
33	0x3f996a4d	1.1985565
34	0x3fd2411a	1.6426117
35	0x3f1aac35	0.6041902
36	0x3f4e523d	0.80594236
37	0x3eaa58f1	0.33270982
38	0x3f80a2c1	1.0049669
39	0x3f371a5a	0.71524584
40	0x3f42b09b	0.7605073
41	0x3f8845aa	1.064626
42	0x3f10ee5c	0.5661371
43	0x3f63b2d1	0.8894473
44	0x3f90e43c	1.1319652
45	0x3fe53995	1.7908198
46	0x3f1dd0c3	0.6164667
47	0x3fbfce1d	1.4984776
48	0x3f1ebeff	0.62010187
49	0x3f6a8bf8	0.91619825
50	0x3fa709bf	1.3049849
51	0x3fa58b32	1.2933104
52	0x3fdd01f1	1.7266217
53	0x3f648879	0.8927074
54	0x3f01b830	0.5067167
55	0x3fe65354	1.799418
56	0x3ff3b9d8	1.904109
57	0x3f60235f	0.8755397
58	0x3f458b20	0.7716541
59	0x3faafa6c	1.3357673
60	0x3ff52f2d	1.9155022
61	0x3fcde23e	1.6084669
62	0x3eb25732	0.3483215
63	0x3f1bc04f	0.60840315
64	0x3f772853	0.96545905
65	0x3fe114ea	1.7584507
66	0x3f0ea2ea	0.5571734
67	0x3f777756	0.9666647
68	0x3e4150f5	0.18878539
69	0x3f7be288	0.98392534
70	0x3f65c5ce	0.8975495
71	0x3fa7cf08	1.3110056
72	0x3f4c6605	0.7984317
73	0x3f9d440e	1.2286394
74	0x3ed2eb3e	0.411951
75	0x3f9140c3	1.1347889
76	0x3f4a80ce	0.7910279
77	0x3f8594de	1.0436056
78	0x3e969818	0.29412913
79	0x3f8c9daa	1.0985615
80	0x3f0801cd	0.5312775
81	0x3fd5de53	1.6708473
82	0x3ea166da	0.31523782
83	0x3fdadb82	1.7098238
84	0x3f4910af	0.7854108
85	0x3f8925cd	1.0714661
86	0x3ec4d4c9	0.38443592
87	0x3f8567e1	1.0422326
88	0x3fbcb37a	1.4742272
89	0x3eb6f9eb	0.35737547
90	0x3f3f5d18	0.74751425
91	0x3fd283f5	1.644652
92	0x3f8d2f58	1.1030073
93	0x3f1eb2a0	0.6199131
94	0x3f5dd620	0.86654854
95	0x3f9e6f2b	1.2377676
96	0x3e9cacad	0.3060049
97	0x3f9916b9	1.196006
98	0x3f4a99f5	0.7914117
99	0x3efb75e0	0.4911337
100	0x3e9a7184	0.3016473
101	0x3fc1c54b	1.5138334
102	0x3ef174b0	0.47159338
103	0x3ef70740	0.4824772
104	0x3f977107	1.1831368
105	0x3ea2c653	0.31791934
106	0x3fbfcc1f	1.4984168
107	0x3f920569	1.1407901
108	0x3fdbe553	1.7179359
109	0x3fc4ea2a	1.5383961
110	0x3e8cd831	0.2750869
111	0x3f283460	0.6570492
112	0x3f0c91f7	0.54910225
113	0x3f965362	1.1744196
114	0x3ec3fdf2	0.38279682
115	0x3f1812b5	0.59403545
116	0x3f30beef	0.6904134
117	0x3fc9e0fc	1.5771785
118	0x3f534f03	0.8254244
119	0x3f79c679	0.9756847
120	0x3e2f13fa	0.17097464
121	0x3e960f6f	0.2930865
122	0x4002457e	2.0354915
123	0x4028ce28	2.6375828
124	0x3f9264bc	1.1436992
125	0x3fead3b3	1.8345855
126	0x3f32c9f0	0.6983938
127	0x3f706933	0.9391052
128	0x3f719e7a	0.9438244
129	0x3ed7fdf9	0.42185953
130	0x3f5f42e6	0.87211454
131	0x3f2c71e7	0.673613
132	0x3eac0774	0.33599436
133	0x3f6cbbcc	0.92474055
134	0x3f2d3107	0.67652935
135	0x3f505ca9	0.8139139
136	0x3f1f1776	0.62145174
137	0x3e8ab2b8	0.27089477
138	0x3e8e505f	0.27795693
139	0x3f87f899	1.0622741
140	0x3f1b4a68	0.6066041
141	0x3f0195b6	0.50619066
142	0x3ec585df	0.38578698
143	0x3f60d5c7	0.878262
144	0x3f27e064	0.6557677
145	0x3f5458a8	0.8294778
146	0x3eada50d	0.33914986
147	0x3fc6fabb	1.5545267
148	0x3ea6699b	0.32502446
149	0x3fbe6713	1.4875206
150	0x3f3c121a	0.7346512
151	0x3f3dc2a5	0.7412513
152	0x3f565bcd	0.83733827
153	0x3ec89635	0.391771
154	0x3f881bfd	1.0633541
155	0x3f3becca	0.73408186
156	0x3fc10666	1.5080078
157	0x3f99f3a4	1.2027478
158	0x3f3fb81e	0.74890316
159	0x3f6dc157	0.9287314
160	0x3f56edd1	0.8395663
161	0x3f84a6c0	1.0363388
162	0x3eeefeb2	0.46678692
163	0x3ee99465	0.4562103
164	0x3f788664	0.97080064
165	0x3fcffdaf	1.6249293
166	0x3f3b57c2	0.7318078
167	0x3e8ed069	0.2789338
168	0x400239d8	2.0347805
169	0x3f9a546e	1.2057016
170	0x401b4475	2.4260533
171	0x3f99033a	1.195411
172	0x3ea98b12	0.33113915
173	0x3f8d97ee	1.106199
174	0x3fdcf6e7	1.7262849
175	0x3f11fb6e	0.57024276
176	0x3f52cb4d	0.8234146
177	0x3f7e20e4	0.9926894
178	0x3f977e1d	1.1835362
179	0x3e8c750b	0.27433047
180	0x3efa97e3	0.48944005
181	0x3eaaf9ce	0.3339371
182	0x3e34c33b	0.176526
183	0x3f429fd8	0.7602515
184	0x3f5aa293	0.8540432
185	0x3f575a18	0.8412185
186	0x3f670178	0.90236616
187	0x3f7f892d	0.9981869
188	0x3e9bf329	0.30458954
189	0x3fe352b4	1.7759614
190	0x3e590aff	0.21195601
191	0x3fb439f9	1.4080192
192	0x3f40acce	0.7526368
193	0x3ed61089	0.4180949
194	0x3f6f6cb6	0.93525255
195	0x3f9fd48e	1.2486742
196	0x3f96affb	1.1772455
197	0x3e9e20c6	0.3088438
198	0x3fe0911b	1.7544283
199	0x3f659b1c	0.89689803
200	0x3f4ec5f0	0.8077078
201	0x401bc148	2.433672
202	0x400f745f	2.2414777
203	0x3ef64e62	0.48106676
204	0x3e9a9830	0.30194235
205	0x3ec90c27	0.39267084
206	0x3f785d18	0.9701705
207	0x3e4f602e	0.20251533
208	0x3f8eff4c	1.117166
209	0x3fb6cb5c	1.428081
210	0x3f90d910	1.1316242
211	0x3ef2d23b	0.47426018
212	0x3f80417c	1.0019984
213	0x3f12bb63	0.5731718
214	0x3f65c7ae	0.8975781
215	0x3f02c2cb	0.5107848
216	0x3f68157f	0.906578
217	0x3e4ab77c	0.19796556
218	0x3efc1aa2	0.4923907
219	0x3ecc30c8	0.39880967
220	0x3f8ecca7	1.1156205
221	0x4012560f	2.2865026
222	0x3f2251a5	0.6340583
223	0x3fcf1e39	1.6181098
224	0x3f3b1933	0.73085326
225	0x3ec332d5	0.3812472
226	0x3ff2a253	1.8955787
227	0x3f14cd04	0.5812533
228	0x3f59972e	0.84996307
229	0x3e9854b9	0.29752138
230	0x3f3a13ee	0.7268666
231	0x3fa72f4e	1.3061311
232	0x3eb1ba2a	0.34712344
233	0x3f2f6aa1	0.6852208
234	0x3fb5f620	1.4215736
235	0x3ecb6f2d	0.39733258
236	0x3f31e7de	0.69494426
237	0x3eb108be	0.34576982
238	0x3f3d02fe	0.7383269
239	0x3eb715f6	0.35758942
240	0x3f3d8cc1	0.740429
241	0x3ef1b222	0.47206217
242	0x3fd26a14	1.6438622
243	0x3f54f2a0	0.83182716
244	0x3f2a0543	0.6641428
245	0x3f2d718d	0.6775139
246	0x3f245419	0.6419082
247	0x3fc06187	1.5029763
248	0x3faa9c94	1.3329034
249	0x3fa87582	1.316086
250	0x3f000e53	0.5002186
251	0x3f1194d9	0.5686775
252	0x3ed310fb	0.41223893
253	0x3ec24203	0.37940988
254	0x3eb0d5a6	0.34538
255	0x3fd323cf	1.6495303

bn1.bias f4 [400]
0	0x3da5ec13	0.08101668
1	0xbf0832ab	-0.53202313
2	0x3dca697b	0.098834
3	0xbec6467a	-0.38725644
4	0xbec2293f	-0.37922093
5	0xbf0e9b5b	-0.55705804
6	0xbec69a98	-0.3878982
7	0xbf0f2a07	-0.55923504
8	0xbeca1b0e	-0.39473766
9	0xbee645f8	-0.44975257
10	0xbe07476f	-0.13210844
11	0xbf16c282	-0.58890545
12	0xbe585446	-0.21125898
13	0xbf13957a	-0.5764996
14	0xbd478c5a	-0.048717834
15	0xbf20e022	-0.62842
16	0xbec76fde	-0.38952535
17	0xbed69f9b	-0.41918644
18	0xbf064da0	-0.52462196
19	0xbf1c724f	-0.6111192
20	0xbd613d33	-0.054990005
21	0xbe8c4533	-0.27396545
22	0xbf007f2b	-0.5019404
23	0xbf06c707	-0.5264744
24	0xbc809030	-0.015693754
25	0xbf31dbb4	-0.69475865
26	0xbf07ee0f	-0.53097624
27	0xbf22ce92	-0.6359645
28	0xbdfc732b	-0.12326654
29	0xbf1ac002	-0.6044923
30	0x3cf67c4b	0.030088564
31	0xbf268183	-0.6504137
32	0xbf5823a2	-0.8442937
33	0x3e8084a4	0.25101197
34	0x3da79afa	0.08183856
35	0xbe87b437	-0.2650468
36	0xbeeb62fd	-0.4597396
37	0xbf3c91b9	-0.73659855
38	0xbed79f6c	-0.42113817
39	0xbeed9d9d	-0.46409312
40	0xbedaa6eb	-0.42705473
41	0xbeb0a7d0	-0.3450303
42	0xbed032fb	-0.40663895
43	0xbeb724a0	-0.3577013
44	0xbddcd4ee	-0.107828006
45	0xbbbdb56c	-0.0057894494
46	0xbedad368	-0.42739415
47	0x3dbb4cc8	0.09145504
48	0xbf1ad305	-0.6047824
49	0xbe7c8a47	-0.24662124
50	0xbee0f623	-0.43937787
51	0xbebac858	-0.36480975
52	0xbe9d46af	-0.3071799
53	0xbee3f003	-0.44519052
54	0xbf3a661d	-0.7281206
55	0x3ea8cb85	0.32967773
56	0x3dd2f1e3	0.103000425
57	0xbf016717	-0.5054793
58	0xbe61bfc2	-0.22045806
59	0x3d4fc31d	0.050723184
60	0x3ec0e102	0.37671667
61	0xbc8dc042	-0.01730359
62	0xbf20adb1	-0.6276503
63	0xbead25b4	-0.33817828
64	0xbee1db4b	-0.4411262
65	0xbda2b33c	-0.079443425
66	0xbf02b649	-0.51059395
67	0xbe34ffe2	-0.17675737
68	0xbf3eb30d	-0.7449196
69	0xbdbd39f4	-0.09239569
70	0xbee09608	-0.43864465
71	0xbece2202	-0.4026032
72	0xbecee50f	-0.40409133
73	0xbe8244f4	-0.25443232
74	0xbf2c7780	-0.6736984
75	0xbcd18a95	-0.025578776
76	0xbf04e1b1	-0.5190688
77	0xbee0ce4a	-0.43907386
78	0xbf28773f	-0.65806955
79	0xbf09a51f	-0.5376758
80	0xbf08b91a	-0.5340744
81	0xbd640fd1	-0.055679146
82	0xbf37202d	-0.7153347
83	0x3cba8469	0.022768216
84	0xbe58fc49	-0.21189989
85	0x3d6828f1	0.05667967
86	0xbf2f926a	-0.68582785
87	0xbe211f98	-0.15734708
88	0xbe8b8f49	-0.27257755
89	0xbf2c9169	-0.6740938
90	0xbebeed09	-0.37290218
91	0x3e6a163f	0.22860049
92	0xbeca169a	-0.3947037
93	0xbf33742f	-0.7009916
94	0xbeef38c5	-0.46723
95	0x3d9cecb6	0.076623365
96	0xbf1df2ec	-0.61698794
97	0x3c312921	0.010813029
98	0xbe8dabec	-0.27670228
99	0xbf14afa7	-0.58080524
100	0xbf265e13	-0.64987296
101	0xbc61790d	-0.013761771
102	0xbf232526	-0.6372856
103	0xbeec3cb3	-0.4614006
104	0xbebc4852	-0.36773926
105	0xbf140011	-0.578126
106	0x3c9e577c	0.019328825
107	0xbe5e5125	-0.21710642
108	0x3de01783	0.109419845
109	0x3d9d3177	0.0767545
110	0xbf18999c	-0.5960939
111	0xbf26b1e8	-0.65115213
112	0xbefdb4a5	-0.49551883
113	0xbe8e5109	-0.277962
114	0xbf253bf8	-0.6454463
115	0xbecdbdaf	-0.4018378
116	0xbeb3cdf7	-0.35118076
117	0x3db51893	0.08842578
118	0xbf08ace2	-0.533888
119	0xbe46c49f	-0.19410942
120	0xbf3d61a4	-0.7397711
121	0xbf0bdfb6	-0.5463823
122	0x3e3d5b76	0.18491921
123	0x3d712b59	0.05887923
124	0xbe3c6dcb	-0.18401258
125	0x3eb52629	0.35380676
126	0xbe8ee904	-0.27912152
127	0xbe91c421	-0.28469947
128	0xbefd7787	-0.49505255
129	0xbef3f4ad	-0.4764761
130	0xbdc67ed5	-0.0969216
131	0xbead5a49	-0.33857945
132	0xbf285206	-0.6575016
133	0xbe37c363	-0.17945628
134	0xbf369ccc	-0.71333003
135	0xbed9b719	-0.42522505
136	0xbed51987	-0.41621038
137	0xbf163fd5	-0.5869115
138	0xbf0ab27d	-0.541786
139	0xbea67df9	-0.32517985
140	0xbf275b9c	-0.6537416
141	0xbece7165	-0.40320888
142	0xbf322620	-0.69589424
143	0xbe2659c9	-0.16245188
144	0xbeec3a9d	-0.46138468
145	0xbe8c2b01	-0.2737656
146	0xbf1e68ec	-0.6187885
147	0x3dadd4a7	0.08487826
148	0xbf4b6456	-0.79449975
149	0x3e3cf518	0.18452871
150	0xbefc91e9	-0.4933007
151	0xbe83b417	-0.25723335
152	0x3e9695d5	0.29411188
153	0xbf3ebd19	-0.7450729
154	0xbdb5e5d8	-0.0888173
155	0xbf3b39da	-0.7313515
156	0xbe9858bb	-0.29755196
157	0x3d07927e	0.03309869
158	0xbf08fe30	-0.5351286
159	0xbeb7d2db	-0.35903057
160	0xbe594271	-0.21216752
161	0xbe999abd	-0.30000868
162	0xbeb25a33	-0.34834442
163	0xbf3ae1fa	-0.7300106
164	0xbdc5a783	-0.09651091
165	0x3eac7548	0.33683228
166	0xbf1f7be1	-0.622984
167	0xbf256e5d	-0.64621526
168	0x3e63424e	0.22193262
169	0xbeb61960	-0.35566235
170	0xbd15c59f	-0.03656542
171	0xbe829cbc	-0.25510204
172	0xbf1bc0b6	-0.6084093
173	0x3e7d16d3	0.24715738
174	0x3e49493a	0.1965684
175	0xbea0c9f4	-0.31404078
176	0xbddb616a	-0.1071194
177	0xbe910c2e	-0.28329605
178	0xbe8421f2	-0.25807148
179	0xbf2a8dfd	-0.66622907
180	0xbebb36df	-0.365653
181	0xbf2e99a4	-0.68203187
182	0xbf1dd15c	-0.6164758
183	0xbf08c798	-0.53429556
184	0xbf0e4a23	-0.55581874
185	0xbf107f08	-0.56443834
186	0xbe06b700	-0.13155746
187	0xbe556d56	-0.2084249
188	0xbf1c6ec9	-0.61106545
189	0x3e7d7a63	0.24753718
190	0xbf53b8f1	-0.82704073
191	0x3e0f516b	0.13995902
192	0xbf08df71	-0.53465945
193	0xbef47ad4	-0.4774996
194	0xbe44414a	-0.19165531
195	0xbeadcf47	-0.33947203
196	0xbeab4921	-0.3345423
197	0xbf2d1322	-0.6760732
198	0x3d91e652	0.07124008
199	0xbe99a64a	-0.3000968
200	0xbe53c6a2	-0.20681241
201	0x3e097b7b	0.1342601
202	0x3e039952	0.12851456
203	0xbf0145f4	-0.50497365
204	0xbf105d15	-0.5639203
205	0xbef98db6	-0.4874093
206	0xbe5583b5	-0.20851023
207	0xbf5fd37a	-0.8743206
208	0xbecdbd29	-0.4018338
209	0x3d43537e	0.047687046
210	0xbe60666f	-0.21914075
211	0xbeeaa285	-0.45827118
212	0xbef40ef3	-0.47667655
213	0xbf248a3c	-0.6427343
214	0xbe5ca90d	-0.21548863
215	0xbeb1380c	-0.34613073
216	0xbebf7717	-0.37395546
217	0xbf3b56e6	-0.7317947
218	0xbea67edd	-0.32518664
219	0xbf2ea9af	-0.68227667
220	0xbf0397c6	-0.5140346
221	0x3e643659	0.22286357
222	0xbf240e6a	-0.64084494
223	0xbe8e3f22	-0.27782542
224	0xbeea6311	-0.45778707
225	0xbf2f8c6b	-0.68573636
226	0x3e8eed5e	0.27915472
227	0xbef7e365	-0.48415676
228	0xbf206d48	-0.6266675
229	0xbf1409ab	-0.5782725
230	0xbefe8de1	-0.4971762
231	0x3e48937d	0.19587512
232	0xbf28de0a	-0.65963805
233	0xbf08a397	-0.5337462
234	0xbe908581	-0.28226855
235	0xbef79b76	-0.48360795
236	0xbf020fd2	-0.5080539
237	0xbf154f25	-0.5832389
238	0xbea87eeb	-0.3290933
239	0xbf11725a	-0.5681511
240	0xbeb9a072	-0.36255223
241	0xbe8eaba6	-0.27865332
242	0x3dc0db50	0.094168305
243	0xbeefa435	-0.46804968
244	0xbf07d538	-0.5305972
245	0xbedbd3cc	-0.42935026
246	0xbed2f7ad	-0.41204587
247	0x3da27575	0.079325594
248	0xbe7fd776	-0.24984536
249	0xbd92eb51	-0.07173789
250	0xbf0c2356	-0.5474142
251	0xbf1a802e	-0.60351837
252	0xbf310268	-0.69144297
253	0xbf3349af	-0.7003431
254	0xbf1eefb7	-0.62084526
255	0xbe413342	-0.1886721

fc2.weight f4 [300, 400]
0	0xbe39d1e0	-0.18146467
1	0xbf4bb07f	-0.79566187
2	0xbe509b80	-0.20371819
3	0x3ec880f8	0.39160895
4	0xbed8db9d	-0.42355052
5	0xbe5508be	-0.20804116
6	0xbe214b1f	-0.15751313
7	0xbdc10e01	-0.09426499
8	0xbe849873	-0.2589756
9	0xbee998a1	-0.4562426
10	0x3cffdcc8	0.031233206
11	0x3e8524dd	0.26004687
12	0x3c54490d	0.01295687
13	0xbdda02ae	-0.10645042
14	0xbe5a2579	-0.21303357
15	0xbf40c610	-0.7530222
16	0xbeba5d0b	-0.3639911
17	0xbec867be	-0.3914165
18	0xbe88c0eb	-0.26709685
19	0xbec4701f	-0.38366792
20	0xbee4d229	-0.4469159
21	0xbdafb044	-0.08578542
22	0xbe57e9a9	-0.21085228
23	0x3e64d254	0.22345859
24	0xbf5d78ab	-0.8651225
25	0xbe0d7e1f	-0.13817643
26	0xbea08406	-0.31350726
27	0xbeba9dfa	-0.36448652
28	0x3d9bb23f	0.07602357
29	0xbe8ebe73	-0.27879676
30	0xbe66a145	-0.22522457
31	0xbc639bda	-0.013892138
32	0x3ccff84b	0.02538695
33	0xbf04a6fe	-0.5181731
34	0x3d75bbb7	0.059993472
35	0xbe9ef8c3	-0.31049165
36	0xbea38c02	-0.31942755
37	0xbe628e39	-0.22124566
38	0x3e3bcff2	0.18341044
39	0xbebcc020	-0.3686533
40	0xbef28518	-0.47367167
41	0xbdad54d9	-0.08463449
42	0xbebb5022	-0.36584574
43	0xbf372200	-0.71536255
44	0xbf0368ed	-0.5133198
45	0x3e179ecb	0.14806668
46	0x3aeef826	0.0018231913
47	0x3e0e6ae2	0.1390796
48	0xbefcbd82	-0.49363333
49	0xbf17cce5	-0.5929702
50	0xbe4e2867	-0.201326
51	0xbe384582	-0.17995265
52	0xbe6a2974	-0.22867376
53	0xbef4b81c	-0.47796714
54	0x3eb055db	0.34440503
55	0x3ef385bc	0.4756297
56	0xbe3847eb	-0.17996185
57	0xbe4b8edd	-0.19878717
58	0x3cdf6bdf	0.027273117
59	0x3e685e7a	0.2269229
60	0x3e9d9f63	0.30785665
61	0x3db2d294	0.08731571
62	0xbe7132d3	-0.23554544
63	0xbed5ab99	-0.4173248
64	0xbc9d6483	-0.019212967
65	0xbd60b41a	-0.05485926
66	0xbf1e9529	-0.6194635
67	0x3e93ae91	0.2884412
68	0xbd6b1298	-0.05739078
69	0x3c701b50	0.014654949
70	0x3d3679e7	0.04454985
71	0xbe2bc33c	-0.16773695
72	0x3ebf70ae	0.37390655
73	0xbe11c54c	-0.14235419
74	0xbe80ee9e	-0.2518205
75	0xbea42f04	-0.3206712
76	0x3ee39c39	0.44455126
77	0xbf0c7375	-0.54863673
78	0x3cd4a59a	0.025957871
79	0xbf91dcc2	-1.1395495
80	0xbf398f91	-0.7248469
81	0x3e02fbe7	0.12791406
82	0x3e2f12ac	0.17096967
83	0xbe30f3ad	-0.17280455
84	0xbee80238	-0.45314193
85	0xbf0c66dd	-0.54844457
86	0xbc042070	-0.008064374
87	0xbf3255e3	-0.696623
88	0xbee6c8d3	-0.45075092
89	0xbddb26c0	-0.1070075
90	0xbbfa5f88	-0.0076407827
91	0x3f01564a	0.5052229
92	0x3d80ab6d	0.06282697
93	0xbe5834f9	-0.21113957
94	0xbde1c03c	-0.11022994
95	0xbf059e8e	-0.5219506
96	0xbee2ae5b	-0.44273648
97	0xbd4517f8	-0.04811856
98	0xbf1a1d32	-0.602008
99	0xbd5a6072	-0.053314634
100	0xbe920faf	-0.2852759
101	0xbd8208cf	-0.06349336
102	0xbf4b1162	-0.793234
103	0xbdac6a7d	-0.084187485
104	0xbe630cf3	-0.22172908
105	0xbd61de8e	-0.055143885
106	0xbe9d7bba	-0.30758458
107	0xbf4525f7	-0.77011055
108	0x3caeaac2	0.021321658
109	0x3e88ea75	0.26741377
110	0xbe56da41	-0.20981695
111	0x3d51d82c	0.05123155
112	0xbd209917	-0.039208498
113	0xbebc2629	-0.36747864
114	0xbf1c6b9a	-0.61101687
115	0xbe346ebe	-0.1762037
116	0xbed56c5e	-0.4168424
117	0xbe211186	-0.15729341
118	0xbefcb061	-0.49353316
119	0xbf18b92f	-0.5965757
120	0x3e3f4bee	0.18681309
121	0xbe073614	-0.13204223
122	0xbeb81a7b	-0.35957703
123	0xbeb87cb3	-0.36032638
124	0xbf47d2a3	-0.7805578
125	0x3e13c127	0.1442915
126	0xbed68490	-0.41898012
127	0x3e8cadf8	0.27476478
128	0xbebc17c8	-0.36736894
129	0x3e5d108d	0.21588345
130	0xbee7787b	-0.45209107
131	0x3df2af30	0.118498206
132	0x3c7cde43	0.015433851
133	0xbe39ff84	-0.18163878
134	0xbeff490a	-0.49860412
135	0xbbb8058d	-0.005615896
136	0xbe061681	-0.13094522
137	0x3e1bdf9a	0.15222016
138	0xbe1a9967	-0.15097581
139	0x3debec01	0.115196235
140	0xbe910fec	-0.2833246
141	0xbe35affb	-0.17742912
142	0xbe8c4fb6	-0.27404565
143	0xbe8e7d20	-0.27829838
144	0xbf055e59	-0.5209709
145	0xbeba1027	-0.36340448
146	0xbef72e1e	-0.48277372
147	0x3ba81b29	0.005130191
148	0x3da75609	0.08170707
149	0xbf20ee62	-0.62863743
150	0xbe8dfd99	-0.27732542
151	0xbe0a5566	-0.1350914
152	0xbefa383b	-0.48871025
153	0x3e3df3a1	0.18549968
154	0xbe19fe1d	-0.15038343
155	0xbe0a82bc	-0.13526434
156	0xbe981abb	-0.29707894
157	0xbea4774b	-0.32122263
158	0xbf0e5ee1	-0.55613524
159	0xbea9f045	-0.33191124
160	0xbde1b0a0	-0.11020017
161	0x3e8de95f	0.2771711
162	0xbe6f1097	-0.23346172
163	0xbd37274c	-0.04471521
164	0x3ec5b36c	0.3861345
165	0x3eb74080	0.35791397
166	0xbeacd426	-0.33755606
167	0x3d3ea692	0.046545573
168	0x3e9d203d	0.30688658
169	0x3ea0ea0c	0.31428564
170	0xbf92a4c7	-1.1456536
171	0x3e5383db	0.20655768
172	0xbe016921	-0.1263776
173	0xbe728e11	-0.23687007
174	0xbe4640ab	-0.19360606
175	0xbec676b6	-0.38762444
176	0xbf1a0def	-0.6017751
177	0xbe8cc00e	-0.27490276
178	0x3b4014ae	0.00293092
179	0xbdcbc907	-0.09950452
180	0xbef4e705	-0.47832504
181	0xbe110210	-0.14160943
182	0xbc3c124a	-0.01147897
183	0xbf1f4bbd	-0.6222494
184	0xbee1b95a	-0.44086725
185	0x3c7e16bb	0.015508349
186	0x3e88d047	0.26721403
187	0xbe700d55	-0.23442586
188	0xbe17320a	-0.14765182
189	0xbee30589	-0.4434016
190	0xbd7e5dbc	-0.06210111
191	0xbef599bc	-0.47968853
192	0xbf071000	-0.5275879
193	0xbc0271ee	-0.007961733
194	0x3dcf55a6	0.10123758
195	0xbdea7d9f	-0.114497416
196	0xbeb2cec1	-0.34923366
197	0xbd98ad7f	-0.07454967
198	0xbdd93bba	-0.10607095
199	0xbde16258	-0.11005086
200	0x3d4827d4	0.048866108
201	0xbe145fab	-0.1448962
202	0xbf6d80a2	-0.92774403
203	0xbe95fdb4	-0.29295123
204	0xbea56c2e	-0.32309097
205	0xbe8c605b	-0.27417263
206	0x3e8b3046	0.27185267
207	0xbe1384a7	-0.14406072
208	0xbe4283c9	-0.18995585
209	0x3ef9b584	0.48771298
210	0xbf2a9850	-0.6663866
211	0xbeae476f	-0.34038875
212	0xbf5dff4a	-0.86717665
213	0xbe4d1ae6	-0.20029792
214	0xbe4efe4e	-0.20214197
215	0xbe28c763	-0.1648231
216	0xbe935274	-0.28773844
217	0x3c30a2a2	0.010780962
218	0xbf178878	-0.5919261
219	0xba90e3b4	-0.0011054189
220	0xbf62dc12	-0.8861705
221	0x3e700f1c	0.23443264
222	0xbf45b844	-0.7723429
223	0xbce14e37	-0.027503116
224	0xbe90bfb6	-0.28271264
225	0x3bd8404b	0.006599461
226	0xbe6e44cb	-0.2326843
227	0xbe9c3dba	-0.30515844
228	0x3f15c5b1	0.5850478
229	0xbd87e16b	-0.06634792
230	0xbe35f935	-0.17770846
231	0xbf117413	-0.5681774
232	0xbe843476	-0.25821275
233	0xbefde1d4	-0.49586356
234	0xbf22bb88	-0.635674
235	0xbe2e4983	-0.1702023
236	0x3e1c5d2c	0.15269917
237	0xbc703b9d	-0.01466265
238	0xbe5d6a3f	-0.21622561
239	0xbdf4e2ff	-0.119573586
240	0xbe16c9d4	-0.14725429
241	0xbefcca84	-0.49373257
242	0x3eb73629	0.35783508
243	0xbea57628	-0.3231671
244	0xbed81400	-0.4220276
245	0xbe7222b2	-0.23646048
246	0xbf18c311	-0.5967265
247	0x3e471a1d	0.19443555
248	0x3c33ab81	0.010966183
249	0xbe42889c	-0.18997425
250	0xbeed8793	-0.46392497
251	0x3ddce930	0.107866645
252	0x3de7b458	0.11313695
253	0xbdd82df4	-0.1055564
254	0xbeab7207	-0.33485433
255	0xbe3c48a3	-0.18387084

fc2.bias f4 [300]
0	0xbe19fabc	-0.15037054
1	0xbda29595	-0.07938687
2	0x3ec16afe	0.3777694
3	0xbe84f9d9	-0.2597187
4	0xbe0a3023	-0.13494925
5	0xbe982b0e	-0.29720348
6	0x3f51e0f2	0.81983864
7	0xbe7e22c8	-0.24817955
8	0x3f8dbe13	1.1073631
9	0x3f509aeb	0.81486386
10	0xbe3f1901	-0.18661882
11	0x3f40885e	0.7520808
12	0xbd0f591e	-0.0349971
13	0xbe7b6ffa	-0.24554434
14	0x3f3ac7e6	0.7296127
15	0xbec364b8	-0.3816278
16	0x3c90937b	0.01764845
17	0xbd281c62	-0.041042693
18	0xbe84b84b	-0.25921854
19	0x3f60409d	0.8759859
20	0x3f31a4aa	0.6939188
21	0xbec73c8b	-0.38913378
22	0xbec35001	-0.38146976
23	0xbe8f0cd1	-0.27939466
24	0xbeba6c56	-0.3641078
25	0xbea45071	-0.32092622
26	0x3f6354bb	0.88801163
27	0xbebed37e	-0.3727073
28	0x3f2851eb	0.65749997
29	0x3f64fea1	0.8945103
30	0xbeb8e307	-0.36110708
31	0x3f5f1eac	0.87156177
32	0x3f6ac071	0.9169989
33	0xbe2004f8	-0.15626895
34	0x3f73b59f	0.95199007
35	0x3f63c9e7	0.88979954
36	0x3f6392c3	0.88895816
37	0xbe746ecc	-0.2387039
38	0xbe8ac8d1	-0.27106336
39	0x3eb9fde9	0.3632653
40	0xbe090359	-0.13380183
41	0x3f51ae9e	0.8190707
42	0xbeac0d5c	-0.33603942
43	0x3f504664	0.8135741
44	0x3f7e192d	0.99257165
45	0x3f0da4e8	0.5532975
46	0x3f5707a1	0.83996016
47	0x3f416f0a	0.7556006
48	0xbe899ae1	-0.26875976
49	0xbe6a31b0	-0.22870517
50	0x3f42672c	0.7593868
51	0x3e0e0e80	0.13872719
52	0xbe90040d	-0.2812809
53	0x3f5db277	0.8660044
54	0x3dde1cfd	0.10845373
55	0xbeafdb75	-0.3434712
56	0xbe4baad5	-0.19889386
57	0xbeba8154	-0.36426795
58	0x3f590c83	0.84784716
59	0x3f59b8ee	0.85047805
60	0xbeac3222	-0.33631998
61	0x3e02479d	0.12722631
62	0xbebdceff	-0.37071988
63	0x3ef975e1	0.48722747
64	0x3f20f77f	0.6287765
65	0x3e02a2a3	0.12757353
66	0xbd0ea840	-0.034828424
67	0xbeb8c4f4	-0.36087763
68	0xbc2a2f17	-0.010387204
69	0xbd452c31	-0.048137847
70	0x3dbb0abf	0.09132909
71	0xbf1b347b	-0.60626954
72	0xbe5e817d	-0.21729083
73	0xbe945749	-0.28972843
74	0xbe8d7bb9	-0.27633455
75	0xbe3eb03a	-0.18621913
76	0x3f5c76e5	0.8611892
77	0xbe82e9ea	-0.25569087
78	0x3f40c635	0.7530244
79	0x3eb393e1	0.3507376
80	0xbedc5820	-0.43035984
81	0xbebec98e	-0.3726315
82	0xbe182d7b	-0.148611
83	0xbe9ac96f	-0.30231807
84	0xbe4123a6	-0.18861255
85	0xbeb634c8	-0.35587144
86	0xbd247c21	-0.04015744
87	0xbea8466e	-0.32866234
88	0x3ca14b3b	0.019689193
89	0xbd85ed85	-0.06539444
90	0xbec39433	-0.38199005
91	0xbeab497b	-0.334545
92	0x3f6453c5	0.8919032
93	0x3d83ad96	0.06429593
94	0x3bb14236	0.0054095043
95	0x3f47d864	0.7806456
96	0xbe986cd4	-0.2977053
97	0xbdd6594b	-0.1046625
98	0x3f58778e	0.84557426
99	0xbe50fe9e	-0.20409629
100	0xbe2e344f	-0.17012142
101	0x3f5989f0	0.849761
102	0xbe933e60	-0.28758526
103	0xbe6ae7bd	-0.22939964
104	0x3f59907a	0.8498608
105	0x3e8699dd	0.26289263
106	0xbe9cc6a2	-0.30620295
107	0xbe9894ba	-0.2980097
108	0x3f44d20a	0.76882994
109	0xbe42f035	-0.19036944
110	0xbeb3f5b9	-0.3514841
111	0x3f2b6a54	0.6695912
112	0xbecb7766	-0.3973953
113	0x3f825d4a	1.018472
114	0x3f3bbe6f	0.73337454
115	0x3f6a3fdd	0.915037
116	0xbe672e22	-0.22576192
117	0xbea8df09	-0.32982662
118	0xbe65ae61	-0.22429802
119	0x3f077809	0.52917534
120	0xbe84f621	-0.2596903
121	0xbd4f079e	-0.050544374
122	0xbf025dee	-0.50924575
123	0xbe04860b	-0.12941758
124	0xbee40f5f	-0.44542977
125	0x3f499a1b	0.7875077
126	0xbeb784b1	-0.35843423
127	0x3f0ad999	0.5423828
128	0xbe9a5c09	-0.30148342
129	0x3deaa171	0.11456574
130	0xbe2bdf9e	-0.16784522
131	0xbeac7bc1	-0.33688167
132	0xbe92410c	-0.28565252
133	0x3f511dc3	0.8168604
134	0xbe7d615f	-0.24744175
135	0x3f616f44	0.880604
136	0xbe7306e3	-0.23733096
137	0x3f6fce30	0.9367399
138	0xbea964ca	-0.33084708
139	0xbeb64f0c	-0.35607183
140	0x3eaf681f	0.34259126
141	0xbdfc9ec0	-0.12334967
142	0xbe5c0d1e	-0.21489379
143	0x3f0d5a33	0.5521576
144	0xbe724076	-0.23657402
145	0x3f6501a6	0.8945564
146	0x3e7f2c7f	0.24919318
147	0x3f358a04	0.7091372
148	0x3f182cb3	0.59443206
149	0xbd32d5ca	-0.043660916
150	0xbe7aaec3	-0.24480729
151	0xbe8e5625	-0.27800098
152	0xbf06c746	-0.5264782
153	0x3e649484	0.22322279
154	0xbeb8c65c	-0.36088836
155	0x3ece3758	0.402766
156	0x3f4a3294	0.78983426
157	0xbeb4f5ad	-0.35343686
158	0xbd423655	-0.047415096
159	0xbeb74fe4	-0.3580314
160	0xbea297d4	-0.3175646
161	0xbe534704	-0.20632559
162	0xbe81fbc7	-0.25387403
163	0xbe9d073b	-0.3066958
164	0xbe63f1cb	-0.22260205
165	0xbee2f8e3	-0.4433051
166	0xbe8b6b61	-0.2723036
167	0xbea214da	-0.31656533
168	0x3f460dc7	0.7736477
169	0xbe8d5013	-0.27600154
170	0x3e062d82	0.13103297
171	0x3f4ddc85	0.8041461
172	0x3f6f3f77	0.93456215
173	0xbe864d93	-0.2623106
174	0xbec45c66	-0.38351744
175	0x3f278f7f	0.6545333
176	0x3f261df0	0.6488943
177	0xbdb4cdb7	-0.088282995
178	0xbe58a612	-0.21157101
179	0x3f80631b	1.0030245
180	0x3f7c3a09	0.98526055
181	0xbe160195	-0.14649041
182	0x3f0a6f8a	0.54076445
183	0xbe9f9d46	-0.31174678
184	0x3f03e0a9	0.5151468
185	0xbe9fa653	-0.31181583
186	0xbe9257e3	-0.28582677
187	0x3f4ac0c6	0.792004
188	0x3df5da5a	0.12004538
189	0x3e29377b	0.1652507
190	0xbe686a0f	-0.22696708
191	0xbe7a248e	-0.24428007
192	0xbeb67b60	-0.35641003
193	0x3f72618d	0.946801
194	0x3f585e81	0.845192
195	0xbe86e603	-0.2634736
196	0x3f4d1233	0.80105895
197	0x3f3c0ea9	0.7345987
198	0x3d690cc7	0.05689695
199	0x3f3eee29	0.74582154
200	0x3f2b32e8	0.6687455
201	0xbeafebf1	-0.34359697
202	0xbe8b0597	-0.27152702
203	0xbf0fdbd4	-0.56194806
204	0xbe5ca53e	-0.2154741
205	0xbeb9f8a5	-0.36322513
206	0xbe88ffaf	-0.2675757
207	0x3e1261f1	0.14295174
208	0xbeac7eac	-0.33690393
209	0xbdfd00ec	-0.123536915
210	0x3f67386f	0.90320486
211	0x3d7864d5	0.060643036
212	0xbeb603e7	-0.35549852
213	0x3f432108	0.76222277
214	0x3f02b10f	0.5105142
215	0x3e20411c	0.15649837
216	0xbe8d12fd	-0.2755355
217	0x3ac455e5	0.0014979212
218	0x3f44863a	0.76767313
219	0x3eb8d433	0.36099395
220	0x3f69070a	0.91026366
221	0xbeaa3ce2	-0.33249575
222	0xbecb6927	-0.39728662
223	0x3f44324e	0.7663926
224	0xbe7dcde6	-0.24785575
225	0xbec1cc6b	-0.3785127
226	0x3f511e32	0.816867
227	0x3f4188a4	0.7559912
228	0xbe8fe9d2	-0.28108078
229	0xbe2aaf0e	-0.1666834
230	0xbec51606	-0.38493365
231	0xbed12873	-0.40851173
232	0xbdd02296	-0.10162847
233	0x3f491289	0.7854391
234	0xbca25535	-0.01981602
235	0x3f29d4b2	0.6634017
236	0xbe4e3eeb	-0.20141189
237	0xbedb4e3b	-0.42833123
238	0x3f679b5d	0.9047144
239	0xbd75b132	-0.05998344
240	0xbecceca6	-0.40024298
241	0x3c326f6e	0.010890825
242	0x3f59ae56	0.8503164
243	0xbea0f2df	-0.31435296
244	0x3d626976	0.055276357
245	0xbe8f6af7	-0.28011295
246	0xbe93ff23	-0.2890559
247	0x3f72f7c1	0.9490929
248	0xbeac289a	-0.33624727
249	0xbe3a3dcf	-0.1818764
250	0x3f4835f0	0.782073
251	0x3f42a3fe	0.7603148
252	0xbe81368d	-0.2523693
253	0xbe82ab16	-0.25521153
254	0x3ec3fba5	0.38277927
255	0x3f5f1c0a	0.8715216

bn2.weight f4 [300]
0	0x3fcc4149	1.5957423
1	0x3f832b93	1.0247673
2	0x3f7e74b7	0.9939684
3	0x3fac4c01	1.3460695
4	0x3f9cd77c	1.2253261
5	0x3f7eeeb0	0.9958296
6	0x3f8a4787	1.0803078
7	0x3fedcbaa	1.8577778
8	0x3f8c7350	1.097269
9	0x3f8a9471	1.0826551
10	0x3faa1e6b	1.3290533
11	0x3f890c96	1.0706966
12	0x3f9a4b1f	1.2054175
13	0x3f74a754	0.9556782
14	0x3f898a51	1.0745336
15	0x3f89f9ef	1.0779399
16	0x3f912616	1.1339748
17	0x3f9d514f	1.2290438
18	0x3f7d936f	0.9905309
19	0x3f8bf8d0	1.0935307
20	0x3f8696c7	1.0514764
21	0x3f8ff827	1.1247605
22	0x3f735637	0.9505343
23	0x3f8c44b4	1.0958467
24	0x3f855128	1.0415392
25	0x3f936a28	1.1516771
26	0x3f8b7047	1.0893639
27	0x3fd6134b	1.6724638
28	0x3f867a15	1.0506006
29	0x3f8d8003	1.1054691
30	0x3f84675c	1.0344043
31	0x3f8e465e	1.1115224
32	0x3f8e5f79	1.1122886
33	0x3fe605bd	1.7970501
34	0x3f8d88d0	1.1057377
35	0x3f8cc522	1.099766
36	0x3f8a3e1c	1.0800204
37	0x3f54007f	0.82813257
38	0x3faa90af	1.3325404
39	0x3f7cc115	0.9873212
40	0x3f982091	1.1884938
41	0x3f8cddf7	1.1005238
42	0x3f8b2ef6	1.0873706
43	0x3f894989	1.0725566
44	0x3f903f04	1.1269231
45	0x3f842535	1.0323855
46	0x3f8dd99e	1.1082036
47	0x3f8983b2	1.0743315
48	0x3f65511b	0.8957688
49	0x3f863f96	1.0488155
50	0x3f888252	1.0664771
51	0x4002279e	2.033668
52	0x3f8829b0	1.0637722
53	0x3f8df10f	1.108919
54	0x3f72c32c	0.9482906
55	0x3f819c59	1.0125839
56	0x3fe7c5cf	1.8107241
57	0x3f90c718	1.1310759
58	0x3f8bea45	1.0930868
59	0x3f8b8750	1.0900669
60	0x3f90c0b7	1.1308812
61	0x3fb2e2f2	1.3975508
62	0x3f84bdd1	1.0370427
63	0x3f820663	1.0158199
64	0x3f858c94	1.0433526
65	0x3fbbc39d	1.4669071
66	0x3f942fb5	1.1577059
67	0x3f84e902	1.0383608
68	0x3f937eed	1.152311
69	0x3f5c7e22	0.86129963
70	0x3fe1ffe8	1.7656221
71	0x3e963b89	0.29342297
72	0x3f80c326	1.0059555
73	0x3f8e3a5f	1.1111563
74	0x3f8f19d6	1.117976
75	0x3f96d15e	1.1782644
76	0x3f8a51e1	1.0806237
77	0x3f805a9d	1.0027653
78	0x3f87ec4a	1.0618985
79	0x3f77d43a	0.9680821
80	0x3f96d776	1.1784503
81	0x3f800000	1.0
82	0x3f98fcb5	1.195212
83	0x3f7fc7ad	0.99914056
84	0x3fb6cb33	1.4280761
85	0x3fbb9171	1.465376
86	0x3f6a2d3d	0.9147528
87	0x3f89dad0	1.0769901
88	0x3febafbb	1.8413004
89	0x3f9e0e94	1.2348199
90	0x3f80fd48	1.0077295
91	0x3f7ef6b1	0.9959517
92	0x3f8bdacd	1.0926148
93	0x3fcbb958	1.5915937
94	0x3f756625	0.95858985
95	0x3f8b04a9	1.0860797
96	0x3f7fe621	0.99960524
97	0x3f85848f	1.0431079
98	0x3f8bc085	1.0918127
99	0x3fa6e289	1.3037883
100	0x3f8cf840	1.101326
101	0x3f8b2d52	1.0873206
102	0x3f8079c9	1.0037166
103	0x3f80b59e	1.0055425
104	0x3f899606	1.0748909
105	0x3f77c72e	0.967883
106	0x3f8254e3	1.0182155
107	0x3f91ae88	1.1381388
108	0x3f88b341	1.0679704
109	0x3f974de5	1.1820647
110	0x3fd2f845	1.6482016
111	0x3f884865	1.0647093
112	0x3f73e48f	0.9527063
113	0x3f8f2fd9	1.1186477
114	0x3f86c2ec	1.0528235
115	0x3f8c85be	1.0978315
116	0x3f99cc8e	1.201555
117	0x3f8417f0	1.0319805
118	0x3f6f9a53	0.93594855
119	0x3f7e3432	0.99298394
120	0x3f990416	1.1954372
121	0x3f9cd7de	1.2253377
122	0x3f81cc88	1.0140543
123	0x3f988288	1.1914835
124	0x3fe8fe38	1.8202581
125	0x3f87804f	1.0586032
126	0x3f8bcdc3	1.0922168
127	0x3f83121e	1.0239904
128	0x3f800000	1.0
129	0x3f74cb96	0.9562315
130	0x3fbd1ba5	1.4774061
131	0x3f86d599	1.0533935
132	0x3f9395e6	1.153012
133	0x3f8df0ee	1.1089151
134	0x3f9d0073	1.2265762
135	0x3f8d19f6	1.1023548
136	0x3f800000	1.0
137	0x3f8de39e	1.1085088
138	0x3f7b655a	0.98201525
139	0x3f7ea93a	0.9947697
140	0x3f80c3b1	1.005972
141	0x3f79bf32	0.97557366
142	0x3f7bf24d	0.98416597
143	0x3f84485a	1.033458
144	0x3f9e3170	1.2358837
145	0x3f8b5be8	1.0887423
146	0x3fe779f1	1.8084089
147	0x3f854e6c	1.0414557
148	0x3f829719	1.0202361
149	0x3f6934ce	0.910962
150	0x3f8c577b	1.0964197
151	0x3f6aa729	0.91661316
152	0x3f58024d	0.8437851
153	0x3f7cc681	0.9874039
154	0x3f8231e7	1.0171479
155	0x3f7fedeb	0.9997241
156	0x3f8a52c2	1.0806506
157	0x3f89a73c	1.0754161
158	0x3f989fe2	1.1923792
159	0x3f874f81	1.0571138
160	0x3f86ef6d	1.0541817
161	0x3f80a3c8	1.0049982
162	0x3f8f51f2	1.1196883
163	0x3f80260a	1.0011609
164	0x3f8faed7	1.1225232
165	0x3f992a77	1.1966084
166	0x40025bc7	2.0368516
167	0x3fa05d6b	1.2528509
168	0x3f87df61	1.0615045
169	0x3fd695e8	1.6764498
170	0x3fb2da13	1.3972801
171	0x3f8c7fbc	1.0976481
172	0x3f8d013a	1.1015999
173	0x3f9e0cac	1.2347617
174	0x3fdac2b1	1.7090665
175	0x3f868f70	1.0512524
176	0x3f863109	1.0483714
177	0x3f8793e0	1.0592003
178	0x3fa99800	1.3249512
179	0x3f8dbdcf	1.107355
180	0x3f8f57f3	1.1198715
181	0x3fd07f04	1.6288762
182	0x3f85009e	1.0390813
183	0x3f83696b	1.0266546
184	0x3f835960	1.026165
185	0x3f94e52e	1.163244
186	0x3f8cacd2	1.099024
187	0x3f893baa	1.0721333
188	0x3f8103bd	1.0079266
189	0x3fa1514b	1.2602934
190	0x3fa801cc	1.3125548
191	0x3f8fd0e1	1.123562
192	0x3f9a284d	1.2043549
193	0x3f8b2437	1.0870427
194	0x3f8c827f	1.0977324
195	0x3f803fdd	1.001949
196	0x3f8a25a8	1.0792742
197	0x3f891e4e	1.0712373
198	0x3f7757d6	0.966184
199	0x3f883201	1.064026
200	0x3f840bf8	1.0316153
201	0x3f5cce43	0.8625223
202	0x3f7631f5	0.9616998
203	0x3f23228b	0.63724583
204	0x3f8a8d9b	1.0824465
205	0x3f903559	1.126628
206	0x3fd31e1d	1.6493565
207	0x3f565179	0.8371807
208	0x3f914f74	1.1352372
209	0x3f832cd2	1.0248053
210	0x3f8a0375	1.0782305
211	0x3f83b624	1.028996
212	0x3f83c350	1.029398
213	0x3f891a49	1.0711147
214	0x3f81006a	1.0078251
215	0x3f98ca43	1.1936725
216	0x3f811b04	1.008637
217	0x3f9f9057	1.2465924
218	0x3f8a9da3	1.0829357
219	0x3f7f6287	0.99759716
220	0x3f8cbeee	1.0995767
221	0x3f8a018f	1.0781726
222	0x3fae513e	1.3618543
223	0x3f892897	1.0715512
224	0x3f992695	1.1964899
225	0x3f81a068	1.0127077
226	0x3f89ba20	1.0759926
227	0x3f8a425b	1.08015
228	0x3f9fcc12	1.2484152
229	0x3f60ad18	0.8776412
230	0x3f83356e	1.025068
231	0x3f800000	1.0
232	0x3f71cfae	0.9445752
233	0x3f88723f	1.0659865
234	0x3fa600b6	1.2968967
235	0x3f86f336	1.0542972
236	0x3f8514c7	1.0396966
237	0x3f9119c0	1.1335983
238	0x3f8c02ff	1.0938414
239	0x3f851674	1.0397477
240	0x3face420	1.3507118
241	0x3f803a56	1.0017803
242	0x3f8bbf33	1.0917724
243	0x3fa70d55	1.3050944
244	0x3f798b96	0.97478616
245	0x3f81bd7d	1.0135952
246	0x3f843d6a	1.0331242
247	0x3f8c9618	1.0983305
248	0x3f839003	1.0278324
249	0x3f98fd20	1.1952248
250	0x3f8a4a35	1.0803896
251	0x3f8b10ca	1.0864499
252	0x3f9b7e7c	1.2147975
253	0x3f808a93	1.004229
254	0x3f811094	1.0083184
255	0x3f8935f2	1.0719588
