Zadanie3/srcV2/models/Variable exploration probability + 50 exploration_10/actor_network.pth (torch, 507007 bytes, 10 tensors)

fc1.weight f4 [400, 8]
000000 7f e8 0f 3d 84 2d fb 3d 2f d7 f9 bc 2f 13 8d 3d
       0.035133835 0.12264541 -0.030498115 0.068884246
000010 d4 04 89 bd 0f 9f 2b be 27 4f 2d 3e 82 f4 9e 3e
       -0.06690374 -0.16759895 0.16924725 0.3104592
000020 13 ee bb 3d 92 fe 2b 3e 05 69 91 bc da 07 bf bd
       0.091762684 0.1679633 -0.017750273 -0.093276694
000030 e1 0a a6 bd cb e7 81 be 55 b0 1f bd 66 bd 3b 3e
       -0.08107544 -0.25372157 -0.038986523 0.18333969
000040 d7 5b 98 3e 13 47 04 3f 4c b0 8e bd 6e b1 0b bf
       0.29757568 0.5167095 -0.0696722 -0.5456761
000050 09 81 df 3d e8 61 99 3e 74 33 b2 3e 94 fa bd 3e
       0.109132834 0.2995751 0.3480488 0.37105238
000060 29 67 42 3d d2 7d 27 3e aa 3a 13 3d 88 13 e9 bd
       0.047461662 0.1635659 0.03594462 -0.113806784
000070 bf 38 c2 bd 79 14 7f be fb d5 e7 3b 90 76 41 3e
       -0.0948348 -0.24910153 0.007075069 0.18892884
000080 9d 3a e0 3d 3f 3b 14 3e f4 01 e2 3d 50 aa b4 bd
       0.109486796 0.14475726 0.11035529 -0.08821547
000090 55 af 39 be ce 9e cd bd 6f 49 b2 bd dd ed 15 be
       -0.1813329 -0.10040055 -0.087054126 -0.14641519
0000a0 6c 9a 04 3d f0 a4 20 3e f3 25 42 3d 54 94 0a be
       0.03237383 0.15687919 0.047399472 -0.13533145
0000b0 e0 15 22 be 9c e0 9a be 1b df 3b 3e 4f e5 e2 3d
       -0.15828657 -0.30249488 0.18346827 0.110788934
0000c0 c1 7b a8 3d bd 12 c3 3e d4 2e 2d 3d 2e cc d1 be
       0.08226729 0.38100234 0.042280987 -0.4097609
0000d0 c6 4b c1 bc 6d 43 b1 3d 0d 64 a2 3e 4c 4f 98 3e
       -0.023595702 0.086554386 0.31716958 0.29748
0000e0 be ba 52 3e d7 f5 12 3f 6d 0b c6 3d 58 95 2b bf
       0.20579049 0.5740637 0.09670148 -0.67024755
0000f0 04 8b 69 bd 6f 82 89 3e 2a bb ab 3e fa 82 be 3e
       -0.05701734 0.26857325 0.33541232 0.37209302
000100 dd 11 ae 3b 5d a3 36 3e 59 bf 8c 3d 9e a1 fd bd
       0.005312188 0.17835756 0.06872434 -0.12384342
000110 ef f3 ee bd d0 fb e5 bd 7e 54 c2 3d c0 bc 21 bd
       -0.116676204 -0.1122967 0.09488772 -0.039486647
000120 2a 10 88 bd 5c 62 6a 3e 76 d7 bb bd 88 1a 56 be
       -0.06643708 0.22889084 -0.09171955 -0.20908558
000130 47 da 40 be f7 7e 44 3d 75 89 6c 3e 95 57 3c 3e
       -0.18833266 0.047972646 0.2309931 0.18392785
000140 4c 70 08 3e 7f d5 0b 3e 81 ed 09 be 97 e2 5b be
       0.13324088 0.13655661 -0.13469507 -0.21473156
000150 5e 52 33 3e 91 16 92 3e a5 44 b6 bd 05 2e 09 be
       0.1751189 0.28532842 -0.08899812 -0.13396461
000160 6a ee 95 3c f8 10 12 3e ac 88 69 3c 37 a2 72 bd
       0.018302161 0.14264286 0.0142537765 -0.05923673
000170 07 6d 37 be 18 0d 80 be 98 05 b9 bd a8 5d 82 be
       -0.17912684 -0.2500999 -0.0903427 -0.2546208
000180 c4 ce ad 3e 0e c6 17 3f 45 18 15 3c cd 17 20 bf
       0.33946812 0.5928658 0.009100025 -0.6253632
000190 08 ba ba 3d 7e 88 62 3e 96 bc b7 3e 57 eb c0 3e
       0.09117514 0.2212238 0.35886067 0.3767955
0001a0 d4 c6 e2 3d f8 29 61 3e 2e 96 15 bd f7 16 8d bd
       0.1107308 0.21988666 -0.036520176 -0.06889146
0001b0 bc 7f de 3c 97 a5 3d be 19 f3 25 bc 30 c5 31 3e
       0.027160518 -0.18520199 -0.01012876 0.17360377
0001c0 44 c0 ba 3d 16 5e 4b 3e a9 a4 27 3e 41 d2 82 bc
       0.09118703 0.1986011 0.16371407 -0.015969398
0001d0 22 e9 83 be cd 33 a1 be 9f f3 cb bc ef ca f3 bd
       -0.25763804 -0.31484833 -0.024896441 -0.11903941
0001e0 77 77 e8 3d cc e9 96 3e 18 e9 72 3d c7 fd 84 be
       0.11350911 0.29475248 0.059304327 -0.25974867
0001f0 88 d8 c6 3d 14 00 4d 3e ce 3d 72 3e ec 45 42 3e
       0.09709269 0.20019561 0.23656389 0.18971986
000200 05 5e 43 bd 4c a4 cd 3d 88 c4 1b 3a ca ac ae bd
       -0.047697086 0.10041103 0.0005942066 -0.08529051
000210 42 4e b4 3e a9 26 47 3e 9f 23 02 be ee 82 4c 3e
       0.35215956 0.19448341 -0.12708901 0.1997182
000220 d6 0c 21 3d ff 3d c8 3d 99 f5 99 3d 3e 13 dd bd
       0.039318882 0.0977745 0.07517547 -0.10794686
000230 1d 9b 1f be 2a 44 6e be 01 39 9b be 96 64 80 be
       -0.15586515 -0.2326819 -0.30316928 -0.2507674
000240 f6 0d 9f 3b 1a f6 1e 3e de b7 a3 bd 23 7d 71 be
       0.004853959 0.15523568 -0.07994054 -0.23582892
000250 7c 1b 84 3d 16 0e 90 3e f6 52 9b 3e c8 23 4b bd
       0.06450555 0.28135747 0.30336732 -0.04959467
000260 11 6d d9 3d 34 b9 a9 3e 8d 6f db 3d 39 c9 b6 be
       0.10616506 0.3314911 0.10714636 -0.35700396
000270 a6 97 54 bd 5e 89 f6 3c e8 a8 b3 3e c2 02 cb 3d
       -0.051902436 0.030094799 0.35089803 0.099126354
000280 19 d3 ae 3d 21 67 2b 3e e3 9b ae bc dd 22 1b be
       0.085363574 0.1673856 -0.021314567 -0.15150018
000290 8c e7 05 3e ec a1 df 3d 31 3b 19 3e df b7 52 3e
       0.1307661 0.10919556 0.14963986 0.20577954
0002a0 33 ab da bd b8 81 ef bc cd 86 72 be 56 ca 4c be
       -0.10677185 -0.02923666 -0.23684235 -0.1999906
0002b0 0b 2b e6 3d d2 8e 56 be 0d f5 5a bd fe 8b 0d bf
       0.112386785 -0.20952919 -0.053456355 -0.55291736
0002c0 90 6f aa bc c4 61 0b 3e 62 c8 dc 3d b1 63 a6 bd
       -0.02080515 0.13611513 0.107804075 -0.081244834
0002d0 8f 3d f7 bd 92 cb fe bd d8 d1 09 3e 4a b3 83 3e
       -0.12072288 -0.12441172 0.13458955 0.25722724
0002e0 02 59 55 3d f6 00 31 3e 28 ea d9 bc ca ec 47 bd
       0.052086838 0.17285523 -0.026600912 -0.048809804
0002f0 ab 48 cd bc 54 46 8a bd 9a 26 34 3e 34 3b 63 3e
       -0.025059065 -0.06751695 0.1759285 0.22190553
000300 f2 0a f0 bc b8 95 85 3e d3 ca 17 3e ef 1c 87 bd
       -0.029302094 0.2609079 0.14823465 -0.065973155
000310 0b 99 e3 bc 0c c1 03 bd 31 75 d0 3d 40 47 0a 3d
       -0.027782938 -0.032166526 0.101786025 0.033759356
000320 0f 89 e4 3d a8 44 5b 3e a4 a3 22 3e 6f a8 34 be
       0.11158954 0.21412909 0.15882736 -0.17642377
000330 21 1f 1b be 94 5d 22 3c f5 38 3e 3d ec 06 b7 bd
       -0.15148593 0.009910006 0.046441037 -0.08936867
000340 c2 84 f4 3c 01 12 71 3e 81 73 5f 3d ad 83 3f be
       0.02984846 0.23542024 0.054553512 -0.18702574
000350 78 1a 13 3c b4 57 00 3c 17 e9 3a 3e 8e 0d 0d 3e
       0.008978479 0.00783341 0.18252979 0.13774702
000360 4c 62 37 3e 55 bb db 3d 13 fe d0 ba 9a b1 87 be
       0.17908591 0.1072909 -0.0015944861 -0.26502687
000370 16 4a 96 3c 82 f6 a7 3e cf 5a c5 bc c0 9f 13 be
       0.018345874 0.32805258 -0.024091152 -0.14416409
000380 af a5 43 3e d4 31 fc bc e4 a3 08 3e 1f 32 41 be
       0.19106172 -0.030785479 0.1334377 -0.18866776
000390 0f 00 89 be d7 88 5d be d4 9a 7e 3d cf e7 c7 3e
       -0.26757857 -0.21634232 0.062159374 0.39044043
0003a0 70 3c 22 3e 06 f3 73 3e 91 57 19 3d b9 5c 93 be
       0.15843368 0.23823175 0.037437025 -0.2878168
0003b0 74 ff 4a 3d fd 3a 5a 3e f6 45 58 3e 76 86 79 bc
       0.049560025 0.21311565 0.21120438 -0.015229812
0003c0 b6 89 0f be 75 77 8e 3d 10 ab 18 bd 7f d0 a7 3e
       -0.14017376 0.06956378 -0.037272513 0.32776257
0003d0 c3 fd 54 3e 0b 57 92 3e f1 57 41 3e 62 e8 8e 3e
       0.20799927 0.28582034 0.18881203 0.2791167
0003e0 e3 25 eb 3d c4 58 82 3e 2f 70 21 bb 05 4c 61 be
       0.11481836 0.25458348 -0.0024633517 -0.22001655
0003f0 60 63 b8 3d 30 92 64 3d b6 94 b4 3e 95 a7 a1 3d
       0.09003329 0.055803478 0.35269707 0.07893292

fc1.bias f4 [400]
000000 a6 3e 53 3d d5 72 65 3e b8 44 38 3f 39 ab 88 3e
       0.051573418 0.22407086 0.71979856 0.26693133
000010 d7 f2 71 3e 38 8e 5d 3e f7 14 e0 3e a2 23 43 3f
       0.23627792 0.21636283 0.43765995 0.76226246
000020 f6 d4 5a 3e 58 9b 80 3e 03 5d ca 3d 24 12 1e 3e
       0.213703 0.25118518 0.09881022 0.15436608
000030 bd a2 42 3f b9 d2 5c 3e 29 ee fd bd f5 53 a0 3e
       0.7602957 0.2156476 -0.12398941 0.31314054
000040 70 ba 82 bc 34 75 16 3e 70 dc ac 3d 9a 94 b1 3e
       -0.015958041 0.14693147 0.084404826 0.34683686
000050 46 bd a2 3e 0d d2 29 3d b3 fc 10 3e a3 39 db 3d
       0.3178503 0.041460086 0.14158897 0.10704353
000060 72 9e 8b 3e 6e 3f 27 3e 0e c0 94 3e f7 1e 77 3d
       0.27269322 0.1633279 0.29052776 0.060332265
000070 b4 d1 0e 3e 25 cb 1b 3e ec dd fb 3d d1 ca 96 3e
       0.13947183 0.15214212 0.122981876 0.29451612
000080 ee 45 2f 3e 10 ff 3f 3e 43 56 a1 3e 5e 45 18 3e
       0.1711652 0.18749642 0.31511125 0.14870211
000090 99 0a 52 3e c2 e8 98 3e cc 90 3b 3e e1 68 f7 3d
       0.20511855 0.2986508 0.18316954 0.12080551
0000a0 e2 f8 ac 3d 4d d9 02 3e 52 d2 10 3e 2a 46 99 3d
       0.08445908 0.12778206 0.14142731 0.07484086
0000b0 68 73 51 3e 69 0f 54 3e d0 e9 1b 3e ea 81 03 3e
       0.2045418 0.20709004 0.15225911 0.12842527
0000c0 6a 84 84 3e 34 ea 39 3e ae fb 2d 3e 8d f3 8e 3e
       0.25882274 0.18155748 0.1699054 0.2792019
0000d0 36 bb d0 3d 3f 69 6a 3e 83 03 03 3e d7 5e 2a 3e
       0.10191958 0.2289171 0.12794308 0.16637741
0000e0 f9 74 80 3e c4 51 72 3e 30 af 66 3e 8e 82 ec 3d
       0.25089243 0.23664004 0.22527766 0.11548339
0000f0 20 b4 3e 3e a9 d6 56 3e d6 53 b9 3d c4 4f aa 3e
       0.186234 0.20980324 0.090491936 0.3326398
000100 b8 0b 8e 3e c9 75 6e 3e ca 7c e6 3d 68 f2 b2 3e
       0.27743316 0.23287119 0.112542704 0.34950566
000110 1b cc 47 3e 72 54 d2 3e de 9f 9e 3e b0 c3 e9 3d
       0.19511454 0.41080052 0.30981344 0.114142776
000120 04 7b 66 3e 56 62 6f 3e 64 96 20 3f 96 88 91 be
       0.22507864 0.23377356 0.6272948 -0.2842452
000130 64 7d 46 3e a9 20 2c 3e 19 f4 6c 3e e6 97 78 3e
       0.1938377 0.16809334 0.23139991 0.24276695
000140 26 5e 5d 3e 1f e8 43 3e ef e9 da 3c 5e 29 1a 3e
       0.21617946 0.19131516 0.026722876 0.15054843
000150 64 a9 95 3e 2b 9b 72 3e 3c 01 8f 3e 76 4f 7f 3e
       0.29230797 0.23692004 0.2793063 0.24932656
000160 8c b0 bd 3d ef cb 8c 3b 60 86 66 3e be 21 e7 3d
       0.09262189 0.0042967717 0.22512197 0.11285733
000170 1d 8c 8a 3e 0e 90 a6 3d f9 2a ee 3e b9 7d bc 3d
       0.27060023 0.08132945 0.4651716 0.09203667
000180 3d de 87 3e f2 cb a4 3e 0a 2e 6d 3e 8d 4c 8c 3e
       0.26536742 0.32186848 0.23162094 0.27402154
000190 ee 41 80 bd 43 a0 49 3e ac 7f 6b 3e 49 90 f8 3d
       -0.06262575 0.19690041 0.22997922 0.12136895
0001a0 35 fd 1f 3e 47 a9 8f 3e 86 db 9d bd 7e 74 53 3e
       0.15623935 0.28058836 -0.077078864 0.20649907
0001b0 f9 8e 95 3e 8e 20 d0 3d ed 4c ab 3e a4 09 b8 bc
       0.29210642 0.10162459 0.33457127 -0.022465535
0001c0 f2 53 bb 3e 46 e6 58 3e 4c 2b 11 3e 56 94 97 bc
       0.36587483 0.21181592 0.14176673 -0.01850335
0001d0 78 4e 42 3e a7 00 87 3e 5d 2d 6c 3e 5d 17 5f 3e
       0.18975246 0.26367685 0.2306418 0.21786256
0001e0 3d e5 56 3e 66 81 48 3e 2a 81 2f bd 97 28 8d 3e
       0.20985885 0.19580612 -0.04284779 0.2757003
0001f0 59 91 c2 3e 9b 5e b7 3c 0e f9 41 3d 7d bf 16 3c
       0.38001516 0.022383979 0.047356658 0.009200928
000200 2b ae 6f 3e bf 5e f0 3e 7b 16 90 3e b9 7b 97 3e
       0.23406284 0.46947286 0.2814215 0.2958658
000210 5c 9e 9c 3e d0 a1 13 3e 93 dc a5 3d 64 3e 24 3e
       0.3058957 0.14417195 0.08098712 0.16039425
000220 a7 aa 26 3e 46 f8 13 3e fe 86 69 3e af 4b 4e 3e
       0.16276036 0.14450178 0.22805402 0.20146058
000230 e7 37 a7 3d b8 fb 96 3e a7 61 a3 3e 90 8c f8 3e
       0.081649594 0.2948892 0.3191044 0.4854474
000240 98 74 30 be 42 24 17 3e e6 50 96 3e dd 86 71 3e
       -0.17231977 0.14759925 0.29358596 0.23586603
000250 56 db a9 3d 03 e3 d1 3d f9 c7 83 3e ff 7b 5e 3e
       0.08293788 0.10248377 0.25738505 0.21726988
000260 36 7f c8 3e fa 39 9d 3e 65 49 bf 3d 89 a8 00 3e
       0.39159554 0.30708295 0.09340171 0.12564291
000270 ff ba d8 3d 30 11 d9 3e c6 93 b8 3e 6d a1 87 3d
       0.10582542 0.42395926 0.36050242 0.066225864
000280 87 98 37 3e 07 f2 a5 3e 16 75 94 3e d7 44 d6 3e
       0.17929278 0.32411215 0.2899558 0.41849396
000290 c3 5c 4d 3f 09 e6 03 bd 27 ae 61 3e df 6c 70 3e
       0.8021967 -0.0322018 0.2203909 0.23479031
0002a0 42 eb 8d 3e 1a 69 a5 3e 92 44 8d 3e 31 81 ab 3e
       0.2771855 0.3230675 0.27591377 0.33497003
0002b0 a8 4f 3e 3d 71 c0 3e be e4 c4 16 3e 88 2f 0c 3e
       0.046462685 -0.18628098 0.14723545 0.13690007
0002c0 2d 27 ad 3e c2 7c 05 3e 6c 69 64 3e 95 c2 a7 3e
       0.3381895 0.13035873 0.2230584 0.32765642
0002d0 b2 0c 0b 3e 4f 75 b3 3e 55 ca bb 3d 22 70 97 3d
       0.13579062 0.35050437 0.09169451 0.073944345
0002e0 e0 1d 6e 3e d7 da 31 3e 67 3a ad 3e ca 69 11 3e
       0.23253584 0.17368637 0.3383362 0.14200512
0002f0 21 06 5b 3e 2d 86 95 3e 71 01 26 bd d2 40 44 3f
       0.21389057 0.2920393 -0.04052872 0.7666141
000300 0c 09 19 3e 0e 7f e2 3d 3c 9a 51 3e 72 de 24 3e
       0.14944857 0.1105939 0.20468992 0.16100481
000310 08 f8 bb 3d 5e 57 03 3e 28 0e b2 3d f3 0c d0 3d
       0.091781676 0.12826297 0.08694106 0.1015872
000320 14 10 98 3e f8 f3 c2 3d 65 53 ab 3e ee eb 02 3d
       0.29699767 0.095191896 0.33462062 0.03196328
000330 9a f0 8a 3e 84 6f 95 3e 21 9c 96 3d b0 a8 14 3e
       0.2713669 0.29186642 0.07353998 0.14517474
000340 e1 d8 4a 3e 33 18 7a 3e 46 05 94 3e fe de 64 3e
       0.19809295 0.24423294 0.28910273 0.2235069
000350 d3 d6 81 3d 40 55 74 3e bb 0b 5b 3e b2 01 71 3e
       0.063398026 0.23860645 0.21391194 0.23535803
000360 10 db 18 3e e1 9d 87 3e f9 3e 36 3e 3e 02 97 3e
       0.14927316 0.2648764 0.1779746 0.29493898
000370 76 e9 96 3e 22 d8 b8 3e 6c ba 98 3d c2 ae b2 3d
       0.29474992 0.36102396 0.07457432 0.08724739
000380 ca d1 88 3d f6 46 0c 3e 31 1d 88 3e e4 4e bd 3d
       0.06680639 0.13698944 0.2658477 0.09243563
000390 7d 9c 9c 3d ca 16 c3 bd f7 a1 da 3d 18 5f af 3e
       0.07647035 -0.09525831 0.106754236 0.34252238
0003a0 99 ca 5e 3d 1b 82 21 3e 55 c7 80 3e be ca 09 3e
       0.05439243 0.15772288 0.25152078 0.13456246
0003b0 ba c2 a4 3d d4 5c 1c 3e 91 22 94 3e 66 de 77 bc
       0.08044954 0.15269786 0.28932622 -0.0151287075
0003c0 43 cf c2 3e 3e dd 6c 3e 02 66 8a 3e 5c 15 2a bd
       0.38048753 0.23131272 0.2703095 -0.041524276
0003d0 bb e2 46 3e 56 16 2b 3e 5f 6d 9e 3e 21 dc 43 3e
       0.19422428 0.16707739 0.3094282 0.19126941
0003e0 b4 a5 20 3e 70 06 5e 3e 58 e2 6f 3e 0e c8 01 be
       0.1568821 0.21682143 0.23426187 -0.12673971
0003f0 e4 13 7e 3e d3 8c 8a 3d de de 62 3e be 7e b1 3d
       0.24812275 0.06765141 0.2215533 0.08666752

bn1.weight f4 [400]
000000 c2 a4 82 3f e1 5d 39 3f 10 16 6d 3e 75 dd 1a 3f
       1.020653 0.7240887 0.23152947 0.60494167
000010 ed 30 49 3f c0 7c 39 3f 9c 14 c3 3e b7 52 75 3e
       0.7859028 0.7245598 0.3810166 0.23957334
000020 f7 45 3f 3f d1 a0 10 3f 27 b2 6b 3f 61 d5 5a 3f
       0.7471613 0.56495386 0.92068714 0.8548184
000030 3b 58 34 3e d8 05 3e 3f b8 7f 01 40 79 e0 f4 3e
       0.17611782 0.74227667 2.0234203 0.4782751
000040 e4 64 b3 3f 85 46 58 3f 3b 01 69 3f ff fb 15 3f
       1.4015164 0.84482604 0.910175 0.5858764
000050 a3 5e 0a 3f 6a 5f b5 3f ca bf 5e 3f e1 db 7b 3f
       0.54050654 1.4169743 0.87011397 0.98382384
000060 65 18 17 3f 00 64 4c 3f f0 22 1f 3f f7 4b 8f 3f
       0.590216 0.7984009 0.62162685 1.1195058
000070 06 43 89 3f 8a 69 22 3f 3f 99 a1 3f 98 44 0a 3f
       1.0723579 0.6344229 1.2624892 0.54010916
000080 bc a0 7b 3f a5 ce 36 3f 66 d7 10 3f b5 a2 59 3f
       0.98292136 0.71409065 0.5657867 0.85013896
000090 10 82 28 3f a7 31 0e 3f f5 0c 4f 3f 23 d6 6b 3f
       0.6582346 0.55544513 0.80879146 0.9212362
0000a0 fb 7b b2 3f bc 0e 37 3f 32 6b 24 3f d2 ed c8 3f
       1.3944086 0.7150686 0.6422607 1.5697577
0000b0 33 96 35 3f 32 be 2e 3f f2 78 71 3f 75 0c 6f 3f
       0.7093231 0.68258965 0.9432517 0.9337838
0000c0 02 f2 10 3f fd bb 34 3f 78 74 c9 3f e0 43 0f 3f
       0.56619275 0.7059935 1.5738668 0.55962944
0000d0 a7 a6 d1 3f 5a 4c 1c 3f cf 54 7f 3f 40 15 6d 3f
       1.6378983 0.61054003 0.9973878 0.9261055
0000e0 05 34 ad 3f 9e 84 30 3f 34 35 26 3f b8 7d 69 3f
       1.35315 0.6895236 0.6492493 0.91207457
0000f0 b9 b2 87 3f 40 64 9b 3f 56 66 8b 3f 71 19 17 3f
       1.0601417 1.2139969 1.0890605 0.59023196
000100 b9 49 0c 3f 56 b9 1b 3f 97 d1 80 3f 1c fa 04 3f
       0.5479999 0.60829675 1.0063962 0.51944137
000110 a7 e0 43 3f 3b 4b d8 3e 8d e7 25 3f d7 4a ae 3f
       0.7651467 0.42244896 0.64806443 1.3616589
000120 98 73 1a 3f f4 49 74 3f 37 7f 88 3e 12 6b 06 40
       0.6033263 0.95425344 0.26659557 2.100285
000130 4b 8f 40 3f ae 27 53 3f c7 a5 20 3f 71 f1 15 3f
       0.7521865 0.8248242 0.62752956 0.58571535
000140 ac 6f 33 3f 97 53 57 3f 35 3c 9f 3f 7c 50 62 3f
       0.7009227 0.8411192 1.2440249 0.8840406
000150 c7 45 02 3f 7a 3d 4d 3f 52 d5 22 3f 7c 28 26 3f
       0.5088772 0.8017193 0.6360675 0.64905524
000160 17 f4 b4 3f cb bb 91 3f 08 a0 52 3f f8 ff 95 3f
       1.413699 1.1385435 0.8227544 1.171874
000170 c0 53 27 3f 4c 39 81 3f 40 aa 99 3e 47 a5 9e 3f
       0.6536217 1.0095611 0.30012703 1.2394189
000180 0d d0 21 3f ab ba 11 3f a9 21 6d 3f ca d1 2c 3f
       0.63208085 0.5692546 0.92629486 0.6750761
000190 7c d5 e9 3f 6b af 9c 3f d6 61 2e 3f 2a 33 90 3f
       1.8268275 1.2241033 0.68118036 1.1265614
0001a0 d2 5f 48 3f 2e f3 f4 3e 26 89 d2 3f 95 f7 4f 3f
       0.7827121 0.4784178 1.6448104 0.81237155
0001b0 30 ed 16 3f 91 67 bd 3f ca 6f fa 3e 1e 61 dd 3f
       0.5895567 1.4797231 0.48913413 1.7295263
0001c0 31 57 de 3e f1 e7 9c 3f 61 da b4 3f 32 39 e2 3f
       0.43425897 1.2258283 1.4129144 1.7673705
0001d0 60 68 4c 3f cd fc 7a 3f db f2 44 3f 37 12 92 3f
       0.79846764 0.98041993 0.7693307 1.1411809
0001e0 04 c7 44 3f 01 f7 58 3f 42 ac e9 3f a8 13 9a 3f
       0.76866174 0.847519 1.8255694 1.2037249
0001f0 65 bf e0 3e 34 c8 b3 3f 76 07 7b 3f 5a 42 dd 3f
       0.43896022 1.4045472 0.9805826 1.7285874
000200 2b 08 37 3f c3 dd a9 3e b6 f3 08 3f 65 e3 0c 3f
       0.7149684 0.33177003 0.53496873 0.55034477
000210 49 ea 03 3f de b0 4a 3f db 18 a4 3f 31 a1 7b 3f
       0.51529366 0.7917613 1.2820085 0.98292834
000220 67 c5 76 3f 15 f9 7c 3f 96 62 22 3f cb 0e 70 3f
       0.9639496 0.9881757 0.6343168 0.9377257
000230 40 fe 70 3f c2 c2 05 3f 49 eb f4 3e 96 b8 a6 3e
       0.94137955 0.522503 0.47835758 0.32562703
000240 41 df e3 3f 39 31 54 3f f0 46 1b 3f ef 9b 14 3f
       1.7802507 0.8288761 0.6065512 0.58050436
000250 79 af 85 3f 16 99 e0 3f f3 1c 2c 3f cf 00 79 3f
       1.0444175 1.7546718 0.67231673 0.9726686
000260 b5 fa fd 3e c4 af 05 3f ab fc c1 3f 7a 0d 9f 3f
       0.49605337 0.5222132 1.5155233 1.2425988
000270 f6 65 d3 3f d2 f5 b6 3e 8e bf d9 3e 7c 73 83 3f
       1.6515491 0.3573442 0.42528957 1.0269618
000280 81 3f 57 3f 36 f0 0a 3f ca 3a 6c 3f b5 61 dd 3e
       0.84081274 0.5427278 0.92277205 0.43238607
000290 82 be 67 3e 42 a8 d0 3f 4d 31 25 3f d8 67 6f 3f
       0.22631267 1.6301348 0.6452835 0.9351783
0002a0 95 81 0f 3f 6f e3 04 3f 81 67 fe 3e b6 1a e7 3e
       0.560571 0.51909536 0.49688342 0.45137566
0002b0 95 da 83 3f 5d 3b df 3f 3d d8 79 3f 6a 84 71 3f
       1.0301081 1.7439991 0.9759558 0.9434267
0002c0 9b bc 18 3f d0 0a 5d 3f 09 38 63 3f ee 1f 05 3f
       0.5966279 0.86344624 0.8875738 0.52001846
0002d0 9a 5f 8c 3f a3 53 f2 3e 75 56 80 3f 9b 51 8a 3f
       1.0966675 0.47329435 1.0026385 1.0806154
0002e0 ac a0 1c 3f 55 b8 4f 3f c9 0a f7 3e 38 72 8c 3f
       0.61182666 0.81140643 0.48250416 1.0972357
0002f0 69 36 34 3f 2f 5b 29 3f c5 08 c4 3f a5 bd 58 3e
       0.70395523 0.6615476 1.5315176 0.21166094
000300 34 fd 5e 3f 39 b4 89 3f ac 5b 18 3f ad 6f 55 3f
       0.8710511 1.0758125 0.5951488 0.8337353
000310 a3 13 8b 3f 81 79 85 3f 65 77 9f 3f 94 3a c7 3f
       1.0865368 1.0427705 1.2458311 1.5564752
000320 c4 49 0e 3f 87 2a 76 3f 4d 19 0a 3f fd e7 c3 3f
       0.5558131 0.9615864 0.53944856 1.5305172
000330 73 c7 a8 3f 1a c8 5c 3f c2 3a 84 3f e4 24 73 3f
       1.3185867 0.8624283 1.0330431 0.94978166
000340 21 c5 41 3f 45 ef 0f 3f 03 db 14 3f 8e fe 28 3f
       0.7569142 0.5622447 0.58146685 0.6601342
000350 f1 4c b7 3f 02 60 0f 3f 93 71 23 3f d4 06 25 3f
       1.4320356 0.5600587 0.63845176 0.64463544
000360 b5 ac 58 3f 79 90 2c 3f a6 53 a7 3f 89 81 14 3f
       0.8463853 0.6740795 1.3072402 0.58010155
000370 b7 df 7b 3f e5 d3 f0 3e c0 f2 7e 3f c1 01 73 3f
       0.98388237 0.47036663 0.9958916 0.9492455
000380 f3 04 cb 3f 66 41 a2 3f a4 13 2f 3f ef b6 73 3f
       1.5860885 1.2676208 0.68389344 0.9520101
000390 35 5c 98 3f 52 16 de 3f ab 2e b7 3f 1d d2 d4 3e
       1.1903139 1.7350562 1.4311117 0.41566554
0003a0 e5 51 b0 3f 07 40 a3 3f 2c 75 0c 3f d7 bc a2 3f
       1.3774992 1.2753915 0.5486629 1.2713879
0003b0 08 41 8b 3f cd 3d 4a 3f 3d d2 15 3f 19 6c db 3f
       1.0879221 0.7900055 0.58523923 1.7142364
0003c0 d4 ba cd 3e 51 5f 2c 3f fe e1 15 3f 59 7e c3 3f
       0.401816 0.6733294 0.5854796 1.5272933
0003d0 6a 64 6c 3f 97 32 66 3f 68 e7 20 3f eb 9b 4b 3f
       0.9234072 0.89920944 0.628531 0.79534787
0003e0 e3 22 48 3f 6a 4b 23 3f 3e 56 5b 3f fa c9 de 3f
       0.7817823 0.6378695 0.8567847 1.7405388
0003f0 3a 56 2d 3f 46 c6 bf 3f 5d 85 32 3f 07 75 a9 3f
       0.67709696 1.4982383 0.69734746 1.3238839

bn1.bias f4 [400]
000000 7f 0f 5c be d5 b0 d0 be 90 96 52 bf 5e 84 ea be
       -0.21490286 -0.40759912 -0.8226099 -0.45804113
000010 3f dd bb be 6f 60 bf be fb c4 24 bf bb bd 56 bf
       -0.36692235 -0.3737826 -0.6436307 -0.83883256
000020 fb e3 d0 be 24 0e ea be 08 57 d4 bd 17 01 8e be
       -0.40798935 -0.45713913 -0.103681624 -0.27735206
000030 82 3f 51 bf 7d 7d ca be f9 58 05 3b 41 01 12 bf
       -0.8173753 -0.39548865 0.0020347221 -0.57033163
000040 b7 b1 86 bd 83 33 9d be c8 c1 00 be 9f 09 f4 be
       -0.06576865 -0.30703363 -0.12573922 -0.4766359
000050 95 64 0c bf ba 7a af 3d 49 fb 65 be 33 c7 8c be
       -0.54840976 0.0856833 -0.22459139 -0.27495727
000060 26 8b f5 be 36 64 a5 be 51 66 ff be ca 82 2c bd
       -0.47957724 -0.32303017 -0.4988275 -0.042116918
000070 49 12 62 bd b5 f3 be be e5 fd ce 3c 10 f8 09 bf
       -0.05519322 -0.3729531 0.02526755 -0.5389414
000080 17 c7 18 bd c4 aa af be 38 88 00 bf 58 e0 51 be
       -0.037299242 -0.3430997 -0.50207853 -0.20495737
000090 52 f6 d7 be c7 06 03 bf c2 9d c0 be 6d 9f 83 be
       -0.42180115 -0.51182216 -0.3762036 -0.2570757
0000a0 41 52 b2 3d eb 53 ab be 3e e7 c9 be 8e 0f 13 bd
       0.08707095 -0.33462462 -0.39434236 -0.035903506
0000b0 c0 5e c1 be eb 18 cf be 80 35 86 be c4 42 58 be
       -0.377676 -0.40448698 -0.26212692 -0.21119219
0000c0 74 ee f4 be e7 6d e3 be 4d 22 e7 3d f5 d5 f7 be
       -0.47838175 -0.44419786 0.11285839 -0.48405424
0000d0 44 e7 c3 bc 9c e6 e1 be 78 e2 81 bd 77 ec 57 be
       -0.023913987 -0.44121253 -0.063420236 -0.21086298
0000e0 5e 1d 9e bd 6c 2a b9 be 73 f2 e0 be 34 59 dd bd
       -0.07720445 -0.36165178 -0.43934974 -0.1080803
0000f0 a5 e3 06 be 04 60 ae bd c2 54 d0 bd e9 c4 02 bf
       -0.13172777 -0.08514407 -0.10172416 -0.5108171
000100 c9 d9 f6 be 31 dc 01 bf 37 33 42 be 25 7e 0e bf
       -0.48213032 -0.5072661 -0.1896485 -0.5566123
000110 3c ba b2 be 4a 79 30 bf f2 dc d9 be d1 2c d1 3c
       -0.3490771 -0.6893507 -0.4255138 0.025534065
000120 77 d3 12 bf 75 e6 25 be cd e4 3d bf 8d f7 ed 3d
       -0.5735392 -0.16201194 -0.7417725 0.11619482
000130 57 99 b9 be e5 73 ad be f3 ed dd be 25 ff e7 be
       -0.36249802 -0.33877483 -0.43345603 -0.45311847
000140 8d ce ed be 02 e9 60 be ea fc d1 bd d7 c1 3f be
       -0.46446648 -0.21963885 -0.10253318 -0.18726288
000150 9d 02 07 bf 7f 29 aa be 5d 6a 03 bf 14 39 e2 be
       -0.5273836 -0.33234784 -0.5133417 -0.44184172
000160 56 67 d9 3d 60 99 0c be 97 1e 99 be 10 92 b9 bd
       0.10615413 -0.13730383 -0.2990615 -0.09061062
000170 01 6f e0 be 63 43 84 bd a7 34 48 bf c4 ab d8 bc
       -0.4383469 -0.064581655 -0.7820534 -0.026449092
000180 22 39 e7 be f6 24 0c bf 9c 68 66 be bf 18 ec be
       -0.45160776 -0.547439 -0.22500843 -0.4611263
000190 63 2d 8f bc 58 f0 a0 bd 26 ba c7 be 70 19 d0 bc
       -0.017477697 -0.07858342 -0.39009207 -0.025402755
0001a0 0a bb ad be a5 69 13 bf 6e d4 c2 3d 13 7f 8c be
       -0.33931762 -0.57583076 0.09513174 -0.274407
0001b0 f9 e1 09 bf f3 27 31 3e cb be 1a bf 3a c8 47 3d
       -0.5386043 0.17300396 -0.60447377 0.048774935
0001c0 f6 ab 23 bf c9 de 48 bd ab 7b 17 3e ba 0f 98 3d
       -0.63934267 -0.04904059 0.1479327 0.074248746
0001d0 de 22 c0 be 77 09 7f be e7 1f ba be 6f a6 2c be
       -0.37526602 -0.24905954 -0.36352465 -0.16860364
0001e0 4a d5 d4 be 98 0d 42 be e4 44 47 3e 57 78 26 be
       -0.41568977 -0.18950498 0.19459873 -0.16256844
0001f0 9e 2a 27 bf 75 08 5d bb a9 85 a2 be 1b 1d 65 3d
       -0.65299404 -0.0033726965 -0.317426 0.05593596
000200 63 a5 d3 be 53 2c 32 bf de c4 02 bf cf 42 fc be
       -0.41337118 -0.69598883 -0.51081645 -0.4926972
000210 51 93 11 bf 71 e0 bc be 84 93 88 bd af de b1 bd
       -0.5686541 -0.36889985 -0.066687614 -0.08685052
000220 61 86 75 be 1f c5 07 be e8 5a ef be ce 3c 4e be
       -0.23977043 -0.1325879 -0.46749043 -0.20140383
000230 6d 59 3d be fd 87 15 bf cf c3 08 bf 27 b6 2f bf
       -0.18491144 -0.58410627 -0.5342378 -0.6863732
000240 e4 40 81 3d b7 27 a0 be 84 aa 02 bf f1 97 06 bf
       0.06311205 -0.312803 -0.51041436 -0.52575594
000250 69 2e 47 be 61 b2 01 3e b2 3f cd be d4 f6 26 be
       -0.19451298 0.12665702 -0.40087658 -0.16305095
000260 99 af 0a bf 4e b0 14 bf ee c8 9d 3d 21 24 2e bd
       -0.5417419 -0.5808152 0.0770434 -0.042514924
000270 83 ab ec 3d 44 32 32 bf 82 04 19 bf f9 6d d8 bd
       0.11556151 -0.6960795 -0.59772503 -0.105678506
000280 7c 52 8a be 60 70 13 bf 79 09 45 be e5 b2 14 bf
       -0.27016056 -0.57593346 -0.19241895 -0.5808547
000290 9c ba 42 bf 15 57 a0 3d 75 6e be be 5d 92 9b be
       -0.76065993 0.078291096 -0.37193647 -0.30385104
0002a0 1a e4 03 bf 07 92 04 bf 67 81 01 bf 9b 10 16 bf
       -0.5151993 -0.5178532 -0.5058808 -0.5861909
0002b0 1e d1 64 be 8c 99 28 bd 5c d7 3d be d2 9d 37 be
       -0.22345397 -0.04116206 -0.18539184 -0.17931297
0002c0 1c df 03 bf d3 bd 81 be 7b 44 f3 bd 09 98 0e bf
       -0.5151231 -0.25340137 -0.11878296 -0.5570074
0002d0 2e 46 10 3c 5a e4 1e bf 3f 99 92 be 05 89 02 be
       0.008805795 -0.62067187 -0.28632542 -0.12747581
0002e0 78 b2 f0 be 71 ae a3 be 28 04 1f bf 2a 2b 81 bd
       -0.4701116 -0.31969026 -0.62115717 -0.06307061
0002f0 c3 2e d3 be 55 9a c6 be 03 3d 82 3b 16 fe 52 bf
       -0.41246614 -0.3878962 0.0039745583 -0.82418954
000300 c3 d6 ab be cc 45 d8 bc 9b 58 d5 be c5 07 c1 be
       -0.33562288 -0.02640047 -0.41669163 -0.3770124
000310 c5 43 0a 3c b0 d8 b7 bd 8e d6 12 bd fd 6f 11 bd
       0.008439009 -0.08976877 -0.035849147 -0.03550719
000320 46 0c 04 bf 44 27 af bd 71 b1 fb be 4a d2 4a 3e
       -0.5158123 -0.08552411 -0.49158815 0.19806781
000330 85 64 a6 bb 3b f3 97 be 68 13 41 be 6b 7c 39 be
       -0.005077901 -0.29677758 -0.18855059 -0.18113868
000340 b3 34 b3 be cf 50 f7 be 94 f8 09 bf 10 08 e6 be
       -0.35001144 -0.4830384 -0.53894925 -0.44928026
000350 31 57 c9 3b 8f 06 f0 be 32 d9 e1 be a2 a6 e7 be
       0.006144427 -0.46880004 -0.4411102 -0.45244318
000360 cd bc 83 be 15 d0 c9 be d6 43 fc bd e8 ca 06 bf
       -0.2572998 -0.39416566 -0.12317626 -0.5265336
000370 f1 bb 46 be fc d8 1a bf d5 b4 86 be 4f 4e 6b be
       -0.19407631 -0.6048734 -0.2630984 -0.22979091
000380 8a 3c 03 3e b9 86 5b 3c c7 e1 a3 be a3 5a 14 be
       0.12816063 0.01339882 -0.32008192 -0.144877
000390 03 b2 0c bd 0c f7 c0 bd e7 3d 30 bd c9 77 17 bf
       -0.034349453 -0.094221205 -0.043027785 -0.5916715
0003a0 a3 2b 79 bd a8 75 2f bd 73 d8 fd be 18 f3 d3 bd
       -0.06083263 -0.042836815 -0.495792 -0.10349101
0003b0 83 d1 27 be 9e 35 aa be 9a 20 03 bf f2 e3 49 3e
       -0.16388516 -0.33244032 -0.5122162 0.1971586
0003c0 55 47 24 bf ae 0d b2 be d3 59 f9 be 2e 11 b1 3b
       -0.64171344 -0.34776062 -0.48701343 0.0054036593
0003d0 1e 19 58 be 19 24 85 be 92 ab 01 bf a1 dd a2 be
       -0.21103331 -0.26004103 -0.5065242 -0.31809714
0003e0 27 b4 d3 be d4 78 cc be 8d 01 8a be 94 88 c8 3d
       -0.41348383 -0.39935935 -0.26954308 0.09791675
0003f0 97 7a e6 be 03 63 97 bd f8 1a b3 be b8 45 9e 3d
       -0.45015404 -0.07391932 -0.34981513 0.077281415

fc2.weight f4 [300, 400]
000000 63 8c a8 bc ec f0 69 3d ec 96 ae bc 13 78 d0 3d
       -0.020574754 0.057114527 -0.0213122 0.10179152
000010 b3 5c 6c 3d a4 bd be 3d 60 b9 c5 bd 03 58 d9 3d
       0.057705592 0.09313515 -0.09654498 0.1061249
000020 4c 5a be bb b9 1c 92 3d e6 35 cd 3d 0c 1f 38 3d
       -0.005809104 0.07134385 0.10020046 0.044951484
000030 71 5d 0b bd 0f d9 9f 3d 9f 61 38 bf 76 dc 92 bd
       -0.03402466 0.078050725 -0.7202396 -0.07170956
000040 a1 dd 69 bd 5d 44 fb 3d 2a 2a 4b be b5 67 c1 bc
       -0.057096127 0.12268899 -0.19840303 -0.023609022
000050 5d 10 96 bc 0f 16 0f 3e 34 aa ab bd 5f de 03 3e
       -0.01831835 0.13973258 -0.08382073 0.12877797
000060 0f 7f d1 3d c6 a0 94 be a7 72 01 bd e7 81 b8 bd
       0.10229313 -0.2902891 -0.03160348 -0.09009152
000070 98 e1 2e bd 52 9f 8f bd f2 ce 04 be 6d 30 05 3d
       -0.04269561 -0.0701281 -0.12969568 0.032516886
000080 fb cb e3 3d 0d ad 84 bd 08 a7 2b bd cc ec e0 bd
       0.111228906 -0.06478319 -0.04190734 -0.109826654
000090 25 45 b9 3b 45 d8 13 3e c2 e4 69 3d 6c 3a ba bd
       0.0056539946 0.14437969 0.057102926 -0.09093174
0000a0 32 fc 47 be d2 27 d3 bd 04 a9 04 be d8 f3 6b 3c
       -0.19529799 -0.103103295 -0.129551 0.014401399
0000b0 53 38 56 3d 5e 43 88 3c b8 3b 72 bd 85 32 3c 3e
       0.05229981 0.016633686 -0.059138983 0.18378647
0000c0 6c d5 92 bd 5d 3b 79 3d 4a ab 77 3e 3f d8 50 3d
       -0.07169613 0.06084763 0.24186435 0.05098748
0000d0 a9 fd 94 bd f8 8a e7 3d 38 d5 a0 3d 36 71 ac 3d
       -0.07274944 0.11305803 0.07853168 0.08420031
0000e0 3f d7 60 3d 4e f4 39 3e dc ca 83 bd a5 3b a7 3d
       0.054892775 0.18159601 -0.06435177 0.08165673
0000f0 98 cf 96 3c 05 c9 ae 3d 4a e0 1a be d4 65 03 be
       0.018409535 0.08534435 -0.15124622 -0.12831813
000100 f3 88 3d 3e 75 99 c0 3d d7 b8 a5 bc 49 ac c4 3d
       0.18509273 0.094042696 -0.02022974 0.09603173
000110 0c d9 2b be 2f cb 8a bd e8 c1 06 3e 11 56 cc bd
       -0.16782016 -0.067770354 0.13159907 -0.09977353
000120 4f ea 31 bd 4e c5 91 3d 00 17 22 3e c8 c8 e1 be
       -0.043436345 0.07117711 0.15829086 -0.44098496
000130 22 4b c1 bd d4 e0 8b bd db 9b 85 bd 9d eb 9f 3d
       -0.094381586 -0.06829992 -0.06523868 0.078086115
000140 d3 ca c8 3d 8a 29 0a 3e 64 6b d3 3b 43 82 95 3d
       0.09804311 0.13492408 0.006452011 0.07300236
000150 29 ae d3 bd 97 7e d2 3b fd 58 43 3e 8b 00 6d bc
       -0.10335953 0.006423782 0.19076915 -0.0144654615
000160 00 3d 8c 3d e7 81 13 bd 7c 1c 35 3d 0d 96 c4 bc
       0.06847572 -0.036012556 0.044216618 -0.023997331
000170 ed 53 d2 3a c3 91 0f 3e b1 67 e4 3d 1e 94 1b be
       0.001604674 0.14020447 0.1115259 -0.15193221
000180 b7 f6 c4 bc 93 b3 7b 3d 8c a4 af 3d 46 31 69 bd
       -0.024043424 0.061450552 0.08576307 -0.056931756
000190 1d 0b c8 bd 62 82 63 bd fe 74 15 be c4 23 95 ba
       -0.09767745 -0.055544265 -0.1459541 -0.0011378457
0001a0 eb da 92 3c ee ab 96 3c 51 2c 2b 3e 22 20 03 3e
       0.017926654 0.01839253 0.16716124 0.12805226
0001b0 85 09 8c be 9e db d9 3c 0a 26 f3 bc fa 8a fa bd
       -0.27351013 0.02659398 -0.029681224 -0.12233539
0001c0 22 b6 16 bd 3a 71 4a bd da 7c 6c 3d 0b 40 46 be
       -0.03679479 -0.049424388 0.057736255 -0.19360368
0001d0 f2 2d 83 3d 9a e0 48 3e 85 8c 88 3e 6f 4d 17 3d
       0.06405248 0.19616929 0.26669708 0.03693908
0001e0 26 70 0d bd 12 b8 2d be 92 68 e5 bd bc 64 45 3e
       -0.03453078 -0.16964749 -0.11201586 0.19276708
0001f0 3a d4 8e 3d 65 70 e5 bd 43 c6 20 be d9 7c 02 bd
       0.06974073 -0.11203078 -0.15700631 -0.031857345
000200 1a 5c 6b 3e 2a 8e e6 bd 15 a3 68 bc ce 15 83 3c
       0.22984353 -0.112575844 -0.014199038 0.016001608
000210 e5 f6 4b bd a8 0c 36 3e 11 80 17 3c 50 da 17 bd
       -0.049796004 0.17778265 0.009246842 -0.037073433
000220 8f 08 25 be 34 c2 41 3d 59 0d 14 3c 58 f4 96 3d
       -0.16116546 0.047304347 0.009036385 0.073708236
000230 99 16 07 be 69 60 a9 bd 75 37 fc 38 68 fb 75 bd
       -0.13192214 -0.08270342 0.00012026626 -0.060054213
000240 18 7f a0 be 2b 37 a1 3d 18 3d b5 bd 7d 9a 55 3c
       -0.31346965 0.078718506 -0.08849543 0.013037321
000250 f9 15 ab bd e1 e6 bc bc b1 71 e8 3d a4 0b 01 3e
       -0.083538 -0.02305931 0.1134981 0.12602097
000260 f4 68 11 3d d5 7e 1e bd de a2 0f be 63 30 fc 3b
       0.03550048 -0.038695175 -0.14026973 0.007696198
000270 9b 87 42 3e d5 24 be bd d7 ee 1c 3d 91 16 2d bd
       0.18997042 -0.09284369 0.038313713 -0.04225785
000280 63 a2 37 be 2f 61 12 3d b7 d1 51 3e 8f 08 9d 3d
       -0.1793304 0.035737213 0.20490156 0.07667648
000290 6a e6 a1 3d a6 bf 3f be 80 f1 25 be 44 ff 10 bc
       0.07905276 -0.18725452 -0.16205406 -0.008849923
0002a0 51 89 6d bd 26 0a b7 bb fe 07 f3 bd 0d 8d 3d 3e
       -0.057992283 -0.0055859266 -0.11866759 0.18510838
0002b0 d1 d9 ef bd 13 99 d7 bd 23 df 99 bd e7 87 10 3e
       -0.11711467 -0.105272435 -0.07513263 0.14114343
0002c0 fb f0 0e 3c bd 6c 61 bc 79 e7 c6 3d 52 84 a1 bd
       0.008724446 -0.013758835 0.09712119 -0.07886566
0002d0 a4 33 e0 bd 88 1b 3c bc 7c 4e 0e 3d 76 35 0a 3d
       -0.1094735 -0.011481173 0.034742817 0.03374239
0002e0 38 3a 4b bd 7a fe 25 3e 1b de a0 3c 6b 6b 94 3d
       -0.04961607 0.16210356 0.019637158 0.07247051
0002f0 8f 4e d6 3c 1b 17 7d 3a c0 ea 5e be 46 f2 29 3d
       0.026160507 0.0009654627 -0.21769238 0.041490816
000300 5c 6e 5f 3d 0b f9 02 3c af eb 00 3d ca 13 d2 3d
       0.054548606 0.007993947 0.031474765 0.10257681
000310 75 fe 4e 3d 0a cf 08 3d 8a 10 ec bc ce 1d 84 bc
       0.050535638 0.033400573 -0.02881648 -0.016127493
000320 74 30 11 be 50 b9 43 3e 56 c7 7e 3d 63 fd 58 3e
       -0.1417864 0.1911366 0.06220182 0.2119041
000330 a6 4c c2 3d ba b4 96 3d 50 d0 a7 bd 1d 00 b1 3d
       0.09487276 0.073586896 -0.08194029 0.086426
000340 c8 e2 a3 3d 66 f7 a0 3c 8b 3c 86 ba 51 6b 4c 3d
       0.080022395 0.019649219 -0.0010241432 0.049907032
000350 e8 11 08 bd de 61 99 3c f9 0e 19 3e c8 52 d7 bd
       -0.0332202 0.018723425 0.14947118 -0.10513836
000360 ef ab e8 bc cb b5 a3 bc 8a 8d 82 bd bf 25 08 3e
       -0.028402297 -0.019984147 -0.06374653 0.13295649
000370 03 9d e7 3d 01 27 46 bd 79 f6 3f bd d4 0c 9d bb
       0.113092445 -0.04837704 -0.046865914 -0.004792789
000380 8a d0 9f 3d e1 f9 96 3d 25 4f 7d 3d 50 28 3b bd
       0.078034475 0.07371879 0.061843056 -0.045692742
000390 24 03 28 3e 7c e9 85 bb b4 12 ec bd 57 8f a5 bd
       0.16407448 -0.0040866714 -0.11527005 -0.080839805
0003a0 5f 70 c7 3d a0 9f 17 3e 37 49 a8 bc 64 e4 3c bd
       0.0973823 0.14806986 -0.020542724 -0.046116248
0003b0 48 77 34 3d f7 64 87 3d 91 fb 27 3e 4c b8 f1 3d
       0.044059068 0.066110544 0.16404559 0.1180273
0003c0 d4 03 04 be 0b c5 b9 bd f7 fa ae bd c4 a2 21 bc
       -0.12892085 -0.09070786 -0.085439615 -0.0098654665
0003d0 e3 a8 31 3d 04 27 ab 3d 3e 11 89 3b fd 2f 92 3a
       0.043373954 0.08357051 0.0041829636 0.0011153218
0003e0 46 b3 18 be 16 6a cc bd b6 f9 2e 3e 3e 66 4a bd
       -0.14912137 -0.09981172 0.17087445 -0.049413912
0003f0 82 1b d9 bd bd 9e 10 3d 5d b4 26 39 91 bc 91 bd
       -0.1060095 0.035307635 0.00015898184 -0.07116044

fc2.bias f4 [300]
000000 1b df 23 3d 87 27 39 3e ce 34 be 3c 0e d6 50 bd
       0.04000769 0.18081485 0.023218539 -0.05098539
000010 42 84 13 3c 70 9c 08 3e af 46 a0 bd d5 e6 dc 3b
       0.009003701 0.13340926 -0.07825982 0.0067413845
000020 b9 d2 81 bd d5 99 cc 3b c8 b3 63 3e 54 14 df bc
       -0.0633902 0.006243924 0.2223655 -0.027231373
000030 be 06 df bd 91 e2 ba 3c b9 84 e4 bc b4 07 b4 bc
       -0.10889958 0.022813113 -0.027895318 -0.02197633
000040 74 d8 7b bd ca ad 6f 3d 4f 89 44 bb 00 cb dd bc
       -0.061485723 0.058515348 -0.002998907 -0.027074337
000050 9b 6c 4c 3c e4 28 d1 3c e0 af 03 bc d8 bc eb 3d
       0.012477065 0.025532193 -0.008037537 0.115106285
000060 13 be f6 bd 0c 1b 0c 3d d8 81 e8 3b a1 25 b6 3d
       -0.120479725 0.03420548 0.0070955567 0.08893896
000070 d2 e4 f6 3b 69 6e 23 3c 4d 0e 96 bc e3 1e 17 bd
       0.0075346017 0.009975054 -0.018317366 -0.03689469
000080 89 0e 40 bd 0d 0e 42 be ca b7 bb 3d 9a c0 1e be
       -0.04688886 -0.18950672 0.09165914 -0.15503159
000090 41 f0 9f 3c 89 db 1f bd 1e 25 08 3d b9 b9 e4 bc
       0.019523742 -0.039027724 0.033238523 -0.02792059
0000a0 bc bb 64 bd 71 06 cd 3d 58 69 40 bc 0d 38 5f bd
       -0.0558431 0.10010994 -0.011743866 -0.054496814
0000b0 8b 1b bf 3b ce 19 16 be 1c dc d8 3c ed d5 bd 3d
       0.005832141 -0.14658281 0.026472144 0.09269319
0000c0 2d 3a b8 bb d7 2b 77 3e 3f 67 09 3e b3 d5 d1 bc
       -0.0056221695 0.24137817 0.13418292 -0.025614595
0000d0 a9 87 71 be f2 5a 34 3e e8 98 84 3d e0 f7 14 bd
       -0.23586906 0.17612818 0.06474477 -0.036369205
0000e0 a6 01 db 3d e4 ca 2a 3d 6f b5 0e bd 3b 67 a2 3d
       0.10693674 0.041697398 -0.034840997 0.07929846
0000f0 9c a0 eb 3d 4b 72 58 3c d4 4e 98 3d f1 c7 ab bd
       0.11505243 0.013210843 0.0743691 -0.08387745
000100 28 6c d7 bc aa 4c 8e 3d cf fb 7b 3e d9 8d 4c 3a
       -0.02629669 0.06948216 0.24607776 0.00078031194
000110 86 e8 ae 3d 46 37 f6 3d e9 5d 43 be bd a6 6d bd
       0.08540444 0.12022261 -0.19078793 -0.058020342
000120 b1 2d b9 bd 6d 52 72 3e f8 a4 5d bd 0e 1e a7 3d
       -0.09041918 0.23664255 -0.054112405 0.08160029
000130 53 54 a6 bc 0d 0e 07 bc 82 f8 02 3e ac e0 38 3b
       -0.02030388 -0.008243096 0.1279011 0.0028210087
000140 0b 2e 83 3d 87 15 37 3d e0 88 66 bd 80 ed c5 bc
       0.064052664 0.044698264 -0.056282878 -0.0241611
000150 06 e9 59 3c b4 36 53 3d 57 7f 0e 3d 3c 48 52 bc
       0.013300186 0.05156584 0.03478941 -0.012834605
000160 51 f8 6e bd f1 e2 f9 3c 60 f1 9a 3d 8e 5e 09 be
       -0.05834228 0.030503722 0.0756557 -0.13414976
000170 1b 4f 45 be ba 72 90 3d 89 b2 02 be d4 92 3d bd
       -0.19268458 0.07053132 -0.12763418 -0.046282604
000180 61 07 05 3a c1 0a 7b 3d 64 68 95 bd 86 a9 3a 3d
       0.0005074647 0.061289553 -0.072953016 0.045571826
000190 5d eb 1e bd 74 19 69 bc 0b 7f 8d bd d3 c3 48 3e
       -0.03879868 -0.01422726 -0.06908997 0.19605951
0001a0 1e 03 64 be c9 3d 55 be cd 4e 8b bd 24 2c 7d 3d
       -0.22266814 -0.2082435 -0.068021394 0.061809674
0001b0 06 4d b8 bc 95 14 67 3d b5 2e e6 bc 2a c4 91 3b
       -0.022497665 0.056416113 -0.028098444 0.0044484334
0001c0 52 c9 a6 bd d0 44 20 bc c2 9e 15 3d 24 84 03 bd
       -0.081438676 -0.009782031 0.036528356 -0.03210844
0001d0 4a a3 a7 ba 2a e9 a3 3d ee 05 01 bc 3f 03 75 3c
       -0.0012789753 0.08003457 -0.007874949 0.014954387
0001e0 b0 b4 9c bd 15 99 a9 3d 1f 03 d1 3d df f9 d9 3d
       -0.07651651 0.08281151 0.102056734 0.10643362
0001f0 65 da a3 bd 3d 1b 4b 3e e3 fd 3f be 48 53 9d bd
       -0.0800064 0.1983461 -0.18749194 -0.076819
000200 ed 52 96 3d c9 37 6c bd 3b 54 1f bd 51 95 a0 bb
       0.073400356 -0.05767039 -0.038898688 -0.0049006124
000210 0e fc 26 bd 90 44 1f bc bc 4e 32 bd c2 50 16 3d
       -0.04076772 -0.009720936 -0.04353212 0.03669811
000220 6d cd 49 bc 67 46 22 be a3 12 8f bd 19 3a af bd
       -0.012317044 -0.15847169 -0.069859765 -0.08556003
000230 3e 40 8f 3e e2 8f 94 bd f1 20 2e 3c 12 7b b2 3d
       0.279787 -0.07254006 0.010627971 0.0871488
000240 f7 75 70 3d 04 2a 35 3e 8d f9 30 3e c4 cc 1e 3d
       0.05870625 0.17691809 0.17282696 0.0387695
000250 32 81 86 3e fe 8d e2 3d 39 7f 6d bd ce 3f 62 3e
       0.26270443 0.11062239 -0.057982657 0.22094652
000260 45 27 3d 3d 70 cd 65 bd b4 0f 9b bc 76 b0 2b 3e
       0.04618003 -0.056104124 -0.018928386 0.16766533
000270 20 88 a5 bc 12 77 0c bd df b6 a7 3d 45 70 6b 3d
       -0.020206511 -0.03429324 0.08189177 0.057480115
000280 df 19 6f 3d 14 51 e3 3c 79 73 08 3e bf 88 fc 3d
       0.058374282 0.027748622 0.133253 0.1233077
000290 fc 7e 50 be bc dc 22 3e 13 75 10 be 6f 6d 1f bd
       -0.2036094 0.15904516 -0.1410716 -0.038922723
0002a0 9c fd ce 3c 25 03 d6 bc 0a 85 82 be 41 9e 01 3d
       0.025267415 -0.026124546 -0.25492126 0.031645063
0002b0 b9 fa c4 bd 8f 31 18 3d 43 e3 9b be b0 73 bb 3d
       -0.09618134 0.037156638 -0.30446824 0.09152925
0002c0 1a e9 07 3c bc 76 09 3d fd 91 87 bb b6 5b 41 3e
       0.008295322 0.0335605 -0.004137276 0.18882641
0002d0 70 2f c0 3d 4c c9 56 3c 11 32 7e bc 9f 47 53 3c
       0.09384048 0.013109516 -0.015514866 0.012895494
0002e0 f8 b6 20 3c 97 02 33 3d d3 05 89 bc 29 a9 04 3e
       0.009809248 0.04370364 -0.01672641 0.12955154
0002f0 37 e6 95 3d c6 ce dd bd 88 68 b1 bc 3f 0a 8d 3d
       0.073193006 -0.108304545 -0.02165629 0.0688672
000300 dc 5a 8f 3c cf 95 1a bd 43 f1 28 bd 45 db c4 3c
       0.01749938 -0.037740525 -0.04124571 0.024030337
000310 b8 46 7e 3e 57 2d 9e bd 5e a4 b0 3d ad a5 0b 3e
       0.24831665 -0.07723492 0.086251006 0.13637419
000320 c9 1b 99 3a 2b a9 71 bd d1 99 ba 3d da 68 02 3e
       0.0011681254 -0.05899922 0.091113694 0.1273531
000330 2f 99 18 3d 55 fb 25 3d c7 9b 52 3e 88 84 0b 3d
       0.037255462 0.040522892 0.20567237 0.03406194
000340 d9 0f 43 3d db 5f 77 be 54 7f ef 3d d0 e8 23 3c
       0.047622535 -0.2415766 0.11694208 0.010004237
000350 87 dd e6 bd 77 d7 52 3c 1c 84 b2 3d e3 01 ca 3b
       -0.11272722 0.012868754 0.08716604 0.0061647757
000360 53 d3 9f bd 30 3a c3 ba 33 69 3b bd 4d 59 d1 3d
       -0.07803979 -0.001489466 -0.045754623 0.10222111
000370 aa 24 29 3d f7 06 b8 bc 9e 6d b8 be a3 0a 71 3d
       0.04129473 -0.022464259 -0.3602113 0.058848035
000380 4c 0c 2c bc 1c 12 bb 3d 01 32 4e bd ab c5 9e bc
       -0.010500979 0.091343135 -0.050340656 -0.019381365
000390 7d 3e 74 bd 41 cd 8e 3d 49 dd 98 3d ec 37 e5 bc
       -0.059629906 0.06972743 0.07464082 -0.027980767
0003a0 3f 95 8c bc 99 97 93 bb be f7 b7 3c d1 f3 0c 3d
       -0.01716101 -0.004504156 0.022457 0.03441221
0003b0 fc 51 fa 3d 49 c0 1a bc f6 66 c5 3d 91 cd 05 3d
       0.122226685 -0.009445258 0.09638779 0.032666747
0003c0 2e db d3 bd 9a ee 32 3d d2 52 b8 bd ef f8 cb bc
       -0.103445396 0.04368458 -0.09000172 -0.024898974
0003d0 18 53 7c bd 51 8d 46 3d c2 04 69 be 04 7e 0d 3d
       -0.061602682 0.048474614 -0.22755721 0.034544006
0003e0 7a f7 00 be 48 f6 e2 3d b8 75 6e bb e1 3c 19 bc
       -0.12594405 0.11082131 -0.0036386084 -0.009352894
0003f0 9f 19 48 3e da e2 0f 3e ca 0d c2 bd 7b 27 84 3d
       0.19541024 0.14051381 -0.09475286 0.06452843

bn2.weight f4 [300]
000000 f5 5b 30 3e a4 93 e8 3d 25 49 54 3e 0a a7 0f 3e
       0.17222579 0.11356285 0.20731027 0.14028564
000010 71 22 21 3e 38 b4 8b 3e 75 54 44 3e 73 ec 40 3e
       0.15735795 0.27285933 0.19172843 0.18840198
000020 7e 73 26 3e 72 b4 69 3f 21 3a 04 3d 61 0e f2 3d
       0.16254994 0.9129096 0.032282 0.11819149
000030 f9 e7 c9 3b bc 2c 99 3e fe 01 ae 3d a1 52 b4 3e
       0.0061616865 0.29916942 0.08496474 0.3521929
000040 1e 33 8f 3e e8 07 a4 3e 5b 79 fb 3d 11 9a 9f 3d
       0.27968687 0.32037282 0.12279006 0.07793058
000050 45 91 54 3a 3d b9 02 3f d2 dd 85 3e f3 4e 89 3d
       0.0008108805 0.510639 0.26145798 0.067045115
000060 5e 65 2e bb 30 24 06 3e 88 8c 90 3e 09 12 69 3d
       -0.0026610713 0.13099742 0.28232217 0.056901965
000070 23 9c 2e 3f 36 9e 1b bc e5 4d 96 3e 62 cf 83 3e
       0.68206996 -0.00949817 0.29356304 0.25744158
000080 2b b7 42 3e b4 9c ae bc 42 d3 80 bb 51 f8 17 3e
       0.19015186 -0.021314956 -0.003931434 0.14840819
000090 23 82 9c 3e db 26 31 3e 0e a2 0a 3f f6 84 7e 3d
       0.30568036 0.17299978 0.54153526 0.06213852
0000a0 86 f6 3f 3e db b0 8a 3e 34 24 8d 3e 8e c9 ed 3d
       0.18746385 0.27088055 0.27566683 0.11610709
0000b0 b0 e9 55 3e 23 b7 b5 3d ce 90 47 3e 0c 0c 70 3d
       0.20889926 0.08872821 0.19488832 0.05860524
0000c0 cd f9 04 3f 4a 05 a7 bc 9f c8 e5 3d 80 cb f6 3d
       0.51943666 -0.020388264 0.11219906 0.12050533
0000d0 81 f4 7f 3c c3 64 fb 3d 16 47 39 3d f7 af af 3e
       0.015622259 0.12275078 0.04523381 0.34313938
0000e0 9a ab ee 3b d5 9d a4 bc 09 e4 19 3e 05 0a 81 3e
       0.00728364 -0.020094791 0.15028395 0.25202957
0000f0 6a 85 03 3f 13 8a 86 3b 70 cb 91 3b 14 35 08 3c
       0.5137545 0.004105815 0.0044493005 0.008313436
000100 b0 7c af 3c 5e ef 55 bd f0 b5 fe bc e4 b4 db 3d
       0.02142176 -0.05223023 -0.031092614 0.107278615
000110 37 b4 66 3e 57 19 eb 3d e4 fe 74 bd f7 60 7a 3e
       0.22529684 0.114794426 -0.059813395 0.24451052
000120 e2 2a 53 bb 8d 1b 1e bc 98 ad 03 3f bf 30 2f 3e
       -0.0032221605 -0.009650123 0.5143676 0.17108439
000130 c5 20 b4 3e e5 e6 56 3e 96 6b 82 3e 7f 87 a6 3e
       0.3518125 0.20986517 0.25472707 0.3252525
000140 8f a7 53 3e 45 c6 32 3e d3 8d 6c 3e 61 f2 9f 3e
       0.20669387 0.17458446 0.23100977 0.31239608
000150 68 1c e0 3e 64 eb b3 3e 93 fe c6 3e 54 ab 6f 3e
       0.43771672 0.35140526 0.388661 0.234052
000160 2c 7d 54 3e 43 40 5d 3f cb 3f b2 3d 9c 99 23 3d
       0.20750874 0.8642618 0.08703574 0.039941415
000170 92 97 06 3d 25 17 2b 3e 70 b4 60 3e 7e 81 6d 3e
       0.032859392 0.16708048 0.21943831 0.23193929
000180 39 73 50 3f c3 53 58 3d f9 63 1d 3e ab ca e5 3d
       0.81425816 0.052814256 0.15370168 0.112202965
000190 d5 80 25 bc 88 31 c6 3e 99 3c 9d 3e fd 50 0b 3d
       -0.010101517 0.38709664 0.30710295 0.034012783
0001a0 4b 36 c4 3c dc ce fc 3c f4 08 13 3f 1d d4 aa 3e
       0.02395167 0.030860357 0.57435536 0.33364955
0001b0 c0 44 98 3d 81 f6 1b 3e d3 c7 74 3e 08 45 3b 3b
       0.07434988 0.15230753 0.23904352 0.0028575081
0001c0 e4 09 a0 3e d9 f1 82 3d 9c 26 99 3d a7 82 af bc
       0.31257546 0.06393785 0.07478067 -0.021424605
0001d0 71 8c 68 3e cc c3 a7 3c 12 bd 7d 3e 31 e0 1e 3e
       0.22709824 0.020479105 0.24779156 0.1551521
0001e0 82 e3 15 3e a4 82 91 3e 25 5e 3a 3e fd 6c b6 3d
       0.14637569 0.28419983 0.18199976 0.089075066
0001f0 f0 78 00 3e 16 e0 91 bd 2a 25 05 3d 5e 8a 38 3e
       0.12546134 -0.07122819 0.032506146 0.18021533
000200 7b 7f 12 3e 49 ef 89 3e 65 a3 5b 3f 74 3a 34 3e
       0.14306442 0.26940373 0.85796195 0.17600423
000210 d5 c5 8f 3e 47 cb e3 3e 7c 75 92 3c fd 50 3d 3f
       0.2808062 0.44491026 0.017878287 0.73951703
000220 aa 14 f2 3d 43 9e 90 3c dc 42 e3 3d 8b f6 fd 3d
       0.118203476 0.01765359 0.11096737 0.1240054
000230 a1 97 cd 3c f6 49 7d 3e ea bd 6c 3e f0 ad f5 3d
       0.025096716 0.24735245 0.23119321 0.119960666
000240 16 72 84 3e 07 08 cf 3c 78 24 bd 3d f5 f6 fb 3d
       0.2586829 0.025272382 0.092354715 0.12302963
000250 d2 c7 33 3d d3 e6 cb 3d da cf 79 3e 58 5f 09 bd
       0.043891735 0.099561356 0.24395695 -0.033538193
000260 6b 0d 3f 3d 00 7a 05 3e 46 e6 73 3e c4 a2 00 3d
       0.046643656 0.1303482 0.23818311 0.031405225
000270 d0 3c 54 3d 7f 91 37 3e 79 fe fd 3d 4e a1 b4 bc
       0.051815808 0.17926596 0.124020524 -0.022049572
000280 ad f2 99 3e 2c bd 97 3e 3f a1 3f 3d 0c f5 2e bc
       0.3006796 0.29636514 0.046784636 -0.010678541
000290 de f1 05 bd 32 75 a0 bc 1d 53 96 3c ec 70 bd 3e
       -0.032701366 -0.019587133 0.018350178 0.37000215
0002a0 44 bb b9 3e 95 b3 bb 3e e6 3a 19 bd d5 45 d1 39
       0.36275685 0.36660448 -0.037409686 0.00039915615
0002b0 24 3c a1 bd ff 19 8e 3e df 12 b9 3c ab 41 4f 3e
       -0.07872799 0.27754208 0.022592006 0.20239894
0002c0 64 85 7d 3d 36 b0 81 3e c0 c6 12 3e 84 7c bd 3d
       0.06189479 0.2532975 0.1433363 0.09252265
0002d0 8e 2f 59 3e 35 da 31 3e 8f 70 bb 3e 29 02 05 3e
       0.21209547 0.17368396 0.36609313 0.12989105
0002e0 57 1a 1c 3f 0a 16 43 3e fa 00 92 3e 9a 32 a9 3e
       0.6097769 0.19051376 0.2851637 0.33046418
0002f0 09 96 7d 3e 9f 38 1c 3e 96 84 3e 3e 05 8e 3f 3e
       0.24764265 0.15255974 0.18605265 0.1870652
000300 37 22 ce 3e fd 23 32 3e 3d 2b 3d 3e 24 1f aa bb
       0.4026048 0.17396541 0.18473525 -0.0051917005
000310 a9 59 77 bd 2e 8e 30 3e 7f c3 97 3d 4a 4d a9 3d
       -0.06038824 0.17241737 0.07410335 0.08266695
000320 5c 15 d7 3e d3 66 c1 3b e4 90 5b 3e e5 c5 0e 3c
       0.42008483 0.00590215 0.2144199 0.008714174
000330 e8 ba 0d 3e cc 37 20 3e cc 65 c2 3c 08 2d d1 3e
       0.1384083 0.15646285 0.023730181 0.4085467
000340 a2 5c 9e 3e 1a eb 76 3c 3a f5 5c 3e b5 b6 04 3f
       0.30930048 0.015070701 0.21577922 0.5184129
000350 29 0b 00 3d fb 25 e1 3d 7d 3d f0 3d af e9 ff 3d
       0.031260643 0.10993572 0.11730478 0.124957435
000360 70 fe d0 3d b8 c0 57 bd 75 a6 18 3f 49 af 4d bc
       0.1020478 -0.052674025 0.59628993 -0.012553998
000370 9c b1 4d 3e b5 c0 5b 3e a6 49 b5 3c b3 70 c3 3d
       0.20087284 0.2146023 0.022129845 0.0954298
000380 ea 66 c1 3d 28 4f 13 3d cd f2 26 3f 9f cd 63 3e
       0.094434574 0.03596416 0.65214235 0.22246407
000390 6c 08 cd 3e 2b c9 a5 3e 7b 5a 22 3e b5 90 a6 3e
       0.40045488 0.3238004 0.15854828 0.32532278
0003a0 35 f8 66 3f ed 7a 0d 3e 9b 1a ca 3d ef c5 b1 3d
       0.90222484 0.13816424 0.09868356 0.08680331
0003b0 9b 1b 95 3c ae 09 9c 3e ac c4 88 3e cb c0 81 3c
       0.01820164 0.30476135 0.2671255 0.015839001
0003c0 53 68 d7 bc e8 17 24 3e 08 ee 6c 3c 01 77 a7 3e
       -0.026294863 0.16024745 0.014461048 0.3270798
0003d0 f3 de 8c 3d 9f a6 a9 3e 7e b0 f4 3c 84 81 44 3e
       0.06878462 0.33134934 0.029869314 0.19190031
0003e0 55 c1 c9 bc c2 72 bc 3d 41 e6 80 3e 09 c7 7a 3e
       -0.02462832 0.09201576 0.2517567 0.24489988
0003f0 4a 20 23 3e 0b ab ae 3d c3 8b d8 3d 31 10 88 3e
       0.15930286 0.085287176 0.105735324 0.26574853
