Zadanie3/srcV2/models/Variable exploration probability + 50 exploration_10/critic_network.pth (torch, 509903 bytes, 11 tensors)

fc1.weight f4 [400, 8]
000000 3a e0 28 3c 10 90 6d 3d 17 07 b2 be b2 a0 08 be
       0.010307366 0.057998717 -0.34771034 -0.1334255
000010 e8 af b9 3e c6 b0 b6 3e dd 58 37 3f 27 95 2e 3f
       0.36267018 0.35681742 0.7161997 0.6819634
000020 df e0 d0 be 7f 16 49 3e 4d 92 55 3e 04 e6 b2 bd
       -0.40796563 0.19637488 0.2085659 -0.08735278
000030 28 07 29 3e a6 e0 ce be 5b 5e a3 3e e8 23 61 3f
       0.16506636 -0.40405768 0.31907925 0.87945414
000040 e3 62 0b be a2 cf 61 3e 8c b9 1f bd e6 47 be be
       -0.13611941 0.22051862 -0.03899531 -0.3716423
000050 69 26 59 be 92 95 06 bf 25 28 4f bf 22 83 c1 3d
       -0.21206059 -0.52571976 -0.8092063 0.0944884
000060 7d 99 ec 3d bb 32 3a 3d 49 83 5f bd cf d9 3a be
       0.11552713 0.045458537 -0.054568563 -0.1824715
000070 9d 13 64 3e c2 45 70 3f 27 3f 0c 3f e0 71 11 be
       0.22273107 0.9385644 0.5478386 -0.14203596
000080 b7 25 bf bd 53 3d d7 3d f6 94 e5 be 90 53 9e 3e
       -0.093333654 0.105097435 -0.4484021 0.30923128
000090 ee 87 e7 3e b6 5c b4 be 9e 48 d7 3c 3b 79 09 3f
       0.45220894 -0.35226983 0.026279744 0.5370061
0000a0 17 32 1e be f6 14 ac bb bd 62 23 be f4 8c ed 3e
       -0.15448795 -0.005251522 -0.15955634 0.463966
0000b0 d0 2a 13 be 9a 19 02 bf e0 61 4f 3f 57 f8 24 3f
       -0.143718 -0.50820315 0.8100872 0.64441437
0000c0 5b bd 96 3e e6 c0 94 3e 58 ac ed bd 7c e2 bd be
       0.29441342 0.2905342 -0.116051376 -0.37086856
0000d0 88 fb a5 3d d7 0b 4f 3f 49 95 ca 3d 0f 36 fc be
       0.081046164 0.8087744 0.09891755 -0.49259993
0000e0 ab 65 1b 3f bc 29 af 3d e7 23 b5 be b7 5d 1a 3e
       0.6070201 0.08552882 -0.35378954 0.15074812
0000f0 de 3c ae 3c 75 01 ef 3e 0c c3 36 3e 18 f0 ad 3e
       0.021269258 0.466808 0.17847842 0.3397224
000100 4a b3 e6 3e c1 96 a8 3e 88 f9 9a 3c 18 54 37 3e
       0.45058662 0.32927516 0.018917814 0.17903173
000110 4c ed 3b 3f 61 c3 7c bf 47 b5 31 3f 5a 29 09 3f
       0.7340896 -0.98735625 0.6941723 0.5357872
000120 a8 00 0a bf 75 ff d1 3e bc 55 81 3e 9f 07 93 bc
       -0.5390725 0.4101521 0.25260723 -0.01794797
000130 13 8b 7e 3d a3 2a 17 be 63 ce 39 3e 41 08 a1 3f
       0.06214435 -0.14762358 0.18145137 1.2580644
000140 0e ae 93 3d 43 07 77 bf 8f 2b fa 3d f9 fe 52 be
       0.07210933 -0.96495456 0.122153394 -0.20605077
000150 87 ec d9 bd b8 d3 03 bf 30 3e b8 bf f5 be 36 3d
       -0.10640817 -0.5149493 -1.4393978 0.044615705
000160 28 2f 0d 3f 92 4b b6 bd 1f 45 89 3d 0c 9f f6 3e
       0.5515008 -0.08901133 0.06702637 0.48168218
000170 e0 9f bc 3e f7 94 f5 3e 9b 1f d7 bd 00 4b 9b 3e
       0.36840725 0.47965214 -0.10504075 0.30330658
000180 e9 9f e9 3e 8e fb 18 3d 31 87 0a 3c c7 b1 e8 3e
       0.45629814 0.037349276 0.008455084 0.45448133
000190 2d 13 a0 3f d6 5f 03 be 88 0d 4e 3e 4f 70 61 bd
       1.2505852 -0.12829527 0.2012235 -0.055038746
0001a0 8a 3a b8 3c a6 bf 8f be ed c6 07 bb af 5d 89 3e
       0.022488851 -0.28075904 -0.0020717934 0.26829287
0001b0 79 e3 d0 bd 70 ca b0 3d d9 39 3d 3e df 45 64 3d
       -0.10199637 0.08632362 0.18479098 0.055730697
0001c0 1f c5 8b 3d f0 af f1 bd c5 fe aa be 43 62 2e bf
       0.06824707 -0.118011355 -0.333975 -0.68118685
0001d0 82 94 e5 3c 04 87 ec bd ee 86 c8 3e 04 5a 9d 3e
       0.028024916 -0.1154919 0.39165443 0.3073274
0001e0 bc 26 2d be b7 20 64 3e 9e 74 0e 3d a9 13 d4 be
       -0.16909307 0.22278105 0.034779184 -0.4142125
0001f0 08 7d fe bd bd 0d 48 3f 68 c6 cb be 7e 08 9f be
       -0.124261916 0.7814596 -0.3979981 -0.31061167
000200 85 c5 9e 3e 73 85 16 bd e3 5f 7d 3e 6b 28 10 be
       0.3101007 -0.03674836 0.24743609 -0.14077918
000210 ae ff d4 3d ea 8d 29 bf f2 f7 93 be 98 5b 2b 3f
       0.104003295 -0.6623217 -0.28900105 0.66936636
000220 83 d5 8c 3e c3 f8 92 3e 16 5c 5f be 3c ca ad 3b
       0.27506647 0.28705415 -0.21812472 0.005303649
000230 a2 54 9b bd 26 b2 02 be ec 2c 57 3f 06 f7 33 3f
       -0.07584502 -0.1276327 0.8405292 0.702988
000240 f4 55 e2 be 3d c4 99 3e 53 e2 bd 3e 8e b1 db be
       -0.44206202 0.3003253 0.37086734 -0.429089
000250 4d 32 f7 bc 77 58 b3 be 89 b0 9c 3e 91 ee 34 3f
       -0.030175352 -0.3502843 0.30603436 0.70676523
000260 63 0c 58 bf f3 07 81 bd 9c a1 3b bf 83 9c 34 be
       -0.843939 -0.06300344 -0.7329347 -0.1763783
000270 2d 21 45 bf 9c a4 91 be 47 44 bb 3e 2b 68 24 be
       -0.7700375 -0.284459 0.3657553 -0.16055362
000280 91 9b c6 3e cf 84 2c 3e 2a de 41 be 9e 66 d6 bd
       0.38790563 0.16847537 -0.18932405 -0.104687914
000290 eb dd aa 3e c3 af 75 bf 66 de ce 3e 20 42 b0 bc
       0.33372435 -0.95971316 0.40404052 -0.021515906
0002a0 f8 e9 55 be fc 3d 13 bf 56 35 77 be ad 88 1d be
       -0.20890033 -0.57516456 -0.2414144 -0.15384169
0002b0 fb 3b 88 3f 7e 0b 8c 3e 1e d3 1f 3e a0 69 f6 be
       1.0643305 0.27352518 0.15607879 -0.4812746
0002c0 93 c0 a5 be c2 8d a0 be 87 c6 10 3e dd 3d aa 3e
       -0.32373485 -0.31358153 0.14138232 0.33250323
0002d0 4d 6a 8d 3e 14 57 76 3b 52 91 4d 3e da 17 eb 3e
       0.27620164 0.0037588524 0.20074967 0.45916635
0002e0 ed 6e d3 3e 93 b0 2a bf ad 4e 2b be 0b 93 96 be
       0.41295567 -0.6667568 -0.16729231 -0.2940906
0002f0 21 0e 6b be 1d c5 f8 3e 0f c2 8b bd b6 78 82 bf
       -0.22954609 0.48587885 -0.06824123 -1.0193088
000300 9f 6d 59 bf 96 f8 b8 3e 82 08 3f bf 26 06 e0 3d
       -0.84932894 0.36127156 -0.74622357 0.10938673
000310 31 38 22 3d 2c f6 ba bd 4d a5 ba bd 40 30 4f 3e
       0.03960437 -0.09128985 -0.0911356 0.2023325
000320 6d ee 19 be 30 1c e9 3e 11 df 43 be 26 5e 63 be
       -0.15032358 0.45529318 -0.19128062 -0.22203884
000330 01 85 f6 3d ef 05 d5 3d 74 53 62 3f 98 93 5c 3f
       0.12037087 0.10401522 0.8840859 0.8616271
000340 37 a6 cc be 3c ae c5 3e 7f ad 11 be b1 54 94 3e
       -0.39970562 0.38609493 -0.1422634 0.28970864
000350 32 fe 82 be 5e ff 0a bf 79 b3 ab be 06 35 ce 3d
       -0.2558456 -0.5429591 -0.33535364 0.10068707
000360 82 0c c0 3e a8 79 49 3d a3 46 91 be 1b aa 1b 3f
       0.37509543 0.049188286 -0.28374204 0.60806435
000370 1b 4d 19 bf f7 36 60 bf 8e ff 25 bf 20 9f c1 3e
       -0.5988328 -0.8758387 -0.6484307 0.37816715
000380 71 6b 1a bf b5 f6 7e 3e 35 7a 1b 3e fa 85 11 3f
       -0.6032019 0.24898799 0.15183337 0.56845057
000390 17 83 36 bc 8c de 2b bf 45 5b 09 3f de e9 d6 3e
       -0.011139653 -0.67136455 0.5365489 0.41975302
0003a0 ea 5a 51 3e e3 3d 31 3e ca 83 4e 3e b8 98 fa 3d
       0.20444837 0.17308764 0.20167461 0.1223616
0003b0 71 09 7b bc 10 ad 18 3f 17 ab 3e 3f f3 8f fc 3e
       -0.015322075 0.5963907 0.7447981 0.49328575
0003c0 43 91 40 3e 30 90 0d bf c8 1f 10 be d9 86 34 bf
       0.18805413 -0.5529814 -0.14074624 -0.7051826
0003d0 52 7f 96 3d 48 a7 91 bd 92 1f 81 3e fc e8 81 3d
       0.07348503 -0.071119845 0.252194 0.06343266
0003e0 e2 51 0b be b0 52 9b 3e 67 e4 9b bd ad 49 36 be
       -0.13605455 0.30336523 -0.07611924 -0.17801543
0003f0 1a a1 3d 3e 82 96 31 3e 5a d2 47 3f 9a 51 40 3f
       0.18518487 0.1734257 0.78055346 0.75124514

fc1.bias f4 [400]
000000 2c dc c6 3e 10 78 91 3d 78 47 af 3e 41 ca 38 be
       0.38839853 0.07102978 0.34234214 -0.18045904
000010 39 d5 ef 3d dd 03 85 3e 81 15 a7 3d a9 fd 94 3e
       0.11710591 0.2597951 0.081583984 0.29099777
000020 de 84 ab 3e 43 10 94 3e 0f 17 34 3e e7 a0 32 3e
       0.33499807 0.28918657 0.17586921 0.17444192
000030 5b 38 7f 3e 4d f0 35 3f df 36 b6 bc 78 94 58 3e
       0.24923842 0.71069795 -0.022242961 0.21150386
000040 e2 1e a7 be 34 10 60 3e 94 9b 7b 3e bd ae d7 bd
       -0.3264075 0.21881181 0.24571067 -0.105313756
000050 8c 7d ae 3e 67 22 6c be 7b 17 28 3f c7 86 ab 3e
       0.3408016 -0.23059998 0.6566083 0.33501264
000060 3d e2 63 3d a7 7e fd 3e 91 5f 89 3e d4 00 81 3d
       0.05563568 0.4951069 0.26830724 0.06298986
000070 ef 45 bf 3e 9b 06 01 3e f6 ef 32 be b3 89 c6 3e
       0.37358043 0.12600176 -0.1747435 0.3877693
000080 76 2a b2 bd 43 18 ca 3e ce 7b 8b be 33 6a aa bd
       -0.08699505 0.39471635 -0.27242893 -0.08321037
000090 ee 03 f2 bd f2 f1 32 be 0a 46 1c 3e 53 16 9e bd
       -0.11817156 -0.17475107 0.15261093 -0.07719102
0000a0 a5 c7 d1 3e 3f e9 5b be 58 78 88 3e 0f 52 07 bf
       0.4097263 -0.21475695 0.26654315 -0.52859586
0000b0 2c 48 7e 3e d2 0c 91 3e ed a1 4a 3e f1 4a 52 3f
       0.24832219 0.28330094 0.19788332 0.821456
0000c0 dc 72 cf be ae 5f 68 bd 96 35 f4 be a4 69 b6 bd
       -0.40517318 -0.056731872 -0.47697133 -0.08906868
0000d0 e2 4b a1 3e f8 f9 8f 3e ff 12 ce 3e 37 ed 1d 3d
       0.31503206 0.281204 0.40248868 0.038556304
0000e0 e7 8e eb 3e 30 7a 09 3f 11 d4 6d 3e 65 c2 ba 3e
       0.46007463 0.5370207 0.23225428 0.36476436
0000f0 bf 0d d1 3e 97 c9 55 ba eb e5 d0 3e c7 f9 b3 3e
       0.408308 -0.00081553444 0.40800413 0.35151502
000100 e4 4b 2e bd bf e2 4f 3e ef 6e b5 be 3e ad e4 3e
       -0.042552844 0.2030134 -0.35436198 0.44663423
000110 12 8b 09 3f 6e 8b dd be 7e 56 6f 3d 14 98 94 3e
       0.5372783 -0.4327044 0.058432095 0.29022276
000120 f0 b2 ab be d2 72 e5 bd 5d 30 57 bb 5a d1 85 bb
       -0.33534956 -0.11203541 -0.0032835223 -0.0040837945
000130 a7 bf 0b 3f 1f fa a1 3e 94 15 8c 3e d9 65 b9 3e
       0.54589313 0.3163614 0.27360213 0.36210516
000140 ef aa 8b 3e 38 25 8b be 0b 61 27 3d e2 72 51 3e
       0.2727885 -0.27176833 0.04086403 0.2045398
000150 05 91 6a 3e c0 da f8 3e 13 02 5d be b4 8c 42 3e
       0.22906883 0.48604393 -0.21582823 0.18998986
000160 24 08 ba 3e 09 6d a5 be 47 46 6f bc b7 58 dd be
       0.36334336 -0.3230975 -0.014604158 -0.43231747
000170 8f bd b5 3d 28 e0 23 be f5 d6 bc be 57 aa a0 be
       0.08874046 -0.16003478 -0.3688275 -0.3137996
000180 4d 88 9a 3d 1b 82 85 3e a6 eb 3d be 13 30 3e be
       0.075455286 0.26075825 -0.18546924 -0.18573026
000190 7b 41 5c 3d 08 11 c4 3e 0b 9d c6 be 12 f8 32 3f
       0.053773385 0.38294244 -0.3879169 0.69909775
0001a0 5d 42 d8 3e e4 98 8f bc 04 50 d1 3e 45 4a 8f 3e
       0.4223813 -0.017528959 0.4088136 0.2798635
0001b0 9f 8c 4e be 24 72 06 be 72 0f f5 bc 59 89 77 3d
       -0.2017083 -0.13129479 -0.029914591 0.06043372
0001c0 ae 89 90 3e fb dc ed 3e 86 74 49 3e 1e 4f a3 bd
       0.2823004 0.46457657 0.19673356 -0.07974075
0001d0 d8 35 6a 3e 7d 4f d6 3e 6d 64 d3 bd b1 00 0c be
       0.22872102 0.4185752 -0.10321889 -0.13672139
0001e0 44 dc 72 3e 4d 52 14 3e 32 45 90 be 58 7b cc 3c
       0.23716837 0.1448452 -0.28177792 0.024961159
0001f0 92 fa 98 3e 6c 9e a6 3e f1 af 59 be bd 20 ad 3e
       0.2987867 0.3254274 -0.21258523 0.3381404
000200 d1 fe 08 3e 00 96 b1 be 2d 2a bd 3e 7f 94 37 3e
       0.13378455 -0.34684753 0.3694624 0.1792774
000210 54 ca 2a 3e 6b d2 cc 3e 80 bd 06 3f ce 03 f5 bd
       0.16678745 0.40004286 0.52632904 -0.11963616
000220 07 3c 9b be cd e5 08 be 39 e4 fa 3e 88 82 cd 3e
       -0.30319235 -0.13368912 0.49002245 0.4013865
000230 48 76 b7 3e c4 aa ac 3e 61 a5 36 3d de 32 d5 3e
       0.3583243 0.33724034 0.04459131 0.4164037
000240 83 13 c9 be 76 3d 4b be f2 01 1a be f1 02 e3 3e
       -0.392727 -0.19847664 -0.15039805 0.44338182
000250 ac 63 0a 3f 03 02 bc 3d 12 b9 93 3e 09 a1 8e be
       0.5405834 0.09180071 0.28852135 -0.27857235
000260 b7 e0 61 bd 9d 34 df 3e 58 20 63 be 91 06 83 3d
       -0.055145945 0.43594828 -0.22180307 0.06397737
000270 da 1e 40 3f 98 87 43 3e 13 b1 86 3e ad de c8 3e
       0.75047076 0.19094694 0.26306972 0.39232388
000280 68 9e 11 3e 36 d8 38 be 3f e5 d3 3e fc ee e2 3c
       0.14220583 -0.18051228 0.41385838 0.027701847
000290 76 7a e8 3c 2b 60 0e 3e c8 58 0c bc 9d a9 60 be
       0.028378706 0.13903873 -0.008566089 -0.21939702
0002a0 93 b7 f6 3d 6e a1 8b 3e 39 f5 d2 3d 77 17 d6 3e
       0.12046733 0.272716 0.10300679 0.41814777
0002b0 e1 92 72 be 25 14 3d 3f e7 e0 27 3e d2 1d 94 3e
       -0.23688842 0.73858863 0.16394387 0.28929
0002c0 47 62 91 3e 2c 92 df 3e 23 72 5b 3d 63 54 eb 3e
       0.28395292 0.43666208 0.053575646 0.4596282
0002d0 a4 71 e3 bc 1a 25 8a 3d 83 dc 4d bd ac 9e c0 be
       -0.027764149 0.06745358 -0.050259124 -0.37621057
0002e0 09 ae ee 3e df 38 e4 be 3e 55 db 3a 0f 1c a2 3c
       0.46617153 -0.4457464 0.0016733778 0.01978877
0002f0 40 4b 3a be e3 c5 03 3f 1c b2 a2 3e e9 a6 b5 be
       -0.18192768 0.51473826 0.31776512 -0.35478905
000300 7d ef 3c be e3 0e c1 3e 4a a2 dc 3c 66 0d b9 be
       -0.18450733 0.3770667 0.026932854 -0.36143035
000310 fd b2 af 3d d4 95 54 3e 04 85 8d 3e 78 80 23 3b
       0.08579061 0.2076028 0.27640545 0.00249484
000320 39 af e0 bc 04 f6 69 be 5a 04 8b 3d 72 70 ba 3e
       -0.027427303 -0.22847754 0.06787939 0.36413914
000330 62 7f 60 3e 79 ba a9 be e1 ae a4 be 67 6b f2 3e
       0.21923593 -0.3315008 -0.32164672 0.47347566
000340 87 bc 0a 3c 79 25 20 bf e6 44 4a 3d 04 dc 67 3e
       0.0084678 -0.6255718 0.049382113 0.22642523
000350 4c 46 d7 3e 89 8c 99 be 6b 56 4c 3e ac ac fb 3e
       0.4204582 -0.29990032 0.19954841 0.49155176
000360 7c 9a 82 be fc 19 8f be 27 dd 8b 3e 40 5c e7 be
       -0.25508487 -0.27949512 0.27317163 -0.4518757
000370 04 11 72 3e 2d d2 4c 3e 9f 71 a2 3e fe 68 74 be
       0.23639303 0.2000205 0.3172731 -0.23868176
000380 7e 25 a6 3e 23 ee 84 3e 82 86 ac be 17 d6 44 3e
       0.3245048 0.25962934 -0.3369637 0.19222294
000390 8c 78 cc 3b a0 32 5e 3e 8a aa ad be c9 79 a5 3e
       0.0062399562 0.21699 -0.33919173 0.32319477
0003a0 ce 34 f5 bd 1c df 8e 3e 16 a5 42 bd 1e 62 df 3e
       -0.11972962 0.27904594 -0.04752072 0.43629545
0003b0 5c 11 ef 3d fa 2f 24 be bb a8 0c 3d 4c 35 98 be
       0.11673233 -0.16033927 0.0343406 -0.29728162
0003c0 85 15 01 3f 52 bb d5 be 79 db 8a 3d 88 e2 0b bf
       0.5042346 -0.41744477 0.06780142 -0.54642534
0003d0 67 4c 06 bf d8 1b 28 3e bd 48 96 3c 5f 34 e4 be
       -0.5246033 0.16416872 0.018345231 -0.44571206
0003e0 12 f9 14 3f 5e 74 8c be 36 26 1b bf b5 cd 2e 3e
       0.5819255 -0.2743253 -0.6060518 0.17070659
0003f0 ba 5a fb 3d ea e1 03 bf 6a 7e c9 3d d2 49 b9 3e
       0.12273164 -0.5151659 0.09838565 0.36189133

bn1.weight f4 [400]
000000 15 6b a4 3e 7c 62 08 3f ce 9d 80 3f ba 25 5a 3f
       0.32112947 0.53275275 1.0048158 0.85213816
000010 1e 22 43 3f ee 74 26 3f 85 80 22 3f b1 99 20 3f
       0.76223934 0.6502217 0.63477355 0.62734514
000020 75 d4 70 3f 51 97 15 3f 14 91 da 3f a0 1a 30 3f
       0.94074184 0.58434016 1.7075524 0.68790627
000030 42 6f 78 3f 3a bb 4d 3f 62 17 59 3f 2e dd 4d 3f
       0.97044766 0.8036381 0.84801304 0.8041562
000040 f6 20 97 3f 0d 6a af 3e e6 9c 26 3f ff 1e f9 3f
       1.1806934 0.34260598 0.6508316 1.9462584
000050 8d 99 3f 3f 7b 02 fd 3f de a9 6a 3f e8 f7 d0 3f
       0.74843675 1.9766382 0.91665447 1.6325655
000060 4c 16 94 3f 47 28 82 3e ff 8a 39 3f 76 2d 7e 3f
       1.1569304 0.25421354 0.72477716 0.9928812
000070 44 c4 23 3f 67 db 04 3f 35 0a b6 3f dc 1c d2 3e
       0.6397135 0.5189728 1.4221865 0.41037643
000080 90 58 51 3f f8 7e be 3e ac 52 f0 3f d8 10 ab 3f
       0.8177576 0.37206244 1.877523 1.3364515
000090 b4 1d 9f 3f 70 7f dc 3f 40 a3 3d 3f f1 97 25 3f
       1.243094 1.7226391 0.74077225 0.6468497
0000a0 f4 53 98 3e e8 4f ba 3f ca 3b 84 3f 68 62 0c 40
       0.2975155 1.4555635 1.0330746 2.1935062
0000b0 46 70 27 3f f8 6d a5 3e e6 fb 15 3f 2b de 99 3f
       0.6540569 0.32310462 0.5858749 1.2020925
0000c0 b3 2e b8 3f 9b dd 53 3f 93 5f 77 3f e2 a4 6d 3f
       1.4389251 0.8276002 0.9663021 0.92829716
0000d0 f9 f6 ab 3e dc 83 5a 3f eb 94 b2 3e 27 20 22 3f
       0.33586863 0.8535745 0.3487924 0.6333031
0000e0 b8 3a 37 3f 0d ab 37 3f dc 1a 14 3f ec 57 b9 3e
       0.7157397 0.7174538 0.57853484 0.36199892
0000f0 ef 9c ec 3e 9b 81 70 3f 46 84 93 3e 1f 56 ca 3f
       0.4621348 0.9394776 0.28811854 1.5807532
000100 26 72 80 3f 5e 6d 0d 3f 00 29 e1 3f 12 c1 8c 3e
       1.0034835 0.55245006 1.7590637 0.2749105
000110 93 a2 4f 3e cc ea 9a 3f a3 10 46 3f 6c 9f 54 3f
       0.20276861 1.2102904 0.77369136 0.8305576
000120 fc 4b 09 40 f2 a6 89 3f d2 85 5d 3f b0 8f 0d 3f
       2.1452627 1.0754073 0.8653232 0.55297375
000130 70 c4 48 3e 18 5d b0 3e a6 21 e8 3e bc d3 b4 3e
       0.19606185 0.34446025 0.45338172 0.3531779
000140 bc eb 22 3f 56 77 b3 3f 82 45 8b 3f a4 f1 14 3f
       0.6364095 1.4020793 1.0880587 0.58181214
000150 ea 20 04 3f 0e 56 88 3e 1f 27 a7 3f d5 98 39 3f
       0.5161272 0.26628155 1.3058814 0.7249883
000160 82 4f da 3e 83 77 9b 3f a0 05 6a 3f 9e 04 db 3f
       0.42638785 1.2145847 0.91414833 1.7110784
000170 97 0c 8e 3f 2a 6a 24 3f 9c 37 a7 3f 47 f0 4c 3f
       1.1097592 0.64224494 1.3063846 0.80054134
000180 d7 29 29 3f bc a3 5f 3f 32 4d 7d 3f 98 93 91 3f
       0.6607947 0.87359214 0.98945916 1.1373167
000190 0d 83 41 3f a9 d9 a5 3e 25 0d 9b 3f 69 8e 45 3f
       0.7559059 0.32392624 1.2113386 0.77170426
0001a0 e5 dc a0 3e 0e 70 64 3f 0c f9 b5 3e 3c dc 7b 3f
       0.3141853 0.8923348 0.3554157 0.98382926
0001b0 2a 9f 0d 40 35 63 63 3f e9 9c 70 3f db 2a 1b 3f
       2.2128396 0.8882325 0.93989426 0.6061227
0001c0 3b 41 ae 3e cf ee a0 3e 24 12 70 3f 43 cb 3d 3f
       0.34034142 0.31432196 0.9377768 0.7413828
0001d0 84 f3 59 3f fc b6 99 3e 6b 80 ab 3f df cd 83 3f
       0.851372 0.30022418 1.3398565 1.0297202
0001e0 9c a1 60 3f 8d 07 31 3f b4 6c 82 3f 0b b1 0a 3f
       0.87746596 0.69152147 1.0189424 0.54176396
0001f0 72 de d1 3f ce 38 cb 3e f5 e3 6d 3f b4 51 8d 3f
       1.639601 0.39691776 0.9292596 1.1040559
000200 3c 21 c6 3e 30 4e 75 3f b9 72 9b 3e dc 61 fc 3e
       0.3869723 0.9582243 0.30360964 0.4929341
000210 97 ea 85 3f cd 64 6e 3f 83 cb 37 3e 14 39 e7 3f
       1.0462216 0.9312256 0.17948727 1.8064294
000220 41 d1 9a 3f 33 e2 ce 3f 92 b8 29 3f 96 91 9f 3e
       1.2095109 1.616278 0.66297257 0.3116576
000230 a7 63 a6 3e dc e5 3a 3f 59 ef 44 3f 36 56 08 3f
       0.32497904 0.7300699 0.76927716 0.5325655
000240 71 67 ae 3f c0 9b b0 3f 6a 99 91 3f 19 6f a2 3f
       1.3625318 1.3797531 1.1374943 1.2690154
000250 15 c9 3f 3e 31 5f e6 3d 1c a0 01 3f 4b 23 81 3f
       0.1872905 0.11248625 0.5063493 1.0088896
000260 a0 70 b9 3f fb 91 d1 3e 53 8b 9b 3f 5b d2 67 3f
       1.4487495 0.40931687 1.2151893 0.9055535
000270 45 c2 77 3f 06 3b 6b 3f 82 e2 43 3f e8 5c 86 3f
       0.96780807 0.9188694 0.765175 1.0497103
000280 b6 11 78 3f c9 b8 a0 3f 76 b0 44 3f 39 6e 25 3f
       0.96902025 1.2556392 0.7683176 0.6462131
000290 6d a8 94 3f bb 59 db 3f ed 21 14 3f d6 35 80 3f
       1.16139 1.7136759 0.57864267 1.001643
0002a0 0c 91 2a 3f 36 df c2 3e da d2 67 3f 09 6e b0 3e
       0.66627574 0.3806092 0.9055611 0.3445895
0002b0 3e ab 86 3f a8 26 70 3f 68 2e 45 3f 86 0a 0f 3f
       1.0521009 0.93808985 0.77023935 0.5587543
0002c0 4e ee ba 3e 83 6a a1 3e 38 6c 36 3f 24 ae a7 3e
       0.36509937 0.31526574 0.7125888 0.32750046
0002d0 a0 a3 43 3f 9a 93 8b 3f 22 28 8d 3f 60 2a 99 3f
       0.76421547 1.090442 1.1027873 1.1966057
0002e0 59 6e 87 3e c1 9a cc 3f ba 8c 8b 3f 07 cf 81 3f
       0.26451376 1.5984727 1.0902321 1.0141305
0002f0 9d 5b d0 3f f4 89 65 3e 98 c6 33 3f 26 af da 3f
       1.6277958 0.22415906 0.70224905 1.7084701
000300 d8 6b 9c 3f fb 30 f7 3e 43 c3 34 3f 3d b2 97 3f
       1.2220411 0.48279557 0.70610446 1.1851269
000310 6e 58 ec 3e 0a c0 14 3f ad 55 c8 3f 56 c8 48 3f
       0.46161216 0.5810553 1.5651146 0.7843069
000320 7c 92 80 3f 22 55 a0 3f 22 83 2a 3f 54 7d a6 3e
       1.0044703 1.252598 0.6660634 0.32517493
000330 bb 52 cf 3e f6 1f b0 3f 0f 1c f9 3f 6c dc ac 3f
       0.40492806 1.3759754 1.9461688 1.3504767
000340 67 ec 59 3f fa f9 eb 3f 88 d6 42 3f fc ee 12 3f
       0.85126346 1.8435662 0.761086 0.5739591
000350 0e af a9 3e 2c e6 dd 3f 91 0e 42 3f 95 44 8a 3e
       0.3314137 1.7335868 0.75803477 0.2700545
000360 59 68 06 40 2c a2 80 3f 8d cd ba 3e 46 02 91 3f
       2.1001189 1.0049491 0.36484948 1.1328819
000370 65 b7 5c 3f 9b f1 89 3f d7 f1 16 3f 27 ce db 3f
       0.8621734 1.0776857 0.5896277 1.7172288
000380 26 5c eb 3e 0c e8 4c 3f 63 d7 b1 3f cd a9 05 3f
       0.4596874 0.80041575 1.3893856 0.5221222
000390 74 5c 4d 3f 4b 56 03 3f f6 f4 ae 3f 0f 11 91 3f
       0.802192 0.5130355 1.3668506 1.1333331
0003a0 67 80 09 40 6d 5a 53 3f 89 ca 7b 3f ca 79 68 3f
       2.148462 0.82559854 0.9835592 0.90810835
0003b0 31 dd 3d 3f 3e 01 5e 3f b6 24 68 3f 5e 5c ab 3f
       0.74165636 0.86720645 0.90681016 1.3387563
0003c0 06 a8 7c 3f ae d9 e7 3f fe 05 6a 3f 9d 56 09 40
       0.98693883 1.8113306 0.91415393 2.1459115
0003d0 50 0d fe 3f 5c d2 27 3f a3 41 9d 3f eb 5e f6 3f
       1.9847813 0.6555536 1.2285656 1.9247717
0003e0 6d 6d 6a 3f 42 0f b2 3f b9 66 f5 3f ee 5c 7a 3f
       0.9157322 1.3910906 1.9171973 0.9779805
0003f0 a8 eb 0b 3f af 8e 04 40 14 1d 23 3f 8a b3 89 3f
       0.5465646 2.0712087 0.63716245 1.0757916

bn1.bias f4 [400]
000000 72 11 1e bf 65 bf 1c bf 35 c1 3e be 9f a8 53 be
       -0.6174537 -0.61229545 -0.1862839 -0.20669793
000010 dc 23 dc be 3a 75 9f be 84 63 a1 be 85 e9 14 bf
       -0.4299611 -0.31144124 -0.31521237 -0.5816882
000020 d4 69 b0 be 73 82 e2 be fa f5 34 be 5b c9 f1 be
       -0.3445574 -0.4424015 -0.17671958 -0.47223935
000030 21 42 84 be 54 0b 4f be ba d6 b6 bd 83 28 7a be
       -0.25831702 -0.20219165 -0.089276746 -0.24429516
000040 3c 49 9e bd be 50 1c bf 36 76 d0 be 4c 2c d8 3c
       -0.07728812 -0.610607 -0.40715188 0.02638831
000050 f2 33 17 bf 7a 51 05 3e bc 06 9c be 2f 80 26 3e
       -0.5906364 0.13019362 -0.30473888 0.16259836
000060 31 01 1a be 8d 67 34 bf ae 54 ba be a8 63 7b be
       -0.15039517 -0.70470506 -0.3639273 -0.24549735
000070 38 fe 72 be 5d e0 e0 be 14 b5 23 be bb 1d 2d bf
       -0.2372979 -0.43921176 -0.15987045 -0.6762349
000080 60 2a 81 be 43 50 3c bf 9f af f0 3c f5 da de be
       -0.25227642 -0.7355997 0.029380618 -0.43526426
000090 68 9f 88 be 96 59 eb 3b fe 2e ff be fd c4 0a bf
       -0.26684117 0.0071823103 -0.4984054 -0.5420683
0000a0 2c bf 36 bf a2 1b 97 3d 98 bf 38 be 99 00 41 be
       -0.71385455 0.073783174 -0.18041837 -0.18847884
0000b0 ec 5d dd be df 40 02 bf 13 95 f4 be 15 22 6e be
       -0.4323572 -0.50880235 -0.47769985 -0.23255189
0000c0 ef 6f 8a be 82 ee c6 be 39 88 73 be c1 6b c4 be
       -0.27038524 -0.38853842 -0.23782434 -0.3836346
0000d0 33 86 1f bf 3e d9 7c be b6 1f 45 bf 1e 31 19 bf
       -0.62314147 -0.24692246 -0.7700151 -0.5984057
0000e0 6f e9 af be 79 83 bb be 9d c0 c4 be b6 e2 1b bf
       -0.34357783 -0.36623743 -0.38428202 -0.6089281
0000f0 b2 8b 0a bf 8b 21 96 be 53 4c 1f bf 8f de f1 3d
       -0.5411941 -0.29322466 -0.62225837 0.11810028
000100 88 7d c5 be cc c1 e7 be bc 6c 29 be 99 f9 37 bf
       -0.38572335 -0.45265043 -0.16545385 -0.7186523
000110 96 eb 3b bf 44 33 fe bd a3 fc 1d bf a1 9e ce be
       -0.7340635 -0.12412122 -0.6171362 -0.403554
000120 c4 f7 fc bd a4 c2 b3 be 0e 14 be be 1b d5 f8 3c
       -0.12351945 -0.35109437 -0.37124676 0.030375054
000130 42 cb 3a bf 7c d3 15 bf 53 1a 27 bf b9 7c 3f bf
       -0.72966397 -0.58525825 -0.6527454 -0.74799687
000140 5a 6a e4 be 25 f9 ef 3a 08 95 d9 be c3 6e 66 be
       -0.4461239 0.0018308504 -0.42496514 -0.2250319
000150 fe 5d 41 bf 2f 9c 38 bf 72 f7 b7 be 3a f1 95 be
       -0.75534046 -0.7211332 -0.35930973 -0.29285604
000160 52 8f 3d bf 4a 3a bb be 31 f2 0e be c2 3a 20 bb
       -0.74046814 -0.3656791 -0.13959576 -0.0024449085
000170 67 38 94 3e 02 ff e4 bd 27 c1 6e bd 45 ec 9f be
       0.28949282 -0.111814514 -0.058289673 -0.31234947
000180 d7 43 a5 be 73 b2 00 bf 37 da 3a 3e ca 45 8c be
       -0.3227832 -0.5027229 0.18247305 -0.27396995
000190 33 a4 7e be 4c a5 44 bf 12 73 da be c0 7c 47 be
       -0.24867325 -0.76814723 -0.42665917 -0.19481182
0001a0 2d 0b 26 bf 05 42 32 3c de 68 1a bf 2c 70 34 be
       -0.648608 0.010879998 -0.60316265 -0.17620915
0001b0 7f a0 42 3e 12 ab b3 bd 63 54 bc be 81 5e da be
       0.19006537 -0.087728634 -0.36783132 -0.42650226
0001c0 2f 18 1a bf 1a 93 43 bf 5b 25 5d be c4 44 15 bf
       -0.6019315 -0.76396334 -0.21596281 -0.58308053
0001d0 89 90 f6 be 8d 55 2c bf 22 01 aa bd a7 7d 5e 3e
       -0.48157147 -0.6731804 -0.08300997 0.2172762
0001e0 f1 23 f6 be 72 5c a3 be e5 20 25 3e 65 6f 1e bf
       -0.48074296 -0.31906468 0.1612583 -0.61888725
0001f0 3d 4f f0 3c 65 b9 28 bf bd e7 f1 be 67 69 11 be
       0.029334659 -0.6590789 -0.47247115 -0.14200364
000200 fa 2a 1c bf 12 9c 28 bd 8f c8 0d bf 05 bd 1c bf
       -0.6100308 -0.041164465 -0.55384153 -0.6122592
000210 74 0f 41 be f9 31 78 be c1 2a 2e bf f1 6c 8e 3d
       -0.18853551 -0.24237813 -0.6803399 0.06954373
000220 7a 57 bb be ad a4 b7 bd 52 89 82 be 36 92 43 bf
       -0.36590177 -0.08966956 -0.25495392 -0.76394975
000230 42 da 14 bf 71 b6 0d bf 4f 7d 03 be 82 64 2c bf
       -0.58145535 -0.5535651 -0.1284077 -0.6734086
000240 08 34 83 be 51 05 c7 bd 79 df 36 3e 7e 21 ed 3d
       -0.25625634 -0.09717811 0.17858686 0.11578654
000250 f5 0a 3e bf d0 86 25 be c1 49 06 bf b8 aa e3 be
       -0.7423547 -0.16164708 -0.5245629 -0.44466186
000260 e4 21 9a 3e 34 74 3d bf 27 79 e0 3d 13 7d 07 bf
       0.30103981 -0.74005437 0.10960608 -0.52925223
000270 d4 3b ef be 17 6e 00 bf 45 1e 9c be 8a 24 94 be
       -0.46725333 -0.50167984 -0.30491844 -0.28934127
000280 74 45 d2 be 50 b9 40 bd e9 22 a2 be c3 a3 a9 be
       -0.41068614 -0.047051728 -0.3166726 -0.33132753
000290 fb 3c 30 be 31 07 e0 bc a6 bf 38 bf bc 74 a1 be
       -0.17210762 -0.02734718 -0.7216743 -0.31534374
0002a0 7e cf 35 bf 16 7d 40 bf 81 62 f5 be d9 72 2c bf
       -0.7101973 -0.75190866 -0.47926715 -0.67362744
0002b0 fe a2 ee be 03 cb be be f7 a7 9d be 9b 60 ed be
       -0.46608728 -0.3726426 -0.3079221 -0.46362767
0002c0 83 41 34 bf ff 1d 1e bf 0a 3f bb be 9d e0 3a bf
       -0.7041246 -0.6176452 -0.36571532 -0.7299898
0002d0 2e df c6 be 5d 8e e1 be 4a cc 86 be 93 97 3a bc
       -0.38842148 -0.44053927 -0.26327735 -0.011388677
0002e0 31 f6 2f bf 97 d2 15 3e 13 bb 16 bf 79 e9 24 bf
       -0.68735033 0.14631115 -0.588792 -0.6441875
0002f0 2d 38 06 3e 36 6a 37 bf ab 51 30 bf 31 5f 91 3d
       0.13107367 -0.7164644 -0.68874615 0.070982344
000300 44 c0 ad be a6 ae 15 bf 82 1c e2 be 00 46 53 bd
       -0.3393575 -0.5846962 -0.44162375 -0.05158043
000310 eb e2 d7 be cb 8b c0 be ed bb 8e 3e 5b 0a eb be
       -0.42165312 -0.37606654 0.2787775 -0.45906338
000320 ad 5f e8 be 47 d5 6e 3e 55 1b 91 be 07 6e 24 bf
       -0.45385495 0.23323546 -0.28341165 -0.6423039
000330 1c 9c 21 bf f1 8a ae be ac 8d 4b be 54 9c 00 be
       -0.6312883 -0.3409038 -0.19878262 -0.12559634
000340 a9 39 ad be cf 7f 81 3c 82 68 98 be 4f 8e 03 bf
       -0.33833054 0.015808014 -0.29767233 -0.5138902
000350 6c 8e 30 bf 04 00 59 be 28 76 c6 be 9e fc 3f bf
       -0.6896732 -0.21191412 -0.3876202 -0.7499484
000360 f8 23 91 3d 5c d5 eb bd d2 6a 06 bf d7 e9 bf be
       0.070869386 -0.115153044 -0.52506745 -0.37483093
000370 89 87 a7 be 37 82 19 3e d4 39 77 be ec c9 4b bd
       -0.32720593 0.1499108 -0.24143153 -0.049753115
000380 76 0a 37 bf 2a a4 e1 be 97 3c a8 3d cd 85 bf be
       -0.7150034 -0.4407056 0.082146816 -0.3740677
000390 c0 9b d2 be 2a 14 e5 be 90 08 95 bc 7c e1 ff be
       -0.41134453 -0.44741946 -0.01819256 -0.49976718
0003a0 f9 a7 02 be c8 20 97 be 8f 13 7e be bc c0 5c be
       -0.12759389 -0.29517198 -0.24812149 -0.21557897
0003b0 22 63 e5 be 19 ee cc be 9a 4a ae be c8 00 88 be
       -0.44802195 -0.40025404 -0.3404129 -0.26563096
0003c0 1f 7f 11 be 97 48 51 3e 12 5e 9c be 07 df fd bd
       -0.14208649 0.20437847 -0.3054052 -0.12396055
0003d0 61 fc 9a 3d ae 25 ed be 68 53 64 be 51 23 a7 bd
       0.07567669 -0.4631781 -0.22297442 -0.08161033
0003e0 51 43 ff be 5b e4 86 be f0 08 ae bd d5 e2 6f be
       -0.49856046 -0.26346096 -0.084977984 -0.23426373
0003f0 20 00 27 bf 1c 53 50 bd ef 71 a0 be b7 fd 0b be
       -0.65234566 -0.05086051 -0.31336924 -0.13671003

fc2.weight f4 [300, 400]
000000 38 5b 44 bd 1b d5 03 bf 0e 4e b1 be 7f b3 f9 bb
       -0.047938555 -0.5149705 -0.34629864 -0.0076202746
000010 e4 09 41 be 35 28 a8 be 54 29 3d 3d c1 4b 73 bc
       -0.18851429 -0.32843176 0.04618199 -0.014849604
000020 6e d5 9d be b0 60 e7 be 00 ec 11 be 7e a2 a7 3e
       -0.30826896 -0.45190954 -0.14250183 0.3274116
000030 95 a6 2e bf c8 ee 9d be 97 c9 8e 3e 19 83 98 be
       -0.68222934 -0.30846238 0.27888176 -0.2978752
000040 7e c4 1f bf 0b 67 9d 3e 6e 34 05 bf 1b 84 f4 b8
       -0.624092 0.30742678 -0.52033126 -0.00011659433
000050 2c e2 99 bb ca 31 52 bf 57 e5 6e be a6 0d 14 bf
       -0.0046961512 -0.8210722 -0.23329674 -0.57833326
000060 d6 93 9f 3d 31 22 97 3d 8a 09 85 3d e3 c3 46 3e
       0.07791869 0.07379568 0.0649596 0.19410662
000070 fb 5b cc be 2f d9 4d be f9 67 b4 3e 5a 61 35 be
       -0.39913926 -0.2010238 0.35235575 -0.17712918
000080 51 68 94 be 8a a1 14 3b cf 8a aa bf 3b f6 51 be
       -0.28985837 0.0022679293 -1.3323611 -0.20504086
000090 a3 14 29 bf e6 80 09 3f 9a 53 8f be 66 9a 9e be
       -0.66047114 0.5371231 -0.2799347 -0.30977172
0000a0 91 5e 36 be 42 98 86 3d 4a 73 0a be 6a 84 16 3e
       -0.17809512 0.065720096 -0.13520542 0.1469895
0000b0 d4 d8 3e be 1f 10 95 be b3 bd 0c be 4b aa ba be
       -0.18637401 -0.29113862 -0.1374424 -0.36458048
0000c0 c4 41 a7 3e 41 10 18 be 65 36 de 3e 49 f1 c6 be
       0.32667363 -0.1484995 0.43400875 -0.3885596
0000d0 ad 58 77 bd 9b 36 05 bf c7 e1 86 be 94 dc 57 be
       -0.060387302 -0.52036446 -0.2634413 -0.21080238
0000e0 50 5c 7a be c9 38 39 be c2 6e cf be 53 df af be
       -0.24449277 -0.18088068 -0.4051419 -0.3435007
0000f0 aa ee d2 bd 56 f7 56 bd b8 01 00 3d ce 43 27 bf
       -0.10299428 -0.05248197 0.03125164 -0.65337837
000100 86 f5 a3 be c0 39 24 bf 8a 71 8e 3e eb 31 b1 3d
       -0.32023257 -0.6415062 0.27820998 0.08652099
000110 d6 6f 17 be d8 67 4c 3e b6 d9 9c be 11 19 2b be
       -0.14788756 0.19961488 -0.3063485 -0.16708781
000120 9f 15 ec be 0f 40 9e bb 0f e5 5b be 02 4e 48 3e
       -0.46110246 -0.0048294137 -0.21474098 0.19561008
000130 45 2e 09 3e f6 d0 0b be 3e 85 1b be 87 2a 0f 3d
       0.13396557 -0.13653931 -0.15187547 0.034952667
000140 b9 14 f2 be ae d6 c9 3e 22 63 0a bf bd 2d e3 be
       -0.47281435 0.394216 -0.54057515 -0.44370833
000150 95 68 1c be 73 d6 f1 bc 37 00 55 be e6 60 d0 be
       -0.1527427 -0.029521203 -0.20800863 -0.40698928
000160 89 5d 62 bf 94 54 e2 3e 6b 9d 90 3e 46 05 00 3f
       -0.88423973 0.44205153 0.282451 0.50008047
000170 c2 78 73 bf b6 2e 5c 3e a0 b2 8b 3e 80 2c c8 bc
       -0.95106137 0.21502194 0.27284718 -0.024435282
000180 05 eb 92 3d 73 e5 96 be 85 97 9b 3d 45 4b ec bd
       0.07173733 -0.2947193 0.075972594 -0.11537794
000190 cc 2a e7 be b5 d7 d0 be 79 20 9f be 7a 15 b8 be
       -0.4514984 -0.4078957 -0.31079462 -0.35953885
0001a0 ae 1d 09 bd 64 69 3d bf 9d 9d 98 be 06 c2 13 be
       -0.03347557 -0.7398894 -0.2980775 -0.14429483
0001b0 3d 77 ca be 80 e7 1e be 8e fa 01 bf b2 bc 19 bf
       -0.39544097 -0.15517998 -0.5077294 -0.6005355
0001c0 17 0f 1a be 3e 51 11 3d 69 36 a2 be d1 5a 18 3d
       -0.15044819 0.03547787 -0.31682137 0.037195984
0001d0 f5 2d 5b bf c6 e8 94 be 21 9d 0b bf 52 12 2b bd
       -0.85617 -0.29083842 -0.54536635 -0.04176552
0001e0 99 a0 1e be 3f d1 a2 bc 79 b5 18 bf da dd c6 be
       -0.1549095 -0.019875167 -0.59651905 -0.38841134
0001f0 4c 4c af be 20 5a af bc e1 5f d7 be a3 38 a9 be
       -0.34237897 -0.02140528 -0.42065337 -0.33051023
000200 5a 0b e4 3e 2c b6 a9 3d 58 85 88 be 39 6a e9 be
       0.4453991 0.082867 -0.26664233 -0.45588854
000210 20 3b 27 be 01 ee 5b bd 97 e2 51 bd 6d 55 56 bf
       -0.16331148 -0.053693775 -0.051241484 -0.837241
000220 b2 0e 0f 3f a8 41 e0 3e 86 0b fa be 8c e9 91 be
       0.558818 0.43800092 -0.48836917 -0.28498495
000230 06 a6 a0 be 0e f6 2b be d6 6a 4c be b0 ac 32 bd
       -0.31376666 -0.16793081 -0.1996263 -0.04362172
000240 76 8f 6c 3e a4 bb 01 be dc 1f 10 3e ed 6f 23 bf
       0.23101601 -0.12669235 0.14074653 -0.6384266
000250 86 b1 a9 bd 15 b8 87 be 38 82 53 be 98 09 c7 be
       -0.08285813 -0.2650763 -0.20655143 -0.38874507
000260 8c ec b4 be 50 c7 08 be 3a e0 1a bd 10 4f 2d 3e
       -0.3533672 -0.13357282 -0.037811495 0.16924691
000270 49 7f af be a4 4a ee be d5 48 5e be 18 c6 1e be
       -0.34276798 -0.4654132 -0.2170747 -0.15505254
000280 3f ba ce be 21 12 45 3e cc 5c af be 80 e1 15 bb
       -0.4037647 0.19245197 -0.34250486 -0.0022870004
000290 76 ae 38 bf 77 df 2f bf 05 49 56 be 97 7c d8 3c
       -0.72141206 -0.68700355 -0.20926292 0.026426597
0002a0 57 2c 04 bc 4c 62 e1 bd ac f1 ef 3c db 6c 1b 3b
       -0.008067212 -0.11005077 0.029290043 0.0023716006
0002b0 31 bd 35 3f 46 90 fa be d9 15 ef bd 31 a8 25 bf
       0.7099181 -0.48938197 -0.11674089 -0.64709765
0002c0 28 fb 97 3e a7 c8 41 be 69 d0 96 bc 74 eb d4 3d
       0.29683805 -0.18924199 -0.018409925 0.103964716
0002d0 03 32 92 be eb eb 32 bf a2 55 5c 3e 7b 8f 52 bf
       -0.2855378 -0.6989123 0.21517041 -0.82250184
0002e0 5f a6 66 3c 8d 8d 0e bf fb 69 46 3e f7 b9 3d bf
       0.014077752 -0.5568474 0.19376366 -0.74111885
0002f0 1c f0 72 3e d5 7a 19 be 0c d5 99 be 35 38 ed 3d
       0.23724407 -0.14988263 -0.30045354 0.11582986
000300 0c eb 02 3e a4 e0 fb be 22 a0 1c bf db 12 8e 3c
       0.12784976 -0.49194825 -0.61181843 0.017342975
000310 96 f1 83 be 86 cf 86 be df 7f 79 bf 5a a0 52 be
       -0.25770253 -0.26330203 -0.9746074 -0.20568982
000320 b1 6f 08 bf 28 29 35 bf a7 be 40 bc d2 29 01 3c
       -0.5329543 -0.70765924 -0.011764205 0.007883506
000330 16 86 96 be 51 91 42 3e 02 b2 19 3f b5 7f a2 be
       -0.29399174 0.19000746 0.60037243 -0.31738058
000340 b8 08 d4 3d 29 cf 63 bf 25 4c 9b bc 43 04 0d be
       0.103532255 -0.88987976 -0.018957207 -0.13771157
000350 b7 0a dc bd 16 fe 4b 3f 3b ac 31 bf 34 24 91 3d
       -0.10744231 0.7968458 -0.6940343 0.07086983
000360 9d d7 8d bf 7b e7 63 3e c5 ab 9a be ce 0e 94 be
       -1.1081425 0.22256272 -0.30209175 -0.28917545
000370 41 ae 50 be d2 e9 49 bf 80 8c aa be 9b 31 d0 3e
       -0.20378973 -0.78872406 -0.33310318 0.40662846
000380 49 cd e6 3e 66 41 c7 bd 57 92 86 bd f7 ae 98 be
       0.45078495 -0.09729271 -0.06570881 -0.29820988
000390 d4 54 e9 be 48 a8 ed bd 06 25 35 be 69 25 68 bd
       -0.4557253 -0.11604363 -0.17689905 -0.056676302
0003a0 36 e4 9b bf c0 60 65 be ca 71 ee be af 3d 8a be
       -1.217902 -0.22400188 -0.4657119 -0.27000186
0003b0 22 76 92 3e b5 c5 f7 be c8 a2 7d 3e 2d ed fe 3e
       0.28605753 -0.48393026 0.24769127 0.49790326
0003c0 04 6b b5 be 62 63 11 bf d5 1a e2 be 1f 77 66 be
       -0.3543321 -0.5679227 -0.44161096 -0.22506379
0003d0 37 b0 34 be a5 f9 1b bf bb ff 36 bf 19 d1 2a 3e
       -0.17645346 -0.609278 -0.71483964 0.16681327
0003e0 8e 84 dc be 25 68 80 3e e9 aa b3 be 06 52 8f bd
       -0.4306988 0.25079456 -0.35091332 -0.069980666
0003f0 68 20 9d be 65 50 02 bf c7 e5 92 be 2b 0f 01 be
       -0.30688787 -0.5090392 -0.2869093 -0.12603442

fc2.bias f4 [300]
000000 3f f9 b1 be 34 f7 5f be 69 fe 13 3f 2c 64 a0 be
       -0.34760472 -0.21871644 0.57810074 -0.31326425
000010 09 bb 98 bd e4 8e 4c be 78 9c 34 3f f4 ca 0e bd
       -0.07457549 -0.19976383 0.7055125 -0.03486152
000020 c7 80 63 3f d4 9e 66 3f 8e 52 82 be 24 df 44 be
       0.88868374 0.900861 -0.2545361 -0.19225746
000030 09 77 3f be a6 bb 64 be 28 4b 28 3f 08 8b b1 be
       -0.18697752 -0.22337207 0.6573968 -0.34676385
000040 0e 1d 20 3f db f0 ba bd 2c 22 60 be 82 3b 8d be
       0.62544334 -0.09127971 -0.21888036 -0.27584463
000050 98 a9 41 3f 8e 69 80 3e b1 37 63 be b9 d9 5c 3f
       0.75649405 0.25080532 -0.22189213 0.8626972
000060 bd 0b 50 be b1 17 88 bd 19 3d 39 3f 31 ad 3d bd
       -0.20316978 -0.06645144 0.7235885 -0.046307746
000070 1a 7f 56 3f f1 d8 87 be 4f 42 ea bd 2c 56 46 3f
       0.8378769 -0.265327 -0.114384286 0.7747524
000080 93 4d 40 be 17 ea 83 be 9d c7 c5 bd cb 97 47 3f
       -0.18779592 -0.25764534 -0.09657214 0.7796599
000090 81 e9 36 3f eb 69 3a 3d 74 89 1a 3f 14 4a fc bd
       0.7145005 0.045511167 0.60365987 -0.12318817
0000a0 1d ae 4e be d5 f5 4c 3f 12 20 1d be c3 3a 22 be
       -0.20183606 0.8006261 -0.15344265 -0.15842728
0000b0 f4 15 54 be 29 54 18 3f 31 0d 5c 3f 2d 25 51 3f
       -0.207115 0.5950342 0.8595763 0.8169735
0000c0 3b 27 62 3f f5 d0 bb bd 4f 75 53 be 64 b3 52 be
       0.8834111 -0.09170715 -0.20650218 -0.20576245
0000d0 ad 6d df be 26 9a 5e 3f a9 46 58 3d f7 4f 9d bd
       -0.43638363 0.8695396 0.05280176 -0.07681268
0000e0 2c a6 36 3e 4c 62 31 3f 3b 9e 6b 3f 09 84 2c 3f
       0.17836827 0.69290614 0.92038316 0.6738897
0000f0 97 92 b1 bd b5 4a 1b 3e ae d7 56 be 70 a3 d2 be
       -0.08670538 0.15165217 -0.20980713 -0.41140318
000100 27 a2 1e 3f e1 1f 4a be 9d 07 68 3f 8a 78 20 be
       0.61966175 -0.19738723 0.90636617 -0.15670982
000110 ee 96 54 be 47 23 c2 bd 84 16 d6 3d ee c1 62 be
       -0.207607 -0.09479385 0.10453513 -0.22144291
000120 72 fb 56 3f f4 e8 82 be b1 82 dc bd 62 78 c5 3e
       0.83977425 -0.25568354 -0.10767115 0.38568407
000130 6d 52 60 3f 26 60 3c be d8 c9 f9 3e 3a 1b d2 39
       0.8762577 -0.18396053 0.48786807 0.00040074607
000140 40 2c 55 3f ec 15 2f be 87 f3 17 be 4c e4 0d 3e
       0.83270645 -0.17098206 -0.14838992 0.1385662
000150 76 a3 34 be 4e 36 93 3d 7a 11 3c 3f 6a 47 23 be
       -0.1764048 0.07188092 0.7346417 -0.15945211
000160 ce 5d 80 bd b5 3a 0a be 76 5e 33 be 16 4d 90 bd
       -0.06267892 -0.13498957 -0.17516503 -0.07045953
000170 b3 25 85 be f4 f4 a2 bb f7 d7 e1 3d d2 8f 3b 3f
       -0.26005325 -0.0049730483 0.1102752 0.7326633
000180 7c 65 59 bd e8 56 46 be c6 7d 85 be 22 f2 30 3d
       -0.0530753 -0.1936909 -0.2607252 0.043199666
000190 59 63 6a 3f c1 12 30 3f 88 43 70 be 69 a9 4c be
       0.9155784 0.68778616 -0.23463261 -0.199865
0001a0 bc 98 3b 3f f6 7b 24 be 2a ab 65 be 3d 6f 73 be
       0.7327993 -0.16062912 -0.22428575 -0.23772903
0001b0 36 93 6f 3f fb e4 70 3f 49 a5 54 3f c1 b3 1c 3f
       0.93584 0.94099396 0.83064705 0.6121178
0001c0 3b 80 3a be 5e b6 85 be c6 b6 70 3e ee 5a 9e bd
       -0.18212979 -0.26115698 0.23507223 -0.07732187
0001d0 57 3c cc bc bc c8 07 3f d2 32 46 be 8a 29 80 be
       -0.024931116 0.5304067 -0.19355324 -0.25031692
0001e0 81 01 bc be 1b 4e d8 be ea 53 76 be 3a 4a c5 bd
       -0.36719897 -0.4224709 -0.24055448 -0.09633298
0001f0 90 b9 30 be e8 ed a1 be 0d f8 36 be dc 3a 06 3f
       -0.17258286 -0.3162682 -0.17868061 0.5243356
000200 70 c6 b3 be d5 f0 4d be 60 aa e9 bd ca 1b 74 bd
       -0.35112333 -0.20111401 -0.114094496 -0.059596814
000210 db e0 22 be ed 40 52 3f 0b dc 4c be 5c 51 81 be
       -0.15906088 0.8213032 -0.20005815 -0.25257385
000220 a2 07 54 be 8c 62 59 3f 5c 9c fb bd 6b 96 60 be
       -0.20706037 0.84915996 -0.122856826 -0.2193238
000230 60 5b 72 3e 16 2c 87 3e 98 a4 47 be 72 ed 20 3f
       0.2366767 0.26400822 -0.19496381 0.6286231
000240 bd 61 6a be 9e b4 56 be 8b 64 cb bd bb 9d 0f 3f
       -0.22888847 -0.20967337 -0.099312864 0.5610005
000250 64 91 1d 3f 66 cb b4 3e 30 e0 e2 bd 82 58 34 bc
       0.61549973 0.3531143 -0.110779166 -0.01100743
000260 2b 0f 83 be 1c 7b 2c 3f 0f 52 40 bd c9 3c 93 be
       -0.2559751 0.6737535 -0.046953257 -0.28757313
000270 fb a1 4a 3f 33 28 ed 3d 16 64 28 bf 7a 7f 78 be
       0.7915341 0.11579933 -0.6577772 -0.24267378
000280 06 ce 68 be 54 f6 53 be 75 c6 e8 3d ab 9c 8e bc
       -0.22734842 -0.20699435 0.11365978 -0.01740869
000290 70 6d bb 3e ab 03 8a be e8 d3 43 be db 1d 9c be
       0.36606932 -0.26955923 -0.19123805 -0.30491528
0002a0 9b fa 06 3f b9 97 6a 3f 84 c9 aa be c8 3d 3c 3f
       0.52726144 0.9163776 -0.3335687 0.7353177
0002b0 e8 c1 cf 3e d2 c1 51 be 80 33 4c 39 c3 86 a9 3e
       0.40577626 -0.20484093 0.00019474141 0.33110628
0002c0 0e 5a 12 bf bd 12 9d be a5 fc 80 be 8e f5 3e 3f
       -0.5716866 -0.3067836 -0.25192752 0.74593437
0002d0 96 c8 68 3f c6 25 87 be 1b f4 10 3f 6f 2e 18 be
       0.9093107 -0.26396006 0.56622475 -0.14861463
0002e0 f4 54 14 3f 8c 59 4a 3d 72 27 e6 3d 94 8b 6e 3d
       0.5794213 0.049401805 0.11237992 0.05823858
0002f0 ac 2d 2e bd e5 37 d2 bb 8a 1a 18 3e 27 fd c9 3e
       -0.042524025 -0.0064153546 0.14853874 0.39450952
000300 79 08 7d 3b 68 58 37 3f 19 cc 52 3f 7b 55 f7 bd
       0.0038609786 0.7161927 0.8234268 -0.12076851
000310 46 a5 46 be 06 9c 11 3f 17 2b 4a 3f f4 a0 14 3f
       -0.19398984 0.568787 0.78972 0.58058095
000320 7a 05 19 3f 35 84 3b 3f a5 9a 61 3f d0 b0 1a be
       0.5977398 0.73248607 0.88126594 -0.15106511
000330 dc b9 e9 bd 19 1f 83 be 68 18 b0 be ac 9b 89 be
       -0.11412403 -0.25609663 -0.3439362 -0.2687658
000340 7a af 86 3d e4 b5 f3 3e a3 32 58 3f 11 64 49 be
       0.06576438 0.4759971 0.84452266 -0.19667079
000350 bb ff 88 3d f8 14 3b 3f 91 1e 5c 3f 22 3d 61 3f
       0.06689402 0.7307887 0.8598414 0.87983906
000360 f0 69 05 3d 81 8a 34 be 3d 6f 5b 3f ff 43 70 be
       0.032571733 -0.1763096 0.8571661 -0.23463438
000370 c6 67 44 3f eb fb 8e be 53 80 c2 bb ae a1 62 3f
       0.76720846 -0.27926573 -0.0059357076 0.88527954
000380 97 97 2e be c8 eb 1d be a0 b7 36 be b4 de 30 3f
       -0.17050014 -0.15421975 -0.17843485 0.6908982
000390 65 81 0b bd 95 84 9d 3e 92 7a 6f be 07 ff 7b be
       -0.034058947 0.30765215 -0.233866 -0.24609004
0003a0 e8 a4 cd 3e 16 66 59 3f f9 7b 70 bc 76 6d 37 3f
       0.40164876 0.84921396 -0.014677995 0.716514
0003b0 d5 a3 78 be 86 c8 ae be b5 9b 2c 3f cc 7f 5e 3f
       -0.24281247 -0.34137362 0.6742509 0.8691375
0003c0 a4 fc 2d be 62 f9 41 3f 79 46 67 3f 34 78 4c 3f
       -0.16990906 0.7577115 0.9034191 0.79870915
0003d0 a4 1f b8 be 8e 41 5a 3f 35 ba 76 be e5 22 50 3f
       -0.3596164 0.8525628 -0.2409447 0.81303245
0003e0 49 8d 8d bd eb 58 31 be a1 18 52 3f 1d f1 54 3f
       -0.06911714 -0.17319076 0.8206883 0.8318041
0003f0 ec 24 5f be 17 0b 66 be cb 2c 2e 3f cd b0 44 3f
       -0.21791428 -0.22465168 0.680371 0.76832277

bn2.weight f4 [300]
000000 8b 48 d0 3f bc 67 80 3f a3 e1 8b 3f 79 74 81 3f
       1.6272138 1.0031657 1.0928234 1.011367
000010 cc 62 80 3f 16 04 81 3f 7f 75 8a 3f b8 7d cc 3f
       1.003015 1.0079372 1.0817107 1.5975866
000020 46 19 94 3f a6 1a 90 3f 95 44 96 3f 75 39 6a 3f
       1.1570213 1.1258132 1.173968 0.9149392
000030 4b ad 9c 3f f2 0a 87 3f 08 55 8e 3f 45 6f 81 3f
       1.2240385 1.0550215 1.11197 1.0112082
000040 a2 c0 8b 3f e2 3c 93 3f 86 ec a8 3f 1b 6c 6e 3f
       1.0918162 1.1502955 1.3197181 0.93133706
000050 0f 3e 8e 3f 2e f4 7f 3f ba ea 84 3f e9 44 92 3f
       1.1112689 0.99981964 1.0384133 1.142728
000060 86 38 87 3f fa b4 01 40 9c 4b 8e 3f 7d e3 92 3f
       1.0564125 2.026671 1.1116824 1.1475674
000070 99 8f 91 3f 0a b7 80 3f 46 22 8d 3f e1 fe 8b 3f
       1.1371948 1.0055859 1.1026084 1.0937158
000080 43 c4 aa 3f e3 a5 b4 3f 8b c8 6e 3f 3a 30 90 3f
       1.3341144 1.4113125 0.93274754 1.1264718
000090 95 cc 8a 3f a9 78 c0 3f 5c 3e 8b 3f fe 70 80 3f
       1.0843683 1.5036823 1.0878406 1.0034482
0000a0 ef 50 a3 3f 0b 49 92 3f 2d 3e 8b 3f 29 a2 a7 3f
       1.2759074 1.1428541 1.087835 1.3096362
0000b0 37 87 80 3f 5f e5 8d 3f d9 eb 8f 3f f2 0d 90 3f
       1.0041264 1.1085624 1.124385 1.1254256
0000c0 e6 27 92 3f ee 8b ac 3f 54 8e 80 3f 97 68 9b 3f
       1.1418426 1.3480203 1.0043435 1.2141293
0000d0 ec 09 86 3f fb 32 91 3f ce 6f 6a 3f 19 45 c3 3f
       1.0471778 1.1343683 0.9157685 1.5255462
0000e0 d6 65 3f 3f 4b 11 8e 3f 13 a4 92 3f a6 d7 8a 3f
       0.74764764 1.1099027 1.1456321 1.0847061
0000f0 76 9a e0 3f 24 e3 a5 3f aa 54 80 3f 07 de c0 3f
       1.7547138 1.2959943 1.0025837 1.5067757
000100 f1 fa 8b 3f 4f 90 a9 3f a9 51 91 3f 71 7d aa 3f
       1.0935956 1.3247164 1.1353046 1.3319532
000110 04 da aa 3f 87 73 86 3f 1b b3 b0 3f 93 f4 7b 3f
       1.3347783 1.0504006 1.3804659 0.98420066
000120 12 a9 90 3f 3a 40 82 3f 1e f1 8a 3f 9c 84 7e 3f
       1.1301596 1.017585 1.0854833 0.99421096
000130 93 a4 91 3f 75 4e 80 3f b3 9a 80 3f 33 5d a5 3f
       1.1378349 1.0023943 1.004721 1.2919067
000140 61 80 92 3f 58 39 b4 3f ec 44 a0 3f 11 9d 5a 3f
       1.1445428 1.408 1.2521033 0.85395914
000150 02 8a 88 3f c7 01 73 3f db 13 8e 3f cf 9d 85 3f
       1.0667117 0.94924587 1.109981 1.0438784
000160 1b 98 9b 3f 2e de d2 3f 8a 7a 86 3f 58 91 b5 3f
       1.2155794 1.6474054 1.0506146 1.418498
000170 ba 6a 80 3f e4 f7 47 3f 40 d3 68 3f 20 e0 8d 3f
       1.003257 0.78112626 0.9094734 1.1084023
000180 db f9 9d 3f 4c a7 8d 3f 60 d2 80 3f b4 4b aa 3f
       1.2341875 1.106668 1.0064201 1.3304353
000190 16 74 93 3f ed 35 8c 3f 24 d2 7f 3f 1c b9 82 3f
       1.1519802 1.0953957 0.99930024 1.0212741
0001a0 47 ba 8b 3f 7e 3f 79 3f 41 2f 87 3f f8 0b 87 3f
       1.0916222 0.97362506 1.0561296 1.0550528
0001b0 46 14 92 3f f6 70 92 3f 70 27 90 3f e2 2e 89 3f
       1.1412437 1.1440723 1.1262035 1.0717432
0001c0 4f 69 85 3f 44 be 80 3f 7c 95 6e 3f 1b 52 bd 3f
       1.0422763 1.0058064 0.93196845 1.4790682
0001d0 96 56 80 3f 74 2c 86 3f 6a ec 76 3f 0a 81 d2 3f
       1.0026424 1.0482316 0.9645449 1.644563
0001e0 65 6c ab 3f d5 7d a8 3f d4 7a 81 3f a9 e9 98 3f
       1.3392454 1.3163401 1.0115609 1.1946307
0001f0 74 32 57 3f 9f 44 92 3f d8 37 82 3f 6b 2b 8a 3f
       0.8406136 1.1427191 1.0173292 1.07945
000200 aa aa 81 3f a5 83 80 3f cd 5c c1 3f 27 13 94 3f
       1.0130208 1.0040175 1.5106446 1.1568345
000210 12 c3 9c 3f 54 04 94 3f 16 e8 80 3f 26 8f 80 3f
       1.2247031 1.1563821 1.0070827 1.0043685
000220 3d 90 8b 3f ab 2b 94 3f 44 2e 80 3f e5 51 7f 3f
       1.0903393 1.1575826 1.0014119 0.99734336
000230 8e 4a 78 3f 21 43 80 3f 46 0b 83 3f 28 66 8d 3f
       0.9698876 1.0020486 1.0237815 1.1046801
000240 ac c4 9b 3f 22 a5 80 3f 25 13 95 3f 7e d6 84 3f
       1.2169394 1.0050395 1.1646467 1.0377958
000250 ce b0 89 3f 87 14 85 3f 61 78 90 3f 58 f0 73 3f
       1.0757082 1.039689 1.1286737 0.9528861
000260 07 f8 f4 3f 61 d8 8c 3f 8d fd cc 3f 8c d3 8b 3f
       1.9138192 1.1003534 1.6014878 1.0923934
000270 bc 49 91 3f b7 cb a5 3f 48 7e e6 3f 70 b6 79 3f
       1.1350627 1.2952794 1.8007288 0.97544
000280 21 fa b0 3f 30 2e 7e 3f 1a 6a b1 3f a9 cf cc 3f
       1.3826333 0.99289227 1.3860505 1.6000873
000290 36 2c 88 3f eb ae 8f 3f be ce 73 3f fb 97 83 3f
       1.0638492 1.1225256 0.9523734 1.0280756
0002a0 bd 56 86 3f eb 18 94 3f 88 47 a5 3f 2f 27 90 3f
       1.049522 1.1570104 1.2912455 1.1261958
0002b0 37 90 86 3f 6f a1 87 3f c6 cc a2 3f 94 aa 81 3f
       1.0512761 1.0596141 1.2718742 1.0130181
0002c0 2d 7a db 3f ac d6 7b 3f a9 6a 88 3f 4d 8b 8b 3f
       1.714666 0.9837444 1.065755 1.0901886
0002d0 52 9a 92 3f d8 4c 81 3f 91 6c 87 3f 8f f6 85 3f
       1.1453345 1.0101576 1.0580007 1.0465869
0002e0 66 71 89 3f 04 7d a4 3f 07 04 7e 3f de fc b2 3f
       1.0737731 1.2850652 0.99224895 1.3983419
0002f0 90 61 b2 3f ad fd 82 3f ba d9 79 3f 19 7a 82 3f
       1.3936024 1.0233666 0.9759785 1.0193511
000300 db 23 d2 3f 70 ac 89 3f 80 4b 91 3f d9 7e 7e 3f
       1.6417192 1.0755749 1.1351166 0.99412304
000310 a4 63 cb 3f ca 94 88 3f d3 91 8d 3f 4f d0 8e 3f
       1.5889783 1.0670407 1.1060127 1.1157321
000320 e7 20 88 3f 28 e9 8b 3f d1 5c 95 3f 84 c6 a9 3f
       1.0635041 1.0930529 1.166895 1.3263707
000330 76 f1 cd 3f 7a 37 77 3f a5 65 a4 3f 6a 62 02 40
       1.6089313 0.96569026 1.284352 2.0372567
000340 69 b4 aa 3f e3 9b 85 3f 7d 1f 92 3f 2b c9 83 3f
       1.3336307 1.0438198 1.141586 1.0295767
000350 7f 69 9f 3f f1 e5 8a 3f cb bc 93 3f ff a3 93 3f
       1.245407 1.0851423 1.154199 1.1534423
000360 7c ad a4 3f 50 f4 97 3f 4b 68 91 3f 74 86 80 3f
       1.2865443 1.1871433 1.1359953 1.0041032
000370 20 70 91 3f df 34 7f 3f a9 cf a5 3f b2 4d 92 3f
       1.1362343 0.9969005 1.2953998 1.1429961
000380 a8 d4 9b 3f 45 bf 80 3f 8c c6 a1 3f b6 25 8e 3f
       1.2174273 1.0058371 1.2638717 1.1105258
000390 4f 05 bd 3f 09 20 81 3f 84 e5 80 3f 5f 7b 7e 3f
       1.4767245 1.0087901 1.0070043 0.99407
0003a0 f1 92 88 3f 6a 1b 91 3f f1 a9 b2 3f 79 fb 8d 3f
       1.0669843 1.1336491 1.3958112 1.1092368
0003b0 36 f3 7f 3f 0b cd 82 3f b2 ec 8c 3f b2 7e 91 3f
       0.99980485 1.0218824 1.1009734 1.1366789
0003c0 fc 97 a7 3f 0b 3f 8d 3f f3 e6 91 3f fc 35 91 3f
       1.3093257 1.1034864 1.1398605 1.13446
0003d0 a5 52 05 40 e8 ac 90 3f 1f 17 7f 3f 47 0f 93 3f
       2.0831692 1.1302767 0.99644655 1.1489037
0003e0 55 7e 8f 3f 2f 67 8f 3f 92 38 92 3f e4 86 90 3f
       1.1210428 1.1203364 1.1423514 1.1291165
0003f0 d6 a0 8a 3f a9 06 7f 3f 15 65 88 3f 35 73 8c 3f
       1.0830333 0.9961954 1.0655848 1.0972658
