Zadanie3/srcV2/models/Variable exploration probability + 50 exploration_10/target_critic_network.pth (torch, 509903 bytes, 11 tensors)

fc1.weight f4 [400, 8]
0	0x3c1e0363	0.009644362
1	0x3d66e3ad	0.056369472
2	0xbeb19d15	-0.34690157
3	0xbe0bcc88	-0.13652241
4	0x3ebc8ddd	0.36826983
5	0x3eb895f8	0.36051917
6	0x3f37899b	0.71694344
7	0x3f3011c5	0.68777114
8	0xbed4b5df	-0.41545007
9	0x3e477566	0.19478378
10	0x3e536cdb	0.20646994
11	0xbdb61073	-0.08889856
12	0x3e284aa9	0.1643473
13	0xbecf6d36	-0.4051301
14	0x3ea3e594	0.32011092
15	0x3f636ede	0.88841045
16	0xbe08f8af	-0.13376115
17	0x3e5f6874	0.2181719
18	0xbd15281f	-0.036415216
19	0xbebb78d7	-0.3661563
20	0xbe5bc285	-0.21460922
21	0xbf05e07a	-0.5229565
22	0xbf5390f2	-0.82643044
23	0x3db24659	0.08704824
24	0x3dde2163	0.10846212
25	0x3d3cc6f8	0.04608819
26	0xbd838229	-0.064213105
27	0xbe3d96b9	-0.18514527
28	0x3e6a711c	0.2289471
29	0x3f6f9ede	0.9360179
30	0x3f09c6d1	0.53818995
31	0xbe111dfa	-0.14171591
32	0xbdceecfb	-0.10103794
33	0x3ddf321a	0.10898228
34	0xbee47402	-0.44619757
35	0x3e9f843f	0.31155583
36	0x3ee78fb3	0.4522682
37	0xbeb65771	-0.35613587
38	0x3ceb6a27	0.02873714
39	0x3f08a33b	0.5337407
40	0xbe1acb47	-0.15116607
41	0x3a26a5f4	0.00063571264
42	0xbe1fd66a	-0.15609136
43	0x3eefe647	0.46855375
44	0xbe09d243	-0.13459115
45	0xbeffa136	-0.49927682
46	0x3f4f9309	0.8108373
47	0x3f24ed81	0.644249
48	0x3e9807f8	0.2969358
49	0x3e9491b3	0.2901741
50	0xbdcb6175	-0.09930698
51	0xbebc4296	-0.3676955
52	0x3da43cbc	0.08019397
53	0x3f50b7e7	0.8153061
54	0x3dcb9f3d	0.09942482
55	0xbef845d4	-0.48490775
56	0x3f19fa39	0.60147434
57	0x3daeb1fc	0.085300416
58	0xbeb6b529	-0.3568509
59	0x3e1f6d4f	0.15569042
60	0x3ccb426c	0.024811946
61	0x3ef1750d	0.47159615
62	0x3e414696	0.18874583
63	0x3eab0d3a	0.3340853
64	0x3ee4e910	0.44709063
65	0x3ea95fe2	0.33080965
66	0x3c6871aa	0.014187256
67	0x3e3d97a2	0.18514875
68	0x3f3ba1b6	0.73293626
69	0xbf7cbaf3	-0.9872276
70	0x3f308b75	0.68962795
71	0x3f06d7a4	0.5267279
72	0xbf0cc4b4	-0.54987645
73	0x3ed2703e	0.4110126
74	0x3e7941c6	0.24341497
75	0xbc430f02	-0.011905434
76	0x3d774c11	0.060375277
77	0xbe1ce851	-0.15322997
78	0x3e32be08	0.17455304
79	0x3fa0bda6	1.2557876
80	0x3d8bb9cf	0.068225496
81	0xbf772e83	-0.96555346
82	0x3df2fd69	0.118647404
83	0xbe58ab9d	-0.21159215
84	0xbdd8cd0f	-0.10585987
85	0xbf03a588	-0.51424456
86	0xbfba2756	-1.4543254
87	0x3d400b9a	0.046886064
88	0x3f0e9608	0.5569768
89	0xbdac6d6a	-0.084193066
90	0x3d82256a	0.063547924
91	0x3ef9cd0e	0.48789257
92	0x3ebe8ae3	0.37215337
93	0x3ef3b449	0.47598484
94	0xbdd82b98	-0.1055519
95	0x3e9b125e	0.3028745
96	0x3ee74a61	0.45173934
97	0x3d27f970	0.041009367
98	0x3b96998c	0.004595941
99	0x3eebd602	0.46061713
100	0x3f9facec	1.2474647
101	0xbdf5b09c	-0.11996576
102	0x3e5229f6	0.2052382
103	0xbd778d7c	-0.060437664
104	0x3cd4c99b	0.02597504
105	0xbe8e64ab	-0.2781118
106	0x39d968f7	0.0004146767
107	0x3e88f78d	0.26751366
108	0xbdd2a38b	-0.102850996
109	0x3dae7cdc	0.08519909
110	0x3e39028d	0.1806738
111	0x3d31a3ed	0.043369222
112	0x3daf6618	0.08564395
113	0xbe016baf	-0.12638734
114	0xbea302ac	-0.31837976
115	0xbf2ab004	-0.6667483
116	0x3c802e58	0.015647098
117	0xbdfa7d62	-0.12230946
118	0x3ec5b434	0.38614047
119	0x3e9573d9	0.29189947
120	0xbe2bef07	-0.167904
121	0x3e622532	0.22084501
122	0x3d2d9a37	0.0423834
123	0xbed4ccdb	-0.41562542
124	0xbe014d5f	-0.12627171
125	0x3f48f58c	0.78499675
126	0xbecd69ba	-0.40119725
127	0xbe9bbc80	-0.30417252
128	0x3e9dd2cf	0.30824897
129	0xbd1ed994	-0.038781717
130	0x3e7a247e	0.24427983
131	0xbe15a0a2	-0.14612058
132	0x3dd740b1	0.10510386
133	0xbf29e2e8	-0.66361856
134	0xbe90f905	-0.28314987
135	0x3f2dbf88	0.6787038
136	0x3e8c0e57	0.2735469
137	0x3e920d83	0.28525934
138	0xbe5f63b3	-0.21815376
139	0x3b7597e5	0.003747457
140	0xbd91240c	-0.070869535
141	0xbdffe5a6	-0.12494974
142	0x3f57575d	0.8411768
143	0x3f354445	0.70807296
144	0xbee1f427	-0.44131586
145	0x3e9982ea	0.29982692
146	0x3ebcab90	0.36849642
147	0xbed7fe24	-0.4218608
148	0xbd120659	-0.035650585
149	0xbeb495d8	-0.35270572
150	0x3e9aa0b9	0.30200747
151	0x3f33ea6b	0.7027957
152	0xbf58c61c	-0.8467729
153	0xbd7b8ff2	-0.061416574
154	0xbf3b3516	-0.7312788
155	0xbe37c7e6	-0.17947349
156	0xbf461cf8	-0.7738795
157	0xbe94a79e	-0.29034132
158	0x3ebc964c	0.36833417
159	0xbe1cd6c9	-0.15316309
160	0x3ec41178	0.38294578
161	0x3e2e3c98	0.17015302
162	0xbe4f0bd3	-0.20219354
163	0xbde3e7de	-0.111282095
164	0x3eac2bde	0.33627218
165	0xbf763c93	-0.9618618
166	0x3ece0841	0.40240672
167	0xbcb5c2a1	-0.022187533
168	0xbe51f6a3	-0.2050424
169	0xbf13d5eb	-0.5774829
170	0xbe70fb7b	-0.23533432
171	0xbe1bc80a	-0.15213028
172	0x3f877df7	1.0585316
173	0x3e868d0d	0.26279488
174	0x3e2368c4	0.15957934
175	0xbefa7fec	-0.48925722
176	0xbea9990a	-0.33124572
177	0xbea29b58	-0.31759143
178	0x3e109c43	0.14122109
179	0x3eaa8e14	0.33311522
180	0x3e89e6cf	0.26933905
181	0xbb01300e	-0.001971248
182	0x3e493f76	0.19653115
183	0x3ee799d5	0.45234552
184	0x3ed24c72	0.41073948
185	0xbf2aa217	-0.6665358
186	0xbe2a138d	-0.1660902
187	0xbe968e0a	-0.29405242
188	0xbe6fb84c	-0.23410147
189	0x3ef92c32	0.4866653
190	0xbd8c351d	-0.06846068
191	0xbf81afc0	-1.013176
192	0xbf5a02b5	-0.8516038
193	0x3eb8704e	0.36023182
194	0xbf3d44d2	-0.73933136
195	0x3de30c3c	0.11086318
196	0x3d0139b7	0.03154918
197	0xbdbf8a28	-0.09352523
198	0xbdc364ab	-0.09540685
199	0x3e4c5062	0.19952539
200	0xbe1bc225	-0.15210779
201	0x3ee82330	0.45339346
202	0xbe44eeed	-0.19231768
203	0xbe66f6e4	-0.22555119
204	0x3e02d3bc	0.12776083
205	0x3ddb060c	0.10694513
206	0x3f62b2c8	0.8855405
207	0x3f5e2df4	0.8678887
208	0xbecd2995	-0.40070787
209	0x3ec53f89	0.38525036
210	0xbe0b6ce5	-0.13615759
211	0x3e94eb51	0.29085782
212	0xbe855c9c	-0.26047218
213	0xbf09dccb	-0.5385253
214	0xbeaf0783	-0.34185418
215	0x3de25f1b	0.11053296
216	0x3ec2c9ec	0.3804468
217	0x3d75ebef	0.060039457
218	0xbe8ecee9	-0.27892235
219	0x3f1ee2d3	0.62064856
220	0xbf19a6d3	-0.6002018
221	0xbf604bef	-0.87615865
222	0xbf2830f6	-0.6569971
223	0x3ebcf498	0.3690536
224	0xbf1b2c49	-0.6061445
225	0x3e81b1c8	0.2533095
226	0x3e147864	0.1449905
227	0x3f101ced	0.5629414
228	0x39c0559c	0.00036684878
229	0xbf2c1861	-0.672247
230	0x3f0847e5	0.532347
231	0x3ed42bd5	0.4143969
232	0x3e564ed4	0.20928508
233	0x3e32ab09	0.17448057
234	0x3e5192cd	0.20466156
235	0x3df5309c	0.11972162
236	0xbb565cef	-0.0032709201
237	0x3f1877a9	0.59557587
238	0x3f3cec33	0.7379791
239	0x3effdaa5	0.499715
240	0x3e4f1f45	0.20226772
241	0xbf0ea814	-0.55725217
242	0xbe0dbed3	-0.13842325
243	0xbf33f14e	-0.70290077
244	0x3d9d6856	0.07685916
245	0xbd8dc468	-0.06922227
246	0x3e80dc8d	0.25168267
247	0x3d6dc7dd	0.058051933
248	0xbe0cd611	-0.13753535
249	0x3e9a640f	0.30154464
250	0xbd9df223	-0.077121995
251	0xbe392546	-0.18080625
252	0x3e44f8bb	0.19235508
253	0x3e34b58e	0.17647383
254	0x3f4816c6	0.7815975
255	0x3f41ca3d	0.75699216

fc1.bias f4 [400]
0	0x3ec7415a	0.38917047
1	0x3d958b3f	0.0730195
2	0x3eacfdbb	0.3378733
3	0xbe390227	-0.18067227
4	0x3df62c36	0.12020151
5	0x3e881c4f	0.26584098
6	0x3da6aa65	0.08137969
7	0x3e937ad1	0.2880464
8	0x3eaab9cb	0.33344874
9	0x3e92819e	0.28614515
10	0x3e3561fb	0.17713158
11	0x3e375bb9	0.17906083
12	0x3e7ceb75	0.24699195
13	0x3f36747c	0.7127149
14	0xbd3579e9	-0.044305716
15	0x3e57586f	0.21029828
16	0xbea59326	-0.32338828
17	0x3e606980	0.21915245
18	0x3e7350d6	0.23761305
19	0xbdc97c32	-0.098381415
20	0x3eaf68c6	0.34259623
21	0xbe710c4b	-0.23539846
22	0x3f27d86d	0.65564615
23	0x3eaba0f9	0.3352125
24	0x3d5ffb54	0.054683045
25	0x3efdc134	0.49561465
26	0x3e894667	0.26811525
27	0x3d8818f5	0.06645385
28	0x3ec053b4	0.3756386
29	0x3e03ab63	0.12858348
30	0xbe31188a	-0.17294517
31	0x3ec6ccfa	0.3882826
32	0xbdb7d8ec	-0.089769214
33	0x3eca6fbf	0.3953838
34	0xbe8c4658	-0.27397418
35	0xbdafc99a	-0.08583374
36	0xbdee7e24	-0.11645153
37	0xbe343cba	-0.1760129
38	0x3e1fc9d2	0.15604332
39	0xbd9328c1	-0.071855076
40	0x3ed23574	0.41056406
41	0xbe564780	-0.20925713
42	0x3e866390	0.26247835
43	0xbf076897	-0.52893966
44	0x3e81ff13	0.2538992
45	0x3e913fc4	0.28368962
46	0x3e51afe3	0.20477252
47	0x3f526d85	0.82198364
48	0xbed1224b	-0.40846476
49	0xbd5bccda	-0.05366216
50	0xbef0f164	-0.47059166
51	0xbdba45fd	-0.090953805
52	0x3ea18b81	0.31551746
53	0x3e8de1de	0.27711385
54	0x3ece6d9c	0.40318
55	0x3d1011fb	0.035173398
56	0x3eebc5e3	0.46049413
57	0x3f0a59fe	0.5404357
58	0x3e70bf0b	0.23510377
59	0x3ebaf040	0.3651142
60	0x3ed0b5e5	0.40763775
61	0x39fbaf90	0.00048005255
62	0x3ed12a3c	0.40852535
63	0x3eb34c40	0.35019112
64	0xbd274044	-0.040832773
65	0x3e50474e	0.203397
66	0xbeb74161	-0.35792068
67	0x3ee50c49	0.44735935
68	0x3f09a81b	0.53772134
69	0xbedd8d61	-0.43271926
70	0x3d5a7b35	0.053340156
71	0x3e9302b4	0.28713
72	0xbeae3e78	-0.34032035
73	0xbdd99b92	-0.10625376
74	0x3bdf3938	0.006812241
75	0xbbd1c3c5	-0.0064015114
76	0x3f0bd4ce	0.5462159
77	0x3ea22f7a	0.31676847
78	0x3e8c7044	0.27429402
79	0x3eb9c04b	0.3627952
80	0x3e8b7181	0.27235034
81	0xbe8b16ea	-0.2716592
82	0x3d225c0a	0.039638557
83	0x3e52ed24	0.20598274
84	0x3e6bcfff	0.23028563
85	0x3ef91a8a	0.4865306
86	0xbe5c17f1	-0.21493508
87	0x3e3fe8d0	0.18741155
88	0x3eba0ded	0.3633875
89	0xbea422b9	-0.3205774
90	0xbc19880e	-0.009370817
91	0xbedcaa58	-0.43098712
92	0x3db1f7b4	0.08689824
93	0xbe236a57	-0.15958534
94	0xbebd20fb	-0.36939225
95	0xbe9df7bb	-0.30853066
96	0x3d8d0996	0.06886594
97	0x3e835ce5	0.2565681
98	0xbe3ca696	-0.18422922
99	0xbe3c9ed5	-0.18419965
100	0x3d50ea47	0.051004674
101	0x3ec481f9	0.3838041
102	0xbec6cd67	-0.38828585
103	0x3f34c9d2	0.70620453
104	0x3ed89418	0.42300487
105	0xbc99ce12	-0.01877502
106	0x3ed19754	0.40935767
107	0x3e9004ef	0.28128764
108	0xbe4b00bc	-0.19824499
109	0xbe03d01c	-0.12872356
110	0xbcc8f6af	-0.02453169
111	0x3d69215a	0.056916572
112	0x3e90c722	0.28276926
113	0x3eee265d	0.46513644
114	0x3e4419f5	0.19150527
115	0xbd96d966	-0.07365684
116	0x3e6db349	0.23212923
117	0x3ed6b537	0.4193513
118	0xbdd282ae	-0.102788314
119	0xbe09887d	-0.13430972
120	0x3e702a6a	0.2345368
121	0x3e1571bf	0.14594172
122	0xbe8eada7	-0.2786686
123	0x3cbbea4f	0.022938875
124	0x3e98fb8c	0.29879415
125	0x3ea6de2c	0.3259138
126	0xbe5774de	-0.21040675
127	0x3eabd707	0.3356249
128	0x3e09b1c7	0.13446723
129	0xbeaeeca1	-0.3416491
130	0x3ebd6069	0.36987618
131	0x3e394587	0.18092929
132	0x3e26b4c6	0.16279897
133	0x3ecd9195	0.40150133
134	0x3f06d066	0.5266174
135	0xbdfc49bd	-0.12318752
136	0xbe9d7e4e	-0.30760425
137	0xbe0af90c	-0.13571566
138	0x3ef92aac	0.4866537
139	0x3ecdfd03	0.40232095
140	0x3eb7a54c	0.358683
141	0x3eae81f9	0.34083536
142	0x3d2aabcb	0.04166774
143	0x3ed5230d	0.41628304
144	0xbecc9445	-0.3995687
145	0xbe47d0be	-0.19513223
146	0xbe17ed80	-0.14836693
147	0x3ee298f4	0.4425732
148	0x3f0a7eb6	0.54099596
149	0x3dbccec9	0.09219129
150	0x3e9713cd	0.29507294
151	0xbe8f4875	-0.27984968
152	0xbd5da72b	-0.054114502
153	0x3edf7d02	0.4365006
154	0xbe638305	-0.22217949
155	0x3d83fd18	0.06444758
156	0x3f407f60	0.7519436
157	0x3e43d40c	0.19123858
158	0x3e864cdf	0.26230523
159	0x3ecbd92a	0.3981412
160	0x3e0fcbed	0.14042635
161	0xbe2cee5e	-0.16887805
162	0x3ed88ecb	0.42296442
163	0x3cf8f810	0.030391723
164	0x3cb0a9cb	0.021565339
165	0x3e0ffc4a	0.14061084
166	0xbc04e733	-0.008111763
167	0xbe5bf0ec	-0.21478623
168	0x3df4338d	0.11923895
169	0x3e8bdd57	0.27317306
170	0x3dd20bb7	0.10256141
171	0x3ed6689f	0.41876695
172	0xbe737a08	-0.2377702
173	0x3f3d5a43	0.73965853
174	0x3e28cdda	0.16484776
175	0x3e933e3d	0.28758422
176	0x3e91c4d9	0.28470495
177	0x3edfd8e9	0.43720177
178	0x3d5c5ad0	0.053797543
179	0x3eebabb1	0.46029428
180	0xbcca2880	-0.024677515
181	0x3d8898d3	0.06669774
182	0xbd20f3fe	-0.03929519
183	0xbec3835b	-0.38186154
184	0x3eeef155	0.46668497
185	0xbee75819	-0.451844
186	0xbb37564f	-0.0027975028
187	0x3c93f553	0.018061316
188	0xbe380628	-0.17971098
189	0x3f03e445	0.51520187
190	0x3e9f7905	0.31147018
191	0xbeb45908	-0.35224175
192	0xbe401cda	-0.18761006
193	0x3ec30310	0.38088274
194	0x3cb26d7b	0.02178072
195	0xbeb73a31	-0.35786584
196	0x3db26763	0.08711126
197	0x3e58c153	0.21167497
198	0x3e8c8098	0.2744186
199	0x3b58231e	0.0032979916
200	0xbcf23447	-0.029565943
201	0xbe6bd804	-0.23031622
202	0x3d8f2fa9	0.06991512
203	0x3ebacf21	0.36486152
204	0x3e60e003	0.21960454
205	0xbea9acc3	-0.3313962
206	0xbeac9cbb	-0.33713326
207	0x3ef20547	0.4726965
208	0x3c53d96b	0.012930254
209	0xbf20b6cc	-0.62778926
210	0x3d48115c	0.04884468
211	0x3e6572ff	0.22407149
212	0x3ed79dd9	0.42112616
213	0xbe9a2af4	-0.30110896
214	0x3e481f87	0.19543277
215	0x3efbf43e	0.4920978
216	0xbe83375b	-0.2562817
217	0xbe8da0ec	-0.27661836
218	0x3e8c1ce6	0.27365798
219	0xbee73816	-0.45159978
220	0x3e742c68	0.23845065
221	0x3e4d1e63	0.20031123
222	0x3ea2d5a7	0.3180363
223	0xbe7184fa	-0.23585883
224	0x3ea66d07	0.32505056
225	0x3e82450b	0.254433
226	0xbeabf955	-0.33588663
227	0x3e43611b	0.19080012
228	0xba983686	-0.0011612929
229	0x3e636dc9	0.22209848
230	0xbeac4b78	-0.33651328
231	0x3ea519ef	0.32246348
232	0xbe0065ee	-0.12538883
233	0x3e8c422e	0.2739424
234	0xbd40ff82	-0.04711867
235	0x3ede1dbe	0.43382066
236	0x3df5a4cb	0.119943224
237	0xbe23d4d3	-0.15999155
238	0x3d1716b4	0.036886886
239	0xbe9e4f63	-0.30919942
240	0x3f024248	0.5088239
241	0xbed6a9f8	-0.4192655
242	0x3d87dcb6	0.06633894
243	0xbf0ddecc	-0.55418086
244	0xbf04d930	-0.518939
245	0x3e2df248	0.16986954
246	0x3c992aee	0.018697228
247	0xbee5637d	-0.44802466
248	0x3f15652f	0.5835752
249	0xbe8d4a39	-0.2759569
250	0xbf1aa09a	-0.6040131
251	0x3e35f242	0.17768195
252	0x3dfc7666	0.1232727
253	0xbf060503	-0.523514
254	0x3dc548ed	0.0963305
255	0x3eb846fa	0.3599165

bn1.weight f4 [400]
0	0x3ea46bd6	0.32113522
1	0x3f0a1928	0.53944635
2	0x3f7f9ffd	0.998535
3	0x3f58eb78	0.84734297
4	0x3f436e92	0.7634059
5	0x3f265145	0.6496776
6	0x3f233443	0.6375162
7	0x3f1f9917	0.6234297
8	0x3f703d1b	0.9384324
9	0x3f15656f	0.583579
10	0x3fdafc5b	1.7108263
11	0x3f3119e5	0.69180137
12	0x3f78135e	0.9690455
13	0x3f4e67e2	0.8062726
14	0x3f554127	0.8330254
15	0x3f4e603b	0.80615586
16	0x3f9726ce	1.1808717
17	0x3eaf6aae	0.34261078
18	0x3f24eb2a	0.6442133
19	0x3ff92522	1.9464457
20	0x3f406ae3	0.75163096
21	0x3ffd4e22	1.9789469
22	0x3f6ace2c	0.91720843
23	0x3fd0e4e9	1.6319858
24	0x3f93c760	1.154522
25	0x3e8228bc	0.25421703
26	0x3f395c83	0.72406787
27	0x3f8009f9	1.0003043
28	0x3f23a2cd	0.6392029
29	0x3f051f55	0.52000934
30	0x3fb5fd44	1.4217916
31	0x3ed21d81	0.41038135
32	0x3f4f23b2	0.8091384
33	0x3ebe7f9f	0.37206742
34	0x3ff01f32	1.875952
35	0x3faa8f93	1.3325065
36	0x3f9f91c2	1.2466357
37	0x3fdd2797	1.7277707
38	0x3f3ed6cf	0.7454652
39	0x3f278909	0.65443474
40	0x3e985485	0.29751983
41	0x3fbac2d5	1.4590708
42	0x3f83d572	1.0299513
43	0x400bbcf0	2.1834068
44	0x3f291c0e	0.66058433
45	0x3ea56e6e	0.32310814
46	0x3f17d7c1	0.5931359
47	0x3f99e53a	1.2023079
48	0x3fb7bff0	1.435545
49	0x3f54ec18	0.8317275
50	0x3f7966e9	0.97422653
51	0x3f6cc1d6	0.9248327
52	0x3eabf716	0.3358695
53	0x3f581041	0.843998
54	0x3eb2959f	0.34879777
55	0x3f204d0f	0.6261758
56	0x3f37ba77	0.717689
57	0x3f383115	0.71949893
58	0x3f13d084	0.57740045
59	0x3eb95817	0.3620002
60	0x3ee49a05	0.44648758
61	0x3f70dbbe	0.940853
62	0x3e93847d	0.28812018
63	0x3fca4f09	1.580537
64	0x3f80ba9a	1.0056946
65	0x3f0d6de4	0.55245805
66	0x3fe1200f	1.7587909
67	0x3e8cc13c	0.27491176
68	0x3e4fa320	0.20277071
69	0x3f9b8bb8	1.2152014
70	0x3f41d713	0.757188
71	0x3f546370	0.8296423
72	0x40091099	2.141638
73	0x3f89ea56	1.0774639
74	0x3f5f5c40	0.8725014
75	0x3f0e07f9	0.55480915
76	0x3e48c488	0.1960622
77	0x3eb05da7	0.3444645
78	0x3ee8223a	0.45338613
79	0x3eb4d3d7	0.3531787
80	0x3f226b19	0.6344467
81	0x3fb34b65	1.4007384
82	0x3f8b173e	1.0866468
83	0x3f14cb96	0.5812315
84	0x3f0529da	0.52016985
85	0x3e8856c4	0.26628697
86	0x3fa6fa39	1.3045112
87	0x3f3982eb	0.7246539
88	0x3ed8ef7b	0.4237021
89	0x3f9bcb68	1.217145
90	0x3f6c15e7	0.9222092
91	0x3fdb0b37	1.7112797
92	0x3f8ef30f	1.1167926
93	0x3f2529ed	0.645171
94	0x3fa76ada	1.3079484
95	0x3f4d247e	0.8013381
96	0x3f290073	0.6601631
97	0x3f5e6844	0.86877847
98	0x3f7cb876	0.98718965
99	0x3f918a6f	1.1370372
100	0x3f412ba8	0.7545724
101	0x3ea5da3e	0.32393068
102	0x3f9b8f38	1.2153082
103	0x3f463598	0.7742553
104	0x3ea0ddae	0.31419128
105	0x3f63e0de	0.89014995
106	0x3eb5f997	0.35541984
107	0x3f7b85b2	0.9825088
108	0x400e14e2	2.2200246
109	0x3f651ee2	0.8950025
110	0x3f71c59f	0.9444217
111	0x3f18f335	0.59746104
112	0x3eae41ce	0.3403458
113	0x3ea0eede	0.3143224
114	0x3f7024df	0.9380626
115	0x3f407e93	0.75193137
116	0x3f5af8a3	0.8553564
117	0x3e99b735	0.30022588
118	0x3fab9e0f	1.3407611
119	0x3f84616f	1.0342234
120	0x3f5fc19e	0.8740481
121	0x3f329cef	0.6977071
122	0x3f81e60b	1.0148329
123	0x3f090854	0.5352833
124	0x3fd2892a	1.6448109
125	0x3ecb3970	0.3969226
126	0x3f6deab8	0.9293628
127	0x3f8d581a	1.1042511
128	0x3ec62188	0.38697457
129	0x3f769d2b	0.9633357
130	0x3e9b72f5	0.30361143
131	0x3efddfd2	0.49584824
132	0x3f860828	1.0471239
133	0x3f6eb753	0.9324848
134	0x3e37cbff	0.17948912
135	0x3fe75a43	1.8074421
136	0x3f99bfdf	1.201168
137	0x3fce43dd	1.611446
138	0x3f28919e	0.65847194
139	0x3e9f91a5	0.31165805
140	0x3ea663be	0.32497972
141	0x3f3b6a61	0.73209196
142	0x3f455ea9	0.77097565
143	0x3f085a71	0.53263
144	0x3fadb2ff	1.357025
145	0x3fb14468	1.3849001
146	0x3f91b665	1.1383787
147	0x3fa2709b	1.2690614
148	0x3e3fc94f	0.18729137
149	0x3de65f72	0.112486735
150	0x3f03ea22	0.51529133
151	0x3f809a03	1.0047001
152	0x3fba63f9	1.4561759
153	0x3ed19271	0.40932038
154	0x3f9bffdd	1.2187458
155	0x3f680b16	0.90641916
156	0x3f783ce4	0.9696791
157	0x3f69e42b	0.9136378
158	0x3f439602	0.7640077
159	0x3f8666e5	1.0500151
160	0x3f77cc59	0.96796185
161	0x3fa131e0	1.2593346
162	0x3f457719	0.77134854
163	0x3f26531f	0.6497058
164	0x3f94de3b	1.1630319
165	0x3fdba208	1.7158823
166	0x3f1424cf	0.57868665
167	0x3f803bd7	1.0018262
168	0x3f299e50	0.6625719
169	0x3ec2dff0	0.38061476
170	0x3f6703dc	0.90240264
171	0x3eb06ed7	0.34459564
172	0x3f86982d	1.051519
173	0x3f706cf8	0.93916273
174	0x3f4547ee	0.7706288
175	0x3f0edeb8	0.5580859
176	0x3ebaef1f	0.3651056
177	0x3ea16b16	0.31527013
178	0x3f363ae1	0.7118359
179	0x3ea7ae36	0.327501
180	0x3f43bd88	0.76461077
181	0x3f8ba0c5	1.0908438
182	0x3f8da211	1.1065084
183	0x3f9842ea	1.189542
184	0x3e876ebc	0.2645167
185	0x3fcbf7b4	1.5934968
186	0x3f8ab64d	1.0836884
187	0x3f80b7ff	1.0056151
188	0x3fd0e658	1.6320295
189	0x3e658a2a	0.22415987
190	0x3f32cc60	0.698431
191	0x3fdb23dd	1.712032
192	0x3f9bc21a	1.216861
193	0x3efa5d2b	0.48899207
194	0x3f333312	0.699998
195	0x3f982744	1.1886983
196	0x3eeed844	0.46649373
197	0x3f160d5f	0.5861415
198	0x3fc89939	1.567176
199	0x3f48822e	0.7832364
200	0x3f801450	1.0006199
201	0x3fa01c0d	1.250856
202	0x3f2a599c	0.66542983
203	0x3ea67d86	0.32517642
204	0x3ecf5370	0.40493345
205	0x3fafb42d	1.372686
206	0x3ff6a608	1.9269419
207	0x3facca21	1.3499185
208	0x3f5a61b2	0.8530532
209	0x3feb9cd4	1.8407235
210	0x3f43568e	0.76303947
211	0x3f11d11f	0.5695972
212	0x3ea9af7e	0.33141702
213	0x3fdd817d	1.7305142
214	0x3f412bcc	0.75457454
215	0x3e8a454c	0.27005994
216	0x400662d0	2.099781
217	0x3f812836	1.0090396
218	0x3ebace4f	0.36485526
219	0x3f90c574	1.1310258
220	0x3f5bc5f0	0.85848904
221	0x3f8aa7ef	1.0832499
222	0x3f1653ac	0.58721423
223	0x3fdc7db8	1.7225866
224	0x3eeb5cca	0.4596923
225	0x3f4c17bf	0.79723734
226	0x3fb30e90	1.3988819
227	0x3f05df99	0.5229431
228	0x3f4aacbf	0.7916984
229	0x3f04fb95	0.51946384
230	0x3fafa85f	1.3723258
231	0x3f910257	1.1328839
232	0x4008ee91	2.139561
233	0x3f52945d	0.82257634
234	0x3f7d2134	0.9887879
235	0x3f67dc57	0.90570587
236	0x3f3ec62a	0.74521124
237	0x3f5e83c8	0.8691983
238	0x3f682a88	0.906899
239	0x3fa98d48	1.3246241
240	0x3f7e8e6d	0.99436074
241	0x3fe78000	1.8085938
242	0x3f6a7741	0.9158822
243	0x40090fc6	2.1415877
244	0x3ffdf0fc	1.9839168
245	0x3f28dbc3	0.6596033
246	0x3f9d4222	1.2285807
247	0x3ff64bae	1.9241846
248	0x3f6aa96b	0.9166476
249	0x3fb19734	1.3874269
250	0x3ff50ac6	1.9143913
251	0x3f7a9c90	0.97895145
252	0x3f0c6e1c	0.54855514
253	0x4004564d	2.0677674
254	0x3f2222d7	0.6333441
255	0x3f899f24	1.0751691

bn1.bias f4 [400]
0	0xbf1e1146	-0.6174511
1	0xbf1b031f	-0.6055164
2	0xbe445d47	-0.19176207
3	0xbe54b3cf	-0.20771717
4	0xbedb17b2	-0.42791516
5	0xbe9d1398	-0.3067901
6	0xbea0d587	-0.31412908
7	0xbf157b82	-0.5839158
8	0xbeb26633	-0.34843597
9	0xbee41e74	-0.44554484
10	0xbe338001	-0.17529298
11	0xbef03ed0	-0.46922922
12	0xbe8482e8	-0.25881124
13	0xbe4e79ad	-0.20163603
14	0xbde3d3aa	-0.11124356
15	0xbe7a41cb	-0.2443916
16	0xbd994137	-0.07483142
17	0xbf1c500e	-0.61059654
18	0xbed4638b	-0.41482195
19	0x3d08eb3c	0.033427462
20	0xbf165bee	-0.58734024
21	0x3e002515	0.12514146
22	0xbe9d2a92	-0.3069654
23	0x3e27fa30	0.16404033
24	0xbe1bcb15	-0.15214188
25	0xbf346740	-0.70470047
26	0xbeb9e749	-0.3630927
27	0xbe75e147	-0.24011718
28	0xbe72c2ff	-0.23707198
29	0xbee08b7c	-0.43856418
30	0xbe237c18	-0.15965307
31	0xbf2d1d9f	-0.67623323
32	0xbe84f8cc	-0.25971067
33	0xbf3c5040	-0.7355995
34	0x3cef8c5d	0.029241735
35	0xbee02d71	-0.4378467
36	0xbe87f1e7	-0.26551744
37	0x3bcc1a9c	0.006228758
38	0xbefcb207	-0.49354574
39	0xbf08ca83	-0.5343401
40	0xbf36be78	-0.7138438
41	0x3da20471	0.079110034
42	0xbe3d1856	-0.18466315
43	0xbe44d788	-0.19222844
44	0xbed8b67a	-0.4232672
45	0xbf02402d	-0.50879174
46	0xbef12e6b	-0.47105727
47	0xbe6e27dc	-0.23257393
48	0xbe8caf1e	-0.27477354
49	0xbec4bfc6	-0.38427562
50	0xbe6f1a02	-0.23349765
51	0xbec561e2	-0.3855124
52	0xbf1f85ee	-0.62313735
53	0xbe824782	-0.2544518
54	0xbf451fb9	-0.7700153
55	0xbf1af16f	-0.6052465
56	0xbeaf9b7f	-0.34298322
57	0xbeb9b20a	-0.36268646
58	0xbec329c2	-0.38117796
59	0xbf1be2ae	-0.6089276
60	0xbf0e3b34	-0.55559087
61	0xbe956cb1	-0.29184487
62	0xbf1f4c1e	-0.6222552
63	0x3df1ebb9	0.11812539
64	0xbec49108	-0.383919
65	0xbee7c15b	-0.45264706
66	0xbe2c5c83	-0.16832165
67	0xbf37f950	-0.71864796
68	0xbf3beb78	-0.7340617
69	0xbdffc51c	-0.124887675
70	0xbf21d72b	-0.63218945
71	0xbed028a4	-0.40656006
72	0xbe0171fb	-0.12641136
73	0xbeb2850e	-0.34867138
74	0xbeb95a2e	-0.36201614
75	0x3cf87f7d	0.030334229
76	0xbf3acb30	-0.7296629
77	0xbf15d31e	-0.58525264
78	0xbf2719c7	-0.6527371
79	0xbf3f7cc0	-0.7479973
80	0xbee5174d	-0.4474434
81	0x39ffe883	0.00048810625
82	0xbeda8e34	-0.42686617
83	0xbe661cba	-0.22471896
84	0xbf405c04	-0.75140405
85	0xbf389bd0	-0.7211275
86	0xbeb82e28	-0.35972714
87	0xbe9650cb	-0.29358515
88	0xbf3e45e5	-0.743254
89	0xbeb9ef9f	-0.3631563
90	0xbe05d05d	-0.13067766
91	0xba302032	-0.00067186647
92	0x3e933544	0.28751576
93	0xbde35bf2	-0.111015216
94	0xbd6abb75	-0.05730768
95	0xbe9e970f	-0.30974624
96	0xbea702ce	-0.32619327
97	0xbf024331	-0.50883776
98	0x3e3aeec7	0.18255149
99	0xbe8b97b3	-0.27264175
100	0xbe809721	-0.25115302
101	0xbf44a511	-0.7681437
102	0xbed9f00f	-0.42565963
103	0xbe42cb97	-0.19022976
104	0xbf260aaf	-0.6486005
105	0x3c19d80d	0.009389889
106	0xbf1a688e	-0.6031579
107	0xbe3490a5	-0.17633303
108	0x3e487319	0.19575156
109	0xbda9a26b	-0.08282932
110	0xbeb9fae9	-0.36324242
111	0xbeded245	-0.43519798
112	0xbf1a1816	-0.60193
113	0xbf4392d9	-0.76395947
114	0xbe631d93	-0.2217925
115	0xbf120edf	-0.5705394
116	0xbef38ee8	-0.47569966
117	0xbf2c54d7	-0.67316955
118	0xbda8b40d	-0.08237467
119	0x3e60ddfe	0.21959683
120	0xbef7d938	-0.48407912
121	0xbea1b7b7	-0.31585476
122	0x3e266021	0.16247608
123	0xbf20183a	-0.62536967
124	0x3cfa5e6b	0.0305626
125	0xbf28b967	-0.659079
126	0xbef0b012	-0.4700933
127	0xbe129c8f	-0.14317535
128	0xbf1c2a8e	-0.61002433
129	0xbd1628a6	-0.03665986
130	0xbf0dc885	-0.55384094
131	0xbf1bcc33	-0.6085846
132	0xbe4423f0	-0.19154334
133	0xbe7771e7	-0.24164544
134	0xbf2e2a5f	-0.68033403
135	0x3d8ebbba	0.069694
136	0xbebde584	-0.3708917
137	0xbdb8a78c	-0.09016332
138	0xbe859e97	-0.26097557
139	0xbf439211	-0.76394755
140	0xbf14d9e6	-0.58144987
141	0xbf0c63e7	-0.5483994
142	0xbe052bdd	-0.13005014
143	0xbf2c61ae	-0.6733655
144	0xbe864682	-0.26225668
145	0xbdbe8e89	-0.0930453
146	0x3e37db44	0.17954737
147	0x3dec9f96	0.11553876
148	0xbf3e0a70	-0.74234676
149	0xbe2586a7	-0.16164647
150	0xbf0432bd	-0.5163992
151	0xbee537b4	-0.4476906
152	0x3e9adc25	0.30246082
153	0xbf3d73a8	-0.740046
154	0x3de11015	0.109893955
155	0xbf074843	-0.5284464
156	0xbeee40d9	-0.4653385
157	0xbf00fe2d	-0.5038784
158	0xbe9c513c	-0.30530727
159	0xbe91cb61	-0.28475478
160	0xbed34222	-0.41261393
161	0xbd1a69d0	-0.037698567
162	0xbe9f066e	-0.31059593
163	0xbea8b6f9	-0.32952097
164	0xbe38d984	-0.18051726
165	0xbcd1f52f	-0.025629608
166	0xbf38bcad	-0.72162896
167	0xbea007e6	-0.31256026
168	0xbf36b386	-0.7136768
169	0xbf407d01	-0.7519074
170	0xbef6e8cb	-0.48224482
171	0xbf2c7287	-0.67362255
172	0xbeef2553	-0.46708164
173	0xbebe557c	-0.37174594
174	0xbe9cf2f8	-0.3065412
175	0xbeed690f	-0.46369216
176	0xbf3440f8	-0.70411634
177	0xbf1e1dc6	-0.6176418
178	0xbebca859	-0.3684719
179	0xbf3ae048	-0.72998476
180	0xbec5d04f	-0.3863549
181	0xbee13138	-0.43982863
182	0xbe83ebfb	-0.25765976
183	0xbc84226d	-0.016129697
184	0xbf2ff5bf	-0.68734354
185	0x3e0ff699	0.14058913
186	0xbf18323f	-0.5945167
187	0xbf274186	-0.65334356
188	0x3e090022	0.13378957
189	0xbf376990	-0.7164545
190	0xbf31335e	-0.69219005
191	0x3d97b358	0.07407254
192	0xbeaf8395	-0.34280077
193	0xbf143a76	-0.57901704
194	0xbee61017	-0.4493415
195	0xbd473aa0	-0.048639894
196	0xbed585f5	-0.41703764
197	0xbebdf261	-0.37098983
198	0x3e8dc2d1	0.27687696
199	0xbeebb948	-0.46039796
200	0xbee8e3a3	-0.45486173
201	0x3e6d3fac	0.2316882
202	0xbe909fd5	-0.28246942
203	0xbf246d67	-0.64229435
204	0xbf219b87	-0.6312794
205	0xbeaf6132	-0.34253842
206	0xbe592afe	-0.21207806
207	0xbe018cd4	-0.12651378
208	0xbeac66a2	-0.33672053
209	0x3c5b8fbc	0.013400968
210	0xbe97d63b	-0.29655632
211	0xbf048d83	-0.5177843
212	0xbf308e18	-0.6896682
213	0xbe5b5c69	-0.2142197
214	0xbec7bd50	-0.3901162
215	0xbf3ffc18	-0.7499404
216	0x3d8dbc14	0.06920639
217	0xbde69e6b	-0.112606846
218	0xbf066a95	-0.5250638
219	0xbec037e8	-0.37542653
220	0xbea8ec1e	-0.32992643
221	0x3e1ada16	0.15122256
222	0xbe783e12	-0.24242428
223	0xbd3cd302	-0.04609967
224	0xbf370a40	-0.71500015
225	0xbee44b01	-0.44588473
226	0x3daa9f2f	0.08331143
227	0xbebf2903	-0.37335977
228	0xbed7b093	-0.42126903
229	0xbee15f03	-0.440178
230	0xbc6b6f8b	-0.014369856
231	0xbf00030b	-0.50004643
232	0xbe0866e5	-0.13320501
233	0xbe99d5d0	-0.30045938
234	0xbe7c337e	-0.24629018
235	0xbe604c4b	-0.21904103
236	0xbee32574	-0.44364512
237	0xbecc6c8e	-0.3992657
238	0xbeac92f1	-0.33705857
239	0xbe8dbd0c	-0.27683294
240	0xbe0c6860	-0.13711691
241	0x3e4fa45b	0.2027754
242	0xbe9d34d7	-0.30704376
243	0xbe03fa8b	-0.12888543
244	0x3da89b51	0.08232749
245	0xbeeb0fed	-0.45910588
246	0xbe6122c0	-0.21985912
247	0xbdaac14c	-0.0833765
248	0xbefe5245	-0.49672142
249	0xbe882d56	-0.2659709
250	0xbda9228e	-0.08258544
251	0xbe6a2f28	-0.22869551
252	0xbf268462	-0.6504575
253	0xbd6b4e1c	-0.057447538
254	0xbea17a65	-0.31538692
255	0xbe0e46e0	-0.13894224

fc2.weight f4 [300, 400]
0	0xbd445ad9	-0.0479382
1	0xbf039752	-0.5140277
2	0xbeb23254	-0.34804022
3	0xbc2d71d5	-0.010586222
4	0xbe44edab	-0.19231288
5	0xbea71cd8	-0.32639194
6	0x3d317a95	0.043329794
7	0xbc8ea785	-0.017413864
8	0xbe9abcb0	-0.30222082
9	0xbee6f6ec	-0.4511026
10	0xbe1a776c	-0.15084618
11	0x3ea87828	0.32904172
12	0xbf2c7abd	-0.67374784
13	0xbe9ce9fa	-0.3064726
14	0x3e8cbcf3	0.27487907
15	0xbe989274	-0.29799235
16	0xbf1e841f	-0.6192035
17	0x3e9d67bd	0.3074321
18	0xbf04c822	-0.5186788
19	0x3a85b31d	0.0010200475
20	0xbbc86bb1	-0.0061163534
21	0xbf55722c	-0.8337734
22	0xbe6c345a	-0.23066846
23	0xbf16fbba	-0.58977854
24	0x3d962196	0.07330625
25	0x3d97217e	0.07379435
26	0x3d7d177c	0.061789975
27	0x3e44126b	0.19147651
28	0xbecb4680	-0.39702225
29	0xbe4ead82	-0.20183375
30	0x3eb2a265	0.34889522
31	0xbe356207	-0.17713176
32	0xbe922ff1	-0.285522
33	0x3b14a0de	0.0022678892
34	0xbfa96160	-1.3232841
35	0xbe581051	-0.21099974
36	0xbf2a741e	-0.6658343
37	0x3f09a020	0.53759956
38	0xbe8f27c2	-0.2796002
39	0xbe9e18fa	-0.3087843
40	0xbe365f27	-0.17809735
41	0x3d6e5290	0.058184206
42	0xbe0edbf7	-0.13951097
43	0x3e13f841	0.1445017
44	0xbe3e30b2	-0.18573263
45	0xbe951095	-0.29114214
46	0xbe0d0153	-0.13770036
47	0xbeb86ecd	-0.36022034
48	0x3ea48099	0.32129362
49	0xbe10ea38	-0.14151847
50	0x3edc1f55	0.42992654
51	0xbecdea01	-0.40217593
52	0xbd7757fc	-0.060386643
53	0xbf05172f	-0.519885
54	0xbe86e155	-0.2634379
55	0xbe5ea4c3	-0.21742539
56	0xbe7883fb	-0.24269097
57	0xbe326830	-0.17422557
58	0xbed00fa6	-0.4063694
59	0xbeafdf17	-0.34349892
60	0xbdb50116	-0.08838098
61	0xbd62ccf8	-0.055371255
62	0x3d00015f	0.031251308
63	0xbf2a70fe	-0.6657866
64	0xbea21926	-0.31659812
65	0xbf24390f	-0.64149565
66	0x3e8f272b	0.2795957
67	0x3db13160	0.08651996
68	0xbe177065	-0.14788969
69	0x3e4bb9c3	0.19895081
70	0xbe99fb8f	-0.30074736
71	0xbe312b9f	-0.17301796
72	0xbeee1a25	-0.46504322
73	0xbc24f8dd	-0.010069099
74	0xbe606491	-0.21913363
75	0x3e43d495	0.19124062
76	0x3e092d9d	0.13396306
77	0xbe0bd09d	-0.13653798
78	0xbe1b84ee	-0.15187427
79	0x3d0f2b34	0.03495331
80	0xbef112ec	-0.4708475
81	0x3eca5a6a	0.39522105
82	0xbf09caa9	-0.5382486
83	0xbee3ab5f	-0.44466683
84	0xbe1db177	-0.15399729
85	0xbcf1d5d4	-0.029520907
86	0xbe6080b1	-0.21924092
87	0xbecccb10	-0.39998674
88	0xbf60e962	-0.87856114
89	0x3ee0f3c9	0.43935993
90	0x3e8feb06	0.28108996
91	0x3f01b4c5	0.5066646
92	0xbf7626c3	-0.96152896
93	0x3e5303f5	0.20606978
94	0x3e8be85a	0.27325708
95	0xbcb3fd2c	-0.021971308
96	0x3d884a50	0.06654799
97	0xbe993013	-0.2991949
98	0x3d9e8d17	0.077417545
99	0xbe039b82	-0.1285229
100	0xbeebd9ac	-0.46064508
101	0xbed0d7ba	-0.40789586
102	0xbe9aa04d	-0.30200425
103	0xbeb62ba1	-0.3558016
104	0xbd091dfc	-0.03347586
105	0xbf3f1feb	-0.7465808
106	0xbe989df5	-0.29808012
107	0xbe1ab047	-0.15106307
108	0xbec88717	-0.39165565
109	0xbe29e883	-0.16592602
110	0xbf03a2e4	-0.51420426
111	0xbf169df2	-0.58834755
112	0xbe1a0f7d	-0.15044971
113	0x3d115136	0.03547784
114	0xbea069f2	-0.3133083
115	0x3d10a44a	0.03531293
116	0xbf5bb9e8	-0.85830545
117	0xbe94e8be	-0.29083818
118	0xbf0c88ce	-0.5489625
119	0xbd559d7c	-0.052152142
120	0xbe25ac27	-0.16178952
121	0xbcb06cb8	-0.021536216
122	0xbf17a4bb	-0.59235734
123	0xbec7fbe7	-0.39059374
124	0xbeb1c7a7	-0.34722635
125	0xbcaf597f	-0.02140498
126	0xbed387fd	-0.41314688
127	0xbeab192c	-0.33417642
128	0x3ee40c22	0.44540507
129	0x3d9e2b99	0.07723159
130	0xbe8884dd	-0.26663867
131	0xbeebad4e	-0.46030658
132	0xbe2f215c	-0.1710257
133	0xbd67ffc8	-0.056640416
134	0xbd51e222	-0.051241048
135	0xbf56e8e4	-0.8394911
136	0x3f0db1b9	0.5534931
137	0x3edbcf47	0.42931578
138	0xbef72252	-0.48268372
139	0xbe91e98e	-0.284985
140	0xbea0a56f	-0.31376216
141	0xbe1fa3d5	-0.1558984
142	0xbe5384bb	-0.20656101
143	0xbd38a9d7	-0.045083847
144	0x3e6c248f	0.23060821
145	0xbdfddfcb	-0.12396201
146	0x3e10fbc2	0.14158538
147	0xbf2536c9	-0.6453672
148	0xbda9b1d6	-0.08285873
149	0xbe87b82c	-0.265077
150	0xbe52a395	-0.20570214
151	0xbec72c65	-0.38901058
152	0xbebc11c1	-0.36732295
153	0xbe08c745	-0.13357265
154	0xbd3c2cbb	-0.045941096
155	0x3e2b7a65	0.16745909
156	0xbeaf1327	-0.341943
157	0xbeee0987	-0.46491644
158	0xbe6157e7	-0.22006188
159	0xbe1a2bb8	-0.1505574
160	0xbec8313c	-0.39100063
161	0x3e4587cf	0.19290088
162	0xbeae28a6	-0.34015387
163	0x3b823861	0.003974006
164	0xbf3a6d4c	-0.72823024
165	0xbf31b046	-0.69409597
166	0xbe5648b2	-0.20926169
167	0x3ce68061	0.028137388
168	0xbc090275	-0.008362402
169	0xbde162e2	-0.110051885
170	0x3cbcd035	0.0230485
171	0x3b1b6cb6	0.002371592
172	0x3f326e6c	0.6969974
173	0xbef99aca	-0.48750907
174	0xbdf50829	-0.11964447
175	0xbf2481b6	-0.64260423
176	0x3e97faae	0.2968344
177	0xbe41c908	-0.18924344
178	0xbc8d5974	-0.017254569
179	0x3dd4eb7a	0.10396476
180	0xbe93d4c4	-0.28873265
181	0xbf3403ec	-0.70318484
182	0x3e578858	0.21048105
183	0xbf510dce	-0.8166169
184	0x3c66a5c3	0.014077607
185	0xbf0ceae5	-0.5504592
186	0x3e432732	0.1905792
187	0xbf4080f3	-0.7519676
188	0x3e6dc101	0.23218156
189	0xbe197b0d	-0.14988346
190	0xbe970404	-0.2949525
191	0x3df2d026	0.118561074
192	0x3df6dfb2	0.12054385
193	0xbefa0a88	-0.4883616
194	0xbf1d4457	-0.61432403
195	0x3c45ba0e	0.012068285
196	0xbe812ca6	-0.25229377
197	0xbe87d558	-0.26529956
198	0xbf7c19e5	-0.9847701
199	0xbe5b0e0b	-0.21392076
200	0xbf0670e4	-0.5251601
201	0xbf3404c6	-0.70319784
202	0xbc4d16e9	-0.012517669
203	0x3c012945	0.007883375
204	0xbe968606	-0.29399127
205	0x3e3c601a	0.18396035
206	0x3f17a8ec	0.5924213
207	0xbea3f51a	-0.32022935
208	0x3ddd4419	0.10804004
209	0xbf62947f	-0.8850784
210	0xbc9823d3	-0.01857177
211	0xbdf68c37	-0.120384626
212	0xbddc0a22	-0.1074412
213	0x3f4a8343	0.7910654
214	0xbf3320fb	-0.699722
215	0x3d9123e6	0.07086925
216	0xbf8d6e30	-1.1049252
217	0x3e613cf1	0.21995904
218	0xbe9aabbe	-0.30209154
219	0xbe94eb78	-0.29085898
220	0xbe49010d	-0.19629307
221	0xbf4a2423	-0.7896139
222	0xbeaae31f	-0.33376405
223	0x3ecce21d	0.4001626
224	0x3ee6ccd3	0.45078143
225	0xbdd995dd	-0.10624287
226	0xbd89a519	-0.06720943
227	0xbe989e5d	-0.29808322
228	0xbeeb00cb	-0.45899042
229	0xbdf9ea42	-0.12202884
230	0xbe341f5f	-0.17590092
231	0xbd735ccc	-0.05941467
232	0xbf9b07f9	-1.2111808
233	0xbe57c28c	-0.21070307
234	0xbef00e7e	-0.46886057
235	0xbe8a7683	-0.27043542
236	0x3e970469	0.29495552
237	0xbef6826b	-0.48146376
238	0x3e82e495	0.2556502
239	0x3efae77d	0.49004737
240	0xbeb29f41	-0.34887126
241	0xbf1019be	-0.5628928
242	0xbee3b2f9	-0.44472483
243	0xbe639a2c	-0.2222678
244	0xbe37081e	-0.1787419
245	0xbf1c3f10	-0.61033726
246	0xbf383432	-0.71954644
247	0x3e2c30d8	0.16815507
248	0xbedce792	-0.43145424
249	0x3e7a4563	0.24440531
250	0xbeb2265e	-0.34794897
251	0xbd9e9458	-0.07743138
252	0xbe9dc7a2	-0.3081637
253	0xbf0093fe	-0.5022582
254	0xbe969d83	-0.29417047
255	0xbe028ca0	-0.12748957

fc2.bias f4 [300]
0	0xbeb2968f	-0.34880492
1	0xbe6ac74d	-0.2292759
2	0x3f132d09	0.57490593
3	0xbea45c91	-0.32101873
4	0xbd94fd0b	-0.072748266
5	0xbe4a0ad4	-0.19730693
6	0x3f34a05f	0.70557207
7	0xbd01952d	-0.031636406
8	0x3f643f98	0.89159536
9	0x3f65296f	0.8951635
10	0xbe81b43b	-0.25332817
11	0xbe456d79	-0.19280042
12	0xbe4613c6	-0.1934348
13	0xbe59928a	-0.21247306
14	0x3f29964f	0.6624498
15	0xbeb36692	-0.35039192
16	0x3f1df7f2	0.6170646
17	0xbdbb0a0d	-0.091327764
18	0xbe5ecd40	-0.21757984
19	0xbe906631	-0.28202966
20	0x3f420def	0.7580251
21	0x3e7e89f5	0.24857314
22	0xbe615028	-0.22003233
23	0x3f5be32e	0.85893524
24	0xbe47d1c8	-0.19513619
25	0xbd8a80e3	-0.067628644
26	0x3f394feb	0.7238757
27	0xbd49b75d	-0.049247134
28	0x3f557cac	0.8339336
29	0xbe84a7c5	-0.25909248
30	0xbddc44e9	-0.10755331
31	0x3f453a38	0.7704196
32	0xbe3e140e	-0.18562338
33	0xbe87995e	-0.26484197
34	0xbdc39194	-0.09549251
35	0x3f45ec72	0.7731391
36	0x3f344e1f	0.70431703
37	0x3d3e4441	0.04645181
38	0x3f1836a2	0.59458363
39	0xbdf10f97	-0.11770552
40	0xbe514e8e	-0.20440122
41	0x3f4d895c	0.8028772
42	0xbe194e32	-0.14971235
43	0xbe202e74	-0.1564272
44	0xbe506462	-0.20350793
45	0x3f180717	0.5938582
46	0x3f5bf71d	0.8592394
47	0x3f4f7f72	0.8105384
48	0x3f62cf12	0.88597214
49	0xbdb8cb2c	-0.09023127
50	0xbe58c2c2	-0.21168044
51	0xbe590a21	-0.2119527
52	0xbedf4add	-0.43611804
53	0x3f5b828e	0.85746086
54	0x3d5c2b05	0.053751964
55	0xbd956792	-0.07295145
56	0x3e34df8b	0.176634
57	0x3f301bc9	0.68792397
58	0x3f6cbbea	0.92474234
59	0x3f2dc752	0.67882264
60	0xbdae80bc	-0.08520648
61	0x3e170084	0.1474629
62	0xbe5180ed	-0.20459338
63	0xbed58fe8	-0.41711354
64	0x3f208ab5	0.6271165
65	0xbe46692c	-0.19376057
66	0x3f670a8c	0.9025047
67	0xbe1c0e44	-0.15239817
68	0xbe5ae2cc	-0.21375579
69	0xbdbf1ba5	-0.09331445
70	0x3ddb303f	0.107025616
71	0xbe5e2e96	-0.21697459
72	0x3f58dd4b	0.84712666
73	0xbe86ca24	-0.26326096
74	0xbde1ebe1	-0.110313185
75	0x3ec235ea	0.37931758
76	0x3f5fda0d	0.87442094
77	0xbe418e2a	-0.18901888
78	0x3ef62cad	0.4808096
79	0x3baa801b	0.0052032596
80	0x3f56a3e3	0.8384382
81	0xbe2ad568	-0.1668297
82	0xbe17d805	-0.14828499
83	0x3e0c82df	0.13721798
84	0xbe3c1f47	-0.18371306
85	0x3da364f0	0.07978237
86	0x3f3ab20b	0.7292792
87	0xbe237c66	-0.15965423
88	0xbd7d67d0	-0.06186658
89	0xbe09e340	-0.13465595
90	0xbe297880	-0.16549873
91	0xbd8cfdbf	-0.06884336
92	0xbe864bf9	-0.26229838
93	0x39b73da7	0.00034950415
94	0x3de3b389	0.11118228
95	0x3f3cef95	0.73803073
96	0xbd6db0ac	-0.058029816
97	0xbe46db68	-0.19419634
98	0xbe8abe74	-0.2709843
99	0x3cf76069	0.03019734
100	0x3f690cd0	0.91035175
101	0x3f2eaacd	0.6822937
102	0xbe66d714	-0.22542983
103	0xbe45f093	-0.19330053
104	0x3f390a82	0.7228166
105	0xbe265320	-0.16242647
106	0xbe5abcfa	-0.21361151
107	0xbe7585f1	-0.23976876
108	0x3f6ddf44	0.929188
109	0x3f6fcd3e	0.9367255
110	0x3f5508e5	0.83216697
111	0x3f1bd7dd	0.60876256
112	0xbe377dcd	-0.17919083
113	0xbe81c299	-0.2534378
114	0x3e6ffa1b	0.23435251
115	0xbd9f23ef	-0.07770526
116	0xbcd17b7f	-0.025571583
117	0x3f059912	0.5218669
118	0xbe3e1646	-0.18563184
119	0xbe86583d	-0.26239195
120	0xbebc4815	-0.36773744
121	0xbed93978	-0.42426658
122	0xbe80c0b3	-0.25147018
123	0xbdc3e629	-0.09565384
124	0xbe2b8ec0	-0.16753674
125	0xbea0bb42	-0.31392866
126	0xbe3f7726	-0.18697795
127	0x3f04f7aa	0.51940405
128	0xbeb27fd9	-0.34863165
129	0xbe549232	-0.20758894
130	0xbddc57de	-0.10758947
131	0xbd600015	-0.05468758
132	0xbe20e5cf	-0.15712665
133	0x3f514e81	0.8176041
134	0xbe4ab422	-0.19795278
135	0xbe83889d	-0.25690165
136	0xbe5d8d36	-0.21635899
137	0x3f57ee18	0.8434768
138	0xbdf54e19	-0.119777866
139	0xbe699371	-0.2281015
140	0x3e6fb3aa	0.2340838
141	0x3e870050	0.26367426
142	0xbe461d06	-0.19347009
143	0x3f211913	0.62928885
144	0xbe641c93	-0.22276525
145	0xbe58586f	-0.21127485
146	0xbdbbe36f	-0.09174239
147	0x3f0e39bf	0.55556864
148	0x3f1ce9a1	0.6129399
149	0x3eb42c12	0.35189873
150	0xbdea183d	-0.11430404
151	0xbbcc04ca	-0.006226157
152	0xbe8129bc	-0.25227153
153	0x3f2d3b10	0.6766825
154	0xbd39adfe	-0.045331948
155	0xbe924dc3	-0.28574952
156	0x3f49bd8c	0.7880485
157	0x3df24d56	0.11831157
158	0xbf27ad8c	-0.65499187
159	0xbe6c61a8	-0.23084128
160	0xbe62f878	-0.22165096
161	0xbe56bbdb	-0.20970099
162	0x3dd6c289	0.104863234
163	0xbcc0c560	-0.023531616
164	0x3ebcb3ad	0.36855832
165	0xbe8dfee3	-0.27733526
166	0xbe440119	-0.19141044
167	0xbe9f1e93	-0.31078014
168	0x3f06b1e0	0.52615166
169	0x3f692bac	0.91082263
170	0xbea95d32	-0.33078915
171	0x3f3bcaa7	0.733561
172	0x3ece7dc7	0.40330335
173	0xbe4dcaec	-0.2009694
174	0xb9b3a3f2	-0.0003426369
175	0x3ea75d77	0.32688496
176	0xbf12430e	-0.5713357
177	0xbe9c1b97	-0.304898
178	0xbe8224dc	-0.25418746
179	0x3f3d8c37	0.74042076
180	0x3f695a25	0.91153175
181	0xbe8dec01	-0.2771912
182	0x3f11bdb5	0.56930095
183	0xbe11e6a2	-0.14248136
184	0x3f13787c	0.5760572
185	0x3d456f97	0.048202123
186	0x3dee86e0	0.11646819
187	0x3d7bfa04	0.06151773
188	0xbd23b0a7	-0.03996339
189	0xb9a1862e	-0.00030808285
190	0x3e179295	0.1480201
191	0x3eca52d9	0.39516333
192	0x3bf4207e	0.0074501624
193	0x3f36ecca	0.7145506
194	0x3f5331b2	0.82497704
195	0xbe00980a	-0.12557998
196	0xbe452eef	-0.19256185
197	0x3f0fbb94	0.56145597
198	0x3f47c5b4	0.78036046
199	0x3f1325b0	0.5747938
200	0x3f19a095	0.60010654
201	0x3f38e0d3	0.72218055
202	0x3f611ba1	0.87932783
203	0xbe166425	-0.1468664
204	0xbdd7f26f	-0.105442874
205	0xbe8a7647	-0.27043363
206	0xbeaef008	-0.34167504
207	0xbe891a3c	-0.26777828
208	0x3d8c8da8	0.06862956
209	0x3ef341a5	0.4751102
210	0x3f54ca66	0.83121336
211	0xbe41e923	-0.18936591
212	0x3d927f96	0.07153241
213	0x3f384eb0	0.7199507
214	0x3f5ace19	0.8547073
215	0x3f5f04ab	0.871165
216	0x3cf038ea	0.029324014
217	0xbe33144f	-0.17488216
218	0x3f583749	0.8445936
219	0xbe7144ea	-0.23561445
220	0x3f446f74	0.76732564
221	0xbe8f2e6b	-0.27965102
222	0xbc188b7a	-0.009310598
223	0x3f607cd6	0.87690485
224	0xbe2fce3c	-0.17168516
225	0xbe1b65ce	-0.15175554
226	0xbe2fc8da	-0.17166463
227	0x3f2e87b1	0.681758
228	0xbd09ab6d	-0.03361075
229	0x3e9c6631	0.30546716
230	0xbe77476f	-0.24148344
231	0xbe7a571f	-0.24447297
232	0x3ecd827c	0.40138614
233	0x3f588635	0.84579784
234	0xbc6b89e1	-0.014376135
235	0x3f35bbd4	0.7098973
236	0xbe795f50	-0.24352765
237	0xbeb0fbe8	-0.3456719
238	0x3f2b8db5	0.670131
239	0x3f5db95e	0.8661097
240	0xbe2bde83	-0.167841
241	0x3f43b40a	0.7644659
242	0x3f666956	0.9000448
243	0x3f49cad4	0.78825116
244	0xbeb9156a	-0.3614915
245	0x3f5cdf18	0.86277914
246	0xbe70a166	-0.23499069
247	0x3f514eea	0.8176104
248	0xbd84e6b8	-0.064893186
249	0xbe27ba60	-0.1637969
250	0x3f535e24	0.8256552
251	0x3f56ae79	0.83859974
252	0xbe5b8c03	-0.21440129
253	0xbe69c13d	-0.22827621
254	0x3f2b97d3	0.6702854
255	0x3f45544a	0.7708174

bn2.weight f4 [300]
0	0x3fd059c1	1.6277391
1	0x3f806753	1.0031532
2	0x3f8c0732	1.0939696
3	0x3f817445	1.0113608
4	0x3f7f75d2	0.99789155
5	0x3f8103c5	1.0079275
6	0x3f8a97bb	1.0827554
7	0x3fcd682e	1.6047418
8	0x3f943958	1.158
9	0x3f903d0c	1.126863
10	0x3f95845d	1.1681019
11	0x3f6a080d	0.91418535
12	0x3f9c3993	1.220507
13	0x3f870abd	1.0550152
14	0x3f8e7619	1.112979
15	0x3f816ecd	1.0111939
16	0x3f8becb0	1.0931606
17	0x3f92d076	1.1469867
18	0x3fa841e2	1.3145106
19	0x3f6e6c62	0.9313413
20	0x3f8e60b0	1.1123257
21	0x3f802fac	1.0014548
22	0x3f84ea35	1.0383974
23	0x3f926621	1.1437417
24	0x3f87380d	1.056398
25	0x40011e19	2.017462
26	0x3f8e6d88	1.1127176
27	0x3f92541c	1.1431918
28	0x3f91b1cd	1.1382385
29	0x3f80b66d	1.0055672
30	0x3f8d16fb	1.1022638
31	0x3f8c2923	1.0950054
32	0x3faacc7e	1.3343656
33	0x3fb46790	1.4094105
34	0x3f6f5484	0.93488336
35	0x3f905299	1.1275207
36	0x3f8af246	1.0855186
37	0x3fc043ea	1.5020726
38	0x3f8b6773	1.0890945
39	0x3f8070b3	1.0034393
40	0x3fa20a98	1.2659483
41	0x3f9269f4	1.1438584
42	0x3f8b3dbd	1.0878216
43	0x3fa7a1b7	1.3096226
44	0x3f8086f7	1.0041188
45	0x3f8e083d	1.1096264
46	0x3f900d09	1.1253978
47	0x3f90315e	1.1265066
48	0x3f924786	1.1428077
49	0x3fac77fd	1.3474118
50	0x3f808ec6	1.0043571
51	0x3f9b6806	1.214112
52	0x3f85bbc0	1.0447922
53	0x3f91580c	1.1354995
54	0x3f6a7012	0.91577256
55	0x3fc3667a	1.5265648
56	0x3f4045f0	0.75106716
57	0x3f8e35ab	1.1110128
58	0x3f92c4af	1.1466273
59	0x3f8af8dd	1.0857197
60	0x3fe0e008	1.7568369
61	0x3fa51733	1.2897705
62	0x3f80542f	1.0025691
63	0x3fc0ea87	1.5071572
64	0x3f8c19ea	1.0945408
65	0x3fa9dc34	1.3270326
66	0x3f9173e9	1.1363498
67	0x3fa928b3	1.3215545
68	0x3faa539d	1.3306767
69	0x3f85bbac	1.0447898
70	0x3fb0ca30	1.3811703
71	0x3f7c6cd6	0.9860357
72	0x3f90c80d	1.1311051
73	0x3f82402d	1.0175835
74	0x3f8904bd	1.0704571
75	0x3f7eeefd	0.9958342
76	0x3f91c62b	1.1388601
77	0x3f804def	1.0023783
78	0x3f80c864	1.0061154
79	0x3fa56c82	1.2923739
80	0x3f929fe8	1.145505
81	0x3fb3f146	1.4058006
82	0x3f9e7a93	1.2381157
83	0x3f5b4f65	0.8566802
84	0x3f88898d	1.0666977
85	0x3f727abf	0.94718546
86	0x3f8e37d2	1.1110785
87	0x3f859d1d	1.0438572
88	0x3f9bcbfe	1.2171628
89	0x3fd1e82a	1.6398976
90	0x3f8491e0	1.0357018
91	0x3fb3eead	1.4057213
92	0x3f806a73	1.0032486
93	0x3f47756a	0.77913535
94	0x3f6911f7	0.9104304
95	0x3f8e0197	1.1094235
96	0x3f9ad330	1.2095699
97	0x3f8da6a5	1.1066481
98	0x3f80d1c5	1.0064017
99	0x3fa8b218	1.317935
100	0x3f93955b	1.1529955
101	0x3f8c5a25	1.096501
102	0x3f7fd184	0.9992907
103	0x3f824c8f	1.0179614
104	0x3f8be103	1.0928043
105	0x3f794043	0.9736368
106	0x3f872ead	1.0561119
107	0x3f8653cd	1.0494324
108	0x3f923816	1.1423366
109	0x3f92931f	1.1451148
110	0x3f9049ff	1.1272582
111	0x3f8955bd	1.072929
112	0x3f8568c5	1.0422598
113	0x3f80be3d	1.0058056
114	0x3f6f2010	0.934083
115	0x3fbb13a8	1.4615374
116	0x3f803756	1.0016887
117	0x3f865be1	1.0496789
118	0x3f76ec2c	0.9645412
119	0x3fd08e36	1.6293399
120	0x3fabb7f6	1.3415515
121	0x3fa8aa6c	1.3177009
122	0x3f817a85	1.0115515
123	0x3f983e6d	1.1894051
124	0x3f557275	0.8337777
125	0x3f914c93	1.1351494
126	0x3f823795	1.0173212
127	0x3f8a53eb	1.080686
128	0x3f81aa2d	1.0130059
129	0x3f808373	1.0040115
130	0x3fc097dc	1.5046344
131	0x3f939aa9	1.1531574
132	0x3f9df3d9	1.2340041
133	0x3f942552	1.1573889
134	0x3f80e7a5	1.0070692
135	0x3f808ec7	1.0043572
136	0x3f8b8fc5	1.090325
137	0x3f944c5c	1.1585803
138	0x3f805728	1.0026598
139	0x3f7f522b	0.99734753
140	0x3f78b130	0.97145367
141	0x3f80757b	1.0035852
142	0x3f830b4d	1.0237824
143	0x3f8d893b	1.1057504
144	0x3f9bc436	1.2169254
145	0x3f80a4a7	1.0050248
146	0x3f94ecc4	1.1634755
147	0x3f84ffd0	1.0390568
148	0x3f89da7d	1.0769802
149	0x3f853fef	1.0410136
150	0x3f907806	1.1286628
151	0x3f74145a	0.95343554
152	0x3ff5b08d	1.9194504
153	0x3f8cfa0e	1.1013811
154	0x3fcca8ec	1.5989051
155	0x3f8badc6	1.0912406
156	0x3f916cf9	1.1361381
157	0x3fa65852	1.2995703
158	0x3fe666e4	1.800015
159	0x3f7906a4	0.9727576
160	0x3fb0f8bf	1.3825911
161	0x3f7e2ec3	0.992901
162	0x3fb002cc	1.3750854
163	0x3fcc185d	1.5944935
164	0x3f884b56	1.0647991
165	0x3f8f9c2a	1.1219532
166	0x3f74391b	0.95399636
167	0x3f8397ed	1.0280739
168	0x3f867b52	1.0506384
169	0x3f943bc9	1.1580745
170	0x3fa58ba9	1.2933246
171	0x3f9047ec	1.1271949
172	0x3f86bb9d	1.0526005
173	0x3f87a184	1.0596166
174	0x3fa27fe2	1.2695277
175	0x3f81daef	1.0144938
176	0x3fdcdf61	1.725567
177	0x3f7bd6c3	0.98374575
178	0x3f89132b	1.0708975
179	0x3f8bafa1	1.0912973
180	0x3f92bacd	1.1463257
181	0x3f82d717	1.022189
182	0x3f87932a	1.0591786
183	0x3f86033c	1.0469737
184	0x3f899991	1.074999
185	0x3fa43f19	1.2831756
186	0x3f7e487d	0.9932936
187	0x3fb3cfb2	1.4047759
188	0x3fb21923	1.3913921
189	0x3f82e95e	1.0227468
190	0x3f7a5e43	0.9780008
191	0x3f829f08	1.0204782
192	0x3fd17235	1.6362978
193	0x3f89cf18	1.0766325
194	0x3f916d1f	1.1361426
195	0x3f7e7f3b	0.9941289
196	0x3fcb8ace	1.5901735
197	0x3f88be9a	1.0683167
198	0x3f8db591	1.1071035
199	0x3f8ef57c	1.1168666
200	0x3f884367	1.064557
201	0x3f8c1033	1.0942444
202	0x3f957c98	1.1678648
203	0x3fa9cece	1.3266237
204	0x3fcdd374	1.6080155
205	0x3f7737f3	0.96569747
206	0x3fa3b235	1.278876
207	0x40026391	2.037327
208	0x3fa9b62e	1.3258722
209	0x3f85ce34	1.0453553
210	0x3f92438c	1.1426864
211	0x3f83c9ec	1.0295997
212	0x3f9f902d	1.2465874
213	0x3f8b0ba1	1.0862924
214	0x3f93dfc2	1.155266
215	0x3f93c7f0	1.1545391
216	0x3fa29480	1.2701569
217	0x3f969032	1.1762755
218	0x3f918cd0	1.1371098
219	0x3f80862f	1.004095
220	0x3f919128	1.1372423
221	0x3f7f2186	0.9966053
222	0x3fa5e85b	1.2961534
223	0x3f927020	1.1440468
224	0x3f9adbe8	1.209836
225	0x3f80bf05	1.0058295
226	0x3fa15401	1.2603761
227	0x3f8e4e04	1.1117558
228	0x3fbc70dc	1.4721942
229	0x3f8150f5	1.0102831
230	0x3f80e54d	1.0069977
231	0x3f7e7c1b	0.9940812
232	0x3f88b915	1.0681483
233	0x3f913dc8	1.1346979
234	0x3fb1d60d	1.3893448
235	0x3f8e21eb	1.1104101
236	0x3f7f315a	0.9968468
237	0x3f821120	1.0161476
238	0x3f8d128d	1.1021286
239	0x3f919fbd	1.1376873
240	0x3fa763df	1.3077353
241	0x3f8d5f07	1.1044625
242	0x3f920881	1.1408845
243	0x3f915a15	1.1355616
244	0x4005588a	2.083529
245	0x3f90cb69	1.1312076
246	0x3f7f1793	0.99645346
247	0x3f932ebb	1.1498636
248	0x3f8f065b	1.1173815
249	0x3f8f6695	1.120318
250	0x3f9258a4	1.1433301
251	0x3f90a69e	1.1300848
252	0x3f8aab4e	1.0833528
253	0x3f7f072b	0.9962031
254	0x3f888bd1	1.0667669
255	0x3f8c94ac	1.0982871
