Zadanie3/srcV2/models/Variable exploration probability + 50 exploration_10/target_actor_network.pth (torch, 507007 bytes, 10 tensors)

fc1.weight f4 [400, 8]
0.03581534 0.11667383 -0.03108545 0.07333596 -0.06820902 -0.16733776 0.17542733 0.31561184
0.08818711 0.17167516 -0.020439928 -0.09381319 -0.08315277 -0.25551203 -0.038038116 0.1807452
0.2941322 0.5189814 -0.06740806 -0.54829544 0.106060736 0.29997253 0.34690985 0.3740771
0.040843334 0.1680571 0.03237103 -0.11332515 -0.09800732 -0.2515981 0.009077652 0.18648323
0.11146484 0.14703551 0.112784296 -0.087073505 -0.181693 -0.09954874 -0.0882015 -0.1476589
0.027810996 0.15980096 0.04533848 -0.1379396 -0.16201727 -0.3060287 0.18374072 0.10872634
0.08498607 0.3770876 0.040729944 -0.4043168 -0.015930457 0.092843324 0.3150887 0.29868788
0.20375156 0.57281345 0.09181399 -0.669984 -0.053531174 0.270576 0.33443043 0.37536645
0.0018028457 0.1761044 0.06562157 -0.1193444 -0.11542564 -0.112899475 0.09531646 -0.03883098
-0.068963684 0.23111139 -0.09507038 -0.212068 -0.18891034 0.04490101 0.22974272 0.18041216
0.1353645 0.1358773 -0.13632487 -0.21377206 0.17741182 0.28663078 -0.0903541 -0.13482833
0.01469559 0.14415903 0.010400887 -0.05564933 -0.17911273 -0.2529151 -0.08926001 -0.25704038
0.33463296 0.5958208 0.012043295 -0.6282697 0.086817965 0.22184187 0.3577378 0.37986255
0.110096574 0.22268182 -0.037926372 -0.06600046 0.026742319 -0.18772493 -0.00880057 0.17165662
0.09123966 0.19867921 0.16447122 -0.01882214 -0.25777864 -0.31335342 -0.025833631 -0.11782908
0.11005387 0.29462343 0.057552155 -0.2580105 0.097475916 0.20152909 0.23502576 0.19100851
-0.04633807 0.09901571 -0.0009624237 -0.08491228 0.35493645 0.19733213 -0.1260915 0.19959885
0.04106557 0.09350485 0.0745033 -0.10386827 -0.15089148 -0.23334868 -0.30384073 -0.25458866
0.00085465185 0.15516195 -0.08366637 -0.23331583 0.06557346 0.27944973 0.29973277 -0.055816773
0.10709694 0.32109475 0.0975031 -0.35244077 -0.037867755 0.039139524 0.34883994 0.092896946
0.08497239 0.16347224 -0.022355923 -0.14821044 0.13096468 0.11079497 0.14882433 0.2048725
-0.10240424 -0.032889973 -0.23567958 -0.19803633 0.11401293 -0.20760943 -0.054609023 -0.5566039
-0.022316327 0.13561627 0.10677927 -0.07605951 -0.120433785 -0.12551898 0.13776505 0.25904268
0.05419041 0.16765158 -0.028008051 -0.04460976 -0.027326874 -0.066848405 0.18158063 0.22696367
-0.03023317 0.26429018 0.15035984 -0.06365719 -0.030052735 -0.03285779 0.1015915 0.035750873
0.10991152 0.21391605 0.1582229 -0.17490137 -0.14946708 0.011223969 0.045678914 -0.09076612
0.02738461 0.23436967 0.051966246 -0.18373093 0.011869247 0.011533033 0.18177052 0.1401309
0.18029226 0.10872391 -0.0013810818 -0.26870975 0.022985546 0.3321914 -0.021474954 -0.14061359
0.19465846 -0.028326364 0.13611618 -0.19549811 -0.26760888 -0.21677893 0.064813465 0.39252025
0.15731318 0.23967718 0.03575484 -0.2907174 0.05344647 0.21826847 0.21523827 -0.012822894
-0.14056462 0.06803357 -0.040690158 0.32745117 0.20625272 0.2848717 0.1892316 0.28128093
0.11375209 0.25351042 -0.005491136 -0.21550488 0.09327962 0.05944703 0.35193095 0.08178476
00000000: 1bb3 123d b0f2 ee3d eaa6 febc 2a31 963d
00000010: 2cb1 8bbd 975a 2bbe 39a3 333e e097 a13e
00000020: 729b b43d 9dcb 2f3e a371 a7bc 2121 c0bd
00000030: 004c aabd 79d2 82be dbcd 1bbd 4515 393e
00000040: 7f98 963e f7db 043f 3d0d 8abd 175d 0cbf
00000050: 5f36 d93d 0096 993e 2b9e b13e 0987 bf3e
00000060: 574b 273d 2917 2c3e 7c97 043d 0417 e8bd
00000070: 10b8 c8bd 77d1 80be 6fba 143c 76f5 3e3e
00000080: ae47 e43d 7a90 163e 74fb e63d 9853 b2bd
00000090: bb0d 3abe 36e0 cbbd fda2 b4bd e533 17be
000000a0: e3d3 e33c dda2 233e d8b4 393d 0a40 0dbe
000000b0: dbe7 25be cbaf 9cbe 8726 3c3e eaab de3d
000000c0: 2d0d ae3d a011 c13e 71d4 263d 9d02 cfbe
000000d0: 9780 82bc a424 be3d 4e53 a13e 9eed 983e
000000e0: 40a4 503e e7a3 123f f908 bc3d 1284 2bbf
000000f0: 8143 5bbd f088 8a3e 773a ab3e 0830 c03e
00000100: 774d ec3a b654 343e 9a64 863d d66a f4bd
00000110: 4764 ecbd d737 e7bd 4735 c33d 3c0d 1fbd
00000120: d53c 8dbd 77a8 6c3e 42b4 c2bd 5b28 59be
00000130: b671 41be 1fea 373d ad41 6b3e f7bd 383e
00000140: fe9c 0a3e 6b23 0b3e bf98 0bbe 10e7 5abe
00000150: 72ab 353e 45c1 923e 920b b9bd 7010 0abe
00000160: c6c5 703c 6d9e 133e 7b68 2a3c 8df0 63bd
00000170: 5469 37be 177e 81be f4cd b6bd cc9a 83be
00000180: 0355 ab3e b687 183f 3e51 453c 48d6 20bf
00000190: 9ecd b13d 842a 633e 6929 b73e 587d c23e
000001a0: 507a e13d b406 643e af58 1bbd 402b 87bd
000001b0: b512 db3c f73a 40be 4430 10bc c1c6 2f3e
000001c0: dcdb ba3d 9072 4b3e 256b 283e e330 9abc
000001d0: 90fb 83be dc6f a0be 0da1 d3bc 5f50 f1bd
000001e0: ec63 e13d e2d8 963e cfbb 6b3d f419 84be
000001f0: 74a1 c73d a45d 4e3e 98aa 703e bc97 433e
00000200: fdcc 3dbd c0c8 ca3d 294b 7cba 7de6 adbd
00000210: 3bba b53e 6f11 4a3e 211e 01be a463 4c3e
00000220: 5f34 283d 797f bf3d 3095 983d e3b8 d4bd
00000230: 4c83 1abe f5f2 6ebe 0391 9bbe 7259 82be
00000240: b70a 603a c6e2 1e3e 4659 abbd 58ea 6ebe
00000250: 614b 863d 0914 8f3e 9376 993e 21a0 64bd
00000260: a455 db3d 8866 a43e b5af c73d 1e73 b4be
00000270: 381b 1bbd c450 203d 269b b23e c140 be3d
00000280: 0106 ae3d 4465 273e c523 b7bc 7ac4 17be
00000290: 9b1b 063e 79e8 e23d 6865 183e 19ca 513e
000002a0: 50b9 d1bd a3b7 06bd fd55 71be 09ca 4abe
000002b0: 9c7f e93d 9197 54be b6ad 5fbd 987d 0ebf
000002c0: bbd0 b6bc fede 0a3e 17af da3d 17c5 9bbd
000002d0: fda5 f6bd 0c88 00be 4812 0d3e 3ea1 843e
000002e0: c3f6 5d3d dbac 2b3e 2471 e5bc b9b8 36bd
000002f0: 9cdc dfbc d1e7 88bd 46f0 393e 2a69 683e
00000300: 8eab f7bc 0b51 873e eef7 193e b35e 82bd
00000310: 2731 f6bc e495 06bd 340f d03d 826f 123d
00000320: 4a19 e13d cf0c 5b3e 2f05 223e 5819 33be
00000330: e60d 19be bde4 373c d019 3b3d 96e3 b9bd
00000340: b155 e03c 9afe 6f3e 8fda 543d f623 3cbe
00000350: 3b77 423c 0cf5 3c3c 0d22 3a3e 7a7e 0f3e
00000360: 899e 383e a4aa de3d 6a05 b5ba 5394 89be
00000370: 2f4c bc3c fe14 aa3e 3eec afbc 02fd 0fbe
00000380: 8c54 473e b10c e8bc 0a62 0b3e a830 48be
00000390: 0804 89be 4cfb 5dbe ecbc 843d 6af8 c83e
000003a0: b516 213e ef6d 753e ab73 123d e9d8 94be
000003b0: b0ea 5a3d c581 5f3e 6c67 5c3e 1e17 52bc
000003c0: 2cf0 0fbe 2f55 8b3d b9aa 26bd aea7 a73e
000003d0: ea33 533e b4da 913e eec5 413e 0e04 903e
000003e0: dbf6 e83d 1ecc 813e fdee b3bb 50ad 5cbe
000003f0: 6309 bf3d bb7e 733d 4b30 b43e c57e a73d

fc1.bias f4 [400]
0.054185662 0.22562447 0.72069573 0.2689012 0.23867801 0.21893626 0.43436128 0.7612542
0.21240653 0.25281686 0.098329656 0.1563942 0.7617308 0.21784762 -0.124790065 0.31075567
-0.015294147 0.14485584 0.08046156 0.3393198 0.31643683 0.038689658 0.142162 0.10982496
0.2754935 0.16289018 0.28745726 0.062060643 0.14355037 0.15280925 0.12198206 0.29125956
0.17567264 0.18631531 0.30894312 0.15066099 0.20342521 0.29747486 0.18483809 0.12307033
0.083321095 0.12749699 0.14399868 0.077195235 0.20741764 0.20568521 0.15314303 0.124523014
0.2551689 0.18262781 0.16906017 0.27958348 0.10491751 0.23100218 0.12657155 0.16725802
0.25477603 0.2357334 0.22550167 0.11414452 0.18260574 0.2136611 0.092274845 0.3247476
0.27794242 0.23382111 0.11411384 0.34926373 0.19608979 0.41006637 0.3124611 0.11663138
0.22340482 0.23629801 0.62795055 -0.28359255 0.191271 0.16904229 0.23031464 0.24038696
0.21752168 0.19418512 0.024597922 0.1533939 0.2893581 0.2392635 0.28365073 0.25291768
0.093661144 0.0074807373 0.2182 0.11263413 0.27222693 0.07520699 0.4654441 0.09103003
0.26187542 0.32176942 0.22889036 0.27264223 -0.06309299 0.19437645 0.2254585 0.12619993
0.1547411 0.27961525 -0.07836468 0.2080998 0.28894696 0.101876274 0.33379737 -0.025699059
0.36415815 0.21522488 0.1429769 -0.020430839 0.19144274 0.263169 0.23234022 0.22252414
0.21116737 0.19064566 -0.044425692 0.27458587 0.37884492 0.022539241 0.047237717 0.0069193575
0.23613137 0.46748903 0.27838066 0.29304495 0.30331135 0.1437192 0.080330566 0.15866363
0.16060501 0.14038977 0.2279794 0.19993885 0.07721975 0.29122278 0.3177923 0.48100907
-0.17282349 0.14993778 0.292726 0.2348508 0.0844767 0.10605142 0.2591376 0.21754976
0.38258275 0.3045752 0.09065786 0.123375684 0.10125431 0.42488247 0.3577803 0.07147013
0.17910944 0.3249383 0.29108313 0.42054158 0.80036527 -0.034983452 0.2139987 0.23152848
0.27224615 0.3183311 0.27301258 0.33136868 0.04872437 -0.18999287 0.14830895 0.13695724
0.33245438 0.13374804 0.22638942 0.31883407 0.13851379 0.3505025 0.09505014 0.074129626
0.23404011 0.17291869 0.33657277 0.14597079 0.20748402 0.2941551 -0.04193528 0.7675248
0.14902706 0.10937828 0.20448837 0.1628453 0.086076505 0.13216901 0.08232736 0.098154284
0.29452333 0.09320863 0.32857588 0.030917408 0.27456817 0.29396713 0.0779551 0.14212105
0.19367608 0.24279028 0.29132372 0.22162078 0.062267162 0.23986083 0.21500267 0.2333083
0.14626247 0.26105607 0.17829153 0.29306895 0.2960595 0.35785565 0.077175744 0.090282254
0.065907195 0.13571803 0.25591078 0.096098036 0.080304235 -0.09655663 0.10466706 0.33782008
0.054495562 0.15775412 0.24866451 0.13246666 0.07799691 0.15534598 0.28768206 -0.015650827
0.3765449 0.22801943 0.26893884 -0.04338638 0.1945307 0.1714578 0.3080286 0.18497883
0.15907247 0.21268211 0.2327352 -0.12908821 0.24093342 0.0659352 0.2219516 0.08430857
00000000: c9f1 5d3d 1a0a 673e 847f 383f 6bad 893e
00000010: 0268 743e d430 603e 9a64 de3e 8ee1 423f
00000020: 1981 593e 3671 813e 0f61 c93d cd25 203e
00000030: ca00 433f 7213 5f3e ef91 ffbd 5e1b 9f3e
00000040: 4d94 7abc 1755 143e 08c9 a43d 53bb ad3e
00000050: 0204 a23e 0c79 1e3d ea92 113e e9eb e03d
00000060: 7c0d 8d3e afcc 263e 992d 933e 4d33 7e3d
00000070: defe 123e 077a 1c3e bbd1 f93d f91f 953e
00000080: 87e3 333e 71c9 3e3e cb2d 9e3e e046 1a3e
00000090: b34e 503e a04e 983e 3246 3d3e 4c0c fc3d
000000a0: 40a4 aa3d 928e 023e 6474 133e 8918 9e3d
000000b0: 4a65 543e 259f 523e 87d1 1c3e ec05 ff3d
000000c0: 80a5 823e c902 3b3e 1c1e 2d3e 9125 8f3e
000000d0: fede d63d d68b 6c3e f99b 013e b045 2b3e
000000e0: 0172 823e 1964 713e e9e9 663e 9ac4 e93d
000000f0: 00fd 3a3e fac9 5a3e 98fa bc3d 5145 a63e
00000100: 784e 8e3e cd6e 6f3e 84b4 e93d b2d2 b23e
00000110: c3cb 483e 38f4 d13e e7fa 9f3e 6fdc ee3d
00000120: 3cc4 643e 1bf8 713e 5ec1 203f 0b33 91be
00000130: 8cdc 433e 6c19 2d3e 9ad7 6b3e 0028 763e
00000140: 01be 5e3e 77d8 463e 9581 c93c 4a13 1d3e
00000150: bf26 943e 7e01 753e ab3a 913e 6d7e 813e
00000160: 6ad1 bf3d f920 f53b d26f 5f3e b9ac e63d
00000170: 5461 8b3e 1f06 9a3d b04e ee3e f46d ba3d
00000180: 8914 863e f6be a43e 3c62 6a3e c397 8b3e
00000190: e636 81bd 9f0a 473e 98de 663e 8e3a 013e
000001a0: 7374 1e3e bb29 8f3e a97d a0bd 1d18 553e
000001b0: dbf0 933e 82a4 d03d 7de7 aa3e d586 d2bc
000001c0: f072 ba3e e963 5c3e 8968 123e 935e a7bc
000001d0: 9109 443e 16be 863e 98ea 6d3e 5edd 633e
000001e0: 423c 583e 9e38 433e b7f7 35bd 8596 8c3e
000001f0: f6f7 c13e 37a4 b83c 567c 413d c7bb e23b
00000200: 6ccc 713e b95a ef3e e987 8e3e fd09 963e
00000210: a04b 9b3e 202b 133e 5a84 a43d b878 223e
00000220: a475 243e 56c2 0f3e 6f73 693e c5bc 4c3e
00000230: 6325 9e3d 271b 953e acb5 a23e d246 f63e
00000240: a4f8 30be 4a89 193e 2fe0 953e ba7c 703e
00000250: 1f02 ad3d 7d31 d93d afad 843e 5dc5 5e3e
00000260: e3e1 c33e 48f1 9b3e d4aa b93d 64ac fc3d
00000270: 6b5e cf3d 328a d93e fb2e b73e ee5e 923d
00000280: 7768 373e 505e a63e d908 953e 3a51 d73e
00000290: bde4 4c3f cf4a 0fbd 7a22 5b3e cd15 6d3e
000002a0: d963 8b3e 4bfc a23e 4ec8 8b3e 28a9 a93e
000002b0: 3493 473d 7e8d 42be 4dde 173e 853e 0c3e
000002c0: 7637 aa3e 3ff5 083e a1d2 673e 383e a33e
000002d0: 8fd6 0d3e 1075 b33e a6a9 c23d 46d1 973d
000002e0: 36a8 6f3e 9911 313e 4453 ac3e 5e79 153e
000002f0: b176 543e 7f9b 963e 54c4 2bbd 817c 443f
00000300: 8d9a 183e b801 e03d 6665 513e ebc0 263e
00000310: e148 b03d 5057 073e 3f9b a83d 1d05 c93d
00000320: c3cb 963e 2be4 be3d 193b a83e 8146 fd3c
00000330: 3394 8c3e dc82 963e eca6 9f3d 2e88 113e
00000340: 0653 463e 049e 783e 6228 953e 8ff0 623e
00000350: da0b 7f3d 149e 753e a929 5c3e 5fe8 6e3e
00000360: d4c5 153e 24a9 853e 0e92 363e 220d 963e
00000370: 1c95 973e db38 b73e 510e 9e3d e7e5 b83d
00000380: 5afa 863d abf9 0a3e bd06 833e 0ccf c43d
00000390: 8c76 a43d 7cbf c5bd af5b d63d c1f6 ac3e
000003a0: bd36 5f3d 4c8a 213e e9a1 7e3e 57a5 073e
000003b0: d8bc 9f3d 0413 1f3e 104b 933e 2a36 80bc
000003c0: 7eca c03e ed7d 693e 5ab2 893e ebb5 31bd
000003d0: 0e33 473e a292 2f3e edb5 9d3e 176b 3d3e
000003e0: e5e3 223e 57c9 593e 2352 6e3e b32f 04be
000003f0: 40b7 763e 0909 873d 4847 633e f9a9 ac3d

bn1.weight f4 [400]
1.0245131 0.7257659 0.23199719 0.60791177 0.7882098 0.7274876 0.3771649 0.23742753
0.7489063 0.5670748 0.92202497 0.8577668 0.17611848 0.7446741 2.0242338 0.47755948
1.4035338 0.8448294 0.9090101 0.57751197 0.5403604 1.4153842 0.8721853 0.9875719
0.59342057 0.7978176 0.6216332 1.1225162 1.074439 0.6381379 1.2617859 0.5415133
0.9888318 0.7132197 0.55911887 0.8519319 0.6588942 0.553759 0.81073797 0.92248654
1.3963664 0.7190869 0.64764154 1.5701461 0.71246195 0.67972547 0.943167 0.9332943
0.5626313 0.7105632 1.5739952 0.56095225 1.6391021 0.61313504 0.99821395 0.9271327
1.3580966 0.6897276 0.6497343 0.91078454 1.058849 1.2176719 1.0910255 0.58113307
0.5496949 0.6104307 1.0074873 0.5195908 0.76645076 0.42242247 0.65141386 1.3644902
0.60486114 0.9573899 0.26698795 2.10295 0.7514756 0.82556754 0.62694705 0.5865761
0.70322686 0.845034 1.2444956 0.8880114 0.50596243 0.80415523 0.64060664 0.65302575
1.4154854 1.143114 0.81497216 1.170355 0.655756 1.0047143 0.3001788 1.2380798
0.6292274 0.5697877 0.9231551 0.6752372 1.8286294 1.2214395 0.677232 1.1277999
0.7840551 0.47925356 1.644856 0.81499135 0.5868909 1.4839376 0.49008974 1.7294326
0.43264663 1.227885 1.4153745 1.7663819 0.8000213 0.9810327 0.773086 1.1463779
0.77098924 0.8429448 1.8285738 1.2020481 0.439627 1.4052763 0.9796859 1.7277822
0.7176534 0.32947665 0.5320124 0.547358 0.5160214 0.79233164 1.2806726 0.981036
0.96039444 0.9851758 0.6350438 0.9375115 0.93994206 0.51880264 0.47821465 0.3215379
1.7829318 0.8302242 0.6070291 0.5812393 1.044472 1.758574 0.67469025 0.97277874
0.48604566 0.52057654 1.5149453 1.2410094 1.6488174 0.35813785 0.42342392 1.0296602
0.8425481 0.5446345 0.9232426 0.43489057 0.22362573 1.6313379 0.6387426 0.9326298
0.5579431 0.5144968 0.49391463 0.45111075 1.030661 1.7448575 0.97691536 0.9434408
0.5891146 0.8660414 0.8913313 0.51148325 1.1007386 0.47399127 1.0032595 1.0804691
0.6144649 0.8120918 0.48260358 1.1001456 0.6973499 0.663933 1.531914 0.2118203
0.87187946 1.0747455 0.59749126 0.8349683 1.0829905 1.0449251 1.2422574 1.5561825
0.5532708 0.9636659 0.5321386 1.530714 1.3222737 0.8648016 1.0348451 0.94666916
0.7537042 0.56220716 0.58399665 0.6606474 1.4294605 0.5618399 0.6404054 0.64508545
0.843684 0.67018986 1.3074753 0.57794255 0.9855855 0.46593583 0.9949383 0.9485844
1.5867841 1.2662908 0.6745265 0.9532325 1.1920091 1.7370093 1.4287825 0.41094267
1.3720297 1.2763697 0.5480225 1.270221 1.0877539 0.7921394 0.5841428 1.7145206
0.39772874 0.6705718 0.58495164 1.5271605 0.92499375 0.9016667 0.62926275 0.7916253
0.7851708 0.6343581 0.8563017 1.7397348 0.66893786 1.498875 0.69873273 1.3195614
00000000: 3f23 833f cbcb 393f ac90 6d3e 1ba0 1b3f
00000010: 1ec8 493f a13c 3a3f c21b c13e 3420 733e
00000020: 53b8 3f3f d02b 113f d409 6c3f 9b96 5b3f
00000030: 6758 343e f6a2 3e3f 0c8d 0140 ad82 f43e
00000040: ffa6 b33f bd46 583f e3b4 683f d3d7 133f
00000050: 0f55 0a3f 4f2b b53f 8947 5f3f 83d1 7c3f
00000060: 69ea 173f c63d 4c3f 5a23 1f3f 9cae 8f3f
00000070: 3887 893f 015d 233f 3382 a13f 9ea0 0a3f
00000080: 1524 7d3f 9195 363f 6a22 0f3f 3618 5a3f
00000090: 4aad 283f 26c3 0d3f 868c 4f3f 1428 6c3f
000000a0: 22bc b23f 1416 383f d6cb 253f 8cfa c83f
000000b0: e863 363f 7d02 2e3f 6473 713f 60ec 6e3f
000000c0: 9b08 103f 78e7 353f ad78 c93f 919a 0f3f
000000d0: 19ce d13f 6bf6 1c3f f38a 7f3f 9258 6d3f
000000e0: 1cd6 ad3f fd91 303f fd54 263f 2d29 693f
000000f0: 5d88 873f acdc 9b3f b9a6 8b3f 23c5 143f
00000100: ceb8 0c3f 3045 1c3f 58f5 803f e703 053f
00000110: 1e36 443f c247 d83e 0fc3 263f 9da7 ae3f
00000120: 2ed8 1a3f 8117 753f a5b2 883e bc96 0640
00000130: b460 403f 6558 533f 9a7f 203f da29 163f
00000140: ad06 343f 2654 583f a24b 9f3f b754 633f
00000150: c186 013f 1edd 4d3f ccfe 233f b22c 273f
00000160: a02e b53f 8f51 923f 04a2 503f 31ce 953f
00000170: a0df 273f 7a9a 803f 09b1 993e 6679 9e3f
00000180: 0c15 213f 9bdd 113f e553 6c3f 58dc 2c3f
00000190: 8710 ea3f 2158 9c3f 145f 2d3f bf5b 903f
000001a0: d6b7 483f b960 f53e a48a d23f 46a3 503f
000001b0: 7b3e 163f abf1 bd3f 0bed fa3e 0c5e dd3f
000001c0: dc83 dd3e 562b 9d3f fe2a b53f cd18 e23f
000001d0: 32ce 4c3f f624 7b3f f7e8 453f 83bc 923f
000001e0: 8d5f 453f 3bcb 573f b50e ea3f b6dc 993f
000001f0: ca16 e13e 18e0 b33f b2cc 7a3f f827 dd3f
00000200: 22b8 373f 2ab1 a83e f731 083f a71f 0c3f
00000210: fa19 043f 3fd6 4a3f 14ed a33f 2d25 7b3f
00000220: 69dc 753f 7b34 7c3f 3b92 223f c100 703f
00000230: 0ba0 703f 40d0 043f 8dd8 f43e 9ea0 a43e
00000240: 1c37 e43f 9389 543f 4266 1b3f 19cc 143f
00000250: 42b1 853f f418 e13f 80b8 2c3f 0708 793f
00000260: fada f83e 8144 053f bae9 c13f 65d9 9e3f
00000270: 730c d33f d85d b73e 05cb d83e e8cb 833f
00000280: 3bb1 573f 2b6d 0b3f a159 6c3f faa9 de3e
00000290: 25fe 643e aecf d03f a384 233f d4c0 6e3f
000002a0: 5cd5 0e3f 10b6 033f 61e2 fc3e fdf7 e63e
000002b0: b3ec 833f 7e57 df3f 2017 7a3f 5685 713f
000002c0: 37d0 163f e4b4 5d3f 4a2e 643f 91f0 023f
000002d0: 01e5 8c3f fcae f23e cf6a 803f d04c 8a3f
000002e0: 924d 1d3f 40e5 4f3f d117 f73e 92d1 8c3f
000002f0: 8685 323f 83f7 293f c215 c43f 6ce7 583e
00000300: 7e33 5f3f 4391 893f 30f5 183f 7cc0 553f
00000310: 6f9f 8a3f 1bc0 853f 4a02 9f3f fd30 c73f
00000320: 28a3 0d3f cfb2 763f 3c3a 083f 70ee c33f
00000330: 4440 a93f a363 5d3f ce75 843f e958 723f
00000340: c2f2 403f cfec 0f3f ce80 153f 3020 293f
00000350: 90f8 b63f bdd4 0f3f 9cf1 233f 5224 253f
00000360: adfb 573f 9091 2b3f 5a5b a73f 0bf4 133f
00000370: 554f 7c3f 248f ee3e 47b4 7e3f 6dd6 723f
00000380: be1b cb3f d115 a23f c5ad 2c3f 0c07 743f
00000390: c193 983f 5256 de3f 58e2 b63f 1467 d23e
000003a0: ab9e af3f 1560 a33f 344b 0c3f 9a96 a23f
000003b0: 853b 8b3f a6c9 4a3f 628a 153f 6975 db3f
000003c0: 1aa3 cb3e 98aa 2b3f 64bf 153f ff79 c33f
000003d0: 64cc 6c3f a1d3 663f 5d17 213f f5a7 4a3f
000003e0: f400 493f 4b65 223f 9736 5b3f a1af de3f
000003f0: 833f 2b3f 23db bf3f 26e0 323f 63e7 a83f

bn1.bias f4 [400]
-0.20983829 -0.40512753 -0.82209784 -0.4543629 -0.36444175 -0.37090966 -0.64749086 -0.84095776
-0.40596244 -0.45501626 -0.10279103 -0.27383965 -0.8173653 -0.39302778 0.002341627 -0.5709826
-0.064022884 -0.30609578 -0.12666446 -0.4847611 -0.5485084 0.083733484 -0.22207682 -0.2700374
-0.47652742 -0.32350552 -0.4988203 -0.037796576 -0.051000673 -0.36915323 0.024940224 -0.53743434
-0.03283863 -0.344173 -0.5082277 -0.20307858 -0.4210756 -0.5133981 -0.37299013 -0.25520396
0.09237385 -0.33041003 -0.3885474 -0.03347326 -0.374665 -0.40662697 -0.26190847 -0.21176483
-0.48185483 -0.4394086 0.11283278 -0.48286924 -0.020436995 -0.43872693 -0.06371149 -0.20902877
-0.0723198 -0.36144486 -0.4388798 -0.10928762 -0.13352679 -0.08012536 -0.099507935 -0.5191528
-0.48045778 -0.50514007 -0.1875528 -0.55645 -0.3477566 -0.689376 -0.4220803 0.029200003
-0.57214814 -0.15908197 -0.74137956 0.11865343 -0.3631545 -0.33768064 -0.4343273 -0.45250836
-0.4616852 -0.2163298 -0.10156828 -0.18338183 -0.5300902 -0.3297879 -0.5091582 -0.43813813
0.107554294 -0.13132541 -0.30639338 -0.090309635 -0.43617868 -0.06972697 -0.7820045 -0.027030447
-0.453933 -0.5468709 -0.22754896 -0.4609639 -0.013913386 -0.08060647 -0.39421302 -0.020133013
-0.3377501 -0.5750434 0.09595264 -0.27166554 -0.54096717 0.17512274 -0.60352343 0.046036746
-0.64094657 -0.044279225 0.15085912 0.072508015 -0.373602 -0.2470285 -0.35916486 -0.16288987
-0.41363293 -0.19437678 0.19618195 -0.16401082 -0.6523318 -0.0017635932 -0.3171394 0.05357095
-0.41067797 -0.69836104 -0.513664 -0.4956073 -0.56797516 -0.3679629 -0.06714354 -0.08735994
-0.24231161 -0.13588057 -0.46674702 -0.20157014 -0.18547446 -0.5876114 -0.5343896 -0.6905724
0.0650155 -0.3110806 -0.5098795 -0.52493346 -0.19323191 0.13080008 -0.39848438 -0.1625178
-0.551223 -0.58236367 0.07410251 -0.044589203 0.11186495 -0.6952979 -0.59959334 -0.10099593
-0.26820996 -0.57390004 -0.1897644 -0.57817453 -0.7634182 0.079573795 -0.37839448 -0.30493623
-0.5176999 -0.5223858 -0.50882643 -0.58648 -0.22144231 -0.040034425 -0.18418986 -0.1775366
-0.52237326 -0.2503754 -0.113819554 -0.5653048 0.011691114 -0.6199194 -0.28406128 -0.12705804
-0.46745312 -0.31853446 -0.62100977 -0.059223514 -0.41862607 -0.38556662 0.0032798867 -0.8240364
-0.33413902 -0.027914817 -0.41400868 -0.3753496 0.0035169143 -0.08495567 -0.038815305 -0.036930256
-0.5182019 -0.084024176 -0.4984297 0.1984604 -0.0011057308 -0.29394448 -0.1846895 -0.18432775
-0.3526926 -0.48281217 -0.5364494 -0.4488259 0.0048442055 -0.46708924 -0.43906075 -0.45202234
-0.25853556 -0.39813045 -0.12228927 -0.5286873 -0.19146785 -0.60916406 -0.26185358 -0.22818089
0.13087882 0.0122205345 -0.32813528 -0.14287226 -0.031565335 -0.09218497 -0.04492273 -0.5963659
-0.061535593 -0.04289199 -0.496424 -0.105276175 -0.16571301 -0.3292809 -0.51318693 0.19823658
-0.64574295 -0.3504692 -0.48752046 0.0056898 -0.20937112 -0.25628173 -0.5059245 -0.32178304
-0.4104593 -0.40260306 -0.2699392 0.09784645 -0.45743465 -0.073706314 -0.34851664 0.0749922
00000000: d9df 56be e06c cfbe 0175 52bf 41a2 e8be
00000010: 1c98 babe dfe7 bdbe f6c1 25bf 0249 57bf
00000020: 4fda cfbe e4f7 e8be 1b84 d2bd b634 8cbe
00000030: da3e 51bf f03a c9be fb75 193b ea2b 12bf
00000040: 6e1e 83bd 96b8 9cbe 54b4 01be 9b32 f8be
00000050: 0c6b 0cbf 767c ab3d 1b68 63be 5842 8abe
00000060: 67fb f3be 84a2 a5be 6065 ffbe 95d0 1abd
00000070: 15e6 50bd a701 bdbe 714f cc3c 4c95 09bf
00000080: cd81 06bd 7237 b0be 361b 02bf d5f3 4fbe
00000090: 3997 d7be 0f6e 03bf 90f8 bebe 18aa 82be
000000a0: 802e bd3d 812b a9be afef c6be 421b 09bd
000000b0: 17d4 bfbe 6931 d0be de18 86be e1d8 58be
000000c0: adb5 f6be 2afa e0be df14 e73d a33a f7be
000000d0: 7c6b a7bc d1a0 e0be 2b7b 82bd a30b 56be
000000e0: 671c 94bd 4d0f b9be dab4 e0be 30d2 dfbd
000000f0: 3fbb 08be c418 a4bd d1ca cbbd 33e7 04bf
00000100: 90fe f5be dc50 01bf d70d 40be 8273 0ebf
00000110: 270d b2be f27a 30bf e91a d8be d834 ef3c
00000120: 4d78 12bf 62e6 22be 0dcb 3dbf 9200 f33d
00000130: 63ef b9be 7ae4 acbe 2660 debe 2daf e7be
00000140: 0162 ecbe 8f85 5dbe 0803 d0bd 72c8 3bbe
00000150: feb3 07bf f6d9 a8be 3158 02bf a453 e0be
00000160: 6d45 dc3d 2b7a 06be 98df 9cbe 42f4 b8bd
00000170: d052 dfbe 03cd 8ebd 7231 48bf f56e ddbc
00000180: e869 e8be bbff 0bbf 9802 69be 7603 ecbe
00000190: f8f4 63bc 0115 a5bd 4ad6 c9be fded a4bc
000001a0: 95ed acbe 0b36 13bf d182 c43d bf17 8bbe
000001b0: d37c 0abf 6053 333e 8380 1abf 0791 3c3d
000001c0: 1315 24bf 225e 35bd d07a 1a3e 157f 943d
000001d0: c348 bfbe 0af5 7cbe 75e4 b7be 9acc 26be
000001e0: b2c7 d3be b50a 47be ece3 483e 74f2 27be
000001f0: 38ff 26bf 5e28 e7ba 1860 a2be 366d 5b3d
00000200: 6244 d2be cac7 32bf 7c7f 03bf 3dc0 fdbe
00000210: d266 11bf a265 bcbe 8d82 89bd c5e9 b2bd
00000220: 8920 78be 4724 0bbe 77f9 eebe 6768 4ebe
00000230: 04ed 3dbe b36d 16bf c2cd 08bf 5ac9 30bf
00000240: d926 853d f545 9fbe 7787 02bf 0a62 06bf
00000250: 96de 45be 75f0 053e 2506 ccbe 116b 26be
00000260: f31c 0dbf c915 15bf 0fc3 973d 2ba3 36bd
00000270: 7319 e53d 0bff 31bf f37e 19bf f4d6 cebd
00000280: d152 89be 1deb 12bf 9951 42be 3f03 14bf
00000290: 606f 43bf 96f7 a23d ecbc c1be 9a20 9cbe
000002a0: fb87 04bf 13bb 05bf 7342 02bf 8e23 16bf
000002b0: c6c1 62be 23fb 23bd 449c 3cbe 28cc 35be
000002c0: 41ba 05bf 3431 80be 3a1a e9bd d1b7 10bf
000002d0: 168c 3f3c 0ab3 1ebf 7b70 91be 811b 02be
000002e0: 0456 efbe f316 a3be 7ffa 1ebf 5b94 72bd
000002f0: 2856 d6be fd68 c5be 5ef3 563b 0df4 52bf
00000300: 4514 abbe 9dad e4bc f2f8 d3be d32d c0be
00000310: 087c 663b 3dfd adbd ccfc 1ebd 2e44 17bd
00000320: e1a8 04bf de14 acbd 2d32 ffbe 3439 4b3e
00000330: 2bee 90ba e47f 96be 3f1f 3dbe 6ac0 3cbe
00000340: 2094 b4be 2833 f7be bf54 09bf 82cc e5be
00000350: 24bc 9e3b 5226 efbe 92cc e0be 796f e7be
00000360: c65e 84be c1d7 cbbe cc72 fabd 0d58 07bf
00000370: 2610 44be 2df2 1bbf ac11 86be 40a8 69be
00000380: 1905 063e a338 483c 5901 a8be 1b4d 12be
00000390: a74a 01bd 79cb bcbd e600 38bd 70ab 18bf
000003a0: bf0c 7cbd 83af 2fbd 492b febe 099b d7bd
000003b0: acb0 29be 8297 a8be 3860 03bf 88fe 4a3e
000003c0: 694f 25bf b370 b3be 489c f9be 8071 ba3b
000003d0: 6265 56be 5c37 83be 4584 01bf bfc0 a4be
000003e0: b927 d2be fd21 cebe 7935 8abe b863 c83d
000003f0: e034 eabe 56f3 96bd c670 b2be 8395 993d

fc2.weight f4 [300, 400]
-0.022641372 0.056116134 -0.02188665 0.101243146 0.059236474 0.0948667 -0.09377784 0.11078549
-0.0054092994 0.07576585 0.10231862 0.04692176 -0.034024227 0.079219714 -0.72062284 -0.070362195
-0.054211225 0.120265305 -0.19242704 -0.017989613 -0.017832782 0.14306971 -0.08555458 0.12745287
0.10385265 -0.28797323 -0.031718705 -0.08819857 -0.041750446 -0.06802294 -0.12731391 0.03556377
0.11536971 -0.060120907 -0.032916095 -0.10776917 0.008939707 0.14940597 0.05628923 -0.08959387
-0.1938462 -0.1028426 -0.12889704 0.014012119 0.05381122 0.021506118 -0.05362906 0.1840098
-0.06830082 0.06301502 0.24794872 0.05609666 -0.06911814 0.11682269 0.08105439 0.08311779
0.05806961 0.18292706 -0.062181305 0.08420779 0.02143333 0.08732249 -0.14944822 -0.119956926
0.18836114 0.09674567 -0.019822082 0.09598983 -0.16702211 -0.06777657 0.13474655 -0.09574772
-0.040207982 0.074360415 0.16187415 -0.44452304 -0.090777084 -0.068228036 -0.0616458 0.08101959
0.09817351 0.13948728 0.008325979 0.076449566 -0.09923271 0.008955409 0.19419476 -0.012239279
0.075612955 -0.037692595 0.05376407 -0.02323492 0.002192263 0.14602304 0.111524224 -0.1500587
-0.018158097 0.06188019 0.08921313 -0.05677199 -0.097783275 -0.04777861 -0.14132486 -0.0016187622
0.017505437 0.02224282 0.16574933 0.13019684 -0.264484 0.028791482 -0.028449573 -0.12040467
-0.036018234 -0.04771274 0.060311213 -0.19242677 0.06436331 0.19453391 0.26886922 0.040320218
-0.031347785 -0.1628157 -0.11022074 0.1963046 0.06960868 -0.11269497 -0.1584759 -0.027605077
0.23197073 -0.10940922 -0.010984769 0.019814564 -0.051489748 0.17685282 0.010684645 -0.030319177
-0.1527557 0.05144797 0.009211406 0.07551905 -0.12815022 -0.07814198 0.00022499713 -0.05457463
-0.31608063 0.08390275 -0.085808985 0.01606148 -0.08259903 -0.018493488 0.11600433 0.12531143
0.042618852 -0.032153405 -0.1391453 0.010188391 0.19299114 -0.09137433 0.039881393 -0.0412204
-0.17900066 0.037788674 0.20317574 0.07811461 0.08174954 -0.18757392 -0.15545191 -0.0091544725
-0.051210247 0.004215412 -0.113059506 0.18505833 -0.11572993 -0.1064648 -0.07484307 0.13953513
0.014332284 -0.011741287 0.09907261 -0.07085544 -0.106966496 -0.010650381 0.036673546 0.034008846
-0.048145793 0.16111588 0.020126652 0.073851265 0.031968765 0.0036770578 -0.21791185 0.045262646
0.053495772 0.011645801 0.034544773 0.10220355 0.055245142 0.032934554 -0.024279943 -0.018239986
-0.1383766 0.19539511 0.07037145 0.21198855 0.09846389 0.07416498 -0.07997822 0.08873152
0.08645261 0.027358187 0.000105262356 0.04912939 -0.03243624 0.023811836 0.14885099 -0.104953915
-0.023760965 -0.015284701 -0.060037266 0.13842292 0.11263207 -0.043514974 -0.04399888 -0.0025144878
0.07855656 0.07602766 0.06861428 -0.04405614 0.1687061 -0.0072743027 -0.11218105 -0.07250817
0.10521717 0.14907697 -0.019312408 -0.04007196 0.045823842 0.06769502 0.16590013 0.1182658
-0.12354305 -0.08664744 -0.0848214 -0.012729611 0.04453686 0.08573707 0.013290321 0.00472899
-0.14530335 -0.09573665 0.1727812 -0.052654933 -0.09628468 0.03642312 0.004839543 -0.06685737
00000000: 667a b9bc 08da 653d a24b b3bc 9158 cf3d
00000010: f2a1 723d 7949 c23d 990e c0bd 81e3 e23d
00000020: 7e40 b1bb 202b 9b3d 6d8c d13d 0831 403d
00000030: fd5c 0bbd f23d a23d bd7a 38bf 0e1a 90bd
00000040: 970c 5ebd a84d f63d 980b 45be f45e 93bc
00000050: 0e16 92bc de80 123e 3d37 afbd 0183 023e
00000060: b3b0 d43d 3a71 93be 79eb 01bd 74a1 b4bd
00000070: 8402 2bbd 9c4f 8bbd 945e 02be 51ab 113d
00000080: f446 ec3d 5741 76bd 07d3 06bd 15b6 dcbd
00000090: d977 123c e1fd 183e 898f 663d fe7c b7bd
000000a0: 9e7f 46be 249f d2bd 96fd 03be 1693 653c
000000b0: 2769 5c3d 992d b03c 25aa 5bbd 116d 3c3e
000000c0: 4de1 8bbd 050e 813d 45e6 7d3e 9dc5 653d
000000d0: d08d 8dbd bc40 ef3d d8ff a53d a939 aa3d
000000e0: 66da 6d3d 3b51 3b3e d3b1 7ebd 2275 ac3d
000000f0: f394 af3c 22d6 b23d f408 19be faab f5bd
00000100: bee1 403e 9822 c63d eb61 a2bc 5196 c43d
00000110: d807 2bbe 71ce 8abd 00fb 093e 6117 c4bd
00000120: 20b1 24bd 464a 983d 56c2 253e 8698 e3be
00000130: 56e9 b9bd 24bb 8bbd 4e80 7cbd 99ed a53d
00000140: 310f c93d c1d5 0e3e b069 083c 9791 9c3d
00000150: 853a cbbd b5b9 123c feda 463e 4287 48bc
00000160: f7da 9a3d 8d63 1abd b737 5c3d 2957 bebc
00000170: 12ac 0f3b 1087 153e d066 e43d fda8 19be
00000180: 4ac0 94bc 1576 7d3d 60b5 b63d bf89 68bd
00000190: 9942 c8bd 81b3 43bd 77b7 10be a52c d4ba
000001a0: 9067 8f3c 9336 b63c 31ba 293e 5252 053e
000001b0: 726a 87be 1ddc eb3c 140f e9bc b996 f6bd
000001c0: db87 13bd 6f6e 43bd e408 773d 860b 45be
000001d0: e9d0 833d e633 473e 3aa9 893e d026 253d
000001e0: 8966 00bd 29b9 26be 69bb e1bd 1304 493e
000001f0: ff8e 8e3d 9fcc e6bd 8247 22be 0b24 e2bc
00000200: bc89 6d3e f111 e0bd 76f9 33bc 2752 a23c
00000210: eae6 52bd e818 353e a60e 2f3c ec5f f8bc
00000220: fd6b 1cbe 1bbb 523d 70eb 163c bba9 9a3d
00000230: d039 03be e708 a0bd 35ed 6b39 a689 5fbd
00000240: 52d5 a1be 34d5 ab3d 9fbc afbd 5d93 833c
00000250: ae29 a9bd a87f 97bc ae93 ed3d a451 003e
00000260: 1b91 2e3d 4ab3 03bd 1b7c 0ebe 36ed 263c
00000270: 789f 453e 7722 bbbd ac5a 233d b9d6 28bd
00000280: f34b 37be 4cc8 1a3d 4d0d 503e 8dfa 9f3d
00000290: 4e6c a73d 6113 40be c92e 1fbe a4fc 15bc
000002a0: d6c1 51bd 7021 8a3b be8b e7bd ee7f 3d3e
000002b0: d003 edbd 380a dabd 5347 99bd 4ce2 0e3e
000002c0: f5d1 6a3c 875e 40bc 95e6 ca3d a81c 91bd
000002d0: 4011 dbbd f07e 2ebc 0037 163d dc4c 0b3d
000002e0: 8634 45bd 90fb 243e a6e0 a43c 553f 973d
000002f0: aef1 023d cbfa 703b 4924 5fbe 5365 393d
00000300: 621e 5b3d 08ce 3e3c d27e 0d3d 1850 d13d
00000310: bb48 623d 62e6 063d bbe6 c6bc 066c 95bc
00000320: 98b2 0dbe a815 483e e81e 903d 8713 593e
00000330: 70a7 c93d cfe3 973d 9fcb a3bd dfb8 b53d
00000340: 110e b13d 471e e03c 4cc0 dc38 e63b 493d
00000350: dddb 04bd 0a11 c33c 656c 183e 14f2 d6bd
00000360: 5ba6 c2bc af6c 7abc a3e9 75bd bdbe 0d3e
00000370: a5ab e63d c23c 32bd 2b38 34bd 1bca 24bb
00000380: 43e2 a03d 64b4 9b3d a585 8c3d 3674 34bd
00000390: 4bc1 2c3e 465d eebb 2ebf e5bd 2a7f 94bd
000003a0: 1a7c d73d a2a7 183e 0e35 9ebc 7f22 24bd
000003b0: c8b1 3b3d b0a3 8a3d b9e1 293e 5735 f23d
000003c0: 2304 fdbd 3774 b1bd d8b6 adbd dc8f 50bc
000003d0: 486c 363d eb96 af3d a6bf 593c a5f5 9a3b
000003e0: 67ca 14be 9411 c4bd 8eed 303e b3ac 57bd
000003f0: e730 c5bd 6930 153d 0795 9e3b 84ec 88bd

fc2.bias f4 [300]
0.0428617 0.18183352 0.01915431 -0.05279108 0.010921781 0.12922621 -0.074438006 0.004779809
-0.062319044 0.006583312 0.22442143 -0.029900977 -0.11182948 0.026269782 -0.030635018 -0.019167937
-0.059804894 0.054359894 -0.005916258 -0.027681867 0.009784292 0.028910423 -0.005397651 0.117841855
-0.12445907 0.034671117 0.01009264 0.0922602 0.0094764605 0.009649758 -0.021762868 -0.037197523
-0.043154232 -0.1928915 0.09179991 -0.15703365 0.023133403 -0.034563094 0.029642921 -0.030510353
-0.054184098 0.10168404 -0.0076344404 -0.058057576 0.0016280051 -0.1491292 0.021437632 0.08979532
-0.0031036665 0.24426846 0.13411996 -0.026940387 -0.2391034 0.17590018 0.06504551 -0.03185271
0.11005988 0.04007971 -0.038115297 0.07879711 0.114209734 0.016139477 0.072962195 -0.080417275
-0.02381614 0.069600455 0.24939983 0.0058355043 0.08847321 0.11922428 -0.19089597 -0.061661728
-0.08669153 0.23960142 -0.054080047 0.08071223 -0.016918413 -0.004793862 0.12323599 0.0034991477
0.061891075 0.04792005 -0.05853122 -0.028096935 0.009606632 0.05212149 0.037931833 -0.008448027
-0.058071066 0.0306342 0.07590938 -0.13823964 -0.19531994 0.06771357 -0.12369859 -0.049823083
-0.002590978 0.058885865 -0.07206547 0.042255864 -0.037102103 -0.014768861 -0.06555334 0.19757658
-0.22594257 -0.21182987 -0.06457847 0.05948269 -0.023148227 0.06045133 -0.024366766 0.006791334
-0.079385154 -0.0076445807 0.03264768 -0.034486614 -0.0009226573 0.0828339 -0.0038452118 0.012651461
-0.07088975 0.0844681 0.10551228 0.10719485 -0.07992159 0.19723268 -0.18967369 -0.078150384
0.07230431 -0.060702063 -0.038169827 -0.0061593014 -0.039768983 -0.013294471 -0.04727444 0.034771387
-0.016755788 -0.1594165 -0.07440803 -0.08710841 0.28242782 -0.069465324 0.008880825 0.08207508
0.059007622 0.17969577 0.17250803 0.03517546 0.26505122 0.11214326 -0.062125966 0.2235585
0.048515882 -0.05791188 -0.022130687 0.16873929 -0.022430703 -0.0371033 0.0823699 0.05699429
0.053856444 0.029149279 0.13634162 0.1261263 -0.20694824 0.16028154 -0.14358686 -0.03484454
0.02735316 -0.028344553 -0.25836638 0.033822905 -0.09622428 0.03315853 -0.30654013 0.091369845
0.003567708 0.031332355 -0.0010067349 0.18970309 0.089731246 0.011984111 -0.018132705 0.012748475
0.012160807 0.040242534 -0.01331251 0.12499538 0.07690412 -0.10567742 -0.0192508 0.071675055
0.0135241635 -0.037803378 -0.036716063 0.026291413 0.24666765 -0.07289377 0.08754783 0.13231337
0.0016765264 -0.0598553 0.086678766 0.13011649 0.03518668 0.042250384 0.20794205 0.030891772
0.05051258 -0.24488841 0.11261895 0.0075896042 -0.11654016 0.010169652 0.091713265 0.0097167995
-0.07349938 -0.0021893955 -0.04236667 0.10428691 0.0392396 -0.018552616 -0.36285186 0.060252637
-0.009021578 0.09154566 -0.05184275 -0.015873628 -0.05559139 0.06848503 0.07812983 -0.024504067
-0.014091823 -0.008458903 0.025204008 0.037519928 0.12419839 -0.006457108 0.098784015 0.030525023
-0.10510545 0.045426004 -0.09168989 -0.027728189 -0.056833196 0.05144733 -0.23037764 0.03818006
-0.12945458 0.112813376 -0.0024845705 -0.006762635 0.1931936 0.1393696 -0.097309284 0.06327779
00000000: c08f 2f3d 9132 3a3e 80e9 9c3c 763b 58bd
00000010: 45f1 323c e053 043e f472 98bd f29f 9c3b
00000020: 4142 7fbd d3b8 d73b bbce 653e e5f2 f4bc
00000030: db06 e5bd ba33 d73c 4af6 fabc 1406 9dbc
00000040: faf5 74bd 7ba8 5e3d 2bdd c1bb 15c5 e2bc
00000050: 4c4e 203c 8dd5 ec3c c7de b0bb 1257 f13d
00000060: 66e4 febd 4d03 0e3d 9a5b 253c eaf2 bc3d
00000070: 2843 1b3c 051a 1e3c 0b48 b2bc 6e5c 18bd
00000080: 7ec2 30bd 5985 45be 9701 bc3d 6ecd 20be
00000090: 4382 bd3c 0892 0dbd b6d5 f23c d9f0 f9bc
000000a0: 25f0 5dbd b93f d03d 542a fabb c8cd 6dbd
000000b0: c962 d53a 53b5 18be f99d af3c 9ce6 b73d
000000c0: e266 4bbb 8321 7a3e be56 093e 16b2 dcbc
000000d0: 86d7 74be 2d1f 343e 9536 853d fd77 02bd
000000e0: 1367 e13d 9f2a 243d c91e 1cbd 6160 a13d
000000f0: cbe6 e93d f036 843c 346d 953d d0b1 a4bd
00000100: 111a c3bc af8a 8e3d ab62 7f3e c237 bf3b
00000110: 7131 b53d dc2b f43d 3c7a 43be 0291 7cbd
00000120: 548b b1bd 135a 753e 0a83 5dbd 744c a53d
00000130: 7c98 8abc d415 9dbb 2763 fc3d f551 653b
00000140: 7f81 7d3d d047 443d 6fbe 6fbd 8b2b e6bc
00000150: 2365 1d3c 587d 553d 695e 1b3d 9869 0abc
00000160: eddb 6dbd 93f4 fa3c 6176 9b3d b18e 0dbe
00000170: f301 48be 6aad 8a3d b055 fdbd 4a13 4cbd
00000180: 66cd 29bb 4e32 713d 1097 93bd 7c14 2d3d
00000190: 60f8 17bd 18f9 71bc d440 86bd 8451 4a3e
000001a0: 7d5d 67be eee9 58be b841 84bd 1fa4 733d
000001b0: 5aa1 bdbc d09b 773d d09c c7bc d789 de3b
000001c0: af94 a2bd 647f fabb 93b9 053d d641 0dbd
000001d0: 7cde 71ba d2a4 a93d f3ff 7bbb 1348 4f3c
000001e0: a52e 91bd 9cfd ac3d d216 d83d f988 db3d
000001f0: eead a3bd 5df7 493e d239 42be 4f0d a0bd
00000200: 4814 943d baa2 78bd f757 1cbd f7d3 c9bb
00000210: cde4 22bd 0ed1 59bc d8a2 41bd 716c 0e3d
00000220: 6f43 89bc 143e 23be 3d63 98bd e565 b2bd
00000230: 619a 903e d643 8ebd e180 113c fb16 a83d
00000240: fab1 713d 2b02 383e f2a5 303e 2514 103d
00000250: cbb4 873e 5eab e53d cc77 7ebd 85ec 643e
00000260: 97b8 463d 0235 6dbd 6a4b b5bc fec9 2c3e
00000270: 98c0 b7bc a1f9 17bd 8db1 a83d d872 693d
00000280: 9398 5c3d 78ca ee3c 239d 0b3e 4127 013e
00000290: 3dea 53be d820 243e 6f08 13be 26b9 0ebd
000002a0: bc13 e03c d632 e8bc 9948 84be e389 0a3d
000002b0: 3c11 c5bd 3dd1 073d d4f2 9cbe 1d20 bb3d
000002c0: 35d0 693b 5b56 003d 6bf4 83ba 8741 423e
000002d0: 04c5 b73d 0159 443c 0a8b 94bc fbde 503c
000002e0: 1f3e 473c 5bd5 243d b71c 5abc 94fd ff3d
000002f0: e87f 9d3d 676d d8bd dbb3 9dbc 5fca 923d
00000300: 7494 5d3c b7d7 1abd 9563 16bd 1761 d73c
00000310: 7296 7c3e 5449 95bd 474c b33d 287d 073e
00000320: e4be db3a d52a 75bd a384 b13d 423d 053e
00000330: e81f 103d bd0e 2d3d c3ee 543e be10 fd3c
00000340: 47e6 4e3d 07c4 7abe c4a4 e63d 37b2 f83b
00000350: 9bac eebd 9d9e 263c 2ad4 bb3d 3633 1f3c
00000360: d886 96bd f67b 0fbb ac88 2dbd 6094 d53d
00000370: b4b9 203d a8fb 97bc b8c7 b9be 78cb 763d
00000380: 3ecf 13bc 4a7c bb3d 1059 54bd 6909 82bc
00000390: ccb3 63bd e141 8c3d 8802 a03d c1bc c8bc
000003a0: 64e1 66bc 3697 0abc a378 ce3c 7fae 193d
000003b0: ba5b fe3d 2696 d3bb 464f ca3d 9d0f fa3c
000003c0: 8741 d7bd 9e10 3a3d e9c7 bbbd 3a26 e3bc
000003d0: edc9 68bd 6fba 523d 1ee8 6bbe b262 1c3d
000003e0: be8f 04be b30a e73d 2dd4 22bb 1899 ddbb
000003f0: 8bd4 453e e8b6 0e3e 174a c7bd c997 813d

bn2.weight f4 [300]
0.16808781 0.11167696 0.19917744 0.13384597 0.15735652 0.2664183 0.18363838 0.18900171
0.1615374 0.9125513 0.037007865 0.11503936 0.004122033 0.2925088 0.08336583 0.3542723
0.2758969 0.31250504 0.123964585 0.07824096 0.0009603466 0.51070017 0.25611997 0.066311784
0.003717537 0.13109745 0.27708575 0.05984418 0.68087333 -0.0078043845 0.2930065 0.25710738
0.1846664 -0.01403365 -0.005257092 0.1483499 0.29828143 0.16929716 0.53929645 0.06236115
0.18339613 0.26979104 0.27172515 0.11769396 0.19833885 0.091440305 0.19640355 0.06547626
0.5183053 -0.012875042 0.11151386 0.11730754 0.010960595 0.121576265 0.043170396 0.33566013
0.012235509 -0.017774677 0.14379509 0.25108573 0.5140179 0.0058516935 0.0047503435 0.0068826918
0.024964256 -0.047606725 -0.021769641 0.1084683 0.2278142 0.11346102 -0.05612638 0.24352127
-0.0025663076 -0.0025253636 0.51515317 0.16932188 0.35027787 0.21174921 0.24805951 0.32475114
0.20215407 0.16913866 0.23149179 0.30990276 0.43565574 0.35143054 0.3825108 0.22397447
0.20471436 0.86419374 0.086778596 0.04465797 0.026987897 0.16323285 0.21323377 0.22883686
0.8124199 0.045951147 0.15329362 0.10621621 -0.0075869043 0.38776708 0.30048433 0.031939354
0.028411133 0.035813425 0.5711965 0.3297136 0.07469396 0.1507531 0.2340276 0.008542984
0.311355 0.064877 0.07347272 -0.024032673 0.22691795 0.026060192 0.24089698 0.15671994
0.13815656 0.28553346 0.18274143 0.08804146 0.12423942 -0.06947204 0.030347722 0.18063553
0.13811499 0.26635998 0.85740954 0.17608902 0.2786087 0.44228387 0.01941373 0.73927903
0.11777503 0.015468147 0.1140494 0.122378096 0.02607193 0.24229172 0.23284446 0.11095181
0.25882336 0.017901575 0.091293655 0.12591428 0.042943656 0.10116114 0.24253283 -0.025183015
0.046938974 0.12771553 0.23961699 0.03491814 0.05160664 0.17763585 0.121576406 -0.02064905
0.29883903 0.29806077 0.051328942 -0.008528479 -0.024176378 -0.017732019 0.02007911 0.36582267
0.3649673 0.36663935 -0.027775161 -0.0006743148 -0.06709387 0.27136374 0.027302364 0.2016146
0.06525531 0.2560452 0.14236031 0.093557164 0.20541687 0.1751292 0.36489612 0.13030441
0.6087463 0.1853691 0.28811213 0.32280624 0.25009236 0.14540978 0.1797009 0.18886384
0.40400767 0.17048866 0.17606016 -0.008219782 -0.04774333 0.1648762 0.07060345 0.07424086
0.4226624 0.0068431385 0.20716445 0.013171905 0.13705505 0.1586653 0.024900284 0.40725476
0.304115 0.01469415 0.20864795 0.520436 0.033578448 0.10939291 0.12144279 0.11579439
0.094583146 -0.04676684 0.59348345 -0.014586061 0.19793426 0.2084092 0.027403539 0.09311692
0.094190255 0.035696864 0.65202045 0.22545032 0.40218973 0.32155883 0.16182758 0.32641107
0.899443 0.1360762 0.101277635 0.08573515 0.015450669 0.3033194 0.26805177 0.014913802
-0.021203674 0.15356721 0.017808285 0.32573625 0.062068723 0.3298728 0.03458792 0.19117577
-0.028679775 0.094950326 0.25128382 0.23926234 0.15568586 0.0821298 0.105318576 0.2671063
00000000: 361f 2c3e e4b6 e43d 2cf5 4b3e eb0e 093e
00000010: 1122 213e fb67 883e b30b 3c3e aa89 413e
00000020: 0f6a 253e f69c 693f 8f95 173d c299 eb3d
00000030: 1e12 873b b7c3 953e b4bb aa3d 2e63 b53e
00000040: 5c42 8d3e a900 a03e 25e1 fd3d cc3c a03d
00000050: c5bf 7b3a 3fbd 023f 2822 833e 79ce 873d
00000060: eca1 733b 693e 063e 2fde 8d3e 2c1f 753d
00000070: b74d 2e3f ecbb ffbb f304 963e 94a3 833e
00000080: 3019 3d3e 65ed 65bc af43 acbb 09e9 173e
00000090: 58b8 983e 3c5c 2d3e 550f 0a3f 686e 7f3d
000000a0: 32cc 3b3e 0d22 8a3e 8f1f 8b3e 8809 f13d
000000b0: 5719 4b3e 0e45 bb3d 031e 493e 6b18 863d
000000c0: a8af 043f d7f1 52bc 6161 e43d ef3e f03d
000000d0: 1194 333c fafc f83d 71d3 303d a5db ab3e
000000e0: 7277 483c 339c 91bc 053f 133e 4f8e 803e
000000f0: ad96 033f 90bf bf3b c5a8 9b3b 3488 e13b
00000100: d781 cc3c 45ff 42bd 3f56 b2bc a124 de3d
00000110: 2048 693e 405e e83d c6e4 65bd a45d 793e
00000120: 7f2f 28bb 9280 25bb 14e1 033f b762 2d3e
00000130: 9f57 b33e c9d4 583e 5003 7e3e c845 a63e
00000140: 7a01 4f3e af32 2d3e 2f0c 6d3e 93ab 9e3e
00000150: 450e df3e b4ee b33e 75d8 c33e 9059 653e
00000160: a4a0 513e cd3b 5d3f fab8 b13d 47eb 363d
00000170: b915 dd3c 8326 273e f459 5a3e 3654 6a3e
00000180: c0fa 4f3f 4537 3c3d 01f9 1c3e e287 d93d
00000190: 919b f8bb 6889 c63e 15d9 993e d7d2 023d
000001a0: 77be e83c 19b1 123d ef39 123f 39d0 a83e
000001b0: 26f9 983d 055f 1a3e eea4 6f3e dff7 0b3c
000001c0: ec69 9f3e 3cde 843d de78 963d 2be0 c4bc
000001d0: 2e5d 683e 2f7c d53c b3ad 763e 317b 203e
000001e0: ea78 0d3e 7131 923e 9220 3b3e 154f b43d
000001f0: 3d71 fe3d 5b47 8ebd c99b f83c 85f8 383e
00000200: 046e 0d3e 5660 883e 317f 5b3f ae50 343e
00000210: cda5 8e3e 0873 e23e 8b09 9f3c 6441 3d3f
00000220: 0934 f13d 1c6e 7d3c bb92 e93d 5ea1 fa3d
00000230: cd94 d53c 521b 783e c76e 6e3e b43a e33d
00000240: 7f84 843e 53a6 923c 2bf8 ba3d acef 003e
00000250: b0e5 2f3d 922d cf3d 875a 783e 9c4c cebc
00000260: 1543 403d dcc7 023e 285e 753e 5306 0f3d
00000270: 7c61 533d 2ce6 353e 0dfd f83d 3228 a9bc
00000280: 6e01 993e 6c9b 983e 4c3e 523d 09bb 0bbc
00000290: 8a0d c6bc bd42 91bc f27c a43c 1c4d bb3e
000002a0: fedc ba3e 27b8 bb3e bc88 e3bc 80c4 30ba
000002b0: 8368 89bd 30f0 8a3e 35a9 df3c 0f74 4e3e
000002c0: 93a4 853d 5b18 833e e7c6 113e e69a bf3d
000002d0: cd58 523e 1255 333e aad3 ba3e 856e 053e
000002e0: ccd6 1b3f 66d1 3d3e 6f83 933e dc46 a53e
000002f0: 1b0c 803e 4de6 143e 8303 383e 8665 413e
00000300: 18da ce3e 9494 2e3e 1d49 343e 44ac 06bc
00000310: 838e 43bd 4ed5 283e 8b98 903d 980b 983d
00000320: 3567 d83e 683c e03b eb22 543e f9ce 573c
00000330: 2958 0c3e 2879 223e aefb cb3c b283 d03e
00000340: f6b4 9b3e bbbf 703c cfa7 553e 4b3b 053f
00000350: 8e89 093d 6409 e03d ffb6 f83d 9c25 ed3d
00000360: cfb4 c13d 968e 3fbd 88ee 173f 60fa 6ebc
00000370: 47af 4a3e 3969 553e 637d e03c 15b4 be3d
00000380: d2e6 c03d e036 123d d0ea 263f 73dc 663e
00000390: d0eb cd3e 5ca3 a43e 21b6 253e 5a1f a73e
000003a0: e541 663f 8f57 0b3e a66a cf3d e995 af3d
000003b0: ce24 7d3c ae4c 9b3e 153e 893e 0559 743c
000003c0: 54b3 adbc b940 1d3e aee2 913c e7c6 a63e
000003d0: c63b 7e3d 16e5 a83e 10ac 0d3d 95c3 433e
000003e0: d9f1 eabc 5175 c23d 46a8 803e 3001 753e
000003f0: 1d6c 1f3e ab33 a83d 44b1 d73d 28c2 883e

bn2.bias f4 [300]
0.003513564 -0.20157449 -0.06477663 0.16152215 -0.032058332 -0.07242225 0.118369125 0.042629927
-0.019924957 -0.1164476 -0.13939552 -0.006827248 -0.0012742474 -0.06635238 0.051558007 -0.052607734
0.08052717 -0.06467709 0.043365493 0.003085325 0.0017044174 -0.5564587 -0.024622107 -0.08728022
0.070603445 -0.03084829 0.057361502 -0.06709378 -0.1070469 -0.0020353463 0.036534023 0.2226065
0.0071660816 0.039500173 0.0060573234 0.11970741 0.04488576 -0.055033907 0.10307874 0.02680079
0.079926915 -0.05367174 -0.030621422 0.03956825 -0.019565554 0.11758792 0.06869922 0.02514074
-0.07036042 -0.06257574 -0.17148009 -0.00600161 0.00946251 -0.10010809 -0.019291006 0.071781576
-0.0651306 0.022536017 0.016198805 -0.07040805 0.18957156 -0.0029929415 -0.008434815 -0.04709249
-0.024598813 -0.004178941 -0.079213224 -0.019431805 -0.10919302 -0.027472733 0.016939674 0.05865193
0.006191692 -0.110302374 -0.039909285 -0.05749357 0.06618705 -0.08726195 -0.16295736 -0.061257955
-0.08567846 -0.02311543 0.08191851 0.066443264 0.043818172 -0.09118113 -0.10028671 0.019932363
0.086295694 0.102974795 -0.014049532 0.15597205 -0.023069609 -0.0020447208 0.1019533 0.10294725
-0.026431203 -0.0023725657 0.13436933 -0.023122305 -0.006291973 0.2602299 0.05598781 0.021364452
0.12297264 0.16965374 0.052841067 -0.033300992 0.013569588 -0.047673643 0.016307967 -0.043099374
0.06815514 -0.023224257 0.009750988 -0.024366735 0.13047583 -0.060141467 -0.001062433 0.07459577
0.011888452 -0.07497568 -0.17269273 -0.1055009 0.009189747 -0.024698604 -0.024334222 0.11479148
-0.1349349 0.10861421 -0.11366207 0.05288872 0.056960285 0.08635888 0.008377235 0.14816348
0.02575693 -0.017047903 0.12052789 0.11188994 -0.098536484 0.08385079 0.05673221 -0.003521747
-0.07931114 -0.004840643 -0.077283315 0.09850683 -0.11226485 -0.041485418 0.0856673 -0.10648789
-0.018496357 0.11352966 0.13103661 -0.06228219 0.017303022 -0.056555804 -0.01253848 0.0014509778
0.017586678 -0.13919786 -0.16921416 0.009823971 0.025781091 -0.01633861 0.037185192 -0.0168885
-0.05172112 0.07237578 0.031501852 0.030335983 0.045012645 -0.017794052 0.15415926 -0.07208983
0.035052184 0.13133796 -0.025965378 -0.13282645 -0.028219795 0.014386072 -0.16229126 -0.0022752965
-0.066586226 -0.0006359194 -0.08220129 -0.083299704 -0.15227142 0.14329551 0.07986419 -0.13988476
0.16754448 -0.0029434839 0.0322856 0.013739502 0.0009976511 0.05370964 -0.1185496 -0.021550883
0.043873493 0.0025929732 -0.046588276 -0.101009056 0.022045165 -0.12583008 -0.1338317 -0.058301393
-0.051069316 0.05718853 -0.10092659 0.5998738 0.117729485 0.0060082464 -0.1285971 0.00063067605
0.020980079 -0.0025679884 -0.040804204 0.011402469 0.007437073 0.027070532 0.2020913 -0.10215975
-0.011062311 -0.0076161604 0.00602163 -0.13522537 -0.11709641 -0.061257634 -0.14078142 -0.13048193
0.06904731 0.037123863 -0.07429046 -0.05179339 0.01830159 0.029383717 -0.11227501 0.008798866
-0.006713864 0.041407708 0.056304917 -0.0064103077 -0.015671521 -0.099215284 0.1463894 -0.056011807
-0.086907215 -0.17694199 0.009099474 0.052344266 -0.20171781 -0.027724009 0.086428694 0.028489098
00000000: d243 663b 8b69 4ebe 9ca9 84bd 1066 253e
00000010: 994f 03bd 1e52 94bd 836b f23d b89c 2e3d
00000020: aa39 a3bc 147c eebd b3bd 0ebe 1bb7 dfbb
00000030: a604 a7ba c2e3 87bd 7d2e 533d 357b 57bd
00000040: 6eeb a43d 6c75 84bd 04a0 313d 2a33 4a3b
00000050: c266 df3a 1474 0ebf 4db4 c9bc f9bf b2bd
00000060: 8a98 903d 8eb5 fcbc e5f3 6a3d 7768 89bd
00000070: 683b dbbd 7263 05bb b3a4 153d f5f2 633e
00000080: 73d1 ea3b efca 213d 837c c63b 2929 f53d
00000090: 21da 373d 3c6b 61bd f21a d33d 558d db3c
000000a0: b9b0 a33d e6d6 5bbd c7d9 fabc 5112 223d
000000b0: f147 a0bc efd1 f03d 2db2 8c3d f4f3 cd3c
000000c0: 2019 90bd b627 80bd 7a98 2fbe 27a9 c4bb
000000d0: a508 1b3c 7805 cdbd 2c08 9ebc 3802 933d
000000e0: 3163 85bd 749d b83c 5bb3 843c 1932 90bd
000000f0: 0c1f 423e 3a25 44bb 2e32 0abc 0ee4 40bd
00000100: 7383 c9bc 7fef 88bb 8b3a a2bd 732f 9fbc
00000110: 97a0 dfbd 7f0e e1bc 12c5 8a3c 023d 703d
00000120: ade3 ca3b 36e6 e1bd eb77 23bd 617e 6bbd
00000130: 138d 873d 65b6 b2bd 4bde 26be 9fe9 7abd
00000140: 3078 afbd 925c bdbc e4c4 a73d 6813 883d
00000150: af7a 333d 2cbd babd 1e63 cdbd 3249 a33c
00000160: ccbb b03d 73e4 d23d 0230 66bc 23b7 1f3e
00000170: 7afc bcbc b900 06bb e4cc d03d 02d6 d23d
00000180: 4086 d8bc 0c7d 1bbb 1d98 093e fd6a bdbc
00000190: e52c cebb da3c 853e 7953 653d 8104 af3c
000001a0: 14d9 fb3d b6b9 2d3e e06f 583d 9f66 08bd
000001b0: fa52 5e3c 7045 43bd 4998 853c f888 30bd
000001c0: ec94 8b3d cc40 bebc 9cc2 1f3c bf9c c7bc
000001d0: 759b 053e e656 76bd 5641 8bba abc5 983d
000001e0: c8c7 423c d98c 99bd 5dd6 30be db10 d8bd
000001f0: 9890 163c ba54 cabc 9058 c7bc cc17 eb3d
00000200: 602c 0abe 2071 de3d a9c7 e8bd d8a1 583d
00000210: 304f 693d eddc b03d ac40 093c 2bb8 173e
00000220: 3200 d33c 0ba8 8bbc 54d7 f63d 8e26 e53d
00000230: 7fcd c9bd f7b9 ab3d 0960 683d 1ccd 66bb
00000240: e16d a2bd 429e 9ebb b746 9ebd f3bd c93d
00000250: 1deb e5bd 9dec 29bd 5672 af3d 5316 dabd
00000260: ac85 97bc 3d82 e83d 762e 063e 9c1b 7fbd
00000270: 11bf 8d3c 0fa7 67bd 326e 4dbc bc2e be3a
00000280: f011 903c e289 0ebe 7a46 2dbe b9f4 203c
00000290: de32 d33c 8cd8 85bc 804f 183d c059 8abc
000002a0: 86d9 53bd c139 943d 1608 013d 2b83 f83c
000002b0: 2e5f 383d d5c4 91bc eddb 1d3e d5a3 93bd
000002c0: e192 0f3d 757d 063e 58b5 d4bc a803 08be
000002d0: 332d e7bc 8fb3 6b3c ae2f 26be 241d 15bb
000002e0: 5c5e 88bd d4b3 26ba 2659 a8bd 0999 aabd
000002f0: 0aed 1bbe 0fbc 123e d68f a33d f33d 0fbe
00000300: c890 2b3e 77e7 40bb e83d 043d a61b 613c
00000310: 9ec3 823a a4fe 5b3d 22ca f2bd 7a8b b0bc
00000320: b1b4 333d dfee 293b 59d3 3ebd d6dd cebd
00000330: 1098 b43c 9ad9 00be 2d0b 09be 71cd 6ebd
00000340: 0f2e 51bd 853e 6a3d 9ab2 cebd 5491 193f
00000350: 281c f13d d3e0 c43b f5ae 03be f453 253a
00000360: 6ade ab3c b24b 28bb 4f22 27bd 6cd1 3a3c
00000370: b1b2 f33b 05c3 dd3c 06f1 4e3e 2239 d1bd
00000380: b23e 35bc fc90 f9bb 1851 c53b 8578 0abe
00000390: 3ed0 efbd 49e9 7abd 0129 10be 0e9d 05be
000003a0: ad68 8d3d 310f 183d 9925 98bd 4e25 54bd
000003b0: 37ed 953c 1fb6 f03c 71f0 e5bd 1e29 103c
000003c0: f9ff dbbb 219b 293d fc9f 663d 8f0d d2bb
000003d0: 9061 80bc 6231 cbbd 1ae7 153e a36c 65bd
000003e0: 69fc b1bd 4830 35be f615 153c f166 563d
000003f0: 1d8f 4ebe 761d e3bc 8701 b13d f861 e93c
